saved_models_1/125_2777_model.pt (torch, 701697 bytes, 11 tensors)

FC1.weight f4 [256, 36]
-0.18522272 0.01879637 0.32354283 -0.24197784 0.6439873 0.33543044 -0.21883997 -1.1560562
1.0333183 0.3717201 -1.1893526 0.40370432 -0.3379257 0.34168524 0.76364994 -0.45916966
-1.0421072 -0.7941365 0.94441056 0.3709651 1.1381664 0.49389213 -0.8800629 -0.58876806
1.4813491 -0.20582548 -1.2838088 0.1281223 0.19798513 0.23990655 0.23043883 0.37676674
-2.2903728 -0.33653927 0.7275831 -0.897197 1.500739 -0.56315494 -0.18727915 -0.080507725
-0.82991844 -0.12402525 0.6945164 -0.41294375 -1.3605031 -0.7418136 1.5854348 -0.82809037
-1.4564422 -0.58221227 0.56195676 -0.12005694 -1.4987675 -0.17329578 2.428223 0.6788954
-0.23938593 -0.8370379 0.28499463 0.5736422 -0.46444085 -2.288698 0.204411 0.08290632
-0.40745357 0.29381785 0.18496487 0.79213566 -3.0403872 -1.1971087 1.1292105 1.471522
-0.1974852 0.38660884 -0.23634179 0.07315372 -0.5390784 0.91169 -1.1664915 -1.460731
1.2426955 0.065339886 0.3720086 -0.039490853 -0.33825245 1.3145176 -0.23811534 -3.1467085
0.34456378 0.72522867 -0.12734967 0.6815136 -0.713394 0.13160409 0.66740036 0.10882961
-1.2292179 -0.50857884 1.0421675 -0.44008142 0.14885215 0.35112354 0.0065314095 -0.37014723
0.30056155 -0.39023525 -3.7150686 0.756898 -1.3280187 0.17909387 0.12642573 0.69719326
-0.4534207 -1.6606965 0.05831572 2.4895709 -1.2474726 -1.1723119 0.43267497 0.46854642
-0.68928945 -0.4509124 0.19083478 0.4644674 -1.1543003 -0.44046855 0.87923235 -0.4016183
-0.76740104 0.19392313 0.41235855 -0.038575396 -1.2396337 1.447525 1.3114717 0.013266338
-2.2896001 0.4141659 0.5349817 -3.3078344 -1.2869012 -0.059031602 1.2754328 -3.216938
-0.17746331 -0.1142874 0.114717245 0.021719202 1.2139453 0.26608723 -1.0164274 -1.0988917
4.375479 0.1923023 -3.2037413 0.6504981 0.9473805 0.073289916 -0.38717115 0.087834306
0.94354683 -1.2269082 -1.4700098 0.26420385 0.09043454 -0.642369 -0.40369445 1.4288727
0.60406256 -0.588477 0.56940657 0.17554379 -0.09764791 0.42149782 0.3226111 0.38587782
0.9410656 0.38873696 -3.5698621 -1.2986706 -0.6522312 -0.15194632 0.24923317 -0.2479398
0.4614199 0.40211782 -1.1842443 -2.1772976 2.2088337 0.27504432 -0.34426963 -1.0606991
-0.34431937 -0.27664617 -0.41956726 -0.4214307 0.46966225 0.72765464 0.77898526 -0.78791785
-0.661118 -0.11339446 0.6837678 -0.3992007 -1.9602389 0.5536606 0.36059996 0.28444287
0.21524285 -2.582734 -2.6760733 -1.0109521 1.4105307 -1.0463141 -2.6273835 -3.4127614
-0.13123156 -0.49552432 0.18803743 -1.0401992 0.72718227 -0.5053185 -0.22345997 -0.69157755
1.9958649 1.5555646 0.46947706 -0.18821198 0.08400147 -1.3811003 0.69765526 1.3863736
-0.5221779 -0.53687406 0.62191635 -0.035311926 0.7119412 -1.3901519 -0.38925263 0.55462146
0.52744704 -1.2167249 -0.861637 0.02099146 0.4712506 0.18525963 -0.4507622 -0.036746845
0.98044384 -1.8661487 -0.72690153 1.5768445 0.34233475 0.15990883 -0.39858615 -0.698528
00000000: 06ab 3dbe d8fa 993c 68a7 a53e 0ac9 77be
00000010: 5adc 243f 8abd ab3e 9617 60be a6f9 93bf
00000020: c643 843f 1952 be3e b53c 98bf 55b2 ce3e
00000030: 9904 adbe 5ef1 ae3e 907e 433f 4918 ebbe
00000040: c563 85bf 884c 4bbf e4c4 713f 23ef bd3e
00000050: 70af 913f 6edf fc3e cd4b 61bf 81b9 16bf
00000060: d99c bd3f eac3 52be d953 a4bf 7e32 033e
00000070: 9dbc 4a3e 10aa 753e 28f8 6b3e 92e7 c03e
00000080: 7895 12c0 e04e acbe e342 3a3f b4ae 65bf
00000090: 3718 c03f ec2a 10bf 1bc6 3fbe 3ce1 a4bd
000000a0: 8975 54bf f300 febd d4cb 313f 5d6d d3be
000000b0: f724 aebf 7fe7 3dbf 87ef ca3f bbfd 53bf
000000c0: b36c babf dd0b 15bf 66dc 0f3f 6ae0 f5bd
000000d0: 9dd7 bfbf 7374 31be 0168 1b40 17cc 2d3f
000000e0: 9621 75be 1e48 56bf d1ea 913e 37da 123f
000000f0: 31cb edbe 077a 12c0 1e51 513e caca a93d
00000100: c19d d0be 4b6f 963e 6e67 3d3e 67c9 4a3f
00000110: b495 42c0 dc3a 99bf f889 903f d55a bc3f
00000120: 8f39 4abe 98f1 c53e 9503 72be 9ed1 953d
00000130: 0b01 0abf 8464 693f 984f 95bf 3cf9 babf
00000140: a510 9f3f ebd0 853d e977 be3e 29c1 21bd
00000150: 6d2f adbe 1d42 a83f 82d4 73be ac63 49c0
00000160: aa6a b03e 96a8 393f f467 02be ad77 2e3f
00000170: fda0 36bf 39c3 063e c0da 2a3f 0fe2 de3d
00000180: 0357 9dbf 3932 02bf bf65 853f 5a52 e1be
00000190: b36c 183e 77c6 b33e 6f05 d63b f083 bdbe
000001a0: 34e3 993e eacc c7be afc3 6dc0 11c4 413f
000001b0: 84fc a9bf 6264 373e bf75 013e 427b 323f
000001c0: c226 e8be b491 d4bf 77dc 6e3d 2155 1f40
000001d0: 2fad 9fbf 510e 96bf 9387 dd3e 51e5 ef3e
000001e0: 4675 30bf fddd e6be 316a 433e acce ed3e
000001f0: 1dc0 93bf 1885 e1be 5f15 613f eaa0 cdbe
00000200: 6574 44bf c993 463e a920 d33e 3c01 1ebd
00000210: 51ac 9ebf 8048 b93f 4ede a73f 0e5b 593c
00000220: cf88 12c0 8e0d d43e 90f4 083f 8fb3 53c0
00000230: 2eb9 a4bf 1fcb 71bd 6241 a33f 50e2 4dc0
00000240: f1b8 35be 830f eabd e0f0 ea3d 78ec b13c
00000250: 8f62 9b3f 963c 883e 4b1a 82bf 7ca8 8cbf
00000260: ed03 8c40 e5ea 443e 190a 4dc0 0b87 263f
00000270: 8787 723f 0619 963d 4c3b c6be 79e2 b33d
00000280: 498c 713f 540b 9dbf 4829 bcbf ba45 873e
00000290: be35 b93d 4b72 24bf 0ab1 cebe 4de5 b63f
000002a0: d8a3 1a3f 6ea6 16bf a1c4 113f c0c1 333e
000002b0: a1fb c7bd 90ce d73e 482d a53e c791 c53e
000002c0: ade9 703f 8808 c73e 9f78 64c0 d73a a6bf
000002d0: a0f8 26bf d197 1bbe fb36 7f3e eee3 7dbe
000002e0: 3b3f ec3e 63e2 cd3e 5195 97bf d858 0bc0
000002f0: 885d 0d40 9cd2 8c3e 1c44 b0be fdc4 87bf
00000300: a14a b0be 91a4 8dbe 85d1 d6be c4c5 d7be
00000310: 9277 f03e 9347 3a3f 946b 473f fcb4 49bf
00000320: 073f 29bf 5b3b e8bd 680b 2f3f 0964 ccbe
00000330: 1ce9 fabf b3bc 0d3f 8fa0 b83e 7fa2 913e
00000340: 9f68 5c3e 844b 25c0 c944 2bc0 e166 81bf
00000350: 458c b43f 9fed 85bf 0d27 28c0 af6a 5ac0
00000360: 9161 06be 5db5 fdbe e28c 403e 3f25 85bf
00000370: 9e28 3a3f 8e5c 01bf b1d2 64be 3a0b 31bf
00000380: 8078 ff3f be1c c73f 4c5f f03e a4ba 40be
00000390: f608 ac3d e5c7 b0bf 8999 323f b174 b13f
000003a0: 73ad 05bf 9470 09bf e935 1f3f 3da3 10bd
000003b0: c741 363f 7ff0 b1bf 1f4c c7be acfb 0d3f
000003c0: c506 073f a4bd 9bbf 3e94 5cbf 48f6 ab3c
000003d0: c247 f13e b3b4 3d3e 4eca e6be dc83 16bd
000003e0: 5efe 7a3f f6dd eebf 3816 3abf 0ad6 c93f
000003f0: 8046 af3e 24bf 233e 7c13 ccbe bbd2 32bf

FC1.bias f4 [256]
0.01788082 -0.21783318 -0.42111927 0.027871886 0.18829364 0.18562664 -0.17983352 -0.389851
-0.5992003 -0.37128615 0.010238867 -0.098915055 -0.41933084 -0.38148496 -0.21893582 0.1613121
0.2954634 -0.09061967 0.37296697 0.1732037 -0.06643877 0.09328854 -0.63993466 0.29077274
-0.3188117 -0.0730713 -0.6911454 0.2533378 -0.8058434 0.09964105 -0.15770608 -0.40476206
-0.59731436 0.3718879 -0.030505145 0.55832887 -0.42819127 -0.30049357 -0.275352 -0.1969088
0.23695081 -0.39918503 0.08427526 -0.5466097 0.21090211 -0.123694144 -0.6290542 -0.2720018
-0.5029697 0.004885228 0.4242814 -0.1956024 -0.12198161 -0.05588175 0.09064254 -0.5071364
-0.15818517 -0.5751819 -0.06964546 -0.10919714 -0.18322355 0.18354931 0.11827168 0.07100557
-0.06197712 0.10978128 0.09800648 -0.14116932 -0.5118408 -0.08438699 -0.19689761 -0.33596474
0.2873554 0.7523104 -0.18643825 0.16413605 -0.5566242 -0.28330198 -0.7130797 0.3302959
-0.76588106 -0.3195665 0.13456087 -0.35372928 0.08562566 0.5381868 0.014545757 0.08637937
-0.28495404 0.20299979 0.030762488 -0.20230731 -0.4200711 0.40176392 0.112291045 -0.0074022664
-0.073951796 -0.33385375 -0.2651167 -0.68738025 -0.025622653 -0.017215047 -0.19504131 -0.45128733
-0.12953354 0.27530003 0.23380412 -0.1576392 0.09563886 -0.103118286 -0.23762377 -0.4131862
-0.24466223 -0.4807249 -0.52046466 0.1413669 -0.100370355 0.105573505 -0.4355849 -0.0059369197
-0.0819788 -0.046704624 -0.40545157 -0.21079956 -0.7394678 -0.39155632 -0.043436654 -0.51657254
-0.6647039 0.08316587 -0.32352278 0.330314 0.3708825 -0.07341755 0.22494783 -0.33733904
-0.16887045 0.31720296 -0.026613526 0.04287887 -0.23218334 0.04607455 0.036013402 0.0512848
-0.4666544 -0.35823363 0.2832278 0.5177951 -0.21285966 0.21320787 -0.83321947 -0.10832983
-0.01940996 -0.18280523 0.7174369 -0.1549486 -0.64042383 -0.16864096 0.40217686 -0.0996237
-0.22134207 0.095535636 0.5694321 0.13896732 0.048417274 0.28435147 -0.56458485 -0.051231127
-0.069783196 -0.24557129 -0.3505118 -0.6650266 0.44180685 0.2489346 -0.2734593 0.00016008574
-0.023895662 0.041763864 -0.89793175 -0.5960368 0.0512959 -0.56345266 -0.020016378 0.43090898
-0.23967578 -0.17699215 -0.07927922 -0.56223994 0.7504222 -0.3799116 0.11571763 -0.13094993
0.05373725 0.49492514 0.35008076 -0.26616263 -0.5772847 0.028436871 0.18457817 0.055716474
-0.22707175 -0.43250355 -0.027945712 -0.31950906 0.15023452 0.053655162 0.12988143 0.11154888
-0.38301316 0.13876703 -0.5303621 0.1739267 -0.3032265 -0.41794893 -0.6390548 -0.29427582
-0.37056023 -0.39932495 0.19387676 0.23510762 -0.38336882 0.041995086 -0.107780926 0.5587433
-0.47666457 -0.09870301 -0.5189856 -0.68610513 0.1547824 0.31490645 -0.059738237 -0.50141424
0.61300987 -0.35033572 -0.39734975 -0.33201614 -0.7217718 0.14781113 -0.193258 -0.1824756
0.0640377 -0.05081512 0.12590821 0.7498488 0.57336456 -0.19518475 -0.13377796 0.0039282707
-0.06784453 0.2050866 -0.21135117 0.025778353 -0.13397603 0.4800892 -0.37265107 -0.13976969
00000000: cc7a 923c a90f 5fbe f29c d7be 9553 e43c
00000010: 0cd0 403e e914 3e3e 4726 38be 8d9a c7be
00000020: 3165 19bf 3819 bebe ecc0 273c fa93 cabd
00000030: 88b2 d6be ff51 c3be b630 60be 002f 253e
00000040: fb46 973e ce96 b9bd 87f5 be3e 505c 313e
00000050: 0d11 88bd 100e bf3d c2d2 23bf 2ae0 943e
00000060: 4a3b a3be 68a6 95bd e8ee 30bf 7eb5 813e
00000070: c14b 4ebf 9b10 cc3d b47d 21be f93c cfbe
00000080: 98e9 18bf 1768 be3e ede5 f9bc a4ee 0e3f
00000090: e33b dbbe 4bda 99be f0fa 8cbe 76a2 49be
000000a0: 3ca3 723e fb61 ccbe 8298 ac3d 9dee 0bbf
000000b0: b9f6 573e 5b53 fdbd b209 21bf d243 8bbe
000000c0: 9fc2 00bf 4314 a03b 693b d93e ff4b 48be
000000d0: 7fd1 f9bd 43e4 64bd cca2 b93d b1d3 01bf
000000e0: 4bfb 21be 1f3f 13bf 47a2 8ebd c0a2 dfbd
000000f0: f49e 3bbe 5af4 3b3e 6c38 f23d 5e6b 913d
00000100: b8db 7dbd 02d5 e03d 9fb7 c83d b18e 10be
00000110: 0008 03bf 16d3 acbd 879f 49be 9203 acbe
00000120: 3f20 933e 6a97 403f abe9 3ebe 4813 283e
00000130: ec7e 0ebf f50c 91be 648c 36bf 8b1c a93e
00000140: c810 44bf 389e a3be 53ca 093e 011c b5be
00000150: 825c af3d 9cc6 093f 5451 6e3c abe7 b03d
00000160: 7fe5 91be 2ddf 4f3e 9d01 fc3c a629 4fbe
00000170: 8f13 d7be 00b4 cd3e d9f8 e53d b68e f2bb
00000180: 0a74 97bd e1ee aabe 60bd 87be 27f8 2fbf
00000190: 99e6 d1bc 9206 8dbc e9b8 47be 220f e7be
000001a0: 71a4 04be 20f4 8c3e 596a 6f3e 2c6c 21be
000001b0: 4ede c33d ae2f d3bd a553 73be 248d d3be
000001c0: bc88 7abe 9321 f6be 2c3d 05bf 7cc2 103e
000001d0: f98e cdbd ec36 d83d fc04 dfbe 7e8a c2bb
000001e0: 80e4 a7bd 594d 3fbd 5997 cfbe d7db 57be
000001f0: c34d 3dbf 127a c8be a2ea 31bd 193e 04bf
00000200: 092a 2abf de52 aa3d c7a4 a5be eb1e a93e
00000210: 50e4 bd3e f15b 96bd b958 663e b4b7 acbe
00000220: 60ec 2cbe 6d68 a23e 9c04 dabc c1a1 2f3d
00000230: 78c1 6dbe abb8 3c3d ca82 133d 0310 523d
00000240: 53ed eebe 666a b7be 3c03 913e 388e 043f
00000250: e2f7 59be 2a53 5a3e df4d 55bf 08dc ddbd
00000260: a301 9fbc 4b31 3bbe f2a9 373f d9aa 1ebe
00000270: d1f2 23bf 37b0 2cbe 20ea cd3e 8307 ccbd
00000280: 7fa7 62be 30a8 c33d 4dc6 113f 734d 0e3e
00000290: 3151 463d 8496 913e a288 10bf bbd7 51bd
000002a0: 7eea 8ebd 0a77 7bbe 4876 b3be 2f3f 2abf
000002b0: 8234 e23e b6e8 7e3e db02 8cbe b0dc 2739
000002c0: d6c0 c3bc 9610 2b3d dbde 65bf de95 18bf
000002d0: a61b 523d 6f3e 10bf 63f9 a3bc 1aa0 dc3e
000002e0: 916d 75be 6e3d 35be 255d a2bd f5ee 0fbf
000002f0: ab1b 403f c683 c2be 5dfd ec3d bd17 06be
00000300: 971b 5c3d d466 fd3e c93d b33e 7846 88be
00000310: eec8 13bf 71f4 e83c 0f02 3d3e f536 643d
00000320: 7f85 68be 1b71 ddbe 68ee e4bc b196 a3be
00000330: 14d7 193e 84c5 5b3d a3ff 043e bd73 e43d
00000340: 4d1a c4be f218 0e3e d0c5 07bf d719 323e
00000350: 8140 9bbe 67fd d5be 1899 23bf 52ab 96be
00000360: 12ba bdbe 5274 ccbe a187 463e 0dc0 703e
00000370: eb48 c4be 0a03 2c3d 3fbc dcbd cd09 0f3f
00000380: 610d f4be ce24 cabd 3edc 04bf 96a4 2fbf
00000390: 477f 1e3e 6b3b a13e 15b0 74bd af5c 00bf
000003a0: 37ee 1c3f 345f b3be 6d71 cbbe 05fe a9be
000003b0: 09c6 38bf cd5b 173e 6de5 45be e2da 3abe
000003c0: 3326 833d 8423 50bd 15ee 003e 17f6 3f3f
000003d0: 05c8 123f 83de 47be 17fd 08be b9b8 803b
000003e0: 13f2 8abd 3902 523e 716c 58be 202d d33c
000003f0: 0331 09be 40ce f53e 1fcc bebe c91f 0fbe

FC2.weight f4 [256, 256]
-2.9501047 0.51538354 0.37534016 -1.6265799 0.27404496 1.9661417 -0.42701772 -2.1841855
-1.3417598 0.55716276 -0.008060327 0.75102836 -1.448561 -0.701959 -0.68594235 -0.49627155
-1.3888017 -0.05574325 0.74788785 -0.8192405 0.03887946 1.4361597 -3.625419 0.44475475
0.10013663 -2.3426235 -0.93518883 -2.5159664 1.4666929 -0.79297477 0.41284364 -0.8875995
-0.49079466 0.2642543 0.29662675 -0.087380745 -0.5353492 1.5836958 0.3142427 0.4757438
-0.8167751 0.058908306 -1.4061382 -0.9508317 -0.8146993 -0.13996932 0.46044698 -0.3469657
0.03389078 -0.62670094 -1.0752089 -0.018154308 -2.0483155 -2.535649 -0.16569938 -1.9744993
0.03116186 1.0901752 -2.180094 0.41099975 0.35011983 -0.9434728 0.008913153 0.09833293
0.70579714 1.155698 -1.5572277 -0.039951555 -2.1663191 -0.072412945 0.27281904 -0.18850729
-0.29686788 0.50928915 0.077501826 -0.12691814 -1.8828102 -0.37911466 0.0998156 1.0998995
0.7368488 -1.7879511 2.1392233 0.29970196 -1.0174863 1.3943979 -1.2710602 -1.4354671
0.7433332 0.58728004 -0.01333403 -2.7486546 0.3215886 -0.6980687 -0.06775322 0.37994197
2.2343931 -1.1159347 1.3299304 1.1874272 -0.6423933 -1.7145156 -1.4357221 0.33080876
0.010272967 -0.414949 1.6320206 0.48778453 0.77948576 -0.82628214 0.26832917 -0.2855901
-1.3628688 -2.2415192 -0.03130965 -1.0069386 -0.7137047 -2.3719482 -0.62866867 -0.6128468
-0.21121082 -0.91473836 0.088453524 0.8167019 -1.2057633 -0.11008687 0.9027633 -1.6667188
-0.015108854 0.39472166 1.5992291 0.34430808 -0.03267676 -1.1223673 -0.5738508 0.20483823
-1.7913086 0.21334776 -1.48975 0.7345955 -0.021744844 0.51073754 0.13248505 -0.19128302
-1.9284999 -0.0051220516 0.19111162 0.551171 -0.06909247 -0.74460924 -0.7534266 0.752872
-6.533447 -0.44078407 -0.15723518 -0.036444493 -0.66054016 1.5809839 0.7004491 0.08247013
-0.88197976 0.3088636 -0.9796534 0.76563346 -2.9339972 -2.2811015 0.4612911 -1.6907785
0.6916511 -2.0832717 2.0215273 -0.5247408 -0.45788062 -1.1394747 -0.04421251 -0.4956712
0.4983369 -0.11405198 -0.7113947 0.32990253 0.15507792 1.1110313 -0.7030519 0.24835707
0.3683714 -0.052554283 -1.0128162 0.6864312 0.93006074 -0.06854806 1.5267098 0.17731693
0.45108524 1.0737177 -0.4480503 0.11272291 -1.615374 -1.4607768 0.91132265 -2.2094104
-0.004271169 0.17264712 -0.01290644 1.1572117 0.07327466 -1.4726315 0.6346874 0.7853252
-0.6127131 -1.4043643 0.6416833 1.0256811 1.1756922 -0.6212024 -1.1301017 1.4582995
-0.02661443 0.99823844 -3.9916408 -0.66643727 -3.9905105 0.542568 0.26916483 2.045312
2.675271 -1.2316632 0.41508564 1.1711407 -0.8630528 -0.17734131 -0.26212034 0.35122484
1.2852324 -0.033171352 0.18393257 0.20062017 -3.5373783 1.716083 -0.804873 -1.0140454
0.004595944 -2.5302918 -0.44828278 -0.6176042 0.9763223 0.42520463 -0.7529525 0.21940683
-0.053045366 -0.42412975 -0.47408292 0.57292384 -1.754559 -1.5853004 -0.48553893 -0.15336992
00000000: 84ce 3cc0 2df0 033f 962c c03e c533 d0bf
00000010: 9f4f 8c3e 88aa fb3f 11a2 dabe b2c9 0bc0
00000020: c9be abbf 38a2 0e3f 760f 04bc 6543 403f
00000030: 726a b9bf 96b3 33bf eb99 2fbf 4e17 febe
00000040: 41c4 b1bf 0953 64bd 9475 3f3f bfb9 51bf
00000050: 1240 1f3d 15d4 b73f dd06 68c0 e5b6 e33e
00000060: 6f14 cd3d 8bed 15c0 8968 6fbf 9805 21c0
00000070: 98bc bb3f 6500 4bbf 3e60 d33e b939 63bf
00000080: 7049 fbbe 574c 873e 76df 973e adf4 b2bd
00000090: a50c 09bf 8bb6 ca3f 6be4 a03e b194 f33e
000000a0: 2c18 51bf d649 713d 56fc b3bf b569 73bf
000000b0: 2290 50bf 1e54 0fbe b5bf eb3e 7da5 b1be
000000c0: 0fd1 0a3d 796f 20bf 72a0 89bf 58b8 94bc
000000d0: 9a17 03c0 1348 22c0 19ad 29be 65bc fcbf
000000e0: 2847 ff3c dc8a 8b3f a986 0bc0 8f6e d23e
000000f0: e842 b33e 6f87 71bf 7908 123c c662 c93d
00000100: 1faf 343f e9ed 933f 3d53 c7bf 3ea4 23bd
00000110: f9a4 0ac0 3d4d 94bd f0ae 8b3e 0e08 41be
00000120: 11ff 97be c660 023f 47b9 9e3d d4f6 01be
00000130: edff f0bf 511b c2be 1f6c cc3d 82c9 8c3f
00000140: 1fa2 3c3f 95db e4bf 09e9 0840 8972 993e
00000150: fe3c 82bf a17b b23f 1ab2 a2bf 63bd b7bf
00000160: 164b 3e3f fc57 163f fa76 5abc f5e9 2fc0
00000170: 43a7 a43e a1b4 32bf 33c2 8abd c187 c23e
00000180: 4c00 0f40 f3d6 8ebf 293b aa3f 9dfd 973f
00000190: e373 24bf 3f75 dbbf bec5 b7bf c45f a93e
000001a0: f24f 283c 3274 d4be 0de6 d03f e5be f93e
000001b0: 618c 473f 3a87 53bf 7162 893e de38 92be
000001c0: 7c72 aebf 0d75 0fc0 8c3e 00bd 5de3 80bf
000001d0: 5ab5 36bf 00ce 17c0 6ef0 20bf 87e3 1cbf
000001e0: a647 58be 4b2c 6abf 1f27 b53d 6013 513f
000001f0: 7456 9abf 3a75 e1bd 7f1b 673f 0b57 d5bf
00000200: 208b 77bc f518 ca3e 8ab3 cc3f 2649 b03e
00000210: 11d8 05bd bba9 8fbf e3e7 12bf 1dc1 513e
00000220: 9a49 e5bf d677 5a3e 21b0 bebf 730e 3c3f
00000230: 3e22 b2bc b2bf 023f 29aa 073e b2df 43be
00000240: 16d9 f6bf e2d6 a7bb c4b2 433e 8b19 0d3f
00000250: 5a80 8dbd b69e 3ebf 91e0 40bf 38bc 403f
00000260: ff11 d1c0 73ae e1be 4202 21be d246 15bd
00000270: 2919 29bf ae5d ca3f a250 333f 19e6 a83d
00000280: 6dc9 61bf 5f23 9e3e 91ca 7abf 8e00 443f
00000290: 9cc6 3bc0 91fd 11c0 592e ec3e 6e6b d8bf
000002a0: 0c10 313f 5354 05c0 b460 0140 6a55 06bf
000002b0: 546f eabe 4fda 91bf 2d18 35bd 9ec8 fdbe
000002c0: 0426 ff3e 1694 e9bd f71d 36bf fce8 a83e
000002d0: bfcc 1e3e 4636 8e3f 36fb 33bf 5151 7e3e
000002e0: 2d9b bc3e 2943 57bd f6a3 81bf f5b9 2f3f
000002f0: 7618 6e3f ed62 8cbd 3a6b c33f 9292 353e
00000300: a5f4 e63e 956f 893f d966 e5be 45db e63d
00000310: 93c4 cebf bcfa babf 714c 693f fb66 0dc0
00000320: 2af5 8bbb 68ca 303e 8875 53bc 831f 943f
00000330: 0611 963d 307f bcbf e07a 223f 130b 493f
00000340: c4da 1cbf 36c2 b3bf 5b45 243f 8549 833f
00000350: 157d 963f 1f07 1fbf 2ca7 90bf 8fa9 ba3f
00000360: 8106 dabc 8e8c 7f3f 0b77 7fc0 a29b 2abf
00000370: 8664 7fc0 bde5 0a3f f9cf 893e 64e6 0240
00000380: a437 2b40 24a7 9dbf 1b86 d43e f0e7 953f
00000390: 07f1 5cbf f698 35be a334 86be bed3 b33e
000003a0: 7f82 a43f afde 07bd d258 3c3e 606f 4d3e
000003b0: 6864 62c0 9ca8 db3f 280c 4ebf 3dcc 81bf
000003c0: 9399 963b 4df0 21c0 5285 e5be 4f1b 1ebf
000003d0: 42f0 793f 6cb4 d93e 7fc1 40bf 2fac 603e
000003e0: 1946 59bd 8927 d9be ffba f2be 23ab 123f
000003f0: 6495 e0bf 20eb cabf 8f98 f8be 010d 1dbe

FC2.bias f4 [256]
-0.37502363 -0.07968408 -0.15669484 -0.38451788 -0.38675 -0.33938503 0.55957943 0.062233355
0.16076818 -0.72934854 0.28472352 -0.107342705 -0.47864527 -0.037998658 -0.69273466 -0.7202685
0.25646812 -0.208581 -0.12148763 -1.045987 0.028555205 -0.32324532 0.7104137 -0.60012114
-0.11022713 -0.05805354 0.20536545 -0.05389265 -0.5047207 -0.20546608 -0.6141683 -0.74637973
-1.0008763 -0.07719531 -0.2763615 -0.65457463 -0.12417023 0.027305888 -0.3697539 0.31088406
-0.16142282 -0.32456613 0.16596612 -0.6994042 0.29554677 -0.45018306 -0.62833434 0.43298447
0.30058938 -0.3826963 -0.57138336 -0.4696162 -0.35633242 -0.6563194 -0.4091688 0.094218515
-0.4752339 -0.4333967 -0.04593177 -0.24795865 0.20127448 -0.37641028 -1.0996345 0.25475478
0.41142154 0.50921065 -0.66142446 -0.31767172 -0.13469322 -0.33940807 -0.9632289 -0.3732646
-0.61361873 -0.15816738 0.13075836 -0.21909466 0.288761 -0.45279342 -0.81983626 -0.7862559
-0.37530074 -1.1659422 -0.08569926 -0.49259004 -0.14697567 -1.2381364 -0.80853873 -0.19223587
-0.48172706 0.6482844 -0.33512023 -0.6006775 -0.32657832 -1.1933284 -1.0154101 -0.2661714
-0.8336099 -0.60348535 -0.39173418 -0.74353766 -0.41203928 -0.5455199 0.20651901 -0.103246324
-0.35014912 0.14630035 0.861502 0.14731972 -0.74505943 -1.0051863 -0.1965437 -0.64185584
0.1402834 -0.017731406 0.10501052 -0.6339762 0.13466468 -0.40384364 -0.90910786 -0.29542512
-0.05049318 -0.3147643 0.16066821 -0.39732796 -0.078337885 0.3747286 -0.19805047 -0.7227468
-0.12142057 -0.8744045 -0.6496181 -0.010386122 0.58517885 -0.24706204 -0.8367096 -0.68506694
-0.12839217 1.1908482 -1.3258052 -0.104205824 -0.8433625 -0.09468732 -0.084717326 -0.31962276
0.008700954 -0.51031065 0.5175716 -0.075281434 -0.13233674 -0.38809574 -0.8293907 -0.4212852
0.21065676 -0.13006425 0.8773367 -1.0933803 -0.620046 -0.99807125 0.040241927 -0.20271596
-0.042109348 0.15165107 -0.6697799 0.2036977 -0.56895417 0.13415378 -0.5051267 -0.4656942
-0.7718776 0.027937727 -0.7645767 0.15874831 -0.4773458 -1.0612342 -1.2094948 -0.7084913
-0.1520285 -0.18086326 -0.34870997 0.05671547 -0.039774787 -0.8694513 -0.039203525 -0.19120878
0.6560667 -0.48607844 -0.95367855 -0.1917382 -0.20405371 -0.37452942 -0.24386364 -1.272186
-0.07536571 -0.829387 -0.099831805 -0.054711107 -0.20217882 -1.0944611 -0.3877104 -0.15642364
-0.6050448 -0.05955517 -0.1858303 -0.28260761 -0.24312748 -0.091995575 -0.36802405 -0.6501446
-0.32400906 0.64250445 0.2450266 -0.6223203 0.019034553 -0.88826525 -0.4201158 -0.23786908
-1.022511 0.22753102 -0.08982065 -0.03911882 0.1217828 -0.19017462 -0.08202581 -0.16398054
0.03258016 0.16346002 -0.22647996 -0.803748 -0.8872209 -0.9827579 -0.47400898 -1.1040429
-0.3170273 -0.26960713 -0.42192164 -0.8603087 -0.6005591 0.009342351 -1.440853 -1.163999
-0.104531825 -0.29842192 -0.39184558 0.4634547 -0.81840634 0.028703831 -0.10868684 -0.6984363
-0.80341685 -0.13456665 -0.049568545 -0.23926516 -0.070458755 -0.1837606 -0.26591414 -0.74344313
00000000: 1903 c0be 6831 a3bd 9d74 20be 87df c4be
00000010: 1904 c6be e0c3 adbe 9940 0f3f 67e8 7e3d
00000020: 6aa0 243e 96b6 3abf 48c7 913e 7ed6 dbbd
00000030: fe10 f5be 7ba4 1bbd 0f57 31bf 8463 38bf
00000040: ca4f 833e 4296 55be 82ce f8bd e7e2 85bf
00000050: 9bec e93c 6980 a5be acdd 353f 8aa1 19bf
00000060: c3be e1bd 8cc9 6dbd 524b 523e 8abe 5cbd
00000070: 6035 01bf b365 52be 223a 1dbf be12 3fbf
00000080: b71c 80bf 9318 9ebd 417f 8dbe 3492 27bf
00000090: f64c febd 99b0 df3c 6250 bdbe 322c 9f3e
000000a0: 064c 25be 882d a6be 06f3 293e 270c 33bf
000000b0: e851 973e 657e e6be 85da 20bf 24b0 dd3e
000000c0: dae6 993e c5f0 c3be 2e46 12bf 8971 f0be
000000d0: 3471 b6be 8c04 28bf 937e d1be a3f5 c03d
000000e0: dc51 f3be 2ce6 ddbe f422 3cbd dfe8 7dbe
000000f0: e61a 4e3e d9b8 c0be d3c0 8cbf 386f 823e
00000100: d8a5 d23e a15b 023f 1d53 29bf dea5 a2be
00000110: 05ed 09be e5c6 adbe 2b96 76bf 8a1c bfbe
00000120: 1e16 1dbf a1f6 21be 85e5 053e 5a5a 60be
00000130: 7bd8 933e 8ad4 e7be cae0 51bf 1148 49bf
00000140: 6b27 c0be 983d 95bf 1883 afbd c334 fcbe
00000150: ca80 16be 417b 9ebf 65fc 4ebf 7bd9 44be
00000160: eea4 f6be f7f5 253f e194 abbe 00c6 19bf
00000170: 4635 a7be fcbe 98bf f5f8 81bf 9e47 88be
00000180: 7567 55bf 047e 1abf 6291 c8be 7c58 3ebf
00000190: d0f6 d2be 31a7 0bbf b879 533e cf72 d3bd
000001a0: bf46 b3be c2cf 153e 658b 5c3f fbda 163e
000001b0: 37bc 3ebf f2a9 80bf c042 49be aa50 24bf
000001c0: 74a6 0f3e 7441 91bc c10f d73d 444c 22bf
000001d0: 8ae5 093e 98c4 cebe 4bbb 68bf f641 97be
000001e0: f0d1 4ebd c928 a1be 3586 243e 926e cbbe
000001f0: 9d6f a0bd 6ddc bf3e becd 4abe ef05 39bf
00000200: 59ab f8bd f9d8 5fbf 5f4d 26bf 8e2a 2abc
00000210: 48ce 153f d5fd 7cbe 9a32 56bf 8c60 2fbf
00000220: 3d79 03be b76d 983f fcb3 a9bf dd69 d5bd
00000230: 9be6 57bf 6deb c1bd 4780 adbd 98a5 a3be
00000240: 728e 0e3c b8a3 02bf 937f 043f 272d 9abd
00000250: 4883 07be 7cb4 c6be f352 54bf b2b2 d7be
00000260: 68b6 573e 902f 05be 2399 603f e3f3 8bbf
00000270: 56bb 1ebf 9981 7fbf b8d4 243d c694 4fbe
00000280: da7a 2cbd 6b4a 1b3e b276 2bbf 2196 503e
00000290: fba6 11bf 9c5f 093e fc4f 01bf 786f eebe
000002a0: c599 45bf a9dd e43c 4cbb 43bf eb8e 223e
000002b0: ab66 f4be 86d6 87bf bad0 9abf b05f 35bf
000002c0: 5cad 1bbe 3834 39be 1d8a b2be 7b4e 683d
000002d0: e3ea 22bd 5c94 5ebf e093 20bd 3ccc 43be
000002e0: fdf3 273f 46df f8be 4724 74bf 0557 44be
000002f0: 75f3 50be 52c2 bfbe 64b7 79be fed6 a2bf
00000300: 5659 9abd b552 54bf 9e74 ccbd c118 60bd
00000310: f707 4fbe 4d17 8cbf fa81 c6be 852d 20be
00000320: 37e4 1abf 1ff0 73bd 4c4a 3ebe f2b1 90be
00000330: 69f6 78be 2d68 bcbd a66d bcbe e06f 26bf
00000340: 84e4 a5be 2c7b 243f 41e8 7a3e 6250 1fbf
00000350: 5aee 9b3c 5a65 63bf 6b19 d7be f493 73be
00000360: a4e1 82bf e4fd 683e e4f3 b7bd 0e3b 20bd
00000370: 4369 f93d 23bd 42be 26fd a7bd 84ea 27be
00000380: c672 053d 1062 273e 5dea 67be 6ec2 4dbf
00000390: e920 63bf 0696 7bbf 4eb1 f2be 4751 8dbf
000003a0: 6751 a2be f209 8abe 1d06 d8be 313d 5cbf
000003b0: 3ebe 19bf a910 193c df6d b8bf ebfd 94bf
000003c0: c814 d6bd c2ca 98be fc9f c8be ef49 ed3e
000003d0: 1483 51bf 4c24 eb3c 3597 debd b9cc 32bf
000003e0: baac 4dbf d7cb 09be 6308 4bbd ed01 75be
000003f0: ae4c 90bd bd2b 3cbe e625 88be 4a52 3ebf

action_out.weight f4 [5, 256]
-0.22306578 -0.06408668 0.12696038 0.88859385 1.6020919 -0.5221807 2.4871826 0.5705009
2.869793 -1.863537 1.2588301 0.5545882 0.3099916 0.019227233 -2.3319895 1.1015491
1.5795013 0.0638557 0.4204607 0.18393484 2.2214818 1.0054878 0.9206976 0.99185103
1.3322833 1.8715885 0.5585952 0.69261706 -0.073736176 0.12505834 1.7363596 2.1582654
0.9933703 0.028387101 0.45995295 2.350066 -0.056053955 -0.7794496 2.2134147 2.406368
1.2485414 1.3031954 1.3030603 1.0987612 1.4210296 0.7087708 0.23859186 1.4564341
1.623703 0.85503405 0.5872757 0.16758725 -0.20444444 0.69226533 2.8860574 -0.4478283
1.794267 0.76153857 0.830204 0.82763743 2.1994886 0.8962451 -0.9316319 0.20239688
1.0533159 1.3624192 1.0651449 0.76263064 1.1496818 0.081681795 -0.12756796 -0.51715666
0.264571 0.4849553 -0.14267784 -0.5132251 1.7574476 -0.30569434 1.0372726 0.87264794
-0.81043804 1.4820917 0.39395213 0.43813178 0.34943837 -1.9211359 1.9865035 0.6957394
0.3018699 1.1973095 1.4041517 1.388696 -1.0352471 -0.25504926 0.8622871 0.25920263
1.7447777 0.026329618 1.067256 2.4214048 1.2537215 2.6886544 1.6410036 3.001498
0.8386217 -1.1391633 2.4496155 1.4074625 1.3345352 0.5327628 0.35338432 2.5658705
0.9374007 1.2893441 0.5380224 2.7863116 0.4644294 1.239003 -1.3588784 1.0524627
0.01757665 0.29689014 1.7998198 0.29143476 0.06359462 0.3947794 0.38574132 0.26131827
1.9696296 3.802776 0.7472833 -0.019883167 1.8270141 0.8398063 1.0320908 2.2758515
1.3990202 0.97492754 0.022653013 0.25889012 2.0248804 0.47287238 1.0781937 2.2455866
-1.8964465 1.5400286 1.4579962 -0.047886036 0.21600401 2.6309578 -1.379822 0.8027061
1.6036103 0.371688 1.795853 -0.05517012 -0.4847511 2.4416296 -0.37383828 -0.45613587
0.8163316 1.057081 0.109916225 0.7924585 0.98144054 -1.3473617 0.99523896 1.0149412
1.5456119 0.91156745 1.1045085 -0.87137026 -0.61536896 0.551365 2.7312791 1.7195891
1.0780346 1.3204701 0.6949738 1.5420244 -0.0013535174 1.1545608 0.9584421 0.8103047
0.5365013 1.6464654 1.2927523 -0.29441303 0.24078576 2.7587545 -0.31182477 3.344727
1.7126994 -0.5629081 0.85675216 -0.017060097 -1.0152179 -0.83972955 1.1566924 -1.5102985
0.9816662 -0.03535526 0.1433826 0.5985359 -0.8069934 -0.594846 1.9745226 -0.4774697
-0.1284102 0.60911816 1.8183154 -1.0458691 -0.030138025 1.2970852 2.452274 -1.4448946
-0.16773605 1.1790444 -0.0374056 -0.119177766 1.8585407 0.031892337 1.7250228 0.20378156
-0.023118991 -1.2923431 2.4115908 -0.35483345 1.3698632 2.1981971 1.0865086 2.0545177
0.32834178 1.0354153 0.7273283 0.07111658 0.17881362 0.93941677 0.740286 0.54206663
0.034885857 1.5693152 0.09994189 1.24898 -0.45777726 1.9532102 0.29119328 0.5719554
1.0377527 0.058357876 2.5326898 -1.0081892 0.6173445 0.11264244 -1.2421799 1.8901967
00000000: 5b6b 64be e13f 83bd e701 023e e37a 633f
00000010: 5911 cd3f a2ad 05bf 002e 1f40 590c 123f
00000020: b0aa 3740 6188 eebf 5821 a13f 7ef9 0d3f
00000030: 38b7 9e3e 6e82 9d3c 513f 15c0 90ff 8c3f
00000040: 192d ca3f c7c6 823d a046 d73e 6a59 3c3e
00000050: c22c 0e40 d3b3 803f d7b2 6b3f f3e9 7d3f
00000060: 4288 aa3f 3690 ef3f 1800 0f3f 5a4f 313f
00000070: fe02 97bd 4b0f 003e 0841 de3f 0521 0a40
00000080: 844d 7e3f 118c e83c f47e eb3e 7b67 1640
00000090: d598 65bd 028a 47bf 96a8 0d40 ef01 1a40
000000a0: 34d0 9f3f 1bcf a63f aeca a63f 35a4 8c3f
000000b0: 4ce4 b53f 0172 353f 6d51 743e 6f6c ba3f
000000c0: 80d5 cf3f 83e3 5a3f b357 163f fe9b 2b3e
000000d0: e259 51be 4d38 313f 2ab5 3840 c049 e5be
000000e0: 8baa e53f 31f4 423f 4088 543f 0ce0 533f
000000f0: 6cc4 0c40 5270 653f 6e7f 6ebf 2141 4f3e
00000100: 0ed3 863f c163 ae3f ab56 883f c33b 433f
00000110: c628 933f c948 a73d 2da1 02be 6164 04bf
00000120: da75 873e 104c f83e 241a 12be b862 03bf
00000130: 0bf4 e03f f883 9cbe 59c5 843f db65 5f3f
00000140: de78 4fbf 2eb5 bd3f 18b4 c93e cf52 e03e
00000150: 96e9 b23e c8e7 f5bf bf45 fe3f fa1b 323f
00000160: b18e 9a3e 7041 993f 3ebb b33f cac0 b13f
00000170: fa82 84bf d195 82be d9be 5c3f 35b6 843e
00000180: e054 df3f 36b1 d73c d89b 883f 4cf8 1a40
00000190: f279 a03f ea12 2c40 680c d23f 8b18 4040
000001a0: e9af 563f 1ad0 91bf 80c6 1c40 bb27 b43f
000001b0: 0dd2 aa3f 2563 083f caee b43e 3937 2440
000001c0: 7ef9 6f3f 3a09 a53f d6bb 093f ee52 3240
000001d0: b1c9 ed3e a697 9e3f baef adbf 19b7 863f
000001e0: e8fc 8f3c fc01 983e 7f60 e63f f036 953e
000001f0: e53d 823d 8720 ca3e e37f c53e 82cb 853e
00000200: d31c fc3f af60 7340 f54d 3f3f 06e2 a2bc
00000210: 99db e93f 8cfd 563f 8d1b 843f 8da7 1140
00000220: 1813 b33f da94 793f d092 b93c 3f8d 843e
00000230: a497 0140 541c f23e 4002 8a3f b1b7 0f40
00000240: c2be f2bf a81f c53f 9f9f ba3f 2624 44bd
00000250: 2830 5d3e 9d61 2840 029e b0bf 267e 4d3f
00000260: 1a43 cd3f e44d be3e 83de e53f 10fa 61bd
00000270: 4c31 f8be a943 1c40 bb67 bfbe a48a e9be
00000280: 1cfb 503f 6e4e 873f c21b e13d 8fde 4a3f
00000290: b03f 7b3f 5976 acbf fbc7 7e3f 98e9 813f
000002a0: 9cd6 c53f 7c5c 693f 8960 8d3f 1f12 5fbf
000002b0: d288 1dbf 4226 0d3f 47cd 2e40 7f1b dc3f
000002c0: 0afd 893f 2a05 a93f cee9 313f 0e61 c53f
000002d0: 8268 b1ba a6c8 933f 765c 753f 2170 4f3f
000002e0: 2658 093f 61bf d23f e878 a53f 4ebd 96be
000002f0: 8b90 763e 6f8f 3040 7fa7 9fbe 0210 5640
00000300: bc39 db3f bf1a 10bf 1c54 5b3f 9ec1 8bbc
00000310: a9f2 81bf 84f8 56bf 7f0e 943f 7651 c1bf
00000320: 7a4e 7b3f add0 10bd e3d2 123e a639 193f
00000330: 1f97 4ebf d447 18bf 28bd fc3f e976 f4be
00000340: f77d 03be 2bef 1b3f 8fbe e83f 0adf 85bf
00000350: 05e4 f6bc e306 a63f 0ff2 1c40 4ef2 b8bf
00000360: 00c3 2bbe edea 963f 9d36 19bd 7913 f4bd
00000370: a9e4 ed3f 8aa1 023d 8ccd dc3f 1dac 503e
00000380: 0a64 bdbc 806b a5bf 8157 1a40 bbac b5be
00000390: ad57 af3f 43af 0c40 b712 8b3f 387d 0340
000003a0: 6a1c a83e 7d88 843f 3032 3a3f 92a5 913d
000003b0: eb1a 373e 9e7d 703f 6283 3d3f e1c4 0a3f
000003c0: 79e4 0e3d 52df c83f 55ae cc3d 94de 9f3f
000003d0: c861 eabe cb02 fa3f 4917 953e ab6b 123f
000003e0: 15d5 843f ab08 6f3d 9717 2240 580c 81bf
000003f0: 4a0a 1e3f 14b1 e63d c0ff 9ebf f7f1 f13f

action_out.bias f4 [5]
1.8406434 0.29313797 0.8128005 0.45221677 0.67298895
00000000: 349a eb3f 2e16 963e b213 503f f588 e73e
00000010: 0149 2c3f

weight f4 [256, 123]
-2.0423234 -0.011010086 0.4179467 -0.012474 0.4043138 0.08491678 0.10042465 -0.6208148
2.3331714 0.07118898 0.052782573 -0.29138377 0.20946595 -0.23055036 0.46322164 -0.6492627
-0.6546692 -0.5671303 0.18728721 -0.45580083 0.54141843 -2.2156003 0.7823225 1.7595832
-0.6109642 0.1638949 -0.17137414 -0.040516105 -0.019135648 -0.024289843 0.0070736175 0.05988555
-0.07004584 -0.014484003 -0.026064321 -0.13524865 -2.1038802 -0.1918226 0.16617954 -0.15370381
0.5069624 0.04941282 0.06853232 -0.3673154 0.04414064 0.42054105 -0.13272291 -0.29167518
0.19674417 -0.20673616 0.40394863 -0.8377888 0.916449 0.028718613 0.06393174 -0.5646469
0.5731362 -2.1619437 0.93740475 1.9307445 -1.6612515 0.35003656 -0.524363 0.0488779
0.015364097 -0.009722104 -0.025397042 -0.067607775 -0.054169737 -0.059059776 0.07670093 -0.20056066
-2.0208755 -0.45060045 0.690025 -0.035550233 0.49928337 0.020354245 -0.0093212705 -0.8340131
0.12786634 -0.16856305 0.30883867 -0.21279277 0.18026158 -0.23381712 0.3499749 -0.54053223
0.010157229 -0.19491631 0.38357058 -0.47033954 0.69502604 -2.1907094 0.92016923 3.5337427
-1.6738713 -0.02606982 0.038905166 0.062904805 -0.029604405 0.09748117 0.02388957 0.022777628
-0.0073762983 -0.0075319335 0.0015467958 -8.17985 0.12300873 0.067052476 -0.034674507 -0.05187254
0.14706904 0.02075385 0.015988037 0.078778856 0.10411089 -0.03347676 0.010033042 0.12206626
-0.075363755 -0.1604545 0.10989675 -0.29401293 -0.2295013 0.017729433 -0.12263775 -0.016063187
-0.12755956 0.13007973 1.3131785 0.7459216 -0.08090423 0.009153888 -1.0122266 0.36038703
-2.3883324 0.786901 1.7255758 -1.0487905 0.7636496 -0.5511292 -0.42684945 -0.49937162
-1.1626985 -0.28115264 -0.15280926 0.22517812 0.5026703 0.2694135 -0.38815546 -0.086130016
0.08259362 0.12333423 -0.07735897 -0.405276 0.061889358 0.06298939 0.77229226 -0.24013974
-0.925951 0.27359456 -0.12501927 -0.062143926 -0.13415943 0.021579323 -1.0024607 0.82655114
-0.82723 0.6371653 -0.86010605 0.3081466 -2.4372587 0.7901604 2.3971727 -2.8714733
0.0054571554 -0.033712078 -0.36408046 -0.48599032 -1.0626602 -0.4253158 -0.8111887 1.0370787
-0.56566846 1.0470936 -0.4227786 0.09746896 -0.04832942 0.09418792 -0.10320312 0.08797792
-0.46430242 0.042632826 -1.1667339 -0.26998353 -0.52332044 -0.43946522 -0.26979205 -0.05410022
-0.20427272 0.14953095 -0.69312996 0.37823397 -0.59884465 -0.3813312 -0.9188769 0.25540835
-2.4411075 0.77568495 1.0440468 -1.5534072 0.48521206 -1.1506231 -0.48033345 -0.4706762
-1.0108085 -0.2755706 0.46831182 -1.8898109 0.0016036034 0.07631341 -0.40410304 0.21979368
-0.072052866 0.067773126 -0.0020536867 0.04379534 0.06620043 -0.44648004 -2.873341 0.0015378896
-0.12581691 0.25162864 -0.05789411 -0.20738104 -0.030086825 0.19276544 0.015084927 -0.1949365
0.24965686 0.032757223 0.023283238 0.14907482 0.11166226 -0.28094137 -0.05086512 -0.02661424
0.058117777 0.07230186 -0.008201131 -0.048385624 0.033485916 -0.0075618546 0.076004416 0.0516342
00000000: 6db5 02c0 a663 34bc 1cfd d53e c05f 4cbc
00000010: 3802 cf3e d9e8 ad3d 70ab cd3d b8ed 1ebf
00000020: ae52 1540 87cb 913d 8a32 583d 4130 95be
00000030: 3e7e 563e 6515 6cbe 632b ed3e 1536 26bf
00000040: 6798 27bf 742f 11bf 38c8 3f3e ba5e e9be
00000050: 669a 0a3f 65cc 0dc0 4a46 483f 063a e13f
00000060: 2668 1cbf 11d4 273e b47c 2fbe 37f4 25bd
00000070: 5dc2 9cbc 7efb c6bc cec9 e73b 8d4a 753d
00000080: 3274 8fbd 504e 6dbc d884 d5bc 9f7e 0abe
00000090: f9a5 06c0 256d 44be f82a 2a3e 8864 1dbe
000000a0: 4ac8 013f 1965 4a3d ac5a 8c3d c410 bcbe
000000b0: d1cc 343d 2851 d73e 84e8 07be 7356 95be
000000c0: 4e77 493e a5b2 53be 5bd2 ce3e 5479 56bf
000000d0: 679c 6a3f 4c43 eb3c a5ee 823d b38c 10bf
000000e0: 0eb9 123f 495d 0ac0 c2f9 6f3f a322 f73f
000000f0: e4a3 d4bf fe37 b33e a73c 06bf 3134 483d
00000100: b2b9 7b3c 7649 1fbc 750d d0bc f275 8abd
00000110: 16e1 5dbd aae8 71bd 6115 9d3d c65f 4dbe
00000120: 0656 01c0 1ab5 e6be 7aa5 303f 1f9d 11bd
00000130: 12a2 ff3e f2bd a63c 3eb8 18bc e281 55bf
00000140: 65ef 023e cb9b 2cbe 1a20 9e3e 59e6 59be
00000150: 7e96 383e c16d 6fbe e92f b33e 5260 0abf
00000160: 826a 263c 2498 47be 5d63 c43e 58d0 f0be
00000170: 3aed 313f 9534 0cc0 3690 6b3f d728 6240
00000180: 6a41 d6bf 6090 d5bc 065b 1f3d 3cd4 803d
00000190: f084 f2bc 35a4 c73d 0fb4 c33c 2698 ba3c
000001a0: e0b4 f1bb 70ce f6bb dbbd ca3a aae0 02c1
000001b0: 00ec fb3d cf52 893d db06 0ebd 4d78 54bd
000001c0: 4499 163e fa03 aa3c 58f9 823c cf56 a13d
000001d0: 1738 d53d ed1e 09bd a161 243c e0fd f93d
000001e0: 5058 9abd 2f4e 24be 8c11 e13d dd88 96be
000001f0: 6402 6bbe 513d 913c 8029 fbbd f296 83bc
00000200: f99e 02be 9f33 053e 3c16 a83f b8f4 3e3f
00000210: 1eb1 a5bd 30fa 153c a490 81bf a684 b83e
00000220: 70da 18c0 5872 493f abdf dc3f c43e 86bf
00000230: 8a7e 433f ce16 0dbf 038c dabe a3ad ffbe
00000240: 4ed3 94bf 3df3 8fbe 087a 1cbe 1895 663e
00000250: 00af 003f 91f0 893e 50bc c6be ef64 b0bd
00000260: d826 a93d a896 fc3d 616e 9ebd 5680 cfbe
00000270: b27f 7d3d 9500 813d f2b4 453f 31e7 75be
00000280: 200b 6dbf 9614 8c3e 0d05 00be a18a 7ebd
00000290: 1761 09be 1fc7 b03c a250 80bf db98 533f
000002a0: 58c5 53bf 441d 233f e92f 5cbf 64c5 9d3e
000002b0: 0cfc 1bc0 f447 4a3f 476b 1940 38c6 37c0
000002c0: f0d1 b23b ad15 0abd c168 babe b9d3 f8be
000002d0: 4005 88bf fec2 d9be 10aa 4fbf ffbe 843f
000002e0: a6cf 10bf 2a07 863f 7076 d8be ce9d c73d
000002f0: 12f5 45bd 99e5 c03d 285c d3bd c52d b43d
00000300: 0cb9 edbe c29f 2e3d 8957 95bf 483b 8abe
00000310: 54f8 05bf 9601 e1be 2f22 8abe 3198 5dbd
00000320: de2c 51be a41e 193e f770 31bf e2a7 c13e
00000330: e24d 19bf d83d c3be 843b 6bbf e2c4 823e
00000340: 1b3b 1cc0 4a93 463f 53a3 853f 0cd6 c6bf
00000350: b76d f83e 9e47 93bf 44ee f5be 79fc f0be
00000360: 2c62 81bf 9717 8dbe 91c6 ef3e 53e5 f1bf
00000370: 0030 d23a 354a 9c3d 98e6 cebe 9811 613e
00000380: 7490 93bd a3cc 8a3d 2597 06bb be62 333d
00000390: 1794 873d 0899 e4be d2e4 37c0 0393 c93a
000003a0: 26d6 00be 78d5 803e 6022 6dbd b25b 54be
000003b0: a578 f6bc 4e64 453e c526 773c 6f9d 47be
000003c0: 0ca6 7f3e 702c 063d 7dbc be3c 12a7 183e
000003d0: 2faf e43d 8cd7 8fbe f257 50bd 1b06 dabc
000003e0: e80c 6e3d ff12 943d 095e 06bc 0130 46bd
000003f0: 8728 093d 6fc9 f7bb 34a8 9b3d 627e 533d

bias f4 [256]
-0.001967746 -0.5101275 -0.10051206 0.20427896 -0.05811022 0.011222329 -0.18640321 0.016551942
-0.14115745 -0.10447296 -0.038083166 -0.71281105 -0.21502912 0.045960885 -0.10593471 -0.07535121
-0.026579289 -0.120314725 0.054196622 -0.06653019 -0.65428317 -0.58636427 0.1103901 0.028544417
-0.027395217 -0.021923246 -0.08280527 0.0056547415 -0.15568563 0.6514517 0.14146739 -0.07295729
-0.023953421 -0.11294837 -0.03265708 -0.06770291 -0.65431964 -0.11134272 -0.102262154 -0.17963652
0.038791526 -0.11647443 0.040830266 0.0048713903 -0.5186324 0.06627519 -0.25734252 -0.07580485
-0.02329971 -0.05915204 0.029336097 -0.019365916 -0.12037792 0.5873612 -0.07090787 -0.6593425
-0.16417561 -0.03733652 -0.10224094 -0.043025963 0.23282398 -0.09984662 -0.067125455 -0.043274913
-0.06497322 -0.05939135 -0.50284714 0.018319342 0.036674652 -0.021169448 0.290544 -0.027829418
0.55014545 -0.037927568 0.6994448 0.037287354 0.04821401 -0.5065538 0.04203624 -0.36425054
0.031884994 -0.09531615 -0.2295506 -0.059633307 -0.008814444 -0.12313639 -0.047928378 -0.062353488
-0.072008006 0.01386395 -0.14875111 0.0185967 -0.1019752 -0.9133881 0.0054149344 -0.022287972
0.0058355317 -0.117308296 -0.116649814 -0.92130077 -0.116187386 -0.053322077 -0.066016 -0.12184666
-0.15543452 -0.782933 -0.011502704 0.046152018 -0.008973297 0.027652834 -0.06308604 -0.11241479
-0.07189062 0.23451115 -0.06814281 -0.058396343 -0.022586307 0.029965745 -0.08973214 -0.03151946
-0.0700993 -0.12981962 -0.08891595 -0.021500414 -0.101076946 0.2826839 -0.0708191 -0.0023858787
-0.03137775 -0.90191156 -0.37734774 -0.113794826 -0.08507499 -0.7976544 -0.04138177 -0.45233023
-0.038528502 -0.08599435 -0.092143446 -0.57624745 -0.050174028 -0.09512019 -0.13614555 -0.131738
-0.046382107 0.22300446 -0.09986535 0.86468256 -0.2629617 -0.022522127 0.43321875 -0.690853
-0.22733788 -0.20451598 -0.16944577 -0.114059545 -0.08651231 -0.11999475 0.44810465 -0.03639768
-0.08236876 -0.04956093 -0.052518003 -0.07331644 -0.48869342 -0.13514651 -0.100135975 -0.07378837
-0.13539968 0.035989482 0.031370267 0.00033387257 -0.06988293 -0.6628498 -0.06724096 0.04861725
-0.086314626 0.059612423 0.031405848 0.21960957 -0.07452543 -0.13534686 -0.7182865 -0.39994526
-0.050483026 -0.08508255 -0.008551263 -0.09374623 -0.040694553 0.0038434386 -0.21648698 -0.12050542
-0.027769346 -0.13249275 0.7565505 -0.19308466 -0.47051594 -0.057625495 -0.008403886 -0.056811076
-0.4809547 -0.053121593 -0.96794194 -0.061062496 0.05610955 -0.0372167 -0.08733188 -0.05084639
-0.2688823 0.026431559 -0.6815564 -0.12357558 -0.18085463 -0.89031947 -0.5815155 -1.1417954
-0.12899539 -0.03996367 -0.111267254 -0.055133566 -0.031623166 0.01454924 -0.0749379 -0.08863021
-0.014947007 -0.12603776 -0.045043707 -0.009920432 -0.045575675 0.054842014 -0.07375903 -0.06433681
0.4529693 -0.33866435 -0.13767469 -0.79904866 -0.26080263 0.06309929 0.0032892022 0.70727205
-0.021767732 -0.097273916 -0.035341922 -0.07882018 0.016963605 0.011224847 0.0012591355 -0.48046795
-0.061571214 -0.68151784 -0.0011067729 -0.073989674 0.03975705 -0.08168257 0.017209545 -0.074562654
00000000: 4df5 00bb b797 02bf 44d9 cdbd 812e 513e
00000010: fb04 6ebd dcdd 373c 7ce0 3ebe f097 873c
00000020: 948b 10be ebf5 d5bd 18fd 1bbd c97a 36bf
00000030: 9830 5cbe 7b41 3c3d 4cf4 d8bd bc51 9abd
00000040: cfbc d9bc 9167 f6bd 47fd 5d3d fb40 88bd
00000050: 1a7f 27bf f81b 16bf 3414 e23d fbd5 e93c
00000060: ef6b e0bc 6198 b3bc cf95 a9bd 694b b93b
00000070: 0e6c 1fbe 8ac5 263f d4dc 103e a26a 95bd
00000080: f739 c4bc 7a51 e7bd 6ec3 05bd d3a7 8abd
00000090: 7e81 27bf a707 e4bd d26e d1bd a3f2 37be
000000a0: dde3 1e3d 258a eebd a33d 273d 2fa0 9f3b
000000b0: 18c5 04bf 49bb 873d 66c2 83be 933f 9bbd
000000c0: 09df bebc 6949 72bd 4152 f03c 45a5 9ebc
000000d0: b388 f6bd 4e5d 163f 2538 91bd acca 28bf
000000e0: a71d 28be 2eee 18bd b363 d1bd fe3b 30bd
000000f0: 6969 6e3e 627c ccbd 1279 89bd 0941 31bd
00000100: ae10 85bd 5844 73bd 97ba 00bf 7212 963c
00000110: 2938 163d 8d6b adbc 2fc2 943e 85fa e3bc
00000120: 55d6 0c3f f059 1bbd d00e 333f a0ba 183d
00000130: 0e7c 453d 83ad 01bf 312e 2c3d 0c7f babe
00000140: d799 023d 1d35 c3bd 500f 6bbe 0e42 74bd
00000150: 756a 10bc ee2e fcbd 8c50 44bd 5f66 7fbd
00000160: ef78 93bd 9f25 633c 3652 18be 1b58 983c
00000170: 60d8 d0bd cdd3 69bf c36f b13b 4495 b6bc
00000180: fd37 bf3b 553f f0bd 19e6 eebd 5eda 6bbf
00000190: a7f3 edbd 4068 5abd 6633 87bd be8a f9bd
000001a0: 3a2a 1fbe 4c6e 48bf d675 3cbc e609 3d3d
000001b0: bc04 13bc 3288 e23c 4133 81bd ba39 e6bd
000001c0: 643b 93bd b123 703e 758e 8bbd 0131 6fbd
000001d0: eb06 b9bc b97a f53c 7cc5 b7bd 8d1a 01bd
000001e0: 3990 8fbd 6fef 04be 9119 b6bd a321 b0bc
000001f0: 6e01 cfbd f2bb 903e 9b09 91bd 675c 1cbb
00000200: f585 00bd ade3 66bf b933 c1be 430d e9bd
00000210: cc3b aebd 1433 4cbf ee7f 29bd d497 e7be
00000220: 10d0 1dbd ce1d b0bd b4b5 bcbd f484 13bf
00000230: 4883 4dbd 60ce c2bd bd69 0bbe 54e6 06be
00000240: 2afb 3dbd 485b 643e 3486 ccbd d65b 5d3f
00000250: eaa2 86be 5380 b8bc d9ce dd3e bedb 30bf
00000260: 43cb 68be a36c 51be 3183 2dbe 0d98 e9bd
00000270: 5e2d b1bd cfbf f5bd f96d e53e bc15 15bd
00000280: f4b0 a8bd 6700 4bbd 1e1d 57bd ee26 96bd
00000290: 0636 fabe d963 0abe 1714 cdbd 5b1e 97bd
000002a0: 37a6 0abe b569 133d 1c7e 003d 9e0b af39
000002b0: c81e 8fbd 86b0 29bf a1b5 89bd e222 473d
000002c0: b9c5 b0bd 282c 743d 6ba3 003d 55e1 603e
000002d0: caa0 98bd 5e98 0abe a0e1 37bf a0c5 ccbe
000002e0: 4ac7 4ebd c33f aebd 991a 0cbc 06fe bfbd
000002f0: 55af 26bd 33e2 7b3b c3ae 5dbe 8ccb f6bd
00000300: 8a7c e3bc 2eac 07be 4bad 413f fcb7 45be
00000310: 77e7 f0be b608 6cbd 74b0 09bc bbb2 68bd
00000320: b23f f6be 0796 59bd 0bcb 77bf ab1c 7abd
00000330: 21d3 653d 8a70 18bd 0fdb b2bd 4e44 50bd
00000340: f1aa 89be ff86 d83c 7b7a 2ebf 3215 fdbd
00000350: f531 39be faeb 63bf 33de 14bf 5a26 92bf
00000360: 5e17 04be f2b0 23bd 16e0 e3bd bcd3 61bd
00000370: 4b87 01bd ef5f 6e3c 0b79 99bd c183 b5bd
00000380: 4be4 74bc 0b10 01be c07f 38bd 4f89 22bc
00000390: 8fad 3abd 05a2 603d f90e 97bd 04c3 83bd
000003a0: 98eb e73e 6a65 adbe 98fa 0cbe 748e 4cbf
000003b0: ec87 85be 333a 813d a88f 573b c80f 353f
000003c0: 3e52 b2bc 8c37 c7bd b1c2 10bd 796c a1bd
000003d0: 42f7 8a3c 6ce8 373c 9409 a53a e5ff f5be
000003e0: 1932 7cbd f477 2ebf 2311 91ba e687 97bd
000003f0: 4ad8 223d 3149 a7bd 08fb 8c3c 4eb4 98bd

weight f4 [256, 256]
-0.0006621006 -0.0122784935 0.040988266 0.052412372 0.016287167 0.015398653 0.017420473 0.031097557
-0.1347987 -0.04953384 -0.004772755 -0.034621276 -0.00684038 -0.041467197 -0.027500365 -0.0032406796
0.019398166 -0.06615665 0.026356457 -0.024066016 -0.09604807 -0.06481101 0.0111787915 -0.061690856
-0.048737604 0.028163934 0.014572457 -0.021591298 -0.095261276 -0.08991705 -0.032942843 -0.050649226
-0.02204993 -0.051604174 0.016571483 -0.019705772 -0.026396755 0.007988565 -0.03514344 -0.035615552
-0.06348227 -0.013114746 0.06076449 -0.05022673 -0.0070879282 0.028725818 -0.032841336 0.0022528407
-0.015414608 0.030346174 -0.035313997 -0.03809279 0.057598423 -0.022618799 0.034629513 -0.009547913
0.013712452 0.02442251 -0.050823465 -0.0073482203 -0.028108487 0.027547963 0.0347919 -0.06216313
-0.00919953 -0.050347786 0.03540286 0.009995074 0.039074946 0.01967582 -0.05775894 0.038042333
-0.00453295 0.03474783 0.012641085 0.039571095 -0.008171147 0.031343892 -0.030600477 -0.0005534496
0.008114074 -0.008137244 0.017521506 0.03256286 -0.007457248 -0.074033074 -0.06404487 -0.002359548
0.03999901 0.031018069 -0.02494546 -0.07323139 -0.059107553 -0.008797578 0.022806315 -0.018333001
-0.027120288 -0.042543933 -0.021628221 -0.032895364 -0.015187009 0.053311978 -0.05068223 -0.03871527
0.00938503 -0.019329367 0.02583957 -0.0060282797 0.013796912 -0.0091239605 0.021968655 -0.0312238
-0.036949515 -0.062048484 0.05144397 0.046621516 0.025517125 0.055043295 -0.024458015 0.04853366
0.0137822265 -0.017967729 -0.029796075 0.04179522 -0.042939894 -0.114881136 0.0071943654 -0.023891447
-0.035286516 -0.0048297173 -0.0004609814 0.021760503 -0.047552954 -0.22053008 0.083683774 -0.06570822
-0.031405937 -0.05239745 -0.07870279 -0.0761741 0.031320307 0.05192153 0.029225 0.0013510692
-0.023987686 -0.030820057 0.013696488 -0.10550537 -0.0017762406 0.002873264 -0.026061574 -0.029666375
-0.05809594 -0.018770518 -0.07722287 -0.06876357 -0.08444254 -0.068477124 -0.012246516 -0.052380946
0.0018299714 -0.023041582 0.055014648 -0.041439556 -0.03546817 0.028265638 -0.030957907 0.0031227993
0.04689771 0.056597654 0.055602796 -0.07314603 -0.025944304 -0.04214545 -0.037356585 -0.0632812
-0.024196878 -0.018348223 -0.045219116 0.055199426 0.043600004 -0.0358905 0.020074287 -0.051903166
-0.016049767 0.028396782 0.02127927 -0.0036811898 0.04630707 0.029119313 -0.034545135 -0.060630538
-0.026963681 -0.019721724 -0.018103562 -0.093566604 -0.035790537 -0.02242567 0.058607288 -0.05544508
-0.07318085 -0.0052120383 -0.06478871 -0.031585462 -0.03175024 -0.06906357 -0.06867627 0.003894669
-0.017810713 -0.02510363 -0.05254609 0.048101414 0.044477142 -0.073278196 0.030788783 -0.015469587
-0.034058925 -0.054152854 0.044370282 0.0093082795 -0.04776391 -0.051087137 0.0259237 0.055331558
0.0037011197 0.02014295 -0.042615574 0.03543837 0.043592 -0.010831229 0.045600813 -0.020532683
-0.049060322 0.0017595188 -0.034553457 -0.07700215 0.08405844 0.038799748 0.049729124 0.012945406
0.0430655 -0.03367269 0.055534445 -0.03601532 -0.0056055062 0.06259544 -0.0063988985 -0.023183703
-0.05535084 -0.033256076 0.048961163 0.026828205 0.014891827 0.060308777 -0.037538704 -0.041459464
00000000: d290 2dba bc2b 49bc 50e3 273d 5bae 563d
00000010: aa6c 853c a24a 7c3c 61b5 8e3c 4ec0 fe3c
00000020: ac08 0abe ffe3 4abd c564 9cbb 0acf 0dbd
00000030: 4425 e0bb 82d9 29bd 7248 e1bc 9561 54bb
00000040: e7e8 9e3c 237d 87bd 7fe9 d73c 1826 c5bc
00000050: dab4 c4bd a3bb 84bd 4027 373c 8daf 7cbd
00000060: 15a1 47bd 0db8 e63c 51c1 6e3c 3ce0 b0bc
00000070: 5818 c3bd 6e26 b8bd 13ef 06bd 9075 4fbd
00000080: 0ea2 b4bc e65e 53bd ebc0 873c 006e a1bc
00000090: 023e d8bc 78e2 023c 91f2 0fbd 9de1 11bd
000000a0: fe02 82bd 3bdf 56bc 30e4 783d 8bba 4dbd
000000b0: da41 e8bb 6852 eb3c a384 06bd 65a4 133b
000000c0: 8d8d 7cbc 8a98 f83c 69a5 10bd 2f07 1cbd
000000d0: 53ec 6b3d 0f4b b9bc add7 0d3d da6e 1cbc
000000e0: 31aa 603c b711 c83c 442c 50bd 57c9 f0bb
000000f0: c543 e6bc 44ac e13c f481 0e3d c49e 7ebd
00000100: a0b9 16bc 7b39 4ebd 9702 113d 61c2 233c
00000110: 0d0d 203d 2f2f a13c a394 6cbd 47d2 1b3d
00000120: 2489 94bb be53 0e3d 8e1c 4f3c 4d15 223d
00000130: 46e0 05bc 7462 003d daad fabc 6015 11ba
00000140: e5f0 043c 1352 05bc 4389 8f3c a260 053d
00000150: ee5b f4bb a79e 97bd f529 83bd a5a2 1abb
00000160: 00d6 233d 9b19 fe3c 6c5a ccbc 57fa 95bd
00000170: c31a 72bd b723 10bc 4fd4 ba3c 172f 96bc
00000180: 5e2b debc 8c42 2ebd ab2d b1bc 4abd 06bd
00000190: efd2 78bc a95d 5a3d 2c98 4fbd e793 1ebd
000001a0: abc3 193c 9f58 9ebc 82ad d33c e088 c5bb
000001b0: 710c 623c aa7c 15bc 9cf7 b33c 0ec9 ffbc
000001c0: 6058 17bd 8d26 7ebd eab6 523d 34f6 3e3d
000001d0: 4a09 d13c 1475 613d 2d5c c8bc 3bcb 463d
000001e0: d9ce 613c 0f31 93bc e616 f4bc 7731 2b3d
000001f0: bee1 2fbd cd46 ebbd b6be eb3b ffb7 c3bc
00000200: 9888 10bd 9b42 9ebb e0af f1b9 1543 b23c
00000210: e3c6 42bd a3d2 61be 6662 ab3d 0892 86bd
00000220: 83a3 00bd b59e 56bd ee2e a1bd 2b01 9cbd
00000230: b949 003d acab 543d 4469 ef3c 5c16 b13a
00000240: d381 c4bc 587a fcbc 3c67 603c 3313 d8bd
00000250: bfd0 e8ba 5f4d 3c3b 157f d5bc e606 f3bc
00000260: 02f6 6dbd a1c4 99bc 0627 9ebd ead3 8cbd
00000270: 36f0 acbd bc3d 8cbd 9ca5 48bc 678d 56bd
00000280: a7db ef3a b3c1 bcbc 0a57 613d 86bc 29bd
00000290: 1247 11bd 578d e73c 709b fdbc e1a7 4c3b
000002a0: d017 403d f1d2 673d c2bf 633d 96cd 95bd
000002b0: 2689 d4bc b5a0 2cbd 3803 19bd 9399 81bd
000002c0: 8838 c6bc 034f 96bc ae37 39bd cb18 623d
000002d0: eb95 323d eb01 13bd d572 a43c 6a98 54bd
000002e0: cd7a 83bc 5ea0 e83c dd51 ae3c 1e40 71bb
000002f0: 7bac 3d3d a08b ee3c 337f 0dbd ba57 78bd
00000300: f0e2 dcbc 748f a1bc ec4d 94bc d99f bfbd
00000310: 1999 12bd 0ab6 b7bc 320e 703d 611a 63bd
00000320: d7df 95bd bfc9 aabb f1af 84bd c25f 01bd
00000330: 8a0c 02bd 3371 8dbd 25a6 8cbd b43d 7f3b
00000340: c6e7 91bc 21a6 cdbc 923a 57bd fd05 453d
00000350: aa2d 363d e112 96bd c238 fc3c 2774 7dbc
00000360: 5f81 0bbd 62cf 5dbd 9dbd 353d c181 183c
00000370: 17a4 43bd bf40 51bd f05d d43c 58a3 623d
00000380: 7c8e 723b d402 a53c ab8d 2ebd d327 113d
00000390: 868d 323d 7875 31bc ebc7 3a3d 2834 a8bc
000003a0: 7af3 48bd a79f e63a ed87 0dbd 4eb3 9dbd
000003b0: d526 ac3d 7cec 1e3d c4b0 4b3d f818 543c
000003c0: 7365 303d 60ec 09bd 1678 633d cd84 13bd
000003d0: 65ae b7bb 0a32 803d daad d1bb c0eb bdbc
000003e0: 90b7 62bd 8637 08bd 808b 483d d3c6 db3c
000003f0: d9fc 733c 5606 773d 2fc2 19bd 66d1 29bd
