saved_models_1/125_6793_model.pt (torch, 701697 bytes, 11 tensors)

FC1.weight f4 [256, 36]
000000 ef ea 2c be 3a cf a2 3e 4c 28 58 3e e3 a8 b3 be
       -0.16886495 0.31798726 0.21109122 -0.35089788
000010 d1 d8 98 3f 3e 3e 8e 3f 38 0f c5 be c4 0a 02 c0
       1.1941167 1.1112745 -0.38488173 -2.031907
000020 3c 08 8f 3f c8 8d 8a 3f ef 4b 16 c0 24 65 b4 3e
       1.1174388 1.0824518 -2.3483846 0.35233414
000030 74 90 35 bf 7d da ce 3e 8e 04 b8 3e 1e ac a2 3d
       -0.7092354 0.40401068 0.35940975 0.07942985
000040 fa 12 2f bf 2b 34 59 be b5 0a ac 3f 03 46 e4 3e
       -0.6838833 -0.21211307 1.3440768 0.44584665
000050 67 ba 9d 3f 90 60 32 3f a9 d2 b3 bf e1 96 9c be
       1.232251 0.6967859 -1.4048663 -0.3058386
000060 69 09 1c 40 3b 69 d0 3e b7 cf df bf 7a df 78 be
       2.4380744 0.40705284 -1.7485265 -0.24304
000070 85 18 fe 3e dc 87 57 be 34 ad 57 bb 15 d9 16 bd
       0.49628082 -0.2104792 -0.0032909634 -0.03682812
000080 83 26 97 c0 f2 12 17 bf 56 00 74 3f 62 1e 2d c0
       -4.723451 -0.59013283 0.9531301 -2.7049794
000090 56 68 e3 bc 6a 26 3b 3d 6c 35 86 bd 3c 28 c5 3e
       -0.027759712 0.04569093 -0.06553158 0.3850726
0000a0 65 69 86 bf 6b 8d b2 3d bb b8 97 3f dd b2 30 3e
       -1.0500914 0.087183796 1.185325 0.17255731
0000b0 3f f6 e8 bf 94 76 18 bf 08 d3 0f 40 41 f2 33 bf
       -1.8200148 -0.59555936 2.2472553 -0.70291525
0000c0 c6 3f b0 bf f7 44 ba bd 43 e3 3f 3f 9b 6b 01 bd
       -1.3769462 -0.09095185 0.7495615 -0.03159676
0000d0 d3 1a ce bf 8b 11 1d 3f 03 10 26 40 66 19 28 3f
       -1.6101936 0.61354893 2.5947273 0.65663755
0000e0 ea c9 8a 3d 19 1e 25 bf bd 93 0e bf 3d d3 c5 3f
       0.06776793 -0.6449905 -0.5569418 1.545509
0000f0 a1 c5 fc 3f 33 80 60 be f9 20 8f bf e3 a0 38 be
       1.9747812 -0.21923904 -1.1181937 -0.18030123
000100 aa 71 80 3e 71 4d d9 3e b7 5c 99 3e 36 f4 44 3f
       0.2508672 0.42441896 0.29953548 0.76935136
000110 85 13 50 c0 49 1f 45 c0 6a ca f7 3f 4c 4d 22 3f
       -3.2511914 -3.0800345 1.9358647 0.63399196
000120 cb 64 0e bf 41 38 b4 3f 74 d3 2f bf 46 7f 5a 3f
       -0.5562255 1.4079667 -0.68682027 0.85350454
000130 42 03 88 bf 0b 6a ee 3f a7 c7 59 c0 9c 0f e9 bf
       -1.0625994 1.8626112 -3.4028108 -1.8207889
000140 9a 4d 33 40 2d 8f 2b 3f 58 52 8a 3e 51 c5 02 3f
       2.8016114 0.67015344 0.27015948 0.5108233
000150 ce f3 45 bf d9 09 ab 3f e3 f0 87 be 27 83 83 bf
       -0.7732514 1.336238 -0.2655097 -1.02744
000160 df 53 17 bf bc a5 01 40 4c 68 86 be 99 34 a6 3f
       -0.5911235 2.0257406 -0.26251447 1.2984802
000170 83 49 a0 bf 8f da 03 3f c7 32 c9 3e 44 27 d3 3f
       -1.2522434 0.5150537 0.39296553 1.6496358
000180 20 bd e9 bf e3 ec 2e 3f 33 43 62 3f e5 92 7b bf
       -1.8260841 0.6833021 0.8838379 -0.9827102
000190 64 ea 61 3e 8e 3c 9d be 21 86 5d be b6 89 00 be
       0.22062069 -0.30710262 -0.21633197 -0.12552533
0001a0 f8 58 8e 3e 8f bc eb be 4c c8 e2 c0 0a e9 ea bf
       0.27802253 -0.46042296 -7.0869503 -1.8352368
0001b0 81 5a d1 c0 74 a9 53 3f 82 87 46 3e 1d 2a da 3e
       -6.542298 0.8268044 0.1938763 0.42610255
0001c0 69 e1 3e bf 93 06 75 bf fa 75 7e bd 13 e7 fe 3f
       -0.745627 -0.95713156 -0.06212423 1.9914268
0001d0 48 13 76 bf 5e 54 be be a0 83 8a 3f d2 be 86 3f
       -0.9612317 -0.37173742 1.0821419 1.0526984
0001e0 1e 5a 91 bf 22 63 a9 be 4f fb 83 3e 74 d6 58 3f
       -1.1355627 -0.33083445 0.2577767 0.8470223
0001f0 e5 11 c2 bf 97 6d 85 bf db 0f bb 3f 57 9d cf bd
       -1.5161711 -1.0424069 1.4614214 -0.10137432
000200 57 cf 00 bf ff 8b 0e 3f 72 8e 76 3f 79 8c f4 bd
       -0.50316375 0.5568237 0.96311104 -0.119408555
000210 10 94 0f c0 a8 87 ab 3f 98 46 da 3f 28 dd 9d 3e
       -2.243412 1.3400774 1.7052794 0.3083279
000220 2a dd 8f c0 f0 66 d2 3f 16 73 da 3e e1 9e 96 c0
       -4.4957476 1.6437664 0.4266593 -4.7068944
000230 9d f7 99 bf fa cb 89 bf 63 45 10 bf 50 2d 92 c0
       -1.202869 -1.0765374 -0.56355876 -4.5680313
000240 ce 9c 0b c0 a4 50 1b bf 15 f9 ad 3b 0c 23 f8 be
       -2.1814456 -0.6066992 0.005309234 -0.4846424
000250 3d 22 e8 3f 53 9e 34 be 7d 8a 49 bf f1 72 84 bf
       1.8135449 -0.17638521 -0.7872694 -1.0347577
000260 4f 7f 70 40 ca 32 00 3f 03 d6 a4 c0 8f 11 42 bf
       3.7577703 0.500775 -5.1511245 -0.7580804
000270 5e 03 59 3f 32 4f 54 bd 6d 0a 9b bf 22 a8 fa be
       0.8477076 -0.05183334 -1.2112557 -0.489564
000280 a5 58 09 40 b7 c4 d5 3e d6 c0 ce bf 97 40 59 3f
       2.1460354 0.41751644 -1.6152599 0.8486418
000290 f5 5d 1b 3e d3 d0 9f bf 2f af 9b be 32 d3 ca 3f
       0.1517256 -1.2485603 -0.30407092 1.5845702
0002a0 bd f8 3b 3e e1 3d 1d c0 14 e4 23 3e 95 01 31 3e
       0.18356605 -2.4569018 0.16004974 0.1728576
0002b0 88 7e 9d be 5d 55 0c 3f e2 0d a6 3e 9d bc 4d bc
       -0.30760598 0.54817754 0.32432467 -0.012557176
0002c0 e3 35 52 3f a6 17 6d 3f 79 52 9d c0 bb f5 4f c0
       0.82113475 0.9261421 -4.9163175 -3.2493732
0002d0 58 83 00 c0 00 37 ca bd 4e bc d6 bd 14 84 ba 3e
       -2.0080166 -0.09873772 -0.10485135 0.36428893
0002e0 12 60 19 bd a9 0f 6f 3f 10 63 bf bf 5e f9 2e c0
       -0.037445135 0.9338327 -1.4952106 -2.7339702
0002f0 34 19 e2 3f ea 76 76 bf 77 d3 97 3f 49 6a f7 be
       1.7663941 -0.962752 1.1861409 -0.48323277
000300 e8 eb 21 bf a4 9f 1a 3f 86 3c e7 be 88 86 db bf
       -0.6325059 0.6039984 -0.45163363 -1.7150431
000310 92 15 5b be 32 02 09 bf 00 b7 0d 3f 0c 0d a1 bf
       -0.21394947 -0.53518975 0.5535736 -1.2582107
000320 36 7a 54 bf 03 39 82 bf 4f 56 78 3f db 6a a5 3f
       -0.8299898 -1.0173649 0.97006696 1.2923235
000330 cd 9f 31 c0 ad bf d4 3f b9 86 b2 3e bb 9a 50 3f
       -2.7753785 1.6620995 0.3486841 0.814861
000340 9b 98 90 3f 5d 03 c1 c0 71 2c 9a c0 26 87 8b bf
       1.1296571 -6.0316606 -4.817925 -1.0900619
000350 75 39 cc 3f f7 ca a1 bf 17 4d 34 c0 39 3c 9e c0
       1.5955034 -1.2640065 -2.8172052 -4.9448514
000360 28 6a 82 bc 11 6b c5 be 0e 26 c9 bd e5 20 76 be
       -0.01591976 -0.38558248 -0.098217115 -0.24035986
000370 8d 11 0a 3f 72 4c 08 be 94 1b 0b 3f 47 37 6c bf
       0.5393303 -0.13310412 0.54338956 -0.92271847
000380 a8 f8 98 3d 18 e4 49 3e 78 cd b1 3e 6c f0 41 3f
       0.074693024 0.19715917 0.34727073 0.7575748
000390 6b 15 14 bf c2 cc bd bf 12 70 6b 3f 39 24 f8 3f
       -0.5784518 -1.4828112 0.9196788 1.9386054
0003a0 86 7e a9 bf dc bd db bf 38 e4 ae 3f 15 f2 bf 3d
       -1.3241737 -1.7167315 1.3663397 0.09372345
0003b0 28 c3 e4 3e 1b 08 c9 bf ff 16 e5 be ab ba 95 3f
       0.44680142 -1.5705599 -0.44744107 1.1697592
0003c0 af 67 8c 3e b1 91 8f bf eb b6 45 bf 54 48 a4 3e
       0.27422854 -1.1216336 -0.77232236 0.32086432
0003d0 c2 48 07 3e af 91 3f 3e a2 88 d9 be 29 c0 49 bf
       0.13211349 0.18707918 -0.42487055 -0.7880884
0003e0 c5 8f b5 3f 2a 1d 3a c0 0a 54 d1 bd 29 23 2d 3f
       1.41845 -2.90803 -0.10221107 0.67631775
0003f0 0e 5a c3 3e d8 c3 56 be 4d cd 47 bf e4 01 44 bf
       0.38154644 -0.20973146 -0.7804764 -0.76565385

FC1.bias f4 [256]
000000 61 e1 b4 be b6 4f f6 be 20 b8 76 bf c8 57 a5 3e
       -0.353282 -0.4810769 -0.963747 0.32293534
000010 0f 10 3e 3e c3 4e 37 3f 2d d5 f5 3d 6c 17 75 3e
       0.18560813 0.71604556 0.12003551 0.23934716
000020 4d e3 fc be bd 7b 95 bf ec c0 27 3c 1a 15 43 be
       -0.49392167 -1.1678387 0.010238867 -0.19051018
000030 f2 75 27 bf 68 15 25 3f f6 cc 3f bf cc 5d 7e be
       -0.65414345 0.6448579 -0.7492212 -0.24840468
000040 39 57 82 be 7a 3c 97 bf 3d a1 61 3f 66 61 49 3f
       -0.2545717 -1.1815331 0.88136655 0.78664243
000050 0d 11 88 bd ad a1 e0 bd dc 02 8f 3e 2b 79 dc be
       -0.06643877 -0.10968337 0.2793187 -0.43061194
000060 4a 3b a3 be ed 0d 95 3d f2 dd 38 bf 71 04 07 3e
       -0.3188117 0.07278047 -0.7221366 0.13185288
000070 fc e5 5c bf 42 a6 be bd 49 b8 97 be f7 da 0b bf
       -0.8628843 -0.09309055 -0.29632786 -0.5463099
000080 13 74 41 bf d7 5c 1e bf 2b a2 2e be 99 61 34 3f
       -0.7556774 -0.6186041 -0.1705405 0.7046142
000090 6c d1 96 be 15 31 47 bf db fd eb be b1 6c 24 be
       -0.2945665 -0.7780927 -0.46092114 -0.16057087
0000a0 b5 3d f2 bd fb 61 cc be 09 3b 28 3e 67 0e 47 bf
       -0.11828176 -0.39918503 0.1642877 -0.7775635
0000b0 df f2 ed 3d 5b 53 fd bd 2f 76 9f bf cd 1c 9b be
       0.116185896 -0.123694144 -1.2457942 -0.3029541
0000c0 d4 a6 0d 3f a1 5f 2f bd aa 72 9a 3f ff 4b 48 be
       0.55332685 -0.04281581 1.2066243 -0.1956024
0000d0 8e dd 40 bf f6 45 8d bf cf e3 11 3d 0b dc a4 bf
       -0.75338066 -1.1036975 0.035617646 -1.2879652
0000e0 e5 4b 2e be 4d 01 74 bc 84 cc a9 3d b0 3b 40 3e
       -0.17021139 -0.014892888 0.082909614 0.18772769
0000f0 43 80 57 be 98 9f 65 3d f1 3b c5 3d 7d 2e 0a 3f
       -0.21045022 0.056060404 0.096305735 0.53977185
000100 f4 f4 24 3e d1 bf 4d bf e9 f8 d2 be b1 8e 10 be
       0.16109067 -0.80370814 -0.41205528 -0.14116932
000110 a8 a0 09 3f 16 d3 ac bd bf 95 ed be 92 03 ac be
       0.53760767 -0.08438699 -0.4640331 -0.33596474
000120 9f 72 72 3f ac f7 03 40 ec 23 3a 3e d6 5f d6 39
       0.9470615 2.0619917 0.18177766 0.00040888664
000130 8b d6 10 bf bd ce 26 bf 1e 64 5c bd 9c 54 57 3f
       -0.56577367 -0.6515921 -0.053806417 0.8411348
000140 c8 10 44 bf 44 5d 64 bf 21 f4 ae 3e dc 2b f7 be
       -0.76588106 -0.8920481 0.3417063 -0.4827565
000150 45 1d 31 3d 58 d3 1b 3e 2c 68 40 be 53 c9 18 3f
       0.043240804 0.1521734 -0.18789738 0.59682196
000160 4b e4 96 bf 60 cf 03 3f 9d 01 fc 3c 4d c1 1f be
       -1.178842 0.51488304 0.030762488 -0.15601082
000170 8f 13 d7 be 8f 36 72 3f bb 21 f0 be 4e 48 e3 3d
       -0.4200711 0.946145 -0.46900734 0.110977754
000180 f4 12 86 bf ac 61 74 3e af 4c 94 bf b7 8b 95 bf
       -1.0474534 0.23865384 -1.1585902 -1.1683263
000190 d2 12 88 be 67 a2 40 3e b3 4c 67 be 1e 7c 59 bf
       -0.2657686 0.18811952 -0.22587852 -0.8495501
0001a0 71 a4 04 be 5b 34 26 3f a0 60 d2 3d 77 df ec bd
       -0.12953354 0.6492364 0.10272336 -0.1156606
0001b0 09 c7 94 be ad 69 f2 3e 09 b1 47 be 5e cb 89 bf
       -0.29058102 0.4734625 -0.19501127 -1.0765188
0001c0 8d 03 39 bf d5 72 46 be 63 ca fc be e1 17 6b 3e
       -0.72271043 -0.19379742 -0.4937316 0.22958328
0001d0 19 30 2e bf b0 ec ea bd fc 04 df be 7b e6 9e bd
       -0.6804214 -0.11470926 -0.4355849 -0.077588044
0001e0 ac 8e 55 bf f3 e2 f7 be ac 12 26 3f 6f 60 a6 bd
       -0.83420825 -0.48415336 0.6487224 -0.08123862
0001f0 4c 6d 87 bf 25 be 20 bf 96 d4 08 bf 4c b9 49 bf
       -1.058023 -0.6279014 -0.5344938 -0.78798366
000200 4c a6 2b be c5 33 fe bd 89 b5 46 3e db c0 40 3f
       -0.16762656 -0.12412218 0.19405188 0.75294274
000210 f4 b1 b7 3e ea 98 27 3e 9d 0a c1 bd 47 c8 88 bf
       0.35877955 0.16366926 -0.094258524 -1.068612
000220 f0 ce 26 bf 23 42 7f 3d 5a 99 9c be 0f 92 c1 bd
       -0.6515951 0.062318932 -0.30585748 -0.094516866
000230 78 c1 6d be 8f ba 9b 3c 5d 23 23 bf c1 58 9b be
       -0.23218334 0.019009857 -0.63725835 -0.3034115
000240 77 fd 1b bf 75 88 46 bf c8 c9 75 be e1 3f fd 3f
       -0.6093363 -0.77551967 -0.24002755 1.9785119
000250 e2 f7 59 be 71 89 b5 3d 2e 35 9c 3f ca c7 11 3e
       -0.21285966 0.088641055 1.2203729 0.1423637
000260 8a 37 3f be 4b 31 3b be 25 7f 87 3f d9 aa 1e be
       -0.1867353 -0.18280523 1.0585676 -0.1549486
000270 78 c3 61 be 85 0e d1 3c b5 24 6f 3f da 30 94 be
       -0.22047222 0.025519619 0.93415385 -0.2894352
000280 71 46 37 bf 4d 56 2e 3f c2 49 c1 3f 0a 6f 13 3e
       -0.7159186 0.68100435 1.5100634 0.14397827
000290 2b d2 3b 3e 21 01 99 3e a2 88 10 bf da 10 90 be
       0.18341891 0.29883674 -0.56458485 -0.28137857
0002a0 a9 95 ca 3e e1 ea 5b 3e 71 82 35 bf 40 13 32 bf
       0.39567307 0.21476318 -0.7090216 -0.69560623
0002b0 e1 6b 62 3f 76 ee 0f be 5e 36 17 3f 38 25 79 be
       0.8844586 -0.1405581 0.5906733 -0.24330604
0002c0 df 2a 7c 3d aa 13 c1 bd ea 42 a3 bf df 6b 93 bf
       0.061564323 -0.09427579 -1.2754796 -1.1517295
0002d0 e8 91 64 bc 22 6b f4 be b9 78 22 bf 21 a8 44 3e
       -0.013950802 -0.47737986 -0.6346546 0.19204761
0002e0 78 a2 d6 3e c3 18 2c be 03 97 86 bd ed ef a9 be
       0.4192083 -0.16806321 -0.06571772 -0.3319086
0002f0 58 b7 cf 3e 1b d8 55 bf 5d d5 4b be bd 17 06 be
       0.40569568 -0.83532876 -0.1990561 -0.13094993
000300 e1 25 ea 3e 34 9e 8d 3e e4 63 b4 3f 51 66 90 3e
       0.45732024 0.27659762 1.4092984 0.2820306
000310 9e bb 6a bd 99 5b e8 3c 09 98 dd 3e b7 a9 7e 3e
       -0.057307832 0.02836399 0.43280056 0.24869429
000320 ba 1d 49 bf 44 54 06 bf 68 ee e4 bc 3d 46 a9 be
       -0.78560984 -0.5247233 -0.027945712 -0.330614
000330 52 7e 72 be 6e 65 c9 3e 88 e8 6c 3f 35 e5 45 be
       -0.23681 0.39335197 0.92542315 -0.19325717
000340 19 1b da 3d 78 ea 71 3f 9e e3 cb be 51 6a 83 3e
       0.106497 0.94498396 -0.39822096 0.2566705
000350 81 f8 89 bf 2d 86 5c bf f0 bf 25 bf 20 09 90 be
       -1.0778962 -0.86142236 -0.64746 -0.28131962
000360 12 ba bd be 95 78 7e 3c 43 55 8f 3e ca f9 16 3f
       -0.37056023 0.015531679 0.27994737 0.589749
000370 6c 61 ec be f2 be 14 3f 12 c5 00 3e 34 43 8c 3f
       -0.46168077 0.5810386 0.12575176 1.0958009
000380 16 6c 00 bf 2c 58 18 bf cc 0a 77 bf 4c fd 2a bf
       -0.50164926 -0.5950954 -0.9650085 -0.6679275
000390 17 9c 96 3e da 74 62 bd 14 fe b1 3f fc 0b bd be
       0.29415962 -0.05528722 1.3905663 -0.36923206
0003a0 a3 30 78 3d cc 08 c8 be 79 69 5c bf 90 ef 7b 3f
       0.06059326 -0.3906921 -0.8609844 0.9841242
0003b0 54 73 8d bf 5b 2f 17 3f 40 dc fe 3e 6a 01 dc be
       -1.105082 0.59056634 0.49777412 -0.4296983
0003c0 5b c2 21 bd 9d b8 a5 bd ef 15 76 3e 1f 89 58 3f
       -0.039491992 -0.08091853 0.24031805 0.8458423
0003d0 9a 58 2c 3f e0 23 50 be a7 2d 8c be 8d 24 0b 3e
       0.67322695 -0.20326185 -0.2737858 0.13588162
0003e0 eb 06 45 bd 00 ce a7 3e 71 6c 58 be 14 88 33 3f
       -0.0481023 0.32774353 -0.21135117 0.70129514
0003f0 25 a9 d9 3a 42 1e 84 3f 3c 31 3b bf 8f 01 70 bf
       0.0016606195 1.0321734 -0.73122 -0.9375238

FC2.weight f4 [256, 256]
000000 95 28 02 3f de ea 27 bf 41 2e 69 bf 04 c3 c7 bf
       0.50843173 -0.65592754 -0.910862 -1.5606389
000010 50 6b c2 3f e3 f8 6e be 8f e5 02 3f a3 1c c6 c0
       1.5188999 -0.2333713 0.5113153 -6.1909957
000020 5d a7 2f bf 9a 7b df 3f 76 0f 04 bc 65 43 40 3f
       -0.6861475 1.7459595 -0.008060327 0.75102836
000030 ef 0f 2c c0 25 75 40 bf 46 f3 b9 bd 7e 25 ef 3e
       -2.6884725 -0.7517875 -0.09079604 0.46708292
000040 a7 90 07 c0 11 1e 82 3f 60 eb fe be 3f d3 3c be
       -2.1182039 1.0165426 -0.49788952 -0.18439959
000050 12 40 1f 3d 85 fc 25 40 56 7a c8 c0 92 fe c2 bf
       0.03887946 2.5935376 -6.2649336 -1.5233939
000060 6f 14 cd 3d 81 91 96 c0 89 68 6f bf d6 92 85 c0
       0.10013663 -4.7052617 -0.93518883 -4.1741743
000070 98 bc bb 3f e5 98 56 3f 40 17 9d 3f dc 66 c5 3d
       1.4666929 0.8382705 1.227272 0.096387595
000080 54 af 8c bf 3c a7 76 bc 26 ef 34 3f 0b 94 24 3f
       -1.0991006 -0.01505452 0.7067741 0.64288396
000090 c5 a8 62 bf 45 6d 11 40 27 99 7d 3d 67 e3 cc 3f
       -0.8853877 2.2722943 0.061913636 1.6006898
0000a0 5a 5d 6e bf d6 49 71 3d c6 db 06 c0 22 2a 86 bc
       -0.93111193 0.058908306 -2.107164 -0.016377512
0000b0 cf ff e7 3f 1e 54 0f be bd c6 1a bf f0 3e a8 be
       1.8124942 -0.13996932 -0.604595 -0.32860518
0000c0 5a f2 73 3d dd ba d4 3e 08 b6 a5 be 58 b8 94 bc
       0.059557296 0.41548815 -0.3236544 -0.018154308
0000d0 5b 34 36 bf c0 f3 5a c0 2a 8f b8 bf 74 70 26 c0
       -0.7117364 -3.4211273 -1.441869 -2.6006136
0000e0 9a 6c 00 3e 38 ac 45 3f b8 3c 10 c0 a0 1b 63 3f
       0.12541428 0.7721591 -2.253706 0.8871403
0000f0 e8 42 b3 3e 9a 16 2f 3f 3f 61 45 3f c4 ba a9 3f
       0.35011983 0.6839386 0.7710151 1.3260121
000100 8f c8 56 3e 13 37 10 40 0f f2 fe bc 3e a4 23 bd
       0.20974945 2.2533615 -0.031121282 -0.039951555
000110 4a 5b 8a 3e 3d 4d 94 bd eb 76 99 3e 0e 08 41 be
       0.27022773 -0.072412945 0.2997354 -0.18850729
000120 5f 99 39 3f 20 df 88 bf 25 df e2 3e 96 9e 79 3f
       0.7249965 -1.0693092 0.4431087 0.9750761
000130 dc 44 ee 3c 11 bf 30 bf a7 bd a4 3f eb f9 ad 3f
       0.02908557 -0.69041544 1.2870377 1.3591894
000140 1f a2 3c 3f ba 73 bf bf ee 07 8d 3e b4 2d 8e bf
       0.7368488 -1.4957192 0.27545112 -1.1107697
000150 fa eb bf 3d 4c 1c 9d 3f 72 79 32 3f b7 df 81 bf
       0.09371181 1.227426 0.6971656 -1.0146397
000160 60 f3 3e be 89 1f 34 3f fa 76 5a bc 8f 3b 4e 3e
       -0.18647528 0.7036062 -0.01333403 0.20139907
000170 43 a7 a4 3e 37 ed a0 3e 91 26 9f 3f 0c 84 82 bf
       0.3215886 0.3143098 1.2433645 -1.0196548
000180 3e 91 15 40 c3 f7 66 bf 6d 3f 19 3f e6 69 da bf
       2.3369899 -0.90221804 0.59862405 -1.7063568
000190 b4 31 8d 3f ed 9e 05 3f 7c 80 56 c0 2a 30 c4 bc
       1.1030793 0.52195626 -3.351592 -0.023948748
0001a0 f2 4f 28 3c 58 fb 5c 3e 37 56 0e 40 02 c7 76 3f
       0.010272967 0.21580255 2.2240121 0.9639741
0001b0 e8 28 a7 bf 4e d0 84 bf 10 c3 63 3f 1a 12 01 bf
       -1.3059359 -1.037607 0.88969517 -0.50418246
0001c0 90 eb 13 c0 7f e5 02 c0 8a ee 98 3f 65 d1 8c c0
       -2.3112526 -2.0452573 1.1947796 -4.400561
0001d0 46 41 e6 3f 46 90 95 3f 6e f0 20 bf 9d 5d 95 be
       1.798867 1.1684654 -0.62866867 -0.29172984
0001e0 5b 0d 37 3d 3a 68 0d c0 a7 12 8b be fb 16 e8 bd
       0.04469047 -2.2094865 -0.27162668 -0.11332508
0001f0 f5 fd fb bf 12 db 94 3f 85 e4 1d 40 b5 5d 0b bf
       -1.9686877 1.1629355 2.4670727 -0.5443986
000200 7c a0 d6 3e 0f 4c 75 3f 79 d0 82 3f 8d a2 4e 3f
       0.41919315 0.9581918 1.0219871 0.8071678
000210 17 7f 6f 3f 6d 6a 11 bf 33 f4 fa bf df 00 d0 3f
       0.935533 -0.5680302 -1.9605774 1.6250266
000220 81 b7 4c 3f c1 b3 70 bf 42 30 3f c0 ff 6c 1f 3f
       0.79967505 -0.9402428 -2.9873204 0.6227569
000230 3e 22 b2 bc a2 7c a6 bf 7b 38 92 3f 5d 54 84 3f
       -0.021744844 -1.3006785 1.1423486 1.0338246
000240 62 07 09 c0 f6 c8 a6 be 95 af 79 3f 4a 51 64 3f
       -2.1410756 -0.32575196 0.9753354 0.8918654
000250 5a 80 8d bd 66 46 87 3f 7c ef 67 3f 70 f8 0e be
       -0.06909247 1.0568359 0.905998 -0.13961959
000260 cc a5 a3 c0 73 ae e1 be b2 e8 20 bf d2 46 15 bd
       -5.113989 -0.44078407 -0.62855065 -0.036444493
000270 ae 04 92 bf 50 c6 55 40 fb 5a 93 3f ef 8f 86 bf
       -1.1407678 3.340229 1.151214 -1.0512675
000280 25 d8 fb 3e 02 06 16 c0 78 30 41 bd 2b 39 32 3f
       0.49188343 -2.3441167 -0.047165364 0.6961848
000290 ff 48 8d bf 5a f8 94 bf 59 2e ec 3e 84 82 9b bf
       -1.1037902 -1.1638291 0.4612911 -1.2149205
0002a0 b9 2a a3 3e 8f a6 4c bf 48 85 66 40 67 ad 08 bf
       0.31868532 -0.7994165 3.6018848 -0.5338959
0002b0 95 b6 99 bf 4b a8 7a bf 2b 39 17 bf fc 0d 04 c0
       -1.2008845 -0.97913045 -0.59071606 -2.0633535
0002c0 f6 c1 ce bf 67 9d 4a bf 64 d8 a5 be 66 d3 de 3e
       -1.6152942 -0.79146427 -0.32391655 0.4352066
0002d0 f0 f1 8e 3f d4 2a ea 3f 4e 13 7b bf 74 58 0b 40
       1.1167583 1.829432 -0.9807633 2.1772738
0002e0 fa fb 65 3f 95 07 d5 bd 39 ea 31 3f 50 73 64 3f
       0.8983761 -0.10401837 0.6949802 0.8923845
0002f0 85 5d f8 be 09 a7 30 c0 98 54 1b 40 92 92 35 3e
       -0.4850885 -2.760195 2.4270382 0.17731693
000300 81 e8 8a bf a8 67 98 3e bc f4 86 bf a5 72 41 3e
       -1.0852205 0.29766583 -1.0543437 0.1889139
000310 6b 60 69 3e 4c 5f 9f be 3c 6e 6c 3f 87 ef 42 c0
       0.22790687 -0.31127393 0.92355704 -3.0458696
000320 d8 c5 b3 3f 29 b1 b7 3e 88 75 53 bc 44 0a 9f c0
       1.4044752 0.3587735 -0.01290644 -4.970003
000330 08 09 aa 3f a0 99 ae bf 35 7c a4 bf 7a e9 fa 3f
       1.3284006 -1.3640633 -1.2850405 1.9602501
000340 18 05 04 3e 83 49 2c c0 ce f3 b4 3e ed df 97 3f
       0.12892568 -2.6919868 0.35342258 1.1865212
000350 20 b5 7c 3f ed e1 89 3f 2c a7 90 bf d7 3a d5 bd
       0.98713875 1.0772072 -1.1301017 -0.104116134
000360 81 06 da bc 79 0c 6f be d9 0a 60 c0 72 03 82 bf
       -0.02661443 -0.23344602 -3.500662 -1.0157301
000370 f4 6d 05 c0 aa 87 23 bf 81 1d b8 3f 08 4e 74 3f
       -2.084836 -0.6387888 1.4384004 0.95431566
000380 4f 0e 2a 40 4d ce 6f bf 40 6c 92 3f 5d 86 4f 3f
       2.6571233 -0.93674165 1.1439285 0.810644
000390 ea 13 21 bf 29 45 64 3e 76 1d 80 bf f0 c7 b6 bf
       -0.6292101 0.22292008 -1.0008991 -1.4279766
0003a0 c8 8a 73 3e 45 2e 32 c0 6f 1a ae 3e 96 dc 68 bf
       0.2378341 -2.784074 0.34004542 -0.9096159
0003b0 e7 1c d1 c0 9e 58 a6 3f 4b 7e 1e 3f 15 8b 94 be
       -6.534778 1.2995794 0.6191146 -0.2901236
0003c0 93 d0 26 3f fe a7 6c c0 a5 0a 16 bf 20 51 29 3f
       0.6516201 -3.6977534 -0.5860999 0.6613941
0003d0 3c 04 ad 3f b5 b2 d9 3e fe ff 4c 3f 41 50 62 3f
       1.3516917 0.42519155 0.80078113 0.8840371
0003e0 14 f0 41 bd 55 97 9c 3f ff ba f2 be cd 27 a1 3c
       -0.047348097 1.2233683 -0.47408292 0.019672299
0003f0 9c 82 3b c0 89 46 84 bf 39 c9 85 c0 d7 78 1a 3f
       -2.9298468 -1.0334026 -4.1808133 0.60340637

FC2.bias f4 [256]
000000 3f 49 58 bd 68 31 a3 bd 81 f7 0f bf d5 9c b5 bc
       -0.052804228 -0.07968408 -0.56237036 -0.02216951
000010 30 9c d0 bf 88 3e 12 bf 8c f5 ff be 61 4f 74 3d
       -1.6297665 -0.57126665 -0.49992025 0.059646014
000020 e1 6f 8e bf 2c ce 8d bf f6 38 a6 bf 7e d6 db bd
       -1.1127893 -1.1078544 -1.2986133 -0.107342705
000030 3b 83 b6 bf 32 d3 81 bd b6 24 91 bf ae 01 94 bf
       -1.4258798 -0.063391104 -1.1339328 -1.1563013
000040 66 ae 89 3d 78 64 5d be 82 ce f8 bd 6a d2 b4 bf
       0.06722717 -0.21620357 -0.12148763 -1.4126713
000050 62 ba 8e bf e1 51 71 be ae 49 01 3f 93 9a b4 bf
       -1.115063 -0.2356639 0.5050305 -1.4109672
000060 12 08 18 3e 34 00 34 be 52 4b 52 3e 8a be 5c bd
       0.14846829 -0.17578202 0.20536545 -0.05389265
000070 b5 b5 07 bf bd dc 38 bf e0 ca f9 bf 7f dd 9f bf
       -0.5301164 -0.7221182 -1.9515038 -1.248947
000080 5d ab db bf b1 7f cb bd b0 bb 9d be 0e f0 57 bf
       -1.7161671 -0.099364646 -0.30807257 -0.8435067
000090 f6 4c fe bd 03 c1 70 be 35 87 15 c0 b6 a6 21 3f
       -0.12417023 -0.23511128 -2.3363774 0.63145006
0000a0 43 b0 63 be 31 69 b8 bf 56 4a 2a 3f b4 9c e4 be
       -0.22235207 -1.4407102 0.6651968 -0.44650805
0000b0 ec f5 08 bd 97 fa ac bf 34 4f 84 bf 8d b1 b1 3e
       -0.033437654 -1.3513974 -1.0336671 0.34705773
0000c0 12 2a 0b be bd 5e d9 bf 3a 37 42 bf 42 02 74 bf
       -0.13590267 -1.6982037 -0.7586552 -0.95315945
0000d0 fa c6 10 be 24 05 ef be 59 c7 d6 bf e6 f7 06 be
       -0.14138404 -0.4668361 -1.6779586 -0.13180503
0000e0 d6 69 fb be 2c e6 dd be a6 68 8c be df e8 7d be
       -0.49104184 -0.4333967 -0.2742359 -0.24795865
0000f0 87 34 58 3e 13 04 02 be 26 3f d9 bf f3 b2 d1 bd
       0.21113788 -0.12696867 -1.6972396 -0.1023921
000100 88 08 24 3f 7d 81 f1 3c 19 50 25 bf 31 0f 15 bf
       0.6407552 0.02948069 -0.64575344 -0.58226305
000110 f0 2c cc be bf 7f 3f bc 32 c2 6d bf 8c 20 2f bf
       -0.39878035 -0.011688172 -0.92874444 -0.6840904
000120 47 d1 16 be 3a b0 83 bd f3 e2 f7 3d bc d5 f3 3d
       -0.1472827 -0.06430097 0.12103834 0.11906001
000130 89 34 f2 bf ad d4 03 bf 41 af 24 bf f6 9d 64 bf
       -1.8922282 -0.5149639 -0.64329916 -0.8930353
000140 72 75 d1 be bd 0b d3 bf 18 83 af bd 3c 57 0a bf
       -0.40909916 -1.6487957 -0.08569926 -0.5403936
000150 ca 80 16 be 39 b4 05 c0 12 cb 3b bf 43 2a d1 be
       -0.14697567 -2.089125 -0.73356736 -0.40852556
000160 2b 3f 16 bf f7 44 87 3f cd 19 94 bf db fa 32 bf
       -0.58690137 1.0567921 -1.1570374 -0.69914025
000170 12 cd 06 bf f6 03 09 c0 cc d8 a7 bf 9e 47 88 be
       -0.5265666 -2.1408668 -1.3113036 -0.2661714
000180 bb 26 bd bf cf fa ab bf 1e 89 d6 bf 84 d4 9b bf
       -1.4777445 -1.3435916 -1.6760595 -1.217423
000190 31 56 3c bf 1b 11 20 bf ef dc ee 3d 42 79 fa be
       -0.7356902 -0.625261 0.116632335 -0.48920637
0001a0 9d d6 3e bf ac 6e 7d bf 6f d3 a8 3f 88 32 63 bd
       -0.74546224 -0.98996997 1.3189524 -0.055468112
0001b0 6c 42 bd bf 4f 87 7d bf c0 42 49 be 9b 48 1a bf
       -1.4785895 -0.9903459 -0.1965437 -0.6026704
0001c0 06 fb 57 be e4 65 bd 3e fc ee 72 3d 86 4d 9a bf
       -0.21091852 0.369918 0.059309945 -1.2054908
0001d0 91 77 ec be bd a7 82 bf 56 2c c5 bf 9b ac 92 bf
       -0.46184972 -1.020744 -1.5404155 -1.1458925
0001e0 d6 8f 6f bd be 57 94 bf 8a 42 38 3f c4 d6 88 bf
       -0.058486782 -1.1589277 0.7197653 -1.0690541
0001f0 9d 6f a0 bd 6d 75 78 3e be cd 4a be 48 8b 65 bf
       -0.078337885 0.24263544 -0.19805047 -0.8966565
000200 69 3e 22 be 0d 1e ba bf 28 77 ea bf f0 b4 26 bd
       -0.1584412 -1.4540421 -1.8317614 -0.0406999
000210 a7 86 22 3c e8 53 87 be 7a 80 81 bf 1e 73 81 bf
       0.009919799 -0.26431203 -1.0117333 -1.0113256
000220 3d 79 03 be de e1 d2 3f ce f6 e7 bf dd 69 d5 bd
       -0.12839217 1.6475179 -1.8122194 -0.104205824
000230 78 9d e9 be 6d eb c1 bd 97 52 ff 3d 28 07 4a bf
       -0.45627952 -0.09468732 0.12466925 -0.7891717
000240 47 14 30 bf 1c b4 1a bf a3 5e 55 bf 0a ea f0 be
       -0.6878094 -0.60431075 -0.8334753 -0.47053558
000250 ad a8 09 bf e5 09 f5 bf cb da ef bf 5c 9d 26 bf
       -0.53773004 -1.9143645 -1.8738645 -0.6508386
000260 d4 d4 0f 3d 90 2f 05 be cf cf 11 3f f7 ea 30 c0
       0.035115078 -0.13006425 0.56957716 -2.764341
000270 6a 94 40 bf 1e e2 bd bf 09 ed 2e 3d c8 4b 83 be
       -0.7522646 -1.483463 0.042706523 -0.25643754
000280 83 73 48 bd c4 85 3a 3e cb a0 c0 bf bb 30 44 3f
       -0.048938286 0.1821509 -1.504907 0.76636857
000290 30 98 1a bf 3b 6b 25 bf 6c 94 8b bf 5e f4 29 bf
       -0.6038847 -0.64616746 -1.090467 -0.663885
0002a0 f5 01 85 bf 43 a5 35 bf 3c ec 97 bf a8 cf c4 bf
       -1.0391222 -0.70955294 -1.1868968 -1.5375872
0002b0 59 7d 8c bf 5e a7 e3 bf b3 a1 9f bf bd 51 03 c0
       -1.0975753 -1.7785451 -1.2471222 -2.051864
0002c0 dd 38 84 bf 5e 63 a8 bf 3f 92 58 bf f1 01 ec 3e
       -1.0329853 -1.3155324 -0.84598154 0.4609523
0002d0 e3 ea 22 bd 9f 33 9e bf fa 7c 71 bf ed 3a 3a bf
       -0.039774787 -1.2359504 -0.94331324 -0.72746164
0002e0 f6 9b 34 3f 7d 83 b6 bf 7e db bc bf 68 eb 94 bd
       0.7055048 -1.4258877 -1.4754484 -0.07271463
0002f0 75 f3 50 be 63 b7 a0 be cc 91 dd bf 81 07 7d bf
       -0.20405371 -0.31389913 -1.7310119 -0.98839575
000300 1e d8 45 be 96 4f 8b bf 92 ce 07 bf c1 18 60 bd
       -0.19320723 -1.0883663 -0.53049576 -0.054711107
000310 f7 07 4f be a8 ab fe bf fd 7f 81 be ce fa 57 bf
       -0.20217882 -1.9896135 -0.2529296 -0.8436707
000320 f8 62 6b bf 1f f0 73 bd 4c 4a 3e be 64 8f b5 bf
       -0.9194789 -0.05955517 -0.1858303 -1.4184384
000330 ec b8 40 be 84 5e 31 3e 51 eb b6 bf 8d f7 a3 bf
       -0.18820542 0.17321211 -1.4290563 -1.2809922
000340 84 e4 a5 be c4 fb 2e 3f 9c e5 bb be 66 38 7b bf
       -0.32400906 0.68352914 -0.36698616 -0.9813293
000350 42 7b d0 3e 6e fc 64 bf 96 0c 52 bf bf 21 9f bf
       0.40719038 -0.8944768 -0.82050455 -1.2432173
000360 56 1a 2c c0 e6 30 83 3d e4 f3 b7 bd 3f 9f da bf
       -2.6891074 0.06405811 -0.08982065 -1.7079848
000370 3e d5 37 bf 36 c1 e6 be 2f 41 c2 bf 84 ea 27 be
       -0.71809757 -0.45069283 -1.5176142 -0.16398054
000380 c6 72 05 3d 42 80 be bc be ce 9a bf 1b 1f c8 bf
       0.03258016 -0.023254517 -1.2094343 -1.5634493
000390 d1 51 e9 bf 91 cd f8 bf 48 a1 24 bf a1 c6 af bf
       -1.8228093 -1.9437734 -0.64308596 -1.3732492
0003a0 68 0c 8f be 81 9b 06 bf c5 52 2a bd fe cf 4b bf
       -0.27939153 -0.5258103 -0.04158284 -0.79614246
0003b0 66 7f 77 bf b7 2d ed be 65 24 fa bf 71 70 a3 bf
       -0.9667877 -0.4632394 -1.9542357 -1.2768689
0003c0 c8 14 d6 bd ed 0c 7c bf dc 88 9e bf 45 e1 59 3f
       -0.104531825 -0.98457223 -1.2385516 0.8510936
0003d0 b1 6c b3 bf 56 e0 57 bf 35 97 de bd 57 22 85 bf
       -1.4017545 -0.84326684 -0.10868684 -1.0401105
0003e0 ce 26 bb bf d7 cb 09 be 1c 30 25 bf 76 c9 4c bf
       -1.4621217 -0.13456665 -0.64526534 -0.79994905
0003f0 ae 4c 90 bd f6 9d 56 be d6 97 20 bf 65 b3 1e bf
       -0.070458755 -0.20958695 -0.62731683 -0.61992484

action_out.weight f4 [5, 256]
000000 af bd c2 3f e1 3f 83 bd e6 ca 62 3f bb 98 f2 bf
       1.5214137 -0.06408668 0.8859085 -1.895286
000010 8c 7e 37 bf 1e 13 63 c0 0d 54 b8 3f 24 47 4f 3f
       -0.7167747 -3.5480418 1.440065 0.80967927
000020 78 6b 62 bf b6 58 02 c0 1f a4 b3 3f 7e f9 0d 3f
       -0.88445234 -2.0366645 1.4034461 0.5545882
000030 b1 43 4c bf 85 3f 23 bc 85 9d 91 bf 1f d6 86 3e
       -0.7979079 -0.009963875 -1.1376196 0.26335236
000040 79 77 26 40 c7 c6 82 3d a0 46 d7 3e 3b e5 17 3f
       2.601042 0.0638557 0.4204607 0.5933415
000050 b5 de a8 3f 04 b6 a1 3f c6 fc 68 3f e4 a0 57 3f
       1.3192965 1.2633672 0.910107 0.84229875
000060 af d1 12 3e 36 90 ef 3f 18 00 0f 3f 5a 4f 31 3f
       0.143378 1.8715885 0.5585952 0.69261706
000070 fa ae c3 3e 1d f9 2e 3e 96 7b 11 bf 7d 2c 47 40
       0.38219434 0.17087217 -0.568292 3.1120903
000080 e5 19 fa 3e 77 39 ed 3c 9c 92 fb 3e 46 13 22 40
       0.4884788 0.028958065 0.49135292 2.5324264
000090 d5 98 65 bd fa a8 09 3f 52 1d 9d 40 bd e8 c8 3f
       -0.056053955 0.5377346 4.909829 1.5696026
0000a0 4e 75 e2 3f 23 77 73 3d 53 94 66 3f a5 79 9e 3f
       1.7692049 0.05943979 0.90070075 1.2380873
0000b0 a5 52 a0 3e ee cd 91 bf d6 db 15 3f 05 88 e6 3e
       0.31313053 -1.139097 0.5853857 0.4502565
0000c0 21 26 d2 3f 61 ee 5a 40 fa ae 15 3f 8e f4 f1 3f
       1.6417886 3.4207995 0.5847012 1.8902757
0000d0 3d 16 7b 3f 7a 4c 2d 40 c9 a1 5b 40 77 91 b7 3f
       0.9808081 2.7077928 3.4317496 1.4341267
0000e0 8b aa e5 3f 31 f4 42 3f cf c5 9a 3f 0c e0 53 3f
       1.794267 0.76153857 1.2091616 0.82763743
0000f0 4b c8 c2 3f 8e 72 f2 3f 47 0d d0 bf a0 e1 7d be
       1.5217375 1.8941209 -1.6254052 -0.247931
000100 13 45 18 40 5a 51 b4 3f e9 1e 87 3f e6 41 b3 3f
       2.379216 1.4087327 1.0556308 1.4004486
000110 70 0d 53 3f 11 58 c9 3f ae 62 18 bf 0a 29 10 bf
       0.8244238 1.5730001 -0.59525573 -0.5631262
000120 8f 54 e9 3e 94 7f 6e 3f 24 1a 12 be 57 d1 0a bf
       0.45572326 0.9316342 -0.14267784 -0.5422568
000130 1c f8 44 40 0d 6d 95 be 9c 0f 26 3f c1 3e 68 3f
       3.0776434 -0.29184762 0.6486757 0.90720755
000140 de 78 4f bf c1 e1 dd 3e 18 b4 c9 3e b8 59 89 3f
       -0.81043804 0.433363 0.39395213 1.0730505
000150 96 e9 b2 3e 68 23 d6 bf 8b 79 73 40 c9 dc 11 40
       0.34943837 -1.6729555 3.8042934 2.2791007
000160 97 8f 9a 3e 6b 9b c9 3f 58 6d 50 3f ca c0 b1 3f
       0.30187675 1.5750555 0.81416845 1.388696
000170 a4 6c 98 3f 67 06 93 3e 49 fa 9f 3f 35 b6 84 3e
       1.1908154 0.28715822 1.2498256 0.25920263
000180 ee 03 c9 3f 23 cb 4a 3f 3f 55 3b 3f 38 b0 05 3f
       1.5704324 0.7921621 0.7317695 0.52222013
000190 0f d7 c6 be 39 83 ab 3f 7f ea 9a 3f b9 11 85 3e
       -0.38835952 1.3399421 1.2102813 0.25990084
0001a0 75 53 99 3f 43 3f 63 be 8d c5 91 3f 61 f2 ce 3f
       1.1978594 -0.22192101 1.1388413 1.6167718
0001b0 72 dc f0 3e e7 10 cd 3e ca ee b4 3e e1 bc 85 3d
       0.47043186 0.40051958 0.35338432 0.065301664
0001c0 83 aa 37 bf 74 03 f1 3f 7f 29 01 40 f9 37 c9 3f
       -0.71744555 1.8829179 2.0181577 1.5720206
0001d0 09 0c 3e bf 6d c3 18 40 39 20 c3 bf 13 66 c2 3f
       -0.74237114 2.3869278 -1.5244209 1.51874
0001e0 e8 fc 8f 3c c2 8f c0 3f 0c 84 9a 3f 8b b8 db 3f
       0.01757665 1.5043871 1.2071548 1.7165693
0001f0 e5 3d 82 3d 49 0a 2d 3f e3 7f c5 3e 6c 7b 8c 3f
       0.06359462 0.6759382 0.38574132 1.0975165
000200 9b 14 9f 3f 92 d4 54 40 e5 9e 07 3f 1f d7 a1 bc
       1.2428163 3.3254743 0.5297683 -0.019755898
000210 d9 47 e8 3f 4a 53 93 3f 47 9b bb 3c 77 0b b1 3c
       1.8146926 1.1509793 0.02290119 0.021611912
000220 18 13 b3 3f ca a4 ae 3f ea 55 86 3f 3f 8d 84 3e
       1.3990202 1.364404 1.0494969 0.25889012
000230 69 79 12 3f 54 1c f2 3e 0d da 9f 3f 1c 03 bd 3f
       0.5721651 0.47287238 1.2488419 1.4766574
000240 85 98 72 c0 19 56 08 40 b9 ff 1e 3f c7 56 20 3f
       -3.790559 2.130255 0.6210895 0.6263241
000250 d8 39 8e 3f 88 c7 1a 40 5b 4e 3d 3f 15 5f 83 bd
       1.1111403 2.4184284 0.73947686 -0.0641462
000260 17 5c eb 3f e4 4d be 3e 76 26 88 3f 9a f2 50 3f
       1.8387479 0.371688 1.0636737 0.8162018
000270 82 2c 96 3f 1a 18 3c 40 e7 ad 42 3f d3 3a 00 bf
       1.1732333 2.938971 0.76046604 -0.5008976
000280 6e af 40 3f 3e 32 97 3f 92 a4 27 40 5c 4c 98 3f
       0.75267684 1.1812208 2.6194196 1.1898303
000290 e3 d1 57 40 50 7c 95 be c7 65 a2 3f a6 67 e2 3e
       3.3721855 -0.29196405 1.268731 0.44219702
0002a0 f3 11 25 40 a5 db bb 3f 0e 05 2e 3e ee 27 b3 3f
       2.5792205 1.4676405 0.16994116 1.399656
0002b0 31 70 f5 3e 1b 66 06 3f 37 e0 52 40 a1 5e 00 3f
       0.47937158 0.5249955 3.294935 0.5014439
0002c0 51 89 22 40 c5 f6 b0 3f 39 77 a3 bf c2 45 a9 3f
       2.5396311 1.3825308 -1.2770759 1.3224413
0002d0 82 68 b1 ba 86 e7 d3 bd 94 90 94 bd 3f 7b a0 3f
       -0.0013535174 -0.10346894 -0.072541386 1.2537612
0002e0 c0 6c ff 3f 92 7e f2 3f 92 cb 0f 3f d2 1c 3a 3f
       1.9955063 1.8944876 0.5617 0.72700226
0002f0 8b 90 76 3e ec 24 e7 3f bc d1 d0 3f 08 df e6 3f
       0.24078576 1.8058143 1.6314006 1.8036814
000300 00 14 bf 3f e6 ea 33 bf 4d 1d 9c 3f 9e c1 8b bc
       1.4927979 -0.702803 1.2196442 -0.017060097
000310 a9 f2 81 bf 0a 6d c6 be a0 d0 e8 3f 0a 45 98 bf
       -1.0152179 -0.38755065 1.8188667 -1.1896069
000320 92 1d 2d 3f ad d0 10 bd e3 d2 12 3e 78 cf 13 bf
       0.67623246 -0.03535526 0.1433826 -0.5773845
000330 8a ae cd bf 38 b8 86 3f 7e da 02 c0 0e ab ab 3f
       -1.606889 1.0524969 -2.0445857 1.3411577
000340 f7 7d 03 be 81 e4 ef 3f 44 3c a0 3f 8b 6b 10 40
       -0.1284102 1.8741609 1.2518392 2.256564
000350 7c 34 3d bf da e1 68 3f ff c5 ff 3f b5 90 70 bf
       -0.7390821 0.9096962 1.9982299 -0.93970805
000360 75 9a 01 c0 1c 7b cc 3f 9d 36 19 bd c5 1d 2b 3f
       -2.0250523 1.597507 -0.0374056 0.668423
000370 4d ce ba bf 14 a7 42 3f 89 39 2f be 1d ac 50 3e
       -1.4594208 0.7603619 -0.17111792 0.20378156
000380 0a 64 bd bc 73 9d 64 bf 36 6d b4 3e d5 75 75 3f
       -0.023118991 -0.8930275 0.3523957 0.9588292
000390 11 cc 88 3c c3 6f 71 3f 40 65 86 3f 86 b7 d8 3f
       0.016698869 0.9431116 1.0499649 1.6931007
0003a0 03 b8 eb 3f 93 a1 6e 3f 95 fc b4 3f 59 b8 f5 3f
       1.8415531 0.9321529 1.4139582 1.9196883
0003b0 2d 4b c4 3f 2e 98 aa 3f 2c e4 d4 3e 7d b4 4a 3f
       1.5335442 1.3327692 0.4158033 0.79181653
0003c0 79 e4 0e 3d 84 75 4a bf 53 42 63 be 3e c1 20 40
       0.034885857 -0.79085565 -0.2219327 2.5117946
0003d0 f6 a9 24 c0 f8 13 53 3f 49 17 95 3e 6f 5a bf 3c
       -2.5728736 0.82452345 0.29119328 0.023358552
0003e0 f5 72 b7 3e ab 08 6f 3d bf bd e9 3f ac 80 5f bf
       0.35829893 0.058357876 1.8261031 -0.8730571
0003f0 4a 0a 1e 3f 74 ea be 3d 58 dd c4 3f 46 b9 0a 40
       0.6173445 0.09322062 1.5380049 2.1675582

action_out.bias f4 [5]
000000 1a 1b d4 3e 0e d9 3c c0 dd 90 ba 40 af 62 0e bf
       0.41426927 -2.950748 5.8301835 -0.5561933
000010 53 3e 4a 40
       3.160054

weight f4 [256, 123]
000000 0b ac 40 c1 44 cd 94 be 52 8d e1 bd 24 8d 95 be
       -12.042003 -0.29062855 -0.11013283 -0.29209244
000010 c8 78 fd bd cf ab a1 be 99 d7 93 be cb 39 fd bc
       -0.12376553 -0.31576392 -0.28875425 -0.030911347
000020 2e be bf 3f 87 cb 91 3d 8a 32 58 3d 6d ea 7c 3d
       1.4979913 0.07118898 0.052782573 0.061747003
000030 f9 d4 23 3e e9 f3 fa bc 12 db 28 be 08 75 ed bf
       0.15999211 -0.030633884 -0.16489819 -1.855134
000040 d1 c3 fb be fb 1d 87 bf 7e 8b 5e bf 48 c9 9b be
       -0.49172834 -1.0556024 -0.869316 -0.30427003
000050 02 55 3f be 48 bc 84 bf 66 90 cd 3d 52 ff 6a 3f
       -0.18684772 -1.0369959 0.100373074 0.9179584
000060 0b 50 7f bf f4 e3 a0 bf 02 fd 61 bc 02 d8 bf bf
       -0.9973151 -1.2569566 -0.013793232 -1.4987795
000070 3a 54 1b 3d 30 c4 52 be 1f e1 7a bd fd af 98 be
       0.03792212 -0.20582652 -0.06124985 -0.29821768
000080 da 9f c3 bf 50 4e 6d bc d8 84 d5 bc 68 37 1f bf
       -1.5283158 -0.014484003 -0.026064321 -0.6219392
000090 35 a8 41 c1 e4 2d 25 3e 9f 00 ef 3d 2d dc dd be
       -12.103566 0.16130787 0.1167004 -0.43332043
0000a0 7b 08 ad bc a1 d9 b3 be 85 2b a4 be e0 b8 97 3f
       -0.021122208 -0.35126975 -0.32064453 1.1853294
0000b0 2d 23 2d 3e 3a b6 68 3f 05 83 6c 3f 6d b8 7b 3d
       0.1690795 0.90903056 0.9238742 0.06145518
0000c0 79 ce 16 3e a9 81 df bb 4c 8a 65 be 14 01 bf bf
       0.147272 -0.0068208766 -0.22416037 -1.4922204
0000d0 e4 6f f8 3f 4c 43 eb 3c a5 ee 82 3d d8 84 d3 be
       1.9409146 0.028718613 0.06393174 -0.4131229
0000e0 84 da 1e be e9 bb 7b bf 6c c9 82 3e f8 2e ef 3f
       -0.15513045 -0.98333603 0.25544298 1.8686209
0000f0 be a4 b7 bf 9b cb f8 3d 8c ca c8 3e f0 66 b4 bf
       -1.434715 0.1214821 0.3921703 -1.4093914
000100 97 40 7a be 17 4e 0a 3d 18 3b 9c be 36 25 84 be
       -0.24438702 0.03376588 -0.30513835 -0.2580964
000110 16 e1 5d bd e4 37 c2 bf 61 15 9d 3d a7 16 cd 3f
       -0.054169737 -1.5173306 0.07670093 1.6022538
000120 1b 54 40 c1 86 1f 99 be e9 a5 1c bd 44 5d a1 be
       -12.020534 -0.29906863 -0.03824416 -0.3151647
000130 2b eb eb bc 22 bb c2 be 8d 06 cc be d2 9b 8e 3f
       -0.02879866 -0.38033396 -0.39848748 1.1141303
000140 6e 4c 08 bf 16 4b a0 3f fb e4 1a 3e a0 b4 0f 3e
       -0.5324162 1.2522914 0.15126412 0.14033747
000150 3f ec 05 3e be db 0a bd 5e 67 8e be 43 1b b2 bf
       0.13078402 -0.03390097 -0.27813238 -1.391457
000160 3f 86 97 3e e9 cb 09 3d 82 6f 08 bf 29 3b a3 be
       0.2959461 0.03364173 -0.5329515 -0.31881073
000170 4a 27 08 bd dc 8c 81 bf e5 eb 73 3e 48 e0 53 40
       -0.033240594 -1.0121112 0.23820455 3.310564
000180 e6 11 10 c0 60 90 d5 bc 06 5b 1f 3d 28 9b b2 bf
       -2.2510924 -0.02606982 0.038905166 -1.39536
000190 be 9c ce bd d2 9a 49 bd 5d b6 99 be 11 1b 35 be
       -0.1008849 -0.049219914 -0.30021945 -0.17686106
0001a0 e0 b4 f1 bb 70 ce f6 bb f0 75 ba bf f7 fd 05 c1
       -0.0073762983 -0.0075319335 -1.4567242 -8.374503
0001b0 f9 4b a0 3e 4e 2c d5 3e de 5b c7 be e3 79 c4 3e
       0.31307963 0.41635364 -0.38937277 0.38374242
0001c0 6d 76 19 bf ba 9f 1d 3e b2 e5 a1 bd 29 d2 a1 3e
       -0.5994633 0.15392962 -0.07905139 0.31605652
0001d0 47 ef 44 bd 31 b2 97 3d 94 17 66 bd ac 19 68 bc
       -0.048079755 0.07407034 -0.05617483 -0.014166277
0001e0 f1 14 4c 3d 60 40 93 3d 7e 97 17 bd 06 9f 04 3f
       0.04982466 0.07190013 -0.03700971 0.5180515
0001f0 26 fe de be f5 cb b3 3e 06 4b a8 be fb 7e a2 3e
       -0.43553275 0.35116544 -0.32869738 0.31737503
000200 2b fb 17 bf 89 98 88 3f 34 ac eb 3f f4 c0 60 bf
       -0.59367627 1.067155 1.8411927 -0.87794423
000210 1e b1 a5 bd 30 fa 15 3c 87 4b 1b be 41 f1 e6 3e
       -0.08090423 0.009153888 -0.1516553 0.45105937
000220 69 0f 6f c0 e2 e4 7b 3f 03 15 05 40 06 95 88 bf
       -3.7353156 0.9839612 2.0794075 -1.0670478
000230 29 19 ad 3e 43 e3 f0 be eb 61 af be f5 0b 67 3f
       0.33808258 -0.47048387 -0.34254393 0.9025262
000240 e5 e7 e3 bd 34 55 bd be a0 df f9 bf af f1 91 3e
       -0.11128215 -0.36979067 -1.952137 0.28504702
000250 cd 14 16 be d7 f0 0c bf a2 e7 62 bf 3b f8 9a bd
       -0.14656372 -0.5505499 -0.88634694 -0.075668775
000260 9a b3 fd 3c 79 79 06 bd 4b f9 22 bc e4 49 67 bf
       0.03096943 -0.03283069 -0.009947131 -0.90347123
000270 b2 7f 7d 3d 95 00 81 3d a8 2c 89 3e 5f 69 12 3f
       0.061889358 0.06298939 0.26791883 0.57192034
000280 cf ee 85 bd ff 80 ba 3e fe 82 a9 be c5 e6 8a 3e
       -0.0653969 0.3642654 -0.33107752 0.27129188
000290 75 ab 19 bf 81 6b 75 3f 1e 75 5a bd 27 e9 9d be
       -0.6002725 0.9586716 -0.053334348 -0.30841944
0002a0 ad a6 cd be 7c 78 0e 3f 3b 3c f0 39 c9 31 cc 3e
       -0.40166226 0.55652595 0.00045821242 0.39881733
0002b0 05 31 72 c0 c4 ba 7c 3f 92 a2 a8 40 9b ca 62 c0
       -3.784242 0.9872248 5.269845 -3.543616
0002c0 f0 d1 b2 3b ad 15 0a bd 1d 3e 8f be 21 79 6a 3f
       0.0054571554 -0.033712078 -0.27977076 0.9159108
0002d0 f9 8a 38 bc 85 92 03 bf 4a cd 07 c0 80 10 f6 3e
       -0.011263602 -0.51395446 -2.1219049 0.48059464
0002e0 98 de 06 bf c9 08 b9 3d 82 c4 6b bf 57 6c 7c 3b
       -0.526834 0.09034879 -0.9209672 0.0038516724
0002f0 ba d6 0e 3d 50 d3 18 be 08 92 77 be c5 2d b4 3d
       0.034872748 -0.1492436 -0.241768 0.08797792
000300 e0 65 76 bf c2 9f 2e 3d 8a c2 93 3f ad c5 0a 3f
       -0.962492 0.042632826 1.1543744 0.5420788
000310 af c4 e0 be 5d 62 76 3f da 9e f3 be 37 05 8f 3e
       -0.43900058 0.9624384 -0.47582132 0.27933666
000320 37 9e 2b bf dd 15 8b 3f 64 70 46 3e 1c 57 af 3e
       -0.6703829 1.0866047 0.19378811 0.34246147
000330 f4 67 4e 3d ae 92 e0 3e 92 e1 6e bd 83 30 b1 3e
       0.050392106 0.43861908 -0.05832059 0.34607324
000340 13 70 72 c0 e2 05 79 3f 7a 08 c4 3f ee e4 59 bf
       -3.7880905 0.972746 1.5315087 -0.85114944
000350 ff 89 e4 3e a1 81 46 be c1 c3 ca be eb 64 6e 3f
       0.44636533 -0.19385387 -0.39602473 0.9312274
000360 8b 4a 26 3d 04 7a ba be 95 93 0f c0 08 a3 35 3e
       0.040598433 -0.36421216 -2.2433827 0.17737973
000370 00 30 d2 3a 35 4a 9c 3d 12 fd 66 bf 10 8a dc bd
       0.0016036034 0.07631341 -0.90229905 -0.10768521
000380 f1 1e c0 bc 9d 5c e7 3d a9 06 7f 3d be 62 33 3d
       -0.023452254 0.112969615 0.06226221 0.04379534
000390 17 94 87 3d 24 d6 71 bf 60 e8 f3 be 70 c2 0e 3d
       0.06620043 -0.9446738 -0.47638226 0.0348534
0003a0 83 d4 a4 3c 63 43 48 bc 79 cb c3 3d ec c1 26 be
       0.020120865 -0.0122230975 0.09560294 -0.16284913
0003b0 5d dc 64 bd c3 34 10 be 51 19 ca 3c 75 7c 26 bc
       -0.055874217 -0.14082627 0.024670275 -0.010161509
0003c0 53 bd 6e bd 5f a8 43 bd 42 7f aa 3a d5 db a3 bd
       -0.058286022 -0.047767993 0.0013007896 -0.08000914
0003d0 52 ab 14 be 61 29 7b 3d f2 57 50 bd 1b 06 da bc
       -0.14518479 0.06131876 -0.05086512 -0.02661424
0003e0 e8 0c 6e 3d ff 12 94 3d 09 5e 06 bc 01 30 46 bd
       0.058117777 0.07230186 -0.008201131 -0.048385624
0003f0 87 28 09 3d 6f c9 f7 bb 34 a8 9b 3d 62 7e 53 3d
       0.033485916 -0.0075618546 0.076004416 0.0516342

bias f4 [256]
000000 36 e9 ba bf 70 10 81 bf 44 d9 cd bd 33 37 b5 3c
       -1.460242 -1.0083141 -0.10051206 0.022121048
000010 fb 04 6e bd dc dd 37 3c 5d 0c 5f be f0 97 87 3c
       -0.05811022 0.011222329 -0.2178206 0.016551942
000020 f5 26 e3 be eb f5 d5 bd 18 fd 1b bd 9c 2d a1 bf
       -0.4436566 -0.10447296 -0.038083166 -1.2592044
000030 1b b7 7c be 69 13 21 bf 4c f4 d8 bd bc 51 9a bd
       -0.24679224 -0.6292024 -0.10593471 -0.07535121
000040 cf bc d9 bc 91 67 f6 bd 47 fd 5d 3d fb 40 88 bd
       -0.026579289 -0.120314725 0.054196622 -0.06653019
000050 59 18 be bf 37 cc b3 bf cc 0f f2 bd c2 7d 51 bb
       -1.485118 -1.4046696 -0.11819419 -0.0031965827
000060 ef 6b e0 bc 61 98 b3 bc cf 95 a9 bd 69 4b b9 3b
       -0.027395217 -0.021923246 -0.08280527 0.0056547415
000070 81 09 9c bd fb a5 18 bf 49 7e 2a 3f a2 6a 95 bd
       -0.07619 -0.59628266 0.66598946 -0.07295729
000080 f7 39 c4 bc 7a 51 e7 bd 6e c3 05 bd d3 a7 8a bd
       -0.023953421 -0.11294837 -0.03265708 -0.06770291
000090 e8 cb e6 bf a7 07 e4 bd d2 6e d1 bd a3 f2 37 be
       -1.8030977 -0.11134272 -0.102262154 -0.17963652
0000a0 dd e3 1e 3d 25 8a ee bd a3 3d 27 3d 2f a0 9f 3b
       0.038791526 -0.11647443 0.040830266 0.0048713903
0000b0 3d 63 03 3f 49 bb 87 3d 4b d2 70 3e f9 d3 db bd
       0.513233 0.06627519 0.2351772 -0.1073379
0000c0 09 df be bc 69 49 72 bd 41 52 f0 3c 66 e4 b7 be
       -0.02329971 -0.05915204 0.029336097 -0.35916442
0000d0 b3 88 f6 bd 64 6e 22 be 25 38 91 bd 0e 8c 81 bf
       -0.12037792 -0.15862423 -0.07090787 -1.0120866
0000e0 a7 1d 28 be 2e ee 18 bd 63 8c e1 3c fe 3b 30 bd
       -0.16417561 -0.03733652 0.027532762 -0.043025963
0000f0 a5 d0 5a 3f 62 7c cc bd 12 79 89 bd 09 41 31 bd
       0.85474616 -0.09984662 -0.067125455 -0.043274913
000100 ae 10 85 bd 58 44 73 bd 75 60 92 3e e8 c4 9c be
       -0.06497322 -0.05939135 0.28589216 -0.30618978
000110 29 38 16 3d 11 49 34 bd 2f c2 94 3e 85 fa e3 bc
       0.036674652 -0.044014994 0.290544 -0.027829418
000120 13 0a f5 3c f0 59 1b bd 67 bd ba 3f a0 ba 18 3d
       0.02991203 -0.037927568 1.4589051 0.037287354
000130 0e 7c 45 3d 56 f1 dd be b4 a0 2b 3c 0c 7f ba be
       0.04821401 -0.43348187 0.010475326 -0.36425054
000140 d7 99 02 3d 1d 35 c3 bd 50 0f 6b be 36 9a 74 bd
       0.031884994 -0.09531615 -0.2295506 -0.05971738
000150 75 6a 10 bc b1 cd 65 bf 8c 50 44 bd 25 8f c0 bd
       -0.008814444 -0.89766985 -0.047928378 -0.09402303
000160 ef 78 93 bd 9f 25 63 3c 2f c3 14 be 1b 58 98 3c
       -0.072008006 0.01386395 -0.14527582 0.0185967
000170 60 d8 d0 bd ad 2a b5 bf c3 6f b1 3b 44 95 b6 bc
       -0.1019752 -1.4153649 0.0054149344 -0.022287972
000180 fd 37 bf 3b 55 3f f0 bd 0f b2 17 be 26 73 47 bf
       0.0058355317 -0.117308296 -0.14814018 -0.7791008
000190 a7 f3 ed bd 40 68 5a bd 66 33 87 bd be 8a f9 bd
       -0.116187386 -0.053322077 -0.066016 -0.12184666
0001a0 29 ee 3e 3e 53 27 c8 bf d6 75 3c bc e6 09 3d 3d
       0.18645538 -1.5637001 -0.011502704 0.046152018
0001b0 bc 04 13 bc 72 75 ad 3d 41 33 81 bd ba 39 e6 bd
       -0.008973297 0.084696665 -0.06308604 -0.11241479
0001c0 64 3b 93 bd b7 e7 d9 bd 75 8e 8b bd 01 31 6f bd
       -0.07189062 -0.10639899 -0.06814281 -0.058396343
0001d0 eb 06 b9 bc b9 7a f5 3c 7c c5 b7 bd 8d 1a 01 bd
       -0.022586307 0.029965745 -0.08973214 -0.03151946
0001e0 39 90 8f bd 6f ef 04 be 91 19 b6 bd a3 21 b0 bc
       -0.0700993 -0.12981962 -0.08891595 -0.021500414
0001f0 6e 01 cf bd de 48 04 bf 9b 09 91 bd 67 5c 1c bb
       -0.101076946 -0.51673687 -0.0708191 -0.0023858787
000200 f5 85 00 bd 5f 2e aa bf be 3d d8 be 43 0d e9 bd
       -0.03137775 -1.3295401 -0.42234606 -0.113794826
000210 cc 3b ae bd d9 05 c0 bf ee 7f 29 bd 31 b8 9d bf
       -0.08507499 -1.5001785 -0.04138177 -1.2321836
000220 10 d0 1d bd ce 1d b0 bd b4 b5 bc bd 22 20 72 bf
       -0.038528502 -0.08599435 -0.092143446 -0.9458028
000230 48 83 4d bd 60 ce c2 bd bd 69 0b be 54 e6 06 be
       -0.050174028 -0.09512019 -0.13614555 -0.131738
000240 2a fb 3d bd 2b 84 9a be 34 86 cc bd df 04 3c be
       -0.046382107 -0.3017896 -0.09986535 -0.18361233
000250 bb 0c ee be 53 80 b8 bc 55 cf 69 3e 17 48 91 bf
       -0.46494088 -0.022522127 0.22832997 -1.1350125
000260 c9 a8 e6 bd 8f d3 71 be 9c 14 bb 3f d8 a8 9e bd
       -0.11262662 -0.2361586 1.4615664 -0.07747048
000270 5e 2d b1 bd cf bf f5 bd 0a 02 c2 3f bc 15 15 bd
       -0.08651231 -0.11999475 1.5156872 -0.03639768
000280 f4 b0 a8 bd 67 00 4b bd 1e 1d 57 bd 93 63 c1 bd
       -0.08236876 -0.04956093 -0.052518003 -0.094428204
000290 7e c4 35 bf d9 63 0a be 17 14 cd bd 5b 1e 97 bd
       -0.7100295 -0.13514651 -0.100135975 -0.07378837
0002a0 37 a6 0a be b5 69 13 3d 1c 7e 00 3d 18 63 a2 be
       -0.13539968 0.035989482 0.031370267 -0.31716228
0002b0 c8 1e 8f bd 0d 96 47 bf a1 b5 89 bd 34 a8 9f bd
       -0.06988293 -0.77963334 -0.06724096 -0.07795754
0002c0 b9 c5 b0 bd 28 2c 74 3d 6b a3 00 3d c2 be 36 3e
       -0.086314626 0.059612423 0.031405848 0.17846206
0002d0 ca a0 98 bd 5e 98 0a be 63 fb 8c bf 5f 08 dd be
       -0.07452543 -0.13534686 -1.1014217 -0.4317045
0002e0 4a c7 4e bd c3 3f ae bd 83 93 23 be 06 fe bf bd
       -0.050483026 -0.08508255 -0.1597424 -0.09374623
0002f0 55 af 26 bd 33 e2 7b 3b c3 ae 5d be 3a ae db bd
       -0.040694553 0.0038434386 -0.21648698 -0.107265905
000300 8a 7c e3 bc 2e ac 07 be 75 d0 9b 3d fc b7 45 be
       -0.027769346 -0.13249275 0.076081194 -0.19308466
000310 88 84 00 bf b6 08 6c bd 74 b0 09 bc bb b2 68 bd
       -0.50202227 -0.057625495 -0.008403886 -0.056811076
000320 29 68 46 bf 07 96 59 bd b0 b6 ac bf ab 1c 7a bd
       -0.77502686 -0.053121593 -1.3493252 -0.061062496
000330 21 d3 65 3d 8a 70 18 bd 0f db b2 bd 4e 44 50 bd
       0.05610955 -0.0372167 -0.08733188 -0.05084639
000340 c4 b4 10 bf ff 86 d8 3c b6 38 10 bf df d7 4e be
       -0.56525826 0.026431559 -0.56336534 -0.20199536
000350 c2 1c 7f bf d8 0d a2 bf 00 4c 9d bf 8d b7 05 c0
       -0.99653256 -1.2660475 -1.2288818 -2.089328
000360 5e 17 04 be f2 b0 23 bd 16 e0 e3 bd bc d3 61 bd
       -0.12899539 -0.03996367 -0.111267254 -0.055133566
000370 4b 87 01 bd ef 5f 6e 3c 0b 79 99 bd c1 83 b5 bd
       -0.031623166 0.01454924 -0.0749379 -0.08863021
000380 4b e4 74 bc 0b 10 01 be c0 7f 38 bd 4f 89 22 bc
       -0.014947007 -0.12603776 -0.045043707 -0.009920432
000390 8f ad 3a bd 4e 61 ac bb f9 0e 97 bd 04 c3 83 bd
       -0.045575675 -0.005260623 -0.07375903 -0.06433681
0003a0 e5 ab 16 3f 03 fc 42 3f 98 fa 0c be 5d a6 ad bf
       0.5885604 0.7616579 -0.13767469 -1.3566395
0003b0 ec 87 85 be 33 3a 81 3d a8 8f 57 3b 56 21 4c 3f
       -0.26080263 0.06309929 0.0032892022 0.79738367
0003c0 3e 52 b2 bc 8c 37 c7 bd b1 c2 10 bd 79 6c a1 bd
       -0.021767732 -0.097273916 -0.035341922 -0.07882018
0003d0 42 f7 8a 3c 6c e8 37 3c 9f de 70 be 5f a4 3b 3f
       0.016963605 0.011224847 -0.23522423 0.73297685
0003e0 19 32 7c bd 1a b4 c3 bf 23 11 91 ba e6 87 97 bd
       -0.061571214 -1.5289338 -0.0011067729 -0.073989674
0003f0 4a d8 22 3d 31 49 a7 bd 61 f3 97 3d 4e b4 98 bd
       0.03975705 -0.08168257 0.07419468 -0.074562654
