saved_models_1/125_4687_model.pt (torch, 701697 bytes, 11 tensors)

FC1.weight f4 [256, 36]
00000000: b12e 163e 5b49 ac3e 029b bfbd dd5c b7be
00000010: f4aa d43e 024f 153f bac2 75bf f48a 8cbf
00000020: 32d2 c93f 886f 913f 75ec bdbf 43aa bd3e
00000030: d1ee 29bf 65fc f33e ac6f 143f d4c8 a2bd
00000040: 02a6 b8bf 0d6d ccbd 20fb 473f 2e8a e03e
00000050: 7b25 063f ca8e 0b3f d100 dcbf 50db 06bd
00000060: 9b17 1040 db4e 013f acd5 71bf 34be 58be
00000070: fcfe a53e 045d abb9 53de b33e 22d0 bcbd
00000080: f4ca 87c0 6cc1 bcbe e9b5 4a3f b5d1 11c0
00000090: 119f 263f 7aaa 103e 70f9 19be aca8 0a3f
000000a0: 73aa 92bf ed6e 123e 1bcd 433f 4cd0 d43d
000000b0: cb5f b0bf 93e7 46bf 5ccb 0a40 8913 16bf
000000c0: de27 95bf d284 4c3e 2491 8b3f bce5 b8be
000000d0: 355b 10c0 56df 023f 1878 0540 52f6 643f
000000e0: a033 12bd c0f4 42bf 0387 cabe 7b81 fd3f
000000f0: c595 ac3f 5ced 88bf e68e 14bf 747a c1be
00000100: c2ca c43c 209f 2e3e 2e3f c53e 8a62 b13e
00000110: 82db 51c0 83ed 45c0 e56a c23f 1bf5 893f
00000120: eb2b 993e 6c0a 703f eb22 0abf 2a22 e23e
00000130: 7625 5abf 73f5 a33f 11f0 02c0 07c8 96bf
00000140: 154c 0140 34a4 dd3e 1572 9c3d 14bb 443e
00000150: 2e08 73bf cd06 a53f dcef d9be 27ff 04c0
00000160: cfb3 0d3e 4ac1 a43f ffcd bb3e c33c 3b3f
00000170: 64a2 59bf 2e4d ab3e 430d 0c3f e895 4f3f
00000180: 6eac c4bf de8b a53e b977 3a3f 5e8f 0dbf
00000190: 1c08 c3be 179d 3fbd e4a0 fabd a2a7 c0bd
000001a0: c84b e93e 21df 30be 4cc8 e2c0 e86d 543f
000001b0: 2d90 7ec0 8ce2 913e 05ed e33d 8ffb a83c
000001c0: 119b 25bf 1806 8cbf 6ac8 f43d ec99 e73f
000001d0: 182d aabf b38d 8dbe e823 243f 4dfb ee3e
000001e0: 05c3 80bf 181e 1cbf a05b e13e a1a3 853f
000001f0: 87d9 efbf 31a1 0cbe 5c05 633f 5593 35bf
00000200: e896 26bf fffe 1b3e 8882 5d3f a8f1 443e
00000210: 9778 08c0 e028 1540 58fc b23f 7236 84bc
00000220: 9987 1bc0 19b8 803f f27d 1c3e c267 81c0
00000230: 4afe 6ebf 0f50 62bf 1653 383f cf94 47c0
00000240: 4ec8 80bf 1360 92be df58 efbd 43f9 8dbe
00000250: 9706 b03f a50b 9bbd 68e4 aabf 03d0 34bf
00000260: 6d27 9140 8be4 283f ca9f 90c0 f834 87be
00000270: 3ddc 413f ccb2 ccbd 1024 46bf 1b3e 013e
00000280: cc3c 9b3f 6d41 093e be52 d1bf b8fe 4b3f
00000290: 85e5 be3e 988c 75bf 7b4c 7ebd 03fc d73f
000002a0: 5cc8 a5be 96a2 e8bf 1142 a0be 7be5 913e
000002b0: 1144 7d3d c85e b03e fd03 17bd fe12 353e
000002c0: 1611 6e3f 881b 633f 2ade acc0 26f8 9bbf
000002d0: 270b 02c0 d7c6 8abd a911 c73e 5d54 073e
000002e0: f586 143f fb97 403f e55f a3bf ccf8 2ec0
000002f0: 6a82 1040 a74f 82bf 8ad2 1c3f d93b 67bf
00000300: c0b8 2fbb c192 4fbe d828 4ebe fbf0 dabe
00000310: eecc 07be e789 9ebc b38d 49bd 1af0 7ebf
00000320: 2311 22bf eaf0 c8be 976e 7e3f e967 b53e
00000330: e512 14c0 2b36 8e3f c6f0 fe3e 19d9 0c3f
00000340: 9650 5e3f 0ecf 8bc0 198e 6ec0 f4fe 1bbf
00000350: da82 bc3f f670 bcbe edd3 36c0 5b59 3ac0
00000360: a8b1 3f3d a43d f5bd 4ebb 753d 6a69 4ebf
00000370: ca00 0e3f 524e 0bbe a853 0d3e 4416 cebe
00000380: abbc a43f 0035 0540 fc6c 3e3f 6683 493f
00000390: c79e 44be 0720 88bf 0a82 843f e10e d23f
000003a0: 5ce9 9dbf 2757 aebf b8e6 743f 9e29 a23e
000003b0: ca5e c93e b9a4 b0bf 037a 0abf ff9e 983f
000003c0: e7a4 2b3f 187f 8abf cec2 dbbe 7f8c af3e
000003d0: f326 3cbe a75a b63e 5765 91bd 640a 0d3f
000003e0: 3ac6 8d3f e8d2 e2bf 3b6d cf3d 798d 753f
000003f0: 833d cb3e 3e68 c8bd 9767 c0be 8ac9 8ebf
0.14666249 0.33649716 -0.09355737 -0.35813037 0.41536677 0.5832368 -0.96000254 -1.0979905
1.5767272 1.1362162 -1.4837786 0.37043962 -0.6638003 0.476535 0.579829 -0.07948461
-1.4425662 -0.09981737 0.7811756 0.43855423 0.5240094 0.54514754 -1.7187749 -0.032923996
2.2514408 0.5051095 -0.9446666 -0.21166307 0.324211 -0.00032684964 0.35130557 -0.09219386
-4.2435246 -0.3686632 0.7918382 -2.2784245 0.65086466 0.14127532 -0.15036559 0.5416362
-1.1458267 0.14300127 0.7648484 0.10391292 -1.3779234 -0.77697104 2.168662 -0.5862356
-1.1652792 0.19972542 1.0903668 -0.36112773 -2.2555668 0.51122034 2.085455 0.89438355
-0.035693765 -0.7615471 -0.3955613 1.9805139 1.3483206 -1.0697436 -0.58030546 -0.37788737
0.024022464 0.17052889 0.38524765 0.34645492 -3.2790227 -3.0926216 1.5188872 1.0777925
0.2991632 0.937659 -0.5395953 0.4416669 -0.8521341 1.280928 -2.0459025 -1.1779794
2.0202687 0.4328934 0.07638947 0.1921199 -0.94934356 1.28927 -0.4256581 -2.0780733
0.13838123 1.2871487 0.366806 0.7313959 -0.85013413 0.3345732 0.54707736 0.81088114
-1.5365121 0.32333273 0.7283893 -0.55296886 -0.38092124 -0.046780672 -0.12237719 -0.094069734
0.4556563 -0.17272617 -7.0869503 0.82980204 -3.9775498 0.28493154 0.11129192 0.020627765
-0.6468974 -1.093936 0.119522884 1.8093848 -1.3295012 -0.2764717 0.6411729 0.46676102
-1.0059515 -0.6098342 0.44015217 1.044056 -1.8738259 -0.13733365 0.8868005 -0.70927936
-0.65074015 0.15233992 0.865273 0.1923281 -2.1323602 2.3306198 1.3983259 -0.016139243
-2.4301512 1.0056182 0.1528242 -4.0439157 -0.93356764 -0.8840341 0.7200178 -3.1184576
-1.0061128 -0.28588924 -0.11686873 -0.27729234 1.3752011 -0.075705804 -1.3350954 -0.706299
4.5360627 0.6597373 -4.5195055 -0.264076 0.7572668 -0.0999504 -0.77398777 0.12621348
1.2127929 0.13403864 -1.6353376 0.79685545 0.37284485 -0.95917654 -0.062084656 1.6873783
-0.32379425 -1.8174617 -0.31300405 0.28495392 0.06183249 0.34447312 -0.036869038 0.17683026
0.9299482 0.88713884 -5.4021196 -1.2185104 -2.0319307 -0.06776207 0.3888066 0.13215776
0.5801843 0.75231904 -1.276364 -2.7339354 2.2579598 -1.0180558 0.6125876 -0.90325695
-0.0026813 -0.20270826 -0.20132768 -0.42761979 -0.13261768 -0.019352866 -0.0492074 -0.99585116
-0.633074 -0.39246303 0.99387497 0.3543084 -2.3136532 1.1110281 0.4979307 0.55018765
0.86841714 -4.369025 -3.727423 -0.609359 1.4727433 -0.36804932 -2.856685 -2.9117038
0.046800286 -0.11974648 0.05999308 -0.806296 0.55469954 -0.13604096 0.13801444 -0.40251362
1.2870077 2.0813599 0.74385047 0.78716123 -0.19201194 -1.0634774 1.0352185 1.6410791
-1.2336841 -1.3620347 0.9566455 0.31672376 0.3933013 -1.3800269 -0.54092425 1.1923522
0.67048496 -1.0820036 -0.42922062 0.34286878 -0.18374233 0.35616037 -0.07099407 0.5509398
1.1076119 -1.7720613 0.10128256 0.95918995 0.39695367 -0.097855076 -0.37579033 -1.1155255

FC1.bias f4 [256]
00000000: a6d0 a4be 96bb 2dbf 6cb4 08bf a4e5 c8ba
00000010: e46c 983e b91a e73e e773 113e 0e95 4d3c
00000020: fb2a f5be 82f6 53bf ecc0 273c 2dac 3bbe
00000030: 3d94 f3be bb18 92be a6cc 22be 5b09 24bd
00000040: 9396 2d3e e76c e8be 5f4b 373f 422a 573f
00000050: 0d11 88bd 2aa1 8fbe ab40 d7be bd6b 10bf
00000060: 4a3b a3be fcdd 25be f2dd 38bf 8204 f73d
00000070: fce5 5cbf 002b 8a3c 2cfb b3bd 2f98 9fbd
00000080: e17f 34bf e422 603e 92a9 67bd fc4d 273f
00000090: 1e82 dbbe 094c eebe 27d8 afbe a1b6 d0bd
000000a0: e8c1 413e fb61 ccbe 5f9d 7f3e 16e5 30bf
000000b0: 8f26 433e 5b53 fdbd b63d a4bf d243 8bbe
000000c0: bcd4 903d 7f15 c9bd ef83 693f ff4b 48be
000000d0: 9aae 02bf f3d0 f3be 9ce9 453e ae9a 38bf
000000e0: 6a6b d1be 914b 05bd 9400 f5bc 3307 093e
000000f0: f49e 3bbe 029f 143d c232 ce3d 672d 7b3e
00000100: d8c7 313e 7b61 b3be 8699 b7bb b18e 10be
00000110: 987a 083e 16d3 acbd 2db2 18be 9203 acbe
00000120: 0dd5 883e 0ecf ae3f 6090 b1bd 3210 53bd
00000130: 58a5 1bbf 96ae 40bf 0c07 a2be 1484 343f
00000140: c810 44bf aa8b 9abe 72f6 e43d 89e2 e9bd
00000150: fe23 e2be ddc0 2f3f 7a8d 04be 6df4 9f3e
00000160: 7851 71bf 8c1f b93e 9d01 fc3c 8eaa 0dbf
00000170: 8f13 d7be 91b3 703f 654e 1bbe 05a9 e4bd
00000180: fe51 33bf 5caa a4be 7f75 60bf f87a 49bf
00000190: 4b96 9abe 7e6e 8d3e 4815 b4be f447 3cbf
000001a0: 71a4 04be 3f39 1e3f 93c5 253d 007e cfbd
000001b0: 164e a63e fea9 963e 2a6e e73c 7b12 41bf
000001c0: 232d bcbe ab47 35be 69f9 42be b3d3 b3bd
000001d0: e614 85be 755e 423d fc04 dfbe 7393 c3bd
000001e0: f6e1 c2be b22d dfbe cc0e 533e d418 2e3e
000001f0: 24f1 25bf 4add 7cbe a2c8 c0be f403 14bf
00000200: 9b4c ecbe 9e14 8abc db95 39be 31e7 153f
00000210: 3a4e f23e 4197 773d dc7f 223d 3968 dfbe
00000220: 813e f5be a94d f63b 5720 98bd ba53 91bc
00000230: 78c1 6dbe 9ff4 56bc bc59 b0be a0c9 f2be
00000240: da0f ffbe e30b 17bf faf1 d8bc a81a 943f
00000250: e2f7 59be 4e5a 873e 449d 1c3f f27d 7f3b
00000260: 9b4a a73b 4b31 3bbe a6c7 4e3f d9aa 1ebe
00000270: c2a5 08be 5033 cf3b 6afd 5f3f dbcf 93be
00000280: b8cb 53be 6ab1 2d3e 8651 553f d415 2c3e
00000290: 02b2 843d 3f2b 8f3e a288 10bf d936 9cbd
000002a0: 4645 d73e 65d3 00be 62fa 24bf 4013 32bf
000002b0: fa5b 243f c24b be3d bb55 bc3e 2c20 2fbe
000002c0: a586 793e a953 bebe e8ab 95bf 68e6 65bf
000002d0: 5fd7 a03e ad2e 26bf 2b23 f9be 5807 1d3e
000002e0: c853 3dbe 55ba 8cbe 52ad 93be 985d bcbe
000002f0: 413d 0e3f 6da6 10bf 01cd 263d bd17 06be
00000300: 82b8 e43e 861c d73e 7af2 983f 66ae bcbd
00000310: 138f 4ebe 6ee2 25be ca24 c93e e535 863d
00000320: 074d bdbe adc0 27bf 68ee e4bc 0bf9 7abe
00000330: 3436 8dbe e6cf a63e f2cd 1c3f 2508 a4bb
00000340: 1857 0bbe 056f 0f3f 540b b7be f792 443e
00000350: 4563 13bf f39e 37bf cfda 23bf c0aa 1fbf
00000360: 12ba bdbe 9dfc adbe 2f8e ff3d f5b8 443e
00000370: 1f33 b7be 2935 1f3e 83c6 6bbd 2cb1 3d3f
00000380: 9968 edbe b262 3cbf ccce 1cbf 6981 06bf
00000390: 3415 17bd f765 533c 43a5 ff3e d908 19bf
000003a0: b743 af3e 00bd 1cbf 36f9 1dbf 20fb 0abe
000003b0: fe22 73bf 17fc 0d3f 8b4f 0a3e 70b2 96be
000003c0: 3326 833d 3dd6 10be 1d93 003e 4279 4a3f
000003d0: c0be 483f e023 50be aad2 b1be 4c55 943d
000003e0: 5a7c a2be 909a 363d 716c 58be 6ea2 93bd
000003f0: ce55 a2be d409 643f 0522 e6be e5f3 66bf
-0.32190436 -0.6786436 -0.534003 -0.0015327227 0.29770577 0.45137575 0.1420437 0.012547744
-0.47884354 -0.82798016 0.010238867 -0.18327399 -0.47574034 -0.28534493 -0.1589838 -0.040047985
0.16951971 -0.45395586 0.7159938 0.84048855 -0.06643877 -0.28052646 -0.42041525 -0.56414396
-0.3188117 -0.16197962 -0.7221366 0.12061407 -0.8628843 0.016866207 -0.087881416 -0.077926986
-0.7050763 0.2188831 -0.0565582 0.6535337 -0.4287271 -0.46542385 -0.343446 -0.10191084
0.18921626 -0.39918503 0.24962376 -0.6909956 0.19057678 -0.123694144 -1.2831333 -0.2720018
0.07071826 -0.09818553 0.9121694 -0.1956024 -0.5104767 -0.47620353 0.19327396 -0.7211102
-0.40902263 -0.03254277 -0.029907502 0.13381653 -0.18322355 0.036284454 0.10068275 0.24529038
0.1736139 -0.3503531 -0.005603018 -0.14116932 0.13328016 -0.08438699 -0.14911719 -0.33596474
0.26725045 1.3656938 -0.086701155 -0.051529117 -0.6079917 -0.75266397 -0.31646 0.70514035
-0.76588106 -0.3018468 0.11179818 -0.11420161 -0.44168085 0.6865366 -0.12944594 0.3124117
-0.94264936 0.3615688 0.030762488 -0.5533837 -0.4200711 0.94023997 -0.15166624 -0.111650504
-0.70046985 -0.32161224 -0.87679285 -0.7870326 -0.3019279 0.2762336 -0.35172486 -0.7354729
-0.12953354 0.618061 0.040471625 -0.101314545 0.3248145 0.2942657 0.028250773 -0.75418824
-0.36753187 -0.1770312 -0.19040455 -0.08780613 -0.25992507 0.047453362 -0.4355849 -0.09549608
-0.3806302 -0.4358955 0.20611113 0.17001659 -0.64821076 -0.2469379 -0.3765307 -0.5781853
-0.46152195 -0.016855534 -0.18123572 0.58555895 0.47325307 0.06044698 0.039672717 -0.43634203
-0.4789925 0.007516582 -0.07428043 -0.01774012 -0.23218334 -0.013119846 -0.34443462 -0.47419453
-0.4981678 -0.5900251 -0.02648257 1.1570635 -0.21285966 0.26436085 0.6117747 0.0038984981
0.005105329 -0.18280523 0.8077339 -0.1549486 -0.13344482 0.0063232556 0.87496054 -0.2886952
-0.20683181 0.1696221 0.8332752 0.16805202 0.06479265 0.27962682 -0.56458485 -0.07627649
0.4204504 -0.1258064 -0.64444554 -0.69560623 0.64202845 0.092917934 0.36784157 -0.17102116
0.24367769 -0.37173203 -1.1693087 -0.898047 0.31414315 -0.6491497 -0.48659644 0.15334833
-0.18488991 -0.2748591 -0.2884317 -0.36790156 0.55562216 -0.56503946 0.04072285 -0.13094993
0.44672018 0.4201395 1.1948998 -0.09212951 -0.20171766 -0.16199657 0.3928588 0.06553248
-0.3697283 -0.65528375 -0.027945712 -0.24509065 -0.27580416 0.3258049 0.6125175 -0.0050058537
-0.13607442 0.5602878 -0.3575083 0.19196688 -0.5757335 -0.7172691 -0.6400575 -0.6236992
-0.37056023 -0.3398179 0.12478291 0.1921118 -0.3578119 0.15547623 -0.057562362 0.7409847
-0.46368864 -0.735881 -0.61253047 -0.52541214 -0.036885455 0.012902728 0.49930772 -0.59779125
0.3423135 -0.6122589 -0.6170839 -0.13572359 -0.9497527 0.55462784 0.13506906 -0.29433012
0.0640377 -0.14144225 0.1255612 0.79091275 0.7841606 -0.20326185 -0.34731036 0.072428316
-0.31735498 0.044580996 -0.21135117 -0.072087154 -0.3170609 0.89077497 -0.4494783 -0.90215904

FC2.weight f4 [256, 256]
00000000: efa9 58be 6fb0 9dbe 70dd 62bf faba 25c0
00000010: d052 a33f f68d d63e 2c5c 36bd 3537 5dc0
00000020: 60ca b83e e078 9c3f 760f 04bc 6543 403f
00000030: ee68 73bf 1d1b adbe aac6 313f 1c16 5c3f
00000040: 9ee3 d5bf f121 7a3f 20f9 c3be b097 7c3e
00000050: 1240 1f3d 4192 0c40 6151 8ec0 54bc 8d3e
00000060: 6f14 cd3d 7061 78c0 8968 6fbf f01c 5cc0
00000070: 98bc bb3f d06d 393f b49c 61bf fcf8 ddbf
00000080: e536 9bbf d6d9 9b3e 87da 7bbd 1151 eb3d
00000090: 1c41 99bf 49b3 d93f c466 0a3f d1e8 5f3f
000000a0: f79c 06bf d649 713d 1a37 16c0 e3e0 90bf
000000b0: 0daf 923f 1e54 0fbe a7de e6bf 7da5 b1be
000000c0: b42d 40bc d959 c5be fca2 69bf 58b8 94bc
000000d0: 06df 93be fb02 13c0 de61 9bbf 0f6e 07c0
000000e0: 45d4 0f3e a0e7 233f dd1d 18c0 f44a 283e
000000f0: e842 b33e 1401 543f df05 863f 794e 503f
00000100: 26df 343e 87ce 0140 3cb8 0bbf 3ea4 23bd
00000110: 04ca b2c0 3d4d 94bd dfa6 ef3e 0e08 41be
00000120: ead0 2a3f fa47 afbf 320e d53e 18e9 cc3f
00000130: fdcf e9be e910 23bf 6678 7f3f 4755 8b3f
00000140: 1fa2 3c3f ccb6 f4bf 3baa 393f 42a4 59bf
00000150: b4db 94bf f21a 0e3f ec04 a73e 2bc9 a2bf
00000160: fa4d 1d3e 1ffb ca3e fa76 5abc ed5f 0ac0
00000170: 43a7 a43e 20c0 35bf 2cc1 fd3e 4d96 143f
00000180: 7c46 1640 ff52 1dc0 acd8 8a3e 2bc9 cabf
00000190: 04f1 753f 2849 00bf 0fdf f5bf 6f36 3cbe
000001a0: f24f 283c 0825 423f 7ed0 da3f 96e5 243e
000001b0: 6ec8 c23e 49db 06bf c9b5 a23e 6b47 bd3e
000001c0: 17ca efbf 04e4 25c0 efd6 f43e f320 15c0
000001d0: 39ef c23e ba3b 263f 6ef0 20bf bfbc 863b
000001e0: d040 bfbc 9fb1 d8bf 77c1 0fbe 6689 dc3d
000001f0: 375f e7bf 2162 353e 2aee a23f bbbe 23bf
00000200: cdcf 2fbf 5c56 bd3e 17d7 683f 90f7 4b3f
00000210: b0a1 5a3e 4ab4 1bbf d475 0ac0 b793 903f
00000220: 64f4 87bf 95b1 efbe bfe8 16c0 bd20 7e3f
00000230: 3e22 b2bc 7dcc 59c0 6140 713f 89a2 053e
00000240: 85da 1bc0 ccdc 933c 8823 173f cd65 4d3f
00000250: 5a80 8dbd 7104 12bc ae99 723f 6dfb 3c3f
00000260: 3700 c0c0 73ae e1be 09cc ecbe d246 15bd
00000270: 1594 c9bd 5a76 0d40 9c6e 9f3f 1747 babe
00000280: 56d8 acbe 4f78 efbe 66d5 21bf fb1c e33e
00000290: 3ce1 0dc0 824e ccbf 592e ec3e 075c 7cbf
000002a0: bb77 62be 524a 38c0 af95 7b40 67ad 08bf
000002b0: 348a 47bf e2b9 92bf aae7 863f 015e 84bd
000002c0: 79a7 493f fe89 ccbf 5b06 03bf 139d 8dbf
000002d0: 9400 2f3e 9832 cf3f 9852 643e 2671 ae3f
000002e0: 124b 6c3f 14e9 f2be af11 85bf 7ed7 583f
000002f0: 2137 8a3f 7d27 fabe 0eb7 0640 9292 353e
00000300: 3998 9f3e 3def fd3e b773 e8bd 438b 733f
00000310: 29b2 abbd 50b0 9ebf e72e fb3e 12ff 4ac0
00000320: 76f8 523f 10d7 073e 8875 53bc ad0b 97be
00000330: e325 0fbe 0200 ebbf 5fee 2bbf 448b 0f40
00000340: 3346 a5be 8849 30be 0469 323f d63a d93f
00000350: c243 b93f c292 c73e 2ca7 90bf 7df5 c5be
00000360: 8106 dabc aa2e 883f c2a4 98c0 e54b 5bbf
00000370: a70a 51c0 8cc5 febe d71f 533f b35c d83f
00000380: f67d 2640 9d48 a5be cb4b 133f db42 34bf
00000390: 6eb3 debf 306c e93e e512 323e cef7 16bf
000003a0: 517d aebe 2d04 a9bf 7f34 a53f 2f28 a8bf
000003b0: 5f3b 87c0 81f5 963f 4ba7 d53f 3200 25bf
000003c0: 9399 963b 8732 6fc0 b2ed 263e 3bd5 13bd
000003d0: 1925 b23f b5b2 d93e 2f18 15be 2fe2 b73e
000003e0: 1557 693e 9e37 a83e ffba f2be 5a9d fbbd
000003f0: c76e 413e bcad 13bf a9f4 06c0 51cb 9ebf
-0.21158575 -0.3079867 -0.88619137 -2.5895371 1.2759647 0.41905183 -0.044521496 -3.4564946
0.360919 1.2224388 -0.008060327 0.75102836 -0.95081985 -0.33809748 0.6944376 0.85971236
-1.6710088 0.9770804 -0.38276005 0.24667239 0.03887946 2.1964266 -4.447434 0.27682745
0.10013663 -3.880947 -0.93518883 -3.4392662 1.4666929 0.72433186 -0.88129735 -1.7341609
-1.2126127 0.30439633 -0.0614877 0.114900716 -1.1972995 1.7007838 0.5406306 0.87464625
-0.5258326 0.058908306 -2.3471131 -1.131863 1.1459671 -0.13996932 -1.8036698 -0.3469657
-0.0117296465 -0.3854511 -0.9126432 -0.018154308 -0.2888109 -2.297057 -1.2139242 -2.1160924
0.14045818 0.64025307 -2.3768227 0.16434842 0.35011983 0.82814145 1.0470542 0.8136974
0.1766325 2.0282304 -0.54577994 -0.039951555 -5.58716 -0.072412945 0.46807 -0.18850729
0.6672503 -1.369384 0.41612393 1.6008635 -0.45666495 -0.6369768 0.9979309 1.08854
0.7368488 -1.9118285 0.72525376 -0.8501626 -1.1629548 0.55509865 0.32620943 -1.2717642
0.15361777 0.39644715 -0.01333403 -2.1621048 0.3215886 -0.70996284 0.4956144 0.5804184
2.348052 -2.4581907 0.27118433 -1.5842642 0.96070886 -0.5011163 -1.9208697 -0.1838014
0.010272967 0.75837755 1.7094877 0.16103205 0.3804354 -0.5267835 0.31779316 0.3696855
-1.8733548 -2.592042 0.4782023 -2.330136 0.38073137 0.64934886 -0.62866867 0.0041118558
-0.023346335 -1.6929206 -0.14038645 0.10768394 -1.8075932 0.17713214 1.2728932 -0.63962907
-0.68676454 0.3697995 0.909532 0.79674625 0.21350741 -0.60821974 -2.1634417 1.1295079
-1.0621457 -0.46815172 -2.3579557 0.99268705 -0.021744844 -3.403106 0.9423886 0.13050283
-2.4352124 0.01804962 0.5903859 0.8023346 -0.06909247 -0.008912192 0.94765747 0.73821145
-6.000026 -0.44078407 -0.46249416 -0.036444493 -0.098426975 2.2103486 1.245563 -0.36382362
-0.337588 -0.46771476 -0.63216245 0.44358048 -2.2168722 -1.5961459 0.4612911 -0.9857792
-0.22115986 -2.8795362 3.931011 -0.5338959 -0.77945256 -1.1462977 1.0539448 -0.06463242
0.7877117 -1.5979612 -0.5118157 -1.106356 0.17090064 1.6187315 0.22297132 1.362828
0.9230205 -0.4744345 -1.0396022 0.84703815 1.0798074 -0.48858252 2.1049228 0.17731693
0.31170824 0.49596587 -0.11350196 0.9513437 -0.08383591 -1.2397556 0.4905922 -3.1718183
0.8241037 0.13265634 -0.01290644 -0.29501095 -0.13979296 -1.8359377 -0.671606 2.242875
-0.3228012 -0.1721555 0.6969149 1.697108 1.4473803 0.38979155 -1.1301017 -0.38663855
-0.02661443 1.0639241 -4.770112 -0.8566268 -3.2662752 -0.4976009 0.8247046 1.690329
2.601438 -0.32281962 0.57537526 -0.70414513 -1.7398508 0.45590353 0.1739002 -0.5897187
-0.34079984 -1.3204399 1.2906646 -1.3137263 -4.2259974 1.1793672 1.6691679 -0.64453423
0.004595944 -3.737459 0.16301611 -0.036092024 1.3917571 0.42519155 -0.14560007 0.35914752
0.22787125 0.32854933 -0.47408292 -0.12285872 0.18889914 -0.5768697 -2.1086829 -1.2405797

FC2.bias f4 [256]
00000000: 2700 fcbd 6831 a3bd fbe0 41bf d52e debd
00000010: ab7b 81bf 13c9 8ebe 4765 053f 15c4 033d
00000020: e89e 35bf 676e b1bf 4940 18bf 7ed6 dbbd
00000030: 135e aebf 7ba4 1bbd e86d a1bf f471 3cbf
00000040: f130 e0bd 4296 55be 82ce f8bd 149c 99bf
00000050: 4c66 75bf 9602 12be 6f1c 013f fcfa acbf
00000060: ddb4 66bd 1bab 13be 524b 523e 8abe 5cbd
00000070: 2029 0dbf 1f13 a2be 0a04 c2bf 0e00 9fbf
00000080: 3436 89bf 9318 9ebd b0bb 9dbe 2c91 1fbf
00000090: f64c febd ecef dbbe 4d14 6fbf 5da4 173f
000000a0: 0625 debe c257 36bf 05ee 0a3f 2385 21bf
000000b0: 0ec9 c1bb 7ceb 88bf 8264 83bf 9d8a 8c3e
000000c0: 8715 cfbd 9cb3 91bf fa55 78bf cff3 0abf
000000d0: d676 d1bd be1c a9be abcb a2bf 6b57 b1be
000000e0: d669 fbbe 2ce6 ddbe 5b2d d33b dfe8 7dbe
000000f0: 94cc bf3e da6d c5be 77fc c9bf 831c fabd
00000100: cc40 643e 2890 273e 8df0 a7bf 2f3d 0dbf
00000110: 6a1d 00bf ef3c 29be 5395 8dbf a114 73bf
00000120: c22d efbe cc78 01be 85e5 053e 5a5a 60be
00000130: 5731 87bf fddf f7be 449e 5bbf a654 40bf
00000140: 6b27 c0be ff49 c4bf 1883 afbd 6637 ffbe
00000150: ca80 16be 539c d2bf e79a 4cbf 6fd7 d5be
00000160: 8537 0ebf 0f42 7f3f 174c 3fbf f397 42bf
00000170: d0e5 01bf ae65 e8bf 7df2 babf 9e47 88be
00000180: 6774 a4bf f2b5 21bf 4905 84bf 62da 91bf
00000190: 5ca5 59bf 9b6f f8be e2c2 cb3e edd6 29be
000001a0: 05b2 0ebf be9e 96be 6527 b03f 0aca a1bd
000001b0: 0f48 7cbf a2ff 97bf c042 49be 591f a2be
000001c0: e737 133d 13f0 ce3e 2bc8 563e 4985 5abf
000001d0: 7eb6 b3bd 4848 60bf 6925 8ebf df41 3fbf
000001e0: d68f 6fbd be57 94bf 7b84 8f3e b3c5 63bf
000001f0: 9d6f a0bd 18cb 4b3e becd 4abe 41fd 27bf
00000200: ce38 5cbe 1c45 babf a3ed 5ebf f0b4 26bd
00000210: 1045 843d 8d32 e6bd 45bb 3cbf b431 31bf
00000220: 3d79 03be c9c4 bf3f 3aee 06c0 dd69 d5bd
00000230: b0a3 42bf 6deb c1bd 5375 dbbd d2be 6bbe
00000240: d494 31bf 29ad 8bbe 8d4d adbe 1ed1 86be
00000250: d87d 8bbe 18a2 7abf 3590 86bf 6456 dfbd
00000260: 24ed 633d 902f 05be b3fb 193f 6181 dfbf
00000270: a242 0abf fe5e a7bf c0a9 413b 2fc2 6fbe
00000280: 48b8 aebd 1ec5 e43e 3626 9dbf 0110 203f
00000290: 7196 62bf cbc1 34bf 5101 13bf 6b94 80bf
000002a0: 6fed 86bf 6ecb 1dbf f05b 81bf 635c 1fbf
000002b0: 6889 21bf 8603 d5bf 176b b1bf 4c35 b1bf
000002c0: 2c7c f8be 67e4 2bbf babe 65bf 4fa6 803e
000002d0: e3ea 22bd 1266 7bbf d8b5 cebe eb64 22bf
000002e0: 2d81 503f 1a26 83bf b129 77bf 6a7c 4a3e
000002f0: 75f3 50be 0dc3 1b3e 6796 a7bf 9ebb a6bf
00000300: a444 e4be 07dc 85bf 1d32 14bf c118 60bd
00000310: f707 4fbe e502 b9bf bbd2 a4bd 157e f2be
00000320: 5892 46bf 1ff0 73bd 4c4a 3ebe 3baa 22bf
00000330: 6c50 acbe 895f f0bd 694d debe 6e2c 90bf
00000340: 84e4 a5be 200f 813f 8853 80bd e0c6 6fbf
00000350: c918 d03d da0a 76bf c408 52bf 5533 10bf
00000360: 4e22 ccbf 64d2 8dbc e4f3 b7bd d111 3dbf
00000370: 7d5a 89be 6ea6 19bf d3b2 77bf 84ea 27be
00000380: c672 053d bed8 99bd 6524 28bf 84df bbbf
00000390: 4af1 92bf 3a18 9cbf 6c2d 01bf 9a39 abbf
000003a0: 08f0 92be c7e9 a5be 5d9b 2c3d 43fe 64bf
000003b0: 622c 2bbf 6332 18be 97bf d8bf a2cb acbf
000003c0: c814 d6bd 62a9 82bf 9021 e4be 781d 403f
000003d0: 1a04 b8bf 452b e5be 3597 debd 67df 82bf
000003e0: 69e2 80bf d7cb 09be 1b03 d2be fde4 b7bd
000003f0: ae4c 90bd f69d 56be e0a5 19bf e43c 3ebf
-0.123047166 -0.07968408 -0.7573392 -0.10848776 -1.0115865 -0.27887782 0.5210766 0.03216942
-0.70945597 -1.3861817 -0.5947309 -0.107342705 -1.3622459 -0.037998658 -1.2611666 -0.7361138
-0.10946835 -0.208581 -0.12148763 -1.2000756 -0.9585922 -0.14258799 0.5043401 -1.3514094
-0.05632483 -0.1442074 0.20536545 -0.05389265 -0.55140877 -0.31655213 -1.5157483 -1.2421892
-1.0719666 -0.07719531 -0.30807257 -0.6233089 -0.12417023 -0.42956483 -0.9339035 0.59235173
-0.43387622 -0.7122766 0.5426944 -0.63093776 -0.00591386 -1.0696864 -1.0265048 0.27449504
-0.10111528 -1.1382937 -0.9700619 -0.5427827 -0.10227744 -0.3302974 -1.2718405 -0.34637007
-0.49104184 -0.4333967 0.006444616 -0.24795865 0.37460768 -0.38560373 -1.5780171 -0.122124694
0.22290343 0.16363585 -1.3120285 -0.55171484 -0.5004488 -0.1652715 -1.1061195 -0.9495335
-0.46714598 -0.12643737 0.13075836 -0.21909466 -1.0561932 -0.48413077 -0.8578837 -0.75129163
-0.37530074 -1.5335082 -0.08569926 -0.49846953 -0.14697567 -1.6453956 -0.7992386 -0.41765925
-0.55553466 0.9971017 -0.7472548 -0.76013106 -0.5074129 -1.815603 -1.4605252 -0.2661714
-1.2848023 -0.6316825 -1.0314113 -1.139477 -0.85017943 -0.48522648 0.3979712 -0.16585894
-0.55740386 -0.29417986 1.3762022 -0.07899864 -0.9854745 -1.1874888 -0.1965437 -0.3166454
0.035941985 0.40417537 0.20974796 -0.85359627 -0.08775042 -0.8761029 -1.1105167 -0.74709886
-0.058486782 -1.1589277 0.28030762 -0.8897354 -0.078337885 0.19901693 -0.19805047 -0.6562081
-0.21506044 -1.455234 -0.87081355 -0.0406999 0.06458485 -0.112401105 -0.7372325 -0.69216466
-0.12839217 1.4981929 -2.1082902 -0.104205824 -0.7603102 -0.09468732 -0.10715737 -0.23022011
-0.6936772 -0.27280548 -0.3384823 -0.2633142 -0.2724445 -0.97903585 -1.0512758 -0.109051496
0.055646077 -0.13006425 0.6014969 -1.7461358 -0.54007924 -1.3075864 0.0029550642 -0.23413919
-0.085312426 0.44681638 -1.2277286 0.6252442 -0.88510805 -0.70608205 -0.57423884 -1.0045294
-1.0541209 -0.61638534 -1.0106182 -0.62250346 -0.6310029 -1.66417 -1.3860806 -1.384439
-0.48532236 -0.6714539 -0.8974415 0.25126883 -0.039774787 -0.9820262 -0.4037311 -0.6343524
0.81447107 -1.0246003 -0.9654799 0.19774023 -0.20405371 0.15211125 -1.3092774 -1.3026006
-0.4458362 -1.0457772 -0.57888967 -0.054711107 -0.20217882 -1.4454008 -0.08048006 -0.47361818
-0.7756705 -0.05955517 -0.1858303 -0.63541 -0.33655107 -0.11736972 -0.43418434 -1.1263559
-0.32400906 1.0082741 -0.06265932 -0.93662834 0.101609774 -0.9611031 -0.82044625 -0.56328326
-1.5947969 -0.017312236 -0.08982065 -0.7385531 -0.2682685 -0.60019577 -0.9675724 -0.16398054
0.03258016 -0.075120434 -0.65680534 -1.4677587 -1.1479886 -1.2194893 -0.50459933 -1.3376954
-0.28698754 -0.3240492 0.042140353 -0.8945047 -0.668646 -0.14862971 -1.6933469 -1.3499644
-0.104531825 -1.0207942 -0.44556856 0.75044966 -1.4376252 -0.44759575 -0.10868684 -1.0224427
-1.0069095 -0.13456665 -0.41017994 -0.08979223 -0.070458755 -0.20958695 -0.6001873 -0.7431166

action_out.weight f4 [5, 256]
00000000: 1855 4d3f e13f 83bd 7ef0 613f f93f 5e3f
00000010: 74fe 32bf f564 4ac0 b15c 6b3f 590c 123f
00000020: dd76 cfbe 34f8 ecbf 311c cabe 7ef9 0d3f
00000030: 0b67 0dbf 6e82 9d3c bda7 e5bf d22a e43f
00000040: e61d 2e40 c7c6 823d a046 d73e 6f59 c0be
00000050: b523 9040 c85e a93f 8894 8c3f 02f3 63bf
00000060: 9da5 b93f 3690 ef3f 1800 0f3f 5a4f 313f
00000070: 4425 0ebf 78a6 223f fd22 063e 09e8 0440
00000080: 831e e23f 118c e83c 9c92 fb3e 586e 2440
00000090: d598 65bd 7712 a63e 1d9d 8240 fd60 e03f
000000a0: 4015 603f ab0a a2bf 00c0 803f 8e62 9a3f
000000b0: 8b00 293f 4a9a fb3f 83a4 5f3f 91c4 273f
000000c0: afd8 823f 542c 3e40 0bce 543d 6fff 943f
000000d0: 9494 813f 37a0 cb3f b7b0 6940 d907 853e
000000e0: 8baa e53f 31f4 423f 4de3 623f 0ce0 533f
000000f0: cda2 c53f 9cc3 c23f a0a4 92be 2e2f 38bf
00000100: c5cc e93f 172e f13f ef16 b33f 8fe4 b4bd
00000110: 67b8 0a3f 89b6 ee3e 022c 4bbe f0eb a6bf
00000120: 143f 573d 9f45 4b40 241a 12be b862 03bf
00000130: dcf5 dc3f f883 9cbe e02f 2e3f 0478 8b3f
00000140: de78 4fbf af04 b13d 18b4 c93e 5596 673f
00000150: 96e9 b23e 655a 62c0 0590 1d40 3b8a 21bf
00000160: 978f 9a3e b26c aa3f 3726 223f cac0 b13f
00000170: b887 c13f a80e 853e 7666 ad3f 35b6 843e
00000180: aceb 0d40 1ab0 2b40 817a f13e 29a5 b7be
00000190: 21ed d03d 0ed9 c53e 39c1 b33f ded0 4240
000001a0: 6637 a13f da52 40bf 6ca1 963f ee39 aa3f
000001b0: 89a0 b53e 4bf2 39bf caee b43e ac33 f63f
000001c0: f511 06bf e1df bf3f 2dd5 973e 6865 5640
000001d0: ead4 84bc 6dc3 1840 dd9f 29c0 8248 ca3e
000001e0: e8fc 8f3c c28f c03f b3ad 6a3f 767a 503f
000001f0: e53d 823d 5df1 823f e37f c53e 9491 f93d
00000200: fd97 fa3f 207c 9c40 9f30 a63f 1fd7 a1bc
00000210: 4c23 983f da3b 5c3f 08f9 0e3e 6052 81be
00000220: 1813 b33f b08b b03f 515c bf3c 3f8d 843e
00000230: 4940 f33f 541c f23e 74a5 7a3f a698 d23f
00000240: fc65 e5bf e742 b63f 6fc4 8d3f b58e 40be
00000250: de5a d73f edd8 0e40 2be7 c13e 5da6 78bf
00000260: 1907 d33f e44d be3e 3dd3 193f dafd 2cbe
00000270: 1b79 b63f 98d7 9a40 9eb5 e4be 3656 dbbe
00000280: 945e 7b3f 7225 6a3f 7eb5 ea3d 0213 2d3f
00000290: 1884 e83f df4f 21c0 8d76 653f c610 503f
000002a0: 92f1 8e3f d1bc 923f 28b9 21bf ea68 e43e
000002b0: 3807 c03e 59f4 1a3e b6a1 0540 4f09 113f
000002c0: b4c3 1740 da6a d83f acd7 873e b8bf b13f
000002d0: 8268 b1ba 5c2a 06bf e216 56be 7c30 3a3f
000002e0: aeb0 ae3f 5a93 f03f aaea 6b3f f1b9 47be
000002f0: 8b90 763e 2dc3 8a3f ed9e 3c3f 0210 5640
00000300: 6661 0a40 e6ea 33bf bfdc bf3e 9ec1 8bbc
00000310: a9f2 81bf 0340 4fbf ee56 9e3f 3dc8 aebf
00000320: 8f87 493f add0 10bd e3d2 123e a72f c93f
00000330: febd 46bf bda3 8d3f b437 36bf 517e 2640
00000340: f77d 03be 2b02 da3f 34d2 f73f 4b33 1f3f
00000350: 5a08 28bf 0fc8 933f 7c29 b23f f8a2 fd3d
00000360: 0e17 9bbf 8cd1 9a3f 9d36 19bd 911f 7a3f
00000370: 6975 87be b060 babd bdef e5be 1dac 503e
00000380: 0a64 bdbc d10a d0bf a668 d13f 91ac 6d3f
00000390: 5787 b63d 5364 903f ae3a d93f eed2 0b40
000003a0: 2f7a cb3f aa45 603f b064 8b3f 3a08 1b3f
000003b0: cc0f d7be d49b 0040 1664 5d3f 209a 803f
000003c0: 79e4 0e3d 8ec7 bcbf 05e9 403f a71a aa3e
000003d0: aaea 3dc0 7a3b a53e 4917 953e e6ac 9e3e
000003e0: d74b 3d3f ab08 6f3d 3dac 4a40 a274 b53f
000003f0: 4a0a 1e3f 74ea be3d 60fa adbd 4d6d 2d40
0.8020797 -0.06408668 0.88257587 0.86816365 -0.69919515 -3.162412 0.9193831 0.5705009
-0.40520373 -1.8513246 -0.39474633 0.5545882 -0.55235356 0.019227233 -1.7941815 1.7825568
2.7205749 0.0638557 0.4204607 -0.37568232 4.504359 1.323205 1.0982828 -0.89042675
1.4503666 1.8715885 0.5585952 0.69261706 -0.5552561 0.6353526 0.13099284 2.0766623
1.7665561 0.028387101 0.49135292 2.5692348 -0.056053955 0.32435963 4.081679 1.7529598
0.87532425 -1.2659506 1.0058594 1.2061327 0.66016454 1.965646 0.873604 0.6553431
1.0222377 2.9714556 0.05195431 1.1640452 1.0123467 1.5908269 3.6514108 0.2598255
1.794267 0.76153857 0.88628083 0.82763743 1.5440308 1.5215945 -0.28641224 -0.7194699
1.8265616 1.884219 1.3991374 -0.088326566 0.54187626 0.46623638 -0.19841006 -1.3040752
0.05255039 3.1761243 -0.14267784 -0.5132251 1.726253 -0.30569434 0.680418 1.0896001
-0.81043804 0.086434714 0.39395213 0.90463763 0.34943837 -3.5367672 2.4619153 -0.6310155
0.30187675 1.3314421 0.6333956 1.388696 1.5119543 0.25987744 1.3546894 0.25920263
2.2175093 2.6826234 0.47163776 -0.35868195 0.10201479 0.38642162 1.4043342 3.0439982
1.2595031 -0.7512642 1.1768012 1.3298929 0.3547404 -0.72635335 0.35338432 1.9234519
-0.5237115 1.4990197 0.29654828 3.3499393 -0.016214807 2.3869278 -2.6503823 0.39508444
0.01757665 1.5043871 0.91671294 0.8143686 0.06359462 1.0229908 0.38574132 0.1218597
1.9577633 4.890152 1.2983588 -0.019755898 1.1885772 0.86028826 0.13962185 -0.2525816
1.3990202 1.3792629 0.02335945 0.25889012 1.9003993 0.47287238 0.9790871 1.6452835
-1.7921748 1.4239167 1.1075572 -0.18804438 1.6824605 2.23199 0.3787168 -0.9712885
1.6486541 0.371688 0.6008795 -0.16893712 1.4255708 4.8388176 -0.44669813 -0.4283921
0.9819119 0.91463387 0.11460398 0.6760713 1.8165312 -2.5205 0.8963402 0.81275594
1.1167471 1.1463872 -0.6317315 0.44611293 0.37505507 0.15132274 2.087995 0.5665483
2.3713198 1.6907609 0.26531732 1.3886633 -0.0013535174 -0.52408385 -0.20907167 0.7273023
1.3647668 1.8794968 0.92154944 -0.19504525 0.24078576 1.0840813 0.7368 3.344727
2.1621947 -0.702803 0.37473103 -0.017060097 -1.0152179 -0.8095705 1.2370279 -1.3654858
0.7872247 -0.03535526 0.1433826 1.5717667 -0.77633655 1.1065594 -0.71178746 2.6014597
-0.1284102 1.7031912 1.9361024 0.6218764 -0.65637743 1.1545428 1.391891 0.123845994
-1.2116411 1.2095199 -0.0374056 0.97704417 -0.26456764 -0.09100473 -0.44909468 0.20378156
-0.023118991 -1.6253301 1.6360061 0.9284144 0.08912533 1.1280617 1.6971033 2.1847491
1.5896662 0.876063 1.0890102 0.6055943 -0.4200424 2.009511 0.86480844 1.0047035
0.034885857 -1.4748399 0.7535556 0.3322346 -2.9674478 0.3227194 0.29119328 0.30991286
0.7394385 0.058357876 3.1667626 1.4176219 0.6173445 0.09322062 -0.08495021 2.7097962

action_out.bias f4 [5]
00000000: 0014 553f 4d50 a4bf 2dc0 9240 dca4 9ebf
00000010: 477a cd3f
0.8323364 -1.2837006 4.585959 -1.2394061 1.6052941

weight f4 [256, 123]
00000000: 0f5d 24c1 3476 093e 93d0 3a3e 52f6 073e
00000010: b5da 2c3e c24f 5bbd a11e d33e 595e 333e
00000020: 9baf 743f 87cb 913d 8a32 583d 9f3d 2c3e
00000030: a639 babd 0380 873e db5f 65be 59f9 c8bf
00000040: 2bcb 01be 2bca 3ebf b8fd d03e 304a 58be
00000050: 17c7 3f3e fa45 f7bf adb0 003f 0749 d83f
00000060: e588 4bbf 5380 dabe b686 a8bd b7b1 4abf
00000070: ad9f 643e e73b ad3d be42 f6bc 0168 04be
00000080: f740 52bf 504e 6dbc d884 d5bc b7db 4dbf
00000090: 3959 25c1 f418 893e 5070 09be fc79 0abc
000000a0: 50fb 8a3e 3a60 b6bd 83ca c23e ce71 173f
000000b0: 295c 72bf 8244 193f 060e b5be 27f1 2b3e
000000c0: 8c47 d4bd 71b1 933e ca07 91be a7d4 c5bf
000000d0: a6f1 e13f 4c43 eb3c a5ee 823d a1e0 a3be
000000e0: 5d41 603e ac67 f0bf af63 283f 5bb2 0a40
000000f0: f19b e6bf 75f2 8d3e 238f 30bf cbce 33bf
00000100: eff8 813d 55a8 453a 9846 dfbb fb96 e7bd
00000110: 16e1 5dbd 1771 4fbf 6115 9d3d 3d3a 863e
00000120: 1f05 24c1 dcf6 52be 60f9 ab3e a6aa e03d
00000130: 1e0d 873e 5ce4 f1bd 99ee 9a3e fc10 cb3e
00000140: e474 5bbf 991c d83e f808 613e e3b8 7c3e
00000150: f408 f6bd c4d3 853e dea9 acbe 7ec7 a8bf
00000160: 3c51 1b3f 2b16 fabd 8f84 0c3f 842d 67be
00000170: 2c89 ae3e 7a16 f4bf dbf9 233f e752 6440
00000180: 86a5 06c0 6090 d5bc 065b 1f3d 6b37 30bf
00000190: 780d f5bd af96 e4bd f764 89bd 9e42 e4bd
000001a0: e0b4 f1bb 70ce f6bb e3ec 3fbf f7fd 05c1
000001b0: a416 3bbd b9c2 f33d b427 c83c 7cac 173c
000001c0: 662c 973e 5f7b 263e cc55 ecbb d136 d83d
000001d0: a8ac 7a3e 802b 74bd 44f1 fbbc 9b30 223e
000001e0: 2d25 053e 4134 2dbe 7104 883e 7684 2d3e
000001f0: 7d95 47bf 5ee4 b53e e33a 2cbf 2097 a43e
00000200: a30c bfbe b8a9 703f 67ae 913d 147a 93bf
00000210: 1eb1 a5bd 30fa 153c 8752 28bf 497d a03e
00000220: cec1 22c0 47c0 703f f34c 763f 8eae 76bf
00000230: b711 0e3e b36c 46bb 2237 e1be 3ce8 d33e
00000240: ffce 7abf e4b8 fcbf 738e 81bf 2d30 0240
00000250: aa72 05bf 3721 773d 4288 adbe 7be8 433e
00000260: af85 cdbd b37b a8bc e927 58be 464c b6be
00000270: b27f 7d3d 9500 813d 97dc b33f a6ae 643e
00000280: d53c 12bf c118 683e efd6 2cbf 36ff 8c3e
00000290: 6f6d c2be aae3 543f 1fed 26bf 9575 1abf
000002a0: be2c 4fbe 596c b63d fb60 01bf f7bd 853e
000002b0: 6ae3 25c0 db95 713f ded5 5b40 40b1 81c0
000002c0: f0d1 b23b ad15 0abd fc11 c1be 82c2 da3e
000002d0: 5533 61bf ab95 07c0 abc2 85bf 5502 f53f
000002e0: 50ef 15bf 9f45 ba3e fe41 bfbe 5128 bbbc
000002f0: 1f21 8d3b 1889 0c3e f169 7bbc c52d b43d
00000300: d484 d4be c29f 2e3d 4cb2 243a fe1e 463e
00000310: bb4d 09bf a894 f23e 11e6 51bf b01d 913e
00000320: f752 e6be a4a4 753f c76b a9be 3ccd c2bd
00000330: 32a8 d93e f064 30be 176d 10bf 1b78 553e
00000340: 7822 26c0 35e1 6d3f 913f 803f 5dd7 9cbf
00000350: 5856 013f e144 efbe 8999 fcbe 009a e23e
00000360: f3ec 53bf 0602 fcbf b810 153d dc3b 5240
00000370: 0030 d23a 354a 9c3d 96b2 b5be d82c cd3d
00000380: 63b0 dd3d 10fe bfbd 4373 16bd be62 333d
00000390: 1794 873d 4465 cbbe b211 28c0 e701 a5bd
000003a0: 23cc b1bd acfd edbd 9126 753c 70e0 b43d
000003b0: 71a9 08bd f4a1 bb3c ae81 8d3d 5ccc b63d
000003c0: b918 933c b020 aabd 3c33 963d ccb1 19be
000003d0: 18c2 43bd 225e 473d f257 50bd 1b06 dabc
000003e0: e80c 6e3d ff12 943d 095e 06bc 0130 46bd
000003f0: 8728 093d 6fc9 f7bb 34a8 9b3d 627e 533d
-10.272719 0.13423997 0.18243627 0.13277557 0.16880305 -0.05354286 0.41234306 0.1751646
0.9558045 0.07118898 0.052782573 0.16820382 -0.09093027 0.26464853 -0.22399847 -1.5701095
-0.12675159 -0.74527234 0.40818572 -0.2112205 0.1872829 -1.931823 0.50269586 1.6897286
-0.7950576 -0.4267603 -0.08228819 -0.7917742 0.22326536 0.08458691 -0.030061122 -0.129303
-0.8213038 -0.014484003 -0.026064321 -0.80413383 -10.334283 0.2677685 -0.1342175 -0.008451935
0.2714486 -0.089050725 0.3804513 0.5915803 -0.94671875 0.5987016 -0.35362262 0.16791211
-0.10365209 0.28846315 -0.28326255 -1.5455521 1.765187 0.028718613 0.06393174 -0.32007316
0.21899934 -1.8781638 0.65777105 2.167136 -1.801634 0.27724043 -0.6896841 -0.70237416
0.063463084 0.0007540037 -0.0068138354 -0.11308094 -0.054169737 -0.81031936 0.07670093 0.26216307
-10.25125 -0.20601982 0.33588696 0.109700486 0.26377195 -0.11811134 0.3026016 0.39661396
-0.85725236 0.42209318 0.21976078 0.24679904 -0.120134264 0.26138127 -0.33723348 -1.318588
0.6067083 -0.122112595 0.5488977 -0.22575957 0.3408903 -1.9069359 0.64053124 3.56756
-2.1038527 -0.02606982 0.038905166 -0.6883456 -0.119654596 -0.11161553 -0.06708711 -0.11145519
-0.0073762983 -0.0075319335 -0.74970835 -8.374503 -0.04567589 0.11902375 0.024432994 0.009257432
0.2952606 0.16258 -0.007212376 0.105573304 0.24479926 -0.059611797 -0.030754693 0.15838854
0.13002463 -0.16914465 0.2656589 0.16945061 -0.77962476 0.35525793 -0.67277354 0.3214655
-0.3731433 0.9400897 0.07113343 -1.152163 -0.08090423 0.009153888 -0.65750927 0.31345585
-2.543079 0.9404339 0.96211165 -0.963601 0.13873945 -0.0030277192 -0.43987375 0.41388118
-0.979721 -1.9743924 -1.0121597 2.0341904 -0.5212809 0.06033441 -0.3389302 0.19131653
-0.10035264 -0.020566797 -0.21108975 -0.35605067 0.061889358 0.06298939 1.4051694 0.22332248
-0.5712407 0.22665693 -0.6751546 0.2753846 -0.37974116 0.8315989 -0.6520557 -0.60335666
-0.20231912 0.089073844 -0.50538605 0.26121494 -2.5920053 0.94369286 3.4349284 -4.052887
0.0054571554 -0.033712078 -0.37709033 0.42726523 -0.8796895 -2.11851 -1.0450033 1.9141337
-0.58568287 0.36381242 -0.37355036 -0.022846373 0.004306927 0.13724172 -0.015345083 0.08797792
-0.4150759 0.042632826 0.0006282672 0.1934776 -0.5363423 0.4737904 -0.8199168 0.28342962
-0.44985172 0.95954347 -0.3309004 -0.095118016 0.42511135 -0.17226005 -0.5641646 0.20846598
-2.5958538 0.92921764 1.0019399 -1.2253224 0.50522375 -0.46732238 -0.49335888 0.44258118
-0.8278343 -1.9688118 0.036392897 3.2849035 0.0016036034 0.07631341 -0.35487813 0.10018319
0.10824659 -0.093746305 -0.036731016 0.04379534 0.06620043 -0.39725697 -2.62608 -0.080570035
-0.08681514 -0.1162065 0.014962808 0.088318706 -0.033364717 0.022904374 0.069095 0.08925697
0.017956125 -0.08307016 0.07333991 -0.1500923 -0.047792524 0.048673756 -0.05086512 -0.02661424
0.058117777 0.07230186 -0.008201131 -0.048385624 0.033485916 -0.0075618546 0.076004416 0.0516342

bias f4 [256]
00000000: 3bd3 40bf fcfa ebbe 44d9 cdbd a17c 843e
00000010: fb04 6ebd dcdd 373c 5d0c 5fbe f097 873c
00000020: f526 e3be ebf5 d5bd 18fd 1bbd a4f4 77bf
00000030: 9830 5cbe e760 0bbf 4cf4 d8bd bc51 9abd
00000040: cfbc d9bc 9167 f6bd 47fd 5d3d fb40 88bd
00000050: 4cf7 7cbf 887d 93bf 4db4 38bd c27d 51bb
00000060: ef6b e0bc 6198 b3bc cf95 a9bd 694b b93b
00000070: a3b8 05be 621c e13e 131e 833d a26a 95bd
00000080: f739 c4bc 7a51 e7bd 6ec3 05bd d3a7 8abd
00000090: 446e a6bf a707 e4bd d26e d1bd a3f2 37be
000000a0: dde3 1e3d 258a eebd a33d 273d 2fa0 9f3b
000000b0: eab6 19be 49bb 873d 3336 8d3e 933f 9bbd
000000c0: 09df bebc 6949 72bd 4152 f03c 3b0c d7bd
000000d0: b388 f6bd f135 ec3e 2538 91bd 7089 1dbf
000000e0: a71d 28be 2eee 18bd 2772 943d fe3b 30bd
000000f0: 7192 48be 627c ccbd 1279 89bd 0941 31bd
00000100: ae10 85bd 5844 73bd 00b2 d63b d275 0fbe
00000110: 2938 163d 1149 34bd 2fc2 943e 85fa e3bc
00000120: 9662 013f f059 1bbd 3af0 aa3f a0ba 183d
00000130: 0e7c 453d 5516 67be 312e 2c3d 0c7f babe
00000140: d799 023d 1d35 c3bd 500f 6bbe 25e2 efbc
00000150: 756a 10bc 8659 abbe 8c50 44bd 258f c0bd
00000160: ef78 93bd 9f25 633c b347 dcbd 1b58 983c
00000170: 60d8 d0bd 88f2 9abf c36f b13b 4495 b6bc
00000180: fd37 bf3b 553f f0bd 19e6 eebd cb46 91bf
00000190: a7f3 edbd 4068 5abd 6633 87bd be8a f9bd
000001a0: 40d6 973b 48cb a4bf d675 3cbc e609 3d3d
000001b0: bc04 13bc 8b27 df3d 4133 81bd ba39 e6bd
000001c0: 643b 93bd acdd 98bd 758e 8bbd 0131 6fbd
000001d0: eb06 b9bc b97a f53c 7cc5 b7bd 8d1a 01bd
000001e0: 3990 8fbd 6fef 04be 9119 b6bd a321 b0bc
000001f0: 6e01 cfbd de48 04bf 9b09 91bd 675c 1cbb
00000200: f585 00bd 7fb1 93bf 7b54 d5be 430d e9bd
00000210: cc3b aebd 53c0 a9bf ee7f 29bd 7ba7 99bf
00000220: 10d0 1dbd ce1d b0bd b4b5 bcbd d64d 60bf
00000230: 4883 4dbd 60ce c2bd bd69 0bbe 54e6 06be
00000240: 2afb 3dbd 0eb2 233f 3486 ccbd 648a b23d
00000250: d986 cdbe 5380 b8bc a758 8e3e bd71 7fbf
00000260: cca5 1dbe 8fd3 71be 46e5 ab3f 4592 0dbe
00000270: 5e2d b1bd cfbf f5bd ae5a 9f3f bc15 15bd
00000280: f4b0 a8bd 6700 4bbd 1e1d 57bd b777 d4bb
00000290: b3ce 623e d963 0abe 1714 cdbd 5b1e 97bd
000002a0: 37a6 0abe b569 133d 1c7e 003d 5e24 6bbe
000002b0: c81e 8fbd 0d96 47bf a1b5 89bd 3d21 28bd
000002c0: b9c5 b0bd 282c 743d 6ba3 003d 125a 22be
000002d0: caa0 98bd 5e98 0abe 63fb 8cbf 5f08 ddbe
000002e0: 4ac7 4ebd c33f aebd b101 c7bd 06fe bfbd
000002f0: 55af 26bd 33e2 7b3b c3ae 5dbe 8104 01be
00000300: 8a7c e3bc 2eac 07be e18f 913f fcb7 45be
00000310: 8884 00bf b608 6cbd 74b0 09bc bbb2 68bd
00000320: 296e 43bf 0796 59bd 244a 7abf ab1c 7abd
00000330: 21d3 653d 8a70 18bd 0fdb b2bd 4e44 50bd
00000340: c4b4 10bf ff86 d83c 6e19 f2be a427 d6be
00000350: 1cab 28bf be77 83bf 0598 88bf 36a9 c4bf
00000360: 5e17 04be f2b0 23bd 16e0 e3bd bcd3 61bd
00000370: 4b87 01bd ef5f 6e3c 0b79 99bd c183 b5bd
00000380: 4be4 74bc 0b10 01be c07f 38bd 4f89 22bc
00000390: 8fad 3abd 6054 8fbd f90e 97bd 04c3 83bd
000003a0: 4d8e f23e f27f 10be 98fa 0cbe 7f46 90bf
000003b0: ec87 85be 333a 813d a88f 573b 89e8 3a3f
000003c0: 3e52 b2bc 8c37 c7bd b1c2 10bd 796c a1bd
000003d0: 42f7 8a3c 6ce8 373c a5c3 183d 44ae 103f
000003e0: 1932 7cbd 7ce8 93bf 2311 91ba e687 97bd
000003f0: 4ad8 223d 3149 a7bd 8f53 f23d 4eb4 98bd
-0.7532231 -0.46089923 -0.10051206 0.25876334 -0.05811022 0.011222329 -0.2178206 0.016551942
-0.4436566 -0.10447296 -0.038083166 -0.96857667 -0.21502912 -0.54444736 -0.10593471 -0.07535121
-0.026579289 -0.120314725 0.054196622 -0.06653019 -0.98814845 -1.1522684 -0.045093823 -0.0031965827
-0.027395217 -0.021923246 -0.08280527 0.0056547415 -0.13058715 0.43966967 0.064022206 -0.07295729
-0.023953421 -0.11294837 -0.03265708 -0.06770291 -1.30024 -0.11134272 -0.102262154 -0.17963652
0.038791526 -0.11647443 0.040830266 0.0048713903 -0.15011182 0.06627519 0.27580413 -0.07580485
-0.02329971 -0.05915204 0.029336097 -0.1050038 -0.12037792 0.46134904 -0.07090787 -0.6153784
-0.16417561 -0.03733652 0.07248335 -0.043025963 -0.19587113 -0.09984662 -0.067125455 -0.043274913
-0.06497322 -0.05939135 0.006551981 -0.14009789 0.036674652 -0.044014994 0.290544 -0.027829418
0.50541055 -0.037927568 1.3354561 0.037287354 0.04821401 -0.22567113 0.04203624 -0.36425054
0.031884994 -0.09531615 -0.2295506 -0.029282639 -0.008814444 -0.33466738 -0.047928378 -0.09402303
-0.072008006 0.01386395 -0.10755863 0.0185967 -0.1019752 -1.2105265 0.0054149344 -0.022287972
0.0058355317 -0.117308296 -0.116649814 -1.1349729 -0.116187386 -0.053322077 -0.066016 -0.12184666
0.004633695 -1.2874537 -0.011502704 0.046152018 -0.008973297 0.10896214 -0.06308604 -0.11241479
-0.07189062 -0.074641556 -0.06814281 -0.058396343 -0.022586307 0.029965745 -0.08973214 -0.03151946
-0.0700993 -0.12981962 -0.08891595 -0.021500414 -0.101076946 -0.51673687 -0.0708191 -0.0023858787
-0.03137775 -1.1538543 -0.41666016 -0.113794826 -0.08507499 -1.3261818 -0.04138177 -1.2004236
-0.038528502 -0.08599435 -0.092143446 -0.8761877 -0.050174028 -0.09512019 -0.13614555 -0.131738
-0.046382107 0.63943565 -0.09986535 0.08717802 -0.40141943 -0.022522127 0.2780201 -0.99782926
-0.15395278 -0.2361586 1.3429344 -0.13825329 -0.08651231 -0.11999475 1.2449548 -0.03639768
-0.08236876 -0.04956093 -0.052518003 -0.0064839977 0.22149162 -0.13514651 -0.100135975 -0.07378837
-0.13539968 0.035989482 0.031370267 -0.22963092 -0.06988293 -0.77963334 -0.06724096 -0.041047323
-0.086314626 0.059612423 0.031405848 -0.15854672 -0.07452543 -0.13534686 -1.1014217 -0.4317045
-0.050483026 -0.08508255 -0.097171195 -0.09374623 -0.040694553 0.0038434386 -0.21648698 -0.12599374
-0.027769346 -0.13249275 1.1372033 -0.19308466 -0.50202227 -0.057625495 -0.008403886 -0.056811076
-0.76339966 -0.053121593 -0.9776938 -0.061062496 0.05610955 -0.0372167 -0.08733188 -0.05084639
-0.56525826 0.026431559 -0.47285026 -0.41827118 -0.6588609 -1.0270917 -1.0671393 -1.5364139
-0.12899539 -0.03996367 -0.111267254 -0.055133566 -0.031623166 0.01454924 -0.0749379 -0.08863021
-0.014947007 -0.12603776 -0.045043707 -0.009920432 -0.045575675 -0.06998515 -0.07375903 -0.06433681
0.47374192 -0.14111307 -0.13767469 -1.1271514 -0.26080263 0.06309929 0.0032892022 0.7301107
-0.021767732 -0.097273916 -0.035341922 -0.07882018 0.016963605 0.011224847 0.037295956 0.5651591
-0.061571214 -1.1555324 -0.0011067729 -0.073989674 0.03975705 -0.08168257 0.11832344 -0.074562654

weight f4 [256, 256]
00000000: a5e3 91bf 38ea 2c3f 50e3 273d 03e0 343e
00000010: aa6c 853c a24a 7c3c 61b5 8e3c 4ec0 fe3c
00000020: ac08 0abe ffe3 4abd c564 9cbb db54 b6bf
00000030: 4425 e0bb 49f8 95bd 7248 e1bc 9561 54bb
00000040: e7e8 9e3c 237d 87bd 7fe9 d73c 1826 c5bc
00000050: 472f c0bf cd6e c4bf 2ae2 e73c 8daf 7cbd
00000060: 15a1 47bd 0db8 e63c 51c1 6e3c 3ce0 b0bc
00000070: b954 813e bd86 a0bf c8da d43d 9075 4fbd
00000080: 0ea2 b4bc e65e 53bd ebc0 873c 006e a1bc
00000090: 8dda b13e 78e2 023c 91f2 0fbd 9de1 11bd
000000a0: fe02 82bd 3bdf 56bc 30e4 783d 8bba 4dbd
000000b0: 7ab5 7abf 6852 eb3c 0854 81bf 65a4 133b
000000c0: 8d8d 7cbc 8a98 f83c 69a5 10bd 9168 a33d
000000d0: 53ec 6b3d 21c0 03be add7 0d3d 9b5d a53e
000000e0: 31aa 603c b711 c83c 0908 513e 57c9 f0bb
000000f0: 4ef6 8cbf 44ac e13c f481 0e3d c49e 7ebd
00000100: a0b9 16bc 7b39 4ebd 5e4b 0e3f e477 553e
00000110: 0d0d 203d 2f2f a13c a394 6cbd 47d2 1b3d
00000120: 49d6 48be be53 0e3d 6ede a73e 4d15 223d
00000130: 46e0 05bc f06a 9dbc daad fabc 6015 11ba
00000140: e5f0 043c 1352 05bc 4389 8f3c 91eb 37bd
00000150: ee5b f4bb beb0 833e f529 83bd a5a2 1abb
00000160: 00d6 233d 9b19 fe3c 2c8c debe 57fa 95bd
00000170: c31a 72bd 643a 8bbe 4fd4 ba3c 172f 96bc
00000180: 5e2b debc 8c42 2ebd ab2d b1bc 11ea 90bf
00000190: efd2 78bc a95d 5a3d 2c98 4fbd e793 1ebd
000001a0: 5505 893f 395e 08c0 82ad d33c e088 c5bb
000001b0: 710c 623c bf10 f5be 9cf7 b33c 0ec9 ffbc
000001c0: 6058 17bd d861 0cbf eab6 523d 34f6 3e3d
000001d0: 4a09 d13c 1475 613d 2d5c c8bc 3bcb 463d
000001e0: d9ce 613c 0f31 93bc e616 f4bc 7731 2b3d
000001f0: bee1 2fbd 37ed 6d3e b6be eb3b ffb7 c3bc
00000200: 9888 10bd b8d0 7abf e0af f1b9 1543 b23c
00000210: e3c6 42bd d020 69be 6662 ab3d c705 6ebd
00000220: 83a3 00bd b59e 56bd ee2e a1bd d69f 9cbf
00000230: b949 003d acab 543d 4469 ef3c 5c16 b13a
00000240: d381 c4bc 1827 03be 3c67 603c 0bb4 1a3f
00000250: b9e0 28bf 5f4d 3c3b 342f 293d 9b85 b43e
00000260: f2ff 003e a1c4 99bc fe12 41bf 4d8e 7bbe
00000270: 36f0 acbd bc3d 8cbd 2aaf 8ebe 678d 56bd
00000280: a7db ef3a b3c1 bcbc 0a57 613d f3f5 4dbe
00000290: 2999 da3e 578d e73c 709b fdbc e1a7 4c3b
000002a0: d017 403d f1d2 673d c2bf 633d 0bef 68bf
000002b0: 2689 d4bc b5a0 2cbd 3803 19bd e5b9 06bf
000002c0: 8838 c6bc 034f 96bc ae37 39bd 26c0 7dbe
000002d0: eb95 323d eb01 13bd d572 a43c 6a98 54bd
000002e0: cd7a 83bc 5ea0 e83c 137a 7d3e 1e40 71bb
000002f0: 7bac 3d3d a08b ee3c 337f 0dbd ba57 78bd
00000300: f0e2 dcbc 748f a1bc 620b 69be d99f bfbd
00000310: 1999 12bd 0ab6 b7bc 320e 703d 611a 63bd
00000320: 1e56 2fbe bfc9 aabb 588a 26c0 c25f 01bd
00000330: 8a0c 02bd 3371 8dbd 25a6 8cbd b43d 7f3b
00000340: c6e7 91bc 21a6 cdbc 03c9 3b3f a46e 933d
00000350: a582 8a3f 8f32 08c0 a18c a0bf 36c2 b4bc
00000360: 5f81 0bbd 62cf 5dbd 9dbd 353d c181 183c
00000370: 17a4 43bd bf40 51bd f05d d43c 58a3 623d
00000380: 7c8e 723b d402 a53c ab8d 2ebd d327 113d
00000390: 868d 323d b647 d33c ebc7 3a3d 2834 a8bc
000003a0: 345c 7bbe 43c5 c83d ed87 0dbd 4e9b 383d
000003b0: d526 ac3d 7cec 1e3d c4b0 4b3d ceb3 f43e
000003c0: 7365 303d 60ec 09bd 1678 633d cd84 13bd
000003d0: 65ae b7bb 0a32 803d e8e4 7c3e 0641 ffbe
000003e0: 90b7 62bd f746 8dbf 808b 483d d3c6 db3c
000003f0: d9fc 733c 5606 773d 6396 5cbf 66d1 29bd
-1.1397597 0.6754489 0.040988266 0.17663579 0.016287167 0.015398653 0.017420473 0.031097557
-0.1347987 -0.04953384 -0.004772755 -1.4244646 -0.00684038 -0.07322747 -0.027500365 -0.0032406796
0.019398166 -0.06615665 0.026356457 -0.024066016 -1.5014428 -1.5346314 0.028306086 -0.061690856
-0.048737604 0.028163934 0.014572457 -0.021591298 0.2525995 -1.2541119 0.10393292 -0.050649226
-0.02204993 -0.051604174 0.016571483 -0.019705772 0.34737054 0.007988565 -0.03514344 -0.035615552
-0.06348227 -0.013114746 0.06076449 -0.05022673 -0.9793316 0.028725818 -1.0103769 0.0022528407
-0.015414608 0.030346174 -0.035313997 0.07978929 0.057598423 -0.1286626 0.034629513 0.32297978
0.013712452 0.02442251 0.20413221 -0.0073482203 -1.1012666 0.027547963 0.0347919 -0.06216313
-0.00919953 -0.050347786 0.5558375 0.20846516 0.039074946 0.01967582 -0.05775894 0.038042333
-0.19612993 0.03474783 0.32786888 0.039571095 -0.008171147 -0.01921603 -0.030600477 -0.0005534496
0.008114074 -0.008137244 0.017521506 -0.044902388 -0.007457248 0.2572078 -0.06404487 -0.002359548
0.03999901 0.031018069 -0.43466318 -0.07323139 -0.059107553 -0.27192986 0.022806315 -0.018333001
-0.027120288 -0.042543933 -0.021628221 -1.1321431 -0.015187009 0.053311978 -0.05068223 -0.03871527
1.0704752 -2.130751 0.02583957 -0.0060282797 0.013796912 -0.4786434 0.021968655 -0.0312238
-0.036949515 -0.548368 0.05144397 0.046621516 0.025517125 0.055043295 -0.024458015 0.04853366
0.0137822265 -0.017967729 -0.029796075 0.04179522 -0.042939894 0.23235022 0.0071943654 -0.023891447
-0.035286516 -0.9797473 -0.0004609814 0.021760503 -0.047552954 -0.22766423 0.083683774 -0.05811098
-0.031405937 -0.05239745 -0.07870279 -1.2236278 0.031320307 0.05192153 0.029225 0.0013510692
-0.023987686 -0.12807882 0.013696488 0.60430974 -0.659679 0.002873264 0.041304782 0.35258183
0.12597635 -0.018770518 -0.75419605 -0.24566002 -0.08444254 -0.068477124 -0.27868015 -0.052380946
0.0018299714 -0.023041582 0.055014648 -0.20113353 0.42694977 0.028265638 -0.030957907 0.0031227993
0.04689771 0.056597654 0.055602796 -0.9098975 -0.025944304 -0.04214545 -0.037356585 -0.526274
-0.024196878 -0.018348223 -0.045219116 -0.2478033 0.043600004 -0.0358905 0.020074287 -0.051903166
-0.016049767 0.028396782 0.24753599 -0.0036811898 0.04630707 0.029119313 -0.034545135 -0.060630538
-0.026963681 -0.019721724 -0.22758248 -0.093566604 -0.035790537 -0.02242567 0.058607288 -0.05544508
-0.17122695 -0.0052120383 -2.6021938 -0.031585462 -0.03175024 -0.06906357 -0.06867627 0.003894669
-0.017810713 -0.02510363 0.73353595 0.071988374 1.082112 -2.1280859 -1.2542917 -0.022065263
-0.034058925 -0.054152854 0.044370282 0.0093082795 -0.04776391 -0.051087137 0.0259237 0.055331558
0.0037011197 0.02014295 -0.042615574 0.03543837 0.043592 0.02579103 0.045600813 -0.020532683
-0.24546891 0.0980325 -0.034553457 0.045069985 0.08405844 0.038799748 0.049729124 0.4779343
0.0430655 -0.03367269 0.055534445 -0.03601532 -0.0056055062 0.06259544 0.24696696 -0.49854296
-0.05535084 -1.1037282 0.048961163 0.026828205 0.014891827 0.060308777 -0.8616697 -0.041459464
