saved_models_1/125_3136_model.pt (torch, 701697 bytes, 11 tensors)

FC1.weight f4 [256, 36]
-0.30353123 0.087856896 0.44799024 -0.09367952 0.752129 0.36242536 -0.19092193 -1.0828785
1.1656029 0.25581202 -1.1878455 0.4496456 -0.28464097 0.39228946 0.8767529 -0.44502196
-1.0316273 -0.77817035 1.1219957 0.35646823 0.9836809 0.34671852 -1.0809466 -0.21570487
2.0200508 -0.05667724 -0.7330077 0.20505722 -0.1624757 0.05652835 0.28166795 0.21486151
-2.3029199 -0.23481363 0.77396864 -1.210579 0.936161 -0.41818386 0.09085798 0.035915866
-0.6867669 -0.16154777 0.9697631 -0.21493074 -1.386451 -0.77680445 1.7998743 -0.5215531
-1.1209989 -0.19400536 0.84453446 -0.53542256 -1.5077488 -0.43998384 2.4246066 0.61630857
-0.28458342 -1.0346074 0.18939897 1.1271869 0.1445517 -1.9935713 0.9062541 0.04515183
0.055993643 0.39436185 0.2444695 0.45967752 -2.929157 -1.1667343 1.0567099 1.071778
0.2287016 0.25381228 -0.330123 -0.17390455 -0.92282116 0.60379934 -1.5139029 -1.0595323
1.6394035 0.35068062 0.900522 -0.007235688 -0.5507151 1.2733889 -0.093953386 -3.2822633
-0.0072968365 0.42927012 0.066313274 0.4706645 -0.6055319 -0.08097661 0.87476856 0.2622969
-1.6876483 -0.345253 0.72395855 -0.55082625 -0.041464906 0.02115656 0.31088188 -0.28577092
0.5109635 -0.8828149 -3.7981622 0.47935757 -1.6985943 0.29080588 0.11537197 0.70945877
-0.4649064 -1.6770687 -0.03336104 2.6288102 -1.0516192 -1.0236467 0.5360772 0.52253526
-0.55161333 -0.33386385 0.27001554 0.46164834 -1.4433187 -0.26414225 0.5220568 -0.5380908
-0.8165402 0.23723887 0.30737218 0.07071031 -1.134723 1.8525347 1.2299814 -0.08728435
-2.2074142 0.33868802 0.33538505 -3.7513134 -0.9486821 -0.78342503 1.1867054 -3.173559
-0.47419184 -0.18391857 -0.06688876 -0.020429377 1.2705991 0.4562241 -1.0017436 -1.6346673
3.8786724 0.12326905 -3.9843826 0.53993005 0.5236386 0.08476261 -0.65714633 -0.055154733
1.0775996 -1.160697 -1.0706633 0.3235167 0.041149136 -0.69851494 -0.33562952 1.4231383
0.22091526 -0.7839384 0.3551644 0.17057794 0.08279623 0.47375154 0.07651986 0.23177375
1.0894635 0.3906623 -4.6620746 -1.3123717 -1.063186 -0.118425734 0.12903298 -0.19460022
0.34135753 0.524011 -1.1013894 -2.3235574 1.9287513 0.2599002 -0.24528669 -1.1396238
-0.26663238 -0.19783351 -0.40566778 -0.5358182 0.2705012 0.80340177 0.576576 -0.9583254
-0.6823357 -0.19892459 0.7779749 -0.14114918 -2.2462492 0.8620047 0.22129455 0.42772865
0.42625523 -3.29758 -2.3585002 -1.1820822 1.538646 -1.0407978 -2.5403712 -3.0635087
-0.996748 -0.44760016 0.3075359 -1.1420053 0.82839406 -0.35241416 -0.13791364 -0.8328038
2.1460125 1.966037 0.6287597 0.18704322 0.23352847 -1.3492086 0.92353636 1.4360608
-0.62883717 -1.018012 0.6480422 -0.106421985 0.5864919 -1.5705363 -0.4100951 0.88710135
0.7968702 -0.9857681 -0.3550758 0.05900184 0.5004805 0.13314317 -0.033935625 -0.062144816
0.76601785 -1.6584568 -0.29976997 1.9878163 0.20306678 0.3114884 -0.500973 -0.78741336
00000000: 7268 9bbe 51ee b33d fa5e e53e 0cdb bfbd
00000010: 878b 403f d18f b93e 0a81 43be c39b 8abf
00000020: 7a32 953f cbf9 823e 520b 98bf f337 e63e
00000030: 76bc 91be 2ada c83e e172 603f ebd9 e3be
00000040: 5d0c 84bf 2c36 47bf 8e9d 8f3f 0183 b63e
00000050: 83d2 7b3f 1785 b13e 755c 8abf bde1 5cbe
00000060: 8348 0140 6526 68bd 65a6 3bbf 85fa 513e
00000070: 0860 26be 458a 673d c836 903e a804 5c3e
00000080: 0a63 13c0 fc72 70be cf22 463f 41f4 9abf
00000090: 3fa8 6f3f 321c d6be c013 ba3d 841c 133d
000000a0: f5cf 2fbf c76c 25be 6542 783f ce16 5cbe
000000b0: 3a77 b1bf a8dc 46bf 4862 e63f 8184 05bf
000000c0: e47c 8fbf 57a9 46be 6933 583f 7411 09bf
000000d0: eafd c0bf 9045 e1be c12c 1b40 66c6 1d3f
000000e0: ebb4 91be 046e 84bf cef1 413e a947 903f
000000f0: 5c05 143e 582d ffbf 4500 683f 20f1 383d
00000100: 9759 653d cce9 c93e 3656 7a3e da5a eb3e
00000110: 4f77 3bc0 8d57 95bf 4542 873f 0630 893f
00000120: c130 6a3e aff3 813e e205 a9be 0914 32be
00000130: 023e 6cbf 9892 1a3f 92c7 c1bf c19e 87bf
00000140: f9d7 d13f 698c b33e 9c88 663f 5a19 edbb
00000150: aafb 0cbf 68fe a23f a26a c0bd 9a10 52c0
00000160: 4d1a efbb 4bc9 db3e 41cf 873d f0fa f03e
00000170: 2304 1bbf 11d7 a5bd d5f0 5f3f c74b 863e
00000180: dc04 d8bf 00c5 b0be 5955 393f f302 0dbf
00000190: 1bd7 29bd 8650 ad3c e92b 9f3e 9150 92be
000001a0: 81ce 023f 2800 62bf 1715 73c0 5b6e f53e
000001b0: 8a6b d9bf 82e4 943e 2448 ec3d 179f 353f
000001c0: 3608 eebe 30aa d6bf 96a5 08bd 6d3e 2840
000001d0: 759b 86bf db06 83bf 5b3c 093f dfc4 053f
000001e0: 8836 0dbf 34f0 aabe 7a3f 8a3e 2c5d ec3e
000001f0: abbe b8bf a73d 87be 84a5 053f 52c0 09bf
00000200: c708 51bf bfee 723e e35f 9d3e 91d0 903d
00000210: 9a3e 91bf db1f ed3f 0870 9d3f 23c2 b2bd
00000220: 4646 0dc0 8468 ad3e 97b7 ab3e 8515 70c0
00000230: d5dc 72bf 8b8e 48bf f6e5 973f 971b 4bc0
00000240: 46c9 f2be 2655 3cbe f9fc 88bd 825b a7bc
00000250: fea2 a23f 3596 e93e 2239 80bf c73c d1bf
00000260: 2b3c 7840 7c74 fc3d 2000 7fc0 db38 0a3f
00000270: 2e0d 063f 0598 ad3d be3a 28bf eee9 61bd
00000280: c9ee 893f b891 94bf 7f0b 89bf fba3 a53e
00000290: ff8b 283d e0d1 32bf a2d7 abbe 6529 b63f
000002a0: 9c37 623e 30b0 48bf 1cd8 b53e fcab 2e3e
000002b0: 1291 a93d 908f f23e 72b6 9c3d 1956 6d3e
000002c0: 8a73 8b3f e404 c83e b72f 95c0 ccfb a7bf
000002d0: 7b16 88bf 3189 f2bd 3921 043e 4845 47be
000002e0: 6ac6 ae3e 9625 063f 54fa 8cbf 2ab5 14c0
000002f0: 53e1 f63f a411 853e 6f2c 7bbe 31df 91bf
00000300: 0a84 88be de94 4abe b0b3 cfbe 622b 09bf
00000310: 227f 8a3e bdab 4d3f 7c9a 133f d054 75bf
00000320: 8dad 2ebf e3b2 4bbe 5d29 473f 6989 10be
00000330: 8cc2 0fc0 57ac 5c3f 0a9b 623e 40ff da3e
00000340: 203e da3e 8d0b 53c0 abf1 16c0 784e 97bf
00000350: 5af2 c43f dd38 85bf 7195 22c0 8710 44c0
00000360: e02a 7fbf d92b e5be 5875 9d3e 3b2d 92bf
00000370: a211 543f a16f b4be 3c39 0dbe a132 55bf
00000380: 4558 0940 1aa7 fb3f 65f6 203f 4288 3f3e
00000390: 1622 6f3e deb2 acbf e16c 6c3f d7d0 b73f
000003a0: 79fb 20bf 384e 82bf 18e6 253f c5f3 d9bd
000003b0: 5524 163f 5507 c9bf fcf7 d1be 1319 633f
000003c0: afff 4b3f 4c5b 7cbf 7fcc b5be eaab 713d
000003d0: 7d1f 003f af56 083e 1500 0bbd 908b 7ebd
000003e0: bf19 443f 5048 d4bf 737b 99be c470 fe3f
000003f0: bdf0 4f3e 687b 9f3e c43f 00bf ec93 49bf

FC1.bias f4 [256]
0.09481627 -0.25559023 -0.53186494 -0.07267897 0.18332739 0.32891575 -0.14182197 -0.43373162
-0.72101635 -0.36995336 0.010238867 -0.16564487 -0.44466826 -0.21167736 -0.40626657 -0.06602338
0.23883057 -0.2503272 0.21132831 0.30535355 -0.06643877 0.16806291 -0.67618024 0.027791377
-0.3188117 0.053594157 -0.7221366 0.24896207 -0.8058434 0.06736331 -0.18915994 -0.43948036
-0.54636353 0.26325288 -0.14851023 0.52322704 -0.45067546 -0.35996488 -0.29659566 -0.22677775
0.15301979 -0.39918503 0.016127698 -0.5626925 0.23474294 -0.123694144 -0.7893614 -0.2720018
-0.30774358 -0.05234597 0.7031369 -0.1956024 -0.11063792 -0.020341428 0.15326786 -0.43665272
-0.20776327 -0.41289327 0.02564297 0.05542342 -0.18322355 0.22060108 0.34997493 -0.06395708
0.028576901 0.059709612 -0.008124389 -0.14116932 -0.62773204 -0.08438699 -0.20243347 -0.33596474
0.32458234 0.91461456 -0.12469379 0.042373337 -0.5872096 -0.39160475 -0.7130797 0.62828517
-0.76588106 -0.4339803 0.20720506 -0.32979536 0.08056256 0.5675893 0.11099327 0.18145807
-0.41912442 0.2528086 0.030762488 -0.04101737 -0.4200711 0.46325827 0.040320642 -0.103329204
-0.105049305 -0.3792865 -0.45382074 -0.5463642 -0.21306439 0.19356039 -0.1961992 -0.51360077
-0.12953354 0.35994554 0.10761604 -0.28342617 0.016038045 -0.08798305 -0.2813478 -0.5539812
-0.46070206 -0.5355727 -0.5216479 0.13882256 -0.12004596 0.30369213 -0.4355849 0.08120683
-0.22108951 -0.056411427 -0.40545157 -0.21865726 -0.7336509 -0.19066648 -0.13165905 -0.56488353
-0.67936856 0.13328798 -0.30922994 0.30536452 0.4319896 -0.050252497 0.19697286 -0.14309825
-0.2653756 0.3270418 -0.10914754 0.03258598 -0.23218334 0.06128256 0.04783624 -0.021050125
-0.3323532 -0.4033439 0.3381848 0.6088917 -0.21285966 0.36522177 -0.8063321 -0.2343076
-0.014698918 -0.18280523 0.7489189 -0.1549486 -0.64042383 -0.07474879 0.33708203 -0.13390468
-0.27560803 0.04197288 0.66242844 0.27913246 0.05727103 0.15571907 -0.56458485 -0.07129783
-0.08546762 -0.22166198 -0.47128487 -0.6086902 0.627485 0.1435341 -0.040998127 0.01834078
0.106182605 0.043577008 -1.0110871 -0.5711552 0.091287576 -0.60754603 -0.0111625865 0.36995575
-0.26002568 -0.23486364 -0.246709 -0.61735654 0.6945434 -0.40120792 0.006374132 -0.13094993
0.08703603 0.49240264 0.4532524 -0.20924057 -0.49246323 -0.0531557 0.27860728 -0.07332812
-0.3284293 -0.41163322 -0.027945712 -0.59262216 0.2261195 0.1871958 0.22957303 0.0915024
-0.35120487 0.12247016 -0.48177254 0.35404137 -0.34564793 -0.5794435 -0.6390548 -0.42049906
-0.37056023 -0.5133489 0.13076141 0.2562477 -0.29105482 -0.011674339 -0.19366843 0.5483471
-0.46383876 -0.23783875 -0.48040617 -0.82996774 0.21122193 0.093016446 0.066038884 -0.5441572
0.5707103 -0.4295117 -0.5600462 -0.029298488 -0.72483134 0.21589513 -0.31417996 -0.26148927
0.0640377 -0.2058355 0.13681579 0.74438083 0.7102204 -0.20326185 0.0089676045 0.07713729
-0.08637578 0.06529758 -0.21135117 -0.16231726 -0.056364473 0.66171443 -0.42177746 -0.3267158
00000000: 082f c23d b9dc 82be 4d28 08bf b6d8 94bd
00000010: 2dba 3b3e a567 a83e c739 11be 1212 debe
00000020: 8794 38bf 876a bdbe ecc0 273c cf9e 29be
00000030: 8fab e3be f3c1 58be 2c02 d0be 4437 87bd
00000040: 0090 743e e32a 80be 7366 583e 4d57 9c3e
00000050: 0d11 88bd af18 2c3e 261a 2dbf beaa e33c
00000060: 4a3b a3be 8c85 5b3d f2dd 38bf eaef 7e3e
00000070: c14b 4ebf c6f5 893d 25b3 41be 9203 e1be
00000080: 7bde 0bbf 15c9 863e 1113 18be 35f2 053f
00000090: efbe e6be 514d b8be 63db 97be 6d38 68be
000000a0: 38b1 1c3e fb61 ccbe 3c1e 843c 9e0c 10bf
000000b0: 7460 703e 5b53 fdbd 9713 4abf d243 8bbe
000000c0: 9190 9dbe ba68 56bd c800 343f ff4b 48be
000000d0: 2296 e2bd 11a3 a6bc 40f2 1c3e f290 dfbe
000000e0: e5bf 54be bf66 d3be 3511 d23c ab03 633d
000000f0: f49e 3bbe 40e5 613e ea2f b33e eefb 82bd
00000100: 1b1a ea3c 1192 743d 281c 05bc b18e 10be
00000110: 0cb3 20bf 16d3 acbd b84a 4fbe 9203 acbe
00000120: a82f a63e 2e24 6a3f 755f ffbd aa8f 2d3d
00000130: 5e53 16bf 6b80 c8be 648c 36bf 4cd7 203f
00000140: c810 44bf aa32 debe 902d 543e f0da a8be
00000150: fcfd a43d 884d 113f 7150 e33d 25d0 393e
00000160: 7a97 d6be 2170 813e 9d01 fc3c d401 28bd
00000170: 8f13 d7be 3030 ed3e 4227 253d 439e d3bd
00000180: 1724 d7bd d731 c2be 315b e8be 86de 0bbf
00000190: 8d2d 5abe b234 463e 71e8 48be 577b 03bf
000001a0: 71a4 04be c84a b83e cc65 dc3d 3c1d 91be
000001b0: 3862 833c 7530 b4bd d20c 90be b6d1 0dbf
000001c0: 24e1 ebbe 4b1b 09bf b78a 05bf 8027 0e3e
000001d0: a8da f5bd 897d 9b3e fc04 dfbe c44f a63d
000001e0: 4a65 62be ab0f 67bd 5997 cfbe b0e7 5fbe
000001f0: 8cd0 3bbf 133e 43be a1d1 06be 359c 10bf
00000200: 19eb 2dbf a57c 083e 6353 9ebe bd58 9c3e
00000210: be2d dd3e 90d5 4dbd 41b3 493e 5988 12be
00000220: 50df 87be 0672 a73e bf88 dfbd e078 053d
00000230: 78c1 6dbe 6c03 7b3d efef 433d 5071 acbc
00000240: 332a aabe 1783 cebe 8f26 ad3e 54e0 1b3f
00000250: e2f7 59be 59fe ba3e c86b 4ebf 55ee 6fbe
00000260: bbd3 70bc 4b31 3bbe 26b9 3f3f d9aa 1ebe
00000270: d1f2 23bf e515 99bd 0496 ac3e 4f1e 09be
00000280: 7f1c 8dbe c1eb 2b3d e994 293f 73ea 8e3e
00000290: 0795 6a3d d274 1f3e a288 10bf 9904 92bd
000002a0: a609 afbd 5cfb 62be 404c f1be 1fd3 1bbf
000002b0: dba2 203f 9afa 123e a7ed 27bd 673f 963c
000002c0: 4476 d93d ce7d 323d 4d6b 81bf 3a37 12bf
000002d0: fbf4 ba3d 2388 1bbf 48e3 36bc d76a bd3e
000002e0: 1622 85be 1880 70be 49a1 7cbe 140b 1ebf
000002f0: 99cd 313f 206b cdbe 18de d03b bd17 06be
00000300: f23f b23d 331c fc3e b310 e83e 2943 56be
00000310: 2424 fcbe cbb9 59bd 9da5 8e3e 0e2d 96bd
00000320: e327 a8be 97c1 d2be 68ee e4bc 16b6 17bf
00000330: df8b 673e 41b0 3f3e 3115 6b3e 9c65 bb3d
00000340: 20d1 b3be a3d1 fa3d e4aa f6be e944 b53e
00000350: c4f8 b0be 6956 14bf 1899 23bf a74b d7be
00000360: 12ba bdbe d56a 03bf 52e6 053e e632 833e
00000370: 2305 95be ba45 3fbc 0451 46be 7a60 0c3f
00000380: 467c edbe 008c 73be ccf7 f5be c478 54bf
00000390: 904a 583e 687f be3d 653f 873d e34d 0bbf
000003a0: 121a 123f f5e8 dbbe 305f 0fbf 6203 f0bc
000003b0: 8c8e 39bf 9d13 5d3e 32dc a0be ece1 85be
000003c0: 3326 833d 8bc6 52be 7019 0c3e be8f 3e3f
000003d0: 01d1 353f e023 50be dcec 123c 28fa 9d3d
000003e0: c9e5 b0bd bdba 853d 716c 58be 7f36 26be
000003f0: 6fde 66bd 1e66 293f 37f3 d7be 4b47 a7be

FC2.weight f4 [256, 256]
-2.05681 1.1364646 0.14883345 -2.3120162 0.6239986 1.4652945 -0.44652376 -2.3380365
-1.2520429 1.1349655 -0.008060327 0.75102836 -0.9179115 -0.19841003 0.027707795 -0.11174717
-2.025406 0.37050962 1.2245197 -1.087585 0.03887946 1.5313152 -3.5736902 -0.4102927
0.10013663 -2.9128332 -0.93518883 -2.810158 1.4666929 -0.15496118 0.1595923 -1.1448858
-1.437244 0.24836475 0.030315684 -0.122821845 -0.5353492 2.2291777 0.57323503 0.8090525
-0.1983783 0.058908306 -1.5474786 -0.83301014 -0.079211235 -0.13996932 -0.8748938 -0.3469657
0.40371883 0.11765148 -1.0607421 -0.018154308 -2.7891793 -2.5991757 -0.7551102 -1.8211329
-0.007461174 0.7309097 -2.4087753 0.363238 0.35011983 -0.4170937 -0.22436777 0.21789753
0.83523595 1.5389233 -1.0310594 -0.039951555 -2.1324985 -0.072412945 -0.07528701 -0.18850729
-0.18789434 -0.23383322 0.20895402 0.30554783 -1.3987447 -1.4863832 0.0998156 1.1663201
0.7368488 -1.9633671 1.6164184 -0.24366383 -0.6562614 1.8075408 -0.73568046 -1.4641451
0.25435597 0.6271219 -0.01333403 -1.4494042 0.3215886 -0.5069208 -0.06411163 0.5636178
2.1614773 -0.42437991 1.1506681 0.67991316 0.3275835 -1.197849 -1.5789185 0.44012174
0.010272967 0.0058389516 1.4989629 -0.029236548 1.1320233 -0.513954 -0.0704618 -0.32734606
-1.1977478 -2.2415183 -0.0045831758 -1.7283412 -0.0578852 -1.5038633 -0.62866867 -0.21667503
-0.3967852 -1.0964559 0.088453524 -0.23546092 -1.2372227 0.014509767 1.0674342 -1.1574936
-0.40351477 0.5757331 1.9301287 0.12380318 -0.029845176 -0.93924934 -1.943157 0.4001983
-1.1025902 0.0276472 -1.9199451 1.0362321 -0.021744844 -0.40587392 0.18424194 -0.84679645
-1.5311284 0.4459832 0.82625926 0.5634789 -0.06909247 -0.2074576 -0.1218707 0.99260855
-6.6779327 -0.44078407 -0.48822147 -0.036444493 -0.66054016 1.8890221 1.2195008 -0.012450356
-0.31439176 -0.08095582 -0.6142811 0.1531442 -2.6455607 -2.0742612 0.4612911 -1.8415929
0.17875975 -2.1620057 2.7804918 -0.5338959 -0.5598345 -1.9856019 0.12789018 -0.83777684
0.22036742 -0.77850014 -0.75323665 0.083079875 -0.27373382 0.9816405 -0.08943379 0.40859714
0.8410823 -0.5994312 -0.83658904 1.2558877 1.0301266 0.5989855 1.8279159 0.17731693
1.0006841 0.48886412 -0.69388336 0.8743046 -2.391414 -1.4646194 0.80028456 -2.4261746
0.3436973 0.18241379 -0.01290644 1.2966329 -0.6240876 -1.7460291 0.1935285 1.1102839
-0.3151105 -2.0089617 0.5436185 2.376421 1.3309578 -0.22948025 -1.1301017 1.6954306
-0.02661443 0.96809214 -5.0257444 -0.63495374 -3.5494123 -0.22021629 0.37962154 2.1112285
2.3355808 -0.9653247 0.854769 1.2021105 -0.32259744 0.00028974246 -0.19784133 0.3678651
0.8380616 -0.9963568 -0.05284338 0.17261812 -3.4296825 1.350998 -0.5276118 -1.1009016
0.004595944 -2.9226046 -0.54103744 -0.26362383 0.9398978 0.42519155 -1.288049 0.5866073
0.40671462 -0.079071574 -0.47408292 0.23351315 -1.4025761 -0.99867964 -1.2649939 -0.054442577
00000000: c6a2 03c0 ac77 913f cc67 183e 13f8 13c0
00000010: 5fbe 1f3f c58e bb3f c39e e4be 64a2 15c0
00000020: f142 a0bf 8d46 913f 760f 04bc 6543 403f
00000030: 40fc 6abf 002c 4bbe 75fb e23c b3db e4bd
00000040: 40a0 01c0 70b3 bd3e 10bd 9c3f fc35 8bbf
00000050: 1240 1f3d 2302 c43f 57b7 64c0 e311 d2be
00000060: 6f14 cd3d dc6b 3ac0 8968 6fbf a1d9 33c0
00000070: 98bc bb3f 25ae 1ebe 2a6c 233e 9e8b 92bf
00000080: 9df7 b7bf 5453 7e3e 9958 f83c 058a fbbd
00000090: a50c 09bf d9aa 0e40 88bf 123f 111e 4f3f
000000a0: ae23 4bbe d649 713d c713 c6bf 2740 55bf
000000b0: 8039 a2bd 1e54 0fbe 0af9 5fbf 7da5 b1be
000000c0: 3cb4 ce3e 42f3 f03d 66c6 87bf 58b8 94bc
000000d0: ea81 32c0 e558 26c0 e74e 41bf e21a e9bf
000000e0: dd7c f4bb e61c 3b3f 6029 1ac0 55fa b93e
000000f0: e842 b33e 4e8d d5be aac0 65be 8820 5f3e
00000100: 06d2 553f 70fb c43f c1f9 83bf 3ea4 23bd
00000110: db7a 08c0 3d4d 94bd 1330 9abd 0e08 41be
00000120: 6067 40be fa71 6fbe 0bf8 553e c470 9c3e
00000130: 110a b3bf ce41 bebf 1f6c cc3d fa49 953f
00000140: 1fa2 3c3f 9d4f fbbf cce6 ce3f 0383 79be
00000150: bf00 28bf 7f5d e73f 8e55 3cbf 1b69 bbbf
00000160: f23a 823e 108b 203f fa76 5abc 1486 b9bf
00000170: 43a7 a43e 90c5 01bf f54c 83bd 4249 103f
00000180: a555 0a40 5348 d9be 1849 933f ca0e 2e3f
00000190: 06b9 a73e 1e53 99bf 001a cabf a357 e13e
000001a0: f24f 283c ad54 bf3b 04de bf3f 7c81 efbc
000001b0: 24e6 903f 7d92 03bf 474e 90bd e799 a7be
000001c0: cd4f 99bf 0975 0fc0 772e 96bb 493a ddbf
000001d0: 0819 6dbd 987e c0bf 6ef0 20bf 0fe0 5dbe
000001e0: 6e27 cbbe ab58 8cbf 1f27 b53d ab1c 71be
000001f0: 505d 9ebf 60ba 6d3c afa1 883f c028 94bf
00000200: 7d99 cebe 3f63 133f 750e f73f 868c fd3d
00000210: df7d f4bc a572 70bf 5eb9 f8bf cbe6 cc3e
00000220: ad21 8dbf 617c e23c c3c0 f5bf 41a3 843f
00000230: 3e22 b2bc b5ce cfbe eba9 3c3e a7c7 58bf
00000240: 04fc c3bf e957 e43e ba85 533f 2740 103f
00000250: 5a80 8dbd c46f 54be 5897 f9bd 981b 7e3f
00000260: a0b1 d5c0 73ae e1be 2af8 f9be d246 15bd
00000270: 2919 29bf 7acb f13f 9a18 9c3f 94fc 4bbc
00000280: f5f7 a0be 2acc a5bd 8741 1dbf d5d1 1c3e
00000290: de50 29c0 b2c0 04c0 592e ec3e 51b9 ebbf
000002a0: cc0c 373e 4d5e 0ac0 94f3 3140 67ad 08bf
000002b0: 5051 0fbf 3428 febf a5f5 023e 8b78 56bf
000002c0: ffa7 613e c94b 47bf 1ed4 40bf c825 aa3d
000002d0: d726 8cbe cb4c 7b3f 1029 b7bd a533 d13e
000002e0: 2b51 573f 5374 19bf b32a 56bf eec0 a03f
000002f0: 30db 833f 1d57 193f 26f9 e93f 9292 353e
00000300: 6b16 803f 664c fa3e 57a2 31bf 6dd2 5f3f
00000310: ed0c 19c0 a678 bbbf 73df 4c3f 7246 1bc0
00000320: 18f9 af3e aeca 3a3e 8875 53bc 11f8 a53f
00000330: 34c4 1fbf e27d dfbf 562c 463e c81d 8e3f
00000340: 2a56 a1be d492 00c0 952a 0b3f 4817 1840
00000350: d35c aa3f dffc 6abe 2ca7 90bf df03 d93f
00000360: 8106 dabc e3d4 773f e6d2 a0c0 548c 22bf
00000370: 9229 63c0 6180 61be c15d c23e 5e1e 0740
00000380: 287a 1540 851f 77bf 24d2 5a3f c2de 993f
00000390: 7e2b a5be 93e8 9739 eb96 4abe d058 bc3e
000003a0: 348b 563f 3d11 7fbf 4d72 58bd cec2 303e
000003b0: eb7f 5bc0 81ed ac3f 9111 07bf 58ea 8cbf
000003c0: 9399 963b f40b 3bc0 6e81 0abf b4f9 86be
000003d0: 249d 703f b5b2 d93e cade a4bf e52b 163f
000003e0: e63c d03e 47f0 a1bd ffba f2be 121e 6f3e
000003f0: 9d87 b3bf 78a9 7fbf 52eb a1bf 2eff 5ebd

FC2.bias f4 [256]
-0.38219982 -0.07968408 -0.5202672 -0.09224268 -0.56146216 -0.31563795 0.6516588 0.062233355
-0.013761916 -1.0281922 -0.0042880652 -0.107342705 -0.56564283 -0.037998658 -0.960432 -0.61666477
0.02288729 -0.208581 -0.12148763 -0.98208505 -0.24596153 -0.33258113 0.7512031 -0.6335924
-0.11022713 -0.05805354 0.20536545 -0.05389265 -0.74849707 -0.44171157 -0.82711643 -0.7675717
-0.8799236 -0.07719531 -0.30807257 -0.7666355 -0.12417023 0.067887686 -0.41019085 0.5610641
-0.22975376 -0.6282921 0.18953748 -0.848775 0.07978726 -0.4029551 -0.664903 0.4573505
0.35820928 -0.49655852 -0.5627569 -0.4485905 -0.2798417 -0.21250619 -0.50937384 0.0488721
-0.49104184 -0.4333967 0.014528688 -0.24795865 0.18563163 -0.5713806 -1.1201134 0.0816522
0.412196 0.3753297 -0.8750178 -0.6087044 -0.16951199 -0.22033446 -1.014966 -0.45556527
-0.6463514 -0.15816738 0.13075836 -0.21909466 0.12675934 -0.45279342 -0.6990294 -0.88236576
-0.37530074 -1.2903804 -0.08569926 -0.43491167 -0.14697567 -1.0313625 -0.8644388 -0.038753204
-0.51480603 0.72729236 -0.52689844 -0.6645238 -0.20230414 -1.3261693 -1.2364058 -0.2661714
-1.1183001 -0.41900024 -0.47225425 -0.8090122 -0.5062243 -0.4225312 0.048903655 0.1080644
-0.35911742 0.013153295 1.0892737 0.056220673 -0.76801735 -1.1550643 -0.1965437 -0.6123876
-0.0011655377 -0.033553734 0.091415904 -0.5220729 0.058201976 -0.60385585 -1.2782487 -0.4052395
-0.058486782 -0.2510171 0.06514023 -0.4719638 -0.078337885 0.4388932 -0.19805047 -0.8624503
-0.12142057 -1.2925801 -0.76026785 -0.010386122 0.36774406 -0.24706204 -0.94181806 -0.5153955
-0.12839217 1.2542804 -1.3134494 -0.104205824 -1.0067745 -0.09468732 -0.07676944 -0.29686
0.14989631 -0.42919093 0.24294949 -0.075281434 -0.21710886 -0.5769481 -0.7875378 -0.4193635
0.2924965 -0.13006425 0.7391126 -1.298112 -0.7179482 -0.9530403 0.0723473 -0.20271596
-0.091085896 0.17962575 -0.74377805 0.18213579 -0.6486418 0.04615415 -0.44015265 -0.6228196
-0.5810538 -0.027583878 -0.80469215 -0.08179305 -0.7613792 -1.198964 -1.3699744 -0.95811933
-0.36318713 -0.20914303 -0.5027898 0.31823352 -0.039774787 -1.0012248 -0.10293126 -0.34100878
0.67449963 -0.6167604 -0.94256705 -0.1917382 -0.20405371 -0.17882985 -0.5705698 -1.3026006
-0.14405556 -0.96797603 0.122677036 -0.054711107 -0.20217882 -1.2776524 -0.27360272 -0.29693034
-0.522264 -0.05955517 -0.1858303 -0.16955897 -0.3013861 -0.041678857 -0.5750271 -0.7542742
-0.32400906 0.6830157 0.31316295 -0.8196985 0.019034553 -0.92174476 -0.67480296 -0.29210007
-1.2771963 0.13979146 -0.08982065 -0.16048057 0.07873297 -0.2546595 -0.26287302 -0.16398054
0.03258016 0.18372361 -0.31763458 -1.2032057 -0.7545528 -1.000459 -0.52535814 -1.188634
-0.34748983 -0.33841524 -0.21164513 -0.86310905 -0.48298454 -0.3246296 -1.4885592 -1.2373406
-0.104531825 -0.51434106 -0.19277604 0.71223944 -0.76217157 0.1459721 -0.10868684 -0.6555374
-0.8180575 -0.13456665 -0.31102642 -0.56707937 -0.070458755 -0.20958695 -0.34102333 -0.78441405
00000000: b2af c3be 6831 a3bd 3b30 05bf bbe9 bcbd
00000010: fcbb 0fbf 4c9b a1be 1cd3 263f 67e8 7e3d
00000020: a979 61bc cd9b 83bf e682 8cbb 7ed6 dbbd
00000030: f8cd 10bf 7ba4 1bbd dfde 75bf bedd 1dbf
00000040: 207e bb3c 4296 55be 82ce f8bd ed69 7bbf
00000050: 57dd 7bbe 1348 aabe d94e 403f 1d33 22bf
00000060: c3be e1bd 8cc9 6dbd 524b 523e 8abe 5cbd
00000070: 819d 3fbf 0528 e2be e7bd 53bf 947f 44bf
00000080: ac42 61bf 9318 9ebd b0bb 9dbe 3942 44bf
00000090: f64c febd b308 8b3d 8904 d2be e6a1 0f3f
000000a0: 9244 6bbe c0d7 20bf 1d16 423e 5249 59bf
000000b0: 8167 a33d 2250 cebe 1537 2abf d829 ea3e
000000c0: 3567 b73e eb3c febe d610 10bf a7ad e5be
000000d0: 6947 8fbe 399b 59be 5366 02bf 1c2e 483d
000000e0: d669 fbbe 2ce6 ddbe bc09 6e3c dfe8 7dbe
000000f0: 3816 3e3e 0046 12bf e05f 8fbf 4539 a73d
00000100: 5b0b d33e 372b c03e 2b01 60bf 0dd4 1bbf
00000110: 8d94 2dbe 5b9f 61be 68ea 81bf da3f e9be
00000120: 4977 25bf a1f6 21be 85e5 053e 5a5a 60be
00000130: 33cd 013e 8ad4 e7be 97f3 32bf b9e2 61bf
00000140: 6b27 c0be 2f2b a5bf 1883 afbd beac debe
00000150: ca80 16be b003 84bf dc4b 5dbf aebb 1ebd
00000160: 54ca 03bf d52f 3a3f d1e2 06bf 3b1e 2abf
00000170: d128 4fbe eabf a9bf 8c42 9ebf 9e47 88be
00000180: 7524 8fbf 3387 d6be 4fcb f1be 6c1b 4fbf
00000190: ea97 01bf 0256 d8be 334f 483d de50 dd3d
000001a0: 3dde b7be eb80 573c 526d 8b3f a647 663d
000001b0: c99c 44bf 26d9 93bf c042 49be 6fc5 1cbf
000001c0: f5c4 98ba a46f 09bd 4338 bb3d 92a6 05bf
000001d0: 3265 6e3d 4c96 1abf a79d a3bf 8d7b cfbe
000001e0: d68f 6fbd 5085 80be 3e68 853d 3da5 f1be
000001f0: 9d6f a0bd 9cb6 e03e becd 4abe 8bc9 5cbf
00000200: 59ab f8bd 4473 a5bf eaa0 42bf 8e2a 2abc
00000210: f348 bc3e d5fd 7cbe fd1a 71bf f6f0 03bf
00000220: 3d79 03be 438c a03f 1c1f a8bf dd69 d5bd
00000230: fddd 80bf 6deb c1bd 4c39 9dbd 09fe 97be
00000240: 6b7e 193e eabe dbbe c0c7 783e 272d 9abd
00000250: c951 5ebe dfb2 13bf 149c 49bf d0b6 d6be
00000260: 1ac2 953e 902f 05be 7c36 3d3f 8928 a6bf
00000270: 74cb 37bf 73fa 73bf d22a 943d c694 4fbe
00000280: 3e8b babd d0ef 373e 3d68 3ebf ce81 3a3e
00000290: 640d 26bf 220c 3d3d b05b e1be 1b71 1fbf
000002a0: f1bf 14bf 96f7 e1bc 4e00 4ebf 1d83 a7bd
000002b0: bfe9 42bf a777 99bf 525b afbf 4f47 75bf
000002c0: aaf3 b9be 9729 56be d5b6 00bf 81ef a23e
000002d0: e3ea 22bd 2228 80bf a0cd d2bd b498 aebe
000002e0: 02ac 2c3f 02e4 1dbf 134c 71bf 0557 44be
000002f0: 75f3 50be 2c1f 37be dd10 12bf 9ebb a6bf
00000300: 4d83 13be 47cd 77bf 193e fb3d c118 60bd
00000310: f707 4fbe 1d8a a3bf a815 8cbe 4107 98be
00000320: 18b3 05bf 1ff0 73bd 4c4a 3ebe dea0 2dbe
00000330: 474f 9abe 73b7 2abd fa34 13bf 1d18 41bf
00000340: 84e4 a5be 1eda 2e3f e556 a03e c3d7 51bf
00000350: 5aee 9b3c 77f7 6bbf e3bf 2cbf 248e 95be
00000360: 2b7b a3bf 7e25 0f3e e4f3 b7bd 0555 24be
00000370: c03e a13d bb62 82be 4b97 86be 84ea 27be
00000380: c672 053d 0b22 3c3e 00a1 a2be a502 9abf
00000390: 5f2a 41bf 0a0f 80bf df7d 06bf 2925 98bf
000003a0: 30ea b1be c344 adbe 80b9 58be b7f4 5cbf
000003b0: c049 f7be da35 a6be 1c89 bebf 2d61 9ebf
000003c0: c814 d6bd dbab 03bf 1567 45be 5355 363f
000003d0: ad1d 43bf b679 153e 3597 debd 4dd1 27bf
000003e0: 376c 51bf d7cb 09be db3e 9fbe 1d2c 11bf
000003f0: ae4c 90bd f69d 56be 9c9a aebe 5ccf 48bf

action_out.weight f4 [5, 256]
0.3451386 -0.06408668 0.40437672 0.23806594 0.08110693 -1.9175981 1.4316788 0.5705009
2.2196565 -2.4320226 2.2094395 0.5545882 -0.074784085 0.019227233 -2.2446074 0.4771735
2.1957307 0.0638557 0.4204607 -0.90582573 2.200532 0.9492426 0.49617937 0.72203565
1.3322833 1.8715885 0.5585952 0.69261706 0.015418419 0.75091946 0.5951394 1.7025784
0.94286954 0.028387101 0.49135292 3.0113516 -0.056053955 0.0929146 2.5974195 2.6041205
0.9703264 0.9203134 1.4834155 0.95080286 1.9103092 0.4413298 0.23890764 1.5206498
1.8171508 1.0165032 0.7100687 0.83771205 -0.031580538 1.7657143 3.3925176 -1.500681
1.794267 0.76153857 0.24937648 0.82763743 1.9008845 1.1855254 -0.7919408 -1.5748116
1.1499565 1.1804587 1.2877623 -0.0078134 0.6215113 0.39713866 -0.12756796 -0.36717662
0.8791455 0.4849553 -0.14267784 -0.5132251 2.4120831 -0.30569434 1.3683354 0.9381275
-0.81043804 1.1616949 0.39395213 0.7202701 0.34943837 -2.916159 2.2767131 -0.806195
0.30187675 1.3744009 0.9818806 1.388696 -0.8806935 -0.07084104 0.53908855 0.25920263
2.1534724 0.9763231 0.578645 1.6221635 1.0804458 2.3944664 2.2219813 3.0987062
1.1939557 -1.3822578 1.9303218 1.422123 1.3784509 -0.2713325 0.35338432 2.5658705
1.8515643 1.5522861 -0.3411496 3.1101642 1.2134387 1.2138841 -1.2944187 0.90375197
0.01757665 1.1253395 1.3425727 0.40896297 0.06359462 0.3030615 0.38574132 -0.5735264
1.9696296 4.3580484 0.99256915 -0.019883167 1.1407031 0.8398063 0.71864027 1.9084805
1.3990202 1.2181696 0.8753024 0.25889012 3.4391375 0.47287238 1.1268849 2.3732476
-2.6919096 1.210434 0.9426365 -0.047886036 1.3164083 1.9072841 -0.0908841 0.732902
1.7275704 0.371688 1.5817062 0.71205753 -1.0417844 2.0280168 -0.18330704 -0.45613587
0.79676104 1.0211325 -0.57296103 0.29577702 0.726198 -1.9934566 1.1634935 1.0759116
0.9634517 1.2912976 1.0581319 -1.2607435 0.6018432 1.2644732 2.7958858 2.3476884
0.58509386 1.1726612 0.93266064 1.7584999 -0.0013535174 0.65426534 1.3168278 1.1633842
0.4896591 1.805649 1.1159458 -0.29441303 0.24078576 3.1129093 0.29597366 3.344727
1.8203263 -0.702803 0.720322 -0.017060097 -1.0152179 -0.7316209 1.1558238 -1.4213617
0.1910432 -0.03535526 0.1433826 1.5197308 -0.77633655 -0.6864243 1.3375452 0.56067234
-0.1284102 0.8588067 2.0499794 -1.2147765 -0.030138025 1.8920181 2.4856508 -1.2357303
0.474821 1.1205438 -0.0374056 -0.110891126 1.0389661 -0.3939512 0.5257416 0.20378156
-0.023118991 -1.6118656 2.4768715 0.07060369 1.150441 1.7339141 1.569336 1.8291771
1.0254276 0.89877844 1.1384462 0.55948174 0.7510188 0.7742626 1.0818509 1.1786656
0.034885857 1.2285608 0.3686986 0.7023426 -1.4518799 1.9044962 0.29119328 0.3271026
1.3653293 0.058357876 3.8309867 1.0810565 0.6173445 0.09322062 -0.8733756 1.5961959
00000000: 02b6 b03e e13f 83bd 770a cf3e 8fc7 733e
00000010: 641b a63d db73 f5bf 4041 b73f 590c 123f
00000020: da0e 0e40 42a6 1bc0 7567 0d40 7ef9 0d3f
00000030: 6628 99bd 6e82 9d3c a6a7 0fc0 1650 f43e
00000040: da86 0c40 c7c6 823d a046 d73e 32e4 67bf
00000050: 84d5 0c40 9001 733f 390b fe3e 54d7 383f
00000060: 4288 aa3f 3690 ef3f 1800 0f3f 5a4f 313f
00000070: 899d 7c3c 423c 403f 0e5b 183f 17ee d93f
00000080: e65f 713f 118c e83c 9c92 fb3e fcb9 4040
00000090: d598 65bd 034a be3d 1f3c 2640 e9a9 2640
000000a0: 5067 783f a999 6b3f 8fe0 bd3f d167 733f
000000b0: 0385 f43f fbf5 e13e 34a4 743e a7a4 c23f
000000c0: 6698 e83f c71c 823f 10c7 353f 4c74 563f
000000d0: 985a 01bd ed02 e23f 021f 5940 5116 c0bf
000000e0: 8baa e53f 31f4 423f 8c5c 7f3e 0ce0 533f
000000f0: 2f50 f33f 4cbf 973f a2bc 4abf 6d93 c9bf
00000100: c631 933f 4519 973f 65d5 a43f c603 00bc
00000110: 5d1b 1f3f c255 cb3e 2da1 02be 93fe bbbe
00000120: ae0f 613f 104c f83e 241a 12be b862 03bf
00000130: 925f 1a40 f883 9cbe 9d25 af3f 2029 703f
00000140: de78 4fbf 6bb2 943f 18b4 c93e 9f63 383f
00000150: 96e9 b23e 59a2 3ac0 abb5 1140 cc62 4ebf
00000160: 978f 9a3e 5eec af3f 875c 7b3f cac0 b13f
00000170: 2175 61bf 1b15 91bd b501 0a3f 35b6 843e
00000180: 7ed2 0940 50f0 793f 1422 143f 0ea3 cf3f
00000190: 0c4c 8a3f f03e 1940 f134 0e40 3451 4640
000001a0: 8ad3 983f d3ed b0bf c914 f73f 2008 b63f
000001b0: 1471 b03f 18ec 8abe caee b43e 3937 2440
000001c0: 0f00 ed3f 50b1 c63f 29ab aebe ee0c 4740
000001d0: f651 9b3f 8e60 9b3f 83af a5bf 4a5c 673f
000001e0: e8fc 8f3c 200b 903f 6cd9 ab3f 9863 d13e
000001f0: e53d 823d e02a 9b3e e37f c53e a0d2 12bf
00000200: d31c fc3f 2275 8b40 0319 7e3f 06e2 a2bc
00000210: 8f02 923f 8cfd 563f cff8 373f 1749 f43f
00000220: 1813 b33f fbec 9b3f d113 603f 3f8d 843e
00000230: d41a 5c40 541c f23e c43d 903f 4ae3 1740
00000240: 3f48 2cc0 80ef 9a3f a050 713f 2624 44bd
00000250: 1180 a83f e321 f43f 7121 babd 779f 3b3f
00000260: 0721 dd3f e44d be3e 5975 ca3f 6749 363f
00000270: 3159 85bf 07cb 0140 d7b4 3bbe a48a e9be
00000280: 88f8 4b3f 78b4 823f 93ad 12bf 1670 973e
00000290: 1de8 393f 9629 ffbf 5bed 943f 79b7 893f
000002a0: c5a4 763f 3d49 a53f de70 873f 0b60 a1bf
000002b0: 6512 1a3f 42da a13f cbef 3240 8740 1640
000002c0: b6c8 153f c319 963f d9c2 6e3f 8616 e13f
000002d0: 8268 b1ba ef7d 273f d08d a83f c6e9 943f
000002e0: 99b4 fa3e 821f e73f 50d7 8e3f 4ebd 96be
000002f0: 8b90 763e e839 4740 dc89 973e 0210 5640
00000300: 7400 e93f e6ea 33bf 0667 383f 9ec1 8bbc
00000310: a9f2 81bf 824b 3bbf 09f2 933f 2eef b5bf
00000320: d4a0 433e add0 10bd e3d2 123e 8a86 c23f
00000330: febd 46bf 81b9 2fbf ae34 ab3f 3988 0f3f
00000340: f77d 03be c2da 5b3f dd32 0340 cc7d 9bbf
00000350: 05e4 f6bc a62d f23f e714 1f40 692c 9ebf
00000360: bd1b f33e fb6d 8f3f 9d36 19bd e31a e3bd
00000370: d7fc 843f f9b3 c9be 0097 063f 1dac 503e
00000380: 0a64 bdbc 9d51 cebf 1085 1e40 ab98 903d
00000390: a741 933f e6f0 dd3f 01e0 c83f 7a22 ea3f
000003a0: 3641 833f 5816 663f 9bb8 913f 323a 0f3f
000003b0: c542 403f 1336 463f 177a 8a3f 84de 963f
000003c0: 79e4 0e3d 7b41 9d3f 10c6 bc3e bacc 333f
000003d0: 33d7 b9bf 88c6 f33f 4917 953e fe79 a73e
000003e0: 1cc3 ae3f ab08 6f3d e32e 7540 0f60 8a3f
000003f0: 4a0a 1e3f 74ea be3d 8b95 5fbf 2650 cc3f

action_out.bias f4 [5]
1.5879955 0.8028839 2.3878543 -0.68045026 -0.17268996
00000000: 7043 cb3f cd89 4d3f 9bd2 1840 fd31 2ebf
00000010: a3d5 30be

weight f4 [256, 123]
-4.571732 0.0021407607 0.37759954 0.0006767721 0.36396664 -0.124904335 0.31997943 -0.122499906
1.5630659 0.07118898 0.052782573 -0.28212282 0.25517938 -0.21711472 0.4938483 -0.64486814
-0.7690606 -0.55475754 -0.02915726 -0.38155872 0.46020058 -2.1142068 0.91705203 1.7193403
-0.915281 0.013317192 -0.09432738 0.011825264 -0.031092977 0.013020611 0.037157044 0.01814888
-0.017704386 -0.014484003 -0.026064321 0.15389529 -4.6332946 -0.18256271 0.2118931 -0.14055313
0.4666139 -0.16040869 0.28808933 0.031663638 -0.2667839 0.40817705 0.08372148 -0.28241423
0.24245773 -0.19330013 0.43457928 -0.85708266 0.9477393 0.028718613 0.06393174 -0.4904058
0.49191704 -2.0605502 1.0721302 1.8697526 -1.8363497 0.21735406 -0.24086101 0.10121975
0.0111158695 -0.025949826 -0.006357986 -0.07486226 -0.054169737 -0.0067183785 0.07670093 -0.21057713
-4.55028 -0.37635833 0.60880256 -0.022399403 0.4589367 -0.18946673 0.21023376 -0.24620605
-0.3759582 -0.017985241 0.23178929 -0.20353267 0.22597514 -0.22038126 0.38060555 -0.39509487
-0.18299048 -0.062230747 0.10007031 -0.39609742 0.6138036 -2.089316 1.0548952 3.5854294
-2.1816425 -0.02606982 0.038905166 0.1152466 0.014654823 0.06710596 0.04796451 -0.059421785
-0.0073762983 -0.0075319335 0.053888116 -7.314541 0.07578011 0.01155855 -0.0049592163 -0.07431771
0.079708405 0.045509025 -0.04323183 0.01518388 -0.027222898 -0.10154609 -0.07946219 0.051008355
-0.029243775 -0.07830901 0.0972744 -0.005868819 -0.24202542 0.042406924 -0.1351615 0.00861428
-0.12589556 -0.079694435 1.0910487 1.6038061 -0.08090423 0.009153888 -0.27196085 0.4238484
-2.8273513 0.8631229 1.7885834 -1.1536422 0.51101756 -0.6171792 -0.4832374 -0.20767061
-1.1623241 -0.48328713 -0.1883924 0.46502322 0.5728335 -0.059698556 -0.42394543 -0.023144899
0.04705545 0.13498251 0.064485565 -0.44106597 0.061889358 0.06298939 1.4985471 0.048003327
-0.18568507 0.33705562 -0.13754313 -0.03746769 -0.13249512 -0.18819447 -0.7562387 1.1607537
-0.57460046 0.7032284 -0.11984061 0.37160796 -2.8762777 0.8663823 4.631288 -3.2802398
0.0054571554 -0.033712078 -0.42046475 -0.19428892 -1.0622896 -0.62745285 -0.42856225 1.2718675
-0.1371772 0.87438565 -0.4585687 0.0015183347 -0.10448832 -0.023660548 0.06379116 0.08797792
-0.50009596 0.042632826 -1.143459 0.018159516 -0.57970667 -0.14776342 -0.2823163 -0.029422803
-0.20260842 -0.060243268 -0.778735 1.0277126 -0.6690083 -0.052220043 -0.17861164 0.31886703
-2.8801262 0.85190684 1.0886372 -1.4232782 0.056721833 -0.9779139 -0.536721 -0.178975
-1.010429 -0.47770682 0.23557192 -0.8452771 0.0016036034 0.07631341 -0.439893 -0.07558305
-0.14779633 0.06601091 -0.07370099 0.04379534 0.06620043 -0.48227334 -2.131247 -0.20428006
-0.16797186 -0.0971852 -0.16567014 0.07201641 0.0039456636 -0.29131198 0.04411426 -0.13369301
-0.013898403 0.15154342 -0.14148645 -0.104094334 -0.024111623 -0.18204227 -0.05086512 -0.02661424
0.058117777 0.07230186 -0.008201131 -0.048385624 0.033485916 -0.0075618546 0.076004416 0.0516342
00000000: a14b 92c0 014c 0c3b ba54 c13e 6869 313a
00000010: d659 ba3e d8cd ffbd 58d4 a33e 3be1 fabd
00000020: 8b12 c83f 87cb 913d 8a32 583d 6772 90be
00000030: dfa6 823e 5253 5ebe afd9 fc3e 1416 25bf
00000040: 28e1 44bf 9704 0ebf 35db eebc aa5b c3be
00000050: 699f eb3e 2a4f 07c0 ecc3 6a3f 5813 dc3f
00000060: db4f 6abf 5a30 5a3c b72e c1bd c1be 413c
00000070: b3b6 febc 6754 553c fc31 183d f6ac 943c
00000080: ca08 91bc 504e 6dbc d884 d5bc ba96 1d3e
00000090: f343 94c0 b8f1 3abe 81fa 583e 29ed 0fbe
000000a0: 04e8 ee3e 2d42 24be 7280 933e bbb1 013d
000000b0: e697 88be 95fc d03e 2b76 ab3d 9998 90be
000000c0: d746 783e 78f0 45be 2d81 de3e c569 5bbf
000000d0: 0b9f 723f 4c43 eb3c a5ee 823d 7816 fbbe
000000e0: 8ddc fb3e 0ee0 03c0 903b 893f 0e54 ef3f
000000f0: 820d ebbf 1092 5e3e 45a4 76be 4d4c cf3d
00000100: 561f 363c bb94 d4bc a756 d0bb 6251 99bd
00000110: 16e1 5dbd d825 dcbb 6115 9d3d 88a1 57be
00000120: e59b 91c0 0ab2 c0be 7cda 1b3f f47e b7bc
00000130: c0f9 ea3e 9103 42be 8547 573e 701d 7cbe
00000140: 987d c0be c955 93bc 2c5a 6d3e de6a 50be
00000150: 0766 673e a0ab 61be bbde c23e e049 cabe
00000160: db61 3bbe abe5 7ebd aaf1 cc3d 48cd cabe
00000170: 3c22 1d3f 5ab7 05c0 ce06 873f ad77 6540
00000180: 08a0 0bc0 6090 d5bc 065b 1f3d 6906 ec3d
00000190: c81a 703c d96e 893d 6f76 443d 4264 73bd
000001a0: e0b4 f1bb 70ce f6bb c9b9 5c3d b810 eac0
000001b0: 9a32 9b3d 1360 3d3c ec80 a2bb e233 98bd
000001c0: 293e a33d ac67 3a3d dc13 31bd cfc5 783c
000001d0: 8e02 dfbc 65f7 cfbd 13bd a2bd 23ee 503d
000001e0: a490 efbc 7960 a0bd cd37 c73d 394f c0bb
000001f0: 83d5 77be e2b2 2d3d c767 0abe e922 0d3c
00000200: c4ea 00be d636 a3bd 7ca7 8b3f 8549 cd3f
00000210: 1eb1 a5bd 30fa 153c 743e 8bbe a802 d93e
00000220: 53f3 34c0 9ff5 5c3f 4df0 e43f 8caa 93bf
00000230: 0cd2 023f 75ff 1dbf e46a f7be 9ba7 54be
00000240: 09c7 94bf 6971 f7be f0e9 40be 8617 ee3e
00000250: 37a5 123f 7986 74bd 600f d9be 5f9a bdbc
00000260: 37bd 403d db38 0a3e 0211 843d 66d3 e1be
00000270: b27f 7d3d 9500 813d 64d0 bf3f 239f 443d
00000280: 3a24 3ebe 8e92 ac3e 1bd8 0cbe b877 19bd
00000290: cdac 07be 0db6 40be dc98 41bf 9493 943f
000002a0: 0419 13bf c706 343f fe6e f5bd 6643 be3e
000002b0: ef14 38c0 3bcb 5d3f 8333 9440 73ef 51c0
000002c0: f0d1 b23b ad15 0abd 2847 d7be adf3 46be
000002d0: 1bf9 87bf c0a0 20bf 836c dbbe 8ecc a23f
000002e0: 2e78 0cbe bdd7 5f3f 84c9 eabe dc02 c73a
000002f0: f9fd d5bd c4d3 c1bc f1a4 823d c52d b43d
00000300: 4a06 00bf c29f 2e3d dd5c 92bf 44c3 943c
00000310: a867 14bf 4b4f 17be c38b 90be 1708 f1bc
00000320: 9578 4fbe a5c1 76bd 2d5b 47bf 168c 833f
00000330: 2144 2bbf afe4 55bd f8e5 36be 8a42 a33e
00000340: fd53 38c0 9116 5a3f 7758 8b3f fb2d b6bf
00000350: 2755 683d 9158 7abf 8c66 09bf 3945 37be
00000360: bd55 81bf fd95 f4be c439 713e 1464 58bf
00000370: 0030 d23a 354a 9c3d a839 e1be 49cb 9abd
00000380: ec57 17be ba30 873d 8bf0 96bd be62 333d
00000390: 1794 873d 88ec f6be 5a66 08c0 cb2e 51be
000003a0: d100 2cbe 0909 c7bd 6fa5 29be 577d 933d
000003b0: a04a 813b d826 95be 27b1 343d d2e6 08be
000003c0: 21b6 63bc 332e 1b3e d3e1 10be 692f d5bd
000003d0: bd85 c5bc 4a69 3abe f257 50bd 1b06 dabc
000003e0: e80c 6e3d ff12 943d 095e 06bc 0130 46bd
000003f0: 8728 093d 6fc9 f7bb 34a8 9b3d 627e 533d

bias f4 [256]
0.0503736 -0.54591924 -0.10051206 0.21349846 -0.05811022 0.011222329 -0.18640321 0.016551942
-0.31661573 -0.10447296 -0.038083166 -0.7784083 -0.21502912 0.10879526 -0.10593471 -0.07535121
-0.026579289 -0.120314725 0.054196622 -0.06653019 -0.6353992 -0.7012115 0.07561193 -0.0031965827
-0.027395217 -0.021923246 -0.08280527 0.0056547415 -0.16307491 0.73444426 0.096426934 -0.07295729
-0.023953421 -0.11294837 -0.03265708 -0.06770291 -0.8769171 -0.11134272 -0.102262154 -0.17963652
0.038791526 -0.11647443 0.040830266 0.0048713903 -0.41688287 0.06627519 -0.20861122 -0.07580485
-0.02329971 -0.05915204 0.029336097 -0.029610617 -0.12037792 0.5446503 -0.07090787 -0.7491051
-0.16417561 -0.03733652 -0.029206699 -0.043025963 0.07633591 -0.09984662 -0.067125455 -0.043274913
-0.06497322 -0.05939135 -0.5287441 -0.10041527 0.036674652 -0.021169448 0.290544 -0.027829418
0.6249648 -0.037927568 0.7669302 0.037287354 0.04821401 -0.51991403 0.04203624 -0.36425054
0.031884994 -0.09531615 -0.2295506 -0.059633307 -0.008814444 0.0023645547 -0.047928378 -0.062353488
-0.072008006 0.01386395 -0.12877741 0.0185967 -0.1019752 -1.0090345 0.0054149344 -0.022287972
0.0058355317 -0.117308296 -0.116649814 -0.9575029 -0.116187386 -0.053322077 -0.066016 -0.12184666
-0.17412323 -0.8985865 -0.011502704 0.046152018 -0.008973297 -0.0046831914 -0.06308604 -0.11241479
-0.07189062 0.330889 -0.06814281 -0.058396343 -0.022586307 0.029965745 -0.08973214 -0.03151946
-0.0700993 -0.12981962 -0.08891595 -0.021500414 -0.101076946 0.1761664 -0.0708191 -0.0023858787
-0.03137775 -1.0478029 -0.37734774 -0.113794826 -0.08507499 -0.97535723 -0.04138177 -0.56224597
-0.038528502 -0.08599435 -0.092143446 -0.58957285 -0.050174028 -0.09512019 -0.13614555 -0.131738
-0.046382107 0.20393461 -0.09986535 0.90404344 -0.31460732 -0.022522127 0.47234148 -0.90046
-0.113264166 -0.20451598 0.17750353 -0.046663933 -0.08651231 -0.11999475 0.6813829 -0.03639768
-0.08236876 -0.04956093 -0.052518003 -0.24849194 -0.35340893 -0.13514651 -0.100135975 -0.07378837
-0.13539968 0.035989482 0.031370267 -0.0702726 -0.06988293 -0.711972 -0.06724096 0.02930864
-0.086314626 0.059612423 0.031405848 0.15544175 -0.07452543 -0.13534686 -0.82008255 -0.4317045
-0.050483026 -0.08508255 -0.020958148 -0.09374623 -0.040694553 0.0038434386 -0.21648698 -0.12050542
-0.027769346 -0.13249275 0.6347132 -0.19308466 -0.50202227 -0.057625495 -0.008403886 -0.056811076
-0.6188708 -0.053121593 -0.9198697 -0.061062496 0.05610955 -0.0372167 -0.08733188 -0.05084639
-0.36348623 0.026431559 -0.6690173 -0.18287005 -0.26729453 -0.8714569 -0.6836166 -1.1756836
-0.12899539 -0.03996367 -0.111267254 -0.055133566 -0.031623166 0.01454924 -0.0749379 -0.08863021
-0.014947007 -0.12603776 -0.045043707 -0.009920432 -0.045575675 0.0009396214 -0.07375903 -0.06433681
0.47639552 -0.35387138 -0.13767469 -0.9374642 -0.26080263 0.06309929 0.0032892022 0.8028949
-0.021767732 -0.097273916 -0.035341922 -0.07882018 0.016963605 0.011224847 -0.121611945 -0.60605985
-0.061571214 -0.78657854 -0.0011067729 -0.073989674 0.03975705 -0.08168257 0.04335923 -0.074562654
00000000: 8c54 4e3d 5dc1 0bbf 44d9 cdbd 579f 5a3e
00000010: fb04 6ebd dcdd 373c 7ce0 3ebe f097 873c
00000020: 751b a2be ebf5 d5bd 18fd 1bbd c445 47bf
00000030: 9830 5cbe 0dd0 de3d 4cf4 d8bd bc51 9abd
00000040: cfbc d9bc 9167 f6bd 47fd 5d3d fb40 88bd
00000050: 86a9 22bf 9982 33bf 6dda 9a3d c27d 51bb
00000060: ef6b e0bc 6198 b3bc cf95 a9bd 694b b93b
00000070: 1cfd 26be 8a04 3c3f 7c7b c53d a26a 95bd
00000080: f739 c4bc 7a51 e7bd 6ec3 05bd d3a7 8abd
00000090: a47d 60bf a707 e4bd d26e d1bd a3f2 37be
000000a0: dde3 1e3d 258a eebd a33d 273d 2fa0 9f3b
000000b0: ac71 d5be 49bb 873d 2e9e 55be 933f 9bbd
000000c0: 09df bebc 6949 72bd 4152 f03c f791 f2bc
000000d0: b388 f6bd 346e 0b3f 2538 91bd 5ac5 3fbf
000000e0: a71d 28be 2eee 18bd e342 efbc fe3b 30bd
000000f0: 0056 9c3d 627c ccbd 1279 89bd 0941 31bd
00000100: ae10 85bd 5844 73bd c65b 07bf 85a6 cdbd
00000110: 2938 163d 8d6b adbc 2fc2 943e 85fa e3bc
00000120: b1fd 1f3f f059 1bbd 8a55 443f a0ba 183d
00000130: 0e7c 453d 1619 05bf 312e 2c3d 0c7f babe
00000140: d799 023d 1d35 c3bd 500f 6bbe 0e42 74bd
00000150: 756a 10bc a5f6 1a3b 8c50 44bd 5f66 7fbd
00000160: ef78 93bd 9f25 633c 3ade 03be 1b58 983c
00000170: 60d8 d0bd 0b28 81bf c36f b13b 4495 b6bc
00000180: fd37 bf3b 553f f0bd 19e6 eebd e91e 75bf
00000190: a7f3 edbd 4068 5abd 6633 87bd be8a f9bd
000001a0: 5c4d 32be c409 66bf d675 3cbc e609 3d3d
000001b0: bc04 13bc 7575 99bb 4133 81bd ba39 e6bd
000001c0: 643b 93bd 486a a93e 758e 8bbd 0131 6fbd
000001d0: eb06 b9bc b97a f53c 7cc5 b7bd 8d1a 01bd
000001e0: 3990 8fbd 6fef 04be 9119 b6bd a321 b0bc
000001f0: 6e01 cfbd f764 343e 9b09 91bd 675c 1cbb
00000200: f585 00bd 681e 86bf b933 c1be 430d e9bd
00000210: cc3b aebd 03b1 79bf ee7f 29bd 5aef 0fbf
00000220: 10d0 1dbd ce1d b0bd b4b5 bcbd 3fee 16bf
00000230: 4883 4dbd 60ce c2bd bd69 0bbe 54e6 06be
00000240: 2afb 3dbd 3cd4 503e 3486 ccbd 646f 673f
00000250: 3614 a1be 5380 b8bc bed6 f13e 8c84 66bf
00000260: 0bf7 e7bd a36c 51be 7cc3 353e ae22 3fbd
00000270: 5e2d b1bd cfbf f5bd 1c6f 2e3f bc15 15bd
00000280: f4b0 a8bd 6700 4bbd 1e1d 57bd ac74 7ebe
00000290: 04f2 b4be d963 0abe 1714 cdbd 5b1e 97bd
000002a0: 37a6 0abe b569 133d 1c7e 003d 15eb 8fbd
000002b0: c81e 8fbd cc43 36bf a1b5 89bd ac18 f03c
000002c0: b9c5 b0bd 282c 743d 6ba3 003d 1f2c 1f3e
000002d0: caa0 98bd 5e98 0abe eef0 51bf 5f08 ddbe
000002e0: 4ac7 4ebd c33f aebd 6cb0 abbc 06fe bfbd
000002f0: 55af 26bd 33e2 7b3b c3ae 5dbe 8ccb f6bd
00000300: 8a7c e3bc 2eac 07be 907c 223f fcb7 45be
00000310: 8884 00bf b608 6cbd 74b0 09bc bbb2 68bd
00000320: 516e 1ebf 0796 59bd 957c 6bbf ab1c 7abd
00000330: 21d3 653d 8a70 18bd 0fdb b2bd 4e44 50bd
00000340: de1a babe ff86 d83c b844 2bbf 4942 3bbe
00000350: d4da 88be cd17 5fbf 7f01 2fbf cd7c 96bf
00000360: 5e17 04be f2b0 23bd 16e0 e3bd bcd3 61bd
00000370: 4b87 01bd ef5f 6e3c 0b79 99bd c183 b5bd
00000380: 4be4 74bc 0b10 01be c07f 38bd 4f89 22bc
00000390: 8fad 3abd ed50 763a f90e 97bd 04c3 83bd
000003a0: 1dea f33e a12e b5be 98fa 0cbe a7fd 6fbf
000003b0: ec87 85be 333a 813d a88f 573b 858a 4d3f
000003c0: 3e52 b2bc 8c37 c7bd b1c2 10bd 796c a1bd
000003d0: 42f7 8a3c 6ce8 373c af0f f9bd bd26 1bbf
000003e0: 1932 7cbd 365d 49bf 2311 91ba e687 97bd
000003f0: 4ad8 223d 3149 a7bd 7399 313d 4eb4 98bd

weight f4 [256, 256]
-0.0006621006 -0.0122784935 0.040988266 0.052412372 0.016287167 0.015398653 0.017420473 0.031097557
-0.1347987 -0.04953384 -0.004772755 -0.034621276 -0.00684038 -0.041467197 -0.027500365 -0.0032406796
0.019398166 -0.06615665 0.026356457 -0.024066016 -0.09604807 -0.06481101 0.0111787915 -0.061690856
-0.048737604 0.028163934 0.014572457 -0.021591298 -0.095261276 -0.08991705 -0.032942843 -0.050649226
-0.02204993 -0.051604174 0.016571483 -0.019705772 -0.026396755 0.007988565 -0.03514344 -0.035615552
-0.06348227 -0.013114746 0.06076449 -0.05022673 -0.0070879282 0.028725818 -0.032841336 0.0022528407
-0.015414608 0.030346174 -0.035313997 -0.03809279 0.057598423 -0.022618799 0.034629513 -0.009547913
0.013712452 0.02442251 -0.050823465 -0.0073482203 -0.028108487 0.027547963 0.0347919 -0.06216313
-0.00919953 -0.050347786 0.03540286 0.009995074 0.039074946 0.01967582 -0.05775894 0.038042333
-0.00453295 0.03474783 0.012641085 0.039571095 -0.008171147 0.031343892 -0.030600477 -0.0005534496
0.008114074 -0.008137244 0.017521506 0.03256286 -0.007457248 -0.074033074 -0.06404487 -0.002359548
0.03999901 0.031018069 -0.02494546 -0.07323139 -0.059107553 -0.008797578 0.022806315 -0.018333001
-0.027120288 -0.042543933 -0.021628221 -0.032895364 -0.015187009 0.053311978 -0.05068223 -0.03871527
0.00938503 -0.019329367 0.02583957 -0.0060282797 0.013796912 -0.0091239605 0.021968655 -0.0312238
-0.036949515 -0.062048484 0.05144397 0.046621516 0.025517125 0.055043295 -0.024458015 0.04853366
0.0137822265 -0.017967729 -0.029796075 0.04179522 -0.042939894 -0.114881136 0.0071943654 -0.023891447
-0.035286516 -0.0048297173 -0.0004609814 0.021760503 -0.047552954 -0.22053008 0.083683774 -0.06570822
-0.031405937 -0.05239745 -0.07870279 -0.0761741 0.031320307 0.05192153 0.029225 0.0013510692
-0.023987686 -0.030820057 0.013696488 -0.10550537 -0.0017762406 0.002873264 -0.026061574 -0.029666375
-0.05809594 -0.018770518 -0.07722287 -0.06876357 -0.08444254 -0.068477124 -0.012246516 -0.052380946
0.0018299714 -0.023041582 0.055014648 -0.041439556 -0.03546817 0.028265638 -0.030957907 0.0031227993
0.04689771 0.056597654 0.055602796 -0.07314603 -0.025944304 -0.04214545 -0.037356585 -0.0632812
-0.024196878 -0.018348223 -0.045219116 0.055199426 0.043600004 -0.0358905 0.020074287 -0.051903166
-0.016049767 0.028396782 0.02127927 -0.0036811898 0.04630707 0.029119313 -0.034545135 -0.060630538
-0.026963681 -0.019721724 -0.018103562 -0.093566604 -0.035790537 -0.02242567 0.058607288 -0.05544508
-0.07318085 -0.0052120383 -0.06478871 -0.031585462 -0.03175024 -0.06906357 -0.06867627 0.003894669
-0.017810713 -0.02510363 -0.05254609 0.048101414 0.044477142 -0.073278196 0.030788783 -0.015469587
-0.034058925 -0.054152854 0.044370282 0.0093082795 -0.04776391 -0.051087137 0.0259237 0.055331558
0.0037011197 0.02014295 -0.042615574 0.03543837 0.043592 -0.010831229 0.045600813 -0.020532683
-0.049060322 0.0017595188 -0.034553457 -0.07700215 0.08405844 0.038799748 0.049729124 0.012945406
0.0430655 -0.03367269 0.055534445 -0.03601532 -0.0056055062 0.06259544 -0.0063988985 -0.023183703
-0.05535084 -0.033256076 0.048961163 0.026828205 0.014891827 0.060308777 -0.037538704 -0.041459464
00000000: d290 2dba bc2b 49bc 50e3 273d 5bae 563d
00000010: aa6c 853c a24a 7c3c 61b5 8e3c 4ec0 fe3c
00000020: ac08 0abe ffe3 4abd c564 9cbb 0acf 0dbd
00000030: 4425 e0bb 82d9 29bd 7248 e1bc 9561 54bb
00000040: e7e8 9e3c 237d 87bd 7fe9 d73c 1826 c5bc
00000050: dab4 c4bd a3bb 84bd 4027 373c 8daf 7cbd
00000060: 15a1 47bd 0db8 e63c 51c1 6e3c 3ce0 b0bc
00000070: 5818 c3bd 6e26 b8bd 13ef 06bd 9075 4fbd
00000080: 0ea2 b4bc e65e 53bd ebc0 873c 006e a1bc
00000090: 023e d8bc 78e2 023c 91f2 0fbd 9de1 11bd
000000a0: fe02 82bd 3bdf 56bc 30e4 783d 8bba 4dbd
000000b0: da41 e8bb 6852 eb3c a384 06bd 65a4 133b
000000c0: 8d8d 7cbc 8a98 f83c 69a5 10bd 2f07 1cbd
000000d0: 53ec 6b3d 0f4b b9bc add7 0d3d da6e 1cbc
000000e0: 31aa 603c b711 c83c 442c 50bd 57c9 f0bb
000000f0: c543 e6bc 44ac e13c f481 0e3d c49e 7ebd
00000100: a0b9 16bc 7b39 4ebd 9702 113d 61c2 233c
00000110: 0d0d 203d 2f2f a13c a394 6cbd 47d2 1b3d
00000120: 2489 94bb be53 0e3d 8e1c 4f3c 4d15 223d
00000130: 46e0 05bc 7462 003d daad fabc 6015 11ba
00000140: e5f0 043c 1352 05bc 4389 8f3c a260 053d
00000150: ee5b f4bb a79e 97bd f529 83bd a5a2 1abb
00000160: 00d6 233d 9b19 fe3c 6c5a ccbc 57fa 95bd
00000170: c31a 72bd b723 10bc 4fd4 ba3c 172f 96bc
00000180: 5e2b debc 8c42 2ebd ab2d b1bc 4abd 06bd
00000190: efd2 78bc a95d 5a3d 2c98 4fbd e793 1ebd
000001a0: abc3 193c 9f58 9ebc 82ad d33c e088 c5bb
000001b0: 710c 623c aa7c 15bc 9cf7 b33c 0ec9 ffbc
000001c0: 6058 17bd 8d26 7ebd eab6 523d 34f6 3e3d
000001d0: 4a09 d13c 1475 613d 2d5c c8bc 3bcb 463d
000001e0: d9ce 613c 0f31 93bc e616 f4bc 7731 2b3d
000001f0: bee1 2fbd cd46 ebbd b6be eb3b ffb7 c3bc
00000200: 9888 10bd 9b42 9ebb e0af f1b9 1543 b23c
00000210: e3c6 42bd a3d2 61be 6662 ab3d 0892 86bd
00000220: 83a3 00bd b59e 56bd ee2e a1bd 2b01 9cbd
00000230: b949 003d acab 543d 4469 ef3c 5c16 b13a
00000240: d381 c4bc 587a fcbc 3c67 603c 3313 d8bd
00000250: bfd0 e8ba 5f4d 3c3b 157f d5bc e606 f3bc
00000260: 02f6 6dbd a1c4 99bc 0627 9ebd ead3 8cbd
00000270: 36f0 acbd bc3d 8cbd 9ca5 48bc 678d 56bd
00000280: a7db ef3a b3c1 bcbc 0a57 613d 86bc 29bd
00000290: 1247 11bd 578d e73c 709b fdbc e1a7 4c3b
000002a0: d017 403d f1d2 673d c2bf 633d 96cd 95bd
000002b0: 2689 d4bc b5a0 2cbd 3803 19bd 9399 81bd
000002c0: 8838 c6bc 034f 96bc ae37 39bd cb18 623d
000002d0: eb95 323d eb01 13bd d572 a43c 6a98 54bd
000002e0: cd7a 83bc 5ea0 e83c dd51 ae3c 1e40 71bb
000002f0: 7bac 3d3d a08b ee3c 337f 0dbd ba57 78bd
00000300: f0e2 dcbc 748f a1bc ec4d 94bc d99f bfbd
00000310: 1999 12bd 0ab6 b7bc 320e 703d 611a 63bd
00000320: d7df 95bd bfc9 aabb f1af 84bd c25f 01bd
00000330: 8a0c 02bd 3371 8dbd 25a6 8cbd b43d 7f3b
00000340: c6e7 91bc 21a6 cdbc 923a 57bd fd05 453d
00000350: aa2d 363d e112 96bd c238 fc3c 2774 7dbc
00000360: 5f81 0bbd 62cf 5dbd 9dbd 353d c181 183c
00000370: 17a4 43bd bf40 51bd f05d d43c 58a3 623d
00000380: 7c8e 723b d402 a53c ab8d 2ebd d327 113d
00000390: 868d 323d 7875 31bc ebc7 3a3d 2834 a8bc
000003a0: 7af3 48bd a79f e63a ed87 0dbd 4eb3 9dbd
000003b0: d526 ac3d 7cec 1e3d c4b0 4b3d f818 543c
000003c0: 7365 303d 60ec 09bd 1678 633d cd84 13bd
000003d0: 65ae b7bb 0a32 803d daad d1bb c0eb bdbc
000003e0: 90b7 62bd 8637 08bd 808b 483d d3c6 db3c
000003f0: d9fc 733c 5606 773d 2fc2 19bd 66d1 29bd
