saved_models_1/125_12238_model.pt (torch, 701697 bytes, 11 tensors)

FC1.weight f4 [256, 36]
000000 1c d9 18 3f 8e 2a 93 3e 59 1b 81 3e 73 1e 93 bf
       0.5970628 0.28743404 0.25216177 -1.1493667
000010 c7 79 cc 3f bb 0e b8 3f b3 ec 90 bf f9 06 35 c0
       1.5974663 1.4379495 -1.1322235 -2.8285506
000020 7c 56 19 40 b0 0b 20 40 14 67 42 c0 74 b2 83 be
       2.3959036 2.5007133 -3.0375414 -0.25722086
000030 80 5e 54 bf de b8 a2 3e d4 f1 a3 3f 50 b8 5d 3e
       -0.82956696 0.31781667 1.2808175 0.21652341
000040 87 56 1c c0 6e e6 9e 3f eb fd e3 3f a5 a8 a0 3e
       -2.4427812 1.2414072 1.7811865 0.31378666
000050 b2 56 03 40 61 99 6c 3f fc 95 cc bf 72 ed 57 bf
       2.0521665 0.9242154 -1.5983272 -0.8434669
000060 a3 02 57 40 e9 68 65 3f da d4 3e c0 c7 42 d0 be
       3.359536 0.89613205 -2.9817414 -0.40675947
000070 1e 3f 9d bc 97 79 08 3f 2a 1a 5a bf 9b 42 55 be
       -0.019195136 0.5331053 -0.85196173 -0.20826189
000080 56 f3 90 c0 8a 61 86 3e 20 8a f0 3e 60 cc bb c0
       -4.529704 0.2624629 0.4698038 -5.868698
000090 49 07 9c bf af f9 37 3e 05 91 fa bc 04 24 b2 3e
       -1.2189723 0.1796634 -0.030586729 0.34793103
0000a0 f4 b1 b6 bf 1b d1 48 3e 39 ef d0 3f 14 79 97 3e
       -1.4273057 0.19611017 1.6323005 0.29584563
0000b0 a6 2d 24 c0 c5 b1 cc bd ed 34 38 40 c9 74 25 bf
       -2.5652862 -0.09994844 2.8782303 -0.64631325
0000c0 8d 53 8d bf 5f b2 86 be 1a 8b 7c 3f ea c4 0c 3f
       -1.1041123 -0.2630796 0.9864975 0.54987967
0000d0 bf 4c ca bf a0 37 72 3f f7 8f 1f 40 0d 0d d9 3e
       -1.5804671 0.94616127 2.493162 0.4239277
0000e0 6e 0b 31 bd aa 0a 61 3c 81 fc cf be a3 66 20 3f
       -0.04322379 0.013735453 -0.40622333 0.6265661
0000f0 ea 34 03 40 60 5c b6 3e c7 a3 30 bf 0c 7a 44 be
       2.0501046 0.35617352 -0.68999904 -0.19187182
000100 59 0d 9f be 62 c1 b5 3e ab dc 5a be 96 05 a3 3e
       -0.3106487 0.35499102 -0.2137324 0.318402
000110 43 6b a2 c0 30 2f e9 bf 0c bb fb 3f f1 9b 2c bf
       -5.0755935 -1.8217525 1.9666457 -0.6742545
000120 73 62 09 be cc a8 89 3f d7 17 60 bf 30 9f 78 3f
       -0.13416462 1.0754638 -0.87536377 0.971179
000130 cf 44 3a bf 3f 1c d5 3f 82 34 5a c0 d6 07 0c c0
       -0.72761244 1.6649245 -3.4094548 -2.1879783
000140 a4 af 2c 40 57 b1 c3 bf f3 ca 0a bf 17 97 dd 3d
       2.6982203 -1.5288495 -0.54215926 0.10819834
000150 80 5c 84 bf 6e a5 64 3f 5c 66 cb bf 5c 1f c3 b8
       -1.0340729 0.89314926 -1.5890613 -9.304166e-05
000160 6e fe 70 3f 8a f3 38 40 07 23 06 bf af 34 ba 3f
       0.9413823 2.8898644 -0.523972 1.4547328
000170 9c 70 ca bf f7 4d bc 3f db 4f c1 be 9f 32 dc 3d
       -1.5815616 1.4711293 -0.37756237 0.10751843
000180 8e 7e 33 bf 22 5a fa be 5a 7c bc 3f 9a 35 bc bf
       -0.7011498 -0.4889689 1.4725449 -1.4703858
000190 f1 04 b7 bf a0 e6 e6 be 84 c9 6e bd 57 b3 0c 3e
       -1.4298383 -0.45097828 -0.05829765 0.13740288
0001a0 4a 81 b1 3e a6 a4 b3 bf 52 c8 e2 c0 ef 58 6f c0
       0.34668952 -1.4034622 -7.086953 -3.739803
0001b0 14 05 16 c1 f3 20 8b 3f 80 1f 37 3e c7 f8 11 be
       -9.37624 1.086943 0.1788311 -0.14255057
0001c0 df f0 b1 bf a9 cc e4 be 58 47 07 3d 56 88 30 3f
       -1.3901633 -0.44687393 0.033027023 0.6895803
0001d0 25 21 9e bf 87 ea 93 3e db 73 d3 3f 1d 66 8b 3f
       -1.2353865 0.28889868 1.6519731 1.0890538
0001e0 17 10 8e bf d0 12 3c bf c6 dc ac 3e 74 94 9b 3f
       -1.109866 -0.73466206 0.33762187 1.2154679
0001f0 49 64 da bf b9 24 b4 bf 35 c7 ff 3f 99 2f dc 3c
       -1.7061855 -1.4073707 1.9982668 0.026878165
000200 01 e6 92 bf 33 7d 48 3f 6f bb a9 3f 37 bd e9 bd
       -1.1476442 0.7831604 1.3260325 -0.11413043
000210 44 22 3c c0 7a fc fc 3f 07 e8 58 40 9d e7 2b 3f
       -2.9395914 1.976455 3.3891618 0.6715029
000220 a7 15 af c0 3e e0 1e 40 73 f0 3b 3f 68 3b d5 c0
       -5.471393 2.4824367 0.7341377 -6.6635017
000230 d8 35 31 c0 54 de fa bf e5 44 5f bf e0 2c a2 c0
       -2.7689114 -1.9599099 -0.872145 -5.067978
000240 23 92 1f c0 de 7c 41 bf d7 a7 c5 bd d0 80 92 bf
       -2.4932945 -0.7558116 -0.096511535 -1.144556
000250 7e cb af 3f 9f af 5c be 1b 98 bd bf 0e 16 b1 bf
       1.3733976 -0.21551369 -1.4812044 -1.3834856
000260 bc 5f 9a 40 51 87 9c 3f e2 b6 91 c0 df 33 1a bf
       4.8241863 1.2228795 -4.5535746 -0.602354
000270 fa bb 9d 3f c4 77 a3 3e 91 ba fe bf 63 a0 c4 bf
       1.2322991 0.3192731 -1.9900686 -1.5361446
000280 70 85 77 40 18 e8 00 bf 38 8d 3e c0 f1 76 af 3e
       3.8675194 -0.50354147 -2.9773693 0.34270433
000290 54 2c 95 3d 58 94 06 c0 c1 b1 c8 be cf a2 1a 40
       0.072838455 -2.1028042 -0.39198115 2.416187
0002a0 7a 97 d1 3e 81 b2 09 c0 2a e7 ab 3e 3e a0 57 bd
       0.4093588 -2.15152 0.33574802 -0.052643053
0002b0 da df ee 3e 85 c0 61 3f 7d db aa 3e bb 68 1b 3f
       0.4665516 0.88184386 0.3337058 0.6070668
0002c0 9d 16 38 3f f8 f5 92 3f 78 7e dc c0 b6 7c 5c c0
       0.71909505 1.1481314 -6.890438 -3.4451118
0002d0 dc f8 75 c0 6b 6d 0e bf 7c a5 84 be 10 7b d9 3e
       -3.8433142 -0.5563571 -0.25907505 0.42476702
0002e0 6d 51 aa 3e 45 68 37 3f f5 3b 00 c0 e3 13 43 c0
       0.33265248 0.7164348 -2.0036595 -3.0480888
0002f0 bf f2 f4 3f 5f 60 b5 bf 1d 8b ca be f2 a8 7d bf
       1.913658 -1.4170035 -0.3955926 -0.99085915
000300 55 7c 96 bf aa 69 d1 bc 03 da df bf cc 79 99 bf
       -1.1756693 -0.02556308 -1.7488407 -1.1990294
000310 d6 0a 0c 40 85 4d d7 be 26 ed ae 3f 54 ad 7c bf
       2.1881614 -0.4205133 1.3666122 -0.9870198
000320 f8 cd 7c bf a9 e4 1e bf dc 5f f0 3e af 6f 87 3b
       -0.98751783 -0.6206766 0.46948135 0.004133187
000330 04 db 22 c0 56 f0 f3 3e 25 c1 f6 3d 52 c0 79 3f
       -2.5446177 0.476443 0.12048558 0.9755908
000340 74 13 35 3f 8c ac de c0 76 05 dd c0 ea 82 07 c0
       0.7073281 -6.958563 -6.9069166 -2.1173654
000350 44 b3 7e 3f c6 0b 7d bf 55 af 82 c0 e8 3a fa c0
       0.9949229 -0.9884609 -4.083903 -7.8196907
000360 81 dc f1 be a1 c3 df 3e 38 3b 1b 3d cf b2 f4 bd
       -0.47238544 0.4370394 0.037898272 -0.119481675
000370 0e a2 07 3f 24 11 a9 3e 22 ca 42 3f a1 de 33 bf
       0.5298165 0.3302089 0.7608968 -0.7026158
000380 85 d6 ff be 3a 56 c8 3f 5f af 92 3e 40 b8 f1 3f
       -0.49968353 1.5651314 0.28649423 1.8884354
000390 23 f9 17 bf 49 55 8c bf 17 4a 84 3f 5e 07 13 40
       -0.5936453 -1.0963527 1.033511 2.2973247
0003a0 4c 2c d9 bf 82 66 23 c0 0a 27 93 3f ac 4c 86 3f
       -1.6966643 -2.5531316 1.1496289 1.0492148
0003b0 92 c0 2f 3f 79 db aa bf e0 1c 22 bf a1 02 11 40
       0.68653214 -1.3348228 -0.6332531 2.2657855
0003c0 a4 ac 4a 3f 27 85 92 bf af 54 82 bf 16 6c fe 3e
       0.7916968 -1.1446885 -1.0182093 0.49691838
0003d0 4a 4a 35 3e 7c 3f 88 3e fb 84 2e bf 27 cc 15 bf
       0.1770412 0.26610935 -0.6817166 -0.58514637
0003e0 0f 35 b2 3f 50 fe 5a c0 0e e3 2c bc fd a5 75 bf
       1.3922442 -3.421772 -0.010552181 -0.95956403
0003f0 0d 4a 1f 3e e3 9c 5a bc 7c 2b 96 be 08 a1 ac bf
       0.15555592 -0.013343069 -0.2933005 -1.3486643

FC1.bias f4 [256]
000000 93 5a 04 bf 87 40 fc be 30 c8 b9 bf 9d a4 2f 3f
       -0.51700705 -0.4926798 -1.4514217 0.68610555
000010 cd 63 23 bd e2 74 60 3f b2 97 97 3e 33 c0 c1 3e
       -0.0398901 0.8767835 0.29607922 0.3784195
000020 fd 4f cf be d2 63 a7 bf ec c0 27 3c e5 d8 60 be
       -0.40490714 -1.3077338 0.010238867 -0.21957739
000030 a0 ea b2 bf c1 e6 24 3f cb 23 e3 be ad 46 1b be
       -1.3977852 0.644146 -0.44363245 -0.1516368
000040 48 4d 51 bf e1 23 1a c0 5e 51 be 3f aa 9c e9 3e
       -0.81758547 -2.4084399 1.4868581 0.45627338
000050 0d 11 88 bd da 89 4f bf 8f c3 c9 3f 46 83 d2 be
       -0.06643877 -0.8106972 1.5762805 -0.4111578
000060 4a 3b a3 be 36 71 b5 3d 41 f4 40 bf 93 a4 a8 3e
       -0.3188117 0.08859484 -0.753727 0.3293806
000070 fc e5 5c bf 71 c1 29 be ee be 7e bf 6d 54 14 bf
       -0.8628843 -0.16577698 -0.99510086 -0.57941324
000080 d3 12 c6 bf cd 84 25 bf ec b8 88 bf 23 3a 57 3f
       -1.5474495 -0.6465576 -1.0681434 0.84073085
000090 43 8f 09 bf c5 9c 69 bf 4f 3c 2b bf 5d b8 b4 bd
       -0.53734225 -0.91254836 -0.668889 -0.08824227
0000a0 11 3b ad be fb 61 cc be fa be b8 bd 78 a2 b6 bf
       -0.33834127 -0.39918503 -0.09020801 -1.4268332
0000b0 dc c2 08 3e 5b 53 fd bd 65 5a 98 bf f7 5c ab be
       0.13355583 -0.123694144 -1.1902586 -0.33469364
0000c0 35 b6 88 3f 58 8d c4 be 70 d8 ca 3f ff 4b 48 be
       1.0680605 -0.38389087 1.5847301 -0.1956024
0000d0 4e af 99 bf b5 31 0d be 02 df 60 3e 65 a8 a4 bf
       -1.2006624 -0.13788493 0.2196007 -1.286389
0000e0 8e ee 57 3e 10 c5 fb be f2 96 6a 3e b2 b4 1e 3f
       0.21087095 -0.49173784 0.22909144 0.6199447
0000f0 98 c4 75 be 92 5e 06 bf b8 ec ef 3c 03 a9 81 3f
       -0.24000776 -0.5248805 0.029287681 1.0129703
000100 48 9f e5 3e bb 84 86 bf ce 03 08 bf b1 8e 10 be
       0.44848084 -1.0509256 -0.53130805 -0.14116932
000110 6b bf d9 be 16 d3 ac bd ba 97 3b be 92 03 ac be
       -0.42528853 -0.08438699 -0.18319598 -0.33596474
000120 1e 30 a3 3f 94 ed 4b 40 c5 f5 ad 3b 8f 79 60 bd
       1.2749059 3.1863756 0.005308839 -0.054803427
000130 ed 82 f3 be c5 d9 87 be 34 5a b3 3f 39 27 4c 3f
       -0.47560826 -0.26533332 1.4011903 0.7974735
000140 b3 8f 48 bf a9 a4 69 bf ed 81 a8 3e c9 6d ac bd
       -0.7834427 -0.91266876 0.32911626 -0.08419377
000150 b5 55 0c bf a4 6f ed bd a0 0f ac be 84 5f 82 3f
       -0.5481828 -0.115935594 -0.3360567 1.0185399
000160 da dd 07 c0 09 9c 1b 3f 9d 01 fc 3c 67 14 2a bf
       -2.1229157 0.60784966 0.030762488 -0.6643738
000170 67 da 25 be e0 f2 df 3f a0 4c 69 bf 1a 21 5a be
       -0.16196595 1.7495995 -0.91132545 -0.2130169
000180 5b 4f ab bf bd a5 87 3d f4 62 1a c0 6d 3a 14 c0
       -1.3383592 0.06623409 -2.4122896 -2.316066
000190 dd 13 a3 3e c5 7e e7 3e cc ea 45 bf e2 ef c6 bf
       0.31851092 0.45213905 -0.77311397 -1.5541956
0001a0 71 a4 04 be 9b 06 d7 bd ce f3 49 be 90 12 83 bd
       -0.12953354 -0.10499307 -0.1972191 -0.06400025
0001b0 b9 47 94 3e a6 45 07 3e 6a 05 b3 be 95 05 9a bf
       0.2896097 0.13210163 -0.34965068 -1.2032954
0001c0 d2 70 47 be 6e cc 3c be 34 9f 21 be c1 19 0b 3f
       -0.19476631 -0.18437359 -0.15783387 0.5433617
0001d0 28 17 63 bf b6 4a 0c bf e7 2c ef be a2 3d fd be
       -0.8870721 -0.548015 -0.46713945 -0.49461085
0001e0 7a 22 5e bf 0f 5d d5 bf 51 7b 87 3d af 0c ec 3e
       -0.8677136 -1.6669024 0.066153176 0.46103427
0001f0 38 c1 09 c0 ea c6 7c bf a3 ee c8 bf 21 9a 82 bf
       -2.1524181 -0.9874102 -1.5697826 -1.0203286
000200 31 86 4a be 66 0b 91 3d f5 49 14 3e 5f 76 83 3f
       -0.19777752 0.07082252 0.14481337 1.0270499
000210 ff 30 b2 3e 08 16 2a 3e 59 15 55 bf 61 85 c7 bf
       0.34803006 0.16609967 -0.832357 -1.5587579
000220 9c 3d db be a0 85 a3 be 22 90 89 be ba a5 5c bf
       -0.42820442 -0.31937885 -0.26867777 -0.8619038
000230 78 c1 6d be 6a 82 96 3e d3 51 8c bf ae 2e 5b 3e
       -0.23218334 0.29396373 -1.0962471 0.21404526
000240 64 b8 b4 be 49 18 61 bf 40 3f a9 be b2 5b a3 40
       -0.3529693 -0.8792768 -0.33056068 5.1049433
000250 e2 f7 59 be e2 62 ea be 8c 84 c8 3f 49 7c 5a bc
       -0.21285966 -0.45778567 1.566545 -0.013335296
000260 62 85 08 bf 4b 31 3b be 72 c8 f3 3f d9 aa 1e be
       -0.53328526 -0.18280523 1.9045546 -0.1549486
000270 85 54 df be a4 4c ea 3d 49 9f 23 3f 9c 07 a8 3e
       -0.4361917 0.11440399 0.63914925 0.32818305
000280 ff 98 34 bf d0 09 e7 3f 3c 09 01 40 a9 1c 8c 3d
       -0.70545954 1.804987 2.0161886 0.06841404
000290 c7 d3 01 3e 4c 6c fb 3c a2 88 10 bf 2a d9 47 bf
       0.12678443 0.030691288 -0.56458485 -0.7806574
0002a0 d9 fa 02 3f 27 69 35 3e 79 c7 76 bf ac 17 1a bf
       0.51164013 0.17715894 -0.9639812 -0.6019237
0002b0 46 62 4a 3f 50 40 2a bf e9 05 ca 3e c8 3e 1d bf
       0.79056203 -0.66504383 0.39457634 -0.6142392
0002c0 84 da 60 bf 82 29 ef 3e 9e 36 aa bf 0b f2 b9 bf
       -0.8783343 0.46711355 -1.3297918 -1.4526991
0002d0 03 ae bb 3e 9f 2f ed 3e 52 72 cd bf d2 3e 26 bf
       0.36656198 0.46325395 -1.6050513 -0.64939606
0002e0 21 15 b8 3f 6d 17 5e 3e 20 24 13 3f 54 09 89 be
       1.4381448 0.21688624 0.57477 -0.2676493
0002f0 71 85 c3 3b 4a e6 ec bf 55 e7 e0 be 98 91 14 be
       0.005966835 -1.8507779 -0.43926492 -0.14508665
000300 5a 4e 43 3f fe 52 b7 3e c0 88 bc 3f 2c 06 84 3f
       0.7629143 0.35805506 1.4729233 1.0314384
000310 32 18 88 be f6 dc ac ba 17 53 65 3f ae 1f 0f 3f
       -0.2658096 -0.001318841 0.8957991 0.55907714
000320 df 29 a0 bf 36 13 f0 be 62 c4 43 bd 65 e4 93 bf
       -1.2512778 -0.46889657 -0.047794707 -1.1554075
000330 70 30 70 be fc 37 88 39 67 a7 bd 3f 4d 43 95 be
       -0.23455977 0.00025981653 1.4816712 -0.2915291
000340 5f 8e 87 3e bb b4 cb 3e d6 13 82 bf 36 50 49 3f
       0.26475808 0.39786324 -1.0162303 0.7863802
000350 fa d9 9d bf 00 89 a8 bf 4e e1 2d bf 95 ad dc be
       -1.2332146 -1.3166809 -0.6792191 -0.43101183
000360 12 ba bd be c6 8a 07 bf 61 d2 03 3f fd f9 87 3f
       -0.37056023 -0.52946126 0.5149289 1.0623165
000370 cf 48 af be aa 93 d0 be c7 bc c2 bd 54 f1 e4 3f
       -0.34235236 -0.4073766 -0.09508663 1.7886147
000380 3d 30 d6 be b3 3e b3 be 50 d0 e4 bf 74 0b d5 bf
       -0.41833678 -0.35008773 -1.7876072 -1.664412
000390 c1 ff 02 bf 39 75 66 bf 6b 01 d4 3f 72 16 36 bf
       -0.511715 -0.9002262 1.6562933 -0.71128
0003a0 62 f6 5e bf fc 5b 71 bf 03 8f 9d bf 25 d7 7e 3f
       -0.870947 -0.9428098 -1.2309269 0.99547035
0003b0 38 55 9b bf f7 fe 23 3f 2b 8f 78 3f 91 7f 20 bf
       -1.2135382 0.6406092 0.97093457 -0.6269465
0003c0 dc 67 80 be 9e 4e 5a bf d4 ba 22 bf 65 7c ca 3e
       -0.25079238 -0.8527621 -0.6356633 0.3954803
0003d0 da a3 73 3f e0 23 50 be e2 19 13 bf b0 5f b9 bc
       0.9517189 -0.20326185 -0.5746137 -0.022628635
0003e0 61 4d 9f be cd da 49 3e 71 6c 58 be 81 62 e8 be
       -0.31113723 0.19712372 -0.21135117 -0.45387653
0003f0 34 89 d2 3d fc a2 10 40 14 00 95 bf bb 90 38 bf
       0.10280076 2.2599478 -1.1640649 -0.7209584

FC2.weight f4 [256, 256]
000000 8c 84 4e 3e 9b 9a 37 c0 e5 fc d4 be 49 1e a2 be
       0.2016775 -2.8688114 -0.41599193 -0.3166373
000010 85 e3 c9 3f 2b f1 e2 3e bd a8 c1 be 14 a5 5e c0
       1.5772558 0.44324622 -0.3782405 -3.4788256
000020 98 e1 44 c0 37 11 df 3f 76 0f 04 bc 65 43 40 3f
       -3.0762691 1.7427129 -0.008060327 0.75102836
000030 ee 5d 42 c0 0e a5 89 bf bb 3c c0 3f 1a eb b6 3f
       -3.036983 -1.0753496 1.5018533 1.4290497
000040 9d 52 f6 bf ab b1 2b 40 29 be 8c c0 23 ff 7a 3e
       -1.9243962 2.682719 -4.398213 0.2451139
000050 12 40 1f 3d ea 3b 38 40 da 87 0e c1 c9 29 10 c0
       0.03887946 2.8786569 -8.908167 -2.2525504
000060 6f 14 cd 3d a3 31 e9 c0 89 68 6f bf 13 c4 11 c0
       0.10013663 -7.287309 -0.93518883 -2.2775924
000070 98 bc bb 3f 31 4b 4a 40 0f a9 15 40 b6 d6 91 bd
       1.4666929 3.1608393 2.3384435 -0.07121031
000080 75 fa 34 c0 c1 72 67 bf b6 a1 fc bc 9d 73 cc 3f
       -2.8277867 -0.90409476 -0.030838829 1.5972782
000090 7e 70 b1 bf 47 bd da 3f 48 38 c1 3d 90 11 73 40
       -1.3862455 1.7089013 0.09434563 3.797947
0000a0 61 52 9d 3d d6 49 71 3d a8 7f 1e c0 8f 77 01 bf
       0.07681728 0.058908306 -2.4765415 -0.50573057
0000b0 96 f5 10 40 1e 54 0f be 67 93 11 be 59 0a a9 be
       2.2649894 -0.13996932 -0.14216386 -0.33015707
0000c0 3a 80 09 bf d8 d2 66 3e 8e 29 91 bf 58 b8 94 bc
       -0.53711283 0.22541368 -1.1340806 -0.018154308
0000d0 56 fc dd 3d 7b 7c 3d c0 59 bb 13 c0 74 70 26 c0
       0.10839145 -2.9607227 -2.3083098 -2.6006136
0000e0 a0 22 97 be ff 44 c8 3f 15 26 77 c0 1f 80 da 3e
       -0.29518604 1.5646056 -3.8616993 0.42675874
0000f0 e8 42 b3 3e 86 63 80 bf f7 e2 96 bd 9e 24 9f 3f
       0.35011983 -1.0030372 -0.07367509 1.243305
000100 6e 71 3a 3e 5e a5 76 40 5e ba 25 3f 3e a4 23 bd
       0.18207332 3.8538432 0.647375 -0.039951555
000110 b4 99 b7 bf 3d 4d 94 bd 98 3d 37 bf 0e 08 41 be
       -1.4343781 -0.072412945 -0.7157836 -0.18850729
000120 74 1b 32 3f ed f1 3e bf fd 5c af 3e b1 8d 22 3f
       0.6957314 -0.745879 0.34250632 0.63497454
000130 d0 e2 80 c0 b2 d7 85 bb a9 2c 3a c0 f0 fb 18 40
       -4.027687 -0.004084551 -2.9089758 2.390377
000140 1f a2 3c 3f ba 73 bf bf a4 c4 1e 3f 34 c9 a4 3f
       0.7368488 -1.4957192 0.620188 1.2873902
000150 f3 ca 73 bf 2c 7e a1 3f 49 b0 d5 3f 96 b8 6f bf
       -0.9523155 1.261663 1.6694423 -0.9364103
000160 27 63 a3 3f 1e 22 21 3f fa 76 5a bc 69 01 b9 3e
       1.2764634 0.62942684 -0.01333403 0.36133888
000170 f7 76 59 bf 8f 2d 4f bc 79 2d 25 3f e6 f6 a9 3f
       -0.8494715 -0.012645139 0.6452251 1.3278472
000180 a9 72 da 3f f8 ba a5 bf ba 75 d2 3f 93 6e a2 c0
       1.7066242 -1.2947683 1.6442177 -5.075998
000190 41 5b e6 bf 27 5e 18 3f bd 29 71 bf 6f d8 a5 3e
       -1.7996598 0.59518665 -0.9420431 0.32391688
0001a0 f2 4f 28 3c e0 a2 5d 3f 87 cf b0 3f 9a e3 8d 3f
       0.010272967 0.8657665 1.3813332 1.1085083
0001b0 bd f2 12 be 3d 27 f5 c0 8f fe 92 3e 40 e3 80 bd
       -0.1435041 -7.66104 0.28709838 -0.062933445
0001c0 55 1d 08 c0 c7 4f a2 be ba 3d 26 40 8d 6e 99 c0
       -2.1267903 -0.3170149 2.5975175 -4.794745
0001d0 9e 7d 0e 40 4b 4e b9 3f 6e f0 20 bf 59 6a 3f be
       2.226417 1.4477018 -0.62866867 -0.18692912
0001e0 a5 aa 41 3d 69 2f 0a c0 f0 9b 1e bf 7e 01 81 bf
       0.04728188 -2.1591437 -0.6195669 -1.007858
0001f0 35 11 06 c0 51 15 85 3e 7e bd 24 40 f5 86 9c 3f
       -2.0948002 0.25992826 2.5740657 1.2228686
000200 87 88 e6 3f e6 fe 37 3f b3 08 b7 3f 86 4f c2 3f
       1.8010415 0.7187332 1.429953 1.5180519
000210 cc 55 b5 3f 4f f1 d8 be a9 1a bb bf 9a 22 83 3f
       1.4166808 -0.42371604 -1.4617511 1.0244935
000220 a6 ec 11 c0 3a be d0 bf 76 64 50 c0 1d a3 74 bd
       -2.2800689 -1.6308053 -3.2561316 -0.05972587
000230 3e 22 b2 bc c3 66 d3 bf 30 8b 1f 40 81 a9 fd be
       -0.021744844 -1.6515735 2.4928703 -0.49543384
000240 7f 86 a5 bf 10 c2 27 c0 95 1b 5d 3e 7d 18 38 3f
       -1.293167 -2.6212196 0.21592553 0.71912366
000250 5a 80 8d bd 7d 5a 2e 40 b1 f5 72 be c1 e0 85 bf
       -0.06909247 2.724273 -0.23726536 -1.0459214
000260 69 13 e0 bf 73 ae e1 be 6f 16 01 c0 d2 46 15 bd
       -1.7505924 -0.44078407 -2.0169942 -0.036444493
000270 4c d4 a0 bf bf 68 6b 40 51 54 38 3f 5f 41 de bf
       -1.2564788 3.6782682 0.72003657 -1.73637
000280 d2 3c 8d 3f a8 4a 12 bf a7 30 56 3e b2 f0 76 3d
       1.1034186 -0.57145166 0.20916997 0.06028814
000290 6a e4 a3 bf 66 b0 0a 3f 59 2e ec 3e 6b ab d1 bf
       -1.2804081 0.5417541 0.4612911 -1.6380438
0002a0 91 f0 a2 3f 23 62 6e c0 93 d8 1c 40 fd 80 62 bf
       1.2729665 -3.7247398 2.4507186 -0.8847807
0002b0 a7 3e cb be 95 9d a4 bf 4e c5 02 c0 89 df 88 c0
       -0.39696237 -1.286059 -2.0432925 -4.277287
0002c0 35 63 26 bf 88 25 19 c0 64 d8 a5 be 71 56 55 be
       -0.6499513 -2.3929157 -0.32391655 -0.20833756
0002d0 3f 96 a1 3f e6 3b fb bd ec c9 40 bf cf d0 fd 3f
       1.2623976 -0.12267284 -0.7530811 1.9829348
0002e0 73 e9 f3 bd 13 8b 3e 3f 0a 2a 5b 3f 91 45 99 bf
       -0.11909761 0.7443096 0.8561102 -1.1974355
0002f0 ce 20 f9 bd c5 78 21 c0 5f 55 0a 40 92 92 35 3e
       -0.1216446 -2.5229962 2.1614606 0.17731693
000300 a4 6e 12 be 8d 46 99 3f 75 b7 92 c0 33 e2 6a bc
       -0.14300019 1.1974655 -4.5848947 -0.014336157
000310 18 18 87 3e 4e 49 cc 3e ed e7 95 3e a9 9e 1e c0
       0.2638557 0.39899677 0.29278508 -2.4784338
000320 f5 69 21 3f 66 16 26 c0 88 75 53 bc a0 60 b5 c0
       0.630523 -2.595117 -0.01290644 -5.668045
000330 15 eb 6e bf 4c 4a 25 c0 93 0b da bf 29 74 be be
       -0.93327457 -2.5826597 -1.7034782 -0.37197998
000340 d2 fc 83 be 64 cf 7a c0 60 4d 2d 3e 32 c2 ba be
       -0.25778824 -3.918908 0.16924047 -0.36476284
000350 a5 25 b2 be d4 59 2c c0 2c a7 90 bf 36 29 74 3f
       -0.34794345 -2.6929827 -1.1301017 0.9537538
000360 81 06 da bc 5f f8 bf 3e 34 dc ad c0 b5 21 a8 3e
       -0.02661443 0.3749418 -5.4331303 0.32838216
000370 72 d2 0d c0 87 05 03 c0 a8 e0 aa 3f 18 c9 fe 3f
       -2.2159696 -2.0472124 1.334981 1.9905119
000380 7d ca 48 40 98 b7 2c bf 50 56 cd 3e 17 ec a6 3f
       3.137359 -0.6746764 0.40104914 1.3040799
000390 96 4e 45 c0 4c 2c 16 3d 06 fb 50 bf 4e f0 cb bf
       -3.0829215 0.03666334 -0.8163303 -1.593271
0003a0 14 1e d2 3f f2 75 9f c0 5a 53 17 40 fd 8e a5 bf
       1.6415429 -4.9831476 2.3644624 -1.2934262
0003b0 c5 2f b7 c0 a6 d9 fb 3f 13 5b 0c 3f a4 cb 3d 3f
       -5.7245812 1.9675796 0.5482647 0.74138856
0003c0 0b 87 42 3f 64 ac a9 c0 57 a1 20 3f 8f b5 36 40
       0.7598731 -5.302294 0.62746185 2.8548315
0003d0 fe 79 f4 3f b5 b2 d9 3e f8 09 74 3f ab ac 78 3f
       1.9099729 0.42519155 0.9532771 0.9713847
0003e0 44 3b 5b c0 75 8d 82 3f ff ba f2 be 9c 47 35 3f
       -3.4254923 1.0199419 -0.47408292 0.7081239
0003f0 b3 fc a5 c0 62 0a 60 be 3e 4c 90 bf c3 f1 77 bf
       -5.187097 -0.2187896 -1.1273267 -0.96853274

FC2.bias f4 [256]
000000 1c 56 e3 be 68 31 a3 bd 54 08 a8 bf f5 15 03 bf
       -0.44401634 -0.07968408 -1.3127542 -0.5120538
000010 26 3b 03 c0 13 1e b8 bf 46 d7 10 bf 17 1d 6c be
       -2.0504851 -1.4384178 -0.5657848 -0.23057972
000020 12 f4 ae bf 4c bc d6 bf 3e 47 b6 bf 7e d6 db bd
       -1.3668234 -1.6776214 -1.4240491 -0.107342705
000030 ac 22 11 c0 32 d3 81 bd da a8 16 c0 c5 fa 9d bf
       -2.2677412 -0.063391104 -2.354056 -1.2342154
000040 ee 50 86 bf 43 64 5d be 82 ce f8 bd ac c2 1e c0
       -1.0493448 -0.21620278 -0.12148763 -2.4806318
000050 68 f3 c7 bf 44 cc c1 be e1 f5 49 3f 7d 72 d5 bf
       -1.5621157 -0.37851155 0.78890806 -1.6675564
000060 f6 3e c2 3d 34 00 34 be 52 4b 52 3e 8a be 5c bd
       0.09484665 -0.17578202 0.20536545 -0.05389265
000070 10 30 b4 bf f1 d2 88 bf 1b 43 2c c0 af 53 9f bf
       -1.4077168 -1.0689374 -2.6915958 -1.2447413
000080 80 69 f7 bf b1 7f cb bd fa 11 12 bf 46 c1 ae bf
       -1.9329071 -0.099364646 -0.5705868 -1.3652732
000090 f6 4c fe bd dd 96 47 bf 9d d1 1b c0 fb 3e 80 3f
       -0.12417023 -0.77964574 -2.4346688 1.001922
0000a0 a8 8d 07 be 22 57 2d c0 d6 d4 86 3f ba 10 40 bf
       -0.13237631 -2.7084432 1.0533702 -0.7502552
0000b0 aa 0d 00 bf b8 31 f0 bf b7 9b b7 bf 8b 25 28 3f
       -0.5002085 -1.8765173 -1.4344395 0.65682286
0000c0 d6 ed d0 bd 3c a0 1a c0 c0 d9 f1 be 53 04 8e bf
       -0.102016136 -2.41603 -0.47236443 -1.109507
0000d0 77 f1 bb be a0 60 c0 be c2 ad d5 bf 9b 04 d8 bd
       -0.3670766 -0.3757372 -1.6693652 -0.105477534
0000e0 d6 69 fb be 2c e6 dd be 7b 56 a1 bf df e8 7d be
       -0.49104184 -0.4333967 -1.2604517 -0.24795865
0000f0 3a 5c a0 be a8 0c aa be b0 42 a9 bf d7 95 18 bd
       -0.31320363 -0.3321278 -1.3223476 -0.037252273
000100 36 e2 3b 3f 68 a5 57 bf 35 fe 15 be 58 1f 5c be
       0.73392045 -0.84236765 -0.14647754 -0.21496332
000110 32 a3 d6 be 4c d6 b6 bd 05 b2 8d bf 4e 29 43 bf
       -0.41921383 -0.08927593 -1.1069952 -0.762349
000120 41 a2 e8 bd c0 41 79 bf d4 d7 e3 3d d8 5a 90 3d
       -0.113590725 -0.9736595 0.1112515 0.07048577
000130 c1 c4 14 c0 81 d1 e3 be 6e 93 69 bf 68 1c 5f bf
       -2.324509 -0.44495776 -0.91240585 -0.8715272
000140 72 75 d1 be 7a 2e da bf 18 83 af bd fa d0 1d be
       -0.40909916 -1.7045434 -0.08569926 -0.1541175
000150 ca 80 16 be a4 f4 58 c0 c9 d6 94 bf e8 30 d4 bc
       -0.14697567 -3.3899317 -1.1628047 -0.025902227
000160 2b 3f 16 bf 6d 7b de 3f d4 a6 c8 bf f2 15 51 bf
       -0.58690137 1.7381417 -1.5675912 -0.8167411
000170 46 0f 39 bf d6 86 0e c0 d5 d8 c5 bf 9e 47 88 be
       -0.7228893 -2.2269797 -1.5456797 -0.2661714
000180 54 17 93 bf 1e 82 cb bf dc 41 ec bf 78 f0 14 c0
       -1.1491494 -1.5899084 -1.8457599 -2.327177
000190 d3 b2 80 bf 5b 1a d4 bf aa 57 86 be bd 0a 99 bf
       -1.0054573 -1.6570543 -0.26238757 -1.1956402
0001a0 79 65 89 bf a4 6e 93 bf 58 53 cd 3f fa a7 4d 3e
       -1.0734092 -1.151814 1.604106 0.20083609
0001b0 29 92 f3 bf 87 56 33 3d c0 42 49 be 53 54 0c 3f
       -1.902898 0.04378369 -0.1965437 0.5481617
0001c0 0d d2 75 3e 37 52 b8 3e 83 5d f3 bd d3 5c c9 bf
       0.2400591 0.36000225 -0.1188307 -1.5731453
0001d0 03 33 ab bf bd a7 82 bf 72 67 f5 bf 5f be 80 bf
       -1.3374943 -1.020744 -1.9172194 -1.0058097
0001e0 d6 8f 6f bd be 57 94 bf 01 cf dd 3e 33 c7 4a bf
       -0.058486782 -1.1589277 0.43321994 -0.79210204
0001f0 9d 6f a0 bd 9d 9b 40 be be cd 4a be 3b 57 7a be
       -0.078337885 -0.18809362 -0.19805047 -0.24447338
000200 d6 94 3e bf 54 06 d9 bf 86 02 12 c0 f0 b4 26 bd
       -0.74445856 -1.6955056 -2.281404 -0.0406999
000210 20 75 22 bf b7 55 88 bf ac 5d ad bf 6a 12 b6 bf
       -0.6345997 -1.0651158 -1.3544211 -1.422437
000220 3d 79 03 be a1 28 9e 3f 5c df 1f c0 dd 69 d5 bd
       -0.12839217 1.2356149 -2.4980078 -0.104205824
000230 a4 5b ab bf 6d eb c1 bd 18 c2 93 3e e0 97 d7 be
       -1.3387341 -0.09468732 0.2885902 -0.4210806
000240 e6 d8 71 bf 7c 51 04 bf 26 c4 b6 bf e1 7c e7 be
       -0.94471586 -0.51686835 -1.427861 -0.45212463
000250 f0 45 6d bf ab 64 29 c0 07 b4 f4 bf 00 a6 44 bf
       -0.9268484 -2.6467693 -1.911744 -0.76815796
000260 4c 52 dd 3e 90 2f 05 be 9a dd 0b 3f 6d bc 3f c0
       0.4322685 -0.13006425 0.5463501 -2.9958756
000270 c9 60 e6 bf 7d db f0 bf 3f f3 4b 3e 39 96 8f be
       -1.7998286 -1.8816983 0.1991701 -0.28044298
000280 86 56 1b bf 9f 04 16 3f 00 a4 08 c0 75 37 ab 3f
       -0.606789 0.586008 -2.1350098 1.3376299
000290 fa eb 23 bf 10 cf 75 bf a1 8a da be 4c c2 bd bf
       -0.64031947 -0.9601908 -0.4268389 -1.482492
0002a0 14 52 11 bf 82 a6 8a bf 39 5f f7 bf 95 90 a4 bf
       -0.56765866 -1.0832064 -1.9325935 -1.2856623
0002b0 6c 89 c4 bf 21 c5 0b c0 27 2f f1 bf e2 0a 53 c0
       -1.5354438 -2.1839068 -1.8842515 -3.2975392
0002c0 ee 5e 93 bf 87 7c a0 bf 12 83 a1 bf 41 06 51 3f
       -1.1513345 -1.2538003 -1.2618124 0.8165017
0002d0 91 54 43 bd 82 5a c1 bf eb a4 ec be d4 53 2c bf
       -0.04768807 -1.5105746 -0.46219572 -0.6731541
0002e0 c7 46 ed 3f 6f af d1 bf 62 75 01 c0 54 8c a4 3e
       1.8537225 -1.6381663 -2.0227895 0.32138312
0002f0 75 f3 50 be 2b a9 12 bf 8b 67 03 c0 a3 3c 11 c0
       -0.20405371 -0.5728938 -2.0531948 -2.269326
000300 7d 02 b7 3e 96 4f 8b bf 31 46 08 bf c1 18 60 bd
       0.35744086 -1.0883663 -0.53232104 -0.054711107
000310 1e 00 9d bf 2f f4 e1 bf c1 b2 b0 bc b1 17 15 c0
       -1.2265661 -1.7652644 -0.021569612 -2.329571
000320 64 ee 0f bf 1f f0 73 bd c9 f6 55 be 80 f1 14 c0
       -0.5622313 -0.05955517 -0.20894922 -2.32724
000330 bc ab 73 bf 8b 81 29 3e 7e f8 03 c0 50 d6 f9 bf
       -0.9518392 0.16553323 -2.0620418 -1.9518528
000340 84 e4 a5 be 24 1b 8c 3f 3c ee ae bf 50 10 7a bf
       -0.32400906 1.0945783 -1.3666453 -0.9768114
000350 5a f2 19 3f 27 c2 b1 bf ed e8 a0 bf ce a2 12 c0
       0.60135424 -1.3887376 -1.2571083 -2.2911868
000360 2d 33 82 c0 29 42 e9 3e 01 2f f5 bd a4 e2 58 c0
       -4.068747 0.4555829 -0.11971856 -3.388833
000370 e8 43 ec bf 2e 75 1c bf 8e a9 af bf 84 ea 27 be
       -1.8458223 -0.611163 -1.3723619 -0.16398054
000380 c6 72 05 3d e6 7d f0 3d 1b e1 b8 bf 1b 1f c8 bf
       0.03258016 0.11742763 -1.4443697 -1.5634493
000390 95 2b e4 bf a6 fd 06 c0 e1 29 5a 3e 94 74 a7 bf
       -1.78258 -2.1092315 0.21305038 -1.3082452
0003a0 fc ca c2 be 3f d5 c0 be 56 54 69 3e c3 9b 36 bf
       -0.3804549 -0.37662694 0.22786078 -0.71331424
0003b0 6f e2 f8 bf 98 58 c1 bf d1 5c 08 c0 48 84 b6 bf
       -1.9444102 -1.5105162 -2.130665 -1.4259119
0003c0 c8 14 d6 bd ce 7e a6 bf c9 d5 d4 bf 67 6c 00 3f
       -0.104531825 -1.3007448 -1.6627742 0.5016541
0003d0 f0 b1 14 c0 3d cd 48 be 35 97 de bd 0d 4d 8b bf
       -2.3233604 -0.19609542 -0.10868684 -1.0882889
0003e0 27 b5 04 c0 d7 cb 09 be 86 e7 db bf a9 98 2a bf
       -2.0735567 -0.13456665 -1.718003 -0.6663919
0003f0 ae 4c 90 bd f6 9d 56 be ab b9 0d 3b f8 7d cb be
       -0.070458755 -0.20958695 0.002162556 -0.39744544

action_out.weight f4 [5, 256]
000000 7b 62 d7 3f e1 3f 83 bd 23 3e 3c 40 f6 e3 bf 3f
       1.6826929 -0.06408668 2.9412925 1.4991443
000010 e6 2f d5 ba 1a b0 51 c0 59 c1 98 bf 5c 21 88 3f
       -0.0016264885 -3.2763734 -1.1934005 1.063518
000020 a3 0d 4e bf fe 9b f1 be 0e a8 3c 40 7e f9 0d 3f
       -0.8048956 -0.47189325 2.9477572 0.5545882
000030 5f bb 28 c0 85 3f 23 bc 1f 3d 05 40 2b d3 35 be
       -2.6364362 -0.009963875 2.0818555 -0.17756335
000040 14 69 57 40 c7 c6 82 3d a0 46 d7 3e f3 54 e6 3f
       3.3657885 0.0638557 0.4204607 1.7994674
000050 dd f7 6a bf df c6 9d 3f a8 50 ce 3f 6c 02 57 40
       -0.9178446 1.2326316 1.6118364 3.3595228
000060 14 31 65 3f 36 90 ef 3f 18 00 0f 3f 5a 4f 31 3f
       0.8952801 1.8715885 0.5585952 0.69261706
000070 39 83 a7 3f fe 49 85 3e 90 ab e4 3e 30 88 a0 3f
       1.3086921 0.26033014 0.44662142 1.2541561
000080 da 11 99 3f 77 39 ed 3c ad 17 04 40 9f 36 25 40
       1.1958573 0.028958065 2.063945 2.5814588
000090 d5 98 65 bd 92 fe b4 3e 52 1d 9d 40 3e f2 45 40
       -0.056053955 0.35350472 4.909829 3.0929103
0000a0 33 f2 25 40 c2 59 02 bd 17 49 d8 3f 25 aa e5 3f
       2.5929077 -0.03182388 1.6897305 1.7942549
0000b0 28 71 dc 3f cc 61 d0 be b9 26 78 3f ec d0 98 3f
       1.7222033 -0.40699613 0.96934086 1.1938758
0000c0 62 0f 17 40 1b 9f 6c 3e 51 cb ec 3f 01 69 ec 3f
       2.360314 0.23107569 1.8499547 1.8469545
0000d0 5e 39 bf 3f a7 f6 11 40 8f 27 9d 40 fe c1 4b 3f
       1.4939382 2.2806795 4.911079 0.79592884
0000e0 8b aa e5 3f 31 f4 42 3f 9d b7 f2 3f 0c e0 53 3f
       1.794267 0.76153857 1.8962284 0.82763743
0000f0 58 b8 d7 3f 67 cd 29 40 aa 48 67 3f e0 e0 88 3f
       1.6853132 2.6531618 0.9034525 1.0693626
000100 da fd 55 40 15 86 4a bf dc d3 0e 40 39 0f 6f 3f
       3.3436189 -0.7911084 2.2316809 0.933826
000110 bd 1d 1e 40 8e 19 bf 3f af 23 19 40 2d f3 fa 3e
       2.470565 1.4929674 2.392803 0.49013653
000120 22 ed 14 40 55 4c 05 bf 9f 41 60 be 9a 9f 3f 40
       2.3269734 -0.520696 -0.21900032 2.9941163
000130 b1 9b 3a 40 60 dc 59 be f3 54 96 bf 76 f7 c5 3f
       2.9157526 -0.21275473 -1.1744674 1.5466144
000140 de 78 4f bf cd b9 bb 3f 18 b4 c9 3e 5b e0 a0 3f
       -0.81043804 1.4666077 0.39395213 1.2568468
000150 96 e9 b2 3e 36 43 3a c0 fb 8e 42 40 dc f2 8e 3f
       0.34943837 -2.9103522 3.0399768 1.1167865
000160 97 8f 9a 3e f6 b3 35 40 cf 13 ad 3f 49 65 b3 3f
       0.30187675 2.839109 1.352167 1.4015285
000170 c1 28 03 40 5b c2 ff 3e b2 46 d3 3f 35 b6 84 3e
       2.0493624 0.4995297 1.650595 0.25920263
000180 df a4 1f 40 6e ed f6 3f f4 06 8d bd 47 99 1b 40
       2.494438 1.9291208 -0.06886092 2.4312303
000190 06 54 a8 be bc e2 51 3f a4 3a dd 3f cf de 20 40
       -0.32876605 0.81986594 1.7283521 2.5135992
0001a0 8e 9d b6 3f 33 2e 61 3f cd d8 d8 3f 50 5f 40 40
       1.4266832 0.8796112 1.6941162 3.0058174
0001b0 7e ab f3 3e 25 55 e2 3f ca ee b4 3e c2 0e 90 3f
       0.47591776 1.7682234 0.35338432 1.1254504
0001c0 9a d9 02 3f f1 42 b3 3f cc d1 df 3f 64 21 aa 3f
       0.51113284 1.4004804 1.74859 1.329144
0001d0 ed a3 35 3f 6d c3 18 40 51 7d 42 bf 2a 32 bd 3f
       0.70953256 2.3869278 -0.7597247 1.4780934
0001e0 e8 fc 8f 3c c2 8f c0 3f bf cc 02 40 1d 58 ee 3f
       0.01757665 1.5043871 2.0437467 1.862064
0001f0 e5 3d 82 3d 96 e7 04 40 e3 7f c5 3e 0b ee 34 3f
       0.06359462 2.076635 0.38574132 0.70675725
000200 dd 6a 87 40 ec ca cc 3f ea 4d 02 c0 1f d7 a1 bc
       4.231795 1.5999427 -2.0360055 -0.019755898
000210 37 09 16 40 65 2d c4 3c ad 4a 11 c0 b8 85 6b 3f
       2.3443124 0.023947427 -2.2701828 0.92000914
000220 18 13 b3 3f c0 ec df 3f 20 b1 04 40 3f 8d 84 3e
       1.3990202 1.7494125 2.0733109 0.25889012
000230 c7 d5 63 bf 54 1c f2 3e f4 f4 e9 3f 33 55 1b 40
       -0.88998073 0.47287238 1.8277879 2.4270751
000240 4d b9 93 c0 0e 55 3c 40 be ba bc be 71 d7 94 3f
       -4.6163697 2.9426913 -0.36861223 1.1628247
000250 39 86 c8 3f d7 00 29 40 f5 1c 5c be 48 be aa bf
       1.5665962 2.6406763 -0.21495421 -1.3339319
000260 e0 1b 33 40 e4 4d be 3e 51 72 d8 3f 85 c1 a9 3f
       2.7985764 0.371688 1.6909887 1.3262182
000270 c0 bc eb be b8 41 35 40 88 9e 08 40 e2 df ff be
       -0.46042442 2.8321362 2.134676 -0.49975497
000280 be b9 9d 3f 6a 46 f4 3f 3d 6e 2d 40 e5 b5 a9 3f
       1.2322309 1.9083989 2.7098534 1.3258635
000290 f6 4f 26 3d 6a c7 41 bf 28 22 c0 3f d8 48 b0 3f
       0.0406036 -0.75694907 1.5010424 1.377223
0002a0 35 6f f1 3f 37 d4 84 3f 1b b9 3f bf 18 71 3a 40
       1.8862063 1.0377263 -0.74891824 2.9131527
0002b0 0d 65 7e 3f eb 0d cd bf ed 7d 71 bf a2 d9 62 3d
       0.9937294 -1.6019872 -0.9433277 0.055383332
0002c0 10 b7 33 40 75 05 1c 40 f0 69 cc bf ed e5 cf 3f
       2.8080482 2.437833 -1.596983 1.6242043
0002d0 de 0d a1 ba d7 bb 28 bf 44 0b 26 40 5e 3d d1 3f
       -0.0012287458 -0.6591162 2.5944376 1.6346853
0002e0 ac 7b 4b 40 64 45 06 40 b0 17 35 3f 9d 1a 31 40
       3.1794233 2.0979853 0.7073927 2.7672493
0002f0 8b 90 76 3e 65 4e 29 40 7f e0 83 bf fc 0e 13 3f
       0.24078576 2.6454098 -1.0302886 0.5744474
000300 ec e9 0a 40 e6 ea 33 bf db da d9 3f 9e c1 8b bc
       2.1705275 -0.702803 1.7019914 -0.017060097
000310 8c 8c a5 c0 cf 50 c4 3e 97 57 f1 3f df 5b 69 c0
       -5.1734066 0.38342902 1.8854855 -3.6462324
000320 96 c4 07 40 ad d0 10 bd e3 d2 12 3e 03 c1 34 3f
       2.1213737 -0.03535526 0.1433826 0.7060701
000330 9a 96 2f c0 b9 1e f7 3f ff 0d 5f c0 1a 2b 0d 40
       -2.743567 1.9306251 -3.4852293 2.2057557
000340 f7 7d 03 be 66 a1 07 40 9e ff aa be f3 e4 03 40
       -0.1284102 2.119226 -0.33398145 2.060849
000350 f2 ca e0 3e c0 ca 35 40 fb 9a 14 40 45 32 86 bf
       0.43904835 2.8404999 2.3219593 -1.0484091
000360 63 f9 f2 be d5 d8 e8 3f 9d 36 19 bd ae b1 1f c0
       -0.47455892 1.8191172 -0.0374056 -2.4952197
000370 7a ea 35 c0 24 79 1f 3f 9a 00 89 3f 1d ac 50 3e
       -2.8424363 0.6229422 1.0703309 0.20378156
000380 0a 64 bd bc 08 4c 53 bf 1f 99 09 be d5 75 75 3f
       -0.023118991 -0.8253789 -0.13437317 0.9588292
000390 43 ee 7a 3e c3 1a cf 3f fd af 4a 40 20 63 23 40
       0.24504952 1.6180042 3.1669915 2.552925
0003a0 bf 12 fe 3f ea ea cc 3f c1 b8 ba 3f 62 7e ba 3f
       1.9849471 1.600919 1.4587632 1.4569819
0003b0 58 91 f3 3f 7a aa ba 3e 3b 45 bc be 4e 51 db 3f
       1.902873 0.36458188 -0.3677157 1.7134187
0003c0 79 e4 0e 3d dd 0a e0 3f 4d da 17 c0 6d 88 8c 3e
       0.034885857 1.7503315 -2.372699 0.27447835
0003d0 87 0b 7f bf 8f 99 2a 3e 49 17 95 3e bb 82 f6 3f
       -0.99626964 0.1666014 0.29119328 1.9258646
0003e0 95 26 95 3b ab 08 6f 3d 57 8e 36 40 e9 9e f1 3f
       0.0045517185 0.058357876 2.8524377 1.887662
0003f0 4a 0a 1e 3f 74 ea be 3d e7 f2 1f 40 5f fc 0c 40
       0.6173445 0.09322062 2.4992006 2.2029035

action_out.bias f4 [5]
000000 b0 5a fc 3f f7 46 39 c0 d9 e6 bb 40 0e d5 fd 3f
       1.9715176 -2.8949564 5.8719296 1.9830644
000010 0f 9f e7 3f
       1.8095416

weight f4 [256, 123]
000000 0b ac 40 c1 44 cd 94 be 52 8d e1 bd 24 8d 95 be
       -12.042003 -0.29062855 -0.11013283 -0.29209244
000010 c8 78 fd bd cf ab a1 be 99 d7 93 be cb 39 fd bc
       -0.12376553 -0.31576392 -0.28875425 -0.030911347
000020 2e be bf 3f 87 cb 91 3d 8a 32 58 3d 6d ea 7c 3d
       1.4979913 0.07118898 0.052782573 0.061747003
000030 f9 d4 23 3e e9 f3 fa bc 12 db 28 be 08 75 ed bf
       0.15999211 -0.030633884 -0.16489819 -1.855134
000040 d1 c3 fb be fb 1d 87 bf 7e 8b 5e bf 48 c9 9b be
       -0.49172834 -1.0556024 -0.869316 -0.30427003
000050 02 55 3f be 48 bc 84 bf 66 90 cd 3d 52 ff 6a 3f
       -0.18684772 -1.0369959 0.100373074 0.9179584
000060 0b 50 7f bf f4 e3 a0 bf 02 fd 61 bc 02 d8 bf bf
       -0.9973151 -1.2569566 -0.013793232 -1.4987795
000070 3a 54 1b 3d 30 c4 52 be 1f e1 7a bd fd af 98 be
       0.03792212 -0.20582652 -0.06124985 -0.29821768
000080 da 9f c3 bf 50 4e 6d bc d8 84 d5 bc 68 37 1f bf
       -1.5283158 -0.014484003 -0.026064321 -0.6219392
000090 35 a8 41 c1 e4 2d 25 3e 9f 00 ef 3d 2d dc dd be
       -12.103566 0.16130787 0.1167004 -0.43332043
0000a0 7b 08 ad bc a1 d9 b3 be 85 2b a4 be e0 b8 97 3f
       -0.021122208 -0.35126975 -0.32064453 1.1853294
0000b0 2d 23 2d 3e 3a b6 68 3f 05 83 6c 3f 6d b8 7b 3d
       0.1690795 0.90903056 0.9238742 0.06145518
0000c0 79 ce 16 3e a9 81 df bb 4c 8a 65 be 14 01 bf bf
       0.147272 -0.0068208766 -0.22416037 -1.4922204
0000d0 e4 6f f8 3f 4c 43 eb 3c a5 ee 82 3d d8 84 d3 be
       1.9409146 0.028718613 0.06393174 -0.4131229
0000e0 84 da 1e be e9 bb 7b bf 6c c9 82 3e f8 2e ef 3f
       -0.15513045 -0.98333603 0.25544298 1.8686209
0000f0 be a4 b7 bf 9b cb f8 3d 8c ca c8 3e f0 66 b4 bf
       -1.434715 0.1214821 0.3921703 -1.4093914
000100 97 40 7a be 17 4e 0a 3d 18 3b 9c be 36 25 84 be
       -0.24438702 0.03376588 -0.30513835 -0.2580964
000110 16 e1 5d bd e4 37 c2 bf 61 15 9d 3d a7 16 cd 3f
       -0.054169737 -1.5173306 0.07670093 1.6022538
000120 1b 54 40 c1 86 1f 99 be e9 a5 1c bd 44 5d a1 be
       -12.020534 -0.29906863 -0.03824416 -0.3151647
000130 2b eb eb bc 22 bb c2 be 8d 06 cc be d2 9b 8e 3f
       -0.02879866 -0.38033396 -0.39848748 1.1141303
000140 6e 4c 08 bf 16 4b a0 3f fb e4 1a 3e a0 b4 0f 3e
       -0.5324162 1.2522914 0.15126412 0.14033747
000150 3f ec 05 3e be db 0a bd 5e 67 8e be 43 1b b2 bf
       0.13078402 -0.03390097 -0.27813238 -1.391457
000160 3f 86 97 3e e9 cb 09 3d 82 6f 08 bf 29 3b a3 be
       0.2959461 0.03364173 -0.5329515 -0.31881073
000170 4a 27 08 bd dc 8c 81 bf e5 eb 73 3e 48 e0 53 40
       -0.033240594 -1.0121112 0.23820455 3.310564
000180 e6 11 10 c0 60 90 d5 bc 06 5b 1f 3d 28 9b b2 bf
       -2.2510924 -0.02606982 0.038905166 -1.39536
000190 be 9c ce bd d2 9a 49 bd 5d b6 99 be 11 1b 35 be
       -0.1008849 -0.049219914 -0.30021945 -0.17686106
0001a0 e0 b4 f1 bb 70 ce f6 bb f0 75 ba bf f7 fd 05 c1
       -0.0073762983 -0.0075319335 -1.4567242 -8.374503
0001b0 f9 4b a0 3e 4e 2c d5 3e de 5b c7 be e3 79 c4 3e
       0.31307963 0.41635364 -0.38937277 0.38374242
0001c0 6d 76 19 bf ba 9f 1d 3e b2 e5 a1 bd 29 d2 a1 3e
       -0.5994633 0.15392962 -0.07905139 0.31605652
0001d0 47 ef 44 bd 31 b2 97 3d 94 17 66 bd ac 19 68 bc
       -0.048079755 0.07407034 -0.05617483 -0.014166277
0001e0 f1 14 4c 3d 60 40 93 3d 7e 97 17 bd 4e c9 1e 40
       0.04982466 0.07190013 -0.03700971 2.4810367
0001f0 7a 79 7e 3e a9 dc 83 3e db f0 b5 3e ac 1e 65 3e
       0.24851027 0.25754288 0.3553532 0.22374982
000200 f6 30 9c 3c f7 f1 63 3f cc 95 8d 3f 07 5d e8 bf
       0.019066315 0.89041084 1.1061339 -1.815339
000210 1e b1 a5 bd 30 fa 15 3c 85 e4 b0 3f f8 5a 54 bc
       -0.08090423 0.009153888 1.3819739 -0.012961142
000220 3d 4c bd bf 8c b5 4b 3d a2 d7 96 3e d1 71 21 be
       -1.4788891 0.049733683 0.2946139 -0.15766074
000230 35 a9 2c 3e 99 bd ee bd 08 2e d4 3c 0b cf c4 3e
       0.16861422 -0.11657257 0.025900856 0.3843921
000240 1c 7c b4 be 53 68 06 bf c9 7a 25 bf 3d 70 09 3d
       -0.35250938 -0.52502936 -0.6464048 0.033554304
000250 8e d8 73 3c 74 89 8b be 4c d2 e4 3e bc ad 5f bb
       0.014883174 -0.27253306 0.44691694 -0.0034130653
000260 be ac 8b 3d 64 a2 d0 3d 4a e3 bd 3c e2 0e dc 3e
       0.06820057 0.101872236 0.023179669 0.42980105
000270 b2 7f 7d 3d 95 00 81 3d 31 13 31 40 f2 3b 22 40
       0.061889358 0.06298939 2.7667964 2.5349088
000280 c3 ee bb 3f 8e 4d cc bd 93 b8 b4 3e 2e ee 35 3e
       1.4682239 -0.0997573 0.3529707 0.1776664
000290 e5 4c 4c 3c 59 2e 48 3f 24 5e 42 3e 97 41 60 bf
       0.012469505 0.7819572 0.18981224 -0.8760008
0002a0 c9 bf 6d be 02 77 4f 3e 1f 5d c4 3f b2 8b 85 bd
       -0.23217691 0.20260242 1.5340918 -0.065207854
0002b0 3f 8f c3 bf f2 11 59 3d c2 70 ce 3f ca 23 f2 bf
       -1.527809 0.05299563 1.6128161 -1.8917172
0002c0 f0 d1 b2 3b ad 15 0a bd 7e 9a b5 3d b9 a9 cb 3e
       0.0054571554 -0.033712078 0.08867358 0.39777926
0002d0 ff 44 81 be 0b 50 2b bf 08 84 e6 be ac 3c 89 be
       -0.25247952 -0.6691901 -0.45022607 -0.268041
0002e0 64 fd 6c bb 18 d9 4d 3d fc 18 d3 3e 5f 35 9c 3d
       -0.0036161775 0.050255865 0.4123 0.07627367
0002f0 64 95 b5 3d 99 8f d2 3d 5a a3 58 3d c5 2d b4 3d
       0.088663846 0.10281295 0.05289016 0.08797792
000300 ea d6 bd 3e c2 9f 2e 3d 96 a8 0b 40 36 53 20 40
       0.3707803 0.042632826 2.1821647 2.5050788
000310 c2 83 90 bd 13 7a e3 3e 48 38 55 3e fe 29 3e 3e
       -0.07056381 0.44429073 0.20822251 0.18570706
000320 98 1e 6c bd 49 ec 68 3f 5e ca e4 bd fc 06 07 be
       -0.057646364 0.9098554 -0.11171411 -0.13186258
000330 a1 6e e3 bd 44 75 24 3e 9b d6 bc 3f 03 93 f1 bd
       -0.11105085 0.16060358 1.4752992 -0.117956184
000340 67 0d c4 bf 34 bf 1d 3d 2f 02 f9 be 90 cb 8d be
       -1.531659 0.038512424 -0.48634478 -0.27694368
000350 c7 65 9d bd d2 73 1d be 2a e7 e1 bc 15 80 d3 3e
       -0.07685428 -0.15376213 -0.027576048 0.41308656
000360 e7 6b 4d be 8b fa 04 bf bd a0 19 be 63 d1 db 3e
       -0.20060693 -0.519448 -0.15002723 0.42933187
000370 00 30 d2 3a 35 4a 9c 3d c6 a8 dc 3e 90 c3 1c 3e
       0.0016036034 0.07631341 0.43097514 0.15308976
000380 e9 e9 78 3d f8 64 95 3d 1b a7 ec 3d be 62 33 3d
       0.06076995 0.07294649 0.1155531 0.04379534
000390 17 94 87 3d cc f5 c6 3e 5c 94 8c 3f 90 9d 63 3d
       0.06620043 0.38859403 1.0982776 0.055570185
0003a0 a7 f0 97 3d a4 c1 92 3a 5a 26 2a 3d 7c be 8d bc
       0.07418948 0.0011196625 0.04154048 -0.017302744
0003b0 f9 15 92 bc 97 ad 21 be 59 b1 a5 3e 18 6b 25 3e
       -0.017832743 -0.15788876 0.32361868 0.16154134
0003c0 0e 4a 05 be 1f 17 a3 3d f2 7b 11 3d 33 34 aa 3d
       -0.13016531 0.079633944 0.035518594 0.083107375
0003d0 af 6b 07 3d 3b d1 93 3d f2 57 50 bd 1b 06 da bc
       0.03306168 0.07217642 -0.05086512 -0.02661424
0003e0 e8 0c 6e 3d ff 12 94 3d 09 5e 06 bc 01 30 46 bd
       0.058117777 0.07230186 -0.008201131 -0.048385624
0003f0 87 28 09 3d 6f c9 f7 bb 34 a8 9b 3d 62 7e 53 3d
       0.033485916 -0.0075618546 0.076004416 0.0516342

bias f4 [256]
000000 36 e9 ba bf b7 5f a6 3e 44 d9 cd bd 00 12 a8 3e
       -1.460242 0.324949 -0.10051206 0.32826233
000010 d1 0d b8 bd 3b dd 15 3b 5d 0c 5f be f0 97 87 3c
       -0.0898701 0.002286746 -0.2178206 0.016551942
000020 f5 26 e3 be e6 2d 0b be 18 fd 1b bd 30 b4 f3 bf
       -0.4436566 -0.13591728 -0.038083166 -1.9039364
000030 1b b7 7c be 69 13 21 bf 4c f4 d8 bd bc 51 9a bd
       -0.24679224 -0.6292024 -0.10593471 -0.07535121
000040 cf bc d9 bc 91 67 f6 bd 47 fd 5d 3d fb 40 88 bd
       -0.026579289 -0.120314725 0.054196622 -0.06653019
000050 07 e4 21 c0 14 3e d9 bf b5 11 e2 bc c2 7d 51 bb
       -2.5295427 -1.697207 -0.027596334 -0.0031965827
000060 ef 6b e0 bc 61 98 b3 bc 40 0b e9 bd df d5 4b bf
       -0.027395217 -0.021923246 -0.11379099 -0.79623216
000070 a2 b1 c8 3d 83 fa 20 bf 06 e5 cc 3e a2 6a 95 bd
       0.09799506 -0.6288225 0.4001848 -0.07295729
000080 f7 39 c4 bc 7a 51 e7 bd 6e c3 05 bd d3 a7 8a bd
       -0.023953421 -0.11294837 -0.03265708 -0.06770291
000090 40 33 07 c0 a7 07 e4 bd d2 6e d1 bd a3 f2 37 be
       -2.112503 -0.11134272 -0.102262154 -0.17963652
0000a0 dd e3 1e 3d 25 8a ee bd a3 3d 27 3d 2f a0 9f 3b
       0.038791526 -0.11647443 0.040830266 0.0048713903
0000b0 15 6d 42 3d 49 bb 87 3d 73 41 c0 bf f9 d3 db bd
       0.04746731 0.06627519 -1.5019974 -0.1073379
0000c0 09 df be bc 69 49 72 bd c6 83 d0 ba f8 64 f2 bf
       -0.02329971 -0.05915204 -0.0015908412 -1.8937063
0000d0 b3 88 f6 bd 7e f5 42 be 25 38 91 bd d9 9c 85 bf
       -0.12037792 -0.1903896 -0.07090787 -1.0438491
0000e0 a7 1d 28 be c2 b3 64 bd 5e f5 23 3f fe 3b 30 bd
       -0.16417561 -0.055835493 0.64046276 -0.043025963
0000f0 28 07 75 3f 62 7c cc bd 12 79 89 bd 09 41 31 bd
       0.95714045 -0.09984662 -0.067125455 -0.043274913
000100 ae 10 85 bd 58 44 73 bd 48 b7 06 3f bb 5b 73 3d
       -0.06497322 -0.05939135 0.52623415 0.059413653
000110 29 38 16 3d 11 49 34 bd 75 7f 84 3e 85 fa e3 bc
       0.036674652 -0.044014994 0.25878492 -0.027829418
000120 5f 58 63 bf f0 59 1b bd cc f2 cc 3f 1c 2b d3 3c
       -0.8880672 -0.037927568 1.6011596 0.025777392
000130 0e 7c 45 3d 70 a4 d6 bc b4 a0 2b 3c 60 c2 ca be
       0.04821401 -0.026201457 0.010475326 -0.3960142
000140 d7 99 02 3d 1d 35 c3 bd 50 0f 6b be 36 9a 74 bd
       0.031884994 -0.09531615 -0.2295506 -0.05971738
000150 75 6a 10 bc 0c ef 6d bf 8c 50 44 bd 25 8f c0 bd
       -0.008814444 -0.9294288 -0.047928378 -0.09402303
000160 ef 78 93 bd 9f 25 63 3c 5b bd 8b bd 1b 58 98 3c
       -0.072008006 0.01386395 -0.06823226 0.0185967
000170 60 d8 d0 bd 29 d3 e3 bf c3 6f b1 3b 44 95 b6 bc
       -0.1019752 -1.7798816 0.0054149344 -0.022287972
000180 fd 37 bf 3b 55 3f f0 bd 0f b2 17 be d1 2e 9b bf
       0.0058355317 -0.117308296 -0.14814018 -1.2123662
000190 a7 f3 ed bd 40 68 5a bd 66 33 87 bd be 8a f9 bd
       -0.116187386 -0.053322077 -0.066016 -0.12184666
0001a0 3e 22 7f bf 89 48 f1 bf d6 75 3c bc e6 09 3d 3d
       -0.99661624 -1.8850261 -0.011502704 0.046152018
0001b0 bc 04 13 bc 09 3b 1c 3e 41 33 81 bd ba 39 e6 bd
       -0.008973297 0.15256895 -0.06308604 -0.11241479
0001c0 64 3b 93 bd b7 e7 d9 bd 75 8e 8b bd 01 31 6f bd
       -0.07189062 -0.10639899 -0.06814281 -0.058396343
0001d0 eb 06 b9 bc b9 7a f5 3c 7c c5 b7 bd 91 94 81 bd
       -0.022586307 0.029965745 -0.08973214 -0.06327165
0001e0 39 90 8f bd 6f ef 04 be 91 19 b6 bd a3 21 b0 bc
       -0.0700993 -0.12981962 -0.08891595 -0.021500414
0001f0 6e 01 cf bd de 48 04 bf 9b 09 91 bd 67 5c 1c bb
       -0.101076946 -0.51673687 -0.0708191 -0.0023858787
000200 f5 85 00 bd d5 00 f4 bf c2 ee 9e be 43 0d e9 bd
       -0.03137775 -1.9062754 -0.31041533 -0.113794826
000210 cc 3b ae bd b8 16 c4 bf ee 7f 29 bd 31 b8 9d bf
       -0.08507499 -1.5319433 -0.04138177 -1.2321836
000220 9d 0a 8c bd ce 1d b0 bd b4 b5 bc bd 02 b4 b4 bf
       -0.06837962 -0.08599435 -0.092143446 -1.4117434
000230 48 83 4d bd 60 ce c2 bd bd 69 0b be 54 e6 06 be
       -0.050174028 -0.09512019 -0.13614555 -0.131738
000240 13 a9 9e bd 76 40 1d bf 4e 6c 06 be f9 8b 5c be
       -0.07747092 -0.61426485 -0.13127252 -0.2153777
000250 bb 0c ee be 53 80 b8 bc 52 99 8a 3e 95 db d7 bf
       -0.46494088 -0.022522127 0.270701 -1.6863886
000260 28 d1 1c 3d 8f d3 71 be d4 c0 d6 3f 2c 81 0d bf
       0.038285404 -0.2361586 1.6777596 -0.55275226
000270 5e 2d b1 bd cf bf f5 bd ef 28 de 3f bc 15 15 bd
       -0.08651231 -0.11999475 1.7356242 -0.03639768
000280 f4 b0 a8 bd 67 00 4b bd 1e 1d 57 bd d6 4f e9 bb
       -0.08236876 -0.04956093 -0.052518003 -0.007120113
000290 55 50 9a bf d9 63 0a be 17 14 cd bd 5b 1e 97 bd
       -1.2055765 -0.13514651 -0.100135975 -0.07378837
0002a0 37 a6 0a be b5 69 13 3d 1c 7e 00 3d e8 7f cd be
       -0.13539968 0.035989482 0.031370267 -0.40136647
0002b0 c8 1e 8f bd 0d 96 47 bf a1 b5 89 bd f3 dd 37 bd
       -0.06988293 -0.77963334 -0.06724096 -0.0448894
0002c0 b9 c5 b0 bd 28 2c 74 3d 6b a3 00 3d 16 c1 96 3e
       -0.086314626 0.059612423 0.031405848 0.29444188
0002d0 ca a0 98 bd 5e 98 0a be 63 fb 8c bf 5f 08 dd be
       -0.07452543 -0.13534686 -1.1014217 -0.4317045
0002e0 4a c7 4e bd c3 3f ae bd 18 af d3 bd 06 fe bf bd
       -0.050483026 -0.08508255 -0.10336131 -0.09374623
0002f0 55 af 26 bd 33 e2 7b 3b 48 3b 32 bf 48 1f 93 3f
       -0.040694553 0.0038434386 -0.69621706 1.1493921
000300 8a 7c e3 bc 2e ac 07 be 7a 56 8f bf fc b7 45 be
       -0.027769346 -0.13249275 -1.1198266 -0.19308466
000310 88 84 00 bf b6 08 6c bd 09 8d 13 bd 7b 30 96 bd
       -0.50202227 -0.057625495 -0.036023173 -0.07333466
000320 ed 5c 4f be 07 96 59 bd a6 bc f8 bf ab 1c 7a bd
       -0.20250292 -0.053121593 -1.9432571 -0.061062496
000330 21 d3 65 3d 6f 44 8d bd 0f db b2 bd 4e 44 50 bd
       0.05610955 -0.06897818 -0.08733188 -0.05084639
000340 c4 b4 10 bf ff 86 d8 3c 79 12 5d bf e6 3a ba be
       -0.56525826 0.026431559 -0.8635631 -0.3637306
000350 c2 1c 7f bf 5a 69 dc bf c0 e6 de bf 1b ae 1c c0
       -0.99653256 -1.7219651 -1.7414169 -2.4481266
000360 5e 17 04 be f2 b0 23 bd 16 e0 e3 bd bc d3 61 bd
       -0.12899539 -0.03996367 -0.111267254 -0.055133566
000370 4b 87 01 bd ef 5f 6e 3c 0b 79 99 bd c1 83 b5 bd
       -0.031623166 0.01454924 -0.0749379 -0.08863021
000380 4b e4 74 bc 0b 10 01 be c0 7f 38 bd 4f 89 22 bc
       -0.014947007 -0.12603776 -0.045043707 -0.009920432
000390 8f ad 3a bd e0 8c de 3d f9 0e 97 bd 04 c3 83 bd
       -0.045575675 0.108667135 -0.07375903 -0.06433681
0003a0 e2 05 2b 3f d4 75 1b 3f 98 fa 0c be ec e3 eb bf
       0.6680585 0.60726666 -0.13767469 -1.8428931
0003b0 07 73 8f be 33 3a 81 3d a8 8f 57 3b 19 07 84 3f
       -0.28017446 0.06309929 0.0032892022 1.0314666
0003c0 3e 52 b2 bc 8c 37 c7 bd b1 c2 10 bd 79 6c a1 bd
       -0.021767732 -0.097273916 -0.035341922 -0.07882018
0003d0 42 f7 8a 3c 6c e8 37 3c 3c 3b 2b 3d f5 9f 8e 3e
       0.016963605 0.011224847 0.041804537 0.27856413
0003e0 19 32 7c bd 37 88 1c c0 23 11 91 ba e6 87 97 bd
       -0.061571214 -2.445814 -0.0011067729 -0.073989674
0003f0 4a d8 22 3d 31 49 a7 bd ea eb 86 3d 4e b4 98 bd
       0.03975705 -0.08168257 0.06587966 -0.074562654
