saved_models_1/125_11344_model.pt (torch, 701697 bytes, 11 tensors)

FC1.weight f4 [256, 36]
0.20091845 0.25106198 0.4601174 -1.4074328 1.6083039 1.3871003 -1.190389 -2.7692173
2.6666014 2.7735941 -2.861168 -0.19841382 -1.0114893 0.32484746 1.0537266 0.10492409
-1.5926613 1.0313249 2.7379456 0.26602006 2.2452009 0.6547158 -1.4946613 -0.30107984
3.3696618 1.0424073 -3.1842456 -0.24822235 -0.109755136 0.5285849 -0.7744017 -0.21299104
-4.6550612 0.35521486 0.44479617 -4.7904863 -1.0258397 0.17763208 -0.059317872 0.3202349
-1.5320737 0.3814555 1.4509802 -0.024431732 -2.3092654 -0.090964824 3.0653138 -0.46584818
-1.2627561 -0.04120127 1.0493046 0.10951025 -1.8157396 0.6103465 2.639977 0.47334874
-0.008901748 0.3220123 -0.6621679 -0.38886312 2.5624588 0.34201807 -1.1338112 -0.11855634
-0.20899385 0.32055467 -0.64028805 0.57916456 -5.107615 -2.1062503 2.034786 -0.60518897
0.57113737 1.2764062 -0.6792675 1.1938342 -0.96021014 1.8348356 -3.425264 -2.0719233
2.9966185 -1.7094562 0.65285516 0.77922237 -0.7552805 1.0543517 -0.8076731 0.016034935
0.3704299 2.3683121 -0.50120366 1.3941174 -1.5762211 1.6645472 -0.148084 0.3022955
-0.89944726 0.24122933 1.7538557 -1.052238 -1.4600934 -0.23726015 -0.08123182 0.39332393
0.46373856 -1.0318831 -7.086953 -3.4107056 -8.206415 1.0890514 0.20167905 -0.2877008
-0.93205184 -0.6875643 0.18514726 1.3341634 -1.4643079 0.6827021 1.0537969 0.80001044
-0.81316733 -1.0420986 0.4928715 1.8298433 -1.8698128 -0.9119736 1.508697 0.20578994
-0.9841461 0.98282534 1.1501161 -0.5378424 -2.7552116 1.4871154 3.2432652 0.50689316
-5.7164655 2.275619 0.43676493 -6.907766 -2.7838511 -2.1926198 -0.5713598 -4.7786374
-2.0457826 -0.79298055 -0.021106672 -1.0955772 1.3073262 -0.32904974 -1.3881357 -1.3815588
4.7190967 1.0344518 -4.360571 -0.84035844 1.2738153 0.045625277 -1.16505 -1.0111794
2.4483218 0.2773185 -2.8752756 0.67525506 0.2541053 -1.6713964 -0.083616525 1.6975572
0.04702486 -2.8089995 0.162691 0.07398336 0.19564721 0.9653347 0.4020921 1.0609679
1.1337384 0.8487622 -6.8944516 -3.8398817 -3.0310876 -0.18347842 -0.10019963 0.674248
0.2644636 1.0319989 -1.9453465 -3.264478 1.8649023 -1.5070337 -0.025293758 -0.49643263
-0.7670547 0.6495698 -1.7212168 -2.2014456 1.9014411 -0.8619408 0.71316016 -0.75120026
-1.1426594 -0.32896367 0.38484758 -0.23137054 -2.1773195 0.3247846 0.7264171 1.310393
0.89481527 -6.921695 -6.8122854 -1.8402407 1.0959281 -0.4712109 -4.2752175 -7.7881455
-0.7801439 -0.020522153 -0.14662988 0.0108440695 0.4761089 0.26377967 0.5565765 -1.4464165
-0.3781744 0.3422738 0.07017875 1.9708229 -0.9460558 -1.2264527 0.8459109 1.822868
-1.594378 -3.374501 1.5166751 0.561721 0.765856 -1.9111297 -0.5782314 2.2870784
0.2634912 -1.2518955 -1.7235696 0.41615692 0.15049599 0.09305109 0.2545855 -0.625367
1.7720876 -3.1051548 -0.37487644 -0.2073652 -0.096047916 -0.02594936 -0.5380465 -1.333601
00000000: 91bd 4d3e 328b 803e 8294 eb3e c226 b4bf
00000010: e7dc cd3f 818c b13f ab5e 98bf db3a 31c0
00000020: 99a9 2a40 9182 3140 601d 37c0 fe2c 4bbe
00000030: 7b78 81bf 6852 a63e 83e0 863f 71e2 d63d
00000040: 53dc cbbf 7402 843f 803a 2f40 c833 883e
00000050: 5fb1 0f40 749b 273f 1051 bfbf 2327 9abe
00000060: 8aa8 5740 9a6d 853f aeca 4bc0 002e 7ebe
00000070: 4dc7 e0bd 5751 073f 313f 46bf 531a 5abe
00000080: 43f6 94c0 b9de b53e 53bc e33e aa4b 99c0
00000090: b74e 83bf 2fe5 353e 4cf7 72bd d4f5 a33e
000000a0: fe1a c4bf 234e c33e b8b9 b93f 0e25 c8bc
000000b0: 01cb 13c0 c44b babd 1a2e 4440 a783 eebe
000000c0: fea1 a1bf aac2 28bd 9d4f 863f e946 e03d
000000d0: 286a e8bf ab3f 1c3f 62f5 2840 c45a f23e
000000e0: a3d8 11bc ccde a43e d683 29bf 1119 c7be
000000f0: 53ff 2340 fe1c af3e ba20 91bf abcd f2bd
00000100: 7c02 56be be1f a43e ebe9 23bf 2144 143f
00000110: 9571 a3c0 cecc 06c0 ef39 0240 aaed 1abf
00000120: 0f36 123f 4761 a33f 7ae4 2dbf 8fcf 983f
00000130: 55d0 75bf e5db ea3f 8637 5bc0 649a 04c0
00000140: 99c8 3f40 76cf dabf 8421 273f 1e7b 473f
00000150: 105a 41bf fff4 863f aac3 4ebf b25b 833c
00000160: fda8 bd3e 6d92 1740 e24e 00bf 7072 b23f
00000170: 9dc1 c9bf e20f d53f 55a3 17be 7ac6 9a3e
00000180: 2d42 66bf d204 773e 587e e03f bcaf 86bf
00000190: 57e4 babf 53f4 72be de5c a6bd c161 c93e
000001a0: 246f ed3e bf14 84bf 52c8 e2c0 0049 5ac0
000001b0: 7a4d 03c1 0966 8b3f f484 4e3e 854d 93be
000001c0: f39a 6ebf 3704 30bf 3e97 3d3e dec5 aa3f
000001d0: 716e bbbf 91c5 2e3f d1e2 863f 7ccd 4c3f
000001e0: bc2b 50bf 7d63 85bf a759 fc3e 4e38 ea3f
000001f0: 0756 efbf 1a77 69bf fc1c c13f 99ba 523e
00000200: 00f1 7bbf 719a 7b3f 0137 933f 0ab0 09bf
00000210: 6355 30c0 cc59 be3f a891 4f40 c0c3 013f
00000220: 49ed b6c0 bea3 1140 a79f df3e 6b0c ddc0
00000230: 9e2a 32c0 e253 0cc0 a344 12bf 99ea 98c0
00000240: 1aee 02c0 c600 4bbf e6e7 acbc e03b 8cbf
00000250: 7756 a73f 3579 a8be 6eae b1bf ebd6 b0bf
00000260: d702 9740 eb68 843f cc89 8bc0 bb21 57bf
00000270: 610c a33f 92e1 3a3d 5c20 95bf 546e 81bf
00000280: 4eb1 1c40 b1fc 8d3e 8404 38c0 84dd 2c3f
00000290: 171a 823e 51f0 d5bf 243f abbd 8e49 d93f
000002a0: 249d 403d a6c6 33c0 7898 263e 9684 973d
000002b0: be57 483e 2d20 773f 04df cd3e cccd 873f
000002c0: 571e 913f 7b48 593f 599f dcc0 9fc0 75c0
000002d0: 57fd 41c0 c4e1 3bbe 7735 cdbd 849b 2c3f
000002e0: c667 873e 8a18 843f 1d01 f9bf 35ed 50c0
000002f0: 1eb5 ee3f 7be6 c0bf db34 cfbc 6b2c febe
00000300: b25d 44bf 354a 263f d550 dcbf 7ce4 0cc0
00000310: 6c62 f33f 27a8 5cbf aa91 363f a94e 40bf
00000320: aa42 92bf ed6d a8be be0a c53e 66ec 6cbe
00000330: 3459 0bc0 2b4a a63e 79f6 393f f5ba a73f
00000340: 9d12 653f 877e ddc0 3efe d9c0 028d ebbf
00000350: 5f47 8c3f 8e42 f1be 95ce 88c0 7d38 f9c0
00000360: 83b7 47bf 131e a8bc 2526 16be 53ab 313c
00000370: 8cc4 f33e 210e 873e cc7b 0e3f 2d24 b9bf
00000380: 13a0 c1be 833e af3e e0b9 8f3d ed43 fc3f
00000390: b730 72bf 67fc 9cbf 9e8d 583f bd53 e93f
000003a0: 9414 ccbf d3f7 57c0 6922 c23f f3cc 0f3f
000003b0: 240f 443f e69f f4bf f906 14bf 7e5f 1240
000003c0: 52e8 863e 1d3e a0bf ee9d dcbf 8512 d53e
000003d0: 9f1b 1a3e 9291 be3d 0859 823e 0d18 20bf
000003e0: c4d3 e23f dbba 46c0 ceef bfbe 8b57 54be
000003f0: c5b4 c4bd c193 d4bc 6abd 09bf 70b3 aabf

FC1.bias f4 [256]
-0.35847142 -0.41934896 -1.0332738 0.52149653 0.08673711 1.2115828 0.21532586 0.5288912
-0.3461415 -1.0738423 0.010238867 -0.21957739 -1.1296242 0.6083305 -0.18574484 0.009608841
-0.65577376 -2.015823 1.2250149 0.63500154 -0.06643877 -0.70525104 1.5658256 -0.6232205
-0.3188117 -0.050773904 -0.753727 0.21631362 -0.8628843 -0.1249638 -0.98778474 -0.72909415
-1.5474495 -0.58811677 -0.84935695 0.79551727 -0.46695492 -0.981838 -0.46127117 -0.17105274
-0.3175948 -0.39918503 0.019552559 -1.4268332 0.0651979 -0.123694144 -1.0445199 -0.33469364
0.75906265 -0.3602054 1.6893449 -0.1956024 -1.0133357 -0.10729411 0.28178248 -1.286389
0.31903055 -0.47676378 0.3278654 0.48149192 -0.21045022 -0.660186 0.006464213 0.7014622
0.2968262 -1.0738124 -0.5216794 -0.14116932 -0.5089081 -0.08438699 -0.30745775 -0.33596474
1.4686196 2.9653842 -0.19830178 0.0743491 -0.5036444 -0.19887426 0.5107804 0.82964694
-0.7834427 -0.91266876 0.30847326 0.19723363 -0.5435045 -0.115935594 -0.38463476 0.93638116
-1.9066433 0.5991841 0.030762488 -0.15186901 -0.2529871 1.6632483 -0.8991441 -0.19258924
-1.2520955 0.14421584 -2.2943308 -2.1156447 0.4698646 0.6121604 -0.4740444 -1.4638292
-0.12953354 -0.100266665 -0.27462617 -0.030535283 0.17169139 0.2991644 -0.36533466 -1.1335263
-0.10197758 0.22536017 -0.2895253 0.3550303 -0.83927196 -0.48674607 -0.46713945 -0.38730213
-0.8677136 -1.3392398 0.26087973 0.4995442 -1.7197881 -0.7232067 -1.5697826 -1.0267448
0.011787352 0.09718861 0.13342161 0.87115073 0.41925645 0.18429402 -0.6972182 -1.5627565
-0.51309234 -0.050029006 -0.27448303 -0.5761162 -0.23218334 0.22469999 -0.6510036 0.27428958
-0.15190274 -0.8654534 -0.21741584 4.6683745 -0.21285966 -0.4007962 1.299225 -0.15022488
-0.3241328 -0.18280523 1.7919157 -0.1549486 -0.4169791 0.15905848 0.6485477 0.24973054
-0.74302554 1.7837694 1.7899654 0.0006536288 0.13403594 0.09878454 -0.56458485 -0.73137146
0.38263276 0.27533403 -0.7919167 -0.69560623 0.9411154 -0.64712185 0.4248372 -0.4145085
-0.727051 0.22724046 -1.3297918 -1.3385389 0.52178955 0.30862585 -1.5997249 -0.7333866
1.2268806 0.24607362 0.5509406 -0.24513707 0.20935404 -1.5846752 -0.3260984 -0.14508665
0.6221901 0.2384663 1.5246161 0.7811135 -0.1894724 -0.07159435 0.781894 0.5029122
-1.2512778 -0.24334635 -0.047794707 -1.1257457 -0.07185937 0.06904427 1.4445338 -0.38107288
0.36384267 0.6420091 -0.93988097 0.73699015 -1.2194791 -1.1790994 -0.6792191 -0.3825676
-0.37056023 -0.738173 0.36528718 0.8472895 -0.2175768 -0.34753776 0.061379854 1.6074485
-0.51425946 -0.57644963 -1.585118 -1.6417054 -0.3182386 -0.70382655 1.5117462 -0.8720003
-0.84979707 -1.1453209 -1.1719731 0.6763817 -1.1998345 0.41952392 0.8177595 -0.47916558
-0.54557335 -0.638092 -0.6356633 0.62624615 1.0500877 -0.20326185 -0.31504667 0.05824708
-0.15854521 0.24110541 -0.21135117 -0.15061499 -0.112662226 1.7739257 -1.5295124 -0.8744775
00000000: 9189 b7be e8b4 d6be 5142 84bf cc80 053f
00000010: 3aa3 b13d 2515 9b3f 627e 5c3e 6a65 073f
00000020: 7539 b1be aa73 89bf ecc0 273c e5d8 60be
00000030: 8797 90bf 8cbb 1b3f e533 3ebe 666e 1d3c
00000040: cae0 27bf 3e03 01c0 4acd 9c3f 768f 223f
00000050: 0d11 88bd 558b 34bf f96c c83f 618b 1fbf
00000060: 4a3b a3be 4cf8 4fbd 41f4 40bf 5181 5d3e
00000070: fce5 5cbf 05ed ffbd 76df 7cbf eaa5 3abf
00000080: d312 c6bf d28e 16bf 756f 59bf 05a7 4b3f
00000090: b714 efbe bc59 7bbf bc2b ecbe 7328 2fbe
000000a0: c99b a2be fb61 ccbe b02c a03c 78a2 b6bf
000000b0: 7a86 853d 5b53 fdbd d4b2 85bf f75c abbe
000000c0: ee51 423f d86c b8be 743c d83f ff4b 48be
000000d0: fcb4 81bf 04bd dbbd cb45 903e 65a8 a4bf
000000e0: f957 a33e 621a f4be f9dd a73e 1c86 f63e
000000f0: 4380 57be f301 29bf c0d1 d33b 0793 333f
00000100: 9bf9 973e af72 89bf c88c 05bf b18e 10be
00000110: cd47 02bf 16d3 acbd 1a6b 9dbe 9203 acbe
00000120: bafb bb3f dbc8 3d40 9f0f 4bbe 5744 983d
00000130: d7ee 00bf b2a5 4bbe 81c2 023f be63 543f
00000140: b38f 48bf a9a4 69bf 35f0 9d3e 9df7 493e
00000150: 1c23 0bbf a46f edbd d9ee c4be adb6 6f3f
00000160: e30c f4bf 2164 193f 9d01 fc3c 8d83 1bbe
00000170: 8687 81be 52e5 d43f 4f2e 66bf 1d36 45be
00000180: aa44 a0bf 51ad 133e 51d6 12c0 b966 07c0
00000190: 1892 f03e 8bb6 1c3f f3b5 f2be c15e bbbf
000001a0: 71a4 04be 9c58 cdbd cd9b 8cbe 2125 fabc
000001b0: decf 2f3e 142c 993e 250d bbbe 6417 91bf
000001c0: 9fd9 d0bd d1c4 663e a93c 94be 88c6 b53e
000001d0: 87da 56bf c836 f9be e72c efbe 774c c6be
000001e0: 7a22 5ebf 366c abbf 0792 853e 42c4 ff3e
000001f0: 0422 dcbf 1324 39bf a3ee c8bf 606c 83bf
00000200: bd1f 413c d20a c73d ad9f 083e bc03 5f3f
00000210: c8a8 d63e 92b7 3c3e e47c 32bf 6808 c8bf
00000220: 055a 03bf 37eb 4cbd 0a89 8cbe 5a7c 13bf
00000230: 78c1 6dbe c117 663e 2ca8 26bf af6f 8c3e
00000240: 648c 1bbe 5b8e 5dbf 42a2 5ebe 5363 9540
00000250: e2f7 59be 2935 cdbe 014d a63f 8dd4 19be
00000260: bcf4 a5be 4b31 3bbe 7e5d e53f d9aa 1ebe
00000270: 497e d5be 3ae0 223e 3907 263f 5db9 7f3e
00000280: ec36 3ebf 8e52 e43f 961d e53f 4958 2b3a
00000290: b840 093e 8d4f ca3d a288 10bf 293b 3bbf
000002a0: 71e8 c33e 95f8 8c3e 0ebb 4abf 4013 32bf
000002b0: f0ec 703f c7a9 25bf 4384 d93e 753a d4be
000002c0: 0420 3abf b9b1 683e 9e36 aabf 3e55 abbf
000002d0: 0094 053f 3504 9e3e c9c3 ccbf 39bf 3bbf
000002e0: 6c0a 9d3f b9fa 7b3e 710a 0d3f 3605 7bbe
000002f0: e860 563e a3d6 cabf 5ff6 a6be 9891 14be
00000300: da47 1f3f 8230 743e 9f26 c33f 0ef7 473f
00000310: 0e05 42be 0fa0 92bd 352a 483f dbbe 003f
00000320: df29 a0bf c92f 79be 62c4 43bd 6f18 90bf
00000330: 012b 93bd 1567 8d3d 7ce6 b83f fc1b c3be
00000340: 9649 ba3e b55a 243f 0a9c 70bf 63ab 3c3f
00000350: e417 9cbf bbec 96bf 4ee1 2dbf e7df c3be
00000360: 12ba bdbe e8f8 3cbf ec06 bb3e f7e7 583f
00000370: 74cc 5ebe 78f0 b1be 7169 7b3d dfc0 cd3f
00000380: 82a6 03bf 3492 13bf 26e5 cabf 6723 d2bf
00000390: 2bf0 a2be fa2d 34bf e680 c13f 693b 5fbf
000003a0: 4d8c 59bf e099 92bf 3703 96bf 5a27 2d3f
000003b0: 2d94 99bf d7cb d63e b058 513f 3155 f5be
000003c0: b2aa 0bbf ff59 23bf d4ba 22bf ab51 203f
000003d0: 4669 863f e023 50be cc4d a1be 7d94 6e3d
000003e0: ad59 22be 56e4 763e 716c 58be d13a 1abe
000003f0: 74bb e6bd ff0f e33f 10c7 c3bf c2dd 5fbf

FC2.weight f4 [256, 256]
-0.16305444 -2.4362757 -1.0409142 0.18299712 1.2978016 0.33863592 -0.2639392 -4.7839966
-3.9225614 1.5164165 -0.008060327 0.75102836 -4.152358 -0.5364883 2.0039854 2.6958315
-2.0021725 2.9168985 -4.306538 -0.16982472 0.03887946 2.7798984 -8.526115 -2.5096102
0.10013663 -7.077045 -0.93518883 -2.2892654 1.4666929 2.8400357 2.073882 0.08470522
-2.8277867 -0.56377125 0.47609696 1.5428015 -1.2296056 1.8773521 0.24423783 3.3220541
0.20525366 0.058908306 -2.2363975 -0.50573057 2.4953923 -0.13996932 -0.67712605 -0.33015707
-0.86183655 1.1956717 -2.0446086 -0.018154308 -0.25843436 -2.5177114 -2.114437 -2.6006136
-0.27972183 1.7321664 -3.480896 -0.046439026 0.35011983 -0.70343435 -0.2686483 1.0576209
0.4171621 4.110854 1.0767956 -0.039951555 -1.4017444 -0.072412945 -1.0066859 -0.18850729
0.28804982 -1.1729611 0.78567666 1.0836682 -3.3925252 -0.5317448 -2.7442605 1.735541
0.7368488 -1.4957192 0.4430968 0.47784418 0.011638837 1.261663 0.7528237 -0.73349637
0.37311757 0.7215497 -0.01333403 0.21080503 0.3599662 0.032439783 1.155163 1.217211
1.4815373 -1.2454251 0.45949212 -5.563719 -0.94694644 0.4153304 -0.5341429 0.26436725
0.010272967 0.8657665 1.3428257 0.8547707 0.24368984 -6.0292335 0.3627694 0.27102205
-1.8583424 -0.83256966 2.1276486 -4.9423018 1.71839 1.4827408 -0.62866867 -0.2037887
0.04728188 -1.9307953 -0.74432474 -0.49197322 -2.0898492 -0.18232897 2.5740657 1.2425107
1.8756931 0.5846725 1.0865495 1.5260947 1.302574 -0.47909847 -0.44667205 1.5613035
-1.8008077 -1.1524227 -3.322782 0.28802776 -0.021744844 -1.8944458 1.8045617 -0.26529878
-1.2114118 -2.0083828 0.4821597 0.74724364 -0.06909247 2.2598934 -0.11686608 -1.41946
-1.2818402 -0.44078407 -2.888259 -0.036444493 -1.329364 3.5483623 -0.12274162 -1.4937739
2.1830993 -0.8771803 -0.35811776 0.2127479 -0.9725232 0.4699484 0.4612911 -1.2669415
1.5064462 -1.9230267 3.1554542 -0.5338959 -0.66593057 -1.286059 -0.99340683 -3.5076296
0.38468432 -1.0050042 -0.32391655 0.34342986 0.39079204 -0.050558474 -0.7031687 1.5466659
-0.01736574 0.7011884 0.81976557 -0.8472454 -0.09642002 -2.159872 2.2694724 0.17731693
-0.27692193 0.72741985 -3.7715874 -0.06709396 0.510457 0.519447 0.482536 -2.3798347
0.630523 -1.7197902 -0.01290644 -5.5998135 -0.4623036 -2.7959847 -2.3971727 -0.5490293
-0.30692357 -4.0885983 0.48176453 -0.68365914 1.0309281 -2.8089356 -1.1301017 -0.020806469
-0.02661443 -0.003541788 -5.5136952 -0.18057013 -2.6593823 -2.0472124 1.2053546 1.8447762
3.2969034 -0.54306674 0.9741809 1.3040799 -1.5492091 -0.49999475 -1.948416 -2.1974177
1.0610465 -4.8832474 1.6240635 -1.1586151 -5.9450707 1.8639976 -0.21348232 0.7649764
0.46401262 -4.146832 0.62746185 2.465565 1.3501575 0.42519155 1.0579274 1.0908183
-3.7343276 1.675752 -0.47408292 0.12025766 -4.6556954 -0.34853837 -1.8721995 -0.33093375
00000000: bef7 26be f1eb 1bc0 ad3c 85bf 9963 3b3e
00000010: 5d1e a63f b061 ad3e 0a23 87be 8016 99c0
00000020: 3f0b 7bc0 f019 c23f 760f 04bc 6543 403f
00000030: 1ee0 84c0 4c57 09bf 4c41 0040 8188 2c40
00000040: 9823 00c0 77ae 3a40 29cf 89c0 88e6 2dbe
00000050: 1240 1f3d dbe9 3140 f86a 08c1 749d 20c0
00000060: 6f14 cd3d 2777 e2c0 8968 6fbf 5383 12c0
00000070: 98bc bb3f 25c3 3540 7cba 0440 ee79 ad3d
00000080: 75fa 34c0 5053 10bf fbc2 f33e 857a c53f
00000090: b763 9dbf 134d f03f 7b19 7a3e 899c 5440
000000a0: 042e 523e d649 713d 2321 0fc0 8f77 01bf
000000b0: 82b4 1f40 1e54 0fbe 2258 2dbf 590a a9be
000000c0: 52a1 5cbf c50b 993f deda 02c0 58b8 94bc
000000d0: 8251 84be 2f22 21c0 f052 07c0 7470 26c0
000000e0: b337 8fbe a1b7 dd3f 00c7 5ec0 d936 3ebd
000000f0: e842 b33e 4614 34bf 458c 89be 1f60 873f
00000100: 4596 d53e 1e8c 8340 70d4 893f 3ea4 23bd
00000110: 5c6c b3bf 3d4d 94bd 15db 80bf 0e08 41be
00000120: 447b 933e 9723 96bf 1b22 493f a4b5 8a3f
00000130: 221f 59c0 6d20 08bf f7a1 2fc0 3526 de3f
00000140: 1fa2 3c3f ba73 bfbf 95dd e23e fea7 f43e
00000150: d2b0 3e3c 2c7e a13f 0eb9 403f 6bc6 3bbf
00000160: 4409 bf3e 7bb7 383f fa76 5abc 46dd 573e
00000170: 7d4d b83e 94df 043d 62dc 933f 92cd 9b3f
00000180: 04a3 bd3f 176a 9fbf 8d42 eb3e fc09 b2c0
00000190: 156b 72bf 30a6 d43e 97bd 08bf 255b 873e
000001a0: f24f 283c e0a2 5d3f b6e1 ab3f 41d2 5a3f
000001b0: d489 793e 7bef c0c0 e9bc b93e 67c3 8a3e
000001c0: 2ade edbf 4923 55bf 652b 0840 5627 9ec0
000001d0: 34f4 db3f 73ca bd3f 6ef0 20bf fcad 50be
000001e0: a5aa 413d 4d24 f7bf 118c 3ebf eae3 fbbe
000001f0: 17c0 05c0 72b4 3abe 7ebd 2440 970a 9f3f
00000200: b616 f03f 19ad 153f 0e14 8b3f 1257 c33f
00000210: bfba a63f 654c f5be 33b2 e4be cbd8 c73f
00000220: de80 e6bf 9682 93bf 76a8 54c0 6078 933e
00000230: 3e22 b2bc 337d f2bf e1fb e63f 3ed5 87be
00000240: 8b0f 9bbf 5889 00c0 a3dd f63e 5c4b 3f3f
00000250: 5a80 8dbd 18a2 1040 7c57 efbd deb0 b5bf
00000260: 5713 a4bf 73ae e1be 3cd9 38c0 d246 15bd
00000270: 9928 aabf 5e18 6340 f55f fbbd fc33 bfbf
00000280: e6b7 0b40 e38e 60bf 365b b7be 96da 593e
00000290: 48f7 78bf 149d f03e 592e ec3e 242b a2bf
000002a0: 3bd3 c03f bd25 f6bf f6f2 4940 67ad 08bf
000002b0: 6d7a 2abf 959d a4bf e94f 7ebf 017d 60c0
000002c0: 58f5 c43e faa3 80bf 64d8 a5be 0ad6 af3e
000002d0: e515 c83e 6716 4fbd dd02 34bf 26f9 c53f
000002e0: 9942 8ebc 1581 333f 28dc 513f 13e5 58bf
000002f0: dc77 c5bd 583b 0ac0 093f 1140 9292 353e
00000300: b6c8 8dbe 3038 3a3f b061 71c0 8f68 89bd
00000310: 4fad 023f 7bfa 043f f50e f73e 364f 18c0
00000320: f569 213f 1622 dcbf 8875 53bc ac31 b3c0
00000330: 0fb3 ecbe 6af1 32c0 476b 19c0 2f8d 0cbf
00000340: 1625 9dbe ccd5 82c0 d7a9 f63e 4904 2fbf
00000350: 74f5 833f 9ac5 33c0 2ca7 90bf 5472 aabc
00000360: 8106 dabc 581d 68bb 3170 b0c0 60e7 38be
00000370: 5233 2ac0 8705 03c0 0f49 9a3f a021 ec3f
00000380: 7700 5340 6c06 0bbf eb63 793f 17ec a63f
00000390: 7c4c c6bf 50ff ffbe b265 f9bf 7ea2 0cc0
000003a0: 5fd0 873f 9043 9cc0 50e1 cf3f 804d 94bf
000003b0: 053e bec0 7997 ee3f 1c9b 5abe 7ed5 433f
000003c0: 1093 ed3e d9b2 84c0 57a1 203f d1cb 1d40
000003d0: f6d1 ac3f b5b2 d93e 2a6a 873f ef9f 8b3f
000003e0: 39ff 6ec0 0b7f d63f ffba f2be a649 f63d
000003f0: 75fb 94c0 9f73 b2be 3ca4 efbf 2670 a9be

FC2.bias f4 [256]
-0.46317834 -0.07968408 -1.2980803 -0.45682546 -2.0504851 -1.2014904 -0.76035416 -0.0718153
-1.6798574 -1.6707746 -1.2166519 -0.107342705 -2.1942248 -0.063391104 -2.2095466 -1.3586287
-0.88611186 -0.21620278 -0.12148763 -1.9810808 -1.600421 -0.27334592 0.9817693 -2.0594313
0.13271268 -0.17578202 0.20536545 -0.05389265 -1.2077097 -1.0082347 -2.6915958 -1.2109362
-2.1076992 -0.099364646 -0.5368227 -1.2971501 -0.12417023 -0.45505634 -2.4346688 0.70561713
-0.09841935 -2.1842058 0.96922743 -0.60253686 -0.6401063 -1.8927833 -1.5745773 0.6038459
-0.20205973 -2.480828 -0.6230714 -1.0354531 -0.52690107 -0.5006175 -1.8774655 -0.12141757
-0.49104184 -0.4333967 -1.1883047 -0.24795865 -0.28139165 -0.3142855 -1.1339436 0.011868712
0.5721786 -0.81164265 0.15765186 -0.25852695 -0.36324942 -0.05455831 -1.02927 -0.8964184
-0.25168952 -0.9045047 0.1112515 0.16594546 -2.324509 -0.29811764 -0.9309921 -0.9149271
-0.40909916 -1.4351333 -0.08569926 -0.15837848 -0.14697567 -2.9270773 -1.1895354 -0.097923435
-0.58690137 1.5554439 -1.6024091 -0.8167411 -0.75914544 -2.3544536 -1.3199611 -0.2661714
-1.164259 -1.1705079 -1.1851213 -1.8095254 -1.0054573 -1.0094076 -0.23145929 -1.1646549
-1.0893885 -0.96957564 1.6556832 0.16408001 -1.902898 -0.05195846 -0.1965437 0.4915538
0.20826717 0.26207542 -0.20658125 -1.5425977 -1.1361929 -1.020744 -1.6796968 -1.0149095
-0.058486782 -1.1589277 0.40501952 -0.6968267 -0.078337885 -0.16634127 -0.19805047 -0.3907585
-0.74445856 -1.7006456 -2.9049513 -0.0406999 -0.44665942 -0.7894124 -1.3505661 -1.2260076
-0.12839217 1.3928376 -2.3429582 -0.104205824 -1.1522824 -0.09468732 0.15064687 -0.43088672
-0.9436386 -0.8944623 -1.5409614 -0.31614113 -0.6067976 -2.6467693 -2.0445883 -0.6285929
0.32820675 -0.13006425 0.54686606 -3.1107464 -1.9025575 -2.1935883 0.3023344 -0.26720777
-0.3348702 0.4111369 -1.7610782 1.2786477 -0.7735497 -0.85854304 -0.74240583 -1.3980975
-0.6186974 -1.2522181 -1.648203 -1.6826092 -1.4388041 -2.1795807 -1.9739937 -3.0534794
-1.1513345 -1.314608 -1.2618124 0.90218323 -0.04768807 -1.3692104 -0.5327581 -0.71307456
1.7324308 -1.6381663 -1.9763358 0.20745511 -0.20405371 -0.48280096 -2.1401527 -2.4728289
0.38128763 -1.0883663 -0.55638695 -0.054711107 -0.6712409 -1.9200965 -0.32199603 -2.2852058
-0.6234661 -0.05955517 -0.20894922 -2.1248999 -0.99986786 0.19079778 -1.8543013 -1.9518528
-0.32400906 1.507111 -1.1815418 -0.95407945 0.6003184 -1.2054149 -1.0975364 -2.3417926
-3.7257042 0.49231553 -0.11971856 -3.3932993 -1.6067599 -0.8381638 -1.1468455 -0.16398054
0.03258016 0.34443608 -1.3337948 -1.5634493 -1.7593312 -2.190264 0.3253787 -1.356156
-0.6441324 -0.4425104 0.1690336 -0.95501995 -1.9444102 -1.352302 -2.2558978 -1.494629
-0.104531825 -1.4750168 -1.7409387 0.7436853 -2.0395157 -0.5999489 -0.10868684 -0.9976237
-2.4900868 -0.13456665 -1.5962301 -0.4149526 -0.070458755 -0.20958695 -0.28953496 -0.46286228
00000000: b625 edbe 6831 a3bd 7f27 a6bf 07e5 e9be
00000010: 263b 03c0 70ca 99bf 92a6 42bf e613 93bd
00000020: 9105 d7bf f1db d5bf 40bb 9bbf 7ed6 dbbd
00000030: 2e6e 0cc0 32d3 81bd 3669 0dc0 8ce7 adbf
00000040: 3ad8 62bf 4364 5dbe 82ce f8bd 0e94 fdbf
00000050: 98da ccbf fff3 8bbe 3c55 7b3f b9cd 03c0
00000060: d5e5 073e 3400 34be 524b 523e 8abe 5cbd
00000070: 3b96 9abf d60d 81bf 1b43 2cc0 f5ff 9abf
00000080: 8be4 06c0 b17f cbbd 366d 09bf 0409 a6bf
00000090: f64c febd 25fd e8be 9dd1 1bc0 53a3 343f
000000a0: 1690 c9bd 07ca 0bc0 4a1f 783f db3f 1abf
000000b0: 02de 23bf b946 f2bf c08b c9bf a595 1a3f
000000c0: bfe8 4ebe e3c5 1ec0 9b81 1fbf ba89 84bf
000000d0: fde2 06bf 7828 00bf ca50 f0bf c6a9 f8bd
000000e0: d669 fbbe 2ce6 ddbe 5e1a 98bf dfe8 7dbe
000000f0: 9112 90be 07ea a0be 1025 91bf fc74 423c
00000100: 4c7a 123f d0c7 4fbf 7d6f 213e a55d 84be
00000110: d4fb b9be 8978 5fbd 1fbf 83bf ad7b 65bf
00000120: 73dd 80be 9f8d 67bf d4d7 e33d 9bed 293e
00000130: c1c4 14c0 e0a2 98be 8055 6ebf aa38 6abf
00000140: 7275 d1be 73b2 b7bf 1883 afbd f82d 22be
00000150: ca80 16be 3c55 3bc0 b242 98bf 158c c8bd
00000160: 2b3f 16bf c918 c73f be1b cdbf f215 51bf
00000170: 5b57 42bf 5eaf 16c0 7cf4 a8bf 9e47 88be
00000180: 7006 95bf 34d3 95bf 0eb2 97bf 879e e7bf
00000190: d3b2 80bf 4534 81bf aa03 6dbe 6913 95bf
000001a0: 1571 8bbf 1c36 78bf 6ded d33f 9704 283e
000001b0: 2992 f3bf 65d2 54bd c042 49be f1ac fb3e
000001c0: fd43 553e c02e 863e 098a 53be d773 c5bf
000001d0: c56e 91bf bda7 82bf 4e00 d7bf 8ee8 81bf
000001e0: d68f 6fbd be57 94bf b85e cf3e 3c63 32bf
000001f0: 9d6f a0bd 5e55 2abe becd 4abe 8011 c8be
00000200: d694 3ebf c1ae d9bf b9ea 39c0 f0b4 26bd
00000210: 8bb0 e4be ee16 4abf 5adf acbf d1ed 9cbf
00000220: 3d79 03be 8148 b23f 07f3 15c0 dd69 d5bd
00000230: fd7d 93bf 6deb c1bd 2c43 1a3e 2f9d dcbe
00000240: 4d92 71bf 7bfb 64bf 393e c5bf 40dd a1be
00000250: 1657 1bbf ab64 29c0 89da 02c0 77eb 20bf
00000260: b70a a83e 902f 05be 6aff 0b3f 7816 47c0
00000270: 0187 f3bf c063 0cc0 93cb 9a3e 75cf 88be
00000280: 1b74 abbe 8980 d23e 036b e1bf baaa a33f
00000290: 5a07 46bf 7ac9 5bbf 4f0e 3ebf dcf4 b2bf
000002a0: f462 1ebf af48 a0bf 51f8 d2bf bd5f d7bf
000002b0: bc2a b8bf 407e 0bc0 d3ab fcbf 356c 43c0
000002c0: ee5e 93bf 1345 a8bf 1283 a1bf 7bf5 663f
000002d0: 9154 43bd 4942 afbf d662 08bf 0e8c 36bf
000002e0: 4bc0 dd3f 6faf d1bf 92f8 fcbf 1d6f 543e
000002f0: 75f3 50be b031 f7be 43f8 08c0 d442 1ec0
00000300: 2238 c33e 964f 8bbf 606f 0ebf c118 60bd
00000310: 72d6 2bbf b9c5 f5bf aadc a4be d040 12c0
00000320: 799b 1fbf 1ff0 73bd c9f6 55be 5cfe 07c0
00000330: 57f7 7fbf 7e60 433e bf59 edbf 50d6 f9bf
00000340: 84e4 a5be 03e9 c03f c33c 97bf 8d3e 74bf
00000350: 77ae 193f 094b 9abf 137c 8cbf eedf 15c0
00000360: f071 6ec0 c810 fc3e 012f f5bd d12b 59c0
00000370: 4faa cdbf e791 56bf d5cb 92bf 84ea 27be
00000380: c672 053d ed59 b03e cab9 aabf 1b1f c8bf
00000390: c431 e1bf 492d 0cc0 0998 a63e 8596 adbf
000003a0: dce5 24bf b990 e2be 2517 2d3e 307c 74bf
000003b0: 6fe2 f8bf 3b18 adbf a160 10c0 0150 bfbf
000003c0: c814 d6bd 5acd bcbf 14d7 debf 2962 3e3f
000003d0: 6d87 02c0 4096 19bf 3597 debd 4464 7fbf
000003e0: 955d 1fc0 d7cb 09be 4551 ccbf ab74 d4be
000003f0: ae4c 90bd f69d 56be ed3d 94be 49fc ecbe

action_out.weight f4 [5, 256]
2.0612817 -0.06408668 2.2699118 0.63488936 -0.0016264885 -3.310205 -1.3505604 1.403756
-0.91161084 0.043438707 3.3743505 0.5545882 -2.633349 -0.009963875 2.2690153 -0.08357174
3.0718906 0.0638557 0.4204607 2.1251907 -1.1348059 1.6717111 1.3774915 5.0398836
0.7164009 1.8715885 0.5585952 0.69261706 1.7653975 -1.3583452 0.44662142 1.4770988
0.9374196 0.028958065 2.6356928 2.5544024 -0.056053955 0.019304039 4.909829 2.9833217
2.3597188 0.14246382 1.7668192 1.4525051 1.1809874 0.12027059 0.8886915 0.84481907
2.1902244 0.4864628 1.6859872 1.684952 2.0919476 3.278182 4.162303 0.073764175
1.794267 0.76153857 1.2539322 0.82763743 1.7474946 1.9809695 0.28548357 0.9483674
2.9643528 -0.99729484 3.0681007 1.1811526 2.0055878 1.7185665 1.426068 -0.07209789
2.4674823 0.23809324 -0.21900032 2.2518876 2.9157526 -0.2993642 -0.124129504 1.531454
-0.81043804 0.9699434 0.39395213 1.1215228 0.34943837 -0.40695953 3.8373148 0.7448544
0.30187675 2.4914498 1.1044993 1.4015285 1.9498585 1.752533 1.2264949 0.25920263
2.5537455 0.3983272 -0.78673416 1.351446 -0.32876605 0.807589 0.9211068 2.544624
2.0074894 -0.25562757 1.7970031 2.3655438 0.47591776 1.2704391 0.35338432 1.0649058
0.13138969 1.6560965 1.4083415 2.2250986 0.38006008 2.3869278 -0.86446005 1.7683291
0.01757665 1.5043871 1.4594268 2.0610504 0.06359462 2.3129165 0.38574132 1.107657
4.231795 3.0084665 -1.0200691 -0.019755898 2.32461 -0.43219197 -2.750891 0.8858658
1.3990202 1.8671292 2.1592417 0.25889012 0.15003696 0.47287238 1.9078367 2.0036001
-4.724243 2.739103 -0.66648275 1.3609483 2.243542 2.6406763 0.587492 -0.8828427
2.7346823 0.371688 1.588859 0.60091734 -0.8494534 2.6988034 0.9424295 -0.5008976
1.0981323 1.7405552 2.6503968 1.2171443 0.7944248 -0.30565703 0.9775745 1.057961
1.3061141 1.3695947 -0.068744816 2.4180532 1.352419 -0.55247813 -0.81286895 0.5564479
2.8080482 3.2100017 -1.596983 1.5133834 -0.0012287458 -0.8793272 2.8330142 1.4874527
2.616617 2.0979853 -0.116574116 2.1593218 0.24078576 0.9869137 -0.37702698 1.0500888
2.5121574 -0.702803 1.4569498 -0.017060097 -4.5870767 -0.024649233 2.271943 -4.4360676
1.3995137 -0.03535526 0.1433826 1.0637466 -3.061492 1.9951966 -3.4852293 2.2057557
-0.1284102 2.2348185 0.21414988 2.1489072 1.1488258 1.5035952 2.8632376 -1.5417651
-0.31196046 2.0128348 -0.0374056 -2.426821 -2.8424363 -0.6406184 1.4759005 0.20378156
-0.023118991 -1.4804659 -0.7725745 0.9588292 -2.0526004 1.2519517 2.280919 2.0109208
2.327501 1.652485 1.2926873 1.8339752 1.902873 1.9587336 -0.039507847 1.0896249
0.034885857 1.1018356 -2.3501503 0.8456208 -1.5167143 0.37835363 0.29119328 2.6419356
1.1182048 0.058357876 2.7975695 1.823348 0.6173445 0.09322062 1.7523772 2.551608
00000000: 0aec 0340 e13f 83bd 3c46 1140 1c88 223f
00000010: e62f d5ba 66da 53c0 2adf acbf 47ae b33f
00000020: 545f 69bf c9ec 313d 5cf5 5740 7ef9 0d3f
00000030: ca88 28c0 853f 23bc 8c37 1140 a927 abbd
00000040: db99 4440 c7c6 823d a046 d73e 2003 0840
00000050: 5241 91bf a1fa d53f a451 b03f ba46 a140
00000060: 0d66 373f 3690 ef3f 1800 0f3f 5a4f 313f
00000070: 8cf8 e13f 41de adbf 90ab e43e 9311 bd3f
00000080: bbfa 6f3f 7739 ed3c 31af 2840 547b 2340
00000090: d598 65bd 8123 9e3c 521d 9d40 beee 3e40
000000a0: a205 1740 09e2 113e 2227 e23f b0eb b93f
000000b0: 982a 973f 6d50 f63d 4981 633f 1046 583f
000000c0: a32c 0c40 a711 f93e 6ece d73f 82ac d73f
000000d0: 78e2 0540 bccd 5140 9631 8540 ac11 973d
000000e0: 8baa e53f 31f4 423f da80 a03f 0ce0 533f
000000f0: e7ad df3f 6990 fd3f e72a 923e 35c8 723f
00000100: f5b7 3d40 b74e 7fbf c35b 4440 0230 973f
00000110: 8d5b 0040 fdf9 db3f 6589 b63f 0fa8 93bd
00000120: 3beb 1d40 b7ce 733e 9f41 60be ed1e 1040
00000130: b19b 3a40 4446 99be 9c37 febd af06 c43f
00000140: de78 4fbf 364e 783f 18b4 c93e 0f8e 8f3f
00000150: 96e9 b23e 005d d0be 9196 7540 c7ae 3e3f
00000160: 978f 9a3e ea73 1f40 3c60 8d3f 4965 b33f
00000170: f794 f93f 0053 e03f c9fd 9c3f 35b6 843e
00000180: 9170 2340 8bf1 cb3e 6967 49bf 2ffc ac3f
00000190: 0654 a8be 27be 4e3f a8cd 6b3f 1fdb 2240
000001a0: b57a 0040 9ee1 82be 3304 e63f 1265 1740
000001b0: 7eab f33e c09d a23f caee b43e d54e 883f
000001c0: 058b 063e f8fa d33f 8944 b43f 0468 0e40
000001d0: 3c97 c23e 6dc3 1840 414d 5dbf 9c58 e23f
000001e0: e8fc 8f3c c28f c03f 7fce ba3f 40e8 0340
000001f0: e53d 823d d306 1440 e37f c53e b4c7 8d3f
00000200: dd6a 8740 b78a 4040 a091 82bf 1fd7 a1bc
00000210: 69c6 1440 4448 ddbe 990e 30c0 1ac8 623f
00000220: 1813 b33f 17fe ee3f 0431 0a40 3f8d 843e
00000230: 4aa3 193e 541c f23e fe33 f43f fc3a 0040
00000240: 002d 97c0 774d 2f40 9d9e 2abf 8e33 ae3f
00000250: 3196 0f40 d700 2940 e065 163f fb01 62bf
00000260: 0905 2f40 e44d be3e bb5f cb3f b8d5 193f
00000270: c775 59bf 32b9 2c40 0f43 713f d33a 00bf
00000280: 998f 8c3f 83ca de3f 1aa0 2940 62cb 9b3f
00000290: 6c5f 4b3f 147f 9cbe 5342 7a3f 446b 873f
000002a0: bf2e a73f e14e af3f 15ca 8cbd 62c1 1a40
000002b0: 111c ad3f 356f 0dbf 2e18 50bf 5f73 0e3f
000002c0: 10b7 3340 ab70 4d40 f069 ccbf 8cb6 c13f
000002d0: de0d a1ba 961b 61bf 1b50 3540 da64 be3f
000002e0: a776 2740 6445 0640 69be eebd 5432 0a40
000002f0: 8b90 763e 60a6 7c3f ae09 c1be 4f69 863f
00000300: 30c7 2040 e6ea 33bf 557d ba3f 9ec1 8bbc
00000310: 55c9 92c0 30ed c9bc 8467 1140 44f4 8dc0
00000320: 4423 b33f add0 10bd e3d2 123e d928 883f
00000330: 7cef 43c0 9a62 ff3f ff0d 5fc0 1a2b 0d40
00000340: f77d 03be 4407 0f40 1b4a 5b3e b287 0940
00000350: b90c 933f cf75 c03f 493f 3740 8f58 c5bf
00000360: 48b9 9fbe 49d2 0040 9d36 19bd 0951 1bc0
00000370: 7aea 35c0 91ff 23bf 4fea bc3f 1dac 503e
00000380: 0a64 bdbc e87f bdbf 71c7 45bf d575 753f
00000390: ce5d 03c0 f43f a03f 94fa 1140 edb2 0040
000003a0: c7f5 1440 a184 d33f c776 a53f b3bf ea3f
000003b0: 5891 f33f c8b7 fa3f fbd2 21bd d478 8b3f
000003c0: 79e4 0e3d f308 8d3f dd68 16c0 9b7a 583f
000003d0: b223 c2bf 91b7 c13e 4917 953e 7915 2940
000003e0: 5621 8f3f ab08 6f3d 610b 3340 7863 e93f
000003f0: 4a0a 1e3f 74ea be3d e54d e03f 8c4d 2340

action_out.bias f4 [5]
1.0725772 -1.5972825 5.5595202 1.18326 2.2476976
00000000: 364a 893f c173 ccbf 97e7 b140 1075 973f
00000010: 47da 0f40

weight f4 [256, 123]
-12.042003 -0.29062855 -0.11013283 -0.29209244 -0.12376553 -0.31576392 -0.28875425 -0.030911347
1.4979913 0.07118898 0.052782573 0.061747003 0.15999211 -0.030633884 -0.16489819 -1.855134
-0.49172834 -1.0556024 -0.869316 -0.30427003 -0.18684772 -1.0369959 0.100373074 0.9179584
-0.9973151 -1.2569566 -0.013793232 -1.4987795 0.03792212 -0.20582652 -0.06124985 -0.29821768
-1.5283158 -0.014484003 -0.026064321 -0.6219392 -12.103566 0.16130787 0.1167004 -0.43332043
-0.021122208 -0.35126975 -0.32064453 1.1853294 0.1690795 0.90903056 0.9238742 0.06145518
0.147272 -0.0068208766 -0.22416037 -1.4922204 1.9409146 0.028718613 0.06393174 -0.4131229
-0.15513045 -0.98333603 0.25544298 1.8686209 -1.434715 0.1214821 0.3921703 -1.4093914
-0.24438702 0.03376588 -0.30513835 -0.2580964 -0.054169737 -1.5173306 0.07670093 1.6022538
-12.020534 -0.29906863 -0.03824416 -0.3151647 -0.02879866 -0.38033396 -0.39848748 1.1141303
-0.5324162 1.2522914 0.15126412 0.14033747 0.13078402 -0.03390097 -0.27813238 -1.391457
0.2959461 0.03364173 -0.5329515 -0.31881073 -0.033240594 -1.0121112 0.23820455 3.310564
-2.2510924 -0.02606982 0.038905166 -1.39536 -0.1008849 -0.049219914 -0.30021945 -0.17686106
-0.0073762983 -0.0075319335 -1.4567242 -8.374503 0.31307963 0.41635364 -0.38937277 0.38374242
-0.5994633 0.15392962 -0.07905139 0.31605652 -0.048079755 0.07407034 -0.05617483 -0.014166277
0.04982466 0.07190013 -0.03700971 3.3919837 -0.091005795 0.21467374 0.015835973 0.18088035
-0.39483187 0.74690104 1.4862577 -1.4628745 -0.08090423 0.009153888 0.79670614 -0.19640535
-2.7993512 -0.5001356 1.8048831 0.5531803 0.48650095 0.14055023 -0.34370017 0.24379595
-0.5454116 -0.3639801 -0.9198023 -0.3771517 0.12508799 -0.0847724 -0.08311459 0.04661206
0.012354504 0.121771894 0.030591266 -0.1002307 0.061889358 0.06298939 2.2608325 3.4458559
0.88295704 -0.28320223 0.013453559 0.13479774 -0.40142927 0.6384474 -0.0012891368 -0.9363668
-0.55006105 -0.05451948 0.9488216 -0.24865249 -2.8482857 -0.4968737 4.0898952 -0.7423475
0.0054571554 -0.033712078 -0.2809301 0.25718307 -0.44537845 -0.5081401 -1.0691408 -0.9531193
-0.24826284 -0.031584807 -0.11773109 -0.12312059 0.08837522 0.030805862 -0.26889804 0.08797792
-0.15925308 0.042632826 2.3329597 3.4160259 -0.44016433 0.30369458 -0.13129663 0.14283842
-0.47154114 0.7663456 -0.04636589 -0.13317649 -0.2212536 -0.027159061 0.89003414 -0.30139792
-2.8521347 -0.5113559 0.94067013 0.37322176 0.16779073 -0.07192115 -0.39717627 0.2724904
-0.39350894 -0.35840112 -0.89134485 -1.3549949 0.0016036034 0.07631341 -0.09905665 0.096113786
-0.013415234 0.12123194 -0.027730508 0.04379534 0.06620043 -0.14143912 2.249974 0.029344497
0.06815982 -0.024376875 0.16489393 0.042256948 -0.037992395 -0.16323906 0.17505103 -0.02497449
-0.008008604 -0.09912434 0.11459945 -0.04230793 -0.051787987 -0.050712302 -0.05086512 -0.02661424
0.058117777 0.07230186 -0.008201131 -0.048385624 0.033485916 -0.0075618546 0.076004416 0.0516342
00000000: 0bac 40c1 44cd 94be 528d e1bd 248d 95be
00000010: c878 fdbd cfab a1be 99d7 93be cb39 fdbc
00000020: 2ebe bf3f 87cb 913d 8a32 583d 6dea 7c3d
00000030: f9d4 233e e9f3 fabc 12db 28be 0875 edbf
00000040: d1c3 fbbe fb1d 87bf 7e8b 5ebf 48c9 9bbe
00000050: 0255 3fbe 48bc 84bf 6690 cd3d 52ff 6a3f
00000060: 0b50 7fbf f4e3 a0bf 02fd 61bc 02d8 bfbf
00000070: 3a54 1b3d 30c4 52be 1fe1 7abd fdaf 98be
00000080: da9f c3bf 504e 6dbc d884 d5bc 6837 1fbf
00000090: 35a8 41c1 e42d 253e 9f00 ef3d 2ddc ddbe
000000a0: 7b08 adbc a1d9 b3be 852b a4be e0b8 973f
000000b0: 2d23 2d3e 3ab6 683f 0583 6c3f 6db8 7b3d
000000c0: 79ce 163e a981 dfbb 4c8a 65be 1401 bfbf
000000d0: e46f f83f 4c43 eb3c a5ee 823d d884 d3be
000000e0: 84da 1ebe e9bb 7bbf 6cc9 823e f82e ef3f
000000f0: bea4 b7bf 9bcb f83d 8cca c83e f066 b4bf
00000100: 9740 7abe 174e 0a3d 183b 9cbe 3625 84be
00000110: 16e1 5dbd e437 c2bf 6115 9d3d a716 cd3f
00000120: 1b54 40c1 861f 99be e9a5 1cbd 445d a1be
00000130: 2beb ebbc 22bb c2be 8d06 ccbe d29b 8e3f
00000140: 6e4c 08bf 164b a03f fbe4 1a3e a0b4 0f3e
00000150: 3fec 053e bedb 0abd 5e67 8ebe 431b b2bf
00000160: 3f86 973e e9cb 093d 826f 08bf 293b a3be
00000170: 4a27 08bd dc8c 81bf e5eb 733e 48e0 5340
00000180: e611 10c0 6090 d5bc 065b 1f3d 289b b2bf
00000190: be9c cebd d29a 49bd 5db6 99be 111b 35be
000001a0: e0b4 f1bb 70ce f6bb f075 babf f7fd 05c1
000001b0: f94b a03e 4e2c d53e de5b c7be e379 c43e
000001c0: 6d76 19bf ba9f 1d3e b2e5 a1bd 29d2 a13e
000001d0: 47ef 44bd 31b2 973d 9417 66bd ac19 68bc
000001e0: f114 4c3d 6040 933d 7e97 17bd 4316 5940
000001f0: 3f61 babd 6fd3 5b3e 71ba 813c b338 393e
00000200: 6727 cabe e834 3f3f b13d be3f 793f bbbf
00000210: 1eb1 a5bd 30fa 153c eff4 4b3f 7c1e 49be
00000220: 9228 33c0 e308 00bf 6906 e73f 399d 0d3f
00000230: a716 f93e 66ec 0f3e 78f9 afbe a5a5 793e
00000240: 18a0 0bbf 9a5b babe 2a78 6bbf 071a c1be
00000250: 1117 003e 279d adbd fb37 aabd 4aec 3e3d
00000260: 8c6a 4a3c 8b63 f93d 899a fa3c c145 cdbd
00000270: b27f 7d3d 9500 813d 7bb1 1040 e788 5c40
00000280: 7909 623f e2ff 90be 516c 5c3c 6b08 0a3e
00000290: 2388 cdbe 4a71 233f 41f8 a8ba bcb5 6fbf
000002a0: cdd0 0cbf d14f 5fbd f9e5 723f c29e 7ebe
000002b0: 504a 36c0 3b66 febe 6ce0 8240 7c0a 3ebf
000002c0: f0d1 b23b ad15 0abd 12d6 8fbe 80ad 833e
000002d0: a508 e4be 7815 02bf 9bd9 88bf a0ff 73bf
000002e0: 9d38 7ebe 125f 01bd ff1c f1bd a626 fcbd
000002f0: 11fe b43d 935c fc3c 01ad 89be c52d b43d
00000300: 3d13 23be c29f 2e3d 364f 1540 2ba0 5a40
00000310: 385d e1be db7d 9b3e a072 06be 3c44 123e
00000320: d76d f1be 3a2f 443f 29ea 3dbd 6b5f 08be
00000330: 4e90 62be ae7c debc 47d9 633f d450 9abe
00000340: 6089 36c0 38e8 02bf c2cf 703f ec16 bf3e
00000350: 55d1 2b3e 654b 93bd b05a cbbe dd83 8b3e
00000360: 017a c9be 5a80 b7be 2d2f 64bf 7970 adbf
00000370: 0030 d23a 354a 9c3d 37de cabd 4ed7 c43d
00000380: 92cb 5bbc 7448 f83d 172b e3bc be62 333d
00000390: 1794 873d 6bd5 10be 93ff 0f40 df63 f03c
000003a0: 6097 8b3d 03b2 c7bc f4d9 283e 9f15 2d3d
000003b0: ea9d 1bbd 2428 27be 9440 333e 4d97 ccbc
000003c0: 8536 03bc b401 cbbd 1eb3 ea3d 144b 2dbd
000003d0: a41f 54bd b4b7 4fbd f257 50bd 1b06 dabc
000003e0: e80c 6e3d ff12 943d 095e 06bc 0130 46bd
000003f0: 8728 093d 6fc9 f7bb 34a8 9b3d 627e 533d

bias f4 [256]
-1.460242 -0.20508224 -0.10051206 0.440008 -0.05811022 0.002286746 -0.2178206 0.016551942
-0.4436566 -0.13591728 -0.038083166 -1.6705364 -0.24679224 -0.6292024 -0.10593471 -0.07535121
-0.026579289 -0.120314725 0.054196622 -0.06653019 -2.3125606 -1.6796981 0.0041069086 -0.0031965827
-0.027395217 -0.021923246 -0.11379099 -0.6171783 -0.030528955 -0.6288225 0.2964151 -0.07295729
-0.023953421 -0.11294837 -0.03265708 -0.06770291 -2.112503 -0.11134272 -0.102262154 -0.17963652
0.038791526 -0.11647443 0.040830266 0.0048713903 0.7420297 0.06627519 -1.229868 -0.1073379
-0.02329971 -0.05915204 -0.0015908412 -1.755978 -0.12037792 -0.1903896 -0.07090787 -1.0438491
-0.16417561 -0.055835493 0.3084205 -0.043025963 0.8884507 -0.09984662 -0.067125455 -0.043274913
-0.06497322 -0.05939135 0.61962986 0.12264774 0.036674652 -0.044014994 0.25878492 -0.027829418
-0.8880672 -0.037927568 1.7550975 0.025777392 0.04821401 -0.2321127 0.010475326 -0.3960142
0.031884994 -0.09531615 -0.2295506 -0.05971738 -0.008814444 -0.9294288 -0.047928378 -0.09402303
-0.072008006 0.01386395 0.19879736 0.0185967 -0.1019752 -1.7538242 0.0054149344 -0.022287972
0.0058355317 -0.117308296 -0.14814018 -1.3237482 -0.116187386 -0.053322077 -0.066016 -0.12184666
-0.99661624 -1.8576574 -0.011502704 0.046152018 -0.008973297 0.039488483 -0.06308604 -0.11241479
-0.07189062 -0.10639899 -0.06814281 -0.058396343 -0.022586307 0.029965745 -0.08973214 -0.06327165
-0.0700993 -0.12981962 -0.08891595 -0.021500414 -0.101076946 -0.51673687 -0.0708191 -0.0023858787
-0.03137775 -1.7659713 -0.17736967 -0.113794826 -0.08507499 -1.5319433 -0.04138177 -1.2321836
-0.06837962 -0.08599435 -0.092143446 -1.3789552 -0.050174028 -0.09512019 -0.13614555 -0.131738
-0.07747092 -0.61426485 -0.13127252 -0.2153777 -0.46494088 -0.022522127 0.40421224 -1.5122445
0.033776198 -0.2361586 1.4900025 -0.612958 -0.08651231 -0.11999475 1.9774963 -0.03639768
-0.08236876 -0.04956093 -0.052518003 0.047106855 -1.1489909 -0.13514651 -0.100135975 -0.07378837
-0.13539968 0.035989482 0.031370267 -0.12715156 -0.06988293 -0.77963334 -0.06724096 -0.03488273
-0.086314626 0.059612423 0.031405848 0.35062516 -0.07452543 -0.13534686 -1.1014217 -0.4317045
-0.050483026 -0.08508255 -0.20728442 -0.09374623 -0.040694553 0.0038434386 -0.45959935 1.3698412
-0.027769346 -0.13249275 -0.9365953 -0.19308466 -0.50202227 -0.057625495 -0.036023173 -0.07333466
-0.24315515 -0.053121593 -1.8347137 -0.061062496 0.05610955 -0.06897818 -0.08733188 -0.05084639
-0.56525826 0.026431559 -0.8635631 -0.2977291 -0.99653256 -1.7009987 -1.5301113 -2.4481266
-0.12899539 -0.03996367 -0.111267254 -0.055133566 -0.031623166 0.01454924 -0.0749379 -0.08863021
-0.014947007 -0.12603776 -0.045043707 -0.009920432 -0.045575675 0.13792625 -0.07375903 -0.06433681
0.7215632 0.6326407 -0.13767469 -1.7686669 -0.28017446 0.06309929 0.0032892022 1.0999271
-0.021767732 -0.097273916 -0.035341922 -0.07882018 0.016963605 0.011224847 -0.20697108 0.27856413
-0.061571214 -2.3191516 -0.0011067729 -0.073989674 0.03975705 -0.08168257 0.1762093 -0.074562654
00000000: 36e9 babf 1401 52be 44d9 cdbd bb48 e13e
00000010: fb04 6ebd 3bdd 153b 5d0c 5fbe f097 873c
00000020: f526 e3be e62d 0bbe 18fd 1bbd 23d4 d5bf
00000030: 1bb7 7cbe 6913 21bf 4cf4 d8bd bc51 9abd
00000040: cfbc d9bc 9167 f6bd 47fd 5d3d fb40 88bd
00000050: fe00 14c0 5900 d7bf 3f93 863b c27d 51bb
00000060: ef6b e0bc 6198 b3bc 400b e9bd 66ff 1dbf
00000070: dc17 fabc 83fa 20bf b8c3 973e a26a 95bd
00000080: f739 c4bc 7a51 e7bd 6ec3 05bd d3a7 8abd
00000090: 4033 07c0 a707 e4bd d26e d1bd a3f2 37be
000000a0: dde3 1e3d 258a eebd a33d 273d 2fa0 9f3b
000000b0: a9f5 3d3f 49bb 873d 516c 9dbf f9d3 dbbd
000000c0: 09df bebc 6949 72bd c683 d0ba e3c3 e0bf
000000d0: b388 f6bd 7ef5 42be 2538 91bd d99c 85bf
000000e0: a71d 28be c2b3 64bd 4be9 9d3e fe3b 30bd
000000f0: 8171 633f 627c ccbd 1279 89bd 0941 31bd
00000100: ae10 85bd 5844 73bd 10a0 1e3f bd2e fb3d
00000110: 2938 163d 1149 34bd 757f 843e 85fa e3bc
00000120: 5f58 63bf f059 1bbd 09a7 e03f 1c2b d33c
00000130: 0e7c 453d f4ae 6dbe b4a0 2b3c 60c2 cabe
00000140: d799 023d 1d35 c3bd 500f 6bbe 369a 74bd
00000150: 756a 10bc 0cef 6dbf 8c50 44bd 258f c0bd
00000160: ef78 93bd 9f25 633c 8991 4b3e 1b58 983c
00000170: 60d8 d0bd 507d e0bf c36f b13b 4495 b6bc
00000180: fd37 bf3b 553f f0bd 0fb2 17be 9570 a9bf
00000190: a7f3 edbd 4068 5abd 6633 87bd be8a f9bd
000001a0: 3e22 7fbf b8c7 edbf d675 3cbc e609 3d3d
000001b0: bc04 13bc adbe 213d 4133 81bd ba39 e6bd
000001c0: 643b 93bd b7e7 d9bd 758e 8bbd 0131 6fbd
000001d0: eb06 b9bc b97a f53c 7cc5 b7bd 9194 81bd
000001e0: 3990 8fbd 6fef 04be 9119 b6bd a321 b0bc
000001f0: 6e01 cfbd de48 04bf 9b09 91bd 675c 1cbb
00000200: f585 00bd 590b e2bf 65a0 35be 430d e9bd
00000210: cc3b aebd b816 c4bf ee7f 29bd 31b8 9dbf
00000220: 9d0a 8cbd ce1d b0bd b4b5 bcbd 9b81 b0bf
00000230: 4883 4dbd 60ce c2bd bd69 0bbe 54e6 06be
00000240: 13a9 9ebd 7640 1dbf 4e6c 06be f98b 5cbe
00000250: bb0c eebe 5380 b8bc e8f4 ce3e 3a91 c1bf
00000260: e958 0a3d 8fd3 71be 67b8 be3f d1ea 1cbf
00000270: 5e2d b1bd cfbf f5bd 991e fd3f bc15 15bd
00000280: f4b0 a8bd 6700 4bbd 1e1d 57bd 1ef3 403d
00000290: 2212 93bf d963 0abe 1714 cdbd 5b1e 97bd
000002a0: 37a6 0abe b569 133d 1c7e 003d 0534 02be
000002b0: c81e 8fbd 0d96 47bf a1b5 89bd 32e1 0ebd
000002c0: b9c5 b0bd 282c 743d 6ba3 003d 2485 b33e
000002d0: caa0 98bd 5e98 0abe 63fb 8cbf 5f08 ddbe
000002e0: 4ac7 4ebd c33f aebd 5e42 54be 06fe bfbd
000002f0: 55af 26bd 33e2 7b3b 9b50 ebbe f556 af3f
00000300: 8a7c e3bc 2eac 07be b6c4 6fbf fcb7 45be
00000310: 8884 00bf b608 6cbd 098d 13bd 7b30 96bd
00000320: aafd 78be 0796 59bd e6d7 eabf ab1c 7abd
00000330: 21d3 653d 6f44 8dbd 0fdb b2bd 4e44 50bd
00000340: c4b4 10bf ff86 d83c 7912 5dbf f36f 98be
00000350: c21c 7fbf 53ba d9bf b0da c3bf 1bae 1cc0
00000360: 5e17 04be f2b0 23bd 16e0 e3bd bcd3 61bd
00000370: 4b87 01bd ef5f 6e3c 0b79 99bd c183 b5bd
00000380: 4be4 74bc 0b10 01be c07f 38bd 4f89 22bc
00000390: 8fad 3abd 8a3c 0d3e f90e 97bd 04c3 83bd
000003a0: 5eb8 383f bef4 213f 98fa 0cbe ad63 e2bf
000003b0: 0773 8fbe 333a 813d a88f 573b 69ca 8c3f
000003c0: 3e52 b2bc 8c37 c7bd b1c2 10bd 796c a1bd
000003d0: 42f7 8a3c 6ce8 373c 3af0 53be f59f 8e3e
000003e0: 1932 7cbd fb6c 14c0 2311 91ba e687 97bd
000003f0: 4ad8 223d 3149 a7bd 3670 343e 4eb4 98bd

weight f4 [256, 256]
-0.8059109 -0.5914546 0.040988266 -0.4760419 0.016287167 0.015398653 0.017420473 0.031097557
-0.1347987 -0.04953384 -0.004772755 -1.6882305 -0.00684038 -0.095681734 -0.027500365 -0.0032406796
0.019398166 -0.06615665 0.026356457 -0.024066016 -0.60287905 2.753235 0.26303428 -0.061690856
-0.048737604 0.028163934 0.014572457 1.0555829 0.29153284 -2.7828076 -0.9437728 -0.050649226
-0.02204993 -0.051604174 0.016571483 -0.019705772 -0.4509603 0.007988565 -0.03514344 -0.035615552
-0.06348227 -0.013114746 0.06076449 -0.05022673 -0.28336996 0.028725818 3.057538 0.0022528407
-0.015414608 0.030346174 -0.035313997 0.25456262 0.057598423 -0.66753274 0.034629513 0.637455
0.013712452 -0.011969526 0.07180342 -0.0073482203 -0.5505221 0.027547963 0.0347919 -0.06216313
-0.00919953 -0.050347786 1.0208938 -1.1191168 0.039074946 0.01967582 -0.05775894 0.038042333
2.6894946 0.03474783 0.6843489 0.02287287 -0.008171147 0.07876682 -0.030600477 0.031182298
0.008114074 -0.008137244 0.017521506 -0.024916714 -0.007457248 0.055103917 -0.06404487 -0.002359548
0.03999901 0.031018069 0.22542563 -0.07323139 -0.059107553 2.921392 0.022806315 -0.018333001
-0.027120288 -0.042543933 -0.021628221 1.5968875 -0.015187009 0.053311978 -0.05068223 -0.03871527
0.8981163 -13.664113 0.02583957 -0.0060282797 0.013796912 -0.6386788 0.021968655 -0.0312238
-0.036949515 -0.548368 0.05144397 0.046621516 0.025517125 0.055043295 -0.024458015 0.07972469
0.0137822265 -0.017967729 -0.029796075 0.04179522 -0.042939894 0.23235022 0.0071943654 -0.023891447
-0.035286516 0.7590879 0.66192585 0.021760503 -0.047552954 -0.27460477 0.083683774 -0.05811098
-0.0024652658 -0.05239745 -0.07870279 -0.64666134 0.031320307 0.05192153 0.029225 0.0013510692
-0.014542827 0.76685935 -0.016573893 0.66202414 -0.62799937 0.002873264 0.121171094 2.2372296
-0.5976379 -0.018770518 0.4616463 -1.2423447 -0.08444254 -0.068477124 0.84150106 -0.052380946
0.0018299714 -0.023041582 0.055014648 -0.6851061 2.268403 0.028265638 -0.030957907 0.0031227993
0.04689771 0.056597654 0.055602796 -0.03864935 -0.025944304 -0.04214545 -0.037356585 -1.2264767
-0.024196878 -0.018348223 -0.045219116 -0.18770239 0.043600004 -0.0358905 0.020074287 -0.051903166
-0.016049767 0.028396782 0.43927014 -0.0036811898 0.04630707 0.029119313 0.13828258 1.7688649
-0.026963681 -0.019721724 1.4365455 -0.093566604 -0.035790537 -0.02242567 0.058607288 -0.05544508
1.38494 -0.0052120383 0.33221573 -0.031585462 -0.03175024 -0.06906357 -0.06867627 0.003894669
-0.017810713 -0.02510363 0.45689788 0.038979206 0.4834664 0.91459364 -0.40861705 1.4933385
-0.034058925 -0.054152854 0.044370282 0.0093082795 -0.04776391 -0.051087137 0.0259237 0.055331558
0.0037011197 0.02014295 -0.042615574 0.03543837 0.043592 -0.104352415 0.045600813 -0.020532683
-0.30710098 -0.45448908 -0.034553457 -2.5232008 0.05251576 0.038799748 0.049729124 -0.5119827
0.0430655 -0.03367269 0.055534445 -0.03601532 -0.0056055062 0.06259544 0.38306287 -4.3515763
-0.05535084 2.5368392 0.048961163 0.026828205 0.014891827 0.060308777 0.48430923 -0.041459464
00000000: 2d50 4ebf 9269 17bf 50e3 273d c4bb f3be
00000010: aa6c 853c a24a 7c3c 61b5 8e3c 4ec0 fe3c
00000020: ac08 0abe ffe3 4abd c564 9cbb f017 d8bf
00000030: 4425 e0bb c9f4 c3bd 7248 e1bc 9561 54bb
00000040: e7e8 9e3c 237d 87bd 7fe9 d73c 1826 c5bc
00000050: 4856 1abf 0135 3040 6eac 863e 8daf 7cbd
00000060: 15a1 47bd 0db8 e63c 51c1 6e3c 571d 873f
00000070: cb43 953e 8519 32c0 189b 71bf 9075 4fbd
00000080: 0ea2 b4bc e65e 53bd ebc0 873c 006e a1bc
00000090: 45e4 e6be 78e2 023c 91f2 0fbd 9de1 11bd
000000a0: fe02 82bd 3bdf 56bc 30e4 783d 8bba 4dbd
000000b0: de15 91be 6852 eb3c b4ae 4340 65a4 133b
000000c0: 8d8d 7cbc 8a98 f83c 69a5 10bd 0856 823e
000000d0: 53ec 6b3d 6de3 2abf add7 0d3d 4030 233f
000000e0: 31aa 603c d51b 44bc ac0d 933d 57c9 f0bb
000000f0: 04ef 0cbf 44ac e13c f481 0e3d c49e 7ebd
00000100: a0b9 16bc 7b39 4ebd a6ac 823f 383f 8fbf
00000110: 0d0d 203d 2f2f a13c a394 6cbd 47d2 1b3d
00000120: ae20 2c40 be53 0e3d 7d31 2f3f e35f bb3c
00000130: 46e0 05bc 8050 a13d daad fabc 0572 ff3c
00000140: e5f0 043c 1352 05bc 4389 8f3c 231e ccbc
00000150: ee5b f4bb a5b4 613d f529 83bd a5a2 1abb
00000160: 00d6 233d 9b19 fe3c fad5 663e 57fa 95bd
00000170: c31a 72bd 16f8 3a40 4fd4 ba3c 172f 96bc
00000180: 5e2b debc 8c42 2ebd ab2d b1bc cf66 cc3f
00000190: efd2 78bc a95d 5a3d 2c98 4fbd e793 1ebd
000001a0: f3ea 653f 35a0 5ac1 82ad d33c e088 c5bb
000001b0: 710c 623c 7480 23bf 9cf7 b33c 0ec9 ffbc
000001c0: 6058 17bd d861 0cbf eab6 523d 34f6 3e3d
000001d0: 4a09 d13c 1475 613d 2d5c c8bc b346 a33d
000001e0: d9ce 613c 0f31 93bc e616 f4bc 7731 2b3d
000001f0: bee1 2fbd 37ed 6d3e b6be eb3b ffb7 c3bc
00000200: 9888 10bd 9653 423f f973 293f 1543 b23c
00000210: e3c6 42bd ff98 8cbe 6662 ab3d c705 6ebd
00000220: 4c90 21bb b59e 56bd ee2e a1bd 998b 25bf
00000230: b949 003d acab 543d 4469 ef3c 5c16 b13a
00000240: 0a45 6ebc e550 443f f9c5 87bc 6a7a 293f
00000250: 91c4 20bf 5f4d 3c3b 8d28 f83d c52e 0f40
00000260: ccfe 18bf a1c4 99bc e75c ec3e 2705 9fbf
00000270: 36f0 acbd bc3d 8cbd 9d6c 573f 678d 56bd
00000280: a7db ef3a b3c1 bcbc 0a57 613d 1d63 2fbf
00000290: 842d 1140 578d e73c 709b fdbc e1a7 4c3b
000002a0: d017 403d f1d2 673d c2bf 633d c84e 1ebd
000002b0: 2689 d4bc b5a0 2cbd 3803 19bd 30fd 9cbf
000002c0: 8838 c6bc 034f 96bc ae37 39bd 0e35 40be
000002d0: eb95 323d eb01 13bd d572 a43c 6a98 54bd
000002e0: cd7a 83bc 5ea0 e83c 04e8 e03e 1e40 71bb
000002f0: 7bac 3d3d a08b ee3c f399 0d3e 2a6a e23f
00000300: f0e2 dcbc 748f a1bc b9e0 b73f d99f bfbd
00000310: 1999 12bd 0ab6 b7bc 320e 703d 611a 63bd
00000320: b745 b13f bfc9 aabb 2e18 aa3e c25f 01bd
00000330: 8a0c 02bd 3371 8dbd 25a6 8cbd b43d 7f3b
00000340: c6e7 91bc 21a6 cdbc 85ee e93e a9a8 1f3d
00000350: e888 f73e cf22 6a3f 4136 d1be b725 bf3f
00000360: 5f81 0bbd 62cf 5dbd 9dbd 353d c181 183c
00000370: 17a4 43bd bf40 51bd f05d d43c 58a3 623d
00000380: 7c8e 723b d402 a53c ab8d 2ebd d327 113d
00000390: 868d 323d b8b6 d5bd ebc7 3a3d 2834 a8bc
000003a0: 573c 9dbe cbb2 e8be ed87 0dbd 1f7c 21c0
000003b0: c41a 573d 7cec 1e3d c4b0 4b3d 4c11 03bf
000003c0: 7365 303d 60ec 09bd 1678 633d cd84 13bd
000003d0: 65ae b7bb 0a32 803d d120 c43e 1d40 8bc0
000003e0: 90b7 62bd 935b 2240 808b 483d d3c6 db3c
000003f0: d9fc 733c 5606 773d 61f7 f73e 66d1 29bd
