saved_models_1/125_11033_model.pt (torch, 701697 bytes, 11 tensors)

FC1.weight f4 [256, 36]
00000000: 5114 e93e d2e5 7b3e 3883 0a3f bb18 bbbf
00000010: 05ec d33f 42fa 9a3f 644e 84bf 3f58 1fc0
00000020: 5ba1 2340 810c 3640 66f6 32c0 4a63 86be
00000030: 29b7 70bf 0b8c ae3e 1c6c 8c3f e0bd c13c
00000040: 01b4 cfbf a78e 933f fef1 2b40 1288 643e
00000050: 99e5 1440 cf43 0e3f c491 aebf 8f14 a4bd
00000060: 1f39 4f40 83c4 8f3f 6fd6 4ac0 97de 9bbe
00000070: 278b df3e 4939 d43e 06e3 36bf d056 eebe
00000080: a8ed 97c0 082e 773e 8880 fd3e 857d 86c0
00000090: f3f8 3bbf 4868 2c3b f6f1 983c e644 d03c
000000a0: 909c a5bf 4b8d 213d 3bed c53f a332 473e
000000b0: 350f 15c0 8f24 a43d 29b8 3140 fa0c 27bf
000000c0: d164 a3bf 4196 18be 7267 6e3f 307f 18bd
000000d0: 0c5f c6bf 8b0b 1b3f 0d47 2e40 0fbc cb3e
000000e0: df74 80bd 156a 523e 84b6 31bf 9cb9 29bf
000000f0: 7dea 2e40 9039 78be a74e debe 50ca 84bd
00000100: dae5 f2bd f850 f13e 05ed cbbe a9be 583f
00000110: 1a85 a0c0 3075 f8bf 40f7 0340 9157 31bd
00000120: 3723 283e 5fa6 9c3f 3b69 5abf 5e2f 8b3f
00000130: 1552 7ebf b6b3 ec3f 1974 51c0 d221 09c0
00000140: de83 1340 e985 b4bf 4db0 c73d eb64 0f3f
00000150: a6af 65bf b029 583f f7ff 55bf d5a9 273e
00000160: 1355 393e b394 2240 996c ecbe 6ba4 b83f
00000170: 1464 d4bf 09f8 e43f 679d 73be 0811 6c3c
00000180: 2486 81bf 7805 113d caf4 c63f 6f43 8dbf
00000190: 325d b0bf 5eb7 1abf 2211 40be e79d 6a3e
000001a0: 8b3c 283f b04b bdbf 4cc8 e2c0 68f5 3fc0
000001b0: 1137 02c1 25db 943f 40b9 313e 67ed 89bd
000001c0: 9182 4ebf fff0 2cbf b590 413e f3a6 b33f
000001d0: 3b67 cabf 54d4 dc3e 7d67 303f 16fa 0d3f
000001e0: c30a 2ebf b34f a5bf c0a9 ea3e 81cb 1640
000001f0: 7d62 f0bf 69a2 7fbe 8e61 893f efaf 873e
00000200: 2f46 4fbf 2be0 743f 339c a73f 5ba9 8dbe
00000210: 001e 47c0 46ff ba3f 9c8d 3440 421c 153f
00000220: 3585 b1c0 b3b4 0e40 2b55 023f 307e dbc0
00000230: 9cef 1fc0 f9a5 fdbf 5f71 07bf b327 bac0
00000240: e0c0 0bc0 daab 4cbf b3a8 05bd 8e88 81bf
00000250: e3c8 d13f 3eb9 bdbe 2e8f 8bbf 95ce a6bf
00000260: df96 8640 8235 683f 570a a1c0 07c4 57bf
00000270: 958a 9e3f d18a f0bd 444c 98bf d264 32bf
00000280: 182f 1a40 9421 2e3e 09ab 35c0 e58c 2f3f
00000290: 3a8d b73e 910f e0bf df88 58bc ee41 eb3f
000002a0: 014d 0fbe cb8f 32c0 4d39 9abd cdb0 a53c
000002b0: 0dfa 883e 88c8 2b3f f226 fd3e 2341 5c3f
000002c0: 0043 403f 2036 873f 97c8 d8c0 b39a 82c0
000002d0: b53e 5dc0 551c 06be 2971 f23c 4eaf 7a3e
000002e0: 27a0 b73e f440 5f3f 8486 ebbf 94db 31c0
000002f0: 840f fc3f cc2e c6be 4edb 5e3d ae2c 8fbe
00000300: 34c5 f7be e9ff 813f 7bf4 c3bf e148 34c0
00000310: a074 e83f 2351 9ebf 71fd b73e bdcb 49bf
00000320: de71 9cbf a711 c7be f67b 043f 4b19 b3bd
00000330: 1247 0fc0 ace3 023f 7da4 843f 95c9 a53f
00000340: 555a 7d3f bb6c ddc0 10e1 cbc0 2657 d4bf
00000350: 5c16 993f ed95 39bf 80b4 80c0 7d38 f9c0
00000360: d116 87bf f17c 863d 60c8 fabd 03a0 e23d
00000370: d4c4 b13e 8e71 c03e 6dc6 d13e ebae c4bf
00000380: 227c 7fbd deda 993e 650b d93e 68e1 0b40
00000390: 6c65 80bf e585 86bf bacb 433f 3474 d83f
000003a0: cdfa b1bf d4c3 67c0 0958 db3f 08d0 b33e
000003b0: d872 783f b58c d8bf 41df 91be c6fc 0840
000003c0: 598f 4cbe 56cb 0bbf 0da5 07c0 efec ad3e
000003d0: 3a74 373c 56eb 21be 2d21 893e f1bc 4ebf
000003e0: a3b5 d43f 11e8 24c0 52dc 00bf 9b38 7bbe
000003f0: e4ce 09be bbee c6bb bb67 46bf ab1e 6fbf
0.45523313 0.24599388 0.54106474 -1.4616922 1.6556402 1.2107623 -1.0336423 -2.489761
2.5567234 2.8445132 -2.796289 -0.26247627 -0.9402948 0.3409122 1.0970492 0.02365011
-1.6226808 1.1527909 2.686645 0.22317532 2.3265135 0.5557222 -1.3638234 -0.08011734
3.2378614 1.1231846 -3.169338 -0.3044326 0.43660852 0.41449955 -0.7144016 -0.46550608
-4.747761 0.24138653 0.49512124 -4.202822 -0.7342674 0.0026307274 0.018670063 0.025423478
-1.2938404 0.039441388 1.5463022 0.1945291 -2.3290532 0.080147855 2.7768652 -0.65254176
-1.2765142 -0.14901067 0.93126595 -0.03723067 -1.5497756 0.6056449 2.7230866 0.39791915
-0.062722914 0.2054828 -0.6941912 -0.6629884 2.733062 -0.24240708 -0.43419382 -0.064839005
-0.11860247 0.47132087 -0.3982927 0.84665924 -5.0162477 -1.9410763 2.061966 -0.0432964
0.16419683 1.2238272 -0.8531682 1.087383 -0.99344 1.8492343 -3.272711 -2.1426892
2.3049235 -1.4103366 0.097504236 0.56013364 -0.89721143 0.8443861 -0.83593696 0.1637338
0.1809886 2.5403259 -0.46176603 1.4425176 -1.6593041 1.7888194 -0.23790513 0.014408357
-1.0119061 0.035405606 1.5543454 -1.1036204 -1.3778441 -0.60436046 -0.18756536 0.22911797
0.6571738 -1.4788723 -7.0869503 -2.9993534 -8.138444 1.1629378 0.17355824 -0.06734734
-0.8066798 -0.6755523 0.18902858 1.4035324 -1.5812753 0.43130744 0.6890791 0.55459726
-0.6798517 -1.2914947 0.45832634 2.356171 -1.8780056 -0.24964298 1.0732896 0.26501414
-0.80966467 0.95654553 1.3094543 -0.2766827 -3.111206 1.4609153 2.8211432 0.58246243
-5.5475106 2.229779 0.50911206 -6.8591537 -2.4989996 -1.9816276 -0.52907366 -5.817346
-2.1836472 -0.79949725 -0.032631587 -1.0119798 1.6389431 -0.3705539 -1.090307 -1.3031794
4.205917 0.90706646 -5.032512 -0.8428349 1.2386042 -0.11745227 -1.1898274 -0.6968509
2.4091244 0.17004997 -2.8385642 0.68574363 0.35849935 -1.750475 -0.013216226 1.8379495
-0.13994218 -2.7900264 -0.075304605 0.020225907 0.26753274 0.6710286 0.49443775 0.8603689
0.75102234 1.0563393 -6.774486 -4.081384 -3.4569523 -0.13096745 0.029594975 0.24480936
0.35864374 0.87208486 -1.8400426 -2.779027 1.9692235 -0.38707578 0.054408364 -0.27963775
-0.48392642 1.0156223 -1.5308985 -2.8169482 1.8160591 -1.2368511 0.35935548 -0.78826505
-1.222225 -0.38880655 0.5175165 -0.087450586 -2.2387128 0.5112865 1.0362698 1.2952143
0.9896596 -6.919523 -6.3712234 -1.6589096 1.1959949 -0.72494394 -4.0220337 -7.7881455
-1.0553838 0.065667994 -0.1224525 0.11065676 0.3472048 0.37586635 0.409717 -1.5365881
-0.06237424 0.30049795 0.42391506 2.1856327 -1.0030951 -1.0509611 0.7648274 1.6910462
-1.3904663 -3.6213274 1.7136241 0.35119653 0.9705024 -1.691794 -0.28490642 2.140428
-0.19976558 -0.5460714 -2.119449 0.33969828 0.011197144 -0.1581243 0.26783124 -0.8075705
1.6617931 -2.5766642 -0.5033618 -0.24533312 -0.13457829 -0.0060709394 -0.7750203 -0.9340617

FC1.bias f4 [256]
00000000: 3a51 d4be 1434 bbbe 08d6 8abf 3ed9 183f
00000010: 1616 073d c523 993f 8632 0e3e d32c f83e
00000020: b580 c0be 24fd 90bf ecc0 273c e5d8 60be
00000030: 5d39 8abf 76c6 123f 5b36 6fbe df1a 893d
00000040: 4631 edbe 6940 f0bf 9b7b a93f 6f0a 0d3f
00000050: 0d11 88bd d230 5fbf 263b cc3f 711f 3abf
00000060: 4a3b a3be 9603 59bd 41f4 40bf 9fac 843e
00000070: fce5 5cbf f23d 91be 1644 78bf 22a9 26bf
00000080: d312 c6bf 2105 0fbf 17ee 73bf 54b8 483f
00000090: 7b0c b8be 285d 8cbf d9d7 fdbe 3b1a 23be
000000a0: 842c aebe fb61 ccbe d072 99bd 78a2 b6bf
000000b0: 4565 0a3d 5b53 fdbd 66aa 9cbf f75c abbe
000000c0: 8162 233f 1d6b 9dbe 1f57 d33f ff4b 48be
000000d0: caf8 6fbf 1092 82bd 641a 873e 65a8 a4bf
000000e0: d668 de3e 391a 05bf 6c22 dc3e 8e84 df3e
000000f0: 4380 57be 5462 11bf 54f2 0f3d 5ab2 3e3f
00000100: 9672 813e 639e 8ebf c8ed d8be b18e 10be
00000110: ee7d bebe 16d3 acbd 6ab0 9abe 9203 acbe
00000120: aabd b23f ab78 3740 f313 44be 4310 cd3d
00000130: e647 3dbf ce8d 2bbe 8fa8 27bd 133a 593f
00000140: b38f 48bf a9a4 69bf 63fa 973e a68e 913d
00000150: 380c c3be a46f edbd 2b40 ecbe 9a72 663f
00000160: 4aac eebf 7746 043f 9d01 fc3c ab0e 44be
00000170: acfc 04be f7b9 e43f a6ab 52bf 8a0d 3a3e
00000180: c0a8 9dbf 38c3 3f3d 4c9f 08c0 427d 01c0
00000190: b7f7 e43e 928c f53e be83 52be f66e aebf
000001a0: 71a4 04be cb9a 99bd 4cda 55be 660f 7dbd
000001b0: aae0 dd3d 5403 953e fca1 a6be 8a79 97bf
000001c0: 5507 62bd ed52 a93c 7675 0fbf 4b85 fe3e
000001d0: 3bf3 5bbf ce80 cfbe e72c efbe 7b8d 8abe
000001e0: 7a22 5ebf 23cf acbf 9f7b 883e 8754 a63e
000001f0: 9bf9 c2bf c6b8 2abf afde c4bf caec 86bf
00000200: 4036 20bd 6298 2b3e 04ee 923d 6e4e 3f3f
00000210: 42aa e63e 55e9 1e3e e809 29bf 4653 b9bf
00000220: d88d eebe 2848 d0bd e63a 8abe 1c4a 2abf
00000230: 78c1 6dbe d7de 0b3e b293 52bf 4abf a93d
00000240: c504 50be 9933 45bf 7051 93be 4698 8d40
00000250: e2f7 59be 202b 56be 113c a03f b6c9 0abe
00000260: c84a bcbe 4b31 3bbe 6813 e13f d9aa 1ebe
00000270: 6d88 7ebe 84c0 503e d0c5 2a3f d1c2 0d3e
00000280: 4d41 11bf 789d df3f 81e7 d63f 7cff 8a3d
00000290: ae08 2e3e de23 353e a288 10bf c0e1 24bf
000002a0: 8071 073f 1731 b73e 9ea0 2cbf 4013 32bf
000002b0: 2818 8e3f c7a9 25bf 10d3 1f3f 7950 e2be
000002c0: 71a3 0fbf b00f 173e 9e36 aabf cf60 b3bf
000002d0: 09f1 c23e a482 853e 5b70 cbbf 12eb 20bf
000002e0: 8fca 9a3f 6174 a53e 951d e03e eb6b 47be
000002f0: 470e c83d c1c9 9abf 3430 d4be 9891 14be
00000300: 83cb 623f dd69 543e d461 cb3f 5db9 373f
00000310: 42a3 abbe 3dbf 2a3c 23e7 533f 7164 e53e
00000320: df29 a0bf fc2b aabe 62c4 43bd d581 8fbf
00000330: b54c 86bd 5bfe 603e d70e bd3f 5b86 8fbe
00000340: ff44 ad3e 0a39 293f 6220 62bf ec3a 163f
00000350: 45aa aabf ba9c 78bf 4ee1 2dbf 08ea c3be
00000360: 12ba bdbe 51ce 59bf 392f c43e 399d 073f
00000370: 88c3 51be 824a 8d3b b868 643d db1a d03f
00000380: 7df3 0cbf c31e 1ebf e920 b9bf df22 d2bf
00000390: 2d81 ddbe 1423 2dbf c734 c43f 8534 53bf
000003a0: 3ef4 34bf f529 4dbf ec3e 8abf efff 5a3f
000003b0: 02b6 8ebf 602c ff3e 6081 6b3f b725 f0be
000003c0: 76f4 ccbe fdb0 15bf 87af 0bbf 669c f73e
000003d0: be40 883f e023 50be d8f6 5dbe 2371 e23d
000003e0: 6192 15bd 9bd3 233e 716c 58be 4b53 12be
000003f0: d7e0 163d 509f c93f 5797 b7bf 61a0 5dbf
-0.4146822 -0.3656317 -1.0846567 0.59706485 0.032980047 1.1964041 0.1388646 0.48471698
-0.37598196 -1.1327252 0.010238867 -0.21957739 -1.0798756 0.5733408 -0.23360579 0.066945784
-0.46326655 -1.8769656 1.3240846 0.55094045 -0.06643877 -0.8718387 1.5955551 -0.72704226
-0.3188117 -0.052981935 -0.753727 0.2591295 -0.8628843 -0.28367573 -0.9697889 -0.65101826
-1.5474495 -0.558672 -0.9528517 0.7840626 -0.35947022 -1.0965929 -0.4957874 -0.15927975
-0.34018338 -0.39918503 -0.07492602 -1.4268332 0.033787984 -0.123694144 -1.2239501 -0.33469364
0.6382218 -0.30745783 1.6510962 -0.1956024 -0.93738997 -0.063755155 0.26387322 -1.286389
0.43439358 -0.5199314 0.42995012 0.4365582 -0.21045022 -0.5679066 0.03514321 0.7449089
0.25282735 -1.1142086 -0.42368913 -0.14116932 -0.37205452 -0.08438699 -0.30212718 -0.33596474
1.3964131 2.86674 -0.19148235 0.10012867 -0.73937833 -0.16753313 -0.040932234 0.8485424
-0.7834427 -0.91266876 0.29683217 0.07107286 -0.3809526 -0.115935594 -0.46142706 0.9001862
-1.8646328 0.5167002 0.030762488 -0.1914622 -0.12987012 1.7869252 -0.82293165 0.18169227
-1.2317123 0.046817034 -2.1347227 -2.0232701 0.4472024 0.4795881 -0.20558068 -1.3627613
-0.12953354 -0.075002275 -0.20884055 -0.061782263 0.10833867 0.29104102 -0.3254546 -1.1833966
-0.055182774 0.020669425 -0.56038606 0.4971107 -0.85918015 -0.40527958 -0.46713945 -0.27061066
-0.8677136 -1.3500713 0.26656815 0.32486364 -1.5232424 -0.6668819 -1.5380458 -1.0541012
-0.039114237 0.16757348 0.07174304 0.7472905 0.4505177 0.15518697 -0.6603074 -1.4478538
-0.46592593 -0.10170013 -0.2699806 -0.6651933 -0.23218334 0.13659225 -0.82256615 0.082884386
-0.2031432 -0.77031857 -0.2877307 4.424838 -0.21285966 -0.20914888 1.2518331 -0.13553509
-0.36775804 -0.18280523 1.7584047 -0.1549486 -0.2485673 0.20385939 0.6670809 0.13843848
-0.56740266 1.7469931 1.6789399 0.06787011 0.16995499 0.17689463 -0.56458485 -0.6440697
0.5290756 0.3577964 -0.6743258 -0.69560623 1.1101122 -0.64712185 0.6243143 -0.4420202
-0.56108767 0.14752078 -1.3297918 -1.4013919 0.3807452 0.26076233 -1.5893663 -0.6285869
1.2093066 0.32315353 0.4377257 -0.19474761 0.09768348 -1.209282 -0.41443026 -0.14508665
0.88591784 0.20743509 1.588923 0.71767217 -0.33522993 0.010421571 0.8277456 0.44803193
-1.2512778 -0.33236682 -0.047794707 -1.1211497 -0.065575995 0.21972029 1.4770154 -0.28032193
0.33841702 0.6610266 -0.8833066 0.5868366 -1.3333212 -0.97114146 -0.6792191 -0.3826449
-0.37056023 -0.8508044 0.38317278 0.5297428 -0.20484746 0.0043118605 0.05576393 1.6258196
-0.55059034 -0.6176569 -1.4463168 -1.6416892 -0.43262616 -0.6763165 1.5328606 -0.82502013
-0.70685184 -0.80142146 -1.0800452 0.85546774 -1.1149294 0.49838543 0.91994286 -0.46903774
-0.4003026 -0.5847319 -0.5456471 0.4836151 1.0644758 -0.20326185 -0.21676195 0.11056735
-0.03651655 0.1599869 -0.21135117 -0.14289586 0.036835518 1.5751743 -1.434306 -0.86572844

FC2.weight f4 [256, 256]
00000000: 1605 c0bd 732a e7bf 9208 7cbf 7c1e 953f
00000010: ac43 a93f 90d4 d2bc c601 e6be 31eb 98c0
00000020: 29fa 79c0 b996 c83f 760f 04bc 6543 403f
00000030: 9981 73c0 ca8a 703e 5aad f13f 5ab3 2740
00000040: 1c81 01c0 da4d 5c40 cd89 62c0 ab33 eabe
00000050: 1240 1f3d 5a0d 6740 3c46 0dc1 358b 0fc0
00000060: 6f14 cd3d 961a ecc0 8968 6fbf cc66 29c0
00000070: 98bc bb3f 81c1 1a40 3754 0c40 9cfe 1d3e
00000080: 75fa 34c0 9f14 08bf 0b45 013e 5603 c03f
00000090: 82e8 abbf c678 0040 138c b53e ee8e 4240
000000a0: 22dc a3be d649 713d 667e 04c0 8f77 01bf
000000b0: dc5e 2840 1e54 0fbe 6c38 46bf 590a a9be
000000c0: 8363 63bf 5e8c 953f 3a66 cabf 58b8 94bc
000000d0: 9819 7fbe 1398 17c0 fe6c ffbf 7470 26c0
000000e0: 5f0f cebe 9c11 e73f 489b 62c0 dfdf af3d
000000f0: e842 b33e 27e6 43bf e268 f4be 4baa 263f
00000100: e59e 78be ac18 7d40 13aa 3b3f 3ea4 23bd
00000110: 377d 7bbf 3d4d 94bd 97c4 15bf 0e08 41be
00000120: 3a78 5e3f 17d6 a0bf ec22 3b3f 7bfd 983f
00000130: 32c7 77c0 e4e3 23bf 48ea 04c0 c093 eb3f
00000140: 1fa2 3c3f ba73 bfbf 2541 0c3f 153e 973e
00000150: 539b 91be 2c7e a13f 8bb9 2a3f 50cd 66bf
00000160: 0e44 b23c 8b0e 1c3f fa76 5abc f801 2c3e
00000170: 482e c73e 299b d53d e5b1 2e3f cbc4 8d3f
00000180: 54bd b13f a4b8 7cbf 5a7f b63e 8d94 c6c0
00000190: 567b f6be 7639 1f3f 22fe 88bf 81bd 273d
000001a0: f24f 283c 5095 5b3f fdd9 b13f 95a6 253f
000001b0: cb3d 1d3f cfd5 abc0 bb3f cb3e e4d0 083e
000001c0: dbad f0bf cc02 b9be 73ce 0b40 7bab 92c0
000001d0: 6bc2 fd3f 714e 803f 6ef0 20bf f3f3 a93e
000001e0: a5aa 413d b193 09c0 0702 44bf 16aa 2dbd
000001f0: e21c fcbf 5d03 7fbf 7ebd 2440 7864 8a3f
00000200: 699e f43f c86b d83e 8a14 8c3f 91bd b43f
00000210: 032b 9d3f 5c38 2abf 57a9 243d 6673 a03f
00000220: cbf5 c4bf a3c7 a6bf 7e79 32c0 65cd c53e
00000230: 3e22 b2bc eb82 efbf d0a2 1440 967e 9cbd
00000240: e519 b6bf a48a e3bf 4de9 9c3e fd4e 0e3f
00000250: 5a80 8dbd 10b4 2140 7678 353e 758f c3bf
00000260: c1ff a3bf 73ae e1be 1070 2bc0 d246 15bd
00000270: 135c 8cbf 45d1 6640 306b 103c 0414 5ebf
00000280: d34b dc3f 54bc 53bf cf63 e3bd 8367 623e
00000290: f3ea 95bf b62e 443e 592e ec3e 9815 b4be
000002a0: 1fa3 a53f cad2 0fc0 1167 4940 67ad 08bf
000002b0: c89f 2ebf 959d a4bf 0c32 98bf 9119 7bc0
000002c0: bcfc 823e bcf4 09c0 64d8 a5be 5a29 513c
000002d0: 5453 e83e 4627 8c3e 2b0c d7be 3c11 d73f
000002e0: f415 ff3d 0581 133f 2af8 8c3f cdde 8cbf
000002f0: fdbc 253e cd65 14c0 9733 1540 9292 353e
00000300: ac4a 20be e4c9 173f feb9 39c0 a677 813a
00000310: d0b3 b13f c351 b93e c23d 7d3e 6696 22c0
00000320: f569 213f 4bf0 08c0 8875 53bc 4a8f 9cc0
00000330: 26be 64bf 3dad 31c0 e76c 13c0 4192 b3be
00000340: 1443 62be 25cf 79c0 20d2 e73e 15c1 60bf
00000350: c3bf 0b3f e178 f5bf 2ca7 90bf 4ce2 893e
00000360: 8106 dabc 8ebd 2abe 26fd b2c0 7543 363e
00000370: 314d 0ac0 0b4a e4bf 89a5 913f da95 ff3f
00000380: 517f 5740 bb8f 8cbd e7a6 663f 17ec a63f
00000390: c411 06c0 98e4 d3be 41d7 64bf 5b92 07c0
000003a0: 6e20 813f 82ec a3c0 7b60 e13f be6f 5ebf
000003b0: eee3 a8c0 b4bb e53f 9a97 4f3f e8d1 163f
000003c0: 29a8 653e 044e 8ac0 57a1 203f 8ad8 3640
000003d0: e692 973f b5b2 d93e c969 b53f c059 4b3f
000003e0: 79c7 5cc0 2bd0 ad3f ffba f2be 1721 4bbe
000003f0: 6ae4 9dc0 d54a 84bf 3ca4 efbf 97e3 30bf
-0.0937597 -1.805983 -0.9845058 1.1649928 1.3223777 -0.025736123 -0.44923228 -4.77871
-3.9058936 1.5670997 -0.008060327 0.75102836 -3.804785 0.23490444 1.8881028 2.6203218
-2.0235052 3.4422517 -3.5396607 -0.45742545 0.03887946 3.61019 -8.829647 -2.2428715
0.10013663 -7.3782454 -0.93518883 -2.6468992 1.4666929 2.4180605 2.19264 0.15429157
-2.8277867 -0.53156465 0.12623994 1.5001018 -1.3430331 2.0073714 0.3545843 3.0399737
-0.32003886 0.058908306 -2.0702147 -0.50573057 2.6307898 -0.13996932 -0.7742984 -0.33015707
-0.8882372 1.1683462 -1.5812447 -0.018154308 -0.24912107 -2.3686569 -1.9955137 -2.6006136
-0.40246102 1.8052249 -3.5407276 0.08587622 0.35011983 -0.7652306 -0.4773627 0.65103596
-0.24279363 3.9546309 0.7330639 -0.039951555 -0.9823794 -0.072412945 -0.585031 -0.18850729
0.869022 -1.2565335 0.7310016 1.1952356 -3.871533 -0.6401961 -2.0767994 1.8404465
0.7368488 -1.4957192 0.547869 0.29539552 -0.28438815 1.261663 0.66689366 -0.9015703
0.021760967 0.6095969 -0.01333403 0.16797626 0.38902497 0.10429985 0.68240196 1.1075681
1.3885903 -0.9871924 0.35644037 -6.2056336 -0.48140973 0.62197053 -1.0702555 0.04095221
0.010272967 0.8577471 1.389465 0.6470731 0.61422414 -5.3698497 0.3969706 0.13360935
-1.8803056 -0.36134946 2.1844757 -4.5834327 1.9824957 1.0023938 -0.62866867 0.3319393
0.04728188 -2.1496394 -0.76565593 -0.042398535 -1.9696314 -0.99614507 2.5740657 1.0811911
1.9110843 0.4226973 1.0943768 1.4120351 1.2278751 -0.6649225 0.040200558 1.2535217
-1.538751 -1.3029674 -2.7886653 0.38633266 -0.021744844 -1.8711828 2.3224373 -0.07641332
-1.4226652 -1.7776685 0.30646744 0.55589277 -0.06909247 2.5266151 0.17721733 -1.5278155
-1.2812425 -0.44078407 -2.6787148 -0.036444493 -1.0965599 3.6065228 0.008814618 -0.8674929
1.721064 -0.8270924 -0.11103021 0.22109799 -1.1712326 0.19158444 0.4612911 -0.35172725
1.2940406 -2.2472405 3.1469157 -0.5338959 -0.68212557 -1.286059 -1.1890273 -3.9234354
0.25583446 -2.1555624 -0.32391655 0.012766207 0.45376074 0.27373713 -0.4200147 1.6802135
0.12455359 0.57618743 1.1013234 -1.1005493 0.16185375 -2.3187134 2.3312738 0.17731693
-0.15653485 0.59292436 -2.901977 0.0009877577 1.3883 0.36195192 0.2473059 -2.5404296
0.630523 -2.1396663 -0.01290644 -4.8924913 -0.89352643 -2.7761986 -2.3035219 -0.3507252
-0.22095901 -3.903268 0.452775 -0.8779462 0.5458948 -1.9177514 -1.1301017 0.26930463
-0.02661443 -0.16673872 -5.593402 0.1779917 -2.1609614 -1.7835096 1.1378642 1.9967606
3.3671458 -0.06863352 0.9009842 1.3040799 -2.0948343 -0.4138534 -0.8939095 -2.1183078
1.0088022 -5.1226206 1.7607569 -0.86889255 -5.2778234 1.7947907 0.810907 0.5891404
0.2242743 -4.3220234 0.62746185 2.8569665 1.1841705 0.42519155 1.4172908 0.7943382
-3.4496748 1.3579153 -0.47408292 -0.19836842 -4.9341326 -1.0335337 -1.8721995 -0.69097275

FC2.bias f4 [256]
00000000: 71b3 29bf 6831 a3bd 5864 80bf 295b 8bbe
00000010: 263b 03c0 791d abbf 1282 4abf 0c64 c8be
00000020: d28f c2bf 3966 e6bf 294a 86bf 7ed6 dbbd
00000030: 072c 0cc0 32d3 81bd e98b 0ec0 a1b2 aabf
00000040: f351 42bf 4364 5dbe 82ce f8bd 3af9 eebf
00000050: 5cd8 b3bf dda3 b5be 5b0f 803f dcaf eabf
00000060: fb72 8c3c 3400 34be 524b 523e 8abe 5cbd
00000070: d4de 86bf 128c 71bf 1b43 2cc0 b661 9dbf
00000080: f6f3 e9bf b17f cbbd a463 b6be e8db 9fbf
00000090: f64c febd 7951 09bf 9dd1 1bc0 1b5d 3d3f
000000a0: 1a3c 3fbe 20a0 08c0 fb0a 853f 4a6f 14bf
000000b0: 2b5c f0be abb8 e9bf 104b bbbf 715b 1d3f
000000c0: bca6 86be 3dbe 19c0 a655 febe 1aa5 82bf
000000d0: b464 21bf fff4 17bf 7e75 dabf 282a 05be
000000e0: d669 fbbe 2ce6 ddbe add5 8fbf dfe8 7dbe
000000f0: a849 2ebe 873a 17be 27cf 9abf 9b4f 6bbe
00000100: 0c85 313f ea46 3bbf 4534 3e3e ff79 adbe
00000110: b0ba babe 2c6e 05be 4007 83bf b4b9 62bf
00000120: 64d0 84be 653f 36bf deb1 f73d 580b 863e
00000130: c1c4 14c0 379d 07bf 7b86 76bf 89c3 77bf
00000140: 7275 d1be ee7f b8bf 1883 afbd f75d 5fbe
00000150: ca80 16be 7aa3 34c0 69f5 8cbf f42f 27be
00000160: 2b3f 16bf c4d7 bd3f f701 d1bf f215 51bf
00000170: f5f0 26bf 2f0d 1ac0 e47e aebf 9e47 88be
00000180: b748 9fbf 9ae0 86bf 44a6 97bf a218 f3bf
00000190: d3b2 80bf da32 82bf b602 41be 6913 95bf
000001a0: a394 94bf ff0a 77bf 1f26 be3f e295 0a3e
000001b0: 2992 f3bf 2d93 a3bc c042 49be 200a 043f
000001c0: e26d 97bc df05 823e 2df7 aabe df89 c5bf
000001d0: ae37 8bbf bda7 82bf 4af6 ddbf 6b9a 7ebf
000001e0: d68f 6fbd be57 94bf 6277 a33e 5b8c 4ebf
000001f0: 9d6f a0bd a7a9 a73d becd 4abe 07bd d9be
00000200: d694 3ebf 519c dbbf c9b6 38c0 f0b4 26bd
00000210: 03e3 e2be 39c1 49bf 842d 9bbf 2aaf 94bf
00000220: 3d79 03be 2a92 b83f fa45 18c0 dd69 d5bd
00000230: def9 a4bf 6deb c1bd 7aba 503e e59f 9dbe
00000240: 9305 79bf ae53 84bf b578 cabf e627 b5be
00000250: fbdc 1ebf ab64 29c0 a6b5 f1bf 9dde 1bbf
00000260: 0d6f c83e 902f 05be b568 283f 90e4 4fc0
00000270: eff5 dabf a7ba 0ec0 eed5 f7bd 75cf 88be
00000280: db97 9bbe eb31 f33e 83ce febf b75f 9c3f
00000290: 5497 88bf 92c6 47bf 3afc 5fbf 57de 99bf
000002a0: 7418 0cbf a6b8 92bf 809c efbf 4ff5 bebf
000002b0: b42c babf 3b71 02c0 7c36 fabf dcbf 3dc0
000002c0: ee5e 93bf 0c5c b9bf 1283 a1bf 08ce 583f
000002d0: 9154 43bd b771 91bf f317 31bf a159 55bf
000002e0: 9341 e43f 6faf d1bf e512 0dc0 fde8 fc3d
000002f0: 75f3 50be d532 45bf 4dda fdbf 22a6 2ec0
00000300: fb96 953e 964f 8bbf fd12 02bf c118 60bd
00000310: dad1 00bf 031d f3bf 3815 9dbe cb72 10c0
00000320: 6e66 33bf 1ff0 73bd c9f6 55be 5ea9 e8bf
00000330: 8b67 9fbf c6b8 4b3e 5551 edbf 50d6 f9bf
00000340: 84e4 a5be 8414 cb3f 26b3 a1bf e954 6fbf
00000350: 2520 fa3e 5219 a0bf 6dce 9cbf d693 11c0
00000360: 0f10 62c0 73d1 d63e 012f f5bd 39e1 56c0
00000370: 3fd4 c1bf a99d 65bf 0ea0 88bf 84ea 27be
00000380: c672 053d 0c29 983e 9d6c afbf 1b1f c8bf
00000390: 679f f0bf 025f 01c0 7356 333e 1fb2 d1bf
000003a0: d45b 16bf 66d2 d6be 8d76 d03d 9a9f 69bf
000003b0: 6fe2 f8bf 918b 9bbf dfd4 14c0 9ee7 adbf
000003c0: c814 d6bd f532 bdbf 95be d9bf 22e0 363f
000003d0: c119 f4bf 646a 35bf 3597 debd d2ea 96bf
000003e0: 5cd9 1ac0 d7cb 09be dc7a bdbf b308 f9be
000003f0: ae4c 90bd f69d 56be a4aa 8bbe d42d e0be
-0.6628943 -0.07968408 -1.0030622 -0.27217987 -2.0504851 -1.3368369 -0.7910472 -0.3913883
-1.520014 -1.7999946 -1.0491382 -0.107342705 -2.1901872 -0.063391104 -2.2272894 -1.3335763
-0.75906295 -0.21620278 -0.12148763 -1.8669808 -1.4050403 -0.3547658 1.0004686 -1.8334918
0.01714467 -0.17578202 0.20536545 -0.05389265 -1.0536752 -0.94354355 -2.6915958 -1.2295444
-1.8277576 -0.099364646 -0.35622895 -1.2488985 -0.12417023 -0.5363994 -2.4346688 0.7397019
-0.1867527 -2.1347733 1.0393976 -0.57982314 -0.4694532 -1.8259481 -1.4632282 0.61467654
-0.26299083 -2.4022362 -0.4967472 -1.0206635 -0.63044286 -0.5935821 -1.7067106 -0.13004363
-0.49104184 -0.4333967 -1.1237084 -0.24795865 -0.17020285 -0.1476842 -1.2094468 -0.22979586
0.6934364 -0.7315508 0.18574627 -0.33882138 -0.36470556 -0.13030308 -1.0236588 -0.8856461
-0.2594024 -0.7119048 0.12094472 0.2618053 -2.324509 -0.52974266 -0.9629895 -0.9678274
-0.40909916 -1.4414041 -0.08569926 -0.21813188 -0.14697567 -2.8224778 -1.1012393 -0.16326886
-0.58690137 1.4831471 -1.6328725 -0.8167411 -0.6521142 -2.4070547 -1.3632474 -0.2661714
-1.2444066 -1.0537293 -1.1847615 -1.8991892 -1.0054573 -1.0171769 -0.1884869 -1.1646549
-1.160786 -0.96501154 1.4855384 0.13533738 -1.902898 -0.01996764 -0.1965437 0.5157795
-0.018485013 0.25395104 -0.33391705 -1.54327 -1.0876367 -1.020744 -1.7340786 -0.99454373
-0.058486782 -1.1589277 0.3192702 -0.80682915 -0.078337885 0.081866555 -0.19805047 -0.4252703
-0.74445856 -1.7157079 -2.8861563 -0.0406999 -0.4431382 -0.7881046 -1.2123265 -1.1615956
-0.12839217 1.4419606 -2.379271 -0.104205824 -1.2888753 -0.09468732 0.20383635 -0.30786052
-0.9727413 -1.0338037 -1.5818087 -0.35382003 -0.6205594 -2.6467693 -1.888356 -0.60886556
0.39147225 -0.13006425 0.6578477 -3.2483253 -1.7106303 -2.2301424 -0.12101351 -0.26720777
-0.30389294 0.47499022 -1.9906772 1.221671 -1.0671182 -0.7803737 -0.8749424 -1.2020978
-0.5472481 -1.14626 -1.8719635 -1.4918612 -1.4544892 -2.038161 -1.9547877 -2.9648352
-1.1513345 -1.4481215 -1.2618124 0.8468938 -0.04768807 -1.1362828 -0.6917717 -0.8333989
1.7832512 -1.6381663 -2.2042782 0.123491265 -0.20405371 -0.7703069 -1.9832245 -2.72889
0.2921675 -1.0883663 -0.50810224 -0.054711107 -0.5032021 -1.8993229 -0.3068025 -2.2570064
-0.7007817 -0.05955517 -0.20894922 -1.8176687 -1.2453474 0.19894704 -1.8540446 -1.9518528
-0.32400906 1.5865636 -1.2632797 -0.9348894 0.4885265 -1.2507727 -1.2250496 -2.2746482
-3.5322301 0.41956672 -0.11971856 -3.3574965 -1.5142897 -0.89693695 -1.0673845 -0.16398054
0.03258016 0.29718816 -1.3705021 -1.5634493 -1.8798646 -2.0214238 0.17513447 -1.6382483
-0.5873387 -0.41957396 0.10178862 -0.9125916 -1.9444102 -1.2151967 -2.3254926 -1.3586309
-0.104531825 -1.4781176 -1.7011286 0.7143575 -1.907036 -0.70865464 -0.10868684 -1.1790411
-2.4195166 -0.13456665 -1.4803119 -0.4863945 -0.070458755 -0.20958695 -0.27278626 -0.43784964

action_out.weight f4 [5, 256]
00000000: f9c7 0a40 e13f 83bd 15bc 0540 b8ca 833f
00000010: e62f d5ba 8558 70c0 8060 b8bf b56a 913f
00000020: 61c0 68bf 61a1 d33e da9d 2140 7ef9 0d3f
00000030: 163c b2bf 853f 23bc 2355 1b40 f2d0 073e
00000040: 1afa 4640 c7c6 823d a046 d73e 766d e43f
00000050: 47f0 89bf c257 ae3f e884 ce3f c66e 9240
00000060: dae9 1ebc 3690 ef3f 1800 0f3f 5a4f 313f
00000070: 41d1 0740 8e0a bbbf 90ab e43e 1e3c 8e3f
00000080: f1b0 443f 7739 ed3c 4176 5e40 6d50 1a40
00000090: d598 65bd 11e2 19bf 521d 9d40 a21e 3140
000000a0: 88b2 1340 e9d0 0f3e 7fb2 d03f f05e d53f
000000b0: 303f d43f c6e7 18bf fd47 163f b605 593f
000000c0: 065f 1240 b9e0 e23e 2b95 8e3f e032 0040
000000d0: 21f7 e63f c06b 4240 c4ef 9740 fbeb 61be
000000e0: 8baa e53f 31f4 423f 88e3 8a3f 0ce0 533f
000000f0: 1a64 ee3f aeec ef3f 41a3 02bd a340 dd3f
00000100: b4e7 5040 6d0a 34bf 1b20 3140 fca0 863f
00000110: bc51 0040 a215 ce3f 656b 943f 10ee d23d
00000120: 2b3f ee3f 5c45 9d3e 241a 12be 50a8 0940
00000130: b19b 3a40 51dd 90be 37bd 5e3f d119 b73f
00000140: de78 4fbf 9e80 983f 18b4 c93e c3ef 9b3f
00000150: 96e9 b23e 7633 39bd 048d 8b40 4243 953f
00000160: 978f 9a3e d978 2f40 33f3 aa3f 4965 b33f
00000170: 26f9 0940 eac4 d13f c2bf 603f 35b6 843e
00000180: 147b 3940 7548 323f d15c 81bf 0a3a e23f
00000190: 0654 a8be 5301 573f 9c55 e43f 1fdb 2240
000001a0: 023b f63f 86a4 7dbe b0e2 b63f 02b4 0b40
000001b0: 7eab f33e 4461 843e caee b43e 8726 823f
000001c0: cfc1 523f 912a fc3f 63de fe3f 9f4b 1340
000001d0: 0dbe 07bc 6dc3 1840 7b47 33bf e600 e13f
000001e0: e8fc 8f3c c28f c03f b069 803f e591 2440
000001f0: e53d 823d d353 0a40 e37f c53e f1e2 133f
00000200: dd6a 8740 4e30 1e40 a091 82bf 1fd7 a1bc
00000210: c11c 1340 14e1 a8bd c81b 22c0 88ce 673f
00000220: 1813 b33f 1f5c c93f 1439 bf3f 3f8d 843e
00000230: d377 c73e 541c f23e b3b7 0140 acf4 e93f
00000240: 989f 8ec0 4976 3040 be46 75bf fe89 cb3f
00000250: 0d00 0840 d700 2940 8e57 113f fb15 81bf
00000260: 84c6 2840 e44d be3e 6eda cf3f 825e 0c3f
00000270: 1f3b dabe 21f9 3840 60c1 1e3f d33a 00bf
00000280: fed0 4c3f b6b3 1a40 1749 0f40 e874 853f
00000290: 3a97 8d3f 1770 e8be dc79 e33f a17f c73f
000002a0: 9a4d 883f 7234 903f 29ab 183f 0039 c73f
000002b0: fbd6 993f 06b0 72bf c7c2 1dbf 80c5 d23e
000002c0: 10b7 3340 7127 3a40 f069 ccbf 8bea ba3f
000002d0: de0d a1ba e6d4 89bf dc5e 0440 d0a5 b93f
000002e0: c3b1 2540 6445 0640 962a 3cbe 5243 0240
000002f0: 8b90 763e b64e 9d3f e2ee 813e a95d 8b3f
00000300: d108 da3f e6ea 33bf 12d8 a23f 9ec1 8bbc
00000310: ee9e 74c0 7a54 88be 5464 2940 2951 82c0
00000320: 7c1a 703f add0 10bd e3d2 123e cb45 1f3f
00000330: 92bb 4ac0 a0ce d53f ff0d 5fc0 1a2b 0d40
00000340: f77d 03be f565 1640 4fc0 ea3e d1c3 0d40
00000350: c9c2 493f f9ad ac3f b5d1 2440 feca d3bf
00000360: f731 18bf 0259 b33f 9d36 19bd 0951 1bc0
00000370: ad39 0dc0 2572 86bf a33a dd3f 1dac 503e
00000380: 0a64 bdbc b595 a3bf a41f 2bbf d575 753f
00000390: effd dbbf cd4f dc3f fe24 2340 60c0 7a3f
000003a0: 7760 1640 22a1 f63f 7f0f d73f b4ea f53f
000003b0: 5891 f33f 412c c53f ef82 d1be b3cb 903f
000003c0: 79e4 0e3d 4834 933f f1b8 dcbf 3bc1 a63f
000003d0: ddc8 09c0 b6f0 933d 4917 953e 7811 3a40
000003e0: 8c97 903f ab08 6f3d de64 1840 aa28 1640
000003f0: 4a0a 1e3f 74ea be3d eb7c a23f 1a6a 0f40
2.1684554 -0.06408668 2.0896046 1.029624 -0.0016264885 -3.7554028 -1.440445 1.1360689
-0.90918547 0.4133406 2.5252595 0.5545882 -1.3924587 -0.009963875 2.4270713 0.132633
3.109015 0.0638557 0.4204607 1.7845905 -1.0776452 1.3620532 1.613431 4.576022
-0.009699309 1.8715885 0.5585952 0.69261706 2.1221468 -1.4612596 0.44662142 1.1112096
0.7683249 0.028958065 3.4759676 2.4111588 -0.056053955 -0.60110575 4.909829 2.7674947
2.3077717 0.14044537 1.6304473 1.6669598 1.6581783 -0.5972866 0.58703595 0.8477434
2.2870498 0.44312075 1.1139272 2.0031052 1.8044168 3.0378265 4.7480183 -0.22062676
1.794267 0.76153857 1.0850687 0.82763743 1.8624299 1.8744104 -0.031893972 1.728535
3.264142 -0.7032841 2.7675846 1.0517879 2.0049887 1.6100352 1.1595274 0.10299313
1.8613027 0.3071698 -0.14267784 2.150898 2.9157526 -0.2829385 0.8700747 1.4304754
-0.81043804 1.1914251 0.39395213 1.2182544 0.34943837 -0.045215093 4.360964 1.166115
0.30187675 2.741751 1.3355469 1.4015285 2.1558318 1.6388218 0.877926 0.25920263
2.898137 0.6964181 -1.010645 1.7673962 -0.32876605 0.83986396 1.7838626 2.544624
1.9236758 -0.24769792 1.428793 2.1828618 0.47591776 0.25855458 0.35338432 1.0168008
0.8232698 1.970049 1.9911617 2.3014905 -0.008285058 2.3869278 -0.70030946 1.7578399
0.01757665 1.5043871 1.0032253 2.5714047 0.06359462 2.1613662 0.38574132 0.5776816
4.231795 2.4716983 -1.0200691 -0.019755898 2.29863 -0.08246055 -2.5329456 0.90549517
1.3990202 1.5731238 1.4939294 0.25889012 0.38958606 0.47287238 2.026837 1.8277793
-4.4569817 2.7572196 -0.9581107 1.5901487 2.125003 2.6406763 0.5677422 -1.0084833
2.6371164 0.371688 1.6238534 0.5483171 -0.4262323 2.8902056 0.62013817 -0.5008976
0.80006397 2.4172187 2.238836 1.0426302 1.1061776 -0.45398018 1.7771564 1.5585824
1.0648682 1.1266005 0.5963617 1.556427 1.2018732 -0.9479984 -0.6162533 0.41166306
2.8080482 2.9086573 -1.596983 1.4602827 -0.0012287458 -1.0768096 2.0682898 1.4503727
2.5889747 2.0979853 -0.1837562 2.035359 0.24078576 1.2289646 0.25377566 1.0887958
1.703394 -0.702803 1.272219 -0.017060097 -3.8222003 -0.2662695 2.6467485 -4.0724072
0.9379041 -0.03535526 0.1433826 0.6221587 -3.1676984 1.6703682 -3.4852293 2.2057557
-0.1284102 2.349973 0.45849845 2.2150767 0.78812844 1.3490592 2.5752995 -1.6546323
-0.5945124 1.4011538 -0.0374056 -2.426821 -2.2066453 -1.0503584 1.728352 0.20378156
-0.023118991 -1.2780062 -0.66845155 0.9588292 -1.7186869 1.7211853 2.5491328 0.9794979
2.3496377 1.9267924 1.6801604 1.9212251 1.902873 1.540413 -0.40920207 1.1312164
0.034885857 1.150033 -1.724394 1.3027719 -2.1528847 0.07223646 0.29119328 2.9073162
1.1296248 0.058357876 2.3811564 2.346232 0.6173445 0.09322062 1.2694372 2.240851

action_out.bias f4 [5]
00000000: 50d0 d2bd 29bd e6bf aac5 9f40 8ff1 eb3f
00000010: 903b 3840
-0.10293639 -1.8026477 4.992879 1.8433093 2.8786354

weight f4 [256, 123]
00000000: 0bac 40c1 44cd 94be 528d e1bd 248d 95be
00000010: c878 fdbd cfab a1be 99d7 93be cb39 fdbc
00000020: 2ebe bf3f 87cb 913d 8a32 583d 6dea 7c3d
00000030: f9d4 233e e9f3 fabc 12db 28be 0875 edbf
00000040: d1c3 fbbe fb1d 87bf 7e8b 5ebf 48c9 9bbe
00000050: 0255 3fbe 48bc 84bf 6690 cd3d 52ff 6a3f
00000060: 0b50 7fbf f4e3 a0bf 02fd 61bc 02d8 bfbf
00000070: 3a54 1b3d 30c4 52be 1fe1 7abd fdaf 98be
00000080: da9f c3bf 504e 6dbc d884 d5bc 6837 1fbf
00000090: 35a8 41c1 e42d 253e 9f00 ef3d 2ddc ddbe
000000a0: 7b08 adbc a1d9 b3be 852b a4be e0b8 973f
000000b0: 2d23 2d3e 3ab6 683f 0583 6c3f 6db8 7b3d
000000c0: 79ce 163e a981 dfbb 4c8a 65be 1401 bfbf
000000d0: e46f f83f 4c43 eb3c a5ee 823d d884 d3be
000000e0: 84da 1ebe e9bb 7bbf 6cc9 823e f82e ef3f
000000f0: bea4 b7bf 9bcb f83d 8cca c83e f066 b4bf
00000100: 9740 7abe 174e 0a3d 183b 9cbe 3625 84be
00000110: 16e1 5dbd e437 c2bf 6115 9d3d a716 cd3f
00000120: 1b54 40c1 861f 99be e9a5 1cbd 445d a1be
00000130: 2beb ebbc 22bb c2be 8d06 ccbe d29b 8e3f
00000140: 6e4c 08bf 164b a03f fbe4 1a3e a0b4 0f3e
00000150: 3fec 053e bedb 0abd 5e67 8ebe 431b b2bf
00000160: 3f86 973e e9cb 093d 826f 08bf 293b a3be
00000170: 4a27 08bd dc8c 81bf e5eb 733e 48e0 5340
00000180: e611 10c0 6090 d5bc 065b 1f3d 289b b2bf
00000190: be9c cebd d29a 49bd 5db6 99be 111b 35be
000001a0: e0b4 f1bb 70ce f6bb f075 babf f7fd 05c1
000001b0: f94b a03e 4e2c d53e de5b c7be e379 c43e
000001c0: 6d76 19bf ba9f 1d3e b2e5 a1bd 29d2 a13e
000001d0: 47ef 44bd 31b2 973d 9417 66bd ac19 68bc
000001e0: f114 4c3d 6040 933d 7e97 17bd f3fd 4340
000001f0: b979 25be f8e7 e43d 7a47 60bd 22b2 9f3d
00000200: ce63 20bf 5608 423f 338d 2240 7332 0ec0
00000210: 1eb1 a5bd 30fa 153c 8bb4 1a3f 1b0c 81be
00000220: ffdf 40c0 4713 02bf a28e f73f 6dbb c63e
00000230: b6cf 1e3f 9bce e03c 8868 e4be 2537 103e
00000240: fa05 27bf 9e75 82be a18e 5ebf 29cc 4ebf
00000250: a744 2e3e 9a2a b1bd ae08 01be 1ac4 21be
00000260: d126 b2bc c467 653e 86d0 efba 528f 12be
00000270: b27f 7d3d 9500 813d e1ba 0540 9770 4740
00000280: 15c9 303f 9e7c adbe 8609 6abd bca2 023d
00000290: 1614 22bf b844 263f 5c0b 3a3e 1f1b 87bf
000002a0: 6c15 2fbf 2bfc 6f3d 95a5 413f 0ecc 9bbe
000002b0: bd01 44c0 713d 01bf ca7e 8440 ca4e 44bf
000002c0: f0d1 b23b ad15 0abd 2245 c4be 69ec 1d3e
000002d0: 7c6a 0dbf 1845 ccbe 9f84 92bf d3bd a4bf
000002e0: b8b8 acbe 302e a83d f67a 24be 45cf bd3d
000002f0: e052 0e3e 435c ddbc a059 42be c52d b43d
00000300: c2ff 4ebe c29f 2e3d 9c36 2240 db87 4540
00000310: c7e5 0abf 3d8d 4d3e 45bb 4ebe 3e92 233d
00000320: 9e06 34bf a802 473f eb70 7f3e feb1 b9be
00000330: 8a5f 88be 6444 d0bc e398 323f b6cd b6be
00000340: cd40 44c0 83f2 04bf 090c 833f 20c2 4e3e
00000350: 1085 833e e113 3ebe bdc9 ffbe c399 2d3e
00000360: 5823 00bf a934 7fbe 3498 54bf 0032 34c0
00000370: 0030 d23a 354a 9c3d 8c5b 11be 05f6 333e
00000380: 4469 0bbd 5d00 0c3e 534b 61be be62 333d
00000390: 1794 873d f0c1 3cbe fa22 1a40 a2fc 083d
000003a0: bdfa 0cbd 08e8 9c3d 77ae b23d e562 7bbe
000003b0: 4dda 02be 5e2a 18be 11a9 1c3d ba9b 8dbd
000003c0: f15a 53bd 1a43 40bb 0c04 f53d 7e6f 443c
000003d0: e743 debd 8dcf bcbc f257 50bd 1b06 dabc
000003e0: e80c 6e3d ff12 943d 095e 06bc 0130 46bd
000003f0: 8728 093d 6fc9 f7bb 34a8 9b3d 627e 533d
-12.042003 -0.29062855 -0.11013283 -0.29209244 -0.12376553 -0.31576392 -0.28875425 -0.030911347
1.4979913 0.07118898 0.052782573 0.061747003 0.15999211 -0.030633884 -0.16489819 -1.855134
-0.49172834 -1.0556024 -0.869316 -0.30427003 -0.18684772 -1.0369959 0.100373074 0.9179584
-0.9973151 -1.2569566 -0.013793232 -1.4987795 0.03792212 -0.20582652 -0.06124985 -0.29821768
-1.5283158 -0.014484003 -0.026064321 -0.6219392 -12.103566 0.16130787 0.1167004 -0.43332043
-0.021122208 -0.35126975 -0.32064453 1.1853294 0.1690795 0.90903056 0.9238742 0.06145518
0.147272 -0.0068208766 -0.22416037 -1.4922204 1.9409146 0.028718613 0.06393174 -0.4131229
-0.15513045 -0.98333603 0.25544298 1.8686209 -1.434715 0.1214821 0.3921703 -1.4093914
-0.24438702 0.03376588 -0.30513835 -0.2580964 -0.054169737 -1.5173306 0.07670093 1.6022538
-12.020534 -0.29906863 -0.03824416 -0.3151647 -0.02879866 -0.38033396 -0.39848748 1.1141303
-0.5324162 1.2522914 0.15126412 0.14033747 0.13078402 -0.03390097 -0.27813238 -1.391457
0.2959461 0.03364173 -0.5329515 -0.31881073 -0.033240594 -1.0121112 0.23820455 3.310564
-2.2510924 -0.02606982 0.038905166 -1.39536 -0.1008849 -0.049219914 -0.30021945 -0.17686106
-0.0073762983 -0.0075319335 -1.4567242 -8.374503 0.31307963 0.41635364 -0.38937277 0.38374242
-0.5994633 0.15392962 -0.07905139 0.31605652 -0.048079755 0.07407034 -0.05617483 -0.014166277
0.04982466 0.07190013 -0.03700971 3.0623748 -0.16159715 0.11177057 -0.054755665 0.07797648
-0.6265229 0.7579397 2.539868 -2.2218292 -0.08090423 0.009153888 0.60431737 -0.25204548
-3.0136716 -0.50810665 1.9340403 0.3881487 0.6203569 0.027442267 -0.44611 0.14083536
-0.65243495 -0.2548036 -0.86936384 -0.80780274 0.17018376 -0.08650704 -0.12600967 -0.15797463
-0.021747025 0.22402865 -0.0018296398 -0.14312485 0.061889358 0.06298939 2.0895312 3.116247
0.69056827 -0.33884138 -0.05713799 0.031893477 -0.633119 0.64948606 0.18168396 -1.0555152
-0.6839206 0.058590095 0.75643283 -0.3042912 -3.062606 -0.5048438 4.140477 -0.7668272
0.0054571554 -0.033712078 -0.38333994 0.15422215 -0.5524061 -0.39896464 -1.1446723 -1.287043
-0.3373468 0.082119346 -0.16062531 0.09268049 0.13898802 -0.027021533 -0.18979502 0.08797792
-0.20214751 0.042632826 2.534583 3.086417 -0.5425686 0.2007341 -0.20188625 0.03993439
-0.703226 0.7773843 0.24945419 -0.3626861 -0.2663539 -0.025423236 0.69764537 -0.3570382
-3.0664551 -0.51932544 1.0238048 0.2019124 0.25687456 -0.1856227 -0.49958602 0.16953187
-0.5005393 -0.24922432 -0.83044744 -2.8155518 0.0016036034 0.07631341 -0.14195079 0.17574318
-0.034035936 0.13672014 -0.2200139 0.04379534 0.06620043 -0.18433356 2.4083848 0.033444054
-0.03441881 0.07661444 0.08724683 -0.24549444 -0.12778588 -0.14859912 0.03824717 -0.06914468
-0.0516004 -0.002933687 0.119636625 0.011989472 -0.10852795 -0.023048187 -0.05086512 -0.02661424
0.058117777 0.07230186 -0.008201131 -0.048385624 0.033485916 -0.0075618546 0.076004416 0.0516342

bias f4 [256]
00000000: 36e9 babf feed 7dbe 44d9 cdbd 54b6 b03e
00000010: fb04 6ebd 3bdd 153b 5d0c 5fbe f097 873c
00000020: f526 e3be e62d 0bbe 18fd 1bbd 54d0 c9bf
00000030: 1bb7 7cbe 6913 21bf 4cf4 d8bd bc51 9abd
00000040: cfbc d9bc 9167 f6bd 47fd 5d3d fb40 88bd
00000050: a0a7 12c0 aa21 d5bf 59e0 a2bb c27d 51bb
00000060: ef6b e0bc 6198 b3bc 400b e9bd 9a4a 07bf
00000070: 0b6b d8bc 83fa 20bf 3652 7d3e a26a 95bd
00000080: f739 c4bc 7a51 e7bd 6ec3 05bd d3a7 8abd
00000090: 4033 07c0 a707 e4bd d26e d1bd a3f2 37be
000000a0: dde3 1e3d 258a eebd a33d 273d 2fa0 9f3b
000000b0: 9c4a 4d3f 49bb 873d 15da 92bf f9d3 dbbd
000000c0: 09df bebc 6949 72bd c683 d0ba b262 d8bf
000000d0: b388 f6bd 7ef5 42be 2538 91bd d99c 85bf
000000e0: a71d 28be c2b3 64bd 9153 8b3e fe3b 30bd
000000f0: ea30 683f 627c ccbd 1279 89bd 0941 31bd
00000100: ae10 85bd 5844 73bd 965c f33e 4a63 293e
00000110: 2938 163d 1149 34bd 757f 843e 85fa e3bc
00000120: 5f58 63bf f059 1bbd c57c e43f 1c2b d33c
00000130: 0e7c 453d 4c00 82be b4a0 2b3c 60c2 cabe
00000140: d799 023d 1d35 c3bd 500f 6bbe 369a 74bd
00000150: 756a 10bc 0cef 6dbf 8c50 44bd 258f c0bd
00000160: ef78 93bd 9f25 633c f2c8 d53e 1b58 983c
00000170: 60d8 d0bd ddae ddbf c36f b13b 4495 b6bc
00000180: fd37 bf3b 553f f0bd 0fb2 17be 50f2 acbf
00000190: a7f3 edbd 4068 5abd 6633 87bd be8a f9bd
000001a0: 3e22 7fbf fae5 e4bf d675 3cbc e609 3d3d
000001b0: bc04 13bc f31d 5ebb 4133 81bd ba39 e6bd
000001c0: 643b 93bd b7e7 d9bd 758e 8bbd 0131 6fbd
000001d0: eb06 b9bc b97a f53c 7cc5 b7bd 9194 81bd
000001e0: 3990 8fbd 6fef 04be 9119 b6bd a321 b0bc
000001f0: 6e01 cfbd de48 04bf 9b09 91bd 675c 1cbb
00000200: f585 00bd 9ad3 e1bf 48ff 37be 430d e9bd
00000210: cc3b aebd b816 c4bf ee7f 29bd 31b8 9dbf
00000220: 9d0a 8cbd ce1d b0bd b4b5 bcbd a8c8 a8bf
00000230: 4883 4dbd 60ce c2bd bd69 0bbe 54e6 06be
00000240: 13a9 9ebd 7640 1dbf 4e6c 06be f98b 5cbe
00000250: bb0c eebe 5380 b8bc bac8 e33e 44b3 c2bf
00000260: 4e80 9b3d 8fd3 71be 7300 c03f 3455 46bf
00000270: 5e2d b1bd cfbf f5bd eaf8 f33f bc15 15bd
00000280: f4b0 a8bd 6700 4bbd 1e1d 57bd 0df4 7f3d
00000290: 5158 96bf d963 0abe 1714 cdbd 5b1e 97bd
000002a0: 37a6 0abe b569 133d 1c7e 003d 7f1e 21be
000002b0: c81e 8fbd 0d96 47bf a1b5 89bd 3046 4ebd
000002c0: b9c5 b0bd 282c 743d 6ba3 003d ead1 083e
000002d0: caa0 98bd 5e98 0abe 63fb 8cbf 5f08 ddbe
000002e0: 4ac7 4ebd c33f aebd 6418 7bbe 06fe bfbd
000002f0: 55af 26bd 33e2 7b3b 203c b9be 262e a93f
00000300: 8a7c e3bc 2eac 07be 6b5c 4fbf fcb7 45be
00000310: 8884 00bf b608 6cbd 098d 13bd 7b30 96bd
00000320: 17d9 87be 0796 59bd 29ea ecbf ab1c 7abd
00000330: 21d3 653d 6f44 8dbd 0fdb b2bd 4e44 50bd
00000340: c4b4 10bf ff86 d83c 7912 5dbf 8bdb e0be
00000350: c21c 7fbf 1328 d3bf 73e8 b9bf 1bae 1cc0
00000360: 5e17 04be f2b0 23bd 16e0 e3bd bcd3 61bd
00000370: 4b87 01bd ef5f 6e3c 0b79 99bd c183 b5bd
00000380: 4be4 74bc 0b10 01be c07f 38bd 4f89 22bc
00000390: 8fad 3abd 6243 203e f90e 97bd 04c3 83bd
000003a0: 0b1e 3a3f d38e 0f3f 98fa 0cbe 8168 d4bf
000003b0: 0773 8fbe 333a 813d a88f 573b 5e0e 823f
000003c0: 3e52 b2bc 8c37 c7bd b1c2 10bd 796c a1bd
000003d0: 42f7 8a3c 6ce8 373c def9 4cbe f59f 8e3e
000003e0: 1932 7cbd e36c 13c0 2311 91ba e687 97bd
000003f0: 4ad8 223d 3149 a7bd 9f46 123e 4eb4 98bd
-1.460242 -0.24797818 -0.10051206 0.34514105 -0.05811022 0.002286746 -0.2178206 0.016551942
-0.4436566 -0.13591728 -0.038083166 -1.5766702 -0.24679224 -0.6292024 -0.10593471 -0.07535121
-0.026579289 -0.120314725 0.054196622 -0.06653019 -2.291481 -1.6650898 -0.004970592 -0.0031965827
-0.027395217 -0.021923246 -0.11379099 -0.5284821 -0.02641823 -0.6288225 0.24738392 -0.07295729
-0.023953421 -0.11294837 -0.03265708 -0.06770291 -2.112503 -0.11134272 -0.102262154 -0.17963652
0.038791526 -0.11647443 0.040830266 0.0048713903 0.8019197 0.06627519 -1.1472803 -0.1073379
-0.02329971 -0.05915204 -0.0015908412 -1.690512 -0.12037792 -0.1903896 -0.07090787 -1.0438491
-0.16417561 -0.055835493 0.27212194 -0.043025963 0.90699637 -0.09984662 -0.067125455 -0.043274913
-0.06497322 -0.05939135 0.47531575 0.16541782 0.036674652 -0.044014994 0.25878492 -0.027829418
-0.8880672 -0.037927568 1.7850577 0.025777392 0.04821401 -0.25390851 0.010475326 -0.3960142
0.031884994 -0.09531615 -0.2295506 -0.05971738 -0.008814444 -0.9294288 -0.047928378 -0.09402303
-0.072008006 0.01386395 0.41754872 0.0185967 -0.1019752 -1.7318989 0.0054149344 -0.022287972
0.0058355317 -0.117308296 -0.14814018 -1.3511448 -0.116187386 -0.053322077 -0.066016 -0.12184666
-0.99661624 -1.7882683 -0.011502704 0.046152018 -0.008973297 -0.0033892363 -0.06308604 -0.11241479
-0.07189062 -0.10639899 -0.06814281 -0.058396343 -0.022586307 0.029965745 -0.08973214 -0.06327165
-0.0700993 -0.12981962 -0.08891595 -0.021500414 -0.101076946 -0.51673687 -0.0708191 -0.0023858787
-0.03137775 -1.7642701 -0.17968476 -0.113794826 -0.08507499 -1.5319433 -0.04138177 -1.2321836
-0.06837962 -0.08599435 -0.092143446 -1.3186235 -0.050174028 -0.09512019 -0.13614555 -0.131738
-0.07747092 -0.61426485 -0.13127252 -0.2153777 -0.46494088 -0.022522127 0.4448908 -1.5210958
0.075928316 -0.2361586 1.5000137 -0.7747376 -0.08651231 -0.11999475 1.9060338 -0.03639768
-0.08236876 -0.04956093 -0.052518003 0.062488604 -1.1745702 -0.13514651 -0.100135975 -0.07378837
-0.13539968 0.035989482 0.031370267 -0.1573429 -0.06988293 -0.77963334 -0.06724096 -0.050359905
-0.086314626 0.059612423 0.031405848 0.13361326 -0.07452543 -0.13534686 -1.1014217 -0.4317045
-0.050483026 -0.08508255 -0.24521023 -0.09374623 -0.040694553 0.0038434386 -0.36178684 1.3217208
-0.027769346 -0.13249275 -0.81000394 -0.19308466 -0.50202227 -0.057625495 -0.036023173 -0.07333466
-0.26532814 -0.053121593 -1.850896 -0.061062496 0.05610955 -0.06897818 -0.08733188 -0.05084639
-0.56525826 0.026431559 -0.8635631 -0.43917498 -0.99653256 -1.6496605 -1.4524063 -2.4481266
-0.12899539 -0.03996367 -0.111267254 -0.055133566 -0.031623166 0.01454924 -0.0749379 -0.08863021
-0.014947007 -0.12603776 -0.045043707 -0.009920432 -0.045575675 0.15650705 -0.07375903 -0.06433681
0.7270209 0.5607731 -0.13767469 -1.6594392 -0.28017446 0.06309929 0.0032892022 1.0160635
-0.021767732 -0.097273916 -0.035341922 -0.07882018 0.016963605 0.011224847 -0.20017192 0.27856413
-0.061571214 -2.303521 -0.0011067729 -0.073989674 0.03975705 -0.08168257 0.14284752 -0.074562654

weight f4 [256, 256]
00000000: 2d50 4ebf 1deb 51bf 50e3 273d a68a 28be
00000010: aa6c 853c a24a 7c3c 61b5 8e3c 4ec0 fe3c
00000020: ac08 0abe ffe3 4abd c564 9cbb 8da8 c3be
00000030: 4425 e0bb c9f4 c3bd 7248 e1bc 9561 54bb
00000040: e7e8 9e3c 237d 87bd 7fe9 d73c 1826 c5bc
00000050: cafd 23bc fce8 1c40 61de 63bd 8daf 7cbd
00000060: 15a1 47bd 0db8 e63c 51c1 6e3c 3b42 383f
00000070: 2cf2 073f 8519 32c0 d53d 5fbf 9075 4fbd
00000080: 0ea2 b4bc e65e 53bd ebc0 873c 006e a1bc
00000090: 45e4 e6be 78e2 023c 91f2 0fbd 9de1 11bd
000000a0: fe02 82bd 3bdf 56bc 30e4 783d 8bba 4dbd
000000b0: d4b0 81bd 6852 eb3c 3540 3c40 65a4 133b
000000c0: 8d8d 7cbc 8a98 f83c 69a5 10bd 3f7b 303d
000000d0: 53ec 6b3d 6de3 2abf add7 0d3d 4030 233f
000000e0: 31aa 603c d51b 44bc 8851 443e 57c9 f0bb
000000f0: 296e f3be 44ac e13c f481 0e3d c49e 7ebd
00000100: a0b9 16bc 7b39 4ebd 9b3d 183f f101 96be
00000110: 0d0d 203d 2f2f a13c a394 6cbd 47d2 1b3d
00000120: ae20 2c40 be53 0e3d 17ba 2b3f e35f bb3c
00000130: 46e0 05bc db2c f73c daad fabc 0572 ff3c
00000140: e5f0 043c 1352 05bc 4389 8f3c 231e ccbc
00000150: ee5b f4bb a5b4 613d f529 83bd a5a2 1abb
00000160: 00d6 233d 9b19 fe3c 13a0 943e 57fa 95bd
00000170: c31a 72bd efba 2d40 4fd4 ba3c 172f 96bc
00000180: 5e2b debc 8c42 2ebd ab2d b1bc 9578 d33f
00000190: efd2 78bc a95d 5a3d 2c98 4fbd e793 1ebd
000001a0: f3ea 653f f8d0 67c1 82ad d33c e088 c5bb
000001b0: 710c 623c b8b2 9fbf 9cf7 b33c 0ec9 ffbc
000001c0: 6058 17bd d861 0cbf eab6 523d 34f6 3e3d
000001d0: 4a09 d13c 1475 613d 2d5c c8bc b346 a33d
000001e0: d9ce 613c 0f31 93bc e616 f4bc 7731 2b3d
000001f0: bee1 2fbd 37ed 6d3e b6be eb3b ffb7 c3bc
00000200: 9888 10bd 3dc6 eabd de28 043f 1543 b23c
00000210: e3c6 42bd ff98 8cbe 6662 ab3d c705 6ebd
00000220: 4c90 21bb b59e 56bd ee2e a1bd 30be 67bf
00000230: b949 003d acab 543d 4469 ef3c 5c16 b13a
00000240: 0a45 6ebc e550 443f f9c5 87bc 6a7a 293f
00000250: 91c4 20bf 5f4d 3c3b d507 a3bd c71b 2740
00000260: cdea 0abf a1c4 99bc 0bc5 c33e b0c6 53bf
00000270: 36f0 acbd bc3d 8cbd 73f7 513f 678d 56bd
00000280: a7db ef3a b3c1 bcbc 0a57 613d 6c51 27bd
00000290: 8e98 0740 578d e73c 709b fdbc e1a7 4c3b
000002a0: d017 403d f1d2 673d c2bf 633d 96c2 b8be
000002b0: 2689 d4bc b5a0 2cbd 3803 19bd cfa9 91bf
000002c0: 8838 c6bc 034f 96bc ae37 39bd 4f0a ca3e
000002d0: eb95 323d eb01 13bd d572 a43c 6a98 54bd
000002e0: cd7a 83bc 5ea0 e83c 8590 a53e 1e40 71bb
000002f0: 7bac 3d3d a08b ee3c 416b 793e 444e f13f
00000300: f0e2 dcbc 748f a1bc 0532 b83f d99f bfbd
00000310: 1999 12bd 0ab6 b7bc 320e 703d 611a 63bd
00000320: 99d9 b93f bfc9 aabb e5a5 a73e c25f 01bd
00000330: 8a0c 02bd 3371 8dbd 25a6 8cbd b43d 7f3b
00000340: c6e7 91bc 21a6 cdbc 85ee e93e 259c 75be
00000350: e888 f73e 2ede 3c3f 3f3c 873c b725 bf3f
00000360: 5f81 0bbd 62cf 5dbd 9dbd 353d c181 183c
00000370: 17a4 43bd bf40 51bd f05d d43c 58a3 623d
00000380: 7c8e 723b d402 a53c ab8d 2ebd d327 113d
00000390: 868d 323d 0e5b 9dbd ebc7 3a3d 2834 a8bc
000003a0: 2ccc f8be b0c1 0cbf ed87 0dbd 13a6 6dc0
000003b0: c41a 573d 7cec 1e3d c4b0 4b3d 3997 24bf
000003c0: 7365 303d 60ec 09bd 1678 633d cd84 13bd
000003d0: 65ae b7bb 0a32 803d a7fc 063f 1d40 8bc0
000003e0: 90b7 62bd 1161 1440 808b 483d d3c6 db3c
000003f0: d9fc 733c 5606 773d e741 e23d 66d1 29bd
-0.8059109 -0.8199938 0.040988266 -0.1645914 0.016287167 0.015398653 0.017420473 0.031097557
-0.1347987 -0.04953384 -0.004772755 -0.38214532 -0.00684038 -0.095681734 -0.027500365 -0.0032406796
0.019398166 -0.06615665 0.026356457 -0.024066016 -0.0100092385 2.4517202 -0.055632 -0.061690856
-0.048737604 0.028163934 0.014572457 0.7197606 0.531039 -2.7828076 -0.87203723 -0.050649226
-0.02204993 -0.051604174 0.016571483 -0.019705772 -0.4509603 0.007988565 -0.03514344 -0.035615552
-0.06348227 -0.013114746 0.06076449 -0.05022673 -0.063325554 0.028725818 2.941419 0.0022528407
-0.015414608 0.030346174 -0.035313997 0.043086287 0.057598423 -0.66753274 0.034629513 0.637455
0.013712452 -0.011969526 0.19171727 -0.0073482203 -0.47544983 0.027547963 0.0347919 -0.06216313
-0.00919953 -0.050347786 0.59469 -0.29298356 0.039074946 0.01967582 -0.05775894 0.038042333
2.6894946 0.03474783 0.67080826 0.02287287 -0.008171147 0.030172756 -0.030600477 0.031182298
0.008114074 -0.008137244 0.017521506 -0.024916714 -0.007457248 0.055103917 -0.06404487 -0.002359548
0.03999901 0.031018069 0.29028377 -0.07323139 -0.059107553 2.7145345 0.022806315 -0.018333001
-0.027120288 -0.042543933 -0.021628221 1.6521174 -0.015187009 0.053311978 -0.05068223 -0.03871527
0.8981163 -14.488518 0.02583957 -0.0060282797 0.013796912 -1.2476416 0.021968655 -0.0312238
-0.036949515 -0.548368 0.05144397 0.046621516 0.025517125 0.055043295 -0.024458015 0.07972469
0.0137822265 -0.017967729 -0.029796075 0.04179522 -0.042939894 0.23235022 0.0071943654 -0.023891447
-0.035286516 -0.11463592 0.5162486 0.021760503 -0.047552954 -0.27460477 0.083683774 -0.05811098
-0.0024652658 -0.05239745 -0.07870279 -0.9052458 0.031320307 0.05192153 0.029225 0.0013510692
-0.014542827 0.76685935 -0.016573893 0.66202414 -0.62799937 0.002873264 -0.07960478 2.6110704
-0.5426453 -0.018770518 0.3823627 -0.8272505 -0.08444254 -0.068477124 0.820182 -0.052380946
0.0018299714 -0.023041582 0.055014648 -0.040849134 2.1186862 0.028265638 -0.030957907 0.0031227993
0.04689771 0.056597654 0.055602796 -0.36085957 -0.025944304 -0.04214545 -0.037356585 -1.1379946
-0.024196878 -0.018348223 -0.045219116 0.3946099 0.043600004 -0.0358905 0.020074287 -0.051903166
-0.016049767 0.028396782 0.32336822 -0.0036811898 0.04630707 0.029119313 0.2435732 1.885201
-0.026963681 -0.019721724 1.4390265 -0.093566604 -0.035790537 -0.02242567 0.058607288 -0.05544508
1.451953 -0.0052120383 0.32743755 -0.031585462 -0.03175024 -0.06906357 -0.06867627 0.003894669
-0.017810713 -0.02510363 0.45689788 -0.23985346 0.4834664 0.7377652 0.01650822 1.4933385
-0.034058925 -0.054152854 0.044370282 0.0093082795 -0.04776391 -0.051087137 0.0259237 0.055331558
0.0037011197 0.02014295 -0.042615574 0.03543837 0.043592 -0.07683383 0.045600813 -0.020532683
-0.4859327 -0.54983044 -0.034553457 -3.7132614 0.05251576 0.038799748 0.049729124 -0.6429325
0.0430655 -0.03367269 0.055534445 -0.03601532 -0.0056055062 0.06259544 0.52729267 -4.3515763
-0.05535084 2.3184245 0.048961163 0.026828205 0.014891827 0.060308777 0.11047726 -0.041459464
