saved_models_1/125_2780_model.pt (torch, 701697 bytes, 11 tensors)

FC1.weight f4 [256, 36]
0	0xbe2b0c2f	-0.16703866
1	0x3d037dbc	0.03210233
2	0x3eb51de6	0.35374373
3	0xbe64f8f8	-0.22360599
4	0x3f2c38f4	0.67274404
5	0x3ebc334d	0.3675789
6	0xbe41eae8	-0.18937266
7	0xbf97fb9f	-1.1873664
8	0x3f83e375	1.0303789
9	0x3eba682b	0.364076
10	0xbf985045	-1.1899496
11	0x3ed2d0e7	0.41175005
12	0xbea54aeb	-0.3228372
13	0x3eb14419	0.34622267
14	0x3f4493c1	0.76787955
15	0xbee22997	-0.44172356
16	0xbf7f3687	-0.9969258
17	0xbf486793	-0.7828304
18	0x3f7a82ff	0.97856134
19	0x3ebfd6e9	0.3746865
20	0x3f95b2ee	1.169523
21	0x3efd2710	0.49443865
22	0xbf5ca764	-0.8619292
23	0xbf111273	-0.56668776
24	0x3fbfde00	1.4989624
25	0xbe3fc3a9	-0.18726982
26	0xbfa4e240	-1.2881546
27	0x3e09bad0	0.1345017
28	0x3e5cd9f1	0.21567513
29	0x3e6a5f98	0.22888029
30	0x3e778129	0.24170364
31	0x3ec48d95	0.3838927
32	0xc012483f	-2.2856596
33	0xbeb45763	-0.3522292
34	0x3f40c27a	0.7529675
35	0xbf6041b8	-0.8760028
36	0x3fbc389b	1.4704775
37	0xbf1abc3d	-0.6044348
38	0xbe3f9c0c	-0.18711871
39	0xbdc9761a	-0.09836979
40	0xbf5d7974	-0.8651345
41	0xbe1708c9	-0.14749445
42	0x3f26b47c	0.6511915
43	0xbeda38bb	-0.42621407
44	0xbfa5e7ed	-1.2961403
45	0xbf4498e3	-0.76795787
46	0x3fd1f9ed	1.6404396
47	0xbf5c75f3	-0.86117476
48	0xbfb8fc79	-1.4452049
49	0xbf1980f9	-0.5996242
50	0x3f0f332b	0.5593745
51	0xbe1fd7a5	-0.15609606
52	0xbfbeed5f	-1.491619
53	0xbe45f379	-0.19331159
54	0x401a9ea8	2.4159336
55	0x3f293f72	0.66112435
56	0xbe75774d	-0.23971291
57	0xbf5ae663	-0.8550779
58	0x3e8e9cf2	0.27854115
59	0x3f0ad9a0	0.5423832
60	0xbee5c206	-0.4487459
61	0xc014f934	-2.3277102
62	0x3e53746b	0.20649879
63	0x3d3e8b33	0.04651947
64	0xbedc627e	-0.43043894
65	0x3e9afb1d	0.3026971
66	0x3e1a0c22	0.15043691
67	0x3f427ce4	0.7597182
68	0xc045a858	-3.0884
69	0xbf963e63	-1.1737789
70	0x3f8a1912	1.0788901
71	0x3fb8f7c9	1.4450618
72	0xbe461e78	-0.1934756
73	0x3ec88869	0.39166573
74	0xbe747231	-0.23871686
75	0x3dbf753e	0.09348534
76	0xbf09458e	-0.5362176
77	0x3f6ee841	0.9332314
78	0xbf94fbe7	-1.1639374
79	0xbfbf04ff	-1.49234
80	0x3f9e1cd2	1.2352545
81	0x3cc4597e	0.023968454
82	0x3eba929c	0.3643998
83	0xbcca23cf	-0.024675278
84	0xbea8a016	-0.32934636
85	0x3fa9dcb8	1.3270483
86	0xbe637b9e	-0.22215125
87	0xc04a9298	-3.1651974
88	0x3ea211ca	0.31654197
89	0x3f34211c	0.7036302
90	0xbe14a456	-0.14515814
91	0x3f2cfd8d	0.6757439
92	0xbf33a074	-0.7016671
93	0x3e01522c	0.12629002
94	0x3f2d7b73	0.67766494
95	0x3dfdb8e7	0.12388783
96	0xbf9fc69f	-1.2482489
97	0xbefbd38d	-0.49184838
98	0x3f8276dd	1.0192524
99	0xbedbdd11	-0.42942098
100	0x3e349fa8	0.17639029
101	0x3ebfe879	0.3748205
102	0x3cf7d35a	0.030252147
103	0xbeb9464e	-0.3618645
104	0x3ea73940	0.32660866
105	0xbed8850a	-0.42289
106	0xc069dd55	-3.654134
107	0x3f4a8ab5	0.791179
108	0xbfa7963a	-1.309272
109	0x3e355ffa	0.17712393
110	0x3decf217	0.115696125
111	0x3f3131d1	0.6921664
112	0xbef26aaf	-0.47347018
113	0xbfd5c568	-1.6700869
114	0x3d18717a	0.037217595
115	0x401fa0ea	2.4941964
116	0xbf9dfdab	-1.2343038
117	0xbf959271	-1.1685315
118	0x3ee3c7f7	0.444885
119	0x3eec8c52	0.46200806
120	0xbf333542	-0.7000314
121	0xbee8dc93	-0.45480785
122	0x3e33753f	0.17525195
123	0x3eef4a5f	0.46736428
124	0xbf923ed2	-1.1425421
125	0xbede0d08	-0.43369317
126	0x3f611ab9	0.879314
127	0xbecc0887	-0.39850256
128	0xbf46c478	-0.7764354
129	0x3e438cd6	0.19096693
130	0x3ece81af	0.40333316
131	0xbd136a47	-0.035990026
132	0xbf9ea632	-1.2394469
133	0x3fb6aeca	1.4272091
134	0x3fa6f388	1.304307
135	0x3c67025f	0.014099686
136	0xc013b18a	-2.3077111
137	0x3ed4c4ef	0.41556498
138	0x3f0981fc	0.53713965
139	0xc0527f3f	-3.2890165
140	0xbfa7e530	-1.3116817
141	0xbd8dadc0	-0.06917906
142	0x3fa4b495	1.2867609
143	0xc04dd6fe	-3.216247
144	0xbe27f21f	-0.16400956
145	0xbe052d16	-0.1300548
146	0x3df1398a	0.11778553
147	0x3bc30950	0.005952038
148	0x3f9c2f7a	1.2201989
149	0x3e725b6d	0.23667689
150	0xbf81ea91	-1.0149709
151	0xbf89376b	-1.0720037
152	0x408c2357	4.379314
153	0x3e44ffd6	0.19238219
154	0xc04dbef4	-3.2147799
155	0x3f28349d	0.6570528
156	0x3f737dd8	0.951139
157	0x3db5dffe	0.08880614
158	0xbec28547	-0.37992308
159	0x3d057ef1	0.032591764
160	0x3f7036fc	0.938339
161	0xbfa20580	-1.2657928
162	0xbfbc3136	-1.4702518
163	0x3e832e37	0.25621197
164	0x3dcd0394	0.10010448
165	0xbf27b7ce	-0.6551484
166	0xbecce50f	-0.40018508
167	0x3fb65e5c	1.4247546
168	0x3f1a6ce8	0.6032243
169	0xbf19bbcc	-0.6005218
170	0x3f0f0dca	0.55880415
171	0x3e34bd22	0.17650273
172	0xbdbbd221	-0.09170938
173	0x3edb2501	0.4280167
174	0x3ea35fab	0.31908926
175	0x3ebce289	0.36891583
176	0x3f70ee5b	0.941137
177	0x3ecb461d	0.3970193
178	0xc0657e0f	-3.585819
179	0xbfa2cd99	-1.2718993
180	0xbf28de8e	-0.6596459
181	0xbe0a872f	-0.13528131
182	0x3e82710b	0.2547687
183	0xbe6f00b6	-0.23340115
184	0x3eef8167	0.46778414
185	0x3ee226b2	0.44170147
186	0xbf928b11	-1.144869
187	0xc00e9e92	-2.2284284
188	0x400993f3	2.149655
189	0x3e911f7c	0.28344333
190	0xbeb5a54f	-0.35477683
191	0xbf846311	-1.0342733
192	0xbea48a1f	-0.32136628
193	0xbe829998	-0.25507808
194	0xbec53e3c	-0.38524044
195	0xbee1ff20	-0.44139957
196	0x3ed53135	0.41639104
197	0x3f331388	0.6995168
198	0x3f3e5297	0.7434477
199	0xbf425d0f	-0.75923246
200	0xbf24831a	-0.64262545
201	0xbdc05304	-0.09390834
202	0x3f389011	0.7209483
203	0xbed46072	-0.41479832
204	0xc000eedc	-2.0145788
205	0x3f059a1e	0.5218829
206	0x3eaa01c7	0.3320448
207	0x3ea5d03e	0.3238544
208	0x3e803d3b	0.25046715
209	0xc0254b84	-2.582734
210	0xc0295216	-2.6456351
211	0xbf813180	-1.0093231
212	0x3fb9dca6	1.4520462
213	0xbf87315b	-1.0561937
214	0xc028270d	-2.6273835
215	0xc05a6aaf	-3.4127614
216	0xbe202d20	-0.15642214
217	0xbf0178c7	-0.50574917
218	0x3e38f607	0.18062602
219	0xbf86086d	-1.0471321
220	0x3f3abe9b	0.7294709
221	0xbf03673e	-0.5132941
222	0xbe6750eb	-0.22589462
223	0xbf3255da	-0.6966225
224	0x3ffe2775	1.9855791
225	0x3fc59edc	1.5439105
226	0x3ee3e844	0.44513142
227	0xbe4f142c	-0.20222539
228	0x3d57edd4	0.052717045
229	0xbfb2e35a	-1.3975632
230	0x3f27872f	0.6544065
231	0x3fb1d0e2	1.3891871
232	0xbeef48e9	-0.46735314
233	0xbf08b0bd	-0.5339468
234	0x3f29cfaf	0.66332525
235	0xbd3395f9	-0.043844197
236	0x3f326fa1	0.6970158
237	0xbfb47778	-1.4098959
238	0xbed0ade7	-0.40757677
239	0x3f1119df	0.566801
240	0x3f0bfdec	0.5468433
241	0xbf9c2146	-1.2197654
242	0xbf580851	-0.8438769
243	0xbbed0895	-0.007233689
244	0x3ee6053f	0.44925877
245	0x3e29390c	0.16525668
246	0xbefe98b6	-0.49725884
247	0xbdb2283a	-0.08699079
248	0x3f7661c5	0.96242934
249	0xbff2b7c1	-1.8962327
250	0xbf3d89e8	-0.74038553
251	0x3fca057b	1.5782923
252	0x3eb318b9	0.349798
253	0x3e37c2a3	0.17945342
254	0xbecad787	-0.3961756
255	0xbf370885	-0.71497375

FC1.bias f4 [256]
0	0x3cc6bd92	0.024260316
1	0xbe822920	-0.25422
2	0xbed227a9	-0.41045883
3	0x3ceb2736	0.02870522
4	0x3e41cb6f	0.1892526
5	0x3e667077	0.2250384
6	0xbe550d67	-0.20805894
7	0xbec381b9	-0.38184908
8	0xbf1b23fb	-0.60601777
9	0xbebc697a	-0.36799222
10	0x3c27c0ec	0.010238867
11	0xbdca93fa	-0.098915055
12	0xbee4153c	-0.4454745
13	0xbebab1b5	-0.36463705
14	0xbe66c4b8	-0.2253598
15	0x3e29c4f2	0.16579035
16	0x3e9bbd13	0.3041769
17	0xbdd03411	-0.10166181
18	0x3ec5e150	0.38648462
19	0x3e407708	0.18795407
20	0xbd88110d	-0.06643877
21	0x3db1e95b	0.08687087
22	0xbf1fee6b	-0.6247317
23	0x3e91d142	0.28479964
24	0xbea33b4a	-0.3188117
25	0xbda1c312	-0.07898535
26	0xbf30eee8	-0.6911454
27	0x3e7f6af9	0.2494315
28	0xbf4e4bc1	-0.8058434
29	0x3dd1b5de	0.102397665
30	0xbe164c7b	-0.14677612
31	0xbece985f	-0.40350625
32	0xbf128d54	-0.572469
33	0x3ec06657	0.3757808
34	0xbd30c318	-0.043154806
35	0x3f0d891c	0.5528734
36	0xbedb3be3	-0.42819127
37	0xbe9a9746	-0.30193537
38	0xbe9a6872	-0.3015781
39	0xbe4c409a	-0.19946519
40	0x3e79629f	0.24354027
41	0xbecc61fb	-0.39918503
42	0x3dbe478a	0.09290989
43	0xbf05363d	-0.52035886
44	0x3e582607	0.21108256
45	0xbdfd535b	-0.123694144
46	0xbf217c1b	-0.63079995
47	0xbe8b43d2	-0.2720018
48	0xbf00bda9	-0.502894
49	0x3ba2fe8a	0.004974191
50	0x3ed65daa	0.41868335
51	0xbe484bff	-0.1956024
52	0xbde90ce3	-0.11379411
53	0xbd7ede5e	-0.062223785
54	0x3dc58fa2	0.096465364
55	0xbef8048a	-0.48440963
56	0xbe1b9570	-0.15193725
57	0xbf135ac0	-0.5756035
58	0xbda41c0a	-0.080131605
59	0xbdb288a0	-0.087174654
60	0xbe3b9ef4	-0.18322355
61	0x3e28d8cb	0.1648895
62	0x3dc139f2	0.0943488
63	0x3d8d6b17	0.069051914
64	0xbd7fa7c9	-0.06241587
65	0x3dbd2b67	0.09236794
66	0x3dae1bb6	0.08501379
67	0xbe108eb1	-0.14116932
68	0xbf0252f1	-0.5090781
69	0xbdacd316	-0.08438699
70	0xbe3a0757	-0.18166862
71	0xbeac0392	-0.33596474
72	0x3e992f42	0.29918867
73	0x3f4229dd	0.7584513
74	0xbe409b19	-0.18809165
75	0x3e3ddb40	0.18540668
76	0xbf11781a	-0.56823885
77	0xbe9ab176	-0.30213517
78	0xbf368c64	-0.7130797
79	0x3eaaa34f	0.3332772
80	0xbf4410c8	-0.76588106
81	0xbea1c3c6	-0.31594676
82	0x3e0b6d50	0.13615918
83	0xbebb9e79	-0.36644343
84	0x3db220f0	0.086976886
85	0x3f074f7e	0.5285567
86	0x3c9ab3b4	0.018884517
87	0x3da10117	0.07861536
88	0xbe901bde	-0.2814626
89	0x3e6671b0	0.22504306
90	0x3cfc019d	0.030762488
91	0xbe6046ad	-0.2190196
92	0xbed7138f	-0.4200711
93	0x3ed0bea1	0.40770438
94	0x3dd0a906	0.10188489
95	0xbc792073	-0.01520549
96	0xbd731bab	-0.059352558
97	0xbea54db8	-0.32285857
98	0xbe839bb8	-0.2570474
99	0xbf2c18eb	-0.6722552
100	0xbcf2e8f1	-0.02965209
101	0xbc173233	-0.009228277
102	0xbe419101	-0.18902971
103	0xbeed1624	-0.46305954
104	0xbe04a471	-0.12953354
105	0x3e8e9f77	0.27856037
106	0x3e6c55ce	0.23079607
107	0xbe277244	-0.16352183
108	0x3dc0d61e	0.094158396
109	0xbdc254bf	-0.0948882
110	0xbe81d18e	-0.2535519
111	0xbec8f5e6	-0.39250106
112	0xbe856d69	-0.26060036
113	0xbef6295d	-0.48078433
114	0xbf0de386	-0.554253
115	0x3e220534	0.15822297
116	0xbdcc497b	-0.09974953
117	0x3e04c5e5	0.12966116
118	0xbedf04fc	-0.4355849
119	0x3ab1001f	0.0013504064
120	0xbdbd1b26	-0.09233694
121	0xbd28566b	-0.04109804
122	0xbecf9759	-0.40545157
123	0xbe5c0f43	-0.21490197
124	0xbf4158b5	-0.7552598
125	0xbecc054a	-0.39847785
126	0xbc58f250	-0.013241366
127	0xbf044978	-0.51674604
128	0xbf2a4013	-0.6650402
129	0x3db93dea	0.09045012
130	0xbea88c13	-0.32919368
131	0x3eb07fa2	0.34472376
132	0x3ebbf7d4	0.36712515
133	0xbd9444be	-0.07239674
134	0x3e5717a6	0.21005115
135	0xbeaf46a3	-0.3423358
136	0xbe20a518	-0.15687978
137	0x3eab1344	0.33413136
138	0xbc3f682b	-0.01168255
139	0x3d60cd13	0.054883074
140	0xbe6dc178	-0.23218334
141	0x3b3e75b7	0.0029061863
142	0x3cc8b508	0.024500385
143	0x3cf4c948	0.029881135
144	0xbedd85cc	-0.4326614
145	0xbeb52d16	-0.3538596
146	0x3e97bcd5	0.29636255
147	0x3f06e55f	0.5269374
148	0xbe59f7e2	-0.21285966
149	0x3e71fc86	0.23631486
150	0xbf4ef80a	-0.8084723
151	0xbdf0a0d2	-0.11749424
152	0xbcb197e9	-0.021678882
153	0xbe3b314b	-0.18280523
154	0x3f37642a	0.71637213
155	0xbe1eaad9	-0.1549486
156	0xbf23f2d1	-0.64042383
157	0xbe1e25d5	-0.1544412
158	0x3ed7c965	0.4214584
159	0xbde49c08	-0.11162573
160	0xbe784194	-0.24243766
161	0x3d9d67db	0.076858245
162	0x3f0d11a2	0.5510503
163	0x3e086ac6	0.13321981
164	0x3d62f913	0.055413317
165	0x3e8d5323	0.2760249
166	0xbf1088a2	-0.56458485
167	0xbd68bc34	-0.05682011
168	0xbd6264d0	-0.055271924
169	0xbe76a9ee	-0.2408826
170	0xbe9f9da6	-0.31174964
171	0xbf2a3f2f	-0.6650266
172	0x3edb54bb	0.42838082
173	0x3e6f95da	0.23397008
174	0xbe8c02db	-0.2734593
175	0xbc385ba4	-0.011252318
176	0xbcae183b	-0.021251788
177	0x3d0b10f2	0.033951707
178	0xbf62cc06	-0.88592565
179	0xbf12efd7	-0.57397217
180	0x3d410b8b	0.04713015
181	0xbf11705c	-0.5681207
182	0x3bac731b	0.005262745
183	0x3ed511b5	0.41615072
184	0xbe63ed8c	-0.22258586
185	0xbe421966	-0.18955001
186	0xbda84ea1	-0.08218122
187	0xbf0e6f0e	-0.55638206
188	0x3f424a02	0.75894177
189	0xbec67245	-0.38759056
190	0x3df9290d	0.12166033
191	0xbe0617bd	-0.13094993
192	0x3d8705ac	0.06592879
193	0x3ef0a8df	0.47003838
194	0x3ec1da03	0.37861642
195	0xbe8ca1f4	-0.2746731
196	0xbf0e6330	-0.556201
197	0x3cd5242a	0.02601822
198	0x3e46d0ea	0.19415632
199	0x3d485936	0.048913203
200	0xbe6c0c65	-0.23051603
201	0xbee10071	-0.4394565
202	0xbce4ee68	-0.027945712
203	0xbe98ee8f	-0.29869506
204	0x3e13d1ad	0.14435454
205	0x3dc4f632	0.096172705
206	0x3de7b842	0.11314441
207	0x3def0851	0.11671508
208	0xbec2f3c2	-0.38076597
209	0x3e228ab1	0.15873219
210	0xbf0cbc4f	-0.54974836
211	0x3e280a5c	0.16410202
212	0xbe9d36fd	-0.30706015
213	0xbedf0bf8	-0.4356382
214	0xbf239918	-0.6390548
215	0xbe93335a	-0.28750116
216	0xbebdba12	-0.37056023
217	0xbec01dc9	-0.37522724
218	0x3e5961f0	0.21228766
219	0x3e71fa54	0.23630649
220	0xbec1a4ca	-0.37821037
221	0x3d1a001d	0.037597764
222	0xbdf79ce7	-0.120904736
223	0x3f12940c	0.5725715
224	0xbef1f49c	-0.47256935
225	0xbdd65f92	-0.10467447
226	0xbf06a5eb	-0.5259692
227	0xbf31da5a	-0.69473803
228	0x3e2557a7	0.16146718
229	0x3e9ea226	0.30983084
230	0xbd4e3808	-0.050346404
231	0xbf05923d	-0.52176267
232	0x3f156c80	0.5836868
233	0xbeb3fef4	-0.3515545
234	0xbecf53bd	-0.40493575
235	0xbea9fe05	-0.33201614
236	0xbf36c472	-0.713935
237	0x3e2d0e7f	0.16900061
238	0xbe32b3de	-0.17451426
239	0xbe29edcf	-0.16594623
240	0x3d832633	0.0640377
241	0xbd4aadd0	-0.049482167
242	0x3e060cef	0.13090871
243	0x3f3e30bf	0.7429313
244	0x3f113f0f	0.56736845
245	0xbe47de83	-0.19518475
246	0xbe0fea15	-0.14054139
247	0x3c86e15e	0.016464885
248	0xbd8bba8a	-0.06822689
249	0x3e4e8964	0.20169598
250	0xbe586c71	-0.21135117
251	0x3d23b6ef	0.03996938
252	0xbe22bee8	-0.15893137
253	0x3eefbf11	0.4682546
254	0xbebe5cc8	-0.3718016
255	0xbe0f70fe	-0.14007947

FC2.weight f4 [256, 256]
0	0xc03c39f6	-2.9410377
1	0x3efe0fee	0.49621528
2	0x3ebd7e0d	0.37010232
3	0xbfcf4863	-1.6193966
4	0x3e924399	0.28567198
5	0x3ff80863	1.937756
6	0xbed6e754	-0.41973364
7	0xc00bc9b2	-2.1841855
8	0xbfabbf74	-1.3417802
9	0x3f0a777f	0.54088587
10	0xbc040f76	-0.008060327
11	0x3f404365	0.75102836
12	0xbfb96a6f	-1.4485606
13	0xbf3e508f	-0.7434167
14	0xbf2949d4	-0.6612828
15	0xbef9e636	-0.4880845
16	0xbfb0c881	-1.3811189
17	0xbd28d58d	-0.041219283
18	0x3f31780a	0.6932379
19	0xbf5363c8	-0.8257413
20	0x3d1f4012	0.03887946
21	0x3fbc19a0	1.469532
22	0xc06866c5	-3.6312726
23	0x3ee00e52	0.43760926
24	0x3dcd146f	0.10013663
25	0xc01692f2	-2.3527188
26	0xbf6f6889	-0.93518883
27	0xc0216040	-2.5214996
28	0x3fbbbc98	1.4666929
29	0xbf4756e0	-0.77866936
30	0x3ed6f2d6	0.41982144
31	0xbf65beda	-0.8974434
32	0xbeff56bd	-0.49870864
33	0x3e87484f	0.26422355
34	0x3ea612dc	0.32436264
35	0xbda5b182	-0.080904976
36	0xbf090ca5	-0.5353492
37	0x3fca8679	1.5822288
38	0x3ea26a60	0.31721783
39	0x3ef89874	0.48553813
40	0xbf504250	-0.81351185
41	0x3d7149d6	0.058908306
42	0xbfb51d41	-1.4149553
43	0xbf7ad5b4	-0.97982335
44	0xbf474658	-0.7784171
45	0xbe0f541e	-0.13996932
46	0x3efac69e	0.48979658
47	0xbeb1a57d	-0.3469657
48	0x3d0ad10f	0.03389078
49	0xbf216c4d	-0.6305588
50	0xbf8cfba9	-1.10143
51	0xbc94b858	-0.018154308
52	0xc00377d4	-2.0541887
53	0xc022b115	-2.5420582
54	0xbe1decd2	-0.15422371
55	0xbffffc11	-1.99988
56	0x3d547580	0.05186987
57	0x3f8c048c	1.0938888
58	0xc00b0de2	-2.1727223
59	0x3ecfb63b	0.40568718
60	0x3eb342e8	0.35011983
61	0xbf748458	-0.9551444
62	0x3c9dc914	0.01926092
63	0x3ddad243	0.106846355
64	0x3f4077cb	0.7518279
65	0x3f96822d	1.1758476
66	0xbfc23860	-1.5173454
67	0xbd23a43e	-0.039951555
68	0xc00a5417	-2.1613824
69	0xbd944d3d	-0.072412945
70	0x3e9484b8	0.29007506
71	0xbe41080e	-0.18850729
72	0xbea313f3	-0.31851158
73	0x3f08e3e4	0.53472733
74	0x3db3ad2e	0.08773266
75	0xbdf30515	-0.11866204
76	0xbff25eb2	-1.8935149
77	0xbec66682	-0.38750082
78	0x3dcc6c1f	0.0998156
79	0x3f89f78d	1.0778672
80	0x3f3ca21f	0.7368488
81	0xbfebaa89	-1.8411418
82	0x400a23aa	2.1584268
83	0x3e9c636f	0.30544612
84	0xbf811d57	-1.0087079
85	0x3fb4ba81	1.4119416
86	0xbfa21693	-1.2663139
87	0xbfb983e6	-1.4493377
88	0x3f3e5830	0.74353313
89	0x3f1752a7	0.5911049
90	0xbc5a76fa	-0.01333403
91	0xc02fed03	-2.748841
92	0x3ea4a743	0.3215886
93	0xbf2e78e3	-0.6815321
94	0xbd94a0fb	-0.07257267
95	0x3eca7087	0.39538977
96	0x400e7179	2.2256758
97	0xbf8c8c15	-1.098025
98	0x3fa8b1ca	1.3179257
99	0x3f948316	1.1602504
100	0xbf238e7b	-0.6388928
101	0xbfd672f4	-1.6753831
102	0xbfc1e215	-1.514712
103	0x3ea5ffaa	0.3242162
104	0x3c284ff2	0.010272967
105	0xbed65d4c	-0.41868055
106	0x3fd1da48	1.6394739
107	0x3efcebca	0.49398643
108	0x3f4a7ef6	0.79099977
109	0xbf5600b8	-0.83594847
110	0x3e859412	0.2608953
111	0xbe8ebadb	-0.27876934
112	0xbfae727c	-1.3628688
113	0xc00f750d	-2.2415192
114	0xbd379f47	-0.044829633
115	0xbf812cc1	-1.0091783
116	0xbf35e9a0	-0.7105961
117	0xc016187c	-2.3452444
118	0xbf20f06e	-0.62866867
119	0xbf1ed600	-0.6204529
120	0xbe803f29	-0.25048187
121	0xbf694e46	-0.9113506
122	0x3db5271f	0.088453524
123	0x3f4c6d0b	0.79853886
124	0xbf9a2d5a	-1.204509
125	0xbdf8ad47	-0.12142425
126	0x3f6d1555	0.92610675
127	0xbfd68178	-1.6758261
128	0xbcb95881	-0.02262521
129	0x3ecc05ff	0.39848325
130	0x3fcd89d8	1.6057692
131	0x3ea992e2	0.33119875
132	0xbc9659b2	-0.018353317
133	0xbf8f70bf	-1.1206282
134	0xbf184e97	-0.5949492
135	0x3e54e746	0.20791349
136	0xbfe3a6eb	-1.7785314
137	0x3e6fde36	0.2342461
138	0xbfbcafc4	-1.474114
139	0x3f404001	0.7509766
140	0xbcb2223e	-0.021744844
141	0x3f03fe4d	0.5155991
142	0x3e105ec8	0.14098656
143	0xbe561a83	-0.20908551
144	0xbffc2f04	-1.9701848
145	0xbd3c9871	-0.046043817
146	0x3e6a1bf1	0.22862221
147	0x3f0d6143	0.55226535
148	0xbd8d805a	-0.06909247
149	0xbf3b4001	-0.7314454
150	0xbf40a216	-0.75247324
151	0x3f4206d7	0.75791687
152	0xc0cfec5a	-6.4976015
153	0xbee1ae73	-0.44078407
154	0xbe1d36b5	-0.153529
155	0xbd1546d2	-0.036444493
156	0xbf291929	-0.66054016
157	0x3fcdc516	1.6075771
158	0x3f365e9c	0.7123811
159	0x3da8e619	0.08247013
160	0xbf62ac0e	-0.88543785
161	0x3ea8f734	0.330011
162	0xbf78d943	-0.97206515
163	0x3f4138e9	0.75477463
164	0xc03c1980	-2.9390564
165	0xc012fc50	-2.29665
166	0x3eec2e59	0.4612911
167	0xbfd8c601	-1.6935426
168	0x3f364e4f	0.7121324
169	0xc004e9ae	-2.0767627
170	0x400462ce	2.0685306
171	0xbf06556a	-0.5247408
172	0xbee904b5	-0.45511404
173	0xbf90c975	-1.131148
174	0xbd35182d	-0.04421251
175	0xbefb8603	-0.4912568
176	0x3f06671d	0.5250109
177	0xbd2bdc68	-0.041958243
178	0xbf37ac51	-0.7174731
179	0x3e9ae4ba	0.3025263
180	0x3e1f186f	0.15536664
181	0x3f90cf96	1.131335
182	0xbf2cdcf5	-0.67524654
183	0x3e822992	0.2542234
184	0x3ecef5cd	0.40421906
185	0xbd639cb4	-0.055569366
186	0xbf83ac47	-1.028695
187	0x3f322468	0.695868
188	0x3f6ce069	0.9252992
189	0xbddc6c5d	-0.10762856
190	0x3fc58026	1.5429733
191	0x3e359292	0.17731693
192	0x3ef91dad	0.48655453
193	0x3f875af2	1.0574629
194	0xbeeeb42d	-0.46621838
195	0x3e167014	0.14691192
196	0xbfcd23a9	-1.6026508
197	0xbfb752e9	-1.4322177
198	0x3f69283f	0.91077036
199	0xc00d92b4	-2.212079
200	0x3cd19e39	0.025588142
201	0x3e36c817	0.17849766
202	0xbc537588	-0.01290644
203	0x3f955e28	1.1669359
204	0x3d543174	0.051804975
205	0xbfbb8a4b	-1.4651579
206	0x3f23b1c6	0.63943136
207	0x3f51e870	0.81995296
208	0xbf190eeb	-0.5978839
209	0xbfb70a5a	-1.4300034
210	0x3f1bd0e8	0.6086564
211	0x3f83b94e	1.0290926
212	0x3f960821	1.1721231
213	0xbf23ccf7	-0.63984627
214	0xbf90a72c	-1.1301017
215	0x3fbb13a3	1.4615368
216	0xbcda0681	-0.02661443
217	0x3f7b93cd	0.982724
218	0xc07ea7c8	-3.9789906
219	0xbf2b2c21	-0.6686421
220	0xc07f2646	-3.986711
221	0x3f0c2644	0.5474589
222	0x3e8c1c19	0.27365187
223	0x40011bf2	2.0173306
224	0x402b6f13	2.6786544
225	0xbf9df3fe	-1.2340086
226	0x3edc7008	0.43054223
227	0x3f95e7f0	1.1711407
228	0xbf605e16	-0.87643564
229	0xbe2fd50b	-0.17171113
230	0xbe8f2fe8	-0.27966237
231	0x3eae9dbc	0.34104717
232	0x3fa3640e	1.2764909
233	0xbd7a3f5a	-0.061095573
234	0x3e5b3958	0.21408594
235	0x3e4d6f60	0.20062017
236	0xc062aeda	-3.541922
237	0x3fdb2fce	1.7123964
238	0xbf49663b	-0.78671616
239	0xbf808d5a	-1.0043137
240	0x3b969993	0.004595944
241	0xc022acc3	-2.5417945
242	0xbeeea831	-0.46612695
243	0xbf1c91c7	-0.6115994
244	0x3f761f8d	0.9614189
245	0x3ed9b46c	0.42520463
246	0xbf4319ec	-0.7621143
247	0x3e6b8288	0.22999012
248	0xbceaf6a8	-0.028682068
249	0xbed93b89	-0.42428234
250	0xbef2baff	-0.47408292
251	0x3f15aa4b	0.5846297
252	0xbfe2e15b	-1.7725023
253	0xbfc63073	-1.5483536
254	0xbef8c6a1	-0.48589042
255	0xbe166ae1	-0.14689209

FC2.bias f4 [256]
0	0xbebe7aaf	-0.37202975
1	0xbda33168	-0.07968408
2	0xbe1510b7	-0.14557157
3	0xbed22293	-0.41042003
4	0xbecc5c7b	-0.39914307
5	0xbec1253a	-0.37723714
6	0x3f0d877d	0.55284864
7	0x3d7ee867	0.062233355
8	0x3e282bdc	0.16422981
9	0xbf3b381b	-0.73132485
10	0x3e905e93	0.28197154
11	0xbddbd67e	-0.107342705
12	0xbef5b052	-0.47986084
13	0xbd1ba47b	-0.037998658
14	0xbf332ac3	-0.69987124
15	0xbf324076	-0.6962961
16	0x3e852c88	0.26010537
17	0xbe559642	-0.208581
18	0xbdf8ce82	-0.12148763
19	0xbf866b61	-1.050152
20	0x3cd04561	0.025423707
21	0xbea89787	-0.32928106
22	0x3f38bc75	0.7216256
23	0xbf11d17f	-0.5696029
24	0xbde1bec3	-0.11022713
25	0xbd6dc98c	-0.05805354
26	0x3e524b52	0.20536545
27	0xbd5cbe8a	-0.05389265
28	0xbf034ba1	-0.51287276
29	0xbe5d022a	-0.21582857
30	0xbf1e0580	-0.6172714
31	0xbf3c21c8	-0.73489046
32	0xbf810e16	-1.0082424
33	0xbd9e1893	-0.07719531
34	0xbe8d7f41	-0.2763615
35	0xbf274c3a	-0.6535069
36	0xbdfe4cf6	-0.12417023
37	0x3cbef3e3	0.023309654
38	0xbebffd55	-0.37497965
39	0x3ea46755	0.32110086
40	0xbe2ef2af	-0.17084764
41	0xbea6ed69	-0.32603005
42	0x3e2b00c9	0.16699518
43	0xbf32a21f	-0.6977863
44	0x3e90cca1	0.2828112
45	0xbee7fcfb	-0.45310196
46	0xbf20da85	-0.62833434
47	0x3edee077	0.43530628
48	0x3e95d018	0.29260325
49	0xbeb0ac4a	-0.34506446
50	0xbf0c2012	-0.54736435
51	0xbee36b11	-0.44417623
52	0xbea9c321	-0.33156684
53	0xbf264e7e	-0.6496352
54	0xbed2079c	-0.4102143
55	0x3dc54fe9	0.09634382
56	0xbef351dc	-0.4752339
57	0xbedde62c	-0.4333967
58	0xbda47d80	-0.0803175
59	0xbe7de8df	-0.24795865
60	0x3e32dbc3	0.17466645
61	0xbeb7c117	-0.35889503
62	0xbf8c76a1	-1.0973703
63	0x3e772371	0.24134614
64	0x3ec28332	0.3799072
65	0x3f04e086	0.51905096
66	0xbf1d25ad	-0.61385614
67	0xbeb0c593	-0.34525737
68	0xbe186e66	-0.14885864
69	0xbeabe77e	-0.33575052
70	0xbf76962b	-0.9632289
71	0xbeba3278	-0.3636663
72	0xbf1e56f2	-0.6185142
73	0xbe21f6a1	-0.15816738
74	0x3e05e585	0.13075836
75	0xbe605a5a	-0.21909466
76	0x3e8b1490	0.27164125
77	0xbee7d48a	-0.45279342
78	0xbf55ffdb	-0.8359353
79	0xbf4c3a69	-0.79776627
80	0xbec0276b	-0.37530074
81	0xbf977d08	-1.1835032
82	0xbdaf8318	-0.08569926
83	0xbeffae08	-0.49937463
84	0xbe1680ca	-0.14697567
85	0xbfa24399	-1.2676879
86	0xbf4d9336	-0.8030275
87	0xbe4602fb	-0.19337074
88	0xbef6a4ee	-0.48172706
89	0x3f28db9f	0.65960115
90	0xbeaa82fa	-0.33303052
91	0xbf19c600	-0.6006775
92	0xbeb0888f	-0.34479186
93	0xbf97cfb4	-1.1860261
94	0xbf81751e	-1.0113866
95	0xbe88479e	-0.2661714
96	0xbf570b62	-0.84001744
97	0xbf1b28ef	-0.60609335
98	0xbec3fd94	-0.38279402
99	0xbf3e331b	-0.7429673
100	0xbee17ef3	-0.44042167
101	0xbf0bf656	-0.54672754
102	0x3e496cc3	0.19670396
103	0xbdf020a6	-0.11724977
104	0xbeb29657	-0.34880325
105	0x3e03d5df	0.12874554
106	0x3f617bc0	0.8807945
107	0x3e0f8e4b	0.14019124
108	0xbf419d83	-0.7563097
109	0xbf81586d	-1.010511
110	0xbe4942c0	-0.1965437
111	0xbf2450aa	-0.64185584
112	0x3e20a3d8	0.15687501
113	0xbd08228a	-0.033236064
114	0x3dde7e41	0.10863925
115	0xbf22596b	-0.6341769
116	0x3e0f517c	0.13995928
117	0xbebee902	-0.37287146
118	0xbf6a79ef	-0.91592306
119	0xbe9f50b7	-0.31116268
120	0xbd4ed1f0	-0.05049318
121	0xbe8c06eb	-0.27349028
122	0x3e1ede51	0.15514494
123	0xbee173ba	-0.44033605
124	0xbda06f9d	-0.078337885
125	0x3ec05342	0.3756352
126	0xbe4acdbe	-0.19805047
127	0xbf3873b2	-0.7205154
128	0xbdf8ab59	-0.12142057
129	0xbf5960ad	-0.8491314
130	0xbf264526	-0.6494926
131	0xbc2a2a8e	-0.010386122
132	0x3f11e0e4	0.5698378
133	0xbe7cfdd5	-0.24706204
134	0xbf578d79	-0.84200245
135	0xbf343e30	-0.7040739
136	0xbe03793d	-0.12839217
137	0x3f9a3c1d	1.2049595
138	0xbfad8530	-1.3556271
139	0xbdd569dd	-0.104205824
140	0xbf56ca6f	-0.8390264
141	0xbdc1eb6d	-0.09468732
142	0xbdc0b5e6	-0.094096944
143	0xbea0b850	-0.3139062
144	0x3c93ec82	0.018057112
145	0xbf02c8fd	-0.51087934
146	0x3f09b5c1	0.5379296
147	0xbd9a2d27	-0.075281434
148	0xbdfe58db	-0.124192916
149	0xbed99616	-0.4249732
150	0xbf541587	-0.8284535
151	0xbed05fa9	-0.40697983
152	0x3e39e10a	0.18152252
153	0xbe052f90	-0.13006425
154	0x3f5ef53a	0.87092936
155	0xbf8a2164	-1.079144
156	0xbf2c592b	-0.6732356
157	0xbf779a75	-0.9672006
158	0x3d654960	0.05597818
159	0xbe4f94c6	-0.20271596
160	0xbd48355a	-0.048879005
161	0x3e178a04	0.14798743
162	0xbf2fdc37	-0.68695396
163	0x3e56dd0f	0.20982765
164	0xbf115a3d	-0.5677832
165	0x3dfd118f	0.12356865
166	0xbf0612c8	-0.5237241
167	0xbeee3f6a	-0.46532756
168	0xbf43963a	-0.764011
169	0x3cd393bd	0.025827283
170	0xbf3af7ec	-0.7303455
171	0x3e0dc2c7	0.13843833
172	0xbefa698d	-0.48908654
173	0xbf87dca0	-1.0614204
174	0xbf99b920	-1.2009621
175	0xbf3b293a	-0.7310978
176	0xbe2d4772	-0.16921785
177	0xbe29b04e	-0.16571161
178	0xbeab758e	-0.33488125
179	0x3d50dd3f	0.050992247
180	0xbd22eae3	-0.039774787
181	0xbf6133fb	-0.8796994
182	0xbbabd7e1	-0.0052442406
183	0xbe5423b7	-0.20716749
184	0x3f28cc97	0.6593718
185	0xbefa45ca	-0.4888137
186	0xbf7644af	-0.9619855
187	0xbe445705	-0.1917382
188	0xbe50f375	-0.20405371
189	0xbeb35e67	-0.3503296
190	0xbe8a4d21	-0.2701197
191	0xbfa2d6fe	-1.272186
192	0xbdb0904f	-0.08621275
193	0xbf4c31f2	-0.7976371
194	0xbdc81ecb	-0.09771498
195	0xbd6018c1	-0.054711107
196	0xbe4f07f7	-0.20217882
197	0xbf901b93	-1.1258415
198	0xbec7cf57	-0.39025375
199	0xbe3d8757	-0.1850866
200	0xbf1aa9e1	-0.60415465
201	0xbd73f01f	-0.05955517
202	0xbe3e4a4c	-0.1858303
203	0xbe902ea9	-0.281606
204	0xbe78f669	-0.24312748
205	0xbdc581b0	-0.096438766
206	0xbec88aaa	-0.39168292
207	0xbf1c317b	-0.61013
208	0xbea5e484	-0.32400906
209	0x3f1f1b89	0.6215139
210	0x3e70ba25	0.23508509
211	0xbf1c7f8e	-0.61132133
212	0x3c9bee5a	0.019034553
213	0xbf64f410	-0.8943491
214	0xbedd5edc	-0.43236434
215	0xbe7f465f	-0.24929188
216	0xbf833307	-1.0249947
217	0x3e632387	0.22181521
218	0xbdb7f3e4	-0.08982065
219	0xbcc4c90f	-0.024021653
220	0x3db9e593	0.09076991
221	0xbe4c4ed5	-0.19951947
222	0xbdb5f3ce	-0.08884393
223	0xbe27ea84	-0.16398054
224	0x3d0572c6	0.03258016
225	0x3e1df4e6	0.15425453
226	0xbe8277f1	-0.25482133
227	0xbf4e0509	-0.80476433
228	0xbf62be76	-0.8857187
229	0xbf7c10d9	-0.9846321
230	0xbeeba849	-0.4602683
231	0xbf8e169a	-1.1100647
232	0xbeab06f4	-0.33403742
233	0xbe8b336b	-0.27187666
234	0xbee39390	-0.4444852
235	0xbf52088d	-0.820443
236	0xbf18407b	-0.5947339
237	0x3c91be82	0.017791037
238	0xbfb8dd2c	-1.4442496
239	0xbf94be69	-1.1620609
240	0xbdd614c8	-0.104531825
241	0xbeab0f83	-0.33410272
242	0xbec96c35	-0.39340368
243	0x3ef01d27	0.4689724
244	0xbf46570d	-0.7747658
245	0x3d1a7001	0.03770447
246	0xbdde9735	-0.10868684
247	0xbf2c1259	-0.67215496
248	0xbf4f309b	-0.8093354
249	0xbe09cbd7	-0.13456665
250	0xbd4476d2	-0.04796488
251	0xbe812a41	-0.2522755
252	0xbd904cae	-0.070458755
253	0xbe3c2bbd	-0.1837606
254	0xbe876b66	-0.26449126
255	0xbf367355	-0.7126973

action_out.weight f4 [5, 256]
0	0xbe4b5981	-0.19858362
1	0xbd833fe1	-0.06408668
2	0x3e251034	0.16119462
3	0x3f637ae3	0.88859385
4	0x3fcabd6f	1.583906
5	0xbf069c27	-0.5258202
6	0x401ea0a0	2.4785538
7	0x3f120c59	0.5705009
8	0x40372e73	2.86221
9	0xbfecc910	-1.849886
10	0x3fa2c186	1.2715309
11	0x3f0df97e	0.5545882
12	0x3ea96bf7	0.33090183
13	0x3c9d826e	0.019227233
14	0xc0160ca2	-2.344521
15	0x3f88b9ae	1.0681665
16	0x3fcfe64e	1.6242158
17	0x3d82c6c7	0.0638557
18	0x3ed746a0	0.4204607
19	0x3e09960d	0.13436146
20	0x40109345	2.2589886
21	0x3f816205	1.0108038
22	0x3f65bc2b	0.89740247
23	0x3f78bef3	0.97166365
24	0x3faa8842	1.3322833
25	0x3fef9036	1.8715885
26	0x3f0f0018	0.5585952
27	0x3f314f5a	0.69261706
28	0xbdba71e1	-0.09103752
29	0x3e3e3871	0.18576218
30	0x3fdefd30	1.7421017
31	0x4008ccf8	2.1375103
32	0x3f7f6590	0.9976435
33	0x3ce88c11	0.028387101
34	0x3eeb7ef4	0.45995295
35	0x4019cd8f	2.4031713
36	0xbd6598d5	-0.056053955
37	0xbf4e3c1c	-0.8056047
38	0x400c1722	2.188912
39	0x40194899	2.395056
40	0x3f99d834	1.2019105
41	0x3fae51ab	1.3618673
42	0x3fa3a898	1.2785826
43	0x3f885cc9	1.0653316
44	0x3fb3ef37	1.4057378
45	0x3f29a643	0.6626932
46	0x3e74516d	0.23859186
47	0x3fc2805b	1.5195421
48	0x3fcae85c	1.585216
49	0x3f600ada	0.8751656
50	0x3f117a39	0.5682712
51	0x3e523390	0.20527482
52	0xbe589f88	-0.21154606
53	0x3f31384d	0.69226533
54	0x403c6cd2	2.9441419
55	0xbee78178	-0.45215964
56	0x3fe5aa8b	1.794267
57	0x3f42f431	0.76153857
58	0x3f426f77	0.7595133
59	0x3f53e00c	0.82763743
60	0x400b44c0	2.1760712
61	0x3f640984	0.8907702
62	0xbf64db09	-0.8939672
63	0x3e132d87	0.14372836
64	0x3f8c03ee	1.0938699
65	0x3fb13150	1.3843174
66	0x3f87612f	1.0576533
67	0x3f47dc46	0.78070486
68	0x3f92b9f5	1.1463
69	0x3df888f7	0.12135499
70	0xbe02a12d	-0.12756796
71	0xbf0746a7	-0.5284218
72	0x3e7a7b3a	0.2446107
73	0x3ef84c10	0.4849553
74	0xbe121a24	-0.14267784
75	0xbf0362b8	-0.5132251
76	0x3fe85850	1.8151951
77	0xbe9c83f8	-0.30569434
78	0x3f84b969	1.0369083
79	0x3f6826b5	0.9068406
80	0xbf4f78de	-0.81043804
81	0x3fb30a4e	1.398752
82	0x3ec9b418	0.39395213
83	0x3ee39eeb	0.44457182
84	0x3eb2e996	0.34943837
85	0xbff6f716	-1.9294155
86	0x4000f8dd	2.0151894
87	0x3f2f7902	0.6854402
88	0x3e9a8eb1	0.3018699
89	0x3f9800e6	1.1875274
90	0x3fb83639	1.4391547
91	0x3fb1c0ca	1.388696
92	0xbf850ad7	-1.0393933
93	0xbe6bccfd	-0.23027416
94	0x3f6053fd	0.87628156
95	0x3e84b635	0.25920263
96	0x3fe194b3	1.7623504
97	0x3d1373a5	0.03599896
98	0x3f913de1	1.1347009
99	0x40192e12	2.393437
100	0x3f9dee6a	1.2338383
101	0x402c3def	2.6912801
102	0x3fd18cd6	1.6371105
103	0x403f9307	2.9933488
104	0x3f58a20b	0.8462226
105	0xbf90edf1	-1.1322614
106	0x401a4eaa	2.4110513
107	0x3fb4bc11	1.4119893
108	0x3fae92fc	1.3638606
109	0x3efb1b85	0.49044433
110	0x3eb4eeca	0.35338432
111	0x40243739	2.5658705
112	0x3f7bed3c	0.98408866
113	0x3fa44702	1.283417
114	0x3f0783fc	0.5293577
115	0x403016a9	2.751383
116	0x3f09aeb7	0.5378222
117	0x3fa24f47	1.2680444
118	0xbfae0009	-1.3593761
119	0x3f83a38f	1.0284289
120	0x3c8ffce8	0.01757665
121	0x3ea1a25e	0.3156919
122	0x3fe1e740	1.7648697
123	0x3e9214f4	0.2853161
124	0x3d823de5	0.06359462
125	0x3ed1b771	0.40960267
126	0x3ec57fe3	0.38574132
127	0x3e7998b0	0.24374652
128	0x3ffc1cd3	1.9696296
129	0x4074a2df	3.8224409
130	0x3f3873c9	0.72051674
131	0xbca2e206	-0.019883167
132	0x3fe55476	1.79164
133	0x3f56fd8c	0.8398063
134	0x3f82e026	1.0224655
135	0x4010b09f	2.26078
136	0x3fb31318	1.3990202
137	0x3f6c6566	0.9234222
138	0x3d22d0c1	0.039749864
139	0x3e848d3f	0.25889012
140	0x40041de8	2.0643253
141	0x3ef21c54	0.47287238
142	0x3f85dfe0	1.0458946
143	0x400f41c8	2.23839
144	0xbff0cede	-1.8813131
145	0x3fc3d058	1.5297956
146	0x3fc21bdb	1.5164751
147	0xbd442426	-0.047886036
148	0x3e5da48f	0.21644805
149	0x40261f6a	2.5956674
150	0xbfb04e10	-1.3773823
151	0x3f5269fc	0.8219297
152	0x3fce4c6e	1.6117074
153	0x3ebe4de4	0.371688
154	0x3fe477f8	1.7849112
155	0xbcd4ec06	-0.025991451
156	0xbef94afd	-0.48690024
157	0x401c43a9	2.4416296
158	0xbeca91ed	-0.39564458
159	0xbee98aa4	-0.45613587
160	0x3f4fed70	0.81221676
161	0x3f860d2a	1.0472767
162	0x3e0f1dff	0.13976286
163	0x3f509b84	0.814873
164	0x3f758daf	0.95919317
165	0xbfaa7e64	-1.3319821
166	0x3f7ab723	0.97935694
167	0x3f8670c3	1.0503162
168	0x3fca4a21	1.5803872
169	0x3f5f510a	0.8723303
170	0x3f8e7a42	1.113106
171	0xbf578028	-0.84179926
172	0xbf1d8ec9	-0.61546
173	0x3f1147c7	0.5675015
174	0x402e7e61	2.7264636
175	0x3fdb9368	1.715436
176	0x3f844c3e	1.0335767
177	0x3fa76ca5	1.3080031
178	0x3f3640b9	0.7119251
179	0x3fbf9043	1.49659
180	0xbab16882	-0.0013535174
181	0x3f97fddb	1.1874346
182	0x3f74bb06	0.95597875
183	0x3f4900d3	0.7851688
184	0x3efe5726	0.49675864
185	0x3fcf4dcf	1.619562
186	0x3fa7db02	1.3113711
187	0xbe96bd4e	-0.29441303
188	0x3e76908b	0.24078576
189	0x40310a14	2.7662401
190	0xbe8ed147	-0.2789404
191	0x40561002	3.344727
192	0x3fd9526d	1.6978279
193	0xbf101abf	-0.5629081
194	0x3f59f9db	0.85146874
195	0xbc8bc19e	-0.017060097
196	0xbf81f2a9	-1.0152179
197	0xbf4ea989	-0.8072744
198	0x3f9656d4	1.1745248
199	0xbfc22ec4	-1.5170522
200	0x3f7a7207	0.9783024
201	0xbd10d0ad	-0.03535526
202	0x3e12d2e3	0.1433826
203	0x3f0b442d	0.54400903
204	0xbf4e971f	-0.8069934
205	0xbf1b85bd	-0.60750943
206	0x3ff97f1a	1.9491913
207	0xbf05b9cb	-0.5223662
208	0xbe037df7	-0.1284102
209	0x3f26e197	0.6518797
210	0x3febcbb8	1.8421545
211	0xbf896a2e	-1.0735528
212	0xbcf6e405	-0.030138025
213	0x3f9fb702	1.2477725
214	0x401d15fc	2.4544668
215	0xbfb77f8f	-1.4335803
216	0xbe320a25	-0.17386682
217	0x3f958b24	1.1683087
218	0xbd19369d	-0.0374056
219	0xbde7db30	-0.113211036
220	0x3fe95b14	1.823092
221	0x3cc9c916	0.024632018
222	0x3fdefddd	1.7421223
223	0x3e50ac1d	0.20378156
224	0xbcbd640a	-0.023118991
225	0xbfa54230	-1.2910824
226	0x4019b9f4	2.4019747
227	0xbeb5acbb	-0.35483345
228	0x3faf8ec0	1.3715439
229	0x40083983	2.1285102
230	0x3f904d8a	1.1273663
231	0x4004bd7a	2.0740647
232	0x3ea50ed5	0.32237878
233	0x3f86c5b8	1.0529089
234	0x3f3eb8ea	0.74500906
235	0x3d83911e	0.06424163
236	0x3e3d4e55	0.18486913
237	0x3f77ac91	0.9674769
238	0x3f45839f	0.7715396
239	0x3f08a968	0.53383493
240	0x3d0ee479	0.034885857
241	0x3fc5bad9	1.5447646
242	0x3e5d6d72	0.21623781
243	0x3f9dc0b0	1.2324429
244	0xbef6cf6d	-0.48205128
245	0x3ff99486	1.9498451
246	0x3e951749	0.29119328
247	0x3f1b1921	0.6058522
248	0x3f8a9ef4	1.0829759
249	0x3d6f08ab	0.058357876
250	0x4025e3bf	2.5920255
251	0xbf80d822	-1.0065958
252	0x3f1e0a4a	0.6173445
253	0x3de6b114	0.11264244
254	0xbf9d2782	-1.2277682
255	0x3ff39492	1.9029715

action_out.bias f4 [5]
0	0x3feaa1bc	1.8330607
1	0x3e95a65f	0.29228494
2	0x3f54d553	0.83138007
3	0x3ee0aba4	0.4388095
4	0x3f2cfc09	0.67572075

weight f4 [256, 123]
0	0xc0047d85	-2.070161
1	0xbc3bc7f2	-0.011461245
2	0x3ed9db52	0.4255014
3	0xbc53c404	-0.012925152
4	0x3ed2e06e	0.4118685
5	0x3d9a3307	0.07529264
6	0x3dd02f0d	0.10165224
7	0xbf1976af	-0.5994672
8	0x4016c69e	2.3558726
9	0x3d91cb87	0.07118898
10	0x3d58328a	0.052782573
11	0xbe95eaa2	-0.29280573
12	0x3e5562b4	0.20838434
13	0xbe6d0cd3	-0.23149423
14	0x3eecde77	0.46263477
15	0xbf2609e2	-0.6485883
16	0xbf2399ef	-0.6390676
17	0xbf10e725	-0.566027
18	0x3e5675ac	0.20943326
19	0xbee828fd	-0.45343772
20	0x3f0b4c08	0.5441289
21	0xc00cf48a	-2.2024255
22	0x3f4997da	0.7874733
23	0x3fdff046	1.7495201
24	0xbf1b6114	-0.60695004
25	0x3e20dcbb	0.15709202
26	0xbe23aad5	-0.15983136
27	0xbd181a18	-0.03713426
28	0xbbd2b029	-0.0064296913
29	0xbca68fdf	-0.020332275
30	0x3bedce4b	0.007257258
31	0x3d8ac7f8	0.06776422
32	0xbd888722	-0.066663995
33	0xbc6d4e50	-0.014484003
34	0xbcd584d8	-0.026064321
35	0xbe221276	-0.15827355
36	0xc0086e11	-2.131718
37	0xbe45e1da	-0.19324437
38	0x3e290f6e	0.16509792
39	0xbe1ddacc	-0.15415496
40	0x3f03b769	0.51451737
41	0x3d22f989	0.039788757
42	0x3d8ede49	0.06975991
43	0xbeb4abf5	-0.35287443
44	0x3d245922	0.040124066
45	0x3ed6c06d	0.41943684
46	0xbe1e95f8	-0.15486896
47	0xbe9610d4	-0.29309714
48	0x3e485bc4	0.19566256
49	0xbe54aa13	-0.20768003
50	0x3ece856f	0.40336177
51	0xbf56ae0b	-0.8385932
52	0x3f6a48dc	0.91517425
53	0x3ceb434c	0.028718613
54	0x3d82eea5	0.06393174
55	0xbf0ff1cc	-0.5622833
56	0x3f136ab0	0.5758467
57	0xc009856e	-2.148769
58	0x3f714b52	0.94255555
59	0x3ff52b7d	1.9153897
60	0xbfd60018	-1.6718779
61	0x3eafbbc5	0.34322944
62	0xbf08422e	-0.5322598
63	0x3d560e50	0.052259743
64	0x3c94927b	0.018136254
65	0x3c3cf337	0.011532596
66	0xbcad1bef	-0.021131484
67	0xbd90648c	-0.07050428
68	0xbd5de116	-0.054169737
69	0xbd640e8c	-0.055677935
70	0x3d9d1561	0.07670093
71	0xbe6c5591	-0.23079516
72	0xc0031e1e	-2.0487132
73	0xbee57f5d	-0.44823733
74	0x3f31571c	0.69273543
75	0xbd137637	-0.03600141
76	0x3f01c025	0.50683814
77	0x3c2fcd9e	0.010730175
78	0xbc049b5c	-0.008093681
79	0xbf4fe1a1	-0.8120366
80	0x3e057133	0.13031463
81	0xbe25a475	-0.16176017
82	0x3e983720	0.29729557
83	0xbe5b5b0e	-0.21421453
84	0x3e377af4	0.17917997
85	0xbe70652f	-0.23476098
86	0x3eb2e2fd	0.34938803
87	0xbf08a677	-0.53379005
88	0x3c8246cb	0.015902897
89	0xbe409f99	-0.18810882
90	0x3ec86e51	0.39146665
91	0xbeef9a9b	-0.46797642
92	0x3f329edc	0.6977365
93	0xc00b5cba	-2.1775346
94	0x3f6ce1c6	0.92532
95	0x4061b01f	3.5263746
96	0xbfd727a5	-1.6808974
97	0xbcd59060	-0.02606982
98	0x3d1f5b06	0.038905166
99	0x3d87c150	0.06628668
100	0xbce0d6fa	-0.027446259
101	0x3dcd5ad2	0.10027088
102	0x3d1951b0	0.03743142
103	0x3cba48fc	0.02273988
104	0xbbf1b4e0	-0.0073762983
105	0xbbf6ce70	-0.0075319335
106	0x3ba18094	0.004928658
107	0xc1020dcb	-8.128367
108	0x3dd59125	0.10428075
109	0x3d72769d	0.05919515
110	0xbd491b18	-0.049098104
111	0xbc90a382	-0.017656092
112	0x3e0cab59	0.13737239
113	0xbc9abb93	-0.01888827
114	0x3c29d87b	0.010366554
115	0x3d9a29b1	0.07527483
116	0x3de2f1e7	0.110812955
117	0xbc974234	-0.018464185
118	0x3b96d84a	0.0046034204
119	0x3df44fbf	0.11929273
120	0xbd80624e	-0.0626875
121	0xbe197915	-0.14987595
122	0x3ddcabb7	0.107749395
123	0xbea075ef	-0.31339976
124	0xbe669b7f	-0.22520255
125	0x3c01e018	0.007926963
126	0xbdf25bb9	-0.11833901
127	0xbcd3e433	-0.02586565
128	0xbe00b151	-0.12567641
129	0x3dea14f6	0.11429779
130	0x3fa917fe	1.3210447
131	0x3f47f82a	0.78113043
132	0xbda5b11e	-0.08090423
133	0x3c15fa30	0.009153888
134	0xbf818b22	-1.0120585
135	0x3eb8cee4	0.36095345
136	0xc01a8396	-2.4142814
137	0x3f49ebe4	0.78875566
138	0x3fde5ccd	1.737207
139	0xbf88c896	-1.0686214
140	0x3f44df3c	0.7690313
141	0xbf11e32f	-0.5698728
142	0xbedae750	-0.42754602
143	0xbefc88df	-0.49323174
144	0xbf94107a	-1.1567528
145	0xbe90e1b9	-0.28297213
146	0xbe1c0a79	-0.1523837
147	0x3e54b8c6	0.2077361
148	0x3f04f87f	0.51941675
149	0x3e7d7919	0.24753226
150	0xbec62cde	-0.38706106
151	0xbdb06ef3	-0.08614912
152	0x3dbf3252	0.0933577
153	0x3e0c1e34	0.13683397
154	0xbd2fb77e	-0.0428996
155	0xbecef0e4	-0.4041816
156	0x3d7d7fb2	0.061889358
157	0x3d810095	0.06298939
158	0x3f490d42	0.78535855
159	0xbe84e0a4	-0.25952637
160	0xbf6d000e	-0.9257821
161	0x3e8c5ed4	0.27416098
162	0xbdf73c53	-0.12072053
163	0xbd9358a3	-0.071946405
164	0xbe07736d	-0.13227625
165	0x3bbdf7fc	0.0057973843
166	0xbf8097a2	-1.0046275
167	0x3f5bacfc	0.8581083
168	0xbf55260a	-0.8326117
169	0x3f27e9a5	0.6559089
170	0xbf5c24d7	-0.85993713
171	0x3e9e0fa2	0.30871302
172	0xc01da532	-2.4632077
173	0x3f4ac180	0.7920151
174	0x401bb1ad	2.4327195
175	0xc0387b2d	-2.882518
176	0x3bb2d1f0	0.0054571554
177	0xbd0a15ad	-0.033712078
178	0xbebac40e	-0.36477703
179	0xbef5aefc	-0.47985065
180	0xbf87426c	-1.0567145
181	0xbedab179	-0.42713526
182	0xbf5173ad	-0.8181713
183	0x3f84f79f	1.0388068
184	0xbf1051c2	-0.5637475
185	0x3f85913a	1.0434945
186	0xbed7e6fe	-0.4216842
187	0x3dd90a1a	0.1059763
188	0xbd2f017c	-0.042726025
189	0x3dcf1140	0.10110712
190	0xbdbd3cf7	-0.09240144
191	0x3db42dc5	0.08797792
192	0xbeed299a	-0.46320802
193	0x3d2e9fc2	0.042632826
194	0xbf96de92	-1.1786673
195	0xbe942859	-0.28937033
196	0xbf0625fa	-0.524017
197	0xbedddcd9	-0.43332556
198	0xbe87eec0	-0.2654934
199	0xbd82df67	-0.06390267
200	0xbe4f3f33	-0.20238952
201	0x3e08f57a	0.13374892
202	0xbf32b312	-0.6980449
203	0x3ed06d39	0.4070833
204	0xbf1d975e	-0.61559093
205	0xbeb809d0	-0.35944986
206	0xbf6b3072	-0.91870797
207	0x3e830f1f	0.25597474
208	0xc01de441	-2.4670565
209	0x3f470cd6	0.7775396
210	0x3f8681c2	1.0508349
211	0xbfc6a88c	-1.5520186
212	0x3ef771f9	0.48329142
213	0xbf92d1ae	-1.1470239
214	0xbef64991	-0.48103002
215	0xbeedd7bc	-0.46453655
216	0xbf809f58	-1.0048628
217	0xbe8e0613	-0.2773901
218	0x3eeab539	0.45841387
219	0xbfef9205	-1.8716437
220	0x3ad23000	0.0016036034
221	0x3d9c4a35	0.07631341
222	0xbece5726	-0.40300864
223	0x3e701f3b	0.23449413
224	0xbda2b656	-0.07944934
225	0x3da61cf3	0.081109904
226	0xbc93d59e	-0.018046197
227	0x3d3362be	0.04379534
228	0x3d879417	0.06620043
229	0xbee40996	-0.44538563
230	0xc036213d	-2.8457787
231	0x3c18cf7f	0.009326815
232	0xbdcd7bc5	-0.10033373
233	0x3e61170b	0.21981446
234	0xbda3956f	-0.079874866
235	0xbe56e945	-0.20987423
236	0xbd213c0e	-0.039363913
237	0x3e43189a	0.19052354
238	0x3d811edc	0.06304714
239	0xbe5f49d9	-0.21805514
240	0x3e7b7657	0.24556862
241	0x3c3b37a6	0.011426842
242	0x3c6c35fc	0.014417168
243	0x3e2fffca	0.1718742
244	0x3de09afd	0.10967062
245	0xbe884ca0	-0.2662096
246	0xbd5057f2	-0.05086512
247	0xbcda061b	-0.02661424
248	0x3d6e0ce8	0.058117777
249	0x3d9412ff	0.07230186
250	0xbc065e09	-0.008201131
251	0xbd463001	-0.048385624
252	0x3d092887	0.033485916
253	0xbbf7c96f	-0.0075618546
254	0x3d9ba834	0.076004416
255	0x3d537e62	0.0516342

bias f4 [256]
0	0x3ab95a23	0.0014141243
1	0xbf025001	-0.50903326
2	0xbdcdd944	-0.10051206
3	0x3e50e1f2	0.20398691
4	0xbd6e04fb	-0.05811022
5	0x3c37dddc	0.011222329
6	0xbe3ee07c	-0.18640321
7	0x3c8797f0	0.016551942
8	0xbe096060	-0.1341567
9	0xbdd5f5eb	-0.10447296
10	0xbd1bfd18	-0.038083166
11	0xbf36e0af	-0.7143659
12	0xbe5c3098	-0.21502912
13	0x3d66a43f	0.05630898
14	0xbdd8f44c	-0.10593471
15	0xbd9a51bc	-0.07535121
16	0xbcd9bccf	-0.026579289
17	0xbdf66791	-0.120314725
18	0x3d5dfd47	0.054196622
19	0xbd8840fb	-0.06653019
20	0xbf2864f7	-0.6577906
21	0xbf17bbdc	-0.59271026
22	0x3de4621e	0.11151527
23	0x3ce9d5fb	0.028544417
24	0xbce06bef	-0.027395217
25	0xbcb39861	-0.021923246
26	0xbda995cf	-0.08280527
27	0x3bb94b69	0.0056547415
28	0xbe22177d	-0.15829273
29	0x3f2712d1	0.65263087
30	0x3e0e11f1	0.13874032
31	0xbd956aa2	-0.07295729
32	0xbcc439f7	-0.023953421
33	0xbde7517a	-0.11294837
34	0xbd05c36e	-0.03265708
35	0xbd8aa7d3	-0.06770291
36	0xbf2779c6	-0.65420187
37	0xbde407a7	-0.11134272
38	0xbdd16ed2	-0.102262154
39	0xbe37f2a3	-0.17963652
40	0x3d1ee3dd	0.038791526
41	0xbdee8a25	-0.11647443
42	0x3d273da3	0.040830266
43	0x3b9fa02f	0.0048713903
44	0xbf04b751	-0.5184222
45	0x3d87bb49	0.06627519
46	0xbe83bf08	-0.25731683
47	0xbd9b3f93	-0.07580485
48	0xbcbedf09	-0.02329971
49	0xbd724969	-0.05915204
50	0x3cf05241	0.029336097
51	0xbcacae2a	-0.021079142
52	0xbdf688b3	-0.12037792
53	0x3f15fcb4	0.5858872
54	0xbd913825	-0.07090787
55	0xbf2bee87	-0.6716084
56	0xbe281da7	-0.16417561
57	0xbd18ee2e	-0.03733652
58	0xbdcb4e08	-0.09926993
59	0xbd303bfe	-0.043025963
60	0x3e7132d9	0.23554553
61	0xbdcc7c62	-0.09984662
62	0xbd897912	-0.067125455
63	0xbd314109	-0.043274913
64	0xbd8510ae	-0.06497322
65	0xbd734458	-0.05939135
66	0xbf00ba97	-0.50284714
67	0x3ca95cd8	0.020674154
68	0x3d163829	0.036674652
69	0xbcad6b8d	-0.021169448
70	0x3e94c22f	0.290544
71	0xbce3fa85	-0.027829418
72	0x3f0cf7fe	0.55065906
73	0xbd1b59f0	-0.037927568
74	0x3f329130	0.6975279
75	0x3d18baa0	0.037287354
76	0x3d457c0e	0.04821401
77	0xbf03a666	-0.5142578
78	0x3d2c2e31	0.04203624
79	0xbeba7f0c	-0.36425054
80	0x3d0299d7	0.031884994
81	0xbdc3351d	-0.09531615
82	0xbe6b0f50	-0.2295506
83	0xbd74420e	-0.059633307
84	0xbc106a75	-0.008814444
85	0xbdff706f	-0.12472617
86	0xbd44508c	-0.047928378
87	0xbd7f665f	-0.062353488
88	0xbd9378ef	-0.072008006
89	0x3c63259f	0.01386395
90	0xbe1c5f0a	-0.1527063
91	0x3c98581b	0.0185967
92	0xbdd0d860	-0.1019752
93	0xbf69f08d	-0.91382676
94	0x3bb16fc3	0.0054149344
95	0xbcb69544	-0.022287972
96	0x3bbf37fd	0.0058355317
97	0xbdf03f55	-0.117308296
98	0xbdeee619	-0.116649814
99	0xbf6c00f7	-0.9218897
100	0xbdedf3a7	-0.116187386
101	0xbd5a6840	-0.053322077
102	0xbd873366	-0.066016
103	0xbdf98abe	-0.12184666
104	0xbe1f2a3a	-0.15543452
105	0xbf4984a3	-0.7871801
106	0xbc3c75d6	-0.011502704
107	0x3d3d09e6	0.046152018
108	0xbc1304bc	-0.008973297
109	0x3cd594dc	0.026071958
110	0xbd813341	-0.06308604
111	0xbde639ba	-0.11241479
112	0xbd933b64	-0.07189062
113	0x3e730a90	0.23734498
114	0xbd8b8e75	-0.06814281
115	0xbd6f3101	-0.058396343
116	0xbcb906eb	-0.022586307
117	0x3cf57ab9	0.029965745
118	0xbdb7c57c	-0.08973214
119	0xbd011a8d	-0.03151946
120	0xbd8f9039	-0.0700993
121	0xbe04ef6f	-0.12981962
122	0xbdb61991	-0.08891595
123	0xbcb021a3	-0.021500414
124	0xbdcf016e	-0.101076946
125	0x3e9126a8	0.28349805
126	0xbd91099b	-0.0708191
127	0xbb1c5c67	-0.0023858787
128	0xbd0085f5	-0.03137775
129	0xbf66f9c7	-0.9022488
130	0xbec133b9	-0.37734774
131	0xbde90d43	-0.113794826
132	0xbdae3bcc	-0.08507499
133	0xbf4ca647	-0.7994122
134	0xbd297fee	-0.04138177
135	0xbee5d3d8	-0.44888186
136	0xbd1dd010	-0.038528502
137	0xbdb01dce	-0.08599435
138	0xbdbcb5b4	-0.092143446
139	0xbf145f0b	-0.57957524
140	0xbd4d8348	-0.050174028
141	0xbdc2ce60	-0.09512019
142	0xbe0b69bd	-0.13614555
143	0xbe06e654	-0.131738
144	0xbd3dfb2a	-0.046382107
145	0x3e653098	0.22381818
146	0xbdcc8634	-0.09986535
147	0x3f5d396c	0.86415744
148	0xbe8aad66	-0.27085418
149	0xbcb88053	-0.022522127
150	0x3edeb854	0.43500006
151	0xbf320d78	-0.695518
152	0xbe6b2f40	-0.22967243
153	0xbe516ca3	-0.20451598
154	0xbe321643	-0.17391305
155	0xbdf0a6a4	-0.11750534
156	0xbdb12d5e	-0.08651231
157	0xbdf5bfcf	-0.11999475
158	0x3ee70f06	0.4512865
159	0xbd1515bc	-0.03639768
160	0xbda8b0f4	-0.08236876
161	0xbd4b0067	-0.04956093
162	0xbd571d1e	-0.052518003
163	0xbd8f772e	-0.070051536
164	0xbef6601a	-0.48120195
165	0xbe0a63d9	-0.13514651
166	0xbdcd1417	-0.100135975
167	0xbd971e5b	-0.07378837
168	0xbe0aa637	-0.13539968
169	0x3d1369b5	0.035989482
170	0x3d007e1c	0.031370267
171	0xbb67e8c7	-0.003538655
172	0xbd8f1ec8	-0.06988293
173	0xbf29a284	-0.66263604
174	0xbd89b5a1	-0.06724096
175	0x3d46e604	0.048559204
176	0xbdb0c5b9	-0.086314626
177	0x3d742c28	0.059612423
178	0x3d00a36b	0.031405848
179	0x3e5cc3db	0.21559088
180	0xbd98a0ca	-0.07452543
181	0xbe0a985e	-0.13534686
182	0xbf36942f	-0.7131986
183	0xbeccc5a0	-0.39994526
184	0xbd4ec74a	-0.050483026
185	0xbdae3fc3	-0.08508255
186	0xbbdb51ef	-0.006693117
187	0xbdbffe06	-0.09374623
188	0xbd26af55	-0.040694553
189	0x3b7be233	0.0038434386
190	0xbe5daec3	-0.21648698
191	0xbdf6cb8c	-0.12050542
192	0xbce37c8a	-0.027769346
193	0xbe07ac2e	-0.13249275
194	0x3f41cb4d	0.7570084
195	0xbe45b7fc	-0.19308466
196	0xbef0e777	-0.47051594
197	0xbd6c08b6	-0.057625495
198	0xbc09b074	-0.008403886
199	0xbd68b2bb	-0.056811076
200	0xbef9c18d	-0.4878048
201	0xbd599607	-0.053121593
202	0xbf771971	-0.96523196
203	0xbd7a1cab	-0.061062496
204	0x3d65d321	0.05610955
205	0xbd18708a	-0.0372167
206	0xbdb2db0f	-0.08733188
207	0xbd50444e	-0.05084639
208	0xbe8d6618	-0.27616954
209	0x3cd886ff	0.026431559
210	0xbf2ea14e	-0.6821488
211	0xbe0295de	-0.12752482
212	0xbe37aad4	-0.1793626
213	0xbf63f339	-0.89043003
214	0xbf16d8c4	-0.5892451
215	0xbf9127d4	-1.134028
216	0xbe04175e	-0.12899539
217	0xbd23b0f2	-0.03996367
218	0xbde3e016	-0.111267254
219	0xbd61d3bc	-0.055133566
220	0xbd01874b	-0.031623166
221	0x3c6e5fef	0.01454924
222	0xbd99790b	-0.0749379
223	0xbdb583c1	-0.08863021
224	0xbc74e44b	-0.014947007
225	0xbe01100b	-0.12603776
226	0xbd387fc0	-0.045043707
227	0xbc22894f	-0.009920432
228	0xbd3aad8f	-0.045575675
229	0x3d5426e9	0.05179492
230	0xbd970ef9	-0.07375903
231	0xbd83c304	-0.06433681
232	0x3ee691c7	0.45033094
233	0xbeac0093	-0.33594188
234	0xbe0cfa98	-0.13767469
235	0xbf4d0c19	-0.80096585
236	0xbe8587ec	-0.26080263
237	0x3d813a33	0.06309929
238	0x3b578fa8	0.0032892022
239	0x3f345f84	0.70458245
240	0xbcb2523e	-0.021767732
241	0xbdc7378c	-0.097273916
242	0xbd10c2b1	-0.035341922
243	0xbda16c79	-0.07882018
244	0x3c8af742	0.016963605
245	0x3c37e86c	0.011224847
246	0x3bbb35dc	0.0057132076
247	0xbef5fea0	-0.48045826
248	0xbd7c3219	-0.061571214
249	0xbf2f9060	-0.68579674
250	0xba911123	-0.0011067729
251	0xbd9787e6	-0.073989674
252	0x3d22d84a	0.03975705
253	0xbda74931	-0.08168257
254	0x3c723c81	0.014784933
255	0xbd98b44e	-0.074562654
