saved_models_1/125_4688_model.pt (torch, 701697 bytes, 11 tensors)

FC1.weight f4 [256, 36]
00000000: 1a31 123e 591f a53e 0354 d2bd ce89 bdbe
00000010: 2ae5 d23e 61cf 123f fe7a 76bf 5392 8dbf
00000020: cdae c83f bf92 903f d70d bfbf 3306 b73e
00000030: 547d 2ebf fc30 ec3e 049c 103f 8c06 9dbd
00000040: 23fe b6bf 2497 d1bd 08b6 4c3f 8047 d93e
00000050: 55bf 043f b904 083f 7609 ddbf 1a86 0abd
00000060: 1be7 0f40 cb40 013f 057c 75bf d2f7 62be
00000070: 2e14 a63e 3f42 4abc fc65 b23e 2876 c3bd
00000080: 2eca 87c0 85ef bdbe f30f 483f 85b2 0fc0
00000090: 7ff0 273f e14f 123e 1fb7 1abe da04 103f
000000a0: d6fc 91bf cc33 2d3e 3e2f 473f 6ad8 8a3d
000000b0: 3408 b3bf a80e 4fbf 0f31 0a40 5a53 13bf
000000c0: 9344 95bf a79c 503e 1417 8c3f d1b0 babe
000000d0: 5ae0 10c0 7d1b ff3e 8a77 0540 e158 653f
000000e0: ef34 15bd c8a4 41bf 14de c9be e9fa fb3f
000000f0: a6cc ab3f eca2 88bf 1a84 14bf dea8 bebe
00000100: dbb6 903c c765 273e 6bfa cc3e 3050 b43e
00000110: bc0f 52c0 d83d 46c0 ca2e c33f f66a 873f
00000120: d1f9 8f3e 8170 6e3f 8562 0fbf 8071 dd3e
00000130: b857 5cbf 11ab a23f 4248 03c0 b3d7 95bf
00000140: 5a38 ff3f f173 e13e 4a49 4d3d a3a0 3b3e
00000150: 52cb 78bf 94c6 a33f 0328 e7be 415c 04c0
00000160: 7470 1b3e b191 a53f 5afe bf3e 8dd1 383f
00000170: 94e0 61bf 86eb a83e 58a3 053f 1e9d 4e3f
00000180: d28e c2bf 3177 a83e 8b7b 413f be6e 11bf
00000190: 0bbc c7be 62b6 8cbd 7641 0dbe d3a2 e0bd
000001a0: c2f7 e53e eb76 40be 4cc8 e2c0 0f86 4c3f
000001b0: f2ed 7ec0 7739 8b3e 244a c73d 6966 8d3b
000001c0: 5af4 29bf c770 8cbf 0ea4 d63d c83d e53f
000001d0: 2f47 a9bf 5062 8dbe 97c0 263f 8aee e93e
000001e0: 269a 82bf 6d4f 1cbf acbe d83e 599e 823f
000001f0: 35df edbf eefe 13be 548f 653f 5763 35bf
00000200: 80da 27bf 924c 173e 31f0 5c3f 8bb0 313e
00000210: cf0c 09c0 61b9 1240 a823 b23f e2a3 f6bc
00000220: 5b2e 1bc0 747e 7d3f e0e5 0c3e d77f 81c0
00000230: 5216 72bf 490b 67bf 5014 393f cf94 47c0
00000240: 0040 7cbf 3c4f 98be d2f6 e9bd 9f1b 90be
00000250: ebf2 af3f 30d5 90bd 7a62 aabf 1664 3dbf
00000260: 9c0e 9140 636a 243f 5955 90c0 4bf5 8abe
00000270: b272 403f f069 ddbd 8661 48bf 14a9 f53d
00000280: 3770 9e3f 1122 ff3d 76c5 cebf 2e5c 493f
00000290: 6031 c13e 505a 77bf 1565 72bd 7c20 d73f
000002a0: af05 a6be e19f e8bf 6bc7 a1be bbfe 903e
000002b0: cec6 913d ce40 a73e 3d87 28bd 4940 283e
000002c0: 2779 6c3f c243 643f bf84 acc0 a67a 9bbf
000002d0: 7dcc 02c0 2d82 afbd c9a3 be3e e481 e03d
000002e0: e42a 103f e12a 3d3f 6ede a4bf a3d5 2ec0
000002f0: 3c1c 1040 4b21 80bf 9bf5 1b3f bec1 6abf
00000300: 0eac dcbc a5c2 5abe a6da 64be dc76 dfbe
00000310: 4886 f0bd a43f b8bc e3d7 d2bc d238 80bf
00000320: 201e 27bf 6188 ccbe 79b4 793f 209e ae3e
00000330: d838 13c0 85ee 8b3f 726e 033f f6aa 073f
00000340: a71d 5a3f 3dca 8bc0 9726 6fc0 129d 21bf
00000350: caad b93f 6fb1 bdbe e60d 37c0 a99b 3ac0
00000360: bd6a 423d b78a efbd 9f5e 833d 6a50 49bf
00000370: ba6b 0f3f 3b3c f7bd b9d4 163e 1910 d8be
00000380: 75a1 a33f 292f 0340 a5dd 3d3f 511e 4a3f
00000390: 43f7 39be 7655 88bf 0993 853f 6c13 d33f
000003a0: 3af1 9ebf 4438 aebf 89ac 713f bf77 a33e
000003b0: 7266 c93e f9b7 b0bf f9fa 08bf 247c 993f
000003c0: beb2 2a3f a86c 8abf c02a d7be 07e7 b43e
000003d0: bf07 41be 1f5d b73e 302a 5cbd 7e52 0d3f
000003e0: 7c67 8d3f 67f2 debf e1dd ce3d 120c 793f
000003f0: a1ac c73e 05ff e3bd 1e9d c0be 33b8 90bf
0.14276543 0.3225048 -0.1026993 -0.370192 0.41190463 0.57347685 -0.9628142 -1.106028
1.5678345 1.1294783 -1.4926099 0.35746917 -0.68159986 0.46131122 0.5648806 -0.07667264
-1.4296306 -0.10233906 0.7996526 0.42437363 0.5185445 0.53132206 -1.7268512 -0.033819295
2.2484806 0.5048949 -0.95892364 -0.22164848 0.3243727 -0.012344896 0.34843433 -0.09544021
-4.24343 -0.370968 0.78149337 -2.245271 0.6560134 0.14288284 -0.15108918 0.562574
-1.1405284 0.1691429 0.7780646 0.06779559 -1.3986878 -0.8088174 2.1592443 -0.5754906
-1.1661552 0.20372258 1.0944543 -0.36463025 -2.2636933 0.4982566 2.085421 0.89588743
-0.036427435 -0.7564206 -0.39427245 1.9685947 1.3421829 -1.067472 -0.5801407 -0.3723821
0.017665317 0.16347419 0.40034804 0.35217428 -3.2822104 -3.0975246 1.5248654 1.0579517
0.28120282 0.9314042 -0.56009704 0.43250656 -0.8607135 1.2708455 -2.0512853 -1.1706451
1.9939072 0.4403377 0.050118722 0.18322997 -0.9718524 1.2794976 -0.45147714 -2.0681307
0.15179616 1.2935086 0.37498742 0.7219475 -0.88233304 0.3299219 0.5220237 0.8070849
-1.5199835 0.32903436 0.75579137 -0.56809604 -0.39010653 -0.06870724 -0.13794503 -0.10968556
0.44915587 -0.18795364 -7.0869503 0.7989206 -3.983273 0.2719228 0.09730938 0.0043151868
-0.66388476 -1.0971917 0.1048051 1.7909479 -1.3224849 -0.2761407 0.6513762 0.45689803
-1.0203292 -0.61058694 0.4233297 1.0204574 -1.8583742 -0.14452717 0.89671826 -0.70854706
-0.6556778 0.14775303 0.86304003 0.17352502 -2.1414068 2.2925646 1.3917131 -0.030107442
-2.4247043 0.9902108 0.13759565 -4.0468554 -0.9456531 -0.90251595 0.7229662 -3.1184576
-0.98535156 -0.2974795 -0.1142403 -0.28146073 1.3746008 -0.07071912 -1.3311303 -0.73980844
4.5330334 0.64224833 -4.5104184 -0.2714027 0.7517501 -0.108112216 -0.7827381 0.1199514
1.2377995 0.124576695 -1.615401 0.7865628 0.37732983 -0.9662218 -0.05917843 1.6806788
-0.3242621 -1.8173791 -0.31597456 0.28319344 0.07117997 0.3266663 -0.0411446 0.16430773
0.92372364 0.8916589 -5.3912044 -1.2146804 -2.043731 -0.08569751 0.37234333 0.10962275
0.56315446 0.73893553 -1.288038 -2.7317894 2.2517233 -1.001016 0.6092164 -0.9170188
-0.02693751 -0.21363313 -0.22349033 -0.4364537 -0.11744362 -0.022491284 -0.025737708 -1.001734
-0.6528034 -0.399478 0.97541004 0.34105015 -2.3003445 1.0932165 0.513404 0.5299524
0.85201496 -4.3684373 -3.7367303 -0.63130295 1.4506161 -0.37049434 -2.8602233 -2.9157507
0.047465075 -0.1169638 0.06414532 -0.7863833 0.5602375 -0.12072035 0.14729585 -0.42199782
1.2783648 2.0497534 0.7416633 0.7895251 -0.18160729 -1.0651081 1.0435497 1.6490302
-1.2417367 -1.3610921 0.9440389 0.31927297 0.39335972 -1.3806144 -0.53507954 1.199101
0.6667899 -1.0814409 -0.42024803 0.3533251 -0.18850611 0.35813233 -0.05375117 0.55204
1.1047206 -1.7417725 0.10100914 0.9728404 0.38998893 -0.111326255 -0.3761987 -1.1306213

FC1.bias f4 [256]
00000000: 7aed a9be c652 2cbf cc93 0cbf a4f7 7dbc
00000010: 2486 973e 6abe dc3e ee28 1c3e bce8 ceba
00000020: 1c09 f7be 0eee 55bf ecc0 273c 2dac 3bbe
00000030: d585 f5be 8f78 94be 9068 22be 528a 40bd
00000040: c154 293e d8f8 e7be aa19 343f f18e 583f
00000050: 0d11 88bd 9656 8ebe 2cae d5be e1f3 13bf
00000060: 4a3b a3be 1125 22be f2dd 38bf 4096 d43d
00000070: fce5 5cbf 23fe 283c 830b d8bd 4887 8abd
00000080: 9233 35bf 240e 633e 54a6 72bd c032 273f
00000090: 34a6 dbbe 2ffb edbe e0d4 afbe a52c e3bd
000000a0: eb1a 2e3e fb61 ccbe ce30 713e d504 35bf
000000b0: 469c 3b3e 5b53 fdbd 2fc8 a4bf d243 8bbe
000000c0: bc56 943d 0ac7 babd 0a25 703f ff4b 48be
000000d0: 0b2e 00bf fd51 f0be a417 3e3e 6933 39bf
000000e0: f64b cfbe c92c 99bc d7b4 32bd c5ac 153e
000000f0: f49e 3bbe 1da8 fa3c e13e e83d 89ad 7c3e
00000100: c8c5 2f3e c961 b1be 1065 a53a b18e 10be
00000110: bb68 033e 16d3 acbd 4a92 10be 9203 acbe
00000120: 63eb 843e e85d ad3f 7fb8 adbd ba4f 03bd
00000130: 3a28 1fbf 0ef1 46bf 857b 9abe d2b9 383f
00000140: c810 44bf 54e0 97be 261a e63d 63b6 cdbd
00000150: f586 e5be db51 2c3f 7384 fabd 2fd5 9d3e
00000160: 9775 70bf 27e1 bc3e 9d01 fc3c 49d8 0ebf
00000170: 8f13 d7be e9e8 6e3f 3e24 1dbe 0ed0 f0bd
00000180: 5727 39bf 0ccd a2be 1373 61bf 7326 4bbf
00000190: af97 9ebe 2147 973e db0b b8be bd22 3dbf
000001a0: 71a4 04be 6a32 223f 9ad8 1c3d 0857 a4bd
000001b0: 01da a43e 7c0b 983e 12c1 043d 521e 3dbf
000001c0: 0564 bfbe 3867 2cbe b777 47be 5fc7 dabd
000001d0: d9cc 89be c320 563d fc04 dfbe aa5c d7bd
000001e0: 69c4 c4be bd2c e2be e1e6 643e b01d 1a3e
000001f0: f75f 27bf d223 7ebe 4d8e cbbe eb69 13bf
00000200: b5e1 e6be 3898 e1bc b0fd 37be a278 143f
00000210: 8a4f ed3e 148d 733d 1985 3d3d 273b e2be
00000220: 11f3 f4be 1dd7 6c3c c334 c1bd 4748 e9bc
00000230: 78c1 6dbe a298 2ebc 9f0e b5be fdd2 eabe
00000240: df09 01bf f69e 14bf dc3a bfbc fec5 943f
00000250: e2f7 59be 88ab 813e aaef 193f 8365 40bc
00000260: b3d1 6cbb 4b31 3bbe f929 543f d9aa 1ebe
00000270: fc4d 02be 783c 823c 3de5 5b3f eb02 89be
00000280: a887 60be da21 303e 50d8 563f 947a 123e
00000290: cb50 5c3d 571c 923e a288 10bf ee43 bbbd
000002a0: 3ce1 db3e 3e17 f5bd 8284 26bf 4013 32bf
000002b0: dabc 233f 8143 a53d be25 b73e 1563 26be
000002c0: c99e 7b3e f657 c1be e8ab 95bf b5a8 64bf
000002d0: 2fec a73e d3b8 24bf c543 febe 4297 383e
000002e0: 39a5 4ebe a3a0 8abe e7c6 93be 5fca bfbe
000002f0: 454b 113f 9c63 11bf 67c0 283d bd17 06be
00000300: 05d3 dc3e 7b46 da3e 338b 983f 1db1 a9bd
00000310: e257 5abe cb0b 1dbe 3182 cb3e d2cb 8c3d
00000320: a157 c5be 9ef9 28bf 68ee e4bc cbc7 7fbe
00000330: 86b3 93be c19e 983e e7a4 1a3f c77e 83bc
00000340: dea7 1cbe a84f 103f 9d0b aabe 65af 413e
00000350: 1eed 13bf 8eba 39bf cfda 23bf 6972 20bf
00000360: 12ba bdbe bc0e afbe 7e3e 053e 54f6 423e
00000370: 36e4 b4be d4b8 193e 5519 2ebd 5cca 3c3f
00000380: 41cf e6be ed14 41bf 5108 1dbf f3cf 07bf
00000390: 1aac 28bd b79a 863b 19d3 003f 4bf9 16bf
000003a0: 05e2 b03e 9cee 1abf 5ea2 1ebf 5698 09be
000003b0: 19da 71bf ea72 0e3f 5590 e93d 39c1 97be
000003c0: 3326 833d 44cf 11be c5c0 063e a7a4 4a3f
000003d0: f7e6 4b3f e023 50be c3f1 aabe 98a2 853d
000003e0: 6b8b 8cbe 0be6 ed3c 716c 58be ec28 8ebd
000003f0: 067e 9cbe 444f 663f c804 f2be 390d 69bf
-0.33188993 -0.673138 -0.5491302 -0.015500937 0.2959453 0.43114024 0.15249988 -0.0015785913
-0.48249137 -0.8356637 0.010238867 -0.18327399 -0.47953668 -0.2899823 -0.158602 -0.047006913
0.16536237 -0.4530704 0.7035166 0.8459311 -0.06643877 -0.27800435 -0.41734445 -0.57794005
-0.3188117 -0.15834452 -0.7221366 0.103802204 -0.8628843 0.010314497 -0.10549071 -0.06764084
-0.70781815 0.22173363 -0.059240654 0.65311813 -0.4290024 -0.464807 -0.34342098 -0.110925
0.17002456 -0.39918503 0.23553774 -0.707105 0.18321332 -0.123694144 -1.2873591 -0.2720018
0.07243106 -0.09119995 0.9380652 -0.1956024 -0.50070256 -0.46937552 0.18563706 -0.7234407
-0.4048764 -0.018698113 -0.043629494 0.14616688 -0.18322355 0.03059774 0.11340118 0.24675573
0.17165291 -0.34644917 0.001261862 -0.14116932 0.1283292 -0.08438699 -0.14118305 -0.33596474
0.25960836 1.3544283 -0.084824555 -0.032058455 -0.62170756 -0.7771157 -0.30172363 0.7215854
-0.76588106 -0.29663336 0.11235456 -0.10044553 -0.44829527 0.673124 -0.12232294 0.3082671
-0.9392943 0.36890528 0.030762488 -0.55798775 -0.4200711 0.9332414 -0.15345857 -0.11758433
-0.7232565 -0.31797063 -0.88066214 -0.79355544 -0.309751 0.29546455 -0.35946545 -0.7388113
-0.12953354 0.63358176 0.038292505 -0.080244124 0.32197574 0.29696262 0.03241069 -0.7387439
-0.37380996 -0.1683625 -0.19479261 -0.10682558 -0.269141 0.052277338 -0.4355849 -0.10515721
-0.384311 -0.44174758 0.22353698 0.15050387 -0.65380806 -0.24818352 -0.39757004 -0.57583493
-0.45094076 -0.027538404 -0.17967868 0.5799657 0.46349746 0.059460714 0.04626951 -0.44185755
-0.47841695 0.014455584 -0.094338916 -0.028476847 -0.23218334 -0.010656508 -0.35362718 -0.45864096
-0.5040569 -0.58055055 -0.023343496 1.1622922 -0.21285966 0.2532618 0.60131323 -0.011742952
-0.0036135733 -0.18280523 0.82876545 -0.1549486 -0.12725061 0.015897974 0.85896665 -0.2676004
-0.21926749 0.17200413 0.83923817 0.14304572 0.053787988 0.28537247 -0.56458485 -0.09143816
0.42945278 -0.11967324 -0.6504594 -0.69560623 0.6396004 0.08069516 0.35770983 -0.16248734
0.2457229 -0.3776242 -1.1693087 -0.89319927 0.3279738 -0.6434452 -0.4966108 0.1802645
-0.20180215 -0.2707568 -0.28862688 -0.37459084 0.5675548 -0.56792617 0.041199114 -0.13094993
0.43129745 0.42631897 1.191748 -0.08285735 -0.21322587 -0.1533653 0.39747766 0.06874813
-0.38543418 -0.66005886 -0.027945712 -0.24978559 -0.28847903 0.2980862 0.6040787 -0.016051663
-0.15298411 0.56371546 -0.33211985 0.18914564 -0.5778369 -0.72550285 -0.6400575 -0.62674576
-0.37056023 -0.3419093 0.1301212 0.19039279 -0.3533036 0.15011913 -0.042504627 0.73746276
-0.45079997 -0.75422555 -0.61340815 -0.5305168 -0.041179754 0.004107799 0.5032211 -0.5897414
0.3454744 -0.6052034 -0.619665 -0.13437018 -0.94473416 0.55644095 0.11404482 -0.29639605
0.0640377 -0.14239222 0.13159473 0.7915749 0.796493 -0.20326185 -0.33387575 0.06525153
-0.27450117 0.029040357 -0.21135117 -0.06941399 -0.30564898 0.899647 -0.47269273 -0.910358

FC2.weight f4 [256, 256]
00000000: f593 4ebe e2da 98be afdd 66bf a696 27c0
00000010: 8fa1 a33f 15e7 d23e ca34 1dbd a392 5ac0
00000020: 6a17 af3e 5b46 9d3f 760f 04bc 6543 403f
00000030: 0283 78bf 103c a0be 7ce7 2c3f eb1d 5e3f
00000040: f236 d4bf 3a8d 7f3f 9ef2 c5be e482 753e
00000050: 1240 1f3d e1b1 0c40 39d0 8dc0 b3e0 7d3e
00000060: 6f14 cd3d 4486 78c0 8968 6fbf d570 5bc0
00000070: 98bc bb3f 7dbc 3a3f c5ed 59bf 9d17 ddbf
00000080: 9486 9abf 3ca4 a63e 477f 83bd cdf3 f93d
00000090: 71ef 9bbf a683 da3f 2b76 0a3f a7e7 5e3f
000000a0: 3fb0 03bf d649 713d aaec 15c0 3c21 91bf
000000b0: de9a 913f 1e54 0fbe c244 eabf 7da5 b1be
000000c0: 2132 f83a 2bae c6be d93b 69bf 58b8 94bc
000000d0: 85ef 88be 23de 11c0 7d4b 98bf d005 07c0
000000e0: c2e9 f63d 9760 253f bc85 17c0 7e45 233e
000000f0: e842 b33e a7d9 503f 8b19 8a3f 428d 503f
00000100: da37 403e 3d3f 0240 71a5 0abf 3ea4 23bd
00000110: d61c b2c0 3d4d 94bd 9676 f43e 0e08 41be
00000120: ac16 2e3f fee9 adbf ab28 dc3e 5a05 cf3f
00000130: ad3e ebbe 7884 25bf e906 813f 9091 893f
00000140: 1fa2 3c3f d7a3 f2bf ff27 3d3f 8cbf 59bf
00000150: 4f45 93bf a033 143f 2fcd ae3e 4708 a1bf
00000160: 708e e93d 5ea4 cf3e fa76 5abc 3de7 06c0
00000170: 43a7 a43e 7619 34bf 1c45 ff3e 8bcc 153f
00000180: f373 1440 994f 1dc0 6a32 833e d9a3 cebf
00000190: ead2 7a3f 6fc4 fcbe d66b f5bf 5c13 29be
000001a0: f24f 283c 9a10 403f 9826 db3f c16e 203e
000001b0: 77f5 bf3e 5661 05bf c8e2 a53e 9925 c63e
000001c0: c4a2 efbf 86f9 23c0 c5f3 fa3e d4fd 14c0
000001d0: 9fdf ce3e 8258 2d3f 6ef0 20bf ec4d 133d
000001e0: 9c6d babc 51fd d4bf ff27 1fbe 5454 cd3d
000001f0: 0106 e3bf cc20 393e 6c26 a43f 7d5e 23bf
00000200: c65c 2fbf 18c5 c53e ffe2 6d3f 713b 4c3f
00000210: 2b12 5d3e c77b 1cbf 7e53 0bc0 c4d3 903f
00000220: d03c 88bf 0350 ebbe 997f 16c0 a79a 7f3f
00000230: 3e22 b2bc 9541 5cc0 b195 703f c841 0c3e
00000240: 1871 1bc0 1b6d fa3c ea5b 153f 58a8 4f3f
00000250: 5a80 8dbd d33f 3dbc 91bc 753f 0679 3d3f
00000260: 8ba9 bfc0 73ae e1be e77a efbe d246 15bd
00000270: 8b9b b5bd 73a8 0d40 ee84 a13f 555e b0be
00000280: 199d 93be e4c3 fdbe 9858 25bf f03f e83e
00000290: 6d26 0dc0 e5c8 cbbf 592e ec3e 0060 7abf
000002a0: 2ef0 65be 7f74 38c0 c525 7c40 67ad 08bf
000002b0: ada0 43bf 5bdd 94bf a317 853f 6486 84bd
000002c0: a930 513f fe89 ccbf 5b06 03bf 5538 90bf
000002d0: 6911 363e 8de4 cd3f 73d9 693e ef65 b03f
000002e0: 1040 6b3f d179 e6be 09b4 85bf a265 503f
000002f0: ce9e 8e3f 6c2c 00bf b70e 0740 9292 353e
00000300: e6d9 a63e e57c 023f 2dd0 cabd 6dff 753f
00000310: 37d6 79bd a56d 9ebf 9149 fb3e 2325 4ac0
00000320: ca2b 533f 41fb 0a3e 8875 53bc 306e 9fbe
00000330: c095 0dbe 88ab ebbf 0a4e 28bf 1f2d 1140
00000340: bfb0 a4be eba1 04be 9b5c 293f 3ed9 d63f
00000350: c428 b73f 102e c83e 2ca7 90bf 8152 d7be
00000360: 8106 dabc 6e5f 853f 45ba 98c0 842d 58bf
00000370: 42d9 4fc0 52c2 03bf 5cc2 593f 0e54 d73f
00000380: 1804 2740 f74c 99be 3c5a 0c3f 68b9 30bf
00000390: 531b e0bf ffd9 f43e 5fe2 5a3e 0374 1dbf
000003a0: e157 b9be d723 a8bf 98ca a63f f7d4 a9bf
000003b0: e9df 86c0 4c36 983f 86f1 d93f ed80 26bf
000003c0: 9399 963b 2adf 6ec0 b529 403e 47e5 46bb
000003d0: 9b52 b13f b5b2 d93e 571d 15be bcda b73e
000003e0: dec5 823e aed0 af3e ffba f2be e27a 05be
000003f0: b9e2 493e a95e 0fbf 7e9c 07c0 cae5 9fbf
-0.20173629 -0.29854494 -0.9018201 -2.6185699 1.2783679 0.41191927 -0.03838042 -3.4152
0.3419755 1.2287096 -0.008060327 0.75102836 -0.970749 -0.31295824 0.6754072 0.867644
-1.6579268 0.9982487 -0.38661665 0.23975712 0.03887946 2.1983569 -4.431668 0.24792747
0.10013663 -3.883195 -0.93518883 -3.4287617 1.4666929 0.7294386 -0.8512843 -1.7272831
-1.207232 0.32547176 -0.064207606 0.122047044 -1.2182447 1.7071426 0.5408656 0.87072223
-0.51440805 0.058908306 -2.3425698 -1.1338267 1.1375387 -0.13996932 -1.8302233 -0.3469657
0.0018935838 -0.38804755 -0.91106945 -0.018154308 -0.2674524 -2.2791831 -1.1898037 -2.1097298
0.120563045 0.6460051 -2.3675375 0.15944478 0.35011983 0.8158211 1.0789045 0.8146554
0.18771306 2.0351098 -0.54158694 -0.039951555 -5.56602 -0.072412945 0.47746724 -0.18850729
0.68003345 -1.3587034 0.42999777 1.6173508 -0.45946255 -0.64655256 1.0080234 1.0747547
0.7368488 -1.895625 0.73889154 -0.850579 -1.1505526 0.57891273 0.34140918 -1.2580651
0.11404121 0.4055509 -0.01333403 -2.1078637 0.3215886 -0.7035135 0.49857414 0.5851523
2.319577 -2.4579833 0.256244 -1.6143752 0.9797808 -0.49368617 -1.9173534 -0.16511291
0.010272967 0.7502533 1.7121153 0.1566725 0.37491962 -0.5210165 0.32399583 0.3870056
-1.8721547 -2.5621047 0.49014106 -2.3279924 0.40404984 0.6771318 -0.62866867 0.035962984
-0.022757344 -1.6639806 -0.15542601 0.1002585 -1.7736207 0.18078917 1.2824225 -0.6381605
-0.68500936 0.38626933 0.92924494 0.797782 0.21588962 -0.6112637 -2.176971 1.1314626
-1.0643559 -0.45959482 -2.351538 0.99845356 -0.021744844 -3.4415028 0.9397841 0.13696969
-2.4287777 0.030569604 0.58343375 0.8111625 -0.06909247 -0.011550861 0.95990855 0.7401279
-5.989446 -0.44078407 -0.46773455 -0.036444493 -0.08867558 2.2134063 1.2618692 -0.3444697
-0.28830793 -0.49563515 -0.6458831 0.4536128 -2.2054703 -1.5920683 0.4612911 -0.97802734
-0.22454903 -2.8821104 3.9398053 -0.5338959 -0.76417047 -1.1630052 1.0397838 -0.064709455
0.81714875 -1.5979612 -0.5118157 -1.1267191 0.17780079 1.6085373 0.22836857 1.3781108
0.91894627 -0.45014814 -1.0445567 0.8140508 1.1142213 -0.5006778 2.1102731 0.17731693
0.32588118 0.50971824 -0.09902988 0.96092874 -0.060995307 -1.2377211 0.49079564 -3.1585166
0.8248869 0.13572408 -0.01290644 -0.31138754 -0.13826656 -1.8411722 -0.6574408 2.268379
-0.32166097 -0.12952392 0.6615693 1.6785047 1.4309316 0.39097643 -1.1301017 -0.42055133
-0.02661443 1.0419748 -4.772738 -0.8444445 -3.2476354 -0.51468384 0.85062194 1.6822526
2.6096249 -0.29941532 0.54825187 -0.6903291 -1.7508339 0.47822568 0.21375416 -0.61505145
-0.3619986 -1.3135937 1.3030577 -1.3268117 -4.214833 1.189157 1.7026832 -0.65040475
0.004595944 -3.7323709 0.1876591 -0.0030349062 1.3853334 0.42519155 -0.14561974 0.3590907
0.25541586 0.34338897 -0.47408292 -0.13035157 0.19715394 -0.56003815 -2.1189265 -1.2492001

FC2.bias f4 [256]
00000000: 86a2 e6bd 6831 a3bd 67d0 43bf 0c36 debd
00000010: 43bb 7ebf 0a4b 8ebe 3407 083f 15c4 033d
00000020: 42f9 34bf a85f aebf 7e6e 16bf 7ed6 dbbd
00000030: 367b adbf 7ba4 1bbd e86d a1bf 8bce 3bbf
00000040: b021 b2bd 4296 55be 82ce f8bd bfde 9abf
00000050: ebd0 74bf e9af 13be a334 fe3e c442 abbf
00000060: 566e 09bd 1bab 13be 524b 523e 8abe 5cbd
00000070: bd2e 0dbf 0fc8 abbe 5635 c1bf 8202 9ebf
00000080: 233f 87bf 9318 9ebd b0bb 9dbe fa11 26bf
00000090: f64c febd 907b d9be 592d 70bf 741c 1a3f
000000a0: be99 e3be 1e85 38bf 4b0a 093f 37c6 22bf
000000b0: 4350 a43b 3d45 88bf 9c91 82bf addb 8b3e
000000c0: 3186 d6bd 83c5 92bf 1ede 72bf 26c1 09bf
000000d0: 62ac d8bd 80e6 aabe c0b9 a2bf 376d b6be
000000e0: d669 fbbe 2ce6 ddbe bd98 183c dfe8 7dbe
000000f0: 3085 c23e 0b49 c5be 7a02 c9bf 1f6a 07be
00000100: 8f1c 5f3e 88ae 333e 8df0 a7bf 75ff 0ebf
00000110: 0f5d 01bf ae09 2dbe 5395 8dbf bcb5 72bf
00000120: 3b67 e9be dd0a 02be 85e5 053e 5a5a 60be
00000130: 5d54 87bf fddf f7be a5f6 5ebf 033e 40bf
00000140: 6b27 c0be 91e0 c4bf 1883 afbd 2f3c fbbe
00000150: ca80 16be 3810 d4bf a194 4ebf f2e0 d8be
00000160: 8537 0ebf 9679 7c3f c955 3fbf f397 42bf
00000170: a4d3 fabe 27fd e9bf 9943 bbbf 9e47 88be
00000180: d124 a4bf 70f9 20bf cde9 85bf b69a 94bf
00000190: 4880 5abf a496 fbbe 17d2 c63e 05fc 23be
000001a0: 8532 15bf 06a3 9bbe 2e04 b03f c919 97bd
000001b0: 62f7 7fbf 7e8b 95bf c042 49be 93d3 a4be
000001c0: 0560 0a3d 5ccd c93e fa0a 663e 77f0 5cbf
000001d0: 1418 b5bd 7972 60bf 1d13 8cbf 95b1 3dbf
000001e0: d68f 6fbd be57 94bf 1160 913e 0be6 67bf
000001f0: 9d6f a0bd 39e4 493e becd 4abe 7e00 27bf
00000200: ce38 5cbe 2bbd babf 1515 5ebf f0b4 26bd
00000210: bdd8 783d 02d1 d2bd e6f1 3cbf f89e 2cbf
00000220: 3d79 03be eae0 c03f 8a1a 06c0 dd69 d5bd
00000230: 8f91 41bf 6deb c1bd e7eb eabd 90f5 5bbe
00000240: 3e9b 1fbf 7fc5 86be 76b4 b8be 4cec 8bbe
00000250: 8ff5 91be cb95 7dbf 39e8 87bf 2fab 05be
00000260: 9894 833d 902f 05be 40fd 1b3f f0b0 e1bf
00000270: 5aac 07bf 11a5 a6bf 9413 133c 2fc2 6fbe
00000280: 829a afbd 62cd ed3e 30f2 9dbf eaca 213f
00000290: 55a2 66bf 02b1 37bf c775 18bf 6eab 82bf
000002a0: 9dcb 88bf b71d 1ebf 70f8 80bf 91a9 1fbf
000002b0: 0c3d 23bf 21da d2bf 42b7 b1bf 1605 b1bf
000002c0: ef6e f5be 0504 2bbf babe 65bf fe5a 853e
000002d0: e3ea 22bd 84f4 7abf 2b83 c4be 146a 1fbf
000002e0: c992 503f 6e73 80bf f7a2 76bf ab29 383e
000002f0: 75f3 50be cc59 203e 6839 a5bf 9ebb a6bf
00000300: 1d94 dfbe 07dc 85bf a37c 17bf c118 60bd
00000310: f707 4fbe f496 b8bf fe51 a3bd eec1 f2be
00000320: df2c 42bf 1ff0 73bd 4c4a 3ebe 7da7 21bf
00000330: 6c50 acbe 828d f2bd 77ff d9be 263b 8dbf
00000340: 84e4 a5be 1637 803f db3a 64bd da96 71bf
00000350: 53e2 bd3d 1df5 7abf 7b8c 52bf daf5 0dbf
00000360: 0958 cbbf 25da 2ebc e4f3 b7bd 87ca 3abf
00000370: 031a 77be fecc 1bbf 2cb6 78bf 84ea 27be
00000380: c672 053d be34 89bd 25a5 27bf 84df bbbf
00000390: 7691 94bf 3974 9dbf 2881 03bf 0b77 acbf
000003a0: 1177 93be bcd3 a1be efa7 133d 26d4 67bf
000003b0: ddf2 2dbf 4d02 19be c3e3 d7bf b47e adbf
000003c0: c814 d6bd a45f 81bf 67a8 e5be 15c2 433f
000003d0: 4f63 b9bf 2757 e8be 3597 debd 3ef9 81bf
000003e0: a93e 82bf d7cb 09be e71d d1be 0da8 a2bd
000003f0: ae4c 90bd f69d 56be be2d 16bf 2a71 38bf
-0.11261468 -0.07968408 -0.7648987 -0.108501524 -0.9950449 -0.27791625 0.5313599 0.03216942
-0.7069284 -1.3622942 -0.5876235 -0.107342705 -1.3553226 -0.037998658 -1.2611666 -0.73362035
-0.08697832 -0.208581 -0.12148763 -1.2099227 -0.95631284 -0.14422573 0.49649534 -1.337975
-0.03355249 -0.1442074 0.20536545 -0.05389265 -0.5514944 -0.3355107 -1.5094402 -1.2344515
-1.0566143 -0.07719531 -0.30807257 -0.6487118 -0.12417023 -0.42477083 -0.93819195 0.60199666
-0.44453233 -0.7207812 0.5353133 -0.635837 0.0050144508 -1.064613 -1.0200686 0.27316037
-0.10474814 -1.1466526 -0.94870174 -0.53810346 -0.105797544 -0.33378983 -1.2712936 -0.356302
-0.49104184 -0.4333967 0.009313759 -0.24795865 0.3799224 -0.3853229 -1.5703881 -0.13224076
0.21788238 0.17547047 -1.3120285 -0.55858546 -0.5053262 -0.16898224 -1.1061195 -0.94808555
-0.4558657 -0.12699457 0.13075836 -0.21909466 -1.0572621 -0.48413077 -0.870951 -0.7509462
-0.37530074 -1.5381032 -0.08569926 -0.49069354 -0.14697567 -1.656745 -0.8069554 -0.4235912
-0.55553466 0.98623025 -0.7474027 -0.76013106 -0.48989594 -1.8280381 -1.4630004 -0.2661714
-1.2823735 -0.6288061 -1.0461975 -1.1609714 -0.8535199 -0.49138367 0.3883216 -0.16014107
-0.5828021 -0.30397815 1.3751276 -0.07377965 -0.9998685 -1.1683195 -0.1965437 -0.32192668
0.033782978 0.3941449 0.22465125 -0.8630442 -0.08842483 -0.8767467 -1.0943333 -0.74099094
-0.058486782 -1.1589277 0.28393605 -0.9058539 -0.078337885 0.19715966 -0.19805047 -0.65235126
-0.21506044 -1.458898 -0.8675092 -0.0406999 0.060753573 -0.10293771 -0.7380661 -0.6743007
-0.12839217 1.5068638 -2.0953698 -0.104205824 -0.7561273 -0.09468732 -0.11470776 -0.21480393
-0.62346256 -0.26322553 -0.3607518 -0.27328718 -0.2850766 -0.9905669 -1.0617744 -0.13053583
0.064248264 -0.13006425 0.60933304 -1.7632122 -0.5299736 -1.3019124 0.008976836 -0.23413919
-0.08574392 0.46445757 -1.2339535 0.6320025 -0.9009145 -0.7175447 -0.59554714 -1.0208566
-1.0687138 -0.6176409 -1.0075817 -0.6236811 -0.63765025 -1.6472818 -1.3884051 -1.3829677
-0.47936198 -0.6680301 -0.8974415 0.26045984 -0.039774787 -0.9802935 -0.38381323 -0.6227124
0.81473976 -1.0035226 -0.96342415 0.17984645 -0.20405371 0.15659255 -1.2908144 -1.3026006
-0.4366769 -1.0457772 -0.59174556 -0.054711107 -0.20217882 -1.4421067 -0.07974623 -0.47413582
-0.7584972 -0.05955517 -0.1858303 -0.6314619 -0.33655107 -0.11843397 -0.42577717 -1.1033676
-0.32400906 1.0016811 -0.05572019 -0.94370806 0.092716835 -0.98030263 -0.82245606 -0.55453265
-1.5886241 -0.010672127 -0.08982065 -0.7296528 -0.24131016 -0.6085967 -0.9715297 -0.16398054
0.03258016 -0.06699513 -0.65486366 -1.4677587 -1.1606891 -1.2301093 -0.5136895 -1.3473829
-0.28801778 -0.31606853 0.036048826 -0.9055809 -0.67948705 -0.14942284 -1.6866382 -1.3554292
-0.104531825 -1.0107312 -0.44855043 0.7646802 -1.4483432 -0.45378992 -0.10868684 -1.0154188
-1.0175372 -0.13456665 -0.40843126 -0.079422094 -0.070458755 -0.20958695 -0.5866355 -0.72047675

action_out.weight f4 [5, 256]
00000000: a5cf 4a3f e13f 83bd 72b8 6a3f 1211 643f
00000010: a9b0 39bf c987 4ac0 b756 6d3f 590c 123f
00000020: 9c02 d8be 34f8 ecbf 2365 cbbe 7ef9 0d3f
00000030: 18af 0ebf 6e82 9d3c bda7 e5bf b3d6 e53f
00000040: 2f71 2f40 c7c6 823d a046 d73e 2d06 b6be
00000050: c24c 8f40 2dfa ac3f d8a7 903f 07e5 61bf
00000060: 535c bf3f 3690 ef3f 1800 0f3f 5a4f 313f
00000070: 8382 0bbf dd6d 243f a457 d43d fd3e 0540
00000080: 52e4 e23f 118c e83c 9c92 fb3e 68f2 2540
00000090: d598 65bd 0bdc 9d3e d76f 8240 4cfa e03f
000000a0: c0c1 653f c90a a1bf e221 7e3f 5dbc 9a3f
000000b0: 6c66 2a3f cdf1 fd3f b716 5c3f c47e 233f
000000c0: 3905 833f 72ee 3d40 b227 2e3d cb2f 963f
000000d0: 0bc1 823f 883f cd3f 093a 6c40 4bea 843e
000000e0: 8baa e53f 31f4 423f 00f5 603f 0ce0 533f
000000f0: c836 c73f dfa9 c63f ec0f 8bbe 29f2 35bf
00000100: f7a1 e93f 707a ee3f ef16 b33f ba55 d1bd
00000110: b202 113f d929 dc3e 022c 4bbe f0eb a6bf
00000120: 4fe3 4d3d d9a5 4b40 241a 12be b862 03bf
00000130: 44c1 db3f f883 9cbe 87a4 323f 5650 8c3f
00000140: de78 4fbf 806e e03d 18b4 c93e 8e2e 653f
00000150: 96e9 b23e 3cd2 62c0 d891 1d40 bd55 1fbf
00000160: 978f 9a3e 5af2 a83f 04cb 1f3f cac0 b13f
00000170: e881 c23f f145 903e 8278 ae3f 35b6 843e
00000180: 4629 0f40 c153 2b40 d6d5 f23e 3677 b1be
00000190: 3b7f ce3d 4af9 c83e 73c2 b63f c9c7 4240
000001a0: 9f33 a33f 2fb8 3fbf bc6c 963f 1aa4 a83f
000001b0: d81b ce3e 969e 38bf caee b43e db02 f83f
000001c0: ad5c 06bf 07b9 bf3f c62d 8d3e daa5 5440
000001d0: f883 4bbd 6dc3 1840 61a1 2bc0 b398 d23e
000001e0: e8fc 8f3c c28f c03f d00f 6d3f e95e 523f
000001f0: e53d 823d 1634 813f e37f c53e 309a f43d
00000200: fd97 fa3f 77ff 9b40 362b a73f 1fd7 a1bc
00000210: 8755 983f 57c5 5c3f aa9e 173e bb2b 79be
00000220: 1813 b33f a39d af3f 2ba2 10bc 3f8d 843e
00000230: 5aad f43f 541c f23e c426 7c3f ec7c d13f
00000240: 1bb3 e7bf f0ff b23f 898c 8e3f 373f 4abe
00000250: 4b7c d73f 6805 0e40 b677 bb3e 9078 70bf
00000260: 9ce6 d73f e44d be3e f199 233f 5f0c 19be
00000270: f97a b73f 6699 9a40 5568 eebe 3656 dbbe
00000280: 4961 753f 8323 663f d26c ed3d 46c4 2f3f
00000290: 308b e63f 085a 21c0 537e 693f bc09 4f3f
000002a0: 9c94 913f ac25 943f b609 20bf e66b e93e
000002b0: fd9d bb3e d242 043e 83e5 0540 a471 173f
000002c0: 44ef 1540 e11f d53f acd7 873e d3d1 b33f
000002d0: 8268 b1ba 3c64 05bf 2bec 3bbe 4520 3c3f
000002e0: 2caa aa3f 5a93 f03f 3d58 693f fa83 4cbe
000002f0: 8b90 763e 4204 873f 2b3e 3b3f 0210 5640
00000300: 3e45 0a40 e6ea 33bf 70c0 c23e 9ec1 8bbc
00000310: a9f2 81bf 116d 4bbf 499d 9e3f d2f2 abbf
00000320: 255b 4a3f add0 10bd e3d2 123e eba5 c93f
00000330: febd 46bf 2c8e 8e3f 2fe2 37bf 6602 2740
00000340: f77d 03be 4c17 da3f 2f07 f43f c154 1d3f
00000350: baec 2bbf 04b7 913f 5d27 b43f a93e 023e
00000360: a2c9 97bf b85b 9a3f 9d36 19bd 63c7 783f
00000370: 11d5 73be c297 e5bd 966b e7be 1dac 503e
00000380: 0a64 bdbc 550f d0bf fb83 ce3f 91ac 6d3f
00000390: ea41 8d3d e3d8 923f 9d55 d33f 0dee 0940
000003a0: 1e64 c83f ba02 653f f06c 8a3f c656 213f
000003b0: 9132 d8be ebbf 0140 6e02 573f 334c 7f3f
000003c0: 79e4 0e3d afce bcbf 9149 3e3f 06d3 a13e
000003d0: 28f3 3dc0 6b6b a63e 4917 953e fbad 9e3e
000003e0: c123 3e3f ab08 6f3d 183d 4a40 084c b33f
000003f0: 4a0a 1e3f 74ea be3d 9198 0bbe 5288 2d40
0.7922309 -0.06408668 0.9168769 0.8908855 -0.72535187 -3.1645377 0.9271044 0.5705009
-0.4218949 -1.8513246 -0.397256 0.5545882 -0.5573592 0.019227233 -1.7941815 1.7956146
2.7412832 0.0638557 0.4204607 -0.35551587 4.47812 1.3513848 1.1301222 -0.88240093
1.495005 1.8715885 0.5585952 0.69261706 -0.5449602 0.6423014 0.103682786 2.0819695
1.7725928 0.028387101 0.49135292 2.5929203 -0.056053955 0.30831942 4.0761523 1.7576385
0.89748764 -1.2581416 0.9927045 1.2088734 0.66562533 1.9839417 0.8597216 0.63865304
1.0235969 2.9676785 0.042518325 1.1733335 1.0215162 1.6035013 3.6910422 0.2596
1.794267 0.76153857 0.8787384 0.82763743 1.5563593 1.552059 -0.27160585 -0.7107263
1.8252553 1.8631115 1.3991374 -0.10221429 0.5664474 0.43000677 -0.19841006 -1.3040752
0.050265606 3.1819975 -0.14267784 -0.5132251 1.7168355 -0.30569434 0.697823 1.0962017
-0.81043804 0.10958576 0.39395213 0.8952416 0.34943837 -3.5440817 2.4620266 -0.622402
0.30187675 1.319896 0.6241915 1.388696 1.5195894 0.2817836 1.3630526 0.25920263
2.2368941 2.676987 0.4742877 -0.34661263 0.10082861 0.39252692 1.4278091 3.043444
1.2750129 -0.74890417 1.1751933 1.317508 0.40255618 -0.7211698 0.35338432 1.9375871
-0.5248516 1.4978341 0.27573985 3.3226228 -0.049686402 2.3869278 -2.6817248 0.41132125
0.01757665 1.5043871 0.9260225 0.8217607 0.06359462 1.009402 0.38574132 0.119434714
1.9577633 4.8749347 1.3060062 -0.019755898 1.1901101 0.86238617 0.1480662 -0.24333088
1.3990202 1.3719982 -0.008827726 0.25889012 1.9115403 0.47287238 0.9849665 1.6366248
-1.8101534 1.3984356 1.1136638 -0.19750677 1.6834806 2.21908 0.3661477 -0.93933964
1.6867251 0.371688 0.6390677 -0.14946125 1.4334403 4.8312254 -0.46563974 -0.4283921
0.9585157 0.89897937 0.115930215 0.68658864 1.8011227 -2.52112 0.9120838 0.8087423
1.1373477 1.1573997 -0.6251482 0.45590132 0.36643973 0.12916115 2.0921333 0.59157777
2.3427286 1.6650354 0.26531732 1.4048408 -0.0013535174 -0.5210607 -0.1835181 0.7348674
1.3333182 1.8794968 0.91150266 -0.1997222 0.24078576 1.0548174 0.73141736 3.344727
2.1604762 -0.702803 0.38037443 -0.017060097 -1.0152179 -0.794633 1.239175 -1.3433478
0.79045326 -0.03535526 0.1433826 1.5753759 -0.77633655 1.1137137 -0.71829504 2.6095214
-0.1284102 1.703836 1.9064692 0.6145745 -0.6715809 1.1383977 1.4074513 0.12719215
-1.1858408 1.205924 -0.0374056 0.9717924 -0.23811747 -0.11210586 -0.4519927 0.20378156
-0.023118991 -1.6254679 1.6134027 0.9284144 0.06897338 1.1472439 1.6510502 2.1551545
1.5655553 0.89457285 1.0814495 0.6302303 -0.4222608 2.0273387 0.8398808 0.99725646
0.034885857 -1.4750575 0.74331003 0.3160631 -2.967966 0.32503828 0.29119328 0.30992112
0.74273306 0.058357876 3.1599789 1.4007578 0.6173445 0.09322062 -0.13632418 2.7114453

action_out.bias f4 [5]
00000000: 1e59 4f3f 5c02 a3bf 736e 9340 d64f a0bf
00000010: 04b5 cc3f
0.8099536 -1.2735095 4.6072326 -1.2524364 1.5992742

weight f4 [256, 123]
00000000: f132 24c1 29a2 173e 9c09 333e 4722 163e
00000010: be13 253e c9dd 28bd 1f96 cb3e a0e0 353e
00000020: 5d48 783f 87cb 913d 8a32 583d f1ce 293e
00000030: 0138 bcbd 61ab 893e 575e 6ebe d719 c8bf
00000040: 5da9 04be df87 3abf ec8e c93e 5b3b 59be
00000050: 0a12 343e d585 f8bf 6932 003f 6e31 db3f
00000060: c418 4fbf 24aa d0be cb72 9dbd eb56 4bbf
00000070: 842d 6f3e 0d37 a43d 15e7 27bd a1ba 06be
00000080: 2be6 52bf 504e 6dbc d884 d5bc adfb 4dbf
00000090: 1b2f 25c1 a0e1 873e 816f 0abe 968a b03b
000000a0: d017 873e 3627 9dbd 0142 bb3e dfe3 123f
000000b0: c1b3 6dbf 3602 153f 3a9f adbe 7982 293e
000000c0: e745 d6bd cfdc 953e 0487 95be 94f8 c7bf
000000d0: be6e e33f 4c43 eb3c a5ee 823d 3659 a4be
000000e0: 508c 543e 87a7 f1bf 67e5 273f 7ec5 0a40
000000f0: c7b7 e6bf 3823 8c3e c5af 2bbf ff73 34bf
00000100: f882 7d3d 2710 efbb f67b 58bc 5590 fabd
00000110: 16e1 5dbd 4b16 50bf 6115 9d3d 8c33 943e
00000120: 01db 23c1 07e8 53be d51e a63e 9402 fd3d
00000130: a129 833e 58ab d8bd 1766 933e 6f31 c23e
00000140: 9e13 59bf 6a46 ce3e 007f 5b3e 354a 7a3e
00000150: 5507 f8bd 1eff 873e 1829 b1be 116f aabf
00000160: a775 193f 38d9 f2bd 31a5 073f af1e 68be
00000170: a1ae a83e 5556 f5bf 937b 233f f18d 6440
00000180: 66c2 07c0 6090 d5bc 065b 1f3d 9fdc 30bf
00000190: be8c debd d9a2 05be 1d87 9ebd c450 cebd
000001a0: e0b4 f1bb 70ce f6bb 1792 40bf f7fd 05c1
000001b0: 0a41 58bc a884 f03d f32c 283d eebb 083c
000001c0: a820 8a3e 0737 393e e8fd 37bd a5c7 d13d
000001d0: 60d3 863e f355 70bd 823d 8ebc 42d2 123e
000001e0: d10d 233e 2b40 1ebe 2894 8b3e 0174 233e
000001f0: 26cf 48bf e560 b83e 8c74 2dbf a713 a73e
00000200: 5821 c4be 328c 703f bab3 af3d d1f6 8fbf
00000210: 1eb1 a5bd 30fa 153c 791f 23bf 582e a03e
00000220: 9cc6 22c0 3237 6f3f 94c6 743f d239 70bf
00000230: d100 f03d 9c69 303c a304 e2be e026 d73e
00000240: ae7f 7bbf a957 febf 32dc 81bf 7df9 0240
00000250: 6ca1 06bf a818 813d 44fb aebe b2a4 443e
00000260: fb8a d4bd 6283 89bc 6ff5 59be 48bf b7be
00000270: b27f 7d3d 9500 813d 1d53 b23f 319e 5a3e
00000280: c709 0dbf f27a 673e 9810 2ebf bd7b 8f3e
00000290: 2482 c7be 24c6 543f a39b 1fbf 3290 1abf
000002a0: 6f1b 39be c72b 9a3d df5b f8be 066f 853e
000002b0: 38e8 25c0 c60c 703f 1305 5e40 d9c3 80c0
000002c0: f0d1 b23b ad15 0abd 7ddf c1be 2601 de3e
000002d0: 04e4 61bf 0e65 08c0 c8a9 83bf 6ea6 f53f
000002e0: 1630 12bf 797f b73e 00b5 c0be 96f0 a2bc
000002f0: c348 333b 59dc 023e 6491 8bbc c52d b43d
00000300: d6f7 d5be c29f 2e3d 4c94 0ebc 890e 3c3e
00000310: 77b4 09bf 4cd3 f53e ba1f 53bf 379a 933e
00000320: ac67 ebbe 1e87 753f 877e a3be a6ea b8bd
00000330: bb05 dc3e f128 33be 093a 0bbf 4cda 543e
00000340: 4627 26c0 2058 6c3f d900 803f 0621 9bbf
00000350: 432e fb3e bb7e ecbe 0967 fdbe a4d8 e53e
00000360: a29d 54bf cba0 fdbf 6dde 1e3d f669 5440
00000370: 0030 d23a 354a 9c3d 9825 b7be 32fa b23d
00000380: 84f1 e13d f7b6 a2bd 6807 1bbd be62 333d
00000390: 1794 873d 46d8 ccbe dcea 28c0 d7b3 c8bd
000003a0: a356 b5bd 18b7 08be 5b65 3b3c 10df d53d
000003b0: 20db 0abd 0259 213d c23b 153d 5c63 c83d
000003c0: a9e5 4d3c b363 04be 66d1 6a3d e690 13be
000003d0: 80eb d3bc d58c 073d f257 50bd 1b06 dabc
000003e0: e80c 6e3d ff12 943d 095e 06bc 0130 46bd
000003f0: 8728 093d 6fc9 f7bb 34a8 9b3d 627e 533d
-10.262437 0.14807953 0.17484134 0.14661513 0.16120812 -0.041227136 0.3976297 0.17761469
0.9698542 0.07118898 0.052782573 0.16582848 -0.091903694 0.26888564 -0.23278175 -1.5632886
-0.12955232 -0.7286357 0.39366853 -0.21214049 0.17585006 -1.9415842 0.5007692 1.712446
-0.80897164 -0.40754807 -0.07687911 -0.794295 0.23357207 0.080183126 -0.04099186 -0.13157131
-0.8238246 -0.014484003 -0.026064321 -0.8046215 -10.324 0.26539326 -0.13519098 0.0053876145
0.26385355 -0.076734945 0.36573794 0.57378954 -0.9285241 0.582065 -0.33910543 0.16553678
-0.104625516 0.29270026 -0.2920457 -1.5622735 1.7768171 0.028718613 0.06393174 -0.32099313
0.2075665 -1.887925 0.65584415 2.168304 -1.8024834 0.2737062 -0.6706508 -0.70489496
0.06189248 -0.0072956267 -0.013213148 -0.122345604 -0.054169737 -0.81284016 0.07670093 0.28945577
-10.240968 -0.2069398 0.32445398 0.12354007 0.25617698 -0.10579556 0.28788826 0.3792834
-0.8479556 0.40288097 0.21435165 0.2444237 -0.121107735 0.26561826 -0.34601665 -1.3315145
0.5994515 -0.118578374 0.5298644 -0.22667955 0.3294573 -1.9166971 0.63860434 3.5711634
-2.1212401 -0.02606982 0.038905166 -0.6908664 -0.10866688 -0.13050403 -0.077406146 -0.100739986
-0.0073762983 -0.0075319335 -0.75222915 -8.374503 -0.0131991 0.11744052 0.041058492 0.008345587
0.2697804 0.18087398 -0.04491988 0.10243157 0.2633314 -0.058675718 -0.017363314 0.1433802
0.1592324 -0.15454166 0.27261472 0.1596222 -0.78441083 0.36011425 -0.6775596 0.3263218
-0.3830669 0.9396392 0.08579202 -1.1247197 -0.08090423 0.009153888 -0.637199 0.31285357
-2.5433722 0.93443596 0.95615506 -0.93838227 0.11718906 0.010767367 -0.44144163 0.42021847
-0.982417 -1.9870502 -1.0145323 2.0464776 -0.5259006 0.06303531 -0.34176075 0.19203451
-0.10378071 -0.016786281 -0.21285032 -0.35888124 0.061889358 0.06298939 1.3931614 0.21349408
-0.55093044 0.22605494 -0.6799407 0.28024092 -0.38966477 0.8311484 -0.6234686 -0.60376275
-0.18076871 0.07527881 -0.48507592 0.26061267 -2.5922985 0.9376949 3.4690597 -4.023907
0.0054571554 -0.033712078 -0.3786582 0.4336025 -0.8823855 -2.131168 -1.0286188 1.9191415
-0.57104623 0.3583944 -0.37638092 -0.019890111 0.0027356602 0.12779368 -0.017037101 0.08797792
-0.41790646 0.042632826 -0.008702349 0.1836492 -0.5379099 0.4801277 -0.82470286 0.28828594
-0.45977533 0.959093 -0.3193247 -0.09029131 0.42973122 -0.17496087 -0.5438543 0.20786399
-2.596147 0.9232197 1.0000259 -1.2119453 0.49058732 -0.46190438 -0.49492672 0.44891846
-0.8305303 -1.9814695 0.03878634 3.3189673 0.0016036034 0.07631341 -0.3577087 0.08739127
0.110323936 -0.07945054 -0.03784886 0.04379534 0.06620043 -0.40008754 -2.6393347 -0.09799927
-0.08854415 -0.13351095 0.011437739 0.104429364 -0.03390038 0.039391525 0.036433943 0.09784576
0.012566962 -0.12928657 0.057328604 -0.14410743 -0.025869131 0.033093292 -0.05086512 -0.02661424
0.058117777 0.07230186 -0.008201131 -0.048385624 0.033485916 -0.0075618546 0.076004416 0.0516342

bias f4 [256]
00000000: 6f78 41bf fe6d edbe 44d9 cdbd 161d 843e
00000010: fb04 6ebd dcdd 373c 5d0c 5fbe f097 873c
00000020: f526 e3be ebf5 d5bd 18fd 1bbd 1ac0 77bf
00000030: 9830 5cbe e760 0bbf 4cf4 d8bd bc51 9abd
00000040: cfbc d9bc 9167 f6bd 47fd 5d3d fb40 88bd
00000050: 2b74 7dbf a33b 93bf 37d6 36bd c27d 51bb
00000060: ef6b e0bc 6198 b3bc cf95 a9bd 694b b93b
00000070: 1083 07be 27c1 df3e 9d09 623d a26a 95bd
00000080: f739 c4bc 7a51 e7bd 6ec3 05bd d3a7 8abd
00000090: f17d a5bf a707 e4bd d26e d1bd a3f2 37be
000000a0: dde3 1e3d 258a eebd a33d 273d 2fa0 9f3b
000000b0: 4b91 19be 49bb 873d dd02 8c3e 933f 9bbd
000000c0: 09df bebc 6949 72bd 4152 f03c 4a04 dcbd
000000d0: b388 f6bd 0faf eb3e 2538 91bd 6b6f 1fbf
000000e0: a71d 28be 2eee 18bd 234d 933d fe3b 30bd
000000f0: 774e 41be 627c ccbd 1279 89bd 0941 31bd
00000100: ae10 85bd 5844 73bd 109a 19b7 7dbb 0fbe
00000110: 2938 163d 1149 34bd 2fc2 943e 85fa e3bc
00000120: deed 003f f059 1bbd c76c ab3f a0ba 183d
00000130: 0e7c 453d 6043 5fbe 312e 2c3d 0c7f babe
00000140: d799 023d 1d35 c3bd 500f 6bbe 34eb 23bd
00000150: 756a 10bc 1e88 b5be 8c50 44bd 258f c0bd
00000160: ef78 93bd 9f25 633c 3f2f d8bd 1b58 983c
00000170: 60d8 d0bd cf26 9bbf c36f b13b 4495 b6bc
00000180: fd37 bf3b 553f f0bd 19e6 eebd 1b50 91bf
00000190: a7f3 edbd 4068 5abd 6633 87bd be8a f9bd
000001a0: 6af1 983a 1f63 a5bf d675 3cbc e609 3d3d
000001b0: bc04 13bc cf01 e13d 4133 81bd ba39 e6bd
000001c0: 643b 93bd acdd 98bd 758e 8bbd 0131 6fbd
000001d0: eb06 b9bc b97a f53c 7cc5 b7bd 8d1a 01bd
000001e0: 3990 8fbd 6fef 04be 9119 b6bd a321 b0bc
000001f0: 6e01 cfbd de48 04bf 9b09 91bd 675c 1cbb
00000200: f585 00bd 30ab 93bf 7b54 d5be 430d e9bd
00000210: cc3b aebd 940e a9bf ee7f 29bd 7ba7 99bf
00000220: 10d0 1dbd ce1d b0bd b4b5 bcbd 7d33 60bf
00000230: 4883 4dbd 60ce c2bd bd69 0bbe 54e6 06be
00000240: 2afb 3dbd c988 233f 3486 ccbd 7a0f a03d
00000250: d986 cdbe 5380 b8bc 861c 8a3e 7161 7fbf
00000260: b757 1cbe 8fd3 71be dbd4 ab3f 875e 17be
00000270: 5e2d b1bd cfbf f5bd c94e 9f3f bc15 15bd
00000280: f4b0 a8bd 6700 4bbd 1e1d 57bd d826 c3bb
00000290: 9b3b 643e d963 0abe 1714 cdbd 5b1e 97bd
000002a0: 37a6 0abe b569 133d 1c7e 003d b1cb 68be
000002b0: c81e 8fbd 0d96 47bf a1b5 89bd d4b7 27bd
000002c0: b9c5 b0bd 282c 743d 6ba3 003d efd9 24be
000002d0: caa0 98bd 5e98 0abe 63fb 8cbf 5f08 ddbe
000002e0: 4ac7 4ebd c33f aebd 3473 c0bd 06fe bfbd
000002f0: 55af 26bd 33e2 7b3b c3ae 5dbe 8104 01be
00000300: 8a7c e3bc 2eac 07be 7dc9 913f fcb7 45be
00000310: 8884 00bf b608 6cbd 74b0 09bc bbb2 68bd
00000320: a7be 43bf 0796 59bd 54ac 7abf ab1c 7abd
00000330: 21d3 653d 8a70 18bd 0fdb b2bd 4e44 50bd
00000340: c4b4 10bf ff86 d83c 3b11 f3be c47c d8be
00000350: 01bd 27bf 378a 83bf d38c 88bf 6b41 c4bf
00000360: 5e17 04be f2b0 23bd 16e0 e3bd bcd3 61bd
00000370: 4b87 01bd ef5f 6e3c 0b79 99bd c183 b5bd
00000380: 4be4 74bc 0b10 01be c07f 38bd 4f89 22bc
00000390: 8fad 3abd e726 8cbd f90e 97bd 04c3 83bd
000003a0: ac35 f33e 6a3d 0abe 98fa 0cbe 540d 90bf
000003b0: ec87 85be 333a 813d a88f 573b 0c0d 3b3f
000003c0: 3e52 b2bc 8c37 c7bd b1c2 10bd 796c a1bd
000003d0: 42f7 8a3c 6ce8 373c cba2 163d 160e 123f
000003e0: 1932 7cbd 15b8 94bf 2311 91ba e687 97bd
000003f0: 4ad8 223d 3149 a7bd 32c5 e93d 4eb4 98bd
-0.7557439 -0.4637298 -0.10051206 0.2580344 -0.05811022 0.011222329 -0.2178206 0.016551942
-0.4436566 -0.10447296 -0.038083166 -0.967775 -0.21502912 -0.54444736 -0.10593471 -0.07535121
-0.026579289 -0.120314725 0.054196622 -0.06653019 -0.99005383 -1.1502575 -0.044637885 -0.0031965827
-0.027395217 -0.021923246 -0.08280527 0.0056547415 -0.1323359 0.4370205 0.05518495 -0.07295729
-0.023953421 -0.11294837 -0.03265708 -0.06770291 -1.2929059 -0.11134272 -0.102262154 -0.17963652
0.038791526 -0.11647443 0.040830266 0.0048713903 -0.14996831 0.06627519 0.27345935 -0.07580485
-0.02329971 -0.05915204 0.029336097 -0.107430056 -0.12037792 0.46031997 -0.07090787 -0.62279385
-0.16417561 -0.03733652 0.07192447 -0.043025963 -0.18877588 -0.09984662 -0.067125455 -0.043274913
-0.06497322 -0.05939135 -9.155381e-06 -0.14036365 0.036674652 -0.044014994 0.290544 -0.027829418
0.50362957 -0.037927568 1.3392571 0.037287354 0.04821401 -0.21803045 0.04203624 -0.36425054
0.031884994 -0.09531615 -0.2295506 -0.04001923 -0.008814444 -0.35455412 -0.047928378 -0.09402303
-0.072008006 0.01386395 -0.105558865 0.0185967 -0.1019752 -1.2121218 0.0054149344 -0.022287972
0.0058355317 -0.117308296 -0.116649814 -1.1352571 -0.116187386 -0.053322077 -0.066016 -0.12184666
0.0011668627 -1.2920874 -0.011502704 0.046152018 -0.008973297 0.10986673 -0.06308604 -0.11241479
-0.07189062 -0.074641556 -0.06814281 -0.058396343 -0.022586307 0.029965745 -0.08973214 -0.03151946
-0.0700993 -0.12981962 -0.08891595 -0.021500414 -0.101076946 -0.51673687 -0.0708191 -0.0023858787
-0.03137775 -1.1536617 -0.41666016 -0.113794826 -0.08507499 -1.3207574 -0.04138177 -1.2004236
-0.038528502 -0.08599435 -0.092143446 -0.87578565 -0.050174028 -0.09512019 -0.13614555 -0.131738
-0.046382107 0.6388059 -0.09986535 0.07815452 -0.40141943 -0.022522127 0.26974887 -0.9975806
-0.15267836 -0.2361586 1.3424333 -0.14782153 -0.08651231 -0.11999475 1.2445918 -0.03639768
-0.08236876 -0.04956093 -0.052518003 -0.0059555583 0.22288363 -0.13514651 -0.100135975 -0.07378837
-0.13539968 0.035989482 0.031370267 -0.22733952 -0.06988293 -0.77963334 -0.06724096 -0.040946797
-0.086314626 0.059612423 0.031405848 -0.1609876 -0.07452543 -0.13534686 -1.1014217 -0.4317045
-0.050483026 -0.08508255 -0.09396973 -0.09374623 -0.040694553 0.0038434386 -0.21648698 -0.12599374
-0.027769346 -0.13249275 1.1389614 -0.19308466 -0.50202227 -0.057625495 -0.008403886 -0.056811076
-0.7646279 -0.053121593 -0.979192 -0.061062496 0.05610955 -0.0372167 -0.08733188 -0.05084639
-0.56525826 0.026431559 -0.47474083 -0.4228269 -0.6552277 -1.0276555 -1.0667976 -1.5332464
-0.12899539 -0.03996367 -0.111267254 -0.055133566 -0.031623166 0.01454924 -0.0749379 -0.08863021
-0.014947007 -0.12603776 -0.045043707 -0.009920432 -0.045575675 -0.068433575 -0.07375903 -0.06433681
0.47501886 -0.1349999 -0.13767469 -1.1254067 -0.26080263 0.06309929 0.0032892022 0.7306678
-0.021767732 -0.097273916 -0.035341922 -0.07882018 0.016963605 0.011224847 0.036776345 0.57052743
-0.061571214 -1.1618677 -0.0011067729 -0.073989674 0.03975705 -0.08168257 0.11414565 -0.074562654

weight f4 [256, 256]
00000000: 2ad2 91bf c05e 283f 50e3 273d bc80 403e
00000010: aa6c 853c a24a 7c3c 61b5 8e3c 4ec0 fe3c
00000020: ac08 0abe ffe3 4abd c564 9cbb 9d47 b6bf
00000030: 4425 e0bb 49f8 95bd 7248 e1bc 9561 54bb
00000040: e7e8 9e3c 237d 87bd 7fe9 d73c 1826 c5bc
00000050: 8217 bfbf 4fef c6bf dd8a 1d3d 8daf 7cbd
00000060: 15a1 47bd 0db8 e63c 51c1 6e3c 3ce0 b0bc
00000070: fd9f 803e 6eea a2bf 0d7b db3d 9075 4fbd
00000080: 0ea2 b4bc e65e 53bd ebc0 873c 006e a1bc
00000090: af4d c13e 78e2 023c 91f2 0fbd 9de1 11bd
000000a0: fe02 82bd 3bdf 56bc 30e4 783d 8bba 4dbd
000000b0: 2cdd 78bf 6852 eb3c eb4e 82bf 65a4 133b
000000c0: 8d8d 7cbc 8a98 f83c 69a5 10bd 3fea 953d
000000d0: 53ec 6b3d 0f4b 0abe add7 0d3d 65a6 9e3e
000000e0: 31aa 603c b711 c83c 767d 4c3e 57c9 f0bb
000000f0: 1a37 8fbf 44ac e13c f481 0e3d c49e 7ebd
00000100: a0b9 16bc 7b39 4ebd fb3d 0b3f 2cc4 353e
00000110: 0d0d 203d 2f2f a13c a394 6cbd 47d2 1b3d
00000120: 2aa1 4ebe be53 0e3d 1378 a83e 4d15 223d
00000130: 46e0 05bc 9458 25bd daad fabc 6015 11ba
00000140: e5f0 043c 1352 05bc 4389 8f3c f6d1 65bd
00000150: ee5b f4bb e6ae 843e f529 83bd a5a2 1abb
00000160: 00d6 233d 9b19 fe3c 0fdb dcbe 57fa 95bd
00000170: c31a 72bd c17b 8abe 4fd4 ba3c 172f 96bc
00000180: 5e2b debc 8c42 2ebd ab2d b1bc c7ae 8fbf
00000190: efd2 78bc a95d 5a3d 2c98 4fbd e793 1ebd
000001a0: f236 893f 3708 08c0 82ad d33c e088 c5bb
000001b0: 710c 623c f844 f4be 9cf7 b33c 0ec9 ffbc
000001c0: 6058 17bd d861 0cbf eab6 523d 34f6 3e3d
000001d0: 4a09 d13c 1475 613d 2d5c c8bc 3bcb 463d
000001e0: d9ce 613c 0f31 93bc e616 f4bc 7731 2b3d
000001f0: bee1 2fbd 37ed 6d3e b6be eb3b ffb7 c3bc
00000200: 9888 10bd f55e 81bf e0af f1b9 1543 b23c
00000210: e3c6 42bd 9166 5ebe 6662 ab3d c705 6ebd
00000220: 83a3 00bd b59e 56bd ee2e a1bd 7423 9fbf
00000230: b949 003d acab 543d 4469 ef3c 5c16 b13a
00000240: d381 c4bc eff6 0bbe 3c67 603c 225d 1d3f
00000250: b9e0 28bf 5f4d 3c3b 4608 653d 9ef2 b53e
00000260: a0e2 043e a1c4 99bc 725a 41bf 0bb2 63be
00000270: 36f0 acbd bc3d 8cbd 5364 90be 678d 56bd
00000280: a7db ef3a b3c1 bcbc 0a57 613d c33b 53be
00000290: dce1 dd3e 578d e73c 709b fdbc e1a7 4c3b
000002a0: d017 403d f1d2 673d c2bf 633d 8ee3 67bf
000002b0: 2689 d4bc b5a0 2cbd 3803 19bd 3e1c 06bf
000002c0: 8838 c6bc 034f 96bc ae37 39bd 3dd9 79be
000002d0: eb95 323d eb01 13bd d572 a43c 6a98 54bd
000002e0: cd7a 83bc 5ea0 e83c c201 803e 1e40 71bb
000002f0: 7bac 3d3d a08b ee3c 337f 0dbd ba57 78bd
00000300: f0e2 dcbc 748f a1bc b256 7ebe d99f bfbd
00000310: 1999 12bd 0ab6 b7bc 320e 703d 611a 63bd
00000320: 76f2 15be bfc9 aabb c06a 27c0 c25f 01bd
00000330: 8a0c 02bd 3371 8dbd 25a6 8cbd b43d 7f3b
00000340: c6e7 91bc 21a6 cdbc 37b4 3d3f e405 6b3d
00000350: bf7b 8a3f aac9 07c0 8fa5 9dbf 4498 83bc
00000360: 5f81 0bbd 62cf 5dbd 9dbd 353d c181 183c
00000370: 17a4 43bd bf40 51bd f05d d43c 58a3 623d
00000380: 7c8e 723b d402 a53c ab8d 2ebd d327 113d
00000390: 868d 323d 5026 b33c ebc7 3a3d 2834 a8bc
000003a0: 5d22 75be e241 d53d ed87 0dbd 804c 3b3d
000003b0: d526 ac3d 7cec 1e3d c4b0 4b3d 3b8a f23e
000003c0: 7365 303d 60ec 09bd 1678 633d cd84 13bd
000003d0: 65ae b7bb 0a32 803d 9a6e 7b3e 52c7 f5be
000003e0: 90b7 62bd 6cc8 8dbf 808b 483d d3c6 db3c
000003f0: d9fc 733c 5606 773d 84a1 5abf 66d1 29bd
-1.1392262 0.6576958 0.040988266 0.18799108 0.016287167 0.015398653 0.017420473 0.031097557
-0.1347987 -0.04953384 -0.004772755 -1.4240605 -0.00684038 -0.07322747 -0.027500365 -0.0032406796
0.019398166 -0.06615665 0.026356457 -0.024066016 -1.4929049 -1.5541781 0.03846251 -0.061690856
-0.048737604 0.028163934 0.014572457 -0.021591298 0.2512206 -1.2727792 0.107168294 -0.050649226
-0.02204993 -0.051604174 0.016571483 -0.019705772 0.3775458 0.007988565 -0.03514344 -0.035615552
-0.06348227 -0.013114746 0.06076449 -0.05022673 -0.9721248 0.028725818 -1.0180334 0.0022528407
-0.015414608 0.030346174 -0.035313997 0.073200695 0.057598423 -0.13505195 0.034629513 0.30986324
0.013712452 0.02442251 0.19969735 -0.0073482203 -1.1188691 0.027547963 0.0347919 -0.06216313
-0.00919953 -0.050347786 0.5439145 0.17750615 0.039074946 0.01967582 -0.05775894 0.038042333
-0.20178667 0.03474783 0.3290411 0.039571095 -0.008171147 -0.040367678 -0.030600477 -0.0005534496
0.008114074 -0.008137244 0.017521506 -0.056108437 -0.007457248 0.25914687 -0.06404487 -0.002359548
0.03999901 0.031018069 -0.43135878 -0.07323139 -0.059107553 -0.27047542 0.022806315 -0.018333001
-0.027120288 -0.042543933 -0.021628221 -1.1225213 -0.015187009 0.053311978 -0.05068223 -0.03871527
1.0719893 -2.1255014 0.02583957 -0.0060282797 0.013796912 -0.4770887 0.021968655 -0.0312238
-0.036949515 -0.548368 0.05144397 0.046621516 0.025517125 0.055043295 -0.024458015 0.04853366
0.0137822265 -0.017967729 -0.029796075 0.04179522 -0.042939894 0.23235022 0.0071943654 -0.023891447
-0.035286516 -1.0107104 -0.0004609814 0.021760503 -0.047552954 -0.21718813 0.083683774 -0.05811098
-0.031405937 -0.05239745 -0.07870279 -1.2432694 0.031320307 0.05192153 0.029225 0.0013510692
-0.023987686 -0.13668416 0.013696488 0.61470234 -0.659679 0.002873264 0.055916093 0.35536665
0.12977076 -0.018770518 -0.75528634 -0.22235887 -0.08444254 -0.068477124 -0.2820154 -0.052380946
0.0018299714 -0.023041582 0.055014648 -0.20628266 0.4333638 0.028265638 -0.030957907 0.0031227993
0.04689771 0.056597654 0.055602796 -0.90581596 -0.025944304 -0.04214545 -0.037356585 -0.52386844
-0.024196878 -0.018348223 -0.045219116 -0.24399276 0.043600004 -0.0358905 0.020074287 -0.051903166
-0.016049767 0.028396782 0.2500134 -0.0036811898 0.04630707 0.029119313 -0.034545135 -0.060630538
-0.026963681 -0.019721724 -0.24837759 -0.093566604 -0.035790537 -0.02242567 0.058607288 -0.05544508
-0.14643273 -0.0052120383 -2.6158905 -0.031585462 -0.03175024 -0.06906357 -0.06867627 0.003894669
-0.017810713 -0.02510363 0.7410311 0.057378665 1.0819014 -2.1216836 -1.231615 -0.016063817
-0.034058925 -0.054152854 0.044370282 0.0093082795 -0.04776391 -0.051087137 0.0259237 0.055331558
0.0037011197 0.02014295 -0.042615574 0.03543837 0.043592 0.021868855 0.045600813 -0.020532683
-0.2393889 0.10412957 -0.034553457 0.045727253 0.08405844 0.038799748 0.049729124 0.47371086
0.0430655 -0.03367269 0.055534445 -0.03601532 -0.0056055062 0.06259544 0.2455391 -0.48003632
-0.05535084 -1.1076789 0.048961163 0.026828205 0.014891827 0.060308777 -0.85402703 -0.041459464
