saved_models_1/125_11034_model.pt (torch, 701697 bytes, 11 tensors)

FC1.weight f4 [256, 36]
000000 9e 4a f0 3e c1 0a 83 3e 8f 83 0c 3f 79 ee b9 bf
       0.46931928 0.25594142 0.5488824 -1.4525901
000010 21 6b d4 3f 71 25 9c 3f cf 1a 84 bf 6e 50 1f c0
       1.6595193 1.2198926 -1.0320681 -2.489284
000020 f6 24 24 40 7f 2d 36 40 05 98 32 c0 f6 bf 82 be
       2.564756 2.8465269 -2.7905285 -0.2553708
000030 20 93 6e bf e1 1f b2 3e 9d 0b 8d 3f 7c d0 f7 3c
       -0.93193245 0.34789947 1.1019169 0.03025078
000040 5f fe ce bf b3 7e 94 3f 52 d8 2b 40 76 03 77 3e
       -1.6171378 1.1601166 2.6850781 0.24122414
000050 de 0b 15 40 69 fc 12 3f 99 8d ae bf b4 f6 c4 bd
       2.3288493 0.574164 -1.3636962 -0.096173674
000060 70 2a 50 40 c1 44 8d 3f 8b 03 4a c0 86 b7 97 be
       3.2525902 1.1036607 -3.1564662 -0.29632205
000070 9e ae e3 3e 38 aa d3 3e d6 49 35 bf 38 6d ed be
       0.4446916 0.41340804 -0.7081579 -0.4637239
000080 88 60 97 c0 82 57 7c 3e a0 de ff 3e 4e 91 86 c0
       -4.7305336 0.24642757 0.49974537 -4.2052374
000090 7d ab 35 bf 96 02 f4 3b 83 17 fe 3b 95 26 c3 3c
       -0.70964795 0.0074465973 0.0077542677 0.023822108
0000a0 6d e4 a6 bf 7e ad 17 3d c1 c4 c4 3f 38 e0 51 3e
       -1.303846 0.03703069 1.5372545 0.20495689
0000b0 cf 2e 15 c0 b8 59 b9 3d 8d 9a 31 40 51 ac 29 bf
       -2.330982 0.090503156 2.775058 -0.6627856
0000c0 44 c4 a4 bf 4c 69 22 be c2 e8 6b 3f e1 3a 7b bc
       -1.2872396 -0.1586048 0.92152035 -0.015333862
0000d0 89 34 c6 bf ee b0 20 3f 2a 62 2e 40 31 64 cc 3e
       -1.5484782 0.62769973 2.7247415 0.3992019
0000e0 a1 f0 92 bd 16 cb 53 3e 04 a9 34 bf 43 f7 26 bf
       -0.071748026 0.2068294 -0.705704 -0.6522104
0000f0 4f 06 2f 40 16 c1 63 be 05 3b e5 be 4d ff 96 bd
       2.73476 -0.22241625 -0.4477159 -0.073729135
000100 fa f5 13 be 1f 50 f2 3e 12 c5 cd be 97 82 53 3f
       -0.14449301 0.47326753 -0.40189415 0.8262114
000110 1a 85 a0 c0 bb b7 f9 bf fd 84 03 40 b1 f5 5c bd
       -5.0162477 -1.9509195 2.054992 -0.053945247
000120 bd 4c 26 3e 7c b8 9b 3f eb e4 5b bf a6 01 8a 3f
       0.16240211 1.2165675 -0.85896176 1.0781753
000130 87 dc 7f bf ae c4 eb 3f 0d e9 51 c0 11 08 09 c0
       -0.99945873 1.8419397 -3.2798493 -2.1411173
000140 f9 88 13 40 26 ea b2 bf 50 af c8 3d f3 35 10 3f
       2.3052351 -1.3977706 0.09799063 0.5633232
000150 b8 5e 67 bf d6 b3 58 3f d8 04 58 bf 83 69 18 3e
       -0.90378904 0.8464941 -0.8438239 0.14884
000160 d3 42 3c 3e e6 95 21 40 07 12 eb be 2c bc b6 3f
       0.18384866 2.524774 -0.4591219 1.4276175
000170 0e 33 d6 bf a0 32 e3 3f 0a 56 81 be 17 b6 e3 3c
       -1.6734331 1.7749825 -0.25260955 0.027796788
000180 9f 59 7f bf 8c e8 62 3d bb 29 c8 3f 12 87 8e bf
       -0.99746126 0.055397555 1.5637735 -1.113497
000190 cc c0 b1 bf bd e0 1d bf 0d bb 41 be 4d 0b 55 3e
       -1.3886962 -0.6167105 -0.1891901 0.20805092
0001a0 6d d4 25 3f 2b ab bd bf 4c c8 e2 c0 70 9a 3f c0
       0.6477726 -1.4817861 -7.0869503 -2.993801
0001b0 c4 f9 01 c1 83 2f 96 3f 64 95 3d 3e b6 62 84 bd
       -8.123478 1.173325 0.18514019 -0.0646414
0001c0 ba fc 4e bf 86 34 2b bf ae 6c 3b 3e 72 8f b4 3f
       -0.8085438 -0.6687702 0.18303177 1.4106276
0001d0 e9 d6 c6 bf 9e 84 e3 3e 03 fc 35 3f 4e 8f 10 3f
       -1.5534335 0.44437116 0.71087664 0.56468666
0001e0 ea 4a 29 bf cf b5 a3 bf f6 c3 f1 3e 13 c8 16 40
       -0.66129935 -1.2789859 0.4721982 2.3559616
0001f0 72 a2 f1 bf 17 02 7d be 8b 5e 87 3f a2 55 8a 3e
       -1.8877699 -0.24707828 1.0575727 0.27018458
000200 ba 97 4c bf a2 d5 75 3f b4 b4 a9 3f cc 48 87 be
       -0.79919016 0.960291 1.3258271 -0.26422727
000210 cc dd 47 c0 25 64 bc 3f 2b 9b 34 40 08 e0 17 3f
       -3.1229124 1.4718062 2.8219707 0.5932622
000220 3a 85 b1 c0 71 66 0f 40 f3 92 06 3f 53 81 db c0
       -5.547513 2.2406275 0.52567977 -6.8595366
000230 7e 1b 21 c0 98 23 fc bf a3 be 03 bf b3 27 ba c0
       -2.517303 -1.9698362 -0.51462764 -5.817346
000240 f6 af 0a c0 c3 09 49 bf 38 2f da bc c0 02 80 bf
       -2.1669898 -0.7853052 -0.026633844 -1.0000839
000250 47 ec d2 3f c8 db b2 be 31 01 8a bf 9b 26 a9 bf
       1.6478356 -0.34933305 -1.0781614 -1.3214906
000260 76 21 86 40 9b 51 68 3f b7 5a a1 c0 40 18 55 bf
       4.1915846 0.9074952 -5.0423236 -0.8324013
000270 fa 5e 9f 3f 23 db e2 bd bb a1 97 bf 8b 28 2e bf
       1.245086 -0.11076953 -1.1846231 -0.68030614
000280 d3 51 1a 40 5d ad 38 3e 47 cd 35 c0 a3 ff 32 3f
       2.4112442 0.18034883 -2.8406541 0.6992132
000290 25 f3 bd 3e d7 48 de bf bf 09 bc 3b 64 8a eb 3f
       0.37099567 -1.7365979 0.0057384665 1.8401608
0002a0 9d 7b 2a be 73 a6 32 c0 dc 8c b8 bd af 66 1c 3d
       -0.16648717 -2.7914093 -0.09011242 0.038183864
0002b0 e6 b7 95 3e 36 96 2d 3f 32 96 01 3f 16 cc 61 3f
       0.29241866 0.6780733 0.50619805 0.88202035
0002c0 2e be 45 3f 2e 4f 88 3f 55 c8 d8 c0 d3 91 82 c0
       0.77243316 1.0649164 -6.7744546 -4.080301
0002d0 a4 d3 5c c0 c7 02 02 be 56 ce fc 3c ad d7 82 3e
       -3.4504175 -0.12696372 0.030860107 0.25555173
0002e0 32 c4 ba 3e f8 16 62 3f 76 85 ea bf 4d e5 32 c0
       0.3647781 0.883163 -1.8321979 -2.7952454
0002f0 80 75 fa 3f ef 31 ce be 2c 68 33 3d 9a be 8c be
       1.9567108 -0.4027247 0.043800518 -0.27489167
000300 0b 3c f2 be a7 53 82 3f 2e a1 c3 bf 2a 48 34 c0
       -0.47311434 1.0181779 -1.5283563 -2.8169045
000310 5a 58 e8 3f 1a da 9e bf cb 7b aa 3e e7 0a 46 bf
       1.8151963 -1.2410309 0.33297572 -0.77360386
000320 2e 8b 9b bf b1 87 bf be 74 89 06 3f ee 62 e4 bd
       -1.2151849 -0.37408212 0.52553487 -0.11151682
000330 72 17 10 c0 23 e1 f8 3e 6a 36 83 3f 02 d3 a6 3f
       -2.251431 0.48609266 1.0250981 1.3033144
000340 c5 7c 7b 3f bb 6c dd c0 10 e1 cb c0 da f9 d2 bf
       0.9823726 -6.919523 -6.3712234 -1.6482499
000350 5a d9 98 3f b5 a8 36 bf 80 b4 80 c0 7d 38 f9 c0
       1.194133 -0.71351177 -4.0220337 -7.7881455
000360 75 b6 85 bf 4f f2 8e 3d 88 c3 f4 bd 55 60 df 3d
       -1.0446306 0.069798104 -0.11951357 0.10907046
000370 4b ab b4 3e dc 25 c4 3e 32 ff d6 3e 30 e4 c5 bf
       0.35286936 0.38310134 0.41991574 -1.5460262
000380 7d 26 a3 bd cc 4e a0 3e 88 0f d4 3e ca fa 0b 40
       -0.079663254 0.31310117 0.414181 2.187182
000390 34 2a 7e bf ca 34 87 bf b5 eb 46 3f 5b ad da 3f
       -0.99283147 -1.0562985 0.7770341 1.7084154
0003a0 be 6c b4 bf 90 5c 67 c0 03 02 d9 3f f3 e1 b9 3e
       -1.4095685 -3.6150246 1.6953739 0.36305198
0003b0 28 d6 78 3f 3e df d7 bf 1b ad 90 be dd 1b 09 40
       0.97201777 -1.6865003 -0.2825707 2.1423256
0003c0 85 6c 4c be 75 04 0e bf a6 67 07 c0 52 9c b1 3e
       -0.19963272 -0.5547555 -2.1157012 0.34689575
0003d0 d1 c6 90 3c f6 f3 1f be d3 59 88 3e 38 08 4b bf
       0.017672928 -0.15620407 0.2663103 -0.79309416
0003e0 62 30 d8 3f fa 19 25 c0 13 4b 04 bf e9 69 7e be
       1.6889765 -2.5797105 -0.51677054 -0.24845089
0003f0 8b 4f ec bd fa 86 bc 3b 60 25 4a bf f4 cd 6c bf
       -0.11538609 0.005753395 -0.7896328 -0.9250176

FC1.bias f4 [256]
000000 29 2a d0 be 5a c1 bf be ab 19 8c bf 04 9d 1b 3f
       -0.40657166 -0.37452203 -1.0945333 0.6078646
000010 5c a4 50 3d 32 2d 9a 3f 52 91 15 3e 7b cb fc 3e
       0.050937995 1.2045043 0.14606217 0.49373993
000020 09 4b c9 be e2 9b 90 bf ec c0 27 3c e5 d8 60 be
       -0.3931506 -1.1297572 0.010238867 -0.21957739
000030 04 cb 8b bf 4d 50 12 3f 64 33 67 be fa 4d 45 3d
       -1.092133 0.5715378 -0.22578198 0.048170067
000040 df aa ee be db 0f ec bf e3 74 aa 3f 89 72 0c 3f
       -0.4661474 -1.8442339 1.3316921 0.54862267
000050 0d 11 88 bd 78 be 63 bf 55 6e cd 3f 07 55 36 bf
       -0.06643877 -0.8896251 1.6049296 -0.7122349
000060 4a 3b a3 be bf db 28 bd 41 f4 40 bf dc 46 7a 3e
       -0.3188117 -0.04122519 -0.753727 0.24441093
000070 fc e5 5c bf c7 67 8f be 4a 19 77 bf ae e4 26 bf
       -0.8628843 -0.28008863 -0.96522963 -0.6519269
000080 d3 12 c6 bf b6 bd 0f bf da b4 73 bf 39 d3 47 3f
       -1.5474495 -0.5614885 -0.9519783 0.78056675
000090 59 15 b8 be 59 84 8b bf b1 f4 04 bf f2 db 27 be
       -0.35953787 -1.0899764 -0.5193587 -0.16392496
0000a0 e8 4a a4 be fb 61 cc be 29 3a 2e bd 78 a2 b6 bf
       -0.320884 -0.39918503 -0.042535935 -1.4268332
0000b0 80 a6 10 3d 5b 53 fd bd 1f 2f 9e bf f7 5c ab be
       0.035315037 -0.123694144 -1.235813 -0.33469364
0000c0 27 94 21 3f eb b1 97 be 0d 2a d5 3f ff 4b 48 be
       0.6311669 -0.29627928 1.6653458 -0.1956024
0000d0 25 2e 71 bf c0 a3 49 bd e6 66 86 3e 65 a8 a4 bf
       -0.94211036 -0.04922843 0.2625038 -1.286389
0000e0 00 27 de 3e 37 e0 0c bf 61 8c d8 3e 5b e2 df 3e
       0.4338913 -0.55029625 0.422946 0.43727383
0000f0 43 80 57 be 3f 6f 0c bf 9b 5a 53 3d 30 5e 3e 3f
       -0.21045022 -0.5485725 0.05160008 0.7436247
000100 95 b3 6f 3e da 47 8e bf 63 8a d6 be b1 8e 10 be
       0.23408349 -1.1115677 -0.41902456 -0.14116932
000110 dc 3c be be 16 d3 ac bd af 6a 91 be 92 03 ac be
       -0.37155807 -0.08438699 -0.28401706 -0.33596474
000120 80 f9 b3 3f 54 de 37 40 38 27 2f be 8b 94 ee 3d
       1.4060516 2.8729448 -0.17104805 0.11649426
000130 4e 69 3c bf 9c b9 25 be 29 97 3c bd 2e e8 59 3f
       -0.7359818 -0.16184086 -0.046042595 0.85119903
000140 b3 8f 48 bf a9 a4 69 bf 92 53 96 3e 9d ce d3 3d
       -0.7834427 -0.91266876 0.29360634 0.10342143
000150 9a 89 c1 be a4 6f ed bd b2 25 f2 be 1c df 65 3f
       -0.37800294 -0.115935594 -0.47294384 0.8979356
000160 03 12 ed bf 77 11 03 3f 9d 01 fc 3c f7 80 42 be
       -1.8521122 0.51198524 0.030762488 -0.18994509
000170 dd 2e 13 be 49 c2 e4 3f b0 e7 55 bf 14 ae 40 3e
       -0.14373346 1.7871791 -0.8355665 0.18816406
000180 ad 9e 9d bf 7e 15 2c 3d 6f a8 07 c0 cd ba 00 c0
       -1.2314049 0.042012684 -2.1196554 -2.0114014
000190 5c 06 dd 3e 35 4b 00 3f 80 c5 58 be e7 52 ab bf
       0.43168914 0.50114757 -0.2116909 -1.3384675
0001a0 71 a4 04 be cb 9a 99 bd 4b b2 52 be 64 dc 87 bd
       -0.12953354 -0.075002275 -0.20575826 -0.06633833
0001b0 ca c2 d4 3d d2 58 96 3e 5f 4d a6 be 3f db 99 bf
       0.103887156 0.2936464 -0.32480904 -1.2020034
0001c0 53 83 3d bd 2d d1 04 3d 86 75 0f bf 15 e8 05 3f
       -0.04626782 0.032426048 -0.560387 0.52307254
0001d0 d6 d6 5d bf 8b a6 cd be e7 2c ef be 91 f2 85 be
       -0.8665594 -0.40166125 -0.46713945 -0.26161626
0001e0 7a 22 5e bf 0e 27 ad bf 3f 7b 87 3e 18 c1 ae 3e
       -0.8677136 -1.3527544 0.26461217 0.34131694
0001f0 f7 ea c1 bf ba ba 28 bf af de c4 bf 88 23 87 bf
       -1.514983 -0.6590992 -1.5380458 -1.0557718
000200 48 1a e8 bc 5a 48 28 3e 56 d7 9d 3d 25 bb 41 3f
       -0.028332844 0.1643385 0.07707088 0.75676185
000210 7e eb e7 3e 37 54 24 3e 07 b2 26 bf dc 24 b9 bf
       0.45296854 0.1604775 -0.651154 -1.4464374
000220 e4 80 f2 be 07 3b 04 be 54 ac 8d be e4 e0 27 bf
       -0.4736396 -0.12913142 -0.27670538 -0.6557753
000230 78 c1 6d be f1 3a 1d 3e 0c 4d 56 bf 1b ca c3 3d
       -0.23218334 0.15354516 -0.83711314 0.09560033
000240 71 ca 4f be a0 78 46 bf f9 10 87 be 3a b0 8d 40
       -0.20292069 -0.7752781 -0.26380137 4.427762
000250 e2 f7 59 be ec 46 4b be 85 d9 9f 3f c3 50 b6 bd
       -0.21285966 -0.19851273 1.2488257 -0.08902123
000260 85 d3 bc be 4b 31 3b be 43 cd e4 3f d9 aa 1e be
       -0.36880127 -0.18280523 1.7875141 -0.1549486
000270 5e 59 88 be 43 eb 44 3e 3f 06 2e 3f 4a 3c 0f 3e
       -0.26630682 0.1923037 0.6797828 0.13987842
000280 54 61 14 bf 00 55 e2 3f 9f 8c d4 3f 5b 2f 9b 3d
       -0.5796101 1.768219 1.6605414 0.07577392
000290 87 00 20 3e 13 05 36 3e a2 88 10 bf 36 a7 22 bf
       0.15625201 0.17775373 -0.56458485 -0.63536394
0002a0 b1 10 03 3f 57 c1 bb 3e 1c 1e 2c bf 40 13 32 bf
       0.51197344 0.36670944 -0.67233443 -0.69560623
0002b0 4f 6d 8e 3f c7 a9 25 bf 3b 8b 20 3f ac 1c e8 be
       1.1127108 -0.64712185 0.6271245 -0.45334375
0002c0 95 01 15 bf 6a b4 15 3e 9e 36 aa bf 6c 0c b5 bf
       -0.5820554 0.14619604 -1.3297918 -1.4144416
0002d0 7e 95 cd 3e b6 e7 8c 3e 89 26 cc bf 50 27 1f bf
       0.40153116 0.2752053 -1.594926 -0.6216936
0002e0 fe 86 9a 3f a0 5b a0 3e ce 29 df 3e 26 72 57 be
       1.2072446 0.31319904 0.43586582 -0.21039638
0002f0 a1 99 e9 3d b6 3c 9c bf 62 78 d5 be 98 91 14 be
       0.114062555 -1.2206028 -0.41693407 -0.14508665
000300 82 a9 62 3f 31 8a 5a 3e a3 62 cc 3f a5 c7 33 3f
       0.885399 0.21341778 1.5967602 0.7022651
000310 b0 ce a7 be 0f 27 49 3c 39 e4 50 3f 65 3f e0 3e
       -0.32774878 0.012277379 0.8159824 0.43798366
000320 df 29 a0 bf c1 bc a3 be 62 c4 43 bd ae e7 90 bf
       -1.2512778 -0.31979945 -0.047794707 -1.1320703
000330 f5 9f 97 bd 1b 59 81 3e e2 5e bc 3f 48 4d 8b be
       -0.07403556 0.25263295 1.4716456 -0.27207398
000340 40 20 ae 3e cb fd 29 3f f1 9f 5b bf b2 b1 17 3f
       0.3400898 0.6640288 -0.85790926 0.59255517
000350 78 53 ab bf dd 20 7a bf 4e e1 2d bf 25 cc ca be
       -1.3384848 -0.97706395 -0.6792191 -0.39608875
000360 12 ba bd be 93 a0 5e bf 97 59 c3 3e a9 6d 09 3f
       -0.37056023 -0.86963767 0.3815429 0.53682953
000370 0d 84 56 be 2c 74 c2 ba f7 22 6d 3d 4a 2d d2 3f
       -0.20948811 -0.0014835647 0.057894673 1.6420071
000380 e4 4c 0f bf c2 df 1c bf eb 47 bb bf 67 23 d2 bf
       -0.559767 -0.6127893 -1.4631323 -1.6417054
000390 e0 92 d3 be 80 1e 33 bf 6f 5a c1 3f 35 80 56 bf
       -0.41322994 -0.69968414 1.5105723 -0.8378938
0003a0 ee fe 37 bf 41 07 49 bf 7c 1b 88 bf 1f 44 60 3f
       -0.71873367 -0.78526694 -1.0633388 0.87603945
0003b0 dd eb 8e bf e9 e4 fe 3e 4d d4 69 3f 7b c0 f8 be
       -1.116573 0.4978402 0.9133957 -0.4858435
0003c0 68 6f c6 be b8 31 14 bf 87 af 0b bf 1b bb f9 3e
       -0.3875687 -0.57888365 -0.5456471 0.48775563
0003d0 35 51 89 3f e0 23 50 be 95 c7 74 be 1c 01 f4 3d
       1.0727907 -0.20326185 -0.2390426 0.11914274
0003e0 bb b7 8c bc 8a ef 0e 3e 71 6c 58 be 51 b6 07 be
       -0.017177453 0.13958564 -0.21135117 -0.13253142
0003f0 47 ce 17 3d 21 0a c6 3f 00 73 b8 bf ca ae 5d bf
       0.037061956 1.5471841 -1.4410095 -0.8659483

FC2.weight f4 [256, 256]
000000 09 85 d6 bd 32 61 e7 bf 05 52 80 bf eb 10 94 3f
       -0.10474593 -1.8076537 -1.002503 1.1567663
000010 2c 09 aa 3f 30 49 5b bd 4f fc e1 be 02 08 99 c0
       1.3284049 -0.053536594 -0.4413781 -4.7822275
000020 4b f4 79 c0 00 9c c9 3f 76 0f 04 bc 65 43 40 3f
       -3.9055355 1.5750732 -0.008060327 0.75102836
000030 b0 3f 73 c0 85 06 7d 3e f0 19 ef 3f 8e 6e 28 40
       -3.8007622 0.24709518 1.867979 2.6317477
000040 ec 18 02 c0 9a e5 5d 40 b1 ff 61 c0 0e 06 ec be
       -2.032771 3.4671388 -3.5312312 -0.4609837
000050 12 40 1f 3d 4d 66 67 40 3d 1b 0d c1 e6 88 0e c0
       0.03887946 3.615619 -8.81915 -2.2271056
000060 6f 14 cd 3d 3e 09 ec c0 89 68 6f bf a6 e4 27 c0
       0.10013663 -7.376128 -0.93518883 -2.6233306
000070 98 bc bb 3f 13 27 1b 40 1d 47 0c 40 0d aa 03 3e
       1.4666929 2.42426 2.1918404 0.12857838
000080 75 fa 34 c0 78 2a 05 bf 57 59 cf 3d 62 64 bf 3f
       -2.8277867 -0.5201793 0.10124462 1.4952509
000090 dd 58 ac bf 61 ac 01 40 d4 de aa 3e 88 cf 41 40
       -1.3464619 2.0261462 0.3337313 3.0282917
0000a0 5b d7 af be d6 49 71 3d 14 0d 04 c0 8f 77 01 bf
       -0.3434399 0.058908306 -2.0632982 -0.50573057
0000b0 55 ec 27 40 1e 54 0f be 36 98 4d bf 59 0a a9 be
       2.6237996 -0.13996932 -0.8031038 -0.33015707
0000c0 35 19 66 bf 43 8a 95 3f 75 29 ce bf 58 b8 94 bc
       -0.8988221 1.1682819 -1.6106402 -0.018154308
0000d0 ee 17 71 be 2d 5c 19 c0 27 7e ff bf 74 70 26 c0
       -0.23544285 -2.396251 -1.9960374 -2.6006136
0000e0 47 82 cb be b9 3f e7 3f 53 1a 62 c0 01 88 78 3d
       -0.3974783 1.8066322 -3.5328567 0.06067658
0000f0 e8 42 b3 3e 7b ed 43 bf e7 43 ed be 84 1a 24 3f
       0.35011983 -0.7653424 -0.46340868 0.6410296
000100 60 32 75 be a2 e4 7c 40 bd a2 39 3f 3e a4 23 bd
       -0.23944998 3.9514546 0.72513944 -0.039951555
000110 f6 dc 7a bf 3d 4d 94 bd a4 a2 14 bf 0e 08 41 be
       -0.9799341 -0.072412945 -0.5806067 -0.18850729
000120 9e 15 5c 3f a9 07 9f bf c2 4e 39 3f b4 1f 98 3f
       0.85970485 -1.2424213 0.723858 1.1884675
000130 6e 50 77 c0 a4 38 28 bf ed 84 04 c0 11 b0 e7 3f
       -3.864284 -0.65711427 -2.0706131 1.8100606
000140 1f a2 3c 3f ba 73 bf bf c5 64 08 3f f9 fa 85 3e
       0.7368488 -1.4957192 0.5327876 0.2616804
000150 13 8c 91 be 2c 7e a1 3f e2 f7 2b 3f 83 78 65 bf
       -0.2842718 1.261663 0.67175114 -0.8963701
000160 c2 25 80 3c d6 e1 19 3f fa 76 5a bc 54 fe 2b 3e
       0.015643004 0.60110223 -0.01333403 0.16796237
000170 7b 2e c6 3e e6 a7 b6 3d 60 35 32 3f 49 30 8e 3f
       0.38707337 0.08918743 0.69612694 1.1108485
000180 52 4e b0 3f e8 52 7e bf ca 78 af 3e b6 cd c6 c0
       1.3773901 -0.99345255 0.34271842 -6.212611
000190 8c 82 f0 be 8d cb 15 3f 13 1b 8d bf 9d 2e 1f 3d
       -0.469746 0.5851372 -1.1023887 0.038862813
0001a0 f2 4f 28 3c 50 95 5b 3f 6a 0e af 3f 9d f7 22 3f
       0.010272967 0.8577471 1.3676274 0.6365908
0001b0 df 87 1f 3f 91 c4 ab c0 ad cc d2 3e 3a d9 0e 3e
       0.623167 -5.367745 0.4117178 0.13950053
0001c0 83 b4 ee bf cc 02 b9 be 73 ce 0b 40 7b ab 92 c0
       -1.8648838 -0.36134946 2.1844757 -4.5834327
0001d0 ce 07 fe 3f 30 8b 7f 3f 6e f0 20 bf 2c 6a ac 3e
       1.9846132 0.9982176 -0.62866867 0.33674753
0001e0 a5 aa 41 3d c5 b1 0a c0 bd 7d 46 bf 3c 15 31 bd
       0.04728188 -2.1671002 -0.7753561 -0.04323314
0001f0 ed 1c fc bf 2b dc 80 bf 7e bd 24 40 f8 63 8a 3f
       -1.9696327 -1.006719 2.5740657 1.0811758
000200 24 55 f6 3f 3c da d4 3e ce 1c 8c 3f e0 b5 b3 3f
       1.9244733 0.4157275 1.094629 1.4039879
000210 a3 18 9c 3f ac cc 2c bf 9e e6 d8 3c 48 87 9c 3f
       1.2195019 -0.67499804 0.026477154 1.2228785
000220 04 02 c7 bf 4f 6e a7 bf 7e 79 32 c0 32 fc ca 3e
       -1.554749 -1.3080539 -2.7886653 0.39645535
000230 3e 22 b2 bc eb 82 ef bf f2 e0 12 40 9f 44 56 bd
       -0.021744844 -1.8711828 2.2949796 -0.052311536
000240 ca 75 b8 bf 06 c1 e2 bf 4e 7e 97 3e d3 98 0d 3f
       -1.4410946 -1.7715156 0.2958855 0.55311316
000250 5a 80 8d bd 69 ae 21 40 df 06 2d 3e 50 f7 c6 bf
       -0.06909247 2.5262702 0.16897152 -1.5544224
000260 c9 5c a4 bf 73 ae e1 be 36 8a 2b c0 d2 46 15 bd
       -1.2840816 -0.44078407 -2.6803107 -0.036444493
000270 3f c3 8b bf 4d 64 65 40 e0 44 e7 3a 04 14 5e bf
       -1.0918959 3.5842469 0.0017644428 -0.8674929
000280 2a 5c da 3f 34 25 57 bf ac eb dd bd e9 3e 6b 3e
       1.7059376 -0.8404114 -0.108359665 0.22973217
000290 63 27 95 bf af 17 45 3e 59 2e ec 3e 2c ff b4 be
       -1.1652645 0.19247316 0.4612911 -0.3535093
0002a0 d4 b5 a2 3f e7 cb 0f c0 3f a6 48 40 67 ad 08 bf
       1.271174 -2.2468202 3.1351469 -0.5338959
0002b0 66 ff 2e bf 95 9d a4 bf 66 d0 97 bf b5 38 7b c0
       -0.6835846 -1.286059 -1.1860473 -3.9253361
0002c0 58 96 81 3e 70 49 0a c0 64 d8 a5 be 7f 57 b4 3c
       0.25310016 -2.1607323 -0.32391655 0.022014378
0002d0 c5 8d df 3e 31 01 8a 3e 2b 0c d7 be ac 96 d5 3f
       0.4366285 0.26954034 -0.4200147 1.6686606
0002e0 08 d0 03 3e 74 c4 16 3f 28 24 89 3f 08 df 8d bf
       0.12872326 0.58893514 1.0714159 -1.1083689
0002f0 25 c6 24 3e 3b 4d 14 c0 e2 a2 13 40 92 92 35 3e
       0.16091211 -2.3172138 2.3068166 0.17731693
000300 dd 54 3d be 00 d4 18 3f fe b9 39 c0 b8 eb b1 3b
       -0.18489404 0.59698486 -2.901977 0.005429711
000310 21 92 b3 3f 4c 79 b4 3e db aa 72 3e 1c 0f 22 c0
       1.402897 0.35248792 0.23697989 -2.5321722
000320 f5 69 21 3f 2c 78 08 c0 88 75 53 bc b3 94 9c c0
       0.630523 -2.1323347 -0.01290644 -4.8931518
000330 8f df 66 bf a1 ac 31 c0 cd e4 13 c0 55 92 b3 be
       -0.90184873 -2.7761614 -2.31084 -0.3507258
000340 1d b6 6b be ff b1 7b c0 33 cb e8 3e ad 4e 65 bf
       -0.2301869 -3.932739 0.4546753 -0.89573175
000350 85 b6 0b 3f e1 78 f5 bf 2c a7 90 bf b1 7d 8d 3e
       0.5457538 -1.9177514 -1.1301017 0.27634957
000360 81 06 da bc 2f 8d 31 be 1c 93 b3 c0 ea 2d 37 3e
       -0.02661443 -0.17339014 -5.6117077 0.17888609
000370 11 39 0a c0 10 38 e3 bf ab de 90 3f 4d 57 f9 3f
       -2.159733 -1.7751484 1.1317953 1.9479767
000380 44 1d 57 40 de fa 69 bd f5 d0 63 3f 17 ec a6 3f
       3.3611612 -0.05712401 0.8899072 1.3040799
000390 1f 87 07 c0 00 55 d5 be 3a a9 61 bf 0b 67 07 c0
       -2.1176221 -0.41666412 -0.88148844 -2.1156642
0003a0 5f 4a 7e 3f c0 3f a4 c0 61 67 e1 3f 06 16 5f bf
       0.9933223 -5.132782 1.7609674 -0.8714298
0003b0 95 02 a9 c0 d5 67 e5 3f c1 10 52 3f ce c3 15 3f
       -5.281565 1.7922312 0.82056814 0.585019
0003c0 6e 39 61 3e eb 13 8a c0 57 a1 20 3f 0f f5 34 40
       0.21994564 -4.3149314 0.62746185 2.8274572
0003d0 f1 42 94 3f b5 b2 d9 3e 5a 8e b6 3f 7f 0c 48 3f
       1.1582929 0.42519155 1.4262192 0.7814407
0003e0 cb 48 5f c0 93 de ac 3f ff ba f2 be ad a2 42 be
       -3.488818 1.3505424 -0.47408292 -0.19007368
0003f0 e1 d5 9d c0 58 e7 82 bf 3c a4 ef bf 16 44 30 bf
       -4.9323583 -1.022685 -1.8721995 -0.6885389

FC2.bias f4 [256]
000000 b7 40 2a bf 68 31 a3 bd b5 c1 81 bf 8f 95 8e be
       -0.66504997 -0.07968408 -1.013724 -0.2784848
000010 26 3b 03 c0 79 1d ab bf 85 64 4b bf 0c 64 c8 be
       -2.0504851 -1.3368369 -0.79450256 -0.3913883
000020 cb 9e c4 bf 30 80 e5 bf 16 84 87 bf 7e d6 db bd
       -1.536096 -1.7929745 -1.0587184 -0.107342705
000030 21 21 0d c0 32 d3 81 bd c0 bc 0e c0 c1 05 ab bf
       -2.205147 -0.063391104 -2.2302704 -1.3361131
000040 c5 70 41 bf 43 64 5d be 82 ce f8 bd 97 c2 ee bf
       -0.755627 -0.21620278 -0.12148763 -1.8653134
000050 0f 14 b5 bf f7 91 b4 be a2 8a 82 3f 3d 6d eb bf
       -1.4146746 -0.35267612 1.0198557 -1.8392712
000060 0e f9 9b 3c 34 00 34 be 52 4b 52 3e 8a be 5c bd
       0.019039657 -0.17578202 0.20536545 -0.05389265
000070 86 2b 85 bf e5 2c 73 bf 1b 43 2c c0 d0 69 9b bf
       -1.0403907 -0.9499038 -2.6915958 -1.2141666
000080 90 3d ea bf b1 7f cb bd 9b 2d b3 be 7b 6c 9d bf
       -1.8300037 -0.099364646 -0.34995732 -1.2298731
000090 f6 4c fe bd b0 71 06 bf 9d d1 1b c0 66 e0 3d 3f
       -0.12417023 -0.52517223 -2.4346688 0.7417053
0000a0 11 04 30 be e6 a9 08 c0 37 81 84 3f f6 e5 15 bf
       -0.17189051 -2.1353698 1.0351933 -0.5855402
0000b0 b2 bb ed be 46 b5 e9 bf 50 d2 bc bf 11 41 1e 3f
       -0.46432263 -1.8258445 -1.4751682 0.61818033
0000c0 7a c7 86 be 51 9b 19 c0 9f 40 00 bf 2c 25 82 bf
       -0.26324064 -2.4001048 -0.50098604 -1.0167594
0000d0 d5 d7 19 bf c9 c5 17 bf c3 0e da bf 4f 02 cb bd
       -0.6009496 -0.5928617 -1.7035755 -0.0991255
0000e0 d6 69 fb be 2c e6 dd be cb 06 90 bf df e8 7d be
       -0.49104184 -0.4333967 -1.1252073 -0.24795865
0000f0 97 25 2d be 41 2a 05 be 3f 65 9b bf 4f 61 62 be
       -0.1690887 -0.130044 -1.2140273 -0.22107433
000100 3a 80 33 3f c8 62 38 bf 48 d6 3e 3e dd 5f aa be
       0.70117533 -0.7202573 0.1863643 -0.33276263
000110 3b a5 b6 be c2 d6 0e be 6a 37 83 bf e6 ae 62 bf
       -0.35672936 -0.13949111 -1.0251286 -0.88548124
000120 2e ac 7e be ea 51 35 bf de b1 f7 3d a6 b7 83 3e
       -0.24870369 -0.70828116 0.12094472 0.2572605
000130 c1 c4 14 c0 37 9d 07 bf 23 5b 6e bf 56 4a 74 bf
       -2.324509 -0.52974266 -0.93107814 -0.9542593
000140 72 75 d1 be a5 cd b6 bf 18 83 af bd 67 eb 6a be
       -0.40909916 -1.4281508 -0.08569926 -0.22941361
000150 ca 80 16 be b1 49 34 c0 73 11 8a bf 91 1c 24 be
       -0.14697567 -2.8169978 -1.0786575 -0.16026522
000160 2b 3f 16 bf bc a0 bc 3f 20 c1 d1 bf f2 15 51 bf
       -0.58690137 1.4736552 -1.6387062 -0.8167411
000170 4d 71 2b bf 9f a4 19 c0 2a 13 af bf 9e 47 88 be
       -0.6696976 -2.4006727 -1.3677723 -0.2661714
000180 a8 3c a2 bf 77 d2 88 bf d1 e3 96 bf 82 be f4 bf
       -1.2674761 -1.0689229 -1.1788274 -1.9120638
000190 d3 b2 80 bf b8 38 7f bf c4 78 40 be 69 13 95 bf
       -1.0054573 -0.9969592 -0.18796068 -1.1646549
0001a0 98 68 93 bf 01 2a 78 bf 4d a6 bc 3f f8 ea 06 3e
       -1.1516294 -0.9693909 1.4738251 0.13175571
0001b0 29 92 f3 bf 3d 3b 87 bc c0 42 49 be f1 2c 05 3f
       -1.902898 -0.01650774 -0.1965437 0.520217
0001c0 bf 39 28 3c b9 be 82 3e e2 4a a9 be cc a7 c5 bf
       0.010267674 0.25536135 -0.33064944 -1.5441833
0001d0 a7 b3 88 bf bd a7 82 bf d2 cb dc bf 2f fd 79 bf
       -1.0679826 -1.020744 -1.7249701 -0.9765195
0001e0 d6 8f 6f bd be 57 94 bf d5 75 a3 3e 3d 60 57 bf
       -0.058486782 -1.1589277 0.31925836 -0.8413122
0001f0 9d 6f a0 bd 29 4a a2 3d be cd 4a be 25 96 d4 be
       -0.078337885 0.07924301 -0.19805047 -0.415208
000200 d6 94 3e bf 11 03 de bf 9e 9e 36 c0 f0 b4 26 bd
       -0.74445856 -1.7344686 -2.8534312 -0.0406999
000210 fe 91 e4 be b3 7c 4c bf c6 e6 9c bf e3 72 95 bf
       -0.44642633 -0.79877776 -1.2257926 -1.1675686
000220 3d 79 03 be 12 9b b8 3f a3 13 18 c0 dd 69 d5 bd
       -0.12839217 1.4422324 -2.3761985 -0.104205824
000230 3b 31 a5 bf 6d eb c1 bd a1 a7 54 3e c2 6a 9f be
       -1.2905649 -0.09468732 0.2076707 -0.31136137
000240 1a 08 78 bf 2f 3b 85 bf 74 50 cd bf 11 ed bd be
       -0.9688736 -1.0408686 -1.6040177 -0.3709493
000250 3a 73 1a bf ab 64 29 c0 71 4d f2 bf 70 a3 17 bf
       -0.6033207 -2.6467693 -1.8929883 -0.5923376
000260 9f f0 cb 3e 90 2f 05 be ff 0a 2c 3f 24 2d 50 c0
       0.39832017 -0.13006425 0.6720428 -3.2527552
000270 d1 aa db bf c4 bd 0e c0 88 5b e1 bd 75 cf 88 be
       -1.7161504 -2.2303324 -0.11003786 -0.26720777
000280 10 56 9f be 25 92 f6 3e 93 93 ff bf 87 cd 9b 3f
       -0.31120348 0.48158374 -1.9966911 1.2172097
000290 7a 9b 86 bf 89 b8 46 bf 90 6a 60 bf 84 5f 9c bf
       -1.0516198 -0.7762533 -0.876626 -1.2216649
0002a0 29 54 0d bf 7f 6b 94 bf 17 56 ef bf be 6d bd bf
       -0.55206543 -1.1595305 -1.8698148 -1.4799116
0002b0 68 15 ba bf 1a 2a 03 c0 fa 00 fb bf ec 5f 3e c0
       -1.4537783 -2.0494447 -1.9609673 -2.9746046
0002c0 ee 5e 93 bf 01 25 bb bf 12 83 a1 bf 62 31 58 3f
       -1.1513345 -1.4620668 -1.2618124 0.8445035
0002d0 91 54 43 bd e6 db 92 bf 8a fd 2c bf 20 b8 54 bf
       -0.04768807 -1.1473358 -0.6757437 -0.8309345
0002e0 b8 56 e1 3f 6f af d1 bf 3c 66 0d c0 8f 99 1b 3e
       1.760459 -1.6381663 -2.209365 0.15195297
0002f0 75 f3 50 be 1b a6 43 bf 48 16 fc bf 22 a6 2e c0
       -0.20405371 -0.7642533 -1.96943 -2.72889
000300 cf 41 9c 3e 96 4f 8b bf ef 81 07 bf c1 18 60 bd
       0.30518958 -1.0883663 -0.5293264 -0.054711107
000310 a2 ec 00 bf 53 4c f4 bf 94 38 a7 be 19 22 0f c0
       -0.50361073 -1.9085792 -0.32660353 -2.2364562
000320 75 36 2c bf 1f f0 73 bd c9 f6 55 be 90 3f e9 bf
       -0.67270595 -0.05955517 -0.20894922 -1.8222523
000330 1b e8 a1 bf 49 4f 3e 3e 55 51 ed bf 50 d6 f9 bf
       -1.2648958 0.18584932 -1.8540446 -1.9518528
000340 84 e4 a5 be 4e 77 c9 3f 07 3c a3 bf 25 0e 72 bf
       -0.32400906 1.5739534 -1.2752694 -0.9455283
000350 14 b3 fa 3e 92 44 a0 bf 96 22 9e bf 1a 96 11 c0
       0.4896475 -1.2520926 -1.2354305 -2.2747865
000360 8e 0a 64 c0 87 ed ce 3e 01 2f f5 bd d5 e0 56 c0
       -3.5631442 0.40415594 -0.11971856 -3.3574727
000370 64 28 c4 bf 0c b5 5f bf fc fb 8b bf 84 ea 27 be
       -1.5324826 -0.8738563 -1.0936275 -0.16398054
000380 c6 72 05 3d 1f 23 9f 3e 11 f7 ae bf 1b 1f c8 bf
       0.03258016 0.31081483 -1.3669149 -1.5634493
000390 29 b4 f1 bf 22 4a 00 c0 8f 7e 2b 3e ca e6 cd bf
       -1.8883106 -2.0045247 0.16747497 -1.6086056
0003a0 c1 b0 15 bf e5 59 cc be 20 bc ec 3d cf 55 68 bf
       -0.5847283 -0.39912334 0.115593195 -0.90755934
0003b0 6f e2 f8 bf 84 05 9d bf d2 52 14 c0 c8 ae af bf
       -1.9444102 -1.2267308 -2.317555 -1.3725214
0003c0 c8 14 d6 bd 20 e5 bc bf b6 c2 d9 bf 4e da 33 3f
       -0.104531825 -1.4757423 -1.7012546 0.7025498
0003d0 68 cc f6 bf 3b 43 36 bf 35 97 de bd 15 8a 96 bf
       -1.928113 -0.71196336 -0.10868684 -1.1760889
0003e0 bf 0d 19 c0 d7 cb 09 be 00 b6 bd bf 2a 25 f8 be
       -2.391464 -0.13456665 -1.4821167 -0.48465854
0003f0 ae 4c 90 bd f6 9d 56 be 27 66 80 be f9 2a e3 be
       -0.070458755 -0.20958695 -0.25077936 -0.44368723

action_out.weight f4 [5, 256]
000000 53 69 0a 40 e1 3f 83 bd a0 04 06 40 ef 6e 87 3f
       2.1626785 -0.06408668 2.0940323 1.0580729
000010 e6 2f d5 ba 85 58 70 c0 80 60 b8 bf b5 6a 91 3f
       -0.0016264885 -3.7554028 -1.440445 1.1360689
000020 75 8d 6a bf 96 60 d3 3e d2 d1 21 40 7e f9 0d 3f
       -0.91622096 0.41284627 2.5284314 0.5545882
000030 2d 41 b2 bf 85 3f 23 bc 2c 93 1a 40 bb be 10 3e
       -1.392614 -0.009963875 2.4152327 0.14135258
000040 16 fa 46 40 c7 c6 82 3d a0 46 d7 3e 4f a7 e5 3f
       3.109014 0.0638557 0.4204607 1.7941684
000050 7a 33 86 bf be 83 ac 3f e3 b0 d1 3f c6 10 92 40
       -1.0484459 1.3477705 1.6382107 4.5645475
000060 9d b7 de 3c 36 90 ef 3f 18 00 0f 3f 5a 4f 31 3f
       0.027187163 1.8715885 0.5585952 0.69261706
000070 d5 3a 08 40 40 a1 bb bf 90 ab e4 3e 0a 4d 8d 3f
       2.1285908 -1.4658585 0.44662142 1.1039135
000080 d4 7a 45 3f 77 39 ed 3c c5 29 5f 40 0c 75 19 40
       0.77140546 0.028958065 3.4869244 2.397769
000090 d5 98 65 bd 51 37 19 bf 52 1d 9d 40 6c 57 32 40
       -0.056053955 -0.5985003 4.909829 2.7865858
0000a0 61 3a 14 40 d3 26 30 3e bb 93 d1 3f 4e 4d d4 3f
       2.3160632 0.1720231 1.6373209 1.6586092
0000b0 30 a1 d2 3f f3 bf 1d bf 60 fd 16 3f 5c e7 5c 3f
       1.645544 -0.61621016 0.5898037 0.86290526
0000c0 11 14 12 40 c1 b5 f3 3e ac 99 94 3f 10 5b 00 40
       2.2824748 0.47599605 1.1609397 2.005558
0000d0 dd 9d e7 3f 59 86 42 40 c4 ef 97 40 93 d0 82 be
       1.8095051 3.03945 4.7480183 -0.25549755
0000e0 8b aa e5 3f 31 f4 42 3f 29 fe 8e 3f 0c e0 53 3f
       1.794267 0.76153857 1.1171314 0.82763743
0000f0 59 da ef 3f 3a 95 f4 3f 85 d6 04 bd 4c 3e dd 3f
       1.873851 1.910804 -0.032431144 1.7284636
000100 a1 c5 50 40 11 37 3b bf dd 47 31 40 e4 ff 87 3f
       3.2620623 -0.731309 2.7700112 1.0624967
000110 60 83 01 40 03 e2 d0 3f 64 4d 96 3f 7b d0 bd 3d
       2.0236435 1.6318973 1.1742368 0.0926828
000120 ca 6e ec 3f e4 1a 8d 3e 24 1a 12 be 99 fe 09 40
       1.847131 0.27559578 -0.14267784 2.1561644
000130 b1 9b 3a 40 51 dd 90 be f0 e1 62 3f 3b 47 b9 3f
       2.9157526 -0.2829385 0.88626003 1.4474863
000140 de 78 4f bf 3e 92 97 3f 18 b4 c9 3e be 01 9d 3f
       -0.81043804 1.1841505 0.39395213 1.2266157
000150 96 e9 b2 3e 4d 46 7d bd 28 5e 8c 40 bb a0 96 3f
       0.34943837 -0.061834622 4.3864937 1.1767801
000160 97 8f 9a 3e 65 e3 2e 40 5d 72 a9 3f 49 65 b3 3f
       0.30187675 2.732629 1.3238026 1.4015285
000170 f2 c3 0a 40 0a 02 d2 3f 51 16 5e 3f 35 b6 84 3e
       2.1682096 1.6406872 0.867528 0.25920263
000180 6e ae 3a 40 ac 00 38 3f c3 8a 81 bf 64 24 e7 3f
       2.9168963 0.71876025 -1.0120472 1.805798
000190 06 54 a8 be 2f 21 57 3f 6b 6f e4 3f 1f db 22 40
       -0.32876605 0.8403501 1.7846502 2.544624
0001a0 86 b5 f1 3f ed 71 76 be d6 c2 b8 3f 00 64 0a 40
       1.8883522 -0.24066897 1.4434459 2.1623535
0001b0 7e ab f3 3e 91 49 83 3e ca ee b4 3e ee 0b 82 3f
       0.47591776 0.25642064 0.35338432 1.0159891
0001c0 2a c1 56 3f 2b 24 ff 3f 88 ac ff 3f 84 4a 13 40
       0.83888495 1.9932913 1.9974527 2.301423
0001d0 cb 1f 37 bc 6d c3 18 40 57 18 34 bf f2 f3 e0 3f
       -0.011177014 2.3869278 -0.7034964 1.7574446
0001e0 e8 fc 8f 3c c2 8f c0 3f dc 76 82 3f e8 10 25 40
       0.01757665 1.5043871 1.0192523 2.5791569
0001f0 e5 3d 82 3d b1 dc 0a 40 e3 7f c5 3e 4c 78 14 3f
       0.06359462 2.16972 0.38574132 0.5799606
000200 dd 6a 87 40 d7 a1 1c 40 a0 91 82 bf 1f d7 a1 bc
       4.231795 2.447378 -1.0200691 -0.019755898
000210 5e 45 14 40 8f f9 c7 bd 69 69 22 c0 02 89 6d 3f
       2.3167338 -0.097643964 -2.5376837 0.9278718
000220 18 13 b3 3f 6f a5 c8 3f ed ab be 3f 3f 8d 84 3e
       1.3990202 1.5675486 1.4896218 0.25889012
000230 b8 a3 c1 3e 54 1c f2 3e 5c ae 02 40 94 dd e9 3f
       0.3782022 0.47287238 2.041892 1.8270745
000240 e8 a9 8e c0 55 0d 33 40 65 09 75 bf e5 e0 cc 3f
       -4.4582405 2.7976887 -0.9571746 1.6006132
000250 4a b2 06 40 d7 00 29 40 c5 c5 11 3f 24 a3 80 bf
       2.104632 2.6406763 0.569424 -1.0049787
000260 ea 9e 28 40 e4 4d be 3e d9 01 d1 3f 90 10 11 3f
       2.6346993 0.371688 1.6328689 0.566659
000270 e4 b8 d6 be 21 f9 38 40 36 27 15 3f d3 3a 00 bf
       -0.41937935 2.8902056 0.58262956 -0.5008976
000280 04 27 49 3f 17 77 1a 40 28 3d 10 40 5c 1d 85 3f
       0.7857516 2.4135187 2.2537327 1.0399585
000290 3a 97 8d 3f 81 0b f7 be 63 15 e1 3f be e4 c7 3f
       1.1061776 -0.48250964 1.7584652 1.5616682
0002a0 89 3b 87 3f cd 1e 93 3f 40 0a 19 3f 18 f5 c6 3f
       1.0565044 1.1493775 0.59781265 1.5543547
0002b0 2a 9c 9a 3f 44 af 72 bf f1 d0 1d bf b7 9f de 3e
       1.2078907 -0.94798684 -0.61646944 0.43481228
0002c0 10 b7 33 40 dd 2b 3c 40 f0 69 cc bf df b9 b9 3f
       2.8080482 2.9401772 -1.596983 1.4509848
0002d0 de 0d a1 ba 06 e6 89 bf a1 96 05 40 4e 2d b8 3f
       -0.0012287458 -1.0773323 2.0873187 1.4388826
0002e0 f4 08 26 40 64 45 06 40 96 2a 3c be 1e ce 01 40
       2.5942965 2.0979853 -0.1837562 2.0282054
0002f0 8b 90 76 3e 23 4f 9c 3f aa 1b 65 3e a9 5d 8b 3f
       0.24078576 1.2211651 0.22373834 1.0887958
000300 bb b3 d7 3f e6 ea 33 bf a0 ce a3 3f 9e c1 8b bc
       1.6851724 -0.702803 1.2797432 -0.017060097
000310 a2 69 75 c0 5a d1 86 be 1d b8 28 40 20 17 82 c0
       -3.8345723 -0.26331598 2.6362374 -4.065323
000320 1a ce 6e 3f ad d0 10 bd e3 d2 12 3e 1a 2a 26 3f
       0.93283236 -0.03535526 0.1433826 0.6490799
000330 8c 86 4a c0 43 ff d5 3f ff 0d 5f c0 1a 2b 0d 40
       -3.164462 1.6718525 -3.4852293 2.2057557
000340 f7 7d 03 be b0 f8 14 40 66 b6 e9 3e ef 77 0f 40
       -0.1284102 2.3276787 0.4564697 2.2416952
000350 a9 02 47 3f 1c 1d ad 3f 41 21 23 40 bb 22 d4 bf
       0.77738434 1.3524508 2.5489047 -1.6573099
000360 c1 e2 19 bf fc a5 b2 3f 9d 36 19 bd 09 51 1b c0
       -0.60111624 1.3956904 -0.0374056 -2.426821
000370 ad 39 0d c0 6e c1 85 bf fe 2e e0 3f 1d ac 50 3e
       -2.2066453 -1.0449655 1.7514341 0.20378156
000380 0a 64 bd bc 7b d7 a3 bf 4a e8 22 bf d5 75 75 3f
       -0.023118991 -1.2800134 -0.63635695 0.9588292
000390 81 df d6 bf 32 f5 df 3f 4f 0c 24 40 e0 61 78 3f
       -1.6786958 1.7496703 2.5632513 0.97024345
0003a0 7a b9 17 40 2d b8 f8 3f 59 16 d7 3f 44 55 f4 3f
       2.3706956 1.9431206 1.6803695 1.9088521
0003b0 58 91 f3 3f b1 ac c3 3f 9c a0 cb be 0a 97 91 3f
       1.902873 1.5287076 -0.39770973 1.1374218
0003c0 79 e4 0e 3d 48 34 93 3f a5 8a dc bf 8c cb a5 3f
       0.034885857 1.150033 -1.7229811 1.2952743
0003d0 41 78 09 c0 b9 f0 93 3d 49 17 95 3e c6 05 3b 40
       -2.1479647 0.072236486 0.29119328 2.9222274
0003e0 9e 8d 90 3f ab 08 6f 3d a0 97 1a 40 17 4b 16 40
       1.1293218 0.058357876 2.4155045 2.3483331
0003f0 4a 0a 1e 3f 74 ea be 3d 4d 88 a4 3f 93 25 11 40
       0.6173445 0.09322062 1.2854096 2.2679183

action_out.bias f4 [5]
000000 1e 9f c3 bd 36 d7 e7 bf b8 be 9f 40 42 15 ed 3f
       -0.095518336 -1.8112552 4.992031 1.8522112
000010 83 14 38 40
       2.876252

weight f4 [256, 123]
000000 0b ac 40 c1 44 cd 94 be 52 8d e1 bd 24 8d 95 be
       -12.042003 -0.29062855 -0.11013283 -0.29209244
000010 c8 78 fd bd cf ab a1 be 99 d7 93 be cb 39 fd bc
       -0.12376553 -0.31576392 -0.28875425 -0.030911347
000020 2e be bf 3f 87 cb 91 3d 8a 32 58 3d 6d ea 7c 3d
       1.4979913 0.07118898 0.052782573 0.061747003
000030 f9 d4 23 3e e9 f3 fa bc 12 db 28 be 08 75 ed bf
       0.15999211 -0.030633884 -0.16489819 -1.855134
000040 d1 c3 fb be fb 1d 87 bf 7e 8b 5e bf 48 c9 9b be
       -0.49172834 -1.0556024 -0.869316 -0.30427003
000050 02 55 3f be 48 bc 84 bf 66 90 cd 3d 52 ff 6a 3f
       -0.18684772 -1.0369959 0.100373074 0.9179584
000060 0b 50 7f bf f4 e3 a0 bf 02 fd 61 bc 02 d8 bf bf
       -0.9973151 -1.2569566 -0.013793232 -1.4987795
000070 3a 54 1b 3d 30 c4 52 be 1f e1 7a bd fd af 98 be
       0.03792212 -0.20582652 -0.06124985 -0.29821768
000080 da 9f c3 bf 50 4e 6d bc d8 84 d5 bc 68 37 1f bf
       -1.5283158 -0.014484003 -0.026064321 -0.6219392
000090 35 a8 41 c1 e4 2d 25 3e 9f 00 ef 3d 2d dc dd be
       -12.103566 0.16130787 0.1167004 -0.43332043
0000a0 7b 08 ad bc a1 d9 b3 be 85 2b a4 be e0 b8 97 3f
       -0.021122208 -0.35126975 -0.32064453 1.1853294
0000b0 2d 23 2d 3e 3a b6 68 3f 05 83 6c 3f 6d b8 7b 3d
       0.1690795 0.90903056 0.9238742 0.06145518
0000c0 79 ce 16 3e a9 81 df bb 4c 8a 65 be 14 01 bf bf
       0.147272 -0.0068208766 -0.22416037 -1.4922204
0000d0 e4 6f f8 3f 4c 43 eb 3c a5 ee 82 3d d8 84 d3 be
       1.9409146 0.028718613 0.06393174 -0.4131229
0000e0 84 da 1e be e9 bb 7b bf 6c c9 82 3e f8 2e ef 3f
       -0.15513045 -0.98333603 0.25544298 1.8686209
0000f0 be a4 b7 bf 9b cb f8 3d 8c ca c8 3e f0 66 b4 bf
       -1.434715 0.1214821 0.3921703 -1.4093914
000100 97 40 7a be 17 4e 0a 3d 18 3b 9c be 36 25 84 be
       -0.24438702 0.03376588 -0.30513835 -0.2580964
000110 16 e1 5d bd e4 37 c2 bf 61 15 9d 3d a7 16 cd 3f
       -0.054169737 -1.5173306 0.07670093 1.6022538
000120 1b 54 40 c1 86 1f 99 be e9 a5 1c bd 44 5d a1 be
       -12.020534 -0.29906863 -0.03824416 -0.3151647
000130 2b eb eb bc 22 bb c2 be 8d 06 cc be d2 9b 8e 3f
       -0.02879866 -0.38033396 -0.39848748 1.1141303
000140 6e 4c 08 bf 16 4b a0 3f fb e4 1a 3e a0 b4 0f 3e
       -0.5324162 1.2522914 0.15126412 0.14033747
000150 3f ec 05 3e be db 0a bd 5e 67 8e be 43 1b b2 bf
       0.13078402 -0.03390097 -0.27813238 -1.391457
000160 3f 86 97 3e e9 cb 09 3d 82 6f 08 bf 29 3b a3 be
       0.2959461 0.03364173 -0.5329515 -0.31881073
000170 4a 27 08 bd dc 8c 81 bf e5 eb 73 3e 48 e0 53 40
       -0.033240594 -1.0121112 0.23820455 3.310564
000180 e6 11 10 c0 60 90 d5 bc 06 5b 1f 3d 28 9b b2 bf
       -2.2510924 -0.02606982 0.038905166 -1.39536
000190 be 9c ce bd d2 9a 49 bd 5d b6 99 be 11 1b 35 be
       -0.1008849 -0.049219914 -0.30021945 -0.17686106
0001a0 e0 b4 f1 bb 70 ce f6 bb f0 75 ba bf f7 fd 05 c1
       -0.0073762983 -0.0075319335 -1.4567242 -8.374503
0001b0 f9 4b a0 3e 4e 2c d5 3e de 5b c7 be e3 79 c4 3e
       0.31307963 0.41635364 -0.38937277 0.38374242
0001c0 6d 76 19 bf ba 9f 1d 3e b2 e5 a1 bd 29 d2 a1 3e
       -0.5994633 0.15392962 -0.07905139 0.31605652
0001d0 47 ef 44 bd 31 b2 97 3d 94 17 66 bd ac 19 68 bc
       -0.048079755 0.07407034 -0.05617483 -0.014166277
0001e0 f1 14 4c 3d 60 40 93 3d 7e 97 17 bd 1f ed 43 40
       0.04982466 0.07190013 -0.03700971 3.0613477
0001f0 ff 49 2c be c4 86 e1 3d 7c 88 7b bd ee 50 9c 3d
       -0.16825102 0.11012033 -0.06140946 0.076326236
000200 41 e9 20 bf 35 f9 41 3f 94 f4 20 40 3e c7 0e c0
       -0.6285592 0.75770885 2.5149279 -2.2309108
000210 1e b1 a5 bd 30 fa 15 3c 59 f3 1b 3f 26 13 81 be
       -0.08090423 0.009153888 0.60918194 -0.25209922
000220 9d ae 40 c0 83 07 02 bf 6c 93 f5 3f 3e 30 c5 3e
       -3.0106575 -0.5079271 1.9185615 0.38513368
000230 5e 66 1a 3f 5a e6 c8 3c a0 63 e3 be d5 92 16 3e
       0.6031245 0.024523903 -0.44411945 0.1470445
000240 4a 55 26 bf 74 c4 7f be 37 46 63 bf 54 fa 51 bf
       -0.6497389 -0.24977285 -0.88779014 -0.82022595
000250 0d 7e 1b 3e 62 99 cf bd 64 30 04 be 1f e7 28 be
       0.15184803 -0.10136677 -0.12909085 -0.16494416
000260 71 c2 b4 bc 2c df 63 3e 57 3d 87 bb 0a b7 15 be
       -0.022065373 0.22253102 -0.0041271853 -0.14620605
000270 b2 7f 7d 3d 95 00 81 3d 38 98 05 40 c3 5f 47 40
       0.061889358 0.06298939 2.0874157 3.1152198
000280 e3 07 32 3f a9 83 ad be 41 a5 82 bd 9b c0 f7 3c
       0.69543284 -0.3388951 -0.06379176 0.030243209
000290 89 99 22 bf 97 35 26 3f 66 78 43 3e 13 10 87 bf
       -0.63515526 0.6492552 0.19088897 -1.055178
0002a0 14 ac 2a bf 4f f0 7b 3d 63 e4 42 3f 19 d3 9b be
       -0.6666882 0.061508473 0.7612974 -0.30434492
0002b0 5b d0 43 c0 ad 31 01 bf b1 c2 84 40 aa 8e 44 bf
       -3.059592 -0.50466424 4.148766 -0.7678019
0002c0 f0 d1 b2 3b ad 15 0a bd 3a 40 c3 be 19 48 24 3e
       0.0054571554 -0.033712078 -0.38134938 0.16043128
0002d0 cc b9 0c bf b3 b1 c9 be 5d 6a 92 bf 80 06 a6 bf
       -0.54971004 -0.39393386 -1.143871 -1.2970734
0002e0 41 ae ab be fb 5e 8e 3d ae a2 27 be 2b 26 bd 3d
       -0.33531383 0.0695171 -0.16370651 0.092357956
0002f0 36 b1 07 3e bd 82 2c bd 4e 92 4a be c5 2d b4 3d
       0.13251194 -0.04211687 -0.19782373 0.08797792
000300 7a 27 52 be c2 9f 2e 3d 32 b5 21 40 07 77 45 40
       -0.20522872 0.042632826 2.5266843 3.0853899
000310 55 63 0a bf ed e8 53 3e 8b 8b 55 be d1 cf 1c 3d
       -0.5405782 0.20694323 -0.20854013 0.038284127
000320 11 8c 34 bf 87 f3 46 3f 87 ed 83 3e 36 a7 b3 be
       -0.70526224 0.77715343 0.25767156 -0.3508851
000330 7d f8 7d be 7d 12 2d bc b1 d7 33 3f c1 d4 b6 be
       -0.24801822 -0.01056349 0.70250994 -0.35709193
000340 6b 0f 44 c0 bf e6 04 bf 31 16 83 3f a4 b8 5a 3e
       -3.063441 -0.5191459 1.0241147 0.21359497
000350 9e 7a 82 3e 45 2c 31 be d0 c4 fe be 73 f5 33 3e
       0.25484174 -0.17302044 -0.4975953 0.175741
000360 52 e5 fe be d9 0d 7a be 21 ec 55 bf 27 ae 33 c0
       -0.49784333 -0.24419345 -0.8356343 -2.8075044
000370 00 30 d2 3a 35 4a 9c 3d 44 83 14 be 34 6e 2f 3e
       0.0016036034 0.07631341 -0.14503199 0.17131883
000380 16 b2 1c bd c2 08 0b 3e dd 9a 5f be be 62 33 3d
       -0.038255773 0.1357756 -0.2183642 0.04379534
000390 17 94 87 3d a8 e9 3f be ce fd 19 40 d8 ac 18 3d
       0.06620043 -0.18741477 2.406116 0.03727421
0003a0 d0 42 4c bd 9e 30 9b 3d b9 fa be 3d f6 5a 7d be
       -0.049868405 0.07577632 0.09325165 -0.2474173
0003b0 e2 ef 0e be f2 03 00 be 12 6d 20 3d 7a ef b0 bd
       -0.13958696 -0.12501505 0.039166518 -0.086394265
0003c0 2c ad 83 bd 43 af 0d 3c af 4b e1 3d 84 2b 8b 3c
       -0.06429514 0.008647743 0.110007636 0.016988523
0003d0 40 ac ea bd dd eb f6 bc f2 57 50 bd 1b 06 da bc
       -0.11458635 -0.030141765 -0.05086512 -0.02661424
0003e0 e8 0c 6e 3d ff 12 94 3d 09 5e 06 bc 01 30 46 bd
       0.058117777 0.07230186 -0.008201131 -0.048385624
0003f0 87 28 09 3d 6f c9 f7 bb 34 a8 9b 3d 62 7e 53 3d
       0.033485916 -0.0075618546 0.076004416 0.0516342

bias f4 [256]
000000 36 e9 ba bf d7 8a 80 be 44 d9 cd bd f5 ad b4 3e
       -1.460242 -0.25105926 -0.10051206 0.3528897
000010 fb 04 6e bd 3b dd 15 3b 5d 0c 5f be f0 97 87 3c
       -0.05811022 0.002286746 -0.2178206 0.016551942
000020 f5 26 e3 be e6 2d 0b be 18 fd 1b bd de cc c9 bf
       -0.4436566 -0.13591728 -0.038083166 -1.5765646
000030 1b b7 7c be 69 13 21 bf 4c f4 d8 bd bc 51 9a bd
       -0.24679224 -0.6292024 -0.10593471 -0.07535121
000040 cf bc d9 bc 91 67 f6 bd 47 fd 5d 3d fb 40 88 bd
       -0.026579289 -0.120314725 0.054196622 -0.06653019
000050 55 b0 12 c0 66 e0 d4 bf 11 6a d3 bb c2 7d 51 bb
       -2.2920125 -1.6630981 -0.006451853 -0.0031965827
000060 ef 6b e0 bc 61 98 b3 bc 40 0b e9 bd 07 a4 07 bf
       -0.027395217 -0.021923246 -0.11379099 -0.5298466
000070 69 8a cf bc 83 fa 20 bf 5a b1 7f 3e a2 6a 95 bd
       -0.025334554 -0.6288225 0.24969998 -0.07295729
000080 f7 39 c4 bc 7a 51 e7 bd 6e c3 05 bd d3 a7 8a bd
       -0.023953421 -0.11294837 -0.03265708 -0.06770291
000090 40 33 07 c0 a7 07 e4 bd d2 6e d1 bd a3 f2 37 be
       -2.112503 -0.11134272 -0.102262154 -0.17963652
0000a0 dd e3 1e 3d 25 8a ee bd a3 3d 27 3d 2f a0 9f 3b
       0.038791526 -0.11647443 0.040830266 0.0048713903
0000b0 6f b0 4c 3f 49 bb 87 3d ce 35 93 bf f9 d3 db bd
       0.79956716 0.06627519 -1.1500795 -0.1073379
0000c0 09 df be bc 69 49 72 bd c6 83 d0 ba 6a 0a d9 bf
       -0.02329971 -0.05915204 -0.0015908412 -1.6956303
0000d0 b3 88 f6 bd 7e f5 42 be 25 38 91 bd d9 9c 85 bf
       -0.12037792 -0.1903896 -0.07090787 -1.0438491
0000e0 a7 1d 28 be c2 b3 64 bd 33 98 8b 3e fe 3b 30 bd
       -0.16417561 -0.055835493 0.27264556 -0.043025963
0000f0 e1 80 68 3f 62 7c cc bd 12 79 89 bd 09 41 31 bd
       0.90821654 -0.09984662 -0.067125455 -0.043274913
000100 ae 10 85 bd 58 44 73 bd f6 23 f1 3e f8 be 28 3e
       -0.06497322 -0.05939135 0.4709775 0.16479099
000110 29 38 16 3d 11 49 34 bd 75 7f 84 3e 85 fa e3 bc
       0.036674652 -0.044014994 0.25878492 -0.027829418
000120 5f 58 63 bf f0 59 1b bd a3 b4 e4 3f 1c 2b d3 3c
       -0.8880672 -0.037927568 1.7867626 0.025777392
000130 0e 7c 45 3d a6 6d 84 be b4 a0 2b 3c 60 c2 ca be
       0.04821401 -0.25864905 0.010475326 -0.3960142
000140 d7 99 02 3d 1d 35 c3 bd 50 0f 6b be 36 9a 74 bd
       0.031884994 -0.09531615 -0.2295506 -0.05971738
000150 75 6a 10 bc 0c ef 6d bf 8c 50 44 bd 25 8f c0 bd
       -0.008814444 -0.9294288 -0.047928378 -0.09402303
000160 ef 78 93 bd 9f 25 63 3c 74 64 da 3e 1b 58 98 3c
       -0.072008006 0.01386395 0.42654765 0.0185967
000170 60 d8 d0 bd 62 a2 dd bf c3 6f b1 3b 44 95 b6 bc
       -0.1019752 -1.731518 0.0054149344 -0.022287972
000180 fd 37 bf 3b 55 3f f0 bd 0f b2 17 be 60 70 ac bf
       0.0058355317 -0.117308296 -0.14814018 -1.3471794
000190 a7 f3 ed bd 40 68 5a bd 66 33 87 bd be 8a f9 bd
       -0.116187386 -0.053322077 -0.066016 -0.12184666
0001a0 3e 22 7f bf bc e9 e4 bf d6 75 3c bc e6 09 3d 3d
       -0.99661624 -1.788383 -0.011502704 0.046152018
0001b0 bc 04 13 bc ba d6 8d 39 41 33 81 bd ba 39 e6 bd
       -0.008973297 0.000270536 -0.06308604 -0.11241479
0001c0 64 3b 93 bd b7 e7 d9 bd 75 8e 8b bd 01 31 6f bd
       -0.07189062 -0.10639899 -0.06814281 -0.058396343
0001d0 eb 06 b9 bc b9 7a f5 3c 7c c5 b7 bd 91 94 81 bd
       -0.022586307 0.029965745 -0.08973214 -0.06327165
0001e0 39 90 8f bd 6f ef 04 be 91 19 b6 bd a3 21 b0 bc
       -0.0700993 -0.12981962 -0.08891595 -0.021500414
0001f0 6e 01 cf bd de 48 04 bf 9b 09 91 bd 67 5c 1c bb
       -0.101076946 -0.51673687 -0.0708191 -0.0023858787
000200 f5 85 00 bd 9e c4 e1 bf b1 c0 35 be 43 0d e9 bd
       -0.03137775 -1.7638128 -0.17749287 -0.113794826
000210 cc 3b ae bd b8 16 c4 bf ee 7f 29 bd 31 b8 9d bf
       -0.08507499 -1.5319433 -0.04138177 -1.2321836
000220 9d 0a 8c bd ce 1d b0 bd b4 b5 bc bd 32 8e a8 bf
       -0.06837962 -0.08599435 -0.092143446 -1.3168395
000230 48 83 4d bd 60 ce c2 bd bd 69 0b be 54 e6 06 be
       -0.050174028 -0.09512019 -0.13614555 -0.131738
000240 13 a9 9e bd 76 40 1d bf 4e 6c 06 be f9 8b 5c be
       -0.07747092 -0.61426485 -0.13127252 -0.2153777
000250 bb 0c ee be 53 80 b8 bc 7b 54 e2 3e e7 ca c2 bf
       -0.46494088 -0.022522127 0.44205078 -1.5218171
000260 66 7f a1 3d 8f d3 71 be bd 49 c0 3f d3 c3 45 bf
       0.078856274 -0.2361586 1.5022503 -0.7725193
000270 5e 2d b1 bd cf bf f5 bd e9 b4 f3 3f bc 15 15 bd
       -0.08651231 -0.11999475 1.9039584 -0.03639768
000280 f4 b0 a8 bd 67 00 4b bd 1e 1d 57 bd 2c bd 79 3d
       -0.08236876 -0.04956093 -0.052518003 0.060971424
000290 3d 5c 96 bf d9 63 0a be 17 14 cd bd 5b 1e 97 bd
       -1.1746899 -0.13514651 -0.100135975 -0.07378837
0002a0 37 a6 0a be b5 69 13 3d 1c 7e 00 3d 84 43 2a be
       -0.13539968 0.035989482 0.031370267 -0.16627318
0002b0 c8 1e 8f bd 0d 96 47 bf a1 b5 89 bd 00 5b 5f bd
       -0.06988293 -0.77963334 -0.06724096 -0.054530144
0002c0 b9 c5 b0 bd 28 2c 74 3d 6b a3 00 3d aa d2 06 3e
       -0.086314626 0.059612423 0.031405848 0.131663
0002d0 ca a0 98 bd 5e 98 0a be 63 fb 8c bf 5f 08 dd be
       -0.07452543 -0.13534686 -1.1014217 -0.4317045
0002e0 4a c7 4e bd c3 3f ae bd 09 c9 71 be 06 fe bf bd
       -0.050483026 -0.08508255 -0.23611845 -0.09374623
0002f0 55 af 26 bd 33 e2 7b 3b 4a 75 bb be fc 73 a9 3f
       -0.040694553 0.0038434386 -0.36612922 1.3238521
000300 8a 7c e3 bc 2e ac 07 be 31 6c 56 bf fc b7 45 be
       -0.027769346 -0.13249275 -0.83758837 -0.19308466
000310 88 84 00 bf b6 08 6c bd 09 8d 13 bd 7b 30 96 bd
       -0.50202227 -0.057625495 -0.036023173 -0.07333466
000320 2f f3 84 be 07 96 59 bd 7e c9 ec bf ab 1c 7a bd
       -0.25966784 -0.053121593 -1.849899 -0.061062496
000330 21 d3 65 3d 6f 44 8d bd 0f db b2 bd 4e 44 50 bd
       0.05610955 -0.06897818 -0.08733188 -0.05084639
000340 c4 b4 10 bf ff 86 d8 3c 79 12 5d bf d0 87 d9 be
       -0.56525826 0.026431559 -0.8635631 -0.4248643
000350 c2 1c 7f bf 5c b5 d2 bf 2f 7f b9 bf 1b ae 1c c0
       -0.99653256 -1.6461596 -1.4491938 -2.4481266
000360 5e 17 04 be f2 b0 23 bd 16 e0 e3 bd bc d3 61 bd
       -0.12899539 -0.03996367 -0.111267254 -0.055133566
000370 4b 87 01 bd ef 5f 6e 3c 0b 79 99 bd c1 83 b5 bd
       -0.031623166 0.01454924 -0.0749379 -0.08863021
000380 4b e4 74 bc 0b 10 01 be c0 7f 38 bd 4f 89 22 bc
       -0.014947007 -0.12603776 -0.045043707 -0.009920432
000390 8f ad 3a bd 2e db 1f 3e f9 0e 97 bd 04 c3 83 bd
       -0.045575675 0.15610954 -0.07375903 -0.06433681
0003a0 10 ca 3b 3f ae 42 10 3f 98 fa 0c be f6 63 d4 bf
       0.733552 0.56351745 -0.13767469 -1.6593006
0003b0 07 73 8f be 33 3a 81 3d a8 8f 57 3b f9 5c 81 3f
       -0.28017446 0.06309929 0.0032892022 1.0106498
0003c0 3e 52 b2 bc 8c 37 c7 bd b1 c2 10 bd 79 6c a1 bd
       -0.021767732 -0.097273916 -0.035341922 -0.07882018
0003d0 42 f7 8a 3c 6c e8 37 3c 69 48 4e be f5 9f 8e 3e
       0.016963605 0.011224847 -0.2014481 0.27856413
0003e0 19 32 7c bd 39 7c 13 c0 23 11 91 ba e6 87 97 bd
       -0.061571214 -2.304457 -0.0011067729 -0.073989674
0003f0 4a d8 22 3d 31 49 a7 bd 50 ed 12 3e 4e b4 98 bd
       0.03975705 -0.08168257 0.1434834 -0.074562654
