saved_models_1/125_11032_model.pt (torch, 701697 bytes, 11 tensors)

FC1.weight f4 [256, 36]
00000000: d941 e73e d6d2 753e 6d78 0a3f 1cbf babf
00000010: ece0 d43f e690 9b3f 8e3c 83bf 8c78 20c0
00000020: 5ae9 2240 d015 3540 4aad 33c0 d50c 87be
00000030: fbb5 6fbf c67c ad3e 6edc 8d3f 037e 813c
00000040: 0198 d2bf e62b 923f 8e40 2b40 1ec0 5f3e
00000050: 3233 1540 62d9 0e3f 708a adbf aa8d c5bd
00000060: 8f30 4e40 526d 8f3f 6c8b 4bc0 7918 9bbe
00000070: 8d81 e03e 5921 d43e 0b33 35bf 130d eebe
00000080: 5bee 97c0 476c 833e 3b38 f63e 9ccc 86c0
00000090: 95fd 3fbf c344 dcbb a6a7 2c3c 0cb8 753c
000000a0: 8921 a7bf 6887 063d de13 c53f 85da 423e
000000b0: 9229 15c0 3811 a83d 4909 3240 30b6 28bf
000000c0: 6a0a a4bf 889f 20be 76fd 6c3f 8757 27bd
000000d0: 939a c6bf 5d5b 193f 130a 2e40 8797 c43e
000000e0: d509 87bd 463d 483e 05f2 30bf 6dc5 28bf
000000f0: 6dac 2c40 b6fb 52be 1084 eebe 66dc 8fbd
00000100: c4db fabd dbf2 ea3e 0efd d3be 39d8 543f
00000110: 1a85 a0c0 b826 fabf dbc8 0340 da81 68bd
00000120: 474f 0c3e d85d 993f 0c6d 61bf 81da 873f
00000130: f93b 82bf d2a7 e83f 0d42 53c0 29b4 07c0
00000140: a1d0 1240 a168 b3bf b700 953d 9b23 093f
00000150: be13 6bbf a9f9 503f 3836 5cbf 11fc 1b3e
00000160: 82e7 333e c47d 2140 acc8 f1be 23fa b53f
00000170: 7357 d7bf 02c3 e13f aa7b 85be 021d 3f3c
00000180: 0db5 82bf 16fe af3c ae95 c43f 55c5 90bf
00000190: 029f b0bf 137d 22bf a033 56be e6ee 553e
000001a0: ab7b 223f 226b bfbf 4cc8 e2c0 0df7 41c0
000001b0: de15 02c1 5906 963f b680 453e bbfc 88bd
000001c0: 6893 4dbf 9dda 2bbf 4c0e 433e f890 b43f
000001d0: 0049 c7bf 8726 e33e b057 363f 0d5a 123f
000001e0: e426 2abf 85fd a2bf 7905 f13e 3b2e 1640
000001f0: ae14 f0bf 1bdd 86be 7b43 8a3f e11a 8d3e
00000200: 804b 4dbf 1380 773f cbae a83f fe43 90be
00000210: b72b 46c0 7e35 ba3f 4050 3640 cbdc 173f
00000220: 0f88 b1c0 346e 0f40 f725 053f 307e dbc0
00000230: 833c 1fc0 28d5 fcbf 7af8 06bf b94a bac0
00000240: d020 0bc0 c5da 4fbf d215 f1bc a013 82bf
00000250: 3502 d13f 9634 c2be f326 8bbf 143f a7bf
00000260: 358e 8640 5272 643f aa67 a0c0 cc60 5bbf
00000270: dafe 9d3f 0b0c 01be 1c55 98bf f0b0 34bf
00000280: eaae 1a40 a7a3 333e fce8 33c0 d64c 2f3f
00000290: c64f b33e 62ed dfbf 5a19 a3bc bf9d e83f
000002a0: 8fc6 f9bd 72f3 33c0 3fdb 5abd a3e9 5c3c
000002b0: d3b9 863e abb3 2b3f 699c fa3e ae38 583f
000002c0: 067e 483f e0a8 843f fcca d9c0 c45e 82c0
000002d0: cdd8 5ac0 dccb c2bd 68b2 773d 24f9 8d3e
000002e0: 5320 ca3e 2fef 663f 5a8c e7bf 8e2b 33c0
000002f0: 37e4 f93f 3b54 d2be b5cd cc3c 60b4 77be
00000300: df81 e2be 9590 863f 395b bebf efec 35c0
00000310: af15 e83f 45b9 a1bf 30c5 a63e 4dde 41bf
00000320: ef7d 97bf daff b8be 3156 0e3f 0e4a 9dbd
00000330: 3975 11c0 e14d 033f f250 803f 8d95 aa3f
00000340: dc15 7f3f bb6c ddc0 10e1 cbc0 8a1f cfbf
00000350: 6327 9d3f 96bd 32bf 80d2 80c0 7d38 f9c0
00000360: 7e05 86bf 0bbd 923d 7620 edbd 6760 f83d
00000370: 9d39 b63e 4e3d c53e 12d6 d73e a63e c6bf
00000380: a668 9abd 59ef 963e 5659 d43e 53f4 0b40
00000390: df54 80bf 37ec 85bf 24ff 433f 6717 d93f
000003a0: 686e b0bf d8e6 66c0 1f5b dd3f a6ee b53e
000003b0: 9d6d 7a3f d7ce d8bf cf9b 8dbe 6b9f 0940
000003c0: 6df1 53be e21b 0abf e8ea 07c0 952f b33e
000003d0: a3c9 b13c 08c7 13be d89b 903e 1f51 4cbf
000003e0: 7fbb d73f bd9b 24c0 fe8f 03bf d60f 82be
000003f0: e3cd 0fbe 659a 04bc 9aae 4abf de99 70bf
0.45167425 0.24006209 0.54090005 -1.4589572 1.6631141 1.2153594 -1.0252855 -2.5073576
2.5454926 2.8294563 -2.8074517 -0.26376978 -0.93637055 0.33884257 1.1082895 0.015807157
-1.6452638 1.1419647 2.675815 0.2185063 2.3312497 0.5580045 -1.3557873 -0.09646161
3.2217138 1.1205237 -3.1803846 -0.3029211 0.4384884 0.41431692 -0.7078101 -0.4649435
-4.747846 0.25668547 0.48089775 -4.2124767 -0.7499631 -0.006722064 0.010538017 0.0149974935
-1.3057109 0.032843977 1.5396688 0.19028671 -2.3306623 0.08206409 2.7818167 -0.65902996
-1.2815678 -0.15685856 0.9257425 -0.040854957 -1.5515922 0.59905034 2.719365 0.38396856
-0.06593672 0.19554624 -0.6911929 -0.6592625 2.698024 -0.20603833 -0.4658513 -0.070244595
-0.12248948 0.4588841 -0.41404003 0.8314243 -5.0162477 -1.9543066 2.0591342 -0.05676446
0.13702117 1.1981764 -0.8805702 1.0613557 -1.0174552 1.8176215 -3.3009064 -2.120371
2.2939837 -1.4016305 0.07275527 0.53569955 -0.91827 0.8163095 -0.8602023 0.15232874
0.17568782 2.5233011 -0.47223413 1.4216961 -1.6823562 1.7637637 -0.2607091 0.011664631
-1.0211502 0.021483462 1.5358179 -1.1310221 -1.3798525 -0.634721 -0.20918131 0.20891914
0.6346995 -1.4954569 -7.0869503 -3.0307038 -8.130339 1.1720687 0.1928738 -0.066888295
-0.8030305 -0.6713045 0.19048423 1.4106741 -1.5569153 0.44365332 0.7122755 0.57168657
-0.6646559 -1.2733618 0.47074488 2.3465717 -1.8756311 -0.26340565 1.0801843 0.2755957
-0.8019333 0.966798 1.3178343 -0.28176874 -3.0964181 1.4547575 2.848648 0.5932128
-5.5478587 2.2411013 0.52011055 -6.8591537 -2.4880683 -1.975255 -0.52722895 -5.8216214
-2.1738777 -0.8119319 -0.02942935 -1.0162239 1.6328799 -0.37930745 -1.0871261 -1.3066125
4.2048593 0.8923694 -5.0126543 -0.85694575 1.23434 -0.1260225 -1.1900973 -0.70582485
2.416926 0.17542897 -2.8110952 0.6847662 0.350218 -1.7494318 -0.01990955 1.817314
-0.12196075 -2.8117337 -0.053431746 0.013483438 0.26313648 0.67071027 0.48947456 0.84461486
0.78317297 1.0364037 -6.8060284 -4.074068 -3.4194825 -0.09511539 0.060472876 0.27729142
0.39477786 0.90208715 -1.8089707 -2.7995334 1.9522771 -0.41079888 0.025000433 -0.24189901
-0.4423971 1.0512873 -1.4871589 -2.8425863 1.8131617 -1.2634665 0.32572317 -0.7572983
-1.1835307 -0.361327 0.5560027 -0.076801404 -2.2727797 0.5129071 1.0024703 1.3326889
0.9964273 -6.919523 -6.3712234 -1.61815 1.2277645 -0.69820535 -4.025696 -7.7881455
-1.0470426 0.07164963 -0.11578457 0.12127762 0.3559083 0.38523334 0.4215551 -1.5487869
-0.07539491 0.29479483 0.41474408 2.1867874 -1.0025901 -1.0462712 0.7656119 1.6960267
-1.3783693 -3.6078396 1.7293433 0.35533637 0.97823507 -1.6938123 -0.27657935 2.150355
-0.20697565 -0.53948796 -2.1237125 0.3499724 0.021702593 -0.14431393 0.282439 -0.7981128
1.6854094 -2.5720055 -0.5139159 -0.25402707 -0.14043383 -0.008093451 -0.7917267 -0.9398478

FC1.bias f4 [256]
00000000: 1c8b d3be 97f8 bdbe ee57 8ebf c799 1b3f
00000010: 23f0 d63c bdef 9d3f d0b7 183e 9311 f73e
00000020: d827 c3be d097 8fbf ecc0 273c e5d8 60be
00000030: 5c27 87bf f4dc 0d3f 9510 7bbe be63 673d
00000040: 8f49 e4be 63c2 edbf 5325 a93f 75f5 0c3f
00000050: 0d11 88bd bcb8 65bf 6db6 ce3f 90eb 3cbf
00000060: 4a3b a3be 9dab 41bd 41f4 40bf 5fe2 823e
00000070: fce5 5cbf e518 8fbe c497 77bf a058 20bf
00000080: d312 c6bf ade0 0dbf 5c55 70bf 1d1a 4a3f
00000090: 4523 b6be 580c 8dbf e95f fcbe 1d8e 29be
000000a0: 0599 a3be fb61 ccbe 7ae0 a4bd 78a2 b6bf
000000b0: c9d4 383d 5b53 fdbd 0c77 9cbf f75c abbe
000000c0: ffb8 283f ecc0 8bbe 48e0 d33f ff4b 48be
000000d0: 7ff6 70bf ab22 88bd af2b 883e 65a8 a4bf
000000e0: 2ac1 db3e 9224 02bf 6aa8 da3e 5b4f dc3e
000000f0: 4380 57be 7ae6 10bf ecca 083d 2111 413f
00000100: ff1c 713e 94fb 8dbf 5535 ddbe b18e 10be
00000110: 485c c6be 16d3 acbd cbef 94be 9203 acbe
00000120: f2b7 b23f 258e 3840 4508 4dbe 0c24 f53d
00000130: a23a 38bf b616 27be b3b4 04bd 8138 5a3f
00000140: b38f 48bf a9a4 69bf 2a33 953e 28b2 913d
00000150: 39cc c1be a46f edbd e2a2 f4be 9cef 683f
00000160: 57ec edbf 75f5 063f 9d01 fc3c 3f5a 48be
00000170: d2b9 0cbe 4d21 e53f 63c3 4fbf 9df0 303e
00000180: a91f 9fbf 867d 243d 6589 08c0 eb01 02c0
00000190: fb5b de3e c95f f33e 4ac1 5ebe 544b acbf
000001a0: 71a4 04be cb9a 99bd 8c61 61be f8c5 9abd
000001b0: a7f3 e33d 2c4f 943e e265 a9be f773 97bf
000001c0: 2e3c 48bd 6d1e 0a3d 2875 0fbf cc18 003f
000001d0: 8129 61bf 9a4c d4be e72c efbe 8938 82be
000001e0: 7a22 5ebf c91a aebf c73d 843e ca9b a53e
000001f0: d3b9 c1bf e014 27bf afde c4bf eb4d 87bf
00000200: bd55 85bc 0efd 3d3e c8dd 9e3d 40c4 403f
00000210: a46f e83e 8553 233e dc6f 26bf c40c b9bf
00000220: 1e98 ecbe b9d0 dabd 4ab4 84be f85c 2abf
00000230: 78c1 6dbe 121b 0d3e 6eb4 54bf c162 c23d
00000240: 99fd 58be 5791 43bf c8fb 96be 72a9 8d40
00000250: e2f7 59be d953 4ebe fcee a23f 99cd 0bbe
00000260: 1215 bebe 4b31 3bbe 2f23 e43f d9aa 1ebe
00000270: f66c 8abe 194d 513e 8b97 293f 4091 0f3e
00000280: 274f 11bf fc85 e03f 3c5f d63f a697 9a3d
00000290: 03ea 313e f30d 2b3e a288 10bf e84f 25bf
000002a0: 98a9 063f 97db b73e f878 28bf 4013 32bf
000002b0: 3830 903f c7a9 25bf b2b0 223f 35fb dbbe
000002c0: 9e27 0dbf a662 0d3e 9e36 aabf 621d afbf
000002d0: 87fa d73e 271b 823e 43dc cdbf 1f4a 21bf
000002e0: 2cf1 993f caea a13e 0df7 db3e 1f0c 54be
000002f0: 0776 ba3d 2fef 9abf c1e8 dabe 9891 14be
00000300: 1eef 5e3f 8084 663e e30a cd3f cfc0 333f
00000310: 8c5b a8be 9b94 b83c 29ff 533f d065 e43e
00000320: df29 a0bf e756 a9be 62c4 43bd 0a0c 90bf
00000330: 10a1 83bd 3011 603e a85c bc3f 3015 8fbe
00000340: 2f61 aa3e aa42 223f 9bf6 5bbf 25a8 143f
00000350: 8211 a9bf d00d 78bf 4ee1 2dbf a686 bbbe
00000360: 12ba bdbe 8fa6 58bf 170e c53e 2295 0c3f
00000370: 318a 57be c614 78bc fce1 5f3d 9527 d13f
00000380: c4d7 0cbf 5c38 1dbf 42cb b8bf cb0d cebf
00000390: fd6f d9be 506a 30bf 1667 c43f a18d 53bf
000003a0: 0448 36bf 3780 49bf 3060 8abf d31f 5d3f
000003b0: 2c9c 8fbf 7b2d 003f dc0f 6c3f 38d5 f2be
000003c0: 0908 c8be bab5 15bf 87af 0bbf 4cbe f63e
000003d0: bd4c 8c3f e023 50be aea9 73be 25bb c83d
000003e0: 7fa7 38bb 6645 203e 716c 58be 62f2 02be
000003f0: 8c8d 4a3d e2e2 c93f 59f6 b1bf b387 61bf
-0.4131707 -0.37103721 -1.1120584 0.6078152 0.026237553 1.2338787 0.14913869 0.48255596
-0.38116336 -1.1218204 0.010238867 -0.21957739 -1.0558887 0.5541527 -0.24518044 0.056491606
-0.4458737 -1.8574947 1.3214515 0.5506204 -0.06643877 -0.8973501 1.6149422 -0.7379694
-0.3188117 -0.047282804 -0.753727 0.25563332 -0.8628843 -0.2794868 -0.9671595 -0.6263523
-1.5474495 -0.55420953 -0.9388025 0.78946096 -0.35573784 -1.1019392 -0.49291924 -0.16558118
-0.31952682 -0.39918503 -0.08050628 -1.4268332 0.045124803 -0.123694144 -1.222383 -0.33469364
0.6590728 -0.27295625 1.655282 -0.1956024 -0.94126123 -0.066472374 0.26595828 -1.286389
0.4292081 -0.5083705 0.42706615 0.43029293 -0.21045022 -0.5660168 0.033396646 0.7541676
0.23546217 -1.10924 -0.43204752 -0.14116932 -0.3874228 -0.08438699 -0.29089198 -0.33596474
1.3962386 2.8836758 -0.20022686 0.11969766 -0.71964467 -0.16317257 -0.03239889 0.8524247
-0.7834427 -0.91266876 0.29140598 0.07114059 -0.37851122 -0.115935594 -0.4778052 0.90990615
-1.858775 0.5271829 0.030762488 -0.19565676 -0.1374276 1.7900788 -0.8115751 0.17279287
-1.2431537 0.04015877 -2.133386 -2.031367 0.4342955 0.47534016 -0.21753421 -1.3460488
-0.12953354 -0.075002275 -0.22009867 -0.07557291 0.11130457 0.28966653 -0.33085543 -1.1832265
-0.048885517 0.033720423 -0.5603814 0.5003784 -0.87953955 -0.41464692 -0.46713945 -0.25433758
-0.8677136 -1.3601924 0.25828382 0.3234542 -1.5134834 -0.6526623 -1.5380458 -1.0570654
-0.016276235 0.18553564 0.07757145 0.75299454 0.45397675 0.15949829 -0.65014434 -1.4457021
-0.46209806 -0.10684342 -0.259188 -0.6654811 -0.23218334 0.13779858 -0.83087814 0.09491492
-0.2119049 -0.76393646 -0.2948897 4.4269342 -0.21285966 -0.20149173 1.2729182 -0.13652648
-0.3712545 -0.18280523 1.7823237 -0.1549486 -0.27036256 0.20439567 0.6624686 0.14020252
-0.567614 1.7540889 1.6747813 0.07548456 0.17374425 0.1670454 -0.56458485 -0.6457505
0.5260253 0.3590972 -0.65809584 -0.69560623 1.1264715 -0.64712185 0.63550866 -0.42965093
-0.55138576 0.13807163 -1.3297918 -1.3680842 0.42183325 0.2541134 -1.6082844 -0.63003725
1.2026725 0.31624442 0.42961922 -0.20707749 0.09104543 -1.2104243 -0.42755702 -0.14508665
0.87083614 0.22511482 1.6018947 0.7021608 -0.32882345 0.022531798 0.8281122 0.44608927
-1.2512778 -0.33074114 -0.047794707 -1.1253674 -0.064272046 0.21881557 1.4715776 -0.27945852
0.3327727 0.6338297 -0.85923165 0.5806907 -1.3208468 -0.96896076 -0.6792191 -0.36626166
-0.37056023 -0.8462915 0.38487312 0.5491506 -0.2104881 -0.0151416715 0.054658875 1.6340204
-0.5501673 -0.6141412 -1.4437029 -1.6097959 -0.42468253 -0.6891222 1.5343959 -0.82637984
-0.7120364 -0.78711265 -1.0810604 0.86376685 -1.1219535 0.500694 0.922117 -0.47428298
-0.3906863 -0.5848042 -0.5456471 0.4819206 1.0960919 -0.20326185 -0.23795196 0.0980132
-0.0028176007 0.15651473 -0.21135117 -0.12787774 0.049451396 1.5772364 -1.3903304 -0.88097686

FC2.weight f4 [256, 256]
00000000: 68cc a4bd 2977 e7bf 982f 80bf 5de1 953f
00000010: 1a87 a83f fac3 2dbd c60f dbbe 33d8 98c0
00000020: 63b1 79c0 ecf1 c83f 760f 04bc 6543 403f
00000030: fbb0 73c0 b542 6d3e 67b9 f13f 4636 2740
00000040: 554d 00c0 061f 5c40 33f1 61c0 131a ecbe
00000050: 1240 1f3d b151 6840 ea4e 0dc1 fcc5 0dc0
00000060: 6f14 cd3d e053 ebc0 8968 6fbf d431 29c0
00000070: 98bc bb3f 29a6 1a40 e353 0c40 4cf9 293e
00000080: 75fa 34c0 9821 00bf 6925 233e e19e bf3f
00000090: 1357 aabf 112c 0240 bbbc b53e 3d2b 4240
000000a0: 1f44 9fbe d649 713d 7626 04c0 8f77 01bf
000000b0: cb4f 2a40 1e54 0fbe 0140 46bf 590a a9be
000000c0: 9339 63bf 4253 953f 4df6 ccbf 58b8 94bc
000000d0: cd51 85be 78cf 18c0 ee64 fcbf 7470 26c0
000000e0: 3a88 cebe c1dc e93f 8777 62c0 fdf5 b53d
000000f0: e842 b33e e87a 45bf b8c5 f8be e5b0 273f
00000100: 5125 7ebe 2670 7d40 bcce 3a3f 3ea4 23bd
00000110: 741c 79bf 3d4d 94bd c295 14bf 0e08 41be
00000120: afc1 5e3f da8d 9dbf 8784 3a3f 2673 9b3f
00000130: dffe 77c0 8c73 21bf 7c3b 05c0 9bde e53f
00000140: 1fa2 3c3f ba73 bfbf 3929 123f c283 973e
00000150: 4e05 8dbe 2c7e a13f 9ac8 2c3f ee18 64bf
00000160: 3abe a33c 8d08 1c3f fa76 5abc 2ad7 2f3e
00000170: a380 d83e cbd5 e43d 5bd1 2f3f 5d5b 8f3f
00000180: e65f b03f e8a8 7abf b2a0 b83e c72e c6c0
00000190: ae5d f3be ecc9 173f dc3f 89bf 2229 3b3d
000001a0: f24f 283c 5095 5b3f 785e b23f b528 273f
000001b0: 69a5 1f3f 5b96 abc0 3597 da3e 7656 093e
000001c0: c9ad f0bf cc02 b9be 73ce 0b40 d7c8 92c0
000001d0: 6426 fd3f 03fd 7c3f 6ef0 20bf 3115 a73e
000001e0: a5aa 413d cdf9 07c0 130c 43bf 1240 a7ba
000001f0: 6f8c fcbf e04d 80bf 7ebd 2440 3f22 8e3f
00000200: f738 f73f 7961 dc3e 5f69 8f3f 3b3a b53f
00000210: 391a 9d3f 548b 25bf 242c 743d 2b97 a03f
00000220: 9e0a c6bf 3043 a9bf a4e0 2fc0 67e6 d03e
00000230: 3e22 b2bc eb82 efbf 0484 1340 656b 90bd
00000240: e4e6 b5bf ec36 e3bf ad0c 9d3e 7a32 113f
00000250: 5a80 8dbd 85f0 2140 2ce8 363e 6fd6 c5bf
00000260: d043 a2bf 73ae e1be 9f7f 2bc0 d246 15bd
00000270: de00 8cbf fb23 6740 3644 2dbb d513 5ebf
00000280: 5fc9 dc3f a5af 53bf 012e c1bd d3ae 623e
00000290: e668 93bf 1dbb 3f3e 592e ec3e 1e09 b5be
000002a0: 9162 a53f 568a 0fc0 dec1 4940 67ad 08bf
000002b0: 9f76 2bbf 959d a4bf d588 98bf b355 7ac0
000002c0: 48cb 843e eab5 0ac0 64d8 a5be 7f5d 693c
000002d0: e866 e33e 1cab 873e 2b0c d7be 79b9 d73f
000002e0: f8fd f53d f689 153f 4482 8c3f 4f36 8ebf
000002f0: b411 1f3e 5e63 14c0 c1b3 1440 9292 353e
00000300: ff2f 42be a081 1f3f feb9 39c0 91bd 95bb
00000310: 1302 af3f aeb5 ba3e 0f39 853e 2cc3 21c0
00000320: f569 213f e20d 08c0 8875 53bc 3863 9cc0
00000330: 70d6 64bf 36ad 31c0 782b 12c0 e58f b3be
00000340: 7aeb 43be f82b 7ac0 63e8 e83e bee4 63bf
00000350: 2d4b 0e3f e178 f5bf 2ca7 90bf c987 893e
00000360: 8106 dabc 3e2b 25be 59cb b2c0 b7a3 483e
00000370: 32e6 09c0 d128 e2bf bf77 923f 0159 fb3f
00000380: 94ac 5840 6474 80bd 1270 643f 17ec a63f
00000390: 1de6 05c0 eaf2 d4be c4de 66bf db4c 07c0
000003a0: 9dfb 813f d433 a4c0 fc82 e23f e26c 64bf
000003b0: 9fec a8c0 7b08 e73f 188c 4c3f 0a3d 183f
000003c0: 5c01 5b3e c985 89c0 57a1 203f 87f1 3440
000003d0: 2edd 923f b5b2 d93e 7602 b53f 46c8 4b3f
000003e0: 714b 5dc0 5b5b ad3f ffba f2be b18e 3ebe
000003f0: ea5c 9dc0 5f9d 83bf 3ca4 efbf b825 31bf
-0.080468 -1.808324 -1.0014524 1.17094 1.316623 -0.042423226 -0.42785472 -4.7763915
-3.9014518 1.5698829 -0.008060327 0.75102836 -3.807677 0.23169978 1.8884705 2.6126876
-2.00472 3.4393935 -3.5303466 -0.46113643 0.03887946 3.629986 -8.831766 -2.215209
0.10013663 -7.3539886 -0.93518883 -2.6436663 1.4666929 2.4163916 2.19262 0.16599005
-2.8277867 -0.5005126 0.1593224 1.4970361 -1.3307823 2.0339396 0.35495552 3.033889
-0.3110666 0.058908306 -2.0648475 -0.50573057 2.6611202 -0.13996932 -0.7744141 -0.33015707
-0.88759726 1.1666033 -1.6012665 -0.018154308 -0.26038972 -2.387663 -1.9718301 -2.6006136
-0.40338308 1.8270494 -3.5385454 0.08884809 0.35011983 -0.77140665 -0.48588347 0.65504295
-0.24818923 3.95997 0.729717 -0.039951555 -0.9730904 -0.072412945 -0.5804101 -0.18850729
0.8701429 -1.2308915 0.7285847 1.2144516 -3.874931 -0.63066936 -2.0817556 1.7958559
0.7368488 -1.4957192 0.5709415 0.2959271 -0.2754311 1.261663 0.67493594 -0.8910054
0.019988168 0.6095055 -0.01333403 0.17171922 0.42285642 0.1117359 0.68678826 1.1199757
1.3779266 -0.9791398 0.360601 -6.19321 -0.4753241 0.59292483 -1.0722613 0.045693524
0.010272967 0.8577471 1.393508 0.6529649 0.6236177 -5.362104 0.42693487 0.13411888
-1.8803035 -0.36134946 2.1844757 -4.5870166 1.9777341 0.98823565 -0.62866867 0.32633355
0.04728188 -2.1246216 -0.761903 -0.0012760183 -1.9730357 -1.0023766 2.5740657 1.1104201
1.9314259 0.43043116 1.1204032 1.4158396 1.2273628 -0.6466572 0.05961241 1.2546133
-1.547199 -1.3223629 -2.748086 0.40800783 -0.021744844 -1.8711828 2.3049326 -0.07051734
-1.4211087 -1.7751136 0.30673733 0.56717646 -0.06909247 2.5303051 0.17862004 -1.5456065
-1.2676945 -0.44078407 -2.6796644 -0.036444493 -1.0937765 3.611571 -0.0026438362 -0.8674901
1.7248954 -0.8268989 -0.09432603 0.22137003 -1.1516387 0.18723722 0.4612911 -0.35358518
1.2920705 -2.2428184 3.1524577 -0.5338959 -0.66977876 -1.286059 -1.1916758 -3.9114807
0.2593634 -2.1673532 -0.32391655 0.014243483 0.4441445 0.26497734 -0.4200147 1.6853477
0.12011331 0.58413637 1.0977254 -1.1110324 0.15534097 -2.318565 2.3234713 0.17731693
-0.18963622 0.6230717 -2.901977 -0.004569717 1.3672508 0.36466736 0.26020095 -2.5275373
0.630523 -2.1258473 -0.01290644 -4.8871117 -0.89389706 -2.776197 -2.2839031 -0.3507072
-0.19132796 -3.9089336 0.45489797 -0.8902091 0.5558346 -1.9177514 -1.1301017 0.26861408
-0.02661443 -0.16129777 -5.5873227 0.19593702 -2.154675 -1.7668706 1.1442794 1.9636537
3.3855333 -0.062722 0.89233506 1.3040799 -2.09217 -0.4159158 -0.90183663 -2.114066
1.0154911 -5.1313267 1.7696223 -0.8922864 -5.2788844 1.8049463 0.79901266 0.5946814
0.21387237 -4.297581 0.62746185 2.8272417 1.1473749 0.42519155 1.4141376 0.7960247
-3.4577296 1.3543504 -0.47408292 -0.1860912 -4.917592 -1.0282401 -1.8721995 -0.6919818

FC2.bias f4 [256]
00000000: 83e5 26bf 6831 a3bd d390 80bf 0c2b 94be
00000010: 263b 03c0 f31c abbf 22cc 4fbf 0c64 c8be
00000020: 75f1 c4bf 481c e6bf 5414 86bf 7ed6 dbbd
00000030: 05c3 0cc0 32d3 81bd bbda 0ec0 ee32 abbf
00000040: 9859 44bf 4364 5dbe 82ce f8bd cd9c edbf
00000050: 8c95 b2bf 1f81 c3be 017d 813f 0365 e7bf
00000060: 4265 523b 3400 34be 524b 523e 8abe 5cbd
00000070: 37fe 86bf 86da 6fbf 1b43 2cc0 9cd5 9cbf
00000080: deb4 e9bf b17f cbbd 386c b8be 94c8 9ebf
00000090: f64c febd 7ba9 0ebf 9dd1 1bc0 52d7 403f
000000a0: 990c 2bbe eab3 08c0 204e 833f a4d3 14bf
000000b0: c5d0 f5be e935 eabf f589 babf 48f1 203f
000000c0: 5dd3 84be f398 18c0 6731 fabe 8485 82bf
000000d0: b6a9 22bf 4c15 1ebf e893 dbbf 8078 f5bd
000000e0: d669 fbbe 2ce6 ddbe 9887 90bf dfe8 7dbe
000000f0: 3f6c 32be b3ac 1abe 51c7 9abf dde7 5ebe
00000100: ab5f 3b3f 09f5 3dbf 28e1 2e3e 8658 aebe
00000110: d2ab b9be ab98 06be 21b3 80bf 3496 64bf
00000120: 0ee0 7fbe 7b5a 34bf deb1 f73d 2f02 833e
00000130: c1c4 14c0 379d 07bf f172 7abf a6f8 73bf
00000140: 7275 d1be be16 b7bf 1883 afbd 3ec3 63be
00000150: ca80 16be d80b 34c0 c2f0 8abf 8cd8 21be
00000160: 2b3f 16bf 434b c03f 108d d0bf f215 51bf
00000170: c80d 27bf 1984 1ac0 f149 adbf 9e47 88be
00000180: 8082 9fbf fea6 89bf 499e 97bf 4014 f6bf
00000190: d3b2 80bf aad9 81bf 5955 33be 6913 95bf
000001a0: ccbb 94bf e6e0 74bf 9a1e bd3f 5d15 fc3d
000001b0: 2992 f3bf 29ef 27bd c042 49be 9fa1 033f
000001c0: 3c4b de3b 8c5c 803e 1890 b3be bd24 c5bf
000001d0: ce3b 8bbf bda7 82bf 9213 debf 95e0 7fbf
000001e0: d68f 6fbd be57 94bf 8c7c a83e e838 52bf
000001f0: 9d6f a0bd c0eb 893d becd 4abe be07 e0be
00000200: d694 3ebf 92d4 dbbf 6e24 39c0 f0b4 26bd
00000210: abd3 e0be e0dd 49bf 6fab 9bbf 07dd 96bf
00000220: 3d79 03be 1638 b93f c7fb 17c0 dd69 d5bd
00000230: 3f43 a6bf 6deb c1bd 5916 4e3e a8af a2be
00000240: e413 78bf 38fc 84bf 7a44 cabf 995a abbe
00000250: d298 1bbf ab64 29c0 242b f3bf 505b 19bf
00000260: 89a0 c43e 902f 05be 3741 283f 60af 50c0
00000270: 786b dabf bbb9 0ec0 aa35 1dbe 75cf 88be
00000280: ac85 a4be 9bce fc3e e975 febf 9092 9e3f
00000290: aaa7 88bf 1225 44bf 440b 5ebf 868d 9abf
000002a0: 0924 11bf 0f81 94bf fed6 f0bf 7993 bcbf
000002b0: 78ae b9bf 79e6 01c0 9d16 f9bf ce51 3ec0
000002c0: ee5e 93bf a583 b9bf 1283 a1bf f72d 5a3f
000002d0: 9154 43bd 6920 8ebf 068d 2dbf 9a2d 57bf
000002e0: 7a69 e23f 6faf d1bf eaf2 0cc0 3e5a 203e
000002f0: 75f3 50be 6469 3ebf 015e ffbf 2af0 2dc0
00000300: 8c1e a23e 964f 8bbf cea6 02bf c118 60bd
00000310: 31d7 09bf 262f f2bf 860c 9dbe 1da5 0fc0
00000320: 5728 35bf 1ff0 73bd c9f6 55be 7b85 eabf
00000330: 5829 a0bf 3037 4b3e 5551 edbf 50d6 f9bf
00000340: 84e4 a5be 0e5f ca3f f526 a3bf 18cc 6ebf
00000350: 9565 fd3e b982 9ebf 54a2 9dbf 23fa 10c0
00000360: 9eb4 61c0 e080 d33e 012f f5bd 39e1 56c0
00000370: 0bbb c1bf 4c55 68bf dee6 86bf 84ea 27be
00000380: c672 053d 909e 913e ef09 aebf 1b1f c8bf
00000390: 76b9 f2bf 0df3 01c0 057e 133e d315 d3bf
000003a0: 6dbd 17bf 3c49 d0be 3307 e43d bb2d 68bf
000003b0: 6fe2 f8bf 18c9 9bbf ec12 15c0 e6e3 aebf
000003c0: c814 d6bd 3bf8 bfbf cdbe d9bf 42b2 353f
000003d0: dad1 f5bf 6790 37bf 3597 debd 6088 94bf
000003e0: 4618 1bc0 d7cb 09be 46d6 bdbf 525a f7be
000003f0: ae4c 90bd f69d 56be 19e4 8abe f74e e1be
-0.6519396 -0.07968408 -1.0044197 -0.28939092 -2.0504851 -1.336821 -0.81170857 -0.3913883
-1.5386187 -1.7977381 -1.0474954 -0.107342705 -2.199403 -0.063391104 -2.2321002 -1.3374918
-0.7669921 -0.21620278 -0.12148763 -1.8563477 -1.3951888 -0.3818445 1.0116273 -1.8077701
0.0032103811 -0.17578202 0.20536545 -0.05389265 -1.054633 -0.93692815 -2.6915958 -1.2252688
-1.8258321 -0.099364646 -0.36020064 -1.2404962 -0.12417023 -0.55727357 -2.4346688 0.7532855
-0.16704024 -2.135981 1.0258217 -0.5813544 -0.4801084 -1.8297702 -1.4573351 0.62868166
-0.25942507 -2.3843353 -0.48865816 -1.0196996 -0.6354021 -0.61751246 -1.7154512 -0.11985874
-0.49104184 -0.4333967 -1.129138 -0.24795865 -0.17424105 -0.15104942 -1.2092077 -0.21768136
0.7319285 -0.7420202 0.17078078 -0.34051913 -0.362639 -0.13144176 -1.0054666 -0.8929169
-0.24987814 -0.7045056 0.12094472 0.25587603 -2.324509 -0.52974266 -0.97831637 -0.9530128
-0.40909916 -1.4303815 -0.08569926 -0.22242448 -0.14697567 -2.813223 -1.0854723 -0.15805262
-0.58690137 1.5022968 -1.6293049 -0.8167411 -0.65255404 -2.4143126 -1.353819 -0.2661714
-1.24617 -1.0754087 -1.184518 -1.922493 -1.0054573 -1.0144551 -0.17513026 -1.1646549
-1.1619811 -0.9565567 1.4774964 0.12308762 -1.902898 -0.040999565 -0.1965437 0.5141849
0.006783871 0.25070608 -0.35070872 -1.5401837 -1.0877626 -1.020744 -1.7349722 -0.9995206
-0.058486782 -1.1589277 0.32907522 -0.8211808 -0.078337885 0.06734419 -0.19805047 -0.43755907
-0.74445856 -1.7174246 -2.8928485 -0.0406999 -0.4391149 -0.7885418 -1.2161692 -1.1786202
-0.12839217 1.4470241 -2.3747423 -0.104205824 -1.2989272 -0.09468732 0.20125712 -0.3177464
-0.9690535 -1.0389471 -1.5802147 -0.33467558 -0.6078006 -2.6467693 -1.899754 -0.59904957
0.3840373 -0.13006425 0.6572451 -3.260704 -1.7064047 -2.230086 -0.15352502 -0.26720777
-0.32133234 0.49376377 -1.9879733 1.2388477 -1.0676167 -0.76619065 -0.8673594 -1.207444
-0.5669561 -1.1601886 -1.881561 -1.4732505 -1.4506369 -2.029692 -1.9460026 -2.973743
-1.1513345 -1.44933 -1.2618124 0.85226387 -0.04768807 -1.1103641 -0.6779331 -0.8405396
1.7688439 -1.6381663 -2.2023263 0.15659425 -0.20405371 -0.74379563 -1.9950563 -2.7177835
0.3166393 -1.0883663 -0.51035774 -0.054711107 -0.5384398 -1.8920639 -0.30673617 -2.2444527
-0.7076468 -0.05955517 -0.20894922 -1.8321985 -1.2512617 0.19845271 -1.8540446 -1.9518528
-0.32400906 1.5810258 -1.2746264 -0.9328017 0.49491563 -1.2383643 -1.2315164 -2.2652671
-3.526649 0.4130926 -0.11971856 -3.3574965 -1.5135206 -0.9075515 -1.0539205 -0.16398054
0.03258016 0.28441286 -1.3596781 -1.5634493 -1.8962848 -2.0304596 0.14403541 -1.6491035
-0.59273416 -0.40680873 0.11134186 -0.9069478 -1.9444102 -1.2170744 -2.32928 -1.3663299
-0.104531825 -1.4997629 -1.7011353 0.70975125 -1.9204667 -0.71704715 -0.10868684 -1.1604118
-2.4233565 -0.13456665 -1.4831016 -0.48311096 -0.070458755 -0.20958695 -0.2712715 -0.44005558

action_out.weight f4 [5, 256]
00000000: 2a40 0b40 e13f 83bd 57a7 0540 271c 843f
00000010: e62f d5ba 8558 70c0 8060 b8bf b56a 913f
00000020: 0eb8 68bf 8bf8 e23e 61f5 2040 7ef9 0d3f
00000030: 7124 b2bf 853f 23bc b051 1a40 7798 1a3e
00000040: 1afa 4640 c7c6 823d a046 d73e e319 e53f
00000050: c8f0 89bf a814 ac3f bbe4 d23f 21c2 9240
00000060: dce0 813b 3690 ef3f 1800 0f3f 5a4f 313f
00000070: 2c94 0740 b1fd bcbf 90ab e43e a87b 8e3f
00000080: 519b 423f 7739 ed3c 9335 5d40 6702 1a40
00000090: d598 65bd 8282 17bf 521d 9d40 6e71 3140
000000a0: 2ff5 1340 077d 1f3e 268a d33f ca1d d73f
000000b0: 4629 d73f b020 19bf efff 1b3f 064f 593f
000000c0: 2743 1240 54a8 e43e 2392 903f 02be 0140
000000d0: c24d e93f 876a 4240 c4ef 9740 d3cf 70be
000000e0: 8baa e53f 31f4 423f 6b57 893f 0ce0 533f
000000f0: 3b21 ef3f 145e ee3f ee68 2ebd 3742 dd3f
00000100: f6d7 5140 208c 32bf 3bd8 3240 7d33 883f
00000110: 5605 0240 ad08 d33f 25a9 963f 8de0 e13d
00000120: 8f8d f33f a94a a93e 241a 12be 6959 0a40
00000130: b19b 3a40 51dd 90be 51f9 5a3f da62 bb3f
00000140: de78 4fbf fb1d 963f 18b4 c93e 3c3c 9e3f
00000150: 96e9 b23e 48d2 3bbd a2c9 8b40 61cd 943f
00000160: 978f 9a3e 99ab 3040 82a2 aa3f 4965 b33f
00000170: 7afc 0940 b330 d23f 1532 6d3f 35b6 843e
00000180: a463 3940 c778 333f 5927 80bf ca9f e33f
00000190: 0654 a8be 9107 593f 8e58 e93f 1fdb 2240
000001a0: 787f f63f 717b 6dbe 0896 bb3f ff93 0b40
000001b0: 7eab f33e ff94 8b3e caee b43e d86e 823f
000001c0: ffdd 533f afb5 fc3f 4a2c 0040 35df 1340
000001d0: 73bb 40bc 6dc3 1840 190d 39bf fdb0 e03f
000001e0: e8fc 8f3c c28f c03f 906d 853f 17c7 2440
000001f0: e53d 823d 466a 0a40 e37f c53e dd2d 143f
00000200: dd6a 8740 28df 1e40 a091 82bf 1fd7 a1bc
00000210: 6c66 1540 7618 86bd 1f1c 22c0 0a65 673f
00000220: 1813 b33f 2188 c93f 80d8 bf3f 3f8d 843e
00000230: d4e1 c33e 541c f23e 6309 0540 baf3 e73f
00000240: c6c6 8ec0 d665 3040 73d5 73bf 6f5c cb3f
00000250: c0bf 0740 d700 2940 cf7c 0e3f 2cd6 80bf
00000260: 3cb2 2840 e44d be3e d556 d43f a25b 053f
00000270: 296d debe 21f9 3840 1eed 203f d33a 00bf
00000280: 03ae 453f daf6 1a40 571d 0f40 3d15 873f
00000290: 3a97 8d3f c6ba efbe 1aad e63f 070c c73f
000002a0: 061b 873f 3b99 953f 9df5 173f 7afc c33f
000002b0: ff6c 993f 6372 71bf 64b9 1dbf 9a4b d03e
000002c0: 10b7 3340 cdf0 3940 f069 ccbf dcbb bd3f
000002d0: de0d a1ba 4d59 89bf ffbe 0440 cb2e bb3f
000002e0: c3da 2340 6445 0640 962a 3cbe fa66 0340
000002f0: 8b90 763e 4eaa 9c3f 1689 6f3e a95d 8b3f
00000300: 2b6a d93f e6ea 33bf 7e2e a33f 9ec1 8bbc
00000310: ce9e 71c0 36e0 89be b4a9 2940 5c8b 82c0
00000320: f27d 743f add0 10bd e3d2 123e 7436 1f3f
00000330: 6dd0 4ac0 cc26 d33f ff0d 5fc0 1a2b 0d40
00000340: f77d 03be 90b9 1740 e7bd ea3e 7801 0d40
00000350: a669 493f b0fc ac3f ff3b 2540 9a85 d3bf
00000360: b324 1abf 0efa b13f 9d36 19bd 0951 1bc0
00000370: ad39 0dc0 ac95 83bf b4f7 dc3f 1dac 503e
00000380: 0a64 bdbc 44fe a2bf fb2c 28bf d575 753f
00000390: 92ca dcbf b0dc de3f 5262 2540 64a6 783f
000003a0: 8b81 1740 f273 fc3f 9fcc d93f 2f56 f93f
000003b0: 5891 f33f 89c6 c83f c431 c6be ee8f 933f
000003c0: 79e4 0e3d 4834 933f f1b8 dcbf 03d5 a73f
000003d0: 8743 07c0 f5ed 933d 4917 953e efd3 3b40
000003e0: dcc2 903f ab08 6f3d 1fde 1a40 9725 1440
000003f0: 4a0a 1e3f 74ea be3d 0cbd a53f 91c2 0d40
2.1757913 -0.06408668 2.0883386 1.0321091 -0.0016264885 -3.7554028 -1.440445 1.1360689
-0.90905845 0.44330248 2.5149767 0.5545882 -1.3917371 -0.009963875 2.4112358 0.15097223
3.109015 0.0638557 0.4204607 1.7898525 -1.0776606 1.3443804 1.6476053 4.5861974
0.003963573 1.8715885 0.5585952 0.69261706 2.1184187 -1.476492 0.44662142 1.1131487
0.76018244 0.028958065 3.456395 2.4063966 -0.056053955 -0.59183514 4.909829 2.7725482
2.3118398 0.15575038 1.6526535 1.6805966 1.6809471 -0.598155 0.609374 0.84886205
2.2853487 0.44659674 1.1294597 2.0272222 1.8226855 3.037752 4.7480183 -0.23516779
1.794267 0.76153857 1.0729803 0.82763743 1.8682016 1.862246 -0.042580537 1.7285832
3.2788062 -0.69745064 2.7944477 1.0640713 2.0315757 1.6487023 1.1770369 0.11029158
1.9027575 0.33064774 -0.14267784 2.1617072 2.9157526 -0.2829385 0.85536677 1.4639542
-0.81043804 1.1727899 0.39395213 1.2362132 0.34943837 -0.045854837 4.3683634 1.1625177
0.30187675 2.7604735 1.3330843 1.4015285 2.156035 1.6421112 0.92654544 0.25920263
2.8967066 0.70106167 -1.0012008 1.7783139 -0.32876605 0.8477717 1.823015 2.544624
1.925765 -0.2319162 1.4655161 2.180908 0.47591776 0.27262112 0.35338432 1.0190077
0.82760614 1.9742945 2.0027032 2.3104985 -0.011763441 2.3869278 -0.7228561 1.7554013
0.01757665 1.5043871 1.0424061 2.5746515 0.06359462 2.1627364 0.38574132 0.5788248
4.231795 2.4823704 -1.0200691 -0.019755898 2.3343763 -0.06547634 -2.5329664 0.9038855
1.3990202 1.5744668 1.4987946 0.25889012 0.3825823 0.47287238 2.078698 1.8121254
-4.4617643 2.7562156 -0.9524757 1.5887583 2.1210785 2.6406763 0.5565919 -1.006536
2.6358786 0.371688 1.6588999 0.52092946 -0.43442658 2.8902056 0.6286181 -0.5008976
0.77218646 2.4213166 2.2361658 1.0553356 1.1061776 -0.46822184 1.8021576 1.5550545
1.0555122 1.1687387 0.5935915 1.5311425 1.1986388 -0.94315165 -0.6161101 0.4068268
2.8080482 2.9053223 -1.596983 1.4822955 -0.0012287458 -1.0730377 2.0741575 1.4623655
2.5602272 2.0979853 -0.1837562 2.0531602 0.24078576 1.2239473 0.23392138 1.0887958
1.6985525 -0.702803 1.2748563 -0.017060097 -3.7753177 -0.26928872 2.6509829 -4.0795116
0.9550468 -0.03535526 0.1433826 0.62192464 -3.1689713 1.6496215 -3.4852293 2.2057557
-0.1284102 2.3707008 0.4584801 2.2032146 0.7867683 1.3514614 2.5817869 -1.6525147
-0.6021225 1.3904436 -0.0374056 -2.426821 -2.2066453 -1.0280051 1.7263093 0.20378156
-0.023118991 -1.2733846 -0.65693635 0.9588292 -1.724932 1.7411098 2.584126 0.9712889
2.3672817 1.9722884 1.701557 1.9479426 1.902873 1.5685588 -0.38709843 1.1528299
0.034885857 1.150033 -1.724394 1.3111881 -2.1134965 0.07223121 0.29119328 2.9348104
1.1309466 0.058357876 2.4198072 2.3147943 0.6173445 0.09322062 1.2948318 2.2150004

action_out.bias f4 [5]
00000000: 73db ebbd 7a52 e6bf 4e95 9f40 ce2f ec3f
00000010: e3b9 3840
-0.11516466 -1.799392 4.9869757 1.8452089 2.8863456

weight f4 [256, 123]
00000000: 0bac 40c1 44cd 94be 528d e1bd 248d 95be
00000010: c878 fdbd cfab a1be 99d7 93be cb39 fdbc
00000020: 2ebe bf3f 87cb 913d 8a32 583d 6dea 7c3d
00000030: f9d4 233e e9f3 fabc 12db 28be 0875 edbf
00000040: d1c3 fbbe fb1d 87bf 7e8b 5ebf 48c9 9bbe
00000050: 0255 3fbe 48bc 84bf 6690 cd3d 52ff 6a3f
00000060: 0b50 7fbf f4e3 a0bf 02fd 61bc 02d8 bfbf
00000070: 3a54 1b3d 30c4 52be 1fe1 7abd fdaf 98be
00000080: da9f c3bf 504e 6dbc d884 d5bc 6837 1fbf
00000090: 35a8 41c1 e42d 253e 9f00 ef3d 2ddc ddbe
000000a0: 7b08 adbc a1d9 b3be 852b a4be e0b8 973f
000000b0: 2d23 2d3e 3ab6 683f 0583 6c3f 6db8 7b3d
000000c0: 79ce 163e a981 dfbb 4c8a 65be 1401 bfbf
000000d0: e46f f83f 4c43 eb3c a5ee 823d d884 d3be
000000e0: 84da 1ebe e9bb 7bbf 6cc9 823e f82e ef3f
000000f0: bea4 b7bf 9bcb f83d 8cca c83e f066 b4bf
00000100: 9740 7abe 174e 0a3d 183b 9cbe 3625 84be
00000110: 16e1 5dbd e437 c2bf 6115 9d3d a716 cd3f
00000120: 1b54 40c1 861f 99be e9a5 1cbd 445d a1be
00000130: 2beb ebbc 22bb c2be 8d06 ccbe d29b 8e3f
00000140: 6e4c 08bf 164b a03f fbe4 1a3e a0b4 0f3e
00000150: 3fec 053e bedb 0abd 5e67 8ebe 431b b2bf
00000160: 3f86 973e e9cb 093d 826f 08bf 293b a3be
00000170: 4a27 08bd dc8c 81bf e5eb 733e 48e0 5340
00000180: e611 10c0 6090 d5bc 065b 1f3d 289b b2bf
00000190: be9c cebd d29a 49bd 5db6 99be 111b 35be
000001a0: e0b4 f1bb 70ce f6bb f075 babf f7fd 05c1
000001b0: f94b a03e 4e2c d53e de5b c7be e379 c43e
000001c0: 6d76 19bf ba9f 1d3e b2e5 a1bd 29d2 a13e
000001d0: 47ef 44bd 31b2 973d 9417 66bd ac19 68bc
000001e0: f114 4c3d 6040 933d 7e97 17bd 690e 4440
000001f0: 5c4f 27be 345a dc3d 099e 67bd 5e24 973d
00000200: 64c2 21bf 21c4 403f 82df 2340 8a04 0ec0
00000210: 1eb1 a5bd 30fa 153c 8c99 1b3f 4214 81be
00000220: fcb9 40c0 783c 02bf 4dcd f63f d779 c33e
00000230: 35fa 1c3f 8606 a33c 4e59 e7be 6a43 0c3e
00000240: 114f 28bf ae16 84be 1f19 5dbf 3655 4fbf
00000250: 8919 363e 2621 b3bd 22ba 01be d93a 2bbe
00000260: a6ff adbc 631d 693e 1c05 88bb c640 13be
00000270: b27f 7d3d 9500 813d 9020 0540 0d81 4740
00000280: 16ae 313f c484 adbe 1b60 71bd 6a0e e33c
00000290: ac72 23bf 8300 253f 9e0e 483e 6cf9 85bf
000002a0: eb3f 2dbf 1b70 873d 968a 423f 34d4 9bbe
000002b0: badb 43c0 a266 01bf 6fac 8440 66a7 43bf
000002c0: f0d1 b23b ad15 0abd e835 c7be aef8 193e
000002d0: 93b3 0ebf 28e6 cdbe 45c8 90bf 0eef a3bf
000002e0: e314 a5be cc29 b83d 6a2c 25be ba9b b93d
000002f0: fc41 113e 9546 eebc e4d9 46be c52d b43d
00000300: 36b1 4fbe c29f 2e3d ac13 2340 5198 4540
00000310: 2d5e 0cbf 8299 493e e890 50be b576 123d
00000320: 3465 35bf 73be 453f 4b2b 7f3e b278 b8be
00000330: 064a 8cbe 366a c8bc e47d 333f dcd5 b6be
00000340: ca1a 44c0 b41b 05bf 5f53 813f a1fa 473e
00000350: 78c2 773e b111 46be 445d 01bf 08a6 293e
00000360: 6f6c 01bf 683b 81be 3e2c 56bf f876 34c0
00000370: 0030 d23a 354a 9c3d 000d 12be d167 333e
00000380: df5b 0fbd 5276 0a3e db20 5ebe be62 333d
00000390: 1794 873d 6473 3dbe 8b68 1a40 9732 8b3c
000003a0: 963e 04bd f8db 9a3d 2cac ca3d 70de 77be
000003b0: 5405 f7bd 62cf 21be 78b5 823d e471 d6bd
000003c0: 7f26 1cbd 8b93 2b3c f772 ef3d ea3b 7bbb
000003d0: ceac c2bd dd93 25bd f257 50bd 1b06 dabc
000003e0: e80c 6e3d ff12 943d 095e 06bc 0130 46bd
000003f0: 8728 093d 6fc9 f7bb 34a8 9b3d 627e 533d
-12.042003 -0.29062855 -0.11013283 -0.29209244 -0.12376553 -0.31576392 -0.28875425 -0.030911347
1.4979913 0.07118898 0.052782573 0.061747003 0.15999211 -0.030633884 -0.16489819 -1.855134
-0.49172834 -1.0556024 -0.869316 -0.30427003 -0.18684772 -1.0369959 0.100373074 0.9179584
-0.9973151 -1.2569566 -0.013793232 -1.4987795 0.03792212 -0.20582652 -0.06124985 -0.29821768
-1.5283158 -0.014484003 -0.026064321 -0.6219392 -12.103566 0.16130787 0.1167004 -0.43332043
-0.021122208 -0.35126975 -0.32064453 1.1853294 0.1690795 0.90903056 0.9238742 0.06145518
0.147272 -0.0068208766 -0.22416037 -1.4922204 1.9409146 0.028718613 0.06393174 -0.4131229
-0.15513045 -0.98333603 0.25544298 1.8686209 -1.434715 0.1214821 0.3921703 -1.4093914
-0.24438702 0.03376588 -0.30513835 -0.2580964 -0.054169737 -1.5173306 0.07670093 1.6022538
-12.020534 -0.29906863 -0.03824416 -0.3151647 -0.02879866 -0.38033396 -0.39848748 1.1141303
-0.5324162 1.2522914 0.15126412 0.14033747 0.13078402 -0.03390097 -0.27813238 -1.391457
0.2959461 0.03364173 -0.5329515 -0.31881073 -0.033240594 -1.0121112 0.23820455 3.310564
-2.2510924 -0.02606982 0.038905166 -1.39536 -0.1008849 -0.049219914 -0.30021945 -0.17686106
-0.0073762983 -0.0075319335 -1.4567242 -8.374503 0.31307963 0.41635364 -0.38937277 0.38374242
-0.5994633 0.15392962 -0.07905139 0.31605652 -0.048079755 0.07407034 -0.05617483 -0.014166277
0.04982466 0.07190013 -0.03700971 3.0633795 -0.16338867 0.107593924 -0.0565472 0.07379983
-0.6318724 0.7529927 2.5605168 -2.219027 -0.08090423 0.009153888 0.6078117 -0.25210768
-3.0113516 -0.5087352 1.9281403 0.38178894 0.61319286 0.019900572 -0.45185322 0.13697591
-0.65745646 -0.25798553 -0.86366457 -0.80989397 0.17783178 -0.08746557 -0.1266866 -0.16721667
-0.021240067 0.22765116 -0.0041509997 -0.14380178 0.061889358 0.06298939 2.0801125 3.1172516
0.6940626 -0.33890355 -0.058929544 0.027716834 -0.6384685 0.64453906 0.19536826 -1.0466743
-0.67675656 0.06613179 0.75992715 -0.30435336 -3.060286 -0.5054723 4.146049 -0.76427305
0.0054571554 -0.033712078 -0.38908315 0.1503627 -0.5574276 -0.40214658 -1.1311117 -1.2807329
-0.32242498 0.08992347 -0.16130224 0.090629056 0.14185327 -0.02908639 -0.19419056 0.08797792
-0.20282444 0.042632826 2.5480757 3.0874217 -0.548312 0.19687465 -0.20367777 0.03575774
-0.7085755 0.7724373 0.24918859 -0.36029583 -0.27400225 -0.024464708 0.7011397 -0.35710037
-3.064135 -0.51995397 1.0103568 0.19529201 0.24195278 -0.19342686 -0.5053294 0.16567242
-0.5055608 -0.25240636 -0.8366126 -2.8197613 0.0016036034 0.07631341 -0.14262772 0.17520072
-0.034999724 0.13521698 -0.21692221 0.04379534 0.06620043 -0.1850105 2.4126308 0.016991897
-0.03228625 0.07561487 0.098961204 -0.24205947 -0.12061563 -0.15801767 0.06382269 -0.10470942
-0.03812265 0.010472189 0.1169185 -0.0038335272 -0.09505616 -0.040424217 -0.05086512 -0.02661424
0.058117777 0.07230186 -0.008201131 -0.048385624 0.033485916 -0.0075618546 0.076004416 0.0516342

bias f4 [256]
00000000: 36e9 babf 709f 7ebe 44d9 cdbd 6f49 b43e
00000010: fb04 6ebd 3bdd 153b 5d0c 5fbe f097 873c
00000020: f526 e3be e62d 0bbe 18fd 1bbd f7a5 c9bf
00000030: 1bb7 7cbe 6913 21bf 4cf4 d8bd bc51 9abd
00000040: cfbc d9bc 9167 f6bd 47fd 5d3d fb40 88bd
00000050: 2ef2 12c0 bad8 d4bf 2a56 44bb c27d 51bb
00000060: ef6b e0bc 6198 b3bc 400b e9bd 8580 06bf
00000070: 7c53 cabc 83fa 20bf 0027 7d3e a26a 95bd
00000080: f739 c4bc 7a51 e7bd 6ec3 05bd d3a7 8abd
00000090: 4033 07c0 a707 e4bd d26e d1bd a3f2 37be
000000a0: dde3 1e3d 258a eebd a33d 273d 2fa0 9f3b
000000b0: 4ab5 4c3f 49bb 873d 046a 92bf f9d3 dbbd
000000c0: 09df bebc 6949 72bd c683 d0ba e66c d8bf
000000d0: b388 f6bd 7ef5 42be 2538 91bd d99c 85bf
000000e0: a71d 28be c2b3 64bd 9704 8d3e fe3b 30bd
000000f0: 0d4a 693f 627c ccbd 1279 89bd 0941 31bd
00000100: ae10 85bd 5844 73bd 9a23 ef3e 2980 2d3e
00000110: 2938 163d 1149 34bd 757f 843e 85fa e3bc
00000120: 5f58 63bf f059 1bbd dd6e e43f 1c2b d33c
00000130: 0e7c 453d 6bb8 82be b4a0 2b3c 60c2 cabe
00000140: d799 023d 1d35 c3bd 500f 6bbe 369a 74bd
00000150: 756a 10bc 0cef 6dbf 8c50 44bd 258f c0bd
00000160: ef78 93bd 9f25 633c 5ab9 db3e 1b58 983c
00000170: 60d8 d0bd adb4 ddbf c36f b13b 4495 b6bc
00000180: fd37 bf3b 553f f0bd 0fb2 17be bcd6 acbf
00000190: a7f3 edbd 4068 5abd 6633 87bd be8a f9bd
000001a0: 3e22 7fbf f438 e5bf d675 3cbc e609 3d3d
000001b0: bc04 13bc 0625 5cbb 4133 81bd ba39 e6bd
000001c0: 643b 93bd b7e7 d9bd 758e 8bbd 0131 6fbd
000001d0: eb06 b9bc b97a f53c 7cc5 b7bd 9194 81bd
000001e0: 3990 8fbd 6fef 04be 9119 b6bd a321 b0bc
000001f0: 6e01 cfbd de48 04bf 9b09 91bd 675c 1cbb
00000200: f585 00bd f55e e1bf dc86 39be 430d e9bd
00000210: cc3b aebd b816 c4bf ee7f 29bd 31b8 9dbf
00000220: 9d0a 8cbd ce1d b0bd b4b5 bcbd 2b93 a8bf
00000230: 4883 4dbd 60ce c2bd bd69 0bbe 54e6 06be
00000240: 13a9 9ebd 7640 1dbf 4e6c 06be f98b 5cbe
00000250: bb0c eebe 5380 b8bc 3246 e63e 8403 c2bf
00000260: 2506 9c3d 8fd3 71be db1b c03f 4ec7 46bf
00000270: 5e2d b1bd cfbf f5bd 56f3 f33f bc15 15bd
00000280: f4b0 a8bd 6700 4bbd 1e1d 57bd d15f 653d
00000290: 344c 96bf d963 0abe 1714 cdbd 5b1e 97bd
000002a0: 37a6 0abe b569 133d 1c7e 003d d111 26be
000002b0: c81e 8fbd 0d96 47bf a1b5 89bd 1b21 59bd
000002c0: b9c5 b0bd 282c 743d 6ba3 003d df76 0b3e
000002d0: caa0 98bd 5e98 0abe 63fb 8cbf 5f08 ddbe
000002e0: 4ac7 4ebd c33f aebd 3786 6fbe 06fe bfbd
000002f0: 55af 26bd 33e2 7b3b 76ed bbbe be8e a93f
00000300: 8a7c e3bc 2eac 07be d0d8 51bf fcb7 45be
00000310: 8884 00bf b608 6cbd 098d 13bd 7b30 96bd
00000320: 78d1 83be 0796 59bd 7acc ecbf ab1c 7abd
00000330: 21d3 653d 6f44 8dbd 0fdb b2bd 4e44 50bd
00000340: c4b4 10bf ff86 d83c 7912 5dbf 063b e2be
00000350: c21c 7fbf 8a17 d3bf 61ec b9bf 1bae 1cc0
00000360: 5e17 04be f2b0 23bd 16e0 e3bd bcd3 61bd
00000370: 4b87 01bd ef5f 6e3c 0b79 99bd c183 b5bd
00000380: 4be4 74bc 0b10 01be c07f 38bd 4f89 22bc
00000390: 8fad 3abd e1e2 1e3e f90e 97bd 04c3 83bd
000003a0: e694 3c3f 0201 113f 98fa 0cbe 9b6f d4bf
000003b0: 0773 8fbe 333a 813d a88f 573b 52df 813f
000003c0: 3e52 b2bc 8c37 c7bd b1c2 10bd 796c a1bd
000003d0: 42f7 8a3c 6ce8 373c e441 4abe f59f 8e3e
000003e0: 1932 7cbd 7283 13c0 2311 91ba e687 97bd
000003f0: 4ad8 223d 3149 a7bd 06b7 113e 4eb4 98bd
-1.460242 -0.24865508 -0.10051206 0.35212275 -0.05811022 0.002286746 -0.2178206 0.016551942
-0.4436566 -0.13591728 -0.038083166 -1.5753773 -0.24679224 -0.6292024 -0.10593471 -0.07535121
-0.026579289 -0.120314725 0.054196622 -0.06653019 -2.2960315 -1.662864 -0.0029958584 -0.0031965827
-0.027395217 -0.021923246 -0.11379099 -0.52539855 -0.024698012 -0.6288225 0.24721909 -0.07295729
-0.023953421 -0.11294837 -0.03265708 -0.06770291 -2.112503 -0.11134272 -0.102262154 -0.17963652
0.038791526 -0.11647443 0.040830266 0.0048713903 0.79964125 0.06627519 -1.1438603 -0.1073379
-0.02329971 -0.05915204 -0.0015908412 -1.6908233 -0.12037792 -0.1903896 -0.07090787 -1.0438491
-0.16417561 -0.055835493 0.27542564 -0.043025963 0.9112862 -0.09984662 -0.067125455 -0.043274913
-0.06497322 -0.05939135 0.4670685 0.1694342 0.036674652 -0.044014994 0.25878492 -0.027829418
-0.8880672 -0.037927568 1.7846333 0.025777392 0.04821401 -0.25531325 0.010475326 -0.3960142
0.031884994 -0.09531615 -0.2295506 -0.05971738 -0.008814444 -0.9294288 -0.047928378 -0.09402303
-0.072008006 0.01386395 0.4291485 0.0185967 -0.1019752 -1.7320763 0.0054149344 -0.022287972
0.0058355317 -0.117308296 -0.14814018 -1.3503032 -0.116187386 -0.053322077 -0.066016 -0.12184666
-0.99661624 -1.7908006 -0.011502704 0.046152018 -0.008973297 -0.0033591404 -0.06308604 -0.11241479
-0.07189062 -0.10639899 -0.06814281 -0.058396343 -0.022586307 0.029965745 -0.08973214 -0.06327165
-0.0700993 -0.12981962 -0.08891595 -0.021500414 -0.101076946 -0.51673687 -0.0708191 -0.0023858787
-0.03137775 -1.7607104 -0.18117851 -0.113794826 -0.08507499 -1.5319433 -0.04138177 -1.2321836
-0.06837962 -0.08599435 -0.092143446 -1.3169912 -0.050174028 -0.09512019 -0.13614555 -0.131738
-0.07747092 -0.61426485 -0.13127252 -0.2153777 -0.46494088 -0.022522127 0.4497543 -1.5157323
0.076183595 -0.2361586 1.5008501 -0.77647865 -0.08651231 -0.11999475 1.9058635 -0.03639768
-0.08236876 -0.04956093 -0.052518003 0.05599958 -1.1742005 -0.13514651 -0.100135975 -0.07378837
-0.13539968 0.035989482 0.031370267 -0.16217734 -0.06988293 -0.77963334 -0.06724096 -0.053010087
-0.086314626 0.059612423 0.031405848 0.13619564 -0.07452543 -0.13534686 -1.1014217 -0.4317045
-0.050483026 -0.08508255 -0.23391043 -0.09374623 -0.040694553 0.0038434386 -0.36704606 1.3246686
-0.027769346 -0.13249275 -0.81971455 -0.19308466 -0.50202227 -0.057625495 -0.036023173 -0.07333466
-0.2574575 -0.053121593 -1.8499901 -0.061062496 0.05610955 -0.06897818 -0.08733188 -0.05084639
-0.56525826 0.026431559 -0.8635631 -0.44185656 -0.99653256 -1.6491559 -1.4525262 -2.4481266
-0.12899539 -0.03996367 -0.111267254 -0.055133566 -0.031623166 0.01454924 -0.0749379 -0.08863021
-0.014947007 -0.12603776 -0.045043707 -0.009920432 -0.045575675 0.15516235 -0.07375903 -0.06433681
0.736647 0.5664216 -0.13767469 -1.6596559 -0.28017446 0.06309929 0.0032892022 1.0146277
-0.021767732 -0.097273916 -0.035341922 -0.07882018 0.016963605 0.011224847 -0.19751698 0.27856413
-0.061571214 -2.3048978 -0.0011067729 -0.073989674 0.03975705 -0.08168257 0.14229974 -0.074562654

weight f4 [256, 256]
00000000: 2d50 4ebf 4650 52bf 50e3 273d 810e 29be
00000010: aa6c 853c a24a 7c3c 61b5 8e3c 4ec0 fe3c
00000020: ac08 0abe ffe3 4abd c564 9cbb a394 c9be
00000030: 4425 e0bb c9f4 c3bd 7248 e1bc 9561 54bb
00000040: e7e8 9e3c 237d 87bd 7fe9 d73c 1826 c5bc
00000050: c494 60bc 2a67 1c40 f295 59bd 8daf 7cbd
00000060: 15a1 47bd 0db8 e63c 51c1 6e3c 395e 383f
00000070: d21a 083f 8519 32c0 4545 60bf 9075 4fbd
00000080: 0ea2 b4bc e65e 53bd ebc0 873c 006e a1bc
00000090: 45e4 e6be 78e2 023c 91f2 0fbd 9de1 11bd
000000a0: fe02 82bd 3bdf 56bc 30e4 783d 8bba 4dbd
000000b0: e855 76bd 6852 eb3c 9174 3d40 65a4 133b
000000c0: 8d8d 7cbc 8a98 f83c 69a5 10bd 61cd 153d
000000d0: 53ec 6b3d 6de3 2abf add7 0d3d 4030 233f
000000e0: 31aa 603c d51b 44bc 1291 413e 57c9 f0bb
000000f0: c59c f4be 44ac e13c f481 0e3d c49e 7ebd
00000100: a0b9 16bc 7b39 4ebd 0bf7 163f 3d5c 9cbe
00000110: 0d0d 203d 2f2f a13c a394 6cbd 47d2 1b3d
00000120: ae20 2c40 be53 0e3d e602 2c3f e35f bb3c
00000130: 46e0 05bc dfc5 193d daad fabc 0572 ff3c
00000140: e5f0 043c 1352 05bc 4389 8f3c 231e ccbc
00000150: ee5b f4bb a5b4 613d f529 83bd a5a2 1abb
00000160: 00d6 233d 9b19 fe3c 4935 9a3e 57fa 95bd
00000170: c31a 72bd 8bc2 2d40 4fd4 ba3c 172f 96bc
00000180: 5e2b debc 8c42 2ebd ab2d b1bc 38b6 d23f
00000190: efd2 78bc a95d 5a3d 2c98 4fbd e793 1ebd
000001a0: f3ea 653f 5353 67c1 82ad d33c e088 c5bb
000001b0: 710c 623c 89e9 9ebf 9cf7 b33c 0ec9 ffbc
000001c0: 6058 17bd d861 0cbf eab6 523d 34f6 3e3d
000001d0: 4a09 d13c 1475 613d 2d5c c8bc b346 a33d
000001e0: d9ce 613c 0f31 93bc e616 f4bc 7731 2b3d
000001f0: bee1 2fbd 37ed 6d3e b6be eb3b ffb7 c3bc
00000200: 9888 10bd 2335 09be 92cf 033f 1543 b23c
00000210: e3c6 42bd ff98 8cbe 6662 ab3d c705 6ebd
00000220: 4c90 21bb b59e 56bd ee2e a1bd ecfa 67bf
00000230: b949 003d acab 543d 4469 ef3c 5c16 b13a
00000240: 0a45 6ebc e550 443f f9c5 87bc 6a7a 293f
00000250: 91c4 20bf 5f4d 3c3b 732f b5bd 3d0f 2740
00000260: 7a12 0bbf a1c4 99bc 8121 bf3e 1a67 52bf
00000270: 36f0 acbd bc3d 8cbd d4d7 523f 678d 56bd
00000280: a7db ef3a b3c1 bcbc 0a57 613d cbb5 f5bc
00000290: 24bd 0640 578d e73c 709b fdbc e1a7 4c3b
000002a0: d017 403d f1d2 673d c2bf 633d 3574 babe
000002b0: 2689 d4bc b5a0 2cbd 3803 19bd 5b53 90bf
000002c0: 8838 c6bc 034f 96bc ae37 39bd e378 c93e
000002d0: eb95 323d eb01 13bd d572 a43c 6a98 54bd
000002e0: cd7a 83bc 5ea0 e83c 0f94 aa3e 1e40 71bb
000002f0: 7bac 3d3d a08b ee3c 795b 793e 6272 f03f
00000300: f0e2 dcbc 748f a1bc 25b9 bb3f d99f bfbd
00000310: 1999 12bd 0ab6 b7bc 320e 703d 611a 63bd
00000320: 34a2 bb3f bfc9 aabb daaf aa3e c25f 01bd
00000330: 8a0c 02bd 3371 8dbd 25a6 8cbd b43d 7f3b
00000340: c6e7 91bc 21a6 cdbc 85ee e93e 42f9 6fbe
00000350: e888 f73e fde9 3c3f e6d3 813c b725 bf3f
00000360: 5f81 0bbd 62cf 5dbd 9dbd 353d c181 183c
00000370: 17a4 43bd bf40 51bd f05d d43c 58a3 623d
00000380: 7c8e 723b d402 a53c ab8d 2ebd d327 113d
00000390: 868d 323d fd0c 8bbd ebc7 3a3d 2834 a8bc
000003a0: e4d9 fcbe a038 0fbf ed87 0dbd 4005 6ec0
000003b0: c41a 573d 7cec 1e3d c4b0 4b3d 5885 21bf
000003c0: 7365 303d 60ec 09bd 1678 633d cd84 13bd
000003d0: 65ae b7bb 0a32 803d 0538 083f 1d40 8bc0
000003e0: 90b7 62bd 2dfb 1440 808b 483d d3c6 db3c
000003f0: d9fc 733c 5606 773d 57da e73d 66d1 29bd
-0.8059109 -0.8215374 0.040988266 -0.16509439 0.016287167 0.015398653 0.017420473 0.031097557
-0.1347987 -0.04953384 -0.004772755 -0.39371213 -0.00684038 -0.095681734 -0.027500365 -0.0032406796
0.019398166 -0.06615665 0.026356457 -0.024066016 -0.0137073435 2.4437966 -0.053121515 -0.061690856
-0.048737604 0.028163934 0.014572457 0.7201877 0.53165925 -2.7828076 -0.87605697 -0.050649226
-0.02204993 -0.051604174 0.016571483 -0.019705772 -0.4509603 0.007988565 -0.03514344 -0.035615552
-0.06348227 -0.013114746 0.06076449 -0.05022673 -0.06014052 0.028725818 2.9602396 0.0022528407
-0.015414608 0.030346174 -0.035313997 0.036572818 0.057598423 -0.66753274 0.034629513 0.637455
0.013712452 -0.011969526 0.18902996 -0.0073482203 -0.47775856 0.027547963 0.0347919 -0.06216313
-0.00919953 -0.050347786 0.5897071 -0.30539122 0.039074946 0.01967582 -0.05775894 0.038042333
2.6894946 0.03474783 0.6719192 0.02287287 -0.008171147 0.03754222 -0.030600477 0.031182298
0.008114074 -0.008137244 0.017521506 -0.024916714 -0.007457248 0.055103917 -0.06404487 -0.002359548
0.03999901 0.031018069 0.30118778 -0.07323139 -0.059107553 2.714999 0.022806315 -0.018333001
-0.027120288 -0.042543933 -0.021628221 1.6461859 -0.015187009 0.053311978 -0.05068223 -0.03871527
0.8981163 -14.457843 0.02583957 -0.0060282797 0.013796912 -1.2415019 0.021968655 -0.0312238
-0.036949515 -0.548368 0.05144397 0.046621516 0.025517125 0.055043295 -0.024458015 0.07972469
0.0137822265 -0.017967729 -0.029796075 0.04179522 -0.042939894 0.23235022 0.0071943654 -0.023891447
-0.035286516 -0.13399176 0.514886 0.021760503 -0.047552954 -0.27460477 0.083683774 -0.05811098
-0.0024652658 -0.05239745 -0.07870279 -0.9061725 0.031320307 0.05192153 0.029225 0.0013510692
-0.014542827 0.76685935 -0.016573893 0.66202414 -0.62799937 0.002873264 -0.08846941 2.610305
-0.5432507 -0.018770518 0.3733025 -0.8218857 -0.08444254 -0.068477124 0.8236058 -0.052380946
0.0018299714 -0.023041582 0.055014648 -0.029993912 2.1052942 0.028265638 -0.030957907 0.0031227993
0.04689771 0.056597654 0.055602796 -0.36416784 -0.025944304 -0.04214545 -0.037356585 -1.1275438
-0.024196878 -0.018348223 -0.045219116 0.39350042 0.043600004 -0.0358905 0.020074287 -0.051903166
-0.016049767 0.028396782 0.33316085 -0.0036811898 0.04630707 0.029119313 0.243513 1.8784907
-0.026963681 -0.019721724 1.4665877 -0.093566604 -0.035790537 -0.02242567 0.058607288 -0.05544508
1.4658875 -0.0052120383 0.3333729 -0.031585462 -0.03175024 -0.06906357 -0.06867627 0.003894669
-0.017810713 -0.02510363 0.45689788 -0.23434928 0.4834664 0.7379454 0.015848111 1.4933385
-0.034058925 -0.054152854 0.044370282 0.0093082795 -0.04776391 -0.051087137 0.0259237 0.055331558
0.0037011197 0.02014295 -0.042615574 0.03543837 0.043592 -0.06789587 0.045600813 -0.020532683
-0.49384987 -0.5594578 -0.034553457 -3.7190704 0.05251576 0.038799748 0.049729124 -0.6309409
0.0430655 -0.03367269 0.055534445 -0.03601532 -0.0056055062 0.06259544 0.5321048 -4.3515763
-0.05535084 2.3278306 0.048961163 0.026828205 0.014891827 0.060308777 0.11320942 -0.041459464
