saved_models_1/125_12237_model.pt (torch, 701697 bytes, 11 tensors)

FC1.weight f4 [256, 36]
0.61664575 0.2871299 0.24943945 -1.1451718 1.5914036 1.4381477 -1.1306349 -2.829458
2.389524 2.4928207 -3.0315077 -0.26579133 -0.84202325 0.30945852 1.2725451 0.23357534
-2.4300082 1.2610375 1.8059362 0.31501225 2.0540829 0.9340867 -1.5944833 -0.8636599
3.3467836 0.89267725 -2.991621 -0.4087827 -0.029090453 0.52824813 -0.85493904 -0.20489052
-4.538726 0.2764296 0.45537618 -5.868698 -1.244432 0.18640572 -0.019698795 0.34513456
-1.4372127 0.1800605 1.6148157 0.3251506 -2.5271132 -0.08297301 2.911254 -0.6397364
-1.1100278 -0.2562389 0.9808606 0.5504708 -1.5531696 0.94675136 2.5223687 0.43093872
-0.03209429 0.010527639 -0.39724624 0.65471333 2.0600147 0.3479536 -0.69543785 -0.20041288
-0.31666383 0.34777868 -0.22273615 0.3118203 -5.0755935 -1.8201828 1.9578886 -0.6624157
-0.17520945 1.0344723 -0.90903735 0.9358011 -0.74901026 1.6283872 -3.4565725 -2.1734366
2.6736858 -1.519075 -0.5697852 0.074020565 -1.0649613 0.8554825 -1.5972831 -0.024411373
0.9018361 2.8590243 -0.5404254 1.423141 -1.6113893 1.4375998 -0.42430276 0.106803365
-0.7067479 -0.4944605 1.4516826 -1.5063725 -1.4366121 -0.4598386 -0.08241351 0.10134451
0.3213687 -1.4270341 -7.086953 -3.739803 -9.381219 1.0866128 0.18285687 -0.14076553
-1.3861349 -0.44866478 0.03444344 0.6921511 -1.2315438 0.2847809 1.6536772 1.0891097
-1.1034065 -0.7364601 0.3384272 1.2175745 -1.7006787 -1.4080756 1.9905256 0.028184053
-1.1479334 0.78335273 1.3279876 -0.115000725 -2.9352899 1.9733865 3.3979454 0.670963
-5.470437 2.4820228 0.7353921 -6.6632147 -2.7636561 -1.9522736 -0.8871771 -5.067978
-2.493413 -0.75078225 -0.08789406 -1.1416751 1.3763058 -0.20688123 -1.4728305 -1.3860911
4.827093 1.2270826 -4.538313 -0.59488624 1.23916 0.32985696 -1.9823228 -1.5512751
3.8733532 -0.51213706 -2.9671488 0.35279834 0.07523862 -2.0981739 -0.3788723 2.4189465
0.40228045 -2.1604762 0.34942937 -0.043602537 0.4946031 0.88477653 0.35222256 0.61363363
0.75234896 1.1432693 -6.9159646 -3.4498417 -3.8279932 -0.5595503 -0.26130083 0.42489767
0.32957083 0.7185346 -2.0153475 -3.0549324 1.9353616 -1.4308933 -0.3770618 -0.98489
-1.1624405 -0.019162813 -1.759394 -1.2200322 2.2000422 -0.43908477 1.3437077 -0.9787114
-0.9863304 -0.60249436 0.4558991 -0.027019551 -2.5244691 0.4525497 0.1148951 0.9709654
0.7027599 -6.958563 -6.9069166 -2.1134996 0.9880168 -0.9747469 -4.083903 -7.8196907
-0.4717972 0.42652065 0.029956182 -0.1251897 0.5295975 0.318827 0.7608544 -0.7023511
-0.51303333 1.5531403 0.27045536 1.8730251 -0.60024124 -1.1120352 1.0338789 2.3048646
-1.7081759 -2.5474412 1.1490352 1.0336082 0.67173904 -1.3516091 -0.65495455 2.274548
0.8168265 -1.1326905 -1.0033737 0.48309952 0.15655094 0.25675446 -0.6946166 -0.5871024
1.3789965 -3.4353876 -0.011950149 -0.9562619 0.1523367 -0.02680734 -0.3093049 -1.3561983
00000000: 7fdc 1d3f b102 933e 0e6d 7f3e fd94 92bf
00000010: 1db3 cb3f 3915 b83f a5b8 90bf d715 35c0
00000020: f6ed 1840 608a 1f40 3904 42c0 cd15 88be
00000030: d68e 57bf 5971 9e3e c2e2 a23f 602e 6f3e
00000040: 4185 1bc0 ad69 a13f eb28 e73f 4949 a13e
00000050: 1876 0340 4e20 6f3f 0718 ccbf d118 5dbf
00000060: b431 5640 7f86 643f b876 3fc0 f74b d1be
00000070: 1a4f eebc 453b 073f 49dd 5abf d2ce 51be
00000080: 3e3d 91c0 2e88 8d3e 1127 e93e 60cc bbc0
00000090: 8c49 9fbf 24e1 3e3e 5e5f a1bc 7ab5 b03e
000000a0: 96f6 b7bf c861 383e 48b2 ce3f 247a a63e
000000b0: 39bc 21c0 c1ed a9bd fc51 3a40 c4c5 23bf
000000c0: 6415 8ebf bf31 83be ae19 7b3f a8eb 0c3f
000000d0: 43ce c6bf 4c5e 723f 7d6e 2140 00a4 dc3e
000000e0: 4d75 03bd 1e7c 2c3c dc63 cbbe 4b9b 273f
000000f0: 48d7 0340 f926 b23e 3708 32bf 0939 4dbe
00000100: c321 a2be 0c10 b23e f214 64be e9a6 9f3e
00000110: 436b a2c0 c0fb e8bf 189c fa3f 1394 29bf
00000120: 1b6a 33be 9769 843f acb6 68bf a990 6f3f
00000130: 23bf 3fbf fe6e d03f 7c38 5dc0 9619 0bc0
00000140: ab1d 2b40 0d71 c2bf 71dd 11bf 1898 973d
00000150: a750 88bf e700 5b3f c673 ccbf 5cfa c7bc
00000160: bbde 663f 41fa 3640 5259 0abf 7c29 b63f
00000170: 0142 cebf 4503 b83f 363e d9be b9bb da3d
00000180: 6eed 34bf ed29 fdbe bcd0 b93f d0d0 c0bf
00000190: e8e2 b7bf f76f ebbe 6ac8 a8bd b68d cf3d
000001a0: 708a a43e 0ea9 b6bf 52c8 e2c0 ef58 6fc0
000001b0: 7919 16c1 2116 8b3f d53e 3b3e d724 10be
000001c0: de6c b1bf 64b7 e5be 9114 0d3d d130 313f
000001d0: 3aa3 9dbf cdce 913e b2ab d33f f267 8b3f
000001e0: 6d3c 8dbf a688 3cbf 5446 ad3e 7bd9 9b3f
000001f0: d7af d9bf d23b b4bf 8bc9 fe3f 3ee2 e63c
00000200: 7bef 92bf ce89 483f 7ffb a93f 8085 ebbd
00000210: cadb 3bc0 ee97 fc3f f077 5940 3bc4 2b3f
00000220: d20d afc0 76d9 1e40 a842 3c3f 0e39 d5c0
00000230: bedf 30c0 1ae4 f9bf 0a1e 63bf e02c a2c0
00000240: 1494 1fc0 4433 40bf cd01 b4bd 6922 92bf
00000250: ca2a b03f acd8 53be b685 bcbf 6f6b b1bf
00000260: 8c77 9a40 0b11 9d3f dc39 91c0 774a 18bf
00000270: cb9c 9e3f 03e3 a83e c1bc fdbf 2f90 c6bf
00000280: 05e5 7740 6a1b 03bf c4e5 3dc0 fca1 b43e
00000290: b516 9a3d 7b48 06c0 8dfb c1be 05d0 1a40
000002a0: b4f7 cd3e 3e45 0ac0 68e8 b23e 9398 32bd
000002b0: 9e3c fd3e b780 623f 8456 b43e 1817 1d3f
000002c0: f199 403f a656 923f 954f ddc0 35ca 5cc0
000002d0: d7fd 74c0 b03e 0fbf 39c9 85be 308c d93e
000002e0: 82bd a83e e2f1 373f 74fb 00c0 0384 43c0
000002f0: eeb9 f73f 8327 b7bf 3f0e c1be c021 7cbf
00000300: daca 94bf 55fb 9cbc d333 e1bf 042a 9cbf
00000310: 7ecd 0c40 b8cf e0be 9dfe ab3f d58c 7abf
00000320: 2680 7cbf 123d 1abf 9b6b e93e 1b58 ddbc
00000330: e790 21c0 98b4 e73e 1f4e eb3d 3091 783f
00000340: 13e8 333f 8cac dec0 7605 ddc0 9443 07c0
00000350: abee 7c3f 0389 79bf 55af 82c0 e83a fac0
00000360: 678f f1be ea60 da3e ab66 f53c bb31 00be
00000370: b493 073f 4b3d a33e 5bc7 423f 48cd 33bf
00000380: 2756 03bf 4dcd c63f 2079 8a3e 49bf ef3f
00000390: 69a9 19bf 2b57 8ebf 2556 843f e782 1340
000003a0: 82a5 dabf 4709 23c0 9613 933f 464d 843f
000003b0: 17f7 2b3f 8701 adbf 1aab 27bf 3292 1140
000003c0: 8b1b 513f 01fc 90bf 8d6e 80bf d258 f73e
000003d0: e44e 203e 5275 833e 65d2 31bf 584c 16bf
000003e0: f582 b03f 64dd 5bc0 8fca 43bc 94cd 74bf
000003f0: 27fe 1b3e 119b dbbc 365d 9ebe e897 adbf

FC1.bias f4 [256]
-0.5190308 -0.5012206 -1.4874084 0.68556565 -0.030849578 0.87215805 0.28226036 0.36351222
-0.43886214 -1.2984586 0.010238867 -0.21957739 -1.3966011 0.64303625 -0.4505612 -0.138494
-0.8202292 -2.4084399 1.478924 0.42212567 -0.06643877 -0.82508075 1.5761462 -0.3993768
-0.3188117 0.08166314 -0.753727 0.3343811 -0.8628843 -0.1682742 -0.9937281 -0.5722162
-1.5474495 -0.6440528 -1.0735468 0.859649 -0.5353122 -0.9357342 -0.6711206 -0.100022934
-0.3530885 -0.39918503 -0.096648 -1.4268332 0.13127942 -0.123694144 -1.1671253 -0.33469364
1.0615886 -0.38858104 1.6093019 -0.1956024 -1.1867301 -0.15893191 0.23795006 -1.286389
0.22015677 -0.47706893 0.21609423 0.60502434 -0.24000776 -0.51888144 0.01881051 1.0024621
0.4195364 -1.0631065 -0.5308664 -0.14116932 -0.42368507 -0.08438699 -0.20904365 -0.33596474
1.2744572 3.2017825 -0.010322018 -0.06817851 -0.46908906 -0.2553093 1.4014912 0.80124736
-0.7834427 -0.91266876 0.33396572 -0.08408398 -0.55439436 -0.115935594 -0.3472781 1.0130957
-2.115602 0.606904 0.030762488 -0.6643738 -0.17242347 1.7544601 -0.9414982 -0.2130169
-1.3145127 0.10415318 -2.3997302 -2.3176956 0.30892926 0.45486772 -0.75246143 -1.572079
-0.12953354 -0.10499307 -0.20575346 -0.07240602 0.29786217 0.137501 -0.34596226 -1.194304
-0.19279636 -0.18437359 -0.12116363 0.5316347 -0.8994712 -0.544796 -0.46713945 -0.50600785
-0.8677136 -1.6677219 0.08713036 0.47044855 -2.1509938 -1.0067368 -1.5697826 -1.0175145
-0.19593981 0.0793571 0.15278569 1.019468 0.32330707 0.15155432 -0.83003825 -1.549579
-0.42603433 -0.30248183 -0.27577764 -0.8796077 -0.23218334 0.29036555 -1.0852381 0.22476314
-0.35023764 -0.8855042 -0.34321123 5.1015277 -0.21285966 -0.49366593 1.544678 -0.005536328
-0.5373355 -0.18280523 1.9061683 -0.1549486 -0.44329876 0.111026645 0.6534405 0.3331688
-0.72446287 1.7829514 2.020519 0.064072646 0.13250133 0.0100067705 -0.56458485 -0.7862523
0.5013782 0.17795068 -0.97583646 -0.6301999 0.80139005 -0.66504383 0.39739293 -0.6134867
-0.88278174 0.48152193 -1.3297918 -1.4341813 0.3729156 0.4701491 -1.6002697 -0.638521
1.4282717 0.22718363 0.57499427 -0.24300145 0.008884667 -1.8644289 -0.4240071 -0.14508665
0.7719429 0.35316443 1.4834298 1.0325065 -0.26645672 -0.0062727653 0.89342886 0.55299276
-1.2512778 -0.48395067 -0.047794707 -1.1791464 -0.23237906 -5.5182853e-05 1.4781607 -0.30056727
0.26417902 0.36202633 -1.0397936 0.7666911 -1.2129618 -1.3173507 -0.6792191 -0.41148326
-0.37056023 -0.5399698 0.5189919 1.0713935 -0.3525292 -0.4073766 -0.07446956 1.7861503
-0.4035842 -0.34631887 -1.7821614 -1.664412 -0.5062942 -0.8626959 1.6564854 -0.74621415
-0.8987508 -0.94270253 -1.2459341 0.97494745 -1.2213138 0.64419574 0.9487429 -0.6534802
-0.2555703 -0.84866995 -0.6356633 0.39103454 0.9394851 -0.20326185 -0.59442645 -0.04445847
-0.29181054 0.18602385 -0.21135117 -0.4622666 0.09979486 2.2565134 -1.1376021 -0.7295018
00000000: 34df 04bf fe4f 00bf 6663 bebf 3b81 2f3f
00000010: 41b8 fcbc c045 5f3f 6e84 903e 461e ba3e
00000020: 8ab2 e0be e433 a6bf ecc0 273c e5d8 60be
00000030: d3c3 b2bf 069e 243f f5af e6be 5fd1 0dbe
00000040: 8afa 51bf e123 1ac0 624d bd3f db20 d83e
00000050: 0d11 88bd 7e38 53bf 29bf c93f 1e7b ccbe
00000060: 4a3b a3be 013f a73d 41f4 40bf 0034 ab3e
00000070: fce5 5cbf 1250 2cbe f764 7ebf c37c 12bf
00000080: d312 c6bf a5e0 24bf fb69 89bf f511 5c3f
00000090: 380a 09bf 478c 6fbf 8fce 2bbf d3d8 ccbd
000000a0: 04c8 b4be fb61 ccbe 63ef c5bd 78a2 b6bf
000000b0: 1d6e 063e 5b53 fdbd 5d64 95bf f75c abbe
000000c0: 23e2 873f 18f4 c6be 9bfd cd3f ff4b 48be
000000d0: c6e6 97bf 0cbf 22be 2ea9 733e 65a8 a4bf
000000e0: c770 613e 6142 f4be ce47 5d3e e0e2 1a3f
000000f0: 98c4 75be 6ad5 04bf 8018 9a3c ae50 803f
00000100: 7acd d63e e013 88bf dce6 07bf b18e 10be
00000110: 40ed d8be 16d3 acbd 8a0f 56be 9203 acbe
00000120: 6a21 a33f 01ea 4c40 ae1d 29bc 2da1 8bbd
00000130: 712c f0be e7b7 82be 1064 b33f 8c1e 4d3f
00000140: b38f 48bf a9a4 69bf 8efd aa3e 3934 acbd
00000150: caec 0dbf a46f edbd 6fce b1be 1fad 813f
00000160: 0666 07c0 0f5e 1b3f 9d01 fc3c 6714 2abf
00000170: c78f 30be 2692 e03f 0706 71bf 1a21 5abe
00000180: f441 a8bf 434e d53d 2e95 19c0 2055 14c0
00000190: fa2b 9e3e 6ce4 e83e 50a1 40bf e239 c9bf
000001a0: 71a4 04be 9b06 d7bd 09b1 52be 9b49 94bd
000001b0: 6481 983e 10cd 0c3e f721 b1be f4de 98bf
000001c0: 696c 45be 6ecc 3cbe a324 f8bd 3619 083f
000001d0: bf43 66bf c077 0bbf e72c efbe bb89 01bf
000001e0: 7a22 5ebf e977 d5bf 6771 b23d a2de f03e
000001f0: e2a9 09c0 c0dc 80bf a3ee c8bf ea3d 82bf
00000200: 72a4 48be fa85 a23d da73 1c3e ed7d 823f
00000210: 8188 a53e 0e31 1b3e 637d 54bf 9b58 c6bf
00000220: 2c21 dabe e6de 9abe ba32 8dbe f82d 61bf
00000230: 78c1 6dbe cbaa 943e 15e9 8abf 4f28 663e
00000240: 5952 b3be 67b0 62bf 62b9 afbe b73f a340
00000250: e2f7 59be c8c1 fcbe 02b8 c53f 166a b5bb
00000260: d28e 09bf 4b31 3bbe 53fd f33f d9aa 1ebe
00000270: 0ef8 e2be f061 e33d e047 273f 1a95 aa3e
00000280: 6676 39bf c037 e43f 2f50 0140 8538 833d
00000290: 6eae 073e 70f3 233c a288 10bf d547 49bf
000002a0: 525a 003f b438 363e 6bd0 79bf c854 21bf
000002b0: e627 4d3f 5040 2abf 1677 cb3e 770d 1dbf
000002c0: fcfd 61bf 0b8a f63e 9e36 aabf 4193 b7bf
000002d0: cbee be3e 62b7 f03e a3d5 ccbf 1d76 23bf
000002e0: 9bd1 b63f d3a2 683e d332 133f 5fd5 78be
000002f0: ff90 113c 9ba5 eebf 7517 d9be 9891 14be
00000300: 0d9e 453f f8d1 b43e 07e1 bd3f 2c29 843f
00000310: 046d 88be c58b cdbb c1b7 643f ef90 0d3f
00000320: df29 a0bf 62c8 f7be 62c4 43bd 45ee 96bf
00000330: c7f4 6dbe 2374 67b8 5f34 bd3f f4e3 99be
00000340: 7942 873e 845b b93e f517 85bf de45 443f
00000350: 5542 9bbf f39e a8bf 4ee1 2dbf efad d2be
00000360: 12ba bdbe 763b 0abf a7dc 043f 6c23 893f
00000370: b57e b4be aa93 d0be 7f83 98bd 93a0 e43f
00000380: 97a2 cebe b550 b1be dd1d e4bf 740b d5bf
00000390: 7f9c 01bf a3d9 5cbf b707 d43f e407 3fbf
000003a0: 8814 66bf f454 71bf c57a 9fbf 2896 793f
000003b0: 0354 9cbf 03ea 243f d1e0 723f 7a4a 27bf
000003c0: 1cda 82be 6f42 59bf d4ba 22bf ae35 c83e
000003d0: 1882 703f e023 50be 552c 18bf 161a 36bd
000003e0: 3168 95be 097d 3e3e 716c 58be 35ae ecbe
000003f0: 3f61 cc3d b76a 1040 f29c 91bf a1c0 3abf

FC2.weight f4 [256, 256]
0.22242063 -2.8773842 -0.40960744 -0.31384143 1.5595148 0.44324628 -0.38398007 -3.4979594
-3.0468347 1.7632576 -0.008060327 0.75102836 -3.0344863 -1.0552336 1.4912007 1.4228498
-1.90716 2.682719 -4.3757873 0.25449407 0.03887946 2.8671849 -8.897335 -2.2440596
0.10013663 -7.2954025 -0.93518883 -2.277062 1.4666929 3.1494772 2.339954 -0.07912696
-2.8277867 -0.9178278 -0.017875653 1.60634 -1.4039677 1.7014868 0.08643905 3.7789302
0.06879408 0.058908306 -2.463655 -0.50573057 2.2551732 -0.13996932 -0.15767542 -0.33015707
-0.5634748 0.22789016 -1.1400766 -0.018154308 0.10820918 -2.960131 -2.2973366 -2.6006136
-0.29580748 1.5736811 -3.8371527 0.40877852 0.35011983 -0.99782884 -0.09314214 1.2489312
0.18644941 3.8532948 0.65022635 -0.039951555 -1.4176699 -0.072412945 -0.7061668 -0.18850729
0.6957314 -0.745308 0.36638564 0.6214987 -4.0298448 -0.015945856 -2.9250448 2.3764203
0.7368488 -1.4957192 0.6277015 1.287295 -0.9169229 1.261663 1.668181 -0.9449562
1.2754427 0.6172118 -0.01333403 0.36133888 -0.8538789 -0.017160125 0.6436739 1.3278472
1.7004734 -1.3118808 1.6128852 -5.0901513 -1.8075888 0.59985584 -0.91232574 0.33879948
0.010272967 0.8657665 1.3895175 1.1201302 -0.1494583 -7.6793423 0.27742067 -0.033207037
-2.1267903 -0.3170149 2.5888448 -4.794745 2.2067437 1.4463277 -0.62866867 -0.19774763
0.04728188 -2.1615548 -0.6382037 -1.0199101 -2.0948002 0.2714813 2.5740657 1.2355796
1.8055147 0.7296277 1.4165351 1.5106828 1.3983891 -0.4304807 -1.4523683 1.0222293
-2.2699764 -1.6096125 -3.2600048 -0.055986766 -0.021744844 -1.6483951 2.489517 -0.48331228
-1.2907336 -2.647482 0.24793932 0.7174971 -0.06909247 2.724273 -0.23385105 -1.0278853
-1.7268268 -0.44078407 -2.0160034 -0.036444493 -1.2502431 3.6731012 0.68804574 -1.7236836
1.0989796 -0.5662856 0.21267368 0.06377687 -1.2828015 0.53724843 0.4612911 -1.6392426
1.2668643 -3.729666 2.4571037 -0.8889139 -0.402135 -1.286059 -2.028415 -4.2845507
-0.6636449 -2.3944156 -0.32391655 -0.19825938 1.262193 -0.120623805 -0.7530811 1.9843245
-0.10891874 0.7344698 0.8514113 -1.1971706 -0.14143111 -2.5255735 2.1760523 0.17731693
-0.14400543 1.1853837 -4.584864 -0.008895221 0.27819723 0.40559047 0.2926347 -2.4699407
0.630523 -2.5836053 -0.01290644 -5.7029767 -0.9327212 -2.582662 -1.712852 -0.3761733
-0.27213323 -3.8820846 0.1861193 -0.32892683 -0.3626614 -2.6931472 -1.1301017 0.9394837
-0.02661443 0.37634236 -5.4261374 0.32346585 -2.2372615 -2.0472124 1.3348079 1.9930835
3.1385524 -0.6711241 0.39818954 1.3040799 -3.0619123 0.03383797 -0.82647854 -1.6003548
1.6618891 -4.9831944 2.3644624 -1.3012669 -5.738066 1.9593135 0.54201114 0.74072796
0.75073415 -5.306307 0.62746185 2.8548357 1.9123993 0.42519155 0.94292647 0.9630895
-3.414763 1.0279096 -0.47408292 0.71407866 -5.1924667 -0.19655329 -1.1222062 -0.96637976
00000000: 3cc2 633e 1027 38c0 11b8 d1be d3af a0be
00000010: 2e9e c73f 2df1 e23e 0999 c4be 91de 5fc0
00000020: 57ff 42c0 6db2 e13f 760f 04bc 6543 403f
00000030: 0635 42c0 e511 87bf aadf be3f f11f b63f
00000040: d21d f4bf abb1 2b40 7306 8cc0 0c4d 823e
00000050: 1240 1f3d f57f 3740 7c5b 0ec1 ac9e 0fc0
00000060: 6f14 cd3d f073 e9c0 8968 6fbf 62bb 11c0
00000070: 98bc bb3f 0991 4940 cec1 1540 510d a2bd
00000080: 75fa 34c0 c3f6 6abf f66f 92bc 8d9c cd3f
00000090: 37b5 b3bf 52ca d93f f506 b13d fed9 7140
000000a0: e9e3 8c3d d649 713d 86ac 1dc0 8f77 01bf
000000b0: c254 1040 1e54 0fbe aa75 21be 590a a9be
000000c0: e23f 10bf 0a5c 693e 08ee 91bf 58b8 94bc
000000d0: c69c dd3d c972 3dc0 9007 13c0 7470 26c0
000000e0: 1474 97be 626e c93f e993 75c0 6b4b d13e
000000f0: e842 b33e b671 7fbf 4ec1 bebd fadc 9f3f
00000100: 98ec 3e3e 629c 7640 3c75 263f 3ea4 23bd
00000110: 3576 b5bf 3d4d 94bd 59c7 34bf 0e08 41be
00000120: 741b 323f 81cc 3ebf e696 bb3e 8a1a 1f3f
00000130: 7df4 80c0 e2a0 82bc ef33 3bc0 4517 1840
00000140: 1fa2 3c3f ba73 bfbf 0cb1 203f 15c6 a43f
00000150: 76bb 6abf 2c7e a13f f486 d53f a6e8 71bf
00000160: b541 a33f 9801 1e3f fa76 5abc 6901 b93e
00000170: cf97 5abf 6493 8cbc d0c7 243f e6f6 a93f
00000180: 1da9 d93f b6eb a7bf 0673 ce3f 85e2 a2c0
00000190: 125f e7bf 2790 193f 2e8e 69bf 2077 ad3e
000001a0: f24f 283c e0a2 5d3f b6db b13f 6d60 8f3f
000001b0: 990b 19be 2cbd f5c0 150a 8e3e 1a04 08bd
000001c0: 551d 08c0 c74f a2be a2af 2540 8d6e 99c0
000001d0: 4a3b 0d40 4421 b93f 6ef0 20bf 5b7e 4abe
000001e0: a5aa 413d ea56 0ac0 5161 23bf 6a8c 82bf
000001f0: 3511 06c0 99ff 8a3e 7ebd 2440 7927 9e3f
00000200: 1b1b e73f e2c8 3a3f 0651 b53f 0e5e c13f
00000210: 6afe b23f f767 dcbe 34e7 b9bf 69d8 823f
00000220: 4b47 11c0 c807 cebf eba3 50c0 6152 65bd
00000230: 3e22 b2bc 9cfe d2bf 3f54 1f40 b574 f7be
00000240: c236 a5bf 5870 29c0 cee3 7d3e e4ad 373f
00000250: 5a80 8dbd 7d5a 2e40 a676 6fbe bf91 83bf
00000260: a908 ddbf 73ae e1be 3306 01c0 d246 15bd
00000270: f707 a0bf 1714 6b40 c423 303f aaa1 dcbf
00000280: 5dab 8c3f 18f8 10bf 21c7 593e 739d 823d
00000290: d732 a4bf 1d89 093f 592e ec3e b4d2 d1bf
000002a0: 9c28 a23f d9b2 6ec0 3041 1d40 dd8f 63bf
000002b0: a4e4 cdbe 959d a4bf 8dd1 01c0 0a1b 89c0
000002c0: a2e4 29bf 1b3e 19c0 64d8 a5be 8204 4bbe
000002d0: 8a8f a13f 9d09 f7bd ecc9 40bf 58fe fd3f
000002e0: ca10 dfbd 3606 3c3f 17f6 593f e33c 99bf
000002f0: 51d3 10be ffa2 21c0 7144 0b40 9292 353e
00000300: 2976 13be a7ba 973f 35b7 92c0 43bd 11bc
00000310: de6f 8e3e 8ea9 cf3e 37d4 953e 8213 1ec0
00000320: f569 213f ca59 25c0 8875 53bc c97e b6c0
00000330: d1c6 6ebf 564a 25c0 bc3e dbbf c999 c0be
00000340: 0c55 8bbe 1374 78c0 0f96 3e3e 1969 a8be
00000350: c1ae b9be 865c 2cc0 2ca7 90bf 0182 703f
00000360: 8106 dabc f2af c03e eba2 adc0 519d a53e
00000370: 4b2f 0fc0 8705 03c0 fcda aa3f 5c1d ff3f
00000380: 0bde 4840 cace 2bbf 80df cb3e 17ec a63f
00000390: 5ff6 43c0 af99 0a3d 1994 53bf 6dd8 ccbf
000003a0: c8b8 d43f 5476 9fc0 5a53 1740 ea8f a6bf
000003b0: 3d9e b7c0 c9ca fa3f 3ec1 0a3f 59a0 3d3f
000003c0: 1d30 403f 44cd a9c0 57a1 203f a1b5 3640
000003d0: 80c9 f43f b5b2 d93e a163 713f 098d 763f
000003e0: 7a8b 5ac0 8b92 833f ffba f2be dccd 363f
000003f0: b028 a6c0 4445 49be 74a4 8fbf aa64 77bf

FC2.bias f4 [256]
-0.4473974 -0.07968408 -1.3127449 -0.5218843 -2.0504851 -1.4384178 -0.56470245 -0.24664229
-1.3544201 -1.6412241 -1.4343619 -0.107342705 -2.2484126 -0.063391104 -2.3596134 -1.2307292
-1.0504823 -0.21620278 -0.12148763 -2.443291 -1.5542983 -0.3766673 0.79414016 -1.6620891
0.09242446 -0.17578202 0.20536545 -0.05389265 -1.4098375 -1.0753174 -2.6915958 -1.2647418
-1.9356754 -0.099364646 -0.5670021 -1.3652767 -0.12417023 -0.8155706 -2.4346688 1.0084354
-0.122394204 -2.7086296 1.0428746 -0.7466387 -0.4830171 -1.8799675 -1.445525 0.6739276
-0.091310464 -2.418485 -0.45352188 -1.1176496 -0.3880136 -0.40081632 -1.6603668 -0.10100842
-0.49104184 -0.4333967 -1.2751334 -0.24795865 -0.31522554 -0.3173595 -1.3118403 -0.030755129
0.73851264 -0.8230518 -0.12180645 -0.20393616 -0.4278697 -0.10011206 -1.0764061 -0.7656651
-0.12475786 -0.96686167 0.1112515 0.06365202 -2.324509 -0.45112845 -0.9086938 -0.8683986
-0.40909916 -1.7026027 -0.08569926 -0.14685823 -0.14697567 -3.3887782 -1.149162 -0.046736248
-0.58690137 1.7369223 -1.5590216 -0.8167411 -0.74291694 -2.242169 -1.5506117 -0.2661714
-1.1552402 -1.5866874 -1.8431448 -2.3468726 -1.0054573 -1.6399479 -0.2427402 -1.1956402
-1.0816838 -1.1456133 1.6114303 0.22754343 -1.902898 0.051906854 -0.1965437 0.56914425
0.22934726 0.36677393 -0.10364218 -1.5719951 -1.3318982 -1.020744 -1.8892683 -0.9929447
-0.058486782 -1.1589277 0.4165794 -0.78132844 -0.078337885 -0.17234199 -0.19805047 -0.25556952
-0.74445856 -1.6710902 -2.2962246 -0.0406999 -0.6203567 -1.0750802 -1.3488948 -1.4179453
-0.12839217 1.2394673 -2.513452 -0.104205824 -1.3451966 -0.09468732 0.30357954 -0.45916405
-0.937288 -0.50656044 -1.451176 -0.46565765 -0.9069386 -2.6467693 -1.9066483 -0.7582097
0.4289194 -0.13006425 0.5568595 -3.0027082 -1.7651695 -1.863189 0.19812614 -0.28044298
-0.61791146 0.6112891 -2.1316426 1.3279781 -0.61597484 -0.9595496 -0.45230407 -1.4853618
-0.61463946 -1.0791954 -1.9223285 -1.2769179 -1.5417377 -2.191203 -1.8802757 -3.3025982
-1.1513345 -1.2644181 -1.2618124 0.8191178 -0.04768807 -1.5203336 -0.45791826 -0.671427
1.8650204 -1.6381663 -2.037216 0.32015878 -0.20405371 -0.57615215 -2.0419378 -2.271975
0.35608512 -1.0883663 -0.54892784 -0.054711107 -1.2230322 -1.7740556 -0.04455124 -2.3214586
-0.5456694 -0.05955517 -0.20894922 -2.3043132 -0.95164716 0.14893228 -2.0620418 -1.9518528
-0.32400906 1.0906434 -1.3666453 -0.9747258 0.5944131 -1.389944 -1.2513084 -2.2772317
-4.0721292 0.45528948 -0.11971856 -3.388833 -1.8458223 -0.6299583 -1.3647987 -0.16398054
0.03258016 0.14745876 -1.4298377 -1.5634493 -1.7851025 -2.1203415 0.22178009 -1.292816
-0.3941794 -0.35948652 0.21856736 -0.7184709 -1.9444102 -1.4966129 -2.1318307 -1.4341382
-0.104531825 -1.3019738 -1.6651019 0.4847246 -2.3422422 -0.20034112 -0.10868684 -1.0740379
-2.0774512 -0.13456665 -1.7114099 -0.66572005 -0.070458755 -0.20958695 0.008594735 -0.38382322
00000000: 4611 e5be 6831 a3bd 0608 a8bf 369a 05bf
00000010: 263b 03c0 131e b8bf 5790 10bf cc8f 7cbe
00000020: a35d adbf a213 d2bf 2c99 b7bf 7ed6 dbbd
00000030: fee5 0fc0 32d3 81bd e803 17c0 8988 9dbf
00000040: 3476 86bf 4364 5dbe 82ce f8bd e15e 1cc0
00000050: 3ff3 c6bf 89da c0be c54c 4b3f 56bf d4bf
00000060: 0949 bd3d 3400 34be 524b 523e 8abe 5cbd
00000070: 8e75 b4bf 00a4 89bf 1b43 2cc0 0fe3 a1bf
00000080: 36c4 f7bf b17f cbbd 0d27 11bf 63c1 aebf
00000090: f64c febd 3cc9 50bf 9dd1 1bc0 6914 813f
000000a0: d0a9 fabd 305a 2dc0 ea7c 853f b723 3fbf
000000b0: 044e f7be c6a2 f0bf f706 b9bf 8586 2c3f
000000c0: fb00 bbbd 75c8 1ac0 0534 e8be 240f 8fbf
000000d0: b8a9 c6be cc37 cdbe e686 d4bf 81dd cebd
000000e0: d669 fbbe 2ce6 ddbe 9237 a3bf dfe8 7dbe
000000f0: 3e65 a1be f27c a2be 62ea a7bf 2ef2 fbbc
00000100: 2a0f 3d3f 86b3 52bf a975 f9bd a4d4 50be
00000110: bd11 dbbe 8d07 cdbd adc7 89bf a102 44bf
00000120: 0d81 ffbd 3f84 77bf d4d7 e33d fe5b 823d
00000130: c1c4 14c0 4ffa e6be 28a0 68bf 5f4f 5ebf
00000140: 7275 d1be e3ee d9bf 1883 afbd 0162 16be
00000150: ca80 16be bee1 58c0 be17 93bf 826e 3fbd
00000160: 2b3f 16bf 7853 de3f 058e c7bf f215 51bf
00000170: ce2f 3ebf b27f 0fc0 727a c6bf 9e47 88be
00000180: e9de 93bf 9318 cbbf 2bec ebbf 2933 16c0
00000190: d3b2 80bf d0e9 d1bf e390 78be bd0a 99bf
000001a0: 9d74 8abf 75a3 92bf 5943 ce3f 2501 693e
000001b0: 2992 f3bf 489c 543d c042 49be 70b3 113f
000001c0: 02da 6a3e cbc9 bb3e 5a42 d4bd 2337 c9bf
000001d0: a47b aabf bda7 82bf 8bd3 f1bf a031 7ebf
000001e0: d68f 6fbd be57 94bf e549 d53e 2405 48bf
000001f0: 9d6f a0bd 6b7a 30be becd 4abe 02da 82be
00000200: d694 3ebf 49e6 d5bf 58f5 12c0 f0b4 26bd
00000210: b2cf 1ebf 3a9c 89bf 96a8 acbf 3b7f b5bf
00000220: 3d79 03be dda6 9e3f 66dc 20c0 dd69 d5bd
00000230: 672f acbf 6deb c1bd c76e 9b3e 8d17 ebbe
00000240: 1bf2 6fbf f2ad 01bf 23c0 b9bf ae6a eebe
00000250: 212d 68bf ab64 29c0 0d0d f4bf 081a 42bf
00000260: 539b db3e 902f 05be 588e 0e3f 5f2c 40c0
00000270: 13f1 e1bf fa7c eebf 94e1 4a3e 3996 8fbe
00000280: 722f 1ebf 717d 1c3f d56c 08c0 30fb a93f
00000290: 87b0 1dbf 0ba5 75bf 6694 e7be 5620 bebf
000002a0: 0359 1dbf 1323 8abf dc0e f6bf 0c72 a3bf
000002b0: a957 c5bf ac3c 0cc0 e0ac f0bf c55d 53c0
000002c0: ee5e 93bf 74d8 a1bf 1283 a1bf b4b1 513f
000002d0: 9154 43bd 4b9a c2bf 4374 eabe a4e2 2bbf
000002e0: fdb8 ee3f 6faf d1bf bf61 02c0 daeb a33e
000002f0: 75f3 50be b57e 13bf 1caf 02c0 0a68 11c0
00000300: ca50 b63e 964f 8bbf 8986 0cbf c118 60bd
00000310: 528c 9cbf 4114 e3bf 5c7b 36bd c792 14c0
00000320: fdb0 0bbf 1ff0 73bd c9f6 55be de79 13c0
00000330: 269f 73bf b481 183e 7ef8 03c0 50d6 f9bf
00000340: 84e4 a5be 349a 8b3f 3cee aebf a187 79bf
00000350: 752b 183f afe9 b1bf e02a a0bf 2abe 11c0
00000360: e24e 82c0 b41b e93e 012f f5bd a4e2 58c0
00000370: e843 ecbf f244 21bf b9b1 aebf 84ea 27be
00000380: c672 053d 6eff 163e ec04 b7bf 1b1f c8bf
00000390: 3d7e e4bf adb3 07c0 521a 633e ff7a a5bf
000003a0: e2d1 c9be 9e0e b8be 1fd0 5f3e b5ed 37bf
000003b0: 6fe2 f8bf 0391 bfbf ea6f 08c0 d791 b7bf
000003c0: c814 d6bd 14a7 a6bf 0f22 d5bf d32d f83e
000003d0: 4ce7 15c0 3926 4dbe 3597 debd 137a 89bf
000003e0: f6f4 04c0 d7cb 09be 7b0f dbbf a16c 2abf
000003f0: ae4c 90bd f69d 56be eed0 0c3c 7a84 c4be

action_out.weight f4 [5, 256]
1.6911981 -0.06408668 2.9266565 1.5048606 -0.0016264885 -3.2763734 -1.1922839 1.0890979
-0.8027497 -0.47267687 2.942962 0.5545882 -2.6364362 -0.009963875 2.0818555 -0.2075868
3.365832 0.0638557 0.4204607 1.7946905 -0.91780525 1.2453598 1.6193407 3.3937643
0.9202874 1.8715885 0.5585952 0.69261706 1.3077887 0.24561772 0.44662142 1.269181
1.1959331 0.028958065 2.0890567 2.5813653 -0.056053955 0.37147835 4.909829 3.0953593
2.6112912 -0.03906931 1.6905383 1.8159232 1.74768 -0.4191627 0.9987679 1.2039936
2.3202107 0.23107569 1.8666772 1.8476869 1.4818072 2.289229 4.917724 0.7986318
1.794267 0.76153857 1.9176341 0.82763743 1.6828853 2.6235185 0.8792883 1.0686351
3.3396306 -0.81159353 2.2253504 0.94558597 2.478215 1.5014548 2.3945606 0.45797637
2.3301852 -0.5186858 -0.21900032 2.9810472 2.9157526 -0.22347105 -1.168109 1.5377314
-0.81043804 1.4727979 0.39395213 1.2674992 0.34943837 -2.9185474 3.0401661 1.1494266
0.30187675 2.8389902 1.3430641 1.4015285 2.0547898 0.52358794 1.6456769 0.25920263
2.4985862 1.9237748 -0.06886092 2.4290495 -0.32876605 0.81986594 1.7154546 2.5135992
1.4243699 0.87893933 1.7069091 3.0046935 0.47591776 1.7878405 0.35338432 1.130357
0.51539254 1.389628 1.7211958 1.329144 0.70953256 2.3869278 -0.7597247 1.495591
0.01757665 1.5043871 2.0481844 1.8828049 0.06359462 2.0758324 0.38574132 0.7101716
4.231795 1.6016049 -2.0493615 -0.019755898 2.3782246 0.09416236 -2.2701828 0.9287024
1.3990202 1.7498368 2.0655804 0.25889012 -0.88667345 0.47287238 1.814489 2.3950877
-4.616338 2.9326265 -0.3348664 1.1763788 1.572536 2.6406763 -0.18971534 -1.3184718
2.795919 0.371688 1.7104 1.3094078 -0.47137415 2.8342185 2.1311998 -0.49975497
1.2439163 1.9082401 2.7090814 1.3370855 0.03344609 -0.7592627 1.5150595 1.389341
1.8998122 1.0333545 -0.7469792 2.8981285 0.98190135 -1.603823 -0.93888974 0.052464914
2.8080482 2.446038 -1.596983 1.6267542 -0.0012287458 -0.6591162 2.571116 1.6350555
3.1891665 2.0979853 0.70878035 2.7715404 0.24078576 2.6390226 -1.0257205 0.5944013
2.1505187 -0.702803 1.6663489 -0.017060097 -5.186487 0.3994871 1.8938638 -3.646181
2.1390448 -0.03535526 0.1433826 0.7118822 -2.7004473 1.9437904 -3.4852293 2.2057557
-0.1284102 2.1247926 -0.33398145 2.0472562 0.45428842 2.8314621 2.3476348 -1.0530338
-0.47455892 1.8269494 -0.0374056 -2.4952197 -2.8424363 0.6420242 1.1053704 0.20378156
-0.023118991 -0.7846295 -0.13043194 0.9588292 0.24774514 1.6290928 3.1762202 2.576739
1.9995629 1.6135371 1.4670656 1.487961 1.902873 0.34407815 -0.36001027 1.7083503
0.034885857 1.7503315 -2.375776 0.27121463 -0.9931895 0.1919396 0.29119328 1.914801
0.015793378 0.058357876 2.8544674 1.9013875 0.6173445 0.09322062 2.5243647 2.1779113
00000000: 2e79 d83f e13f 83bd 574e 3b40 469f c03f
00000010: e62f d5ba 1ab0 51c0 c29c 98bf 8f67 8b3f
00000020: 0181 4dbf b402 f2be 7d59 3c40 7ef9 0d3f
00000030: 5fbb 28c0 853f 23bc 1f3d 0540 a291 54be
00000040: cb69 5740 c7c6 823d a046 d73e 6bb8 e53f
00000050: 49f5 6abf f367 9f3f 8e46 cf3f 6f33 5940
00000060: f497 6b3f 3690 ef3f 1800 0f3f 5a4f 313f
00000070: 9f65 a73f 3683 7b3e 90ab e43e 8674 a23f
00000080: 5614 993f 7739 ed3c 1bb3 0540 1735 2540
00000090: d598 65bd 6932 be3e 521d 9d40 5e1a 4640
000000a0: 651f 2740 2407 20bd 8f63 d83f 2c70 e83f
000000b0: fab3 df3f 7e9c d6be 41af 7f3f 761c 9a3f
000000c0: 557e 1440 1b9f 6c3e 47ef ee3f 0181 ec3f
000000d0: dcab bd3f ba82 1240 ff5d 9d40 2273 4c3f
000000e0: 8baa e53f 31f4 423f 0975 f53f 0ce0 533f
000000f0: c968 d73f bae7 2740 0a19 613f 09c9 883f
00000100: 82bc 5540 98c4 4fbf 246c 0e40 ec11 723f
00000110: 139b 1e40 ac2f c03f 7b40 1940 e17b ea3e
00000120: c121 1540 98c8 04bf 9f41 60be 7ac9 3e40
00000130: b19b 3a40 98d5 64be 9984 95bf 62d4 c43f
00000140: de78 4fbf a484 bc3f 18b4 c93e 6a3d a23f
00000150: 96e9 b23e 7bc9 3ac0 1592 4240 6920 933f
00000160: 978f 9a3e 04b2 3540 86e9 ab3f 4965 b33f
00000170: ad81 0340 dc09 063f 8aa5 d23f 35b6 843e
00000180: d6e8 1f40 413e f63f f406 8dbd 8c75 1b40
00000190: 0654 a8be bce2 513f 0494 db3f cfde 2040
000001a0: c151 b63f 2b02 613f ff7b da3f e64c 4040
000001b0: 7eab f33e f5d7 e43f caee b43e 8aaf 903f
000001c0: c4f0 033f 55df b13f 2550 dc3f 6421 aa3f
000001d0: eda3 353f 6dc3 1840 517d 42bf 876f bf3f
000001e0: e8fc 8f3c c28f c03f 7415 0340 c0ff f03f
000001f0: e53d 823d 70da 0440 e37f c53e cecd 353f
00000200: dd6a 8740 6401 cd3f bd28 03c0 1fd7 a1bc
00000210: d534 1840 32d8 c03d ad4a 11c0 71bf 6d3f
00000220: 1813 b33f a7fa df3f 7832 0440 3f8d 843e
00000230: 08fd 62bf 541c f23e 2d41 e83f 1e49 1940
00000240: 0ab9 93c0 27b0 3b40 9c73 abbe 9593 963f
00000250: dc48 c93f d700 2940 bd44 42be afc3 a8bf
00000260: 56f0 3240 e44d be3e 63ee da3f ad9a a73f
00000270: f457 f1be d663 3540 9465 0840 e2df ffbe
00000280: a638 9f3f 3641 f43f 9761 2d40 9e25 ab3f
00000290: c4fe 083d 0a5f 42bf 78ed c13f edd5 b13f
000002a0: 0c2d f33f f644 843f 073a 3fbf f07a 3940
000002b0: e35d 7b3f 124a cdbf 145b 70bf 73e5 563d
000002c0: 10b7 3340 e38b 1c40 f069 ccbf 7b39 d03f
000002d0: de0d a1ba d7bb 28bf 2a8d 2440 8049 d13f
000002e0: 4e1b 4c40 6445 0640 a172 353f eb60 3140
000002f0: 8b90 763e bfe5 2840 cf4a 83bf af2a 183f
00000300: 19a2 0940 e6ea 33bf ec4a d53f 9ec1 8bbc
00000310: b4f7 a5c0 9389 cc3e 216a f23f 085b 69c0
00000320: 1ce6 0840 add0 10bd e3d2 123e e93d 363f
00000330: 21d4 2cc0 20ce f83f ff0d 5fc0 1a2b 0d40
00000340: f77d 03be 9afc 0740 9eff aabe 3f06 0340
00000350: 7e98 e83e ad36 3540 a63f 1640 d0c9 86bf
00000360: 63f9 f2be 7ad9 e93f 9d36 19bd aeb1 1fc0
00000370: 7aea 35c0 b35b 243f c77c 8d3f 1dac 503e
00000380: 0a64 bdbc 7bdd 48bf f38f 05be d575 753f
00000390: e7b0 7d3e 1d86 d03f 3147 4b40 4be9 2440
000003a0: adf1 ff3f 6288 ce3f cec8 bb3f 8275 be3f
000003b0: 5891 f33f 032b b03e 4453 b8be 39ab da3f
000003c0: 79e4 0e3d dd0a e03f b70c 18c0 a5dc 8a3e
000003d0: ab41 7ebf d18b 443e 4917 953e 3318 f53f
000003e0: 1d61 813c ab08 6f3d 98af 3640 aa60 f33f
000003f0: 4a0a 1e3f 74ea be3d 318f 2140 e662 0b40

action_out.bias f4 [5]
1.9764152 -2.902593 5.8514037 1.9955485 1.8142563
00000000: 2cfb fc3f 15c4 39c0 b33e bb40 226e ff3f
00000010: 8d39 e83f

weight f4 [256, 123]
-12.042003 -0.29062855 -0.11013283 -0.29209244 -0.12376553 -0.31576392 -0.28875425 -0.030911347
1.4979913 0.07118898 0.052782573 0.061747003 0.15999211 -0.030633884 -0.16489819 -1.855134
-0.49172834 -1.0556024 -0.869316 -0.30427003 -0.18684772 -1.0369959 0.100373074 0.9179584
-0.9973151 -1.2569566 -0.013793232 -1.4987795 0.03792212 -0.20582652 -0.06124985 -0.29821768
-1.5283158 -0.014484003 -0.026064321 -0.6219392 -12.103566 0.16130787 0.1167004 -0.43332043
-0.021122208 -0.35126975 -0.32064453 1.1853294 0.1690795 0.90903056 0.9238742 0.06145518
0.147272 -0.0068208766 -0.22416037 -1.4922204 1.9409146 0.028718613 0.06393174 -0.4131229
-0.15513045 -0.98333603 0.25544298 1.8686209 -1.434715 0.1214821 0.3921703 -1.4093914
-0.24438702 0.03376588 -0.30513835 -0.2580964 -0.054169737 -1.5173306 0.07670093 1.6022538
-12.020534 -0.29906863 -0.03824416 -0.3151647 -0.02879866 -0.38033396 -0.39848748 1.1141303
-0.5324162 1.2522914 0.15126412 0.14033747 0.13078402 -0.03390097 -0.27813238 -1.391457
0.2959461 0.03364173 -0.5329515 -0.31881073 -0.033240594 -1.0121112 0.23820455 3.310564
-2.2510924 -0.02606982 0.038905166 -1.39536 -0.1008849 -0.049219914 -0.30021945 -0.17686106
-0.0073762983 -0.0075319335 -1.4567242 -8.374503 0.31307963 0.41635364 -0.38937277 0.38374242
-0.5994633 0.15392962 -0.07905139 0.31605652 -0.048079755 0.07407034 -0.05617483 -0.014166277
0.04982466 0.07190013 -0.03700971 2.475766 0.25041324 0.25484374 0.35725608 0.22105075
0.021947896 0.8841751 1.1037071 -1.8033646 -0.08090423 0.009153888 1.3846717 -0.014818464
-1.4778117 0.04714879 0.29644927 -0.15860586 0.1677986 -0.11857681 0.029943591 0.38433844
-0.3511322 -0.5243465 -0.6453624 0.02749087 0.009488287 -0.27790108 0.44824767 0.0018872776
0.07065025 0.10375882 0.019269925 0.43113178 0.061889358 0.06298939 2.7631822 2.529638
1.4709218 -0.10161458 0.35487357 0.17496733 0.015351098 0.7757215 0.18906954 -0.86891395
-0.23136128 0.20460664 1.5367897 -0.067065135 -1.5267316 0.050410736 1.6170809 -1.890756
0.0054571554 -0.033712078 0.092716336 0.39772558 -0.25110215 -0.6685072 -0.4481318 -0.27284992
-0.0075644357 0.046174567 0.41363072 0.07293962 0.093032755 0.10866102 0.047503274 0.08797792
0.37211102 0.042632826 2.185439 2.499808 -0.066521056 0.44423705 0.21012549 0.183008
-0.054764766 0.9036197 -0.1087832 -0.12122417 -0.105655976 0.16597165 1.4779971 -0.119813465
-1.5305816 0.03592753 -0.4794169 -0.27266207 -0.07290602 -0.14968081 -0.02353331 0.4130329
-0.19922951 -0.5187651 -0.14027347 0.4266005 0.0016036034 0.07631341 0.43230587 0.15227392
0.07215541 0.07958767 0.12148422 0.04379534 0.06620043 0.38992476 1.0903916 0.045615103
0.06859053 0.0120922495 0.0667134 -0.028243676 -0.009945824 -0.16591226 0.32785967 0.17429069
-0.13648257 0.074455455 0.031494174 0.08983935 0.03920084 0.0741458 -0.05086512 -0.02661424
0.058117777 0.07230186 -0.008201131 -0.048385624 0.033485916 -0.0075618546 0.076004416 0.0516342
00000000: 0bac 40c1 44cd 94be 528d e1bd 248d 95be
00000010: c878 fdbd cfab a1be 99d7 93be cb39 fdbc
00000020: 2ebe bf3f 87cb 913d 8a32 583d 6dea 7c3d
00000030: f9d4 233e e9f3 fabc 12db 28be 0875 edbf
00000040: d1c3 fbbe fb1d 87bf 7e8b 5ebf 48c9 9bbe
00000050: 0255 3fbe 48bc 84bf 6690 cd3d 52ff 6a3f
00000060: 0b50 7fbf f4e3 a0bf 02fd 61bc 02d8 bfbf
00000070: 3a54 1b3d 30c4 52be 1fe1 7abd fdaf 98be
00000080: da9f c3bf 504e 6dbc d884 d5bc 6837 1fbf
00000090: 35a8 41c1 e42d 253e 9f00 ef3d 2ddc ddbe
000000a0: 7b08 adbc a1d9 b3be 852b a4be e0b8 973f
000000b0: 2d23 2d3e 3ab6 683f 0583 6c3f 6db8 7b3d
000000c0: 79ce 163e a981 dfbb 4c8a 65be 1401 bfbf
000000d0: e46f f83f 4c43 eb3c a5ee 823d d884 d3be
000000e0: 84da 1ebe e9bb 7bbf 6cc9 823e f82e ef3f
000000f0: bea4 b7bf 9bcb f83d 8cca c83e f066 b4bf
00000100: 9740 7abe 174e 0a3d 183b 9cbe 3625 84be
00000110: 16e1 5dbd e437 c2bf 6115 9d3d a716 cd3f
00000120: 1b54 40c1 861f 99be e9a5 1cbd 445d a1be
00000130: 2beb ebbc 22bb c2be 8d06 ccbe d29b 8e3f
00000140: 6e4c 08bf 164b a03f fbe4 1a3e a0b4 0f3e
00000150: 3fec 053e bedb 0abd 5e67 8ebe 431b b2bf
00000160: 3f86 973e e9cb 093d 826f 08bf 293b a3be
00000170: 4a27 08bd dc8c 81bf e5eb 733e 48e0 5340
00000180: e611 10c0 6090 d5bc 065b 1f3d 289b b2bf
00000190: be9c cebd d29a 49bd 5db6 99be 111b 35be
000001a0: e0b4 f1bb 70ce f6bb f075 babf f7fd 05c1
000001b0: f94b a03e 4e2c d53e de5b c7be e379 c43e
000001c0: 6d76 19bf ba9f 1d3e b2e5 a1bd 29d2 a13e
000001d0: 47ef 44bd 31b2 973d 9417 66bd ac19 68bc
000001e0: f114 4c3d 6040 933d 7e97 17bd f372 1e40
000001f0: 2a36 803e e17a 823e 45ea b63e 215b 623e
00000200: 13cc b33c 4d59 623f 4646 8d3f a7d4 e6bf
00000210: 1eb1 a5bd 30fa 153c ec3c b13f 25c9 72bc
00000220: ef28 bdbf 171f 413d 33c8 973e 9369 22be
00000230: 65d3 2b3e 66d8 f2bd 434c f53c 02c8 c43e
00000240: 9ac7 b3be 923b 06bf 7836 25bf 8834 e13c
00000250: c374 1b3c 0d49 8ebe b880 e53e 875e f73a
00000260: 14b1 903d 817f d43d f6db 9d3c 4ebd dc3e
00000270: b27f 7d3d 9500 813d fad7 3040 97e5 2140
00000280: 2a47 bc3f 4e1b d0bd fdb1 b53e a32a 333e
00000290: 2c83 7b3c af95 463f 729b 413e 2571 5ebf
000002a0: f9e9 6cbe 6784 513e 86b5 c43f 7259 89bd
000002b0: f16b c3bf 7d7b 4e3d 82fc ce3f 4b04 f2bf
000002c0: f0d1 b23b ad15 0abd 10e2 bd3d b0a2 cb3e
000002d0: 7690 80be 4a23 2bbf 8871 e5be fcb2 8bbe
000002e0: 16df f7bb 8b21 3d3d 68c7 d33e 5e61 953d
000002f0: f587 be3d ab89 de3d cb92 423d c52d b43d
00000300: 5685 be3e c29f 2e3d 3cde 0b40 dbfc 1f40
00000310: 313c 88bd 0a73 e33e 232b 573e 7366 3b3e
00000320: 0551 60bd 9f53 673f bac9 debd 6144 f8bd
00000330: 2962 d8bd 79f4 293e 022f bd3f c360 f5bd
00000340: 19ea c3bf bf28 133d 2276 f5be 5d9a 8bbe
00000350: c04f 95bd ed45 19be eec8 c0bc 0c79 d33e
00000360: d202 4cbe cacd 04bf d9a3 0fbe 616b da3e
00000370: 0030 d23a 354a 9c3d 3257 dd3e b2ed 1b3e
00000380: 37c6 933d dcfe a23d b8cc f83d be62 333d
00000390: 1794 873d 38a4 c73e f491 8b3f e7d6 3a3d
000003a0: 3179 8c3d 921e 463c 09a1 883d 485f e7bc
000003b0: cff3 22bc e7e4 29be 39dd a73e 4279 323e
000003c0: 16c2 0bbe 1a7c 983d 0900 013d b1fd b73d
000003d0: 0f91 203d c1d9 973d f257 50bd 1b06 dabc
000003e0: e80c 6e3d ff12 943d 095e 06bc 0130 46bd
000003f0: 8728 093d 6fc9 f7bb 34a8 9b3d 627e 533d

bias f4 [256]
-1.460242 0.32627967 -0.10051206 0.32622626 -0.0898701 0.002286746 -0.2178206 0.016551942
-0.4436566 -0.13591728 -0.038083166 -1.8974012 -0.24679224 -0.6292024 -0.10593471 -0.07535121
-0.026579289 -0.120314725 0.054196622 -0.06653019 -2.5351515 -1.6957744 -0.02885806 -0.0031965827
-0.027395217 -0.021923246 -0.11379099 -0.79800105 0.099960916 -0.6288225 0.40144724 -0.07295729
-0.023953421 -0.11294837 -0.03265708 -0.06770291 -2.112503 -0.11134272 -0.102262154 -0.17963652
0.038791526 -0.11647443 0.040830266 0.0048713903 0.051412378 0.06627519 -1.5056907 -0.1073379
-0.02329971 -0.05915204 -0.0015908412 -1.8937063 -0.12037792 -0.1903896 -0.07090787 -1.0438491
-0.16417561 -0.055835493 0.63907206 -0.043025963 0.95418024 -0.09984662 -0.067125455 -0.043274913
-0.06497322 -0.05939135 0.53025794 0.084965475 0.036674652 -0.044014994 0.25878492 -0.027829418
-0.8880672 -0.037927568 1.6005546 0.025777392 0.04821401 -0.04559396 0.010475326 -0.3960142
0.031884994 -0.09531615 -0.2295506 -0.05971738 -0.008814444 -0.9294288 -0.047928378 -0.09402303
-0.072008006 0.01386395 -0.068968385 0.0185967 -0.1019752 -1.7811817 0.0054149344 -0.022287972
0.0058355317 -0.117308296 -0.14814018 -1.2111343 -0.116187386 -0.053322077 -0.066016 -0.12184666
-0.99661624 -1.8886019 -0.011502704 0.046152018 -0.008973297 0.15494575 -0.06308604 -0.11241479
-0.07189062 -0.10639899 -0.06814281 -0.058396343 -0.022586307 0.029965745 -0.08973214 -0.06327165
-0.0700993 -0.12981962 -0.08891595 -0.021500414 -0.101076946 -0.51673687 -0.0708191 -0.0023858787
-0.03137775 -1.9058528 -0.30888402 -0.113794826 -0.08507499 -1.5319433 -0.04138177 -1.2321836
-0.06837962 -0.08599435 -0.092143446 -1.4092984 -0.050174028 -0.09512019 -0.13614555 -0.131738
-0.07747092 -0.61426485 -0.13127252 -0.2153777 -0.46494088 -0.022522127 0.26139382 -1.6816857
0.041239962 -0.2361586 1.6802717 -0.5560261 -0.08651231 -0.11999475 1.743071 -0.03639768
-0.08236876 -0.04956093 -0.052518003 -0.0062912907 -1.2005985 -0.13514651 -0.100135975 -0.07378837
-0.13539968 0.035989482 0.031370267 -0.40136647 -0.06988293 -0.77963334 -0.06724096 -0.04411767
-0.086314626 0.059612423 0.031405848 0.28731963 -0.07452543 -0.13534686 -1.1014217 -0.4317045
-0.050483026 -0.08508255 -0.110931925 -0.09374623 -0.040694553 0.0038434386 -0.6967172 1.1519758
-0.027769346 -0.13249275 -1.1198266 -0.19308466 -0.50202227 -0.057625495 -0.036023173 -0.07333466
-0.19846894 -0.053121593 -1.9387789 -0.061062496 0.05610955 -0.06897818 -0.08733188 -0.05084639
-0.56525826 0.026431559 -0.8635631 -0.3765478 -0.99653256 -1.7261709 -1.7411447 -2.4481266
-0.12899539 -0.03996367 -0.111267254 -0.055133566 -0.031623166 0.01454924 -0.0749379 -0.08863021
-0.014947007 -0.12603776 -0.045043707 -0.009920432 -0.045575675 0.1077878 -0.07375903 -0.06433681
0.6659427 0.60963804 -0.13767469 -1.8420423 -0.28017446 0.06309929 0.0032892022 1.0274607
-0.021767732 -0.097273916 -0.035341922 -0.07882018 0.016963605 0.011224847 0.045052998 0.27856413
-0.061571214 -2.4386766 -0.0011067729 -0.073989674 0.03975705 -0.08168257 0.066513814 -0.074562654
00000000: 36e9 babf 210e a73e 44d9 cdbd 2107 a73e
00000010: d10d b8bd 3bdd 153b 5d0c 5fbe f097 873c
00000020: f526 e3be e62d 0bbe 18fd 1bbd 0bde f2bf
00000030: 1bb7 7cbe 6913 21bf 4cf4 d8bd bc51 9abd
00000040: cfbc d9bc 9167 f6bd 47fd 5d3d fb40 88bd
00000050: ec3f 22c0 230f d9bf bd67 ecbc c27d 51bb
00000060: ef6b e0bc 6198 b3bc 400b e9bd cc49 4cbf
00000070: 4fb8 cc3d 83fa 20bf 7e8a cd3e a26a 95bd
00000080: f739 c4bc 7a51 e7bd 6ec3 05bd d3a7 8abd
00000090: 4033 07c0 a707 e4bd d26e d1bd a3f2 37be
000000a0: dde3 1e3d 258a eebd a33d 273d 2fa0 9f3b
000000b0: c995 523d 49bb 873d 79ba c0bf f9d3 dbbd
000000c0: 09df bebc 6949 72bd c683 d0ba f864 f2bf
000000d0: b388 f6bd 7ef5 42be 2538 91bd d99c 85bf
000000e0: a71d 28be c2b3 64bd 3a9a 233f fe3b 30bd
000000f0: 2845 743f 627c ccbd 1279 89bd 0941 31bd
00000100: ae10 85bd 5844 73bd fcbe 073f 6102 ae3d
00000110: 2938 163d 1149 34bd 757f 843e 85fa e3bc
00000120: 5f58 63bf f059 1bbd f9de cc3f 1c2b d33c
00000130: 0e7c 453d bbc0 3abd b4a0 2b3c 60c2 cabe
00000140: d799 023d 1d35 c3bd 500f 6bbe 369a 74bd
00000150: 756a 10bc 0cef 6dbf 8c50 44bd 258f c0bd
00000160: ef78 93bd 9f25 633c 4c3f 8dbd 1b58 983c
00000170: 60d8 d0bd c3fd e3bf c36f b13b 4495 b6bc
00000180: fd37 bf3b 553f f0bd 0fb2 17be 7306 9bbf
00000190: a7f3 edbd 4068 5abd 6633 87bd be8a f9bd
000001a0: 3e22 7fbf b5bd f1bf d675 3cbc e609 3d3d
000001b0: bc04 13bc 19aa 1e3e 4133 81bd ba39 e6bd
000001c0: 643b 93bd b7e7 d9bd 758e 8bbd 0131 6fbd
000001d0: eb06 b9bc b97a f53c 7cc5 b7bd 9194 81bd
000001e0: 3990 8fbd 6fef 04be 9119 b6bd a321 b0bc
000001f0: 6e01 cfbd de48 04bf 9b09 91bd 675c 1cbb
00000200: f585 00bd fcf2 f3bf 0c26 9ebe 430d e9bd
00000210: cc3b aebd b816 c4bf ee7f 29bd 31b8 9dbf
00000220: 9d0a 8cbd ce1d b0bd b4b5 bcbd e463 b4bf
00000230: 4883 4dbd 60ce c2bd bd69 0bbe 54e6 06be
00000240: 13a9 9ebd 7640 1dbf 4e6c 06be f98b 5cbe
00000250: bb0c eebe 5380 b8bc 69d5 853e 7a41 d7bf
00000260: 3ceb 283d 8fd3 71be 2513 d73f ba57 0ebf
00000270: 5e2d b1bd cfbf f5bd f31c df3f bc15 15bd
00000280: f4b0 a8bd 6700 4bbd 1e1d 57bd 2c27 cebb
00000290: 36ad 99bf d963 0abe 1714 cdbd 5b1e 97bd
000002a0: 37a6 0abe b569 133d 1c7e 003d e87f cdbe
000002b0: c81e 8fbd 0d96 47bf a1b5 89bd bbb4 34bd
000002c0: b9c5 b0bd 282c 743d 6ba3 003d 8f1b 933e
000002d0: caa0 98bd 5e98 0abe 63fb 8cbf 5f08 ddbe
000002e0: 4ac7 4ebd c33f aebd 4730 e3bd 06fe bfbd
000002f0: 55af 26bd 33e2 7b3b 0f5c 32bf f173 933f
00000300: 8a7c e3bc 2eac 07be 7a56 8fbf fcb7 45be
00000310: 8884 00bf b608 6cbd 098d 13bd 7b30 96bd
00000320: 713b 4bbe 0796 59bd e829 f8bf ab1c 7abd
00000330: 21d3 653d 6f44 8dbd 0fdb b2bd 4e44 50bd
00000340: c4b4 10bf ff86 d83c 7912 5dbf e0ca c0be
00000350: c21c 7fbf 2bf3 dcbf d4dd debf 1bae 1cc0
00000360: 5e17 04be f2b0 23bd 16e0 e3bd bcd3 61bd
00000370: 4b87 01bd ef5f 6e3c 0b79 99bd c183 b5bd
00000380: 4be4 74bc 0b10 01be c07f 38bd 4f89 22bc
00000390: 8fad 3abd dabf dc3d f90e 97bd 04c3 83bd
000003a0: 397b 2a3f 3d11 1c3f 98fa 0cbe 0bc8 ebbf
000003b0: 0773 8fbe 333a 813d a88f 573b d583 833f
000003c0: 3e52 b2bc 8c37 c7bd b1c2 10bd 796c a1bd
000003d0: 42f7 8a3c 6ce8 373c 7e89 383d f59f 8e3e
000003e0: 1932 7cbd 4713 1cc0 2311 91ba e687 97bd
000003f0: 4ad8 223d 3149 a7bd 6538 883d 4eb4 98bd

weight f4 [256, 256]
-0.8059109 0.012196967 0.040988266 -0.3040091 0.04222545 0.015398653 0.017420473 0.031097557
-0.1347987 -0.04953384 -0.004772755 -2.5991359 -0.00684038 -0.095681734 -0.027500365 -0.0032406796
0.019398166 -0.06615665 0.026356457 -0.024066016 -0.94363856 1.1430174 0.18180704 -0.061690856
-0.048737604 0.028163934 0.014572457 1.2176147 0.0703329 -2.7828076 -1.1115168 -0.050649226
-0.02204993 -0.051604174 0.016571483 -0.019705772 -0.4509603 0.007988565 -0.03514344 -0.035615552
-0.06348227 -0.013114746 0.06076449 -0.05022673 -0.17107457 0.028725818 1.6558255 0.0022528407
-0.015414608 0.030346174 -0.035313997 -0.005426466 0.057598423 -0.66753274 0.034629513 0.637455
0.013712452 -0.011969526 0.0532101 -0.0073482203 0.114293434 0.027547963 0.0347919 -0.06216313
-0.00919953 -0.050347786 0.85019785 0.009709045 0.039074946 0.01967582 -0.05775894 0.038042333
2.6894946 0.03474783 -0.18637668 0.02287287 -0.008171147 -0.2906113 -0.030600477 0.031182298
0.008114074 -0.008137244 0.017521506 -0.024916714 -0.007457248 0.055103917 -0.06404487 -0.002359548
0.03999901 0.031018069 -0.00072068325 -0.07323139 -0.059107553 3.4946177 0.022806315 -0.018333001
-0.027120288 -0.042543933 -0.021628221 1.0571325 -0.015187009 0.053311978 -0.05068223 -0.03871527
0.8981163 -14.143342 0.02583957 -0.0060282797 0.013796912 -0.24085073 0.021968655 -0.0312238
-0.036949515 -0.548368 0.05144397 0.046621516 0.025517125 0.055043295 -0.024458015 0.07972469
0.0137822265 -0.017967729 -0.029796075 0.04179522 -0.042939894 0.23235022 0.0071943654 -0.023891447
-0.035286516 0.31677788 0.601741 0.021760503 -0.047552954 -0.27460477 0.083683774 -0.05811098
-0.0024652658 -0.05239745 -0.07870279 0.23205155 0.031320307 0.05192153 0.029225 0.0013510692
-0.014542827 0.76685935 -0.016573893 0.66202414 -0.62799937 0.002873264 0.051676102 1.7108165
-1.5958091 -0.018770518 0.16418563 -0.331716 -0.08444254 -0.068477124 1.1301434 -0.052380946
0.0018299714 -0.023041582 0.055014648 -0.09213583 2.498263 0.028265638 -0.030957907 0.0031227993
0.04689771 0.056597654 0.055602796 -0.21141656 -0.025944304 -0.04214545 -0.037356585 -1.5778775
-0.024196878 -0.018348223 -0.045219116 -0.031173764 0.043600004 -0.0358905 0.020074287 -0.051903166
-0.016049767 0.028396782 -0.21018067 -0.0036811898 0.04630707 0.029119313 0.13534878 0.32794222
-0.026963681 -0.019721724 1.2576674 -0.093566604 -0.035790537 -0.02242567 0.058607288 -0.05544508
1.8016824 -0.0052120383 -0.82802176 -0.031585462 -0.03175024 -0.06906357 -0.06867627 0.003894669
-0.017810713 -0.02510363 0.45689788 -0.42677996 0.4834664 1.2263958 -1.0586358 1.4933385
-0.034058925 -0.054152854 0.044370282 0.0093082795 -0.04776391 -0.051087137 0.0259237 0.055331558
0.0037011197 0.02014295 -0.042615574 0.03543837 0.043592 0.0055840365 0.045600813 -0.020532683
-0.5625204 0.08195206 -0.034553457 -1.1244127 0.05251576 0.038799748 0.049729124 -0.50093424
0.0430655 -0.03367269 0.055534445 -0.03601532 -0.0056055062 0.06259544 0.24526542 -4.3515763
-0.05535084 2.3901136 0.048961163 0.026828205 0.014891827 0.060308777 -0.30020812 -0.041459464
00000000: 2d50 4ebf cad5 473c 50e3 273d 15a7 9bbe
00000010: 98f4 2c3d a24a 7c3c 61b5 8e3c 4ec0 fe3c
00000020: ac08 0abe ffe3 4abd c564 9cbb 3e58 26c0
00000030: 4425 e0bb c9f4 c3bd 7248 e1bc 9561 54bb
00000040: e7e8 9e3c 237d 87bd 7fe9 d73c 1826 c5bc
00000050: 4c92 71bf 654e 923f a02b 3a3e 8daf 7cbd
00000060: 15a1 47bd 0db8 e63c 51c1 6e3c ccda 9b3f
00000070: b20a 903d 8519 32c0 2f46 8ebf 9075 4fbd
00000080: 0ea2 b4bc e65e 53bd ebc0 873c 006e a1bc
00000090: 45e4 e6be 78e2 023c 91f2 0fbd 9de1 11bd
000000a0: fe02 82bd 3bdf 56bc 30e4 783d 8bba 4dbd
000000b0: 2c2e 2fbe 6852 eb3c 17f2 d33f 65a4 133b
000000c0: 8d8d 7cbc 8a98 f83c 69a5 10bd 7fd0 b1bb
000000d0: 53ec 6b3d 6de3 2abf add7 0d3d 4030 233f
000000e0: 31aa 603c d51b 44bc d5f2 593d 57c9 f0bb
000000f0: ad12 ea3d 44ac e13c f481 0e3d c49e 7ebd
00000100: a0b9 16bc 7b39 4ebd 91a6 593f b012 1f3c
00000110: 0d0d 203d 2f2f a13c a394 6cbd 47d2 1b3d
00000120: ae20 2c40 be53 0e3d 87d9 3ebe e35f bb3c
00000130: 46e0 05bc 01cb 94be daad fabc 0572 ff3c
00000140: e5f0 043c 1352 05bc 4389 8f3c 231e ccbc
00000150: ee5b f4bb a5b4 613d f529 83bd a5a2 1abb
00000160: 00d6 233d 9b19 fe3c 3cec 3cba 57fa 95bd
00000170: c31a 72bd d1a7 5f40 4fd4 ba3c 172f 96bc
00000180: 5e2b debc 8c42 2ebd ab2d b1bc 1e50 873f
00000190: efd2 78bc a95d 5a3d 2c98 4fbd e793 1ebd
000001a0: f3ea 653f 214b 62c1 82ad d33c e088 c5bb
000001b0: 710c 623c 93a1 76be 9cf7 b33c 0ec9 ffbc
000001c0: 6058 17bd d861 0cbf eab6 523d 34f6 3e3d
000001d0: 4a09 d13c 1475 613d 2d5c c8bc b346 a33d
000001e0: d9ce 613c 0f31 93bc e616 f4bc 7731 2b3d
000001f0: bee1 2fbd 37ed 6d3e b6be eb3b ffb7 c3bc
00000200: 9888 10bd b630 a23e b30b 1a3f 1543 b23c
00000210: e3c6 42bd ff98 8cbe 6662 ab3d c705 6ebd
00000220: 4c90 21bb b59e 56bd ee2e a1bd ec9e 6d3e
00000230: b949 003d acab 543d 4469 ef3c 5c16 b13a
00000240: 0a45 6ebc e550 443f f9c5 87bc 6a7a 293f
00000250: 91c4 20bf 5f4d 3c3b 52aa 533d 09fc da3f
00000260: 7943 ccbf a1c4 99bc 4720 283e aed6 a9be
00000270: 36f0 acbd bc3d 8cbd 8aa8 903f 678d 56bd
00000280: a7db ef3a b3c1 bcbc 0a57 613d b6b1 bcbd
00000290: 8ae3 1f40 578d e73c 709b fdbc e1a7 4c3b
000002a0: d017 403d f1d2 673d c2bf 633d 957d 58be
000002b0: 2689 d4bc b5a0 2cbd 3803 19bd e4f7 c9bf
000002c0: 8838 c6bc 034f 96bc ae37 39bd 1f60 ffbc
000002d0: eb95 323d eb01 13bd d572 a43c 6a98 54bd
000002e0: cd7a 83bc 5ea0 e83c 9a39 57be 1e40 71bb
000002f0: 7bac 3d3d a08b ee3c df98 0a3e 0be8 a73e
00000300: f0e2 dcbc 748f a1bc 3ffb a03f d99f bfbd
00000310: 1999 12bd 0ab6 b7bc 320e 703d 611a 63bd
00000320: 879d e63f bfc9 aabb 3cf9 53bf c25f 01bd
00000330: 8a0c 02bd 3371 8dbd 25a6 8cbd b43d 7f3b
00000340: c6e7 91bc 21a6 cdbc 85ee e93e e782 dabe
00000350: e888 f73e 8afa 9c3f 6181 87bf b725 bf3f
00000360: 5f81 0bbd 62cf 5dbd 9dbd 353d c181 183c
00000370: 17a4 43bd bf40 51bd f05d d43c 58a3 623d
00000380: 7c8e 723b d402 a53c ab8d 2ebd d327 113d
00000390: 868d 323d 4bfa b63b ebc7 3a3d 2834 a8bc
000003a0: 5601 10bf 7bd6 a73d ed87 0dbd c1ec 8fbf
000003b0: c41a 573d 7cec 1e3d c4b0 4b3d 3a3d 00bf
000003c0: 7365 303d 60ec 09bd 1678 633d cd84 13bd
000003d0: 65ae b7bb 0a32 803d dc26 7b3e 1d40 8bc0
000003e0: 90b7 62bd 9ff7 1840 808b 483d d3c6 db3c
000003f0: d9fc 733c 5606 773d e1b4 99be 66d1 29bd
