saved_models_1/125_2782_model.pt (torch, 701697 bytes, 11 tensors)

FC1.weight f4 [256, 36]
-0.1930364 0.030013852 0.34438768 -0.22573806 0.65698284 0.35674965 -0.2073011 -1.171871
1.045903 0.36464813 -1.1781895 0.4010806 -0.3003345 0.33574376 0.7763873 -0.4252075
-1.0248393 -0.76561874 0.92046607 0.36493483 1.1826679 0.48640686 -0.8556875 -0.5552917
1.4748724 -0.17086774 -1.3301893 0.1280496 0.2141926 0.21035206 0.2501968 0.38438797
-2.295419 -0.35224935 0.75238645 -0.8549068 1.4947374 -0.60918 -0.19375364 -0.11770964
-0.8690902 -0.16775393 0.6458554 -0.4006962 -1.2969897 -0.7450401 1.6362417 -0.8901821
-1.439876 -0.6235218 0.55594414 -0.12912396 -1.495122 -0.16053881 2.3974903 0.65603715
-0.23906352 -0.8499341 0.26928166 0.5227113 -0.44258854 -2.3252397 0.18831673 0.03398974
-0.42698374 0.29069352 0.15676913 0.7560322 -3.1016796 -1.1777074 1.0682193 1.4342415
-0.19977655 0.3835529 -0.2305538 0.08153273 -0.53886735 0.9253631 -1.1637468 -1.4904653
1.2503272 0.035256807 0.3876282 -0.030097738 -0.31271175 1.3267584 -0.19796132 -3.1762962
0.29102266 0.7016398 -0.15798347 0.65519875 -0.6984312 0.10892105 0.6828683 0.14100617
-1.2440037 -0.46904466 1.0280241 -0.43063512 0.19386794 0.37882408 0.045552183 -0.37980694
0.32180232 -0.42771238 -3.6163793 0.8053738 -1.3117698 0.20764588 0.12204924 0.71558136
-0.46692994 -1.6465013 0.05439872 2.4705296 -1.263499 -1.1426685 0.4492894 0.47922873
-0.68515605 -0.42777178 0.1989731 0.4818669 -1.1826999 -0.39905944 0.87052214 -0.369137
-0.77017933 0.21937273 0.4218358 -0.019876756 -1.2728168 1.4275391 1.3037895 0.03608032
-2.2887347 0.43226892 0.5400992 -3.2592354 -1.3125345 -0.07122109 1.3098309 -3.220363
-0.17973554 -0.12546021 0.106812865 0.008930483 1.2100283 0.23643048 -1.0293462 -1.0632448
4.3871007 0.19597247 -3.218227 0.6586855 0.94487834 0.08801097 -0.38272077 0.04171038
0.92430764 -1.2612365 -1.4800689 0.2498467 0.091042645 -0.6622144 -0.4072737 1.441373
0.59658384 -0.5839109 0.55416447 0.16757716 -0.08925044 0.40972733 0.31713206 0.3634865
0.9413859 0.38077244 -3.5945933 -1.2986245 -0.6758164 -0.15249039 0.24212863 -0.24442014
0.45562392 0.42856014 -1.1512345 -2.2214592 2.1364639 0.24436474 -0.36439332 -1.0323104
-0.33304232 -0.25383252 -0.39957532 -0.4632172 0.42108768 0.6765453 0.7438743 -0.78098893
-0.6440082 -0.11616117 0.72556126 -0.3955055 -2.033106 0.5425458 0.32124448 0.30981854
0.23956606 -2.582734 -2.6464415 -1.0400494 1.433783 -1.0231544 -2.6273835 -3.4127614
-0.1505132 -0.5117066 0.19468956 -1.062128 0.7337548 -0.53527904 -0.22570908 -0.66234326
2.0145628 1.5650712 0.47309968 -0.2037414 0.047824886 -1.3940527 0.65340215 1.3768711
-0.44061342 -0.54078794 0.6988915 -0.038996242 0.70153975 -1.3994617 -0.4089759 0.5413622
0.5771062 -1.2389884 -0.8218262 -0.0024142973 0.45149824 0.17126548 -0.5000699 -0.06982391
0.94307584 -1.8852195 -0.70458084 1.5771403 0.3335402 0.15690693 -0.40772152 -0.7312468
00000000: 56ab 45be 9cdf f53c 9553 b03e e127 67be
00000010: 0730 283f e4a7 b63e bd46 54be deff 95bf
00000020: 26e0 853f 29b3 ba3e eace 96bf 705a cd3e
00000030: 72c5 99be 9be6 ab3e 51c1 463f ccb4 d9be
00000040: ef2d 83bf 97ff 43bf aaa3 6b3f bdd8 ba3e
00000050: a961 973f 520a f93e 560e 5bbf 9927 0ebf
00000060: 9ec8 bc3f f4f7 2ebe a543 aabf 6f1f 033e
00000070: 4e55 5b3e 8866 573e cc19 803e 80ce c43e
00000080: 25e8 12c0 075a b4be 669c 403f 2cdb 5abf
00000090: 8e53 bf3f 38f3 1bbf 5b67 46be c011 f1bd
000000a0: b27c 5ebf b0c7 2bbe c856 253f 0d28 cdbe
000000b0: c203 a6bf f3ba 3ebf 5e70 d13f f9e2 63bf
000000c0: db4d b8bf 209f 1fbf 5b52 0e3f 1239 04be
000000d0: 2860 bfbf 4964 24be 7b70 1940 0df2 273f
000000e0: 11cd 74be 4895 59bf 49df 893e 68d0 053f
000000f0: f79a e2be bad0 14c0 1ad6 403e d338 0b3d
00000100: 9d9d dabe c8d5 943e 1688 203e 548b 413f
00000110: eb81 46c0 1ebf 96bf 69bb 883f 3a95 b73f
00000120: 3992 4cbe 0c61 c43e 4c16 6cbe a2fa a63d
00000130: 36f3 09bf 99e4 6c3f a8f5 94bf 91c7 bebf
00000140: b90a a03f 7169 103d 3477 c63e 888f f6bc
00000150: c11b a0be 38d3 a93f 5fb6 4abe 7048 4bc0
00000160: ec00 953e aa9e 333f 6bc6 21be 1bbb 273f
00000170: 63cc 32bf 0012 df3d 75d0 2e3f ec63 103e
00000180: 833b 9fbf 9f26 f0be 4b96 833f 357c dcbe
00000190: 5185 463e 3bf5 c13e ed94 3a3d 0e76 c2be
000001a0: 46c3 a43e 1efd dabe c272 67c0 fa2c 4e3f
000001b0: 13e8 a7bf 1fa1 543e f4f4 f93d 5730 373f
000001c0: 7111 efbe 8ec0 d2bf 31d1 5e3d 281d 1e40
000001d0: 56ba a1bf f642 92bf 4309 e63e 785d f53e
000001e0: 6366 2fbf e704 dbbe 9bbf 4b3e 42b7 f63e
000001f0: b662 97bf 8551 ccbe 8ada 5e3f 86ff bcbe
00000200: 792a 45bf 3fa3 603e ddfa d73e 94d4 a2bc
00000210: a9eb a2bf 9ab9 b63f 93e2 a63f f5c8 133d
00000220: a17a 12c0 5a52 dd3e f143 0a3f 5097 50c0
00000230: 2101 a8bf 5ddc 91bd 8aa8 a73f 6d1a 4ec0
00000240: 980c 38be a478 00be b4c0 da3d 2951 123c
00000250: 35e2 9a3f d51a 723e 9ec1 83bf 6818 88bf
00000260: 2163 8c40 02ad 483e 6ef7 4dc0 9d9f 283f
00000270: 8ce3 713f 183f b43d faf3 c3be 81d8 2a3d
00000280: 6d9f 6c3f 3370 a1bf e672 bdbf d0d7 7f3e
00000290: 9174 ba3d e286 29bf 2e86 d0be e97e b83f
000002a0: b8b9 183f 2f7b 15bf b9dd 0d3f 5999 2b3e
000002b0: efc8 b6bd c8c7 d13e 225f a23e e71a ba3e
000002c0: abfe 703f 9bf4 c23e d10d 66c0 5439 a6bf
000002d0: 4e02 2dbf 7126 1cbe 91f0 773e 4649 7abe
000002e0: 8a47 e93e 3c6c db3e a75b 93bf 632c 0ec0
000002f0: d3bb 0840 c03a 7a3e c391 babe bf22 84bf
00000300: 8684 aabe 56f6 81be 2395 ccbe ce2a edbe
00000310: ce98 d73e 1332 2d3f 8c6e 3e3f e4ee 47bf
00000320: b9dd 24bf e8e5 edbd 62be 393f b27f cabe
00000330: 691e 02c0 48e4 0a3f 287a a43e 89a0 9e3e
00000340: ce50 753e 844b 25c0 4c5f 29c0 5720 85bf
00000350: 3486 b73f b9f6 82bf 0d27 28c0 af6a 5ac0
00000360: 2220 1abe 34ff 02bf b35c 473e cff3 87bf
00000370: 5bd7 3b3f 0c08 09bf 4820 67be 548f 29bf
00000380: 99ee 0040 4154 c83f 1f3a f23e 96a1 50be
00000390: 07e4 433d 5270 b2bf 5d45 273f 503d b03f
000003a0: 1598 e1be 1471 0abf 8eea 323f 86ba 1fbd
000003b0: 1c98 333f 9021 b3bf 4a65 d1be b796 0a3f
000003c0: 3bbd 133f 2c97 9ebf 3463 52bf 3039 1ebb
000003d0: c72a e73e 3860 2f3e 9504 00bf d7ff 8ebd
000003e0: 6b6d 713f df4e f1bf 695f 34bf bcdf c93f
000003f0: c8c5 aa3e 36ac 203e e0c0 d0be fe32 3bbf

FC1.bias f4 [256]
0.017808264 -0.26674962 -0.41167298 0.05068585 0.18032706 0.21100262 -0.20323971 -0.4032882
-0.6073711 -0.36393258 0.010238867 -0.0994628 -0.42202976 -0.37574574 -0.25293303 0.16054977
0.29917637 -0.099706225 0.41302815 0.19986174 -0.06643877 0.06648776 -0.6290443 0.29905197
-0.3188117 -0.079292476 -0.6911454 0.24683526 -0.8058434 0.105334766 -0.15469782 -0.39442474
-0.5805851 0.37344247 -0.038832825 0.5451666 -0.42819127 -0.3159419 -0.29531744 -0.1984173
0.22250389 -0.39918503 0.092303105 -0.54276836 0.19979179 -0.123694144 -0.6482507 -0.2720018
-0.53467184 0.024515072 0.4229771 -0.1956024 -0.124071896 -0.06342896 0.09180373 -0.49638963
-0.17627072 -0.58170205 -0.07495748 -0.09508446 -0.18322355 0.19441512 0.09649764 0.06503189
-0.046734683 0.091836154 0.08813445 -0.14116932 -0.51987875 -0.08438699 -0.19189553 -0.33596474
0.30654547 0.7689248 -0.1601744 0.18248677 -0.5877166 -0.29692066 -0.7130797 0.33856595
-0.76588106 -0.32003102 0.14009312 -0.35621992 0.08845695 0.5368688 0.0147889545 0.06390939
-0.2818658 0.22899383 0.030762488 -0.20470959 -0.4200711 0.42000276 0.09841963 -0.0077613126
-0.11073463 -0.32617256 -0.26104873 -0.6754096 -0.029717116 -0.0017610154 -0.17292345 -0.4659134
-0.12953354 0.26664776 0.2247292 -0.15976168 0.10196343 -0.094320744 -0.25653318 -0.39968687
-0.2676459 -0.48065263 -0.5749189 0.13990492 -0.113624245 0.12153477 -0.4355849 -0.00020358458
-0.06046184 -0.04138485 -0.40545157 -0.20694858 -0.7220786 -0.3973621 -0.013564273 -0.51417464
-0.67964864 0.097816914 -0.3395892 0.35690728 0.3536278 -0.072540864 0.21972507 -0.33232826
-0.15858163 0.32570902 -0.00354648 0.033841547 -0.23218334 0.012960877 0.03114969 0.04494135
-0.43385044 -0.37370503 0.2962721 0.52643895 -0.21285966 0.25528744 -0.7897866 -0.12132506
-0.007887356 -0.18280523 0.6873677 -0.1549486 -0.64042383 -0.15542229 0.42963362 -0.07766852
-0.2259998 0.105181634 0.54981 0.15462862 0.022808485 0.27320763 -0.56458485 -0.0361344
-0.05441449 -0.24095751 -0.30970412 -0.6650266 0.42846188 0.22314343 -0.2734593 -0.013339068
-0.030252425 0.020793267 -0.879138 -0.5817083 0.039106883 -0.558415 0.00843662 0.42830545
-0.24013735 -0.18003228 -0.06789128 -0.54063225 0.73819464 -0.3883286 0.10812415 -0.13094993
0.07064474 0.48336905 0.36317053 -0.26783225 -0.5545343 0.020208504 0.18124808 0.04959126
-0.25425434 -0.42482418 -0.027945712 -0.27979934 0.1558576 0.10913776 0.114844434 0.1063595
-0.37358987 0.19117914 -0.52997875 0.1734024 -0.31174856 -0.4198452 -0.6390548 -0.2804258
-0.37056023 -0.3898674 0.19900493 0.23345052 -0.37477642 0.010179714 -0.099391654 0.5601115
-0.47627765 -0.12720834 -0.5181755 -0.71319276 0.15263084 0.29566288 -0.044205084 -0.52015954
0.6017481 -0.34353432 -0.4248842 -0.33201614 -0.7349504 0.16521096 -0.15136072 -0.16370526
0.0640377 -0.06485484 0.10833058 0.7352701 0.5822092 -0.19518475 -0.13721082 0.023985595
-0.065129146 0.19227508 -0.21135117 0.064372055 -0.14823022 0.4611375 -0.38370928 -0.14831899
00000000: a3e2 913c 6893 88be cdc6 d2be f79b 4f3d
00000010: a8a7 383e 1211 583e 121e 50be ca7b cebe
00000020: ac7c 1bbf 5f55 babe ecc0 273c 27b3 cbbd
00000030: 4914 d8be bf61 c0be 7080 81be 2967 243e
00000040: a52d 993e c732 ccbd 6d78 d33e 8ea8 4c3e
00000050: 0d11 88bd bc2a 883d 0c09 21bf 571d 993e
00000060: 4a3b a3be 1864 a2bd e8ee 30bf 62c2 7c3e
00000070: c14b 4ebf c1b9 d73d 1b69 1ebe 0af2 c9be
00000080: 3aa1 14bf da33 bf3e 2b0f 1fbd 0a90 0b3f
00000090: e33b dbbe 23c3 a1be d933 97be e82d 4bbe
000000a0: 0fd8 633e fb61 ccbe 6909 bd3d def2 0abf
000000b0: 3896 4c3e 5b53 fdbd c2f3 25bf d243 8bbe
000000c0: 41e0 08bf d5d3 c83c 7490 d83e ff4b 48be
000000d0: 6819 febd 0be7 81bd 9803 bc3d c826 febe
000000e0: 5080 34be 6dea 14bf 4f83 99bd a4bb c2bd
000000f0: f49e 3bbe c214 473e 8ea0 c53d 712f 853d
00000100: de6c 3fbd 9814 bc3d d67f b43d b18e 10be
00000110: c616 05bf 16d3 acbd 4380 44be 9203 acbe
00000120: 87f3 9c3e 41d8 443f c204 24be d0dd 3a3e
00000130: 9874 16bf fc05 98be 648c 36bf 8458 ad3e
00000140: c810 44bf 1bdb a3be 9274 0f3e 7562 b6be
00000150: eb28 b53d 3c70 093f 5f4d 723c ede2 823d
00000160: b750 90be 5c7d 6a3e 9d01 fc3c 649f 51be
00000170: 8f13 d7be 9a0a d73e 3b90 c93d 9c52 febb
00000180: d6c8 e2bd 1700 a7be 2ea8 85be a5e7 2cbf
00000190: 4f71 f3bc dfd1 e6ba d812 31be 338c eebe
000001a0: 71a4 04be 0e86 883e 691f 663e 9198 23be
000001b0: 34d2 d03d 3c2b c1bd 5158 83be c2a3 ccbe
000001c0: e208 89be 1a18 f6be e32d 13bf 3c43 0f3e
000001d0: d4b3 e8bd 39e7 f83d fc04 dfbe 5279 55b9
000001e0: d6a6 77bd 2983 29bd 5997 cfbe 54ea 53be
000001f0: 25da 38bf 0c73 cbbe af3c 5ebc f3a0 03bf
00000200: 74fd 2dbf 3c54 c83d a3de adbe 8dbc b63e
00000210: b40e b53e 4e90 94bd 9cff 603e ee26 aabe
00000220: 3963 22be 55c3 a63e 106c 68bb 6f9d 0a3d
00000230: 78c1 6dbe dc59 543c a22d ff3c 6c14 383d
00000240: a521 debe 4456 bfbe fab0 973e b4c4 063f
00000250: e2f7 59be 09b5 823e 742f 4abf 4679 f8bd
00000260: f839 01bc 4b31 3bbe 54f7 2f3f d9aa 1ebe
00000270: d1f2 23bf 0527 1fbe f0f8 db3e ac10 9fbd
00000280: 7e6c 67be 7869 d73d 59c0 0c3f f756 1e3e
00000290: dcd8 ba3c dfe1 8b3e a288 10bf aa01 14bd
000002a0: bae1 5ebd 91bd 76be 8a91 9ebe 2f3f 2abf
000002b0: 5b5f db3e b67f 643e db02 8cbe 1b8c 5abc
000002c0: efd3 f7bc a456 aa3c 300f 61bf d6ea 14bf
000002d0: 8a2e 203d 49f4 0ebf c039 0a3c da4a db3e
000002e0: 91e6 75be 625a 38be 950a 8bbd e066 0abf
000002f0: 53fa 3c3f 02d3 c6be 3270 dd3d bd17 06be
00000300: 30ae 903d 267c f73e 7df1 b93e 4f21 89be
00000310: f6f5 0dbf 4e8c a53c 1999 393e 3420 4b3d
00000320: a02d 82be 8e82 d9be 68ee e4bc dc41 8fbe
00000330: 2299 1f3e 9e83 df3d 8f33 eb3d 02d3 d93d
00000340: 2c47 bfbe 77c4 433e b0ac 07bf 6690 313e
00000350: 829d 9fbe f3f5 d6be 1899 23bf f893 8fbe
00000360: 12ba bdbe b39c c7be f3c7 4b3e a70d 6f3e
00000370: b2e2 bfbe d1c8 263c da8d cbbd 7863 0f3f
00000380: aada f3be e742 02be 26a7 04bf cd93 36bf
00000390: 424b 1c3e 2061 973e 6410 35bd 2d29 05bf
000003a0: 2a0c 1a3f bbe3 afbe 6c8a d9be 05fe a9be
000003b0: b625 3cbf 102d 293e 4efe 1abe 5aa2 27be
000003c0: 3326 833d 9dd2 84bd 6cdc dd3d a93a 3c3f
000003d0: aa0b 153f 83de 47be fe80 0cbe 707d c43c
000003e0: 6e62 85bd c2e3 443e 716c 58be 7fd5 833d
000003f0: aac9 17be 371a ec3e 8b75 c4be efe0 17be

FC2.weight f4 [256, 256]
-2.9104168 0.48710313 0.37428448 -1.6154158 0.30283225 1.9064415 -0.3969692 -2.1841855
-1.3425317 0.5607283 -0.008060327 0.75102836 -1.4485606 -0.7419414 -0.62996215 -0.47421366
-1.3721662 -0.054681644 0.6599846 -0.81344926 0.03887946 1.4673427 -3.626364 0.45009917
0.10013663 -2.3471887 -0.93518883 -2.5261245 1.4666929 -0.728845 0.436135 -0.93336606
-0.48883754 0.27050412 0.34137863 -0.076404735 -0.5353492 1.5754409 0.30405033 0.5046172
-0.78401446 0.058908306 -1.3995422 -1.0281416 -0.7425128 -0.13996932 0.44944233 -0.3469657
0.03389078 -0.63253075 -1.1129025 -0.018154308 -2.0770855 -2.525275 -0.15336953 -1.9954493
0.05774763 1.0763497 -2.1597433 0.3906097 0.35011983 -0.9714721 0.033220302 0.116008036
0.75169265 1.1891844 -1.5144361 -0.039951555 -2.160351 -0.072412945 0.33586216 -0.18850729
-0.33687964 0.5393323 0.09879615 -0.11943506 -1.898167 -0.3875277 0.0998156 1.0726749
0.7368488 -1.8516428 2.1715097 0.3350996 -1.0222569 1.4195254 -1.2490097 -1.4458926
0.7483553 0.5983757 -0.01333403 -2.7641304 0.3215886 -0.6835604 -0.062381286 0.3936829
2.2197208 -1.0632526 1.3197261 1.1255115 -0.6448362 -1.6756612 -1.5921646 0.34267607
0.010272967 -0.42503402 1.6484418 0.5151361 0.8103893 -0.8212128 0.23839924 -0.30007228
-1.3537439 -2.2415192 -0.047007542 -0.9941128 -0.7048557 -2.3477812 -0.62866867 -0.59993654
-0.25042218 -0.8761958 0.088453524 0.78944165 -1.1761446 -0.13954094 0.925088 -1.6493393
-0.02517988 0.38565576 1.6456397 0.32908472 -0.009711115 -1.1105821 -0.59649855 0.22122794
-1.7900214 0.26333877 -1.4611248 0.7685477 -0.021744844 0.5234034 0.13897055 -0.22003768
-1.9763333 -0.039219614 0.1913775 0.5594093 -0.06909247 -0.713538 -0.7245904 0.75029874
-6.5235925 -0.44078407 -0.13599426 -0.036444493 -0.66054016 1.6162362 0.7440455 0.05361826
-0.8927371 0.38552535 -0.9738267 0.7383685 -2.9236066 -2.3213756 0.4612911 -1.7134217
0.73885983 -2.0760736 2.068478 -0.5247408 -0.441524 -1.1042897 -0.04421251 -0.516856
0.56964123 -0.017810652 -0.7174731 0.30183902 0.1495291 1.1232207 -0.6710544 0.27763587
0.39568505 -0.062183615 -1.0115947 0.6816052 0.9354712 -0.11922885 1.5460299 0.17731693
0.46913204 1.0604246 -0.4255968 0.14508572 -1.6303717 -1.3926646 0.9364224 -2.2123168
0.028069567 0.1896139 -0.01290644 1.1149902 0.036706023 -1.475734 0.64813083 0.81407994
-0.56831235 -1.4293811 0.5713726 1.0324906 1.1726285 -0.6540951 -1.1301017 1.4753574
-0.02661443 0.9990281 -3.9786446 -0.67110974 -3.9883792 0.54950625 0.28943133 2.0144708
2.6859913 -1.249363 0.42439976 1.1711407 -0.8646892 -0.19388835 -0.31557116 0.33906752
1.2436466 -0.097843215 0.2315275 0.20062017 -3.532436 1.738073 -0.8091039 -0.9773503
0.004595944 -2.5424433 -0.455111 -0.618601 0.9539944 0.42520463 -0.8113867 0.24683453
0.0093269665 -0.41998637 -0.47408292 0.5607306 -1.7596376 -1.5247054 -0.47836578 -0.15569444
00000000: 4544 3ac0 9565 f93e 37a2 bf3e f2c5 cebf
00000010: d40c 9b3e 4606 f43f 8c3f cbbe b2c9 0bc0
00000020: 14d8 abbf e48b 0f3f 760f 04bc 6543 403f
00000030: 6f6a b9bf dfef 3dbf 3345 21bf 22cc f2be
00000040: 24a3 afbf dcf9 5fbd c0f4 283f 363e 50bf
00000050: 1240 1f3d e3d1 bb3f 5916 68c0 6673 e63e
00000060: 6f14 cd3d 5738 16c0 8968 6fbf 06ac 21c0
00000070: 98bc bb3f 9695 3abf 164d df3e 14f1 6ebf
00000080: ea48 fabe 847f 8a3e 2ec9 ae3e 167a 9cbd
00000090: a50c 09bf 0ca8 c93f 7cac 9b3e 982e 013f
000000a0: 2cb5 48bf d649 713d 3324 b3bf 259a 83bf
000000b0: 5215 3ebf 1e54 0fbe 4e1d e63e 7da5 b1be
000000c0: 0fd1 0a3d 89ed 21bf 9773 8ebf 58b8 94bc
000000d0: f8ee 04c0 1b9e 21c0 e70c 1dbe e26a ffbf
000000e0: c788 6c3d d4c5 893f 3c39 0ac0 fffd c73e
000000f0: e842 b33e 65b2 78bf 0312 083d 9f95 ed3d
00000100: ee6e 403f 3237 983f 0bd9 c1bf 3ea4 23bd
00000110: 3143 0ac0 3d4d 94bd 20f6 ab3e 0e08 41be
00000120: 7d7b acbe ae11 0a3f a355 ca3d 5e9a f4bd
00000130: 23f7 f2bf 086a c6be 1f6c cc3d 694d 893f
00000140: 1fa2 3c3f a202 edbf 04fa 0a40 2d92 ab3e
00000150: 50d9 82bf 02b3 b53f 8ddf 9fbf 0213 b9bf
00000160: 3794 3f3f 262f 193f fa76 5abc 83e7 30c0
00000170: 43a7 a43e d0fd 2ebf 8583 7fbd ce90 c93e
00000180: e80f 0e40 a918 88bf c9ec a83f c310 903f
00000190: fc13 25bf 117c d6bf 0dcc cbbf 3d73 af3e
000001a0: f24f 283c 0f9e d9be 2400 d33f f6df 033f
000001b0: ac75 4f3f 013b 52bf ee1e 743e 13a3 99be
000001c0: 7b47 adbf 0d75 0fc0 fb8a 40bd 2d7e 7ebf
000001d0: 6c71 34bf 0c42 16c0 6ef0 20bf 7195 19bf
000001e0: 5637 80be 5e4e 60bf 1f27 b53d d918 4a3f
000001f0: e88b 96bf d2e3 0ebe 91d2 6c3f 8d1d d3bf
00000200: 0946 cebc ac74 c53e 52a4 d23f cb7d a83e
00000210: 5e1b 1fbc 8e27 8ebf 21b4 18bf 9489 623e
00000220: 6c1f e5bf 57d4 863e 2306 bbbf 8bbf 443f
00000230: 3e22 b2bc c4fd 053f 4c4e 0e3e 8f51 61be
00000240: 7df8 fcbf bfa4 20bd 77f8 433e 7335 0f3f
00000250: 5a80 8dbd 6daa 36bf c27e 39bf 9413 403f
00000260: 45c1 d0c0 73ae e1be 1442 0bbe d246 15bd
00000270: 2919 29bf d4e0 ce3f c479 3e3f d29e 5b3d
00000280: 6b8a 64bf 9463 c53e b54c 79bf b805 3d3f
00000290: 5f1c 3bc0 6b91 14c0 592e ec3e 6751 dbbf
000002a0: eb25 3d3f 64de 04c0 f261 0440 6a55 06bf
000002b0: 6f0f e2be 5d59 8dbf 2d18 35bd ad50 04bf
000002c0: 02d4 113f a5e7 91bc 51ac 37bf a58a 9a3e
000002d0: 281e 193e b2c5 8f3f 39ca 2bbf 4a26 8e3e
000002e0: 3b97 ca3e 3fb4 7ebd ef7b 81bf ae7d 2e3f
000002f0: 0a7b 6f3f 412e f4bd 4fe4 c53f 9292 353e
00000300: 1332 f03e febb 873f d3e7 d9be 5a91 143e
00000310: 05b0 d0bf d542 b2bf 61b9 6f3f 9996 0dc0
00000320: 26f2 e53c 252a 423e 8875 53bc 00b8 8e3f
00000330: 0e59 163d dae4 bcbf e7eb 253f 8b67 503f
00000340: eb7c 11bf f6f5 b6bf 7a45 123f a728 843f
00000350: b118 963f c772 27bf 2ca7 90bf 83d8 bc3f
00000360: 8106 dabc 4ec0 7f3f 1da2 7ec0 d9cd 2bbf
00000370: 9b41 7fc0 71ac 0c3f 5830 943e 17ed 0040
00000380: 48e7 2b40 20eb 9fbf ed4a d93e f0e7 953f
00000390: 455c 5dbf ab8a 46be 8b92 a1be 429a ad3e
000003a0: d02f 9f3f 0662 c8bd 8c15 6d3e 606f 4d3e
000003b0: 6e13 62c0 2d79 de3f 6f21 4fbf a133 7abf
000003c0: 9399 963b 64b7 22c0 4f04 e9be a35c 1ebf
000003d0: fa38 743f 6cb4 d93e 0ab7 4fbf 31c2 7c3e
000003e0: 22d0 183c 7408 d7be ffba f2be 0a8c 0f3f
000003f0: ce3b e1bf 8c29 c3bf 5cec f4be 5d6e 1fbe

FC2.bias f4 [256]
-0.36472282 -0.07968408 -0.14583486 -0.37982535 -0.42285398 -0.3751768 0.5439276 0.062233355
0.15936121 -0.70848566 0.29352412 -0.107342705 -0.47441843 -0.037998658 -0.7115362 -0.68081045
0.2553434 -0.208581 -0.12148763 -1.0380017 0.0076149777 -0.30600736 0.7181037 -0.56458974
-0.11022713 -0.05805354 0.20536545 -0.05389265 -0.5100195 -0.22120625 -0.6234889 -0.7713039
-1.0004089 -0.07719531 -0.2763615 -0.66078764 -0.12417023 -0.00041976516 -0.38627982 0.31955323
-0.17223118 -0.32970732 0.1575984 -0.69898 0.28810856 -0.4610907 -0.62833434 0.4332012
0.32067403 -0.33055294 -0.5512978 -0.45667586 -0.33017915 -0.6476714 -0.42244405 0.099378474
-0.4752339 -0.4333967 -0.09077146 -0.24795865 0.18572515 -0.35569903 -1.074306 0.25719258
0.37287334 0.518299 -0.6168576 -0.35342148 -0.14336665 -0.3613673 -0.9632289 -0.3520691
-0.610645 -0.15816738 0.13075836 -0.21909466 0.2870401 -0.45279342 -0.8413851 -0.7913024
-0.37530074 -1.2068112 -0.08569926 -0.4911206 -0.14697567 -1.2751534 -0.77932876 -0.20730585
-0.48172706 0.65463185 -0.33411 -0.6006775 -0.32659617 -1.2115606 -1.0021274 -0.2661714
-0.8435749 -0.6158557 -0.38606635 -0.73125774 -0.43285406 -0.5506983 0.19639888 -0.1258451
-0.35188645 0.1238203 0.8410343 0.12644921 -0.7612121 -0.9992517 -0.1965437 -0.64185584
0.14351022 -0.017990641 0.119070865 -0.6198534 0.14201242 -0.3852092 -0.8965514 -0.30102086
-0.05049318 -0.27132833 0.13139322 -0.4298331 -0.078337885 0.37130535 -0.19805047 -0.73218054
-0.12142057 -0.8593148 -0.64653677 -0.010386122 0.57535607 -0.24706204 -0.85707784 -0.6951054
-0.12839217 1.1965628 -1.3413116 -0.104205824 -0.83404756 -0.09468732 -0.09776672 -0.31587732
0.026987158 -0.506335 0.5436037 -0.075281434 -0.12391229 -0.42137486 -0.82299674 -0.4302732
0.19408149 -0.13006425 0.86757666 -1.0701736 -0.6451177 -0.9454849 0.05455227 -0.20271596
-0.045506276 0.14664032 -0.6870248 0.20116112 -0.57615453 0.14772923 -0.5088064 -0.4761593
-0.75917494 0.024036583 -0.73792595 0.1222281 -0.47523165 -1.0645516 -1.1704497 -0.73217285
-0.18848564 -0.1631673 -0.32625133 0.042407043 -0.039774787 -0.87000453 -0.02010301 -0.20938094
0.6532283 -0.49166542 -0.9705235 -0.1917382 -0.20405371 -0.33621427 -0.25932425 -1.272186
-0.11315469 -0.79716086 -0.08769377 -0.054711107 -0.20217882 -1.119313 -0.40768224 -0.18499099
-0.6004836 -0.05955517 -0.1858303 -0.2794869 -0.24312748 -0.0893731 -0.39357516 -0.60172695
-0.32400906 0.6122654 0.21831273 -0.60393536 0.019034553 -0.9117595 -0.41462365 -0.23667917
-1.0297624 0.20654158 -0.08982065 -0.0249532 0.11036575 -0.18487386 -0.08244567 -0.16398054
0.03258016 0.17318371 -0.22773239 -0.81068814 -0.87738967 -0.973352 -0.46409246 -1.1020356
-0.33030078 -0.27988744 -0.43271816 -0.81773204 -0.60325783 0.02937543 -1.451912 -1.1651162
-0.104531825 -0.3495982 -0.39035642 0.49601507 -0.7913028 0.026739756 -0.10868684 -0.6883583
-0.8086972 -0.13456665 -0.048719946 -0.25987563 -0.070458755 -0.1837606 -0.24383274 -0.7014588
00000000: f3bc babe 6831 a3bd bc55 15be 7878 c2be
00000010: 5180 d8be 2c17 c0be d73e 0b3f 67e8 7e3d
00000020: 962f 233e 515f 35bf cb48 963e 7ed6 dbbd
00000030: f9e6 f2be 7ba4 1bbd 3d27 36bf 9849 2ebf
00000040: 5fbc 823e 4296 55be 82ce f8bd 3ddd 84bf
00000050: 1087 f93b ffac 9cbe a5d5 373f f488 10bf
00000060: c3be e1bd 8cc9 6dbd 524b 523e 8abe 5cbd
00000070: a390 02bf e483 62be f89c 1fbf 2c74 45bf
00000080: 660d 80bf 9318 9ebd 417f 8dbe 6129 29bf
00000090: f64c febd ed13 dcb9 78c6 c5be 7b9c a33e
000000a0: 5f5d 30be 66cf a8be 7a61 213e 5af0 32bf
000000b0: f782 933e 1514 ecbe 85da 20bf 8ccc dd3e
000000c0: 632f a43e 3c3e a9be da21 0dbf 6bd1 e9be
000000d0: 3e0d a9be cbcd 25bf 964a d8be f186 cb3d
000000e0: dc51 f3be 2ce6 ddbe 63e6 b9bd dfe8 7dbe
000000f0: bc2e 3e3e 2f1e b6be dc82 89bf bfae 833e
00000100: 41e9 be3e 3eaf 043f 61ea 1dbf a9f3 b4be
00000110: b5ce 12be 2205 b9be 2b96 76bf 6742 b4be
00000120: 3b53 1cbf a1f6 21be 85e5 053e 5a5a 60be
00000130: ecf6 923e 8ad4 e7be 0465 57bf cb92 4abf
00000140: 6b27 c0be ca78 9abf 1883 afbd 2974 fbbe
00000150: ca80 16be 3a38 a3bf 1782 47bf fc47 54be
00000160: eea4 f6be f495 273f 7710 abbe 00c6 19bf
00000170: 9d37 a7be 6b14 9bbf b645 80bf 9e47 88be
00000180: 86f4 57bf b8a8 1dbf 7daa c5be b533 3bbf
00000190: 0c9f ddbe 90fa 0cbf ca1c 493e 8add 00be
000001a0: 762a b4be 7f95 fd3d 064e 573f e77b 013e
000001b0: ccde 42bf f6ce 7fbf c042 49be aa50 24bf
000001c0: 58f4 123e 1c61 93bc 6ddb f33d b6ae 1ebf
000001d0: b46b 113e 243a c5be 6484 65bf 681f 9abe
000001e0: f0d1 4ebd 8ceb 8abe f28b 063e 1613 dcbe
000001f0: 9d6f a0bd bc1b be3e becd 4abe 2f70 3bbf
00000200: 59ab f8bd 0efc 5bbf 6f83 25bf 8e2a 2abc
00000210: 894a 133f d5fd 7cbe 7469 5bbf 6df2 31bf
00000220: 3d79 03be f828 993f 19b0 abbf dd69 d5bd
00000230: 2484 55bf 6deb c1bd eb39 c8bd acba a1be
00000240: 2c14 dd3c 2c9f 01bf 9d29 0b3f 272d 9abd
00000250: bac5 fdbd 72be d7be eaaf 52bf c54c dcbe
00000260: 4cbd 463e 902f 05be 8119 5e3f 73fb 88bf
00000270: 6f26 25bf 4c0b 72bf 3372 5f3d c694 4fbe
00000280: ca64 3abd e128 163e dbe0 2fbf 2efd 4d3e
00000290: dd7e 13bf 5546 173e 2341 02bf 27cb f3be
000002a0: 4a59 42bf 5ee8 c43c b7e8 3cbf ba52 fa3d
000002b0: 9051 f3be 3a43 88bf 4cd1 95bf ae6f 3bbf
000002c0: 6102 41be 5415 27be 6a0a a7be 02b3 2d3d
000002d0: e3ea 22bd 9eb8 5ebf 11af a4bc f567 56be
000002e0: f839 273f 92bb fbbe 3a74 78bf 0557 44be
000002f0: 75f3 50be 4724 acbe 26c6 84be fed6 a2bf
00000300: a5bd e7bd bc12 4cbf cb98 b3bd c118 60bd
00000310: f707 4fbe a645 8fbf babb d0be 476e 3dbe
00000320: 4bb9 19bf 1ff0 73bd 4c4a 3ebe e818 8fbe
00000330: 69f6 78be 3e09 b7bd af82 c9be c70a 1abf
00000340: 84e4 a5be 6dbd 1c3f 5f8d 5f3e 829b 1abf
00000350: 5aee 9b3c 1269 69bf 8d49 d4be 065c 72be
00000360: 41cf 83bf a37f 533e e4f3 b7bd a76a ccbc
00000370: 7007 e23d 934f 3dbe 47d9 a8bd 84ea 27be
00000380: c672 053d 1257 313e ae32 69be 4289 4fbf
00000390: 9c9c 60bf 992d 79bf 879d edbe 810f 8dbf
000003a0: 2f1d a9be 684d 8fbe 3c8d ddbe e356 51bf
000003b0: 1b6f 1abf bea4 f03c 41d8 b9bf 8722 95bf
000003c0: c814 d6bd 89fe b2be ccdc c7be b0f5 fd3e
000003d0: d292 4abf 550d db3c 3597 debd 4038 30bf
000003e0: c806 4fbf d7cb 09be 918e 47bd 6b0e 85be
000003f0: ae4c 90bd bd2b 3cbe 4aaf 79be ce92 33bf

action_out.weight f4 [5, 256]
-0.20931341 -0.06408668 0.17231235 0.88859385 1.5769564 -0.53099036 2.4619834 0.5705009
2.8665514 -1.8751521 1.3086542 0.5545882 0.31992745 0.019227233 -2.3717074 1.0643196
1.6211752 0.0638557 0.4204607 0.14574872 2.2350767 0.9913095 0.8958382 0.96253276
1.3322833 1.8715885 0.5585952 0.69261706 -0.083987065 0.18248402 1.7091197 2.1117802
0.9951434 0.028387101 0.45995295 2.434856 -0.056053955 -0.8398474 2.1592543 2.3989522
1.1818398 1.4076362 1.2550147 1.1078826 1.369626 0.64264256 0.23859186 1.5524794
1.5904676 0.8964634 0.5493513 0.2010371 -0.22382964 0.6886093 2.9051242 -0.4517052
1.794267 0.76153857 0.7261706 0.82763743 2.174868 0.9068332 -0.9084587 0.08392264
1.0916828 1.3861821 1.0741154 0.7756738 1.0990422 0.13489671 -0.12756796 -0.5284218
0.25699344 0.4849553 -0.14267784 -0.5132251 1.8360921 -0.30569434 1.0392836 0.8680063
-0.81043804 1.3703713 0.39395213 0.4316442 0.34943837 -1.9552749 2.0150204 0.70379585
0.3018699 1.1604477 1.460347 1.388696 -1.065424 -0.2415859 0.86109006 0.25920263
1.7840819 0.03802422 1.1529254 2.379695 1.2421386 2.7020168 1.6205297 2.9933488
0.8582069 -1.1388586 2.3817332 1.3881388 1.3572749 0.49980617 0.35338432 2.5658705
1.037034 1.2792742 0.51945096 2.7158384 0.5659011 1.2831042 -1.3595622 1.0465282
0.01757665 0.3347345 1.7536775 0.27488694 0.06359462 0.40543547 0.38574132 0.271994
1.9696296 3.8271334 0.7197023 -0.019883167 1.7538235 0.8398063 0.99731505 2.2363355
1.3990202 0.88857776 0.059096906 0.25889012 2.1179206 0.47287238 1.012896 2.2310674
-1.8784758 1.5093722 1.5254112 -0.047886036 0.20178728 2.5955987 -1.3798556 0.84292936
1.6136234 0.371688 1.7503663 0.0016942243 -0.48936048 2.4276721 -0.39789376 -0.45613587
0.793029 1.0672028 0.12818047 0.8085399 0.97187066 -1.3645705 0.9550812 1.0639689
1.5720621 0.82036316 1.1073841 -0.83143634 -0.6577637 0.55909336 2.7152474 1.7136097
1.0315161 1.299046 0.7006762 1.4536631 -0.0013535174 1.1744182 0.92439574 0.7726325
0.4762454 1.6279166 1.3013009 -0.29441303 0.24078576 2.7817717 -0.25289539 3.344727
1.6796529 -0.5629081 0.8401526 -0.017060097 -1.0152179 -0.80594623 1.1815457 -1.5190693
0.9426565 -0.03535526 0.1433826 0.49839494 -0.8069934 -0.6104634 1.9516466 -0.5484501
-0.1284102 0.6693251 1.8344107 -1.0830433 -0.030138025 1.2245471 2.4590025 -1.4548897
-0.17427666 1.1598306 -0.0374056 -0.093294136 1.792348 0.004616606 1.7312284 0.20378156
-0.023118991 -1.288367 2.376117 -0.35484812 1.3617102 2.0349274 1.1438661 2.0719976
0.34680274 1.058846 0.729115 0.063672975 0.21875498 0.9602304 0.76815724 0.5234683
0.034885857 1.5405002 0.26430956 1.2197685 -0.4714675 1.9316683 0.29119328 0.58048713
1.108319 0.058357876 2.571054 -1.0393264 0.6173445 0.11264244 -1.2356402 1.867826
00000000: 4156 56be e13f 83bd a672 303e e37a 633f
00000010: b5d9 c93f fcee 07bf 2391 1d40 590c 123f
00000020: 9475 3740 fc04 f0bf fb81 a73f 7ef9 0d3f
00000030: 88cd a33e 6e82 9d3c 0eca 17c0 a03b 883f
00000040: ab82 cf3f c7c6 823d a046 d73e 273f 153e
00000050: 7f0b 0f40 76c6 7d3f a755 653f 8c68 763f
00000060: 4288 aa3f 3690 ef3f 1800 0f3f 5a4f 313f
00000070: 6901 acbd 17dd 3a3e 6fc4 da3f 6827 0740
00000080: b8c1 7e3f 118c e83c f47e eb3e aed4 1b40
00000090: d598 65bd 3d00 57bf 3931 0a40 6f88 1940
000000a0: 8746 973f 6c2d b43f 52a4 a03f 19cf 8d3f
000000b0: e84f af3f 3984 243f 6d51 743e a5b7 c63f
000000c0: 7194 cb3f a07e 653f 49a2 0c3f abdc 4d3e
000000d0: 9933 65be b348 303f 8eed 3940 e745 e7be
000000e0: 8baa e53f 31f4 423f 51e6 393f 0ce0 533f
000000f0: 0a31 0b40 3826 683f c090 68bf a2df ab3d
00000100: 43bc 8b3f 6a6e b13f 9d7c 893f 8f92 463f
00000110: 6aad 8c3f 5d22 0a3e 2da1 02be a746 07bf
00000120: a594 833e 104c f83e 241a 12be b862 03bf
00000130: 1105 eb3f f883 9cbe 3f07 853f a935 5e3f
00000140: de78 4fbf 5468 af3f 18b4 c93e 7800 dd3e
00000150: 96e9 b23e 7346 fabf 18f6 0040 f72b 343f
00000160: b18e 9a3e 8d89 943f a7ec ba3f cac0 b13f
00000170: d05f 88bf 4b62 77be 6670 5c3f 35b6 843e
00000180: cc5c e43f 49bf 1b3d 0f93 933f ec4c 1840
00000190: 66fe 9e3f d8ed 2c40 846d cf3f 0793 3f40
000001a0: 73b3 5b3f 1ec6 91bf 516e 1840 88ae b13f
000001b0: 2fbb ad3f 98e6 ff3e caee b43e 3937 2440
000001c0: 88bd 843f 42bf a33f bdfa 043f 4cd0 2d40
000001d0: e5de 103f c23c a43f 2206 aebf a3f4 853f
000001e0: e8fc 8f3c 5262 ab3e 8178 e03f fbbd 8c3e
000001f0: e53d 823d 3d95 cf3e e37f c53e cc42 8b3e
00000200: d31c fc3f c1ef 7440 693e 383f 06e2 a2bc
00000210: 4a7d e03f 8cfd 563f 0a50 7f3f 1f20 0f40
00000220: 1813 b33f d579 633f 990f 723d 3f8d 843e
00000230: 038c 0740 541c f23e 93a6 813f cfc9 0e40
00000240: e571 f0bf 1c33 c13f ad40 c33f 2624 44bd
00000250: 53a1 4e3e 4a1e 2640 1c9f b0bf 38ca 573f
00000260: 368b ce3f e44d be3e 010c e03f bc10 de3a
00000270: 758d fabe fb5e 1b40 bbb8 cbbe a48a e9be
00000280: f303 4b3f 1a9a 883f be41 033e 79fc 4e3f
00000290: 84cc 783f 3faa aebf 3480 743f 2230 883f
000002a0: 5539 c93f 5203 523f c3be 8d3f 03d9 54bf
000002b0: 3463 28bf be20 0f3f 9dc6 2d40 9057 db3f
000002c0: b808 843f 2447 a63f 845f 333f a211 ba3f
000002d0: 8268 b1ba 5653 963f 33a5 6c3f 3ecb 453f
000002e0: 70d6 f33e 925f d03f 0791 a63f 4ebd 96be
000002f0: 8b90 763e 8c08 3240 817b 81be 0210 5640
00000300: defe d63f bf1a 10bf 3e14 573f 9ec1 8bbc
00000310: a9f2 81bf 7e52 4ebf e43c 973f dd70 c2bf
00000320: f051 713f add0 10bd e3d2 123e 9f2d ff3e
00000330: 1f97 4ebf 5447 1cbf 8ecf f93f 3a67 0cbf
00000340: f77d 03be e458 2b3f f8cd ea3f 2aa1 8abf
00000350: 05e4 f6bc f6bd 9c3f 4c60 1d40 d339 babf
00000360: 9575 32be 5475 943f 9d36 19bd ff10 bfbd
00000370: a96b e53f e646 973b e498 dd3f 1dac 503e
00000380: 0a64 bdbc 36e9 a4bf 4d12 1840 a7ae b5be
00000390: 854c ae3f 403c 0240 346a 923f 9c9b 0440
000003a0: 2190 b13e 4488 873f 48a7 3a3f fa66 823d
000003b0: 4e01 603e a9d1 753f f4a5 443f 0502 063f
000003c0: 79e4 0e3d 1c2f c53f 9553 873e 6021 9c3f
000003d0: 3064 f1be e840 f73f 4917 953e ce9a 143f
000003e0: 66dd 8d3f ab08 6f3d 268c 2440 a608 85bf
000003f0: 4a0a 1e3f 14b1 e63d 7529 9ebf ec14 ef3f

action_out.bias f4 [5]
1.8398111 0.29899228 0.85789186 0.4101093 0.663826
00000000: ee7e eb3f 8415 993e cd9e 5b3f d9f9 d13e
00000010: 80f0 293f

weight f4 [256, 123]
-2.0800707 -0.011710794 0.4196427 -0.0131747 0.4060098 0.0812294 0.101381585 -0.61483413
2.3349895 0.07118898 0.052782573 -0.2945647 0.20272782 -0.22618231 0.45832106 -0.6576943
-0.6425294 -0.56383383 0.20801508 -0.45943192 0.5364634 -2.2001116 0.7930618 1.7476094
-0.62620443 0.17159691 -0.15812156 -0.043536633 -0.006169626 -0.028694725 0.005752574 0.05667416
-0.07306644 -0.014484003 -0.026064321 -0.1581247 -2.1416276 -0.19500317 0.15944141 -0.15440427
0.5086585 0.045725603 0.069489256 -0.36621562 0.029381579 0.41724384 -0.15345079 -0.2948561
0.19000605 -0.20236811 0.39904806 -0.85517675 0.91089547 0.028718613 0.06393174 -0.5682775
0.56818116 -2.146455 0.948144 1.9103177 -1.6914066 0.35182768 -0.5292758 0.04585737
0.016383348 -0.008271397 -0.028360954 -0.07487529 -0.054169737 -0.06208031 0.07670093 -0.22892892
-2.0586228 -0.45423153 0.6850699 -0.036251 0.5009793 0.016666971 -0.0083643235 -0.8354805
0.1177862 -0.17626506 0.2955853 -0.21597333 0.17352346 -0.22944906 0.34507433 -0.55592406
0.010832692 -0.1967071 0.3884814 -0.47397062 0.690071 -2.1752207 0.9309085 3.51426
-1.7116989 -0.02606982 0.038905166 0.059884224 -0.023788355 0.09350146 0.040667936 0.028537378
-0.0073762983 -0.0075319335 -0.0014736948 -8.117709 0.09190314 0.066923544 -0.044080634 -0.029347988
0.11964812 0.027386067 -0.0024020218 0.08082825 0.09280894 -0.014836446 0.016054627 0.113261156
-0.057244316 -0.16517879 0.110826895 -0.30905986 -0.22324212 0.016446557 -0.11637862 -0.017346054
-0.123314 0.12128643 1.3214983 0.78503174 -0.08090423 0.009153888 -1.0085673 0.36334416
-2.4114654 0.7871966 1.7388761 -1.0525659 0.7702889 -0.5611119 -0.4277257 -0.48069537
-1.1620789 -0.26303795 -0.14334032 0.19880538 0.5243482 0.24963747 -0.3883206 -0.0917764
0.09129155 0.1504183 -0.02668933 -0.40544114 0.061889358 0.06298939 0.8025833 -0.25518644
-0.92229235 0.2765517 -0.11876013 -0.063426815 -0.1299138 0.012785999 -1.0062182 0.8515141
-0.8338693 0.647148 -0.8564474 0.31110373 -2.4603918 0.790456 2.4359744 -2.8503792
0.0054571554 -0.033712078 -0.3649567 -0.46731427 -1.0620406 -0.40720108 -0.8091066 1.0265298
-0.56177384 1.0391011 -0.42294374 0.098990016 -0.041171525 0.09745166 -0.09190082 0.08797792
-0.46446756 0.042632826 -1.1914911 -0.28503042 -0.5241965 -0.42078918 -0.26353288 -0.055383038
-0.20002706 0.14073749 -0.70160556 0.40652293 -0.6205224 -0.36155513 -0.91521823 0.25836542
-2.4642406 0.77598053 1.0497122 -1.5422341 0.48131782 -1.1426306 -0.48120973 -0.45200017
-1.0101888 -0.2574559 0.4655528 -1.8946862 0.0016036034 0.07631341 -0.40426818 0.24224535
-0.08609981 0.08094089 -0.020877322 0.04379534 0.06620043 -0.44664517 -2.8857064 -0.004577266
-0.08215751 0.22026742 -0.12195289 -0.20638838 -0.043595288 0.17370944 0.07319395 -0.22639735
0.25496563 -0.0063583967 0.012135697 0.17617045 0.105170935 -0.24396108 -0.05086512 -0.02661424
0.058117777 0.07230186 -0.008201131 -0.048385624 0.033485916 -0.0075618546 0.076004416 0.0516342
00000000: e11f 05c0 a1de 3fbc 68db d63e b2da 57bc
00000010: 84e0 cf3e 9a5b a63d 26a1 cf3d c565 1dbf
00000020: 7870 1540 87cb 913d 8a32 583d 2fd1 96be
00000030: e297 4f3e 569c 67be 0fa9 ea3e a75e 28bf
00000040: cf7c 24bf 6a57 10bf e801 553e a93a ebbe
00000050: aa55 093f a1ce 0cc0 1906 4b3f aab1 df3f
00000060: ef4e 20bf 1ab7 2f3e 9eea 21be 7853 32bd
00000070: 932a cabb 3311 ebbc 1780 bc3b 2a23 683d
00000080: dca3 95bd 504e 6dbc d884 d5bc 71eb 21be
00000090: 6d10 09c0 e9ae 47be 9c44 233e 271c 1ebe
000000a0: 7237 023f c54a 3b3d 6250 8e3d 9d80 bbbe
000000b0: a3b1 f03c fca0 d53e 3422 1dbe 61f7 96be
000000c0: f290 423e 9639 4fbe 0750 cc3e ddec 5abf
000000d0: 7230 693f 4c43 eb3c a5ee 823d a27a 11bf
000000e0: 5274 113f 855f 09c0 91b9 723f 4a85 f43f
000000f0: 0380 d8bf c222 b43e 9e7e 07bf f0d4 3b3d
00000100: 5f36 863c c184 07bc 3b55 e8bc 3758 99bd
00000110: 16e1 5dbd ec47 7ebd 6115 9d3d 586c 6abe
00000120: 7ac0 03c0 0991 e8be be60 2f3f ee7b 14bd
00000130: 2e40 003f 2c89 883c 840a 09bc 0de2 55bf
00000140: e439 f13d d47e 34be f556 973e 1d28 5dbe
00000150: 22b0 313e b2f4 6abe 95ad b03e 0a51 0ebf
00000160: 9a7b 313c 966d 49be 09e7 c63e 47ac f2be
00000170: 7ea8 303f d136 0bc0 0550 6e3f a3e9 6040
00000180: f318 dbbf 6090 d5bc 065b 1f3d 2949 753d
00000190: ccdf c2bc b27d bf3d 6c93 263d 38c7 e93c
000001a0: e0b4 f1bb 70ce f6bb fe28 c1ba 23e2 01c1
000001b0: b737 bc3d 360f 893d e58d 34bd 316b f0bc
000001c0: 130a f53d bf58 e03c 3d6b 1dbb 4889 a53d
000001d0: 9d12 be3d 9114 73bc fe84 833c 77f5 e73d
000001e0: 0479 6abd a124 29be 36f9 e23d 183d 9ebe
000001f0: 9599 64be eeba 863c ea57 eebd 5019 8ebc
00000200: 0d8c fcbd 0565 f83d db26 a93f d7f7 483f
00000210: 1eb1 a5bd 30fa 153c bc18 81bf 3f08 ba3e
00000220: 7355 1ac0 b785 493f 7e93 de3f 7bba 86bf
00000230: a731 453f 08a5 0fbf ddfe dabe b41d f6be
00000240: 00bf 94bf e9ac 86be cec7 12be a393 4b3e
00000250: af3b 063f f7a0 7f3e f5d1 c6be 44f5 bbbd
00000260: 10f7 ba3d 4107 1a3e 95a3 dabc fb95 cfbe
00000270: b27f 7d3d 9500 813d 1976 4d3f cca7 82be
00000280: 5a1b 6cbf 2f98 8d3e 8338 f3bd ebe5 81bd
00000290: 2008 05be 5e7c 513c c2cb 80bf d4fc 593f
000002a0: 7578 55bf 7eab 253f 2340 5bbf fd48 9f3e
000002b0: 0f77 1dc0 535b 4a3f 01e7 1b40 9d6c 36c0
000002c0: f0d1 b23b ad15 0abd 9bdb babe d143 efbe
000002d0: f2f0 87bf a97c d0be 9c21 4fbf 5465 833f
000002e0: 69d0 0fbf 4401 853f 158c d8be 47bb ca3d
000002f0: 79a3 28bd bc94 c73d 7f36 bcbd c52d b43d
00000300: b1ce edbe c29f 2e3d c882 98bf 82ef 91be
00000310: be31 06bf ae71 d7be c8ed 86be 53d9 62bd
00000320: e5d3 4cbe 7d1d 103e 6c9c 33bf c623 d03e
00000330: 8eda 1ebf c11d b9be be4b 6abf 7948 843e
00000340: 1eb6 1dc0 a9a6 463f f85c 863f ed67 c5bf
00000350: 4a6f f63e b841 92bf 1f61 f6be 916c e7be
00000360: de4d 81bf 42d1 83be f05c ee3e 1485 f2bf
00000370: 0030 d23a 354a 9c3d 3dfc cebe 2a0f 783e
00000380: 1955 b0bd 56c4 a53d eb06 abbc be62 333d
00000390: 1794 873d adae e4be 6aaf 38c0 e4fc 95bb
000003a0: 3242 a8bd c88d 613e 70c2 f9bd 7a57 53be
000003b0: f990 32bd e3e0 313e b6e6 953d b5d4 67be
000003c0: db8a 823e 195a d0bb cdd4 463c 0766 343e
000003d0: dc63 d73d efd0 79be f257 50bd 1b06 dabc
000003e0: e80c 6e3d ff12 943d 095e 06bc 0130 46bd
000003f0: 8728 093d 6fc9 f7bb 34a8 9b3d 627e 533d

bias f4 [256]
-0.00498823 -0.51029265 -0.10051206 0.21639985 -0.05811022 0.011222329 -0.18640321 0.016551942
-0.14329422 -0.10447296 -0.038083166 -0.7173135 -0.21502912 0.055426463 -0.10593471 -0.07535121
-0.026579289 -0.120314725 0.054196622 -0.06653019 -0.6543823 -0.5970905 0.110301256 0.028544417
-0.027395217 -0.021923246 -0.08280527 0.0056547415 -0.15783475 0.6536896 0.1378615 -0.07295729
-0.023953421 -0.11294837 -0.03265708 -0.06770291 -0.6465656 -0.11134272 -0.102262154 -0.17963652
0.038791526 -0.11647443 0.040830266 0.0048713903 -0.5160836 0.06627519 -0.26951867 -0.07580485
-0.02329971 -0.05915204 0.029336097 -0.019222155 -0.12037792 0.5840541 -0.07090787 -0.65287364
-0.16417561 -0.03733652 -0.0964372 -0.043025963 0.23133314 -0.09984662 -0.067125455 -0.043274913
-0.06497322 -0.05939135 -0.50284714 0.02093632 0.036674652 -0.021169448 0.290544 -0.027829418
0.55240846 -0.037927568 0.69737583 0.037287354 0.04821401 -0.51681083 0.04203624 -0.36425054
0.031884994 -0.09531615 -0.2295506 -0.059633307 -0.008814444 -0.12613642 -0.047928378 -0.062353488
-0.072008006 0.01386395 -0.1442225 0.0185967 -0.1019752 -0.9140361 0.0054149344 -0.022287972
0.0058355317 -0.117308296 -0.116649814 -0.9224586 -0.116187386 -0.053322077 -0.066016 -0.12184666
-0.15543452 -0.78570265 -0.011502704 0.046152018 -0.008973297 0.026071902 -0.06308604 -0.11241479
-0.07189062 0.24351746 -0.06814281 -0.058396343 -0.022586307 0.029965745 -0.08973214 -0.03151946
-0.0700993 -0.12981962 -0.08891595 -0.021500414 -0.101076946 0.28335512 -0.0708191 -0.0023858787
-0.03137775 -0.9058454 -0.37734774 -0.113794826 -0.08507499 -0.8086445 -0.04138177 -0.45397753
-0.038528502 -0.08599435 -0.092143446 -0.5806971 -0.050174028 -0.09512019 -0.13614555 -0.131738
-0.046382107 0.2236639 -0.09986535 0.86326903 -0.26358518 -0.022522127 0.43394637 -0.69401973
-0.22943275 -0.20451598 -0.16854554 -0.1044941 -0.08651231 -0.11999475 0.4540407 -0.03639768
-0.08236876 -0.04956093 -0.052518003 -0.06639618 -0.4819629 -0.13514651 -0.100135975 -0.07378837
-0.13539968 0.035989482 0.031370267 -0.0025248681 -0.06988293 -0.66280395 -0.06724096 0.045375843
-0.086314626 0.059612423 0.031405848 0.2111773 -0.07452543 -0.13534686 -0.7005246 -0.39994526
-0.050483026 -0.08508255 -0.006861709 -0.09374623 -0.040694553 0.0038434386 -0.21648698 -0.12050542
-0.027769346 -0.13249275 0.7582254 -0.19308466 -0.47051594 -0.057625495 -0.008403886 -0.056811076
-0.48490977 -0.053121593 -0.9648127 -0.061062496 0.05610955 -0.0372167 -0.08733188 -0.05084639
-0.27504262 0.026431559 -0.68048066 -0.1281919 -0.18038096 -0.8872083 -0.5879614 -1.1461978
-0.12899539 -0.03996367 -0.111267254 -0.055133566 -0.031623166 0.01454924 -0.0749379 -0.08863021
-0.014947007 -0.12603776 -0.045043707 -0.009920432 -0.045575675 0.053025868 -0.07375903 -0.06433681
0.44828266 -0.3363101 -0.13767469 -0.8073454 -0.26080263 0.06309929 0.0032892022 0.7080829
-0.021767732 -0.097273916 -0.035341922 -0.07882018 0.016963605 0.011224847 0.0039222687 -0.47220275
-0.061571214 -0.69081914 -0.0011067729 -0.073989674 0.03975705 -0.08168257 0.01451498 -0.074562654
00000000: 4e74 a3bb 8aa2 02bf 44d9 cdbd ec97 5d3e
00000010: fb04 6ebd dcdd 373c 7ce0 3ebe f097 873c
00000020: b8bb 12be ebf5 d5bd 18fd 1bbd dca1 37bf
00000030: 9830 5cbe dc06 633d 4cf4 d8bd bc51 9abd
00000040: cfbc d9bc 9167 f6bd 47fd 5d3d fb40 88bd
00000050: 9985 27bf ecda 18bf a0e5 e13d fbd5 e93c
00000060: ef6b e0bc 6198 b3bc cf95 a9bd 694b b93b
00000070: 6f9f 21be 3458 273f 912b 0d3e a26a 95bd
00000080: f739 c4bc 7a51 e7bd 6ec3 05bd d3a7 8abd
00000090: 5385 25bf a707 e4bd d26e d1bd a3f2 37be
000000a0: dde3 1e3d 258a eebd a33d 273d 2fa0 9f3b
000000b0: 0e1e 04bf 49bb 873d 5afe 89be 933f 9bbd
000000c0: 09df bebc 6949 72bd 4152 f03c c877 9dbc
000000d0: b388 f6bd 9284 153f 2538 91bd ba22 27bf
000000e0: a71d 28be 2eee 18bd de80 c5bd fe3b 30bd
000000f0: 98e2 6c3e 627c ccbd 1279 89bd 0941 31bd
00000100: ae10 85bd 5844 73bd 97ba 00bf a582 ab3c
00000110: 2938 163d 8d6b adbc 2fc2 943e 85fa e3bc
00000120: a46a 0d3f f059 1bbd 3987 323f a0ba 183d
00000130: 0e7c 453d b74d 04bf 312e 2c3d 0c7f babe
00000140: d799 023d 1d35 c3bd 500f 6bbe 0e42 74bd
00000150: 756a 10bc e829 01be 8c50 44bd 5f66 7fbd
00000160: ef78 93bd 9f25 633c 10af 13be 1b58 983c
00000170: 60d8 d0bd 45fe 69bf c36f b13b 4495 b6bc
00000180: fd37 bf3b 553f f0bd 19e6 eebd 3f26 6cbf
00000190: a7f3 edbd 4068 5abd 6633 87bd be8a f9bd
000001a0: 3a2a 1fbe cf23 49bf d675 3cbc e609 3d3d
000001b0: bc04 13bc be94 d53c 4133 81bd ba39 e6bd
000001c0: 643b 93bd a45c 793e 758e 8bbd 0131 6fbd
000001d0: eb06 b9bc b97a f53c 7cc5 b7bd 8d1a 01bd
000001e0: 3990 8fbd 6fef 04be 9119 b6bd a321 b0bc
000001f0: 6e01 cfbd ec13 913e 9b09 91bd 675c 1cbb
00000200: f585 00bd 7ce5 67bf b933 c1be 430d e9bd
00000210: cc3b aebd 5303 4fbf ee7f 29bd be6f e8be
00000220: 10d0 1dbd ce1d b0bd b4b5 bcbd 91a8 14bf
00000230: 4883 4dbd 60ce c2bd bd69 0bbe 54e6 06be
00000240: 2afb 3dbd 2608 653e 3486 ccbd 33ff 5c3f
00000250: a3f4 86be 5380 b8bc 382e de3e 47ab 31bf
00000260: 6bf0 6abe a36c 51be 3497 2cbe 0101 d6bd
00000270: 5e2d b1bd cfbf f5bd 0678 e83e bc15 15bd
00000280: f4b0 a8bd 6700 4bbd 1e1d 57bd b8fa 87bd
00000290: d7c3 f6be d963 0abe 1714 cdbd 5b1e 97bd
000002a0: 37a6 0abe b569 133d 1c7e 003d 4278 25bb
000002b0: c81e 8fbd 85ad 29bf a1b5 89bd 05dc 393d
000002c0: b9c5 b0bd 282c 743d 6ba3 003d dd3e 583e
000002d0: caa0 98bd 5e98 0abe 9555 33bf a0c5 ccbe
000002e0: 4ac7 4ebd c33f aebd 30d8 e0bb 06fe bfbd
000002f0: 55af 26bd 33e2 7b3b c3ae 5dbe 8ccb f6bd
00000300: 8a7c e3bc 2eac 07be 0f1b 423f fcb7 45be
00000310: 77e7 f0be b608 6cbd 74b0 09bc bbb2 68bd
00000320: 1846 f8be 0796 59bd f7fd 76bf ab1c 7abd
00000330: 21d3 653d 8a70 18bd 0fdb b2bd 4e44 50bd
00000340: 63d2 8cbe ff86 d83c fb33 2ebf bd44 03be
00000350: c9b5 38be 1520 63bf a384 16bf 9cb6 92bf
00000360: 5e17 04be f2b0 23bd 16e0 e3bd bcd3 61bd
00000370: 4b87 01bd ef5f 6e3c 0b79 99bd c183 b5bd
00000380: 4be4 74bc 0b10 01be c07f 38bd 4f89 22bc
00000390: 8fad 3abd a731 593d f90e 97bd 04c3 83bd
000003a0: 4e85 e53e d630 acbe 98fa 0cbe 30ae 4ebf
000003b0: ec87 85be 333a 813d a88f 573b ec44 353f
000003c0: 3e52 b2bc 8c37 c7bd b1c2 10bd 796c a1bd
000003d0: 42f7 8a3c 6ce8 373c 6086 803b 8fc4 f1be
000003e0: 1932 7cbd 86d9 30bf 2311 91ba e687 97bd
000003f0: 4ad8 223d 3149 a7bd 3dd0 6d3c 4eb4 98bd

weight f4 [256, 256]
-0.0006621006 -0.0122784935 0.040988266 0.052412372 0.016287167 0.015398653 0.017420473 0.031097557
-0.1347987 -0.04953384 -0.004772755 -0.034621276 -0.00684038 -0.041467197 -0.027500365 -0.0032406796
0.019398166 -0.06615665 0.026356457 -0.024066016 -0.09604807 -0.06481101 0.0111787915 -0.061690856
-0.048737604 0.028163934 0.014572457 -0.021591298 -0.095261276 -0.08991705 -0.032942843 -0.050649226
-0.02204993 -0.051604174 0.016571483 -0.019705772 -0.026396755 0.007988565 -0.03514344 -0.035615552
-0.06348227 -0.013114746 0.06076449 -0.05022673 -0.0070879282 0.028725818 -0.032841336 0.0022528407
-0.015414608 0.030346174 -0.035313997 -0.03809279 0.057598423 -0.022618799 0.034629513 -0.009547913
0.013712452 0.02442251 -0.050823465 -0.0073482203 -0.028108487 0.027547963 0.0347919 -0.06216313
-0.00919953 -0.050347786 0.03540286 0.009995074 0.039074946 0.01967582 -0.05775894 0.038042333
-0.00453295 0.03474783 0.012641085 0.039571095 -0.008171147 0.031343892 -0.030600477 -0.0005534496
0.008114074 -0.008137244 0.017521506 0.03256286 -0.007457248 -0.074033074 -0.06404487 -0.002359548
0.03999901 0.031018069 -0.02494546 -0.07323139 -0.059107553 -0.008797578 0.022806315 -0.018333001
-0.027120288 -0.042543933 -0.021628221 -0.032895364 -0.015187009 0.053311978 -0.05068223 -0.03871527
0.00938503 -0.019329367 0.02583957 -0.0060282797 0.013796912 -0.0091239605 0.021968655 -0.0312238
-0.036949515 -0.062048484 0.05144397 0.046621516 0.025517125 0.055043295 -0.024458015 0.04853366
0.0137822265 -0.017967729 -0.029796075 0.04179522 -0.042939894 -0.114881136 0.0071943654 -0.023891447
-0.035286516 -0.0048297173 -0.0004609814 0.021760503 -0.047552954 -0.22053008 0.083683774 -0.06570822
-0.031405937 -0.05239745 -0.07870279 -0.0761741 0.031320307 0.05192153 0.029225 0.0013510692
-0.023987686 -0.030820057 0.013696488 -0.10550537 -0.0017762406 0.002873264 -0.026061574 -0.029666375
-0.05809594 -0.018770518 -0.07722287 -0.06876357 -0.08444254 -0.068477124 -0.012246516 -0.052380946
0.0018299714 -0.023041582 0.055014648 -0.041439556 -0.03546817 0.028265638 -0.030957907 0.0031227993
0.04689771 0.056597654 0.055602796 -0.07314603 -0.025944304 -0.04214545 -0.037356585 -0.0632812
-0.024196878 -0.018348223 -0.045219116 0.055199426 0.043600004 -0.0358905 0.020074287 -0.051903166
-0.016049767 0.028396782 0.02127927 -0.0036811898 0.04630707 0.029119313 -0.034545135 -0.060630538
-0.026963681 -0.019721724 -0.018103562 -0.093566604 -0.035790537 -0.02242567 0.058607288 -0.05544508
-0.07318085 -0.0052120383 -0.06478871 -0.031585462 -0.03175024 -0.06906357 -0.06867627 0.003894669
-0.017810713 -0.02510363 -0.05254609 0.048101414 0.044477142 -0.073278196 0.030788783 -0.015469587
-0.034058925 -0.054152854 0.044370282 0.0093082795 -0.04776391 -0.051087137 0.0259237 0.055331558
0.0037011197 0.02014295 -0.042615574 0.03543837 0.043592 -0.010831229 0.045600813 -0.020532683
-0.049060322 0.0017595188 -0.034553457 -0.07700215 0.08405844 0.038799748 0.049729124 0.012945406
0.0430655 -0.03367269 0.055534445 -0.03601532 -0.0056055062 0.06259544 -0.0063988985 -0.023183703
-0.05535084 -0.033256076 0.048961163 0.026828205 0.014891827 0.060308777 -0.037538704 -0.041459464
00000000: d290 2dba bc2b 49bc 50e3 273d 5bae 563d
00000010: aa6c 853c a24a 7c3c 61b5 8e3c 4ec0 fe3c
00000020: ac08 0abe ffe3 4abd c564 9cbb 0acf 0dbd
00000030: 4425 e0bb 82d9 29bd 7248 e1bc 9561 54bb
00000040: e7e8 9e3c 237d 87bd 7fe9 d73c 1826 c5bc
00000050: dab4 c4bd a3bb 84bd 4027 373c 8daf 7cbd
00000060: 15a1 47bd 0db8 e63c 51c1 6e3c 3ce0 b0bc
00000070: 5818 c3bd 6e26 b8bd 13ef 06bd 9075 4fbd
00000080: 0ea2 b4bc e65e 53bd ebc0 873c 006e a1bc
00000090: 023e d8bc 78e2 023c 91f2 0fbd 9de1 11bd
000000a0: fe02 82bd 3bdf 56bc 30e4 783d 8bba 4dbd
000000b0: da41 e8bb 6852 eb3c a384 06bd 65a4 133b
000000c0: 8d8d 7cbc 8a98 f83c 69a5 10bd 2f07 1cbd
000000d0: 53ec 6b3d 0f4b b9bc add7 0d3d da6e 1cbc
000000e0: 31aa 603c b711 c83c 442c 50bd 57c9 f0bb
000000f0: c543 e6bc 44ac e13c f481 0e3d c49e 7ebd
00000100: a0b9 16bc 7b39 4ebd 9702 113d 61c2 233c
00000110: 0d0d 203d 2f2f a13c a394 6cbd 47d2 1b3d
00000120: 2489 94bb be53 0e3d 8e1c 4f3c 4d15 223d
00000130: 46e0 05bc 7462 003d daad fabc 6015 11ba
00000140: e5f0 043c 1352 05bc 4389 8f3c a260 053d
00000150: ee5b f4bb a79e 97bd f529 83bd a5a2 1abb
00000160: 00d6 233d 9b19 fe3c 6c5a ccbc 57fa 95bd
00000170: c31a 72bd b723 10bc 4fd4 ba3c 172f 96bc
00000180: 5e2b debc 8c42 2ebd ab2d b1bc 4abd 06bd
00000190: efd2 78bc a95d 5a3d 2c98 4fbd e793 1ebd
000001a0: abc3 193c 9f58 9ebc 82ad d33c e088 c5bb
000001b0: 710c 623c aa7c 15bc 9cf7 b33c 0ec9 ffbc
000001c0: 6058 17bd 8d26 7ebd eab6 523d 34f6 3e3d
000001d0: 4a09 d13c 1475 613d 2d5c c8bc 3bcb 463d
000001e0: d9ce 613c 0f31 93bc e616 f4bc 7731 2b3d
000001f0: bee1 2fbd cd46 ebbd b6be eb3b ffb7 c3bc
00000200: 9888 10bd 9b42 9ebb e0af f1b9 1543 b23c
00000210: e3c6 42bd a3d2 61be 6662 ab3d 0892 86bd
00000220: 83a3 00bd b59e 56bd ee2e a1bd 2b01 9cbd
00000230: b949 003d acab 543d 4469 ef3c 5c16 b13a
00000240: d381 c4bc 587a fcbc 3c67 603c 3313 d8bd
00000250: bfd0 e8ba 5f4d 3c3b 157f d5bc e606 f3bc
00000260: 02f6 6dbd a1c4 99bc 0627 9ebd ead3 8cbd
00000270: 36f0 acbd bc3d 8cbd 9ca5 48bc 678d 56bd
00000280: a7db ef3a b3c1 bcbc 0a57 613d 86bc 29bd
00000290: 1247 11bd 578d e73c 709b fdbc e1a7 4c3b
000002a0: d017 403d f1d2 673d c2bf 633d 96cd 95bd
000002b0: 2689 d4bc b5a0 2cbd 3803 19bd 9399 81bd
000002c0: 8838 c6bc 034f 96bc ae37 39bd cb18 623d
000002d0: eb95 323d eb01 13bd d572 a43c 6a98 54bd
000002e0: cd7a 83bc 5ea0 e83c dd51 ae3c 1e40 71bb
000002f0: 7bac 3d3d a08b ee3c 337f 0dbd ba57 78bd
00000300: f0e2 dcbc 748f a1bc ec4d 94bc d99f bfbd
00000310: 1999 12bd 0ab6 b7bc 320e 703d 611a 63bd
00000320: d7df 95bd bfc9 aabb f1af 84bd c25f 01bd
00000330: 8a0c 02bd 3371 8dbd 25a6 8cbd b43d 7f3b
00000340: c6e7 91bc 21a6 cdbc 923a 57bd fd05 453d
00000350: aa2d 363d e112 96bd c238 fc3c 2774 7dbc
00000360: 5f81 0bbd 62cf 5dbd 9dbd 353d c181 183c
00000370: 17a4 43bd bf40 51bd f05d d43c 58a3 623d
00000380: 7c8e 723b d402 a53c ab8d 2ebd d327 113d
00000390: 868d 323d 7875 31bc ebc7 3a3d 2834 a8bc
000003a0: 7af3 48bd a79f e63a ed87 0dbd 4eb3 9dbd
000003b0: d526 ac3d 7cec 1e3d c4b0 4b3d f818 543c
000003c0: 7365 303d 60ec 09bd 1678 633d cd84 13bd
000003d0: 65ae b7bb 0a32 803d daad d1bb c0eb bdbc
000003e0: 90b7 62bd 8637 08bd 808b 483d d3c6 db3c
000003f0: d9fc 733c 5606 773d 2fc2 19bd 66d1 29bd
