saved_models_1/125_6792_model.pt (torch, 701697 bytes, 11 tensors)

FC1.weight f4 [256, 36]
000000 24 8d 2c be 21 68 a3 3e 55 d1 49 3e 5b 7b b8 be
       -0.16850716 0.31915382 0.1970876 -0.36031613
000010 01 de 97 3f e2 5d 8e 3f 73 53 c6 be 91 09 02 c0
       1.1864625 1.1122401 -0.38735542 -2.031834
000020 d5 f6 8c 3f ee 15 8d 3f 38 da 16 c0 57 6f af 3e
       1.1012827 1.1022317 -2.357069 0.34264633
000030 27 e9 3c bf 37 3b c8 3e 3d 3b ad 3e ed 0d d6 3d
       -0.7379326 0.39107677 0.33834258 0.10451875
000040 1a fb 2b bf 38 74 43 be 1c 39 b0 3f b1 6a df 3e
       -0.67180026 -0.19087303 1.3767428 0.43636087
000050 04 1b 9d 3f 9a b5 30 3f 0d e9 b3 bf 4c f4 93 be
       1.227387 0.690271 -1.4055496 -0.2889732
000060 31 12 1a 40 35 57 e1 3e 57 60 e3 bf 4a c0 7c be
       2.4073603 0.44011846 -1.7763776 -0.24682727
000070 96 3d fb 3e 42 72 57 be b9 e7 35 3b ad f2 30 bd
       0.49070424 -0.2103968 0.0027756526 -0.043200184
000080 b9 39 97 c0 52 04 18 bf 3b 8c 73 3f af b8 2c c0
       -4.725796 -0.5938159 0.9513585 -2.6987722
000090 ed 12 99 bc 78 a0 3a 3d 0b 24 ad bd fe 05 c6 3e
       -0.018685782 0.04556319 -0.0845414 0.38676447
0000a0 4f fd 86 bf 74 53 a3 3d 39 da 96 3f 52 94 39 3e
       -1.0546054 0.07974902 1.1785346 0.18122986
0000b0 aa 1b eb bf 8c 62 19 bf 8a 58 0e 40 22 61 34 bf
       -1.8367817 -0.59915996 2.224154 -0.7046071
0000c0 45 b0 af bf 1c d7 d3 bd 2c a7 40 3f 8f bc 60 bc
       -1.3725668 -0.10343763 0.75255084 -0.013716831
0000d0 ef 0b d2 bf 9f aa 1d 3f 49 82 23 40 27 f8 27 3f
       -1.6409892 0.6158847 2.554827 0.65613025
0000e0 ba 95 4d 3d 97 99 23 bf 99 03 12 bf 96 0a c4 3f
       0.05019162 -0.63906235 -0.5703674 1.531573
0000f0 d1 ee fa 3f 94 9b 5b be 50 9f 90 bf aa 58 41 be
       1.9604131 -0.21446067 -1.1298618 -0.18881479
000100 e4 59 76 3e 80 de cf 3e 3d af 93 3e 8b c4 40 3f
       0.24057728 0.40599442 0.28844634 0.752999
000110 48 9c 4f c0 00 1e 45 c0 20 99 f6 3f d2 d5 19 3f
       -3.2439137 -3.079956 1.926548 0.6009189
000120 15 9c 0d bf ef 52 b3 3f be 46 31 bf 04 35 59 3f
       -0.5531629 1.4009684 -0.6924857 0.8484652
000130 99 c6 89 bf 48 66 ed 3f a5 0f 5a c0 a6 71 e8 bf
       -1.0763732 1.8546839 -3.4072049 -1.8159683
000140 68 15 33 40 4b 27 29 3f 3f af 8f 3e b0 9d 00 3f
       2.7981815 0.6607558 0.2806339 0.5024061
000150 bf 20 49 bf 04 ee a8 3f eb fc 8d be 8b b6 81 bf
       -0.7856559 1.3197637 -0.27732024 -1.0133833
000160 68 f9 13 bf d7 c4 01 40 b2 64 7c be 5f 6f a6 3f
       -0.5780244 2.0276392 -0.24647787 1.3002738
000170 1a 2d a0 bf ff 18 02 3f f5 bd cd 3e eb d7 d2 3f
       -1.2513764 0.5081939 0.40183988 1.6472143
000180 fc ae eb bf 59 44 2a 3f 0f 7c 60 3f e7 57 7c bf
       -1.8412776 0.6651054 0.876893 -0.9857163
000190 ed e4 5d 3e f8 a2 9c be 15 c7 65 be bb fb f6 bd
       0.2166936 -0.30593085 -0.22439225 -0.120597325
0001a0 5b a8 8d 3e 0d 02 ee be 4c c8 e2 c0 a7 06 ed bf
       0.27667508 -0.4648594 -7.0869503 -1.8517655
0001b0 df de d0 c0 6f 2e 58 3f 44 ec 5e 3e 5f 28 e3 3e
       -6.527206 0.8444585 0.21769816 0.44366738
0001c0 93 01 39 bf cb 51 71 bf 81 cc 27 bd 0e 10 00 40
       -0.7226803 -0.9426543 -0.040966514 2.00098
0001d0 59 5f 79 bf 51 ec bb be cc 3c 89 3f 0b f5 88 3f
       -0.97411114 -0.36703733 1.0721679 1.0699781
0001e0 fc b9 8f bf b8 ce a0 be fb 49 8a 3e bf 9f 57 3f
       -1.1228633 -0.31407714 0.27009568 0.8422813
0001f0 4a b4 c1 bf 4a 16 86 bf 9e e9 bb 3f fe a0 ab bd
       -1.5133145 -1.0475552 1.4680669 -0.08380316
000200 65 07 f9 be 63 70 11 3f 35 a0 7b 3f b2 2d d8 bd
       -0.48638454 0.56812114 0.9829133 -0.10555591
000210 0a 5a 10 c0 11 65 ab 3f 53 8e da 3f 4d 6b a7 3e
       -2.2554955 1.3390218 1.7074684 0.32699051
000220 75 e4 8f c0 4d c1 d4 3f d2 0f e1 3e 74 85 96 c0
       -4.496638 1.6621491 0.43957382 -4.7037907
000230 c3 38 98 bf 8f 91 8a bf 48 cc 0b bf 3a 31 92 c0
       -1.1892322 -1.0825671 -0.54608583 -4.568509
000240 34 c2 0b c0 d4 7e 1b bf fd 8f 1e 3c 2d 52 f6 be
       -2.1837282 -0.607404 0.009677884 -0.4810957
000250 bf 6b e8 3f b9 7b 31 be 38 a3 4a bf bb 43 85 bf
       1.8157881 -0.17332353 -0.791553 -1.0411295
000260 4d 8b 71 40 c2 d4 fb 3e 79 af a4 c0 50 b3 43 bf
       3.7741272 0.4918576 -5.14642 -0.76445484
000270 af ce 59 3f 5a f3 86 bd 0f 88 9a bf 77 2d ee be
       0.85081 -0.065893844 -1.2072772 -0.46519062
000280 d0 77 09 40 ab 81 da 3e be 47 ce bf 6b ee 58 3f
       2.1479378 0.42677054 -1.6115644 0.84738797
000290 8e 55 12 3e 85 3a a0 bf 7e a6 a1 be 13 5b cb 3f
       0.14290449 -1.2517859 -0.31572336 1.5887169
0002a0 02 f4 51 3e 35 2b 1d c0 a8 8b 39 3e d4 c0 2c 3e
       0.20503238 -2.4557621 0.18119681 0.16870433
0002b0 dd 85 9e be c4 e6 0b 3f e6 1d a8 3e 76 d3 b7 bc
       -0.30961505 0.54648995 0.3283531 -0.0224397
0002c0 9f 68 53 3f fa ce 69 3f 06 7a 9c c0 63 c7 4f c0
       0.82581514 0.91331446 -4.8898954 -3.2465446
0002d0 94 1b 01 c0 19 21 f4 bd 28 a8 f9 bd 55 12 b1 3e
       -2.0173082 -0.119203754 -0.121902764 0.345843
0002e0 e3 06 56 bd 2b 9b 6a 3f 00 a3 c0 bf 1a 93 2e c0
       -0.05225266 0.9164302 -1.5049744 -2.7277284
0002f0 ad 8b e0 3f 98 78 79 bf 0c f1 94 3f 39 64 01 bf
       1.7542626 -0.97449636 1.1636062 -0.5054355
000300 b1 b0 27 bf bb da 15 3f 97 c6 ef be d0 b4 da bf
       -0.65503985 0.5853688 -0.468312 -1.708643
000310 fe 56 59 be 54 2a 05 bf c5 70 10 3f f9 25 a4 bf
       -0.21224591 -0.5201771 0.5642207 -1.2824088
000320 a2 f6 59 bf 67 c8 84 bf 2a ce 72 3f 5b b5 a4 3f
       -0.85141957 -1.0373658 0.9484583 1.2867845
000330 bf c0 30 c0 a9 c2 d4 3f 65 2c ba 3e 51 0f 4b 3f
       -2.7617643 1.6621906 0.36361995 0.79320246
000340 9e 5d 8e 3f cf 05 c1 c0 7b 57 9a c0 58 a6 8f bf
       1.112232 -6.031959 -4.823179 -1.1222639
000350 00 2a ca 3f fc e7 a6 bf dc f6 33 c0 b1 04 9e c0
       1.5794067 -1.3039546 -2.811942 -4.9380727
000360 37 ed d0 bb a4 8d c9 be 16 94 c3 bd 55 ee 7a be
       -0.0063759345 -0.39365876 -0.095497295 -0.24504979
000370 ea b1 09 3f bf c3 12 be 73 86 0b 3f 13 03 6a bf
       0.537871 -0.14332484 0.5450203 -0.9141094
000380 bc ca 9f 3d ac 02 3d 3e cf d0 b7 3e 7c 51 3e 3f
       0.078023404 0.1845805 0.35901496 0.74343085
000390 a8 ff 19 bf 5d 8c be bf eb 3a 66 3f ad 67 f7 3f
       -0.60155725 -1.4886585 0.8993365 1.9328514
0003a0 18 31 a5 bf 07 f8 da bf 0a d0 b3 3f 43 fd b5 3d
       -1.2905607 -1.7106942 1.4047863 0.088861965
0003b0 fa df de 3e 98 b8 c9 bf a3 e7 ee be 89 02 95 3f
       0.43530256 -1.5759459 -0.466611 1.1641399
0003c0 2d 7c 9d 3e c9 78 90 bf 43 b5 3f bf e7 82 9f 3e
       0.307588 -1.1286861 -0.7488596 0.31154558
0003d0 87 96 04 3e 1b 2b 38 3e 22 f1 d9 be f7 6e 4c bf
       0.12948047 0.17985193 -0.42566782 -0.7985682
0003e0 59 85 b5 3f 2a 1d 3a c0 88 3c 00 be 13 3b 2d 3f
       1.418132 -2.90803 -0.12523091 0.67668265
0003f0 13 fe c7 3e 4c be 47 be f4 63 45 bf 6c c4 42 bf
       0.3906103 -0.19506186 -0.7710564 -0.76080966

FC1.bias f4 [256]
000000 cc d1 b6 be 9c ab fa be 22 7d 77 bf ed e5 ae 3e
       -0.35706937 -0.48959053 -0.9667531 0.34159794
000010 4e cf 39 3e 59 c3 31 3f 9b bf e2 3d b1 6d 81 3e
       0.18145487 0.694387 0.11071702 0.25279
000020 48 7b 04 bf 6c 3f 96 bf ec c0 27 3c 1a 15 43 be
       -0.5175061 -1.1738105 0.010238867 -0.19051018
000030 e3 1c 25 bf b6 12 23 3f d0 a3 40 bf 51 d7 76 be
       -0.644972 0.63700426 -0.7524996 -0.24105574
000040 de 81 7c be a1 1c 96 bf 74 f9 66 3f 9b 1a 48 3f
       -0.24658915 -1.1727487 0.90224385 0.78165597
000050 0d 11 88 bd f7 cf e5 bd 3e b2 8f 3e dd 71 e1 be
       -0.06643877 -0.11221307 0.28065675 -0.44032183
000060 4a 3b a3 be 0d 1b 93 3d f2 dd 38 bf ff 90 0c 3e
       -0.3188117 0.07182894 -0.7221366 0.13727187
000070 fc e5 5c bf c0 01 cd bd 1d 76 a3 be 07 7d 0a bf
       -0.8628843 -0.100100994 -0.3192605 -0.54097027
000080 6c 65 3c bf e2 57 1a bf 4e ed 29 be c0 73 34 3f
       -0.7359226 -0.6029035 -0.16594431 0.7048912
000090 9e 92 92 be 63 52 46 bf a6 8b db be de 8b 23 be
       -0.28627485 -0.7746946 -0.4287998 -0.15971324
0000a0 a3 96 ea bd fb 61 cc be 22 95 24 3e 5e 92 49 bf
       -0.11454513 -0.39918503 0.16072515 -0.78738964
0000b0 b4 95 ec 3d 5b 53 fd bd 2b 16 9f bf cd 1c 9b be
       0.11551991 -0.123694144 -1.242864 -0.3029541
0000c0 bb a6 0b 3f cc 7d 0a bd 43 14 9a 3f ff 4b 48 be
       0.54551286 -0.033811375 1.2037433 -0.1956024
0000d0 e1 4e 3e bf f6 45 8d bf cf c5 1b 3d 0b dc a4 bf
       -0.7433911 -1.1036975 0.03803044 -1.2879652
0000e0 8c 24 35 be db 87 2d bc 6c ce 8b 3d 0e 5c 3e 3e
       -0.17689723 -0.0105914725 0.06826481 0.18589804
0000f0 43 80 57 be 17 92 45 3d 97 04 c8 3d 2e e4 0a 3f
       -0.21045022 0.048235025 0.097665004 0.54254425
000100 34 9b 05 3e 9f 00 4c bf 1a 26 d0 be b1 8e 10 be
       0.13047487 -0.7968845 -0.4065407 -0.14116932
000110 f5 6e 0d 3f 16 d3 ac bd 76 01 e6 be 92 03 ac be
       0.5524743 -0.08438699 -0.4492299 -0.33596474
000120 c2 4b 7b 3f b3 3b 04 40 36 93 41 3e 3e 13 fc 3c
       0.9816247 2.0661438 0.18903813 0.030770894
000130 6c 49 12 bf 67 74 20 bf 4e e9 39 bd f0 e7 59 3f
       -0.5714328 -0.62677616 -0.045388512 0.85119534
000140 c8 10 44 bf 44 5d 64 bf 2c fd ab 3e ae 31 f6 be
       -0.76588106 -0.8920481 0.33591592 -0.48084778
000150 a4 a7 17 3d 1d ef 12 3e cc 1b 3c be 3f 00 1a 3f
       0.03702511 0.14349027 -0.18369979 0.60156626
000160 e4 ca 99 bf 16 5f 04 3f 9d 01 fc 3c 91 6c 03 be
       -1.2015042 0.5170759 0.030762488 -0.12834384
000170 8f 13 d7 be c8 22 72 3f 99 d6 f3 be 93 cb fc 3d
       -0.4200711 0.9458432 -0.47624663 0.12343516
000180 cf 9d 86 bf af 92 72 3e 04 1f 92 bf 85 90 93 bf
       -1.0516909 0.23688768 -1.1415715 -1.1528479
000190 58 a8 84 be 01 b2 31 3e af 24 5c be 7d 10 59 bf
       -0.25909686 0.1735306 -0.21498369 -0.84790784
0001a0 71 a4 04 be 4c 48 28 3f a3 2b d0 3d 13 2b 06 be
       -0.12953354 0.65735316 0.10164573 -0.13102369
0001b0 62 66 92 be f2 fb f4 3e d2 7d 50 be 81 a9 89 bf
       -0.28593737 0.4784847 -0.20360497 -1.0754853
0001c0 52 9c 39 bf 36 19 2d be 18 1a fd be c0 21 71 3e
       -0.7250415 -0.16904148 -0.4943397 0.23548031
0001d0 1c 5a 2e bf ec 9b 05 be fc 04 df be b7 37 7e bd
       -0.68106246 -0.1304776 -0.4355849 -0.062064853
0001e0 ac 8e 55 bf 24 bb f2 be de 1d 2a 3f 5d 36 85 bd
       -0.83420825 -0.47408402 0.66451824 -0.065045096
0001f0 8e 76 88 bf 93 8a 1e bf 69 79 05 bf b1 14 4d bf
       -1.066118 -0.619302 -0.5213838 -0.801097
000200 ec 37 2f be d8 09 03 be 62 43 4d 3e e6 62 3d 3f
       -0.17111176 -0.12796724 0.20045236 0.7397903
000210 ea 09 be 3e 3a 49 2f 3e 4a 2c cd bd f6 7f 89 bf
       0.3711694 0.17117777 -0.10018213 -1.0742176
000220 db c0 26 bf 79 1b 97 3d ca 21 97 be c9 07 bc bd
       -0.65138024 0.07378287 -0.29517967 -0.091811724
000230 78 c1 6d be 8c 57 31 3d 55 5a 20 bf fc 8a 9e be
       -0.23218334 0.04329638 -0.62637836 -0.30965412
000240 7f d1 1c bf ee 78 48 bf f5 35 70 be 35 46 fd 3f
       -0.61257166 -0.78309524 -0.23458083 1.978705
000250 e2 f7 59 be 00 a1 98 3d 93 72 9c 3f 2f a6 0f 3e
       -0.21285966 0.07452583 1.2222465 0.14028238
000260 6a 04 4f be 4b 31 3b be 43 9d 87 3f d9 aa 1e be
       -0.20216528 -0.18280523 1.0594867 -0.1549486
000270 d7 aa 55 be d9 f0 03 3d 71 d4 72 3f 7d 2e 92 be
       -0.20865951 0.032212112 0.9485541 -0.28551093
000280 bf 38 35 bf 09 da 2e 3f ca 49 c1 3f c2 9a 0d 3e
       -0.7078971 0.68301445 1.5100644 0.13828567
000290 af 16 3d 3e 2b 35 99 3e a2 88 10 bf 1f 57 8f be
       0.18465684 0.29923376 -0.56458485 -0.27996156
0002a0 df 7d c6 3e 0d 0f 65 3e 08 f6 35 bf 40 13 32 bf
       0.38767907 0.22369023 -0.7107854 -0.69560623
0002b0 b6 cb 62 3f 9b e1 04 be db 69 1b 3f 71 4e 7d be
       0.8859209 -0.12976687 0.607084 -0.24736954
0002c0 fe 74 8d 3d 30 1a c7 bd ea 42 a3 bf be 0b 94 bf
       0.0690708 -0.09721792 -1.2754796 -1.1566083
0002d0 b9 0b 39 bc 33 d5 fb be 3b 08 24 bf 05 51 31 3e
       -0.011294299 -0.49186096 -0.6407506 0.17316063
0002e0 63 eb dd 3e 6d 98 32 be 87 53 70 bd 52 b1 a9 be
       0.43343648 -0.17440958 -0.058673408 -0.33143097
0002f0 0d b1 c5 3e 20 65 55 bf d7 c6 51 be bd 17 06 be
       0.38611642 -0.8335743 -0.20486008 -0.13094993
000300 29 57 ea 3e 42 68 8d 3e 65 b3 b6 3f ba aa 96 3e
       0.45769623 0.27618605 1.4273497 0.2942713
000310 90 05 75 bd 06 be e5 3c d0 87 df 3e 7a 33 80 3e
       -0.059819758 0.028044712 0.43658304 0.25039274
000320 ee f2 48 bf 43 4a 06 bf 68 ee e4 bc 8f 11 a4 be
       -0.7849568 -0.52457064 -0.027945712 -0.32044646
000330 dd bd 80 be 86 60 c0 3e d7 0c 6d 3f e1 6b 4e be
       -0.25144854 0.37573642 0.9259772 -0.2015834
000340 dd 59 e6 3d 81 e2 72 3f 60 b7 ca be 67 03 87 3e
       0.11247609 0.9487687 -0.3959303 0.26369783
000350 c5 6c 8a bf 20 16 59 bf f0 bf 25 bf d9 10 95 be
       -1.0814444 -0.84799385 -0.64746 -0.29114416
000360 12 ba bd be dc 6c 99 ba 29 6f 8d 3e 24 9d 12 3f
       -0.37056023 -0.0011705416 0.2762387 0.5727103
000370 95 8a e6 be 80 95 10 3f e5 d2 fc 3d 4a 02 8b 3f
       -0.45027605 0.5647812 0.123449124 1.0860074
000380 a2 ce 00 bf 41 71 1e bf 22 f7 74 bf 5a 53 2b bf
       -0.50315297 -0.6189156 -0.95689595 -0.6692406
000390 2a fc 9a 3e 8e 78 50 bd bf db b0 3f ea 41 be be
       0.3027051 -0.05089622 1.3817061 -0.37159663
0003a0 d2 f0 6f 3d 96 e0 cd be 54 3f 5d bf 94 91 74 3f
       0.058579274 -0.40210408 -0.86424756 0.95534635
0003b0 90 6e 8e bf b7 95 14 3f 4d 30 01 3f 66 71 da be
       -1.1127491 0.58040947 0.50464326 -0.4266464
0003c0 a2 dc 39 bd 46 4e a7 bd a2 ca 79 3e 83 3d 58 3f
       -0.045376427 -0.08169226 0.24393705 0.8446886
0003d0 87 3a 2c 3f e0 23 50 be 45 94 85 be ed 83 07 3e
       0.67276806 -0.20326185 -0.26089683 0.1323392
0003e0 ae 01 4f bd b3 36 a8 3e 71 6c 58 be 85 df 32 3f
       -0.05053871 0.32854232 -0.21135117 0.69872314
0003f0 b2 8c d0 bc 3a 98 83 3f 55 59 3f bf ae 06 70 bf
       -0.025457714 1.0280831 -0.74745685 -0.9376019

FC2.weight f4 [256, 256]
000000 68 01 fd 3e 11 f7 27 bf 9d e7 6d bf 89 db ca bf
       0.49415135 -0.6561137 -0.9293154 -1.5848247
000010 18 a2 c0 3f e0 16 8a be 3f f3 06 3f ee d8 c5 c0
       1.5049467 -0.26970577 0.52714914 -6.1827307
000020 98 c8 29 bf d0 c5 dd 3f 76 0f 04 bc 65 43 40 3f
       -0.66321707 1.7325993 -0.008060327 0.75102836
000030 49 20 2d c0 6d 2f 42 bf de 4f 07 be db f6 eb 3e
       -2.7050955 -0.75853616 -0.1321406 0.46086773
000040 81 92 07 c0 ef bb 82 3f 2c ff f2 be 95 ae 56 be
       -2.118317 1.0213603 -0.47460306 -0.20965035
000050 12 40 1f 3d 13 0c 27 40 cd 44 c8 c0 1b 56 be bf
       0.03887946 2.610112 -6.2583985 -1.4870027
000060 6f 14 cd 3d 11 09 97 c0 89 68 6f bf 38 88 86 c0
       0.10013663 -4.7198567 -0.93518883 -4.2041283
000070 98 bc bb 3f f7 2a 53 3f c8 2d 99 3f 12 eb a6 3d
       1.4666929 0.82487434 1.1967096 0.08150305
000080 21 a1 8c bf d9 3c 8e bc b2 45 33 3f 56 73 1b 3f
       -1.0986673 -0.017362999 0.7002822 0.60722864
000090 c6 e9 60 bf 9c 1d 11 40 83 58 c7 3d 0f a4 cb 3f
       -0.8785671 2.2674322 0.09733679 1.5909442
0000a0 0b c8 6d bf d6 49 71 3d be 20 08 c0 e9 b6 48 bd
       -0.92883366 0.058908306 -2.1269984 -0.04900256
0000b0 da 0f e8 3f 1e 54 0f be 69 c1 1e bf f0 3e a8 be
       1.8129838 -0.13996932 -0.6201387 -0.32860518
0000c0 0a c4 e8 3c bb d0 d8 3e 31 6d ba be 58 b8 94 bc
       0.028413791 0.4234675 -0.3641143 -0.018154308
0000d0 94 b0 32 bf c0 f3 5a c0 7b 46 b9 bf 74 70 26 c0
       -0.69800687 -3.4211273 -1.4474634 -2.6006136
0000e0 4b b4 c0 3d bf 84 47 3f d8 9f 10 c0 bd ce 5b 3f
       0.09409388 0.7793693 -2.259756 0.8586233
0000f0 e8 42 b3 3e 9e 51 2e 3f 9b 7d 42 3f 4f cc a6 3f
       0.35011983 0.6809329 0.7597291 1.30311
000100 b9 f5 62 3e 0e 6e 11 40 62 31 a6 bd 3e a4 23 bd
       0.22164048 2.2723422 -0.08114888 -0.039951555
000110 fb 47 80 3e 3d 4d 94 bd e0 d1 90 3e 0e 08 41 be
       0.25054917 -0.072412945 0.28285122 -0.18850729
000120 70 f7 2c 3f ca 13 89 bf 21 d2 da 3e d4 e7 78 3f
       0.6756506 -1.0709164 0.4273844 0.9722874
000130 c8 6b 0c 3d c7 48 39 bf 30 58 a4 3f 80 2e a8 3f
       0.034282476 -0.72376674 1.2839413 1.3139191
000140 1f a2 3c 3f ba 73 bf bf 67 dc 88 3e bb e8 8d bf
       0.7368488 -1.4957192 0.26730654 -1.1086649
000150 6c ad 9c 3d ec c2 9c 3f 85 e9 33 3f 9f 4c 83 bf
       0.07650265 1.2246985 0.702782 -1.0257758
000160 da e6 33 be 9d 51 30 3f fa 76 5a bc a8 70 50 3e
       -0.17568532 0.6887453 -0.01333403 0.20355475
000170 43 a7 a4 3e 01 20 96 3e f9 b1 9e 3f f0 a4 83 bf
       0.3215886 0.29321292 1.2398063 -1.028471
000180 86 41 14 40 dd 68 6d bf 0b 5c 18 3f 82 44 dc bf
       2.3164992 -0.92738134 0.59515446 -1.7208407
000190 ea 92 8f 3f 19 6b 03 3f a2 a6 56 c0 e0 50 89 bc
       1.121671 0.51335293 -3.3539205 -0.016762197
0001a0 f2 4f 28 3c 98 d9 51 3e 64 ce 0d 40 1c 11 6c 3f
       0.010272967 0.20493162 2.215722 0.92213607
0001b0 cc 98 a7 bf c8 3c 84 bf 4b b7 5f 3f 94 fa fe be
       -1.3093505 -1.0331049 0.8738906 -0.4980055
0001c0 a5 44 14 c0 f8 07 02 c0 6d 8d 9b 3f c4 f7 8c c0
       -2.3166897 -2.0317364 1.2152535 -4.405245
0001d0 46 06 e7 3f d4 da 95 3f 6e f0 20 bf a7 2b 8f be
       1.804879 1.1707406 -0.62866867 -0.27962992
0001e0 5b 0d 37 3d 19 83 0d c0 f1 f7 98 be 46 51 c8 bd
       0.04469047 -2.2111266 -0.29876664 -0.09781127
0001f0 69 6c 00 c0 b0 e5 96 3f 57 09 1e 40 59 f8 0a bf
       -2.0066168 1.1788845 2.46932 -0.542852
000200 5d 8c d7 3e 79 03 74 3f 06 63 81 3f 35 4c 4b 3f
       0.42099276 0.953178 1.0108345 0.7941316
000210 96 74 6a 3f aa 35 14 bf 7e 4c fa bf a6 b7 cd 3f
       0.91584146 -0.57894385 -1.9554594 1.607167
000220 b8 ae 49 3f f9 25 75 bf e1 2b 42 c0 0c 4c 1f 3f
       0.78782225 -0.95761067 -3.0339282 0.62225413
000230 3e 22 b2 bc a2 7c a6 bf a0 35 91 3f 17 e9 83 3f
       -0.021744844 -1.3006785 1.134449 1.0305508
000240 e9 6e 08 c0 43 aa b0 be ee 1b 76 3f ce dc 62 3f
       -2.1317694 -0.345049 0.9613637 0.8861817
000250 5a 80 8d bd ad a4 85 3f bb f9 61 3f c2 de 11 be
       -0.06909247 1.044088 0.88271683 -0.14245132
000260 48 e4 a3 c0 73 ae e1 be d6 92 2c bf d2 46 15 bd
       -5.1216164 -0.44078407 -0.67411554 -0.036444493
000270 1f f9 93 bf d9 8a 55 40 5d ab 8f 3f ef 8f 86 bf
       -1.1560401 3.3365996 1.1224171 -1.0512675
000280 25 d8 fb 3e 93 24 18 c0 4e e2 47 bd e0 c4 2c 3f
       0.49188343 -2.3772323 -0.048799805 0.6748791
000290 5d 10 8e bf 1a 8a 98 bf 59 2e ec 3e 14 41 9f bf
       -1.1098744 -1.1917145 0.4612911 -1.2441735
0002a0 a3 ca 94 3e 7b fe 52 bf 9d 3e 65 40 67 ad 08 bf
       0.2906085 -0.82419556 3.5819466 -0.5338959
0002b0 8c 84 99 bf e5 c1 7c bf 15 b5 1a bf fe 14 04 c0
       -1.1993575 -0.9873336 -0.6043256 -2.0637813
0002c0 25 46 cf bf b2 64 57 bf 64 d8 a5 be d7 c5 e3 3e
       -1.6193281 -0.84138024 -0.32391655 0.44486877
0002d0 32 ef 8a 3f e0 8e ee 3f e6 97 7b bf d1 16 0b 40
       1.0854247 1.8637352 -0.98278654 2.1732676
0002e0 45 69 6c 3f 5c 8c d4 bd c3 5a 2e 3f 4a a6 5b 3f
       0.9234813 -0.10378334 0.6810724 0.8580061
0002f0 ad 4c 02 bf 40 d5 31 c0 93 04 1b 40 92 92 35 3e
       -0.5089825 -2.7786407 2.4221542 0.17731693
000300 6d 5d 8a bf 3e 85 86 3e 85 7c 87 bf 77 49 46 3e
       -1.0809761 0.2627353 -1.0584875 0.19363962
000310 a9 d6 6f 3e 3e f7 9b be d2 1d 65 3f f9 35 42 c0
       0.2342173 -0.30462068 0.8949863 -3.0345442
000320 2d ba b4 3f e6 c7 c2 3e 88 75 53 bc dc 8a 9e c0
       1.4119316 0.38043135 -0.01290644 -4.9544506
000330 47 ef a7 3f 67 18 b3 bf 93 2d a6 bf 0a 32 fd 3f
       1.3119897 -1.3991822 -1.2982658 1.9780896
000340 a5 a7 0d 3e fa 21 2d c0 75 69 a8 3e dd c2 9a 3f
       0.13833483 -2.7051988 0.32892957 1.2090718
000350 a0 09 7c 3f 49 16 8a 3f 2c a7 90 bf 3a 9d e7 bd
       0.98452187 1.0788051 -1.1301017 -0.113092855
000360 81 06 da bc 63 f9 8d be 84 95 60 c0 09 c6 7d bf
       -0.02661443 -0.2772933 -3.5091257 -0.991303
000370 4e a1 06 c0 8b bd 29 bf 42 ff b5 3f a9 36 6c 3f
       -2.1035953 -0.66304845 1.4218524 0.92270905
000380 83 02 29 40 d2 90 77 bf 30 93 92 3f ec 95 50 3f
       2.6407783 -0.96705353 1.1451168 0.8147876
000390 a0 1d 29 bf 3d 6a 52 3e c3 7f 85 bf a8 b6 b8 bf
       -0.6606083 0.20548339 -1.0429615 -1.4430742
0003a0 38 e7 6e 3e ee 5f 31 c0 58 50 ab 3e 9c f3 70 bf
       0.2333039 -2.77148 0.33459735 -0.9412172
0003b0 e6 f5 d0 c0 40 4f a4 3f 8c 8c 20 3f 2b fa 9b be
       -6.530017 1.2836685 0.6271446 -0.304643
0003c0 6a 79 2e 3f 7b f5 6c c0 29 8a 24 bf fb 32 1b 3f
       0.68154013 -3.702483 -0.64273316 0.60624665
0003d0 fc 1b a8 3f b5 b2 d9 3e 23 b9 4a 3f 57 b7 5a 3f
       1.313354 0.42519155 0.79188746 0.85436004
0003e0 64 45 2a bd 21 3a 9b 3f ff ba f2 be 8e c0 bd 3c
       -0.041570082 1.2127115 -0.47408292 0.023163106
0003f0 ca 4b 3c c0 c5 97 82 bf 39 c9 85 c0 bc 12 16 3f
       -2.9421258 -1.0202566 -4.1808133 0.58622336

FC2.bias f4 [256]
000000 f4 2f 80 bd 68 31 a3 bd 0d d5 0f bf b8 9f ee bc
       -0.06259146 -0.07968408 -0.56184465 -0.029128894
000010 6a d3 d3 bf a6 a1 11 bf 73 be f9 be 8e 68 97 3d
       -1.6548893 -0.5688728 -0.48778114 0.07392989
000020 24 07 8c bf d0 10 8f bf 86 c6 a6 bf 7e d6 db bd
       -1.0939679 -1.1177006 -1.3029335 -0.107342705
000030 ec 53 b6 bf 32 d3 81 bd 85 f8 8d bf a9 a7 92 bf
       -1.4244361 -0.063391104 -1.1091467 -1.1457416
000040 cf 1c 71 3d 78 64 5d be 82 ce f8 bd 7c c5 b3 bf
       0.058865365 -0.21620357 -0.12148763 -1.4044642
000050 69 b6 8d bf 77 eb 6d be 55 c7 fc 3e af d1 b5 bf
       -1.1071292 -0.23234354 0.49370828 -1.4204615
000060 c1 a6 17 3e 34 00 34 be 52 4b 52 3e 8a be 5c bd
       0.14809705 -0.17578202 0.20536545 -0.05389265
000070 d8 f3 08 bf 7f 71 36 bf 3c 77 f8 bf 25 00 a0 bf
       -0.53497076 -0.7126693 -1.9411387 -1.2500044
000080 b6 9a db bf b1 7f cb bd b0 bb 9d be 5a 20 55 bf
       -1.7156589 -0.099364646 -0.30807257 -0.8325249
000090 f6 4c fe bd 10 06 88 be 35 87 15 c0 f2 34 1c 3f
       -0.12417023 -0.26567125 -2.3363774 0.6101829
0000a0 5b a1 70 be 9d a5 b6 bf 64 25 2a 3f 89 f9 de be
       -0.23499052 -1.4269291 0.66463304 -0.43549755
0000b0 0b b8 15 bd 31 37 b0 bf 2b 70 84 bf 39 aa b8 3e
       -0.03655247 -1.3766843 -1.0346731 0.3606737
0000c0 e4 6b 0a be 14 81 db bf 54 2e 41 bf 00 56 76 bf
       -0.1351772 -1.7148767 -0.75461316 -0.96224976
0000d0 c1 46 1a be b9 6a ef be b1 f4 d7 bf 5c c8 15 be
       -0.15066053 -0.4676111 -1.6871549 -0.14627212
0000e0 d6 69 fb be 2c e6 dd be 80 03 93 be df e8 7d be
       -0.49104184 -0.4333967 -0.28713608 -0.24795865
0000f0 74 70 51 3e 4f 2b fe bd bc 5e d8 bf 10 1d da bd
       0.20453054 -0.12410604 -1.6903911 -0.106500745
000100 9a b3 26 3f 5d ca ac 3c 31 88 25 bf 9e 35 16 bf
       0.651178 0.021092588 -0.64660937 -0.58675563
000110 ff 4f c3 be 08 93 8c bc ec dd 68 bf 6b c7 32 bf
       -0.3814697 -0.017159954 -0.90963626 -0.6983554
000120 08 db 2c be 78 83 96 bd f3 e2 f7 3d 8b b3 1a 3e
       -0.16880429 -0.073492944 0.12103834 0.15107553
000130 f2 ce f3 bf ad d4 03 bf 8e 97 23 bf 83 d9 61 bf
       -1.904753 -0.5149639 -0.6390313 -0.8822252
000140 72 75 d1 be e0 5e d4 bf 18 83 af bd d1 ae 09 bf
       -0.40909916 -1.6591454 -0.08569926 -0.53782374
000150 ca 80 16 be 1f e1 06 c0 41 3b 39 bf c3 2e d2 be
       -0.14697567 -2.1074903 -0.7235604 -0.410513
000160 2b 3f 16 bf 14 ed 85 3f 03 e4 93 bf db fa 32 bf
       -0.58690137 1.0462976 -1.1553959 -0.69914025
000170 06 50 00 bf d9 75 08 c0 ec ec a7 bf 9e 47 88 be
       -0.50122106 -2.1321929 -1.3119178 -0.2661714
000180 66 37 be bf bf 12 ac bf 01 c4 d6 bf 4e 57 9a bf
       -1.4860656 -1.3443221 -1.6778566 -1.2057893
000190 ab 64 3c bf a1 39 22 bf 22 42 0c 3e f9 c4 fa be
       -0.7359111 -0.63369185 0.13697103 -0.48978403
0001a0 24 01 3f bf 26 87 80 bf 75 37 a9 3f f3 41 75 bd
       -0.74611115 -1.0041244 1.3220049 -0.059877347
0001b0 98 12 bd bf c7 73 7c bf c0 42 49 be e6 b2 1a bf
       -1.4771299 -0.9861416 -0.1965437 -0.6042923
0001c0 28 b6 51 be 6d b8 bc 3e ad 47 5f 3d bf e8 9b bf
       -0.20479643 0.36859456 0.054511715 -1.2180403
0001d0 b9 6d ea be bd a7 82 bf 8c e4 c5 bf 55 48 94 bf
       -0.45786837 -1.020744 -1.5460372 -1.1584574
0001e0 d6 8f 6f bd be 57 94 bf 55 7c 38 3f fb c1 8a bf
       -0.058486782 -1.1589277 0.72064716 -1.0840448
0001f0 9d 6f a0 bd 73 6f 81 3e be cd 4a be 2e 67 66 bf
       -0.078337885 0.25280342 -0.19805047 -0.9000119
000200 4c 2e 26 be 22 20 b8 bf 98 65 ea bf f0 b4 26 bd
       -0.16228598 -1.4384806 -1.8312254 -0.0406999
000210 93 a9 01 3c 78 01 79 be cf 20 82 bf aa ea 83 bf
       0.007913965 -0.24316967 -1.0166262 -1.0305989
000220 3d 79 03 be 49 fb d3 3f 5d 97 ea bf dd 69 d5 bd
       -0.12839217 1.6561061 -1.8327442 -0.104205824
000230 c4 3f eb be 6d eb c1 bd 13 7b 0e 3e 5b 70 46 bf
       -0.45947087 -0.09468732 0.13914137 -0.7751519
000240 3f 33 35 bf c2 64 1d bf 9c 6a 51 bf a9 8a f1 be
       -0.7078132 -0.6148187 -0.818033 -0.47176102
000250 c6 7d 07 bf 83 26 f7 bf 39 eb f0 bf b0 4a 2f bf
       -0.5292629 -1.9308628 -1.8821784 -0.6847334
000260 28 3f 37 3d 90 2f 05 be 7c 19 14 3f 19 3b 32 c0
       0.044737965 -0.13006425 0.57851386 -2.784857
000270 35 fd 3d bf 1f dc be bf 21 d6 11 3d c8 4b 83 be
       -0.7421449 -1.4910926 0.0356046 -0.25643754
000280 17 ed 51 bd 19 b6 32 3e 07 59 c1 bf 88 1c 45 3f
       -0.051251497 0.17452277 -1.5105294 0.7699666
000290 d9 f8 16 bf 79 11 23 bf f6 e1 8a bf 3d ce 28 bf
       -0.5897346 -0.63698536 -1.0850208 -0.65939695
0002a0 d9 0b 86 bf 77 e2 37 bf 18 4f 98 bf 1f 47 c7 bf
       -1.0472366 -0.7182993 -1.1899137 -1.556858
0002b0 a7 01 8a bf b1 1f e4 bf 0e 0a 9c bf 57 88 01 c0
       -1.0781754 -1.7822171 -1.2190568 -2.0239465
0002c0 dd 38 84 bf a7 25 a7 bf ee b6 50 bf e6 43 ec 3e
       -1.0329853 -1.3058366 -0.8152913 0.46145552
0002d0 e3 ea 22 bd e6 08 9d bf be f0 73 bf c2 ed 39 bf
       -0.039774787 -1.226834 -0.9528922 -0.72628415
0002e0 9f 2e 2e 3f 7d 83 b6 bf a7 58 be bf d1 d5 9c bd
       0.6803989 -1.4258877 -1.4870805 -0.0765797
0002f0 75 f3 50 be 5f 72 9f be bb 28 e0 bf 2f 6e 7f bf
       -0.20405371 -0.31141946 -1.751243 -0.997775
000300 d2 5d 56 be 96 4f 8b bf 49 2f 04 bf c1 18 60 bd
       -0.20934227 -1.0883663 -0.5163465 -0.054711107
000310 f7 07 4f be cf 9a fd bf b8 29 7c be f4 c5 56 bf
       -0.20217882 -1.9812869 -0.2462529 -0.838958
000320 36 2e 6d bf 1f f0 73 bd 4c 4a 3e be 6c 56 b8 bf
       -0.9264864 -0.05955517 -0.1858303 -1.4401374
000330 e9 c5 37 be f2 bc 30 3e 5b 94 b6 bf 9d 90 a3 bf
       -0.1794659 0.17259577 -1.4264024 -1.2778507
000340 84 e4 a5 be 8b 82 2a 3f f0 12 c1 be bc 2c 7a bf
       -0.32400906 0.6660544 -0.3770976 -0.9772451
000350 d2 6c cf 3e 84 f2 66 bf 24 09 52 bf f7 aa 9f bf
       0.4051271 -0.902138 -0.820452 -1.2474049
000360 d9 25 2c c0 5b f1 84 3d e4 f3 b7 bd b0 c7 dd bf
       -2.68981 0.064913474 -0.08982065 -1.7326565
000370 03 ea 39 bf 3c 5a e4 be 79 ca c2 bf 84 ea 27 be
       -0.726227 -0.44600093 -1.521804 -0.16398054
000380 c6 72 05 3d 35 47 71 bd 20 b9 9c bf 1b 1f c8 bf
       0.03258016 -0.0589058 -1.2243996 -1.5634493
000390 05 f8 e5 bf 60 6d f7 bf b3 69 27 bf 9b 55 b3 bf
       -1.7966315 -1.9330254 -0.6539566 -1.40105
0003a0 98 0b 96 be 34 da 02 bf a6 2e 19 bd 9c aa 4a bf
       -0.2930572 -0.511142 -0.037398003 -0.7916658
0003b0 31 d2 73 bf a6 90 e1 be ea ca f7 bf 5b 37 a4 bf
       -0.952426 -0.4405567 -1.93588 -1.2829393
0003c0 c8 14 d6 bd 7f c2 7f bf 79 24 9e bf b1 8c 59 3f
       -0.104531825 -0.9990615 -1.235488 0.84980303
0003d0 13 4b b3 bf f7 d0 57 bf 35 97 de bd 8f dc 81 bf
       -1.4007286 -0.8430323 -0.10868684 -1.0145434
0003e0 b9 f2 ba bf d7 cb 09 be ab 05 21 bf d2 ca 46 bf
       -1.4605323 -0.13456665 -0.62899274 -0.7765323
0003f0 ae 4c 90 bd f6 9d 56 be 18 15 1c bf 22 50 1d bf
       -0.070458755 -0.20958695 -0.60969687 -0.614504

action_out.weight f4 [5, 256]
000000 30 06 c3 3f e1 3f 83 bd 3e e0 67 3f bb 98 f2 bf
       1.5236263 -0.06408668 0.9057654 -1.895286
000010 d7 7c 37 bf 91 e2 63 c0 3b 81 b8 3f 0e 4b 52 3f
       -0.71674865 -3.5607035 1.4414438 0.82145774
000020 62 de 66 bf 2a 7c 01 c0 22 7c b4 3f 7e f9 0d 3f
       -0.9018308 -2.0232034 1.4100382 0.5545882
000030 52 d2 4e bf 85 3f 23 bc 38 48 92 bf d6 4e 8a 3e
       -0.80789673 -0.009963875 -1.142829 0.27013272
000040 c5 00 25 40 c7 c6 82 3d a0 46 d7 3e 47 2a 13 3f
       2.578172 0.0638557 0.4204607 0.57486385
000050 df b1 a9 3f 41 4b a0 3f c8 05 60 3f 97 5f 56 3f
       1.3257407 1.2522966 0.8750882 0.8373961
000060 30 eb 05 3e 36 90 ef 3f 18 00 0f 3f 5a 4f 31 3f
       0.13077998 1.8715885 0.5585952 0.69261706
000070 a7 88 c2 3e 39 10 2e 3e a1 9a 12 bf b4 bc 47 40
       0.37994882 0.16998376 -0.57267195 3.1208925
000080 e3 02 01 3f 77 39 ed 3c 9c 92 fb 3e 5a fb 22 40
       0.5039503 0.028958065 0.49135292 2.5465913
000090 d5 98 65 bd d3 d8 06 3f 52 1d 9d 40 10 27 c7 3f
       -0.056053955 0.526746 4.909829 1.5558796
0000a0 f8 52 df 3f 0d b7 80 3d 95 41 61 3f f3 8a 9e 3f
       1.7447195 0.06284914 0.87990695 1.2386154
0000b0 38 48 9f 3e eb c6 91 bf de d8 16 3f 03 c7 e2 3e
       0.31109786 -1.138883 0.58924663 0.4429246
0000c0 a3 3e d2 3f 19 56 5b 40 f2 ad 13 3f 85 3e f2 3f
       1.6425365 3.42713 0.57687294 1.892533
0000d0 5c 31 7b 3f b7 b5 2c 40 19 44 5b 40 6f 59 b4 3f
       0.9812219 2.698591 3.4260314 1.4089793
0000e0 8b aa e5 3f 31 f4 42 3f b4 1d 9a 3f 0c e0 53 3f
       1.794267 0.76153857 1.2040315 0.82763743
0000f0 9b c4 c1 3f 0b cd ee 3f 00 e5 cd bf dc 7b 7c be
       1.5138124 1.8656324 -1.608551 -0.24656624
000100 18 10 19 40 63 70 b8 3f 4c 95 88 3f fc a4 b0 3f
       2.3916073 1.4409298 1.0670562 1.3800349
000110 24 94 53 3f 48 12 ca 3f 86 4e 19 bf 7f f6 0e bf
       0.8264792 1.5786829 -0.5988544 -0.55844873
000120 39 3b f0 3e e2 36 6f 3f 24 1a 12 be b5 2b 19 bf
       0.46920183 0.9344312 -0.14267784 -0.59832317
000130 c0 95 46 40 0d 6d 95 be ed f0 25 3f 48 4f 66 3f
       3.10289 -0.29184762 0.6482075 0.89964724
000140 de 78 4f bf 82 a7 db 3e 18 b4 c9 3e 18 d1 87 3f
       -0.81043804 0.42901236 0.39395213 1.0610685
000150 96 e9 b2 3e c1 9f d6 bf 43 59 74 40 f7 44 11 40
       0.34943837 -1.6767503 3.817948 2.2698343
000160 97 8f 9a 3e 83 c3 c1 3f 42 8f 4b 3f ca c0 b1 3f
       0.30187675 1.513779 0.7951547 1.388696
000170 66 43 95 3f fd 9c 90 3e 4a 38 9f 3f 35 b6 84 3e
       1.1661193 0.28244773 1.2439053 0.25920263
000180 d3 6b c5 3f 2e 15 48 3f ee 29 45 3f 27 06 04 3f
       1.542353 0.7815732 0.77017105 0.5157189
000190 ea 03 c7 be 8f 52 aa 3f 9b 3b 9a 3f b9 11 85 3e
       -0.38870174 1.3306445 1.204944 0.25990084
0001a0 0d 5b 9c 3f d9 3e 66 be a5 e6 90 3f 8e 89 cd 3f
       1.2215286 -0.22484912 1.1320387 1.6057603
0001b0 39 4a ef 3e 03 2c dd 3e ca ee b4 3e e1 bc 85 3d
       0.46736315 0.4319764 0.35338432 0.065301664
0001c0 16 e1 3a bf f9 b6 ef 3f 10 a7 00 40 39 d8 cb 3f
       -0.72999704 1.8727714 2.0101967 1.5925361
0001d0 8a b4 3f bf 6d c3 18 40 19 fd c2 bf 57 12 be 3f
       -0.74884856 2.3869278 -1.5233489 1.4849347
0001e0 e8 fc 8f 3c c2 8f c0 3f 7a 70 99 3f 53 38 dd 3f
       0.01757665 1.5043871 1.198745 1.7282814
0001f0 e5 3d 82 3d c1 f4 26 3f e3 7f c5 3e ea 5f 8b 3f
       0.06359462 0.65217215 0.38574132 1.0888646
000200 7b ce 9e 3f 70 9c 54 40 5c 67 09 3f 1f d7 a1 bc
       1.2406763 3.3220482 0.5367334 -0.019755898
000210 ea 69 e8 3f 6b 75 93 3f b0 9c b3 3c 02 a7 09 3d
       1.8157322 1.1520208 0.0219253 0.033606537
000220 18 13 b3 3f 08 f6 ac 3f 2c 78 85 3f 3f 8d 84 3e
       1.3990202 1.3512583 1.0427299 0.25889012
000230 60 b2 12 3f 54 1c f2 3e ab ae 9d 3f 2c 89 bb 3f
       0.5730343 0.47287238 1.231893 1.4651237
000240 6a 34 72 c0 fc 6b 07 40 bc 83 21 3f 8f d4 1f 3f
       -3.784449 2.1159658 0.63091636 0.62433714
000250 92 5b 8c 3f 5d 29 1c 40 d5 79 3c 3f 29 31 95 bd
       1.0965445 2.4400246 0.736234 -0.07284767
000260 b0 4b e9 3f e4 4d be 3e d0 85 88 3f 75 d7 59 3f
       1.8226223 0.371688 1.0665836 0.85094386
000270 26 b3 8f 3f 1a 18 3c 40 25 df 3a 3f d3 3a 00 bf
       1.1226547 2.938971 0.7299674 -0.5008976
000280 97 a6 41 3f e9 dd 94 3f 4d 17 27 40 26 9b 97 3f
       0.7564482 1.1630222 2.6107972 1.1844223
000290 df d2 57 40 b5 c5 a2 be c1 9b a2 3f db c6 e8 3e
       3.3722456 -0.31791463 1.2703782 0.45464215
0002a0 eb 97 23 40 d3 93 b9 3f 36 0d 38 3e ee 27 b3 3f
       2.5561473 1.4498237 0.1797379 1.399656
0002b0 39 55 ef 3e 55 8a 0b 3f a3 7f 52 40 95 26 fd 3e
       0.46744707 0.5450795 3.2890403 0.49443498
0002c0 51 89 22 40 6a de b0 3f 93 2f a3 bf ac e6 a8 3f
       2.5396311 1.3817875 -1.2748893 1.3195395
0002d0 82 68 b1 ba 0d 71 d3 bd 6c 29 3d bd e1 6b 9e 3f
       -0.0013535174 -0.10324297 -0.04618208 1.2376672
0002e0 46 e3 f6 3f 92 7e f2 3f 49 00 13 3f a0 72 3d 3f
       1.9288108 1.8944876 0.5742231 0.7400303
0002f0 8b 90 76 3e fc 86 ec 3f da 76 ce 3f d1 fd e3 3f
       0.24078576 1.8478694 1.6130021 1.7811834
000300 a3 d0 be 3f e6 ea 33 bf 4a 19 9b 3f 9e c1 8b bc
       1.4907421 -0.702803 1.2117093 -0.017060097
000310 a9 f2 81 bf 3a 6b c4 be 17 1a e6 3f 50 80 96 bf
       -1.0152179 -0.38363057 1.7976712 -1.1757908
000320 37 10 2c 3f ad d0 10 bd e3 d2 12 3e 65 58 16 bf
       0.6721224 -0.03535526 0.1433826 -0.5872863
000330 38 94 d0 bf fb 32 84 3f 96 da 02 c0 d2 60 ac 3f
       -1.6295233 1.0328058 -2.0445914 1.3467047
000340 f7 7d 03 be 92 e5 ee 3f 4b 99 a0 3f 73 12 11 40
       -0.1284102 1.8663809 1.2546781 2.266751
000350 51 62 38 bf c9 f3 6d 3f 0f 22 fe 3f 8c d6 6f bf
       -0.7202502 0.9295011 1.9854144 -0.9368675
000360 4e b7 02 c0 f8 22 cd 3f 9d 36 19 bd 51 e3 30 3f
       -2.042438 1.6026297 -0.0374056 0.6909686
000370 31 8d b7 bf 81 cc 3f 3f 60 f5 3e be 1d ac 50 3e
       -1.4339963 0.74921423 -0.1864829 0.20378156
000380 0a 64 bd bc 83 ad 64 bf 3b c3 b3 3e d5 75 75 3f
       -0.023118991 -0.8932726 0.35109887 0.9588292
000390 b4 61 c2 3b 44 7c 6f 3f 97 3c 89 3f af 0e da 3f
       0.0059320573 0.9354899 1.0721616 1.7035731
0003a0 bc 2a ee 3f 3b 35 66 3f ab b7 b1 3f 59 8e f4 3f
       1.8606791 0.89924973 1.3884176 1.9105941
0003b0 52 2d c2 3f 4f ff a8 3f 51 da cb 3e f1 3f 49 3f
       1.5170081 1.3202914 0.39815 0.7861319
0003c0 79 e4 0e 3d e6 64 49 bf 6c 8a 6d be ff f4 20 40
       0.034885857 -0.78669584 -0.23197335 2.5149534
0003d0 37 ab 24 c0 39 81 55 3f 49 17 95 3e fa d1 c0 3c
       -2.5729501 0.83400303 0.29119328 0.023537625
0003e0 e2 96 b4 3e ab 08 6f 3d 04 8a e6 3f 2d 30 61 bf
       0.35271364 0.058357876 1.8010869 -0.87964135
0003f0 4a 0a 1e 3f 74 ea be 3d 24 8d c6 3f c6 64 09 40
       0.6173445 0.09322062 1.5511823 2.1467757

action_out.bias f4 [5]
000000 54 64 bf 3e 3e aa 3c c0 7b 1b bb 40 24 1c 0f bf
       0.37381232 -2.9478908 5.8471045 -0.55902314
000010 3f a8 4a 40
       3.166519

weight f4 [256, 123]
000000 0b ac 40 c1 44 cd 94 be 52 8d e1 bd 24 8d 95 be
       -12.042003 -0.29062855 -0.11013283 -0.29209244
000010 c8 78 fd bd cf ab a1 be 99 d7 93 be cb 39 fd bc
       -0.12376553 -0.31576392 -0.28875425 -0.030911347
000020 2e be bf 3f 87 cb 91 3d 8a 32 58 3d 6d ea 7c 3d
       1.4979913 0.07118898 0.052782573 0.061747003
000030 f9 d4 23 3e e9 f3 fa bc 12 db 28 be 08 75 ed bf
       0.15999211 -0.030633884 -0.16489819 -1.855134
000040 d1 c3 fb be fb 1d 87 bf 7e 8b 5e bf 48 c9 9b be
       -0.49172834 -1.0556024 -0.869316 -0.30427003
000050 02 55 3f be 48 bc 84 bf 66 90 cd 3d 52 ff 6a 3f
       -0.18684772 -1.0369959 0.100373074 0.9179584
000060 0b 50 7f bf f4 e3 a0 bf 02 fd 61 bc 02 d8 bf bf
       -0.9973151 -1.2569566 -0.013793232 -1.4987795
000070 3a 54 1b 3d 30 c4 52 be 1f e1 7a bd fd af 98 be
       0.03792212 -0.20582652 -0.06124985 -0.29821768
000080 da 9f c3 bf 50 4e 6d bc d8 84 d5 bc 68 37 1f bf
       -1.5283158 -0.014484003 -0.026064321 -0.6219392
000090 35 a8 41 c1 e4 2d 25 3e 9f 00 ef 3d 2d dc dd be
       -12.103566 0.16130787 0.1167004 -0.43332043
0000a0 7b 08 ad bc a1 d9 b3 be 85 2b a4 be e0 b8 97 3f
       -0.021122208 -0.35126975 -0.32064453 1.1853294
0000b0 2d 23 2d 3e 3a b6 68 3f 05 83 6c 3f 6d b8 7b 3d
       0.1690795 0.90903056 0.9238742 0.06145518
0000c0 79 ce 16 3e a9 81 df bb 4c 8a 65 be 14 01 bf bf
       0.147272 -0.0068208766 -0.22416037 -1.4922204
0000d0 e4 6f f8 3f 4c 43 eb 3c a5 ee 82 3d d8 84 d3 be
       1.9409146 0.028718613 0.06393174 -0.4131229
0000e0 84 da 1e be e9 bb 7b bf 6c c9 82 3e f8 2e ef 3f
       -0.15513045 -0.98333603 0.25544298 1.8686209
0000f0 be a4 b7 bf 9b cb f8 3d 8c ca c8 3e f0 66 b4 bf
       -1.434715 0.1214821 0.3921703 -1.4093914
000100 97 40 7a be 17 4e 0a 3d 18 3b 9c be 36 25 84 be
       -0.24438702 0.03376588 -0.30513835 -0.2580964
000110 16 e1 5d bd e4 37 c2 bf 61 15 9d 3d a7 16 cd 3f
       -0.054169737 -1.5173306 0.07670093 1.6022538
000120 1b 54 40 c1 86 1f 99 be e9 a5 1c bd 44 5d a1 be
       -12.020534 -0.29906863 -0.03824416 -0.3151647
000130 2b eb eb bc 22 bb c2 be 8d 06 cc be d2 9b 8e 3f
       -0.02879866 -0.38033396 -0.39848748 1.1141303
000140 6e 4c 08 bf 16 4b a0 3f fb e4 1a 3e a0 b4 0f 3e
       -0.5324162 1.2522914 0.15126412 0.14033747
000150 3f ec 05 3e be db 0a bd 5e 67 8e be 43 1b b2 bf
       0.13078402 -0.03390097 -0.27813238 -1.391457
000160 3f 86 97 3e e9 cb 09 3d 82 6f 08 bf 29 3b a3 be
       0.2959461 0.03364173 -0.5329515 -0.31881073
000170 4a 27 08 bd dc 8c 81 bf e5 eb 73 3e 48 e0 53 40
       -0.033240594 -1.0121112 0.23820455 3.310564
000180 e6 11 10 c0 60 90 d5 bc 06 5b 1f 3d 28 9b b2 bf
       -2.2510924 -0.02606982 0.038905166 -1.39536
000190 be 9c ce bd d2 9a 49 bd 5d b6 99 be 11 1b 35 be
       -0.1008849 -0.049219914 -0.30021945 -0.17686106
0001a0 e0 b4 f1 bb 70 ce f6 bb f0 75 ba bf f7 fd 05 c1
       -0.0073762983 -0.0075319335 -1.4567242 -8.374503
0001b0 f9 4b a0 3e 4e 2c d5 3e de 5b c7 be e3 79 c4 3e
       0.31307963 0.41635364 -0.38937277 0.38374242
0001c0 6d 76 19 bf ba 9f 1d 3e b2 e5 a1 bd 29 d2 a1 3e
       -0.5994633 0.15392962 -0.07905139 0.31605652
0001d0 47 ef 44 bd 31 b2 97 3d 94 17 66 bd ac 19 68 bc
       -0.048079755 0.07407034 -0.05617483 -0.014166277
0001e0 f1 14 4c 3d 60 40 93 3d 7e 97 17 bd 28 b9 03 3f
       0.04982466 0.07190013 -0.03700971 0.514544
0001f0 47 fd df be 6e 60 b4 3e 27 4a a9 be 74 13 a3 3e
       -0.43747923 0.3522982 -0.33064386 0.3185078
000200 cd bd 17 bf 4f 3c 89 3f 11 bf ea 3f d2 b5 64 bf
       -0.5927399 1.072153 1.8339559 -0.89339936
000210 1e b1 a5 bd 30 fa 15 3c 80 b9 1f be d5 03 e7 3e
       -0.08090423 0.009153888 -0.15598106 0.4512011
000220 29 0a 6f c0 7b 09 7c 3f 9a ec 04 40 fb 82 88 bf
       -3.7349951 0.98451966 2.076941 -1.0664972
000230 6f 38 ad 3e 17 f6 ef be 19 fb ae be 29 2e 68 3f
       0.33832118 -0.4686744 -0.34175947 0.90695435
000240 14 c5 d9 bd e5 23 bb be 65 36 fb bf 99 e9 8e 3e
       -0.10633293 -0.36550823 -1.9625975 0.27912596
000250 b3 73 1a be f6 b4 0e bf 67 0c 62 bf 20 4a 8e bd
       -0.15083198 -0.55744874 -0.88300174 -0.06947732
000260 e4 e5 1a 3d 97 be e1 bc 19 bd f0 bb a9 6e 66 bf
       0.037816897 -0.0275567 -0.007346761 -0.90012604
000270 b2 7f 7d 3d 95 00 81 3d bb 99 85 3e 81 83 11 3f
       0.061889358 0.06298939 0.2609385 0.56841284
000280 c4 ca 8e bd 93 93 ba 3e 1f 82 aa be 3e 7b 8b 3e
       -0.06972268 0.36440715 -0.333024 0.27242464
000290 17 6e 19 bf 15 b3 76 3f aa 11 6c bd ac 98 a2 be
       -0.5993361 0.9636701 -0.057634033 -0.31757104
0002a0 f3 c5 cd be e5 01 0e 3f b0 77 7d bb 5d 44 cc 3e
       -0.40190086 0.5547164 -0.0038676076 0.39895907
0002b0 c5 2b 72 c0 5d df 7c 3f 1d 67 a8 40 8b e7 62 c0
       -3.7839215 0.98778325 5.262587 -3.5453823
0002c0 f0 d1 b2 3b ad 15 0a bd 4b d7 8e be 55 9b 6b 3f
       0.0054571554 -0.033712078 -0.2789863 0.9203389
0002d0 e2 e8 ce bb e1 79 02 bf f8 60 08 c0 bd 56 f2 3e
       -0.006314383 -0.5096722 -2.1309185 0.473318
0002e0 a1 b8 07 bf 70 32 a8 3d 47 e9 6a bf c1 b4 51 3c
       -0.53016096 0.08212745 -0.917622 0.012799443
0002f0 5a 04 12 3d 4f 3d 12 be 69 7c 70 be c5 2d b4 3d
       0.03564868 -0.142812 -0.23484959 0.08797792
000300 a5 8a 75 bf c2 9f 2e 3d de 42 95 3f cf df 09 3f
       -0.9591468 0.042632826 1.1661031 0.5385713
000310 dd 5d e0 be 91 84 77 3f fb 9d f4 be b0 99 8f 3e
       -0.43821612 0.96686655 -0.4777678 0.28046942
000320 d9 60 2b bf a3 b9 8b 3f 6f 8d 46 3e 7a 7c ae 3e
       -0.6694465 1.0916027 0.1938989 0.34079343
000330 92 e3 5f 3d ea 1a e4 3e bd 4c 80 bd 17 43 b1 3e
       0.054660387 0.44551784 -0.06264637 0.34621498
000340 d3 6a 72 c0 7b 2a 79 3f 78 25 c4 3f 73 1e 58 bf
       -3.78777 0.97330445 1.5323935 -0.8442146
000350 24 3e e6 3e 75 16 3e be ef 5c ca be 1f 87 6f 3f
       0.44969285 -0.18563254 -0.39524028 0.93565553
000360 2d 90 3a 3d b5 48 b8 be db 9a 10 c0 83 dd 35 3e
       0.045547653 -0.3599297 -2.2594516 0.17760281
000370 00 30 d2 3a 35 4a 9c 3d d7 21 66 bf 70 3d e0 bd
       0.0016036034 0.07631341 -0.89895386 -0.10949218
000380 8f c1 e3 bc e2 cf f9 3d 6d e9 96 3d be 62 33 3d
       -0.027802257 0.121978536 0.07368741 0.04379534
000390 17 94 87 3d e9 fa 70 bf c6 1f f1 be 0c ce 01 3d
       0.06620043 -0.9413286 -0.47094554 0.031690642
0003a0 d4 fb 03 3d 83 81 2f bc 95 c0 9c 3d dd f5 27 be
       0.032222584 -0.01071203 0.076539196 -0.16402383
0003b0 7a 7e 6b bd a1 fd dd bd 8d 63 94 3c 2c 8f 2d bd
       -0.057493664 -0.108393915 0.018113876 -0.042372867
0003c0 14 a0 6c bd 0d 47 64 bd af 3d de bb c2 70 a5 bd
       -0.05776985 -0.05573182 -0.0067822556 -0.080781475
0003d0 2b 59 07 be 08 49 78 3d f2 57 50 bd 1b 06 da bc
       -0.13217609 0.060616523 -0.05086512 -0.02661424
0003e0 e8 0c 6e 3d ff 12 94 3d 09 5e 06 bc 01 30 46 bd
       0.058117777 0.07230186 -0.008201131 -0.048385624
0003f0 87 28 09 3d 6f c9 f7 bb 34 a8 9b 3d 62 7e 53 3d
       0.033485916 -0.0075618546 0.076004416 0.0516342

bias f4 [256]
000000 36 e9 ba bf dc a2 80 bf 44 d9 cd bd 12 e0 c8 3c
       -1.460242 -1.0049701 -0.10051206 0.024520908
000010 fb 04 6e bd dc dd 37 3c 5d 0c 5f be f0 97 87 3c
       -0.05811022 0.011222329 -0.2178206 0.016551942
000020 f5 26 e3 be eb f5 d5 bd 18 fd 1b bd 1f d2 a0 bf
       -0.4436566 -0.10447296 -0.038083166 -1.2564124
000030 1b b7 7c be 69 13 21 bf 4c f4 d8 bd bc 51 9a bd
       -0.24679224 -0.6292024 -0.10593471 -0.07535121
000040 cf bc d9 bc 91 67 f6 bd 47 fd 5d 3d fb 40 88 bd
       -0.026579289 -0.120314725 0.054196622 -0.06653019
000050 5d 55 be bf 01 e9 b3 bf fc 13 f8 bd c2 7d 51 bb
       -1.4869801 -1.4055482 -0.12113187 -0.0031965827
000060 ef 6b e0 bc 61 98 b3 bc cf 95 a9 bd 69 4b b9 3b
       -0.027395217 -0.021923246 -0.08280527 0.0056547415
000070 2e b6 97 bd fb a5 18 bf 3a 3b 2a 3f a2 6a 95 bd
       -0.07407795 -0.59628266 0.6649662 -0.07295729
000080 f7 39 c4 bc 7a 51 e7 bd 6e c3 05 bd d3 a7 8a bd
       -0.023953421 -0.11294837 -0.03265708 -0.06770291
000090 e8 cb e6 bf a7 07 e4 bd d2 6e d1 bd a3 f2 37 be
       -1.8030977 -0.11134272 -0.102262154 -0.17963652
0000a0 dd e3 1e 3d 25 8a ee bd a3 3d 27 3d 2f a0 9f 3b
       0.038791526 -0.11647443 0.040830266 0.0048713903
0000b0 a0 80 03 3f 49 bb 87 3d f1 c8 70 3e f9 d3 db bd
       0.5136814 0.06627519 0.23514153 -0.1073379
0000c0 09 df be bc 69 49 72 bd 41 52 f0 3c 8c d3 bb be
       -0.02329971 -0.05915204 0.029336097 -0.36684835
0000d0 b3 88 f6 bd 64 6e 22 be 25 38 91 bd 0e 8c 81 bf
       -0.12037792 -0.15862423 -0.07090787 -1.0120866
0000e0 a7 1d 28 be 2e ee 18 bd da b3 c4 3c fe 3b 30 bd
       -0.16417561 -0.03733652 0.024011541 -0.043025963
0000f0 94 59 5b 3f 62 7c cc bd 12 79 89 bd 09 41 31 bd
       0.8568356 -0.09984662 -0.067125455 -0.043274913
000100 ae 10 85 bd 58 44 73 bd d7 67 91 3e a8 92 9c be
       -0.06497322 -0.05939135 0.28399536 -0.3058064
000110 29 38 16 3d 11 49 34 bd 2f c2 94 3e 85 fa e3 bc
       0.036674652 -0.044014994 0.290544 -0.027829418
000120 c2 30 10 3d f0 59 1b bd 2e 4d ba 3f a0 ba 18 3d
       0.03520275 -0.037927568 1.4554803 0.037287354
000130 0e 7c 45 3d dd 46 db be b4 a0 2b 3c 0c 7f ba be
       0.04821401 -0.42827502 0.010475326 -0.36425054
000140 d7 99 02 3d 1d 35 c3 bd 50 0f 6b be 36 9a 74 bd
       0.031884994 -0.09531615 -0.2295506 -0.05971738
000150 75 6a 10 bc b1 cd 65 bf 8c 50 44 bd 25 8f c0 bd
       -0.008814444 -0.89766985 -0.047928378 -0.09402303
000160 ef 78 93 bd 9f 25 63 3c 92 15 18 be 1b 58 98 3c
       -0.072008006 0.01386395 -0.14851978 0.0185967
000170 60 d8 d0 bd 60 12 b5 bf c3 6f b1 3b 44 95 b6 bc
       -0.1019752 -1.4146233 0.0054149344 -0.022287972
000180 fd 37 bf 3b 55 3f f0 bd 0f b2 17 be fa 5a 47 bf
       0.0058355317 -0.117308296 -0.14814018 -0.77873194
000190 a7 f3 ed bd 40 68 5a bd 66 33 87 bd be 8a f9 bd
       -0.116187386 -0.053322077 -0.066016 -0.12184666
0001a0 c6 29 3e 3e 5c 75 c8 bf d6 75 3c bc e6 09 3d 3d
       0.18570623 -1.5660815 -0.011502704 0.046152018
0001b0 bc 04 13 bc da 96 af 3d 41 33 81 bd ba 39 e6 bd
       -0.008973297 0.085736945 -0.06308604 -0.11241479
0001c0 64 3b 93 bd b7 e7 d9 bd 75 8e 8b bd 01 31 6f bd
       -0.07189062 -0.10639899 -0.06814281 -0.058396343
0001d0 eb 06 b9 bc b9 7a f5 3c 7c c5 b7 bd 8d 1a 01 bd
       -0.022586307 0.029965745 -0.08973214 -0.03151946
0001e0 39 90 8f bd 6f ef 04 be 91 19 b6 bd a3 21 b0 bc
       -0.0700993 -0.12981962 -0.08891595 -0.021500414
0001f0 6e 01 cf bd de 48 04 bf 9b 09 91 bd 67 5c 1c bb
       -0.101076946 -0.51673687 -0.0708191 -0.0023858787
000200 f5 85 00 bd 34 14 aa bf be 3d d8 be 43 0d e9 bd
       -0.03137775 -1.3287416 -0.42234606 -0.113794826
000210 cc 3b ae bd d9 05 c0 bf ee 7f 29 bd 31 b8 9d bf
       -0.08507499 -1.5001785 -0.04138177 -1.2321836
000220 10 d0 1d bd ce 1d b0 bd b4 b5 bc bd 93 ce 71 bf
       -0.038528502 -0.08599435 -0.092143446 -0.9445583
000230 48 83 4d bd 60 ce c2 bd bd 69 0b be 54 e6 06 be
       -0.050174028 -0.09512019 -0.13614555 -0.131738
000240 2a fb 3d bd cb 99 9b be 34 86 cc bd df 04 3c be
       -0.046382107 -0.30390772 -0.09986535 -0.18361233
000250 bb 0c ee be 53 80 b8 bc 2b d9 69 3e d6 85 91 bf
       -0.46494088 -0.022522127 0.2283675 -1.1368968
000260 fb 0e e4 bd 8f d3 71 be 2a fa ba 3f fa 30 9a bd
       -0.1113567 -0.2361586 1.4607594 -0.07528873
000270 5e 2d b1 bd cf bf f5 bd cd 16 c2 3f bc 15 15 bd
       -0.08651231 -0.11999475 1.5163208 -0.03639768
000280 f4 b0 a8 bd 67 00 4b bd 1e 1d 57 bd 11 6b be bd
       -0.08236876 -0.04956093 -0.052518003 -0.09297765
000290 ad 6e 36 bf d9 63 0a be 17 14 cd bd 5b 1e 97 bd
       -0.7126263 -0.13514651 -0.100135975 -0.07378837
0002a0 37 a6 0a be b5 69 13 3d 1c 7e 00 3d fe d3 9d be
       -0.13539968 0.035989482 0.031370267 -0.308258
0002b0 c8 1e 8f bd 0d 96 47 bf a1 b5 89 bd 9f 43 a0 bd
       -0.06988293 -0.77963334 -0.06724096 -0.07825398
0002c0 b9 c5 b0 bd 28 2c 74 3d 6b a3 00 3d fa 7e 2e 3e
       -0.086314626 0.059612423 0.031405848 0.17040625
0002d0 ca a0 98 bd 5e 98 0a be 63 fb 8c bf 5f 08 dd be
       -0.07452543 -0.13534686 -1.1014217 -0.4317045
0002e0 4a c7 4e bd c3 3f ae bd 34 c8 25 be 06 fe bf bd
       -0.050483026 -0.08508255 -0.16189653 -0.09374623
0002f0 55 af 26 bd 33 e2 7b 3b c3 ae 5d be 3a ae db bd
       -0.040694553 0.0038434386 -0.21648698 -0.107265905
000300 8a 7c e3 bc 2e ac 07 be e9 17 a0 3d fc b7 45 be
       -0.027769346 -0.13249275 0.078170605 -0.19308466
000310 88 84 00 bf b6 08 6c bd 74 b0 09 bc bb b2 68 bd
       -0.50202227 -0.057625495 -0.008403886 -0.056811076
000320 8f 17 48 bf 07 96 59 bd 08 ce ac bf ab 1c 7a bd
       -0.7816095 -0.053121593 -1.3500376 -0.061062496
000330 21 d3 65 3d 8a 70 18 bd 0f db b2 bd 4e 44 50 bd
       0.05610955 -0.0372167 -0.08733188 -0.05084639
000340 c4 b4 10 bf ff 86 d8 3c 65 ee 0f bf e5 2e 4d be
       -0.56525826 0.026431559 -0.56223136 -0.2003742
000350 c2 1c 7f bf 28 88 a1 bf 7a 01 9d bf 75 2d 05 c0
       -0.99653256 -1.2619677 -1.2266076 -2.0808995
000360 5e 17 04 be f2 b0 23 bd 16 e0 e3 bd bc d3 61 bd
       -0.12899539 -0.03996367 -0.111267254 -0.055133566
000370 4b 87 01 bd ef 5f 6e 3c 0b 79 99 bd c1 83 b5 bd
       -0.031623166 0.01454924 -0.0749379 -0.08863021
000380 4b e4 74 bc 0b 10 01 be c0 7f 38 bd 4f 89 22 bc
       -0.014947007 -0.12603776 -0.045043707 -0.009920432
000390 8f ad 3a bd 93 a9 05 bc f9 0e 97 bd 04 c3 83 bd
       -0.045575675 -0.008158105 -0.07375903 -0.06433681
0003a0 db 62 15 3f 3b 78 42 3f 98 fa 0c be 8d 33 ad bf
       0.58353966 0.7596471 -0.13767469 -1.3531357
0003b0 ec 87 85 be 33 3a 81 3d a8 8f 57 3b a1 b7 4c 3f
       -0.26080263 0.06309929 0.0032892022 0.79967695
0003c0 3e 52 b2 bc 8c 37 c7 bd b1 c2 10 bd 79 6c a1 bd
       -0.021767732 -0.097273916 -0.035341922 -0.07882018
0003d0 42 f7 8a 3c 6c e8 37 3c a0 19 6d be 40 62 3a 3f
       0.016963605 0.011224847 -0.23154306 0.7280617
0003e0 19 32 7c bd 93 d5 c3 bf 23 11 91 ba e6 87 97 bd
       -0.061571214 -1.5299553 -0.0011067729 -0.073989674
0003f0 4a d8 22 3d 31 49 a7 bd 39 ed a0 3d 4e b4 98 bd
       0.03975705 -0.08168257 0.07857747 -0.074562654
