saved_models_1/125_3134_model.pt (torch, 701697 bytes, 11 tensors)

FC1.weight f4 [256, 36]
000000 dd dd a5 be db d8 a2 3d c1 ae e3 3e 6d dd eb bd
       -0.3239583 0.07951518 0.44469264 -0.11516843
000010 ee fa 40 3f 35 bf b5 3e af 4f 35 be 8e 9f 8a bf
       0.7538289 0.35497442 -0.17706178 -1.0829942
000020 58 c2 91 3f ac 70 8e 3e cb 15 99 bf 4b 3d e3 3e
       1.1387434 0.27820337 -1.1959776 0.443827
000030 7a 97 92 be 32 10 c8 3e f2 96 63 3f 8f 41 ea be
       -0.28631192 0.39074856 0.889022 -0.45753142
000040 6e 60 87 bf 58 4a 48 bf c6 2c 8f 3f b9 d3 b9 3e
       -1.0576303 -0.7823844 1.1185539 0.36294344
000050 a1 e4 78 3f e3 08 bc 3e 6b 61 8a bf 25 94 89 be
       0.9722386 0.3672553 -1.081098 -0.26870838
000060 43 ee 00 40 f1 97 b3 bd e1 86 37 bf 8f 68 5c 3e
       2.0145423 -0.08769215 -0.71690184 0.21524261
000070 1d b2 0f be 3a 0b 90 3d 75 f7 8f 3e 80 15 5e 3e
       -0.14032789 0.07033391 0.28118482 0.21687889
000080 58 16 13 c0 29 e0 64 be 6a 75 46 3f 7b cd 9b bf
       -2.2982388 -0.22351135 0.7752291 -1.2172083
000090 0a 9b 6a 3f 4e 73 d0 be e3 f3 8a 3d ae 49 8c 3d
       0.9164282 -0.4071297 0.06784799 0.06849991
0000a0 f0 bb 34 bf 09 8f 06 be d1 19 74 3f fe a6 7f be
       -0.7059927 -0.13140501 0.9535189 -0.24966046
0000b0 d9 46 b2 bf 86 92 50 bf b1 81 e5 3f 5e 02 fb be
       -1.3927871 -0.8147358 1.7930204 -0.49025244
0000c0 a0 50 90 bf 8f ae 29 be 41 ad 56 3f 15 7e 11 bf
       -1.1274605 -0.16570495 0.83858114 -0.5683301
0000d0 f4 20 c4 bf 30 81 f4 be 4c f2 18 40 2b db 20 3f
       -1.5322556 -0.47754812 2.3897886 0.62834424
0000e0 f0 a9 97 be d2 e1 82 bf ec 95 2f 3e ca 7e 8f 3f
       -0.2962184 -1.0225165 0.17147034 1.1210568
0000f0 71 79 0a 3e d4 f5 ff bf f6 9b 60 3f d2 2a 48 3d
       0.13522889 -1.9996896 0.8773798 0.04886896
000100 96 5f 72 3d 8e eb ca 3e 85 0e 74 3e e1 0d fe 3e
       0.05917319 0.3963284 0.23833664 0.49619964
000110 b1 44 3d c0 71 f6 91 bf 8d bf 85 3f f6 8c 8a 3f
       -2.9573176 -1.1403333 1.0449082 1.0824268
000120 24 1e 82 3e 34 79 85 3e 0e 1d a5 be 69 a0 2c be
       0.2541362 0.26069033 -0.3224873 -0.16858067
000130 40 14 6b bf b5 54 1a 3f d8 6f c3 bf 4d b5 85 bf
       -0.91827774 0.602855 -1.5268507 -1.0445954
000140 c6 10 d6 3f b6 6b b6 3e a6 a6 68 3f 30 eb 0a 3c
       1.6723869 0.35629052 0.90879285 0.008478925
000150 a2 29 ff be a4 c8 a3 3f 1c 7b 6b bd 6f 28 52 c0
       -0.4983645 1.2795606 -0.057490453 -3.2837179
000160 2b 1e 71 bd fd 73 d0 3e d9 b2 ae bb 6a 1e f3 3e
       -0.05886666 0.40713492 -0.005331379 0.47484142
000170 ce c6 12 bf aa b8 a1 bd 1d 5e 65 3f 4b c0 89 3e
       -0.573346 -0.0789655 0.8959673 0.2690452
000180 04 36 db bf a3 52 ae be e3 38 2e 3f 5b 4b 0a bf
       -1.7125859 -0.34047422 0.6805555 -0.54021233
000190 7e f3 19 bd 26 bd 7d 3c 88 63 a4 3e f5 9f 8e be
       -0.037585728 0.015486991 0.32107186 -0.27856413
0001a0 27 17 07 3f 57 77 65 bf 25 3c 72 c0 c0 ac f6 3e
       0.527697 -0.89635223 -3.784921 0.48178673
0001b0 d5 f9 d7 bf 32 35 98 3e 67 04 01 3e 4a c8 3a 3f
       -1.6873118 0.29728085 0.12599336 0.72961867
0001c0 82 f6 e8 be c9 11 d5 bf fe 8d 06 bd da a4 27 40
       -0.4550057 -1.6646053 -0.032850258 2.6194367
0001d0 0d 02 84 bf d3 7b 86 bf 89 c0 09 3f ec f6 05 3f
       -1.0313126 -1.0506538 0.5380941 0.523299
0001e0 73 b7 0a bf 65 bd a8 be 58 f6 8c 3e 8e 8e ee 3e
       -0.5418617 -0.32956997 0.27531695 0.46593136
0001f0 99 4e b8 bf 10 ad 81 be 8c c1 06 3f e2 7c 07 bf
       -1.4398986 -0.2532735 0.5263908 -0.5292493
000200 e1 8e 4e bf 94 d8 71 3e 34 61 a1 3e d2 fd a5 3d
       -0.80686766 0.23617774 0.31519473 0.08105053
000210 85 35 91 bf 0a 12 ed 3f 88 f3 9d 3f 85 a9 a4 bd
       -1.1344458 1.852113 1.2339945 -0.08040146
000220 6f 00 0e c0 05 7b b0 3e 19 4b b2 3e 4a 25 71 c0
       -2.2187765 0.34468856 0.3482292 -3.767901
000230 6c 5f 73 bf 28 46 47 bf 85 10 99 3f 97 1b 4b c0
       -0.9506748 -0.77841425 1.1958166 -3.173559
000240 0d 93 ef be 90 d4 2d be 50 ac 4d bd 39 a8 b1 bc
       -0.46791878 -0.16975617 -0.050213158 -0.02168666
000250 f6 1f a3 3f 10 c1 e8 3e ec 0c 81 bf c6 25 cd bf
       1.2744129 0.45459795 -1.0082068 -1.6027153
000260 cd 24 7b 40 c3 9f 26 3e 69 9f 7c c0 41 e9 0f 3f
       3.9241211 0.16271882 -3.9472296 0.5621529
000270 20 42 0b 3f 07 23 d5 3d 2b 8a 24 bf 15 03 88 bd
       0.54397774 0.104070716 -0.6427333 -0.06641213
000280 e4 40 8a 3f 98 ab 96 bf 91 e8 89 bf 61 1c a4 3e
       1.0801053 -1.1771116 -1.0774099 0.320529
000290 a1 f7 5c 3d 8b 68 33 bf b6 72 a7 be eb 46 b9 3f
       0.053947095 -0.70081395 -0.32704705 1.4474767
0002a0 e6 30 6b 3e ca de 41 bf 08 59 b7 3e 76 07 36 3e
       0.22967872 -0.75730574 0.35810113 0.17776284
0002b0 43 fd 9e 3d 0e 20 ee 3e 5b e1 9d 3d c2 de 65 3e
       0.077631496 0.4650883 0.07708999 0.22448257
0002c0 ab 31 8b 3f c8 57 d0 3e fa ec 94 c0 9e c3 a9 bf
       1.0874532 0.40691972 -4.653928 -1.3262823
0002d0 41 0a 8b bf 5a 36 1e be 22 81 ca 3d 3e f9 6b be
       -1.0862504 -0.15450421 0.098879114 -0.23044297
0002e0 05 69 9f 3e 4f 7e f8 3e 75 ef 91 bf c6 9a 13 c0
       0.3113481 0.48533866 -1.1401201 -2.3063216
0002f0 4c 5e f8 3f 05 ea 81 3e 82 19 87 be f3 c1 94 bf
       1.9403777 0.25373855 -0.26386648 -1.1621689
000300 cb 5d 9c be 96 38 6b be 83 3a e6 be ea 4b 0b bf
       -0.30540308 -0.22970805 -0.44966516 -0.5441271
000310 79 b9 a1 3e 52 9b 48 3f 9d 01 1d 3f e2 fb 7d bf
       0.31586817 0.78362 0.61330587 -0.9921247
000320 e3 81 38 bf 70 5f 73 be fe 67 3d 3f 28 0c 13 be
       -0.7207319 -0.23766875 0.73986804 -0.14360106
000330 2b 18 0d c0 83 16 59 3f 8b dd 86 3e 65 ee c7 3e
       -2.2046 0.84799975 0.263409 0.39049068
000340 04 20 cf 3e 2b 0a 53 c0 49 d9 19 c0 75 b2 9a bf
       0.40454113 -3.2974956 -2.403887 -1.2085711
000350 08 2a c0 3f b1 7e 84 bf 71 95 22 c0 87 10 44 c0
       1.5012827 -1.0351163 -2.5403712 -3.0635087
000360 00 c3 7c bf c0 b7 ea be 2b 00 99 3e 12 55 94 bf
       -0.98735046 -0.45843315 0.2988294 -1.1588461
000370 32 d7 4d 3f fb c1 b5 be 13 97 1f be 60 66 59 bf
       0.80406487 -0.35499558 -0.15584974 -0.84921837
000380 43 cf 09 40 49 02 fd 3f 7f 77 28 3f e0 3b 2c 3e
       2.1532753 1.9766322 0.65807337 0.16819715
000390 6a 10 6f 3e 31 31 ad bf 64 b0 6d 3f 2d 30 b6 3f
       0.23346105 -1.3530637 0.92847276 1.4233452
0003a0 90 9b 27 bf bd 78 80 bf 52 0f 21 3f ab f1 c8 bd
       -0.65471745 -1.0036846 0.62914 -0.098117195
0003b0 42 3e 17 3f 2f 84 c6 bf 97 d9 cf be f5 f7 56 3f
       0.5907937 -1.5509089 -0.40595695 0.839721
0003c0 64 f6 45 3f a0 98 82 bf cc 51 c4 be 46 cb 57 3d
       0.7732909 -1.0202827 -0.38343656 0.05268409
0003d0 fa ea fc 3e 72 ce fb 3d 9d 34 18 bd af 6b 94 bd
       0.49398023 0.12295236 -0.03715955 -0.072471015
0003e0 09 be 3e 3f a9 6c cf bf 05 e0 a0 be c6 27 00 40
       0.7450872 -1.6205035 -0.31420913 2.0024276
0003f0 a3 f5 56 3e 35 9c ac 3e 9d ce f1 be f8 a8 46 bf
       0.2099214 0.33712927 -0.47227946 -0.77601576

FC1.bias f4 [256]
000000 2f 0b d7 3d 8f f5 80 be b5 70 05 bf 18 c0 86 bd
       0.1050018 -0.25187346 -0.521251 -0.06579608
000010 a7 15 43 3e ca 56 95 3e e7 b1 17 be 55 de cf be
       0.19051228 0.29167777 -0.14813958 -0.40599313
000020 63 0c 38 bf 13 a3 c7 be ec c0 27 3c cf 9e 29 be
       -0.718939 -0.38991603 0.010238867 -0.16564487
000030 c8 f2 dc be 63 cc 65 be 18 45 c9 be 04 f0 78 bd
       -0.43153977 -0.22441249 -0.39310527 -0.06077577
000040 e3 5a 75 3e 31 9a 86 be c3 ba 67 3e c5 3b a0 3e
       0.23960452 -0.26289514 0.22629838 0.312956
000050 0d 11 88 bd 3b 61 e1 3d 5c ad 2d bf 7f 50 e2 3c
       -0.06643877 0.11004873 -0.6784265 0.027626274
000060 4a 3b a3 be 1c e0 12 3d f2 dd 38 bf 5d c5 81 3e
       -0.3188117 0.03585826 -0.7221366 0.2534589
000070 c1 4b 4e bf 9d c5 88 3d d7 24 50 be e2 91 e5 be
       -0.8058434 0.06678317 -0.20326553 -0.44837862
000080 93 54 0e bf 97 7a 80 3e b2 91 2d be 2c 5a 04 3f
       -0.555978 0.2509353 -0.1695011 0.5170009
000090 ef be e6 be d3 9f bf be 1b 76 98 be 45 a8 7e be
       -0.45067546 -0.37426624 -0.29777607 -0.24868877
0000a0 fe f8 1b 3e fb 61 cc be 9c af a5 3c b3 5e 0d bf
       0.15231702 -0.39918503 0.020225339 -0.55222625
0000b0 a5 87 7f 3e 5b 53 fd bd 26 59 3d bf d2 43 8b be
       0.24954088 -0.123694144 -0.73964155 -0.2720018
0000c0 5d fe 9b be c9 40 50 bd 60 67 39 3f ff 4b 48 be
       -0.304675 -0.050843034 0.7242336 -0.1956024
0000d0 38 a4 fb bd aa 4d 99 bc 9e 4e 25 3e d2 72 d7 be
       -0.122871816 -0.01871379 0.16143271 -0.42079788
0000e0 89 d0 45 be a3 a7 d2 be d3 7a ae 3c 32 d0 65 3d
       -0.19317831 -0.41143522 0.021298802 0.056106754
0000f0 f4 9e 3b be 81 4a 5b 3e 6b c8 a8 3e a0 9d 50 bd
       -0.18322355 0.2141514 0.32965407 -0.050931573
000100 f8 b8 7a 3c d5 05 a4 3d 0b d8 86 bb b1 8e 10 be
       0.015302889 0.08008925 -0.00411511 -0.14116932
000110 e7 a5 1d bf 16 d3 ac bd 76 ef 57 be 92 03 ac be
       -0.6158127 -0.08438699 -0.21087441 -0.33596474
000120 f0 2a ad 3e 67 94 66 3f bd a3 b9 bd 3b 9d 28 3d
       0.3382182 0.90070194 -0.09064434 0.04116557
000130 25 92 1a bf 9f 33 c7 be 64 8c 36 bf cb 22 22 3f
       -0.6037925 -0.3890657 -0.7130797 0.6333434
000140 c8 10 44 bf c8 ce d8 be c9 2a 59 3e 48 50 ac be
       -0.76588106 -0.42345262 0.21207727 -0.33655
000150 03 fb 9a 3d 05 a8 14 3f 16 7f df 3d 7d f9 33 3e
       0.07567408 0.5806888 0.109129116 0.17575641
000160 29 f9 df be 08 f5 80 3e 9d 01 fc 3c 95 36 65 bd
       -0.43744782 0.25186944 0.030762488 -0.055960257
000170 8f 13 d7 be 0f 5a 00 3f aa bb 9b 3c 7a 93 d0 bd
       -0.4200711 0.5013742 0.019010384 -0.10184379
000180 5b b0 a7 bd ca 52 c0 be 78 7a ea be 44 dc 0e bf
       -0.08187934 -0.37563163 -0.4579656 -0.5580485
000190 27 f2 4e be e3 07 52 3e ca 0b 6b be c5 64 fd be
       -0.20209561 0.20510821 -0.22953716 -0.49490944
0001a0 71 a4 04 be c5 ca b5 3e de 58 e8 3d cc 1d 8f be
       -0.12953354 0.35506263 0.11345075 -0.2795242
0001b0 27 21 21 3c e9 e2 99 bd 4b 2b 82 be e0 b9 0e bf
       0.009834564 -0.07513983 -0.25423655 -0.5575237
0001c0 c7 a6 e9 be 4b 1b 09 bf b2 18 08 bf b0 e2 b4 3d
       -0.45635054 -0.5355727 -0.5316268 0.088323
0001d0 52 92 f5 bd c4 15 9c 3e fc 04 df be 26 c5 92 3d
       -0.11990799 0.30485356 -0.4355849 0.07166509
0001e0 b5 58 63 be 42 bd 39 bd 59 97 cf be 6e 9d 55 be
       -0.22201808 -0.045346506 -0.40545157 -0.20860836
0001f0 29 f0 3b bf c6 43 48 be e7 60 02 be 3e f2 11 bf
       -0.7341333 -0.19557104 -0.12732278 -0.5701026
000200 6e e4 2e bf e8 85 0a 3e 22 d1 9e be ce f4 9f 3e
       -0.68317306 0.13527644 -0.3101893 0.3124146
000210 5d ce d9 3e 8c 29 6f bd d7 be 4e 3e 6f c6 0f be
       0.42540255 -0.05838923 0.20189987 -0.1404054
000220 ca 74 8d be 38 e6 a7 3e a1 55 e3 bd c6 da ec 3b
       -0.27628165 0.3279283 -0.11100317 0.0072282283
000230 78 c1 6d be 1f 3f 47 3d df 69 74 3d 2b 61 41 bd
       -0.23218334 0.04864418 0.05967128 -0.047211807
000240 ee f2 ac be 7c 5d cf be d9 0a b3 3e 9f 6f 19 3f
       -0.3377909 -0.4050101 0.34969214 0.59935945
000250 e2 f7 59 be cb ee ca 3e 76 6f 49 bf de 6b 70 be
       -0.21285966 0.3963531 -0.786857 -0.23478648
000260 81 7d d6 bc 4b 31 3b be a2 52 3e 3f d9 aa 1e be
       -0.026182892 -0.18280523 0.7434484 -0.1549486
000270 d1 f2 23 bf 2a 06 83 bd 9a 89 a5 3e b1 cc 1f be
       -0.64042383 -0.0639766 0.32331544 -0.15605427
000280 36 9d 94 be 75 eb 33 3d 10 d2 27 3f ff ab 92 3e
       -0.29026192 0.04392572 0.65554905 0.28646848
000290 0f bd 67 3d ba f0 29 3e a2 88 10 bf 03 51 85 bd
       0.056576785 0.16595736 -0.56458485 -0.065095924
0002a0 38 01 ab bd cd 0a 5d be 58 57 fe be 0d 56 1c bf
       -0.08349842 -0.21586151 -0.49676013 -0.61068803
0002b0 89 a4 21 3f 4d 24 33 3e 7b e7 61 bd 80 c9 0b 3c
       0.63141686 0.17494316 -0.055152398 0.008531928
0002c0 c9 af d7 3d 5f 50 89 3d 67 09 75 bf 24 28 15 bf
       0.10531575 0.06704783 -0.9571747 -0.58264375
0002d0 6f d0 b5 3d 21 d0 1c bf e5 11 02 bd 26 46 c5 3e
       0.08877646 -0.6125508 -0.031755347 0.38530082
0002e0 2f d2 83 be 8d 69 78 be 55 3e 78 be 27 0f 1f bf
       -0.25746295 -0.24259014 -0.24242528 -0.62132496
0002f0 a9 17 32 3f e2 86 c8 be 0b a1 da 3b bd 17 06 be
       0.6956735 -0.39165407 0.00667203 -0.13094993
000300 e8 4d f3 3d 72 24 f7 3e 0a c3 eb 3e ff 85 43 be
       0.11880094 0.48269993 0.4604724 -0.19094084
000310 8a ca fa be 2e 2a 50 bd 4a 6c 8c 3e 28 77 a9 bd
       -0.4898265 -0.050821476 0.27426368 -0.082746804
000320 a5 73 be be 1e f5 ce be 68 ee e4 bc 59 11 1d bf
       -0.37197605 -0.40421385 -0.027945712 -0.61354595
000330 0a ce 5f 3e 17 b1 57 3e 63 6a 52 3e 9a b5 cf 3d
       0.21855941 0.21063648 0.20548396 0.101420596
000340 df 1c ae be 66 09 27 3e c9 17 f1 be 18 8e b2 3e
       -0.34006402 0.16312179 -0.4708846 0.34874034
000350 48 bd ab be b2 84 13 bf 18 99 23 bf ef 8f d1 be
       -0.33542848 -0.5762435 -0.6390548 -0.40930125
000360 12 ba bd be a7 f5 04 bf b6 7e f2 3d 66 61 7d 3e
       -0.37056023 -0.51937336 0.118405744 0.24744186
000370 af 03 95 be dd 16 6a bc ec 72 52 be c7 9e 06 3f
       -0.29104373 -0.014287678 -0.20551652 0.52586025
000380 ca 15 ea be 52 93 67 be 4f a5 f2 be 19 ee 52 bf
       -0.4571975 -0.22614792 -0.47391745 -0.8239456
000390 f4 d1 53 3e 6c 06 96 3d 12 e2 87 3d 72 8c 0d bf
       0.2068556 0.073254436 0.06634916 -0.5529243
0003a0 49 51 12 3f 5a 34 e6 be 57 3b 10 bf ac 7e 97 bd
       0.5715528 -0.44961816 -0.56340545 -0.073972076
0003b0 9c 8b 34 bf 65 22 5f 3e 24 d6 97 be 23 7e 84 be
       -0.70525527 0.21790464 -0.29655564 -0.25877485
0003c0 33 26 83 3d 14 de 5a be ed 6e 20 3e 13 23 3f 3f
       0.0640377 -0.21373779 0.15667315 0.74662894
0003d0 74 1f 35 3f e0 23 50 be 5d 39 9b 3c a9 71 ad 3d
       0.7075112 -0.20326185 0.018948251 0.084689446
0003e0 17 e1 b5 bd 2c 37 f1 3c 71 6c 58 be 90 11 1d be
       -0.08880823 0.029445253 -0.21135117 -0.15338731
0003f0 34 46 3f bd 90 fd 24 3f 4d e2 e9 be b1 de a6 be
       -0.04669781 0.64449406 -0.45680466 -0.32591775

FC2.weight f4 [256, 256]
000000 a0 e8 02 c0 8b c4 8d 3f 6a ed 19 3e 8c 86 13 c0
       -2.0454483 1.1075605 0.15031973 -2.305087
000010 98 24 1f 3f 93 48 b9 3f 59 b5 e0 be 95 8a 15 c0
       0.6216521 1.4475273 -0.43888357 -2.3365834
000020 f1 42 a0 bf 33 e8 93 3f 76 0f 04 bc 65 43 40 3f
       -1.2520429 1.1555237 -0.008060327 0.75102836
000030 f5 05 69 bf ea 3f 3c be 97 c5 e2 3c 5a 59 ea bd
       -0.91024715 -0.18383756 0.027682109 -0.11442824
000040 44 e1 00 c0 d3 99 c6 3e 5b db 9b 3f ed 0d 89 bf
       -2.0137491 0.38789234 1.2176317 -1.0707375
000050 12 40 1f 3d b7 01 c5 3f e0 f6 65 c0 99 0b da be
       0.03887946 1.5391148 -3.593193 -0.42586973
000060 6f 14 cd 3d 02 c4 39 c0 89 68 6f bf 53 ee 32 c0
       0.10013663 -2.9025884 -0.93518883 -2.7957962
000070 98 bc bb 3f af a0 18 be 5e bb 0f 3e 8e 63 94 bf
       1.4666929 -0.14905046 0.14036319 -1.1592882
000080 9d 12 b6 bf f4 9d 85 3e b1 25 6f 3c 7d 41 f8 bd
       -1.422443 0.2609707 0.014596389 -0.12121866
000090 a5 0c 09 bf 25 55 0e 40 31 f8 15 3f 5b 8c 49 3f
       -0.5353492 2.2239468 0.58581835 0.7872979
0000a0 e3 79 50 be d6 49 71 3d 26 20 c4 bf 5e 3f 55 bf
       -0.20358996 0.058908306 -1.5322311 -0.83299816
0000b0 65 23 d0 bd 1e 54 0f be 0c 45 60 bf 7d a5 b1 be
       -0.10163001 -0.13996932 -0.8760536 -0.3469657
0000c0 1c 9b c8 3e e9 fe d2 3d 85 2f 8d bf 58 b8 94 bc
       0.3918084 0.103025265 -1.1030127 -0.018154308
0000d0 58 97 31 c0 c8 5c 26 c0 10 89 3c bf 10 5e ea bf
       -2.7748623 -2.599413 -0.7364664 -1.8309956
0000e0 b2 bd e7 bc d3 be 38 3f a4 d3 19 c0 a3 ec a6 3e
       -0.028288696 0.72166175 -2.4035425 0.32602414
0000f0 e8 42 b3 3e af 91 dd be ff a0 41 be fd 38 6b 3e
       0.35011983 -0.4327521 -0.18909071 0.22970958
000100 55 5e 5d 3f 63 5d c3 3f f1 89 80 bf 3e a4 23 bd
       0.86472064 1.5262874 -1.0042096 -0.039951555
000110 ce 2e 08 c0 3d 4d 94 bd 49 70 9a bd 0e 08 41 be
       -2.1278567 -0.072412945 -0.07540948 -0.18850729
000120 2e de 59 be b3 77 57 be 6a 65 55 3e e0 94 ab 3e
       -0.21276161 -0.21041755 0.20839468 0.3351202
000130 ea 6f b2 bf 77 62 be bf 1f 6c cc 3d 78 c5 91 3f
       -1.3940403 -1.4873799 0.0998156 1.1388388
000140 1f a2 3c 3f 6b e9 f7 bf 43 41 d0 3f ee b7 76 be
       0.7368488 -1.9368109 1.6269916 -0.24093601
000150 fe 6f 28 bf 0f 68 e9 3f 8c 5e 3c bf 1b d9 bb bf
       -0.65795887 1.8234881 -0.7358177 -1.467563
000160 66 e9 7c 3e c6 84 1d 3f fa 76 5a bc a2 29 ba bf
       0.2469841 0.6153072 -0.01333403 -1.4543955
000170 43 a7 a4 3e c7 c7 00 bf 93 6b 86 bd 72 97 10 3f
       0.3215886 -0.50304836 -0.06563487 0.5648109
000180 db dc 09 40 b0 04 d9 be aa f8 93 3f 97 86 2f 3f
       2.154105 -0.4238639 1.1560261 0.6856474
000190 a2 9c ac 3e cd 49 9b bf d3 b4 c8 bf c5 b4 ea 3e
       0.3371325 -1.2131897 -1.5680183 0.4584104
0001a0 f2 4f 28 3c 54 19 b5 bc 0f ca be 3f b6 be 20 3b
       0.010272967 -0.022106804 1.4905413 0.0024527735
0001b0 1d c2 91 3f ca 34 00 bf 4c df 1e bd c6 b0 a0 be
       1.1387364 -0.5008055 -0.03878717 -0.31384867
0001c0 cd 4f 99 bf 09 75 0f c0 b0 93 cc bc 1a 6a dd bf
       -1.1977478 -2.2415183 -0.024972767 -1.7298005
0001d0 ae 7c b5 bd 07 9a be bf 6e f0 20 bf 19 7c 7f be
       -0.088616714 -1.4890755 -0.62866867 -0.24949683
0001e0 a6 e0 cb be 68 ea 87 bf 1f 27 b5 3d ce 85 68 be
       -0.3981983 -1.061841 0.088453524 -0.22707292
0001f0 e9 bf 99 bf b5 f3 f1 3c 47 df 89 3f 20 81 91 bf
       -1.2011691 0.029535154 1.0771264 -1.1367531
000200 3e 07 cd be bf f3 1b 3f 45 ec f6 3f 9c 3c 1a 3e
       -0.40044588 0.609188 1.9290854 0.15062183
000210 16 3e 37 bd 8e b8 73 bf 30 53 f7 bf ba 64 ca 3e
       -0.044736944 -0.95203483 -1.9322262 0.39529973
000220 c2 d1 8c bf 53 00 de 3c 08 a6 f5 bf 4f 28 83 3f
       -1.1001513 0.027099764 -1.9191294 1.0246676
000230 3e 22 b2 bc f4 7e bc be c4 f0 24 3e 4f 0e 64 bf
       -0.021744844 -0.36815608 0.1610747 -0.89084333
000240 83 86 c3 bf 43 3c e7 3e da 01 55 3f a1 32 10 3f
       -1.5275425 0.45163164 0.8320595 0.56327254
000250 5a 80 8d bd 0f 4c 6e be 8c bc fc bd 30 8c 7a 3f
       -0.06909247 -0.23271202 -0.1234065 0.9787016
000260 dd 1f d5 c0 73 ae e1 be 9c 29 08 bf d2 46 15 bd
       -6.6601396 -0.44078407 -0.5318849 -0.036444493
000270 29 19 29 bf 65 49 f0 3f 61 5a 9c 3f 89 14 fc bc
       -0.66054016 1.8772398 1.2215081 -0.03077151
000280 e3 f1 a4 be 6e be bc bd 64 07 19 bf 8e a2 1d 3e
       -0.32215795 -0.09216009 -0.597769 0.15394041
000290 1a dc 28 c0 58 ca 05 c0 59 2e ec 3e 63 ce eb bf
       -2.638434 -2.090475 0.4612911 -1.8422359
0002a0 c8 9e 4d 3e cd d1 09 c0 94 e5 31 40 b7 ef 07 bf
       0.20080101 -2.1534302 2.7796373 -0.5310015
0002b0 52 7f 0e bf b5 d7 fd bf 8d d9 12 3e 62 97 53 bf
       -0.55663025 -1.9831454 0.14340802 -0.82652867
0002c0 ef e5 64 3e 18 4d 47 bf 1e d4 40 bf 8f a3 86 3d
       0.22353338 -0.7785201 -0.75323665 0.06574165
0002d0 d8 e2 80 be 38 1a 7f 3f 16 50 c6 bd 50 29 dc 3e
       -0.25173068 0.9964938 -0.09683244 0.4300027
0002e0 d5 47 5a 3f 84 37 15 bf 94 4f 53 bf 6d da a3 3f
       0.85265857 -0.58287835 -0.825433 1.2801033
0002f0 f7 ba 84 3f aa 0f 20 3f 7f c1 e9 3f 92 92 35 3e
       1.0369557 0.625239 1.8262175 0.17731693
000300 10 e2 83 3f f2 42 01 3f 35 dd 2e bf 1c 1b 61 3f
       1.0303364 0.50492775 -0.68306285 0.8793199
000310 9a 0f 18 c0 0f c2 ba bf ef 35 54 3f 48 d3 19 c0
       -2.3759522 -1.4590472 0.82894796 -2.4035206
000320 eb f4 b0 3e 58 05 3b 3e 88 75 53 bc 11 f8 a5 3f
       0.34561858 0.18263757 -0.01290644 1.2966329
000330 71 da 17 bf 28 97 dd bf 26 71 5d 3e 32 b6 90 3f
       -0.5931769 -1.7311754 0.21625194 1.1305602
000340 2c 51 aa be b6 b2 ff bf 23 b2 03 3f 77 d6 17 40
       -0.33265054 -1.9976413 0.5144369 2.372465
000350 ab 50 aa 3f 36 a8 60 be 2c a7 90 bf a2 54 d6 3f
       1.3305868 -0.21939167 -1.1301017 1.6744578
000360 81 06 da bc dc ab 78 3f 68 04 a0 c0 3b 38 1d bf
       -0.02661443 0.97137237 -5.000538 -0.61413926
000370 ec 70 63 c0 03 fa 60 be 8a c0 d5 3e 12 23 06 40
       -3.5537672 -0.21970372 0.41748458 2.0958905
000380 a5 50 15 40 a8 86 71 bf 4e 51 56 3f f6 5f 9d 3f
       2.3330472 -0.94346094 0.8371781 1.229491
000390 4e a2 a8 be dd ef 62 3c ef 0e 28 be ad 27 c0 3e
       -0.3293633 0.013851133 -0.16411947 0.3753027
0003a0 65 d0 4f 3f 00 8c 81 bf 19 b8 da bc 91 09 27 3e
       0.8117736 -1.012085 -0.026699113 0.16312243
0003b0 d9 52 5c c0 7c 9a ac 3f f3 82 10 bf e8 7f 8b bf
       -3.4425566 1.3484645 -0.5644981 -1.0898409
0003c0 93 99 96 3b d8 41 3b c0 15 2b 08 bf c3 ad 9b be
       0.004595944 -2.9258938 -0.5319074 -0.30406007
0003d0 ab ef 68 3f b5 b2 d9 3e 46 45 a5 bf bb bc 13 3f
       0.90990704 0.42519155 -1.2911766 0.57709855
0003e0 4d 74 df 3e 1f 36 a8 bd ff ba f2 be 2d ac 6c 3e
       0.43643418 -0.08213448 -0.47408292 0.23112555
0003f0 fe 55 b5 bf 8c 5e 77 bf f1 85 a3 bf 8b 10 81 bd
       -1.4166868 -0.9662864 -1.2775251 -0.063019834

FC2.bias f4 [256]
000000 d4 a0 c2 be 68 31 a3 bd 94 06 0b bf ec 26 c3 bd
       -0.38013327 -0.07968408 -0.5430691 -0.09528908
000010 d1 0c 16 bf ea 5a b5 be 3e 0e 23 3f 67 e8 7e 3d
       -0.58613306 -0.35420924 0.63693607 0.062233355
000020 3e 98 01 bd a7 93 7a bf 4c b6 2f bb 7e d6 db bd
       -0.03163933 -0.9788155 -0.0026811538 -0.107342705
000030 e4 58 15 bf 7b a4 1b bd eb 19 74 bf 50 5c 16 bf
       -0.5833876 -0.037998658 -0.9535205 -0.5873461
000040 c0 1b 08 3d 42 96 55 be 82 ce f8 bd 75 7a 76 bf
       0.03322959 -0.208581 -0.12148763 -0.96280605
000050 e5 50 7c be aa 54 aa be 42 ed 3d 3f c2 bd 28 bf
       -0.24640234 -0.3326772 0.7419015 -0.6591455
000060 c3 be e1 bd 8c c9 6d bd 52 4b 52 3e 8a be 5c bd
       -0.11022713 -0.05805354 0.20536545 -0.05389265
000070 b6 b4 42 bf 5f db e5 be 1d 6e 4e bf f6 d3 40 bf
       -0.76056993 -0.4489393 -0.8063677 -0.75323427
000080 81 fd 63 bf 93 18 9e bd b0 bb 9d be 7c 50 41 bf
       -0.8905869 -0.07719531 -0.30807257 -0.75513434
000090 f6 4c fe bd 70 83 ac 3d c1 cf c2 be ba 31 11 3f
       -0.12417023 0.08423507 -0.3804913 0.567165
0000a0 68 11 72 be 83 78 23 bf 8e 08 3a 3e 65 53 5b bf
       -0.23639452 -0.6385576 0.18167326 -0.85674125
0000b0 95 1f a9 3d 03 8e c9 be 15 37 2a bf e2 d2 e4 3e
       0.08257977 -0.3936616 -0.664903 0.4469214
0000c0 0c 85 b8 3e b3 4c 07 bf 1b fd 0d bf 43 5a f4 be
       0.36039007 -0.5285141 -0.55464333 -0.47725114
0000d0 c4 35 86 be 52 c5 66 be f9 71 01 bf 4a 2d 77 3d
       -0.26212895 -0.22536209 -0.50564533 0.060345925
0000e0 d6 69 fb be 2c e6 dd be 6c fd 3d 3b df e8 7d be
       -0.49104184 -0.4333967 0.0028990163 -0.24795865
0000f0 06 d7 37 3e 15 6a 0c bf f5 8e 8f bf f5 69 b1 3d
       0.17953119 -0.5484937 -1.1215502 0.08662788
000100 d5 fd d7 3e 82 51 c3 3e b3 50 61 bf a8 32 1a bf
       0.42185846 0.38148123 -0.8801376 -0.60233545
000110 c4 1d 2e be e1 13 77 be 68 ea 81 bf b3 2b e8 be
       -0.17003542 -0.24128677 -1.014966 -0.4534584
000120 1b 8b 28 bf a1 f6 21 be 85 e5 05 3e 5a 5a 60 be
       -0.6583726 -0.15816738 0.13075836 -0.21909466
000130 be 8b f6 3d 8a d4 e7 be 35 51 3b bf 55 db 5b bf
       0.120383725 -0.45279342 -0.7317079 -0.8588155
000140 6b 27 c0 be 4d f6 a5 bf 18 83 af bd 86 76 e0 be
       -0.37530074 -1.296579 -0.08569926 -0.43840426
000150 ca 80 16 be 1b b8 83 bf 48 48 5a bf d4 d6 48 bd
       -0.14697567 -1.029056 -0.8526654 -0.049033
000160 54 ca 03 bf e6 71 3b 3f f1 23 09 bf 3b 1e 2a bf
       -0.51480603 0.7322067 -0.5357047 -0.6645238
000170 5c 7a 64 be c9 19 a7 bf a9 2d 9f bf 9e 47 88 be
       -0.22312301 -1.3054744 -1.2435809 -0.2661714
000180 c2 5e 91 bf ed 68 d7 be 63 98 f7 be 7f 86 51 bf
       -1.1357043 -0.4207224 -0.4835845 -0.8184585
000190 ac d2 fb be 14 4c d5 be d3 06 78 3d c6 56 dd 3d
       -0.49184167 -0.41659606 0.060553383 0.10807566
0001a0 b6 00 b8 be 23 99 1b 3d 20 45 89 3f a4 96 02 3d
       -0.35938042 0.03798784 1.072422 0.031881943
0001b0 28 d1 3b bf 71 7a 90 bf c0 42 49 be 99 50 24 bf
       -0.7336602 -1.1287366 -0.1965437 -0.6418548
0001c0 4e 08 b2 bb a6 12 2a bd d0 0f c0 3d 13 93 01 bf
       -0.005433119 -0.04152169 0.09378016 -0.5061504
0001d0 e2 c9 6d 3d bb 89 1d bf ad a6 a1 bf f2 43 d4 be
       0.05805386 -0.61538285 -1.262899 -0.41458088
0001e0 d6 8f 6f bd 40 93 60 be e4 86 18 3d 5c 32 f5 be
       -0.058486782 -0.21931171 0.037238017 -0.47889984
0001f0 9d 6f a0 bd ae a7 e0 3e be cd 4a be ff 28 5d bf
       -0.078337885 0.4387793 -0.19805047 -0.8639068
000200 59 ab f8 bd 58 1b a7 bf 29 ad 41 bf 8e 2a 2a bc
       -0.12142057 -1.305522 -0.75654846 -0.010386122
000210 35 6c be 3e d5 fd 7c be 0e a0 6f bf 8c ae f8 be
       0.3719193 -0.24706204 -0.936036 -0.4857067
000220 3d 79 03 be 44 2b a0 3f 51 60 aa bf dd 69 d5 bd
       -0.12839217 1.2513204 -1.3310643 -0.104205824
000230 40 65 7e bf 6d eb c1 bd 59 22 bd bd 18 25 a1 be
       -0.99373245 -0.09468732 -0.09235067 -0.31473613
000240 08 a9 1e 3e a6 32 e0 be 84 a1 7d 3e 27 2d 9a bd
       0.15494168 -0.43788642 0.24768645 -0.075281434
000250 c1 5e 46 be 0c 1e 08 bf 25 91 49 bf 94 9d cc be
       -0.19372083 -0.5317085 -0.787371 -0.39963973
000260 5d 52 9a 3e 90 2f 05 be b2 07 41 3f 5a ca a8 bf
       0.30140963 -0.13006425 0.7540237 -1.3186753
000270 f2 e2 35 bf 2a d0 77 bf bd 2e 8e 3d c6 94 4f be
       -0.71049416 -0.9680201 0.06942508 -0.20271596
000280 3d a6 af bd 0f 44 4c 3e 19 8e 3e bf 6c ec 2d 3e
       -0.08576629 0.19947837 -0.74435574 0.16984719
000290 ab 2d 21 bf 08 57 ee 3c 3f 79 de be 80 98 18 bf
       -0.6296031 0.029094234 -0.43451878 -0.59607697
0002a0 ce 76 1b bf ec 73 9b bc 40 d9 4e bf d2 3d aa bd
       -0.60728157 -0.018976174 -0.8080025 -0.083125725
0002b0 50 c8 3e bf 4c 9a 96 bf 60 b0 af bf b0 10 6f bf
       -0.745244 -1.1765838 -1.37257 -0.9338484
0002c0 df 95 b6 be 74 0e 59 be 0c 56 01 bf 2c 09 9b 3e
       -0.35661218 -0.2119692 -0.5052192 0.30280435
0002d0 e3 ea 22 bd 53 43 83 bf d6 f9 92 bd bd 79 a9 be
       -0.039774787 -1.0254921 -0.07176559 -0.3310069
0002e0 45 a7 2b 3f 85 70 23 bf ed e5 74 bf 05 57 44 be
       0.6705211 -0.63843566 -0.9566334 -0.1917382
0002f0 75 f3 50 be 85 64 44 be e4 82 14 bf 9e bb a6 bf
       -0.20405371 -0.1917897 -0.58012223 -1.3026006
000300 ee ca 0c be 47 cd 77 bf b7 5b 01 3e c1 18 60 bd
       -0.13749287 -0.96797603 0.12632643 -0.054711107
000310 f7 07 4f be 20 ff a0 bf 82 fe 8e be 5c ec 90 be
       -0.20217882 -1.2577858 -0.2792855 -0.28305328
000320 08 85 04 bf 1f f0 73 bd 4c 4a 3e be aa 58 2a be
       -0.5176549 -0.05955517 -0.1858303 -0.16635385
000330 47 4f 9a be f5 e9 36 bd 09 19 10 bf 7e c3 47 bf
       -0.3013861 -0.044656713 -0.562882 -0.7803267
000340 84 e4 a5 be 1a bd 32 3f d8 0b 9e 3e 4f db 5a bf
       -0.32400906 0.69819796 0.3086841 -0.8549089
000350 5a ee 9b 3c 1e cd 68 bf d8 11 2f bf 5b cf 83 be
       0.019034553 -0.90937984 -0.683866 -0.25744137
000360 6f d2 a4 bf ab 5f 1c 3e e4 f3 b7 bd 65 ed 23 be
       -1.2876719 0.1527087 -0.08982065 -0.16008528
000370 68 c6 b4 3d 3a d9 6f be a3 1f 8e be 84 ea 27 be
       0.088269055 -0.23422709 -0.27758512 -0.16398054
000380 c6 72 05 3d f9 bf 33 3e 37 f2 ac be a5 02 9a bf
       0.03258016 0.175537 -0.33778545 -1.2032057
000390 9d 0b 40 bf 01 6d 80 bf 34 23 0a bf 98 57 98 bf
       -0.7501772 -1.0033265 -0.53959966 -1.1901731
0003a0 9a 1a bc be 0c 06 aa be 23 3f 6c be e2 22 60 bf
       -0.36739045 -0.33207738 -0.2307096 -0.87553227
0003b0 5d 10 fa be 1b 4b 9c be e5 db bf bf 23 5d 9f bf
       -0.4884061 -0.3052605 -1.4988981 -1.2450298
0003c0 c8 14 d6 bd 3b 81 07 bf fe c9 47 be 57 bc 38 3f
       -0.104531825 -0.52931565 -0.19510648 0.72162384
0003d0 e9 48 47 bf 0a 78 19 3e 35 97 de bd 21 0a 22 bf
       -0.7784563 0.14987198 -0.10868684 -0.63296705
0003e0 2c 4f 4f bf d7 cb 09 be b4 de 99 be 81 51 0f bf
       -0.8098018 -0.13456665 -0.30052722 -0.5598374
0003f0 ae 4c 90 bd f6 9d 56 be 62 8c 9e be c5 df 49 bf
       -0.070458755 -0.20958695 -0.3096648 -0.7885707

action_out.weight f4 [5, 256]
000000 f5 4a 9f 3e e1 3f 83 bd c8 cb c8 3e 91 c9 75 3e
       0.31111875 -0.06408668 0.39217973 0.24002673
000010 59 0c b3 3d 2d a5 f5 bf 22 a0 b7 3f 59 0c 12 3f
       0.087425895 -1.9191033 1.4345744 0.5705009
000020 8a 4d 0c 40 92 9f 1d c0 b5 20 0d 40 7e f9 0d 3f
       2.1922326 -2.4628644 2.2051213 0.5545882
000030 64 5e da bd 6e 82 9d 3c e4 1d 0f c0 99 5c e3 3e
       -0.10662535 0.019227233 -2.2361994 0.44406584
000040 7d cf 0d 40 c7 c6 82 3d a0 46 d7 3e 0f eb 77 bf
       2.215789 0.0638557 0.4204607 -0.96843046
000050 2f 20 08 40 49 d8 70 3f 40 6d fa 3e 5c bb 34 3f
       2.1269643 0.94080025 0.48911476 0.7059839
000060 42 88 aa 3f 36 90 ef 3f 18 00 0f 3f 5a 4f 31 3f
       1.3322833 1.8715885 0.5585952 0.69261706
000070 e6 5f a1 3c 6e e9 41 3f 58 b1 13 3f cc e6 d9 3f
       0.019699048 0.7574681 0.5769248 1.7023559
000080 3b c7 5f 3f 11 8c e8 3c 9c 92 fb 3e 09 27 41 40
       0.87413377 0.028387101 0.49135292 3.0180075
000090 d5 98 65 bd 8f 86 a2 3d 98 98 28 40 34 4a 25 40
       -0.056053955 0.07935821 2.6343136 2.582654
0000a0 0d 13 80 3f e1 ce 74 3f 45 94 bf 3f e1 0f 6f 3f
       1.0005814 0.9562817 1.4967123 0.93383604
0000b0 aa da f2 3f cb 55 f1 3e 34 a4 74 3e eb 79 c2 3f
       1.8972981 0.47135767 0.23890764 1.5193456
0000c0 6b f9 e7 3f 3e fa 84 3f 27 f7 34 3f 1d f2 5a 3f
       1.8122991 1.0388868 0.70689625 0.85525686
0000d0 8b 0a c2 bc 06 21 dd 3f e2 fd 5a 40 bc f6 c3 bf
       -0.023686668 1.7275703 3.4217458 -1.5309672
0000e0 8b aa e5 3f 31 f4 42 3f 32 0b 85 3e 0c e0 53 3f
       1.794267 0.76153857 0.25985104 0.82763743
0000f0 90 c1 ef 3f 87 e7 97 3f bf 3f 45 bf 5b 6e cc bf
       1.8730946 1.1867532 -0.77050394 -1.5971178
000100 fd e9 8c 3f d9 84 97 3f 91 ad aa 3f db 03 40 bc
       1.1008908 1.1837417 1.3334218 -0.011719669
000110 82 62 24 3f b2 a1 d3 3e 2d a1 02 be fb 58 c6 be
       0.6421281 0.413343 -0.12756796 -0.38739762
000120 ec 20 64 3f 10 4c f8 3e 24 1a 12 be b8 62 03 bf
       0.89112735 0.4849553 -0.14267784 -0.5132251
000130 bd 75 15 40 f8 83 9c be 98 32 b2 3f d9 5b 73 3f
       2.3353112 -0.30569434 1.392169 0.95062023
000140 de 78 4f bf e2 ee 8b 3f 18 b4 c9 3e 41 5e 38 3f
       -0.81043804 1.0932276 0.39395213 0.7201882
000150 96 e9 b2 3e 98 7f 39 c0 4a 27 10 40 aa 53 47 bf
       0.34943837 -2.8984127 2.252398 -0.77862036
000160 97 8f 9a 3e 16 c4 ad 3f 6d af 78 3f ca c0 b1 3f
       0.30187675 1.3575466 0.9714268 1.388696
000170 3a 66 5b bf 71 37 cf bd f0 e8 0a 3f 35 b6 84 3e
       -0.8570286 -0.101179965 0.54261684 0.25920263
000180 d1 d7 0b 40 29 ad 71 3f 42 44 13 3f bb ba cb 3f
       2.1850474 0.94404846 0.5752603 1.5916361
000190 99 8e 8b 3f bf 30 19 40 9d 5f 0e 40 2f a8 45 40
       1.0902892 2.3936002 2.2245858 3.08839
0001a0 11 33 98 3f 76 2a b3 bf 4a 6e f8 3f 0a a8 b6 3f
       1.1890584 -1.3997333 1.9408658 1.4270031
0001b0 52 db af 3f 04 86 92 be ca ee b4 3e 39 37 24 40
       1.3738806 -0.2861787 0.35338432 2.5658705
0001c0 ff a3 ed 3f f5 65 bf 3f 15 4d be be 56 ab 47 40
       1.8565673 1.495299 -0.37168184 3.1198325
0001d0 7f 21 97 3f f7 dd 9c 3f 83 af a5 bf 4c c2 69 3f
       1.1807097 1.2255238 -1.2944187 0.913121
0001e0 e8 fc 8f 3c 6b a8 8d 3f 48 1e ab 3f 67 40 d2 3e
       0.01757665 1.1067022 1.3368616 0.4106476
0001f0 e5 3d 82 3d 6e a4 96 3e e3 7f c5 3e 5c e2 11 bf
       0.06359462 0.29422325 0.38574132 -0.5698602
000200 d3 1c fc 3f bd 51 8a 40 40 7a 77 3f 06 e2 a2 bc
       1.9696296 4.322478 0.96670914 -0.019883167
000210 33 33 95 3f 8c fd 56 3f 6b 84 36 3f d7 5a f6 3f
       1.165625 0.8398063 0.71295804 1.9246472
000220 18 13 b3 3f da f2 9a 3f 37 be 63 3f 3f 8d 84 3e
       1.3990202 1.2105362 0.8896212 0.25889012
000230 1c 50 5b 40 54 1c f2 3e d3 c5 90 3f 49 50 18 40
       3.4267645 0.47287238 1.1310371 2.3799002
000240 5d 6a 2c c0 b0 2e 9a 3f 3b 2e 6e 3f 26 24 44 bd
       -2.693992 1.2045498 0.9303929 -0.047886036
000250 36 15 a9 3f 88 3a f4 3f 77 00 80 bd 66 b1 3e 3f
       1.3209598 1.9080362 -0.06250089 0.7448944
000260 7c fa da 3f e4 4d be 3e 26 22 d0 3f ac 66 32 3f
       1.7107692 0.371688 1.6260421 0.69687915
000270 e2 02 85 bf b0 e8 01 40 b1 e1 6f be a4 8a e9 be
       -1.0391505 2.029827 -0.23425938 -0.45613587
000280 9c 80 54 3f 80 74 82 3f bc 54 18 bf d3 c0 a3 3e
       0.8300874 1.0191803 -0.59504294 0.3198305
000290 70 23 3f 3f c3 93 ff bf 51 cd 94 3f 2c 60 89 3f
       0.7466345 -1.9966968 1.1625158 1.0732474
0002a0 54 2b 80 3f 3a 1d a1 3f a0 a0 8b 3f 8e 1e a2 bf
       1.0013223 1.2587044 1.0908394 -1.2665575
0002b0 7a b9 13 3f f3 b2 9e 3f 50 50 35 40 ba 33 14 40
       0.5770489 1.2398361 2.833027 2.3156571
0002c0 ab 3c f3 3e 49 fb 93 3f b1 b9 6e 3f db 04 e2 3f
       0.47507223 1.1561061 0.9325209 1.7657732
0002d0 82 68 b1 ba 6d ff 2b 3f ad f5 a8 3f b7 12 92 3f
       -0.0013535174 0.67186624 1.3199974 1.1411961
0002e0 d7 ec 00 3f 2d ba df 3f f6 4e 8c 3f 4e bd 96 be
       0.5036139 1.7478691 1.0961597 -0.29441303
0002f0 8b 90 76 3e 2d d4 45 40 b9 58 6e 3e 02 10 56 40
       0.24078576 3.0910752 0.23276033 3.344727
000300 aa 6e e4 3f e6 ea 33 bf 01 15 38 3f 9e c1 8b bc
       1.7846272 -0.702803 0.7190705 -0.017060097
000310 a9 f2 81 bf 61 41 4a bf 24 35 95 3f 46 44 b8 bf
       -1.0152179 -0.7900601 1.1656842 -1.4395835
000320 5d 2e 08 3e ad d0 10 bd e3 d2 12 3e 72 33 c2 3f
       0.13298936 -0.03535526 0.1433826 1.517195
000330 fe bd 46 bf 91 c9 3b bf e9 eb ad 3f 6b 3c fa 3e
       -0.77633655 -0.7335444 1.3587619 0.4887422
000340 f7 7d 03 be a3 f2 5f 3f 37 0f 04 40 43 27 97 bf
       -0.1284102 0.8747961 2.0634286 -1.1808857
000350 05 e4 f6 bc cb ea e9 3f a9 e5 1e 40 b1 6c a2 bf
       -0.030138025 1.8274778 2.4827673 -1.268942
000360 c4 4a d4 3e 03 1a 90 3f 9d 36 19 bd 71 97 c3 bd
       0.41463292 1.1257938 -0.0374056 -0.095503695
000370 c0 16 87 3f 24 42 ca be 58 0c 05 3f 1d ac 50 3e
       1.0553818 -0.39503586 0.5197196 0.20378156
000380 0a 64 bd bc b2 5f cd bf 23 b4 1d 40 ab 98 90 3d
       -0.023118991 -1.6044829 2.4641197 0.07060369
000390 48 dd 88 3f de 1b d7 3f 7d da be 3f 67 f4 e4 3f
       1.069253 1.6805379 1.4910427 1.7887086
0003a0 dd 71 81 3f 68 00 5b 3f a5 de 91 3f 5c 11 0a 3f
       1.0112873 0.85547495 1.1396071 0.5393274
0003b0 9e 76 42 3f 99 c1 40 3f f2 f1 87 3f bb 3b 96 3f
       0.75962245 0.75295407 1.0620711 1.1736978
0003c0 79 e4 0e 3d 9f 21 9b 3f d7 b8 b8 3e 9d 43 28 3f
       0.034885857 1.2119635 0.36078522 0.6572817
0003d0 9c 68 ba bf 5a c1 f2 3f 49 17 95 3e d9 d2 b3 3e
       -1.4563174 1.8965256 0.29119328 0.35121801
0003e0 4b 3c af 3f ab 08 6f 3d 4d 1f 75 40 8c 0e 87 3f
       1.3690275 0.058357876 3.8300354 1.0551314
0003f0 4a 0a 1e 3f 74 ea be 3d 60 0f 67 bf 86 d9 cd 3f
       0.6173445 0.09322062 -0.90257835 1.6082008

action_out.bias f4 [5]
000000 83 e2 ca 3f 09 db 46 3f f4 b4 19 40 57 7c 2d bf
       1.5850376 0.7767797 2.4016695 -0.6776785
000010 e9 ef 23 be
       -0.16009487

weight f4 [256, 123]
000000 9f ea 91 c0 1a bf 3e 38 c4 7c c0 3e 51 ed b9 ba
       -4.5598903 4.5477507e-05 0.3759519 -0.0014185106
000010 e0 81 b9 3e 99 13 00 be 84 fe a3 3e 80 77 02 be
       0.362319 -0.12507476 0.32030118 -0.12740898
000020 18 74 c7 3f 87 cb 91 3d 8a 32 58 3d b3 80 8c be
       1.5582304 0.07118898 0.052782573 -0.2744194
000030 b9 a4 83 3e ff 2b 5a be 1f ba fd 3e ab 12 28 bf
       0.2571161 -0.21305846 0.49556062 -0.65653485
000040 0c 7c 46 bf 5f a9 11 bf fc 9a 1b bd 98 cb bf be
       -0.7753303 -0.56899065 -0.0379896 -0.37460017
000050 a5 04 ed 3e 10 d0 06 c0 84 b0 6a 3f 1f f4 da 3f
       0.46292606 -2.1064491 0.9167559 1.710575
000060 2a b8 6a bf 5b d4 20 bc e6 82 d5 bd e8 b5 81 3c
       -0.9168726 -0.0098162545 -0.104253575 0.01583381
000070 56 49 2a bc 60 12 4a 3c 12 f5 63 3d ed ef 17 3c
       -0.010393461 0.0123334825 0.05565364 0.009273511
000080 86 64 60 bc 50 4e 6d bc d8 84 d5 bc 23 a9 25 3e
       -0.013695842 -0.014484003 -0.026064321 0.16177802
000090 f1 e2 93 c0 45 0e 33 be 27 f6 5a 3e 68 12 12 be
       -4.621453 -0.17485912 0.21382962 -0.14264834
0000a0 0e 10 ee 3e d9 6e 24 be 9e aa 93 3e 97 60 33 3d
       0.46496624 -0.1605791 0.28841108 0.043793287
0000b0 41 0f 87 be 19 46 d8 3e d9 8c bd 3d e5 a6 8c be
       -0.26378825 0.4224098 0.0925538 -0.2747108
0000c0 7d 42 7a 3e 25 c9 41 be 9d 61 df 3e e8 11 5a bf
       0.24439426 -0.18924387 0.4362916 -0.8518357
0000d0 de c0 72 3f 4c 43 eb 3c a5 ee 82 3d 66 86 f7 be
       0.9482554 0.028718613 0.06393174 -0.48344725
0000e0 c9 41 fd 3e f4 60 03 c0 da 31 89 3f 4b f6 ef 3f
       0.49464253 -2.0527925 1.0718338 1.8747038
0000f0 6c 82 ea bf 6f f3 5d 3e 60 8a 78 be f8 81 d7 3d
       -1.8321052 0.21674894 -0.24271536 0.105228364
000100 59 58 70 3c a7 ce ed bc 72 f1 5b bc ad 15 9a bd
       0.014669501 -0.029029204 -0.013424264 -0.075236656
000110 16 e1 5d bd 7f 97 31 bb 61 15 9d 3d 5f 4a 48 be
       -0.054169737 -0.0027098355 0.07670093 -0.1955962
000120 e3 3a 91 c0 f8 21 bd be 29 8d 1c 3f 15 a9 c8 bc
       -4.5384383 -0.3693998 0.61152893 -0.024494687
000130 ca 21 ea 3e 3d 30 42 be 00 9c 57 3e ad 97 6d be
       0.45728904 -0.18963714 0.21055603 -0.23202391
000140 cb 26 be be 39 b2 a8 3b 42 84 77 3e 6b 87 48 be
       -0.37138972 0.005148199 0.24171546 -0.19582908
000150 ad 61 69 3e 4d 84 5d be 2b bf c3 3e 0c c1 c6 be
       0.22791167 -0.216325 0.38231787 -0.38819158
000160 a9 64 39 be 2a 6b 7c bd e5 bd d0 3d 36 3d c7 be
       -0.18104805 -0.061625637 0.101924695 -0.38913888
000170 e9 d4 1d 3f 40 38 05 c0 18 fd 86 3f 6e cb 65 40
       0.61653 -2.0815582 1.0545988 3.5905414
000180 42 21 0b c0 60 90 d5 bc 06 5b 1f 3d 14 3c f4 3d
       -2.173905 -0.02606982 0.038905166 0.119255215
000190 b4 56 6c 3c 58 e3 8b 3d 8b 86 6a 3d 0f 4b 8b bd
       0.0144249685 0.06830472 0.057257216 -0.06801426
0001a0 e0 b4 f1 bb 70 ce f6 bb 09 25 6d 3d 20 b6 ea c0
       -0.0073762983 -0.0075319335 0.057896648 -7.334732
0001b0 4f 60 78 3d a6 da 59 3b 64 b4 c7 3b 6c 2a 93 bd
       0.060638722 0.0033241897 0.0060945023 -0.07185826
0001c0 6b 5d c3 3d 02 fa 90 3d dc 71 fa bc 00 6a 26 bc
       0.095393024 0.07078935 -0.03057187 -0.010157108
0001d0 3f d0 7e bb af a1 db bd f5 f4 aa bd 67 d1 82 3d
       -0.0038881449 -0.10724198 -0.08347503 0.063875966
0001e0 be 6e 8e ba a3 5e 9e bd 3e 91 9c 3d 4b 2d 7e bc
       -0.0010866744 -0.07732894 0.0764489 -0.015513728
0001f0 41 4e 79 be 94 5c 23 3d 85 e0 0b be 8a 93 c7 3b
       -0.24346258 0.03988321 -0.13659866 0.006090586
000200 e2 6c 05 be e9 2a a2 bd 4d 11 8e 3f 79 4b cc 3f
       -0.13029817 -0.07918341 1.109903 1.5960532
000210 1e b1 a5 bd 30 fa 15 3c 59 c9 8d be 92 05 d9 3e
       -0.08090423 0.009153888 -0.2769268 0.42387062
000220 d6 ff 34 c0 29 d5 5c 3f 6a b9 e4 3f b4 f2 93 bf
       -2.828115 0.86262757 1.7869084 -1.1558442
000230 88 ed 02 3f af cb 1e bf 86 12 fd be fc 59 62 be
       0.51143694 -0.62029546 -0.49428195 -0.22104639
000240 8f 94 96 bf cd 98 fd be fa 2d 36 be 30 fb f1 3e
       -1.1764086 -0.4953064 -0.17790976 0.47261953
000250 e5 93 14 3f 15 0f 49 bd a4 c5 d7 be 40 bc e9 bc
       0.5803817 -0.04908665 -0.42142975 -0.028532147
000260 2c 8b 1e 3d df 89 04 3e e8 4c 6c 3d aa 89 e0 be
       0.038706943 0.12943219 0.05769053 -0.4385503
000270 b2 7f 7d 3d 95 00 81 3d 92 7c bc 3f b1 1d 1d 3d
       0.061889358 0.06298939 1.4725516 0.038358394
000280 ff 39 43 be 78 95 ac 3e d9 50 0e be 06 ce 23 bd
       -0.19065093 0.33707786 -0.13898028 -0.0399914
000290 eb 2e 0c be 0d 30 40 be 50 b2 40 bf 01 9c 94 3f
       -0.13689773 -0.1876833 -0.75272083 1.1610109
0002a0 80 34 13 bf 01 d3 34 3f 8c 9a ff bd 50 46 be 3e
       -0.57501984 0.70634466 -0.12480649 0.3716302
0002b0 72 21 38 c0 c5 aa 5d 3f 4b f3 93 40 03 92 51 c0
       -2.8770413 0.865887 4.623449 -3.2745368
0002c0 f0 d1 b2 3b ad 15 0a bd ce ee dc be 0e a6 54 be
       0.0054571554 -0.033712078 -0.43150944 -0.2076647
0002d0 a1 c6 89 bf 6d b4 23 bf 64 18 d4 be 94 a1 a3 3f
       -1.0763742 -0.6394718 -0.4142486 1.2783685
0002e0 b9 39 02 be 01 03 62 3f c8 7f e9 be e5 bb 30 3b
       -0.12717332 0.88285834 -0.45605302 0.0026967463
0002f0 17 93 a7 bd d3 69 d1 bc b5 d5 71 3d c5 2d b4 3d
       -0.08182352 -0.025563156 0.059041698 0.08797792
000300 cc c2 fe be c2 9f 2e 3d 0a 1b 94 bf e0 80 0b 3c
       -0.49757993 0.042632826 -1.1570752 0.008514613
000310 78 3b 17 bf ac 01 25 be 2d 48 91 be 5a da 02 bd
       -0.5907512 -0.16113919 -0.28375378 -0.031946518
000320 b3 fa 53 be ac a9 74 bd 84 16 48 bf 6f cf 81 3f
       -0.20701103 -0.059732124 -0.78159356 1.0141429
000330 cf 32 2d bf 0a ae 80 bd bd fb 3b be 74 45 a3 3e
       -0.6765565 -0.06283195 -0.1835775 0.31888926
000340 80 60 38 c0 1b f6 59 3f 40 96 89 3f 86 29 b7 bf
       -2.88089 0.8514115 1.0748978 -1.4309547
000350 3e 5b 3f 3d d5 83 7c bf 5c 3a 0c bf 9a f7 44 be
       0.046717875 -0.9863866 -0.5477655 -0.19235078
000360 43 23 83 bf 61 bd fa be de 15 7c 3e 19 12 5a bf
       -1.0245136 -0.4897261 0.24617717 -0.85183865
000370 00 30 d2 3a 35 4a 9c 3d ec ef df be 9a 38 8a bd
       0.0016036034 0.07631341 -0.43737733 -0.06749077
000380 b4 0a 12 be 30 ae 8f 3d 69 4a 9f bd be 62 33 3d
       -0.14261895 0.070156455 -0.077778645 0.04379534
000390 17 94 87 3d cc a2 f5 be 31 af 08 c0 f2 51 53 be
       0.06620043 -0.47975767 -2.1356928 -0.20636728
0003a0 14 e7 18 be 40 8c c3 bd 84 10 17 be d0 b9 7c 3d
       -0.149319 -0.09548235 -0.14752394 0.061700642
0003b0 33 7f 8d bc f4 af 8d be 5e 30 80 3d 96 e1 02 be
       -0.017272567 -0.27673304 0.06259225 -0.12781367
0003c0 9d 7b c0 bc 03 eb 11 3e 04 57 01 be ac 87 09 be
       -0.023496443 0.14249806 -0.1263085 -0.13430661
0003d0 c3 86 80 bb 2b e1 24 be f2 57 50 bd 1b 06 da bc
       -0.003922315 -0.1610152 -0.05086512 -0.02661424
0003e0 e8 0c 6e 3d ff 12 94 3d 09 5e 06 bc 01 30 46 bd
       0.058117777 0.07230186 -0.008201131 -0.048385624
0003f0 87 28 09 3d 6f c9 f7 bb 34 a8 9b 3d 62 7e 53 3d
       0.033485916 -0.0075618546 0.076004416 0.0516342

bias f4 [256]
000000 cd bf 5e 3d 7a 1c 0b bf 44 d9 cd bd 9e ff 5c 3e
       0.054382134 -0.54340327 -0.10051206 0.21581885
000010 fb 04 6e bd dc dd 37 3c 7c e0 3e be f0 97 87 3c
       -0.05811022 0.011222329 -0.18640321 0.016551942
000020 70 00 9f be eb f5 d5 bd 18 fd 1b bd d5 df 46 bf
       -0.3105502 -0.10447296 -0.038083166 -0.7768529
000030 98 30 5c be 28 33 e6 3d 4c f4 d8 bd bc 51 9a bd
       -0.21502912 0.11240226 -0.10593471 -0.07535121
000040 cf bc d9 bc 91 67 f6 bd 47 fd 5d 3d fb 40 88 bd
       -0.026579289 -0.120314725 0.054196622 -0.06653019
000050 d7 47 24 bf d7 09 34 bf 9b 0e 96 3d c2 7d 51 bb
       -0.6417212 -0.70327514 0.073270045 -0.0031965827
000060 ef 6b e0 bc 61 98 b3 bc cf 95 a9 bd 69 4b b9 3b
       -0.027395217 -0.021923246 -0.08280527 0.0056547415
000070 ce 22 25 be 15 8d 3c 3f 98 96 c6 3d a2 6a 95 bd
       -0.16126558 0.73652774 0.09696692 -0.07295729
000080 f7 39 c4 bc 7a 51 e7 bd 6e c3 05 bd d3 a7 8a bd
       -0.023953421 -0.11294837 -0.03265708 -0.06770291
000090 5b 1d 60 bf a7 07 e4 bd d2 6e d1 bd a3 f2 37 be
       -0.8754479 -0.11134272 -0.102262154 -0.17963652
0000a0 dd e3 1e 3d 25 8a ee bd a3 3d 27 3d 2f a0 9f 3b
       0.038791526 -0.11647443 0.040830266 0.0048713903
0000b0 6b 5d d5 be 49 bb 87 3d d3 91 5d be 93 3f 9b bd
       -0.41672835 0.06627519 -0.21637659 -0.07580485
0000c0 09 df be bc 69 49 72 bd 41 52 f0 3c c9 01 fa bc
       -0.02329971 -0.05915204 0.029336097 -0.03051843
0000d0 b3 88 f6 bd 36 45 0c 3f 25 38 91 bd 5f b5 3e bf
       -0.12037792 0.5479311 -0.07090787 -0.744955
0000e0 a7 1d 28 be 2e ee 18 bd 1b 38 04 bd fe 3b 30 bd
       -0.16417561 -0.03733652 -0.03228007 -0.043025963
0000f0 8b 72 9e 3d 62 7c cc bd 12 79 89 bd 09 41 31 bd
       0.07736691 -0.09984662 -0.067125455 -0.043274913
000100 ae 10 85 bd 58 44 73 bd c6 5b 07 bf ef d2 ce bd
       -0.06497322 -0.05939135 -0.5287441 -0.10098826
000110 29 38 16 3d 8d 6b ad bc 2f c2 94 3e 85 fa e3 bc
       0.036674652 -0.021169448 0.290544 -0.027829418
000120 4c 2c 1f 3f f0 59 1b bd d5 e3 45 3f a0 ba 18 3d
       0.62176967 -0.037927568 0.7730077 0.037287354
000130 0e 7c 45 3d 61 dd 05 bf 31 2e 2c 3d 0c 7f ba be
       0.04821401 -0.5229092 0.04203624 -0.36425054
000140 d7 99 02 3d 1d 35 c3 bd 50 0f 6b be 0e 42 74 bd
       0.031884994 -0.09531615 -0.2295506 -0.059633307
000150 75 6a 10 bc f2 7f 43 ba 8c 50 44 bd 5f 66 7f bd
       -0.008814444 -0.0007457725 -0.047928378 -0.062353488
000160 ef 78 93 bd 9f 25 63 3c da 1c fa bd 1b 58 98 3c
       -0.072008006 0.01386395 -0.12212534 0.0185967
000170 60 d8 d0 bd 35 1a 81 bf c3 6f b1 3b 44 95 b6 bc
       -0.1019752 -1.0086123 0.0054149344 -0.022287972
000180 fd 37 bf 3b 55 3f f0 bd 19 e6 ee bd 3c a4 74 bf
       0.0058355317 -0.117308296 -0.116649814 -0.955631
000190 a7 f3 ed bd 40 68 5a bd 66 33 87 bd be 8a f9 bd
       -0.116187386 -0.053322077 -0.066016 -0.12184666
0001a0 91 2a 33 be 67 f8 66 bf d6 75 3c bc e6 09 3d 3d
       -0.17496707 -0.9022278 -0.011502704 0.046152018
0001b0 bc 04 13 bc 61 b3 0d bc 41 33 81 bd ba 39 e6 bd
       -0.008973297 -0.008648724 -0.06308604 -0.11241479
0001c0 64 3b 93 bd 61 a4 a6 3e 75 8e 8b bd 01 31 6f bd
       -0.07189062 0.32547286 -0.06814281 -0.058396343
0001d0 eb 06 b9 bc b9 7a f5 3c 7c c5 b7 bd 8d 1a 01 bd
       -0.022586307 0.029965745 -0.08973214 -0.03151946
0001e0 39 90 8f bd 6f ef 04 be 91 19 b6 bd a3 21 b0 bc
       -0.0700993 -0.12981962 -0.08891595 -0.021500414
0001f0 6e 01 cf bd c6 21 38 3e 9b 09 91 bd 67 5c 1c bb
       -0.101076946 0.17981634 -0.0708191 -0.0023858787
000200 f5 85 00 bd 67 38 86 bf b9 33 c1 be 43 0d e9 bd
       -0.03137775 -1.0485963 -0.37734774 -0.113794826
000210 cc 3b ae bd da 43 79 bf ee 7f 29 bd 5d 55 13 bf
       -0.08507499 -0.9736916 -0.04138177 -0.5755213
000220 10 d0 1d bd ce 1d b0 bd b4 b5 bc bd 17 ef 16 bf
       -0.038528502 -0.08599435 -0.092143446 -0.5895857
000230 48 83 4d bd 60 ce c2 bd bd 69 0b be 54 e6 06 be
       -0.050174028 -0.09512019 -0.13614555 -0.131738
000240 2a fb 3d bd a0 a8 51 3e 34 86 cc bd 1c 99 67 3f
       -0.046382107 0.20474482 -0.09986535 0.90468
000250 0b 8b a3 be 53 80 b8 bc 73 4a f2 3e be 61 64 bf
       -0.3194202 -0.022522127 0.47322425 -0.8921164
000260 75 5e e3 bd a3 6c 51 be 94 8e 34 3e eb 17 65 bd
       -0.111020006 -0.20451598 0.17632514 -0.055931013
000270 5e 2d b1 bd cf bf f5 bd 36 2d 2f 3f bc 15 15 bd
       -0.08651231 -0.11999475 0.6842836 -0.03639768
000280 f4 b0 a8 bd 67 00 4b bd 1e 1d 57 bd 37 c5 71 be
       -0.08236876 -0.04956093 -0.052518003 -0.23610388
000290 bc 36 b5 be d9 63 0a be 17 14 cd bd 5b 1e 97 bd
       -0.35393322 -0.13514651 -0.100135975 -0.07378837
0002a0 37 a6 0a be b5 69 13 3d 1c 7e 00 3d 7a 37 92 bd
       -0.13539968 0.035989482 0.031370267 -0.071394876
0002b0 c8 1e 8f bd cc 43 36 bf a1 b5 89 bd 0c 4b e9 3c
       -0.06988293 -0.711972 -0.06724096 0.028478168
0002c0 b9 c5 b0 bd 28 2c 74 3d 6b a3 00 3d 7f d6 19 3e
       -0.086314626 0.059612423 0.031405848 0.1502323
0002d0 ca a0 98 bd 5e 98 0a be 0e 4d 52 bf 5f 08 dd be
       -0.07452543 -0.13534686 -0.82148826 -0.4317045
0002e0 4a c7 4e bd c3 3f ae bd a5 58 93 bc 06 fe bf bd
       -0.050483026 -0.08508255 -0.017986605 -0.09374623
0002f0 55 af 26 bd 33 e2 7b 3b c3 ae 5d be 8c cb f6 bd
       -0.040694553 0.0038434386 -0.21648698 -0.12050542
000300 8a 7c e3 bc 2e ac 07 be a0 e4 22 3f fc b7 45 be
       -0.027769346 -0.13249275 0.63630104 -0.19308466
000310 88 84 00 bf b6 08 6c bd 74 b0 09 bc bb b2 68 bd
       -0.50202227 -0.057625495 -0.008403886 -0.056811076
000320 72 5b 1a bf 07 96 59 bd da 0a 6c bf ab 1c 7a bd
       -0.60295784 -0.053121593 -0.9220406 -0.061062496
000330 21 d3 65 3d 8a 70 18 bd 0f db b2 bd 4e 44 50 bd
       0.05610955 -0.0372167 -0.08733188 -0.05084639
000340 6c 6a bc be ff 86 d8 3c f9 5a 2a bf c8 8c 3d be
       -0.36799943 0.026431559 -0.66545063 -0.18510735
000350 18 85 88 be ba 6b 5f bf cb ec 2d bf e1 b4 96 bf
       -0.26664042 -0.8727375 -0.6793944 -1.177395
000360 5e 17 04 be f2 b0 23 bd 16 e0 e3 bd bc d3 61 bd
       -0.12899539 -0.03996367 -0.111267254 -0.055133566
000370 4b 87 01 bd ef 5f 6e 3c 0b 79 99 bd c1 83 b5 bd
       -0.031623166 0.01454924 -0.0749379 -0.08863021
000380 4b e4 74 bc 0b 10 01 be c0 7f 38 bd 4f 89 22 bc
       -0.014947007 -0.12603776 -0.045043707 -0.009920432
000390 8f ad 3a bd 55 6a 0d 3b f9 0e 97 bd 04 c3 83 bd
       -0.045575675 0.0021578271 -0.07375903 -0.06433681
0003a0 95 4e f4 3e 40 4e b6 be 98 fa 0c be ec c2 6e bf
       0.47716203 -0.35606575 -0.13767469 -0.9326618
0003b0 ec 87 85 be 33 3a 81 3d a8 8f 57 3b 0f c7 4c 3f
       -0.26080263 0.06309929 0.0032892022 0.7999124
0003c0 3e 52 b2 bc 8c 37 c7 bd b1 c2 10 bd 79 6c a1 bd
       -0.021767732 -0.097273916 -0.035341922 -0.07882018
0003d0 42 f7 8a 3c 6c e8 37 3c 25 28 03 be 76 ca 1a bf
       0.016963605 0.011224847 -0.12808283 -0.6046518
0003e0 19 32 7c bd 90 72 49 bf 23 11 91 ba e6 87 97 bd
       -0.061571214 -0.78690434 -0.0011067729 -0.073989674
0003f0 4a d8 22 3d 31 49 a7 bd b8 f6 2b 3d 4e b4 98 bd
       0.03975705 -0.08168257 0.041983336 -0.074562654
