saved_models_1/125_11343_model.pt (torch, 701697 bytes, 11 tensors)

FC1.weight f4 [256, 36]
00000000: 92e6 4e3e ba24 853e 4570 ee3e f570 b3bf
00000010: 0540 cf3f b3b3 b33f 08c1 96bf 13fd 31c0
00000020: b901 2a40 96f7 3140 e2b0 37c0 bf81 40be
00000030: 54a8 80bf 09b9 ab3e a64b 883f 4033 d13d
00000040: 0a46 cdbf be96 833f 8023 2f40 9612 8e3e
00000050: 411b 1040 6b91 283f 4992 bebf d268 94be
00000060: 9098 5740 55d4 843f 1bf3 4bc0 fa96 74be
00000070: 13dd bbbd 8031 093f e688 3fbf 1727 51be
00000080: da55 94c0 e125 bb3e b551 e43e d3fb 99c0
00000090: 41ca 83bf a017 483e e180 1ebd 639b a43e
000000a0: 9ba3 c1bf d966 c43e 6097 ba3f 8425 91bb
000000b0: f78b 12c0 77fb 8bbd 2e7b 4440 cceb edbe
000000c0: c70b a0bf 0882 2cbd 4feb 873f 8140 113e
000000d0: ed26 e7bf 7101 243f 34cf 2940 2d5b fb3e
000000e0: 8f7b 423c fb10 ac3e 9ad5 24bf 5b16 bfbe
000000f0: 22bd 2440 9be9 af3e f627 91bf 7f9b dbbd
00000100: 42cb 47be 4b53 ad3e 5375 1ebf f1b4 163f
00000110: 9571 a3c0 b1eb 06c0 acf7 0240 567f 1bbf
00000120: 0c7e 153f 3b4f a33f 6f03 33bf 1da1 983f
00000130: d7c4 7bbf 14df ea3f a677 5cc0 d1ac 04c0
00000140: 0afe 3e40 2667 dabf 5abe 273f 0394 463f
00000150: 3f26 45bf 0e8d 873f 37c2 4fbf 5800 223c
00000160: 98da b13e 35e6 1740 14ae 02bf 13a8 b03f
00000170: 759e c9bf d6e9 d33f e11e 0dbe 5817 a33e
00000180: d062 6fbf a22b 8c3e 43b1 dc3f 222f 87bf
00000190: 28d8 b9bf 9c21 7fbe 63dc b3bd 15c3 c33e
000001a0: 4391 ea3e 63e4 83bf 52c8 e2c0 76d6 58c0
000001b0: cd50 03c1 4fb5 8a3f dda7 483e 29a6 96be
000001c0: 2309 6dbf 3771 32bf 0f18 453e ce6b ab3f
000001d0: 499a bfbf 4f83 2f3f 5394 833f ea1e 4b3f
000001e0: f9d6 51bf bd0e 84bf e62d f83e 2372 e73f
000001f0: c29e eebf 016b 69bf fa95 c13f 0a7d 4e3e
00000200: e855 7abf fb3f 7a3f edea 933f c562 09bf
00000210: 99c3 31c0 8c28 be3f 0eca 4d40 453f 003f
00000220: 113a b7c0 003a 1140 c7dd de3e 470b dcc0
00000230: bc2e 31c0 1c54 0ec0 aa34 12bf 97ea 98c0
00000240: 4e39 05c0 4617 52bf 19c6 1dbd 2d51 8ebf
00000250: 7fec a43f d4fb aebe 7e32 b4bf 5360 b4bf
00000260: 100f 9740 a4f8 813f 1877 8bc0 ebe1 5bbf
00000270: 67ee a03f 912d 083d e189 96bf fcdb 84bf
00000280: c2d9 1b40 4e83 823e 232d 38c0 6279 283f
00000290: 3186 6f3e 5167 d8bf e9b7 c3bd 73c5 d73f
000002a0: 7683 1b3d 1d8c 34c0 ee88 263e 7e46 653d
000002b0: c5a6 3f3e 31de 723f a528 c83e 4943 863f
000002c0: 4c5f 8c3f 3982 5b3f 7d9e dcc0 0e52 76c0
000002d0: 42eb 40c0 2985 39be 8d78 cdbd eecd 2e3f
000002e0: 3d1e 893e 5583 853f ca67 f8bf 913e 52c0
000002f0: 52c3 ed3f ccc9 c2bf 7903 0fbd 10ff fbbe
00000300: b09f 44bf 322f 273f f7ca dbbf 7227 0dc0
00000310: 2ad6 f23f 435e 5ebf 99fa 363f 8d83 41bf
00000320: 4b2c 92bf 14ad aabe 27fc c43e 202e 61be
00000330: 2c58 0bc0 26d7 ad3e bb8d 393f 75ef a73f
00000340: 4c2e 693f 877e ddc0 3efe d9c0 83b1 ebbf
00000350: d9c5 8c3f 51ae f3be 7135 88c0 7d38 f9c0
00000360: 8a0b 4abf 91c2 46bd a26d 35be d4bb 9ebc
00000370: 7f43 e43e 942d 763e 7c8e 053f bb13 babf
00000380: 83d8 babe e05e b33e 4f9c 9d3d d78e f93f
00000390: f80e 79bf ee42 9fbf 6694 523f 3023 e73f
000003a0: f026 cdbf 04af 58c0 17a9 c13f 7d53 093f
000003b0: eeb5 413f 4bdd f7bf bdce 14bf 347d 1140
000003c0: 9cd3 623e 4d9d a1bf 2158 e1bf 61fb cb3e
000003d0: d15d 133e a59c ac3d b160 713e 1798 20bf
000003e0: 4861 df3f 1f07 47c0 a5e2 bcbe f935 60be
000003f0: 077f cbbd 641f bfbc 9684 09bf 3e4a abbf
0.20205143 0.26004583 0.4657003 -1.4018847 1.6191412 1.4039215 -1.1777658 -2.7810714
2.6563551 2.7807364 -2.870171 -0.18799494 -1.005137 0.33539608 1.0648086 0.10214853
-1.6036999 1.0280378 2.7365417 0.27748555 2.2516634 0.6584689 -1.4888393 -0.28986222
3.3686867 1.0377299 -3.186713 -0.23885718 -0.09173026 0.53591156 -0.74818265 -0.20425068
-4.63548 0.36552337 0.44593588 -4.8119903 -1.0296098 0.19540262 -0.038697127 0.321498
-1.5128053 0.38359717 1.4577446 -0.004429521 -2.2897928 -0.068350725 3.0700183 -0.4646896
-1.2503594 -0.042116195 1.0618685 0.14184763 -1.8058754 0.640647 2.6532717 0.49093
0.011870279 0.33606705 -0.6438843 -0.37321743 2.5740438 0.34357914 -1.134032 -0.10723018
-0.1951113 0.3385261 -0.6189777 0.58869845 -5.107615 -2.1081355 2.0463667 -0.60741174
0.5839546 1.2758554 -0.69927114 1.1924168 -0.9834723 1.8349328 -3.4448028 -2.0730479
2.9842553 -1.7062728 0.6552483 0.775696 -0.77011484 1.0589921 -0.81155723 0.009887777
0.34737086 2.3734257 -0.5104687 1.3801292 -1.5751482 1.6555736 -0.1378131 0.31853747
-0.9351015 0.2737704 1.7241596 -1.0561259 -1.4519091 -0.24915165 -0.0878227 0.38234773
0.4581395 -1.0304073 -7.086953 -3.3880897 -8.207227 1.0836581 0.19595285 -0.29423645
-0.92592067 -0.69704 0.19247459 1.3392274 -1.4968959 0.68559736 1.027964 0.79344046
-0.8196865 -1.0316998 0.48472518 1.8081707 -1.8642199 -0.911789 1.5123894 0.20164886
-0.9778733 0.97753876 1.1556069 -0.53666335 -2.7775633 1.4856124 3.2154574 0.5009654
-5.725838 2.269165 0.43528578 -6.8763766 -2.7684774 -2.2238836 -0.5711161 -4.7786365
-2.0816226 -0.8206676 -0.038519 -1.1118523 1.2884673 -0.34176505 -1.4077909 -1.4091896
4.7205887 1.0154004 -4.358288 -0.858916 1.2572755 0.03324658 -1.1760827 -1.0379634
2.435166 0.25490803 -2.877755 0.65810215 0.23391034 -1.690653 -0.095565625 1.6857132
0.037967168 -2.8210518 0.16263172 0.05597543 0.18715961 0.9487029 0.3909351 1.0489284
1.0966582 0.8574558 -6.8943467 -3.8487582 -3.014359 -0.18117203 -0.10032759 0.68282974
0.26780882 1.0430704 -1.9406674 -3.2850688 1.8575232 -1.5217834 -0.03491542 -0.49218035
-0.76806164 0.6530639 -1.7171315 -2.2055326 1.8971608 -0.8686258 0.7147613 -0.75591356
-1.1419767 -0.33335173 0.38473627 -0.21990252 -2.1772566 0.33953208 0.7248189 1.3119951
0.9108627 -6.921695 -6.8122854 -1.8413547 1.0997878 -0.4759393 -4.2565236 -7.7881455
-0.7892386 -0.048525397 -0.17717603 -0.019376673 0.44582745 0.24040824 0.5217054 -1.4537271
-0.3649331 0.3503332 0.07695829 1.9496716 -0.97288465 -1.24423 0.8225769 1.8057613
-1.6027508 -3.385682 1.5129727 0.5364302 0.7566823 -1.9364408 -0.5812796 2.2732668
0.22151035 -1.2626129 -1.760502 0.39840224 0.14391257 0.08428315 0.23572041 -0.6273207
1.7451563 -3.1098096 -0.36891666 -0.21895589 -0.09936338 -0.023330398 -0.53717935 -1.3382032

FC1.bias f4 [256]
00000000: 09be b2be 5fe8 d0be b7c1 84bf 51fc 033f
00000010: e5c1 8c3d a549 9b3f 2250 4a3e 57c9 083f
00000020: 307b b7be a65f 8bbf ecc0 273c e5d8 60be
00000030: f6a3 90bf a370 153f 7ba3 4ebe 8893 a03c
00000040: d636 21bf 3869 00c0 0c9a 9c3f ac48 213f
00000050: 0d11 88bd 3424 2fbf bb43 c93f 3743 26bf
00000060: 4a3b a3be 5042 46bd 41f4 40bf 1ac1 5c3e
00000070: fce5 5cbf a61f 07be 5451 7dbf 4ce7 3abf
00000080: d312 c6bf 2d0f 15bf 4332 5fbf a082 4c3f
00000090: 2010 e9be ca4c 77bf 5b34 febe 3ad9 38be
000000a0: d104 b1be fb61 ccbe a864 f83b 78a2 b6bf
000000b0: 98ed 943d 5b53 fdbd cdbd 84bf f75c abbe
000000c0: d5ea 413f a3d3 babe 1d85 d63f ff4b 48be
000000d0: c66a 80bf 431b d9bd cd0d 923e 65a8 a4bf
000000e0: 06b4 a53e 188d f1be 7f72 af3e 5dff fa3e
000000f0: 4380 57be d61d 24bf a6fc 0d3c 4182 323f
00000100: a26f 8d3e 6e0e 8cbf 123d 07bf b18e 10be
00000110: 53a3 f7be 16d3 acbd f4e4 abbe 9203 acbe
00000120: 284a bd3f 45e6 3c40 7e82 4fbe 87a3 a53d
00000130: 69e4 fcbe ad29 3dbe e33d ff3e cbd1 593f
00000140: b38f 48bf a9a4 69bf e8b0 a13e 2fc0 4d3e
00000150: 4210 0abf a46f edbd 9aba c0be 86a4 723f
00000160: 665a f3bf 311b 1a3f 9d01 fc3c ee44 23be
00000170: bf93 85be e6ed d73f fffd 6cbf 1d36 45be
00000180: cdf0 9ebf fec2 113e 1f33 12c0 4bdd 07c0
00000190: 077c eb3e 9223 1a3f 8ad2 ebbe b942 bcbf
000001a0: 71a4 04be 9c58 cdbd 4d79 8abe 160c 31bd
000001b0: 8c6d 2d3e 9e2e 9a3e 66cc bdbe 7fdc 90bf
000001c0: 8ad9 b2bd dad1 673e 855d 93be 5ded be3e
000001d0: eb12 58bf 2035 fdbe e72c efbe 1576 c5be
000001e0: 7a22 5ebf ae78 adbf ea78 883e e5e9 ff3e
000001f0: 0cf6 dcbf a714 3dbf a3ee c8bf d5fb 81bf
00000200: 2423 85bc 2e95 be3d 8976 093e 0c40 5a3f
00000210: 570b db3e 5f09 3f3e a97d 2dbf e3f2 c4bf
00000220: b770 03bf e3fd 63bd 46f0 82be 3f91 19bf
00000230: 78c1 6dbe 137e 633e 48f2 2ebf b766 7b3e
00000240: e08c 1abe a77c 5bbf a63b 5cbe 0c9f 9540
00000250: e2f7 59be 699d cfbe 81b8 a53f 8a39 15be
00000260: 79be aebe 4b31 3bbe 9215 e53f d9aa 1ebe
00000270: f4d5 d4be 94f3 233e 5703 253f 9783 833e
00000280: f6fe 3fbf 113e e53f 6e5a e53f 5c83 683c
00000290: 9d4e 0b3e 149e bc3d a288 10bf 0c7b 3cbf
000002a0: a08d c13e a6b5 863e 0a94 50bf 4013 32bf
000002b0: d391 743f c7a9 25bf 4bf0 da3e 3cad d2be
000002c0: b2d4 39bf 1eab 5c3e 9e36 aabf af20 adbf
000002d0: fe69 0c3f 2286 9c3e a7ac ccbf 07af 36bf
000002e0: ed89 9b3f d33a 783e e29a 0d3f 8abc 75be
000002f0: fd78 5c3e e651 cabf 1e65 adbe 9891 14be
00000300: 0066 213f 23be 623e b4fe c03f 1add 493f
00000310: ffc8 48be 806a 96bd 7c22 463f f812 fd3e
00000320: df29 a0bf d92d 6dbe 62c4 43bd b2f8 8ebf
00000330: d9ee b5bd 81f3 813d 4957 b93f 55cf c4be
00000340: 5069 be3e e405 2a3f 8356 6abf 9204 383f
00000350: e778 9bbf 229f 97bf 4ee1 2dbf e236 c2be
00000360: 12ba bdbe 36ec 3fbf 4bc3 ba3e 752b 5d3f
00000370: e2bc 67be 78f0 b1be 8076 433d fc8f cf3f
00000380: ce77 01bf 8807 17bf 858d cdbf 6723 d2bf
00000390: 0e38 a1be 27ca 32bf bba9 bf3f df03 60bf
000003a0: c947 54bf e099 92bf 1043 94bf 2d5e 313f
000003b0: 3deb 9bbf 4dc8 d33e 6f89 543f 050c fabe
000003c0: 560b 0fbf 8961 22bf d4ba 22bf b0f0 203f
000003d0: 8903 853f e023 50be f984 b0be 112a 873d
000003e0: 17be 27be 13d0 763e 716c 58be e210 14be
000003f0: b865 dfbd 3dd7 de3f 74f6 c3bf ccaa 5ebf
-0.3491061 -0.40802285 -1.0371617 0.5155688 0.0687292 1.213185 0.1975713 0.5343222
-0.35836172 -1.0888565 0.010238867 -0.21957739 -1.1300037 0.58374995 -0.2017955 0.019601598
-0.629743 -2.006422 1.2234511 0.63001513 -0.06643877 -0.68414617 1.5723795 -0.6494631
-0.3188117 -0.048403084 -0.753727 0.21558037 -0.8628843 -0.13195667 -0.9895222 -0.7300918
-1.5474495 -0.5822628 -0.8718607 0.7988682 -0.45520115 -0.96601546 -0.4964932 -0.18051615
-0.34573987 -0.39918503 0.0075803585 -1.4268332 0.0727188 -0.123694144 -1.0370423 -0.33469364
0.7574895 -0.3648959 1.6759373 -0.1956024 -1.0032585 -0.10600903 0.28526154 -1.286389
0.3236391 -0.47177958 0.3426704 0.49022952 -0.21045022 -0.64108026 0.008666193 0.6973
0.27624232 -1.0941904 -0.5282756 -0.14116932 -0.48366794 -0.08438699 -0.33573115 -0.33596474
1.4788256 2.9515545 -0.20264623 0.08087831 -0.49393013 -0.1847293 0.49851903 0.85085744
-0.7834427 -0.91266876 0.3158028 0.20092843 -0.5393106 -0.115935594 -0.37642366 0.9478229
-1.9011962 0.6019774 0.030762488 -0.15944263 -0.26089284 1.6869476 -0.9257507 -0.19258924
-1.2417237 0.1423454 -2.2843702 -2.1228817 0.45993063 0.60210526 -0.46059066 -1.4707862
-0.12953354 -0.100266665 -0.2704567 -0.043224417 0.1693632 0.3011369 -0.37070006 -1.131729
-0.087328985 0.22638646 -0.28782287 0.3729047 -0.84403867 -0.49454594 -0.46713945 -0.38566652
-0.8677136 -1.3552454 0.2665475 0.49983135 -1.7262588 -0.7385964 -1.5697826 -1.0154978
-0.016252108 0.093057975 0.13424124 0.8525398 0.4278209 0.18655919 -0.6776987 -1.5386623
-0.51343864 -0.055662047 -0.2557394 -0.5998725 -0.23218334 0.22216062 -0.6833844 0.24550901
-0.15092802 -0.8573708 -0.21507129 4.675665 -0.21285966 -0.40549782 1.2946931 -0.1457273
-0.34129694 -0.18280523 1.7897208 -0.1549486 -0.41569483 0.16010886 0.6445822 0.25686333
-0.74998415 1.7909566 1.7918222 0.014191475 0.13604207 0.092098385 -0.56458485 -0.73625255
0.37803364 0.26310462 -0.8147589 -0.69560623 0.9553501 -0.64712185 0.42761454 -0.41147792
-0.7259017 0.21549651 -1.3297918 -1.3525599 0.5484923 0.30571085 -1.5990189 -0.7136082
1.2151467 0.2424119 0.5531446 -0.23997703 0.21530528 -1.5806243 -0.3386621 -0.14508665
0.63046265 0.22142844 1.5077729 0.78853 -0.19607924 -0.07344532 0.7739637 0.49428535
-1.2512778 -0.2316202 -0.047794707 -1.1169646 -0.08883447 0.06345273 1.4479762 -0.38439432
0.37189722 0.6641524 -0.91538256 0.71881974 -1.2146271 -1.1845438 -0.6792191 -0.37932497
-0.37056023 -0.74969804 0.36477122 0.86394435 -0.22630647 -0.34753776 0.047720432 1.6215816
-0.5057343 -0.58995867 -1.6058813 -1.6417054 -0.3148808 -0.6983971 1.4973673 -0.87505907
-0.82922035 -1.1453209 -1.1582966 0.69284326 -1.2181164 0.41363755 0.8302221 -0.48837295
-0.5587667 -0.63430077 -0.6356633 0.6286726 1.0391704 -0.20326185 -0.3447645 0.065998204
-0.16381107 0.24102812 -0.21135117 -0.14459565 -0.10908073 1.7409436 -1.5309587 -0.86979365

FC2.weight f4 [256, 256]
00000000: d0f8 20be 5ba2 1bc0 1466 86bf fbef 3c3e
00000010: 81c4 a73f c18a ad3e 139c 86be ef36 99c0
00000020: fc72 79c0 0d7e c43f 760f 04bc 6543 403f
00000030: 0b3e 85c0 4fad 08bf f01e ff3f afda 2b40
00000040: aae9 febf 73a4 3a40 a2c4 89c0 4097 25be
00000050: 1240 1f3d b335 3340 58ac 08c1 94bb 1fc0
00000060: 6f14 cd3d 8cc9 e2c0 8968 6fbf 37f0 12c0
00000070: 98bc bb3f 8121 3540 7cba 0440 9e37 b43d
00000080: 75fa 34c0 7c34 10bf e193 f03e 0d1c c33f
00000090: 2368 9fbf 8bb9 f13f 9e1e 633e 8591 5340
000000a0: cd90 563e d649 713d 3ecf 0ec0 8f77 01bf
000000b0: ab8e 1f40 1e54 0fbe ba57 2cbf 590a a9be
000000c0: bf18 5dbf 0f9d 993f 1858 04c0 58b8 94bc
000000d0: 21ab 75be 2ab3 22c0 de45 08c0 7470 26c0
000000e0: 83c4 91be 3e30 de3f 590a 5fc0 0d18 79bd
000000f0: e842 b33e 2fa4 31bf b1a6 8cbe 3314 863f
00000100: 96b5 c53e dee0 8240 6972 8a3f 3ea4 23bd
00000110: f436 b3bf 3d4d 94bd 15db 80bf 0e08 41be
00000120: fd9f 9a3e 5b27 98bf 745f 443f e0e3 8a3f
00000130: 4a8e 58c0 4089 09bf 228b 2fc0 1d85 da3f
00000140: 1fa2 3c3f ba73 bfbf 68ab db3e af3a f13e
00000150: a199 8abb 2c7e a13f 4bd4 443f bb87 3ebf
00000160: a7b1 c63e 9e0e 373f fa76 5abc 733f 5b3e
00000170: dd0d ba3e d72a cb3c 0c1f 933f 92cd 9b3f
00000180: 3e1b bf3f 7717 9dbf 137f e73e 77ab b1c0
00000190: 5d01 70bf 83c6 d03e c5cf 09bf 0e3b 873e
000001a0: f24f 283c e0a2 5d3f 5418 a93f 5595 573f
000001b0: 05db 823e fdab c1c0 5e0e b33e 961f 983e
000001c0: 7584 f0bf 5c17 55bf 652b 0840 f528 9ec0
000001d0: 7983 db3f b616 ba3f 6ef0 20bf a5ff 49be
000001e0: a5aa 413d bd08 f6bf e9d9 3fbf 25ad 00bf
000001f0: 78c0 05c0 fae9 52be 7ebd 2440 cee0 9e3f
00000200: e566 ee3f b61d 153f 07cd 893f 01f0 c23f
00000210: 460a a53f 30d5 f4be 2d82 e3be 0823 c43f
00000220: f0d6 e7bf 3f3c 95bf b542 55c0 617d 9e3e
00000230: 3e22 b2bc a794 f0bf a47f e53f 99af 8abe
00000240: 8849 99bf 3f13 01c0 1034 f73e 62f8 3c3f
00000250: 5a80 8dbd 8bc3 1040 b4ad efbd 9853 b6bf
00000260: 3184 a5bf 73ae e1be 07b1 38c0 d246 15bd
00000270: 42c1 aabf 8a4a 6240 35a6 18be b76f bfbf
00000280: eaee 0b40 df47 61bf f86e b5be 107a 583e
00000290: 2df7 78bf ddc6 f13e 592e ec3e edad a2bf
000002a0: d261 bf3f dc10 f8bf 2a32 4a40 67ad 08bf
000002b0: 6a71 2dbf 959d a4bf 53db 81bf 9814 60c0
000002c0: dec8 d23e 9a56 83bf 64d8 a5be 3fbe ab3e
000002d0: b8da c63e 5be3 6abd b717 35bf 45ba c43f
000002e0: 164c ddbc a9e6 323f 8793 543f bc8a 5ebf
000002f0: 111d 90bd 3b04 0cc0 2050 1040 9292 353e
00000300: b3e4 8dbe efb9 393f 8ceb 71c0 c2f5 94bd
00000310: 6478 033f c0de fd3e 48e0 ee3e 3faf 19c0
00000320: f569 213f b6ea dcbf 8875 53bc 64f8 b2c0
00000330: 029f f5be 6af1 32c0 fabd 19c0 2e8d 0cbf
00000340: 8ec6 9cbe 29bf 82c0 ca20 f33e 3c11 33bf
00000350: abb7 833f d5d5 33c0 2ca7 90bf e939 f03a
00000360: 8106 dabc 47e6 60bb 2fdc b0c0 1fa7 30be
00000370: f24b 29c0 8705 03c0 0087 973f d202 ea3f
00000380: 87d6 5140 7c5b 09bf 35dd 783f 17ec a63f
00000390: 9258 c8bf 488e fbbe 6de4 f8bf adbb 0cc0
000003a0: 3b8d 853f 9043 9cc0 b26b cf3f f1a4 96bf
000003b0: ad84 bec0 8a2f ee3f 930a 5cbe 84f7 3e3f
000003c0: aa0d e73e ffd1 84c0 57a1 203f 5a45 1e40
000003d0: d49e ab3f b5b2 d93e 643b 893f 31de 8a3f
000003e0: 4a9c 6ec0 eea1 d43f ffba f2be 5b34 d23d
000003f0: d483 95c0 04f4 c6be 3ca4 efbf bbfb acbe
-0.15719914 -2.4317844 -1.0499902 0.1845092 1.3106843 0.33894923 -0.2629095 -4.7879558
-3.897643 1.5350968 -0.008060327 0.75102836 -4.1638236 -0.5338945 1.9931316 2.6852224
-1.9915059 2.9162872 -4.305253 -0.16170979 0.03887946 2.8001525 -8.542076 -2.4958239
0.10013663 -7.087103 -0.93518883 -2.2959116 1.4666929 2.83017 2.073882 0.08799671
-2.8277867 -0.56330085 0.46987823 1.5242935 -1.2453655 1.8884748 0.22179648 3.3057568
0.20953675 0.058908306 -2.231399 -0.50573057 2.4930828 -0.13996932 -0.6732136 -0.33015707
-0.86365885 1.2001055 -2.0678768 -0.018154308 -0.23991062 -2.5421853 -2.1292644 -2.6006136
-0.2847024 1.7358472 -3.4850066 -0.060813952 0.35011983 -0.6939115 -0.27470925 1.0474914
0.38615102 4.0899496 1.0816165 -0.039951555 -1.4001145 -0.072412945 -1.0066859 -0.18850729
0.30200186 -1.188701 0.7670815 1.0850792 -3.3836846 -0.5372505 -2.742867 1.7071873
0.7368488 -1.4957192 0.4290421 0.47115085 -0.00422974 1.261663 0.76886433 -0.7442586
0.38807413 0.7150668 -0.01333403 0.21410923 0.36338702 0.024800701 1.149385 1.217211
1.4930189 -1.2272786 0.45214137 -5.552181 -0.9375208 0.40776452 -0.53832656 0.26412243
0.010272967 0.8657665 1.3210549 0.8421224 0.25557724 -6.0522447 0.349719 0.29711598
-1.8790423 -0.8323877 2.1276486 -4.9424996 1.7149497 1.4538181 -0.62866867 -0.19726427
0.04728188 -1.9221417 -0.7494188 -0.502642 -2.0898724 -0.20597067 2.5740657 1.2412355
1.8625151 0.5824846 1.0765694 1.5229493 1.289376 -0.478189 -0.44435254 1.5323191
-1.8112469 -1.1659011 -3.3321965 0.30955032 -0.021744844 -1.8795365 1.7929578 -0.27087095
-1.1975565 -2.0167997 0.48281908 0.738165 -0.06909247 2.261935 -0.11703053 -1.4244261
-1.2930967 -0.44078407 -2.885805 -0.036444493 -1.3340228 3.5357995 -0.14907153 -1.4955968
2.1864572 -0.8800029 -0.35436225 0.21140313 -0.9725216 0.47222033 0.4612911 -1.2709328
1.4951727 -1.9380145 3.1593118 -0.5338959 -0.6775118 -1.286059 -1.0145057 -3.501257
0.41168875 -1.0260804 -0.32391655 0.33543584 0.38838744 -0.05734573 -0.7073931 1.5369345
-0.02701382 0.6988321 0.8303761 -0.8693044 -0.07036794 -2.1877582 2.2548904 0.17731693
-0.27713546 0.7254934 -3.7800016 -0.07273437 0.51355577 0.49584007 0.46655488 -2.4013212
0.630523 -1.7259128 -0.01290644 -5.592821 -0.47972876 -2.7959847 -2.4022202 -0.54902923
-0.30620235 -4.085835 0.47485954 -0.6994817 1.0290426 -2.8099263 -1.1301017 0.0018327805
-0.02661443 -0.0034316943 -5.526878 -0.17251252 -2.6452603 -2.0472124 1.1838074 1.8282111
3.2787187 -0.5365522 0.97212535 1.3040799 -1.565203 -0.4913199 -1.944471 -2.1989548
1.0433725 -4.8832474 1.6204741 -1.1769086 -5.953696 1.8608258 -0.21488409 0.7459643
0.45127612 -4.1506343 0.62746185 2.472983 1.3407845 0.42519155 1.072125 1.0849057
-3.7282891 1.6611917 -0.47408292 0.10263892 -4.6723423 -0.38858044 -1.8721995 -0.33785805

FC2.bias f4 [256]
00000000: bc66 f1be 6831 a3bd 9cfb a6bf 80af e6be
00000010: 263b 03c0 930b 9abf da76 46bf b5d1 9abd
00000020: ee51 ddbf afe0 d4bf 0b17 9ebf 7ed6 dbbd
00000030: 4f26 0cc0 32d3 81bd 89e4 0cc0 5a45 acbf
00000040: f476 63bf 4364 5dbe 82ce f8bd e6fa febf
00000050: ac7e cbbf b3da 92be b593 7f3f 4897 03c0
00000060: 9de1 0b3e 3400 34be 524b 523e 8abe 5cbd
00000070: aaf3 96bf f75a 83bf 1b43 2cc0 3e99 99bf
00000080: 13f4 06c0 b17f cbbd 014e 03bf 0c5a a5bf
00000090: f64c febd 0438 e6be 9dd1 1bc0 f218 313f
000000a0: 14bf e2bd eba6 0cc0 44ee 783f 89f8 1cbf
000000b0: d860 20bf 184d edbf bd60 c8bf 0d96 1c3f
000000c0: c6d2 46be dfc0 1dc0 9d66 1ebf 1b1c 85bf
000000d0: 875d 07bf 8856 00bf 41c8 f0bf 4559 f3bd
000000e0: d669 fbbe 2ce6 ddbe 1e28 98bf dfe8 7dbe
000000f0: 03ce 95be 4c73 a5be 7ee8 95bf 35f5 793c
00000100: 0996 0f3f 3c26 4fbf fbdd 213e 8312 80be
00000110: 9d4f babe d661 52bd 2a80 81bf 94c8 61bf
00000120: 6dec 82be a17f 68bf d4d7 e33d b7b4 443e
00000130: c1c4 14c0 5001 89be 2980 69bf 6d30 67bf
00000140: 7275 d1be 9ffb b6bf 1883 afbd 17c8 16be
00000150: ca80 16be 217d 3dc0 2a42 9abf 4dd4 f2bd
00000160: 2b3f 16bf 8b5b c83f e870 cebf f215 51bf
00000170: a88f 42bf 2f54 15c0 dbaf a7bf 9e47 88be
00000180: 200f 94bf 304c 96bf 9860 97bf caad e7bf
00000190: d3b2 80bf e2a3 82bf 5626 74be 6913 95bf
000001a0: c58f 8bbf d2fb 7bbf 92d9 d23f 3576 273e
000001b0: 2992 f3bf cb49 1ebd c042 49be 14dd e93e
000001c0: 2224 5f3e be71 8c3e 42dc 4dbe 0383 c2bf
000001d0: 66a6 92bf bda7 82bf 447b d7bf 6e29 82bf
000001e0: d68f 6fbd be57 94bf f9ab c63e 3412 35bf
000001f0: 9d6f a0bd eb5b 15be becd 4abe 9d8a d5be
00000200: d694 3ebf b169 d9bf b9ea 39c0 f0b4 26bd
00000210: 226d e1be f8ed 4fbf dd1c a9bf cb8f 9cbf
00000220: 3d79 03be 2eec b33f 39c6 15c0 dd69 d5bd
00000230: 43ee 93bf 6deb c1bd 63fe 1b3e 13b9 d1be
00000240: 3038 74bf 8681 63bf 5301 c6bf bcb3 98be
00000250: 6f13 1abf ab64 29c0 1704 02c0 dcc4 1fbf
00000260: 513e af3e 902f 05be 4818 0f3f 4362 47c0
00000270: bea4 f2bf 9e6f 0cc0 49f8 9d3e 75cf 88be
00000280: 63bd b3be f8f7 d43e 124c e0bf e82f a43f
00000290: 0c7b 41bf ef0d 5bbf 8500 3bbf 2791 b1bf
000002a0: c873 19bf 9b70 a0bf 8584 d4bf 80f1 d6bf
000002b0: 94ea b8bf f33a 0ac0 1689 fcbf 233a 43c0
000002c0: ee5e 93bf 18a6 a7bf 1283 a1bf 6e51 663f
000002d0: 9154 43bd 30e6 afbf c1d8 05bf abbf 3abf
000002e0: 4b21 dd3f 6faf d1bf 9d79 fcbf 6488 613e
000002f0: 75f3 50be fbe5 fcbe 26fa 08c0 6535 1ec0
00000300: 79ce d03e 964f 8bbf 030b 0dbf c118 60bd
00000310: 2265 2abf 5bb9 f5bf 9330 adbe c9d3 11c0
00000320: 88fc 1fbf 1ff0 73bd c9f6 55be d083 07c0
00000330: b51e 82bf 9373 333e b859 edbf 50d6 f9bf
00000340: 84e4 a5be 9a34 bf3f 4851 96bf 8120 79bf
00000350: d636 213f 0556 9abf 3abc 8cbf b31b 15c0
00000360: b00b 6fc0 941a fa3e 012f f5bd d12b 59c0
00000370: 4faa cdbf 1f04 58bf 3219 95bf 84ea 27be
00000380: c672 053d ec7e b03e ddae aabf 1b1f c8bf
00000390: cfac e1bf aaef 0ac0 a8fb a93e b689 afbf
000003a0: 36a4 24bf c28f e1be c96b 353e eabd 6ebf
000003b0: 6fe2 f8bf bbfa adbf 7ff4 10c0 a3e3 bfbf
000003c0: c814 d6bd 6c9f bcbf ba41 dfbf 4857 3a3f
000003d0: 93ca 03c0 5112 16bf 3597 debd 3fe4 7cbf
000003e0: 955d 1fc0 d7cb 09be 91b5 ccbf 6f64 d0be
000003f0: ae4c 90bd f69d 56be 62f3 95be 97c4 edbe
-0.47148693 -0.07968408 -1.3045535 -0.4505577 -2.0504851 -1.2034782 -0.77525103 -0.0755953
-1.7290628 -1.6631068 -1.2350782 -0.107342705 -2.1898382 -0.063391104 -2.2014487 -1.3458664
-0.88853383 -0.21620278 -0.12148763 -1.9920318 -1.5898032 -0.2868248 0.9983476 -2.0561085
0.13660283 -0.17578202 0.20536545 -0.05389265 -1.179311 -1.0262135 -2.6915958 -1.1999891
-2.108647 -0.099364646 -0.512909 -1.2918105 -0.12417023 -0.44964612 -2.4346688 0.6917869
-0.110716015 -2.1976879 0.97238564 -0.61316735 -0.6264777 -1.8539152 -1.5654522 0.6116646
-0.19416341 -2.464897 -0.61875325 -1.0399202 -0.52877086 -0.50132036 -1.8811113 -0.11882261
-0.49104184 -0.4333967 -1.1887243 -0.24795865 -0.29258737 -0.32314527 -1.1711576 0.015256216
0.5608831 -0.80917716 0.15807335 -0.25014123 -0.36388865 -0.051362835 -1.0117238 -0.8819668
-0.25571004 -0.90819746 0.1112515 0.19209562 -2.324509 -0.26758814 -0.9121118 -0.90308267
-0.40909916 -1.4295539 -0.08569926 -0.14724766 -0.14697567 -2.9607623 -1.2051442 -0.118568994
-0.58690137 1.5652937 -1.6128206 -0.8167411 -0.7600045 -2.3332632 -1.3100542 -0.2661714
-1.1567116 -1.1742 -1.1826353 -1.8099911 -1.0054573 -1.0206263 -0.23842749 -1.1646549
-1.090325 -0.9843112 1.6472647 0.16353686 -1.902898 -0.038644593 -0.1965437 0.45676482
0.21791127 0.27430528 -0.20103553 -1.5196232 -1.1457031 -1.020744 -1.6834493 -1.0168893
-0.058486782 -1.1589277 0.3880308 -0.707309 -0.078337885 -0.14585845 -0.19805047 -0.41707316
-0.74445856 -1.698538 -2.9049513 -0.0406999 -0.44028574 -0.81222486 -1.3211933 -1.2231382
-0.12839217 1.4056451 -2.3402236 -0.104205824 -1.1557087 -0.09468732 0.1523376 -0.40961513
-0.95398235 -0.8886951 -1.5469154 -0.29824626 -0.60185903 -2.6467693 -2.0314996 -0.6240976
0.3422723 -0.13006425 0.55896425 -3.1153724 -1.8956525 -2.1943126 0.3085349 -0.26720777
-0.35105428 0.41595435 -1.7523215 1.282712 -0.7557838 -0.85568136 -0.7304767 -1.3872422
-0.59942293 -1.2534364 -1.6602942 -1.679245 -1.4446588 -2.159848 -1.9729335 -3.0504234
-1.1513345 -1.3097563 -1.2618124 0.89968 -0.04768807 -1.3742123 -0.52283865 -0.7294871
1.7275785 -1.6381663 -1.9724613 0.22024685 -0.20405371 -0.4939421 -2.1402678 -2.472009
0.40782526 -1.0883663 -0.5509493 -0.054711107 -0.66560566 -1.9197191 -0.33826122 -2.2785513
-0.6249471 -0.05955517 -0.20894922 -2.1174202 -1.0165621 0.17524557 -1.8543005 -1.9518528
-0.32400906 1.4937928 -1.1743555 -0.9731522 0.629743 -1.2057501 -1.0994942 -2.3298156
-3.7350883 0.48848403 -0.11971856 -3.3932993 -1.6067599 -0.8438129 -1.1648314 -0.16398054
0.03258016 0.34471834 -1.3334614 -1.5634493 -1.7630862 -2.170878 0.3319981 -1.3713901
-0.64313066 -0.4405499 0.17716898 -0.93258536 -1.9444102 -1.3592142 -2.2649229 -1.4991344
-0.104531825 -1.4736152 -1.7441933 0.7278943 -2.0592391 -0.586217 -0.10868684 -0.98785776
-2.4900868 -0.13456665 -1.599291 -0.40701625 -0.070458755 -0.20958695 -0.2928725 -0.4643905

action_out.weight f4 [5, 256]
00000000: c8e5 0440 e13f 83bd 75e2 0f40 ca96 223f
00000010: e62f d5ba 66da 53c0 2adf acbf 865a b43f
00000020: 779b 5fbf e6f0 313d cd39 5740 7ef9 0d3f
00000030: 9e20 26c0 853f 23bc 0218 1040 4f32 b4bd
00000040: 2799 4440 c7c6 823d a046 d73e ed30 0840
00000050: 5241 91bf a9af d53f 1ef2 b23f a162 a140
00000060: 4f1f 333f 3690 ef3f 1800 0f3f 5a4f 313f
00000070: 4051 e33f 18c8 afbf 90ab e43e 3180 bc3f
00000080: bbfa 6f3f 7739 ed3c e0eb 2940 e368 2540
00000090: d598 65bd 83d2 61bc 521d 9d40 f6cc 3f40
000000a0: 91c8 1440 74ec 033e 2c60 e03f 7ba0 bd3f
000000b0: 2c17 923f 2a2b 0e3e cf7f 633f 5859 553f
000000c0: ccb1 0d40 3f75 f93e 5eb3 d93f 6c4d d83f
000000d0: cc41 0540 0653 5040 9631 8540 934b 9d3d
000000e0: 8baa e53f 31f4 423f d1fe 9e3f 0ce0 533f
000000f0: b06c e03f 6e27 0140 305b 8d3e 3acd 713f
00000100: 25aa 3e40 f11a 82bf 1b04 4440 88cd 963f
00000110: 459c 0040 0174 dd3f 504c b93f 0872 95bd
00000120: e9d8 1f40 81eb 833e 9f41 60be 902c 1140
00000130: b19b 3a40 0eba a8be a635 09be 9186 c23f
00000140: de78 4fbf c099 6e3f 18b4 c93e c6fa 8d3f
00000150: 96e9 b23e 58d0 d5be 4662 7640 449a 453f
00000160: 978f 9a3e 5e88 2040 0b61 8c3f 4965 b33f
00000170: 2c8b fd3f 1b7d e13f b0dc 9b3f 35b6 843e
00000180: 3cc0 2540 8d07 c13e fe40 45bf 101a b23f
00000190: 0654 a8be 466e 4e3f c8ef 703f 1fdb 2240
000001a0: 71ac 0040 051a 78be 03bc e63f 86e5 1840
000001b0: 7eab f33e 330d a03f caee b43e c66b 893f
000001c0: f7d0 093e 2a3d d53f 5c2d b13f 0468 0e40
000001d0: eadb c23e 6dc3 1840 ab96 5cbf 4324 e53f
000001e0: e8fc 8f3c c28f c03f 802b b93f a078 0340
000001f0: e53d 823d 7361 1440 e37f c53e 3be3 8c3f
00000200: dd6a 8740 1733 4040 a091 82bf 1fd7 a1bc
00000210: 25cf 1440 7f7a cdbe f0da 2fc0 c68b 5c3f
00000220: 1813 b33f 91ec ee3f db27 0740 3f8d 843e
00000230: 3b73 353e 541c f23e 772b f53f 57ab 0040
00000240: 2f03 97c0 2c87 2f40 0735 30bf 0f0e b03f
00000250: d69a 1240 d700 2940 23e7 163f 96f3 66bf
00000260: ee17 2e40 e44d be3e faab cb3f 43f0 193f
00000270: 6a7a 58bf 32b9 2c40 133d 6e3f d33a 00bf
00000280: ad56 8d3f 4723 e23f fff9 2940 35d4 9a3f
00000290: f7ff 4a3f cb7c 94be 8bcb 7a3f c913 863f
000002a0: 1f17 a83f 19cb ab3f 8493 9ebd 87c1 1a40
000002b0: ce12 a93f eafb 0ebf 7231 51bf bb74 093f
000002c0: 10b7 3340 aa53 4d40 f069 ccbf b730 c13f
000002d0: de0d a1ba b2d4 5ebf 55cc 3640 a42f be3f
000002e0: 3133 2940 6445 0640 f521 f8bd 1eca 0840
000002f0: 8b90 763e 0f40 793f ae09 c1be d206 873f
00000300: 0ccd 2040 e6ea 33bf 9d29 b83f 9ec1 8bbc
00000310: c45d 93c0 292c bbbc 02fe 1240 82e0 8dc0
00000320: 12f4 b33f add0 10bd e3d2 123e deb4 883f
00000330: 7055 43c0 11c8 ff3f ff0d 5fc0 1a2b 0d40
00000340: f77d 03be fc66 0e40 5b9d 5e3e cc79 0940
00000350: ae78 933f 2476 c03f d4ad 3840 0457 c5bf
00000360: c039 9ebe 0ee5 0040 9d36 19bd 0951 1bc0
00000370: 7aea 35c0 b95b 1fbf 8fc8 bb3f 1dac 503e
00000380: 0a64 bdbc 4267 bdbf 765c 46bf d575 753f
00000390: ab8d 03c0 aa84 a03f af36 1140 f1c6 0140
000003a0: 3637 1740 27ff d13f 06ce a33f 7f4d eb3f
000003b0: 5891 f33f 5637 fa3f 4ceb 55bd 0d3f 8f3f
000003c0: 79e4 0e3d 4205 8d3f cd2d 16c0 c8ae 5d3f
000003d0: bbdf c8bf 7eb8 c13e 4917 953e 1e1c 2940
000003e0: 5621 8f3f ab08 6f3d d253 3240 588b ec3f
000003f0: 4a0a 1e3f 74ea be3d 746c df3f d54d 2240
2.0765247 -0.06408668 2.2481968 0.63511336 -0.0016264885 -3.310205 -1.3505604 1.4090126
-0.87346596 0.04344263 3.3629029 0.5545882 -2.5957408 -0.009963875 2.2514653 -0.08798658
3.0718477 0.0638557 0.4204607 2.1279862 -1.1348059 1.6694232 1.3980138 5.0432897
0.6996965 1.8715885 0.5585952 0.69261706 1.775917 -1.3732939 0.44662142 1.4726621
0.9374196 0.028958065 2.6550217 2.5845268 -0.056053955 -0.0137831 4.909829 2.9968848
2.3247416 0.12883168 1.7529349 1.48146 1.1413321 0.13883653 0.88866895 0.8333945
2.2139769 0.48722264 1.7007864 1.6898627 2.082141 3.2550673 4.162303 0.0768043
1.794267 0.76153857 1.2421514 0.82763743 1.7533169 2.0180316 0.27608633 0.94453776
2.9791348 -1.0164472 3.0627506 1.1781473 2.009538 1.7301027 1.4476414 -0.0729714
2.4976141 0.25765613 -0.21900032 2.2683449 2.9157526 -0.32954448 -0.13399372 1.5197316
-0.81043804 0.93203354 0.39395213 1.1092155 0.34943837 -0.41760516 3.8497481 0.77188516
0.30187675 2.5083232 1.0967115 1.4015285 1.9808097 1.7616304 1.2176723 0.25920263
2.589858 0.37701073 -0.77052295 1.3914204 -0.32876605 0.80637014 0.9411588 2.544624
2.010525 -0.24228676 1.8026127 2.389009 0.47591776 1.2504028 0.35338432 1.0736015
0.1345862 1.6659291 1.3841968 2.2250986 0.38058406 2.3869278 -0.861674 1.7901691
0.01757665 1.5043871 1.44664 2.0542374 0.06359462 2.3184478 0.38574132 1.1006845
4.231795 3.0031183 -1.0200691 -0.019755898 2.325143 -0.4013252 -2.747738 0.8615078
1.3990202 1.8665944 2.1118076 0.25889012 0.17719738 0.47287238 1.915389 2.0104578
-4.7191386 2.7426252 -0.68830913 1.375429 2.2907004 2.6406763 0.58946437 -0.9021543
2.7202106 0.371688 1.5911858 0.60132235 -0.8456179 2.6988034 0.9306194 -0.5008976
1.1042076 1.7667016 2.6558836 1.209601 0.7929682 -0.2900146 0.9796683 1.0474788
1.3132056 1.3421355 -0.0774298 2.418062 1.3208864 -0.5585314 -0.8171607 0.5369374
2.8080482 3.2082314 -1.596983 1.5092992 -0.0012287458 -0.870433 2.8562214 1.4858289
2.6437495 2.0979853 -0.12115852 2.1373363 0.24078576 0.9736337 -0.37702698 1.0548956
2.512515 -0.702803 1.4387699 -0.017060097 -4.605196 -0.022848206 2.2967534 -4.4336557
1.4058859 -0.03535526 0.1433826 1.0680196 -3.0520897 1.998293 -3.4852293 2.2057557
-0.1284102 2.2250357 0.21739714 2.148059 1.1521204 1.5036054 2.8856096 -1.541718
-0.30903435 2.0139804 -0.0374056 -2.426821 -2.8424363 -0.6224933 1.4670581 0.20378156
-0.023118991 -1.4797137 -0.77484834 0.9588292 -2.0555217 1.2540486 2.2689626 2.0277674
2.3627448 1.6405991 1.2797248 1.8383025 1.902873 1.9548137 -0.05222635 1.1191117
0.034885857 1.101723 -2.3465455 0.8659482 -1.5693277 0.3783607 0.29119328 2.6423411
1.1182048 0.058357876 2.786366 1.8480024 0.6173445 0.09322062 1.7454972 2.5360005

action_out.bias f4 [5]
00000000: aee4 863f 1e4e ccbf c631 b140 6eb2 9b3f
00000010: f719 0f40
1.0538538 -1.596134 5.537326 1.2163827 2.2359598

weight f4 [256, 123]
00000000: 0bac 40c1 44cd 94be 528d e1bd 248d 95be
00000010: c878 fdbd cfab a1be 99d7 93be cb39 fdbc
00000020: 2ebe bf3f 87cb 913d 8a32 583d 6dea 7c3d
00000030: f9d4 233e e9f3 fabc 12db 28be 0875 edbf
00000040: d1c3 fbbe fb1d 87bf 7e8b 5ebf 48c9 9bbe
00000050: 0255 3fbe 48bc 84bf 6690 cd3d 52ff 6a3f
00000060: 0b50 7fbf f4e3 a0bf 02fd 61bc 02d8 bfbf
00000070: 3a54 1b3d 30c4 52be 1fe1 7abd fdaf 98be
00000080: da9f c3bf 504e 6dbc d884 d5bc 6837 1fbf
00000090: 35a8 41c1 e42d 253e 9f00 ef3d 2ddc ddbe
000000a0: 7b08 adbc a1d9 b3be 852b a4be e0b8 973f
000000b0: 2d23 2d3e 3ab6 683f 0583 6c3f 6db8 7b3d
000000c0: 79ce 163e a981 dfbb 4c8a 65be 1401 bfbf
000000d0: e46f f83f 4c43 eb3c a5ee 823d d884 d3be
000000e0: 84da 1ebe e9bb 7bbf 6cc9 823e f82e ef3f
000000f0: bea4 b7bf 9bcb f83d 8cca c83e f066 b4bf
00000100: 9740 7abe 174e 0a3d 183b 9cbe 3625 84be
00000110: 16e1 5dbd e437 c2bf 6115 9d3d a716 cd3f
00000120: 1b54 40c1 861f 99be e9a5 1cbd 445d a1be
00000130: 2beb ebbc 22bb c2be 8d06 ccbe d29b 8e3f
00000140: 6e4c 08bf 164b a03f fbe4 1a3e a0b4 0f3e
00000150: 3fec 053e bedb 0abd 5e67 8ebe 431b b2bf
00000160: 3f86 973e e9cb 093d 826f 08bf 293b a3be
00000170: 4a27 08bd dc8c 81bf e5eb 733e 48e0 5340
00000180: e611 10c0 6090 d5bc 065b 1f3d 289b b2bf
00000190: be9c cebd d29a 49bd 5db6 99be 111b 35be
000001a0: e0b4 f1bb 70ce f6bb f075 babf f7fd 05c1
000001b0: f94b a03e 4e2c d53e de5b c7be e379 c43e
000001c0: 6d76 19bf ba9f 1d3e b2e5 a1bd 29d2 a13e
000001d0: 47ef 44bd 31b2 973d 9417 66bd ac19 68bc
000001e0: f114 4c3d 6040 933d 7e97 17bd aa52 5940
000001f0: 10e4 afbd a8e6 5c3e 1aaf ab3c ec4b 3a3e
00000200: 73be c9be c0ba 3e3f 2545 c03f f858 b9bf
00000210: 1eb1 a5bd 30fa 153c 2951 4d3f 4337 3fbe
00000220: f952 33c0 cf53 fdbe ba7b e83f d908 0c3f
00000230: bb74 fa3e 5fa9 ff3d 86c9 afbe fad3 7c3e
00000240: 2bbb 0bbf aef1 b7be af03 69bf 2103 c5be
00000250: 0e2c 0a3e 7749 b6bd 3f01 abbd 8c81 2a3d
00000260: 14e7 9c3b daec f63d a912 a13c 050f cebd
00000270: b27f 7d3d 9500 813d 4ab8 1040 4ec5 5c40
00000280: b365 633f 450c 8cbe d22a 983c a41b 0b3e
00000290: 2f1f cdbe 22f7 223f c509 873b 379b 6abf
000002a0: e17f 0dbf faf0 1ebd 3342 743f 8ab7 74be
000002b0: b774 36c0 41a8 fbbe 6abd 8340 a1ff 39bf
000002c0: f0d1 b23b ad15 0abd 20a6 8fbe b344 853e
000002d0: d63e e4be 8de0 00bf 23e8 87bf 0e0e 72bf
000002e0: 76d7 77be 00a6 a4bc 43e6 f1bd 1b0f f0bd
000002f0: 1400 b93d 0ee8 103d f60d 88be c52d b43d
00000300: e977 23be c29f 2e3d 8563 1540 92dc 5a40
00000310: 462d e1be 0e15 9d3e 0a34 01be 7557 133e
00000320: e304 f1be 12b5 433f 4c5d 42bd 89c2 fdbd
00000330: 4ca5 6cbe 6dcb bbbc 8135 653f 375d 95be
00000340: c7b3 36c0 3089 01bf 08bd 713f 2bc7 bd3e
00000350: 2f70 253e 70d1 aabd be2a cbbe 101b 8d3e
00000360: 32b0 c9be 6e16 b5be 376c 63bf 36d8 aebf
00000370: 0030 d23a 354a 9c3d 7ba7 cbbd dbd5 bf3d
00000380: da98 7bbc 8165 f43d 1be8 02bd be62 333d
00000390: 1794 873d 173a 11be 98aa 0f40 5535 ed3c
000003a0: 760f af3d 960c f3bc 1674 333e ea0b 133d
000003b0: 5087 bfbc 6f78 44be f4d9 203e 9203 d4bb
000003c0: ade5 e3bb 27f1 ccbd cf63 033e f7ba 7abd
000003d0: 972b 8bbd 2059 e0bc f257 50bd 1b06 dabc
000003e0: e80c 6e3d ff12 943d 095e 06bc 0130 46bd
000003f0: 8728 093d 6fc9 f7bb 34a8 9b3d 627e 533d
-12.042003 -0.29062855 -0.11013283 -0.29209244 -0.12376553 -0.31576392 -0.28875425 -0.030911347
1.4979913 0.07118898 0.052782573 0.061747003 0.15999211 -0.030633884 -0.16489819 -1.855134
-0.49172834 -1.0556024 -0.869316 -0.30427003 -0.18684772 -1.0369959 0.100373074 0.9179584
-0.9973151 -1.2569566 -0.013793232 -1.4987795 0.03792212 -0.20582652 -0.06124985 -0.29821768
-1.5283158 -0.014484003 -0.026064321 -0.6219392 -12.103566 0.16130787 0.1167004 -0.43332043
-0.021122208 -0.35126975 -0.32064453 1.1853294 0.1690795 0.90903056 0.9238742 0.06145518
0.147272 -0.0068208766 -0.22416037 -1.4922204 1.9409146 0.028718613 0.06393174 -0.4131229
-0.15513045 -0.98333603 0.25544298 1.8686209 -1.434715 0.1214821 0.3921703 -1.4093914
-0.24438702 0.03376588 -0.30513835 -0.2580964 -0.054169737 -1.5173306 0.07670093 1.6022538
-12.020534 -0.29906863 -0.03824416 -0.3151647 -0.02879866 -0.38033396 -0.39848748 1.1141303
-0.5324162 1.2522914 0.15126412 0.14033747 0.13078402 -0.03390097 -0.27813238 -1.391457
0.2959461 0.03364173 -0.5329515 -0.31881073 -0.033240594 -1.0121112 0.23820455 3.310564
-2.2510924 -0.02606982 0.038905166 -1.39536 -0.1008849 -0.049219914 -0.30021945 -0.17686106
-0.0073762983 -0.0075319335 -1.4567242 -8.374503 0.31307963 0.41635364 -0.38937277 0.38374242
-0.5994633 0.15392962 -0.07905139 0.31605652 -0.048079755 0.07407034 -0.05617483 -0.014166277
0.04982466 0.07190013 -0.03700971 3.3956704 -0.08588421 0.21572363 0.020957518 0.18193024
-0.39403114 0.7450371 1.5021101 -1.4480276 -0.08090423 0.009153888 0.80201966 -0.18673424
-2.8019392 -0.49478003 1.8162758 0.54701 0.48917183 0.12483477 -0.34333438 0.24690238
-0.5458247 -0.35926574 -0.91021246 -0.3847895 0.13493368 -0.08900731 -0.08349847 0.04162745
0.004788289 0.120568946 0.019662218 -0.100614585 0.061889358 0.06298939 2.261248 3.4495425
0.88827056 -0.2735311 0.018575106 0.13584763 -0.40062854 0.63658345 0.0041210377 -0.9164309
-0.5527325 -0.038804032 0.9541351 -0.2389814 -2.8508737 -0.49151805 4.116872 -0.72655684
0.0054571554 -0.033712078 -0.2805643 0.26028976 -0.4457919 -0.5034264 -1.0617718 -0.94552696
-0.24203286 -0.020098686 -0.11811497 -0.11721631 0.09033218 0.035377555 -0.2657315 0.08797792
-0.15963711 0.042632826 2.3341992 3.4197125 -0.43979853 0.30680126 -0.12617508 0.14388831
-0.4707404 0.76448166 -0.047452256 -0.1239062 -0.23109931 -0.02292415 0.89534765 -0.2917268
-2.8547227 -0.50599957 0.94429064 0.37066016 0.16156076 -0.08340728 -0.39681047 0.2755971
-0.3939224 -0.35368675 -0.88837 -1.3659732 0.0016036034 0.07631341 -0.09944054 0.093669616
-0.015356267 0.11933423 -0.031959634 0.04379534 0.06620043 -0.14182316 2.2447872 0.028956095
0.08547871 -0.029669087 0.17524752 0.035900034 -0.023379952 -0.19186567 0.15708143 -0.006470152
-0.0069548697 -0.10006934 0.12831043 -0.06121346 -0.067954235 -0.027386248 -0.05086512 -0.02661424
0.058117777 0.07230186 -0.008201131 -0.048385624 0.033485916 -0.0075618546 0.076004416 0.0516342

bias f4 [256]
00000000: 36e9 babf c065 52be 44d9 cdbd b6b1 da3e
00000010: fb04 6ebd 3bdd 153b 5d0c 5fbe f097 873c
00000020: f526 e3be e62d 0bbe 18fd 1bbd ed78 d5bf
00000030: 1bb7 7cbe 6913 21bf 4cf4 d8bd bc51 9abd
00000040: cfbc d9bc 9167 f6bd 47fd 5d3d fb40 88bd
00000050: 7a55 13c0 3bce d6bf de48 b93b c27d 51bb
00000060: ef6b e0bc 6198 b3bc 400b e9bd 0c13 1dbf
00000070: 279c febc 83fa 20bf 62a8 973e a26a 95bd
00000080: f739 c4bc 7a51 e7bd 6ec3 05bd d3a7 8abd
00000090: 4033 07c0 a707 e4bd d26e d1bd a3f2 37be
000000a0: dde3 1e3d 258a eebd a33d 273d 2fa0 9f3b
000000b0: 0bd0 3d3f 49bb 873d 99b5 9dbf f9d3 dbbd
000000c0: 09df bebc 6949 72bd c683 d0ba e3c3 e0bf
000000d0: b388 f6bd 7ef5 42be 2538 91bd d99c 85bf
000000e0: a71d 28be c2b3 64bd 0b19 9d3e fe3b 30bd
000000f0: f63e 663f 627c ccbd 1279 89bd 0941 31bd
00000100: ae10 85bd 5844 73bd c3b6 1d3f 6705 f43d
00000110: 2938 163d 1149 34bd 757f 843e 85fa e3bc
00000120: 5f58 63bf f059 1bbd eeab e03f 1c2b d33c
00000130: 0e7c 453d edd0 5ebe b4a0 2b3c 60c2 cabe
00000140: d799 023d 1d35 c3bd 500f 6bbe 369a 74bd
00000150: 756a 10bc 0cef 6dbf 8c50 44bd 258f c0bd
00000160: ef78 93bd 9f25 633c 4070 433e 1b58 983c
00000170: 60d8 d0bd 88a7 e0bf c36f b13b 4495 b6bc
00000180: fd37 bf3b 553f f0bd 0fb2 17be d211 a9bf
00000190: a7f3 edbd 4068 5abd 6633 87bd be8a f9bd
000001a0: 3e22 7fbf ba5d edbf d675 3cbc e609 3d3d
000001b0: bc04 13bc ab57 293d 4133 81bd ba39 e6bd
000001c0: 643b 93bd b7e7 d9bd 758e 8bbd 0131 6fbd
000001d0: eb06 b9bc b97a f53c 7cc5 b7bd 9194 81bd
000001e0: 3990 8fbd 6fef 04be 9119 b6bd a321 b0bc
000001f0: 6e01 cfbd de48 04bf 9b09 91bd 675c 1cbb
00000200: f585 00bd 2708 e2bf c5ee 3abe 430d e9bd
00000210: cc3b aebd b816 c4bf ee7f 29bd 31b8 9dbf
00000220: 9d0a 8cbd ce1d b0bd b4b5 bcbd 434c b0bf
00000230: 4883 4dbd 60ce c2bd bd69 0bbe 54e6 06be
00000240: 13a9 9ebd 7640 1dbf 4e6c 06be f98b 5cbe
00000250: bb0c eebe 5380 b8bc edb3 c83e 54f7 c1bf
00000260: 2acd 023d 8fd3 71be df44 be3f 6789 1ebf
00000270: 5e2d b1bd cfbf f5bd 5043 fd3f bc15 15bd
00000280: f4b0 a8bd 6700 4bbd 1e1d 57bd b964 fb3c
00000290: ab72 91bf d963 0abe 1714 cdbd 5b1e 97bd
000002a0: 37a6 0abe b569 133d 1c7e 003d e976 04be
000002b0: c81e 8fbd 0d96 47bf a1b5 89bd a676 1abd
000002c0: b9c5 b0bd 282c 743d 6ba3 003d 9b49 b53e
000002d0: caa0 98bd 5e98 0abe 63fb 8cbf 5f08 ddbe
000002e0: 4ac7 4ebd c33f aebd 20ea 57be 06fe bfbd
000002f0: 55af 26bd 33e2 7b3b 44f9 e9be b9a5 af3f
00000300: 8a7c e3bc 2eac 07be 1b0c 72bf fcb7 45be
00000310: 8884 00bf b608 6cbd 098d 13bd 7b30 96bd
00000320: 8f61 79be 0796 59bd ca13 ebbf ab1c 7abd
00000330: 21d3 653d 6f44 8dbd 0fdb b2bd 4e44 50bd
00000340: c4b4 10bf ff86 d83c 7912 5dbf 47fb 97be
00000350: c21c 7fbf 0d03 dabf 68b9 c3bf 1bae 1cc0
00000360: 5e17 04be f2b0 23bd 16e0 e3bd bcd3 61bd
00000370: 4b87 01bd ef5f 6e3c 0b79 99bd c183 b5bd
00000380: 4be4 74bc 0b10 01be c07f 38bd 4f89 22bc
00000390: 8fad 3abd fbb6 0c3e f90e 97bd 04c3 83bd
000003a0: 589e 393f ad82 223f 98fa 0cbe 9155 e2bf
000003b0: 0773 8fbe 333a 813d a88f 573b e1d5 8c3f
000003c0: 3e52 b2bc 8c37 c7bd b1c2 10bd 796c a1bd
000003d0: 42f7 8a3c 6ce8 373c a7da 56be f59f 8e3e
000003e0: 1932 7cbd fc6d 14c0 2311 91ba e687 97bd
000003f0: 4ad8 223d 3149 a7bd 132f 373e 4eb4 98bd
-1.460242 -0.20546627 -0.10051206 0.42713708 -0.05811022 0.002286746 -0.2178206 0.016551942
-0.4436566 -0.13591728 -0.038083166 -1.6677529 -0.24679224 -0.6292024 -0.10593471 -0.07535121
-0.026579289 -0.120314725 0.054196622 -0.06653019 -2.302092 -1.6781687 0.0056544384 -0.0031965827
-0.027395217 -0.021923246 -0.11379099 -0.6135719 -0.031080319 -0.6288225 0.29620653 -0.07295729
-0.023953421 -0.11294837 -0.03265708 -0.06770291 -2.112503 -0.11134272 -0.102262154 -0.17963652
0.038791526 -0.11647443 0.040830266 0.0048713903 0.74145573 0.06627519 -1.2321044 -0.1073379
-0.02329971 -0.05915204 -0.0015908412 -1.755978 -0.12037792 -0.1903896 -0.07090787 -1.0438491
-0.16417561 -0.055835493 0.3068317 -0.043025963 0.8993982 -0.09984662 -0.067125455 -0.043274913
-0.06497322 -0.05939135 0.61607 0.11915093 0.036674652 -0.044014994 0.25878492 -0.027829418
-0.8880672 -0.037927568 1.7552469 0.025777392 0.04821401 -0.21759386 0.010475326 -0.3960142
0.031884994 -0.09531615 -0.2295506 -0.05971738 -0.008814444 -0.9294288 -0.047928378 -0.09402303
-0.072008006 0.01386395 0.19085789 0.0185967 -0.1019752 -1.7551126 0.0054149344 -0.022287972
0.0058355317 -0.117308296 -0.14814018 -1.3208563 -0.116187386 -0.053322077 -0.066016 -0.12184666
-0.99661624 -1.8544228 -0.011502704 0.046152018 -0.008973297 0.041343372 -0.06308604 -0.11241479
-0.07189062 -0.10639899 -0.06814281 -0.058396343 -0.022586307 0.029965745 -0.08973214 -0.06327165
-0.0700993 -0.12981962 -0.08891595 -0.021500414 -0.101076946 -0.51673687 -0.0708191 -0.0023858787
-0.03137775 -1.7658738 -0.18255146 -0.113794826 -0.08507499 -1.5319433 -0.04138177 -1.2321836
-0.06837962 -0.08599435 -0.092143446 -1.3773273 -0.050174028 -0.09512019 -0.13614555 -0.131738
-0.07747092 -0.61426485 -0.13127252 -0.2153777 -0.46494088 -0.022522127 0.39199772 -1.5153604
0.03193394 -0.2361586 1.4864768 -0.6192841 -0.08651231 -0.11999475 1.9786167 -0.03639768
-0.08236876 -0.04956093 -0.052518003 0.030687677 -1.1363119 -0.13514651 -0.100135975 -0.07378837
-0.13539968 0.035989482 0.031370267 -0.12935986 -0.06988293 -0.77963334 -0.06724096 -0.03771081
-0.086314626 0.059612423 0.031405848 0.3540772 -0.07452543 -0.13534686 -1.1014217 -0.4317045
-0.050483026 -0.08508255 -0.21085405 -0.09374623 -0.040694553 0.0038434386 -0.45697987 1.372245
-0.027769346 -0.13249275 -0.9454972 -0.19308466 -0.50202227 -0.057625495 -0.036023173 -0.07333466
-0.24353622 -0.053121593 -1.8365414 -0.061062496 0.05610955 -0.06897818 -0.08733188 -0.05084639
-0.56525826 0.026431559 -0.8635631 -0.29683897 -0.99653256 -1.7032181 -1.5290956 -2.4481266
-0.12899539 -0.03996367 -0.111267254 -0.055133566 -0.031623166 0.01454924 -0.0749379 -0.08863021
-0.014947007 -0.12603776 -0.045043707 -0.009920432 -0.045575675 0.13741677 -0.07375903 -0.06433681
0.7250724 0.63480645 -0.13767469 -1.7682363 -0.28017446 0.06309929 0.0032892022 1.1002771
-0.021767732 -0.097273916 -0.035341922 -0.07882018 0.016963605 0.011224847 -0.20981847 0.27856413
-0.061571214 -2.319213 -0.0011067729 -0.073989674 0.03975705 -0.08168257 0.17889051 -0.074562654

weight f4 [256, 256]
00000000: 2d50 4ebf 7426 18bf 50e3 273d 5a37 f1be
00000010: aa6c 853c a24a 7c3c 61b5 8e3c 4ec0 fe3c
00000020: ac08 0abe ffe3 4abd c564 9cbb 9efb d8bf
00000030: 4425 e0bb c9f4 c3bd 7248 e1bc 9561 54bb
00000040: e7e8 9e3c 237d 87bd 7fe9 d73c 1826 c5bc
00000050: a8b9 17bf 9235 2f40 b1fb 893e 8daf 7cbd
00000060: 15a1 47bd 0db8 e63c 51c1 6e3c d2d8 863f
00000070: 7919 963e 8519 32c0 f251 73bf 9075 4fbd
00000080: 0ea2 b4bc e65e 53bd ebc0 873c 006e a1bc
00000090: 45e4 e6be 78e2 023c 91f2 0fbd 9de1 11bd
000000a0: fe02 82bd 3bdf 56bc 30e4 783d 8bba 4dbd
000000b0: 9379 8ebe 6852 eb3c 2c30 4440 65a4 133b
000000c0: 8d8d 7cbc 8a98 f83c 69a5 10bd 0856 823e
000000d0: 53ec 6b3d 6de3 2abf add7 0d3d 4030 233f
000000e0: 31aa 603c d51b 44bc 3c6b 893d 57c9 f0bb
000000f0: 6eae 0bbf 44ac e13c f481 0e3d c49e 7ebd
00000100: a0b9 16bc 7b39 4ebd 9812 833f cefb 90bf
00000110: 0d0d 203d 2f2f a13c a394 6cbd 47d2 1b3d
00000120: ae20 2c40 be53 0e3d 62e2 2d3f e35f bb3c
00000130: 46e0 05bc fc7f ad3d daad fabc 0572 ff3c
00000140: e5f0 043c 1352 05bc 4389 8f3c 231e ccbc
00000150: ee5b f4bb a5b4 613d f529 83bd a5a2 1abb
00000160: 00d6 233d 9b19 fe3c 655f 803e 57fa 95bd
00000170: c31a 72bd 0ca7 3a40 4fd4 ba3c 172f 96bc
00000180: 5e2b debc 8c42 2ebd ab2d b1bc 4b7d cc3f
00000190: efd2 78bc a95d 5a3d 2c98 4fbd e793 1ebd
000001a0: f3ea 653f 4d9b 5ac1 82ad d33c e088 c5bb
000001b0: 710c 623c 1ec7 25bf 9cf7 b33c 0ec9 ffbc
000001c0: 6058 17bd d861 0cbf eab6 523d 34f6 3e3d
000001d0: 4a09 d13c 1475 613d 2d5c c8bc b346 a33d
000001e0: d9ce 613c 0f31 93bc e616 f4bc 7731 2b3d
000001f0: bee1 2fbd 37ed 6d3e b6be eb3b ffb7 c3bc
00000200: 9888 10bd ce7e 3c3f 5254 293f 1543 b23c
00000210: e3c6 42bd ff98 8cbe 6662 ab3d c705 6ebd
00000220: 4c90 21bb b59e 56bd ee2e a1bd 1019 27bf
00000230: b949 003d acab 543d 4469 ef3c 5c16 b13a
00000240: 0a45 6ebc e550 443f f9c5 87bc 6a7a 293f
00000250: 91c4 20bf 5f4d 3c3b eac2 023e 1c67 0f40
00000260: 96d8 18bf a1c4 99bc 5a4e e83e caef a0bf
00000270: 36f0 acbd bc3d 8cbd 2f16 583f 678d 56bd
00000280: a7db ef3a b3c1 bcbc 0a57 613d 4640 32bf
00000290: aaee 0f40 578d e73c 709b fdbc e1a7 4c3b
000002a0: d017 403d f1d2 673d c2bf 633d 6a7d 83bd
000002b0: 2689 d4bc b5a0 2cbd 3803 19bd 5b96 9ebf
000002c0: 8838 c6bc 034f 96bc ae37 39bd 0238 31be
000002d0: eb95 323d eb01 13bd d572 a43c 6a98 54bd
000002e0: cd7a 83bc 5ea0 e83c 561d dd3e 1e40 71bb
000002f0: 7bac 3d3d a08b ee3c 239c 073e 214e e33f
00000300: f0e2 dcbc 748f a1bc 0488 b93f d99f bfbd
00000310: 1999 12bd 0ab6 b7bc 320e 703d 611a 63bd
00000320: 0f23 af3f bfc9 aabb 386d a73e c25f 01bd
00000330: 8a0c 02bd 3371 8dbd 25a6 8cbd b43d 7f3b
00000340: c6e7 91bc 21a6 cdbc 85ee e93e 1431 3d3d
00000350: e888 f73e 3c4c 6c3f eaf6 d0be b725 bf3f
00000360: 5f81 0bbd 62cf 5dbd 9dbd 353d c181 183c
00000370: 17a4 43bd bf40 51bd f05d d43c 58a3 623d
00000380: 7c8e 723b d402 a53c ab8d 2ebd d327 113d
00000390: 868d 323d cb95 d7bd ebc7 3a3d 2834 a8bc
000003a0: c03b 9ebe f972 e6be ed87 0dbd 17f7 21c0
000003b0: c41a 573d 7cec 1e3d c4b0 4b3d b16e 04bf
000003c0: 7365 303d 60ec 09bd 1678 633d cd84 13bd
000003d0: 65ae b7bb 0a32 803d 9ffc bf3e 1d40 8bc0
000003e0: 90b7 62bd 2244 2240 808b 483d d3c6 db3c
000003f0: d9fc 733c 5606 773d 14ab f73e 66d1 29bd
-0.8059109 -0.59433675 0.040988266 -0.47112542 0.016287167 0.015398653 0.017420473 0.031097557
-0.1347987 -0.04953384 -0.004772755 -1.6951787 -0.00684038 -0.095681734 -0.027500365 -0.0032406796
0.019398166 -0.06615665 0.026356457 -0.024066016 -0.59267664 2.7376447 0.26949838 -0.061690856
-0.048737604 0.028163934 0.014572457 1.0534918 0.2931631 -2.7828076 -0.95046914 -0.050649226
-0.02204993 -0.051604174 0.016571483 -0.019705772 -0.4509603 0.007988565 -0.03514344 -0.035615552
-0.06348227 -0.013114746 0.06076449 -0.05022673 -0.2782713 0.028725818 3.0654402 0.0022528407
-0.015414608 0.030346174 -0.035313997 0.25456262 0.057598423 -0.66753274 0.034629513 0.637455
0.013712452 -0.011969526 0.067099065 -0.0073482203 -0.54563034 0.027547963 0.0347919 -0.06216313
-0.00919953 -0.050347786 1.0240049 -1.1326845 0.039074946 0.01967582 -0.05775894 0.038042333
2.6894946 0.03474783 0.6792356 0.02287287 -0.008171147 0.08471677 -0.030600477 0.031182298
0.008114074 -0.008137244 0.017521506 -0.024916714 -0.007457248 0.055103917 -0.06404487 -0.002359548
0.03999901 0.031018069 0.2507278 -0.07323139 -0.059107553 2.9164457 0.022806315 -0.018333001
-0.027120288 -0.042543933 -0.021628221 1.5975736 -0.015187009 0.053311978 -0.05068223 -0.03871527
0.8981163 -13.662915 0.02583957 -0.0060282797 0.013796912 -0.64756954 0.021968655 -0.0312238
-0.036949515 -0.548368 0.05144397 0.046621516 0.025517125 0.055043295 -0.024458015 0.07972469
0.0137822265 -0.017967729 -0.029796075 0.04179522 -0.042939894 0.23235022 0.0071943654 -0.023891447
-0.035286516 0.7363099 0.6614429 0.021760503 -0.047552954 -0.27460477 0.083683774 -0.05811098
-0.0024652658 -0.05239745 -0.07870279 -0.6527262 0.031320307 0.05192153 0.029225 0.0013510692
-0.014542827 0.76685935 -0.016573893 0.66202414 -0.62799937 0.002873264 0.12769666 2.2406683
-0.59705484 -0.018770518 0.45372277 -1.2573178 -0.08444254 -0.068477124 0.8440885 -0.052380946
0.0018299714 -0.023041582 0.055014648 -0.69629323 2.248942 0.028265638 -0.030957907 0.0031227993
0.04689771 0.056597654 0.055602796 -0.06420405 -0.025944304 -0.04214545 -0.037356585 -1.2389635
-0.024196878 -0.018348223 -0.045219116 -0.17306522 0.043600004 -0.0358905 0.020074287 -0.051903166
-0.016049767 0.028396782 0.43186444 -0.0036811898 0.04630707 0.029119313 0.13243155 1.7758218
-0.026963681 -0.019721724 1.4494634 -0.093566604 -0.035790537 -0.02242567 0.058607288 -0.05544508
1.3682574 -0.0052120383 0.32700515 -0.031585462 -0.03175024 -0.06906357 -0.06867627 0.003894669
-0.017810713 -0.02510363 0.45689788 0.046189383 0.4834664 0.92303824 -0.4081338 1.4933385
-0.034058925 -0.054152854 0.044370282 0.0093082795 -0.04776391 -0.051087137 0.0259237 0.055331558
0.0037011197 0.02014295 -0.042615574 0.03543837 0.043592 -0.105266176 0.045600813 -0.020532683
-0.3090496 -0.45009592 -0.034553457 -2.5307062 0.05251576 0.038799748 0.049729124 -0.517314
0.0430655 -0.03367269 0.055534445 -0.03601532 -0.0056055062 0.06259544 0.37497422 -4.3515763
-0.05535084 2.5354085 0.048961163 0.026828205 0.014891827 0.060308777 0.4837271 -0.041459464
