saved_models_1/125_2781_model.pt (torch, 701697 bytes, 11 tensors)

FC1.weight f4 [256, 36]
000000 be 70 3e be 67 af 08 3d 8d 1a b7 3e 4f 0a 5b be
       -0.18597695 0.0333704 0.35762444 -0.21390651
000010 ad a9 2b 3f 11 88 bd 3e d9 5a 44 be d9 48 98 bf
       0.6705578 0.37017873 -0.1917528 -1.1897231
000020 1a 2f 85 3f 5b 1d b3 3e 9d f3 96 bf 6a 41 d1 3e
       1.0404999 0.34983334 -1.1793095 0.4087022
000030 c8 e2 98 be cd a5 b1 3e bf 6a 48 3f 1d ea e1 be
       -0.2986052 0.34696808 0.7828788 -0.44123927
000040 a5 d9 81 bf 45 2b 46 bf 46 4c 71 3f 3c 69 be 3e
       -1.0144545 -0.77409774 0.9425701 0.37189662
000050 24 ae 97 3f 0a 38 fa 3e 48 9d 58 bf 20 b2 0d bf
       1.1850019 0.4887088 -0.8461499 -0.5534992
000060 b0 3b bd 3f 99 05 37 be 5b b2 a7 bf 47 d0 0d 3e
       1.478384 -0.17873229 -1.3101305 0.13848983
000070 45 3b 60 3e 68 60 68 3e 8e c9 82 3e e3 8e c8 3e
       0.2189761 0.22693026 0.255444 0.39171514
000080 12 0f 12 c0 38 54 b4 be 50 c2 41 3f 15 9a 5b bf
       -2.2821698 -0.35220504 0.7568712 -0.85781986
000090 ac dd bd 3f cb b6 1c bf f1 57 43 be 25 ba e3 bd
       1.4833274 -0.6121642 -0.19076516 -0.111194886
0000a0 b4 47 5e bf f4 06 18 be 11 ea 26 3f 63 4f de be
       -0.8682816 -0.14846402 0.65200907 -0.43419942
0000b0 3a b6 a6 bf 71 4c 42 bf 5e dd d1 3f 9b 4f 61 bf
       -1.3024361 -0.7589789 1.6395681 -0.88012093
0000c0 e0 45 b8 bf aa 6a 1d bf 9a ce 10 3f 11 54 16 be
       -1.4396324 -0.6149088 0.5656525 -0.14680506
0000d0 bc c9 c0 bf 47 4a 38 be 68 b9 19 40 3d fc 26 3f
       -1.5061564 -0.17997085 2.4019413 0.65228635
0000e0 22 1d 79 be de 14 5b bf d0 22 8f 3e b9 bd 07 3f
       -0.2432752 -0.85578716 0.27956247 0.5302387
0000f0 48 48 ea be bc a4 14 c0 ef b2 53 3e 22 17 35 3d
       -0.4575827 -2.3225546 0.20673726 0.044211514
000100 50 65 d8 be 76 62 9f 3e d3 49 1f 3e 45 8a 41 3f
       -0.42264795 0.31129807 0.15555505 0.7560161
000110 dd e6 45 c0 ef dd 96 bf 2f 35 8a 3f b6 b2 b7 3f
       -3.0922158 -1.1786479 1.079748 1.4351413
000120 1b 72 57 be 9b 32 be 3e 64 c9 79 be 7f 49 89 3d
       -0.21039622 0.37147984 -0.2439323 0.067034714
000130 e3 0e 0e bf 6d 58 69 3f a3 49 97 bf fa e3 bd bf
       -0.55491465 0.9115055 -1.1819347 -1.4835198
000140 5e fa a0 3f fe b8 31 3d d8 89 c7 3e 1b 43 19 bd
       1.2576406 0.043389313 0.38972354 -0.037417512
000150 34 ae a9 be 72 d2 a8 3f cd 68 60 be f8 68 4b c0
       -0.3314072 1.3189223 -0.21914978 -3.1782818
000160 ea 5f 9b 3e ad 8c 32 3f ac 8d 1a be e5 99 27 3f
       0.30346614 0.69745904 -0.15093106 0.654692
000170 eb e5 37 bf 05 ea db 3d 34 5c 29 3f 38 1c 03 3e
       -0.718352 0.10737995 0.66156316 0.12803733
000180 9b 63 9d bf d2 39 f8 be e9 f4 84 3f 28 8d e2 be
       -1.2296022 -0.48481613 1.0387241 -0.4424832
000190 35 fa 31 3e 3f de b9 3e 8c 8f d7 3c 63 98 c5 be
       0.17380603 0.36302373 0.026313566 -0.38592824
0001a0 a7 ad a1 3e f2 a0 e0 be 96 d1 67 c0 d6 d9 47 3f
       0.315778 -0.43872792 -3.622167 0.78066766
0001b0 d1 a4 a8 bf f8 3c 28 3e cd 97 c0 3d 6e 36 2d 3f
       -1.3175298 0.16429508 0.09403954 0.6766118
0001c0 ed 9d fc be 08 69 d7 bf ba 81 a1 3c 4a 1f 1f 40
       -0.49339238 -1.6828928 0.019715179 2.4862847
0001d0 70 23 9f bf 27 b1 95 bf 10 55 e0 3e aa 4c e4 3e
       -1.243269 -1.1694688 0.43814898 0.4458974
0001e0 9d 75 36 bf 5f 15 f0 be 65 bb 28 3e aa c7 ec 3e
       -0.71273214 -0.46891305 0.16477735 0.46246082
0001f0 f7 2e 94 bf 56 b3 de be 4e 74 5c 3f f1 e2 d1 be
       -1.1576833 -0.43496197 0.86114967 -0.40993455
000200 83 bb 4c bf 16 da 38 3e b6 8f c4 3e 24 b8 26 bd
       -0.7997362 0.18051943 0.38390893 -0.040702954
000210 96 52 9e bf c4 8f b6 3f 47 0c a7 3f 48 ff df 39
       -1.2368953 1.4262624 1.3050622 0.00042724074
000220 ff 72 14 c0 04 a1 cd 3e 63 f6 05 3f be 7e 52 c0
       -2.3195188 0.40161908 0.5232908 -3.2889857
000230 30 e5 a7 bf b4 fe 92 bd ec b1 a2 3f f4 19 4e c0
       -1.3116817 -0.07177487 1.2710547 -3.220334
000240 0e 00 32 be 17 7f 08 be 99 f8 e3 3d 6c 53 0e bb
       -0.17382833 -0.13329731 0.111314006 -0.0021717204
000250 65 3f 9b 3f 83 d7 67 3e e8 2d 83 bf 3c 60 87 bf
       1.2128721 0.22640805 -1.0248384 -1.0576243
000260 65 66 8c 40 be 7c 53 3e 72 95 4d c0 0c 04 29 3f
       4.3874993 0.20653054 -3.2122464 0.660218
000270 0a a1 73 3f 09 2f b0 3d 73 16 c1 be 1d 3d 03 3d
       0.951676 0.08602721 -0.3771244 0.032040704
000280 46 99 6c 3f c2 60 a3 bf 5b b4 bd bf d6 3e 86 3e
       0.92421377 -1.2763903 -1.4820665 0.26219815
000290 2b 03 c6 3d c0 7f 26 bf f8 3e ce be 93 cb b4 3f
       0.09668573 -0.6503868 -0.40282416 1.4124626
0002a0 57 f4 18 3f 35 ac 1d bf 6a ab 0d 3f bb bf 30 3e
       0.59747833 -0.6159089 0.5533968 0.1726064
0002b0 ab 9a be bd cb ee d8 3e 15 1b a1 3e ad 82 bb 3e
       -0.09306844 0.42369685 0.31465974 0.36623135
0002c0 0d 65 71 3f 34 30 c6 3e 59 d5 65 c0 ba 2e a3 bf
       0.94294816 0.3870865 -3.5911467 -1.2748635
0002d0 9e ac 2b bf 78 f3 07 be 2a 4f 85 3e 2d b2 6b be
       -0.6706027 -0.1327647 0.2603696 -0.23017187
0002e0 a1 5a f2 3e f0 db e1 3e 69 d4 91 bf ac 69 0e c0
       0.4733477 0.44113111 -1.1392947 -2.2251997
0002f0 c8 a5 09 40 83 81 8e 3e 3b 79 b5 be c7 c7 82 bf
       2.1507435 0.27833185 -0.35444054 -1.0217217
000300 f2 1f a8 be 71 88 7b be ef 24 cb be 41 53 e9 be
       -0.32836872 -0.24563767 -0.39676616 -0.4557133
000310 b6 86 e2 3e ac f4 2d 3f 24 a7 43 3f ab c5 40 bf
       0.442434 0.67951465 0.7642691 -0.7530162
000320 14 5d 22 bf 80 3d b6 bd 25 c4 3b 3f 9d cf d6 be
       -0.63423276 -0.08898449 0.7334617 -0.4195527
000330 cc ed 01 c0 c9 82 03 3f 98 10 a5 3e 93 31 a6 3e
       -2.030139 0.5137144 0.32239223 0.32459697
000340 fc 1e 84 3e 84 4b 25 c0 4c 5f 29 c0 08 6f 81 bf
       0.2580489 -2.582734 -2.6464415 -1.0112009
000350 c0 df b9 3f 1b 8d 86 bf 0d 27 28 c0 af 6a 5a c0
       1.4521408 -1.0511812 -2.6273835 -3.4127614
000360 f3 f9 1a be 45 8a 01 bf 85 e7 3e 3e 20 8a 85 bf
       -0.1513441 -0.5060161 0.18643005 -1.0432777
000370 6a 31 3b 3f b9 ba 02 bf 87 da 66 be 53 40 34 bf
       0.73122275 -0.51066166 -0.22544299 -0.7041065
000380 df a0 ff 3f 85 1e c4 3f 7b 0f ea 3e b4 16 50 be
       1.9970969 1.5321814 0.45714936 -0.2032116
000390 92 3e 71 3d 8f f5 b2 bf 8e bc 29 3f 15 da b1 3f
       0.058897562 -1.3981189 0.66303337 1.3894678
0003a0 34 14 f1 be b5 74 08 bf ca e9 29 3f 37 a2 31 bd
       -0.47085726 -0.5330308 0.6637236 -0.04336759
0003b0 f7 60 33 3f ca 2b b4 bf df e0 cf be c8 20 10 3f
       0.7006983 -1.4075863 -0.4060125 0.5630002
0003c0 5a 34 0e 3f ef 49 9c bf 02 be 56 bf 46 a2 4c bb
       0.5554863 -1.2210063 -0.8388368 -0.0031224652
0003d0 e1 e5 e5 3e 82 68 36 3e 9e 6b fd be 7e 68 a0 bd
       0.44901946 0.17813304 -0.49496168 -0.0783243
0003e0 16 aa 76 3f 15 c2 f1 bf 22 a8 3c bf 5f af c9 3f
       0.9635328 -1.8887354 -0.7369405 1.5756644
0003f0 ab a9 aa 3e 7b 84 1e 3e 4b f9 d2 be 77 39 3b bf
       0.3333257 0.15480225 -0.4120582 -0.7313456

FC1.bias f4 [256]
000000 24 69 e7 3c 9f 57 83 be c0 d7 d8 be 08 4c 76 3c
       0.028248377 -0.25652787 -0.42352104 0.015032776
000010 0b ce 3d 3e 24 33 67 3e ae d7 50 be a5 5d cf be
       0.1853563 0.22578102 -0.20394775 -0.40501133
000020 85 d5 1c bf 19 98 ba be ec c0 27 3c fa 93 ca bd
       -0.61263305 -0.36444166 0.010238867 -0.098915055
000030 95 6e df be bf 40 c6 be fb 3c 6b be 1c b4 26 3e
       -0.43639055 -0.38721272 -0.22972481 0.16279644
000040 9b 86 9f 3e d4 74 d7 bd 9e 33 ce 3e d4 56 4d 3e
       0.31157383 -0.1052033 0.40273756 0.20052654
000050 0d 11 88 bd 5f fd a6 3d d4 cf 1a bf 46 18 94 3e
       -0.06643877 0.081537955 -0.6047337 0.2892477
000060 4a 3b a3 be d0 30 a0 bd e8 ee 30 bf 87 96 7a 3e
       -0.3188117 -0.0782181 -0.6911454 0.24471484
000070 c1 4b 4e bf 22 90 cf 3d 44 7d 1f be d5 60 ca be
       -0.8058434 0.10134913 -0.15575129 -0.39527002
000080 76 50 15 bf ea ab c2 3e 27 dc 65 bd 67 4d 0a 3f
       -0.583259 0.38021785 -0.056118157 0.54024357
000090 e3 3b db be 13 f2 9a be 64 89 99 be 63 87 52 be
       -0.42819127 -0.30262813 -0.29987633 -0.20559458
0000a0 6e 72 66 3e fb 61 cc be 9c 9b c8 3d 47 fa 03 bf
       0.22504589 -0.39918503 0.09795305 -0.5155377
0000b0 6e 43 50 3e 5b 53 fd bd be a9 23 bf d2 43 8b be
       0.20338222 -0.123694144 -0.6393088 -0.2720018
0000c0 6b cf 00 bf 65 e8 2e 3c a0 4b de 3e ff 4b 48 be
       -0.50316495 0.010675524 0.43417072 -0.1956024
0000d0 2f af f9 bd 37 a3 78 bd 56 22 ad 3d ff d2 fc be
       -0.12191617 -0.06070253 0.08453815 -0.49379727
0000e0 3a b4 1e be 42 b0 19 bf c2 e5 a8 bd 1a a0 95 bd
       -0.15498438 -0.60034573 -0.08246948 -0.073059276
0000f0 f4 9e 3b be a8 25 3d 3e bb 34 cf 3d 07 05 6e 3d
       -0.18322355 0.18471396 0.101174794 0.058110263
000100 ba 73 29 bd a9 4d b3 3d d5 bd c3 3d b1 8e 10 be
       -0.04137013 0.08755047 0.09557692 -0.14116932
000110 3f 2e 03 bf 16 d3 ac bd 11 fd 52 be 92 03 ac be
       -0.5124244 -0.08438699 -0.2060435 -0.33596474
000120 77 a2 98 3e cd eb 44 3f ac 1d 2c be a3 38 49 3e
       0.2981145 0.76922303 -0.16808194 0.19650511
000130 50 a3 14 bf e5 6b 99 be 64 8c 36 bf 30 00 ab 3e
       -0.58061695 -0.2996513 -0.7130797 0.3339858
000140 c8 10 44 bf f6 bc a4 be 16 9e 0e 3e 08 8e bb be
       -0.76588106 -0.32175416 0.13927492 -0.366318
000150 9c 3d c4 3d 3b 66 0a 3f 3b 34 d0 3c 11 a8 9c 3d
       0.095820636 0.5406224 0.02541553 0.076492436
000160 05 2a 8f be c2 8f 61 3e 9d 01 fc 3c f8 b0 60 be
       -0.27961746 0.22027496 0.030762488 -0.21942508
000170 8f 13 d7 be 56 69 ce 3e a7 44 c3 3d b2 ad 27 bc
       -0.4200711 0.4031474 0.09534579 -0.010234283
000180 cf c0 a5 bd a3 a6 a7 be 48 40 86 be 57 0f 30 bf
       -0.08093416 -0.3274432 -0.26220918 -0.68773407
000190 14 4b 4d bd c0 cc 4a bc 0b 74 48 be 3b f7 f3 be
       -0.05012043 -0.012377918 -0.19575517 -0.4764956
0001a0 71 a4 04 be 06 f5 87 3e 52 46 62 3e d6 b7 28 be
       -0.12953354 0.26554126 0.22097138 -0.16476378
0001b0 52 c3 e3 3d 51 f2 d1 bd 7d 17 88 be ee e9 c5 be
       0.11121239 -0.10251296 -0.2658042 -0.38655037
0001c0 e4 8d 83 be 45 21 f6 be e6 73 0c bf 08 b9 0c 3e
       -0.2569419 -0.48072258 -0.54864347 0.13742459
0001d0 99 3a ff bd 81 cb 16 3e fc 04 df be d3 62 1e bb
       -0.124623485 0.14726068 -0.4355849 -0.002416779
0001e0 98 96 99 bd 1e 06 3f bd 59 97 cf be 5a c6 5e be
       -0.074994266 -0.046636693 -0.40545157 -0.21755353
0001f0 18 d7 36 bf 77 ab ca be 63 5b 26 bc 0d 05 08 bf
       -0.71421957 -0.39583942 -0.010153624 -0.53132707
000200 4f 7c 2a bf 91 4a bf 3d dc 27 a2 be ff 7a aa 3e
       -0.6659593 0.09340394 -0.31671035 0.33296964
000210 d1 27 ba 3e 4f 32 9e bd 59 03 69 3e a2 97 ad be
       0.36358503 -0.07724439 0.22755183 -0.3390475
000220 b3 72 26 be 49 57 a6 3e aa 1c 53 3c 4f 3e 38 3d
       -0.16254692 0.32488468 0.012885252 0.044981297
000230 78 c1 6d be 2b e2 3a 3c 39 ef b2 3c e1 13 0e 3d
       -0.23218334 0.011406462 0.021842586 0.034686927
000240 73 3a e3 be b8 10 bb be 7c e9 98 3e 54 a3 04 3f
       -0.4438053 -0.36536193 0.29865634 0.5181172
000250 e2 f7 59 be 07 70 5e 3e a9 11 4c bf c4 4e 01 be
       -0.21285966 0.21722423 -0.7971445 -0.12627703
000260 3b 96 7b bc 4b 31 3b be 89 a0 35 3f d9 aa 1e be
       -0.015355642 -0.18280523 0.7094808 -0.1549486
000270 d1 f2 23 bf d6 2d 1e be 5a 16 da 3e ef 91 e3 bd
       -0.64042383 -0.15447173 0.42595178 -0.11111819
000280 12 3f 5d be db fc d3 3d b0 a4 0f 3f 9a 0c 19 3e
       -0.2160609 0.10350963 0.5611067 0.14946213
000290 51 64 4e 3d f0 3d 8b 3e a2 88 10 bf 4a 2d 5c bd
       0.050388638 0.27195692 -0.56458485 -0.05375413
0002a0 21 49 24 bd 6e fa 6e be 55 1f 9b be 2f 3f 2a bf
       -0.040108804 -0.23337719 -0.30297342 -0.6650266
0002b0 dc 75 d6 3e 36 00 6d 3e db 02 8c be 21 60 00 bc
       0.41886795 0.23144612 -0.2734593 -0.007835419
0002c0 d3 36 d9 bc 7d aa 41 3d 38 75 66 bf 92 c1 14 bf
       -0.0265154 0.04728173 -0.9002261 -0.58107865
0002d0 14 d8 2c 3d ca a3 10 bf c5 af ff bb 40 b3 d6 3e
       0.042198256 -0.5649992 -0.007802936 0.41933632
0002e0 5d b8 70 be 7e 8f 39 be b5 91 9d bd 16 a1 0b bf
       -0.23507829 -0.18121144 -0.07693807 -0.5454267
0002f0 7f 41 41 3f ff 2c c1 be e2 cc d7 3d bd 17 06 be
       0.75490564 -0.37729642 0.10537125 -0.13094993
000300 0f 0b 96 3d b6 a1 f8 3e 72 41 b6 3e f5 8b 84 be
       0.07326328 0.48560876 0.35596806 -0.2588803
000310 25 5a 0d bf ae 13 88 3c 5c 95 44 3e 70 d1 2a 3d
       -0.55215675 0.016610947 0.19197601 0.04170364
000320 ee cf 6f be b6 08 df be 68 ee e4 bc 5e 63 99 be
       -0.23419163 -0.43561333 -0.027945712 -0.29958624
000330 f0 da 0f 3e e3 dc d8 3d 5a 67 e8 3d 9e 33 c5 3d
       0.14048362 0.10589006 0.11347838 0.09628986
000340 cd 09 be be 7f 94 2f 3e cf 27 0b bf 00 93 27 3e
       -0.37116852 0.1714649 -0.5435762 0.1636467
000350 c1 f8 9e be 41 64 d8 be 18 99 23 bf fa 9a 9b be
       -0.3104916 -0.42263988 -0.6390548 -0.30391675
000360 12 ba bd be 68 89 c8 be 4e 3a 54 3e 2d 94 6b 3e
       -0.37056023 -0.39167333 0.20725366 0.23005743
000370 ba 19 c3 be 52 12 27 3c 08 1f e4 bd e6 76 10 3f
       -0.38105565 0.010197239 -0.11138731 0.56431425
000380 af 5c f6 be 47 fb ed bd 78 26 06 bf 4e f3 31 bf
       -0.48117587 -0.11620193 -0.5240245 -0.6951188
000390 07 5e 21 3e 3b 8f 9c 3e 8c 05 32 bd 8f a7 02 bf
       0.15758525 0.30578026 -0.04346232 -0.51036924
0003a0 60 86 17 3f 0b a8 b3 be cc 34 d7 be 05 fe a9 be
       0.59189415 -0.35089144 -0.42032468 -0.33201614
0003b0 d8 f0 37 bf fa f2 25 3e e3 2e 28 be 11 c6 29 be
       -0.71851873 0.1620597 -0.16424136 -0.16579463
0003c0 33 26 83 3d 12 ed 72 bd c7 96 e2 3d 39 76 3a 3f
       0.0640377 -0.05930812 0.11063915 0.72836643
0003d0 09 e7 13 3f 83 de 47 be f4 ef 15 be 84 dd c3 3c
       0.57774407 -0.19518475 -0.14642316 0.023909338
0003e0 10 43 7a bd d8 75 44 3e 71 6c 58 be ae ee 92 3d
       -0.061099112 0.19185579 -0.21135117 0.07174431
0003f0 51 93 1e be 7c dc f0 3e c9 74 bf be 8d 52 11 be
       -0.15485884 0.47043216 -0.37393788 -0.14191647

FC2.weight f4 [256, 256]
000000 1a c5 3c c0 6a 35 fe 3e c5 c8 bb 3e 39 07 cf bf
       -2.9495301 0.49650127 0.36676612 -1.6174079
000010 2c 72 91 3e 43 07 f8 3f 79 19 cb be b2 c9 0b c0
       0.2840742 1.9377216 -0.39667872 -2.1841855
000020 6e d6 ab bf 5a d6 0d 3f 76 0f 04 bc 65 43 40 3f
       -1.3424814 0.554052 -0.008060327 0.75102836
000030 6f 6a b9 bf 5d e5 3d bf 96 f2 26 bf 42 e9 f7 be
       -1.4485606 -0.74178106 -0.65213907 -0.4842015
000040 d8 b8 af bf e6 be 57 bd b7 f3 2a 3f 41 98 51 bf
       -1.3728285 -0.05267229 0.6677813 -0.81872946
000050 12 40 1f 3d c1 5d bb 3f 1d 25 68 c0 d1 f0 e8 3e
       0.03887946 1.4637986 -3.6272652 0.45496228
000060 6f 14 cd 3d 9f b1 15 c0 89 68 6f bf c0 b7 20 c0
       0.10013663 -2.3389661 -0.93518883 -2.5112152
000070 98 bc bb 3f fa 1b 42 bf 7e 18 de 3e c2 20 66 bf
       1.4666929 -0.7582394 0.4337806 -0.89893734
000080 a4 c9 fb be 1d 7f 8b 3e 2d 45 ae 3e 38 cf 8d bd
       -0.49177277 0.27245417 0.34037152 -0.069242895
000090 a5 0c 09 bf 23 a3 ca 3f 90 88 9e 3e 26 9b 00 3f
       -0.5353492 1.5831035 0.30963564 0.5023674
0000a0 b6 36 4e bf d6 49 71 3d f1 f7 b3 bf 82 d3 7b bf
       -0.8055223 0.058908306 -1.4060041 -0.9836961
0000b0 9a f5 42 bf 1e 54 0f be d6 35 eb 3e 7d a5 b1 be
       -0.7615601 -0.13996932 0.4593951 -0.3469657
0000c0 0f d1 0a 3d af f6 25 bf fc 51 8e bf 58 b8 94 bc
       0.03389078 -0.64829534 -1.111877 -0.018154308
0000d0 27 ef 03 c0 03 19 22 c0 14 d1 1a be f9 2f 00 c0
       -2.0614717 -2.5327766 -0.1511882 -2.002928
0000e0 8e 3c 6f 3d c0 d5 8a 3f da b9 0a c0 f5 05 c8 3e
       0.05840736 1.0846481 -2.1675935 0.39067045
0000f0 e8 42 b3 3e 87 ab 7a bf 97 d9 b4 3c 9c bc f6 3d
       0.35011983 -0.9791798 0.022076411 0.12047693
000100 ff 83 40 3f fe 33 96 3f 22 ed bf bf 3e a4 23 bd
       0.7520141 1.1734617 -1.4994242 -0.039951555
000110 15 43 0a c0 3d 4d 94 bd 2f b4 a8 3e 0e 08 41 be
       -2.1603444 -0.072412945 0.3294997 -0.18850729
000120 a3 f1 a9 be 20 9d 09 3f 99 43 ae 3d 8d 55 d9 bd
       -0.33192167 0.5375538 0.08508987 -0.10612021
000130 b6 f8 f2 bf f8 c6 c8 be 1f 6c cc 3d 7b 2b 89 3f
       -1.898215 -0.392143 0.0998156 1.0716394
000140 1f a2 3c 3f 47 42 ec bf e4 9a 0a 40 2d 7b a9 3e
       0.7368488 -1.8457726 2.1657038 0.33101788
000150 d2 2b 80 bf b4 bf b3 3f 02 b8 a2 bf 74 e1 b8 bf
       -1.0013373 1.4042878 -1.2712405 -1.4443803
000160 b6 2c 3d 3f b6 16 19 3f fa 76 5a bc 77 ef 2f c0
       0.7389635 0.5980028 -0.01333403 -2.7489908
000170 43 a7 a4 3e 66 a2 2f bf ae 3b 86 bd 85 73 d3 3e
       0.3215886 -0.68607175 -0.06554352 0.41299072
000180 4f 30 0f 40 37 bd 8b bf b4 c5 a8 3f f1 db 93 3f
       2.2373235 -1.0917119 1.3185334 1.1551496
000190 fa 55 21 bf 5f 94 d6 bf 47 ee c7 bf 6b d6 ab 3e
       -0.63021815 -1.6764029 -1.5619591 0.33562025
0001a0 f2 4f 28 3c da 4b d7 be 2a 32 d3 3f ca 55 01 3f
       0.010272967 -0.42050058 1.6499684 0.5052153
0001b0 b7 43 4c 3f c5 53 53 bf fc 11 87 3e 33 a2 98 be
       0.79790825 -0.825497 0.26380908 -0.29811248
0001c0 cf 7f ae bf 0d 75 0f c0 27 c4 bf bc 7e 75 7e bf
       -1.3632754 -2.2415192 -0.023408962 -0.9939803
0001d0 87 3c 35 bf 4d 47 16 c0 6e f0 20 bf bf 85 1a bf
       -0.7079548 -2.3481019 -0.62866867 -0.6036033
0001e0 5d 3c 72 be cf 5e 61 bf 1f 27 b5 3d 8a 79 50 3f
       -0.2365584 -0.8803529 0.088453524 0.81435454
0001f0 b2 46 9a bf 46 45 0a be e1 a6 68 3f e5 70 d2 bf
       -1.2052824 -0.13502988 0.90879637 -1.6440703
000200 27 b5 ad bc 70 a3 cb 3e 8f 57 cf 3f d5 4e a7 3e
       -0.021204544 0.3977313 1.6198596 0.32677332
000210 60 24 ce bc bf fc 8d bf 7a 75 16 bf 38 4b 56 3e
       -0.02516383 -1.1092757 -0.58773005 0.20927131
000220 ac 01 e2 bf 39 bc 75 3e 9c fd ba bf 09 99 43 3f
       -1.765676 0.23997582 -1.4608645 0.7640539
000230 3e 22 b2 bc 6a d4 04 3f a1 81 0b 3e 49 17 56 be
       -0.021744844 0.5188662 0.13623668 -0.2090732
000240 d9 f5 fc bf e0 27 22 bd 52 72 56 3e 0b c7 0e 3f
       -1.9762527 -0.03958881 0.20942047 0.55772465
000250 5a 80 8d bd 1b 05 38 bf ec 15 39 bf d7 c0 41 3f
       -0.06909247 -0.7188279 -0.72299075 0.75684875
000260 65 e2 cf c0 73 ae e1 be e8 40 0c be d2 46 15 bd
       -6.496386 -0.44078407 -0.13696635 -0.036444493
000270 29 19 29 bf 6e 1d ce 3f 49 9e 39 3f 19 e6 a8 3d
       -0.66054016 1.6102731 0.7250715 0.08247013
000280 26 7b 63 bf 93 88 b6 3e b8 cf 77 bf 1c 8f 40 3f
       -0.88859785 0.35651073 -0.9680133 0.7521837
000290 56 d2 3a c0 10 5a 13 c0 59 2e ec 3e 79 29 da bf
       -2.919088 -2.302372 0.4612911 -1.7043906
0002a0 2e 8d 3f 3f b7 da 04 c0 0a f0 03 40 6a 55 06 bf
       0.748248 -2.0758493 2.0615258 -0.5247408
0002b0 85 15 e4 be ea e4 8d bf 2d 18 35 bd 97 4b 02 bf
       -0.44547668 -1.1085484 -0.04421251 -0.5089659
0002c0 e0 3c 11 3f 0f ea a1 bc 51 ac 37 bf 3f 32 9d 3e
       0.5673351 -0.019764928 -0.7174731 0.30702397
0002d0 ff a6 0f 3e 00 a9 8e 3f 88 16 29 bf b7 11 87 3e
       0.14028548 1.1145325 -0.66050005 0.26380703
0002e0 7c 03 c6 3e 57 1a 5e bd 37 40 83 bf c8 ea 2f 3f
       0.38674533 -0.05422434 -1.0253972 0.6871762
0002f0 96 e5 6b 3f f8 ee ce bd 79 45 c6 3f 92 92 35 3e
       0.92147195 -0.101041734 1.5489951 0.17731693
000300 20 a0 ea 3e af e2 88 3f 02 60 e5 be 24 8a 09 3e
       0.4582529 1.0694178 -0.4479981 0.13431603
000310 56 13 cd bf fb 51 b6 bf 72 8a 6e 3f fe 2e 0d c0
       -1.6021526 -1.4243768 0.9318 -2.2059932
000320 70 d9 ad 3c f8 63 3d 3e 88 75 53 bc c3 73 90 3f
       0.021221846 0.18495166 -0.01290644 1.1285328
000330 41 3c 5e 3d 76 4d bb bf c1 db 25 3f 8e e2 51 3f
       0.05425668 -1.4633014 0.6478844 0.8198632
000340 14 3f 18 bf f6 f5 b6 bf 84 12 1b 3f f7 95 82 3f
       -0.5947125 -1.4293811 0.6057513 1.0202016
000350 95 13 96 3f 29 59 22 bf 2c a7 90 bf d1 72 bb 3f
       1.1724726 -0.634173 -1.1301017 1.4644414
000360 81 06 da bc 36 20 7d 3f 1f 31 7f c0 76 5c 29 bf
       -0.02661443 0.98877275 -3.987373 -0.6615671
000370 7b 2b 7f c0 00 63 10 3f 42 51 92 3e 72 23 01 40
       -3.9870288 0.5640106 0.2857762 2.0177884
000380 b1 c2 2b 40 42 3d 9d bf 1a 7a de 3e f0 e7 95 3f
       2.683758 -1.2284319 0.4345253 1.1711407
000390 7f 86 5d bf 4c 8a 32 be 1c 93 9c be c6 f5 ad 3e
       -0.8653335 -0.17435569 -0.30580986 0.33976573
0003a0 99 4b a0 3f e7 a2 a7 bd 08 d5 61 3e 60 6f 4d 3e
       1.252307 -0.08185368 0.22053921 0.20062017
0003b0 c3 7a 62 c0 72 1a df 3f cd 14 4f bf 2d b7 7d bf
       -3.5387428 1.7429945 -0.80891114 -0.9910763
0003c0 93 99 96 3b 85 24 22 c0 c3 0b e6 be 56 dd 1f bf
       0.004595944 -2.533479 -0.44930848 -0.62447107
0003d0 e0 d9 72 3f 6c b4 d9 3e 83 24 48 bf e6 4b 81 3e
       0.948637 0.42520463 -0.7818071 0.25253218
0003e0 f1 1e 80 bc 80 4c d7 be ff ba f2 be 2c db 15 3f
       -0.015639754 -0.42050552 -0.47408292 0.58537555
0003f0 97 c7 e1 bf ca ef c2 bf d0 8e f5 be 7c a5 1f be
       -1.7639035 -1.5229428 -0.4796052 -0.15590471

FC2.bias f4 [256]
000000 1e 8e bb be 68 31 a3 bd 95 28 11 be 34 93 c3 be
       -0.36631864 -0.07968408 -0.14175637 -0.38198245
000010 16 f5 cf be e7 d7 c1 be 80 8d 0b 3f 67 e8 7e 3d
       -0.40616673 -0.37860033 0.54512787 0.062233355
000020 ac 29 2f 3e dc 5d 3c bf 4c 66 91 3e 7e d6 db bd
       0.1710574 -0.7358072 0.2839836 -0.107342705
000030 cb 6a f1 be 7b a4 1b bd 96 96 33 bf 8b 8f 30 bf
       -0.4715179 -0.037998658 -0.7015165 -0.6896903
000040 29 8f 86 3e 42 96 55 be 82 ce f8 bd 84 04 85 bf
       0.26281098 -0.208581 -0.12148763 -1.0392003
000050 dc f2 02 3c a6 ef a4 be 07 2f 3a 3f b6 a6 11 bf
       0.0079924725 -0.32214087 0.7272801 -0.56895006
000060 c3 be e1 bd 8c c9 6d bd 52 4b 52 3e 8a be 5c bd
       -0.11022713 -0.05805354 0.20536545 -0.05389265
000070 f8 5c 05 bf 56 18 6d be 7f 23 21 bf 31 3c 40 bf
       -0.52094984 -0.23153815 -0.6294479 -0.75091845
000080 d0 49 82 bf 93 18 9e bd 41 7f 8d be 60 df 27 bf
       -1.0178776 -0.07719531 -0.2763615 -0.6557522
000090 f6 4c fe bd 1b eb ce ba 67 34 c2 be 9d c6 a3 3e
       -0.12417023 -0.001578662 -0.37930605 0.31987467
0000a0 33 c9 20 be cc ec af be de d1 31 3e 60 3e 33 bf
       -0.15701751 -0.3436035 0.17365214 -0.7001705
0000b0 5a be 8e 3e 49 34 e4 be 85 da 20 bf 65 12 eb 3e
       0.27879602 -0.4457114 -0.62833434 0.4591247
0000c0 39 90 99 3e 0e 81 aa be a2 38 0f bf e4 c2 e6 be
       0.29992846 -0.33301586 -0.5594579 -0.45070565
0000d0 7b 8a a9 be 7e 9b 25 bf e1 65 cf be 2f 25 ac 3d
       -0.33113465 -0.6469039 -0.40507415 0.0840553
0000e0 dc 51 f3 be 2c e6 dd be ea 52 af bd df e8 7d be
       -0.4752339 -0.4333967 -0.085607365 -0.24795865
0000f0 ac 70 38 3e 22 3b b3 be 11 9d 8a bf bf ac 81 3e
       0.18011731 -0.35006052 -1.0829183 0.25327107
000100 8f cc c3 3e 1c c2 06 3f d6 4c 1d bf 7a eb b1 be
       0.38242003 0.5263994 -0.6144537 -0.34749967
000110 23 70 1c be 3d 21 b2 be 2b 96 76 bf a1 c6 b8 be
       -0.15277152 -0.34790984 -0.9632289 -0.36089042
000120 45 54 19 bf a1 f6 21 be 85 e5 05 3e 5a 5a 60 be
       -0.5989421 -0.15816738 0.13075836 -0.21909466
000130 26 38 99 3e 8a d4 e7 be 6a 04 56 bf ea cb 49 bf
       0.2992565 -0.45279342 -0.83600485 -0.78826773
000140 6b 27 c0 be 9f 11 97 bf 18 83 af bd e9 1a fd be
       -0.37530074 -1.1802253 -0.08569926 -0.49434593
000150 ca 80 16 be e7 eb a4 bf 2d 70 49 bf d1 53 5c be
       -0.14697567 -1.2884492 -0.7868679 -0.21516348
000160 ee a4 f6 be aa ac 2b 3f f4 51 ab be 00 c6 19 bf
       -0.48172706 0.6706034 -0.33460963 -0.6006775
000170 76 09 ac be 7f 39 98 bf 89 3f 80 bf 9e 47 88 be
       -0.33600968 -1.1892546 -1.0019389 -0.2661714
000180 27 8d 56 bf 2f af 1a bf 7b 99 c2 be ef cc 3f bf
       -0.8380913 -0.6042356 -0.3800772 -0.7492208
000190 e3 3a da be b4 fc 09 bf d0 03 59 3e 61 11 f0 bd
       -0.42623052 -0.5390122 0.2119286 -0.11722065
0001a0 65 52 b5 be f4 e8 0b 3e b1 54 5c 3f b0 c8 0d 3e
       -0.35414425 0.13663083 0.8606673 0.13846087
0001b0 69 86 43 bf fd 5d 7f bf c0 42 49 be aa 50 24 bf
       -0.7637697 -0.9975279 -0.1965437 -0.64185584
0001c0 4b c2 23 3e ec e4 0b bd b3 c5 f1 3d 8d 18 21 bf
       0.15992086 -0.034153864 0.11805286 -0.62928087
0001d0 68 28 09 3e 3d cf bb be 3b b0 6b bf 1b 99 99 be
       0.1339432 -0.36681548 -0.9206578 -0.29999623
0001e0 f0 d1 4e bd f8 fd 8e be d4 00 17 3e 4c 28 d3 be
       -0.05049318 -0.27928138 0.1474641 -0.41241682
0001f0 9d 6f a0 bd d5 2c c1 3e be cd 4a be b3 18 3a bf
       -0.078337885 0.37729517 -0.19805047 -0.7269394
000200 59 ab f8 bd bd e3 59 bf ee a5 26 bf 8e 2a 2a bc
       -0.12142057 -0.85113126 -0.6509694 -0.010386122
000210 aa f8 0e 3f d5 fd 7c be 64 91 59 bf 14 52 33 bf
       0.5584818 -0.24706204 -0.84987473 -0.70047116
000220 3d 79 03 be fa 92 98 3f 8d 23 ab bf dd 69 d5 bd
       -0.12839217 1.1919854 -1.3370224 -0.104205824
000230 0d 64 58 bf 6d eb c1 bd 4d 21 d2 bd 83 89 9a be
       -0.84527665 -0.09468732 -0.10260258 -0.30183038
000240 1d 05 b4 3c bd f5 00 bf 55 72 07 3f 27 2d 9a bd
       0.021975094 -0.50374967 0.5290883 -0.075281434
000250 de 37 0f be 65 31 d9 be 57 b6 4f bf 68 49 cf be
       -0.13986155 -0.42420498 -0.81137604 -0.40485692
000260 bd 06 45 3e 90 2f 05 be f1 e7 5f 3f 29 ee 88 bf
       0.19240852 -0.13006425 0.8746329 -1.0697681
000270 7e 51 24 bf 97 70 71 bf 75 07 72 3d c6 94 4f be
       -0.6418685 -0.94312423 0.059089143 -0.20271596
000280 ef 5e 5b bd 38 97 19 3e 0a f7 2e bf c3 c3 53 3e
       -0.053557333 0.14999092 -0.683457 0.20680146
000290 4e e6 0c bf ff d4 11 3e 00 93 08 bf 7e 82 ee be
       -0.5503892 0.14241408 -0.53349304 -0.46583933
0002a0 75 e9 3f bf 0a 1b be 3c 5a 99 3d bf f4 bf 0f 3e
       -0.749656 0.023206253 -0.7406212 0.14038068
0002b0 17 f8 f6 be 5f c0 86 bf 1b 63 96 bf 8e 87 3b bf
       -0.48236153 -1.0527457 -1.1748995 -0.73253715
0002c0 28 90 30 be 4e a0 1d be b7 f3 a6 be 2a 39 3f 3d
       -0.17242491 -0.15393183 -0.32607815 0.046685375
0002d0 e3 ea 22 bd 6f 63 62 bf eb a1 fc 3b 72 a7 4d be
       -0.039774787 -0.88432974 0.007709732 -0.20083407
0002e0 17 27 27 3f 00 5a fe be d5 8b 76 bf 05 57 44 be
       0.6529402 -0.4967804 -0.96307117 -0.1917382
0002f0 75 f3 50 be eb 98 ab be 1c 78 8b be fe d6 a2 bf
       -0.20405371 -0.33515105 -0.27240074 -1.272186
000300 4f d1 df bd 2f 14 4c bf 86 b2 ad bd c1 18 60 bd
       -0.10928594 -0.797183 -0.08481316 -0.054711107
000310 f7 07 4f be 92 ba 90 bf ca bd cc be ba 26 39 be
       -0.20217882 -1.1306937 -0.39988548 -0.1808118
000320 b6 0a 1b bf 1f f0 73 bd 4c 4a 3e be db cf 92 be
       -0.6056322 -0.05955517 -0.1858303 -0.28674206
000330 69 f6 78 be 25 8b c7 bd 37 60 c3 be 2e 24 1c bf
       -0.24312748 -0.097433366 -0.38159344 -0.60992706
000340 84 e4 a5 be ce bd 1d 3f c7 20 7e 3e 3f c3 19 bf
       -0.32400906 0.61617744 0.24817191 -0.60063547
000350 5a ee 9b 3c ec 86 65 bf 55 1a d4 be 70 60 75 be
       0.019034553 -0.89659 -0.4142634 -0.23962569
000360 e4 6e 83 bf e9 23 62 3e e4 f3 b7 bd a3 99 10 bd
       -1.0268216 0.22084011 -0.08982065 -0.03530277
000370 16 f1 af 3d e2 db 53 be 1b 5f d2 bd 84 ea 27 be
       0.08590905 -0.20689347 -0.10272046 -0.16398054
000380 c6 72 05 3d b3 9c 23 3e e4 23 7b be c2 0c 4e bf
       0.03258016 0.15977745 -0.2452541 -0.80488217
000390 30 0f 60 bf 61 97 73 bf 84 1d ef be dc c9 8b bf
       -0.87523174 -0.9515286 -0.46702206 -1.0920978
0003a0 ac 4a ae be f9 e0 8d be d4 08 d8 be 6c 60 50 bf
       -0.34041345 -0.27710703 -0.42194235 -0.8139713
0003b0 53 c7 13 bf cd 4f 17 3d 73 08 b8 bf 47 ab 94 bf
       -0.5772602 0.03694134 -1.4377578 -1.161477
0003c0 c8 14 d6 bd 04 08 b0 be 91 5b c8 be bd db f8 3e
       -0.104531825 -0.34381115 -0.3913236 0.48605147
0003d0 d3 21 49 bf 78 74 19 3d 35 97 de bd 58 97 29 bf
       -0.78567237 0.03746459 -0.10868684 -0.6624656
0003e0 f1 82 50 bf d7 cb 09 be d1 93 57 bd 01 fe 85 be
       -0.814498 -0.13456665 -0.052631203 -0.26170352
0003f0 ae 4c 90 bd bd 2b 3c be 0b d1 7c be 86 2a 39 bf
       -0.070458755 -0.1837606 -0.24689119 -0.7233051

action_out.weight f4 [5, 256]
000000 09 75 44 be e1 3f 83 bd 6e 88 1a 3e e3 7a 63 3f
       -0.1918527 -0.06408668 0.15091106 0.88859385
000010 79 ae c9 3f 35 aa 08 bf 13 cb 1e 40 59 0c 12 3f
       1.575637 -0.53384715 2.4811447 0.5705009
000020 de e3 37 40 72 02 ed bf 17 ad a4 3f 7e f9 0d 3f
       2.873283 -1.8516371 1.2865323 0.5545882
000030 b6 a1 a9 3e 6e 82 9d 3c 09 a7 17 c0 97 dd 88 3f
       0.33131188 0.019227233 -2.36957 1.0692624
000040 d7 9d ce 3f c7 c6 82 3d a0 46 d7 3e ff 3c 17 3e
       1.6141919 0.0638557 0.4204607 0.14769362
000050 41 64 0f 40 88 c3 80 3f 39 5b 5f 3f 2f ce 77 3f
       2.240494 1.0059671 0.8724857 0.96798986
000060 42 88 aa 3f 36 90 ef 3f 18 00 0f 3f 5a 4f 31 3f
       1.3322833 1.8715885 0.5585952 0.69261706
000070 d4 06 9a bd 32 12 46 3e 18 fd dc 3f 21 81 08 40
       -0.075208336 0.19342878 1.7264738 2.1328814
000080 5f 13 80 3f 11 8c e8 3c f4 7e eb 3e bf f1 19 40
       1.0005912 0.028387101 0.45995295 2.40538
000090 d5 98 65 bd e2 98 4f bf c0 01 0b 40 e6 9f 19 40
       -0.056053955 -0.81092656 2.1719818 2.4003844
0000a0 d4 94 95 3f 30 a7 b1 3f de 4a a1 3f 33 fd 8a 3f
       1.1686044 1.3879147 1.2600973 1.085852
0000b0 a2 d3 b3 3f d2 7b 2a 3f 6d 51 74 3e 78 15 c4 3f
       1.404896 0.66595185 0.23859186 1.5319052
0000c0 d3 5d ca 3f 01 fe 62 3f 45 99 12 3f fc c6 4a 3e
       1.5809883 0.8866883 0.5726512 0.19802469
0000d0 b8 99 6a be 4d 38 31 3f d6 33 3b 40 22 fe e8 be
       -0.22910202 0.69226533 2.9250388 -0.45506388
0000e0 8b aa e5 3f 31 f4 42 3f 00 47 3d 3f 0c e0 53 3f
       1.794267 0.76153857 0.7393646 0.82763743
0000f0 87 03 0b 40 a1 a5 69 3f da 3d 66 bf 56 3d 03 3e
       2.1720903 0.91268355 -0.8993813 0.12816367
000100 9e e3 88 3f df 1c af 3f b0 5d 89 3f aa b7 47 3f
       1.0694463 1.3680686 1.0731716 0.78014624
000110 21 67 8c 3f 14 25 ef 3d 2d a1 02 be a7 46 07 bf
       1.0968972 0.11676994 -0.12756796 -0.5284218
000120 f3 f3 6f 3e 10 4c f8 3e 24 1a 12 be b8 62 03 bf
       0.23432903 0.4849553 -0.14267784 -0.5132251
000130 30 d8 eb 3f f8 83 9c be a4 d1 85 3f 92 b1 62 3f
       1.842535 -0.30569434 1.0454602 0.885522
000140 de 78 4f bf 90 62 b3 3f 18 b4 c9 3e 6c 31 db 3e
       -0.81043804 1.4014454 0.39395213 0.42811143
000150 96 e9 b2 3e 57 02 f7 bf bc 6d 01 40 45 90 32 3f
       0.34943837 -1.9297589 2.0223227 0.6975139
000160 b1 8e 9a 3e 56 3b 95 3f a5 d2 b7 3f ca c0 b1 3f
       0.3018699 1.1658733 1.4361159 1.388696
000170 11 b9 87 bf ab e8 74 be f4 51 61 3f 35 b6 84 3e
       -1.0603353 -0.23916881 0.88015676 0.25920263
000180 42 18 e1 3f 2b 81 30 3d 53 ff 91 3f 5e d3 18 40
       1.7585528 0.043091934 1.1406044 2.3879008
000190 7d 46 9f 3f fc 53 2c 40 d7 98 d0 3f 07 93 3f 40
       1.2443386 2.692626 1.6296643 2.9933488
0001a0 a1 81 5a 3f 08 87 91 bf 60 28 19 40 e7 43 b3 3f
       0.8535405 -1.1369333 2.3930893 1.4005097
0001b0 a6 6e b0 3f a7 64 fd 3e ca ee b4 3e 39 37 24 40
       1.3783767 0.49490854 0.35338432 2.5658705
0001c0 41 19 80 3f b7 b7 a5 3f 0d e7 04 3f f4 33 2f 40
       1.0007707 1.294669 0.51915056 2.737546
0001d0 dd c6 0d 3f 54 38 a2 3f 22 06 ae bf ac e7 82 3f
       0.55381566 1.267344 -1.3595622 1.0226951
0001e0 e8 fc 8f 3c 15 52 a4 3e 12 f7 e1 3f 95 66 90 3e
       0.01757665 0.32093874 1.7653525 0.28203264
0001f0 e5 3d 82 3d f0 77 cd 3e e3 7f c5 3e 04 c1 86 3e
       0.06359462 0.40130568 0.38574132 0.26319134
000200 d3 1c fc 3f cd 40 75 40 a9 8c 3b 3f 06 e2 a2 bc
       1.9696296 3.8320801 0.73261505 -0.019883167
000210 2f 42 e3 3f 8c fd 56 3f 97 58 81 3f 99 27 10 40
       1.7754573 0.8398063 1.010516 2.2524168
000220 18 13 b3 3f fb 9e 67 3f be 6e 2f 3d 3f 8d 84 3e
       1.3990202 0.9047696 0.04283022 0.25889012
000230 16 c3 05 40 54 1c f2 3e 79 09 83 3f 1b c6 0f 40
       2.090032 0.47287238 1.0237266 2.2464664
000240 11 6a ee bf ee 4b c6 3f 3e ed c2 3f 26 24 44 bd
       -1.8626119 1.5491922 1.522865 -0.047886036
000250 1a fe 5b 3e 4c 28 26 40 98 3b af bf a8 8b 53 3f
       0.21483651 2.5962095 -1.3690062 0.82634974
000260 79 47 d0 3f e4 4d be 3e e6 74 e2 3f ad 0c 9e bc
       1.6271812 0.371688 1.7691925 -0.019293154
000270 05 e8 f9 be a9 43 1c 40 65 38 d0 be a4 8a e9 be
       -0.4880983 2.4416296 -0.40668026 -0.45613587
000280 f3 b7 4f 3f b5 ee 86 3f df 26 04 3e 2b d2 51 3f
       0.8114006 1.0541598 0.12905453 0.81961316
000290 c7 97 77 3f c6 d4 ab bf 8e c4 78 3f 81 28 87 3f
       0.9671597 -1.3424308 0.9717492 1.0559236
0002a0 7e ac c9 3f 33 e2 5a 3f 3c 07 8d 3f a5 96 56 bf
       1.5755765 0.855014 1.1017833 -0.83823615
0002b0 93 6d 20 bf fd a1 11 3f 5d dd 2e 40 af c5 db 3f
       -0.62667197 0.568878 2.732261 1.7169703
0002c0 8c 02 84 3f f7 ef a6 3f 4b bd 32 3f a6 b1 bd 3f
       1.0313277 1.3041981 0.6982009 1.4819839
0002d0 82 68 b1 ba a0 2f 96 3f ca 97 6c 3f eb 5e 45 3f
       -0.0013535174 1.1733284 0.9241911 0.7709796
0002e0 8e 42 fe 3e e8 36 d2 3f 47 ee a6 3f 4e bd 96 be
       0.49660152 1.6423006 1.3041466 -0.29441303
0002f0 8b 90 76 3e 4a 48 32 40 d0 8d 89 be 02 10 56 40
       0.24078576 2.7856622 -0.26866007 3.344727
000300 ea 41 d6 3f bf 1a 10 bf 49 e1 59 3f 9e c1 8b bc
       1.6738865 -0.5629081 0.8510938 -0.017060097
000310 a9 f2 81 bf e2 28 50 bf 18 5d 95 3f 7c ba c1 bf
       -1.0152179 -0.8131238 1.1669035 -1.5135036
000320 a5 28 7a 3f ad d0 10 bd e3 d2 12 3e 0e 2f 06 3f
       0.9771827 -0.03535526 0.1433826 0.5241555
000330 1f 97 4e bf ad 52 18 bf 6a 74 fa 3f 28 8f 07 bf
       -0.8069934 -0.59501153 1.9566777 -0.52952814
000340 f7 7d 03 be 75 4f 26 3f f4 f5 ec 3f 79 26 89 bf
       -0.1284102 0.6496499 1.8512559 -1.0714866
000350 05 e4 f6 bc 57 7a 9c 3f 44 cf 1c 40 32 ce b7 bf
       -0.030138025 1.2224835 2.4501505 -1.4359801
000360 1b 7a 2d be 34 36 93 3f 9d 36 19 bd b3 07 bf bd
       -0.16941111 1.1500916 -0.0374056 -0.093276404
000370 db b3 e5 3f 86 65 06 3d 96 64 e0 3f 1d ac 50 3e
       1.7945513 0.032811664 1.7530696 0.20378156
000380 0a 64 bd bc af 8d a5 bf b3 ae 19 40 bb ac b5 be
       -0.023118991 -1.2933863 2.4012878 -0.35483345
000390 9a 5f af 3f b6 79 05 40 b0 41 90 3f 22 44 04 40
       1.370105 2.0855536 1.1270046 2.0666585
0003a0 e9 db b1 3e b3 be 88 3f b1 8d 3b 3f 64 f4 33 3d
       0.3473809 1.0683197 0.7326308 0.04393424
0003b0 c6 39 3f 3e 0a 9a 75 3f b9 5b 46 3f 4d 87 07 3f
       0.18674383 0.9593817 0.7748371 0.5294083
0003c0 79 e4 0e 3d 6a 0e c6 3f 94 18 7c 3e e8 c4 9c 3f
       0.034885857 1.5473149 0.24618751 1.2247591
0003d0 76 5d ee be f1 79 f6 3f 49 17 95 3e 38 98 19 3f
       -0.4655568 1.9255964 0.29119328 0.5999789
0003e0 77 30 8d 3f ab 08 6f 3d 44 9d 24 40 de 8f 82 bf
       1.1030415 0.058357876 2.5720987 -1.0200155
0003f0 4a 0a 1e 3f 14 b1 e6 3d 99 a5 9d bf 49 56 f0 3f
       0.6173445 0.11264244 -1.2316161 1.8776332

action_out.bias f4 [5]
000000 05 44 eb 3f 98 99 98 3e 9e 2e 59 3f ce 95 d7 3e
       1.8380133 0.29804683 0.8483676 0.4210648
000010 17 0f 2a 3f
       0.66429275

weight f4 [256, 123]
000000 fd ad 04 c0 c8 ba ed bb 72 50 d9 3e 78 d9 0e bc
       -2.0731194 -0.007254932 0.42444187 -0.008718841
000010 8e 55 d2 3e 13 69 a6 3d 6d ae d3 3d f2 5e 1a bf
       0.41080898 0.0812551 0.103360035 -0.60301125
000020 1f 23 16 40 87 cb 91 3d 8a 32 58 3d fb 3f 97 be
       2.3458936 0.07118898 0.052782573 -0.29541
000030 15 ea 53 3e 8a 8a 6b be 15 c6 ec 3e 6b 9d 24 bf
       0.20694764 -0.23002067 0.46244875 -0.643027
000040 d8 0d 24 bf d4 35 0e bf 9b 39 57 3e f2 dc e9 be
       -0.64083624 -0.55550885 0.21018068 -0.4567638
000050 0e e2 09 3f f4 d4 0c c0 cd 3b 4a 3f e4 93 e0 3f
       0.5386056 -2.2004976 0.789975 1.7545133
000060 ea ea 1c bf 1b 98 34 3e eb 27 1b be dd 2f 22 bd
       -0.6129595 0.17636149 -0.15151946 -0.039596427
000070 32 d9 df bb 66 a6 f0 bc 42 9b 00 3c 8c 9c 77 3d
       -0.0068313116 -0.02937622 0.007849516 0.06045203
000080 0a 92 8d bd 50 4e 6d bc d8 84 d5 bc b0 7f 2c be
       -0.0691262 -0.014484003 -0.026064321 -0.16845584
000090 89 9e 08 c0 87 8c 48 be cf 96 27 3e 18 8c 19 be
       -2.1346762 -0.19584857 0.16366123 -0.14994848
0000a0 f7 71 03 3f aa 65 3b 3d a9 5d 92 3d 25 29 bc be
       0.5134577 0.04575125 0.071467705 -0.3675014
0000b0 9b 94 0a 3d d0 5d d1 3e e7 59 1f be 2d 66 97 be
       0.033833127 0.40891886 -0.15561639 -0.2957014
0000c0 25 e3 46 3e ca 27 53 be 0d 6d ce 3e 55 1a 59 bf
       0.19422586 -0.20620647 0.40317574 -0.84805804
0000d0 37 35 69 3f 4c 43 eb 3c a5 ee 82 3d c7 cb 10 bf
       0.91096824 0.028718613 0.06393174 -0.5656094
0000e0 b6 00 12 3f d8 65 09 c0 45 ef 71 3f e7 62 f4 3f
       0.57032335 -2.146841 0.9450572 1.9092683
0000f0 e5 e0 d6 bf 53 cd b0 3e 11 32 06 bf 8b f8 4b 3d
       -1.6787382 0.3453165 -0.52420145 0.049797576
000100 dd 8a 88 3c 21 82 3b 3b b3 92 c4 bc 99 61 8a bd
       0.016667778 0.0028611498 -0.023995733 -0.067568965
000110 16 e1 5d bd 51 24 6e bd 61 15 9d 3d 14 42 72 be
       -0.054169737 -0.058140103 0.07670093 -0.2365802
000120 96 4e 03 c0 52 33 e7 be 22 ed 2f 3f 99 3b 02 bd
       -2.0516715 -0.45156342 0.6872121 -0.031795118
000130 b3 7a 01 3f ff be 88 3c a1 40 d1 bb b7 81 54 bf
       0.5057785 0.016692637 -0.006385878 -0.8301043
000140 69 1e f1 3d d5 5f 39 be a5 f5 93 3e bb 05 5e be
       0.117733784 -0.18102963 0.2889835 -0.21681874
000150 55 02 36 3e e6 e2 6e be 9b ca b2 3e 74 1a 0b bf
       0.17774327 -0.23328742 0.349202 -0.5433724
000160 9b 01 e0 3b ba c2 42 be fe 4d c4 3e 90 4e f1 be
       0.006836129 -0.19019595 0.38340753 -0.4713025
000170 e2 34 31 3f 24 3d 0b c0 b9 85 6d 3f 7c 39 61 40
       0.6922132 -2.1756067 0.9278217 3.5191336
000180 ec 7d d9 bf 60 90 d5 bc 06 5b 1f 3d 66 b6 82 3d
       -1.6991553 -0.02606982 0.038905166 0.06382446
000190 a4 2b 9d bc 4f 8d cf 3d 5b 9a e2 3c 34 6d e1 3c
       -0.019185849 0.10134374 0.027661493 0.027517892
0001a0 e0 b4 f1 bb 70 ce f6 bb 0f a5 21 3b a0 1a 02 c1
       -0.0073762983 -0.0075319335 0.0024665033 -8.1315
0001b0 72 34 b4 3d 06 b4 95 3d 41 e7 56 bd d3 84 8e bc
       0.08799066 0.07309727 -0.052466635 -0.01739732
0001c0 ce 99 03 3e e7 fd 8c 3b 25 8c cf 3b 36 7f a7 3d
       0.1285164 0.0043027285 0.006333845 0.081785604
0001d0 f2 b9 ce 3d 86 a1 9a bc 15 e1 53 3b fa e4 e4 3d
       0.1009406 -0.018875849 0.0032330204 0.11176486
0001e0 61 19 35 bd e3 47 25 be 52 20 e0 3d 16 86 9f be
       -0.044213656 -0.16140704 0.109436646 -0.31156987
0001f0 83 30 69 be 49 0c 56 3c c9 85 f7 bd 1a ce a9 bc
       -0.22772412 0.013064452 -0.12086064 -0.02072816
000200 23 19 f9 bd ef 9d f6 3d 63 43 a7 3f 05 56 46 3f
       -0.121629976 0.12041842 1.306744 0.77475005
000210 1e b1 a5 bd 30 fa 15 3c 08 40 82 bf bb 38 b8 3e
       -0.08090423 0.009153888 -1.0175791 0.35980782
000220 21 df 1a c0 54 88 49 3f e5 25 de 3f b2 62 87 bf
       -2.4198687 0.78723645 1.7355314 -1.0576994
000230 90 9a 44 3f 3c 07 0f bf c6 18 db be 57 0f f8 be
       0.76798344 -0.55870414 -0.42792338 -0.48449203
000240 b4 52 94 bf 4e a5 8a be 14 0b 1e be b2 10 4f 3e
       -1.1587739 -0.27079242 -0.15433913 0.20221213
000250 66 6a 03 3f 5e d5 7d 3e 7f cc c7 be 4c 59 b9 bd
       0.51334226 0.24788424 -0.39023206 -0.09050235
000260 63 24 b4 3d 74 f8 15 3e 11 22 26 bd 85 90 d0 be
       0.08796003 0.14645559 -0.040559832 -0.4073526
000270 b2 7f 7d 3d 95 00 81 3d ac 3b 49 3f cb f0 83 be
       0.061889358 0.06298939 0.7860668 -0.25769648
000280 e8 69 6e bf ab c8 8b 3e 62 66 fc bd 22 d3 88 bd
       -0.9313035 0.27301535 -0.123242155 -0.066808954
000290 ad 4e 03 be e5 43 43 3c cd aa 81 bf 6d 77 58 3f
       -0.12822981 0.011918043 -1.0130249 0.8455723
0002a0 5e e1 54 bf b2 0d 25 3f b1 8e 5d bf 79 79 9d 3e
       -0.83156383 0.6447402 -0.86545855 0.3075674
0002b0 bd 00 1e c0 f0 5d 4a 3f 40 72 1b 40 4c 42 38 c0
       -2.468795 0.7904959 2.4288483 -2.8790464
0002c0 f0 d1 b2 3b ad 15 0a bd 84 f5 ba be 74 35 f1 be
       0.0054571554 -0.033712078 -0.3651544 -0.47111094
0002d0 a6 84 87 bf 0e 75 d4 be cd b8 51 bf ed 79 83 3f
       -1.0587356 -0.41495556 -0.8192261 1.0271584
0002e0 e9 e9 10 bf 55 a1 84 3f 9f 86 d9 be 0c c3 c7 3d
       -0.5660692 1.0361735 -0.4248552 0.09753999
0002f0 15 76 3b bd 18 95 ca 3d 67 51 be bd c5 2d b4 3d
       -0.04576691 0.098917186 -0.0929287 0.08797792
000300 3b c9 ee be c2 9f 2e 3d 43 71 98 bf 80 38 93 be
       -0.46637902 0.042632826 -1.1909565 -0.28754044
000310 b6 3e 06 bf 51 63 d9 be 42 39 89 be bc b3 70 bd
       -0.5243944 -0.42458585 -0.26801497 -0.058765158
000320 73 1a 4b be f9 39 0f 3e 6d 65 34 bf 93 42 cf 3e
       -0.19834308 0.13986959 -0.70467263 0.4048048
000330 45 09 1c bf f3 37 b8 be 4c 9a 6c bf f5 78 82 3e
       -0.60951644 -0.35980186 -0.9242294 0.25482908
000340 cc 3f 1e c0 46 a9 46 3f 59 a7 86 3f 55 b6 c5 bf
       -2.4726439 0.7760204 1.051982 -1.5446268
000350 51 a2 f8 3e c9 e1 91 bf 07 7b f6 be 34 5e e9 be
       0.48561338 -1.1397029 -0.48140737 -0.45579684
000360 92 e1 80 bf a8 c9 87 be 60 d6 eb 3e 2f 14 f1 bf
       -1.0068839 -0.2652104 0.46061993 -1.8834285
000370 00 30 d2 3a 35 4a 9c 3d c7 f6 cf be c3 67 6b 3e
       0.0016036034 0.07631341 -0.40617964 0.229888
000380 b9 78 b6 bd 64 cf 9f 3d 07 85 ca bc be 62 33 3d
       -0.08909745 0.078032285 -0.024721636 0.04379534
000390 17 94 87 3d 37 a9 e5 be 9d 81 36 c0 5e 97 bf 3b
       0.06620043 -0.44855663 -2.851661 0.005846902
0003a0 b7 1c d3 bd 31 71 67 3e 05 dc af bd a7 17 56 be
       -0.10308211 0.22601773 -0.08586887 -0.2090746
0003b0 81 55 04 bd fd 99 32 3e cf ba 88 3d 56 83 6d be
       -0.032308105 0.17441554 0.06676256 -0.23194632
0003c0 45 d0 7b 3e 3c 3b ce ba 5a 00 24 3c e8 d8 28 3e
       0.24591167 -0.0015734206 0.010009849 0.16488993
0003d0 58 34 e0 3d 5f f9 82 be f2 57 50 bd 1b 06 da bc
       0.10947484 -0.2558088 -0.05086512 -0.02661424
0003e0 e8 0c 6e 3d ff 12 94 3d 09 5e 06 bc 01 30 46 bd
       0.058117777 0.07230186 -0.008201131 -0.048385624
0003f0 87 28 09 3d 6f c9 f7 bb 34 a8 9b 3d 62 7e 53 3d
       0.033485916 -0.0075618546 0.076004416 0.0516342

bias f4 [256]
000000 1f 5e 89 ba d1 1f 03 bf 44 d9 cd bd 8f 71 50 3e
       -0.0010480321 -0.51220423 -0.10051206 0.20355819
000010 fb 04 6e bd dc dd 37 3c 7c e0 3e be f0 97 87 3c
       -0.05811022 0.011222329 -0.18640321 0.016551942
000020 62 59 12 be eb f5 d5 bd 18 fd 1b bd 4b 83 36 bf
       -0.1429191 -0.10447296 -0.038083166 -0.7129409
000030 98 30 5c be f8 55 4e 3d 4c f4 d8 bd bc 51 9a bd
       -0.21502912 0.050374955 -0.10593471 -0.07535121
000040 cf bc d9 bc 91 67 f6 bd 47 fd 5d 3d fb 40 88 bd
       -0.026579289 -0.120314725 0.054196622 -0.06653019
000050 e5 1c 29 bf 8e 02 18 bf f7 3b e5 3d fb d5 e9 3c
       -0.66059715 -0.593789 0.11193078 0.028544417
000060 ef 6b e0 bc 61 98 b3 bc cf 95 a9 bd 69 4b b9 3b
       -0.027395217 -0.021923246 -0.08280527 0.0056547415
000070 9a 0b 21 be dd da 26 3f 4a 27 0e 3e a2 6a 95 bd
       -0.15727082 0.6517771 0.13882175 -0.07295729
000080 f7 39 c4 bc 7a 51 e7 bd 6e c3 05 bd d3 a7 8a bd
       -0.023953421 -0.11294837 -0.03265708 -0.06770291
000090 f0 11 25 bf a7 07 e4 bd d2 6e d1 bd a3 f2 37 be
       -0.64480495 -0.11134272 -0.102262154 -0.17963652
0000a0 dd e3 1e 3d 25 8a ee bd a3 3d 27 3d 2f a0 9f 3b
       0.038791526 -0.11647443 0.040830266 0.0048713903
0000b0 8d 65 04 bf 49 bb 87 3d 37 45 86 be 93 3f 9b bd
       -0.51717454 0.06627519 -0.26224682 -0.07580485
0000c0 09 df be bc 69 49 72 bd 41 52 f0 3c 94 64 a4 bc
       -0.02329971 -0.05915204 0.029336097 -0.02006749
0000d0 b3 88 f6 bd 5e 5d 15 3f 25 38 91 bd 59 9c 29 bf
       -0.12037792 0.5834559 -0.07090787 -0.6625419
0000e0 a7 1d 28 be 2e ee 18 bd c8 44 c8 bd fe 3b 30 bd
       -0.16417561 -0.03733652 -0.09778744 -0.043025963
0000f0 cf 83 6d 3e 62 7c cc bd 12 79 89 bd 09 41 31 bd
       0.23194812 -0.09984662 -0.067125455 -0.043274913
000100 ae 10 85 bd 58 44 73 bd 97 ba 00 bf 11 0d d1 3c
       -0.06497322 -0.05939135 -0.50284714 0.025518926
000110 29 38 16 3d 8d 6b ad bc 2f c2 94 3e 85 fa e3 bc
       0.036674652 -0.021169448 0.290544 -0.027829418
000120 40 90 0c 3f f0 59 1b bd e2 04 33 3f a0 ba 18 3d
       0.5490761 -0.037927568 0.69929326 0.037287354
000130 0e 7c 45 3d 1d 11 03 bf 31 2e 2c 3d 0c 7f ba be
       0.04821401 -0.5119799 0.04203624 -0.36425054
000140 d7 99 02 3d 1d 35 c3 bd 50 0f 6b be 0e 42 74 bd
       0.031884994 -0.09531615 -0.2295506 -0.059633307
000150 75 6a 10 bc 8b b0 01 be 8c 50 44 bd 5f 66 7f bd
       -0.008814444 -0.12665002 -0.047928378 -0.062353488
000160 ef 78 93 bd 9f 25 63 3c 42 8d 1a be 1b 58 98 3c
       -0.072008006 0.01386395 -0.15092948 0.0185967
000170 60 d8 d0 bd da 34 6a bf c3 6f b1 3b 44 95 b6 bc
       -0.1019752 -0.91486895 0.0054149344 -0.022287972
000180 fd 37 bf 3b 55 3f f0 bd 19 e6 ee bd 45 73 6b bf
       0.0058355317 -0.117308296 -0.116649814 -0.9197276
000190 a7 f3 ed bd 40 68 5a bd 66 33 87 bd be 8a f9 bd
       -0.116187386 -0.053322077 -0.066016 -0.12184666
0001a0 3a 2a 1f be 0b 85 49 bf d6 75 3c bc e6 09 3d 3d
       -0.15543452 -0.7871863 -0.011502704 0.046152018
0001b0 bc 04 13 bc 3a e0 ca 3c 41 33 81 bd ba 39 e6 bd
       -0.008973297 0.024765123 -0.06308604 -0.11241479
0001c0 64 3b 93 bd 06 fd 77 3e 75 8e 8b bd 01 31 6f bd
       -0.07189062 0.24217615 -0.06814281 -0.058396343
0001d0 eb 06 b9 bc b9 7a f5 3c 7c c5 b7 bd 8d 1a 01 bd
       -0.022586307 0.029965745 -0.08973214 -0.03151946
0001e0 39 90 8f bd 6f ef 04 be 91 19 b6 bd a3 21 b0 bc
       -0.0700993 -0.12981962 -0.08891595 -0.021500414
0001f0 6e 01 cf bd 69 c7 90 3e 9b 09 91 bd 67 5c 1c bb
       -0.101076946 0.28277138 -0.0708191 -0.0023858787
000200 f5 85 00 bd 17 ed 66 bf b9 33 c1 be 43 0d e9 bd
       -0.03137775 -0.9020552 -0.37734774 -0.113794826
000210 cc 3b ae bd a4 65 4d bf ee 7f 29 bd 58 5a ea be
       -0.08507499 -0.80233216 -0.04138177 -0.45772052
000220 10 d0 1d bd ce 1d b0 bd b4 b5 bc bd 3a 31 14 bf
       -0.038528502 -0.08599435 -0.092143446 -0.57887614
000230 48 83 4d bd 60 ce c2 bd bd 69 0b be 54 e6 06 be
       -0.050174028 -0.09512019 -0.13614555 -0.131738
000240 2a fb 3d bd 88 10 65 3e 34 86 cc bd 9d 1d 5d 3f
       -0.046382107 0.22369587 -0.09986535 0.8637331
000250 d1 a9 86 be 53 80 b8 bc 56 b0 de 3e 8c 51 31 bf
       -0.26301435 -0.022522127 0.4349391 -0.69265056
000260 93 04 6b be a3 6c 51 be 9c c6 30 be 69 c3 df bd
       -0.22950964 -0.20451598 -0.17263263 -0.109259434
000270 5e 2d b1 bd cf bf f5 bd 4a ec e7 3e bc 15 15 bd
       -0.08651231 -0.11999475 0.45297462 -0.03639768
000280 f4 b0 a8 bd 67 00 4b bd 1e 1d 57 bd 5f 82 90 bd
       -0.08236876 -0.04956093 -0.052518003 -0.07056116
000290 ea c4 f6 be d9 63 0a be 17 14 cd bd 5b 1e 97 bd
       -0.48197109 -0.13514651 -0.100135975 -0.07378837
0002a0 37 a6 0a be b5 69 13 3d 1c 7e 00 3d 62 a8 1b ba
       -0.13539968 0.035989482 0.031370267 -0.0005937872
0002b0 c8 1e 8f bd fa 9c 29 bf a1 b5 89 bd 73 eb 38 3d
       -0.06988293 -0.6625515 -0.06724096 0.045146417
0002c0 b9 c5 b0 bd 28 2c 74 3d 6b a3 00 3d 3b e3 56 3e
       -0.086314626 0.059612423 0.031405848 0.20985119
0002d0 ca a0 98 bd 5e 98 0a be 5e 7e 34 bf a0 c5 cc be
       -0.07452543 -0.13534686 -0.7050532 -0.39994526
0002e0 4a c7 4e bd c3 3f ae bd 38 65 28 bc 06 fe bf bd
       -0.050483026 -0.08508255 -0.010278039 -0.09374623
0002f0 55 af 26 bd 33 e2 7b 3b c3 ae 5d be 8c cb f6 bd
       -0.040694553 0.0038434386 -0.21648698 -0.12050542
000300 8a 7c e3 bc 2e ac 07 be 1d da 42 3f fc b7 45 be
       -0.027769346 -0.13249275 0.76114064 -0.19308466
000310 77 e7 f0 be b6 08 6c bd 74 b0 09 bc bb b2 68 bd
       -0.47051594 -0.057625495 -0.008403886 -0.056811076
000320 89 e0 fa be 07 96 59 bd 31 6e 77 bf ab 1c 7a bd
       -0.48999432 -0.053121593 -0.96652514 -0.061062496
000330 21 d3 65 3d 8a 70 18 bd 0f db b2 bd 4e 44 50 bd
       0.05610955 -0.0372167 -0.08733188 -0.05084639
000340 a4 50 85 be ff 86 d8 3c c4 96 2e bf 09 19 02 be
       -0.26038086 0.026431559 -0.681988 -0.12704863
000350 25 aa 36 be d6 b7 63 bf 84 7d 16 bf 6f 5b 91 bf
       -0.17838342 -0.88952386 -0.5878527 -1.1356028
000360 5e 17 04 be f2 b0 23 bd 16 e0 e3 bd bc d3 61 bd
       -0.12899539 -0.03996367 -0.111267254 -0.055133566
000370 4b 87 01 bd ef 5f 6e 3c 0b 79 99 bd c1 83 b5 bd
       -0.031623166 0.01454924 -0.0749379 -0.08863021
000380 4b e4 74 bc 0b 10 01 be c0 7f 38 bd 4f 89 22 bc
       -0.014947007 -0.12603776 -0.045043707 -0.009920432
000390 8f ad 3a bd 74 57 52 3d f9 0e 97 bd 04 c3 83 bd
       -0.045575675 0.051352933 -0.07375903 -0.06433681
0003a0 3e f8 e6 3e 9f 54 ac be 98 fa 0c be 09 d6 4d bf
       0.4511127 -0.3365831 -0.13767469 -0.80404717
0003b0 ec 87 85 be 33 3a 81 3d a8 8f 57 3b 47 fb 33 3f
       -0.26080263 0.06309929 0.0032892022 0.70305294
0003c0 3e 52 b2 bc 8c 37 c7 bd b1 c2 10 bd 79 6c a1 bd
       -0.021767732 -0.097273916 -0.035341922 -0.07882018
0003d0 42 f7 8a 3c 6c e8 37 3c 27 75 ed 3b 16 62 f2 be
       0.016963605 0.011224847 0.0072466317 -0.4734046
0003e0 19 32 7c bd 40 26 30 bf 23 11 91 ba e6 87 97 bd
       -0.061571214 -0.68808365 -0.0011067729 -0.073989674
0003f0 4a d8 22 3d 31 49 a7 bd 71 05 68 3c 4e b4 98 bd
       0.03975705 -0.08168257 0.014161454 -0.074562654
