saved_models_1/125_2779_model.pt (torch, 701697 bytes, 11 tensors)

FC1.weight f4 [256, 36]
-0.17587234 0.018322652 0.33630937 -0.23811297 0.660424 0.3561785 -0.2028467 -1.1910704
1.0261074 0.36442703 -1.1970958 0.40198842 -0.33859727 0.3376418 0.7635966 -0.45138815
-1.0190586 -0.79121226 0.9731575 0.36342937 1.1514124 0.48606923 -0.87644184 -0.57528603
1.4959971 -0.19093932 -1.2855583 0.12187635 0.2101113 0.22286043 0.23244546 0.37728655
-2.2814672 -0.36657816 0.74508053 -0.87301624 1.4697143 -0.60278744 -0.19819036 -0.1017993
-0.86627173 -0.14509787 0.64931196 -0.42803076 -1.3086085 -0.76073 1.6251493 -0.8512189
-1.4539375 -0.5969812 0.5514704 -0.15705676 -1.4979768 -0.20342235 2.409345 0.65886337
-0.24425688 -0.8513143 0.2776138 0.53736514 -0.46767718 -2.3195674 0.19113705 0.050741162
-0.41948697 0.28758076 0.14875017 0.7661071 -3.085925 -1.1859576 1.0910995 1.4541533
-0.20603248 0.38399553 -0.24767129 0.083226085 -0.5421506 0.9203169 -1.1707982 -1.4806108
1.2300054 0.031785887 0.35610205 -0.04508664 -0.34639984 1.3072582 -0.24040896 -3.136859
0.3305909 0.7313642 -0.13294218 0.66707176 -0.7158929 0.11787372 0.66590506 0.12774509
-1.2415605 -0.48751754 1.0293784 -0.44425666 0.16842675 0.35403502 0.0061721103 -0.37824053
0.31408927 -0.4193618 -3.704615 0.7777867 -1.3079418 0.17613827 0.122621514 0.690731
-0.46635047 -1.6693518 0.045556653 2.492188 -1.2354128 -1.1683044 0.4458271 0.46304706
-0.6963377 -0.4564048 0.18078059 0.46796486 -1.1417085 -0.4376967 0.8863788 -0.4006408
-0.77314836 0.18645436 0.40512905 -0.027967773 -1.2327955 1.4325454 1.3153502 0.016613241
-2.3050346 0.4176767 0.5408563 -3.3078754 -1.3006588 -0.065164 1.2862154 -3.216938
-0.18790717 -0.14514212 0.100297764 -0.007711444 1.2030703 0.2237301 -1.0300739 -1.0757196
4.372574 0.18735589 -3.2160268 0.63797665 0.9403548 0.06937083 -0.3889039 0.041533347
0.9239384 -1.2589449 -1.4828938 0.24859144 0.08161524 -0.6598819 -0.4137842 1.4092935
0.5969338 -0.6120123 0.558985 0.1585708 -0.108765125 0.42462453 0.3046322 0.3677187
0.9259606 0.38288823 -3.5741925 -1.2953769 -0.6585332 -0.13854599 0.25706533 -0.23658456
0.4698261 0.43793404 -1.161676 -2.2248213 2.1815553 0.2832805 -0.35082316 -1.0384493
-0.31640628 -0.2582557 -0.38909096 -0.4395819 0.42666906 0.70299184 0.73687416 -0.7669753
-0.64745045 -0.10280813 0.70775795 -0.4040983 -1.9923443 0.53217304 0.34263468 0.31293437
0.22933103 -2.582734 -2.6459014 -0.9934411 1.4408176 -1.054616 -2.6273835 -3.4127614
-0.16115616 -0.5034529 0.1757154 -1.045348 0.7261985 -0.5097009 -0.22555915 -0.6999618
1.9749568 1.5458169 0.43927673 -0.21005806 0.0452983 -1.4040205 0.64815646 1.3992611
-0.46625668 -0.5208642 0.66699797 -0.042550247 0.69168353 -1.4070972 -0.41182166 0.5670527
0.5444865 -1.2175101 -0.84358335 -0.008633688 0.45015228 0.15997684 -0.49813592 -0.08217866
0.9671915 -1.9044236 -0.74740356 1.565272 0.34957892 0.17638847 -0.40698636 -0.7138717
00000000: e117 34be 6319 963c be30 ac3e e3d3 73be
00000010: 8c11 293f 075d b63e 0cb7 4fbe ff74 98bf
00000020: 7d57 833f 2e96 ba3e 6f3a 99bf 6dd1 cd3e
00000030: 9f5c adbe 63df ac3e 117b 433f 591c e7be
00000040: 8370 82bf e38c 4abf da20 793f 6a13 ba3e
00000050: 7b61 933f 11de f83e 7e5e 60bf f245 13bf
00000060: d57c bf3f 9985 43be 2d8d a4bf 4f9a f93d
00000070: 6b27 573e 8635 643e 2f06 6e3e b42b c13e
00000080: 8f03 12c0 22b0 bbbe 99bd 3e3f fe7d 5fbf
00000090: 991f bc3f 4750 1abf 6af2 4abe 277c d0bd
000000a0: fcc3 5dbf 8994 14be 4f39 263f d926 dbbe
000000b0: 7c80 a7bf 34bf 42bf e404 d03f 7be9 59bf
000000c0: a01a babf c3d3 18bf 2a2d 0d3f 7dd3 20be
000000d0: b4bd bfbf f34d 50be b532 1a40 45ab 283f
000000e0: 7a1e 7abe bcef 59bf 6523 8e3e c390 093f
000000f0: 6273 efbe cb73 14c0 6eb9 433e f7d5 4f3d
00000100: ffc6 d6be c93d 933e f751 183e 981f 443f
00000110: cc7f 45c0 75cd 97bf 26a9 8b3f b221 ba3f
00000120: 2efa 52be 109b c43e 8b9d 7dbe 7072 aa3d
00000130: 62ca 0abf e399 6b3f b7dc 95bf a884 bdbf
00000140: d170 9d3f eb31 023d 0253 b63e c5ac 38bd
00000150: 525b b1be 3d54 a73f c42d 76be 4cc2 48c0
00000160: 3643 a93e af3a 3b3f ff21 08be 37c5 2a3f
00000170: c244 37bf c767 f13d c178 2a3f 9ccf 023e
00000180: 74eb 9ebf e69b f9be acc2 833f 9c75 e3be
00000190: 1078 2c3e 1444 b53e 6a3f ca3b bea8 c1be
000001a0: 4fd0 a03e 97b6 d6be 6a18 6dc0 071d 473f
000001b0: a36a a7bf 975d 343e fd20 fb3d bfd3 303f
000001c0: 7dc5 eebe 52ad d5bf 9d99 3a3d 0280 1f40
000001d0: 0222 9ebf 008b 95bf 7343 e43e 8114 ed3e
000001e0: 3043 32bf e4ad e9be 8c1e 393e 1799 ef3e
000001f0: 8123 92bf c819 e0be b9e9 623f ca20 cdbe
00000200: 0ded 45bf e4ed 3e3e 136d cf3e ac1c e5bc
00000210: 3ecc 9dbf a65d b73f 655d a83f 7e18 883c
00000220: b085 13c0 b8d9 d53e 8f75 0a3f 3bb4 53c0
00000230: fd7b a6bf b474 85bd b5a2 a43f 50e2 4dc0
00000240: bd6a 40be 23a0 14be ea68 cd3d 48b0 fcbb
00000250: 35fe 993f 8119 653e 76d9 83bf 2eb1 89bf
00000260: 20ec 8b40 39da 3f3e 62d3 4dc0 7052 233f
00000270: 18bb 703f 4b12 8e3d 691e c7be df1e 2a3d
00000280: 3a87 6c3f 1b25 a1bf 77cf bdbf c18e 7e3e
00000290: e425 a73d 05ee 28bf 86db d3be bb63 b43f
000002a0: a7d0 183f d7ac 1cbf a419 0f3f 6260 223e
000002b0: 40c0 debd 6368 d93e c0f8 9b3e a045 bc3e
000002c0: c10b 6d3f ed09 c43e 92bf 64c0 e9ce a5bf
000002d0: a295 28bf 00df 0dbe 119e 833e 3943 72be
000002e0: 0c8d f03e e438 e03e cdb1 94bf 7963 0ec0
000002f0: 9a9e 0b40 240a 913e 189f b3be e8eb 84bf
00000300: 0100 a2be 173a 84be ee36 c7be e110 e1be
00000310: 5e74 da3e 46f7 333f c9a3 3c3f 7e58 44bf
00000320: 50bf 25bf 128d d2bd a02f 353f f9e5 cebe
00000330: 2305 ffbf 7e3c 083f d06d af3e ef38 a03e
00000340: c1d5 6a3e 844b 25c0 7356 29c0 2852 7ebf
00000350: b66c b83f a8fd 86bf 0d27 28c0 af6a 5ac0
00000360: 1f06 25be 4ae2 00bf bdee 333e f7cd 85bf
00000370: 25e8 393f c27b 02bf faf8 66be b230 33bf
00000380: 62cb fc3f 54dd c53f e1e8 e03e 7619 57be
00000390: b68a 393d f2b6 b3bf 95ed 253f fd1a b33f
000003a0: 32b9 eebe 5b57 05bf 61c0 2a3f 2b49 2ebd
000003b0: 2c12 313f c31b b4bf 4ada d2be 5e2a 113f
000003c0: 7863 0b3f 5fd7 9bbf 14f5 57bf 5074 0dbc
000003d0: 5c7a e63e f8d0 233e ac0b ffbe 494d a8bd
000003e0: dd99 773f 27c4 f3bf d755 3fbf d55a c83f
000003f0: 02fc b23e 2e9f 343e 8460 d0be 4cc0 36bf

FC1.bias f4 [256]
0.011634893 -0.2499983 -0.42529452 0.031218762 0.17132066 0.21411826 -0.20945886 -0.38055173
-0.60735595 -0.36961886 0.010238867 -0.098915055 -0.4435249 -0.39271337 -0.22592151 0.15749449
0.30196306 -0.09182663 0.37958622 0.17836833 -0.06643877 0.088261284 -0.6291717 0.29148898
-0.3188117 -0.0929336 -0.6911454 0.256244 -0.8058434 0.10014258 -0.12072339 -0.39552078
-0.5852506 0.3647588 -0.048956886 0.5449113 -0.42819127 -0.29817677 -0.3007787 -0.19786963
0.24000806 -0.39918503 0.09432653 -0.5155521 0.21795283 -0.123694144 -0.63951355 -0.2720018
-0.502931 0.014059411 0.44189554 -0.1956024 -0.12041561 -0.06728023 0.09944639 -0.48837355
-0.16244392 -0.58021504 -0.08050248 -0.09190275 -0.18322355 0.16439834 0.11162697 0.06555483
-0.0717802 0.111806475 0.09921724 -0.14116932 -0.5109881 -0.08438699 -0.19118284 -0.33596474
0.3170404 0.7626131 -0.18758309 0.1639646 -0.56387526 -0.2928655 -0.7130797 0.3264297
-0.76588106 -0.31338716 0.13752623 -0.35682374 0.08901639 0.5285972 0.015742365 0.070404835
-0.28221306 0.22078045 0.030762488 -0.22447832 -0.4200711 0.40896076 0.0956183 -0.009727267
-0.058727488 -0.3385099 -0.28059807 -0.6894812 -0.038749952 -0.019207492 -0.1905085 -0.4729359
-0.12953354 0.2882146 0.23110113 -0.16665652 0.09693935 -0.103688024 -0.26647022 -0.40010542
-0.27116108 -0.48078433 -0.5473163 0.15150909 -0.11061866 0.1299293 -0.4355849 0.0011976289
-0.0953816 -0.04155497 -0.40545157 -0.2219146 -0.7566584 -0.39246765 -0.04951075 -0.5033839
-0.67431474 0.06120455 -0.3265596 0.33076105 0.36470616 -0.06685133 0.22300248 -0.35033786
-0.16158453 0.33347324 -0.011362115 0.04393626 -0.23218334 0.003073948 0.038138833 0.04576823
-0.42341304 -0.3779566 0.30722967 0.5154131 -0.21285966 0.22671536 -0.81694824 -0.113421604
-0.014723544 -0.18280523 0.7281526 -0.1549486 -0.64042383 -0.15370095 0.4094766 -0.110458754
-0.23746553 0.098804645 0.557154 0.13882315 0.050105464 0.28460133 -0.56458485 -0.06250256
-0.053165525 -0.24442124 -0.3063472 -0.6650266 0.43462867 0.2416357 -0.2734593 -0.010674641
-0.020506961 0.047928646 -0.8883203 -0.58944094 0.023525383 -0.56244534 -0.0006604494 0.4142746
-0.2247141 -0.18553552 -0.08251181 -0.5593051 0.75456953 -0.3824493 0.11528149 -0.13094993
0.075282045 0.48082104 0.37566388 -0.25589007 -0.5442879 0.031166317 0.18788822 0.038733188
-0.24277914 -0.45175537 -0.027945712 -0.30084708 0.13849978 0.098480076 0.11079155 0.12570754
-0.39784378 0.16363035 -0.553263 0.15867797 -0.3101426 -0.43175855 -0.6390548 -0.29923052
-0.37056023 -0.3658869 0.20123976 0.2350919 -0.37792984 0.02129322 -0.0997881 0.57177526
-0.4632463 -0.08660603 -0.52408093 -0.68994373 0.15187192 0.3101053 -0.054238085 -0.5202308
0.58134645 -0.3399848 -0.40934354 -0.33201614 -0.72002333 0.15441218 -0.16075417 -0.17086145
0.0640377 -0.040169876 0.13236155 0.77719516 0.59609115 -0.19518475 -0.12739831 0.014928911
-0.06676284 0.2143981 -0.21135117 0.013085756 -0.1548712 0.47355816 -0.37194544 -0.13626623
00000000: 47a0 3e3c 8eff 7fbe 34c0 d9be 7dbe ff3c
00000010: af6e 2f3e d141 5b3e 627c 56be add7 c2be
00000020: ae7b 1bbf af3e bdbe ecc0 273c fa93 cabd
00000030: b215 e3be ba11 c9be f857 67be 3c46 213e
00000040: e79a 9a3e 9a0f bcbd 2059 c23e 30a6 363e
00000050: 0d11 88bd 55c2 b43d 6611 21bf 0b3e 953e
00000060: 4a3b a3be f953 bebd e8ee 30bf 6a32 833e
00000070: c14b 4ebf 8e17 cd3d d33d f7bd b381 cabe
00000080: fcd2 15bf aac1 ba3e 0487 48bd 4f7f 0b3f
00000090: e33b dbbe a0aa 98be aaff 99be 569e 4abe
000000a0: acc4 753e fb61 ccbe 452e c13d 39fb 03bf
000000b0: 072f 5f3e 5b53 fdbd 29b7 23bf d243 8bbe
000000c0: 16c0 00bf 7259 663c 2240 e23e ff4b 48be
000000d0: 769c f6bd 38ca 89bd 8daa cb3d 190c fabe
000000e0: b357 26be f988 14bf 7cde a4bd 8237 bcbd
000000f0: f49e 3bbe 0a58 283e ae9c e43d 9c41 863d
00000100: 7f01 93bd cbfa e43d 6932 cb3d b18e 10be
00000110: 1ed0 02bf 16d3 acbd 6fc5 43be 9203 acbe
00000120: 1f53 a23e 9d3a 433f c815 40be 56e6 273e
00000130: 215a 10bf 78f2 95be 648c 36bf cb21 a73e
00000140: c810 44bf 4874 a0be add3 0c3e 9ab1 b6be
00000150: 3a4e b63d 2552 073f 22f6 803c 6930 903d
00000160: 3b7e 90be 4514 623e 9d01 fc3c a5dd 65be
00000170: 8f13 d7be 4e63 d13e 87d3 c33d 1d5f 1fbc
00000180: 3c8c 70bd 2b51 adbe 8daa 8fbe d781 30bf
00000190: 45b8 1ebd 0859 9dbc a914 43be a724 f2be
000001a0: 71a4 04be dd90 933e c6a5 6c3e 02a8 2abe
000001b0: 2388 c63d 635a d4bd c96e 88be 9eda ccbe
000001c0: a0d5 8abe 5d29 f6be ec1c 0cbf 3325 1b3e
000001d0: 098c e2bd 300c 053e fc04 dfbe c2f9 9c3a
000001e0: 6e57 c3bd 8b35 2abd 5997 cfbe 953d 63be
000001f0: 5db4 41bf 85f1 c8be c9cb 4abd c4dd 00bf
00000200: e49f 2cbf 9fb1 7a3d d232 a7be 8359 a93e
00000210: c4ba ba3e 5ae9 88bd c35a 643e 7c5f b3be
00000220: 6a76 25be 01bd aa3e 2a28 3abc 82f6 333d
00000230: 78c1 6dbe 4a74 493b 7737 1c3d 7877 3b3d
00000240: 98c9 d8be 8783 c1be 354d 9d3e 1df2 033f
00000250: e2f7 59be 1228 683e 8523 51bf 9649 e8bd
00000260: 053b 71bc 4b31 3bbe 3568 3a3f d9aa 1ebe
00000270: d1f2 23bf c863 1dbe eba6 d13e 3338 e2bd
00000280: 2a2a 73be 175a ca3d a5a1 0e3f a827 0e3e
00000290: 633b 4d3d 44b7 913e a288 10bf 5801 80bd
000002a0: 18c4 59bd 9049 7abe 8ad9 9cbe 2f3f 2abf
000002b0: a687 de3e 596f 773e db02 8cbe b0e4 2ebc
000002c0: 37fe a7bc d450 443d f668 63bf 9ae5 16bf
000002d0: 4eb8 c03c 6bfc 0fbf 0222 2dba cd1b d43e
000002e0: 741b 66be 06fd 3dbe f4fb a8bd 9e2e 0fbf
000002f0: 782b 413f 65d0 c3be b418 ec3d bd17 06be
00000300: 792d 9a3d 2d2e f63e 0457 c03e 0604 83be
00000310: 7456 0bbf 8150 ff3c c565 403e b1a6 1e3d
00000320: 189b 78be 7b4c e7be 68ee e4bc a108 9abe
00000330: e3d2 0d3e ecaf c93d aee6 e23d 7ab9 003e
00000340: 2eb2 cbbe b78e 273e a5a2 0dbf 7a7c 223e
00000350: 03cb 9ebe 750f ddbe 1899 23bf be34 99be
00000360: 12ba bdbe 8755 bbbe cc11 4e3e eebb 703e
00000370: 0580 c1be 1e6f ae3c b45d ccbd dd5f 123f
00000380: 9e2e edbe 815e b1bd 2b2a 06bf 27a0 30bf
00000390: 5084 1b3e 1fc6 9e3e c128 5ebd d92d 05bf
000003a0: 1fd3 143f 7d12 aebe 7a95 d1be 05fe a9be
000003b0: 7353 38bf 3a1e 1e3e be9c 24be 4ef6 2ebe
000003c0: 3326 833d 2b89 24bd c989 073e 43f6 463f
000003d0: 6e99 183f 83de 47be b474 02be 6498 743c
000003e0: f5ba 88bd 2d8b 5b3e 716c 58be a465 563c
000003f0: 8e96 1ebe 3776 f23e a26f bebe 6089 0bbe

FC2.weight f4 [256, 256]
-2.9324002 0.51888627 0.3699578 -1.5942334 0.27360246 1.9351016 -0.4313995 -2.1841855
-1.3417802 0.56490684 -0.008060327 0.75102836 -1.4485606 -0.70881814 -0.6638576 -0.5023357
-1.38931 -0.058077585 0.7221126 -0.81786454 0.03887946 1.4627583 -3.6271355 0.4474912
0.10013663 -2.340112 -0.93518883 -2.5169933 1.4666929 -0.79041356 0.4342128 -0.8912604
-0.48977324 0.25566468 0.3007212 -0.087046504 -0.5353492 1.5699553 0.3212393 0.4856025
-0.81132096 0.058908306 -1.3958061 -0.95240873 -0.7816405 -0.13996932 0.48038217 -0.3469657
0.03389078 -0.64066017 -1.1019782 -0.018154308 -2.0486312 -2.5298305 -0.16801667 -1.9892526
0.04741884 1.0834429 -2.1731908 0.4090771 0.35011983 -0.9503877 0.02434297 0.09818052
0.7272121 1.1649308 -1.5237197 -0.039951555 -2.1663191 -0.072412945 0.29488695 -0.18850729
-0.31601015 0.504996 0.10371246 -0.115711436 -1.8723689 -0.39855853 0.0998156 1.075416
0.7368488 -1.8252305 2.143777 0.30524218 -1.0053293 1.3924701 -1.2714688 -1.4446954
0.7439943 0.58513945 -0.01333403 -2.7486749 0.3215886 -0.7098631 -0.07721167 0.38713998
2.2216694 -1.1086531 1.3225683 1.1667677 -0.64131224 -1.6970195 -1.503554 0.34088117
0.010272967 -0.4053229 1.6322752 0.49035558 0.78293854 -0.83658123 0.26030365 -0.29867423
-1.3628688 -2.2415192 -0.037302498 -1.0091715 -0.71213543 -2.3539255 -0.62866867 -0.61430806
-0.24734247 -0.8976007 0.088453524 0.8110469 -1.195616 -0.10176472 0.9236999 -1.6803932
-0.022691047 0.3882407 1.5908029 0.33775213 -0.015494572 -1.1231793 -0.58212525 0.2087221
-1.7848867 0.22213393 -1.4794059 0.74256146 -0.021744844 0.5152545 0.13388088 -0.19894439
-1.9416639 -0.020768559 0.22033262 0.55001307 -0.06909247 -0.7341085 -0.7572906 0.75073415
-6.524227 -0.44078407 -0.15853412 -0.036444493 -0.66054016 1.6000544 0.6983716 0.08247013
-0.88234764 0.32764462 -0.992246 0.7650589 -2.9561276 -2.2983804 0.4612911 -1.6865435
0.7122399 -2.08274 2.052065 -0.5247408 -0.46289498 -1.1495264 -0.04421251 -0.49514464
0.5202751 -0.056596592 -0.7174731 0.3064295 0.15961775 1.1224724 -0.66112393 0.24076146
0.3858996 -0.056255013 -1.0301614 0.6954356 0.916448 -0.078313366 1.5287067 0.17731693
0.4633596 1.0586439 -0.4714107 0.13694702 -1.6073498 -1.446424 0.91429096 -2.220117
0.025548903 0.17205866 -0.01290644 1.1591183 0.054476377 -1.4955411 0.63235945 0.7894338
-0.603212 -1.4043643 0.6130068 1.0393958 1.16806 -0.63575476 -1.1301017 1.4569031
-0.02661443 0.9990403 -3.9877295 -0.6714453 -3.991036 0.54533416 0.26356846 2.016866
2.6760688 -1.2370106 0.42419755 1.1711407 -0.8641366 -0.1898955 -0.2575176 0.3440864
1.2698296 -0.06346538 0.21001785 0.20062017 -3.5251193 1.7154639 -0.8013621 -1.0145484
0.004595944 -2.54379 -0.47034973 -0.62724006 0.9538214 0.42520463 -0.74942136 0.23632942
-0.029771036 -0.43162376 -0.47408292 0.5506483 -1.7457218 -1.577216 -0.486325 -0.15200049
00000000: 72ac 3bc0 bbd5 043f 1c6b bd3e d70f ccbf
00000010: 9f15 8c3e 69b1 f73f 65e0 dcbe b2c9 0bc0
00000020: 74bf abbf bc9d 103f 760f 04bc 6543 403f
00000030: 6f6a b9bf 1b75 35bf 92f2 29bf 1399 00bf
00000040: e9d4 b1bf c3e2 6dbd 5fdc 383f 925f 51bf
00000050: 1240 1f3d aa3b bb3f fd22 68c0 911d e53e
00000060: 6f14 cd3d 65c4 15c0 8968 6fbf 6b16 21c0
00000070: 98bc bb3f 8b58 4abf 2451 de3e a429 64bf
00000080: 8fc3 fabe 7be6 823e 21f8 993e 7045 b2bd
00000090: a50c 09bf 4cf4 c83f 7a79 a43e e4a0 f83e
000000a0: bbb2 4fbf d649 713d c6a9 b2bf 0fd1 73bf
000000b0: 9819 48bf 1e54 0fbe a7f4 f53e 7da5 b1be
000000c0: 0fd1 0a3d 4e02 24bf 9f0d 8dbf 58b8 94bc
000000d0: c61c 03c0 bee8 21c0 900c 2cbe d49f febf
000000e0: 423a 423d 42ae 8a3f 8f15 0bc0 8e72 d13e
000000f0: e842 b33e 9c4c 73bf e96a c73c de12 c93d
00000100: 922a 3a3f 741c 953f 3f09 c3bf 3ea4 23bd
00000110: f9a4 0ac0 3d4d 94bd 6cfb 963e 0e08 41be
00000120: 15cc a1be 6b47 013f 3367 d43d 1efa ecbd
00000130: c9a9 efbf dd0f ccbe 1f6c cc3d 3ba7 893f
00000140: 1fa2 3c3f 27a1 e9bf a433 0940 b448 9c3e
00000150: a1ae 80bf 763c b23f 7dbf a2bf c7eb b8bf
00000160: 6976 3e3f b3cb 153f fa76 5abc 4aea 2fc0
00000170: 43a7 a43e 97b9 35bf 2721 9ebd 3637 c63e
00000180: d52f 0e40 58e8 8dbf eb49 a93f a558 953f
00000190: 0a2d 24bf ef37 d9bf 7574 c0bf fa87 ae3e
000001a0: f24f 283c 7c86 cfbe 65ee d03f e30f fb3e
000001b0: a96e 483f 302a 56bf 8546 853e d4eb 98be
000001c0: 7c72 aebf 0d75 0fc0 81ca 18bd 882c 81bf
000001d0: 824e 36bf b7a6 16c0 6ef0 20bf 4b43 1dbf
000001e0: 5847 7dbe 29c9 65bf 1f27 b53d c5a0 4f3f
000001f0: f209 99bf 066a d0bd 9977 6c3f 2017 d7bf
00000200: 93e2 b9bc 7cc7 c63e 6e9f cb3f d9ed ac3e
00000210: f2dc 7dbc 57c4 8fbf 2906 15bf 3fbb 553e
00000220: 2b77 e4bf 1477 633e 2c5d bdbf 8218 3e3f
00000230: 3e22 b2bc b8e7 033f 1218 093e 14b8 4bbe
00000240: 7188 f8bf d322 aabc e09e 613e a8cd 0c3f
00000250: 5a80 8dbd 89ee 3bbf ccdd 41bf 1d30 403f
00000260: 78c6 d0c0 73ae e1be c556 22be d246 15bd
00000270: 2919 29bf 95ce cc3f 7bc8 323f 19e6 a83d
00000280: 89e1 61bf 09c1 a73e d503 7ebf e6da 433f
00000290: 3231 3dc0 aa18 13c0 592e ec3e a8e0 d7bf
000002a0: 5b55 363f 9d4b 05c0 0855 0340 6a55 06bf
000002b0: 9200 edbe ae23 93bf 2d18 35bd 9983 fdbe
000002c0: c030 053f d4d1 67bd 51ac 37bf 54e4 9c3e
000002d0: d672 233e 2dad 8f3f 6b3f 29bf 2c8a 763e
000002e0: a294 c53e a86b 66bd 54dc 83bf 1108 323f
000002f0: 569c 6a3f c262 a0bd a9ac c33f 9292 353e
00000300: 783d ed3e a581 873f be5c f1be d73b 0c3e
00000310: a3bd cdbf 6c24 b9bf f90e 6a3f 6616 0ec0
00000320: ef4b d13c 2530 303e 8875 53bc fd5d 943f
00000330: 9f22 5f3d e46d bfbf 4fe2 213f 5518 4a3f
00000340: 1a6c 1abf 36c2 b3bf 03ee 1c3f ec0a 853f
00000350: fd82 953f d3c0 22bf 2ca7 90bf cd7b ba3f
00000360: 8106 dabc 1bc1 7f3f f636 7fc0 d7e3 2bbf
00000370: 226d 7fc0 059b 0b3f 72f2 863e 5514 0140
00000380: b644 2b40 5d56 9ebf 6c30 d93e f0e7 953f
00000390: 0e38 5dbf f773 42be 59d9 83be 182c b03e
000003a0: c789 a23f 23fa 81bd eb0e 573e 606f 4d3e
000003b0: 8e9b 61c0 5294 db3f 1126 4dbf b9dc 81bf
000003c0: 9399 963b 75cd 22c0 aed1 f0be ce92 20bf
000003d0: a42d 743f 6cb4 d93e 14da 3fbf 5700 723e
000003e0: 63e2 f3bc cafd dcbe ffba f2be 49f7 0c3f
000003f0: d073 dfbf 37e2 c9bf 97ff f8be 04a6 1bbe

FC2.bias f4 [256]
-0.3802267 -0.07968408 -0.15214996 -0.4061865 -0.39806548 -0.3606707 0.5660664 0.062233355
0.15666136 -0.7270707 0.262227 -0.107342705 -0.47890875 -0.037998658 -0.6985905 -0.6832842
0.26565805 -0.208581 -0.12148763 -1.056446 0.020075178 -0.32072836 0.70461977 -0.55391675
-0.11022713 -0.05805354 0.20536545 -0.05389265 -0.5354514 -0.2108633 -0.6107508 -0.71909004
-0.99706846 -0.07719531 -0.2763615 -0.6440712 -0.12417023 0.013297211 -0.38481987 0.3129462
-0.19635032 -0.33416134 0.17108428 -0.6930387 0.28046107 -0.44553283 -0.62833434 0.445253
0.2717933 -0.34548095 -0.55501544 -0.4436098 -0.34369266 -0.650013 -0.4112457 0.08202149
-0.4752339 -0.4333967 -0.08079523 -0.24795865 0.17405196 -0.3541192 -1.0959641 0.24335232
0.3849585 0.51126134 -0.6340286 -0.33212882 -0.15096937 -0.34188592 -0.9632289 -0.3445308
-0.61217916 -0.15816738 0.13075836 -0.21909466 0.2790059 -0.45279342 -0.8249414 -0.7785977
-0.37530074 -1.1642693 -0.08569926 -0.49751216 -0.14697567 -1.2589298 -0.79599786 -0.1935531
-0.48172706 0.65431684 -0.3292966 -0.6006775 -0.34506163 -1.1793181 -1.0233871 -0.2661714
-0.8587118 -0.5992243 -0.37313282 -0.73659414 -0.43410832 -0.52286077 0.19182163 -0.11543558
-0.36156234 0.12515318 0.8537143 0.13944858 -0.7577045 -1.0257088 -0.1965437 -0.64185584
0.16443118 -0.012594774 0.112645924 -0.6419486 0.14144126 -0.36545518 -0.8987686 -0.31303728
-0.05049318 -0.271768 0.15761565 -0.4334202 -0.078337885 0.37194675 -0.19805047 -0.708237
-0.12142057 -0.8487324 -0.645296 -0.010386122 0.5880058 -0.24706204 -0.85448027 -0.71136725
-0.12839217 1.2006102 -1.3427501 -0.104205824 -0.82931596 -0.09468732 -0.07700037 -0.29216525
0.034260694 -0.5009415 0.5176819 -0.075281434 -0.1391489 -0.43116957 -0.83446395 -0.4052079
0.19936313 -0.13006425 0.8893294 -1.0820475 -0.6702442 -0.97626084 0.029459389 -0.20271596
-0.04368725 0.1485232 -0.69049495 0.19293426 -0.5556696 0.1278438 -0.5069638 -0.44690928
-0.76579034 0.029398968 -0.742003 0.15992054 -0.48318288 -1.0542593 -1.1916652 -0.7020512
-0.16739544 -0.17477678 -0.3533976 0.057844818 -0.039774787 -0.8862541 -0.004837096 -0.19990909
0.65878344 -0.49032298 -0.9521814 -0.1917382 -0.20405371 -0.36031812 -0.25888687 -1.272186
-0.095659435 -0.8293855 -0.09649725 -0.054711107 -0.20217882 -1.1336247 -0.40603626 -0.17757142
-0.6102356 -0.05955517 -0.1858303 -0.27665484 -0.24312748 -0.10247364 -0.4054273 -0.6360461
-0.32400906 0.6393034 0.23340784 -0.61366695 0.019034553 -0.89888746 -0.41786304 -0.24097522
-1.0346974 0.22770481 -0.08982065 -0.044044275 0.1068696 -0.20294324 -0.09891569 -0.16398054
0.03258016 0.16825886 -0.23282894 -0.8086299 -0.8941806 -0.98653835 -0.46331307 -1.1039054
-0.3310183 -0.27570593 -0.4290774 -0.8287465 -0.5986007 0.022777673 -1.436673 -1.1657118
-0.104531825 -0.31764272 -0.39089465 0.47644112 -0.8094969 0.040115595 -0.10868684 -0.65651983
-0.7934353 -0.13456665 -0.058746535 -0.24909677 -0.070458755 -0.1837606 -0.26811117 -0.7162991
00000000: 13ad c2be 6831 a3bd 33cd 1bbe adf7 cfbe
00000010: 3dcf cbbe d4a9 b8be bae9 103f 67e8 7e3d
00000020: d66b 203e 4e21 3abf 9e42 863e 7ed6 dbbd
00000030: 8733 f5be 7ba4 1bbd d4d6 32bf b7eb 2ebf
00000040: 5504 883e 4296 55be 82ce f8bd 9f39 87bf
00000050: b374 a43c 8236 a4be f661 343f 7dcd 0dbf
00000060: c3be e1bd 8cc9 6dbd 524b 523e 8abe 5cbd
00000070: 5813 09bf 8dec 57be 2a5a 1cbf 4916 38bf
00000080: e13f 7fbf 9318 9ebd 417f 8dbe dae1 24bf
00000090: f64c febd 8cdc 593c 1c07 c5be 7c3a a03e
000000a0: 0f10 49be 3217 abbe b830 2f3e fc6a 31bf
000000b0: 9898 8f3e e11c e4be 85da 20bf 34f8 e33e
000000c0: 7e28 8b3e e1e2 b0be 7e15 0ebf d320 e3be
000000d0: 7cf8 afbe 4167 26bf cc8e d2be e2fa a73d
000000e0: dc51 f3be 2ce6 ddbe f877 a5bd dfe8 7dbe
000000f0: ad3a 323e 1d4f b5be 8d48 8cbf 5a31 793e
00000100: 4819 c53e 06e2 023f b34f 22bf ca0c aabe
00000110: b797 1abe ac0b afbe 2b96 76bf 5766 b0be
00000120: c6b7 1cbf a1f6 21be 85e5 053e 5a5a 60be
00000130: dcd9 8e3e 8ad4 e7be 5c2f 53bf 2e52 47bf
00000140: 6b27 c0be c706 95bf 1883 afbd eab9 febe
00000150: ca80 16be 9d24 a1bf 84c6 4bbf c932 46be
00000160: eea4 f6be 4f81 273f 9099 a8be 00c6 19bf
00000170: ebab b0be e5f3 96bf 59fe 82bf 9e47 88be
00000180: 89d4 5bbf c466 19bf 440b bfbe 6f91 3cbf
00000190: 7243 debe 34da 05bf e46c 443e 7d69 ecbd
000001a0: b31e b9be 2828 003e 058d 5a3f 9ccb 0e3e
000001b0: ecf8 41bf 6d4a 83bf c042 49be aa50 24bf
000001c0: a660 283e 505a 4ebc e8b2 e63d be56 24bf
000001d0: fad5 103e f11c bbbe b315 66bf 6c46 a0be
000001e0: f0d1 4ebd 2d25 8bbe ff65 213e 41e9 ddbe
000001f0: 9d6f a0bd ce6f be3e becd 4abe 054f 35bf
00000200: 59ab f8bd 8746 59bf 1e32 25bf 8e2a 2abc
00000210: 8c87 163f d5fd 7cbe 38bf 5abf 2a1c 36bf
00000220: 3d79 03be 98ad 993f 3cdf abbf dd69 d5bd
00000230: 0d4e 54bf 6deb c1bd 5fb2 9dbd af96 95be
00000240: f154 0c3d b43d 00bf cd86 043f 272d 9abd
00000250: 0d7d 0ebe 42c2 dcbe 6e9f 55bf 6977 cfbe
00000260: d925 4c3e 902f 05be 17ab 633f 8880 8abf
00000270: 2095 2bbf 3bec 79bf d154 f13c c694 4fbe
00000280: 67f1 32bd 7716 183e 47c4 30bf 8f90 453e
00000290: 5d40 0ebf 7ce9 023e 61c8 01bf 4bd1 e4be
000002a0: d60a 44bf 1bd6 f03c e9f3 3dbf 36c2 233e
000002b0: bf63 f7be f8f1 86bf 7c88 98bf a1b9 33bf
000002c0: b669 2bbe aff8 32be 88f0 b4be b0ee 6c3d
000002d0: e3ea 22bd 8ce1 62bf 8180 9ebb f8b4 4cbe
000002e0: 08a6 283f 9d0b fbbe 29c2 73bf 0557 44be
000002f0: 75f3 50be 9e7b b8be d28c 84be fed6 a2bf
00000300: 18e9 c3bd 9c52 54bf 5aa0 c5bd c118 60bd
00000310: f707 4fbe 9d1a 91bf fce3 cfbe 48d5 35be
00000320: 6638 1cbf 1ff0 73bd 4c4a 3ebe b4a5 8dbe
00000330: 69f6 78be b3dd d1bd 2b94 cfbe ebd3 22bf
00000340: 84e4 a5be 63a9 233f 7702 6f3e 4719 1dbf
00000350: 5aee 9b3c 7d1d 66bf 25f2 d5be 35c2 76be
00000360: f770 84bf 732b 693e e4f3 b7bd c567 34bd
00000370: 73de da3d 5ad0 4fbe 4f94 cabd 84ea 27be
00000380: c672 053d 0d4c 2c3e b66a 6ebe 5e02 4fbf
00000390: 05e9 64bf c78d 7cbf 5f37 edbe c64c 8dbf
000003a0: 3b7b a9be 5429 8dbe 08b0 dbbe bb28 54bf
000003b0: e53d 19bf 3e98 ba3c e7e4 b7bf 0b36 95bf
000003c0: c814 d6bd 11a2 a2be 5823 c8be 17f0 f33e
000003d0: 303b 4fbf 4050 243d 3597 debd af11 28bf
000003e0: 931e 4bbf d7cb 09be 35a0 70bd 3913 7fbe
000003f0: ae4c 90bd bd2b 3cbe de45 89be 615f 37bf

action_out.weight f4 [5, 256]
-0.19419606 -0.06408668 0.14957097 0.88859385 1.5794932 -0.5436747 2.4693298 0.5705009
2.8846765 -1.8813393 1.2682902 0.5545882 0.33175167 0.019227233 -2.3294163 1.0609418
1.6192603 0.0638557 0.4204607 0.17601338 2.225424 1.0141996 0.8978795 0.97021645
1.3322833 1.8715885 0.5585952 0.69261706 -0.07652616 0.17698166 1.7518169 2.1416945
1.0086664 0.028387101 0.45995295 2.3869793 -0.056053955 -0.7685262 2.2120235 2.3953915
1.2254024 1.3585948 1.2687017 1.0807863 1.4120936 0.6913038 0.23859186 1.494161
1.6000825 0.871167 0.58389413 0.2082923 -0.20016348 0.69226533 2.9485857 -0.4549838
1.794267 0.76153857 0.7839658 0.82763743 2.192929 0.8828093 -0.91373616 0.16714796
1.084885 1.4093168 1.0516579 0.7821724 1.1658173 0.1183118 -0.12756796 -0.5513405
0.24371588 0.4849553 -0.14267784 -0.5132251 1.7976011 -0.30569434 1.0433513 0.92251503
-0.81043804 1.437446 0.39395213 0.45050833 0.34943837 -1.926091 2.0068603 0.69214463
0.3018699 1.2074873 1.4417498 1.388696 -1.0305109 -0.23439586 0.8898074 0.25920263
1.7780607 0.024986828 1.122488 2.411666 1.2510337 2.713461 1.6395946 3.001498
0.8470535 -1.130871 2.433574 1.4149978 1.3865746 0.5099494 0.35338432 2.5658705
0.99018294 1.3000559 0.5190767 2.744302 0.5129097 1.2468575 -1.3588784 1.0378518
0.01757665 0.31613168 1.786702 0.29031083 0.06359462 0.4083521 0.38574132 0.25010762
1.9696296 3.8099194 0.7618191 -0.019883167 1.8052138 0.8398063 1.0253814 2.2586372
1.3990202 0.96409583 0.040610243 0.25889012 2.0678248 0.47287238 1.0735004 2.2135997
-1.8910064 1.5491344 1.5167947 -0.047886036 0.21258935 2.6334443 -1.3572493 0.8398288
1.6300184 0.371688 1.79086 -0.03209667 -0.48545936 2.4416296 -0.37041906 -0.45613587
0.82196206 1.0491127 0.15167446 0.82295835 0.9800581 -1.3422631 0.98680913 1.0298096
1.5577209 0.89605844 1.0999593 -0.84179336 -0.6206731 0.55996 2.7272542 1.734613
1.045908 1.322092 0.70327914 1.4927677 -0.0013535174 1.1816 0.9567035 0.79558563
0.5221108 1.6482441 1.3059726 -0.29441303 0.24078576 2.7607846 -0.28581208 3.344727
1.695985 -0.5629081 0.85415906 -0.017060097 -1.0152179 -0.8328329 1.2033542 -1.5007483
0.9687537 -0.03535526 0.1433826 0.5673892 -0.8069934 -0.60290873 1.967431 -0.49536273
-0.1284102 0.6478079 1.8344975 -1.052089 -0.030138025 1.2374512 2.4668257 -1.4337099
-0.17195739 1.1673447 -0.0374056 -0.09219904 1.8287655 0.0491309 1.7513691 0.20378156
-0.023118991 -1.2958399 2.4125807 -0.35483345 1.3661441 2.147603 1.1144705 2.0635636
0.324239 1.0516405 0.75209576 0.07583895 0.1985154 0.965124 0.7749684 0.54312223
0.034885857 1.562222 0.175238 1.2572507 -0.46995392 1.9496925 0.29119328 0.5717292
1.0849658 0.058357876 2.5715203 -1.0096827 0.6173445 0.11264244 -1.2284037 1.9127902
00000000: 55db 46be e13f 83bd 2229 193e e37a 633f
00000010: d52c ca3f 442e 0bbf 8009 1e40 590c 123f
00000020: 8a9e 3840 bacf f0bf 5557 a23f 7ef9 0d3f
00000030: 5bdb a93e 6e82 9d3c 2815 15c0 f1cc 873f
00000040: ec43 cf3f c7c6 823d a046 d73e da3c 343e
00000050: 596d 0e40 4bd1 813f 6edb 653f 1b60 783f
00000060: 4288 aa3f 3690 ef3f 1800 0f3f 5a4f 313f
00000070: bfb9 9cbd ae3a 353e 893b e03f 8611 0940
00000080: fb1b 813f 118c e83c f47e eb3e 45c4 1840
00000090: d598 65bd 22be 44bf cb91 0d40 184e 1940
000000a0: fcd9 9c3f 6fe6 ad3f d164 a23f 3557 8a3f
000000b0: 7cbf b43f 49f9 303f 6d51 743e ab40 bf3f
000000c0: 81cf cc3f cd04 5f3f 167a 153f 944a 553e
000000d0: a8f7 4cbe 4d38 313f a1b5 3c40 a3f3 e8be
000000e0: 8baa e53f 31f4 423f fcb1 483f 0ce0 533f
000000f0: f358 0c40 caff 613f 9dea 69bf d628 2b3e
00000100: 83dd 8a3f 7e64 b43f ba9c 863f 733c 483f
00000110: 8039 953f 754d f23d 2da1 02be a724 0dbf
00000120: a890 793e 104c f83e 241a 12be b862 03bf
00000130: cb17 e63f f883 9cbe 898c 853f f229 6c3f
00000140: de78 4fbf 3bfe b73f 18b4 c93e 07a9 e63e
00000150: 96e9 b23e 268a f6bf 6670 0040 6430 313f
00000160: b18e 9a3e f28e 9a3f 428b b83f cac0 b13f
00000170: c8e7 83bf 7805 70be 6bca 633f 35b6 843e
00000180: 7e97 e33f 2db1 cc3c b0ad 8f3f bc58 1a40
00000190: df21 a03f 58a9 2d40 3cde d13f 8b18 4040
000001a0: 80d8 583f 62c0 90bf adbf 1b40 a61e b53f
000001b0: 477b b13f 0b8c 023f caee b43e 3937 2440
000001c0: a17c 7d3f 3b68 a63f 36e2 043f a5a2 2f40
000001d0: 0d4e 033f 0799 9f3f baef adbf 54d8 843f
000001e0: e8fc 8f3c 03dc a13e a7b2 e43f 9fa3 943e
000001f0: e53d 823d 8713 d13e e37f c53e 1b0e 803e
00000200: d31c fc3f b8d5 7340 9406 433f 06e2 a2bc
00000210: 3f11 e73f 8cfd 563f b33f 833f 838d 1040
00000220: 1813 b33f fcce 763f ed56 263d 3f8d 843e
00000230: 3e57 0440 541c f23e 7668 893f 9eab 0d40
00000240: 7f0c f2bf 094a c63f 5426 c23f 2624 44bd
00000250: 06b1 593e 5a8a 2840 58ba adbf 05ff 563f
00000260: 71a4 d03f e44d be3e e73a e53f cc77 03bd
00000270: 218e f8be a943 1c40 91a7 bdbe a48a e9be
00000280: 1b6c 523f 5349 863f 8d50 1b3e 66ad 523f
00000290: 16e5 7a3f 47cf abbf 869f 7c3f cdd0 833f
000002a0: 6663 c73f 1664 653f 77cb 8c3f c57f 57bf
000002b0: 6fe4 1ebf 8a59 0f3f 558b 2e40 cc07 de3f
000002c0: 50e0 853f 503a a93f 1a0a 343f 0313 bf3f
000002d0: 8268 b1ba ab3e 973f 85ea 743f 80ab 4b3f
000002e0: 0ea9 053f aaf9 d23f 1c2a a73f 4ebd 96be
000002f0: 8b90 763e b2b0 3040 f655 92be 0210 5640
00000300: 0916 d93f bf1a 10bf 2baa 5a3f 9ec1 8bbc
00000310: a9f2 81bf 8934 55bf 8307 9a3f 8518 c0bf
00000320: 3e00 783f add0 10bd e3d2 123e 6b40 113f
00000330: 1f97 4ebf 3a58 1abf c7d4 fb3f 2fa0 fdbe
00000340: f77d 03be bdd6 253f d0d0 ea3f daaa 86bf
00000350: 05e4 f6bc cd64 9e3f 79e0 1d40 ce83 b7bf
00000360: 9915 30be 8d6b 953f 9d36 19bd dad2 bcbd
00000370: fd14 ea3f 7c3d 493d dd2c e03f 1dac 503e
00000380: 0a64 bdbc 15de a5bf b967 1a40 bbac b5be
00000390: cfdd ae3f 5472 0940 f8a6 8e3f 6d11 0440
000003a0: a702 a63e 289c 863f 5989 403f 7451 9b3d
000003b0: 9f47 4b3e 5e12 773f 5464 463f 0f0a 0b3f
000003c0: 79e4 0e3d e4f6 c73f 9771 333e 97ed a03f
000003d0: cd9d f0be 868f f93f 4917 953e d85c 123f
000003e0: 29e0 8a3f ab08 6f3d ca93 2440 483d 81bf
000003f0: 4a0a 1e3f 14b1 e63d 553c 9dbf 4fd6 f43f

action_out.bias f4 [5]
1.8564769 0.28852454 0.82891697 0.4264525 0.6729758
00000000: 09a1 ed3f 7db9 933e e733 543f fb57 da3e
00000010: 2448 2c3f

weight f4 [256, 123]
-2.061175 -0.013916202 0.42535907 -0.015380109 0.41172618 0.078347996 0.106637225 -0.61329925
2.3381784 0.07118898 0.052782573 -0.29527125 0.20996402 -0.23175618 0.46197742 -0.6526414
-0.6379718 -0.56671554 0.20524865 -0.45661718 0.5427731 -2.2129626 0.7837795 1.7533602
-0.6010842 0.15855679 -0.15753266 -0.039090276 -0.010234163 -0.023357779 0.0013192794 0.06254227
-0.068620004 -0.014484003 -0.026064321 -0.15227185 -2.122732 -0.19571012 0.16667761 -0.1566099
0.51437485 0.042844083 0.074744895 -0.36213556 0.033141304 0.4201253 -0.15068436 -0.29556265
0.19724225 -0.20794198 0.40270442 -0.8436321 0.9222602 0.028718613 0.06393174 -0.56546247
0.5744909 -2.159306 0.9388617 1.9216883 -1.6628226 0.34520474 -0.5260587 0.050303727
0.009915209 0.0067415545 -0.028248562 -0.064605355 -0.054169737 -0.05763395 0.07670093 -0.22987854
-2.0397272 -0.4514168 0.69137967 -0.03845635 0.5066956 0.0137855075 -0.0031086344 -0.8241302
0.1185974 -0.16322494 0.29499695 -0.21668029 0.18075965 -0.23502293 0.34873068 -0.53978986
0.014811653 -0.19008434 0.3852659 -0.47115588 0.69638073 -2.1880717 0.9216262 3.529989
-1.6747934 -0.02606982 0.038905166 0.064330675 -0.032660883 0.09724974 0.029999217 0.021583587
-0.0073762983 -0.0075319335 0.0029726324 -8.144255 0.10112724 0.06287296 -0.03483924 -0.04745395
0.13904126 -0.0063033607 0.0047280565 0.08063661 0.109253824 -0.029550109 0.010556671 0.119191736
-0.076301046 -0.14778157 0.10579384 -0.29731646 -0.22868516 0.009878027 -0.121821694 -0.023914587
-0.1314902 0.11536464 1.3234756 0.78439564 -0.08090423 0.009153888 -1.0139993 0.35638085
-2.4111276 0.78397584 1.7321851 -1.0553045 0.7651295 -0.5560144 -0.43496615 -0.49686337
-1.1695886 -0.288882 -0.14537752 0.21853355 0.52781594 0.25381958 -0.39169732 -0.09831582
0.08481023 0.12735127 -0.060347054 -0.40881786 0.061889358 0.06298939 0.7755959 -0.24344324
-0.92772365 0.26958838 -0.12420321 -0.06999531 -0.1380901 0.0068642297 -0.9978846 0.8467893
-0.8287099 0.6420505 -0.8618787 0.30414042 -2.460054 0.78723526 2.4243507 -2.878335
0.0054571554 -0.033712078 -0.37219715 -0.48348227 -1.0695503 -0.43304512 -0.80251026 1.0362958
-0.5541507 1.0386791 -0.42632046 0.10112312 -0.047302883 0.095078655 -0.10042513 0.08797792
-0.46784428 0.042632826 -1.1778966 -0.27328706 -0.5314369 -0.43695718 -0.26897612 -0.061951604
-0.20820338 0.13481584 -0.7018013 0.40288493 -0.6239901 -0.36573714 -0.9206495 0.25140214
-2.4639027 0.7727598 1.0406779 -1.5469218 0.47369456 -1.1422086 -0.48845014 -0.46816817
-1.0176985 -0.28329995 0.4609608 -1.8643045 0.0016036034 0.07631341 -0.4076449 0.21864314
-0.08377453 0.07550741 -0.019851973 0.04379534 0.06620043 -0.4500219 -2.8572593 0.02151425
-0.121315464 0.22492312 -0.05019268 -0.21056472 -0.022664981 0.1927668 0.05084659 -0.20920174
0.23225036 0.018228024 0.004070839 0.15978134 0.11683569 -0.26904097 -0.05086512 -0.02661424
0.058117777 0.07230186 -0.008201131 -0.048385624 0.033485916 -0.0075618546 0.076004416 0.0516342
00000000: 4bea 03c0 c800 64bc aac8 d93e dafc 7bbc
00000010: c6cd d23e ea74 a03d 9e64 da3d 2e01 1dbf
00000020: b7a4 1540 87cb 913d 8a32 583d cb2d 97be
00000030: cf00 573e 7e51 6dbe 4e88 ec3e 8213 27bf
00000040: 1f52 23bf 4514 11bf b42c 523e bac9 e9be
00000050: 2ef3 0a3f 2ea1 0dc0 c6a5 483f 1b6e e03f
00000060: a7e0 19bf b65c 223e 3e50 21be 201d 20bd
00000070: 31ad 27bc d058 bfbc aceb ac3a 2916 803d
00000080: a588 8cbd 504e 6dbc d884 d5bc 27ed 1bbe
00000090: d7da 07c0 3c68 48be 89ad 2a3e 585e 20be
000000a0: 12ae 033f 477d 2f3d da13 993d d569 b9be
000000b0: 2dbf 073d aa1a d73e 004d 1abe fd53 97be
000000c0: dff9 493e beee 54be 462f ce3e 46f8 57bf
000000d0: 3f19 6c3f 4c43 eb3c a5ee 823d 26c2 10bf
000000e0: d611 133f 1232 0ac0 3e59 703f e2f9 f53f
000000f0: 5fd7 d4bf adbe b03e c8ab 06bf 480b 4e3d
00000100: 6773 223c 42e8 dc3b 8769 e7bc d04f 84bd
00000110: 16e1 5dbd 9411 6cbd 6115 9d3d 4865 6bbe
00000120: e48a 02c0 1a20 e7be 42fe 303f 6884 1dbd
00000130: ceb6 013f 9cdc 613c 3bba 4bbb 32fa 52bf
00000140: 32e3 f23d 7024 27be d709 973e 70e1 5dbe
00000150: 0f19 393e daa9 70be d48c b23e ab2f 0abf
00000160: 93ac 723c 78a5 42be 9241 c53e 583b f1be
00000170: 0246 323f 5e09 0cc0 b2ef 6b3f 57eb 6140
00000180: a15f d6bf 6090 d5bc 065b 1f3d cdbf 833d
00000190: 6bc7 05bd df2a c73d ebc0 f53c 10d0 b03c
000001a0: e0b4 f1bb 70ce f6bb 7fd0 423b de4e 02c1
000001b0: cc1b cf3d 8ac3 803d 97b3 0ebd 135f 42bd
000001c0: d560 0e3e 6c8c cebb d0ed 9a3b cf24 a53d
000001d0: 78c0 df3d 1213 f2bc e3f5 2c3c cc1a f43d
000001e0: b943 9cbd 0d54 17be 71aa d83d dd39 98be
000001f0: 712c 6abe 73d7 213c a77d f9bd 86e8 c3bc
00000200: 5ea5 06be 4c44 ec3d a667 a93f 27ce 483f
00000210: 1eb1 a5bd 30fa 153c bbca 81bf 8d77 b63e
00000220: ea4f 1ac0 a4b2 483f 3eb8 dd3f 3814 87bf
00000230: 87df 433f f656 0ebf e2b3 debe e064 febe
00000240: 14b5 95bf 57e8 93be d8dd 14be 42c7 5f3e
00000250: f21e 073f a4f4 813e 8d8c c8be ce59 c9bd
00000260: fcb0 ad3d 5f68 023e 792e 77bd 9350 d1be
00000270: b27f 7d3d 9500 813d 748d 463f 2f49 79be
00000280: 4c7f 6dbf 7d07 8a3e 415e febd b359 8fbd
00000290: 7e67 0dbe 55ed e03b 5d75 7fbf 2fc7 583f
000002a0: 5526 54bf 6c5d 243f 15a4 5cbf 4bb8 9b3e
000002b0: 8671 1dc0 4088 493f 9028 1b40 a436 38c0
000002c0: f0d1 b23b ad15 0abd a090 bebe fd8a f7be
000002d0: 06e7 88bf 17b8 ddbe 5071 4dbf 57a5 843f
000002e0: d2dc 0dbf 70f3 843f ad46 dabe a319 cf3d
000002f0: abc0 41bd 99b8 c23d b1ab cdbd c52d b43d
00000300: 4989 efbe c29f 2e3d 51c5 96bf 48ec 8bbe
00000310: 400c 08bf dab8 dfbe 3db7 89be f7c0 7dbd
00000320: 4433 55be 2a0d 0a3e 40a9 33bf ef46 ce3e
00000330: d1bd 1fbf e641 bbbe b0af 6bbf c8b7 803e
00000340: 95b0 1dc0 96d3 453f ef34 853f 8901 c6bf
00000350: 1888 f23e e433 92bf 2316 fabe bdb3 efbe
00000360: f243 82bf b10c 91be 0e03 ec3e 88a1 eebf
00000370: 0030 d23a 354a 9c3d d5b6 d0be fde3 5f3e
00000380: fb91 abbd a1a3 9a3d 9ba0 a2bc be62 333d
00000390: 1794 873d 4569 e6be 56dd 36c0 a73e b03c
000003a0: 3e74 f8bd 3f52 663e d796 4dbd 479e 57be
000003b0: e9ab b9bc a964 453e 8444 503d fb38 56be
000003c0: 0ad3 6d3e f052 953c ac64 853b b89d 233e
000003d0: 8d47 ef3d bdbf 89be f257 50bd 1b06 dabc
000003e0: e80c 6e3d ff12 943d 095e 06bc 0130 46bd
000003f0: 8728 093d 6fc9 f7bb 34a8 9b3d 627e 533d

bias f4 [256]
-0.0005419061 -0.5136698 -0.10051206 0.20461804 -0.05811022 0.011222329 -0.18640321 0.016551942
-0.14052059 -0.10447296 -0.038083166 -0.71512127 -0.21502912 0.054002978 -0.10593471 -0.07535121
-0.026579289 -0.120314725 0.054196622 -0.06653019 -0.6566719 -0.5886872 0.11059774 0.028544417
-0.027395217 -0.021923246 -0.08280527 0.0056547415 -0.15651554 0.65251255 0.1389199 -0.07295729
-0.023953421 -0.11294837 -0.03265708 -0.06770291 -0.64334404 -0.11134272 -0.102262154 -0.17963652
0.038791526 -0.11647443 0.040830266 0.0048713903 -0.5172249 0.06627519 -0.2619655 -0.07580485
-0.02329971 -0.05915204 0.029336097 -0.0203473 -0.12037792 0.5843788 -0.07090787 -0.669456
-0.16417561 -0.03733652 -0.09458756 -0.043025963 0.23525378 -0.09984662 -0.067125455 -0.043274913
-0.06497322 -0.05939135 -0.50284714 0.029143743 0.036674652 -0.021169448 0.290544 -0.027829418
0.5540776 -0.037927568 0.6979816 0.037287354 0.04821401 -0.5087473 0.04203624 -0.36425054
0.031884994 -0.09531615 -0.2295506 -0.059633307 -0.008814444 -0.124814115 -0.047928378 -0.062353488
-0.072008006 0.01386395 -0.1553017 0.0185967 -0.1019752 -0.9131592 0.0054149344 -0.022287972
0.0058355317 -0.117308296 -0.116649814 -0.9225991 -0.116187386 -0.053322077 -0.066016 -0.12184666
-0.15543452 -0.78725785 -0.011502704 0.046152018 -0.008973297 0.03125429 -0.06308604 -0.11241479
-0.07189062 0.23342793 -0.06814281 -0.058396343 -0.022586307 0.029965745 -0.08973214 -0.03151946
-0.0700993 -0.12981962 -0.08891595 -0.021500414 -0.101076946 0.28360456 -0.0708191 -0.0023858787
-0.03137775 -0.9027771 -0.37734774 -0.113794826 -0.08507499 -0.79995817 -0.04138177 -0.45864683
-0.038528502 -0.08599435 -0.092143446 -0.57715005 -0.050174028 -0.09512019 -0.13614555 -0.131738
-0.046382107 0.223978 -0.09986535 0.86446625 -0.26338553 -0.022522127 0.43222076 -0.6921041
-0.2284603 -0.20451598 -0.17447194 -0.111326516 -0.08651231 -0.11999475 0.45357144 -0.03639768
-0.08236876 -0.04956093 -0.052518003 -0.0719591 -0.4884517 -0.13514651 -0.100135975 -0.07378837
-0.13539968 0.035989482 0.031370267 -0.0021797265 -0.06988293 -0.6628498 -0.06724096 0.049927786
-0.086314626 0.059612423 0.031405848 0.2277234 -0.07452543 -0.13534686 -0.71164954 -0.39994526
-0.050483026 -0.08508255 -0.009957628 -0.09374623 -0.040694553 0.0038434386 -0.21648698 -0.12050542
-0.027769346 -0.13249275 0.75772464 -0.19308466 -0.47051594 -0.057625495 -0.008403886 -0.056811076
-0.48416284 -0.053121593 -0.9616975 -0.061062496 0.05610955 -0.0372167 -0.08733188 -0.05084639
-0.2655239 0.026431559 -0.681043 -0.12728423 -0.17911948 -0.89050084 -0.58574617 -1.1420664
-0.12899539 -0.03996367 -0.111267254 -0.055133566 -0.031623166 0.01454924 -0.0749379 -0.08863021
-0.014947007 -0.12603776 -0.045043707 -0.009920432 -0.045575675 0.0527561 -0.07375903 -0.06433681
0.4487942 -0.33589074 -0.13767469 -0.80054593 -0.26080263 0.06309929 0.0032892022 0.7073054
-0.021767732 -0.097273916 -0.035341922 -0.07882018 0.016963605 0.011224847 0.005980157 -0.4798904
-0.061571214 -0.6803 -0.0011067729 -0.073989674 0.03975705 -0.08168257 0.016334916 -0.074562654
00000000: b40e 0eba dd7f 03bf 44d9 cdbd 6487 513e
00000010: fb04 6ebd dcdd 373c 7ce0 3ebe f097 873c
00000020: a1e4 0fbe ebf5 d5bd 18fd 1bbd 3012 37bf
00000030: 9830 5cbe 3a32 5d3d 4cf4 d8bd bc51 9abd
00000040: cfbc d9bc 9167 f6bd 47fd 5d3d fb40 88bd
00000050: a61b 28bf 34b4 16bf 1181 e23d fbd5 e93c
00000060: ef6b e0bc 6198 b3bc cf95 a9bd 694b b93b
00000070: 9c45 20be 100b 273f 0541 0e3e a26a 95bd
00000080: f739 c4bc 7a51 e7bd 6ec3 05bd d3a7 8abd
00000090: 32b2 24bf a707 e4bd d26e d1bd a3f2 37be
000000a0: dde3 1e3d 258a eebd a33d 273d 2fa0 9f3b
000000b0: da68 04bf 49bb 873d 5820 86be 933f 9bbd
000000c0: 09df bebc 6949 72bd 4152 f03c 62af a6bc
000000d0: b388 f6bd d999 153f 2538 91bd 7861 2bbf
000000e0: a71d 28be 2eee 18bd 1fb7 c1bd fe3b 30bd
000000f0: 5ee6 703e 627c ccbd 1279 89bd 0941 31bd
00000100: ae10 85bd 5844 73bd 97ba 00bf dcbe ee3c
00000110: 2938 163d 8d6b adbc 2fc2 943e 85fa e3bc
00000120: 08d8 0d3f f059 1bbd ecae 323f a0ba 183d
00000130: 0e7c 453d 433d 02bf 312e 2c3d 0c7f babe
00000140: d799 023d 1d35 c3bd 500f 6bbe 0e42 74bd
00000150: 756a 10bc 8b9e ffbd 8c50 44bd 5f66 7fbd
00000160: ef78 93bd 9f25 633c 6907 1fbe 1b58 983c
00000170: 60d8 d0bd cdc4 69bf c36f b13b 4495 b6bc
00000180: fd37 bf3b 553f f0bd 19e6 eebd 742f 6cbf
00000190: a7f3 edbd 4068 5abd 6633 87bd be8a f9bd
000001a0: 3a2a 1fbe bb89 49bf d675 3cbc e609 3d3d
000001b0: bc04 13bc 8004 003d 4133 81bd ba39 e6bd
000001c0: 643b 93bd bb07 6f3e 758e 8bbd 0131 6fbd
000001d0: eb06 b9bc b97a f53c 7cc5 b7bd 8d1a 01bd
000001e0: 3990 8fbd 6fef 04be 9119 b6bd a321 b0bc
000001f0: 6e01 cfbd 9e34 913e 9b09 91bd 675c 1cbb
00000200: f585 00bd 661c 67bf b933 c1be 430d e9bd
00000210: cc3b aebd 0fca 4cbf ee7f 29bd c2d3 eabe
00000220: 10d0 1dbd ce1d b0bd b4b5 bcbd 1bc0 13bf
00000230: 4883 4dbd 60ce c2bd bd69 0bbe 54e6 06be
00000240: 2afb 3dbd 7d5a 653e 3486 ccbd a94d 5d3f
00000250: 78da 86be 5380 b8bc 0a4c dd3e bc2d 31bf
00000260: 7ff1 69be a36c 51be c6a8 32be 28ff e3bd
00000270: 5e2d b1bd cfbf f5bd 843a e83e bc15 15bd
00000280: f4b0 a8bd 6700 4bbd 1e1d 57bd 4b5f 93bd
00000290: 5716 fabe d963 0abe 1714 cdbd 5b1e 97bd
000002a0: 37a6 0abe b569 133d 1c7e 003d bed9 0ebb
000002b0: c81e 8fbd 86b0 29bf a1b5 89bd 1481 4c3d
000002c0: b9c5 b0bd 282c 743d 6ba3 003d 5330 693e
000002d0: caa0 98bd 5e98 0abe aa2e 36bf a0c5 ccbe
000002e0: 4ac7 4ebd c33f aebd 5225 23bc 06fe bfbd
000002f0: 55af 26bd 33e2 7b3b c3ae 5dbe 8ccb f6bd
00000300: 8a7c e3bc 2eac 07be 3efa 413f fcb7 45be
00000310: 77e7 f0be b608 6cbd 74b0 09bc bbb2 68bd
00000320: 31e4 f7be 0796 59bd cf31 76bf ab1c 7abd
00000330: 21d3 653d 8a70 18bd 0fdb b2bd 4e44 50bd
00000340: c0f2 87be ff86 d83c d658 2ebf cc56 02be
00000350: 196b 37be ddf7 63bf 76f3 15bf 3b2f 92bf
00000360: 5e17 04be f2b0 23bd 16e0 e3bd bcd3 61bd
00000370: 4b87 01bd ef5f 6e3c 0b79 99bd c183 b5bd
00000380: 4be4 74bc 0b10 01be c07f 38bd 4f89 22bc
00000390: 8fad 3abd c816 583d f90e 97bd 04c3 83bd
000003a0: 5ac8 e53e dff9 abbe 98fa 0cbe 94f0 4cbf
000003b0: ec87 85be 333a 813d a88f 573b f711 353f
000003c0: 3e52 b2bc 8c37 c7bd b1c2 10bd 796c a1bd
000003d0: 42f7 8a3c 6ce8 373c 31f5 c33b 32b4 f5be
000003e0: 1932 7cbd 2428 2ebf 2311 91ba e687 97bd
000003f0: 4ad8 223d 3149 a7bd cdd0 853c 4eb4 98bd

weight f4 [256, 256]
-0.0006621006 -0.0122784935 0.040988266 0.052412372 0.016287167 0.015398653 0.017420473 0.031097557
-0.1347987 -0.04953384 -0.004772755 -0.034621276 -0.00684038 -0.041467197 -0.027500365 -0.0032406796
0.019398166 -0.06615665 0.026356457 -0.024066016 -0.09604807 -0.06481101 0.0111787915 -0.061690856
-0.048737604 0.028163934 0.014572457 -0.021591298 -0.095261276 -0.08991705 -0.032942843 -0.050649226
-0.02204993 -0.051604174 0.016571483 -0.019705772 -0.026396755 0.007988565 -0.03514344 -0.035615552
-0.06348227 -0.013114746 0.06076449 -0.05022673 -0.0070879282 0.028725818 -0.032841336 0.0022528407
-0.015414608 0.030346174 -0.035313997 -0.03809279 0.057598423 -0.022618799 0.034629513 -0.009547913
0.013712452 0.02442251 -0.050823465 -0.0073482203 -0.028108487 0.027547963 0.0347919 -0.06216313
-0.00919953 -0.050347786 0.03540286 0.009995074 0.039074946 0.01967582 -0.05775894 0.038042333
-0.00453295 0.03474783 0.012641085 0.039571095 -0.008171147 0.031343892 -0.030600477 -0.0005534496
0.008114074 -0.008137244 0.017521506 0.03256286 -0.007457248 -0.074033074 -0.06404487 -0.002359548
0.03999901 0.031018069 -0.02494546 -0.07323139 -0.059107553 -0.008797578 0.022806315 -0.018333001
-0.027120288 -0.042543933 -0.021628221 -0.032895364 -0.015187009 0.053311978 -0.05068223 -0.03871527
0.00938503 -0.019329367 0.02583957 -0.0060282797 0.013796912 -0.0091239605 0.021968655 -0.0312238
-0.036949515 -0.062048484 0.05144397 0.046621516 0.025517125 0.055043295 -0.024458015 0.04853366
0.0137822265 -0.017967729 -0.029796075 0.04179522 -0.042939894 -0.114881136 0.0071943654 -0.023891447
-0.035286516 -0.0048297173 -0.0004609814 0.021760503 -0.047552954 -0.22053008 0.083683774 -0.06570822
-0.031405937 -0.05239745 -0.07870279 -0.0761741 0.031320307 0.05192153 0.029225 0.0013510692
-0.023987686 -0.030820057 0.013696488 -0.10550537 -0.0017762406 0.002873264 -0.026061574 -0.029666375
-0.05809594 -0.018770518 -0.07722287 -0.06876357 -0.08444254 -0.068477124 -0.012246516 -0.052380946
0.0018299714 -0.023041582 0.055014648 -0.041439556 -0.03546817 0.028265638 -0.030957907 0.0031227993
0.04689771 0.056597654 0.055602796 -0.07314603 -0.025944304 -0.04214545 -0.037356585 -0.0632812
-0.024196878 -0.018348223 -0.045219116 0.055199426 0.043600004 -0.0358905 0.020074287 -0.051903166
-0.016049767 0.028396782 0.02127927 -0.0036811898 0.04630707 0.029119313 -0.034545135 -0.060630538
-0.026963681 -0.019721724 -0.018103562 -0.093566604 -0.035790537 -0.02242567 0.058607288 -0.05544508
-0.07318085 -0.0052120383 -0.06478871 -0.031585462 -0.03175024 -0.06906357 -0.06867627 0.003894669
-0.017810713 -0.02510363 -0.05254609 0.048101414 0.044477142 -0.073278196 0.030788783 -0.015469587
-0.034058925 -0.054152854 0.044370282 0.0093082795 -0.04776391 -0.051087137 0.0259237 0.055331558
0.0037011197 0.02014295 -0.042615574 0.03543837 0.043592 -0.010831229 0.045600813 -0.020532683
-0.049060322 0.0017595188 -0.034553457 -0.07700215 0.08405844 0.038799748 0.049729124 0.012945406
0.0430655 -0.03367269 0.055534445 -0.03601532 -0.0056055062 0.06259544 -0.0063988985 -0.023183703
-0.05535084 -0.033256076 0.048961163 0.026828205 0.014891827 0.060308777 -0.037538704 -0.041459464
00000000: d290 2dba bc2b 49bc 50e3 273d 5bae 563d
00000010: aa6c 853c a24a 7c3c 61b5 8e3c 4ec0 fe3c
00000020: ac08 0abe ffe3 4abd c564 9cbb 0acf 0dbd
00000030: 4425 e0bb 82d9 29bd 7248 e1bc 9561 54bb
00000040: e7e8 9e3c 237d 87bd 7fe9 d73c 1826 c5bc
00000050: dab4 c4bd a3bb 84bd 4027 373c 8daf 7cbd
00000060: 15a1 47bd 0db8 e63c 51c1 6e3c 3ce0 b0bc
00000070: 5818 c3bd 6e26 b8bd 13ef 06bd 9075 4fbd
00000080: 0ea2 b4bc e65e 53bd ebc0 873c 006e a1bc
00000090: 023e d8bc 78e2 023c 91f2 0fbd 9de1 11bd
000000a0: fe02 82bd 3bdf 56bc 30e4 783d 8bba 4dbd
000000b0: da41 e8bb 6852 eb3c a384 06bd 65a4 133b
000000c0: 8d8d 7cbc 8a98 f83c 69a5 10bd 2f07 1cbd
000000d0: 53ec 6b3d 0f4b b9bc add7 0d3d da6e 1cbc
000000e0: 31aa 603c b711 c83c 442c 50bd 57c9 f0bb
000000f0: c543 e6bc 44ac e13c f481 0e3d c49e 7ebd
00000100: a0b9 16bc 7b39 4ebd 9702 113d 61c2 233c
00000110: 0d0d 203d 2f2f a13c a394 6cbd 47d2 1b3d
00000120: 2489 94bb be53 0e3d 8e1c 4f3c 4d15 223d
00000130: 46e0 05bc 7462 003d daad fabc 6015 11ba
00000140: e5f0 043c 1352 05bc 4389 8f3c a260 053d
00000150: ee5b f4bb a79e 97bd f529 83bd a5a2 1abb
00000160: 00d6 233d 9b19 fe3c 6c5a ccbc 57fa 95bd
00000170: c31a 72bd b723 10bc 4fd4 ba3c 172f 96bc
00000180: 5e2b debc 8c42 2ebd ab2d b1bc 4abd 06bd
00000190: efd2 78bc a95d 5a3d 2c98 4fbd e793 1ebd
000001a0: abc3 193c 9f58 9ebc 82ad d33c e088 c5bb
000001b0: 710c 623c aa7c 15bc 9cf7 b33c 0ec9 ffbc
000001c0: 6058 17bd 8d26 7ebd eab6 523d 34f6 3e3d
000001d0: 4a09 d13c 1475 613d 2d5c c8bc 3bcb 463d
000001e0: d9ce 613c 0f31 93bc e616 f4bc 7731 2b3d
000001f0: bee1 2fbd cd46 ebbd b6be eb3b ffb7 c3bc
00000200: 9888 10bd 9b42 9ebb e0af f1b9 1543 b23c
00000210: e3c6 42bd a3d2 61be 6662 ab3d 0892 86bd
00000220: 83a3 00bd b59e 56bd ee2e a1bd 2b01 9cbd
00000230: b949 003d acab 543d 4469 ef3c 5c16 b13a
00000240: d381 c4bc 587a fcbc 3c67 603c 3313 d8bd
00000250: bfd0 e8ba 5f4d 3c3b 157f d5bc e606 f3bc
00000260: 02f6 6dbd a1c4 99bc 0627 9ebd ead3 8cbd
00000270: 36f0 acbd bc3d 8cbd 9ca5 48bc 678d 56bd
00000280: a7db ef3a b3c1 bcbc 0a57 613d 86bc 29bd
00000290: 1247 11bd 578d e73c 709b fdbc e1a7 4c3b
000002a0: d017 403d f1d2 673d c2bf 633d 96cd 95bd
000002b0: 2689 d4bc b5a0 2cbd 3803 19bd 9399 81bd
000002c0: 8838 c6bc 034f 96bc ae37 39bd cb18 623d
000002d0: eb95 323d eb01 13bd d572 a43c 6a98 54bd
000002e0: cd7a 83bc 5ea0 e83c dd51 ae3c 1e40 71bb
000002f0: 7bac 3d3d a08b ee3c 337f 0dbd ba57 78bd
00000300: f0e2 dcbc 748f a1bc ec4d 94bc d99f bfbd
00000310: 1999 12bd 0ab6 b7bc 320e 703d 611a 63bd
00000320: d7df 95bd bfc9 aabb f1af 84bd c25f 01bd
00000330: 8a0c 02bd 3371 8dbd 25a6 8cbd b43d 7f3b
00000340: c6e7 91bc 21a6 cdbc 923a 57bd fd05 453d
00000350: aa2d 363d e112 96bd c238 fc3c 2774 7dbc
00000360: 5f81 0bbd 62cf 5dbd 9dbd 353d c181 183c
00000370: 17a4 43bd bf40 51bd f05d d43c 58a3 623d
00000380: 7c8e 723b d402 a53c ab8d 2ebd d327 113d
00000390: 868d 323d 7875 31bc ebc7 3a3d 2834 a8bc
000003a0: 7af3 48bd a79f e63a ed87 0dbd 4eb3 9dbd
000003b0: d526 ac3d 7cec 1e3d c4b0 4b3d f818 543c
000003c0: 7365 303d 60ec 09bd 1678 633d cd84 13bd
000003d0: 65ae b7bb 0a32 803d daad d1bb c0eb bdbc
000003e0: 90b7 62bd 8637 08bd 808b 483d d3c6 db3c
000003f0: d9fc 733c 5606 773d 2fc2 19bd 66d1 29bd
