saved_models_1/125_3133_model.pt (torch, 701697 bytes, 11 tensors)

FC1.weight f4 [256, 36]
000000 c6 f4 a6 be 60 36 b8 3d 64 e4 e8 3e 9a 30 da bd
       -0.32608622 0.08994746 0.45486748 -0.10653801
000010 c7 ae 40 3f af db b8 3e de 04 39 be 27 c7 89 bf
       0.7526669 0.36105105 -0.18068263 -1.0763901
000020 8c 51 94 3f 98 4e 90 3e 2f ca 96 bf 93 db e9 3e
       1.1587386 0.28184962 -1.1780452 0.45675334
000030 c1 7e 90 be c1 c2 cf 3e 39 29 63 3f 0e 1e f0 be
       -0.28221706 0.40578273 0.88734776 -0.4689793
000040 6f f6 84 bf 65 14 4a bf 7b e0 90 3f 3e d0 bb 3e
       -1.0387706 -0.7893737 1.1318506 0.36682314
000050 40 7c 7b 3f 43 d1 bd 3e fc f7 89 bf 83 de 83 be
       0.98236465 0.37073717 -1.0778804 -0.257557
000060 b1 9f 01 40 27 f6 9a bd 76 70 37 bf 11 3c 61 3e
       2.0253718 -0.07566481 -0.71655977 0.2199557
000070 c2 93 0a be fa 8f 8c 3d 06 64 8e 3e ef 3e 6e 3e
       -0.13532928 0.06863399 0.27810687 0.23266195
000080 fc f4 12 c0 86 c9 6f be f5 20 4b 3f 45 58 9b bf
       -2.2962027 -0.23416719 0.79347163 -1.2136313
000090 4e b4 64 3f dc da d6 be 94 1c 3b 3d 40 dd 71 3d
       0.89337623 -0.4196385 0.04568155 0.05904889
0000a0 9c f5 37 bf af df 10 be f5 7d 70 3f ad 32 7e be
       -0.71859145 -0.14147829 0.93942195 -0.24824019
0000b0 59 77 b3 bf 2e d4 50 bf 36 7a e3 3f 26 d9 fe be
       -1.4020797 -0.8157376 1.7771671 -0.49775046
0000c0 bb 3d 92 bf 73 4d 2a be 3b c1 51 3f 93 1f 16 bf
       -1.1425089 -0.16631107 0.8193547 -0.5864193
0000d0 65 2c c4 bf cc 4b f8 be 32 d3 17 40 a7 7d 1f 3f
       -1.5326048 -0.48495328 2.3722653 0.62301105
0000e0 ab c3 9c be 0e 5b 83 bf fb d7 1e 3e 42 e8 8d 3f
       -0.30618033 -1.0262163 0.15512078 1.1086504
0000f0 27 91 fd 3d e6 a3 00 c0 20 4b 58 3f 1a 5f 19 3d
       0.12381201 -2.0100036 0.8448963 0.03744421
000100 3e e9 2d 3d 20 3f c4 3e b5 c8 5c 3e 65 34 01 3f
       0.042458765 0.3832941 0.21560939 0.5047057
000110 94 da 3c c0 67 54 91 bf 92 0e 83 3f c3 ee 8a 3f
       -2.950841 -1.1353883 1.0238822 1.0854114
000120 fa 9c 86 3e 0b 77 8d 3e 00 61 9b be 20 ec 25 be
       0.2629164 0.27629885 -0.30347443 -0.16203356
000130 55 2e 6a bf a5 12 1f 3f 41 48 c1 bf ab 69 87 bf
       -0.9147695 0.62137824 -1.5100175 -1.0579122
000140 99 25 d6 3f ec 14 c8 3e 11 ec 70 3f df 63 6f 3c
       1.6730224 0.39078462 0.9411021 0.0146112135
000150 c4 95 fc be 0a 69 a5 3f 0d 35 39 bd 10 50 52 c0
       -0.49333012 1.292268 -0.04521661 -3.2861366
000160 dc 7d 63 bd bf 57 d7 3e 17 65 6d 3c d9 b1 f2 3e
       -0.05553995 0.42059132 0.014489434 0.47401312
000170 84 ca 11 bf a9 f7 96 bd 8b 80 66 3f c3 27 90 3e
       -0.5694964 -0.07371456 0.9003989 0.28155336
000180 9c c6 d9 bf d8 01 a3 be ba 35 32 3f fc 32 08 bf
       -1.7013736 -0.31837344 0.6961323 -0.53202796
000190 ce 7e 84 bc 5f 0c 12 3d 4f 78 b2 3e b8 39 97 be
       -0.016173746 0.03565633 0.34857413 -0.29536223
0001a0 ac 31 05 3f 5e 17 5b bf ab 56 73 c0 9d 53 f9 3e
       0.5202892 -0.8558253 -3.8021648 0.48696604
0001b0 66 3b d5 bf 05 29 9d 3e 18 43 06 3e ef ea 3e 3f
       -1.6658752 0.30695358 0.13111532 0.7457723
0001c0 f1 2e e5 be 99 f3 d3 bf 71 bc e9 bc bd ef 27 40
       -0.44762376 -1.6558715 -0.028532239 2.6240075
0001d0 b0 2d 84 bf e5 ba 87 bf 0e 7c 07 3f 0f 5e 06 3f
       -1.0326443 -1.0603911 0.5292367 0.5248727
0001e0 98 79 09 bf fb 07 a6 be ef 8e 89 3e ef 44 f3 3e
       -0.5370116 -0.32427964 0.26866862 0.4751353
0001f0 78 72 b6 bf 1e 9a 72 be 1d 29 07 3f 03 88 07 bf
       -1.4253683 -0.23691604 0.5279711 -0.5294191
000200 76 67 4b bf bd 25 66 3e 2d 17 a7 3e 6d de dc 3d
       -0.79454744 0.22475334 0.3263487 0.10784612
000210 23 1d 93 bf df 1e ef 3f 48 36 9b 3f 48 0a a0 bd
       -1.1493267 1.8681296 1.212594 -0.07814461
000220 4b 02 0e c0 51 bf b1 3e 36 c5 b3 3e 32 3b 71 c0
       -2.21889 0.34716275 0.35111398 -3.769238
000230 1a 7f 71 bf 70 92 4b bf 3e 8c 9a 3f 97 1b 4b c0
       -0.94334567 -0.7952032 1.2074049 -3.173559
000240 1f 48 ef be 5c f2 26 be b4 e9 41 bd 6a 8f 70 bc
       -0.46734712 -0.1630339 -0.047342017 -0.01468263
000250 ce 35 a4 3f 27 9c ed 3e 24 cd 7d bf f6 01 ce bf
       1.282892 0.46408197 -0.99141145 -1.6094348
000260 57 5d 79 40 a5 6f 25 3e dc 9e 7d c0 a0 0b 10 3f
       3.896322 0.1615587 -3.962821 0.5626774
000270 d8 ee 0a 3f d5 38 e7 3d 34 cf 23 bf f7 10 92 bd
       0.54270697 0.11290137 -0.6398804 -0.07132142
000280 44 38 8a 3f 59 4f 95 bf e5 d0 88 bf 41 b3 a6 3e
       1.0798421 -1.166484 -1.068875 0.32558635
000290 88 25 67 3d 62 fc 32 bf d4 f6 a5 be d9 42 ba 3f
       0.056432277 -0.69916356 -0.32414877 1.455165
0002a0 16 04 6b 3e 7f 4c 41 bf 8f b2 b7 3e c7 e7 3c 3e
       0.22950777 -0.7550735 0.35878417 0.18447791
0002b0 22 2a c5 3d 2b 2e fa 3e d1 c9 ab 3d 0c aa 62 3e
       0.09627177 0.48863348 0.08388103 0.2213518
0002c0 0c d6 8b 3f 36 c6 d1 3e fa 4b 94 c0 f4 2d ac bf
       1.0924697 0.40971535 -4.6342745 -1.3451524
0002d0 39 7e 89 bf 40 27 0e be fb 42 e6 3d 0a ee 5b be
       -1.0741645 -0.1388216 0.11243244 -0.21477523
0002e0 1d 5a a6 3e d2 7f fc 3e 39 a1 91 bf b8 ef 12 c0
       0.32490626 0.4931627 -1.1377326 -2.2958813
0002f0 e5 a9 fa 3f 2d d8 81 3e a0 5a 87 be 69 94 94 bf
       1.9583098 0.25360242 -0.2643633 -1.1607791
000300 48 2f 92 be f3 c8 71 be c7 e2 dd be 75 6a 04 bf
       -0.28551698 -0.23611812 -0.4333708 -0.5172494
000310 98 d9 9a 3e 18 53 4d 3f 59 fc 17 3f 8a 97 7c bf
       0.30244136 0.80204916 0.59369427 -0.9866873
000320 5b 33 34 bf 89 ff 6d be de eb 41 3f 15 72 ff bd
       -0.7039086 -0.2324201 0.7575053 -0.12472931
000330 cb 55 0e c0 fa 54 5d 3f 82 76 7b 3e 62 fd cf 3e
       -2.2239864 0.8645779 0.24556926 0.40623003
000340 58 0b cc 3e 2b 0a 53 c0 34 d8 19 c0 e5 4d 97 bf
       0.39852405 -3.2974956 -2.403821 -1.1820647
000350 d1 2d c2 3f 98 7a 84 bf 71 95 22 c0 87 10 44 c0
       1.5170232 -1.0349913 -2.5403712 -3.0635087
000360 8d 0b 7d bf 0b 41 e3 be ca 23 9b 3e 88 f6 91 bf
       -0.9884575 -0.4438556 0.30300742 -1.140336
000370 b7 5a 50 3f 5e f3 ac be c2 93 19 be fc ad 5a bf
       0.8138842 -0.33779424 -0.14997771 -0.8542173
000380 e7 c5 09 40 85 55 fc 3f e9 fa 25 3f e9 32 38 3e
       2.152704 1.9713598 0.64835984 0.1798817
000390 24 a6 74 3e 4a b4 ab bf 5e 0c 6e 3f cc ea b6 3f
       0.23891503 -1.3414395 0.9298762 1.4290404
0003a0 1d 23 26 bf f2 1a 80 bf de 9b 20 3f 53 ca bc bd
       -0.6489733 -1.0008223 0.62737834 -0.09218278
0003b0 cc 6f 16 3f 2c 13 c6 bf ad 70 d2 be c3 cf 5b 3f
       0.5876434 -1.5474601 -0.4110159 0.85863894
0003c0 73 69 4a 3f 14 67 80 bf 5a 32 bc be fc 99 6f 3d
       0.7906715 -1.0031457 -0.36757165 0.05849646
0003d0 e7 aa fc 3e 67 8d fe 3d b9 cc fb bc 9d e2 6e bd
       0.49349138 0.12429314 -0.030737268 -0.058321584
0003e0 74 0d 3d 3f e0 fd cd bf 02 d8 9b be b8 12 01 40
       0.7384865 -1.6093102 -0.30438238 2.0167675
0003f0 19 d0 3d 3e 48 3b ac 3e 99 f9 e6 be f7 ed 49 bf
       0.18536414 0.33638978 -0.45112303 -0.7887873

FC1.bias f4 [256]
000000 34 b2 e0 3d 09 cf 86 be 56 58 03 bf e6 20 82 bd
       0.109714895 -0.2632983 -0.51306665 -0.06353931
000010 f8 f5 49 3e c7 65 9d 3e 38 be 11 be ce 3c d1 be
       0.19722736 0.30741712 -0.14232719 -0.40866703
000020 45 56 37 bf 2a 82 c8 be ec c0 27 3c cf 9e 29 be
       -0.7161601 -0.39161807 0.010238867 -0.16564487
000030 1a 7b e7 be 7d 4e 4e be 58 20 c6 be 28 3a 6d bd
       -0.45211107 -0.20147128 -0.3869655 -0.05791679
000040 01 3f 83 3e e8 2d 8b be aa 59 68 3e f7 77 a2 3e
       0.25634006 -0.2718346 0.22690454 0.3173215
000050 0d 11 88 bd ce 72 ea 3d 4c 21 2e bf b7 39 30 3d
       -0.06643877 0.114476785 -0.68019557 0.04302379
000060 4a 3b a3 be 8d e5 f9 3c f2 dd 38 bf 86 2c 80 3e
       -0.3188117 0.030504966 -0.7221366 0.2503397
000070 c1 4b 4e bf 96 c8 88 3d 4e 85 47 be 0d ee df be
       -0.8058434 0.06678884 -0.19484445 -0.43736306
000080 ae e1 12 bf 56 b9 6f 3e 8b ee 1f be e9 27 03 3f
       -0.5737561 0.23410544 -0.1561834 0.51232773
000090 ef be e6 be c0 d2 c0 be 5e 2b a1 be 9f 2c 7c be
       -0.45067546 -0.3766079 -0.314784 -0.24626397
0000a0 41 34 2b 3e fb 61 cc be b6 50 7f 3c 5d a9 0e bf
       0.16719152 -0.39918503 0.015583208 -0.5572718
0000b0 27 76 7f 3e 5b 53 fd bd 70 b3 3e bf d2 43 8b be
       0.24947415 -0.123694144 -0.7449255 -0.2720018
0000c0 32 80 9f be 27 4f 4e bd 99 19 32 3f ff 4b 48 be
       -0.31152493 -0.050368454 0.6957031 -0.1956024
0000d0 ed 77 f8 bd 18 87 22 bd e6 db 1f 3e 04 7d cb be
       -0.12132249 -0.039679617 0.15611228 -0.39743817
0000e0 d0 ce 58 be 10 a8 d4 be d6 f3 ef 3c e4 3c 47 3d
       -0.21172643 -0.41534472 0.029291075 0.048642054
0000f0 f4 9e 3b be 94 88 6a 3e ce 72 ac 3e 07 e9 64 bd
       -0.18322355 0.22903663 0.3368134 -0.055886295
000100 b9 64 66 3c 7f 95 8d 3d 27 fd c9 3b b1 8e 10 be
       0.0140621 0.0691328 0.0061642113 -0.14116932
000110 57 d1 1f bf 16 d3 ac bd f9 72 6c be 92 03 ac be
       -0.624288 -0.08438699 -0.23090734 -0.33596474
000120 da b0 a3 3e 98 34 65 3f 09 d6 90 bd 87 b5 0a 3d
       0.31970865 0.89533377 -0.07072074 0.033864524
000130 df 64 17 bf 51 10 c7 be 64 8c 36 bf 7d 5c 20 3f
       -0.5913829 -0.38879636 -0.7130797 0.62641126
000140 c8 10 44 bf 90 3f d4 be e7 d3 56 3e af a4 a6 be
       -0.76588106 -0.41454744 0.20979272 -0.3254752
000150 08 35 a6 3d 21 fe 18 3f 86 ad d3 3d 8e b3 3b 3e
       0.08115584 0.5976277 0.10335831 0.18330213
000160 06 e4 e6 be e5 54 7e 3e 9d 01 fc 3c a7 be 5f bd
       -0.45095843 0.24837072 0.030762488 -0.05462518
000170 8f 13 d7 be dc 73 00 3f 6a 0b 79 3c 19 12 d1 bd
       -0.4200711 0.5017679 0.015200475 -0.1020853
000180 7e 0a e6 bd a8 2a b9 be 34 7d ea be a4 75 0f bf
       -0.1123247 -0.36165357 -0.45798647 -0.5603888
000190 a1 f9 4d be 51 b3 54 3e 09 a3 5f be a7 21 00 bf
       -0.20114757 0.20771529 -0.21839537 -0.5005135
0001a0 71 a4 04 be 21 17 c5 3e 50 12 ca 3d 54 b2 92 be
       -0.12953354 0.38494208 0.09866774 -0.2865168
0001b0 7d 9e 60 3c 69 92 9b bd 75 eb 8e be eb 47 0c bf
       0.013709662 -0.07596285 -0.27914014 -0.5479724
0001c0 6b 3d ee be 4b 1b 09 bf 4a 22 0c bf 04 65 c3 3d
       -0.46531233 -0.5355727 -0.5473982 0.095407516
0001d0 54 f7 06 be fd 9f 92 3e fc 04 df be 77 1f 8c 3d
       -0.13180286 0.28637686 -0.4355849 0.06841939
0001e0 c9 e5 42 be 8c 41 58 bd 59 97 cf be 63 ad 54 be
       -0.19032969 -0.052796885 -0.40545157 -0.20769267
0001f0 a3 67 3b bf d4 83 3a be ca 24 ec bd 90 40 12 bf
       -0.7320501 -0.18214351 -0.115304545 -0.57129765
000200 27 82 32 bf 50 6b 1b 3e df 88 9f be 72 22 a4 3e
       -0.69729847 0.15177655 -0.31159112 0.3205753
000210 1a 72 d2 3e 50 02 4b bd f2 bb 47 3e 28 64 0d be
       0.41102678 -0.049562752 0.19505289 -0.13807738
000220 2b 4f 8a be f8 76 ad 3e e6 13 c5 bd 7e fe b7 3c
       -0.27013525 0.33879828 -0.09622936 0.022460219
000230 78 c1 6d be 5b fb 82 3d bf 39 72 3d 5e 65 35 bd
       -0.23218334 0.063955985 0.059137102 -0.044286124
000240 b7 75 b1 be 50 1d d1 be 7f 88 b6 3e e4 61 19 3f
       -0.34660122 -0.40842676 0.35651013 0.59914994
000250 e2 f7 59 be ed 86 ba 3e dc dc 4c bf ac 65 59 be
       -0.21285966 0.36431065 -0.80024505 -0.21230191
000260 ee 58 b1 bc 4b 31 3b be db 6d 40 3f d9 aa 1e be
       -0.02164885 -0.18280523 0.75167626 -0.1549486
000270 d1 f2 23 bf f5 85 6f bd 33 d8 a4 3e f9 b0 1a be
       -0.64042383 -0.05847736 0.32196197 -0.15106572
000280 c4 ae 98 be 16 d0 45 3d e4 22 29 3f c4 56 9a 3e
       -0.29820836 0.04829415 0.66068864 0.30144322
000290 df da 82 3d cc 0e 20 3e a2 88 10 bf 36 2b 65 bd
       0.063894026 0.15630645 -0.56458485 -0.055949412
0002a0 7a fc c8 bd 97 a7 6a be 18 06 fd be e1 19 22 bf
       -0.09813781 -0.22915493 -0.49418712 -0.6332074
0002b0 f0 4f 1e 3f 52 cf 1c 3e c2 21 73 bd 7c 9a 8e 3c
       0.61840725 0.15313461 -0.059358366 0.017407648
0002c0 0b 50 c4 3d 76 34 88 3d 0a c8 76 bf 3c c9 17 bf
       0.095855795 0.06650631 -0.96398985 -0.59291434
0002d0 20 82 af 3d 24 70 22 bf cd 95 88 bc 06 a4 c5 3e
       0.08569741 -0.63452363 -0.016672993 0.38601702
0002e0 af 4e 80 be 9b 2c 6b be 98 55 7a be b0 d3 19 bf
       -0.2506003 -0.22966234 -0.24446714 -0.60088634
0002f0 f2 0e 32 3f b6 d3 cd be 58 ef 4e 3b bd 17 06 be
       0.69554055 -0.40200585 0.0031575765 -0.13094993
000300 f8 08 06 3e df e4 f6 3e 85 6f f0 3e 1c b4 3a be
       0.13089359 0.4822149 0.46960083 -0.18232769
000310 12 9c ff be 4d cd 39 bd 9a 95 8c 3e a3 5c a8 bd
       -0.4992376 -0.045361806 0.27457887 -0.08220794
000320 b2 a8 b9 be 04 76 ca be 68 ee e4 bc c2 59 18 bf
       -0.36261517 -0.39543164 -0.027945712 -0.5951196
000330 e8 0b 55 3e 6e 7b 50 3e d2 e1 5c 3e 4c d6 ea 3d
       0.20805323 0.20359585 0.21570519 0.11466655
000340 40 54 ad be d7 70 33 3e 34 46 f1 be eb 45 ba 3e
       -0.3385334 0.17523514 -0.47123873 0.36381468
000350 c9 24 af be 38 2f 11 bf 18 99 23 bf 3b 2c d9 be
       -0.34207752 -0.56712675 -0.6390548 -0.42416558
000360 12 ba bd be 57 18 fe be a6 02 09 3e 47 93 82 3e
       -0.37056023 -0.49627945 0.13379917 0.2550299
000370 2c ba 9a be 84 60 0e bc b4 69 53 be 8e 8c 0b 3f
       -0.30220163 -0.008690003 -0.20645791 0.54511344
000380 17 f9 ea be 90 1f 68 be 0c 81 f1 be 1c 6f 50 bf
       -0.45893165 -0.2266829 -0.47168767 -0.8141954
000390 71 18 53 3e e2 d4 95 3d 41 71 82 3d e9 92 10 bf
       0.20614792 0.07315995 0.06369258 -0.5647417
0003a0 68 8b 16 3f 7a ad e9 be 5c df 0e bf 11 2a 9e bd
       0.5880647 -0.45640165 -0.5580957 -0.07722867
0003b0 e9 0b 33 bf 25 67 4b 3e 70 79 8b be 7a d8 88 be
       -0.6994005 0.19863565 -0.27241087 -0.2672766
0003c0 33 26 83 3d e6 04 58 be 35 ac 1b 3e 8e 44 3e 3f
       0.0640377 -0.21095619 0.1520241 0.74323356
0003d0 02 43 38 3f e0 23 50 be a0 77 8c 3c 34 2a ba 3d
       0.71977246 -0.20326185 0.017146885 0.09090081
0003e0 da f0 09 be 46 f4 39 3d 71 6c 58 be 77 8f 1f be
       -0.13470784 0.045398973 -0.21135117 -0.15582071
0003f0 12 13 2c bd a4 62 26 3f d0 3b eb be ab b8 a2 be
       -0.042010374 0.64994264 -0.4594407 -0.31781515

FC2.weight f4 [256, 256]
000000 dd 6e 03 c0 93 67 8c 3f f3 a1 2e 3e 7b e7 13 c0
       -2.0536416 1.0969108 0.17053966 -2.3110034
000010 42 ce 1a 3f a2 e8 bb 3f 19 f5 e0 be d5 8a 15 c0
       0.60470974 1.4680369 -0.43936995 -2.3365986
000020 f1 42 a0 bf 6c cf 93 3f 76 0f 04 bc 65 43 40 3f
       -1.2520429 1.1547675 -0.008060327 0.75102836
000030 9b e4 66 bf 5d 12 36 be cf b3 6e 3d 91 50 06 be
       -0.90192574 -0.17780443 0.058276948 -0.13116671
000040 00 68 02 c0 55 cb b6 3e 26 a0 9a 3f 2f b9 89 bf
       -2.0375977 0.35702005 1.2080123 -1.0759639
000050 12 40 1f 3d 8c e1 c4 3f 86 f7 65 c0 9d 30 da be
       0.03887946 1.5381331 -3.5932326 -0.42615214
000060 6f 14 cd 3d 13 17 3a c0 89 68 6f bf 81 07 36 c0
       0.10013663 -2.9076583 -0.93518883 -2.844208
000070 98 bc bb 3f f5 6a 16 be 71 ba 0f 3e 6c f2 9a bf
       1.4666929 -0.14689238 0.14035966 -1.2105231
000080 71 0b b5 bf ec 4b 86 3e ed ac 32 3c b2 3a 0e be
       -1.4144117 0.262298 0.0109054865 -0.13889578
000090 a5 0c 09 bf 25 ad 0c 40 e4 ea 0f 3f d3 eb 47 3f
       -0.5353492 2.198068 0.5621779 0.78094214
0000a0 2e b8 3d be d6 49 71 3d 26 17 c4 bf 5e 3f 55 bf
       -0.1852729 0.058908306 -1.5319564 -0.83299816
0000b0 1c 13 d6 bd 1e 54 0f be 63 df 62 bf 7d a5 b1 be
       -0.104528636 -0.13996932 -0.8862211 -0.3469657
0000c0 19 7a d5 3e c9 83 dc 3d d8 40 8b bf 58 b8 94 bc
       0.41694716 0.107673235 -1.0879164 -0.018154308
0000d0 03 f3 30 c0 2b 04 26 c0 98 8b 3f bf 09 2a e5 bf
       -2.7648323 -2.5940044 -0.7482238 -1.7903453
0000e0 23 96 4d bd b9 79 34 3f 29 bf 19 c0 19 de aa 3e
       -0.05019201 0.70498234 -2.4022925 0.33372572
0000f0 e8 42 b3 3e 16 86 e8 be 4d 4e 67 be 77 50 45 3e
       0.35011983 -0.454148 -0.22588463 0.19268976
000100 da 9e 56 3f 70 b9 c0 3f c4 22 85 bf 3e a4 23 bd
       0.8383614 1.5056591 -1.0401235 -0.039951555
000110 63 03 08 c0 3d 4d 94 bd 10 0f 7a bd 0e 08 41 be
       -2.1252067 -0.072412945 -0.06104952 -0.18850729
000120 05 88 3d be 5f 7f 71 be 60 39 46 3e 58 1d af 3e
       -0.18508919 -0.23583744 0.19357824 0.34202075
000130 05 cd b5 bf f8 f6 c1 bf 1f 6c cc 3d 9a e7 96 3f
       -1.4203192 -1.5153494 0.0998156 1.1789429
000140 1f a2 3c 3f 78 28 f8 bf 94 99 cf 3f a9 6c 73 be
       0.7368488 -1.938735 1.6218743 -0.2377192
000150 b2 81 29 bf c8 27 e8 3f 14 33 3f bf 9e 56 bd bf
       -0.66213524 1.813714 -0.74687314 -1.4792058
000160 ae b0 7d 3e 64 39 1b 3f fa 76 5a bc 8e aa b9 bf
       0.24774429 0.60634446 -0.01333403 -1.4505174
000170 43 a7 a4 3e 68 91 02 bf b6 75 96 bd c8 94 0d 3f
       0.3215886 -0.5100312 -0.0734667 0.5530515
000180 e5 1b 07 40 a7 85 e4 be 10 20 93 3f d5 81 31 3f
       2.1110775 -0.4463322 1.149416 0.6933873
000190 d0 97 a1 3e dd 39 9a bf 1d 73 c9 bf fd 36 eb 3e
       0.31561136 -1.2048908 -1.5738255 0.4594039
0001a0 f2 4f 28 3c 1c 1f 12 bb e5 a6 bc 3f 8e 4d a7 bc
       0.010272967 -0.0022296375 1.4738432 -0.020422723
0001b0 1d 5b 8f 3f cf 80 ff be d0 ce 87 bd e8 e0 9f be
       1.119968 -0.4990296 -0.06631243 -0.31226277
0001c0 cd 4f 99 bf 09 75 0f c0 4a 26 44 bd 1a 6a dd bf
       -1.1977478 -2.2415183 -0.047888078 -1.7298005
0001d0 93 1a d9 bd fe 66 c4 bf 6e f0 20 bf 04 9c 84 be
       -0.10600772 -1.5343931 -0.62866867 -0.2590028
0001e0 ac d4 c5 be 8e 66 8a bf 1f 27 b5 3d 67 29 74 be
       -0.38638818 -1.0812547 0.088453524 -0.23843919
0001f0 d5 3c 9e bf e4 70 55 3c d2 e6 87 3f d8 cf 91 bf
       -1.2362314 0.0130274035 1.0617316 -1.1391554
000200 00 93 d3 be 80 5f 13 3f cf 2f f5 3f b8 e3 0f 3e
       -0.4132309 0.57567596 1.9155215 0.14051712
000210 fd 5f 5b bd d6 ac 72 bf 27 be f7 bf 8b 17 c5 3e
       -0.05355834 -0.94794977 -1.9354905 0.38494524
000220 29 6c 8e bf 8c 9f 20 3d 33 2c f8 bf 2c c4 80 3f
       -1.1126758 0.039214656 -1.9388489 1.0059867
000230 3e 22 b2 bc aa 66 b5 be 3f 7f 0c 3e 7b f7 66 bf
       -0.021744844 -0.3542989 0.13720416 -0.90221375
000240 f6 31 c3 bf 54 94 e5 3e e9 47 55 3f 09 b9 0d 3f
       -1.5249622 0.44839728 0.8331285 0.55360466
000250 5a 80 8d bd 9b 7f 69 be 88 42 23 be d8 f5 74 3f
       -0.06909247 -0.22802584 -0.15943348 0.9568763
000260 3d b4 d4 c0 73 ae e1 be 1e f8 03 bf d2 46 15 bd
       -6.6470017 -0.44078407 -0.5155047 -0.036444493
000270 29 19 29 bf 52 64 ee 3f 4e 3b 9c 3f 89 14 fc bc
       -0.66054016 1.8624365 1.2205598 -0.03077151
000280 74 da a4 be 1f be 9e bd 5a 3d 1a bf 28 3d 21 3e
       -0.32197917 -0.077511065 -0.60249865 0.15745986
000290 e1 7d 29 c0 80 65 05 c0 59 2e ec 3e 9d 2c eb bf
       -2.648308 -2.08432 0.4612911 -1.837299
0002a0 39 2d 62 3e 84 75 09 c0 16 12 31 40 6a 55 06 bf
       0.22087564 -2.1477976 2.7667289 -0.5247408
0002b0 2a 60 15 bf ed f1 fd bf 5b b5 18 3e 2f c4 53 bf
       -0.5834986 -1.9839455 0.14912932 -0.8272123
0002c0 64 36 2d 3e 22 4c 47 bf 1e d4 40 bf 6c 0b 73 3d
       0.1691528 -0.77850544 -0.75323665 0.059337065
0002d0 d7 a0 82 be 03 95 7a 3f 20 0e d0 bd 77 28 cd 3e
       -0.25513336 0.97883624 -0.10158944 0.40069935
0002e0 4f d8 59 3f 59 71 1b bf ef ec 56 bf 0f 7d a4 3f
       0.85095686 -0.6071983 -0.8395528 1.2850665
0002f0 31 37 85 3f 57 92 21 3f 50 a0 e8 3f 92 92 35 3e
       1.0407468 0.6311392 1.8173923 0.17731693
000300 2e 52 82 3f a5 97 f3 3e ec ea 2d bf 3f f8 5e 3f
       1.0181329 0.47576633 -0.6793659 0.87097543
000310 97 9b 16 c0 0c 60 bd bf 0c e1 4f 3f 04 6b 1a c0
       -2.3532465 -1.4794936 0.8120277 -2.4127817
000320 6e ff ad 3e 74 43 2c 3e 88 75 53 bc 11 f8 a5 3f
       0.3398394 0.16822606 -0.01290644 1.2966329
000330 7e 2b 16 bf 10 03 df bf ee a3 5d 3e 31 ac 8f 3f
       -0.58660114 -1.742281 0.21644565 1.1224424
000340 59 34 b1 be 9b 26 00 c0 c1 9f f7 3e 51 97 17 40
       -0.3461025 -2.0023563 0.4836407 2.3686106
000350 bd e9 a6 3f c7 f6 62 be 2c a7 90 bf 31 70 d7 3f
       1.3040081 -0.2216445 -1.1301017 1.6831113
000360 81 06 da bc 28 86 76 3f 25 d9 9f c0 ca c5 21 bf
       -0.02661443 0.96298456 -4.995257 -0.6319243
000370 fc ef 63 c0 3a f9 78 be ad 08 cd 3e 84 79 07 40
       -3.5615225 -0.24313822 0.40045682 2.1167917
000380 19 3c 14 40 57 3c 7a bf b1 2c 53 3f 4b 81 9d 3f
       2.316168 -0.9774832 0.8249007 1.2305082
000390 95 7b a8 be 02 0e 35 ba e3 3b 2f be 09 91 bb 3e
       -0.32906786 -0.00069066894 -0.17112689 0.3663409
0003a0 a8 37 4b 3f cc 37 82 bf c8 68 a7 bc 87 46 2d 3e
       0.793818 -1.0173278 -0.020435706 0.16921435
0003b0 7f 4e 5c c0 46 61 ac 3f bd c4 06 bf e1 9c 8b bf
       -3.442291 1.3467185 -0.5264395 -1.0907251
0003c0 93 99 96 3b 0c 9c 3b c0 77 4a 0b bf ce 1c 8b be
       0.004595944 -2.9313993 -0.544105 -0.27170414
0003d0 14 3f 72 3f b5 b2 d9 3e 13 7a a5 bf f1 43 11 3f
       0.946275 0.42519155 -1.2927879 0.56744295
0003e0 b2 19 da 3e af 63 c1 bd ff ba f2 be 07 e5 69 3e
       0.4259773 -0.09442841 -0.47408292 0.22841273
0003f0 ef 59 b5 bf 65 93 77 bf fd 10 a9 bf a6 12 ac bd
       -1.416807 -0.9670928 -1.320831 -0.084019944

FC2.bias f4 [256]
000000 7f e4 c8 be 68 31 a3 bd e8 f0 07 bf 51 f4 96 bd
       -0.3923683 -0.07968408 -0.5310197 -0.073708184
000010 be e8 14 bf 33 0a a4 be e3 fa 27 3f 67 e8 7e 3d
       -0.58167636 -0.3203903 0.656172 0.062233355
000020 67 fe 1c bd 32 f3 79 bf 1a 6d b7 3b 7e d6 db bd
       -0.038328554 -0.9763671 0.0055977227 -0.107342705
000030 78 05 12 bf 7b a4 1b bd eb af 72 bf 37 c3 16 bf
       -0.57039595 -0.037998658 -0.9479968 -0.58891624
000040 78 75 a9 3c 42 96 55 be 82 ce f8 bd 0d da 74 bf
       0.020685896 -0.208581 -0.12148763 -0.9564522
000050 22 fc 8b be 66 54 ac be 5f 57 3f 3f 38 e1 25 bf
       -0.273408 -0.3365814 0.7474269 -0.6479678
000060 c3 be e1 bd 8c c9 6d bd 52 4b 52 3e 8a be 5c bd
       -0.11022713 -0.05805354 0.20536545 -0.05389265
000070 6b c9 3f bf a4 60 e2 be 6f b4 50 bf 93 dc 42 bf
       -0.74916714 -0.44214356 -0.8152532 -0.7611782
000080 88 ad 65 bf 93 18 9e bd b0 bb 9d be 91 ac 40 bf
       -0.8971791 -0.07719531 -0.30807257 -0.75263315
000090 f6 4c fe bd b8 24 a6 3d 8c b3 c2 be e9 c3 10 3f
       -0.12417023 0.08112472 -0.38027608 0.56548935
0000a0 bd 04 63 be c3 74 22 bf c3 a7 35 3e 99 81 58 bf
       -0.22169776 -0.63459414 0.17739777 -0.8457275
0000b0 f3 00 c8 3d c8 8a c5 be 15 37 2a bf c2 74 e0 3e
       0.09765806 -0.38582444 -0.664903 0.4383908
0000c0 d0 c7 b3 3e 52 4a 02 bf 26 ec 0b bf b0 a1 e7 be
       0.35113382 -0.50894654 -0.5465721 -0.45240545
0000d0 3a 74 88 be 75 7e 61 be 48 4a 03 bf 49 6f 53 3d
       -0.26651174 -0.22020896 -0.5128522 0.0516198
0000e0 d6 69 fb be 2c e6 dd be ca 17 e8 3a df e8 7d be
       -0.49104184 -0.4333967 0.0017707285 -0.24795865
0000f0 30 d3 2d 3e a4 dc 06 bf ba 05 8f bf ee 02 ca 3d
       0.16975093 -0.5268042 -1.1173623 0.0986384
000100 1f 26 cd 3e ba 28 c9 3e 55 75 61 bf 1d 0f 1e bf
       0.40068147 0.39288884 -0.8806966 -0.6174181
000110 1e 77 3c be 92 32 80 be 68 ea 81 bf 29 7d ed be
       -0.18404815 -0.25038582 -1.014966 -0.46384552
000120 f3 36 2b bf a1 f6 21 be 85 e5 05 3e 5a 5a 60 be
       -0.6688072 -0.15816738 0.13075836 -0.21909466
000130 a7 5f fa 3d 8a d4 e7 be 8c a4 3d bf 0e 90 5a bf
       0.122252755 -0.45279342 -0.74079204 -0.8537606
000140 6b 27 c0 be 85 4e a5 bf 18 83 af bd ed 6d ee be
       -0.37530074 -1.2914587 -0.08569926 -0.46568242
000150 ca 80 16 be 82 fa 87 bf e7 b1 55 bf 1f a9 3f bd
       -0.14697567 -1.0623324 -0.8347458 -0.046792146
000160 54 ca 03 bf 6a 47 39 3f 1b 4f 0a bf 3b 1e 2a bf
       -0.51480603 0.72374594 -0.54026955 -0.6645238
000170 85 fc 5b be 9d ee a5 bf 17 a3 9d bf 9e 47 88 be
       -0.21483047 -1.2963444 -1.2315396 -0.2661714
000180 1f 35 94 bf 01 ca dc be b0 87 f8 be e0 60 4f bf
       -1.1578711 -0.43122867 -0.4854102 -0.81007195
000190 81 c7 fc be e8 e2 d6 be b0 bc 58 3d df 80 d7 3d
       -0.4937096 -0.4196999 0.05291432 0.10522627
0001a0 e3 74 b6 be a5 08 08 3d b6 4c 88 3f 03 76 2a 3d
       -0.35636052 0.03321137 1.064841 0.04161645
0001b0 7e a0 40 bf 17 d9 93 bf c0 42 49 be 99 50 24 bf
       -0.7524489 -1.1550626 -0.1965437 -0.6418548
0001c0 ba 18 53 bc f9 33 00 bd 75 da 95 3d e2 c4 05 bf
       -0.012884313 -0.031299565 0.07317058 -0.52253544
0001d0 fc 45 69 3d 16 81 19 bf 8a d9 9e bf 6a ae cd be
       0.056951508 -0.59962595 -1.2410138 -0.4017213
0001e0 d6 8f 6f bd 0c b7 78 be 43 04 48 3d fe a5 f5 be
       -0.058486782 -0.24288577 0.04883219 -0.47978204
0001f0 9d 6f a0 bd 82 77 e6 3e be cd 4a be bd 1f 5a bf
       -0.078337885 0.45013052 -0.19805047 -0.8520468
000200 59 ab f8 bd 76 47 a8 bf 4a 8b 41 bf 8e 2a 2a bc
       -0.12142057 -1.3146808 -0.75603163 -0.010386122
000210 9a 38 bc 3e d5 fd 7c be ef af 75 bf 43 a2 02 bf
       0.36761934 -0.24706204 -0.9597158 -0.5102884
000220 3d 79 03 be 24 fb 9f 3f 05 49 ab bf dd 69 d5 bd
       -0.12839217 1.2498517 -1.3381659 -0.104205824
000230 9d 20 82 bf 6d eb c1 bd f6 b4 c0 bd 3a 23 97 be
       -1.0166203 -0.09468732 -0.094095156 -0.29519063
000240 22 47 23 3e 98 a6 e1 be 3b f6 73 3e 27 2d 9a bd
       0.15945104 -0.44072413 0.23824398 -0.075281434
000250 09 79 4f be f3 bb 0a bf fc 05 49 bf 65 70 cd be
       -0.20261015 -0.5419304 -0.78524756 -0.40124813
000260 c0 16 99 3e 90 2f 05 be 54 60 3f 3f 50 ce a8 bf
       0.2990017 -0.13006425 0.7475636 -1.3187962
000270 74 ea 31 bf 2b 8f 71 bf 8b 2f a3 3d c6 94 4f be
       -0.6949837 -0.9435908 0.079680525 -0.20271596
000280 23 20 9d bd 18 57 53 3e 99 92 39 bf ac 5f 31 3e
       -0.07672145 0.20638692 -0.72489315 0.17321652
000290 85 3d 21 bf ef 57 65 3d ef 18 e1 be 49 e3 1c bf
       -0.62984496 0.055992063 -0.43964335 -0.6128431
0002a0 53 ce 18 bf 9c 5f af bc 03 5e 4e bf cd a3 b7 bd
       -0.59689826 -0.021407895 -0.806122 -0.089667894
0002b0 f4 66 3f bf f0 7c 96 bf 7e 2b b3 bf f7 22 6b bf
       -0.7476647 -1.1756878 -1.3997648 -0.9185023
0002c0 82 21 b9 be e7 99 56 be a6 7e 02 bf 8b c7 9a 3e
       -0.36158377 -0.20957147 -0.509745 0.30230364
0002d0 e3 ea 22 bd 32 40 81 bf bd 30 94 bd 01 78 a9 be
       -0.039774787 -1.0097716 -0.072358586 -0.33099368
0002e0 a9 38 2c 3f e5 f3 22 bf 68 a6 75 bf 05 57 44 be
       0.67273957 -0.63653404 -0.9595704 -0.1917382
0002f0 75 f3 50 be 41 5c 42 be a1 cf 11 bf 9e bb a6 bf
       -0.20405371 -0.18980505 -0.5695744 -1.3026006
000300 95 5d 05 be 47 cd 77 bf 98 87 fc 3d c1 18 60 bd
       -0.1302398 -0.96797603 0.1233055 -0.054711107
000310 f7 07 4f be 87 53 a4 bf a2 c0 86 be 4c 42 92 be
       -0.20217882 -1.283799 -0.26318842 -0.28566206
000320 e2 57 04 bf 1f f0 73 bd 4c 4a 3e be 3d 1c 30 be
       -0.516966 -0.05955517 -0.1858303 -0.17198272
000330 47 4f 9a be 8a 33 24 bd c6 4e 0e bf 8b e9 49 bf
       -0.3013861 -0.040088214 -0.5558895 -0.78871983
000340 84 e4 a5 be 73 7b 30 3f af 28 98 3e 80 78 5a bf
       -0.32400906 0.6893837 0.2971854 -0.8534012
000350 5a ee 9b 3c 8b 5f 69 bf a7 dc 2d bf 6b d0 89 be
       0.019034553 -0.9116141 -0.67914814 -0.26916823
000360 b8 cb a5 bf 20 a6 1b 3e e4 f3 b7 bd 6c 0a 23 be
       -1.2952795 0.1520009 -0.08982065 -0.15921944
000370 e6 32 a2 3d 63 c3 5c be ac 2f 89 be 84 ea 27 be
       0.07919864 -0.21558909 -0.26794183 -0.16398054
000380 c6 72 05 3d 49 02 45 3e 42 7e aa be a5 02 9a bf
       0.03258016 0.19239153 -0.33299452 -1.2032057
000390 98 75 3f bf 99 b6 7e bf a7 b6 05 bf ff 61 97 bf
       -0.7478881 -0.9949737 -0.5223183 -1.1826781
0003a0 2f eb b6 be b8 92 a7 be e1 91 6d be 0c d5 5c bf
       -0.35726306 -0.32729125 -0.2320018 -0.86262584
0003b0 a4 dd fc be 92 c9 9f be 1c 7b c0 bf fe 38 9f bf
       -0.49387848 -0.31208473 -1.503757 -1.2439268
0003c0 c8 14 d6 bd e0 ab 03 bf 08 98 41 be e2 50 37 3f
       -0.104531825 -0.51434135 -0.18905652 0.7160779
0003d0 28 db 43 bf bf 2e 1c 3e 35 97 de bd 2c a9 22 bf
       -0.7650628 0.15252207 -0.10868684 -0.63539386
0003e0 ef fe 51 bf d7 cb 09 be c5 f6 94 be 50 b0 12 bf
       -0.8202962 -0.13456665 -0.2909452 -0.5730028
0003f0 ae 4c 90 bd f6 9d 56 be 1f 2f 9c be ff 59 42 bf
       -0.070458755 -0.20958695 -0.305047 -0.75918573

action_out.weight f4 [5, 256]
000000 a8 4b a5 3e e1 3f 83 bd 2a b0 cd 3e 6f ec 77 3e
       0.32284284 -0.06408668 0.40173465 0.24211286
000010 a4 c0 db 3d 8f 24 f2 bf 67 b1 b5 3f 59 0c 12 3f
       0.10730103 -1.8917407 1.4194764 0.5705009
000020 84 06 0b 40 c4 a6 1f c0 81 e5 0d 40 7e f9 0d 3f
       2.1722727 -2.4945536 2.2171328 0.5545882
000030 3a 48 dc bd 6e 82 9d 3c f4 d0 0d c0 c8 92 e0 3e
       -0.107559636 0.019227233 -2.2158785 0.43861985
000040 80 29 0d 40 c7 c6 82 3d a0 46 d7 3e bc ca 74 bf
       2.205658 0.0638557 0.4204607 -0.9562185
000050 21 03 09 40 38 a3 72 3f e5 b0 f0 3e 5f d7 33 3f
       2.140816 0.947803 0.4700996 0.70250505
000060 42 88 aa 3f 36 90 ef 3f 18 00 0f 3f 5a 4f 31 3f
       1.3322833 1.8715885 0.5585952 0.69261706
000070 c4 74 5a 3c d2 55 40 3f cd 63 0e 3f 3e af d7 3f
       0.013333503 0.7513095 0.55621034 1.6850355
000080 c3 34 60 3f 11 8c e8 3c 9c 92 fb 3e c6 26 41 40
       0.8758051 0.028387101 0.49135292 3.0179915
000090 d5 98 65 bd f9 44 83 3d 3d a0 2b 40 3d 1f 25 40
       -0.056053955 0.0640964 2.6816552 2.5800316
0000a0 ca 6c 81 3f 92 f6 77 3f ac 9f c0 3f 10 8e 6c 3f
       1.0111325 0.9686061 1.5048728 0.9240427
0000b0 a7 0d f6 3f 41 57 00 3f 34 a4 74 3e 7b ce c4 3f
       1.9222916 0.5013314 0.23890764 1.5375513
0000c0 c5 ea e6 3f fe 5d 86 3f f3 47 3c 3f 0c 9d 5a 3f
       1.8040396 1.0497434 0.73547286 0.85395885
0000d0 3b 62 32 bc ad f1 dc 3f e3 da 5a 40 8d da c5 bf
       -0.010887678 1.7261254 3.4196098 -1.5457321
0000e0 8b aa e5 3f 31 f4 42 3f b4 a0 84 3e 0c e0 53 3f
       1.794267 0.76153857 0.25903857 0.82763743
0000f0 24 ef ed 3f 1a 90 99 3f 0a 61 41 bf 3b 5c ca bf
       1.8588605 1.1997101 -0.75538695 -1.5809397
000100 33 11 8d 3f 89 6f 94 3f 47 ab ab 3f 65 6f 80 bc
       1.1020874 1.1596538 1.3411645 -0.015678117
000110 86 f7 22 3f 44 09 ce 3e 2d a1 02 be 94 00 c5 be
       0.6365894 0.40241444 -0.12756796 -0.38477004
000120 2d 4f 63 3f 10 4c f8 3e 24 1a 12 be b8 62 03 bf
       0.8879269 0.4849553 -0.14267784 -0.5132251
000130 66 86 15 40 f8 83 9c be c6 b6 b1 3f ee bc 75 3f
       2.336328 -0.30569434 1.3883903 0.9599141
000140 de 78 4f bf 51 55 8c 3f 18 b4 c9 3e 88 9a 3a 3f
       -0.81043804 1.0963537 0.39395213 0.72892046
000150 96 e9 b2 3e af 00 38 c0 98 be 0f 40 8b 44 3f bf
       0.34943837 -2.8750417 2.246008 -0.74713963
000160 97 8f 9a 3e 26 11 a9 3f 4e 91 74 3f ca c0 b1 3f
       0.30187675 1.3208358 0.9553422 1.388696
000170 29 55 59 bf 44 0f 06 be e9 da 0d 3f 35 b6 84 3e
       -0.8489557 -0.13091761 0.55412155 0.25920263
000180 d7 c6 0b 40 44 96 71 3f 15 f5 16 3f a1 d4 cc 3f
       2.1840112 0.9436991 0.58967716 1.6002389
000190 6f 7c 8a 3f 5e 47 19 40 57 a9 0d 40 50 00 47 40
       1.0819224 2.394981 2.2134607 3.109394
0001a0 b2 d7 95 3f 43 57 b7 bf 10 e1 f8 3f bd 7e b6 3f
       1.170645 -1.4323505 1.9443684 1.4257427
0001b0 c9 ed af 3f 1e 57 93 be ca ee b4 3e 39 37 24 40
       1.3744441 -0.28777403 0.35338432 2.5658705
0001c0 c0 58 ec 3f d5 08 bd 3f f8 e6 ba be c8 db 47 40
       1.8464584 1.476832 -0.3650434 3.1227894
0001d0 c9 03 96 3f 0b d8 9c 3f b2 b2 a5 bf f8 8a 69 3f
       1.1719905 1.2253431 -1.2945158 0.91227674
0001e0 e8 fc 8f 3c 1f f4 8a 3f 87 1d ad 3f f7 80 c9 3e
       0.01757665 1.085575 1.3524636 0.39356205
0001f0 e5 3d 82 3d 1c 0d 88 3e e3 7f c5 3e d9 cc 14 bf
       0.06359462 0.26572502 0.38574132 -0.5812507
000200 d3 1c fc 3f 70 2d 8a 40 1f f1 77 3f 06 e2 a2 bc
       1.9696296 4.3180466 0.96852297 -0.019883167
000210 f7 85 97 3f 8c fd 56 3f e4 fd 37 3f e5 1d f7 3f
       1.1837758 0.8398063 0.7187178 1.9305998
000220 18 13 b3 3f 0c 3d 97 3f c7 b2 66 3f 3f 8d 84 3e
       1.3990202 1.1815505 0.9011654 0.25889012
000230 e6 04 5d 40 54 1c f2 3e 6e e1 90 3f 10 4c 18 40
       3.453424 0.47287238 1.1318796 2.3796425
000240 3f f0 2c c0 4d 44 99 3f 56 33 6a 3f 26 24 44 bd
       -2.7021635 1.1973969 0.9148458 -0.047886036
000250 24 3a aa 3f 7b bc f2 3f 61 fa a5 bd fa 78 38 3f
       1.3298993 1.896377 -0.081043966 0.72059596
000260 b7 dc d9 3f e4 4d be 3e 4b 9a ce 3f e1 92 2a 3f
       1.7020482 0.371688 1.6140836 0.6663037
000270 8f 0a 85 bf a5 cf 01 40 95 58 81 be a4 8a e9 be
       -1.0393847 2.0282986 -0.25262895 -0.45613587
000280 35 35 54 3f e7 ab 7e 3f 92 4b 1a bf c4 3a 98 3e
       0.8289369 0.9948105 -0.6027156 0.29732335
000290 2a bb 3f 3f e9 58 fe bf e8 b6 94 3f af 4e 89 3f
       0.74894965 -1.9870883 1.1618319 1.0727137
0002a0 3f 8d 7f 3f 00 7e a0 3f e6 00 8d 3f 63 cb 9d bf
       0.998249 1.2538452 1.1015899 -1.2327694
0002b0 15 e9 14 3f 27 e2 9b 3f bb e4 32 40 9a 2d 13 40
       0.58168155 1.2178391 2.7952106 2.2996583
0002c0 69 87 df 3e fd d9 8e 3f ef 5e 70 3f b0 21 e4 3f
       0.43657997 1.1160275 0.9389486 1.7822781
0002d0 82 68 b1 ba 99 aa 2e 3f c8 09 a9 3f 7c 5a 90 3f
       -0.0013535174 0.6822906 1.320611 1.1277614
0002e0 b0 5d 01 3f 5e cd dc 3f 16 32 8c 3f 4e bd 96 be
       0.5053358 1.7250173 1.0952785 -0.29441303
0002f0 8b 90 76 3e 6f ae 44 40 f1 6e 7b 3e 02 10 56 40
       0.24078576 3.0731466 0.2455404 3.344727
000300 59 8c e4 3f e6 ea 33 bf 58 68 3a 3f 9e c1 8b bc
       1.7855331 -0.702803 0.72815466 -0.017060097
000310 a9 f2 81 bf a3 7a 48 bf 1f 5f 91 3f 3f 12 b7 bf
       -1.0152179 -0.7831213 1.1357154 -1.4302443
000320 73 e4 ea 3d ad d0 10 bd e3 d2 12 3e 43 bc c1 3f
       0.114693545 -0.03535526 0.1433826 1.5135578
000330 fe bd 46 bf 47 2f 3e bf 11 41 b3 3f b6 8d f1 3e
       -0.77633655 -0.7429089 1.4004232 0.4717843
000340 f7 7d 03 be 43 0d 67 3f 3f 7e 03 40 8c 6e 95 bf
       -0.1284102 0.9025461 2.0545805 -1.1674361
000350 05 e4 f6 bc bf d3 e6 3f 30 1b 1e 40 98 ad a4 bf
       -0.030138025 1.803337 2.4704094 -1.2865477
000360 5a 98 cf 3e 76 c4 8f 3f 9d 36 19 bd 94 81 c5 bd
       0.40545923 1.123183 -0.0374056 -0.09643856
000370 b1 39 85 3f ed 6c cd be 17 17 07 3f 1d ac 50 3e
       1.0408231 -0.40122166 0.5276961 0.20378156
000380 0a 64 bd bc d7 ef cd bf f9 33 1d 40 ab 98 90 3d
       -0.023118991 -1.6088818 2.4562972 0.07060369
000390 dd b4 84 3f d0 6b d3 3f 50 5d b9 3f 98 ed e1 3f
       1.0367695 1.6517277 1.4481602 1.7650633
0003a0 0e cf 83 3f 47 5f 57 3f 03 b4 8f 3f 4c 28 09 3f
       1.0297563 0.84129757 1.122681 0.53577113
0003b0 cc a4 3d 3f cf 97 43 3f 0f ef 89 3f cc 4f 94 3f
       0.74079585 0.76403517 1.077608 1.1586852
0003c0 79 e4 0e 3d f7 65 99 3f 18 bf c0 3e fd 57 29 3f
       0.034885857 1.1984242 0.37645793 0.66149884
0003d0 be 75 bb bf b9 68 f4 3f 49 17 95 3e 76 6b b4 3e
       -1.4645307 1.9094459 0.29119328 0.35238236
0003e0 09 07 b2 3f ab 08 6f 3d 34 6c 76 40 bf e8 88 3f
       1.3908397 0.058357876 3.8503542 1.0696028
0003f0 4a 0a 1e 3f 74 ea be 3d 8d 91 63 bf 0c 5c ce 3f
       0.6173445 0.09322062 -0.8889397 1.612184

action_out.bias f4 [5]
000000 da a3 c9 3f 53 09 4b 3f b4 fa 1a 40 cb e9 31 bf
       1.5753129 0.793111 2.4215517 -0.69497365
000010 d5 6d 2e be
       -0.17034085

weight f4 [256, 123]
000000 a4 e4 91 c0 e2 b7 05 bc 23 2f bb 3e 4f b4 1d bc
       -4.55916 -0.008161517 0.365594 -0.009625508
000010 3f 34 b4 3e 26 23 01 be a3 ba a0 3e d4 da 14 be
       0.3519611 -0.12611064 0.31392393 -0.14536601
000020 4f e2 c5 3f 87 cb 91 3d 8a 32 58 3d 42 be 8d be
       1.5459689 0.07118898 0.052782573 -0.27684218
000030 22 af 77 3e 02 0a 5d be 9b 43 f8 3e d3 aa 2a bf
       0.24187902 -0.21585849 0.4848908 -0.6666691
000040 7c a7 46 bf a8 4d 14 bf 0d a8 e8 bc ec 1b c3 be
       -0.7759931 -0.57930994 -0.028400445 -0.3810724
000050 4a a1 e6 3e 36 ec 07 c0 5b fe 67 3f 86 04 db 3f
       0.4504493 -2.1237922 0.9062249 1.7110755
000060 3f 0e 6a bf 3d 42 7c bc fa 03 cf bd e2 18 4e 3c
       -0.9142799 -0.015396652 -0.1010818 0.012579175
000070 a2 0b 7e bc 9e c9 0a 3c ba 63 54 3d e0 28 b7 3b
       -0.015505703 0.008470921 0.05185292 0.0055895895
000080 bc db 8a bc 50 4e 6d bc d8 84 d5 bc 2f ed 2a 3e
       -0.01695048 -0.014484003 -0.026064321 0.16692041
000090 f6 dc 93 c0 64 89 35 be dc 5b 4b 3e d3 79 1a be
       -4.620723 -0.17728192 0.1985926 -0.15085535
0000a0 6d c2 e8 3e 63 7e 25 be bd 66 90 3e 82 98 2b 3d
       0.45460835 -0.16161494 0.28203383 0.04189349
0000b0 d5 49 8e be b7 8e dd 3e 63 e9 a9 3d 74 e4 8d be
       -0.27790704 0.43272945 0.08296468 -0.27713358
0000c0 32 a8 6a 3e 28 a7 44 be 19 eb d9 3e c2 94 59 bf
       0.22915724 -0.1920439 0.42562178 -0.8499261
0000d0 44 7c 6f 3f 4c 43 eb 3c a5 ee 82 3d ba d6 fa be
       0.9354899 0.028718613 0.06393174 -0.48991948
0000e0 6e de f6 3e 1a 7d 04 c0 c8 d8 87 3f ca b9 f1 3f
       0.48216575 -2.0701356 1.0613031 1.8884823
0000f0 00 09 eb bf 9a d4 66 3e 36 67 7f be 98 d7 d0 3d
       -1.8362122 0.22542039 -0.24941716 0.10197371
000100 28 12 ef 3b f8 87 27 bd 0b 83 97 bc 4c e2 a4 bd
       0.0072958656 -0.040901154 -0.018495103 -0.08050975
000110 16 e1 5d bd 9c 71 c3 bb 61 15 9d 3d e3 54 44 be
       -0.054169737 -0.005964471 0.07670093 -0.19173007
000120 e8 34 91 c0 4c 72 c0 be 7c 5b 19 3f 36 f2 05 bd
       -4.5377083 -0.37587202 0.5990522 -0.032701693
000130 29 d4 e4 3e c7 3f 43 be 42 14 51 3e 8f 1d 79 be
       0.44693115 -0.19067298 0.20417884 -0.24327682
000140 54 72 c3 be f7 c6 2f 3c ca 44 74 3e 8a 02 4b be
       -0.38173163 0.010728589 0.23854366 -0.19825187
000150 62 c7 59 3e 50 62 60 be a7 48 be 3e 37 e2 ca be
       0.21267465 -0.21912503 0.37164804 -0.39625713
000160 ef d5 3c be e5 f7 8f bd 81 77 de 3d 8a 8d ca be
       -0.18440984 -0.07029704 0.10862637 -0.3956111
000170 3c a3 1a 3f 66 54 06 c0 06 a4 85 3f dd 18 66 40
       0.60405326 -2.0989013 1.0440681 3.5952675
000180 dc 17 0b c0 60 90 d5 bc 06 5b 1f 3d b4 91 ed 3d
       -2.1733313 -0.02606982 0.038905166 0.11600056
000190 51 a4 89 3c 3e 55 6b 3d d2 49 70 3d a7 22 9d bd
       0.016801985 0.05745434 0.05866415 -0.07672625
0001a0 e0 b4 f1 bb 70 ce f6 bb 52 d0 5f 3d dc d4 ea c0
       -0.0073762983 -0.0075319335 0.05464203 -7.338484
0001b0 2b 27 9d 3d 19 91 3e 3c cb 11 97 3c 30 e3 c2 bd
       0.07673486 0.011631274 0.018441102 -0.09515989
0001c0 99 9b b6 3d d1 8e 85 3d 71 8a c4 bc 52 fd 0b bc
       0.08916397 0.06521381 -0.023991795 -0.008544283
0001d0 5b 5f 82 bc 36 61 df bd 2a 32 d6 bd 11 76 86 3d
       -0.01591461 -0.109072134 -0.10458787 0.06565488
0001e0 c6 8c f6 3a 7c 6e c2 bd e9 d0 a0 3d 5b a2 20 bc
       0.0018810264 -0.094937295 0.078523465 -0.009804334
0001f0 09 cf 70 be c2 c1 1f 3d 4d 61 03 be b3 bc aa 3b
       -0.23516478 0.03900314 -0.12830086 0.005210483
000200 ed b5 fc bd af b5 a0 bd b4 4b 8f 3f fc aa cb 3f
       -0.12339387 -0.078471534 1.1194978 1.5911555
000210 1e b1 a5 bd 30 fa 15 3c 8e fb 8b be 27 a6 da 3e
       -0.08090423 0.009153888 -0.27340358 0.4270489
000220 f9 5b 34 c0 91 ee 5d 3f 1c ac e5 3f bf 15 95 bf
       -2.8181136 0.8669215 1.7943149 -1.1647261
000230 5b 4e 05 3f 59 93 20 bf 1a 56 fc be 3b 92 65 be
       0.52072686 -0.62724835 -0.4928444 -0.22419064
000240 9f f2 96 bf b8 a0 fd be 7f bc 27 be 6a 71 f1 3e
       -1.1792792 -0.4953668 -0.163805 0.4715684
000250 13 65 17 3f a7 b4 40 bd 01 2e d5 be fe a5 dd bc
       0.591386 -0.047047284 -0.4163666 -0.02705669
000260 b6 f1 1a 3d da 06 04 3e b4 f3 65 3d 07 f2 dd be
       0.03782817 0.12893239 0.056140617 -0.43348715
000270 b2 7f 7d 3d 95 00 81 3d 75 22 bb 3f 62 80 34 3d
       0.061889358 0.06298939 1.461989 0.044067748
000280 70 9e 3f be 0d 36 ae 3e a1 d1 05 be d7 68 27 bd
       -0.18712783 0.34025612 -0.13068248 -0.040871467
000290 fa 1c 05 be 78 75 3f be 04 a0 42 bf 10 35 95 3f
       -0.12999335 -0.18697155 -0.76025414 1.1656818
0002a0 53 95 15 bf ab 9a 36 3f 71 63 f8 bd e5 e6 bf 3e
       -0.58430976 0.71329755 -0.12128342 0.37480846
0002b0 95 7d 37 c0 2d c4 5e 3f eb c2 93 40 84 60 52 c0
       -2.86704 0.8701809 4.6175437 -3.2871408
0002c0 f0 d1 b2 3b ad 15 0a bd 62 32 dc be 4d de 57 be
       0.0054571554 -0.033712078 -0.4300719 -0.21080895
0002d0 b1 24 8a bf 61 b8 23 bf c8 bb d0 be c1 2d a4 3f
       -1.0792447 -0.63953215 -0.40768266 1.2826463
0002e0 8d ce 00 be f5 a9 63 3f 25 e8 e6 be 75 c4 66 3c
       -0.12578793 0.8893121 -0.45098987 0.014084925
0002f0 c5 cf 96 bd 62 21 be bc fa 34 8b 3d c5 2d b4 3d
       -0.07363848 -0.023209278 0.06797214 0.08797792
000300 29 2b fc be c2 9f 2e 3d ae f3 93 bf cd 0b 69 3c
       -0.4925168 0.042632826 -1.155874 0.014224005
000310 42 dd 16 bf eb 39 28 be 91 08 8d be 2e 75 06 bd
       -0.5893136 -0.16428344 -0.27545598 -0.032826595
000320 c2 e8 4c be 3c bf 71 bd 46 53 4a bf 90 50 81 3f
       -0.20010665 -0.059020266 -0.79033315 1.0102711
000330 fd 03 30 bf 42 db 84 bd 2e 60 38 be 09 e6 a4 3e
       -0.68756086 -0.064871326 -0.1800544 0.32206753
000340 a3 bc 37 c0 83 0f 5b 3f 2b 06 89 3f 5b 2f b8 bf
       -2.8708885 0.85570544 1.0705007 -1.4389452
000350 82 ae 39 3d c9 2a 7e bf 26 dc 0b bf d9 2f 48 be
       0.04533244 -0.99284035 -0.54632795 -0.19549502
000360 53 81 83 bf 4c c5 fa be 5d 19 85 3e 32 41 5c bf
       -1.0273842 -0.4897865 0.25995913 -0.8603698
000370 00 30 d2 3a 35 4a 9c 3d 49 58 dd be 60 d3 7c bd
       0.0016036034 0.07631341 -0.4323142 -0.06172502
000380 70 99 03 be 90 ad 96 3d 8e a5 89 bd be 62 33 3d
       -0.128515 0.07357323 -0.0672103 0.04379534
000390 17 94 87 3d 29 0b f3 be 5c cc 07 c0 d4 07 53 be
       0.06620043 -0.47469452 -2.121848 -0.20608455
0003a0 de 00 13 be 56 7e c5 bd 85 55 1a be 1c cb a3 3d
       -0.143558 -0.09643237 -0.15071686 0.079977244
0003b0 fd 77 b4 bc 9e aa 83 be f9 48 88 3d 19 5f f7 bd
       -0.022029871 -0.25716108 0.066545434 -0.12078685
0003c0 98 6c e2 bc e1 df 0b 3e e8 f8 e3 bd 88 e2 08 be
       -0.027639672 0.13659622 -0.111314595 -0.13367665
0003d0 35 36 64 ba 32 9e 2e be f2 57 50 bd 1b 06 da bc
       -0.0008705587 -0.17052534 -0.05086512 -0.02661424
0003e0 e8 0c 6e 3d ff 12 94 3d 09 5e 06 bc 01 30 46 bd
       0.058117777 0.07230186 -0.008201131 -0.048385624
0003f0 87 28 09 3d 6f c9 f7 bb 34 a8 9b 3d 62 7e 53 3d
       0.033485916 -0.0075618546 0.076004416 0.0516342

bias f4 [256]
000000 17 6b 51 3d ac d0 09 bf 44 d9 cd bd 20 4f 54 3e
       0.05112752 -0.53834033 -0.10051206 0.20733309
000010 fb 04 6e bd dc dd 37 3c 7c e0 3e be f0 97 87 3c
       -0.05811022 0.011222329 -0.18640321 0.016551942
000020 2e 46 9d be eb f5 d5 bd 18 fd 1b bd ec 26 47 bf
       -0.30717605 -0.10447296 -0.038083166 -0.77793765
000030 98 30 5c be 90 2f f0 3d 4c f4 d8 bd bc 51 9a bd
       -0.21502912 0.11727822 -0.10593471 -0.07535121
000040 cf bc d9 bc 91 67 f6 bd 47 fd 5d 3d fb 40 88 bd
       -0.026579289 -0.120314725 0.054196622 -0.06653019
000050 86 2f 25 bf ff a8 31 bf 19 29 a0 3d c2 7d 51 bb
       -0.6452564 -0.6939849 0.07820339 -0.0031965827
000060 ef 6b e0 bc 61 98 b3 bc cf 95 a9 bd 69 4b b9 3b
       -0.027395217 -0.021923246 -0.08280527 0.0056547415
000070 83 72 22 be e0 5b 3c 3f a3 0b be 3d a2 6a 95 bd
       -0.15863995 0.7357769 0.09279563 -0.07295729
000080 f7 39 c4 bc 7a 51 e7 bd 6e c3 05 bd d3 a7 8a bd
       -0.023953421 -0.11294837 -0.03265708 -0.06770291
000090 d4 5c 60 bf a7 07 e4 bd d2 6e d1 bd a3 f2 37 be
       -0.87641644 -0.11134272 -0.102262154 -0.17963652
0000a0 dd e3 1e 3d 25 8a ee bd a3 3d 27 3d 2f a0 9f 3b
       0.038791526 -0.11647443 0.040830266 0.0048713903
0000b0 e3 60 d6 be 49 bb 87 3d 46 08 5b be 93 3f 9b bd
       -0.41870794 0.06627519 -0.21389875 -0.07580485
0000c0 09 df be bc 69 49 72 bd 41 52 f0 3c 5f 79 f0 bc
       -0.02329971 -0.05915204 0.029336097 -0.02935475
0000d0 b3 88 f6 bd 96 e2 0b 3f 25 38 91 bd 5e a9 3e bf
       -0.12037792 0.5464262 -0.07090787 -0.74477184
0000e0 a7 1d 28 be 2e ee 18 bd 75 a4 fc bc fe 3b 30 bd
       -0.16417561 -0.03733652 -0.030840138 -0.043025963
0000f0 ef c7 9a 3d 62 7c cc bd 12 79 89 bd 09 41 31 bd
       0.075576656 -0.09984662 -0.067125455 -0.043274913
000100 ae 10 85 bd 58 44 73 bd c6 5b 07 bf 33 4c ce bd
       -0.06497322 -0.05939135 -0.5287441 -0.100731276
000110 29 38 16 3d 8d 6b ad bc 2f c2 94 3e 85 fa e3 bc
       0.036674652 -0.021169448 0.290544 -0.027829418
000120 a5 39 1f 3f f0 59 1b bd 54 94 44 3f a0 ba 18 3d
       0.62197334 -0.037927568 0.7678883 0.037287354
000130 0e 7c 45 3d 82 ff 04 bf 31 2e 2c 3d 0c 7f ba be
       0.04821401 -0.51952374 0.04203624 -0.36425054
000140 d7 99 02 3d 1d 35 c3 bd 50 0f 6b be 0e 42 74 bd
       0.031884994 -0.09531615 -0.2295506 -0.059633307
000150 75 6a 10 bc 9c a9 87 39 8c 50 44 bd 5f 66 7f bd
       -0.008814444 0.00025875575 -0.047928378 -0.062353488
000160 ef 78 93 bd 9f 25 63 3c 4d 6c fb bd 1b 58 98 3c
       -0.072008006 0.01386395 -0.12276516 0.0185967
000170 60 d8 d0 bd 9b 0b 81 bf c3 6f b1 3b 44 95 b6 bc
       -0.1019752 -1.0081667 0.0054149344 -0.022287972
000180 fd 37 bf 3b 55 3f f0 bd 19 e6 ee bd 7f 34 74 bf
       0.0058355317 -0.117308296 -0.116649814 -0.953926
000190 a7 f3 ed bd 40 68 5a bd 66 33 87 bd be 8a f9 bd
       -0.116187386 -0.053322077 -0.066016 -0.12184666
0001a0 1b 95 33 be 5d 2e 66 bf d6 75 3c bc e6 09 3d 3d
       -0.17537348 -0.89914495 -0.011502704 0.046152018
0001b0 bc 04 13 bc a3 ac 09 bc 41 33 81 bd ba 39 e6 bd
       -0.008973297 -0.008402976 -0.06308604 -0.11241479
0001c0 64 3b 93 bd 2a 7f a5 3e 75 8e 8b bd 01 31 6f bd
       -0.07189062 0.3232358 -0.06814281 -0.058396343
0001d0 eb 06 b9 bc b9 7a f5 3c 7c c5 b7 bd 8d 1a 01 bd
       -0.022586307 0.029965745 -0.08973214 -0.03151946
0001e0 39 90 8f bd 6f ef 04 be 91 19 b6 bd a3 21 b0 bc
       -0.0700993 -0.12981962 -0.08891595 -0.021500414
0001f0 6e 01 cf bd ef 51 3b 3e 9b 09 91 bd 67 5c 1c bb
       -0.101076946 0.18292974 -0.0708191 -0.0023858787
000200 f5 85 00 bd 86 28 86 bf b9 33 c1 be 43 0d e9 bd
       -0.03137775 -1.0481117 -0.37734774 -0.113794826
000210 cc 3b ae bd 8d 87 78 bf ee 7f 29 bd e5 81 12 bf
       -0.08507499 -0.97081834 -0.04138177 -0.57229453
000220 10 d0 1d bd ce 1d b0 bd b4 b5 bc bd cf 24 17 bf
       -0.038528502 -0.08599435 -0.092143446 -0.5904054
000230 48 83 4d bd 60 ce c2 bd bd 69 0b be 54 e6 06 be
       -0.050174028 -0.09512019 -0.13614555 -0.131738
000240 2a fb 3d bd 39 49 52 3e 34 86 cc bd 20 9d 67 3f
       -0.046382107 0.20535745 -0.09986535 0.9047413
000250 85 f5 a6 be 53 80 b8 bc 29 77 f0 3e 26 6b 64 bf
       -0.32609192 -0.022522127 0.46965912 -0.89225996
000260 2b 37 e9 bd a3 6c 51 be 15 fa 2e 3e 6b ac 4f bd
       -0.113874756 -0.20451598 0.17087586 -0.05070154
000270 5e 2d b1 bd cf bf f5 bd 8c c2 2f 3f bc 15 15 bd
       -0.08651231 -0.11999475 0.6865623 -0.03639768
000280 f4 b0 a8 bd 67 00 4b bd 1e 1d 57 bd 60 32 70 be
       -0.08236876 -0.04956093 -0.052518003 -0.23456717
000290 a9 d8 b4 be d9 63 0a be 17 14 cd bd 5b 1e 97 bd
       -0.3532155 -0.13514651 -0.100135975 -0.07378837
0002a0 37 a6 0a be b5 69 13 3d 1c 7e 00 3d d9 5f 97 bd
       -0.13539968 0.035989482 0.031370267 -0.07391328
0002b0 c8 1e 8f bd cc 43 36 bf a1 b5 89 bd 5b 98 e8 3c
       -0.06988293 -0.711972 -0.06724096 0.028392961
0002c0 b9 c5 b0 bd 28 2c 74 3d 6b a3 00 3d 65 d0 17 3e
       -0.086314626 0.059612423 0.031405848 0.1482559
0002d0 ca a0 98 bd 5e 98 0a be fa 74 51 bf 5f 08 dd be
       -0.07452543 -0.13534686 -0.8181912 -0.4317045
0002e0 4a c7 4e bd c3 3f ae bd f7 c8 81 bc 06 fe bf bd
       -0.050483026 -0.08508255 -0.015842898 -0.09374623
0002f0 55 af 26 bd 33 e2 7b 3b c3 ae 5d be 8c cb f6 bd
       -0.040694553 0.0038434386 -0.21648698 -0.12050542
000300 8a 7c e3 bc 2e ac 07 be 55 ef 22 3f fc b7 45 be
       -0.027769346 -0.13249275 0.6364644 -0.19308466
000310 88 84 00 bf b6 08 6c bd 74 b0 09 bc bb b2 68 bd
       -0.50202227 -0.057625495 -0.008403886 -0.056811076
000320 ff 69 1c bf 07 96 59 bd d7 b8 6b bf ab 1c 7a bd
       -0.6109924 -0.053121593 -0.9207892 -0.061062496
000330 21 d3 65 3d 8a 70 18 bd 0f db b2 bd 4e 44 50 bd
       0.05610955 -0.0372167 -0.08733188 -0.05084639
000340 72 1b bc be ff 86 d8 3c 93 22 2a bf c7 c1 42 be
       -0.3673969 0.026431559 -0.66459006 -0.19019233
000350 ec f8 88 be 59 f2 5f bf c6 bc 2d bf 03 b1 96 bf
       -0.26752412 -0.8747917 -0.6786617 -1.177277
000360 5e 17 04 be f2 b0 23 bd 16 e0 e3 bd bc d3 61 bd
       -0.12899539 -0.03996367 -0.111267254 -0.055133566
000370 4b 87 01 bd ef 5f 6e 3c 0b 79 99 bd c1 83 b5 bd
       -0.031623166 0.01454924 -0.0749379 -0.08863021
000380 4b e4 74 bc 0b 10 01 be c0 7f 38 bd 4f 89 22 bc
       -0.014947007 -0.12603776 -0.045043707 -0.009920432
000390 8f ad 3a bd 1e 0e ef b9 f9 0e 97 bd 04 c3 83 bd
       -0.045575675 -0.0004559615 -0.07375903 -0.06433681
0003a0 5e ec f0 3e d4 ce b7 be 98 fa 0c be 99 ce 6e bf
       0.47055334 -0.35899985 -0.13767469 -0.93283993
0003b0 ec 87 85 be 33 3a 81 3d a8 8f 57 3b 3d ca 4c 3f
       -0.26080263 0.06309929 0.0032892022 0.7999609
0003c0 3e 52 b2 bc 8c 37 c7 bd b1 c2 10 bd 79 6c a1 bd
       -0.021767732 -0.097273916 -0.035341922 -0.07882018
0003d0 42 f7 8a 3c 6c e8 37 3c d0 88 01 be 56 e9 1a bf
       0.016963605 0.011224847 -0.12649846 -0.6051229
0003e0 19 32 7c bd 89 9b 49 bf 23 11 91 ba e6 87 97 bd
       -0.061571214 -0.7875295 -0.0011067729 -0.073989674
0003f0 4a d8 22 3d 31 49 a7 bd b7 08 41 3d 4e b4 98 bd
       0.03975705 -0.08168257 0.04712745 -0.074562654
