saved_models_1/125_12234_model.pt (torch, 701697 bytes, 11 tensors)

FC1.weight f4 [256, 36]
000000 ea 5f 1b 3f 43 2a 90 3e e3 c8 82 3e 43 fa 92 bf
       0.6069323 0.28157243 0.2554389 -1.1482624
000010 00 73 c9 3f f9 b3 b6 3f 64 13 95 bf bd 71 34 c0
       1.573822 1.4273673 -1.1646543 -2.819442
000020 74 c9 1c 40 28 46 1f 40 2e 7d 3f c0 22 65 88 be
       2.4497957 2.488657 -2.9920154 -0.26639658
000030 13 17 57 bf 78 36 9f 3e a0 2c a2 3f 37 b5 5f 3e
       -0.84019583 0.31096244 1.2669868 0.21846472
000040 1e 0f 1a c0 90 ef 9f 3f 00 2c e8 3f 6e 3a a3 3e
       -2.4071727 1.2494984 1.8138428 0.31880516
000050 b3 d5 03 40 59 66 6e 3f 1c 9a cb bf 05 45 5e bf
       2.0599182 0.9312492 -1.5906405 -0.86824065
000060 94 6b 56 40 1b 42 5f 3f 0b 83 3f c0 ec cc d6 be
       3.350316 0.87210244 -2.9923732 -0.41953218
000070 da 5c 0f bd 98 89 07 3f 8f fb 60 bf 6d 38 49 be
       -0.03500066 0.52944326 -0.8788385 -0.19650431
000080 63 89 91 c0 50 63 8b 3e 19 ec e3 3e 5d cc bb c0
       -4.548021 0.27224207 0.44516066 -5.8686967
000090 c3 dd a0 bf 31 6c 2f 3e 54 7c 1f bd c3 25 a2 3e
       -1.2567676 0.17131115 -0.038936928 0.31669435
0000a0 c0 99 bb bf 8c cc 0e 3e 94 20 cb 3f 89 f3 b7 3e
       -1.4656296 0.13945216 1.5869317 0.3592799
0000b0 7c ef 20 c0 9f 28 83 bd 9e 09 3b 40 0d 94 28 bf
       -2.514617 -0.06404232 2.922462 -0.6585091
0000c0 03 0d 90 bf a1 34 87 be a0 f8 75 3f 72 cc 08 3f
       -1.1253971 -0.2640734 0.96082497 0.5343696
0000d0 e5 c6 c5 bf ba fa 71 3f e7 67 21 40 0c 82 d4 3e
       -1.5451323 0.94523203 2.5219667 0.41505468
0000e0 87 34 4b bd 6e 8f 25 bb f0 a2 d8 be 58 39 25 3f
       -0.04961064 -0.0025262493 -0.4231181 0.64540625
0000f0 d2 1b 05 40 df d0 bc 3e e7 d3 37 bf 0b cc 65 be
       2.079823 0.36878106 -0.7180771 -0.22441117
000100 f9 92 a9 be a8 cb a7 3e 37 9f 82 be d2 39 92 3e
       -0.33119944 0.32772565 -0.25512096 0.28559738
000110 43 6b a2 c0 b1 f3 e3 bf 0a c8 f6 3f 0d d7 2b bf
       -5.0755935 -1.7808744 1.9279797 -0.67125016
000120 61 c9 2a be 1c f8 81 3f 0f 0a 67 bf 6d e2 71 3f
       -0.16678382 1.0153842 -0.90249723 0.94486123
000130 57 d6 43 bf a4 3b d0 3f e6 7d 5e c0 e9 bb 0c c0
       -0.7649893 1.6268201 -3.4764342 -2.1989691
000140 4c 30 2c 40 54 cf c7 bf 66 ca 06 bf 39 36 58 3d
       2.6904478 -1.5610147 -0.52652586 0.052786086
000150 7d f3 86 bf 43 53 58 3f d2 04 c8 bf 41 a8 32 bd
       -1.0543057 0.8450205 -1.5626471 -0.04361749
000160 8f f9 61 3f 83 7d 36 40 45 9b 10 bf 7f 08 b7 3f
       0.8827142 2.8514106 -0.5648692 1.4299468
000170 3f 27 ce bf 9a 2f b9 3f 49 5e d8 be 50 60 84 3d
       -1.6105727 1.4467652 -0.42259434 0.06463683
000180 c9 88 32 bf 22 d1 08 bf e8 46 bb 3f 44 21 c0 bf
       -0.6973997 -0.5344411 1.4631014 -1.5010152
000190 f1 8d b9 bf 86 1c e2 be d1 35 9a bd 38 8c da 3d
       -1.4496442 -0.44162387 -0.07529796 0.10671276
0001a0 aa 20 97 3e 6f c9 b2 bf 52 c8 e2 c0 ef 58 6f c0
       0.29517108 -1.3967723 -7.086953 -3.739803
0001b0 9a 13 16 c1 74 32 8a 3f 4c ab 33 3e 34 61 18 be
       -9.379786 1.0796647 0.17545813 -0.1488083
0001c0 1c 10 b1 bf 78 dc e3 be 0c 5a 1c 3d 67 42 2d 3f
       -1.3833041 -0.44504142 0.038171813 0.67679447
0001d0 13 b0 9f bf 30 3a 93 3e 69 7f d1 3f 1e 37 8b 3f
       -1.2475609 0.2875533 1.6367007 1.0876195
0001e0 2a fd 8e bf ea ac 3c bf be 9f a5 3e a5 7b 9a 3f
       -1.117101 -0.73701346 0.32348436 1.2068983
0001f0 83 f9 d6 bf 5c 90 b5 bf 1a a6 00 40 3e 94 c6 3c
       -1.6794895 -1.418468 2.010138 0.02424061
000200 e9 1a 92 bf 18 ca 45 3f ac fa aa 3f 1b 78 e6 bd
       -1.1414462 0.77261496 1.3357749 -0.11253377
000210 6e 92 3d c0 8e a1 fb 3f 56 df 57 40 b9 22 2b 3f
       -2.9620624 1.9658678 3.3730063 0.6684986
000220 36 7a af c0 a4 b5 1e 40 11 5c 3b 3f 4b a5 d5 c0
       -5.4836683 2.4798365 0.7318736 -6.6764274
000230 fb 53 31 c0 71 13 fd bf 0a 66 5a bf 57 30 a3 c0
       -2.7707508 -1.9771558 -0.8531195 -5.099651
000240 30 1c 21 c0 1a e1 43 bf f8 57 d6 bd 49 65 90 bf
       -2.5173454 -0.7651535 -0.104659975 -1.128091
000250 8f 07 ae 3f 69 70 55 be 44 94 be bf ef d7 b3 bf
       1.3596057 -0.20843662 -1.4888997 -1.4050273
000260 74 4a 9a 40 b4 b5 97 3f 47 48 91 c0 9b 0f 1e bf
       4.8215885 1.1852326 -4.540073 -0.6174256
000270 de f4 9c 3f a7 57 a0 3e 51 f4 fe bf 87 30 c5 bf
       1.2262228 0.31316873 -1.991831 -1.5405434
000280 a6 75 76 40 ff 1a f4 be 44 3c 3f c0 8e 49 b6 3e
       3.8509307 -0.47676846 -2.9880533 0.35602993
000290 13 57 6b 3d e3 59 06 c0 6c eb c9 be de 8e 19 40
       0.057456087 -2.0992362 -0.39437425 2.399345
0002a0 eb b3 cc 3e 6c 60 0c c0 be 06 b3 3e 67 d6 44 bd
       0.39981017 -2.1933851 0.3496608 -0.048056033
0002b0 bf 87 f9 3e 4c b0 60 3f 76 ce b1 3e 2d e9 1c 3f
       0.4873638 0.8776901 0.3472783 0.612933
0002c0 94 1e 3c 3f 9a 94 92 3f 30 d7 dd c0 31 f7 5a c0
       0.7348416 1.14516 -6.932518 -3.4213374
0002d0 e2 ba 74 c0 ec 06 10 bf 5d 0d 89 be 9c 1f d8 3e
       -3.8239064 -0.5626056 -0.26768008 0.42211616
0002e0 de 77 a5 3e f2 61 38 3f c8 69 01 c0 a5 e8 43 c0
       0.32318014 0.7202445 -2.0220814 -3.0610745
0002f0 ac 43 f8 3f db 22 b7 bf 6f 17 c1 be d9 39 7c bf
       1.9395652 -1.4307512 -0.3771319 -0.9852577
000300 52 61 94 bf 56 4f a9 bc 2e 35 e1 bf c2 42 9c bf
       -1.15922 -0.020667713 -1.7594354 -1.2207873
000310 88 2d 0c 40 a1 9b e2 be c3 45 aa 3f a7 7f 7a bf
       2.190279 -0.4425936 1.330254 -0.9785103
000320 93 6b 7d bf a0 9c 19 bf 7d ac e7 3e e3 f5 09 bd
       -0.9899227 -0.60004616 0.45248786 -0.03368176
000330 e3 98 21 c0 5b c1 e4 3e e9 27 ea 3d 66 93 78 3f
       -2.5249565 0.4467877 0.114333935 0.9709991
000340 8b 16 33 3f 8c ac de c0 76 05 dd c0 0c 95 07 c0
       0.6995627 -6.958563 -6.9069166 -2.118472
000350 25 f2 7c 3f 30 92 79 bf 55 af 82 c0 e8 3a fa c0
       0.98806983 -0.9748869 -4.083903 -7.8196907
000360 16 01 ec be 67 37 d9 3e 89 41 4f 3d f7 19 f5 bd
       -0.46094579 0.4242508 0.05059961 -0.11967843
000370 78 1f 0f 3f 72 2c a1 3e aa 52 4b 3f ff 0d 33 bf
       0.5590739 0.31479222 0.7942301 -0.6994323
000380 74 70 0a bf 11 a6 c4 3f 62 4f 7f 3e 5f 25 f2 3f
       -0.5407784 1.536318 0.24932626 1.8917655
000390 8d 13 15 bf a6 9e 8d bf ed ad 86 3f 10 b7 12 40
       -0.5823296 -1.1064041 1.0521828 2.2924232
0003a0 53 ac da bf 09 fe 24 c0 d2 23 93 3f 51 4f 84 3f
       -1.7083839 -2.578005 1.1495306 1.0336705
0003b0 7c 16 2e 3f 9a c7 ae bf 5d d0 21 bf 7e e2 12 40
       0.6800306 -1.3654664 -0.6320856 2.295074
0003c0 5a 7b 4f 3f f6 d2 91 bf 09 5b 7a bf cc 80 fc 3e
       0.81047595 -1.1392505 -0.9779516 0.49317014
0003d0 d4 9d 2f 3e b9 06 8a 3e 73 35 32 bf 8c cf 17 bf
       0.1715005 0.26958254 -0.6961281 -0.59301066
0003e0 91 f0 b0 3f ce 9c 5a c0 47 31 16 bc 2b bd 7b bf
       1.3823415 -3.4158206 -0.009167022 -0.9833552
0003f0 63 f0 46 3e 2a a2 76 3b b7 f9 89 be 73 7a a9 bf
       0.19427638 0.0037633278 -0.2694833 -1.3240494

FC1.bias f4 [256]
000000 af 9f 07 bf bb 74 06 bf da b3 bd bf b9 df 2e 3f
       -0.5297803 -0.52521867 -1.4820511 0.68310124
000010 f3 99 10 bd f6 47 5f 3f 66 ac 95 3e bf 79 cf 3e
       -0.035303067 0.8721918 0.29233092 0.40522572
000020 64 78 eb be 11 f2 a6 bf ec c0 27 3c e5 d8 60 be
       -0.45990288 -1.3042623 0.010238867 -0.21957739
000030 e5 75 b3 bf d3 18 27 3f 20 d9 f0 be b3 f2 18 be
       -1.4020354 0.65272254 -0.47040653 -0.14936332
000040 ac a5 4f bf e1 23 1a c0 c3 4f bf 3f be 02 cb 3e
       -0.8111217 -2.4084399 1.4946216 0.3965053
000050 0d 11 88 bd 1b 23 52 bf 9f b4 ca 3f 3d 88 c5 be
       -0.06643877 -0.82084817 1.5836371 -0.38580504
000060 4a 3b a3 be 54 51 cb 3d 41 f4 40 bf e5 61 a5 3e
       -0.3188117 0.099276215 -0.753727 0.3230125
000070 fc e5 5c bf 86 10 30 be 8e 97 81 bf 76 b2 11 bf
       -0.8628843 -0.17193803 -1.0124376 -0.56912935
000080 d3 12 c6 bf 51 7f 2d bf b0 c1 8c bf 7e a3 59 3f
       -1.5474495 -0.67772394 -1.0996609 0.85015094
000090 9a a5 06 bf e5 a5 75 bf 8c 64 2c bf 69 e3 bc bd
       -0.5259644 -0.9595626 -0.6734092 -0.092230625
0000a0 39 bd a9 be fb 61 cc be 1d 1a d5 bd 78 a2 b6 bf
       -0.33152178 -0.39918503 -0.10405371 -1.4268332
0000b0 96 32 04 3e 5b 53 fd bd fb 84 94 bf f7 5c ab be
       0.12909922 -0.123694144 -1.1603082 -0.33469364
0000c0 be b1 89 3f ec 1b c4 be 79 03 d0 3f ff 4b 48 be
       1.0757368 -0.38302553 1.625106 -0.1956024
0000d0 c3 de 96 bf 42 3a 13 be ae ec 5b 3e 65 a8 a4 bf
       -1.1786731 -0.14377692 0.21477005 -1.286389
0000e0 c8 aa 78 3e 63 21 f1 be 34 81 5b 3e 68 23 1a 3f
       0.24283898 -0.47095785 0.21436006 0.60210276
0000f0 98 c4 75 be d1 87 07 bf f1 27 56 3d 79 2d 7d 3f
       -0.24000776 -0.52941614 0.052284185 0.9889751
000100 37 56 dc 3e 52 99 89 bf a5 2a 09 bf b1 8e 10 be
       0.43034527 -1.0749915 -0.53580695 -0.14116932
000110 a3 64 dd be 16 d3 ac bd 7e 69 67 be 92 03 ac be
       -0.43240842 -0.08438699 -0.22598836 -0.33596474
000120 09 eb a4 3f e2 9b 4e 40 44 42 15 bc dc a9 a0 bd
       1.2884227 3.2282643 -0.009110037 -0.07844898
000130 8d 26 ff be 68 e0 6c be 49 4c b4 3f 69 8b 50 3f
       -0.498341 -0.23132479 1.408578 0.81462723
000140 b3 8f 48 bf a9 a4 69 bf a9 b9 ab 3e e8 9f 83 bd
       -0.7834427 -0.91266876 0.33540085 -0.06426984
000150 96 ca 0a bf a4 6f ed bd 39 ac b1 be cb 6b 83 3f
       -0.5421537 -0.115935594 -0.34701708 1.0267271
000160 65 65 08 c0 ac 90 1a 3f 9d 01 fc 3c 62 14 2a bf
       -2.1311886 0.60377 0.030762488 -0.6643735
000170 e7 17 0c be 65 ff da 3f 39 58 6f bf 1a 21 5a be
       -0.13680993 1.710919 -0.9349399 -0.2130169
000180 14 60 a6 bf 51 9e f3 3d 8d 98 19 c0 3f c1 14 c0
       -1.2998071 0.11895431 -2.399936 -2.3242948
000190 9b 09 9f 3e c1 05 ed 3e 4f 14 40 bf 29 45 c7 bf
       0.31062016 0.46293452 -0.7503099 -1.5567981
0001a0 71 a4 04 be 9b 06 d7 bd a0 b0 44 be 39 04 3b bd
       -0.12953354 -0.10499307 -0.19208002 -0.045658324
0001b0 e5 23 97 3e 66 5c 0d 3e 94 1a bf be ec 85 98 bf
       0.29519573 0.13804778 -0.37324965 -1.191587
0001c0 01 9d 3a be 6e cc 3c be 48 3d 21 be 2b d7 09 3f
       -0.18223955 -0.18437359 -0.15746033 0.53843945
0001d0 f7 96 63 bf 65 39 0a bf e7 2c ef be 15 2c 01 bf
       -0.8890223 -0.5399383 -0.46713945 -0.5045789
0001e0 7a 22 5e bf 2e ba d3 bf 2e 6a 82 3d 83 c9 ef 3e
       -0.8677136 -1.6541193 0.063679084 0.4683343
0001f0 57 97 09 c0 b2 51 83 bf a3 ee c8 bf a4 a9 83 bf
       -2.149862 -1.0259306 -1.5697826 -1.0286145
000200 49 e3 4a be 0f 7b 6f 3d 92 4f 13 3e 56 8a 84 3f
       -0.19813265 0.058466967 0.14385822 1.0354717
000210 94 b1 99 3e be ba 2e 3e 41 eb 54 bf 38 ce c7 bf
       0.30018294 0.17063424 -0.8317147 -1.5609808
000220 bb e1 d8 be e7 1a 96 be be 26 94 be a6 09 5a bf
       -0.4235972 -0.293174 -0.28935808 -0.8517097
000230 78 c1 6d be 4b 1a ab 3e 11 21 88 bf 49 20 73 3e
       -0.23218334 0.33418497 -1.0635091 0.23742785
000240 ac 5b bf be 04 55 67 bf 8d 24 a8 be 20 c0 a3 40
       -0.37374628 -0.903641 -0.32840386 5.1172028
000250 e2 f7 59 be b5 34 f8 be 1a 72 c5 3f 1b 4b cc bc
       -0.21285966 -0.48477712 1.5425446 -0.024938157
000260 29 a6 0d bf 4b 31 3b be b6 94 f4 3f d9 aa 1e be
       -0.55331665 -0.18280523 1.9107883 -0.1549486
000270 b4 41 e3 be 3f 55 02 3e e3 eb 2f 3f 44 1d aa 3e
       -0.44386065 0.12727831 0.6871931 0.33225453
000280 6f ed 3b bf 01 a2 e6 3f 63 95 01 40 3c c6 0d 3d
       -0.7340917 1.801819 2.0247428 0.03461288
000290 ab e9 f7 3d 14 7a 57 ba a2 88 10 bf 84 70 48 bf
       0.121051155 -0.000821979 -0.56458485 -0.78296685
0002a0 a6 b2 e8 3e 14 df 3a 3e 16 7d 7c bf 9c 39 1a bf
       0.45448798 0.1824916 -0.98628366 -0.60244155
0002b0 44 27 4d 3f 50 40 2a bf 35 95 c9 3e 5c b2 1a bf
       0.8013804 -0.66504383 0.39371648 -0.60428405
0002c0 cd 77 5b bf 7f be f7 3e 9e 36 aa bf 4e f2 b8 bf
       -0.85729676 0.48387524 -1.3297918 -1.4448946
0002d0 30 18 c5 3e 57 a8 ed 3e 1d ae cc bf 36 42 27 bf
       0.38495016 0.46417496 -1.5990635 -0.65335405
0002e0 c6 ad b5 3f 19 f9 80 3e f2 f6 12 3f 04 90 89 be
       1.4193656 0.25190046 0.5740806 -0.26867688
0002f0 b6 0e 60 bc 00 09 ef bf 6a cb ea be 98 91 14 be
       -0.013675382 -1.8674622 -0.45858318 -0.14508665
000300 15 8a 45 3f 11 e9 bc 3e 3e 35 c2 3f 40 50 85 3f
       0.7716382 0.36896566 1.5172498 1.0415115
000310 cb 24 7f be 84 33 b4 bc e4 91 66 3f c5 50 0f 3f
       -0.24916379 -0.02199722 0.9006636 0.5598262
000320 df 29 a0 bf 57 1c f4 be 62 c4 43 bd 5c c4 93 bf
       -1.2512778 -0.47677872 -0.047794707 -1.1544299
000330 06 4c 7a be 7e c0 cb 3b d5 95 bd 3f bd 1c 9f be
       -0.24443063 0.006218015 1.481135 -0.31076613
000340 ce 93 8b 3e d6 05 bb 3e 62 d8 86 bf 2e 32 3e 3f
       0.27261204 0.3652789 -1.0534785 0.7429532
000350 29 e2 9e bf a0 dd a7 bf 4e e1 2d bf ed e6 cf be
       -1.2412769 -1.311451 -0.6792191 -0.4060587
000360 12 ba bd be 8d fa 05 bf 45 eb 02 3f b2 b0 82 3f
       -0.37056023 -0.52335435 0.5114024 1.0210173
000370 b7 47 be be aa 93 d0 be ec 6a ac bd 91 aa e5 3f
       -0.3716409 -0.4073766 -0.08418831 1.7942678
000380 fb af d0 be 19 21 ad be dd 79 e2 bf 74 0b d5 bf
       -0.40759262 -0.33814314 -1.769344 -1.664412
000390 0c 91 06 bf bc 4e 63 bf e5 7a d3 3f 6a be 3c bf
       -0.52565074 -0.88792014 1.652188 -0.7372805
0003a0 24 02 6d bf 94 a7 71 bf 11 7f 9c bf a2 c6 7f 3f
       -0.9258139 -0.9439633 -1.2226278 0.99912465
0003b0 cf 94 9d bf 13 d8 25 3f d8 45 70 3f a1 09 2a bf
       -1.2311038 0.6478283 0.93856573 -0.6642094
0003c0 f4 d7 8d be 1e 68 5a bf d4 ba 22 bf e4 7e c8 3e
       -0.27703822 -0.8531512 -0.6356633 0.3915931
0003d0 3b 04 77 3f e0 23 50 be 40 05 17 bf 35 6b 3a bd
       0.9649083 -0.20326185 -0.58992386 -0.045512397
0003e0 f0 ae 77 be 8b 2b 35 3e 71 6c 58 be 51 4f e9 be
       -0.24187827 0.17692392 -0.21135117 -0.45568326
0003f0 5e af fb 3d b5 c9 0f 40 d6 f2 94 bf b4 d7 3a bf
       0.12289308 2.2466862 -1.1636608 -0.72985387

FC2.weight f4 [256, 256]
000000 de c1 54 3e 68 2f 38 c0 07 bd e3 be ed ea a6 be
       0.2077708 -2.8778934 -0.44480154 -0.3260111
000010 bc e7 c3 3f 2d f1 e2 3e f0 2e c7 be 56 f8 5e c0
       1.5305095 0.44324628 -0.38902998 -3.4839072
000020 dc 37 43 c0 2e 86 e2 3f 76 0f 04 bc 65 43 40 3f
       -3.0502844 1.7697198 -0.008060327 0.75102836
000030 f1 93 45 c0 98 7e 88 bf fa 06 bd 3f 6c ab af 3f
       -3.0871546 -1.0663633 1.4767754 1.3724189
000040 5e ab f4 bf ab b1 2b 40 3b 71 8d c0 e0 fa 6b 3e
       -1.9114797 2.682719 -4.420072 0.2304492
000050 12 40 1f 3d 38 d7 36 40 13 30 0e c1 20 e3 0e c0
       0.03887946 2.856886 -8.886737 -2.2326126
000060 6f 14 cd 3d 65 6d e9 c0 89 68 6f bf d0 9a 10 c0
       0.10013663 -7.294604 -0.93518883 -2.259449
000070 98 bc bb 3f ae b6 49 40 35 d4 15 40 6d 39 b3 bd
       1.4666929 3.151775 2.341077 -0.087511875
000080 75 fa 34 c0 3e 5d 6d bf d0 79 83 bd 1a aa cf 3f
       -2.8277867 -0.927204 -0.06419718 1.6223786
000090 ae 31 b9 bf 94 b4 d7 3f 9a 68 97 3d 2e 13 71 40
       -1.4468286 1.6851983 0.07392998 3.7667956
0000a0 45 1e 44 3d d6 49 71 3d 1f fb 1a c0 8f 77 01 bf
       0.04788043 0.058908306 -2.4215772 -0.50573057
0000b0 13 80 0d 40 1e 54 0f be 33 8b 53 be 59 0a a9 be
       2.210942 -0.13996932 -0.20658569 -0.33015707
0000c0 14 03 16 bf b6 be 53 3e 81 94 95 bf 58 b8 94 bc
       -0.58598447 0.20678219 -1.1685945 -0.018154308
0000d0 61 a4 09 3e bc e8 3c c0 30 8c 11 c0 74 70 26 c0
       0.13441612 -2.951705 -2.2741814 -2.6006136
0000e0 db 0c a2 be a4 22 c6 3f 2f b5 77 c0 51 1d b5 3e
       -0.31650433 1.5479321 -3.8704336 0.3537393
0000f0 e8 42 b3 3e 15 5a 82 bf 3a ae dd bd 51 ef 9d 3f
       0.35011983 -1.0183741 -0.10824247 1.2338659
000100 3f 96 5d 3e f5 74 76 40 d3 78 21 3f 3e a4 23 bd
       0.21639346 3.8508885 0.6307499 -0.039951555
000110 ab 3f bb bf 3d 4d 94 bd a3 82 34 bf 0e 08 41 be
       -1.4628805 -0.072412945 -0.70511836 -0.18850729
000120 12 b3 30 3f 1e f6 32 bf 34 8e b7 3e 57 38 1b 3f
       0.6902324 -0.69906795 0.3585068 0.6063284
000130 67 8f 81 c0 9b 37 9e bd 26 ca 3b c0 30 72 16 40
       -4.048755 -0.0772545 -2.9342132 2.3507195
000140 1f a2 3c 3f ba 73 bf bf 8b 60 20 3f 46 b7 a4 3f
       0.7368488 -1.4957192 0.6264731 1.2868431
000150 c1 3c 73 bf 2c 7e a1 3f ab 1b d6 3f aa 81 75 bf
       -0.9501458 1.261663 1.6727194 -0.95900977
000160 b6 93 9f 3f f1 9d 16 3f fa 76 5a bc 69 01 b9 3e
       1.2466953 0.5883475 -0.01333403 0.36133888
000170 43 e0 68 bf df ee 01 bd 17 de 2c 3f e6 f6 a9 3f
       -0.90967196 -0.031721946 0.6752638 1.3278472
000180 b5 e8 d4 3f b8 83 a5 bf 4e 50 c6 3f 88 7d a4 c0
       1.6633517 -1.2930822 1.5493257 -5.1403236
000190 5a 3a e9 bf 53 16 11 3f 6b 24 7a bf f0 05 a2 3e
       -1.8220932 0.5667469 -0.9771182 0.31645155
0001a0 f2 4f 28 3c e0 a2 5d 3f cd 8b b0 3f 94 54 91 3f
       0.010272967 0.8657665 1.3792664 1.1353936
0001b0 ae ad fc bd d7 3b f6 c0 c3 ee 9c 3e 12 8e 13 bd
       -0.12337814 -7.6948047 0.3065091 -0.03602416
0001c0 55 1d 08 c0 c7 4f a2 be 0d f0 25 40 8d 6e 99 c0
       -2.1267903 -0.3170149 2.5927765 -4.794745
0001d0 72 8a 0a 40 77 d4 be 3f 6e f0 20 bf ba 2d 65 be
       2.1647 1.4908589 -0.62866867 -0.22380725
0001e0 a5 aa 41 3d 41 d5 0f c0 a6 97 2d bf 0e 2c 80 bf
       0.04728188 -2.247391 -0.6780952 -1.0013444
0001f0 35 11 06 c0 7e cd 8d 3e 7e bd 24 40 69 00 a0 3f
       -2.0948002 0.2769584 2.5740657 1.2500125
000200 08 60 eb 3f e3 ae 3d 3f 8b 1c b6 3f ec b8 be 3f
       1.8388681 0.7409498 1.4227461 1.4900184
000210 4e e4 ae 3f f2 0f f2 be 42 53 bb bf c0 7b 7f 3f
       1.3663423 -0.4727779 -1.4634783 0.997982
000220 25 a7 10 c0 88 d2 cb bf 2f 2b 51 c0 6d 88 9a bd
       -2.2602017 -1.5923624 -3.2682607 -0.075455524
000230 3e 22 b2 bc d8 a0 d3 bf 2c dc 20 40 f0 44 f2 be
       -0.021744844 -1.6533461 2.5134382 -0.4731822
000240 40 aa a3 bf 19 1c 2a c0 1d 66 64 3e 8d ef 33 3f
       -1.2786331 -2.657965 0.22304578 0.702874
000250 5a 80 8d bd 7d 5a 2e 40 a9 74 5b be 6d 0a 82 bf
       -0.06909247 2.724273 -0.21431221 -1.0159432
000260 d4 a1 d9 bf 73 ae e1 be 5b a8 02 c0 d2 46 15 bd
       -1.7002511 -0.44078407 -2.0415256 -0.036444493
000270 3c 55 a6 bf 6f 06 69 40 6c e7 2d 3f 8a 35 df bf
       -1.2994761 3.6410177 0.67931247 -1.7438214
000280 f2 cd 95 3f 59 35 1b bf 40 71 71 3e 92 c8 fc 3c
       1.1703475 -0.6062828 0.23578358 0.030857358
000290 12 5a a6 bf 4d 83 f8 3e 59 2e ec 3e 88 be d0 bf
       -1.2996237 0.48537675 0.4612911 -1.6308146
0002a0 a4 0e 9c 3f b4 0a 71 c0 64 6e 1d 40 18 10 6e bf
       1.2191968 -3.7662783 2.4598627 -0.9299331
0002b0 45 9c c8 be 95 9d a4 bf 1d 5e 04 c0 e1 bb 8a c0
       -0.39181724 -1.286059 -2.0682442 -4.3354344
0002c0 5b 59 29 bf 0a ee 17 c0 64 d8 a5 be 2f b6 66 be
       -0.6615197 -2.3739038 -0.32391655 -0.22530435
0002d0 37 cc 9e 3f 3c ac e3 bd 91 5f 43 bf 2f 0d ff 3f
       1.2406071 -0.111168355 -0.763177 1.9925898
0002e0 7a 89 c2 bd 47 63 40 3f 44 d5 5f 3f bb 37 9f bf
       -0.09498878 0.75151485 0.8743479 -1.2438883
0002f0 c7 cf ab bd f0 58 24 c0 00 39 0b 40 92 92 35 3e
       -0.0838924 -2.5679283 2.175354 0.17731693
000300 68 af 10 be 99 13 99 3f 05 5d 93 c0 a2 39 6e ba
       -0.14129412 1.1959106 -4.605105 -0.00090875675
000310 5a f7 96 3e b3 4a d8 3e 45 38 93 3e fa 0a 1d c0
       0.2948559 0.4224449 0.28753868 -2.453795
000320 f5 69 21 3f 19 d0 24 c0 88 75 53 bc 81 99 b8 c0
       0.630523 -2.5752013 -0.01290644 -5.7687383
000330 43 03 6e bf 6f fe 23 c0 35 00 dd bf aa df c9 be
       -0.92973727 -2.5624044 -1.7265688 -0.39428455
000340 0d 2c a4 be 21 63 77 c0 f6 ca 20 3e b2 bb bd be
       -0.32064858 -3.8654253 0.15702423 -0.37057263
000350 5b f8 cb be c8 5c 2c c0 2c a7 90 bf 86 ed 75 3f
       -0.39837918 -2.693163 -1.1301017 0.96065557
000360 81 06 da bc 2b 14 ad 3e b7 f8 ad c0 e6 70 ac 3e
       -0.02661443 0.3380445 -5.4366107 0.33679885
000370 0d 5e 10 c0 87 05 03 c0 d1 7d ad 3f 82 9d fa 3f
       -2.2557404 -2.0472124 1.3554021 1.9579318
000380 d3 92 4a 40 5b 92 36 bf a7 19 b8 3e 17 ec a6 3f
       3.1652114 -0.7131707 0.3595707 1.3040799
000390 84 c2 44 c0 33 de 9e 3c 0f 96 4d bf e2 80 cd bf
       -3.0743723 0.019393062 -0.80307096 -1.6054957
0003a0 7d ee d5 3f e0 b9 9e c0 c8 72 18 40 6c a1 a9 bf
       1.6713406 -4.96019 2.3820057 -1.3252387
0003b0 2c d6 b7 c0 35 39 f7 3f 76 20 12 3f de 84 3f 3f
       -5.744894 1.9314333 0.5708078 0.74812114
0003c0 8d 25 35 3f 2e b3 aa c0 57 a1 20 3f 56 8e 35 40
       0.7076042 -5.3343725 0.62746185 2.8368125
0003d0 2d be f0 3f b5 b2 d9 3e b5 4a 6a 3f a9 19 69 3f
       1.8808037 0.42519155 0.91520244 0.9105478
0003e0 3d dc 5a c0 22 2a 84 3f ff ba f2 be 18 5d 3c 3f
       -3.4196923 1.0325358 -0.47408292 0.7357955
0003f0 41 72 a7 c0 a5 6d 1f be d7 0a 91 bf 11 3e 82 bf
       -5.232697 -0.1556917 -1.1331433 -1.0175191

FC2.bias f4 [256]
000000 c1 7f ee be 68 31 a3 bd 87 75 a6 bf 3b 97 08 bf
       -0.46581843 -0.07968408 -1.3004616 -0.5335576
000010 26 3b 03 c0 13 1e b8 bf af fb 03 bf 13 65 67 be
       -2.0504851 -1.4384178 -0.51555914 -0.2259715
000020 49 23 ab bf a9 4c d6 bf aa ef b4 bf 7e d6 db bd
       -1.3370143 -1.6742145 -1.413564 -0.107342705
000030 27 64 10 c0 32 d3 81 bd 31 a9 16 c0 ab 99 9c bf
       -2.2561128 -0.063391104 -2.3540766 -1.2234396
000040 fe 4e 84 bf 43 64 5d be 82 ce f8 bd 2c b8 1b c0
       -1.0336607 -0.21620278 -0.12148763 -2.433116
000050 5a ab c1 bf 79 86 b3 be 8f 1e 4c 3f e7 a6 d1 bf
       -1.5130417 -0.35063532 0.7973413 -1.637906
000060 2b ba 73 3d 34 00 34 be 52 4b 52 3e 8a be 5c bd
       0.059503715 -0.17578202 0.20536545 -0.05389265
000070 09 23 b3 bf 0d 9b 8a bf 1b 43 2c c0 d8 6e a1 bf
       -1.3995067 -1.0828568 -2.6915958 -1.2611952
000080 5e 28 f6 bf b1 7f cb bd cb d3 10 bf 47 aa aa bf
       -1.9231069 -0.099364646 -0.5657317 -1.3333215
000090 f6 4c fe bd a0 d0 53 bf 9d d1 1b c0 ac 76 84 3f
       -0.12417023 -0.8274021 -2.4346688 1.0348716
0000a0 c7 8c bd bd 4b 40 2d c0 da d4 84 3f 37 27 40 bf
       -0.09255367 -2.7070491 1.0377457 -0.7505984
0000b0 56 02 eb be e5 89 f1 bf 2d 15 ba bf 21 20 28 3f
       -0.4590022 -1.8870207 -1.4537712 0.65674025
0000c0 b0 e6 9c bd d3 30 19 c0 8c 3d e4 be f5 ff 8d bf
       -0.07661188 -2.393605 -0.44578207 -1.1093737
0000d0 9c 21 d2 be a0 17 d3 be 60 0c d2 bf bc 69 48 bd
       -0.41041267 -0.41228962 -1.6410027 -0.04892896
0000e0 d6 69 fb be 2c e6 dd be 12 7b a3 bf df e8 7d be
       -0.49104184 -0.4333967 -1.2771933 -0.24795865
0000f0 86 f0 aa be ab 78 94 be e5 7d a5 bf af 04 25 bd
       -0.3338663 -0.28998312 -1.2929045 -0.04028767
000100 f4 7b 3b 3f b5 75 55 bf 20 11 17 be 35 e6 54 be
       0.7323601 -0.8338273 -0.14752626 -0.20790942
000110 4c d6 d3 be 97 af ec bd 91 d9 88 bf 16 3b 54 bf
       -0.41374433 -0.115569286 -1.0691396 -0.8290266
000120 65 b5 ef bd 05 9d 79 bf d4 d7 e3 3d d7 bc f7 3d
       -0.1170452 -0.9750522 0.1112515 0.12096565
000130 c1 c4 14 c0 af e7 f1 be c3 4e 67 bf 68 9f 5c bf
       -2.324509 -0.47247073 -0.90354556 -0.86180735
000140 72 75 d1 be 2a 04 d7 bf 18 83 af bd 19 00 19 be
       -0.40909916 -1.6798146 -0.08569926 -0.14941444
000150 ca 80 16 be 50 c8 59 c0 7f 0d 93 bf 79 b4 ef bc
       -0.14697567 -3.402851 -1.1488494 -0.02926086
000160 2b 3f 16 bf f6 7b de 3f c7 25 c4 bf f2 15 51 bf
       -0.58690137 1.738158 -1.5324029 -0.8167411
000170 28 7c 3d bf 59 7f 0e c0 d5 dc c7 bf 9e 47 88 be
       -0.7401757 -2.2265227 -1.5614268 -0.2661714
000180 77 fc 8d bf c2 de c8 bf a7 34 e8 bf 6f 8c 15 c0
       -1.1092671 -1.569298 -1.8141068 -2.3366964
000190 d3 b2 80 bf 81 aa d3 bf 3a ad 8b be bd 0a 99 bf
       -1.0054573 -1.6536409 -0.272806 -1.1956402
0001a0 d8 08 8a bf f1 45 93 bf 77 af cc 3f 78 f3 41 3e
       -1.0783949 -1.150572 1.5991048 0.18940532
0001b0 29 92 f3 bf 52 ca 5b 3d c0 42 49 be a1 68 12 3f
       -1.902898 0.053659745 -0.1965437 0.571909
0001c0 84 17 6b 3e 53 46 c4 3e 9c a1 d0 bd dc 3f ca bf
       0.22958189 0.38334903 -0.101870745 -1.5800738
0001d0 e4 b8 a9 bf bd a7 82 bf 5e 66 ee bf 82 cd 7f bf
       -1.3259549 -1.020744 -1.862499 -0.99922955
0001e0 d6 8f 6f bd be 57 94 bf 36 fb d4 3e ad e9 47 bf
       -0.058486782 -1.1589277 0.4159791 -0.78090936
0001f0 9d 6f a0 bd 94 52 38 be be cd 4a be 01 fc 60 be
       -0.078337885 -0.18000251 -0.19805047 -0.21971132
000200 d6 94 3e bf 1f 5c d8 bf 9d d7 12 c0 f0 b4 26 bd
       -0.74445856 -1.6903113 -2.29441 -0.0406999
000210 fb 88 1c bf af c7 89 bf 4d cb ac bf 4f 03 b3 bf
       -0.61146516 -1.0764064 -1.3499542 -1.3985385
000220 3d 79 03 be dc 42 9d 3f ca 43 24 c0 dd 69 d5 bd
       -0.12839217 1.2286029 -2.5666375 -0.104205824
000230 fd 29 ab bf 6d eb c1 bd 80 c4 98 3e fa c7 ec be
       -1.3372189 -0.09468732 0.29837418 -0.4624632
000240 c8 41 77 bf 59 02 04 bf a8 a0 b9 bf 0d 3e e3 be
       -0.9658475 -0.5156608 -1.4502153 -0.44383278
000250 72 1b 70 bf ab 64 29 c0 6c 68 f3 bf 5e 8b 3c bf
       -0.9379188 -2.6467693 -1.9016242 -0.7365016
000260 cf fa d0 3e 90 2f 05 be 29 60 0f 3f ca 3e 41 c0
       0.40816352 -0.13006425 0.56006104 -3.0194573
000270 8e b3 e7 bf a6 e2 ed bf ce c4 33 3e 39 96 8f be
       -1.8101671 -1.8584793 0.17555544 -0.28044298
000280 2f fb 17 bf 5f 57 1d 3f 27 69 09 c0 7d 5a a9 3f
       -0.5936765 0.6146144 -2.147043 1.323074
000290 48 66 24 bf 8e 60 70 bf 6b 5c f6 be fc 7f c0 bf
       -0.6421857 -0.9389733 -0.48117384 -1.5039058
0002a0 c5 35 14 bf 17 a7 87 bf 4e 68 f6 bf ec ed a7 bf
       -0.57894546 -1.0597867 -1.9250581 -1.3119483
0002b0 dd fc c3 bf d7 ad 0b c0 ae 09 f0 bf 69 ed 54 c0
       -1.5311543 -2.1824853 -1.8752954 -3.3269904
0002c0 ee 5e 93 bf 1b cc 9d bf 12 83 a1 bf a3 4b 4f 3f
       -1.1513345 -1.2327913 -1.2618124 0.8097479
0002d0 91 54 43 bd 60 16 c3 bf 0d 21 01 bf 2f 72 26 bf
       -0.04768807 -1.5241203 -0.50441056 -0.6501798
0002e0 b4 1b f1 3f 6f af d1 bf 8f 15 03 c0 ab c9 9b 3e
       1.8836579 -1.6381663 -2.0481908 0.30427298
0002f0 75 f3 50 be ca fb 0f bf ef d7 03 c0 f6 dc 0f c0
       -0.20405371 -0.56243575 -2.0600545 -2.2478614
000300 39 18 b3 3e 96 4f 8b bf 1c 56 09 bf c1 18 60 bd
       0.34979418 -1.0883663 -0.5364702 -0.054711107
000310 e9 3e 9c bf f1 2f e4 bf 25 f5 4f bd 88 55 16 c0
       -1.2206699 -1.782713 -0.050770897 -2.3489704
000320 85 bc 04 bf 1f f0 73 bd c9 f6 55 be 73 b2 14 c0
       -0.5185016 -0.05955517 -0.20894922 -2.3233917
000330 32 39 77 bf f0 bb 26 3e 7e f8 03 c0 50 d6 f9 bf
       -0.9657165 0.1628263 -2.0620418 -1.9518528
000340 84 e4 a5 be e7 e6 8d 3f 8f d6 ab bf 31 b5 75 bf
       -0.32400906 1.1086091 -1.3424853 -0.959796
000350 dd 38 1a 3f f7 c2 b0 bf 57 69 a5 bf 78 1e 14 c0
       0.60243016 -1.3809499 -1.2922772 -2.3143597
000360 3f 88 81 c0 78 c5 dc 3e 01 2f f5 bd a4 e2 58 c0
       -4.0478816 0.43119407 -0.11971856 -3.388833
000370 e8 43 ec bf c4 51 23 bf 34 c9 ae bf 84 ea 27 be
       -1.8458223 -0.6379664 -1.3655152 -0.16398054
000380 c6 72 05 3d b4 d2 a3 3d c0 1a b5 bf 1b 1f c8 bf
       0.03258016 0.07999173 -1.4148788 -1.5634493
000390 62 24 e3 bf de eb 08 c0 5b 4a 5b 3e 23 50 a1 bf
       -1.7745478 -2.1393962 0.21415083 -1.2602581
0003a0 2f b6 c9 be 1e 2d bb be 77 bd 6f 3e 04 3f 3d bf
       -0.39396808 -0.3655786 0.23412119 -0.7392428
0003b0 6f e2 f8 bf fa d1 be bf ec d8 08 c0 64 52 b6 bf
       -1.9444102 -1.490783 -2.1382399 -1.4243894
0003c0 c8 14 d6 bd fa a8 a8 bf 3c 8b d8 bf af eb e5 3e
       -0.104531825 -1.3176568 -1.6917491 0.44906375
0003d0 79 7d 17 c0 74 bb 5a be 35 97 de bd e9 64 85 bf
       -2.3670332 -0.2136057 -0.10868684 -1.042142
0003e0 23 07 05 c0 d7 cb 09 be 08 0e da bf 65 b9 2a bf
       -2.0785606 -0.13456665 -1.7035532 -0.6668914
0003f0 ae 4c 90 bd f6 9d 56 be a4 66 51 b9 71 8e c6 be
       -0.070458755 -0.20958695 -0.0001997003 -0.3878055

action_out.weight f4 [5, 256]
000000 2f 19 d9 3f e1 3f 83 bd 78 5f 3a 40 50 39 c3 3f
       1.696081 -0.06408668 2.912077 1.5251865
000010 e6 2f d5 ba 1a b0 51 c0 5b d9 98 bf 2d b4 8e 3f
       -0.0016264885 -3.2763734 -1.1941332 1.1148735
000020 d8 4b 44 bf 06 60 f9 be 5a 00 3a 40 7e f9 0d 3f
       -0.7667823 -0.48706073 2.9062715 0.5545882
000030 5f bb 28 c0 85 3f 23 bc 1f 3d 05 40 88 a7 54 be
       -2.6364362 -0.009963875 2.0818555 -0.20767033
000040 e2 9a 56 40 c7 c6 82 3d a0 46 d7 3e c3 98 e4 3f
       3.3532033 0.0638557 0.4204607 1.7859119
000050 91 fe 6a bf 2d b7 98 3f 97 74 cd 3f 84 5c 59 40
       -0.9179469 1.1930901 1.6051205 3.3962717
000060 55 9d 70 3f 36 90 ef 3f 18 00 0f 3f 5a 4f 31 3f
       0.9399007 1.8715885 0.5585952 0.69261706
000070 fe 88 a8 3f e0 61 81 3e 90 ab e4 3e 92 4c a4 3f
       1.3166807 0.25269985 0.44662142 1.2835867
000080 c9 13 99 3f 77 39 ed 3c 4a dd 05 40 fc 93 25 40
       1.1959163 0.028958065 2.0916314 2.5871572
000090 d5 98 65 bd c6 44 ce 3e 52 1d 9d 40 c5 d9 47 40
       -0.056053955 0.40286845 4.909829 3.1226666
0000a0 e1 78 26 40 32 be 46 bd a9 54 ce 3f 35 1d e5 3f
       2.6011279 -0.048521228 1.6119586 1.7899538
0000b0 ca dc dc 3f 0a d4 d5 be 58 d1 7a 3f 65 57 94 3f
       1.725488 -0.41763335 0.97975683 1.1589171
0000c0 bc 3f 15 40 e5 c9 70 3e 8c 5d f5 3f 10 39 ed 3f
       2.332015 0.23514517 1.9169173 1.8533039
0000d0 09 b3 bf 3f 21 09 14 40 b1 47 9d 40 4d ac 48 3f
       1.4976512 2.3130572 4.9150014 0.7838791
0000e0 8b aa e5 3f 31 f4 42 3f 9e 70 f0 3f 0c e0 53 3f
       1.794267 0.76153857 1.8784368 0.82763743
0000f0 2f 6a db 3f 11 87 20 40 e0 6a 62 3f f0 36 83 3f
       1.714178 2.5082438 0.8844433 1.025114
000100 c2 e6 55 40 8c ec 4b bf 56 0a 0d 40 10 02 73 3f
       3.3422093 -0.79657817 2.2037559 0.9492502
000110 1d ab 1e 40 eb 43 c0 3f 35 68 19 40 fc a4 e4 3e
       2.479194 1.5020727 2.3969853 0.44657123
000120 9d 42 16 40 6a 58 04 bf 9f 41 60 be e1 73 3d 40
       2.3478158 -0.5169741 -0.21900032 2.9601977
000130 b1 9b 3a 40 e7 78 76 be ea 13 93 bf 42 6b c1 3f
       2.9157526 -0.24069558 -1.1490452 1.5110857
000140 de 78 4f bf b7 53 c1 3f 18 b4 c9 3e 0a 5e a5 3f
       -0.81043804 1.5103673 0.39395213 1.2919323
000150 96 e9 b2 3e a9 4e 3a c0 a8 0c 43 40 db 72 90 3f
       0.34943837 -2.911051 3.0476475 1.1285051
000160 97 8f 9a 3e 64 4c 34 40 06 d3 ac 3f 49 65 b3 3f
       0.30187675 2.8171625 1.3501899 1.4015285
000170 93 5a 05 40 dd 62 09 3f db 50 d5 3f 35 b6 84 3e
       2.0836532 0.5366648 1.66653 0.25920263
000180 00 68 1f 40 6d 40 f8 3f f4 06 8d bd f8 27 19 40
       2.4907227 1.9394661 -0.06886092 2.3930645
000190 06 54 a8 be bc e2 51 3f 4f 06 d7 3f cf de 20 40
       -0.32876605 0.81986594 1.67988 2.5135992
0001a0 a3 dc b5 3f e0 26 60 3f 24 6e db 3f c6 90 3e 40
       1.4207958 0.8755932 1.7142987 2.9775863
0001b0 7e ab f3 3e b2 0b e3 3f ca ee b4 3e 42 73 95 3f
       0.47591776 1.7737944 0.35338432 1.1675799
0001c0 67 64 f5 3e 42 a2 af 3f 84 d8 d7 3f f1 c9 ab 3f
       0.47928163 1.3721392 1.686295 1.3421003
0001d0 99 67 46 3f 6d c3 18 40 51 7d 42 bf 32 e2 be 3f
       0.7750183 2.3869278 -0.7597247 1.4912779
0001e0 e8 fc 8f 3c c2 8f c0 3f dd d6 02 40 e1 71 ec 3f
       0.01757665 1.5043871 2.0443642 1.8472253
0001f0 e5 3d 82 3d 88 9c 01 40 e3 7f c5 3e 91 8e 37 3f
       0.06359462 2.025179 0.38574132 0.71701914
000200 dd 6a 87 40 76 1f c9 3f fa 45 03 c0 1f d7 a1 bc
       4.231795 1.5712726 -2.051146 -0.019755898
000210 8b 6a 18 40 ae 6f fb 3d 91 1c 13 c0 73 99 76 3f
       2.3815029 0.122771606 -2.2986186 0.96327895
000220 18 13 b3 3f c0 bb dd 3f 89 9b 02 40 3f 8d 84 3e
       1.3990202 1.7322922 2.040743 0.25889012
000230 31 ca 6a bf 54 1c f2 3e 00 22 e7 3f d1 45 19 40
       -0.9171477 0.47287238 1.8057251 2.3948863
000240 db fd 93 c0 28 ab 39 40 93 b6 aa be 9f b3 97 3f
       -4.624738 2.9010715 -0.33342418 1.1851691
000250 c2 bd cc 3f d7 00 29 40 b2 0b 67 be 1c 02 a6 bf
       1.599541 2.6406763 -0.22563055 -1.2969394
000260 67 bb 2f 40 e4 4d be 3e a5 55 da 3f 9b c8 9e 3f
       2.7458131 0.371688 1.7057387 1.240497
000270 96 f4 0d bf 7a 48 35 40 bb a7 04 40 e2 df ff be
       -0.55451334 2.8325486 2.0727375 -0.49975497
000280 bf 63 a7 3f 57 a0 f3 3f 5d 7b 2f 40 36 07 ac 3f
       1.3077315 1.9033307 2.7419045 1.3439701
000290 e1 a9 56 3d 73 cf 36 bf 57 56 bb 3f 41 23 b3 3f
       0.052408103 -0.7141029 1.4635724 1.3995134
0002a0 6a 4d f5 3f f1 28 7d 3f b2 e0 3e bf 08 84 3a 40
       1.916425 0.98890597 -0.7456161 2.9143085
0002b0 d2 4a 79 3f 46 ab c8 bf 2e 4a 71 bf ba d7 56 3d
       0.9737979 -1.5677269 -0.94253814 0.052451827
0002c0 10 b7 33 40 4f b0 1a 40 f0 69 cc bf f2 20 ce 3f
       2.8080482 2.417011 -1.596983 1.6103804
0002d0 de 0d a1 ba d7 bb 28 bf 4e 18 25 40 08 f4 d3 3f
       -0.0012287458 -0.6591162 2.5796084 1.6558847
0002e0 95 a1 4a 40 64 45 06 40 c4 d5 3c 3f c7 7e 31 40
       3.1661122 2.0979853 0.7376368 2.7733629
0002f0 8b 90 76 3e 06 8c 27 40 ad 51 83 bf 94 52 16 3f
       0.24078576 2.6179214 -1.02593 0.58719754
000300 ce 9a 06 40 e6 ea 33 bf b3 98 d4 3f 9e c1 8b bc
       2.1031985 -0.702803 1.66091 -0.017060097
000310 c7 3c a8 c0 f5 d5 d8 3e 22 b4 f3 3f 08 5b 69 c0
       -5.257419 0.42350736 1.9039347 -3.646181
000320 16 57 08 40 ad d0 10 bd e3 d2 12 3e d2 87 3c 3f
       2.1303153 -0.03535526 0.1433826 0.73644745
000330 6e 3a 2b c0 c9 b9 f8 3f ff 0d 5f c0 1a 2b 0d 40
       -2.6754413 1.9431697 -3.4852293 2.2057557
000340 f7 7d 03 be 4f db 09 40 9e ff aa be f9 d4 01 40
       -0.1284102 2.1540105 -0.33398145 2.0286238
000350 2b 18 f9 3e 09 90 36 40 0f 60 19 40 d8 fe 86 bf
       0.4865125 2.8525412 2.396488 -1.0546522
000360 63 f9 f2 be 7b 19 eb 3f 9d 36 19 bd ae b1 1f c0
       -0.47455892 1.8367151 -0.0374056 -2.4952197
000370 7a ea 35 c0 a8 08 36 3f 46 1f 8e 3f 1d ac 50 3e
       -2.8424363 0.7110696 1.1103294 0.20378156
000380 0a 64 bd bc 9b 9e 4c bf 4f 6a 14 be d5 75 75 3f
       -0.023118991 -0.7992951 -0.14493679 0.9588292
000390 a5 fd 6c 3e 20 90 d3 3f b7 13 4c 40 aa e0 27 40
       0.23143633 1.6528358 3.1887033 2.6230874
0003a0 e2 9e 04 40 3d 97 ca 3f cd 5a b9 3f c0 fc c4 3f
       2.0721974 1.5827404 1.4480835 1.5389633
0003b0 58 91 f3 3f e3 73 94 3e f8 96 ad be ae 1d d8 3f
       1.902873 0.28994665 -0.33904243 1.6884058
0003c0 79 e4 0e 3d dd 0a e0 3f 84 e5 14 c0 b7 45 91 3e
       0.034885857 1.7503315 -2.3265085 0.283735
0003d0 a7 b3 80 bf f1 1c 53 3e 49 17 95 3e 86 a6 ea 3f
       -1.0054826 0.20616509 0.29119328 1.8332069
0003e0 f8 72 44 3d ab 08 6f 3d 47 ad 34 40 ce d0 ec 3f
       0.047961205 0.058357876 2.823076 1.8501222
0003f0 4a 0a 1e 3f 74 ea be 3d 56 2b 21 40 46 b7 0c 40
       0.6173445 0.09322062 2.51827 2.1986861

action_out.bias f4 [5]
000000 b3 d5 fd 3f b6 16 3b c0 eb 73 bb 40 9e 43 fd 3f
       1.9830841 -2.9232612 5.8579 1.978626
000010 ba 3d ec 3f
       1.8456337

weight f4 [256, 123]
000000 0b ac 40 c1 44 cd 94 be 52 8d e1 bd 24 8d 95 be
       -12.042003 -0.29062855 -0.11013283 -0.29209244
000010 c8 78 fd bd cf ab a1 be 99 d7 93 be cb 39 fd bc
       -0.12376553 -0.31576392 -0.28875425 -0.030911347
000020 2e be bf 3f 87 cb 91 3d 8a 32 58 3d 6d ea 7c 3d
       1.4979913 0.07118898 0.052782573 0.061747003
000030 f9 d4 23 3e e9 f3 fa bc 12 db 28 be 08 75 ed bf
       0.15999211 -0.030633884 -0.16489819 -1.855134
000040 d1 c3 fb be fb 1d 87 bf 7e 8b 5e bf 48 c9 9b be
       -0.49172834 -1.0556024 -0.869316 -0.30427003
000050 02 55 3f be 48 bc 84 bf 66 90 cd 3d 52 ff 6a 3f
       -0.18684772 -1.0369959 0.100373074 0.9179584
000060 0b 50 7f bf f4 e3 a0 bf 02 fd 61 bc 02 d8 bf bf
       -0.9973151 -1.2569566 -0.013793232 -1.4987795
000070 3a 54 1b 3d 30 c4 52 be 1f e1 7a bd fd af 98 be
       0.03792212 -0.20582652 -0.06124985 -0.29821768
000080 da 9f c3 bf 50 4e 6d bc d8 84 d5 bc 68 37 1f bf
       -1.5283158 -0.014484003 -0.026064321 -0.6219392
000090 35 a8 41 c1 e4 2d 25 3e 9f 00 ef 3d 2d dc dd be
       -12.103566 0.16130787 0.1167004 -0.43332043
0000a0 7b 08 ad bc a1 d9 b3 be 85 2b a4 be e0 b8 97 3f
       -0.021122208 -0.35126975 -0.32064453 1.1853294
0000b0 2d 23 2d 3e 3a b6 68 3f 05 83 6c 3f 6d b8 7b 3d
       0.1690795 0.90903056 0.9238742 0.06145518
0000c0 79 ce 16 3e a9 81 df bb 4c 8a 65 be 14 01 bf bf
       0.147272 -0.0068208766 -0.22416037 -1.4922204
0000d0 e4 6f f8 3f 4c 43 eb 3c a5 ee 82 3d d8 84 d3 be
       1.9409146 0.028718613 0.06393174 -0.4131229
0000e0 84 da 1e be e9 bb 7b bf 6c c9 82 3e f8 2e ef 3f
       -0.15513045 -0.98333603 0.25544298 1.8686209
0000f0 be a4 b7 bf 9b cb f8 3d 8c ca c8 3e f0 66 b4 bf
       -1.434715 0.1214821 0.3921703 -1.4093914
000100 97 40 7a be 17 4e 0a 3d 18 3b 9c be 36 25 84 be
       -0.24438702 0.03376588 -0.30513835 -0.2580964
000110 16 e1 5d bd e4 37 c2 bf 61 15 9d 3d a7 16 cd 3f
       -0.054169737 -1.5173306 0.07670093 1.6022538
000120 1b 54 40 c1 86 1f 99 be e9 a5 1c bd 44 5d a1 be
       -12.020534 -0.29906863 -0.03824416 -0.3151647
000130 2b eb eb bc 22 bb c2 be 8d 06 cc be d2 9b 8e 3f
       -0.02879866 -0.38033396 -0.39848748 1.1141303
000140 6e 4c 08 bf 16 4b a0 3f fb e4 1a 3e a0 b4 0f 3e
       -0.5324162 1.2522914 0.15126412 0.14033747
000150 3f ec 05 3e be db 0a bd 5e 67 8e be 43 1b b2 bf
       0.13078402 -0.03390097 -0.27813238 -1.391457
000160 3f 86 97 3e e9 cb 09 3d 82 6f 08 bf 29 3b a3 be
       0.2959461 0.03364173 -0.5329515 -0.31881073
000170 4a 27 08 bd dc 8c 81 bf e5 eb 73 3e 48 e0 53 40
       -0.033240594 -1.0121112 0.23820455 3.310564
000180 e6 11 10 c0 60 90 d5 bc 06 5b 1f 3d 28 9b b2 bf
       -2.2510924 -0.02606982 0.038905166 -1.39536
000190 be 9c ce bd d2 9a 49 bd 5d b6 99 be 11 1b 35 be
       -0.1008849 -0.049219914 -0.30021945 -0.17686106
0001a0 e0 b4 f1 bb 70 ce f6 bb f0 75 ba bf f7 fd 05 c1
       -0.0073762983 -0.0075319335 -1.4567242 -8.374503
0001b0 f9 4b a0 3e 4e 2c d5 3e de 5b c7 be e3 79 c4 3e
       0.31307963 0.41635364 -0.38937277 0.38374242
0001c0 6d 76 19 bf ba 9f 1d 3e b2 e5 a1 bd 29 d2 a1 3e
       -0.5994633 0.15392962 -0.07905139 0.31605652
0001d0 47 ef 44 bd 31 b2 97 3d 94 17 66 bd ac 19 68 bc
       -0.048079755 0.07407034 -0.05617483 -0.014166277
0001e0 f1 14 4c 3d 60 40 93 3d 7e 97 17 bd 6f c5 1e 40
       0.04982466 0.07190013 -0.03700971 2.4808004
0001f0 41 ae 83 3e 9c 8f 81 3e 5d 62 ba 3e 9e 84 60 3e
       0.25718883 0.25304878 0.3640317 0.2192559
000200 df f0 ce 3c 31 21 61 3f 8f 99 8e 3f 4a 78 e5 bf
       0.02526134 0.8794127 1.1140612 -1.7927334
000210 1e b1 a5 bd 30 fa 15 3c fa 88 b1 3f 7b b9 b4 bc
       -0.08090423 0.009153888 1.3869927 -0.0220611
000220 ad 93 bd bf fb 35 1a 3d 99 ed a1 3e 89 7a 18 be
       -1.4810692 0.037649136 0.31626585 -0.14890493
000230 e8 69 34 3e 7a bf dc bd 2b da 0e 3d c8 ef c1 3e
       0.17618525 -0.10778709 0.03487603 0.3787825
000240 e4 58 af be 4a 54 07 bf 72 bb 25 bf 9e d2 ff 3c
       -0.34247506 -0.5286299 -0.64739144 0.03122836
000250 c0 5a 59 3c cf 47 8b be 76 b1 e3 3e 39 86 0e 3b
       0.013266265 -0.27203223 0.4447133 0.0021747483
000260 50 e6 9b 3d e5 bd e4 3d 23 f5 e8 3c 0c ee da 3e
       0.07612288 0.11169032 0.028437203 0.4275974
000270 b2 7f 7d 3d 95 00 81 3d eb 53 30 40 13 38 22 40
       0.061889358 0.06298939 2.755122 2.5346725
000280 38 93 bc 3f 91 f0 de bd 15 2a b9 3e 20 54 31 3e
       1.4732428 -0.10885728 0.3616492 0.17317247
000290 60 e6 98 3c 93 5d 45 3f 15 00 3f 3e dc 78 5f bf
       0.018664539 0.7709591 0.18652375 -0.8729379
0002a0 7c 80 75 be 01 78 46 3e 94 01 c5 3f b5 2e 98 bd
       -0.23974794 0.19381715 1.5391107 -0.07430784
0002b0 af d6 c3 bf 61 92 27 3d d3 1e d1 3f be bf f1 bf
       -1.5299891 0.040911082 1.6337532 -1.888664
0002c0 f0 d1 b2 3b ad 15 0a bd 11 fc c7 3d 76 ca c8 3e
       0.0054571554 -0.033712078 0.09764875 0.39216965
0002d0 76 43 78 be 02 3c 2c bf 48 ae eb be 01 b2 8e be
       -0.24244484 -0.67279065 -0.46031404 -0.2787018
0002e0 81 86 61 bc 13 d1 29 3d 26 f8 d1 3e d4 38 97 3d
       -0.013764978 0.041459154 0.41009635 0.07383886
0002f0 28 cd b7 3d ac cb ea 3d b8 72 50 3d c5 2d b4 3d
       0.08974677 0.114646286 0.050890654 0.08797792
000300 14 b6 bc 3e c2 9f 2e 3d ff e4 0c 40 57 4f 20 40
       0.36857665 0.042632826 2.2014768 2.5048425
000310 5d 44 7c bd d0 9a e0 3e 39 1b 5e 3e f0 8f 39 3e
       -0.061588634 0.43868113 0.21690072 0.18121314
000320 a5 be 52 bd 83 1b 66 3f c3 7a d7 bd 6c 59 f9 bd
       -0.051451344 0.8988573 -0.10521462 -0.12175259
000330 f1 1e e0 bd 02 f2 23 3e 10 7b bd 3f 00 1b 02 be
       -0.109434016 0.16010287 1.4803181 -0.12705612
000340 d7 54 c4 bf 3a 7f d8 3c ab b8 ec be a8 a5 88 be
       -1.5338391 0.026427854 -0.4623464 -0.26688886
000350 e5 9c 88 bd db 71 14 be ce 60 98 bc d2 a0 d0 3e
       -0.0667055 -0.14496557 -0.018600848 0.40747696
000360 5a 25 43 be 82 e6 05 bf 1a de 18 be 89 72 d8 3e
       -0.19057217 -0.5230485 -0.14928475 0.42274883
000370 00 30 d2 3a 35 4a 9c 3d f0 87 db 3e 7d 9d 13 3e
       0.0016036034 0.07631341 0.4287715 0.14415546
000380 a4 76 a8 3d c4 fd a0 3d cc ca ee 3d be 62 33 3d
       0.08225754 0.07860902 0.11659774 0.04379534
000390 17 94 87 3d f6 d4 c5 3e 8c e3 8a 3f 80 0f 46 3d
       0.06620043 0.3863904 1.0850692 0.048354626
0003a0 78 6d 85 3d 12 b7 9f bb 57 47 ac 3d 23 75 c7 bc
       0.0651502 -0.0048741186 0.084120445 -0.024347847
0003b0 d9 b6 52 3b 37 af 21 be 51 6b 97 3e b5 00 2c 3e
       0.0032152443 -0.15789495 0.29574063 0.16797145
0003c0 c9 11 e9 bd 59 f3 ab 3d 9c cb 4d 3c b0 21 dd 3d
       -0.113803454 0.08396024 0.012560751 0.10797441
0003d0 54 71 24 3d fc 6e 9b 3d f2 57 50 bd 1b 06 da bc
       0.04014714 0.07589528 -0.05086512 -0.02661424
0003e0 e8 0c 6e 3d ff 12 94 3d 09 5e 06 bc 01 30 46 bd
       0.058117777 0.07230186 -0.008201131 -0.048385624
0003f0 87 28 09 3d 6f c9 f7 bb 34 a8 9b 3d 62 7e 53 3d
       0.033485916 -0.0075618546 0.076004416 0.0516342

bias f4 [256]
000000 36 e9 ba bf de 3e a5 3e 44 d9 cd bd bb 9f aa 3e
       -1.460242 0.32274526 -0.10051206 0.3332499
000010 d1 0d b8 bd 3b dd 15 3b 5d 0c 5f be f0 97 87 3c
       -0.0898701 0.002286746 -0.2178206 0.016551942
000020 f5 26 e3 be e6 2d 0b be 18 fd 1b bd a4 4b f3 bf
       -0.4436566 -0.13591728 -0.038083166 -1.9007459
000030 1b b7 7c be 69 13 21 bf 4c f4 d8 bd bc 51 9a bd
       -0.24679224 -0.6292024 -0.10593471 -0.07535121
000040 cf bc d9 bc 91 67 f6 bd 47 fd 5d 3d fb 40 88 bd
       -0.026579289 -0.120314725 0.054196622 -0.06653019
000050 85 d1 21 c0 37 6a d9 bf 22 a4 b4 bc c2 7d 51 bb
       -2.528413 -1.6985539 -0.02205092 -0.0031965827
000060 ef 6b e0 bc 61 98 b3 bc 40 0b e9 bd 0c a9 4b bf
       -0.027395217 -0.021923246 -0.11379099 -0.7955482
000070 fa cb c6 3d 83 fa 20 bf 67 3c ce 3e a2 6a 95 bd
       0.09706874 -0.6288225 0.40280458 -0.07295729
000080 f7 39 c4 bc 7a 51 e7 bd 6e c3 05 bd d3 a7 8a bd
       -0.023953421 -0.11294837 -0.03265708 -0.06770291
000090 40 33 07 c0 a7 07 e4 bd d2 6e d1 bd a3 f2 37 be
       -2.112503 -0.11134272 -0.102262154 -0.17963652
0000a0 dd e3 1e 3d 25 8a ee bd a3 3d 27 3d 2f a0 9f 3b
       0.038791526 -0.11647443 0.040830266 0.0048713903
0000b0 ed 93 50 3d 49 bb 87 3d 98 6d c0 bf f9 d3 db bd
       0.050922323 0.06627519 -1.5033445 -0.1073379
0000c0 09 df be bc 69 49 72 bd c6 83 d0 ba f8 64 f2 bf
       -0.02329971 -0.05915204 -0.0015908412 -1.8937063
0000d0 b3 88 f6 bd 7e f5 42 be 25 38 91 bd d9 9c 85 bf
       -0.12037792 -0.1903896 -0.07090787 -1.0438491
0000e0 a7 1d 28 be c2 b3 64 bd fa 27 24 3f fe 3b 30 bd
       -0.16417561 -0.055835493 0.641235 -0.043025963
0000f0 68 1f 72 3f 62 7c cc bd 12 79 89 bd 09 41 31 bd
       0.9457917 -0.09984662 -0.067125455 -0.043274913
000100 ae 10 85 bd 58 44 73 bd 2c 80 06 3f eb ae 93 3d
       -0.06497322 -0.05939135 0.52539325 0.07211097
000110 29 38 16 3d 11 49 34 bd 75 7f 84 3e 85 fa e3 bc
       0.036674652 -0.044014994 0.25878492 -0.027829418
000120 5f 58 63 bf f0 59 1b bd 65 9e cc 3f 1c 2b d3 3c
       -0.8880672 -0.037927568 1.5985838 0.025777392
000130 0e 7c 45 3d 0a 41 03 bd b4 a0 2b 3c 60 c2 ca be
       0.04821401 -0.032044448 0.010475326 -0.3960142
000140 d7 99 02 3d 1d 35 c3 bd 50 0f 6b be 36 9a 74 bd
       0.031884994 -0.09531615 -0.2295506 -0.05971738
000150 75 6a 10 bc 0c ef 6d bf 8c 50 44 bd 25 8f c0 bd
       -0.008814444 -0.9294288 -0.047928378 -0.09402303
000160 ef 78 93 bd 9f 25 63 3c 20 d0 95 bd 1b 58 98 3c
       -0.072008006 0.01386395 -0.07315087 0.0185967
000170 60 d8 d0 bd 8d 00 e4 bf c3 6f b1 3b 44 95 b6 bc
       -0.1019752 -1.7812668 0.0054149344 -0.022287972
000180 fd 37 bf 3b 55 3f f0 bd 0f b2 17 be 18 4a 9b bf
       0.0058355317 -0.117308296 -0.14814018 -1.2131987
000190 a7 f3 ed bd 40 68 5a bd 66 33 87 bd be 8a f9 bd
       -0.116187386 -0.053322077 -0.066016 -0.12184666
0001a0 3e 22 7f bf 65 77 f1 bf d6 75 3c bc e6 09 3d 3d
       -0.99661624 -1.8864561 -0.011502704 0.046152018
0001b0 bc 04 13 bc 4d 30 1d 3e 41 33 81 bd ba 39 e6 bd
       -0.008973297 0.15350457 -0.06308604 -0.11241479
0001c0 64 3b 93 bd b7 e7 d9 bd 75 8e 8b bd 01 31 6f bd
       -0.07189062 -0.10639899 -0.06814281 -0.058396343
0001d0 eb 06 b9 bc b9 7a f5 3c 7c c5 b7 bd 91 94 81 bd
       -0.022586307 0.029965745 -0.08973214 -0.06327165
0001e0 39 90 8f bd 6f ef 04 be 91 19 b6 bd a3 21 b0 bc
       -0.0700993 -0.12981962 -0.08891595 -0.021500414
0001f0 6e 01 cf bd de 48 04 bf 9b 09 91 bd 67 5c 1c bb
       -0.101076946 -0.51673687 -0.0708191 -0.0023858787
000200 f5 85 00 bd 67 e4 f3 bf 6e bb 9c be 43 0d e9 bd
       -0.03137775 -1.9054078 -0.30611748 -0.113794826
000210 cc 3b ae bd b8 16 c4 bf ee 7f 29 bd 31 b8 9d bf
       -0.08507499 -1.5319433 -0.04138177 -1.2321836
000220 9d 0a 8c bd ce 1d b0 bd b4 b5 bc bd 06 2c b4 bf
       -0.06837962 -0.08599435 -0.092143446 -1.4075935
000230 48 83 4d bd 60 ce c2 bd bd 69 0b be 54 e6 06 be
       -0.050174028 -0.09512019 -0.13614555 -0.131738
000240 13 a9 9e bd 76 40 1d bf 4e 6c 06 be f9 8b 5c be
       -0.07747092 -0.61426485 -0.13127252 -0.2153777
000250 bb 0c ee be 53 80 b8 bc 5d 96 8e 3e 87 96 d6 bf
       -0.46494088 -0.022522127 0.27849093 -1.6764687
000260 f3 d3 37 3d 8f d3 71 be bd 13 d7 3f 6e f5 0a bf
       0.044879865 -0.2361586 1.6802899 -0.54280746
000270 5e 2d b1 bd cf bf f5 bd 21 f4 de 3f bc 15 15 bd
       -0.08651231 -0.11999475 1.7418252 -0.03639768
000280 f4 b0 a8 bd 67 00 4b bd 1e 1d 57 bd 1f 2c 60 3b
       -0.08236876 -0.04956093 -0.052518003 0.0034205986
000290 1f 30 99 bf d9 63 0a be 17 14 cd bd 5b 1e 97 bd
       -1.196781 -0.13514651 -0.100135975 -0.07378837
0002a0 37 a6 0a be b5 69 13 3d 1c 7e 00 3d e8 7f cd be
       -0.13539968 0.035989482 0.031370267 -0.40136647
0002b0 c8 1e 8f bd 0d 96 47 bf a1 b5 89 bd 45 46 36 bd
       -0.06988293 -0.77963334 -0.06724096 -0.044500608
0002c0 b9 c5 b0 bd 28 2c 74 3d 6b a3 00 3d 48 93 9a 3e
       -0.086314626 0.059612423 0.031405848 0.30190492
0002d0 ca a0 98 bd 5e 98 0a be 63 fb 8c bf 5f 08 dd be
       -0.07452543 -0.13534686 -1.1014217 -0.4317045
0002e0 4a c7 4e bd c3 3f ae bd 0e 74 f1 bd 06 fe bf bd
       -0.050483026 -0.08508255 -0.11789714 -0.09374623
0002f0 55 af 26 bd 33 e2 7b 3b 02 3b 33 bf 42 96 93 3f
       -0.040694553 0.0038434386 -0.70011914 1.153023
000300 8a 7c e3 bc 2e ac 07 be 7a 56 8f bf fc b7 45 be
       -0.027769346 -0.13249275 -1.1198266 -0.19308466
000310 88 84 00 bf b6 08 6c bd 09 8d 13 bd 7b 30 96 bd
       -0.50202227 -0.057625495 -0.036023173 -0.07333466
000320 9f ef 54 be 07 96 59 bd 8f 7f f8 bf ab 1c 7a bd
       -0.20794533 -0.053121593 -1.9413928 -0.061062496
000330 21 d3 65 3d 6f 44 8d bd 0f db b2 bd 4e 44 50 bd
       0.05610955 -0.06897818 -0.08733188 -0.05084639
000340 c4 b4 10 bf ff 86 d8 3c 79 12 5d bf 54 b9 b9 be
       -0.56525826 0.026431559 -0.8635631 -0.36274207
000350 c2 1c 7f bf dc 00 dd bf 0f e6 de bf 1b ae 1c c0
       -0.99653256 -1.7265887 -1.7413958 -2.4481266
000360 5e 17 04 be f2 b0 23 bd 16 e0 e3 bd bc d3 61 bd
       -0.12899539 -0.03996367 -0.111267254 -0.055133566
000370 4b 87 01 bd ef 5f 6e 3c 0b 79 99 bd c1 83 b5 bd
       -0.031623166 0.01454924 -0.0749379 -0.08863021
000380 4b e4 74 bc 0b 10 01 be c0 7f 38 bd 4f 89 22 bc
       -0.014947007 -0.12603776 -0.045043707 -0.009920432
000390 8f ad 3a bd 12 f4 eb 3d f9 0e 97 bd 04 c3 83 bd
       -0.045575675 0.11521162 -0.07375903 -0.06433681
0003a0 c7 f7 2b 3f e9 0d 1b 3f 98 fa 0c be e2 ee eb bf
       0.67174953 0.605681 -0.13767469 -1.8432276
0003b0 07 73 8f be 33 3a 81 3d a8 8f 57 3b ad 0b 83 3f
       -0.28017446 0.06309929 0.0032892022 1.0237938
0003c0 3e 52 b2 bc 8c 37 c7 bd b1 c2 10 bd 79 6c a1 bd
       -0.021767732 -0.097273916 -0.035341922 -0.07882018
0003d0 42 f7 8a 3c 6c e8 37 3c d9 e0 1c 3d f5 9f 8e 3e
       0.016963605 0.011224847 0.03830037 0.27856413
0003e0 19 32 7c bd 6e 78 1c c0 23 11 91 ba e6 87 97 bd
       -0.061571214 -2.4448504 -0.0011067729 -0.073989674
0003f0 4a d8 22 3d 31 49 a7 bd fb bb 89 3d 4e b4 98 bd
       0.03975705 -0.08168257 0.067253076 -0.074562654
