saved_models_1/125_11345_model.pt (torch, 701697 bytes, 11 tensors)

FC1.weight f4 [256, 36]
0	0x3e44a8c0	0.19204998
1	0x3e7e9a61	0.24863578
2	0x3eeae5d8	0.45878482
3	0xbfb49119	-1.410678
4	0x3fcc2adb	1.5950578
5	0x3fb1b554	1.3883462
6	0xbf99b042	-1.2006915
7	0xc031a1a0	-2.7754898
8	0x402b8452	2.6799512
9	0x403193c2	2.7746434
10	0xc035d5b6	-2.8411689
11	0xbe4cc67f	-0.19997595
12	0xbf820317	-1.0157193
13	0x3ea5a34c	0.32351148
14	0x3f86bee7	1.0527009
15	0x3dd1e42a	0.10248597
16	0xbfcbf1f8	-1.5933218
17	0x3f83b661	1.0290033
18	0x402fa4d6	2.7444358
19	0x3e88edca	0.2674392
20	0x400ff14d	2.2491028
21	0x3f2985af	0.6621961
22	0xbfbe3f7a	-1.4863122
23	0xbea38f17	-0.31945106
24	0x4056605b	3.349631
25	0x3f843d16	1.0331142
26	0xc04c9c8d	-3.197055
27	0xbe7d869c	-0.2475838
28	0xbde70216	-0.11279695
29	0x3f06651e	0.5249804
30	0xbf465e6c	-0.77487826
31	0xbe5ead67	-0.21745835
32	0xc09600f9	-4.6876187
33	0x3eb85761	0.36004165
34	0x3ee351ca	0.44398338
35	0xc0995068	-4.791065
36	0xbf84e749	-1.0383083
37	0x3e33518f	0.17511581
38	0xbd82c761	-0.06385685
39	0x3ea3e288	0.32008767
40	0xbfc64882	-1.5490878
41	0x3ec41a7c	0.38301456
42	0x3fb7fd6d	1.4374214
43	0xbcf6bb81	-0.030118706
44	0xc0131554	-2.2981768
45	0xbdc0e639	-0.094189115
46	0x4045a7a5	3.0883572
47	0xbeecb2b7	-0.462301
48	0xbfa259fb	-1.268371
49	0xbd17684d	-0.036964703
50	0x3f865f10	1.0497761
51	0x3dca51a8	0.09878856
52	0xbfe96b84	-1.8235936
53	0x3f19b146	0.6003612
54	0x402913d9	2.6418364
55	0x3ef14011	0.4711919
56	0xbc6cd604	-0.014455322
57	0x3ea651e5	0.32484356
58	0xbf2a2d82	-0.6647569
59	0xbed0afe4	-0.40759194
60	0x40239620	2.556038
61	0x3eac894a	0.33698493
62	0xbf8fc2d8	-1.1231337
63	0xbdfde756	-0.123976395
64	0xbe3cdc1f	-0.18443345
65	0x3e9dd22b	0.30824408
66	0xbf26d459	-0.65167767
67	0x3f1132b3	0.56717986
68	0xc0a37195	-5.107615
69	0xc005b2f1	-2.0890467
70	0x4001c477	2.0276163
71	0xbf19d6f0	-0.60093594
72	0x3f0b5cbb	0.5443837
73	0x3fa29cc4	1.2704091
74	0xbf2f58f2	-0.68495095
75	0x3f97dc8a	1.1864178
76	0xbf77f6e0	-0.96861076
77	0x3fe91c4c	1.821176
78	0xc05b8cdd	-3.4304726
79	0xc0038747	-2.0551317
80	0x403f8882	2.9927068
81	0xbfd9edb9	-1.7025672
82	0x3f282f64	0.6569731
83	0x3f45fd68	0.7733979
84	0xbf3ef513	-0.74592704
85	0x3f857bb1	1.0428373
86	0xbf4dc646	-0.80380666
87	0x3cae37c2	0.021266822
88	0x3eb6bdac	0.35691583
89	0x40177086	2.366243
90	0xbf075449	-0.52862984
91	0x3fb28a31	1.3948423
92	0xbfcae25d	-1.585033
93	0x3fd59748	1.6686792
94	0xbe19e716	-0.15029559
95	0x3e91317d	0.2835807
96	0xbf678ce4	-0.9044936
97	0x3e686b15	0.22697099
98	0x3fe0d764	1.7565732
99	0xbf87c84f	-1.0608004
100	0xbfbbe7f6	-1.4680164
101	0xbe72d503	-0.2371407
102	0xbdb41414	-0.08792892
103	0x3ec67504	0.3876115
104	0x3ee8ab20	0.45443058
105	0xbf843dd5	-1.033137
106	0xc0e2c852	-7.086953
107	0xc05be37c	-3.4357595
108	0xc103193a	-8.193659
109	0x3f8cdffe	1.1005857
110	0x3e563a30	0.20920634
111	0xbe8c9caf	-0.2746329
112	0xbf6b2682	-0.91855633
113	0xbf2aed34	-0.66768193
114	0x3e4cb721	0.19991733
115	0x3fa932d1	1.3218633
116	0xbfbdd3e0	-1.4830284
117	0x3f2e23fc	0.6802366
118	0x3f856783	1.0422214
119	0x3f51a8d4	0.81898236
120	0xbf4e3456	-0.8054861
121	0xbf832fdd	-1.0248982
122	0x3f003ec2	0.5009576
123	0x3fea0d8a	1.8285382
124	0xbfef83bf	-1.8712081
125	0xbf6b06c8	-0.9180722
126	0x3fc0c211	1.5059224
127	0x3e5db865	0.21652372
128	0xbf7a9ff3	-0.97900313
129	0x3f7e0c43	0.9923746
130	0x3f93ae0f	1.1537493
131	0xbf0985a7	-0.5371956
132	0xc0300423	-2.7502525
133	0x3fbe0f60	1.4848442
134	0x404fd6e0	3.24749
135	0x3f054d30	0.52070904
136	0xc0b6cebf	-5.7127376
137	0x4012a396	2.2912345
138	0x3ee63c73	0.44967994
139	0xc0dd0c8d	-6.907782
140	0xc031e69e	-2.7797008
141	0xc00b8a0e	-2.1803012
142	0xbf101591	-0.5628291
143	0xc0990277	-4.781551
144	0xc0032413	-2.0490768
145	0xbf47d28e	-0.78055656
146	0x3bb497f7	0.0055112797
147	0xbf89ec50	-1.0775242
148	0x3faa09f9	1.3284293
149	0xbea1ad5f	-0.31577584
150	0xbfae72cf	-1.3628787
151	0xbfb0ba64	-1.3806882
152	0x40972e37	4.7243915
153	0x3f829d3a	1.0204232
154	0xc08b1720	-4.346573
155	0xbf55cb67	-0.8351349
156	0x3fa4effc	1.2885737
157	0x3d75cfe9	0.06001273
158	0xbf928a9c	-1.144855
159	0xbf81b035	-1.0131899
160	0x401db4db	2.4641635
161	0x3e967d43	0.29392442
162	0xc035eed5	-2.8427022
163	0x3f335c04	0.7006228
164	0x3e882479	0.26590326
165	0xbfd30f89	-1.6489116
166	0xbd873061	-0.066010244
167	0x3fd7706f	1.6831187
168	0x3d80b8b7	0.062852316
169	0xc0358f00	-2.836853
170	0x3e449961	0.19199134
171	0x3db54304	0.08850673
172	0x3e60027d	0.21875949
173	0x3f7cbb00	0.9872284
174	0x3ed881f9	0.4228666
175	0x3f89a1d7	1.0752515
176	0x3f948fb0	1.160635
177	0x3f58046f	0.84381765
178	0xc0dc9f53	-6.8944488
179	0xc075ad27	-3.8386934
180	0xc043ea9e	-3.061195
181	0xbe51a385	-0.20472534
182	0xbdf12f44	-0.11776593
183	0x3f25fb84	0.6483691
184	0x3e79b6c2	0.24386123
185	0x3f806a92	1.0032523
186	0xbffbdaeb	-1.9676183
187	0xc04eead0	-3.2330818
188	0x3fef6b16	1.8704555
189	0xbfbd9936	-1.4812381
190	0xbc23f522	-0.010007175
191	0xbf04f212	-0.5193187
192	0xbf478d20	-0.77949715
193	0x3f21531b	0.63017434
194	0xbfddc4e8	-1.7325716
195	0xc00c398c	-2.1910124
196	0x3ff187c6	1.886956
197	0xbf580d5d	-0.8439539
198	0x3f33f566	0.70296323
199	0xbf4514da	-0.7698494
200	0xbf941f90	-1.1572132
201	0xbeb5106d	-0.35364094
202	0x3ebd08e2	0.3692084
203	0xbe5e366f	-0.21700452
204	0xc00af7d9	-2.1713774
205	0x3ea8ecc4	0.32993138
206	0x3f3af004	0.73022485
207	0x3fa4de93	1.2880424
208	0x3f61df59	0.88231426
209	0xc0dd7e87	-6.921695
210	0xc0d9fe3e	-6.8122854
211	0xbfede347	-1.8584985
212	0x3f8b5956	1.0886638
213	0xbefad824	-0.48993027
214	0xc0894faa	-4.2909746
215	0xc0f9387d	-7.7881455
216	0xbf49467f	-0.78623194
217	0xbc503414	-0.012707729
218	0xbe1ac4ce	-0.15114138
219	0x3bf102ed	0.007355085
220	0x3ef2477c	0.47320163
221	0x3e83bc86	0.2572977
222	0x3f0d3f80	0.5517502
223	0xbfb58e4e	-1.4184053
224	0xbec0f78f	-0.37688872
225	0x3ebe1717	0.3712699
226	0x3d88b0e5	0.06674365
227	0x3ffb30fa	1.9624321
228	0xbf75733e	-0.9587897
229	0xbf9d84c0	-1.2306137
230	0x3f54ab8c	0.8307426
231	0x3febb9cc	1.8416076
232	0xbfc9d2b2	-1.5767424
233	0xc0563c56	-3.3474326
234	0x3fc4396b	1.5330023
235	0x3f0f1bbf	0.5590171
236	0x3f43afca	0.7644011
237	0xbff5705a	-1.9174912
238	0xbf14fad8	-0.5819526
239	0x4013cc63	2.3093498
240	0x3e864ae2	0.26229006
241	0xbf9d156a	-1.227216
242	0xbfdd5e6d	-1.7294441
243	0x3ed173c7	0.40908644
244	0x3e16398c	0.1467039
245	0x3dc02fa2	0.09384085
246	0x3e804359	0.25051382
247	0xbf20295c	-0.6256311
248	0x3fe39cbe	1.7782209
249	0xc0465e07	-3.099489
250	0xbecafe2e	-0.3964705
251	0xbe576f2f	-0.21038507
252	0xbd9c2fcc	-0.07626304
253	0xbc7fb0ed	-0.015606147
254	0xbf04263f	-0.5162086
255	0xbfa967bc	-1.3234782

FC1.bias f4 [256]
0	0xbeb735db	-0.35783276
1	0xbed97b48	-0.4247687
2	0xbf855ae4	-1.0418363
3	0x3f090a3c	0.5353124
4	0x3dcf61a8	0.10126048
5	0x3f9838c3	1.1892322
6	0x3e5540f3	0.20825557
7	0x3f0b1da9	0.5434213
8	0xbeb89f84	-0.360592
9	0xbf88ceec	-1.0688148
10	0x3c27c0ec	0.010238867
11	0xbe60d8e5	-0.21957739
12	0xbf8c8954	-1.0979409
13	0x3f18fe84	0.5976336
14	0xbe34663f	-0.17617129
15	0x3b329f7e	0.002725571
16	0xbf249991	-0.64296824
17	0xc001a1a0	-2.0254898
18	0x3fa1d940	1.2644424
19	0x3f20a7d6	0.627561
20	0xbd88110d	-0.06643877
21	0xbf33ddec	-0.702605
22	0x3fc76081	1.5576326
23	0xbf1a16c0	-0.60190964
24	0xbea33b4a	-0.3188117
25	0xbd414ef5	-0.04719444
26	0xbf40f441	-0.753727
27	0x3e5d5931	0.21616055
28	0xbf5ce5fc	-0.8628843
29	0xbde90751	-0.113783486
30	0xbf7b87fb	-0.98254365
31	0xbf3bee6c	-0.7341068
32	0xbfc612d3	-1.5474495
33	0xbf17d7b2	-0.593135
34	0xbf5dad0a	-0.8659216
35	0x3f491a16	0.7855543
36	0xbeee225c	-0.4651059
37	0xbf778acf	-0.9669618
38	0xbef2fa25	-0.4745647
39	0xbe3541db	-0.17700903
40	0xbea226cc	-0.31670225
41	0xbecc61fb	-0.39918503
42	0x3d04bda0	0.032407403
43	0xbfb6a278	-1.4268332
44	0x3d950a2e	0.07277332
45	0xbdfd535b	-0.123694144
46	0xbf8422f0	-1.0323162
47	0xbeab5cf7	-0.33469364
48	0x3f42c8bc	0.76087546
49	0xbeb7d929	-0.35907868
50	0x3fd97e02	1.699158
51	0xbe484bff	-0.1956024
52	0xbf850c16	-1.0394313
53	0xbdd3e67d	-0.103466965
54	0x3e92193f	0.28534886
55	0xbfa4a865	-1.286389
56	0x3e9f3208	0.31092858
57	0xbef2ca3c	-0.47419918
58	0x3ea511fb	0.3224028
59	0x3ef3d913	0.47626552
60	0xbe578043	-0.21045022
61	0xbf2c6699	-0.6734405
62	0xbace31c2	-0.0015731382
63	0x3f327270	0.6970587
64	0x3e9478c7	0.28998396
65	0xbf8b1783	-1.086655
66	0xbf0406ac	-0.5157268
67	0xbe108eb1	-0.14116932
68	0xbefcd565	-0.49381557
69	0xbdacd316	-0.08438699
70	0xbe9b04e2	-0.30277163
71	0xbeac0392	-0.33596474
72	0x3fba604e	1.456064
73	0x403deb55	2.9674885
74	0xbe6e95d8	-0.23299348
75	0x3d80ba99	0.06285591
76	0xbef73abd	-0.48287
77	0xbe55fb7f	-0.2089672
78	0x3f066f13	0.52513236
79	0x3f55e01d	0.83545095
80	0xbf488fb3	-0.7834427
81	0xbf69a4a9	-0.91266876
82	0x3e9e41d7	0.30909607
83	0x3e4777a9	0.1947924
84	0xbf0b35e0	-0.5437908
85	0xbded6fa4	-0.115935594
86	0xbecba593	-0.3977476
87	0x3f72eb70	0.948905
88	0xbff1c613	-1.8888572
89	0x3f18edbf	0.5973777
90	0x3cfc019d	0.030762488
91	0xbe2570af	-0.16156267
92	0xbe8841ab	-0.266126
93	0x3fd6f8c1	1.6794664
94	0xbf6827dd	-0.90685827
95	0xbe45361d	-0.19258924
96	0xbfa0ec95	-1.2572199
97	0x3e2da095	0.16955788
98	0xc011ef84	-2.2802439
99	0xc006e6b7	-2.1078317
100	0x3eecd1d2	0.4625383
101	0x3f1b71f4	0.60720754
102	0xbeecae12	-0.46226555
103	0xbfbbbe8d	-1.4667526
104	0xbe04a471	-0.12953354
105	0xbdcd589c	-0.100266665
106	0xbe89a2f4	-0.26882136
107	0xbd1e885b	-0.038704257
108	0x3e27c221	0.16382648
109	0x3e983d70	0.29734373
110	0xbeb08480	-0.3447609
111	0xbf8fc689	-1.1232463
112	0xbdb25c02	-0.08708955
113	0x3e6883a5	0.22706468
114	0xbe85533d	-0.26040068
115	0x3eb2094e	0.34772724
116	0xbf59310a	-0.8484045
117	0xbf0382eb	-0.5137164
118	0xbeef2ce7	-0.46713945
119	0xbed1b929	-0.40961578
120	0xbf5e227a	-0.8677136
121	0xbfaca3d0	-1.3487492
122	0x3e85816b	0.260753
123	0x3f040389	0.51567894
124	0xbfdb8044	-1.7148519
125	0xbf3160f1	-0.69288546
126	0xbfc8eea3	-1.5697826
127	0xbf81fd52	-1.0155432
128	0x3c8e13d4	0.01734344
129	0x3dca6cda	0.09884043
130	0x3dfbc53b	0.12293478
131	0x3f636265	0.88822013
132	0x3ecfc03d	0.40576354
133	0x3e4646c1	0.19362928
134	0xbf2e9ec6	-0.6821102
135	0xbfc898fd	-1.5671688
136	0xbf05b755	-0.5223287
137	0xbd28b5cd	-0.041189004
138	0xbe8b6dba	-0.27232152
139	0xbf0bef4a	-0.54662
140	0xbe6dc178	-0.23218334
141	0x3e80e282	0.25172812
142	0xbf27bac0	-0.6551933
143	0x3e90fbd3	0.28317127
144	0xbe066c39	-0.13127221
145	0xbf5c3798	-0.8602233
146	0xbe49f779	-0.1972331
147	0x40958bf0	4.673332
148	0xbe59f7e2	-0.21285966
149	0xbec68017	-0.387696
150	0x3fa7ae12	1.3099997
151	0xbe016e45	-0.1263972
152	0xbe9ef45c	-0.31045806
153	0xbe3b314b	-0.18280523
154	0x3fe8b0cc	1.8178954
155	0xbe1eaad9	-0.1549486
156	0xbecb2d6a	-0.39683086
157	0x3e101334	0.14069825
158	0x3f27d4f2	0.65559304
159	0x3e7b6ce3	0.24553256
160	0xbf3fe1f6	-0.74954164
161	0x3fe44002	1.7832034
162	0x3fe43b74	1.7830644
163	0xbc532c2d	-0.01288895
164	0x3e02e1d2	0.12781456
165	0x3db74594	0.08948818
166	0xbf1088a2	-0.56458485
167	0xbf3d7b46	-0.74016225
168	0x3ec04d39	0.37558916
169	0x3e8d8d43	0.27646837
170	0xbf516f6e	-0.81810653
171	0xbf321340	-0.69560623
172	0x3f7281a2	0.94729054
173	0xbf25a9c7	-0.64712185
174	0x3ed9ff74	0.42577708
175	0xbed36a18	-0.4129188
176	0xbf3e6c2b	-0.743838
177	0x3e7df668	0.24801028
178	0xbfaa369e	-1.3297918
179	0xbfac5e11	-1.3466207
180	0x3f085245	0.53250533
181	0x3e9e079b	0.30865178
182	0xbfcb4245	-1.5879599
183	0xbf435b5a	-0.76311266
184	0x3f9d6930	1.2297726
185	0x3e6907c2	0.22756866
186	0x3f12101b	0.57055825
187	0xbe69b37c	-0.22822374
188	0x3e4ba27c	0.19886202
189	0xbfcb3910	-1.5876789
190	0xbea1e474	-0.31619608
191	0xbe149198	-0.14508665
192	0x3f1a2b43	0.6022226
193	0x3e7047a7	0.23464833
194	0x3fc3f5ff	1.5309447
195	0x3f4be5c9	0.796475
196	0xbe409273	-0.18805866
197	0xbd81483e	-0.06312607
198	0x3f483c30	0.7821684
199	0x3f02e88c	0.5113609
200	0xbfa029df	-1.2512778
201	0xbe80399c	-0.25043952
202	0xbd43c462	-0.047794707
203	0xbf8e563a	-1.1120064
204	0xbd970854	-0.07374635
205	0x3db0e5d5	0.08637587
206	0x3fb8227e	1.4385526
207	0xbec87781	-0.39153674
208	0x3ebe62e0	0.3718481
209	0x3f257c2c	0.64642596
210	0xbf6fa374	-0.93608785
211	0x3f3e2dfc	0.74288917
212	0xbf9c7c5e	-1.2225454
213	0xbf957cdd	-1.167873
214	0xbf2de14e	-0.6792191
215	0xbeb8ad3b	-0.36069664
216	0xbebdba12	-0.37056023
217	0xbf3fcd18	-0.74922323
218	0x3ebedfe3	0.37280187
219	0x3f5a6993	0.85317343
220	0xbe66f143	-0.22552972
221	0xbeb1f078	-0.34753776
222	0x3d89b442	0.067238346
223	0x3fcb41a9	1.5879413
224	0xbf084e8a	-0.5324484
225	0xbf12e716	-0.5738386
226	0xbfc9a0f4	-1.5752244
227	0xbfd22367	-1.6417054
228	0xbe990d93	-0.2989317
229	0xbf36725e	-0.7126826
230	0x3fbd3ce1	1.4784204
231	0xbf5b4223	-0.8564779
232	0xbf58486c	-0.84485507
233	0xbf9299e0	-1.1453209
234	0xbf990979	-1.1956016
235	0x3f3477ec	0.70495486
236	0xbf99335a	-1.1968796
237	0x3ed9e1dd	0.42555133
238	0x3f5805a6	0.8438362
239	0xbefa9cd9	-0.4894779
240	0xbf0261d1	-0.50930506
241	0xbf22016c	-0.6328342
242	0xbf22bad4	-0.6356633
243	0x3f2022c6	0.6255306
244	0x3f87979b	1.0593141
245	0xbe5023e0	-0.20326185
246	0xbea9c135	-0.33155218
247	0x3d888fe5	0.06668071
248	0xbe3e7009	-0.18597426
249	0x3e734084	0.2375508
250	0xbe586c71	-0.21135117
251	0xbe1c29ac	-0.15250272
252	0xbdf3a0e0	-0.11895919
253	0x3fe1b67b	1.7633814
254	0xbfc3bab1	-1.5291349
255	0xbf5ad36d	-0.8547886

FC2.weight f4 [256, 256]
0	0xbe26b5c4	-0.16280276
1	0xc01c6fee	-2.4443316
2	0xbf87f650	-1.0622044
3	0x3e3a79d3	0.18210535
4	0x3fa3de48	1.280221
5	0x3eae6762	0.3406325
6	0xbe8c6e7e	-0.2742805
7	0xc098d596	-4.7760725
8	0xc07aba31	-3.9176142
9	0x3fc44e78	1.5336447
10	0xbc040f76	-0.008060327
11	0x3f404365	0.75102836
12	0xc0855a5d	-4.1672807
13	0xbf081410	-0.5315561
14	0x4000b760	2.0111923
15	0x402c7eab	2.6952312
16	0xc000e5f6	-2.0140357
17	0x403aae77	2.9168985
18	0xc089d571	-4.307305
19	0xbe462ac3	-0.1935225
20	0x3d1f4012	0.03887946
21	0x4031e1de	2.7794108
22	0xc1086255	-8.524007
23	0xc022b11f	-2.5420606
24	0x3dcd146f	0.10013663
25	0xc0e28020	-7.0781403
26	0xbf6f6889	-0.93518883
27	0xc01382e6	-2.3048644
28	0x3fbbbc98	1.4666929
29	0x40358abe	2.8365932
30	0x4004ba7c	2.073882
31	0x3dad39ad	0.084582664
32	0xc034fa75	-2.8277867
33	0xbf1264a9	-0.57184845
34	0x3ef2608e	0.4733929
35	0x3fc2d333	1.5220703
36	0xbf9f7d1f	-1.2460059
37	0x3fefbffe	1.8730466
38	0x3e59ad6c	0.21257561
39	0x4053813a	3.3047624
40	0x3e45646d	0.1927659
41	0x3d7149d6	0.058908306
42	0xc00e35e2	-2.2220387
43	0xbf01778f	-0.50573057
44	0x40201ee5	2.5018857
45	0xbe0f541e	-0.13996932
46	0xbf3242b6	-0.6963304
47	0xbea90a59	-0.33015707
48	0xbf61642e	-0.8804349
49	0x3f992c28	1.19666
50	0xc0035f5b	-2.052695
51	0xbc94b858	-0.018154308
52	0xbe868a1e	-0.2627725
53	0xc021f729	-2.5307105
54	0xc007d8e0	-2.122612
55	0xc0267074	-2.6006136
56	0xbe93763b	-0.2880114
57	0x3fdc3fa1	1.7206918
58	0xc05ed8f1	-3.481991
59	0xbd2d0712	-0.04224307
60	0x3eb342e8	0.35011983
61	0xbf35ed34	-0.7106507
62	0xbe8ba9e3	-0.2727805
63	0x3f851a55	1.0398661
64	0x3ed38f40	0.4132023
65	0x408276d5	4.077006
66	0x3f8a55ad	1.0807396
67	0xbd23a43e	-0.039951555
68	0xbfb4f177	-1.4136189
69	0xbd944d3d	-0.072412945
70	0xbf80db15	-1.0066859
71	0xbe41080e	-0.18850729
72	0x3e935e18	0.28782725
73	0xbf968d23	-1.1761822
74	0x3f454758	0.77061987
75	0x3f8dda02	1.1082156
76	0xc05a3904	-3.40973
77	0xbf08b949	-0.5340772
78	0xc03005d4	-2.7503557
79	0x3fdce834	1.7258363
80	0x3f3ca21f	0.7368488
81	0xbfbf73ba	-1.4957192
82	0x3ed830a1	0.422246
83	0x3efcbf01	0.49364474
84	0x3cdf5796	0.027263444
85	0x3fa17e2c	1.261663
86	0x3f3fe5fe	0.74960315
87	0xbf3cc85f	-0.7374324
88	0x3ebc396d	0.36762562
89	0x3f33d7f3	0.7025139
90	0xbc5a76fa	-0.01333403
91	0x3e544aa1	0.20731594
92	0x3eb22362	0.3479262
93	0x3ccc2844	0.024921544
94	0x3f922548	1.1417627
95	0x3f9bcd92	1.217211
96	0x3fb9a267	1.4502686
97	0xbfa24cff	-1.2679747
98	0x3eefec50	0.4685998
99	0xc0b1d850	-5.5576553
100	0xbf6f5a87	-0.9349751
101	0x3ec8ec0a	0.39242584
102	0xbf06bd6f	-0.526328
103	0x3e882276	0.26588792
104	0x3c284ff2	0.010272967
105	0x3f5da2e0	0.8657665
106	0x3fa8933e	1.3169935
107	0x3f57f495	0.8435758
108	0x3e8446ec	0.2583536
109	0xc0c0aa34	-6.0207767
110	0x3eb43e35	0.3520371
111	0x3e9095c3	0.2823926
112	0xbfeddb61	-1.8582574
113	0xbf54fb4d	-0.83195955
114	0x40082b65	2.1276486
115	0xc09e0577	-4.938167
116	0x3fdb14af	1.7115687
117	0x3fbc8655	1.4728495
118	0xbf20f06e	-0.62866867
119	0xbe48d8cf	-0.19613956
120	0x3d41aaa5	0.04728188
121	0xbff70542	-1.929848
122	0xbf3febe3	-0.7496931
123	0xbf01466d	-0.50498086
124	0xc005b4d0	-2.089161
125	0xbe49996e	-0.19687435
126	0x4024bd7e	2.5740657
127	0x3fa147b9	1.2600013
128	0x3fedb56f	1.8570994
129	0x3f0ef39d	0.55840474
130	0x3f895f64	1.0732236
131	0x3fbf9748	1.4968042
132	0x3fa63c29	1.298711
133	0xbef54b37	-0.47908947
134	0xbee410c3	-0.44544038
135	0x3fc76181	1.5576631
136	0xbfe78f64	-1.8090634
137	0xbf927692	-1.1442435
138	0xc0555881	-3.3335268
139	0x3e8f23c1	0.27956966
140	0xbcb2223e	-0.021744844
141	0xbff2747c	-1.8941798
142	0x3fe20827	1.7658738
143	0xbe7d1060	-0.24713278
144	0xbf9c94b0	-1.2232876
145	0xc000a0f0	-2.0098228
146	0x3ef61995	0.48066393
147	0x3f3a77c8	0.7283902
148	0xbd8d805a	-0.06909247
149	0x4010cd9e	2.2625499
150	0xbe195111	-0.1497233
151	0xbfb97154	-1.448771
152	0xbfa50d22	-1.2894633
153	0xbee1ae73	-0.44078407
154	0xc0396c49	-2.8972342
155	0xbd1546d2	-0.036444493
156	0xbfa8e247	-1.3194054
157	0x40614153	3.519612
158	0xbe036583	-0.12831692
159	0xbfbefc58	-1.4920759
160	0x400b073a	2.172316
161	0xbf619450	-0.8811693
162	0xbeb284bf	-0.34866902
163	0x3e46e860	0.19424582
164	0xbf774325	-0.9658683
165	0x3ee71b6a	0.45138103
166	0x3eec2e59	0.4612911
167	0xbfa25879	-1.268325
168	0x3fc0cada	1.5061905
169	0xbff49c63	-1.9110225
170	0x4047e9e8	3.1236515
171	0xbf08ad67	-0.5338959
172	0xbf2d9b94	-0.6781552
173	0xbfa49d95	-1.286059
174	0xbf787511	-0.9705363
175	0xc05f8807	-3.4926775
176	0x3ebdcdcd	0.37071076
177	0xbf802203	-1.001038
178	0xbea5d864	-0.32391655
179	0x3ea72aa3	0.32649717
180	0x3ec30090	0.38086367
181	0xbd995a09	-0.07487876
182	0xbf33ac70	-0.70184994
183	0x3fc5b315	1.5445276
184	0xbd10c20b	-0.035341304
185	0x3f2f45ae	0.684657
186	0x3f50d4bd	0.8157461
187	0xbf60e52d	-0.87849694
188	0xbde8da03	-0.113697074
189	0xc009d515	-2.1536305
190	0x400fc513	2.2464035
191	0x3e359292	0.17731693
192	0xbe8a43bf	-0.2700481
193	0x3f383480	0.7195511
194	0xc071a541	-3.7757113
195	0xbdbc9e17	-0.09209841
196	0x3f04b5bb	0.518398
197	0x3f01791e	0.50575435
198	0x3ef105bf	0.47074696
199	0xc018ced4	-2.3876238
200	0x3f2169f5	0.630523
201	0xbfdc7912	-1.7224448
202	0xbc537588	-0.01290644
203	0xc0b3526a	-5.6038103
204	0xbef19dcc	-0.47190702
205	0xc032f16a	-2.7959847
206	0xc019dd02	-2.4041142
207	0xbf0bf2dc	-0.5466745
208	0xbea0fd20	-0.3144312
209	0xc082490b	-4.0714164
210	0x3eecad90	0.46226168
211	0xbf2dfd5e	-0.6796473
212	0x3f8476a6	1.0348709
213	0xc033ab10	-2.8073158
214	0xbf90a72c	-1.1301017
215	0xbcefaa74	-0.029256083
216	0xbcda0681	-0.02661443
217	0xbc649567	-0.013951636
218	0xc0b0ed0b	-5.528936
219	0xbe4eb2c3	-0.2018538
220	0xc02a08c1	-2.6567843
221	0xc0030587	-2.0472124
222	0x3f98388d	1.1892258
223	0x3fe9dc3f	1.8270339
224	0x4051df74	3.2792635
225	0xbf0da043	-0.55322665
226	0x3f74693f	0.9547309
227	0x3fa6ec17	1.3040799
228	0xbfc426a8	-1.5324297
229	0xbf0569a0	-0.52114296
230	0xbff54deb	-1.9164404
231	0xc00c6396	-2.1935782
232	0x3f845450	1.033823
233	0xc09c4390	-4.8832474
234	0x3fcfb1be	1.6226118
235	0xbf978d5e	-1.1840017
236	0xc0be59fc	-5.9484844
237	0x3fec15f7	1.8444203
238	0xbe3c066b	-0.18361823
239	0x3f3f684b	0.74768513
240	0x3ee8aea6	0.45445746
241	0xc084e473	-4.152887
242	0x3f20a157	0.62746185
243	0x401dfba9	2.468485
244	0x3fac8f96	1.3481319
245	0x3ed9b2b5	0.42519155
246	0x3f86d77e	1.0534513
247	0x3f89dd66	1.077069
248	0xc06f0252	-3.7345166
249	0x3fd436f9	1.6579276
250	0xbef2baff	-0.47408292
251	0x3def4b45	0.116842784
252	0xc09594fb	-4.674436
253	0xbeb4b89b	-0.35297093
254	0xbfefa43c	-1.8721995
255	0xbea235ca	-0.31681663

FC2.bias f4 [256]
0	0xbef622b4	-0.4807335
1	0xbda33168	-0.07968408
2	0xbfa4b7c0	-1.2868576
3	0xbef3aaf7	-0.47591373
4	0xc0033b26	-2.0504851
5	0xbf9b74c5	-1.214501
6	0xbf42a692	-0.76035416
7	0xbdb0e8ee	-0.08638178
8	0xbfdbe491	-1.7179128
9	0xbfd5e78a	-1.6711285
10	0xbf9926bf	-1.1964949
11	0xbddbd67e	-0.107342705
12	0xc00c227f	-2.1896055
13	0xbd81d332	-0.063391104
14	0xc00e7865	-2.2260983
15	0xbfaf158d	-1.3678452
16	0xbf61cb73	-0.88201064
17	0xbe5d6443	-0.21620278
18	0xbdf8ce82	-0.12148763
19	0xbffcdcea	-1.9754918
20	0xbfcbf31a	-1.5933564
21	0xbe8ecfe1	-0.27892974
22	0x3f777cf9	0.9667507
23	0xc00346ab	-2.0511882
24	0x3de1fc6a	0.11034472
25	0xbe340034	-0.17578202
26	0x3e524b52	0.20536545
27	0xbd5cbe8a	-0.05389265
28	0xbf9afdfc	-1.210876
29	0xbf80e8fc	-1.0071101
30	0xc02c431b	-2.6915958
31	0xbf9902f4	-1.1954026
32	0xc006e4eb	-2.107722
33	0xbdcb7fb1	-0.099364646
34	0xbf0882fb	-0.5332486
35	0xbfa60904	-1.2971501
36	0xbdfe4cf6	-0.12417023
37	0xbee9936c	-0.45620286
38	0xc01bd19d	-2.4346688
39	0x3f358a1d	0.7091387
40	0xbdca6779	-0.09883017
41	0xc00b10e1	-2.1729052
42	0x3f782efa	0.9694668
43	0xbf1adbb1	-0.6049147
44	0xbf21ce4f	-0.63205427
45	0xbff6090d	-1.9221512
46	0xbfca7e74	-1.581984
47	0x3f226332	0.6343261
48	0xbe555f4e	-0.20837137
49	0xc01e2e89	-2.4715903
50	0xbf1bc9c2	-0.60854733
51	0xbf8316c5	-1.0241324
52	0xbf048318	-0.51762533
53	0xbefedfce	-0.49780124
54	0xbff0cf3a	-1.881324
55	0xbe0b91dc	-0.1362986
56	0xbefb69d6	-0.49104184
57	0xbedde62c	-0.4333967
58	0xbf993128	-1.1968126
59	0xbe7de8df	-0.24795865
60	0xbe86ee46	-0.26353663
61	0xbe9d4fad	-0.3072485
62	0xbf95f0dc	-1.171413
63	0x3c8c1951	0.017101916
64	0x3f15d5c3	0.585293
65	0xbf482d0d	-0.7819374
66	0x3e1fb9b3	0.15598182
67	0xbe8a7dee	-0.27049202
68	0xbebb61f1	-0.3659816
69	0xbd6df857	-0.058098163
70	0xbf86b99a	-1.0525391
71	0xbf6495f5	-0.89291316
72	0xbe8e6e1a	-0.27818376
73	0xbf654b38	-0.895679
74	0x3de3d7d4	0.1112515
75	0x3e34cb16	0.17655596
76	0xc014c4c1	-2.324509
77	0xbe8d4cdd	-0.27597705
78	0xbf6e07b1	-0.92980486
79	0xbf6a50a9	-0.9152933
80	0xbed17572	-0.40909916
81	0xbfb65150	-1.4243565
82	0xbdaf8318	-0.08569926
83	0xbe199b14	-0.15000564
84	0xbe1680ca	-0.14697567
85	0xc03b0244	-2.9220133
86	0xbf94474b	-1.1584257
87	0xbda27e16	-0.07934205
88	0xbf163f2b	-0.58690137
89	0x3fc5fb1a	1.5467255
90	0xbfcdc362	-1.6075251
91	0xbf5115f2	-0.8167411
92	0xbf43cac4	-0.7648127
93	0xc017cfc4	-2.372056
94	0xbfa99783	-1.3249363
95	0xbe88479e	-0.2661714
96	0xbf94f9da	-1.1638749
97	0xbf957dff	-1.1679076
98	0xbf96b93f	-1.1775283
99	0xbfe6dbed	-1.8035866
100	0xbf80b2d3	-1.0054573
101	0xbf80a947	-1.0051659
102	0xbe80ed38	-0.25180984
103	0xbf951369	-1.1646549
104	0xbf8c1000	-1.0942383
105	0xbf7c8c7b	-0.98651856
106	0x3fd5f78d	1.6716172
107	0x3e3a082d	0.18167181
108	0xbff39229	-1.902898
109	0xbd98881f	-0.07447838
110	0xbe4942c0	-0.1965437
111	0x3efedb07	0.4977648
112	0x3e595956	0.21225485
113	0x3e7f063e	0.24904725
114	0xbe563e4d	-0.20922203
115	0xbfc53c42	-1.5409014
116	0xbf8f27fb	-1.1184076
117	0xbf82a7bd	-1.020744
118	0xbfd4670b	-1.6593946
119	0xbf81afd0	-1.0131779
120	0xbd6f8fd6	-0.058486782
121	0xbf9457be	-1.1589277
122	0x3ecd99e3	0.4015647
123	0xbf33911f	-0.7014331
124	0xbda06f9d	-0.078337885
125	0xbe08e1aa	-0.13367334
126	0xbe4acdbe	-0.19805047
127	0xbed04b9b	-0.40682682
128	0xbf3e94d6	-0.74445856
129	0xbfdc1f63	-1.7197078
130	0xc039eab9	-2.9049513
131	0xbd26b4f0	-0.0406999
132	0xbeed7f0e	-0.46385998
133	0xbf4d0a46	-0.800938
134	0xbfad8688	-1.3556681
135	0xbfa03227	-1.2515305
136	0xbe03793d	-0.12839217
137	0x3fb2ad47	1.395913
138	0xc016c9fa	-2.3560777
139	0xbdd569dd	-0.104205824
140	0xbf940bb8	-1.1566076
141	0xbdc1eb6d	-0.09468732
142	0x3e2328e9	0.15933575
143	0xbed26bbd	-0.41097823
144	0xbf6cf942	-0.9256784
145	0xbf602bb8	-0.8756671
146	0xbfc45889	-1.5339519
147	0xbe9ff62e	-0.31242508
148	0xbf1b5273	-0.6067268
149	0xc02964ab	-2.6467693
150	0xc0025b84	-2.0368357
151	0xbf1dd936	-0.6165956
152	0x3eaa9919	0.3331993
153	0xbe052f90	-0.13006425
154	0x3f0cf730	0.5506468
155	0xc0474d6b	-3.1141002
156	0xbff14759	-1.8849899
157	0xc00af9e2	-2.1715016
158	0x3eb2ab00	0.34896088
159	0xbe88cf75	-0.26720777
160	0xbeb6a6fc	-0.35674274
161	0x3ed944da	0.42435342
162	0xbfde0864	-1.7346311
163	0x3fa5edcc	1.2963195
164	0xbf46510d	-0.77467424
165	0xbf5edcd7	-0.87055725
166	0xbf3c9e58	-0.73679113
167	0xbfb3d84a	-1.4050381
168	0xbf1e352f	-0.617999
169	0xbfa0ece5	-1.2572294
170	0xbfd3e362	-1.6553767
171	0xbfd659e5	-1.6746184
172	0xbfbac73e	-1.4592054
173	0xc00c646e	-2.1936297
174	0xbffcdcfd	-1.975494
175	0xc04231d5	-3.0342915
176	0xbf935eee	-1.1513345
177	0xbfa63114	-1.2983727
178	0xbfa18312	-1.2618124
179	0x3f6c533e	0.9231452
180	0xbd435491	-0.04768807
181	0xbfad6918	-1.3547697
182	0xbf0a0f6f	-0.539298
183	0xbf3736c3	-0.71567935
184	0x3fdc7fbc	1.7226481
185	0xbfd1af6f	-1.6381663
186	0xbffdea84	-1.9837193
187	0x3e5a4e8e	0.21319029
188	0xbe50f375	-0.20405371
189	0xbefbe72c	-0.49199808
190	0xc0091440	-2.141861
191	0xc01da691	-2.4632914
192	0x3ec0f3be	0.3768596
193	0xbf8b4f96	-1.0883663
194	0xbf0e0eb7	-0.55491203
195	0xbd6018c1	-0.054711107
196	0xbf31f44a	-0.6951338
197	0xbffa983d	-1.957771
198	0xbeac5696	-0.3365981
199	0xc0127968	-2.28866
200	0xbf1a4f29	-0.6027704
201	0xbd73f01f	-0.05955517
202	0xbe55f6c9	-0.20894922
203	0xc007f826	-2.1245208
204	0xbf7f0af9	-0.9962612
205	0x3e48bf36	0.19604191
206	0xbfed59bf	-1.8543013
207	0xbff9d650	-1.9518528
208	0xbea5e484	-0.32400906
209	0x3fc32d75	1.5248247
210	0xbf970fe8	-1.1801729
211	0xbf662440	-0.89899063
212	0x3f157102	0.5837556
213	0xbf991cac	-1.1961875
214	0xbf8d6969	-1.1047794
215	0xc014f61b	-2.327521
216	0xc06e5811	-3.7241251
217	0x3ef1e7f0	0.47247267
218	0xbdf52f01	-0.11971856
219	0xc0592bd1	-3.3932993
220	0xbfce2853	-1.6106056
221	0xbf5290d9	-0.8225227
222	0xbf915c42	-1.135628
223	0xbe27ea84	-0.16398054
224	0x3d0572c6	0.03258016
225	0x3eb37854	0.3505274
226	0xbfacb28a	-1.3491986
227	0xbfc81f1b	-1.5634493
228	0xbfdfa153	-1.7471107
229	0xc00c0b0a	-2.1881738
230	0x3ea9a630	0.33134604
231	0xbfab8c63	-1.3402218
232	0xbf230f9b	-0.6369569
233	0xbedbc631	-0.42924646
234	0x3e2d068e	0.16897032
235	0xbf6f3e4d	-0.9345444
236	0xbff8e26f	-1.9444102
237	0xbfaf09b6	-1.3674839
238	0xc011cd80	-2.2781677
239	0xbfbf5556	-1.4947917
240	0xbdd614c8	-0.104531825
241	0xbfbf0eb8	-1.4926367
242	0xbfdec213	-1.7402977
243	0x3f374377	0.7158732
244	0xc00214d6	-2.0325217
245	0xbf12aba3	-0.57293147
246	0xbdde9735	-0.10868684
247	0xbf821767	-1.0163392
248	0xc01f5d95	-2.4900868
249	0xbe09cbd7	-0.13456665
250	0xbfcb6b6b	-1.5892156
251	0xbed2a1a6	-0.41138953
252	0xbd904cae	-0.070458755
253	0xbe569df6	-0.20958695
254	0xbe9965ef	-0.29960582
255	0xbee9ce4d	-0.45665208

action_out.weight f4 [5, 256]
0	0x40050bfd	2.0788567
1	0xbd833fe1	-0.06408668
2	0x4011a458	2.2756557
3	0x3f22881c	0.63488936
4	0xbad52fe6	-0.0016264885
5	0xc0539569	-3.3059943
6	0xbfacdf2a	-1.3505604
7	0x3fbac902	1.4592593
8	0xbf67aa21	-0.9049397
9	0x3d31ecc9	0.043438707
10	0x405a8e73	3.4149444
11	0x3f0df97e	0.5545882
12	0xc0276a39	-2.6158583
13	0xbc233f85	-0.009963875
14	0x40112100	2.2676392
15	0xbdab345f	-0.08359598
16	0x40456135	3.084058
17	0x3d82c6c7	0.0638557
18	0x3ed746a0	0.4204607
19	0x4005e9b9	2.0923903
20	0xbf914152	-1.1348059
21	0x3fd793a4	1.6841931
22	0x3faf43ee	1.3692605
23	0x40a2408c	5.0703793
24	0x3f347c88	0.7050252
25	0x3fef9036	1.8715885
26	0x3f0f0018	0.5585952
27	0x3f314f5a	0.69261706
28	0x3fde0e20	1.7348061
29	0xbfab74dd	-1.3395039
30	0x3ee4ab90	0.44662142
31	0x3fbb0377	1.4610432
32	0x3f6ffabb	0.9374196
33	0x3ced3977	0.028958065
34	0x40288583	2.633149
35	0x40237b54	2.5544024
36	0xbd6598d5	-0.056053955
37	0x3c8f33fc	0.017480843
38	0x409d1d52	4.909829
39	0x403f45f8	2.9886456
40	0x401781ab	2.3672893
41	0x3e19514a	0.14972416
42	0x3fe2fe91	1.7733938
43	0x3fb73634	1.4313416
44	0x3f9747a3	1.1818737
45	0x3e0df2a1	0.13862087
46	0x3f638db4	0.88888097
47	0x3f5a7748	0.8533826
48	0x400b9d14	2.1814623
49	0x3efcfdaf	0.49412295
50	0x3fdaa219	1.7080718
51	0x3fdb4caa	1.7132771
52	0x40057991	2.0855448
53	0x4051e866	3.2798095
54	0x40853196	4.162303
55	0x3dc89589	0.097941466
56	0x3fe5aa8b	1.794267
57	0x3f42f431	0.76153857
58	0x3fa25970	1.2683544
59	0x3f53e00c	0.82763743
60	0x3fe13267	1.7593507
61	0x3ffd8474	1.9806046
62	0x3e848ec7	0.2589018
63	0x3f75a0a3	0.9594824
64	0x403ce2e8	2.9513493
65	0xbf81929d	-1.0122868
66	0x4044bc66	3.073999
67	0x3f993b18	1.1971159
68	0x4000e793	2.0141342
69	0x3fd91108	1.6958323
70	0x3fb7425d	1.4317127
71	0xbd8aa42c	-0.067695946
72	0x401c9fcc	2.4472532
73	0x3e57ad3a	0.21062174
74	0xbe60419f	-0.21900032
75	0x400f76c8	2.2416248
76	0x403a9bb1	2.9157526
77	0xbeacf472	-0.33780247
78	0xbe09f49e	-0.1347222
79	0x3fc4a941	1.5364152
80	0xbf4f78de	-0.81043804
81	0x3f7a84c8	0.9785886
82	0x3ec9b418	0.39395213
83	0x3f9119d8	1.1336012
84	0x3eb2e996	0.34943837
85	0xbed181ee	-0.4091944
86	0x4075670f	3.8344152
87	0x3f3a2cfa	0.7272488
88	0x3e9a8f97	0.30187675
89	0x401ed030	2.4814568
90	0x3f8e59bb	1.1121134
91	0x3fb36549	1.4015285
92	0x3ff86602	1.940613
93	0x3fdebd5a	1.7401536
94	0x3f9bcde9	1.2172214
95	0x3e84b635	0.25920263
96	0x4023b216	2.5577445
97	0x3ed3eba3	0.41390714
98	0xbf4aa00f	-0.7915048
99	0x3faba76f	1.3410472
100	0xbea85406	-0.32876605
101	0x3f475852	0.7786914
102	0x3f697c78	0.9120555
103	0x4022db1f	2.544624
104	0x40009d8b	2.0096157
105	0xbe827b49	-0.25484684
106	0x3fe93b95	1.8221308
107	0x40183a69	2.378565
108	0x3ef3ab7e	0.47591776
109	0x3fa3aade	1.278652
110	0x3eb4eeca	0.35338432
111	0x3f87a0d5	1.0595957
112	0x3e182d71	0.14861085
113	0x3fd57976	1.6677692
114	0x3fb4dec7	1.4130486
115	0x400e6804	2.2250986
116	0x3ed9e5e8	0.42558217
117	0x4018c36d	2.3869278
118	0xbf5cea0f	-0.86294645
119	0x3fe28c9e	1.7699163
120	0x3c8ffce8	0.01757665
121	0x3fc08fc2	1.5043871
122	0x3fba0cb4	1.4535127
123	0x400503c1	2.0783541
124	0x3d823de5	0.06359462
125	0x40155c91	2.3337748
126	0x3ec57fe3	0.38574132
127	0x3f8f1094	1.1176934
128	0x40876add	4.231795
129	0x403fed45	2.9988568
130	0xbf8291a0	-1.0200691
131	0xbca1d71f	-0.019755898
132	0x401555eb	2.333369
133	0xbed8f43e	-0.42373842
134	0xc031264f	-2.7679632
135	0x3f68b703	0.90904254
136	0x3fb31318	1.3990202
137	0x3fefe5bf	1.8741988
138	0x400add76	2.169767
139	0x3e848d3f	0.25889012
140	0x3e26d273	0.16291218
141	0x3ef21c54	0.47287238
142	0x3ff40986	1.9065406
143	0x4001711d	2.022529
144	0xc0972acd	-4.7239747
145	0x402f63c0	2.7404633
146	0xbf294310	-0.66117954
147	0x3fb06356	1.3780315
148	0x400fc7c4	2.2465677
149	0x402900d7	2.6406763
150	0x3f10cbe6	0.56561124
151	0xbf5e10c9	-0.8674436
152	0x402e1a09	2.720339
153	0x3ebe4de4	0.371688
154	0x3fc84fd5	1.5649363
155	0x3f1a917f	0.6037826
156	0xbf5e11ec	-0.86746097
157	0x402cb932	2.6988034
158	0x3f6c342e	0.9226712
159	0xbf003ad3	-0.5008976
160	0x3f88930a	1.0669873
161	0x3fdefc04	1.7420659
162	0x4029c5f9	2.6527083
163	0x3f9ad6e6	1.2096832
164	0x3f4b618d	0.79445726
165	0xbe92aa97	-0.28645775
166	0x3f816641	1.010933
167	0x3f89b4e7	1.0758332
168	0x3fa94761	1.3224908
169	0x3faf3d8c	1.3690658
170	0xbdbc4054	-0.09191957
171	0x401aab49	2.4167044
172	0x3fac9b69	1.3484927
173	0xbf0da884	-0.5533526
174	0xbf50176d	-0.81285745
175	0x3f0c0ae1	0.547041
176	0x4033b710	2.8080482
177	0x404d4b8f	3.2077367
178	0xbfcc69f0	-1.596983
179	0x3fc1d82f	1.5144099
180	0xbaa10dde	-0.0012287458
181	0xbf60ddd5	-0.8783849
182	0x40351f67	2.8300416
183	0x3fc0a9a8	1.5051775
184	0x4027c28e	2.6212497
185	0x40064564	2.0979853
186	0xbdeff5e8	-0.11716825
187	0x400aab67	2.1667116
188	0x3e76908b	0.24078576
189	0x3f80a5e7	1.0050629
190	0xbec109ae	-0.37702698
191	0x3f858000	1.0429688
192	0x40216265	2.5216305
193	0xbf33eae6	-0.702803
194	0x3fbaa368	1.4581118
195	0xbc8bc19e	-0.017060097
196	0xc09303a7	-4.594196
197	0xbc3e4557	-0.011613212
198	0x40116d48	2.272295
199	0xc08e1a51	-4.4407125
200	0x3fb42eca	1.4076779
201	0xbd10d0ad	-0.03535526
202	0x3e12d2e3	0.1433826
203	0x3f8a4945	1.080361
204	0xc0418a82	-3.0240788
205	0x400124b7	2.017866
206	0xc05f0dff	-3.4852293
207	0x400d2b1a	2.2057557
208	0xbe037df7	-0.1284102
209	0x400f10bc	2.2353964
210	0x3e53779f	0.206511
211	0x4007e119	2.1231139
212	0x3f95d8a0	1.1706734
213	0x3fc075c9	1.5035945
214	0x4035d137	2.8408945
215	0xbfc32470	-1.5245495
216	0xbea0e7ff	-0.31427
217	0x40012eaa	2.0184731
218	0xbd19369d	-0.0374056
219	0xc01b5109	-2.426821
220	0xc035ea7a	-2.8424363
221	0xbf28e020	-0.6596699
222	0x3fbf11db	1.4927324
223	0x3e50ac1d	0.20378156
224	0xbcbd640a	-0.023118991
225	0xbfbef55b	-1.4918627
226	0xbf3f9694	-0.7483914
227	0x3f7575d5	0.9588292
228	0xc0024ad0	-2.0358162
229	0x3fa02342	1.251076
230	0x4010d1bf	2.262802
231	0x40008650	2.0081978
232	0x40133301	2.299988
233	0x3fd43e64	1.658154
234	0x3fa86a5e	1.3157461
235	0x3fec8f1a	1.8481171
236	0x3ff39158	1.902873
237	0x3ff8d4c1	1.9439927
238	0xbd372dc0	-0.044721365
239	0x3f87fbd8	1.0623732
240	0x3d0ee479	0.034885857
241	0x3f8d08e4	1.1018338
242	0xc016d68a	-2.3568444
243	0x3f592f89	0.8483816
244	0xbfc2e089	-1.5224773
245	0x3ec1b791	0.37835363
246	0x3e951749	0.29119328
247	0x402831fd	2.628051
248	0x3f8f2156	1.1182048
249	0x3d6f08ab	0.058357876
250	0x4034d9ad	2.8257859
251	0x3feecbce	1.8655946
252	0x3f1e0a4a	0.6173445
253	0x3dbeea74	0.09322062
254	0x3fe0ac88	1.7552652
255	0x4022dc23	2.544686

action_out.bias f4 [5]
0	0x3f8c3126	1.0952499
1	0xbfcccf93	-1.6000847
2	0x40b113f0	5.533684
3	0x3f9a98d5	1.2077891
4	0x400ec447	2.2307298

weight f4 [256, 123]
0	0xc140ac0b	-12.042003
1	0xbe94cd44	-0.29062855
2	0xbde18d52	-0.11013283
3	0xbe958d24	-0.29209244
4	0xbdfd78c8	-0.12376553
5	0xbea1abcf	-0.31576392
6	0xbe93d799	-0.28875425
7	0xbcfd39cb	-0.030911347
8	0x3fbfbe2e	1.4979913
9	0x3d91cb87	0.07118898
10	0x3d58328a	0.052782573
11	0x3d7cea6d	0.061747003
12	0x3e23d4f9	0.15999211
13	0xbcfaf3e9	-0.030633884
14	0xbe28db12	-0.16489819
15	0xbfed7508	-1.855134
16	0xbefbc3d1	-0.49172834
17	0xbf871dfb	-1.0556024
18	0xbf5e8b7e	-0.869316
19	0xbe9bc948	-0.30427003
20	0xbe3f5502	-0.18684772
21	0xbf84bc48	-1.0369959
22	0x3dcd9066	0.100373074
23	0x3f6aff52	0.9179584
24	0xbf7f500b	-0.9973151
25	0xbfa0e3f4	-1.2569566
26	0xbc61fd02	-0.013793232
27	0xbfbfd802	-1.4987795
28	0x3d1b543a	0.03792212
29	0xbe52c430	-0.20582652
30	0xbd7ae11f	-0.06124985
31	0xbe98affd	-0.29821768
32	0xbfc39fda	-1.5283158
33	0xbc6d4e50	-0.014484003
34	0xbcd584d8	-0.026064321
35	0xbf1f3768	-0.6219392
36	0xc141a835	-12.103566
37	0x3e252de4	0.16130787
38	0x3def009f	0.1167004
39	0xbedddc2d	-0.43332043
40	0xbcad087b	-0.021122208
41	0xbeb3d9a1	-0.35126975
42	0xbea42b85	-0.32064453
43	0x3f97b8e0	1.1853294
44	0x3e2d232d	0.1690795
45	0x3f68b63a	0.90903056
46	0x3f6c8305	0.9238742
47	0x3d7bb86d	0.06145518
48	0x3e16ce79	0.147272
49	0xbbdf81a9	-0.0068208766
50	0xbe658a4c	-0.22416037
51	0xbfbf0114	-1.4922204
52	0x3ff86fe4	1.9409146
53	0x3ceb434c	0.028718613
54	0x3d82eea5	0.06393174
55	0xbed384d8	-0.4131229
56	0xbe1eda84	-0.15513045
57	0xbf7bbbe9	-0.98333603
58	0x3e82c96c	0.25544298
59	0x3fef2ef8	1.8686209
60	0xbfb7a4be	-1.434715
61	0x3df8cb9b	0.1214821
62	0x3ec8ca8c	0.3921703
63	0xbfb466f0	-1.4093914
64	0xbe7a4097	-0.24438702
65	0x3d0a4e17	0.03376588
66	0xbe9c3b18	-0.30513835
67	0xbe842536	-0.2580964
68	0xbd5de116	-0.054169737
69	0xbfc237e4	-1.5173306
70	0x3d9d1561	0.07670093
71	0x3fcd16a7	1.6022538
72	0xc140541b	-12.020534
73	0xbe991f86	-0.29906863
74	0xbd1ca5e9	-0.03824416
75	0xbea15d44	-0.3151647
76	0xbcebeb2b	-0.02879866
77	0xbec2bb22	-0.38033396
78	0xbecc068d	-0.39848748
79	0x3f8e9bd2	1.1141303
80	0xbf084c6e	-0.5324162
81	0x3fa04b16	1.2522914
82	0x3e1ae4fb	0.15126412
83	0x3e0fb4a0	0.14033747
84	0x3e05ec3f	0.13078402
85	0xbd0adbbe	-0.03390097
86	0xbe8e675e	-0.27813238
87	0xbfb21b43	-1.391457
88	0x3e97863f	0.2959461
89	0x3d09cbe9	0.03364173
90	0xbf086f82	-0.5329515
91	0xbea33b29	-0.31881073
92	0xbd08274a	-0.033240594
93	0xbf818cdc	-1.0121112
94	0x3e73ebe5	0.23820455
95	0x4053e048	3.310564
96	0xc01011e6	-2.2510924
97	0xbcd59060	-0.02606982
98	0x3d1f5b06	0.038905166
99	0xbfb29b28	-1.39536
100	0xbdce9cbe	-0.1008849
101	0xbd499ad2	-0.049219914
102	0xbe99b65d	-0.30021945
103	0xbe351b11	-0.17686106
104	0xbbf1b4e0	-0.0073762983
105	0xbbf6ce70	-0.0075319335
106	0xbfba75f0	-1.4567242
107	0xc105fdf7	-8.374503
108	0x3ea04bf9	0.31307963
109	0x3ed52c4e	0.41635364
110	0xbec75bde	-0.38937277
111	0x3ec479e3	0.38374242
112	0xbf19766d	-0.5994633
113	0x3e1d9fba	0.15392962
114	0xbda1e5b2	-0.07905139
115	0x3ea1d229	0.31605652
116	0xbd44ef47	-0.048079755
117	0x3d97b231	0.07407034
118	0xbd661794	-0.05617483
119	0xbc6819ac	-0.014166277
120	0x3d4c14f1	0.04982466
121	0x3d934060	0.07190013
122	0xbd17977e	-0.03700971
123	0x4059539c	3.395728
124	0xbdc0d42c	-0.094154686
125	0x3e57a57d	0.21059223
126	0x3c4fdd7c	0.012687083
127	0x3e350ac1	0.17679884
128	0xbecbf30c	-0.39833868
129	0x3f3db6f1	0.7410727
130	0x3fbe6894	1.4875665
131	0xbfba0669	-1.4533206
132	0xbda5b11e	-0.08090423
133	0x3c15fa30	0.009153888
134	0x3f4b5bd1	0.79436976
135	0xbe414aa7	-0.18876134
136	0xc03372bc	-2.8038778
137	0xbeff20fb	-0.4982985
138	0x3fe70358	1.8047895
139	0x3f0ad555	0.5423177
140	0x3ef7b8b1	0.48383096
141	0x3df02d59	0.117273994
142	0xbeb18c56	-0.3467738
143	0x3e7a459a	0.24440613
144	0xbf0cf273	-0.5505745
145	0xbebb4497	-0.36575767
146	0xbf6ab9c8	-0.9168973
147	0xbec36da9	-0.38169602
148	0x3dfefb51	0.124502786
149	0xbdc1d248	-0.09463936
150	0xbdabd099	-0.08389396
151	0x3d3ea32f	0.046542343
152	0x3ca09b61	0.01960534
153	0x3df18f90	0.117949605
154	0x3d05d9cc	0.03267841
155	0xbdcede5f	-0.10101008
156	0x3d7d7fb2	0.061889358
157	0x3d810095	0.06298939
158	0x401049f9	2.254515
159	0x405cc640	3.4496002
160	0x3f61705b	0.88062066
161	0xbe8d15f9	-0.27555826
162	0x3c28d4e8	0.010304667
163	0x3e05da79	0.13071622
164	0xbecf53c8	-0.40493608
165	0x3f21f353	0.6326191
166	0x3b0f4355	0.0021860201
167	0xbf695e8d	-0.911599
168	0xbf0c21d6	-0.5473913
169	0xbcfff1e4	-0.031243272
170	0x3f724cdb	0.9464852
171	0xbe76caed	-0.24100848
172	0xc036947a	-2.8528123
173	0xbefd7572	-0.49503666
174	0x4083193f	4.096832
175	0xbf38a952	-0.7213336
176	0x3bb2d1f0	0.0054571554
177	0xbd0a15ad	-0.033712078
178	0xbe9168f0	-0.28400373
179	0x3e83fd7a	0.25779325
180	0xbee6ad56	-0.4505412
181	0xbf0289ef	-0.5099172
182	0xbf881ff4	-1.0634751
183	0xbf6fa31b	-0.93608254
184	0xbe7bff4a	-0.24609104
185	0xbc9cdd1d	-0.019148404
186	0xbdf2b59d	-0.11851046
187	0xbe0501d5	-0.1298898
188	0x3da73c40	0.08165789
189	0x3d2c73ce	0.042102627
190	0xbe8b0df8	-0.27159095
191	0x3db42dc5	0.08797792
192	0xbe23df8c	-0.16003245
193	0x3d2e9fc2	0.042632826
194	0x4015a5f3	2.3382537
195	0x405add84	3.4197702
196	0xbee2f016	-0.44323796
197	0x3e9bcdd5	0.30430475
198	0xbe09ac12	-0.13444546
199	0x3e0e164a	0.1387569
200	0xbef3397c	-0.47504795
201	0x3f42b143	0.7605173
202	0xbd3901ed	-0.045167852
203	0xbdf74afa	-0.120748475
204	0xbe61f6e6	-0.2206684
205	0xbc8da84b	-0.017292162
206	0x3f634029	0.88769776
207	0xbe9666eb	-0.29375395
208	0xc036d38a	-2.8566613
209	0xbf026fd6	-0.509519
210	0x3f70edff	0.94113153
211	0x3ebe314d	0.3714699
212	0x3e299802	0.16561893
213	0xbdacc3a9	-0.08435757
214	0xbecced8e	-0.4002499
215	0x3e8bd3d7	0.27310058
216	0xbecc1eb2	-0.3986717
217	0xbeb86957	-0.36017868
218	0xbf61e533	-0.88240355
219	0xbfab6c31	-1.3392392
220	0x3ad23000	0.0016036034
221	0x3d9c4a35	0.07631341
222	0xbdcc76d5	-0.09983603
223	0x3dd3f798	0.10349959
224	0xbca00381	-0.01953292
225	0x3e01b337	0.12666021
226	0xbc5823b6	-0.013192108
227	0x3d3362be	0.04379534
228	0x3d879417	0.06620043
229	0xbe11a1ba	-0.1422185
230	0x400f7749	2.2416556
231	0x3d017166	0.031602286
232	0x3dacc81f	0.084366076
233	0xbc943c89	-0.018095272
234	0x3e129a9f	0.14316796
235	0x3cd3a849	0.02583708
236	0xbcffa5c4	-0.031206973
237	0xbe1edaed	-0.15513201
238	0x3e2ca308	0.16859066
239	0xbcc163c8	-0.02360715
240	0xbb4dd564	-0.0031407708
241	0xbddf4d00	-0.109033585
242	0x3e0b0e6c	0.1357972
243	0xbd40e1b5	-0.04709025
244	0xbd7f404b	-0.062317174
245	0xbd64c31d	-0.055850137
246	0xbd5057f2	-0.05086512
247	0xbcda061b	-0.02661424
248	0x3d6e0ce8	0.058117777
249	0x3d9412ff	0.07230186
250	0xbc065e09	-0.008201131
251	0xbd463001	-0.048385624
252	0x3d092887	0.033485916
253	0xbbf7c96f	-0.0075618546
254	0x3d9ba834	0.076004416
255	0x3d537e62	0.0516342

bias f4 [256]
0	0xbfbae936	-1.460242
1	0xbe52cd63	-0.20586161
2	0xbdcdd944	-0.10051206
3	0x3edf1b44	0.4357549
4	0xbd6e04fb	-0.05811022
5	0x3b15dd3b	0.002286746
6	0xbe5f0c5d	-0.2178206
7	0x3c8797f0	0.016551942
8	0xbee326f5	-0.4436566
9	0xbe0b2de6	-0.13591728
10	0xbd1bfd18	-0.038083166
11	0xbfd59b42	-1.6688006
12	0xbe7cb71b	-0.24679224
13	0xbf211369	-0.6292024
14	0xbdd8f44c	-0.10593471
15	0xbd9a51bc	-0.07535121
16	0xbcd9bccf	-0.026579289
17	0xbdf66791	-0.120314725
18	0x3d5dfd47	0.054196622
19	0xbd8840fb	-0.06653019
20	0xc013cd00	-2.3093872
21	0xbfd7177f	-1.6804045
22	0x3b94fce3	0.004546748
23	0xbb517dc2	-0.0031965827
24	0xbce06bef	-0.027395217
25	0xbcb39861	-0.021923246
26	0xbde90b40	-0.11379099
27	0xbf1e7ef1	-0.6191245
28	0xbcee9375	-0.029123047
29	0xbf20fa83	-0.6288225
30	0x3e9668cc	0.2937683
31	0xbd956aa2	-0.07295729
32	0xbcc439f7	-0.023953421
33	0xbde7517a	-0.11294837
34	0xbd05c36e	-0.03265708
35	0xbd8aa7d3	-0.06770291
36	0xc0073340	-2.112503
37	0xbde407a7	-0.11134272
38	0xbdd16ed2	-0.102262154
39	0xbe37f2a3	-0.17963652
40	0x3d1ee3dd	0.038791526
41	0xbdee8a25	-0.11647443
42	0x3d273da3	0.040830266
43	0x3b9fa02f	0.0048713903
44	0x3f3d3772	0.7391273
45	0x3d87bb49	0.06627519
46	0xbf9db661	-1.2321283
47	0xbddbd3f9	-0.1073379
48	0xbcbedf09	-0.02329971
49	0xbd724969	-0.05915204
50	0xbad083c6	-0.0015908412
51	0xbfe0c3e3	-1.755978
52	0xbdf688b3	-0.12037792
53	0xbe42f57e	-0.1903896
54	0xbd913825	-0.07090787
55	0xbf859cd9	-1.0438491
56	0xbe281da7	-0.16417561
57	0xbd64b3c2	-0.055835493
58	0x3e9dcfba	0.30822545
59	0xbd303bfe	-0.043025963
60	0x3f63d36a	0.8899447
61	0xbdcc7c62	-0.09984662
62	0xbd897912	-0.067125455
63	0xbd314109	-0.043274913
64	0xbd8510ae	-0.06497322
65	0xbd734458	-0.05939135
66	0x3f204a3b	0.62613267
67	0x3e04a31d	0.12952848
68	0x3d163829	0.036674652
69	0xbd344911	-0.044014994
70	0x3e847f75	0.25878492
71	0xbce3fa85	-0.027829418
72	0xbf63585f	-0.8880672
73	0xbd1b59f0	-0.037927568
74	0x3fe07127	1.7534531
75	0x3cd32b1c	0.025777392
76	0x3d457c0e	0.04821401
77	0xbe5e3ec3	-0.21703629
78	0x3c2ba0b4	0.010475326
79	0xbecac260	-0.3960142
80	0x3d0299d7	0.031884994
81	0xbdc3351d	-0.09531615
82	0xbe6b0f50	-0.2295506
83	0xbd749a36	-0.05971738
84	0xbc106a75	-0.008814444
85	0xbf6def0c	-0.9294288
86	0xbd44508c	-0.047928378
87	0xbdc08f25	-0.09402303
88	0xbd9378ef	-0.072008006
89	0x3c63259f	0.01386395
90	0x3e4cb057	0.19989143
91	0x3c98581b	0.0185967
92	0xbdd0d860	-0.1019752
93	0xbfe08ec8	-1.7543573
94	0x3bb16fc3	0.0054149344
95	0xbcb69544	-0.022287972
96	0x3bbf37fd	0.0058355317
97	0xbdf03f55	-0.117308296
98	0xbe17b20f	-0.14814018
99	0xbfa8fafd	-1.3201596
100	0xbdedf3a7	-0.116187386
101	0xbd5a6840	-0.053322077
102	0xbd873366	-0.066016
103	0xbdf98abe	-0.12184666
104	0xbf7f223e	-0.99661624
105	0xbfed5da5	-1.8544203
106	0xbc3c75d6	-0.011502704
107	0x3d3d09e6	0.046152018
108	0xbc1304bc	-0.008973297
109	0x3d280a54	0.041025475
110	0xbd813341	-0.06308604
111	0xbde639ba	-0.11241479
112	0xbd933b64	-0.07189062
113	0xbdd9e7b7	-0.10639899
114	0xbd8b8e75	-0.06814281
115	0xbd6f3101	-0.058396343
116	0xbcb906eb	-0.022586307
117	0x3cf57ab9	0.029965745
118	0xbdb7c57c	-0.08973214
119	0xbd819491	-0.06327165
120	0xbd8f9039	-0.0700993
121	0xbe04ef6f	-0.12981962
122	0xbdb61991	-0.08891595
123	0xbcb021a3	-0.021500414
124	0xbdcf016e	-0.101076946
125	0xbf0448de	-0.51673687
126	0xbd91099b	-0.0708191
127	0xbb1c5c67	-0.0023858787
128	0xbd0085f5	-0.03137775
129	0xbfe1cef2	-1.764128
130	0xbe33516c	-0.17511529
131	0xbde90d43	-0.113794826
132	0xbdae3bcc	-0.08507499
133	0xbfc416b8	-1.5319433
134	0xbd297fee	-0.04138177
135	0xbf9db831	-1.2321836
136	0xbd8c0a9d	-0.06837962
137	0xbdb01dce	-0.08599435
138	0xbdbcb5b4	-0.092143446
139	0xbfb056a3	-1.377644
140	0xbd4d8348	-0.050174028
141	0xbdc2ce60	-0.09512019
142	0xbe0b69bd	-0.13614555
143	0xbe06e654	-0.131738
144	0xbd9ea913	-0.07747092
145	0xbf1d4076	-0.61426485
146	0xbe066c4e	-0.13127252
147	0xbe5c8bf9	-0.2153777
148	0xbeee0cbb	-0.46494088
149	0xbcb88053	-0.022522127
150	0x3ec78760	0.3897047
151	0xbfc1e1f2	-1.5147078
152	0x3d08cd1c	0.033398733
153	0xbe71d38f	-0.2361586
154	0x3fbf2cd6	1.4935558
155	0xbf1d990b	-0.6156165
156	0xbdb12d5e	-0.08651231
157	0xbdf5bfcf	-0.11999475
158	0x3ffd3653	1.9782203
159	0xbd1515bc	-0.03639768
160	0xbda8b0f4	-0.08236876
161	0xbd4b0067	-0.04956093
162	0xbd571d1e	-0.052518003
163	0x3d5932f3	0.053027105
164	0xbf91e1fc	-1.139709
165	0xbe0a63d9	-0.13514651
166	0xbdcd1417	-0.100135975
167	0xbd971e5b	-0.07378837
168	0xbe0aa637	-0.13539968
169	0x3d1369b5	0.035989482
170	0x3d007e1c	0.031370267
171	0xbe117b21	-0.14207126
172	0xbd8f1ec8	-0.06988293
173	0xbf47960d	-0.77963334
174	0xbd89b5a1	-0.06724096
175	0xbd149b10	-0.03628069
176	0xbdb0c5b9	-0.086314626
177	0x3d742c28	0.059612423
178	0x3d00a36b	0.031405848
179	0x3eb4a5e2	0.3528281
180	0xbd98a0ca	-0.07452543
181	0xbe0a985e	-0.13534686
182	0xbf8cfb63	-1.1014217
183	0xbedd085f	-0.4317045
184	0xbd4ec74a	-0.050483026
185	0xbdae3fc3	-0.08508255
186	0xbe58a55c	-0.2115683
187	0xbdbffe06	-0.09374623
188	0xbd26af55	-0.040694553
189	0x3b7be233	0.0038434386
190	0xbeec99de	-0.4621114
191	0x3faf00a4	1.367207
192	0xbce37c8a	-0.027769346
193	0xbe07ac2e	-0.13249275
194	0xbf6fc957	-0.93666595
195	0xbe45b7fc	-0.19308466
196	0xbf008488	-0.50202227
197	0xbd6c08b6	-0.057625495
198	0xbd138d09	-0.036023173
199	0xbd96307b	-0.07333466
200	0xbe7ddccf	-0.24791263
201	0xbd599607	-0.053121593
202	0xbfeae902	-1.8352358
203	0xbd7a1cab	-0.061062496
204	0x3d65d321	0.05610955
205	0xbd8d446f	-0.06897818
206	0xbdb2db0f	-0.08733188
207	0xbd50444e	-0.05084639
208	0xbf10b4c4	-0.56525826
209	0x3cd886ff	0.026431559
210	0xbf5d1279	-0.8635631
211	0xbe987921	-0.29779914
212	0xbf7f1cc2	-0.99653256
213	0xbfd9ef90	-1.7026234
214	0xbfc3c10a	-1.5293286
215	0xc01cae1b	-2.4481266
216	0xbe04175e	-0.12899539
217	0xbd23b0f2	-0.03996367
218	0xbde3e016	-0.111267254
219	0xbd61d3bc	-0.055133566
220	0xbd01874b	-0.031623166
221	0x3c6e5fef	0.01454924
222	0xbd99790b	-0.0749379
223	0xbdb583c1	-0.08863021
224	0xbc74e44b	-0.014947007
225	0xbe01100b	-0.12603776
226	0xbd387fc0	-0.045043707
227	0xbc22894f	-0.009920432
228	0xbd3aad8f	-0.045575675
229	0x3e0a47f9	0.13504018
230	0xbd970ef9	-0.07375903
231	0xbd83c304	-0.06433681
232	0x3f382785	0.719353
233	0x3f20ca88	0.6280904
234	0xbe0cfa98	-0.13767469
235	0xbfe23aa9	-1.7674152
236	0xbe8f7307	-0.28017446
237	0x3d813a33	0.06309929
238	0x3b578fa8	0.0032892022
239	0x3f8c9eb9	1.0985938
240	0xbcb2523e	-0.021767732
241	0xbdc7378c	-0.097273916
242	0xbd10c2b1	-0.035341922
243	0xbda16c79	-0.07882018
244	0x3c8af742	0.016963605
245	0x3c37e86c	0.011224847
246	0xbe5ce6a1	-0.21572353
247	0x3e8e9ff5	0.27856413
248	0xbd7c3219	-0.061571214
249	0xc0143ae9	-2.3160956
250	0xba911123	-0.0011067729
251	0xbd9787e6	-0.073989674
252	0x3d22d84a	0.03975705
253	0xbda74931	-0.08168257
254	0x3e3a1cd0	0.18175054
255	0xbd98b44e	-0.074562654
