saved_models_1/125_2778_model.pt (torch, 701697 bytes, 11 tensors)

FC1.weight f4 [256, 36]
00000000: 064d 36be 517f 853c 5ab0 aa3e 6682 79be
00000010: d04d 273f 8246 ac3e 33f5 57be 5bbe 94bf
00000020: 2b72 843f f09c bd3e ff53 98bf da86 cd3e
00000030: 2ec8 adbe 742f ad3e c2f2 433f 94eb e9be
00000040: 0e9b 83bf e25a 4bbf 9fdd 773f 0d86 bf3e
00000050: 560d 933f fc86 fc3e 9d77 5ebf ca7e 17bf
00000060: c820 bd3f cbe4 5dbe a5ae a4bf fbed 033e
00000070: d191 4d3e f981 7a3e 3cbf 6b3e ee96 c43e
00000080: 9b8d 11c0 46ba b3be dce6 3b3f 71a6 64bf
00000090: 3e74 be3f c7e2 14bf 8771 46be 232d c3bd
000000a0: fe32 57bf 86d6 0cbe 1a4e 2d3f 761f d4be
000000b0: 3ce4 abbf 314b 3ebf eee2 cb3f b6ca 55bf
000000c0: a70f bbbf 0d51 17bf 89f6 0b3f 9f0d 0abe
000000d0: 9c26 bebf 3658 45be 6942 1b40 cfe5 283f
000000e0: ca53 77be 1fa7 59bf 7c78 8e3e 85ef 113f
000000f0: b5a3 ecbe 3102 12c0 ae13 473e 25e8 853d
00000100: 4d3a d0be cead 913e 5764 233e 9136 473f
00000110: cd83 44c0 8d79 9bbf 47e3 8f3f 30c4 ba3f
00000120: e427 4fbe f2cd cf3e 7d85 6abe 4999 c63d
00000130: a57e 06bf 5bf8 6e3f 9630 94bf 783f bcbf
00000140: 55f6 9e3f ba27 4a3d cf72 ba3e 6af3 e4bc
00000150: f1b3 a9be 9499 a93f ac9b 6abe 27ff 48c0
00000160: 44eb ae3e 8156 3b3f 2fd7 00be 6c41 2e3f
00000170: f225 33bf 1f23 033e b813 2d3f 1f66 0e3e
00000180: 5adc 9dbf 1839 f6be a6ea 833f 6a37 dbbe
00000190: ce45 253e 8afb b83e 804c 453c f71c b9be
000001a0: 61f4 a13e af77 c9be 6b63 6dc0 f3a4 443f
000001b0: a302 a9bf 0ee1 343e 8163 003e ec1b 323f
000001c0: 4d84 edbe bf2c d5bf 70c7 3b3d f657 1f40
000001d0: 4da8 9dbf 035a 96bf dab8 e43e 73a5 ed3e
000001e0: 9492 31bf 07a4 e8be 5267 3c3e d22c ee3e
000001f0: 2054 92bf 1c7a e0be 41f6 623f bc0f cdbe
00000200: a63a 45bf c178 423e 470c d13e 1dc5 0dbd
00000210: 4401 9ebf 998b b73f 0e73 a83f 32e1 5d3c
00000220: ac39 13c0 f231 d43e e972 093f 3bb4 53c0
00000230: 2eb9 a4bf 467b 83bd 2cf1 a33f 50e2 4dc0
00000240: 5933 39be a364 f2bd 484f ee3d 7a64 6b3c
00000250: dab5 9b3f 25c8 813e f94f 82bf 8f57 8abf
00000260: 394a 8c40 8c34 4f3e 7d39 4dc0 b0f0 273f
00000270: cce2 743f 10e1 a43d 572b c0be 0c3f 8b3d
00000280: e5fe 6d3f 732b 9fbf 919e bdbf a015 863e
00000290: 395b cb3d 435e 26bf f089 c7be 3399 b73f
000002a0: f92e 163f 7153 17bf f7d7 0e3f 6745 353e
000002b0: 6f47 d0bd d69b db3e 7ce2 9f3e 3ae1 c63e
000002c0: f6d4 723f 052d c43e e541 65c0 9045 a6bf
000002d0: b0ba 26bf 5cfe 18be 6aa9 793e 1faa 7abe
000002e0: 9456 e93e 0d9c d13e 3bad 97bf 1e10 0cc0
000002f0: fbc8 0c40 92d4 8a3e c3d6 aebe 8dc9 88bf
00000300: 700f acbe 2635 8fbe fcb5 d0be 0a4f d3be
00000310: b118 e23e e901 3f3f 3e4b 413f e572 48bf
00000320: 3278 29bf bfbb dabd 814c 2f3f 8de3 d0be
00000330: 19e1 fbbf e62c 0c3f da4a b63e 8881 933e
00000340: c0c3 613e 844b 25c0 c944 2bc0 3fe6 82bf
00000350: 65f3 b43f 3c81 85bf 0d27 28c0 af6a 5ac0
00000360: 2096 23be 4407 f9be bf12 3e3e 63b8 84bf
00000370: 4745 3a3f d634 00bf b8f0 69be 8230 2ebf
00000380: f3dd ff3f 2545 c93f 21ad ec3e dd87 4ebe
00000390: 97f6 823d 1f38 b3bf 810b 2c3f ee91 b53f
000003a0: 822a f9be 20ff 01bf 8c20 273f 31e0 1ebd
000003b0: 5df5 353f 1653 b3bf c7ce c9be 987c 153f
000003c0: 4b2b 083f a01a 99bf a248 5dbf 18fe 023c
000003d0: 5a1d ef3e 4d88 233e 30fe f6be 45a7 4dbd
000003e0: cedf 773f 284c f2bf 7bfb 38bf e35f c63f
000003f0: 9424 c03e 310f 363e 76e3 c6be f742 2fbf
-0.1780282 0.01629606 0.3333767 -0.2436615 0.6535311 0.33647543 -0.2108963 -1.1620592
1.0347341 0.37033796 -1.1900634 0.40141946 -0.33941787 0.33825266 0.76542294 -0.45687544
-1.0281694 -0.7943555 0.9682254 0.3740696 1.1488445 0.49321735 -0.86901265 -0.5917784
1.4775629 -0.21669309 -1.2865797 0.12883751 0.20075156 0.24463643 0.23022169 0.383964
-2.274268 -0.35103053 0.7339914 -0.8931647 1.4879224 -0.58158535 -0.19379245 -0.095300935
-0.8406218 -0.13753709 0.676973 -0.41430253 -1.3429027 -0.74333483 1.5928628 -0.8351244
-1.4614152 -0.5910805 0.5467306 -0.13481759 -1.4855533 -0.19271931 2.4259284 0.6597566
-0.24153057 -0.8502063 0.27826297 0.570061 -0.4621865 -2.2813838 0.19441101 0.06538419
-0.4066948 0.28452915 0.15956245 0.77817637 -3.0705445 -1.2146469 1.1241235 1.4591122
-0.20230061 0.4058681 -0.22902484 0.096972056 -0.52536994 0.9334771 -1.1577327 -1.4706869
1.2418925 0.049354292 0.36415717 -0.0279481 -0.33145097 1.3249993 -0.22910947 -3.1405733
0.34163868 0.7317887 -0.12582086 0.68068576 -0.69979775 0.12806366 0.67608213 0.13906144
-1.2332871 -0.48090434 1.0305984 -0.42815715 0.1613991 0.3612941 0.012042165 -0.3615491
0.3163176 -0.39349124 -3.709193 0.7681419 -1.320393 0.17663977 0.12537958 0.69573855
-0.4639 -1.665428 0.045844495 2.4897437 -1.2316986 -1.1746219 0.4467228 0.4641529
-0.69364285 -0.45437643 0.18398789 0.4651857 -1.1431923 -0.43843162 0.88657004 -0.40051067
-0.77042615 0.18991376 0.4082968 -0.03461181 -1.2344136 1.4339477 1.3160112 0.01354246
-2.300395 0.41444355 0.53690964 -3.3078754 -1.2869012 -0.06419997 1.2807975 -3.216938
-0.18085994 -0.11835601 0.116362154 0.014367217 1.2164872 0.2534801 -1.0180656 -1.0807971
4.3840604 0.20234889 -3.2066338 0.65601635 0.95658565 0.0805074 -0.37533066 0.067991346
0.92967063 -1.2435135 -1.4814016 0.26188374 0.09929509 -0.6498758 -0.38972425 1.4343628
0.58665425 -0.59111696 0.55798286 0.17702256 -0.10169875 0.4289233 0.3122748 0.3884371
0.948562 0.38315597 -3.582147 -1.2989979 -0.6512861 -0.1494078 0.24381033 -0.24478959
0.45573866 0.4093937 -1.1849741 -2.1884837 2.1997669 0.27115303 -0.34148225 -1.0686508
-0.33605528 -0.27970237 -0.40763843 -0.4127124 0.44159463 0.7461229 0.75505435 -0.78300315
-0.6619903 -0.10680341 0.6847611 -0.40798607 -1.9678069 0.5475601 0.35603982 0.28809762
0.22047329 -2.582734 -2.6760733 -1.0226516 1.4136778 -1.0430064 -2.6273835 -3.4127614
-0.15975237 -0.48638356 0.18561839 -1.036877 0.7276196 -0.5008062 -0.22845733 -0.6804277
1.9989609 1.5724226 0.46225837 -0.20169015 0.063946895 -1.4001502 0.67205054 1.4185159
-0.48665243 -0.50779915 0.6528404 -0.038788024 0.7107752 -1.4009731 -0.3941557 0.5839324
0.5319106 -1.196125 -0.86438954 0.007995151 0.4670208 0.15969963 -0.48240805 -0.05020835
0.96825874 -1.8929491 -0.7225873 1.5498012 0.37527907 0.17779233 -0.38845414 -0.68461555

FC1.bias f4 [256]
00000000: ae56 983c f600 71be 0282 d1be a096 e63c
00000010: b353 423e 00d3 413e 3575 45be 3bb7 bbbe
00000020: 27b4 19bf 8bcd babe ecc0 273c fa93 cabd
00000030: f869 dabe 9656 c3be 20cd 58be fa22 293e
00000040: a6ac 9a3e 2582 b6bd 941e c23e 73e1 323e
00000050: 0d11 88bd a97c c53d dfc4 22bf 7482 923e
00000060: 4a3b a3be 0609 9abd e8ee 30bf 2590 803e
00000070: c14b 4ebf 949b ca3d f627 16be 6ff5 c6be
00000080: 5ec9 18bf d9b7 ba3e bbc7 4fbd 3cfc 0d3f
00000090: e33b dbbe f1a1 98be aa6a 90be 1d29 46be
000000a0: 28d6 763e fb61 ccbe eb8e ba3d 1a6e 06bf
000000b0: 9beb 613e 5b53 fdbd 660e 1ebf d243 8bbe
000000c0: 16c0 00bf dcbc ecbb 8300 dd3e ff4b 48be
000000d0: 6d62 ebbd 92e5 65bd 0713 d63d 88a7 fbbe
000000e0: 41a8 20be e361 17bf 6b28 8bbd 3851 ffbd
000000f0: f49e 3bbe 5275 2c3e 3022 eb3d d0cc 833d
00000100: 9f83 84bd 29bf d43d 74ca bb3d b18e 10be
00000110: daac 06bf 16d3 acbd cdbe 44be 9203 acbe
00000120: 570d 953e 04bb 3f3f 2be6 28be a417 2e3e
00000130: 4269 10bf fd84 98be 648c 36bf ed63 ad3e
00000140: c810 44bf e84c 9fbe aef3 033e 6508 acbe
00000150: 0e24 ba3d ddfc 053f d0af 8c3c b0ba a13d
00000160: fb34 95be fa46 593e 9d01 fc3c 36e8 63be
00000170: 8f13 d7be 41ca d43e 7678 de3d 4a0e 99bb
00000180: 5126 84bd 3aa0 a9be 1d44 8bbe dcf8 2fbf
00000190: 6f4c 08bd 8f0b 24bc 74bc 58be c366 efbe
000001a0: 71a4 04be bf91 8d3e 42c7 653e 93ce 29be
000001b0: e55b bc3d d7fe cebd 80f7 81be 91b8 d2be
000001c0: 4276 82be 5d29 f6be 2ed2 0abf c6dc 073e
000001d0: 1532 c2bd 6bf7 f03d fc04 dfbe 3b77 ddba
000001e0: 87f8 bdbd d0af 4dbd 5997 cfbe 1bb1 50be
000001f0: 7200 3fbf 39db bfbe b761 64bd 4ad2 02bf
00000200: 6f9b 2bbf 3760 933d 7689 a3be e1a3 aa3e
00000210: 3b78 b33e 5c5e 96bd 0c7f 563e 49de acbe
00000220: a475 2ebe 187e 9d3e 6f4b e2bc 1094 603d
00000230: 78c1 6dbe 9bcf 903c ad94 143d 4186 d93c
00000240: b98d e4be 5416 b6be 851b 9a3e 17d1 053f
00000250: e2f7 59be 7215 653e 9796 51bf 4784 d6bd
00000260: 967a b7bc 4b31 3bbe 0da2 3a3f d9aa 1ebe
00000270: d1f2 23bf 6fdb 24be f261 ce3e 2323 e2bd
00000280: acc0 53be 3557 a13d a4c9 113f 4968 1e3e
00000290: 9f8c 223d 511d 8c3e a288 10bf 4da3 54bd
000002a0: f8fd 51bd a67a 76be c544 b1be 2f3f 2abf
000002b0: 8f95 df3e 21af 803e db02 8cbe e82d 24ba
000002c0: 4e0d bcbc d5df 643d 6e90 67bf 79e8 13bf
000002d0: dd96 1c3d 7a39 10bf bbc4 f4bb a2b0 dc3e
000002e0: 6a40 7ebe f75d 3bbe ef4d 90bd a65a 11bf
000002f0: 6a0d 403f 90b9 b6be dc49 f03d bd17 06be
00000300: 5d00 813d b692 f43e 7c85 b53e 5c32 7ebe
00000310: fd40 12bf a38a ee3c fa2c 453e 92ba 653d
00000320: 979b 7abe ae04 e1be 68ee e4bc 1013 a2be
00000330: 4408 183e e503 933d c281 f63d 46cf 003e
00000340: b338 c8be 2f49 1e3e 360d 09bf c8dd 3b3e
00000350: 3436 93be d4b3 d1be 1899 23bf fba3 92be
00000360: 12ba bdbe c875 c1be e5ce 433e 3567 6f3e
00000370: 792e bebe 45ee 3e3d e8c6 dabd b784 0b3f
00000380: cea8 f2be 82d1 d1bd 441b 02bf cfc5 32bf
00000390: a687 263e 0c75 9d3e 9432 98bd cb28 02bf
000003a0: 1873 193f 89b2 b5be 5a86 d2be 05fe a9be
000003b0: 19b1 35bf eb74 153e 7f6b 41be 60ac 31be
000003c0: 3326 833d 786c 7dbd e2d6 033e 7393 403f
000003d0: fa9d 113f 83de 47be 8faa 02be 4259 453c
000003e0: 45d3 5dbd aa28 5a3e 716c 58be 047e c53c
000003f0: ba5f 17be 43b9 f83e b01a bbbe c0f9 04be
0.01859602 -0.23535523 -0.409195 0.028147995 0.18977241 0.18928146 -0.19282992 -0.3666323
-0.60040516 -0.36484942 0.010238867 -0.098915055 -0.42658973 -0.38151997 -0.21171999 0.16517249
0.30209845 -0.08911542 0.37913954 0.17468815 -0.06643877 0.09642918 -0.6358165 0.28615153
-0.3188117 -0.07521252 -0.6911454 0.25109974 -0.8058434 0.098929554 -0.14663681 -0.38859126
-0.5968226 0.3646839 -0.050727587 0.55463004 -0.42819127 -0.2981105 -0.28206378 -0.19351621
0.24105132 -0.39918503 0.09109291 -0.5251175 0.22062533 -0.123694144 -0.6174072 -0.2720018
-0.502931 -0.007224662 0.43164453 -0.1956024 -0.114933826 -0.05612714 0.10452848 -0.49151254
-0.15689184 -0.5913374 -0.067948185 -0.12466663 -0.18322355 0.16841629 0.1148113 0.06435549
-0.06470417 0.103880234 0.09169474 -0.14116932 -0.526075 -0.08438699 -0.1921341 -0.33596474
0.2911174 0.7489474 -0.16494052 0.17001206 -0.5641061 -0.29788962 -0.7130797 0.338653
-0.76588106 -0.31113362 0.12885925 -0.33600155 0.09088908 0.52338964 0.017173678 0.07896936
-0.29141983 0.21218482 0.030762488 -0.2225655 -0.4200711 0.41560557 0.1086282 -0.004670893
-0.06452621 -0.33130056 -0.27200404 -0.68739104 -0.033276018 -0.010012521 -0.21165639 -0.46758088
-0.12953354 0.27650258 0.22439292 -0.16582708 0.09197215 -0.101072006 -0.2538414 -0.41156438
-0.2548085 -0.48078433 -0.5422696 0.13267812 -0.09482209 0.11765941 -0.4355849 -0.0016896495
-0.092759185 -0.050216496 -0.40545157 -0.2038006 -0.74610054 -0.3747194 -0.05575725 -0.51102126
-0.6703405 0.07196086 -0.31940812 0.33328155 0.35052666 -0.07342216 0.20946902 -0.3376334
-0.17037064 0.30760264 -0.02762386 0.054828703 -0.23218334 0.017677119 0.0362746 0.026553275
-0.44639376 -0.3556391 0.3009912 0.5227217 -0.21285966 0.22371462 -0.81870407 -0.10474449
-0.02239732 -0.18280523 0.7290352 -0.1549486 -0.64042383 -0.16099332 0.403091 -0.11041858
-0.20678967 0.078779615 0.56948304 0.15469469 0.039684888 0.27366117 -0.56458485 -0.05191355
-0.051267594 -0.24070224 -0.3462278 -0.6650266 0.43668792 0.25133613 -0.2734593 -0.0006262944
-0.022955563 0.055877525 -0.9045476 -0.577766 0.038229812 -0.563377 -0.007469741 0.4310351
-0.2482926 -0.18297563 -0.07046115 -0.56778944 0.7502047 -0.35688448 0.117328376 -0.13094993
0.062988974 0.47768182 0.35453403 -0.24823898 -0.57130414 0.029118842 0.19255438 0.05608613
-0.24473415 -0.43948883 -0.027945712 -0.3165517 0.14846903 0.07178477 0.12036468 0.12579069
-0.39105758 0.15457605 -0.53535783 0.18346322 -0.2875229 -0.4095751 -0.6390548 -0.28640732
-0.37056023 -0.37785172 0.19121893 0.23379214 -0.3714483 0.04661395 -0.106824696 0.5449938
-0.47394413 -0.102450386 -0.50822854 -0.6983308 0.16262683 0.30753362 -0.07431522 -0.50843495
0.59941244 -0.35487774 -0.41118127 -0.33201614 -0.70973355 0.14595382 -0.18888663 -0.17350912
0.0640377 -0.061871022 0.1287494 0.7522499 0.5688168 -0.19518475 -0.12760375 0.0120452065
-0.05415656 0.21304575 -0.21135117 0.02410794 -0.1478261 0.48578843 -0.36543798 -0.12985897

FC2.weight f4 [256, 256]
00000000: 4eaa 3cc0 b56e 053f 5fc1 bf3e 3049 d0bf
00000010: c543 863e cc52 fa3f 7ef2 d9be b2c9 0bc0
00000020: 4dbf abbf 8d25 0f3f 760f 04bc 6543 403f
00000030: 6f6a b9bf beb4 33bf 0083 2fbf a7bc 02bf
00000040: 70bb b2bf fe39 7cbd 58f5 413f 4ae5 50bf
00000050: 1240 1f3d 0f95 b73f 3119 68c0 57c1 e43e
00000060: 6f14 cd3d 7261 16c0 8968 6fbf 61f1 20c0
00000070: 98bc bb3f 2d41 4abf 16b8 d73e 8ba8 66bf
00000080: 8a88 fbbe 0db5 813e ee79 983e 7400 b8bd
00000090: a50c 09bf 124c c93f 5f62 a03e 1d0a f53e
000000a0: ada7 50bf d649 713d f92b b4bf b569 73bf
000000b0: 89d9 4fbf 1e54 0fbe 490c e53e 7da5 b1be
000000c0: 0fd1 0a3d d8e1 21bf 05ad 8cbf 58b8 94bc
000000d0: 79e7 02c0 c011 22c0 249a 31be 9c9b ffbf
000000e0: 147f 3f3d 8582 8a3f a150 0bc0 22b6 cd3e
000000f0: e842 b33e 4d01 72bf 875c 143c ac5e c53d
00000100: 3f96 333f c051 943f 60ee c4bf 3ea4 23bd
00000110: f9a4 0ac0 3d4d 94bd 3421 8f3e 0e08 41be
00000120: e6c6 a7be d691 fc3e b9d4 d13d 56e2 00be
00000130: 4e1d f0bf 7b83 ccbe 1f6c cc3d afc2 883f
00000140: 1fa2 3c3f 0f22 e5bf 14e3 0840 b2b8 993e
00000150: b275 84bf f277 b13f bd9d a3bf 0db4 b8bf
00000160: 70f7 3a3f e97f 153f fa76 5abc 4aea 2fc0
00000170: 43a7 a43e 74d2 35bf 6c34 9dbd 2b48 bf3e
00000180: 98ec 0d40 3290 8dbf c352 aa3f 90d0 973f
00000190: 37cd 22bf 7588 dabf e964 bdbf bc1e aa3e
000001a0: f24f 283c 7be9 d3be 0094 d03f 916b f93e
000001b0: c56b 483f f6ec 53bf a578 783e 45bc 9bbe
000001c0: 7c72 aebf 0d75 0fc0 5701 2bbd fa3e 81bf
000001d0: 54aa 39bf 53c3 17c0 6ef0 20bf d912 1dbf
000001e0: 6f37 7dbe 10cb 64bf 1f27 b53d 3640 4c3f
000001f0: 6432 9abf 7dd6 00be 636b 693f ea7d d3bf
00000200: ce13 e9bc 98e4 c13e c927 cc3f 290e af3e
00000210: 6ecd cebc 2296 90bf bdcf 13bf f479 573e
00000220: 1872 e6bf 63d7 573e f7d8 bbbf 7e1d 3a3f
00000230: 3e22 b2bc 7b22 033f fef8 ec3d 30a0 43be
00000240: 9356 f6bf 8655 0abc 4ca5 403e 19cc 0b3f
00000250: 5a80 8dbd 6a8b 3ebf adc7 44bf 1cd7 3d3f
00000260: 29f9 d0c0 73ae e1be 7b96 28be d246 15bd
00000270: 2919 29bf 6d2a cb3f 51fc 303f 19e6 a83d
00000280: ac56 65bf 67cb 9e3e 9ccb 7fbf b979 413f
00000290: b0a9 3cc0 4ab8 12c0 592e ec3e 9539 d6bf
000002a0: ae89 353f b162 05c0 2ce8 0140 6a55 06bf
000002b0: 3cee edbe 9d45 93bf 2d18 35bd ad2f 00bf
000002c0: e503 083f 3796 ddbd f71d 36bf bc58 a13e
000002d0: 280c 323e ce5a 8f3f 526c 31bf 01be 6f3e
000002e0: 7e46 ba3e 502f 83bd 7e65 83bf 3082 313f
000002f0: 7207 6b3f 6283 8ebd 75da c23f 9292 353e
00000300: 6001 e93e 1fda 873f f226 ebbe 5df8 013e
00000310: 55c9 cebf 883b babf 0414 683f dd02 0ec0
00000320: 7b61 433c 88b1 2f3e 8875 53bc 39a3 923f
00000330: 3285 923d 20b6 bebf 3189 223f 79f7 443f
00000340: 4996 1cbf 36c2 b3bf e502 1d3f 8c7d 873f
00000350: 871e 963f 20ed 20bf 2ca7 90bf 05e0 b93f
00000360: 8106 dabc 8eb2 7d3f 8c21 7fc0 1e7b 2cbf
00000370: 7d81 7fc0 7ea4 093f 3b26 893e bafc 0040
00000380: d618 2b40 fbbe 9bbf 8f61 d33e f0e7 953f
00000390: 275f 5cbf 1733 58be 7e4a 80be 37e8 ad3e
000003a0: 4596 a03f e6a4 70bd a6b1 573e 606f 4d3e
000003b0: d954 62c0 bb55 db3f 4c9a 4ebf 98fb 81bf
000003c0: 9399 963b 7d6d 22c0 ce7c e3be 34ad 24bf
000003d0: b722 723f 6cb4 d93e 23ae 3fbf 71d2 673e
000003e0: 7fdd 15bd 1856 d8be ffba f2be 565a 0c3f
000003f0: f9ad e0bf 1351 cabf 75ac fabe b7e7 12be
-2.9478946 0.5212205 0.37452218 -1.6272335 0.2622358 1.9556518 -0.4256782 -2.1841855
-1.3417755 0.5591667 -0.008060327 0.75102836 -1.4485606 -0.70197666 -0.68559265 -0.5106911
-1.3963451 -0.061578743 0.7576499 -0.8159987 0.03887946 1.4342364 -3.6265376 0.44678757
0.10013663 -2.3496976 -0.93518883 -2.5147326 1.4666929 -0.790057 0.42132634 -0.90100926
-0.4912761 0.25333443 0.29780525 -0.089844614 -0.5353492 1.572634 0.3132505 0.47859278
-0.8150585 0.058908306 -1.4075919 -0.9508317 -0.8119131 -0.13996932 0.44735935 -0.3469657
0.03389078 -0.63235235 -1.0990301 -0.018154308 -2.045378 -2.5323334 -0.17343956 -1.9969363
0.04675205 1.0821081 -2.1767962 0.4017802 0.35011983 -0.94533235 0.009055263 0.09637198
0.7015113 1.1587448 -1.5385246 -0.039951555 -2.1663191 -0.072412945 0.2795502 -0.18850729
-0.32768935 0.49330014 0.10245652 -0.1258634 -1.8758943 -0.39944062 0.0998156 1.0684413
0.7368488 -1.7901019 2.1388597 0.30023724 -1.0348418 1.386473 -1.2782513 -1.4429947
0.7303381 0.583983 -0.01333403 -2.7486749 0.3215886 -0.7102425 -0.07676014 0.37359747
2.2175655 -1.105963 1.3306507 1.1860523 -0.63594383 -1.7072893 -1.479642 0.33226573
0.010272967 -0.4138907 1.6295166 0.4871488 0.78289443 -0.8278345 0.24264772 -0.30417076
-1.3628688 -2.2415192 -0.041749325 -1.0097344 -0.72525525 -2.3712966 -0.62866867 -0.61356884
-0.24728177 -0.8937235 0.088453524 0.7978548 -1.2046628 -0.12581821 0.91179484 -1.6522801
-0.028451826 0.37869716 1.5949641 0.3419049 -0.02524444 -1.1295817 -0.5773886 0.21042615
-1.8003569 0.21078257 -1.4675587 0.7270125 -0.021744844 0.5122449 0.11570929 -0.19104075
-1.924517 -0.008443242 0.18813056 0.54608303 -0.06909247 -0.7443148 -0.7686718 0.74156356
-6.530415 -0.44078407 -0.16463654 -0.036444493 -0.66054016 1.5872322 0.69135004 0.08247013
-0.89585376 0.3101456 -0.9992006 0.7557636 -2.947857 -2.292498 0.4612911 -1.6736323
0.7091321 -2.0841486 2.0297956 -0.5247408 -0.4647082 -1.1505619 -0.04421251 -0.5007275
0.5313094 -0.10819667 -0.7113947 0.3151301 0.1738745 1.1199586 -0.6930591 0.23412324
0.36381906 -0.064055085 -1.0265348 0.69339275 0.91808236 -0.06958653 1.5222918 0.17731693
0.45508862 1.061344 -0.4592815 0.126924 -1.6155192 -1.4549417 0.9065554 -2.2189248
0.011925097 0.17157567 -0.01290644 1.1456062 0.07154311 -1.489933 0.6349059 0.76940113
-0.61166817 -1.4043643 0.6133254 1.0585189 1.1728066 -0.62861824 -1.1301017 1.452149
-0.02661443 0.9910058 -3.9864225 -0.6737536 -3.9922783 0.5376662 0.2678698 2.0154252
2.6733909 -1.2167658 0.4128537 1.1711407 -0.8608269 -0.21113239 -0.25056833 0.33966228
1.2545859 -0.05875101 0.21063861 0.20062017 -3.5364287 1.7135538 -0.8070419 -1.0154905
0.004595944 -2.5379326 -0.44431156 -0.64326787 0.9458422 0.42520463 -0.74875087 0.22638871
-0.03658819 -0.42253184 -0.47408292 0.5482534 -1.7553092 -1.5805992 -0.489597 -0.14346205

FC2.bias f4 [256]
00000000: 39ee c3be 6831 a3bd cf35 16be 492b d2be
00000010: 417e c5be 9b16 bbbe ccf2 0d3f 67e8 7e3d
00000020: d1d5 0b3e 8981 38bf dd24 8d3e 7ed6 dbbd
00000030: d9d1 f4be 7ba4 1bbd 0494 2ebf 36e4 30bf
00000040: 1628 893e 4296 55be 82ce f8bd 4f5f 86bf
00000050: e8d1 833c 6af0 a5be 28ac 333f e616 14bf
00000060: c3be e1bd 8cc9 6dbd 524b 523e 8abe 5cbd
00000070: bb52 08bf f255 56be 577b 1cbf fba0 40bf
00000080: b9a4 80bf 9318 9ebd 417f 8dbe f02d 26bf
00000090: f64c febd 448b bb3c b2b5 c4be cacb 9a3e
000000a0: d171 46be 4ea6 a3be c0a8 303e db9f 33bf
000000b0: 3fb7 933e 7dde dfbe 85da 20bf ef67 df3e
000000c0: 8244 8e3e ca57 c4be 1d97 0ebf 99d2 ecbe
000000d0: cb20 b8be 4167 26bf 9691 d0be 48c8 e53d
000000e0: dc51 f3be 2ce6 ddbe fc74 72bd dfe8 7dbe
000000f0: 2696 3c3e 95ae bcbe 2204 8dbf 3ef9 773e
00000100: 08ac cd3e 6cef 023f 15a7 23bf efdc a9be
00000110: 0ede 14be 039e acbe 2b96 76bf 51d3 aabe
00000120: 52ed 1dbf a1f6 21be 85e5 053e 5a5a 60be
00000130: d69c 943e 8ad4 e7be 7e77 55bf 86ce 48bf
00000140: 6b27 c0be a9fd 96bf 1883 afbd 707e ffbe
00000150: ca80 16be 6d13 9ebf bcb4 4dbf 413a 49be
00000160: eea4 f6be e52a 293f f2e6 aabe 00c6 19bf
00000170: 861f b4be 856c 97bf c144 81bf 9e47 88be
00000180: 9143 5bbf 19a3 1bbf b937 c2be 093a 3bbf
00000190: 27b5 e0be f2f3 08bf a6c8 3a3e c85d ccbd
000001a0: ee73 b5be 5888 0d3e e67d 5c3f 6664 113e
000001b0: 19cc 3cbf 86fd 80bf c042 49be aa50 24bf
000001c0: 968e 203e 80a1 dbbc 2e14 f13d f5c5 25bf
000001d0: d333 143e 8ce6 c9be ddd8 64bf 24e4 99be
000001e0: f0d1 4ebd 6d4d 8ebe 3707 253e 2be2 d6be
000001f0: 9d6f a0bd 03fc c13e becd 4abe d2e5 3abf
00000200: 59ab f8bd bb9c 61bf 5a51 25bf 8e2a 2abc
00000210: 1282 173f d5fd 7cbe af5f 54bf aec0 34bf
00000220: 3d79 03be fad3 983f 0530 aabf dd69 d5bd
00000230: fcaa 54bf 6deb c1bd 9939 a8bd 5a01 98be
00000240: 3e40 a53b 70db fbbe 3a1d 043f 272d 9abd
00000250: c41d 00be 69f3 d6be 6622 53bf 1c04 c7be
00000260: 2273 5b3e 902f 05be 2eef 603f f0bd 8abf
00000270: 2beb 26bf 7c66 80bf e50c 243d c694 4fbe
00000280: e5ca 1fbd ffd0 213e 5341 2ebf 20bc 493e
00000290: d225 13bf 6aa5 033e 015b 04bf 2de1 edbe
000002a0: 94d4 46bf 5b5a b83c bf39 3fbf 24ab 263e
000002b0: 3385 f9be af23 88bf 5049 99bf aa76 35bf
000002c0: 2c03 28be 01fe 3cbe 9d59 b3be af5d 763d
000002d0: e3ea 22bd 94f4 5ebf d616 903a abad 42be
000002e0: cb9a 283f 1846 f4be 79e3 71bf 0557 44be
000002f0: 75f3 50be 4ecd b3be f1e9 82be fed6 a2bf
00000300: 6472 bcbd 9c52 54bf 3971 b9bd c118 60bd
00000310: f707 4fbe daad 8dbf e57a c7be d672 34be
00000320: a96a 1bbf 1ff0 73bd 4c4a 3ebe 9f66 8abe
00000330: 69f6 78be cf8c c0bd 07d2 bebe 6213 25bf
00000340: 84e4 a5be 1a0c 233f be38 7e3e bb3a 1cbf
00000350: 5aee 9b3c 7395 66bf 9fa8 e2be e406 7abe
00000360: 7a96 83bf bc09 6f3e e4f3 b7bd 68ba 07bd
00000370: 78b9 f63d 2290 4bbe 7fcc acbd 84ea 27be
00000380: c672 053d 1ccd 2b3e 291d 7abe 997a 4fbf
00000390: 6ccd 61bf 783a 78bf 4ed1 ebbe 4852 8fbf
000003a0: d631 a9be de72 8dbe 20d6 dcbe cfad 59bf
000003b0: e1ae 1cbf afda fb3b f43a babf a328 93bf
000003c0: c814 d6bd 712f 9cbe a6d1 c8be 6227 f03e
000003d0: 437b 4cbf e6d1 ec3c 3597 debd b080 27bf
000003e0: 15ed 4cbf d7cb 09be 6569 88bd e14f 78be
000003f0: ae4c 90bd bd2b 3cbe ed2e 83be d734 39bf
-0.38267687 -0.07968408 -0.14668964 -0.4104865 -0.38572887 -0.36540684 0.55448604 0.062233355
0.13655783 -0.72072655 0.27567187 -0.107342705 -0.4781635 -0.037998658 -0.68194604 -0.6909822
0.26788396 -0.208581 -0.12148763 -1.0497836 0.016091302 -0.32409984 0.70184565 -0.5784744
-0.11022713 -0.05805354 0.20536545 -0.05389265 -0.53251237 -0.20931223 -0.611257 -0.75245637
-1.0050269 -0.07719531 -0.2763615 -0.64913845 -0.12417023 0.022893555 -0.38419873 0.30233604
-0.19379355 -0.31962818 0.17251873 -0.70165795 0.28850743 -0.43724433 -0.62833434 0.43633983
0.27786642 -0.38348228 -0.5569933 -0.46254423 -0.3596252 -0.650013 -0.40736073 0.11219841
-0.4752339 -0.4333967 -0.059193596 -0.24795865 0.18416652 -0.36851946 -1.1016886 0.24216172
0.40170312 0.5114658 -0.6392682 -0.3317637 -0.14537832 -0.33714303 -0.9632289 -0.33364347
-0.6169025 -0.15816738 0.13075836 -0.21909466 0.29025906 -0.45279342 -0.83385456 -0.7844013
-0.37530074 -1.1796161 -0.08569926 -0.49901152 -0.14697567 -1.2349678 -0.80353904 -0.19651128
-0.48172706 0.66081077 -0.33379322 -0.6006775 -0.351803 -1.1829993 -1.0099107 -0.2661714
-0.85649973 -0.6079574 -0.37933138 -0.7313543 -0.43888208 -0.5349723 0.18240604 -0.09978825
-0.3544001 0.13821542 0.86129606 0.14198455 -0.7374893 -1.0077369 -0.1965437 -0.64185584
0.15679392 -0.026810408 0.11771427 -0.64755183 0.14472894 -0.39433706 -0.8939341 -0.3005687
-0.05049318 -0.27793446 0.16116033 -0.41969427 -0.078337885 0.37887582 -0.19805047 -0.7300693
-0.12142057 -0.88129777 -0.6457726 -0.010386122 0.59182847 -0.24706204 -0.829585 -0.70606506
-0.12839217 1.193969 -1.3295904 -0.104205824 -0.830734 -0.09468732 -0.08214111 -0.2968853
0.0050430587 -0.49190855 0.51607096 -0.075281434 -0.12511355 -0.41982582 -0.8247436 -0.38870323
0.21430638 -0.13006425 0.8786496 -1.0839214 -0.6520259 -1.0031276 0.04005136 -0.20271596
-0.039011855 0.15802382 -0.68068427 0.1970067 -0.57479584 0.12856069 -0.5170136 -0.46460858
-0.7766812 0.022504022 -0.7469749 0.16276222 -0.48734435 -1.063589 -1.1975498 -0.7088419
-0.1640746 -0.1845627 -0.35029307 0.060147937 -0.039774787 -0.87091947 0.0010993134 -0.19011562
0.65861195 -0.47709727 -0.9448772 -0.1917382 -0.20405371 -0.35117573 -0.25569108 -1.272186
-0.09201506 -0.8293855 -0.09054799 -0.054711107 -0.20217882 -1.106868 -0.3896095 -0.17621931
-0.60709625 -0.05955517 -0.1858303 -0.2703142 -0.24312748 -0.09401857 -0.37269613 -0.644827
-0.32400906 0.6369034 0.24826333 -0.61027116 0.019034553 -0.9007179 -0.44269273 -0.24416691
-1.0280297 0.23343557 -0.08982065 -0.033136755 0.12047094 -0.19879201 -0.08437442 -0.16398054
0.03258016 0.16777462 -0.24425186 -0.81046444 -0.88204074 -0.96964216 -0.46058124 -1.1196985
-0.33045834 -0.276267 -0.43132114 -0.85030836 -0.61204344 0.007685981 -1.4549241 -1.1496776
-0.104531825 -0.30504945 -0.3922245 0.46905047 -0.7987558 0.028908681 -0.10868684 -0.65430737
-0.8004926 -0.13456665 -0.066607274 -0.24249221 -0.070458755 -0.1837606 -0.2562174 -0.7234625

action_out.weight f4 [5, 256]
00000000: c3a4 57be e13f 83bd 79c1 213e e37a 633f
00000010: d9dc cc3f ea50 0abf 13e4 1e40 590c 123f
00000020: e7a1 3740 87dd f1bf a041 a33f 7ef9 0d3f
00000030: 88af a43e 6e82 9d3c 2eea 15c0 a8c8 893f
00000040: 31ec cc3f c7c6 823d a046 d73e 978c 3c3e
00000050: 6eed 0e40 f1dd 823f 190f 6b3f e28a 763f
00000060: 4288 aa3f 3690 ef3f 1800 0f3f 5a4f 313f
00000070: 360e 75bd 7f0b 1c3e 8250 dd3f d54f 0a40
00000080: 14e6 7f3f 118c e83c f47e eb3e cfe2 1840
00000090: d598 65bd 1fa4 45bf 4f67 0e40 0157 1940
000000a0: 596e 9e3f 361b aa3f aec9 a43f 618e 8d3f
000000b0: e815 b53f 4834 323f 6d51 743e 9429 bf3f
000000c0: 7da8 cd3f 5287 5e3f 5e15 143f 2523 4e3e
000000d0: 1c2d 42be 4d38 313f 876c 3b40 20ba e4be
000000e0: 8baa e53f 31f4 423f fac8 4a3f 0ce0 533f
000000f0: 025a 0c40 9158 5f3f c257 74bf 5f0e 3c3e
00000100: 39db 893f fb96 b33f 3393 873f 466b 463f
00000110: da6f 943f c9a1 da3d 2da1 02be 58ac 04bf
00000120: 0970 863e 104c f83e 241a 12be b862 03bf
00000130: d797 e63f f883 9cbe f1f2 833f 099d 653f
00000140: de78 4fbf a192 ba3f 18b4 c93e 1e0a e53e
00000150: 96e9 b23e 1f55 f6bf 384f fe3f 5e5e 323f
00000160: b18e 9a3e 809c 993f 048a b63f cac0 b13f
00000170: c816 83bf eff3 81be c248 623f 35b6 843e
00000180: 6aa0 e23f 8f30 163d c7c2 893f 26b6 1a40
00000190: c974 a23f cdcc 2d40 66a5 d33f 8b18 4040
000001a0: c3a7 543f f558 90bf 075d 1c40 50b0 b33f
000001b0: a656 af3f 9a82 073f caee b43e 3937 2440
000001c0: 1510 793f b3b5 a63f 3646 053f 0ed4 3240
000001d0: dafa fb3e cdde 9f3f baef adbf e65c 853f
000001e0: e8fc 8f3c 8db3 9e3e 8de2 e73f cf49 963e
000001f0: e53d 823d e23c c93e e37f c53e badb 853e
00000200: d31c fc3f 4a42 7340 66fd 413f 06e2 a2bc
00000210: fb17 e83f 8cfd 563f e0bf 833f babb 1040
00000220: 1813 b33f c4a1 7b3f f999 333d 3f8d 843e
00000230: 9318 0440 541c f23e 33be 8a3f 08d6 0d40
00000240: 1351 f2bf 7ce8 c33f e295 bc3f 2624 44bd
00000250: 9b65 5a3e 8d6b 2940 6dd7 abbf 850e 523f
00000260: 1af9 d03f e44d be3e 68f0 e63f eaee 39bd
00000270: c477 f8be a943 1c40 a90e bdbe a48a e9be
00000280: cca8 4e3f 3a4f 863f 4639 1a3e 5969 513f
00000290: 9c21 7a3f 8ebe abbf 76f4 7b3f 57b3 813f
000002a0: 4201 c53f e96a 693f e486 8d3f af2a 5bbf
000002b0: 6e37 1bbf 3016 103f 8ea9 2e40 ecd1 dc3f
000002c0: 1358 893f baa2 a73f 46a3 353f edad c03f
000002d0: 8268 b1ba 08d7 953f 7ae9 743f 3611 493f
000002e0: 1ba8 043f 91bb d23f c7e0 a53f 4ebd 96be
000002f0: 8b90 763e ef59 3140 394c a3be 0210 5640
00000300: df79 da3f bf1a 10bf f690 5a3f 9ec1 8bbc
00000310: a9f2 81bf 2cf7 53bf defd 973f 596a c1bf
00000320: 2644 783f add0 10bd e3d2 123e 094e 143f
00000330: 1f97 4ebf 32e2 17bf 73ce fb3f 71db f1be
00000340: f77d 03be f928 223f 4c4d e93f 71c9 86bf
00000350: 05e4 f6bc 4da3 a03f f09b 1c40 8e3f b8bf
00000360: 542c 2ebe fbd6 973f 9d36 19bd 01bb d9bd
00000370: 4af3 ec3f cdeb 283d 3e0e de3f 1dac 503e
00000380: 0a64 bdbc 35b7 a5bf eb67 1a40 bbac b5be
00000390: 44cb ad3f 7356 0c40 994e 8e3f 605b 0240
000003a0: 816f 9b3e d2ac 833f 10c8 413f 8805 9f3d
000003b0: 8aa2 3e3e bd8d 743f ab30 453f 6bd9 0a3f
000003c0: 79e4 0e3d 60ec c73f 22e4 093e 8144 a13f
000003d0: 30a0 f2be 65d1 f93f 4917 953e db5c 123f
000003e0: 3d03 883f ab08 6f3d 5743 2340 50f7 81bf
000003f0: 4a0a 1e3f 14b1 e63d 46b1 9dbf 83a8 f43f
-0.21058945 -0.06408668 0.1579646 0.88859385 1.6004897 -0.54029715 2.4826705 0.5705009
2.8692567 -1.889573 1.2754402 0.5545882 0.3216517 0.019227233 -2.3424182 1.076436
1.600958 0.0638557 0.4204607 0.18413006 2.2332416 1.0223981 0.9181991 0.9630567
1.3322833 1.8715885 0.5585952 0.69261706 -0.059828006 0.1523876 1.7290194 2.1611226
0.99960446 0.028387101 0.45995295 2.3888433 -0.056053955 -0.77203554 2.2250555 2.3959353
1.2377425 1.3289554 1.2874048 1.1059076 1.414731 0.69611025 0.23859186 1.4934564
1.6067044 0.8692523 0.57845104 0.20130594 -0.1896252 0.69226533 2.928499 -0.44673252
1.794267 0.76153857 0.79212916 0.82763743 2.1929936 0.87244517 -0.9544641 0.18364857
1.0770026 1.403045 1.0591797 0.77507436 1.1596634 0.10675389 -0.12756796 -0.51825476
0.2625735 0.4849553 -0.14267784 -0.5132251 1.8015088 -0.30569434 1.0308515 0.8969274
-0.81043804 1.4575998 0.39395213 0.4473428 0.34943837 -1.9244727 1.9867926 0.6967524
0.3018699 1.2000885 1.4260869 1.388696 -1.0241327 -0.2538142 0.8839227 0.25920263
1.7705204 0.036667403 1.0762566 2.4173675 1.269189 2.715625 1.6534851 3.001498
0.83068484 -1.1277148 2.443178 1.4038181 1.3698318 0.5293366 0.35338432 2.5658705
0.97290164 1.30242 0.5206026 2.7941928 0.49214822 1.2489868 -1.3588784 1.0418975
0.01757665 0.3099636 1.8116013 0.29353186 0.06359462 0.39304262 0.38574132 0.261442
1.9696296 3.800921 0.7577728 -0.019883167 1.8132318 0.8398063 1.0292931 2.261458
1.3990202 0.9829371 0.04384801 0.25889012 2.064 0.47287238 1.0839294 2.2161884
-1.8930992 1.5305324 1.4733241 -0.047886036 0.21327822 2.6471894 -1.3425118 0.82053405
1.632602 0.371688 1.8042116 -0.04539386 -0.48528874 2.4416296 -0.36925247 -0.45613587
0.80726314 1.0492928 0.1506091 0.8180137 0.97707534 -1.3417528 0.9841989 1.0132855
1.5391009 0.91178757 1.105679 -0.85612005 -0.60631454 0.56283855 2.7290988 1.7251563
1.0730003 1.3096535 0.7095226 1.5053078 -0.0013535174 1.1706247 0.95668757 0.78541887
0.5181901 1.6463491 1.2959222 -0.29441303 0.24078576 2.771114 -0.3189409 3.344727
1.7068442 -0.5629081 0.8537744 -0.017060097 -1.0152179 -0.8279903 1.1874349 -1.511058
0.96978986 -0.03535526 0.1433826 0.5793157 -0.8069934 -0.5932952 1.9672378 -0.47237733
-0.1284102 0.6334377 1.8226714 -1.0530225 -0.030138025 1.2549835 2.4470177 -1.4394395
-0.17009097 1.1862482 -0.0374056 -0.10631371 1.8511746 0.041240502 1.7348096 0.20378156
-0.023118991 -1.2946535 2.4125926 -0.35483345 1.3577657 2.1927764 1.1117736 2.036827
0.30358508 1.0287116 0.75695896 0.07764727 0.18616691 0.95528775 0.77027386 0.54238003
0.034885857 1.5619011 0.13465932 1.2599031 -0.47387838 1.9517027 0.29119328 0.57172936
1.0625988 0.058357876 2.550985 -1.0153599 0.6173445 0.11264244 -1.2319725 1.9113926

action_out.bias f4 [5]
00000000: 5716 ec3f b7a2 923e 856b 503f bd55 e53e
00000010: db31 2e3f
1.8444318 0.28639767 0.8141406 0.44791976 0.68044823

weight f4 [256, 123]
00000000: 8665 02c0 3d1f 71bc 4e86 d83e ab8d 84bc
00000010: 6a8b d13e 2461 9e3d dcb2 d63d aee6 1cbf
00000020: 837b 1540 87cb 913d 8a32 583d b91b 96be
00000030: 1c2c 573e ce7d 6dbe 5f64 ee3e 386a 27bf
00000040: 743b 26bf 9d1b 12bf 334d 4b3e 8fdb eabe
00000050: 3b50 0c3f f890 0dc0 abc1 493f f82f e03f
00000060: 34c4 1cbf 6380 253e 3431 31be be4c 1dbd
00000070: 6ecc b9bc b099 afbc c4cc 1e3c 16dd 873d
00000080: 7720 8bbd 504e 6dbc d884 d5bc 4c65 0fbe
00000090: 1256 06c0 2244 46be d6d8 2a3e 4130 21be
000000a0: e90c 033f bf55 2b3d 1862 953d 6fe5 b6be
000000b0: ea60 173d 6929 d93e 7f6d 13be eb41 96be
000000c0: 2c25 4a3e 0e1b 55be 570b d03e 49a3 56bf
000000d0: e632 693f 4c43 eb3c a5ee 823d 144b 11bf
000000e0: e36e 143f dc21 0ac0 2375 713f ec48 f63f
000000f0: f3c1 d5bf b285 b43e 522a 09bf aadb 503d
00000100: 115e 5e3c 262b ad3b 9581 e3bc cf71 8cbd
00000110: 16e1 5dbd 3141 69bd 6115 9d3d ad09 56be
00000120: 1f06 01c0 ef31 e8be 4f5b 323f 01cc 20bd
00000130: a515 013f 5a3e 513c a2f9 a0bb 1281 53bf
00000140: 9de5 053e 1d48 2abe 5bfa 9e3e 56bd 5bbe
00000150: 5c44 393e 2ad6 70be e568 b43e a934 0bbf
00000160: 725e 8b3c 8533 4abe a63e ca3e 2d4d f2be
00000170: 0fa3 333f 28f9 0bc0 970b 6d3f 22a2 6140
00000180: 814c d6bf 6090 d5bc 065b 1f3d fb27 853d
00000190: caf4 10bd 35eb c43d a38d 063d cb04 593c
000001a0: e0b4 f1bb 70ce f6bb 5fd6 6f3b 0b94 02c1
000001b0: fdab fa3d 9a69 783d e3f1 22bd ed61 45bd
000001c0: 0c7f 1e3e 2205 763c fdeb cf3c b987 a43d
000001d0: 071a c93d 34cb 03bd f1e7 f33b 3130 df3d
000001e0: 443b 8bbd 8fb0 09be 7f30 e93d d39d 92be
000001f0: 1ea5 6ebe c06d 8f3b 7f37 01be d0f8 f0bc
00000200: a8d3 04be bfbd e43d 1aa3 a73f f730 473f
00000210: 1eb1 a5bd 30fa 153c 122b 83bf 88b6 b63e
00000220: 0946 1ac0 ba46 483f 3804 dd3f efa6 87bf
00000230: 2b94 433f 54fb 10bf 3786 dfbe 58bd febe
00000240: 7a3e 95bf 91bd 92be 6f10 20be 56fc 523e
00000250: 50da 043f b638 7b3e c8f7 c8be 8953 c7bd
00000260: 53cc ac3d 3953 003e 848e 9abd cebb d1be
00000270: b27f 7d3d 9500 813d bdb2 483f 1c11 6ebe
00000280: f33f 70bf 7846 8a3e cca7 03be c09d 9abd
00000290: c795 0bbe 1609 513b 36e9 80bf 5c82 5a3f
000002a0: f9da 53bf ca01 273f bc64 5fbf 46f7 9b3e
000002b0: a567 1dc0 561c 493f 7ea2 1940 eafc 36c0
000002c0: f0d1 b23b ad15 0abd f562 bfbe 75e3 f7be
000002d0: 6c70 88bf 518d dcbe 2cde 50bf d67d 843f
000002e0: bcc0 0ebf d718 853f e8b1 dabe 1521 ca3d
000002f0: 6c9f 35bd 9377 b63d f2aa d3bd c52d b43d
00000300: 84f4 efbe c29f 2e3d 32ee 94bf 3e50 86be
00000310: 7275 08bf 5211 e0be 91f3 8bbe 8d24 8abd
00000320: 8e61 53be e549 063e 7318 35bf 28f3 d03e
00000330: 2f79 1dbf a3e9 b6be 5770 6ebf c3f6 803e
00000340: b4a6 1dc0 ac67 453f c3ea 843f 02be c5bf
00000350: f14f f43e 4b59 92bf 78e8 fabe 350c f0be
00000360: 58cd 81bf ebe1 8fbe 7471 e83e 876f efbf
00000370: 0030 d23a 354a 9c3d 1022 d1be 22b1 5b3e
00000380: 1ba1 b1bd 55fe 853d 5b58 96bc be62 333d
00000390: 1794 873d 80d4 e6be ffe8 35c0 1699 b23c
000003a0: 8f4b 0fbe be36 793e cf81 1abd b2a4 4fbe
000003b0: 82eb 53bc 8acb 3d3e aacb 263d 433f 51be
000003c0: f3c7 6e3e 0267 073d a816 f6bb 7250 223e
000003d0: b5af 033e f925 8dbe f257 50bd 1b06 dabc
000003e0: e80c 6e3d ff12 943d 095e 06bc 0130 46bd
000003f0: 8728 093d 6fc9 f7bb 34a8 9b3d 627e 533d
-2.0374465 -0.01471692 0.42289966 -0.016180834 0.40926677 0.07733372 0.104833335 -0.6128949
2.3356636 0.07118898 0.052782573 -0.29318026 0.2101292 -0.23192522 0.46560952 -0.6539645
-0.6493447 -0.57073385 0.19853668 -0.45870635 0.5480992 -2.2119732 0.7881114 1.7514639
-0.6123688 0.16162257 -0.17303926 -0.038403265 -0.022680487 -0.021435589 0.009692375 0.06633966
-0.067933016 -0.014484003 -0.026064321 -0.14003485 -2.0990033 -0.19361928 0.16684279 -0.15741064
0.51191574 0.04182982 0.072941005 -0.3572192 0.03695766 0.42414406 -0.14397238 -0.29347166
0.19740742 -0.20811102 0.40633652 -0.83842903 0.9109329 0.028718613 0.06393174 -0.56755185
0.579817 -2.1583166 0.9431936 1.9241004 -1.6699814 0.3525825 -0.535802 0.050990738
0.013572232 0.0052846847 -0.02777175 -0.06857645 -0.054169737 -0.056946937 0.07670093 -0.20902129
-2.0159986 -0.45350596 0.69670576 -0.039257053 0.5042365 0.012771213 -0.004912571 -0.8261882
0.13075872 -0.16629072 0.3105038 -0.21458945 0.18092483 -0.23519197 0.35236278 -0.5437723
0.017012808 -0.19746216 0.39500922 -0.47324505 0.7017068 -2.1870823 0.9259581 3.5255208
-1.6742097 -0.02606982 0.038905166 0.06501766 -0.0353897 0.09615175 0.03284992 0.013245772
-0.0073762983 -0.0075319335 0.003659628 -8.161143 0.122398354 0.060647584 -0.039781462 -0.048189092
0.15478152 0.015015872 0.025381083 0.080336995 0.098194174 -0.03217621 0.007443421 0.10897864
-0.067984134 -0.13446258 0.11386203 -0.28636035 -0.23305175 0.004377097 -0.12618826 -0.029415518
-0.12971365 0.11169004 1.309665 0.7780909 -0.08090423 0.009153888 -1.0247519 0.35686135
-2.4105246 0.7823292 1.7266912 -1.0597819 0.7639796 -0.56633496 -0.43657085 -0.49753833
-1.1659691 -0.28660253 -0.15631269 0.20604071 0.5189562 0.24533352 -0.39251542 -0.0973273
0.08437409 0.12531747 -0.07546714 -0.40963596 0.061889358 0.06298939 0.7839773 -0.23248714
-0.9384758 0.27006888 -0.12856978 -0.0754962 -0.13631354 0.0031896285 -1.007117 0.8535516
-0.82756 0.65237105 -0.87263083 0.30462092 -2.459451 0.7855886 2.4005427 -2.8591866
0.0054571554 -0.033712078 -0.37380186 -0.48415723 -1.0659308 -0.43076566 -0.8158901 1.0350902
-0.5576284 1.0398206 -0.42713857 0.09869591 -0.04434149 0.08909526 -0.103353396 0.08797792
-0.46866238 0.042632826 -1.1635191 -0.26233095 -0.5330421 -0.43763214 -0.27334264 -0.06745253
-0.20642683 0.13114126 -0.7074043 0.40810513 -0.61513036 -0.35725126 -0.93140167 0.25188264
-2.4632998 0.77111316 1.0384144 -1.5448611 0.4771724 -1.14335 -0.49005485 -0.46884313
-1.0140791 -0.2810205 0.45399058 -1.870591 0.0016036034 0.07631341 -0.408463 0.2145429
-0.086733066 0.065426506 -0.018352678 0.04379534 0.06620043 -0.45084 -2.842346 0.021801513
-0.13993667 0.24337289 -0.03772145 -0.2027767 -0.012934567 0.18534675 0.040721573 -0.20434289
0.23318462 0.03305722 -0.007510025 0.15851 0.12859996 -0.27568033 -0.05086512 -0.02661424
0.058117777 0.07230186 -0.008201131 -0.048385624 0.033485916 -0.0075618546 0.076004416 0.0516342

bias f4 [256]
00000000: b222 1839 72b5 03bf 44d9 cdbd 68fb 543e
00000010: fb04 6ebd dcdd 373c 7ce0 3ebe f097 873c
00000020: 939d 14be ebf5 d5bd 18fd 1bbd 09b7 36bf
00000030: 9830 5cbe 8b0f 443d 4cf4 d8bd bc51 9abd
00000040: cfbc d9bc 9167 f6bd 47fd 5d3d fb40 88bd
00000050: e542 28bf a06c 16bf 10f4 df3d fbd5 e93c
00000060: ef6b e0bc 6198 b3bc cf95 a9bd 694b b93b
00000070: 5af6 22be 5a21 273f 879e 0f3e a26a 95bd
00000080: f739 c4bc 7a51 e7bd 6ec3 05bd d3a7 8abd
00000090: 86d8 26bf a707 e4bd d26e d1bd a3f2 37be
000000a0: dde3 1e3d 258a eebd a33d 273d 2fa0 9f3b
000000b0: ea12 04bf 49bb 873d bd0c 88be 933f 9bbd
000000c0: 09df bebc 6949 72bd 4152 f03c 59c6 93bc
000000d0: b388 f6bd 1b4a 163f 2538 91bd 18b4 29bf
000000e0: a71d 28be 2eee 18bd 59db c8bd fe3b 30bd
000000f0: 6224 6f3e 627c ccbd 1279 89bd 0941 31bd
00000100: ae10 85bd 5844 73bd 97ba 00bf ba79 ca3c
00000110: 2938 163d 8d6b adbc 2fc2 943e 85fa e3bc
00000120: efca 0c3f f059 1bbd d3a1 323f a0ba 183d
00000130: 0e7c 453d 3374 02bf 312e 2c3d 0c7f babe
00000140: d799 023d 1d35 c3bd 500f 6bbe 0e42 74bd
00000150: 756a 10bc b8d0 fabd 8c50 44bd 5f66 7fbd
00000160: ef78 93bd 9f25 633c 779d 23be 1b58 983c
00000170: 60d8 d0bd 4841 6abf c36f b13b 4495 b6bc
00000180: fd37 bf3b 553f f0bd 19e6 eebd aced 6bbf
00000190: a7f3 edbd 4068 5abd 6633 87bd be8a f9bd
000001a0: 3a2a 1fbe d60c 49bf d675 3cbc e609 3d3d
000001b0: bc04 13bc 4c85 ee3c 4133 81bd ba39 e6bd
000001c0: 643b 93bd 4e01 703e 758e 8bbd 0131 6fbd
000001d0: eb06 b9bc b97a f53c 7cc5 b7bd 8d1a 01bd
000001e0: 3990 8fbd 6fef 04be 9119 b6bd a321 b0bc
000001f0: 6e01 cfbd 0d67 913e 9b09 91bd 675c 1cbb
00000200: f585 00bd 6a5d 66bf b933 c1be 430d e9bd
00000210: cc3b aebd 2c2f 4dbf ee7f 29bd 3cd4 e7be
00000220: 10d0 1dbd ce1d b0bd b4b5 bcbd 43bc 13bf
00000230: 4883 4dbd 60ce c2bd bd69 0bbe 54e6 06be
00000240: 2afb 3dbd b12e 643e 3486 ccbd d5bc 5d3f
00000250: 1400 89be 5380 b8bc 77f9 dc3e bb16 31bf
00000260: cdb8 6abe a36c 51be dbb2 32be 2d64 e3bd
00000270: 5e2d b1bd cfbf f5bd 786a e73e bc15 15bd
00000280: f4b0 a8bd 6700 4bbd 1e1d 57bd 82e8 93bd
00000290: 538c f9be d963 0abe 1714 cdbd 5b1e 97bd
000002a0: 37a6 0abe b569 133d 1c7e 003d ce0b 74bb
000002b0: c81e 8fbd 86b0 29bf a1b5 89bd 635e 433d
000002c0: b9c5 b0bd 282c 743d 6ba3 003d 526d 5b3e
000002d0: caa0 98bd 5e98 0abe 46bb 37bf a0c5 ccbe
000002e0: 4ac7 4ebd c33f aebd ac5f 09bc 06fe bfbd
000002f0: 55af 26bd 33e2 7b3b c3ae 5dbe 8ccb f6bd
00000300: 8a7c e3bc 2eac 07be 1451 423f fcb7 45be
00000310: 77e7 f0be b608 6cbd 74b0 09bc bbb2 68bd
00000320: 7254 f6be 0796 59bd 6feb 76bf ab1c 7abd
00000330: 21d3 653d 8a70 18bd 0fdb b2bd 4e44 50bd
00000340: ee31 86be ff86 d83c bf59 2ebf 6e16 0abe
00000350: afc6 34be ddfd 63bf 37f3 15bf aafd 91bf
00000360: 5e17 04be f2b0 23bd 16e0 e3bd bcd3 61bd
00000370: 4b87 01bd ef5f 6e3c 0b79 99bd c183 b5bd
00000380: 4be4 74bc 0b10 01be c07f 38bd 4f89 22bc
00000390: 8fad 3abd d91e 563d f90e 97bd 04c3 83bd
000003a0: f99a e63e 4c86 abbe 98fa 0cbe 3dc9 4cbf
000003b0: ec87 85be 333a 813d a88f 573b e2da 343f
000003c0: 3e52 b2bc 8c37 c7bd b1c2 10bd 796c a1bd
000003d0: 42f7 8a3c 6ce8 373c 7d93 143a a0ca f2be
000003e0: 1932 7cbd e1be 2fbf 2311 91ba e687 97bd
000003f0: 4ad8 223d 3149 a7bd 941e 6b3c 4eb4 98bd
0.00014508775 -0.5144874 -0.10051206 0.20799029 -0.05811022 0.011222329 -0.18640321 0.016551942
-0.14513235 -0.10447296 -0.038083166 -0.7137304 -0.21502912 0.047866385 -0.10593471 -0.07535121
-0.026579289 -0.120314725 0.054196622 -0.06653019 -0.6572707 -0.587595 0.10935223 0.028544417
-0.027395217 -0.021923246 -0.08280527 0.0056547415 -0.15914288 0.65285265 0.14025317 -0.07295729
-0.023953421 -0.11294837 -0.03265708 -0.06770291 -0.6517414 -0.11134272 -0.102262154 -0.17963652
0.038791526 -0.11647443 0.040830266 0.0048713903 -0.5159136 0.06627519 -0.2657222 -0.07580485
-0.02329971 -0.05915204 0.029336097 -0.018038915 -0.12037792 0.58706826 -0.07090787 -0.66290426
-0.16417561 -0.03733652 -0.09807462 -0.043025963 0.23353723 -0.09984662 -0.067125455 -0.043274913
-0.06497322 -0.05939135 -0.50284714 0.024716247 0.036674652 -0.021169448 0.290544 -0.027829418
0.5499715 -0.037927568 0.69778174 0.037287354 0.04821401 -0.50958556 0.04203624 -0.36425054
0.031884994 -0.09531615 -0.2295506 -0.059633307 -0.008814444 -0.12246841 -0.047928378 -0.062353488
-0.072008006 0.01386395 -0.15978037 0.0185967 -0.1019752 -0.9150586 0.0054149344 -0.022287972
0.0058355317 -0.117308296 -0.116649814 -0.92159534 -0.116187386 -0.053322077 -0.066016 -0.12184666
-0.15543452 -0.7853521 -0.011502704 0.046152018 -0.008973297 0.029116295 -0.06308604 -0.11241479
-0.07189062 0.23437998 -0.06814281 -0.058396343 -0.022586307 0.029965745 -0.08973214 -0.03151946
-0.0700993 -0.12981962 -0.08891595 -0.021500414 -0.101076946 0.28398934 -0.0708191 -0.0023858787
-0.03137775 -0.8998629 -0.37734774 -0.113794826 -0.08507499 -0.80150104 -0.04138177 -0.4527911
-0.038528502 -0.08599435 -0.092143446 -0.5770914 -0.050174028 -0.09512019 -0.13614555 -0.131738
-0.046382107 0.22283436 -0.09986535 0.8661626 -0.26757872 -0.022522127 0.43159077 -0.6917531
-0.22922058 -0.20451598 -0.1745104 -0.111030914 -0.08651231 -0.11999475 0.45198417 -0.03639768
-0.08236876 -0.04956093 -0.052518003 -0.07222082 -0.4873987 -0.13514651 -0.100135975 -0.07378837
-0.13539968 0.035989482 0.031370267 -0.0037238481 -0.06988293 -0.6628498 -0.06724096 0.047697436
-0.086314626 0.059612423 0.031405848 0.21428421 -0.07452543 -0.13534686 -0.7177013 -0.39994526
-0.050483026 -0.08508255 -0.008384626 -0.09374623 -0.040694553 0.0038434386 -0.21648698 -0.12050542
-0.027769346 -0.13249275 0.75904965 -0.19308466 -0.47051594 -0.057625495 -0.008403886 -0.056811076
-0.48111302 -0.053121593 -0.96452993 -0.061062496 0.05610955 -0.0372167 -0.08733188 -0.05084639
-0.26209968 0.026431559 -0.6810569 -0.13485119 -0.17653917 -0.8905924 -0.5857424 -1.1405537
-0.12899539 -0.03996367 -0.111267254 -0.055133566 -0.031623166 0.01454924 -0.0749379 -0.08863021
-0.014947007 -0.12603776 -0.045043707 -0.009920432 -0.045575675 0.052275512 -0.07375903 -0.06433681
0.4504011 -0.33500898 -0.13767469 -0.79994565 -0.26080263 0.06309929 0.0032892022 0.7064649
-0.021767732 -0.097273916 -0.035341922 -0.07882018 0.016963605 0.011224847 0.00056677294 -0.47420216
-0.061571214 -0.68650633 -0.0011067729 -0.073989674 0.03975705 -0.08168257 0.014350552 -0.074562654

weight f4 [256, 256]
00000000: d290 2dba bc2b 49bc 50e3 273d 5bae 563d
00000010: aa6c 853c a24a 7c3c 61b5 8e3c 4ec0 fe3c
00000020: ac08 0abe ffe3 4abd c564 9cbb 0acf 0dbd
00000030: 4425 e0bb 82d9 29bd 7248 e1bc 9561 54bb
00000040: e7e8 9e3c 237d 87bd 7fe9 d73c 1826 c5bc
00000050: dab4 c4bd a3bb 84bd 4027 373c 8daf 7cbd
00000060: 15a1 47bd 0db8 e63c 51c1 6e3c 3ce0 b0bc
00000070: 5818 c3bd 6e26 b8bd 13ef 06bd 9075 4fbd
00000080: 0ea2 b4bc e65e 53bd ebc0 873c 006e a1bc
00000090: 023e d8bc 78e2 023c 91f2 0fbd 9de1 11bd
000000a0: fe02 82bd 3bdf 56bc 30e4 783d 8bba 4dbd
000000b0: da41 e8bb 6852 eb3c a384 06bd 65a4 133b
000000c0: 8d8d 7cbc 8a98 f83c 69a5 10bd 2f07 1cbd
000000d0: 53ec 6b3d 0f4b b9bc add7 0d3d da6e 1cbc
000000e0: 31aa 603c b711 c83c 442c 50bd 57c9 f0bb
000000f0: c543 e6bc 44ac e13c f481 0e3d c49e 7ebd
00000100: a0b9 16bc 7b39 4ebd 9702 113d 61c2 233c
00000110: 0d0d 203d 2f2f a13c a394 6cbd 47d2 1b3d
00000120: 2489 94bb be53 0e3d 8e1c 4f3c 4d15 223d
00000130: 46e0 05bc 7462 003d daad fabc 6015 11ba
00000140: e5f0 043c 1352 05bc 4389 8f3c a260 053d
00000150: ee5b f4bb a79e 97bd f529 83bd a5a2 1abb
00000160: 00d6 233d 9b19 fe3c 6c5a ccbc 57fa 95bd
00000170: c31a 72bd b723 10bc 4fd4 ba3c 172f 96bc
00000180: 5e2b debc 8c42 2ebd ab2d b1bc 4abd 06bd
00000190: efd2 78bc a95d 5a3d 2c98 4fbd e793 1ebd
000001a0: abc3 193c 9f58 9ebc 82ad d33c e088 c5bb
000001b0: 710c 623c aa7c 15bc 9cf7 b33c 0ec9 ffbc
000001c0: 6058 17bd 8d26 7ebd eab6 523d 34f6 3e3d
000001d0: 4a09 d13c 1475 613d 2d5c c8bc 3bcb 463d
000001e0: d9ce 613c 0f31 93bc e616 f4bc 7731 2b3d
000001f0: bee1 2fbd cd46 ebbd b6be eb3b ffb7 c3bc
00000200: 9888 10bd 9b42 9ebb e0af f1b9 1543 b23c
00000210: e3c6 42bd a3d2 61be 6662 ab3d 0892 86bd
00000220: 83a3 00bd b59e 56bd ee2e a1bd 2b01 9cbd
00000230: b949 003d acab 543d 4469 ef3c 5c16 b13a
00000240: d381 c4bc 587a fcbc 3c67 603c 3313 d8bd
00000250: bfd0 e8ba 5f4d 3c3b 157f d5bc e606 f3bc
00000260: 02f6 6dbd a1c4 99bc 0627 9ebd ead3 8cbd
00000270: 36f0 acbd bc3d 8cbd 9ca5 48bc 678d 56bd
00000280: a7db ef3a b3c1 bcbc 0a57 613d 86bc 29bd
00000290: 1247 11bd 578d e73c 709b fdbc e1a7 4c3b
000002a0: d017 403d f1d2 673d c2bf 633d 96cd 95bd
000002b0: 2689 d4bc b5a0 2cbd 3803 19bd 9399 81bd
000002c0: 8838 c6bc 034f 96bc ae37 39bd cb18 623d
000002d0: eb95 323d eb01 13bd d572 a43c 6a98 54bd
000002e0: cd7a 83bc 5ea0 e83c dd51 ae3c 1e40 71bb
000002f0: 7bac 3d3d a08b ee3c 337f 0dbd ba57 78bd
00000300: f0e2 dcbc 748f a1bc ec4d 94bc d99f bfbd
00000310: 1999 12bd 0ab6 b7bc 320e 703d 611a 63bd
00000320: d7df 95bd bfc9 aabb f1af 84bd c25f 01bd
00000330: 8a0c 02bd 3371 8dbd 25a6 8cbd b43d 7f3b
00000340: c6e7 91bc 21a6 cdbc 923a 57bd fd05 453d
00000350: aa2d 363d e112 96bd c238 fc3c 2774 7dbc
00000360: 5f81 0bbd 62cf 5dbd 9dbd 353d c181 183c
00000370: 17a4 43bd bf40 51bd f05d d43c 58a3 623d
00000380: 7c8e 723b d402 a53c ab8d 2ebd d327 113d
00000390: 868d 323d 7875 31bc ebc7 3a3d 2834 a8bc
000003a0: 7af3 48bd a79f e63a ed87 0dbd 4eb3 9dbd
000003b0: d526 ac3d 7cec 1e3d c4b0 4b3d f818 543c
000003c0: 7365 303d 60ec 09bd 1678 633d cd84 13bd
000003d0: 65ae b7bb 0a32 803d daad d1bb c0eb bdbc
000003e0: 90b7 62bd 8637 08bd 808b 483d d3c6 db3c
000003f0: d9fc 733c 5606 773d 2fc2 19bd 66d1 29bd
-0.0006621006 -0.0122784935 0.040988266 0.052412372 0.016287167 0.015398653 0.017420473 0.031097557
-0.1347987 -0.04953384 -0.004772755 -0.034621276 -0.00684038 -0.041467197 -0.027500365 -0.0032406796
0.019398166 -0.06615665 0.026356457 -0.024066016 -0.09604807 -0.06481101 0.0111787915 -0.061690856
-0.048737604 0.028163934 0.014572457 -0.021591298 -0.095261276 -0.08991705 -0.032942843 -0.050649226
-0.02204993 -0.051604174 0.016571483 -0.019705772 -0.026396755 0.007988565 -0.03514344 -0.035615552
-0.06348227 -0.013114746 0.06076449 -0.05022673 -0.0070879282 0.028725818 -0.032841336 0.0022528407
-0.015414608 0.030346174 -0.035313997 -0.03809279 0.057598423 -0.022618799 0.034629513 -0.009547913
0.013712452 0.02442251 -0.050823465 -0.0073482203 -0.028108487 0.027547963 0.0347919 -0.06216313
-0.00919953 -0.050347786 0.03540286 0.009995074 0.039074946 0.01967582 -0.05775894 0.038042333
-0.00453295 0.03474783 0.012641085 0.039571095 -0.008171147 0.031343892 -0.030600477 -0.0005534496
0.008114074 -0.008137244 0.017521506 0.03256286 -0.007457248 -0.074033074 -0.06404487 -0.002359548
0.03999901 0.031018069 -0.02494546 -0.07323139 -0.059107553 -0.008797578 0.022806315 -0.018333001
-0.027120288 -0.042543933 -0.021628221 -0.032895364 -0.015187009 0.053311978 -0.05068223 -0.03871527
0.00938503 -0.019329367 0.02583957 -0.0060282797 0.013796912 -0.0091239605 0.021968655 -0.0312238
-0.036949515 -0.062048484 0.05144397 0.046621516 0.025517125 0.055043295 -0.024458015 0.04853366
0.0137822265 -0.017967729 -0.029796075 0.04179522 -0.042939894 -0.114881136 0.0071943654 -0.023891447
-0.035286516 -0.0048297173 -0.0004609814 0.021760503 -0.047552954 -0.22053008 0.083683774 -0.06570822
-0.031405937 -0.05239745 -0.07870279 -0.0761741 0.031320307 0.05192153 0.029225 0.0013510692
-0.023987686 -0.030820057 0.013696488 -0.10550537 -0.0017762406 0.002873264 -0.026061574 -0.029666375
-0.05809594 -0.018770518 -0.07722287 -0.06876357 -0.08444254 -0.068477124 -0.012246516 -0.052380946
0.0018299714 -0.023041582 0.055014648 -0.041439556 -0.03546817 0.028265638 -0.030957907 0.0031227993
0.04689771 0.056597654 0.055602796 -0.07314603 -0.025944304 -0.04214545 -0.037356585 -0.0632812
-0.024196878 -0.018348223 -0.045219116 0.055199426 0.043600004 -0.0358905 0.020074287 -0.051903166
-0.016049767 0.028396782 0.02127927 -0.0036811898 0.04630707 0.029119313 -0.034545135 -0.060630538
-0.026963681 -0.019721724 -0.018103562 -0.093566604 -0.035790537 -0.02242567 0.058607288 -0.05544508
-0.07318085 -0.0052120383 -0.06478871 -0.031585462 -0.03175024 -0.06906357 -0.06867627 0.003894669
-0.017810713 -0.02510363 -0.05254609 0.048101414 0.044477142 -0.073278196 0.030788783 -0.015469587
-0.034058925 -0.054152854 0.044370282 0.0093082795 -0.04776391 -0.051087137 0.0259237 0.055331558
0.0037011197 0.02014295 -0.042615574 0.03543837 0.043592 -0.010831229 0.045600813 -0.020532683
-0.049060322 0.0017595188 -0.034553457 -0.07700215 0.08405844 0.038799748 0.049729124 0.012945406
0.0430655 -0.03367269 0.055534445 -0.03601532 -0.0056055062 0.06259544 -0.0063988985 -0.023183703
-0.05535084 -0.033256076 0.048961163 0.026828205 0.014891827 0.060308777 -0.037538704 -0.041459464
