saved_models_1/125_3135_model.pt (torch, 701697 bytes, 11 tensors)

FC1.weight f4 [256, 36]
00000000: 618b a2be 10ad a43d f049 e53e 63ca d5bd
00000010: 329e 403f 612e b93e a0fc 39be 52ed 8bbf
00000020: 5246 933f 38f1 853e 1821 98bf 9492 e63e
00000030: 9619 90be 5206 ca3e 73e4 633f 4945 edbe
00000040: d3fb 86bf f981 4bbf 8bce 8e3f 3bb4 b63e
00000050: f206 7a3f 900e b53e 1e5e 8abf 0544 77be
00000060: eb44 0140 9d50 95bd 5b1d 38bf 4a25 563e
00000070: cb82 18be 717f 863d d033 8e3e 1355 5d3e
00000080: 8882 13c0 51ae 68be 22f2 453f c172 99bf
00000090: 4f23 6a3f 5758 d1be f6c0 ae3d 5a10 693d
000000a0: 97dd 31bf 1cec 13be 4e4d 753f 9602 6dbe
000000b0: 904e b0bf 2e7c 4cbf 77cf e63f dbdc 01bf
000000c0: 33b3 90bf 83e1 37be afde 543f 23f6 0bbf
000000d0: 4238 bfbf 3f4c e6be 139d 1b40 ead7 1e3f
000000e0: ffea 94be d3a0 84bf 49d4 363e ed5a 923f
000000f0: cb16 1e3e 6d66 febf 8d29 683f 58bf 3d3d
00000100: e8e6 733d 6e8b cc3e d219 7b3e 88b2 f03e
00000110: 7f43 3dc0 9131 95bf ac38 883f 6572 883f
00000120: ec27 863e d70d 8f3e 143f 9fbe eb22 1abe
00000130: ddb6 68bf d8df 1e3f 95e9 c0bf 6084 86bf
00000140: 1327 d43f 16e3 b63e cf80 6a3f f52b 8b3c
00000150: ea4f 02bf 6927 a53f 66cd 7fbd 4ccc 51c0
00000160: 161a 12bd 7d88 d73e e41a ea3c c6c9 f93e
00000170: 54e3 12bf 8394 79bd 5211 663f 5d16 8a3e
00000180: fb54 dabf 10b3 a9be e8c3 313f b739 07bf
00000190: 07fc b1bc aeab e23c ad16 ad3e 0f3c 8cbe
000001a0: fdab 073f 944e 5fbf 5354 72c0 ced8 023f
000001b0: 19dc d9bf 2dbf 923e 5f00 e43d 5808 363f
000001c0: a6c8 eebe e3b4 d6bf 9242 1abd 7fbf 2740
000001d0: 6f4b 86bf eb98 84bf 2f8b 073f b28e 053f
000001e0: 345f 0ebf 34fe aabe 8932 883e 6c7d e83e
000001f0: b589 b8bf 7388 8abe f290 053f 3219 0bbf
00000200: 6f6f 52bf c85b 6d3e 959f 9a3e 7245 913d
00000210: 869a 90bf a316 ed3f 57fc 9d3f 9025 b9bd
00000220: d733 0ec0 41c8 ab3e 1a25 ac3e e219 70c0
00000230: 3f2d 73bf 3e46 47bf 22e7 963f 971b 4bc0
00000240: 7c39 f7be 3676 3cbe e423 8dbd edb8 fcbc
00000250: 7b61 a13f 3c56 e63e 49be 82bf bc84 cfbf
00000260: c371 7a40 c867 183e 8683 7dc0 27b3 0a3f
00000270: e2ea 063f 8f27 a13d 0c4a 28bf 1b1b 35bd
00000280: 6a63 893f 850a 95bf 8c72 8abf d516 9f3e
00000290: cf3f 083d ee2e 36bf 9aa6 b0be 84af b83f
000002a0: 0bc7 6d3e 1e59 43bf fdc1 ba3e 1cde 253e
000002b0: 22e6 933d 33ae eb3e b4bd 923d 4702 5c3e
000002c0: 3e7f 8a3f d637 c63e a35b 95c0 f836 a8bf
000002d0: 3f02 89bf 3024 08be 4991 f03d 9b21 56be
000002e0: 07da a83e 8ae9 023f ad4b 8ebf 5aa3 14c0
000002f0: 3186 f63f 9111 853e 262c 7bbe bcd5 94bf
00000300: dd9b 8fbe 1916 5cbe 01a1 d5be 6ec2 08bf
00000310: 39d7 8e3e f714 503f 66d1 163f db03 77bf
00000320: f8ab 32bf a811 57be f153 433f 6cc4 18be
00000330: 20b0 0ec0 0d19 593f 6bf7 743e e19a d33e
00000340: 9502 d53e 050b 53c0 dd2b 18c0 7e15 99bf
00000350: 3519 c33f d638 85bf 7195 22c0 8710 44c0
00000360: 2264 80bf 31c5 e6be 8155 9a3e 1cc2 92bf
00000370: 6841 513f adbc b5be b48a 17be 0f8a 55bf
00000380: 3b78 0940 18fa fb3f c2e3 223f 62bb 323e
00000390: 6009 703e e58e adbf dfec 6c3f fa66 b83f
000003a0: 93f5 24bf ae32 80bf b601 223f 8020 d0bd
000003b0: 2fb1 163f dc33 c7bf 5b3a d3be e160 5c3f
000003c0: 88f2 493f 5ff6 7fbf 6022 bfbe 58cb 613d
000003d0: e94d fa3e f5fa f83d e74e 20bd 62de 98bd
000003e0: def8 423f b592 d1bf 8985 a2be 672f fe3f
000003f0: 948b 5f3e 4c56 ac3e 90b3 f2be 4e7e 45bf
-0.31746963 0.080408216 0.44782972 -0.10438993 0.75241387 0.36168197 -0.18162775 -1.09318
1.1505835 0.26160598 -1.18851 0.45033705 -0.2814452 0.39457947 0.8902046 -0.46341923
-1.0545601 -0.794952 1.1156782 0.3568438 0.9766685 0.35362673 -1.0809972 -0.24147041
2.0198314 -0.072907664 -0.7191979 0.20912662 -0.14893644 0.06567276 0.27773905 0.21614484
-2.304842 -0.22722746 0.7732259 -1.1988145 0.91460127 -0.4088771 0.08532898 0.05690036
-0.69478744 -0.14445537 0.9582108 -0.23145518 -1.3773975 -0.79876983 1.8032063 -0.50727624
-1.1304687 -0.1795712 0.8315229 -0.5467245 -1.4939044 -0.44980046 2.431462 0.6204821
-0.29085538 -1.036158 0.17854418 1.1433998 0.15438382 -1.9875008 0.906884 0.046325058
0.05954638 0.39950126 0.24521568 0.4701121 -2.9572446 -1.1655751 1.0642295 1.065991
0.26202333 0.27940246 -0.31102812 -0.15052383 -0.9090403 0.6206031 -1.5071284 -1.0509148
1.6574425 0.35720128 0.91602796 0.016988734 -0.5090319 1.2902652 -0.062451743 -3.2780943
-0.03566941 0.4209632 0.028577276 0.48786753 -0.57378125 -0.060932647 0.8987018 0.26970187
-1.7057184 -0.33144426 0.69439554 -0.5282244 -0.021726621 0.027669754 0.33806363 -0.2738957
0.5299681 -0.87229276 -3.7863967 0.5111207 -1.7020293 0.2866148 0.11132883 0.7110648
-0.46637458 -1.6773952 -0.037661143 2.621063 -1.049177 -1.0359167 0.5294675 0.5217086
-0.5561402 -0.33397067 0.26601055 0.4540819 -1.4417025 -0.27057227 0.52174294 -0.5433532
-0.82201284 0.23179543 0.30199876 0.07093324 -1.1297157 1.8522533 1.2342633 -0.090403676
-2.221914 0.3355122 0.33622056 -3.7515798 -0.94990915 -0.77841556 1.1789286 -3.173559
-0.48286045 -0.18404469 -0.06891611 -0.030849898 1.2607874 0.44987667 -1.021432 -1.6212382
3.9131935 0.1488334 -3.9611526 0.54179615 0.5270215 0.07868873 -0.65737987 -0.044215303
1.0733464 -1.1643835 -1.0816207 0.31072107 0.033263978 -0.7116536 -0.34502107 1.4428563
0.2322046 -0.7630786 0.36476126 0.16198009 0.07221629 0.4603134 0.07165089 0.21485244
1.0820081 0.38714474 -4.667436 -1.3141775 -1.070381 -0.13295054 0.11746461 -0.20911257
0.32978842 0.511376 -1.1116844 -2.3224702 1.9259702 0.25989965 -0.2452856 -1.1627727
-0.28048602 -0.21492805 -0.417244 -0.53421676 0.27898577 0.8128199 0.58913267 -0.9649026
-0.69793653 -0.21002829 0.7629996 -0.14918679 -2.2294998 0.8480385 0.23922507 0.413291
0.41603532 -3.2975476 -2.3776772 -1.1959684 1.5242068 -1.040797 -2.5403712 -3.0635087
-1.0030558 -0.4507232 0.3014336 -1.1465487 0.81740427 -0.3549551 -0.14799005 -0.83413786
2.1479633 1.9685698 0.6362878 0.17454293 0.23441076 -1.3559233 0.92548937 1.4406426
-0.64437217 -1.0015466 0.6328386 -0.10162449 0.5886411 -1.5562701 -0.4125546 0.86085325
0.788857 -0.9998531 -0.37330914 0.055125564 0.48887566 0.12157241 -0.039137747 -0.07464291
0.7616099 -1.6372896 -0.31742504 1.9858216 0.21830589 0.3365959 -0.4740262 -0.7714585

FC1.bias f4 [256]
00000000: 9884 ca3d fa42 82be 115f 02bf 233c 9bbd
00000010: 4dec 323e 4603 a13e e431 15be 0b9a d2be
00000020: 57c5 3bbf b395 c8be ecc0 273c cf9e 29be
00000030: a299 eabe 396e 6fbe 1fa7 d1be 87c9 8cbd
00000040: 6e60 793e 4190 7ebe ce93 553e 5bd1 9e3e
00000050: 0d11 88bd bced 023e b168 2ebf e8ce 313d
00000060: 4a3b a3be 94d9 0e3d f2dd 38bf c5fc 833e
00000070: c14b 4ebf d3d8 8b3d 12ff 54be fb72 e2be
00000080: a358 10bf bbd0 843e 59c1 2ebe 56b9 043f
00000090: efbe e6be ba10 b9be 661a 99be 5422 74be
000000a0: 7b37 1a3e fb61 ccbe 42b1 b83c a65f 0fbf
000000b0: 9a81 723e 5b53 fdbd 1c6e 40bf d243 8bbe
000000c0: 2be7 a2be 0be3 40bd ee75 303f ff4b 48be
000000d0: 73f2 e4bd 7e0c f8bc 6481 213e db09 dcbe
000000e0: 7b96 4bbe ed6a cdbe 1887 b23c 7db7 623d
000000f0: f49e 3bbe d273 5f3e a006 aa3e 7656 44bd
00000100: a0a5 e43c fa19 6d3d f801 223c b18e 10be
00000110: 8fe7 1ebf 16d3 acbd 1ac4 5abe 9203 acbe
00000120: 12ca a03e a0e7 6a3f 47b8 edbd 6080 283d
00000130: 0d9c 17bf 3767 c7be 648c 36bf b57b 1d3f
00000140: c810 44bf 1996 dcbe 1338 5d3e 86f5 a7be
00000150: ac5a b03d 0ab2 103f 0c59 d13d eba7 353e
00000160: bf1d dfbe 5361 7d3e 9d01 fc3c b678 25bd
00000170: 8f13 d7be 1ca7 ec3e ad4c 2b3d a18c dfbd
00000180: 4aa8 aebd b6dc c2be 1df5 e7be 318f 0ebf
00000190: 8b77 53be d6c8 4d3e 91d1 67be 3f10 00bf
000001a0: 71a4 04be 00d0 b63e 848e f13d d8a0 92be
000001b0: b697 683c c95d aabd 6e51 85be e1ba 0fbf
000001c0: b215 e9be 4b1b 09bf 37f8 04bf 6bc3 df3d
000001d0: 6a7f ddbd 2e2d 983e fc04 dfbe 047a 933d
000001e0: fc89 60be 9136 17bd 5997 cfbe 19c7 64be
000001f0: 1728 39bf a124 51be f533 01be ec08 12bf
00000200: 7aae 31bf 55e8 0b3e 96c4 9abe 06cc 983e
00000210: eebd dc3e a544 66bd 07a4 4a3e 7e11 09be
00000220: a571 87be 5831 ac3e 8d0b 04be 06f0 b53c
00000230: 78c1 6dbe 7fce 3c3d cf92 503d 3f0c f7bc
00000240: ddf6 abbe 7027 d6be 413f b13e b2a0 1b3f
00000250: e2f7 59be abc2 bb3e 3871 4fbf 4676 59be
00000260: 8e9d 69bc 4b31 3bbe 14d3 3b3f d9aa 1ebe
00000270: d1f2 23bf 0057 85bd f889 ad3e 7428 20be
00000280: 83df 90be 6a2c cf3c d6eb 243f 89de 903e
00000290: 3076 443d 3a29 2c3e a288 10bf 64ba 99bd
000002a0: 15c6 b9bd faf7 5dbe 4303 f2be 5347 1cbf
000002b0: 6bb9 1e3f 1778 1f3e 55c6 48bd b8d0 5f3c
000002c0: 09ee c83d 275c 9b3d ea53 7ebf da4f 14bf
000002d0: ee45 b63d 141e 1dbf 8fa3 95bc 2f4c bf3e
000002e0: 4189 8bbe d075 6abe 1a09 75be 42b6 1dbf
000002f0: 02a0 2d3f 2123 c6be 8417 973c bd17 06be
00000300: bda1 cb3d b9de f83e 9f99 ed3e 0e56 54be
00000310: b142 fcbe c60c 6cbd b2f8 8f3e 5685 aabd
00000320: c1f1 b0be f7b6 cdbe 68ee e4bc 1f73 17bf
00000330: cf3e 533e 42de 4d3e 1953 5d3e a71c c03d
00000340: db2d b4be 6734 123e df14 f5be bd28 b53e
00000350: 2150 a5be bd1b 12bf 1899 23bf e229 dabe
00000360: 12ba bdbe 026f 03bf 5da6 073e 8f7f 823e
00000370: 53da 97be 8233 7abc 6e94 42be 3ca7 0a3f
00000380: 1cbb e5be 1aae 61be 07d5 f8be f704 54bf
00000390: f6cb 6f3e 3f03 b73d 959f 673d e6aa 0abf
000003a0: 6058 0e3f 0a82 e1be 3733 12bf 2032 a0bd
000003b0: c1fa 37bf 78f0 5b3e 0904 9ebe 3f8a 8abe
000003c0: 3326 833d 1775 5abe b57d 173e 69de 3a3f
000003d0: 8f73 313f e023 50be c2fa 1b3c 7ef5 a13d
000003e0: 561e 66bd 8335 983d 716c 58be 6da5 26be
000003f0: 242d 6dbd f375 253f 7a72 e5be adf9 a7be
0.098885715 -0.25441724 -0.5092631 -0.075798295 0.17472954 0.3144781 -0.14569813 -0.4113315
-0.7334799 -0.3917671 0.010238867 -0.16564487 -0.45820338 -0.2338189 -0.40947816 -0.06874376
0.24353191 -0.24859716 0.20857164 0.310191 -0.06643877 0.12786001 -0.68128496 0.04341021
-0.3188117 0.034875467 -0.7221366 0.25778785 -0.8058434 0.06828465 -0.20800427 -0.44228348
-0.5638525 0.259405 -0.17065944 0.518453 -0.45067546 -0.36145574 -0.29902953 -0.2384122
0.15060227 -0.39918503 0.02254546 -0.5600532 0.23682252 -0.123694144 -0.75168014 -0.2720018
-0.31816992 -0.047091525 0.68929946 -0.1956024 -0.11179056 -0.030279394 0.15772015 -0.4297627
-0.19881622 -0.4012064 0.021792933 0.05535077 -0.18322355 0.21821526 0.3320818 -0.047934018
0.027911007 0.0578861 0.009888165 -0.14116932 -0.6207208 -0.08438699 -0.2136387 -0.33596474
0.31404167 0.9175968 -0.11607414 0.041138053 -0.5922249 -0.38945934 -0.7130797 0.61516887
-0.76588106 -0.43083265 0.21603422 -0.32804507 0.08611044 0.56521666 0.102220625 0.17739837
-0.43577382 0.24744157 0.030762488 -0.040398322 -0.4200711 0.46221244 0.04182117 -0.10915495
-0.08528192 -0.38059014 -0.45304194 -0.5568724 -0.20651071 0.20096144 -0.22638537 -0.5002479
-0.12953354 0.35705566 0.11794761 -0.2863834 0.014196327 -0.08318669 -0.26038688 -0.5614453
-0.45524365 -0.5355727 -0.51941246 0.10925945 -0.10815318 0.2972197 -0.4355849 0.07201007
-0.21927637 -0.036917273 -0.40545157 -0.22341575 -0.723268 -0.20424129 -0.12617476 -0.57044864
-0.69406855 0.13662846 -0.30228108 0.29843158 0.43113655 -0.05621781 0.19789134 -0.13385579
-0.2645389 0.33631396 -0.12895031 0.022209179 -0.23218334 0.046095368 0.050921258 -0.030157207
-0.3358678 -0.41826963 0.3461857 0.60792077 -0.21285966 0.36671957 -0.81032133 -0.21236524
-0.014258755 -0.18280523 0.73368955 -0.1549486 -0.64042383 -0.065107346 0.33894324 -0.15640432
-0.28295526 0.025289733 0.6442236 0.2829478 0.047964275 0.16812602 -0.56458485 -0.07506254
-0.09070984 -0.21676627 -0.47268113 -0.6104633 0.62001675 0.15573154 -0.04901727 0.013660602
0.098110266 0.07585936 -0.9934679 -0.57934344 0.08900057 -0.6137402 -0.018266467 0.3736281
-0.27253154 -0.22896504 -0.23929253 -0.6160623 0.6782228 -0.38698676 0.01844383 -0.13094993
0.099429585 0.48607424 0.46406266 -0.20735952 -0.49269632 -0.05762937 0.28119427 -0.08326213
-0.34559444 -0.40178654 -0.027945712 -0.59160036 0.20629428 0.20104316 0.2161373 0.09380465
-0.35191235 0.14277802 -0.47867486 0.35382643 -0.32287696 -0.57073575 -0.6390548 -0.4261008
-0.37056023 -0.5134126 0.13247056 0.25487944 -0.29658756 -0.0152710695 -0.19001934 0.5416143
-0.44869316 -0.2203907 -0.48600027 -0.82820076 0.23417649 0.08936166 0.056548674 -0.5416702
0.556036 -0.44044524 -0.571094 -0.078220606 -0.71866995 0.2147845 -0.30862454 -0.27058598
0.0640377 -0.21333729 0.14794047 0.7299562 0.69316953 -0.20326185 0.009520235 0.07908152
-0.056181274 0.074320816 -0.21135117 -0.16274042 -0.057904378 0.646331 -0.448139 -0.32807675

FC2.weight f4 [256, 256]
00000000: 904f 04c0 0c79 8c3f 38cb 253e 10a9 13c0
00000010: 5398 203f 7690 ba3f 24a4 e6be 64a2 15c0
00000020: f142 a0bf cb38 913f 760f 04bc 6543 403f
00000030: e1e0 67bf e3b7 50be 75fb e23c eca9 e3bd
00000040: b457 01c0 9ac8 c23e 1d17 9d3f 30b4 89bf
00000050: 1240 1f3d 56a0 c43f a3f0 64c0 d5f6 debe
00000060: 6f14 cd3d 7152 3ac0 8968 6fbf 2fe7 33c0
00000070: 98bc bb3f d6ab 29be 67bb 0f3e bbf8 93bf
00000080: 4666 b6bf 8ed4 7e3e 23f1 9f3c 03d1 00be
00000090: a50c 09bf ea67 0e40 fa39 123f 5c84 4b3f
000000a0: 9a4c 43be d649 713d 3d95 c5bf 5e3f 55bf
000000b0: 4b6c afbd 1e54 0fbe 76b0 60bf 7da5 b1be
000000c0: 6089 d23e 4181 eb3d 4c1b 89bf 58b8 94bc
000000d0: 4a14 32c0 2f03 28c0 4499 40bf 04bf e7bf
000000e0: 9960 febc 40da 3a3f db18 1ac0 42b5 b63e
000000f0: e842 b33e 0287 dfbe ba8b 55be e09a 643e
00000100: 5498 5a3f d3be c53f 70b4 84bf 3ea4 23bd
00000110: b879 08c0 3d4d 94bd 4237 81bd 0e08 41be
00000120: 2aeb 3bbe 500d 62be a347 5e3e 2d9f a33e
00000130: 6407 b5bf 8242 c0bf 1f6c cc3d d0b6 953f
00000140: 1fa2 3c3f 32a5 fbbf 0568 cf3f 453e 7bbe
00000150: 85ca 28bf f125 e83f d637 3abf fb64 bcbf
00000160: a1f1 813e e840 1f3f fa76 5abc 37f3 b9bf
00000170: 43a7 a43e eb65 ffbe 6ba1 63bd fcc2 113f
00000180: 6770 0940 1387 dabe eccd 913f dd4e 323f
00000190: 515e ac3e cd2e 98bf 3234 c8bf fe25 e63e
000001a0: f24f 283c 70d0 253c 38d7 bf3f 0ef0 fbbb
000001b0: 1bac 903f 48ed 04bf fc26 1cbd 8f40 a4be
000001c0: cd4f 99bf 0975 0fc0 2d31 79bc f869 ddbf
000001d0: 1768 6cbd 9f3e bebf 6ef0 20bf 780b 7fbe
000001e0: 10c6 cabe d6a8 8cbf 1f27 b53d 64e2 71be
000001f0: 4444 9cbf 499c 883c 7e02 883f 4ae8 91bf
00000200: 3e61 d1be 6f3f 173f 8d37 f63f 5365 0e3e
00000210: 9164 b4bc d929 71bf 4282 f7bf 95e4 cf3e
00000220: ac05 8ebf f10a 443d f9ac f6bf 4c00 843f
00000230: 3e22 b2bc 3c9c ccbe b36a 333e c7a8 5dbf
00000240: e177 c5bf 3e8b e23e ddc0 553f 857e 103f
00000250: 5a80 8dbd 3ce9 5ebe 58da 03be 3300 783f
00000260: 36b6 d5c0 73ae e1be 5707 f9be d246 15bd
00000270: 2919 29bf 7fa1 f13f 062a 9d3f 8914 fcbc
00000280: 4c4f a7be c03a b4bd 4971 1abf af1a 1b3e
00000290: 759e 29c0 afc3 04c0 592e ec3e 1be1 ebbf
000002a0: c0b3 373e fdf5 0ac0 72f1 3240 67ad 08bf
000002b0: 361b 10bf 11b4 fdbf 0f26 053e d5fe 57bf
000002c0: 98be 6c3e c94b 47bf 1ed4 40bf 471c 993d
000002d0: 24c0 89be eab1 7d3f 215d e0bd 0ccd d63e
000002e0: f7b6 543f 04cc 16bf 8b91 54bf 4216 a03f
000002f0: 4ccb 843f ef7a 1b3f e9ad ea3f 9292 353e
00000300: 2faf 7f3f 1e2c f63e 1d22 31bf 9333 623f
00000310: b574 18c0 0abd babf 8024 4e3f 9d94 1ac0
00000320: ca99 b33e 0d95 333e 8875 53bc 11f8 a53f
00000330: 8ab9 1ebf 56ed ddbf fe94 463e 3f8d 8f3f
00000340: 69fc a5be b31b 00c0 446a 053f 86b7 1840
00000350: 42d9 a83f c0ca 62be 2ca7 90bf 1c7d d93f
00000360: 8106 dabc 8679 7b3f 5f7e a0c0 bf02 24bf
00000370: dc99 63c0 fd04 71be ae84 cd3e 50b5 0740
00000380: 7ceb 1540 abde 73bf 6113 593f fedc 993f
00000390: 055e b0be 5468 1bbc dc3b 38be de31 be3e
000003a0: 332a 533f c8e7 7dbf cae3 4abd 5e3d 1d3e
000003b0: cdc6 5cc0 10a2 ac3f c82c 08bf 9437 8bbf
000003c0: 9399 963b 91b8 3bc0 afcf 0fbf d45a 87be
000003d0: 7dac 713f b5b2 d93e d82a a4bf 820b 163f
000003e0: b554 db3e ab29 9dbd ffba f2be 2082 6d3e
000003f0: 0874 b6bf 2190 7abf 48a0 a5bf e2ed 87bd
-2.067356 1.097444 0.16190803 -2.3071938 0.6273243 1.4575336 -0.45047104 -2.3380365
-1.2520429 1.1345457 -0.008060327 0.75102836 -0.9057751 -0.20382647 0.027707795 -0.111163944
-2.020978 0.38043672 1.2272679 -1.0758114 0.03887946 1.5361431 -3.5771873 -0.43547693
0.10013663 -2.9112818 -0.93518883 -2.8109853 1.4666929 -0.16569456 0.14036332 -1.1560282
-1.4249961 0.2488577 0.019524163 -0.12579732 -0.5353492 2.2250924 0.57119715 0.7949884
-0.1907219 0.058908306 -1.5436169 -0.83299816 -0.08565577 -0.13996932 -0.8776926 -0.3469657
0.41120434 0.114992626 -1.0711455 -0.018154308 -2.7824883 -2.6251943 -0.75233865 -1.8105168
-0.03105192 0.72989273 -2.407767 0.35685164 0.35011983 -0.4365769 -0.20854083 0.22324705
0.85388684 1.544886 -1.0367565 -0.039951555 -2.1324291 -0.072412945 -0.06309368 -0.18850729
-0.18351427 -0.22075391 0.21707015 0.3195738 -1.414288 -1.5020297 0.0998156 1.1696415
0.7368488 -1.9659789 1.6203619 -0.24535473 -0.6593402 1.8136579 -0.7274145 -1.4718317
0.2537966 0.62208414 -0.01333403 -1.4527348 0.3215886 -0.49882445 -0.055573862 0.5693815
2.1474855 -0.42681178 1.1390967 0.69651586 0.33665708 -1.1889282 -1.5640929 0.4495086
0.010272967 0.010120496 1.4987555 -0.007688529 1.1302522 -0.5192456 -0.038123116 -0.32080504
-1.1977478 -2.2415183 -0.015209478 -1.7297964 -0.057716455 -1.486286 -0.62866867 -0.24906719
-0.39604235 -1.0989025 0.088453524 -0.23621517 -1.2208333 0.016676085 1.062576 -1.1399014
-0.40894502 0.59081167 1.9235703 0.1390584 -0.02202061 -0.9420448 -1.9336627 0.40604082
-1.1095481 0.047861997 -1.9271537 1.0312591 -0.021744844 -0.39962947 0.17521171 -0.8658566
-1.5427209 0.44246858 0.8349741 0.56443053 -0.06909247 -0.2176866 -0.1287626 0.96875304
-6.6784925 -0.44078407 -0.48638412 -0.036444493 -0.66054016 1.887741 1.227845 -0.03077151
-0.32677686 -0.08800268 -0.6032911 0.15146898 -2.6502964 -2.0744436 0.4612911 -1.8428072
0.17939663 -2.171264 2.7959867 -0.5338959 -0.5629152 -1.9820577 0.130028 -0.8437322
0.23119581 -0.77850014 -0.75323665 0.074760966 -0.26904404 0.990996 -0.10955263 0.41953313
0.8309168 -0.58905053 -0.8303458 1.2506793 1.0374541 0.60734457 1.8334323 0.17731693
0.99876684 0.48080534 -0.6919268 0.88359946 -2.3821232 -1.458894 0.80524445 -2.4153206
0.3507827 0.17537327 -0.01290644 1.2966329 -0.6200186 -1.7338054 0.19392774 1.121498
-0.32419136 -2.0016906 0.52115273 2.3862014 1.3191302 -0.22147655 -1.1301017 1.6991305
-0.02661443 0.98232305 -5.015426 -0.6406669 -3.5562658 -0.23537059 0.4014029 2.1204414
2.3424978 -0.9526164 0.84795195 1.2020566 -0.3444673 -0.009485323 -0.17991585 0.3714742
0.82486266 -0.99181795 -0.049533643 0.15355441 -3.4496338 1.3486958 -0.5319333 -1.0876336
0.004595944 -2.93314 -0.56176275 -0.26436484 0.9440382 0.42519155 -1.2825575 0.5861131
0.42838064 -0.07673963 -0.47408292 0.2319417 -1.425416 -0.97876173 -1.2939539 -0.066371694

FC2.bias f4 [256]
00000000: a369 c2be 6831 a3bd 045c 0bbf 74a8 cebd
00000010: 3ec7 12bf 302f afbe 1e2e 293f 67e8 7e3d
00000020: 3070 69bc e7c0 81bf dfa8 87bc 7ed6 dbbd
00000030: 5622 16bf 7ba4 1bbd 48ea 75bf 7b30 1dbf
00000040: 45fe 093d 4296 55be 82ce f8bd a754 78bf
00000050: bc46 6ebe 8386 acbe 23ab 3e3f 7777 28bf
00000060: c3be e1bd 8cc9 6dbd 524b 523e 8abe 5cbd
00000070: 2ae7 43bf 11ce dfbe e38b 54bf 92e7 3fbf
00000080: 9b65 62bf 9318 9ebd b0bb 9dbe a179 42bf
00000090: f64c febd bdab bc3d 06c4 cabe 68d0 103f
000000a0: e9fc 6fbe 73bf 23bf 1b27 403e 6627 5dbf
000000b0: 64db a03d fdb6 cbbe 1537 2abf f4b7 e73e
000000c0: 2f30 aa3e 8c96 ffbe 889e 11bf e25a e7be
000000d0: 7a85 88be 5111 50be b6b5 01bf 4c58 653d
000000e0: d669 fbbe 2ce6 ddbe c032 3dbb dfe8 7dbe
000000f0: 2270 3a3e 4322 0ebf aa01 91bf 15f1 ba3d
00000100: 6cb9 cc3e 81da c23e e7c0 63bf 7bd8 16bf
00000110: 234e 40be 6d3e 75be 68ea 81bf f7d3 debe
00000120: ed6b 27bf a1f6 21be 85e5 053e 5a5a 60be
00000130: 589d 0c3e 8ad4 e7be 0eb0 36bf e30e 62bf
00000140: 6b27 c0be 4a03 a5bf 1883 afbd fd91 e3be
00000150: ca80 16be 5f4a 84bf f76b 5abf 2f82 e3bc
00000160: 54ca 03bf 2cd9 383f 2808 05bf 3b1e 2abf
00000170: ba95 5ebe 1686 a9bf 647b 9fbf 9e47 88be
00000180: 5729 8fbf 66da d5be 3b7e f9be 0b84 51bf
00000190: f467 febe 5e6d cbbe 19a5 5d3d a7f6 b23d
000001a0: 4324 bcbe e1d9 ce3c 9cd5 873f 0c76 1c3d
000001b0: cf39 43bf 5b0b 91bf c042 49be 9950 24bf
000001c0: d27c f2bb 6de1 f3bc 2add bf3d d486 00bf
000001d0: 7419 873d f86a 1bbf 46be a2bf 0a18 cebe
000001e0: d68f 6fbd 91df 7cbe 5ae4 4a3d cd08 fabe
000001f0: 9d6f a0bd 94bf e23e becd 4abe 3bbc 5cbf
00000200: 59ab f8bd 08b5 a2bf 650b 47bf 8e2a 2abc
00000210: 4fbd c33e d5fd 7cbe 4249 6fbf 3074 00bf
00000220: 3d79 03be 5778 9f3f 0e44 a8bf dd69 d5bd
00000230: 1070 7dbf 6deb c1bd d1ad b9bd 504e a2be
00000240: f391 143e 1d68 d9be 73bc 823e 272d 9abd
00000250: 0c00 4cbe 35fe 07bf 0e38 49bf 8af6 d4be
00000260: f2c8 973e 902f 05be 4477 3e3f 2bdc a7bf
00000270: 6c57 35bf 5674 74bf 9b5a 823d c694 4fbe
00000280: 6745 aabd 9e8b 3f3e 2da2 3cbf fc13 3c3e
00000290: e219 25bf 9677 153d cf35 dfbe 7c9e 18bf
000002a0: d7e5 16bf 91f7 9dbc 379d 4fbf 10ff 9fbd
000002b0: 532c 3fbf 836d 97bf 4edb afbf 9ed2 70bf
000002c0: e587 babe 1398 4cbe 6ea5 fdbe 0089 a63e
000002d0: e3ea 22bd 8fe4 80bf c8cb a6bd ddd3 abbe
000002e0: abbf 2c3f a842 1dbf f2cb 77bf 0557 44be
000002f0: 75f3 50be ec9d 34be 2cce 11bf 9ebb a6bf
00000300: 37f9 11be 47cd 77bf b10e f73d c118 60bd
00000310: f707 4fbe 0e56 a2bf 9b9c 89be 2527 97be
00000320: 2ca6 07bf 1ff0 73bd 4c4a 3ebe 3dfb 2fbe
00000330: 474f 9abe a74c 53bd 594b 15bf 621c 47bf
00000340: 84e4 a5be 45a4 313f e9a9 a63e a9d1 57bf
00000350: 5aee 9b3c 7f65 68bf ca4b 2fbf 723f 94be
00000360: c0f0 a3bf 8e0f 133e e4f3 b7bd f0f0 24be
00000370: d671 923d 375f 70be 8902 85be 84ea 27be
00000380: c672 053d f765 333e ab78 a9be a502 9abf
00000390: dfc0 3fbf 8640 82bf fc19 03bf 08ea 98bf
000003a0: addc b0be d024 a9be aab7 53be 173b 5dbf
000003b0: 7c6e fdbe 587d 9fbe f5e9 bdbf f206 9fbf
000003c0: c814 d6bd f99a 07bf 6b0b 39be 378e 353f
000003d0: a8dd 45bf 5874 133e 3597 debd 808b 22bf
000003e0: b73d 4bbf d7cb 09be 2e4e a1be 8c03 11bf
000003f0: ae4c 90bd f69d 56be 5fb6 a8be 039c 44bf
-0.3797122 -0.07968408 -0.5443728 -0.10090724 -0.5733527 -0.3421569 0.66085994 0.062233355
-0.014247939 -1.0136994 -0.016560016 -0.107342705 -0.5864614 -0.037998658 -0.9606061 -0.614021
0.033689756 -0.208581 -0.12148763 -0.9700417 -0.2326917 -0.33696374 0.74479884 -0.6580729
-0.11022713 -0.05805354 0.20536545 -0.05389265 -0.76524603 -0.43711904 -0.8302595 -0.74962723
-0.8843629 -0.07719531 -0.30807257 -0.7596684 -0.12417023 0.09212444 -0.3960268 0.56568
-0.23436321 -0.63964003 0.18764918 -0.8638824 0.078543454 -0.39788046 -0.664903 0.45257533
0.33239886 -0.49919546 -0.56882524 -0.45186526 -0.26664335 -0.20319106 -0.50667894 0.05599241
-0.49104184 -0.4333967 -0.002886936 -0.24795865 0.18206838 -0.5552103 -1.1328633 0.09128014
0.39985216 0.3805733 -0.8896622 -0.58924073 -0.18779807 -0.23949595 -1.014966 -0.4352109
-0.65399057 -0.15816738 0.13075836 -0.21909466 0.13731897 -0.45279342 -0.7136239 -0.88303965
-0.37530074 -1.2891629 -0.08569926 -0.44447318 -0.14697567 -1.0335196 -0.8532099 -0.027772037
-0.51480603 0.7220638 -0.5196557 -0.6645238 -0.21736804 -1.3244045 -1.2459531 -0.2661714
-1.1184491 -0.41768187 -0.4872912 -0.81842107 -0.49688685 -0.39731878 0.054112528 0.087384515
-0.36746415 0.025250377 1.0612063 0.038198516 -0.76260084 -1.133159 -0.1965437 -0.6418548
-0.0074001336 -0.029770577 0.093683556 -0.5020573 0.06596652 -0.60710096 -1.2714317 -0.40252715
-0.058486782 -0.24694659 0.04953418 -0.4883484 -0.078337885 0.44286788 -0.19805047 -0.86224717
-0.12142057 -1.2711496 -0.7775176 -0.010386122 0.38230368 -0.24706204 -0.9347116 -0.5017729
-0.12839217 1.24586 -1.3145769 -0.104205824 -0.9899912 -0.09468732 -0.09066356 -0.31700373
0.145088 -0.42462245 0.255344 -0.075281434 -0.19921893 -0.53122264 -0.7860116 -0.41594344
0.29645497 -0.13006425 0.74400735 -1.3114065 -0.7083652 -0.95490015 0.06364938 -0.20271596
-0.08314019 0.18705603 -0.7368496 0.18366998 -0.6449262 0.036491 -0.4359574 -0.5961683
-0.5894446 -0.019283088 -0.81099266 -0.07812321 -0.7467701 -1.1830295 -1.3738801 -0.94071376
-0.36431804 -0.19979887 -0.49540275 0.32526398 -0.039774787 -1.006975 -0.08144337 -0.33560076
0.6747996 -0.61429834 -0.9679557 -0.1917382 -0.20405371 -0.17638367 -0.5695522 -1.3026006
-0.14255224 -0.96797603 0.12063349 -0.054711107 -0.20217882 -1.2682512 -0.26877293 -0.29522052
-0.52987933 -0.05955517 -0.1858303 -0.17185684 -0.3013861 -0.051586773 -0.58318096 -0.77777684
-0.32400906 0.6939128 0.32551506 -0.8430429 0.019034553 -0.9077987 -0.6847502 -0.28954655
-1.2807846 0.14361402 -0.08982065 -0.16107535 0.07150619 -0.23473822 -0.25978497 -0.16398054
0.03258016 0.17519365 -0.33099875 -1.2032057 -0.7490367 -1.0175941 -0.51211524 -1.1946421
-0.34543362 -0.33035898 -0.20675531 -0.8641829 -0.49498355 -0.31150317 -1.4837023 -1.2423995
-0.104531825 -0.52970845 -0.18070762 0.7092013 -0.77291346 0.1439985 -0.10868684 -0.6349411
-0.79391044 -0.13456665 -0.3150496 -0.5664604 -0.070458755 -0.20958695 -0.32951638 -0.76800555

action_out.weight f4 [5, 256]
00000000: afce b03e e13f 83bd afd1 cb3e c1c3 853e
00000010: 534c aa3d 2fc5 f4bf 7b72 b83f 590c 123f
00000020: 1c59 0f40 a959 1cc0 fa9d 0d40 7ef9 0d3f
00000030: a993 6fbd 6e82 9d3c 2079 0ec0 9479 f43e
00000040: c642 0c40 c7c6 823d a046 d73e 094b 6dbf
00000050: ea40 0b40 7f35 6f3f aeb0 fb3e 1c9e 393f
00000060: 4288 aa3f 3690 ef3f 1800 0f3f 5a4f 313f
00000070: e1ca 103d ee08 443f bd04 1c3f 2a92 da3f
00000080: 523e 673f 118c e83c 9c92 fb3e 9ffd 3e40
00000090: d598 65bd f50f a63d 6fea 2740 de0d 2740
000000a0: d25c 7f3f 6791 713f 5799 c13f 5af0 743f
000000b0: 9f3c f43f a5c9 eb3e 34a4 743e e481 c53f
000000c0: 10dc e83f a4a5 843f d9cb 383f eb99 5b3f
000000d0: ee23 2dbd f606 e03f 7f7e 5a40 4453 c1bf
000000e0: 8baa e53f 31f4 423f 0735 903e 0ce0 533f
000000f0: 8f62 f23f 88d6 973f f852 4abf bd3c cabf
00000100: a5a6 943f b04f 983f b6ae a93f 3caf f3bb
00000110: 19c0 213f bdc0 c73e 2da1 02be fa90 c1be
00000120: 8440 643f 104c f83e 241a 12be b862 03bf
00000130: 73d1 1840 f883 9cbe 6bee b03f 1115 753f
00000140: de78 4fbf 0773 933f 18b4 c93e 06ee 303f
00000150: 96e9 b23e 83c7 37c0 0761 1140 2e43 4ebf
00000160: 978f 9a3e cc50 ac3f 6ab8 793f cac0 b13f
00000170: b906 61bf c40d 8abd 84e7 053f 35b6 843e
00000180: cc02 0c40 b6b8 773f fb18 143f e538 cd3f
00000190: 99e3 893f ebb9 1940 e722 0e40 917b 4540
000001a0: 410f 993f 66d2 b1bf 3b17 f93f 92b6 b53f
000001b0: 29e9 b13f b61c 8cbe caee b43e 3937 2440
000001c0: e51d ed3f 0223 c63f 12a1 b8be e3f2 4740
000001d0: 5298 973f 9060 9b3f 83af a5bf 6c9a 683f
000001e0: e8fc 8f3c 7079 8e3f a46e ab3f ce5b d63e
000001f0: e53d 823d f540 9a3e e37f c53e c504 11bf
00000200: d31c fc3f e14c 8b40 3600 7f3f 06e2 a2bc
00000210: 9690 933f 8cfd 563f 74e4 3a3f 9461 f53f
00000220: 1813 b33f 38fd 9c3f 97dd 693f 3f8d 843e
00000230: 7df2 5b40 541c f23e ba95 8e3f cbd9 1740
00000240: 0009 2bc0 e524 973f a2e6 723f 2624 44bd
00000250: 04a3 a93f 8df1 f63f 402c afbd b682 3a3f
00000260: 94c3 dc3f e44d be3e 9061 ce3f 0c5d 2f3f
00000270: 7737 85bf 3cc4 0140 6098 38be a48a e9be
00000280: dd24 4f3f be76 823f 2701 1abf 0615 a33e
00000290: 2b7e 393f 664c ffbf 16a7 983f 05ee 8a3f
000002a0: e906 803f c4f6 a23f 73be 8a3f 8831 a1bf
000002b0: 4b8d 123f a9ae a33f ba5c 3440 8f64 1540
000002c0: 5825 123f 0c02 943f 09b0 663f d8cb e33f
000002d0: 8268 b1ba 159d 2d3f 8372 a83f e29d 953f
000002e0: 9161 f73e 98c7 e13f 7342 8c3f 4ebd 96be
000002f0: 8b90 763e 665c 4640 27c2 8c3e 0210 5640
00000300: be46 e53f e6ea 33bf ea7c 3b3f 9ec1 8bbc
00000310: a9f2 81bf f8f0 40bf 9f0a 973f f440 b8bf
00000320: 849e 2b3e add0 10bd e3d2 123e f016 c23f
00000330: febd 46bf 8a8d 31bf 87be ac3f 75e5 023f
00000340: f77d 03be 0e09 5b3f 869d 0440 6ce6 99bf
00000350: 05e4 f6bc e6f9 ee3f 1df8 1d40 eb82 a0bf
00000360: d140 e23e e7f1 903f 9d36 19bd 896c 07be
00000370: 004f 853f 8aab cfbe cce1 003f 1dac 503e
00000380: 0a64 bdbc d851 cfbf d54c 1e40 ab98 903d
00000390: 034c 8d3f b3b7 d83f 67de c83f 35b8 e63f
000003a0: fe81 833f 796e 5a3f 5da4 923f b467 0c3f
000003b0: 5962 3f3f 00b9 443f 8aa3 8a3f c273 993f
000003c0: 79e4 0e3d acb2 9d3f 34d4 cb3e 1c04 323f
000003d0: 3132 b8bf 1983 f63f 4917 953e 910e b43e
000003e0: 5d1f b23f ab08 6f3d 4980 7340 9253 8a3f
000003f0: 4a0a 1e3f 74ea be3d 895d 60bf d2f2 cf3f
0.34532687 -0.06408668 0.39808413 0.2612591 0.08315339 -1.9122676 1.4409937 0.5705009
2.2398138 -2.4429724 2.2127671 0.5545882 -0.05849043 0.019227233 -2.226143 0.47749007
2.1915755 0.0638557 0.4204607 -0.9269262 2.175837 0.93441004 0.49158233 0.7250688
1.3322833 1.8715885 0.5585952 0.69261706 0.03534973 0.76576126 0.6094473 1.7075856
0.9032947 0.028387101 0.49135292 2.9842298 -0.056053955 0.08108512 2.6236837 2.6102214
0.9975101 0.9436249 1.5124921 0.9567925 1.9081 0.4605228 0.23890764 1.5430264
1.8192158 1.036305 0.72186047 0.85781735 -0.042270593 1.7502124 3.4139707 -1.5103536
1.794267 0.76153857 0.28165457 0.82763743 1.8936328 1.1862345 -0.7903285 -1.5799786
1.1613356 1.1899319 1.3256443 -0.007436661 0.6318374 0.39014235 -0.12756796 -0.3780592
0.89160943 0.4849553 -0.14267784 -0.5132251 2.3877838 -0.30569434 1.3822759 0.9573527
-0.81043804 1.1519479 0.39395213 0.69113195 0.34943837 -2.8715522 2.271547 -0.8057126
0.30187675 1.3462157 0.9754702 1.388696 -0.8790088 -0.06740907 0.5230639 0.25920263
2.1876707 0.9676622 0.5785062 1.6032988 1.0772582 2.4019725 2.2208803 3.085667
1.195778 -1.3892334 1.9460214 1.4196341 1.389928 -0.27365655 0.35338432 2.5658705
1.8524748 1.5479434 -0.36060387 3.1241996 1.184336 1.2138844 -1.2944187 0.9086063
0.01757665 1.113081 1.339314 0.41866916 0.06359462 0.30127683 0.38574132 -0.566479
1.9696296 4.3531346 0.99609697 -0.019883167 1.1528499 0.8398063 0.7300484 1.9170403
1.3990202 1.2264776 0.91353744 0.25889012 3.4366753 0.47287238 1.1139443 2.372668
-2.6724243 1.1808134 0.9488317 -0.047886036 1.3252873 1.9292465 -0.08553362 0.728557
1.7247186 0.371688 1.6123524 0.68501353 -1.0407552 2.0276022 -0.18026876 -0.45613587
0.80915624 1.0192487 -0.6015801 0.31851977 0.7245814 -1.994519 1.192599 1.0853888
1.0002109 1.2731557 1.083937 -1.2593241 0.57246846 1.2787677 2.8181596 2.3342626
0.5708823 1.1563125 0.9011236 1.7796583 -0.0013535174 0.67817813 1.3159946 1.1688807
0.48316625 1.7639036 1.0957779 -0.29441303 0.24078576 3.0993896 0.27491876 3.344727
1.7912214 -0.702803 0.7323748 -0.017060097 -1.0152179 -0.7536769 1.1800116 -1.4394822
0.16759688 -0.03535526 0.1433826 1.516325 -0.77633655 -0.69356596 1.3495644 0.51131374
-0.1284102 0.8556069 2.0721145 -1.2023444 -0.030138025 1.8670013 2.4682686 -1.2539953
0.44190076 1.1323823 -0.0374056 -0.13224997 1.0414734 -0.4056056 0.5034454 0.20378156
-0.023118991 -1.6196852 2.4734395 0.07060369 1.1038822 1.693106 1.5692872 1.8024966
1.0274045 0.8532482 1.145641 0.5484574 0.7475944 0.7684479 1.0831158 1.1988451
0.034885857 1.2320151 0.39810336 0.6953752 -1.4390317 1.9258758 0.29119328 0.35167363
1.3915821 0.058357876 3.804705 1.0806754 0.6173445 0.09322062 -0.87642723 1.6245978

action_out.bias f4 [5]
00000000: bfe2 ca3f 486f 4a3f 5f30 1940 ec2c 2dbf
00000010: 4841 2bbe
1.5850447 0.7907605 2.3935773 -0.6764667 -0.16724122

weight f4 [256, 123]
00000000: 3e93 92c0 d1a9 a0bb 0e71 bc3e a5a2 d0bb
00000010: 2a76 b53e 35e0 02be c721 a13e f0df 07be
00000020: 0b87 c63f 87cb 913d 8a32 583d 999b 92be
00000030: 925d 7c3e 1a2f 66be f4d4 fa3e bee8 24bf
00000040: 72b4 47bf bba5 0fbf 3611 05bd cc3d c3be
00000050: 8294 ea3e 12f2 06c0 4971 6c3f 7232 da3f
00000060: df5a 71bf cdfc cabb d375 e6bd 395a 123c
00000070: cafb f4bc 9baf 923c 61b3 1a3d 2af1 2b3c
00000080: 0fbb a8bc 504e 6dbc d884 d5bc 315a 113e
00000090: 908b 94c0 0f44 3fbe 5b0a 503e a723 17be
000000a0: 5804 ea3e 753b 27be e1cd 903e a10e fc3c
000000b0: b85b 8bbe dc3e d43e f647 b23d cbc1 92be
000000c0: b156 6f3e 40cc 4dbe 727c dc3e 02f2 58bf
000000d0: 5128 6f3f 4c43 eb3c a5ee 823d 9af8 fabe
000000e0: a6d1 fa3e f682 03c0 4212 8a3f 22b0 ed3f
000000f0: 3c5f eebf 53bf 563e 8e8d 83be c25f c93d
00000100: 1877 8f3c 41ff f4bc 93b9 48bc 50d2 99bd
00000110: 16e1 5dbd 7777 1dbc 6115 9d3d 528f 57be
00000120: 82e3 91c0 2c94 c0be 1055 1b3f e232 f1bc
00000130: 1416 e63e d9fc 44be 71e2 513e 7648 75be
00000140: 7e35 bdbe 3619 c83a b7fd 7f3e 35bd 54be
00000150: e175 5e3e 6887 69be 00da c03e 0e4d c0be
00000160: b297 37be c49a 5fbd 61df ed3d 6aaf cabe
00000170: d09c 1c3f 425a 05c0 80dd 873f b22c 6540
00000180: 3c01 0dc0 6090 d5bc 065b 1f3d de19 e63d
00000190: 86d9 ab3b 5a1d 6b3d 0836 503d 67f9 7cbd
000001a0: e0b4 f1bb 70ce f6bb a6e0 503d 3f84 eac0
000001b0: f14f 7d3d 09ba 8d3c 43e8 683b 6d3f b0bd
000001c0: f4f7 a33d c4c0 423d 72c5 3abd b8c1 7cb8
000001d0: cfee 7abc 12d0 c5bd dcf6 b4bd 7eeb 403d
000001e0: 25fd 82bc 2dad a2bd 3d62 b63d 51d0 f2bb
000001f0: b272 78be abb1 1d3d f604 0bbe 513c 9a3b
00000200: e0cd 02be 8c2e 9abd cea4 8c3f 8532 ca3f
00000210: 1eb1 a5bd 30fa 153c 900c 92be 2d7a d83e
00000220: 0e23 35c0 a293 5c3f 38f4 e43f 08d1 93bf
00000230: f742 043f 5686 1ebf 011f fbbe 9706 5dbe
00000240: 3e20 96bf aef8 fbbe f16f 38be 2090 ef3e
00000250: 5bff 133f 2504 67bd 78c8 d8be 718f d7bc
00000260: 4a56 2d3d a869 f63d 74bc 733d 7e8c e1be
00000270: b27f 7d3d 9500 813d a94c bf3f 044f 3e3d
00000280: 77c0 4bbe 130a ac3e 4a75 0dbe ef78 29bd
00000290: e98f 09be ea31 3cbe b8a3 42bf 21ec 933f
000002a0: ef89 14bf a88d 343f be53 08be ebba bd3e
000002b0: aa44 38c0 3e69 5d3f 798c 9340 23a4 51c0
000002c0: f0d1 b23b ad15 0abd 46fb dabe a952 4fbe
000002d0: 5052 89bf 63e4 22bf a83d dabe bf35 a33f
000002e0: 3da1 0ebe cac0 603f 9c82 eabe 3548 753b
000002f0: a12f bcbd 39a2 dcbc 7822 803d c52d b43d
00000300: a1c5 ffbe c29f 2e3d bb0d 92bf 0123 883c
00000310: b841 16bf 47ae 1fbe 63da 90be 4085 08bd
00000320: b15b 51be 09b1 64bd a12e 48bf 95ef 813f
00000330: 459e 2cbf 0467 63bd 3582 44be 0fba a23e
00000340: b883 38c0 94b4 593f 5d62 8a3f 748b b6bf
00000350: 45f9 703d 9e41 7bbf 9c40 0bbf 35a4 3fbe
00000360: f2ae 82bf 421d f9be f568 7c3e 3b74 58bf
00000370: 0030 d23a 354a 9c3d c0f2 e0be a59d 99bd
00000380: 498b 14be c2d3 713d 5e29 96bd be62 333d
00000390: 1794 873d a0a5 f6be c775 08c0 a2a7 4dbe
000003a0: 33ea 2bbe 7ded cabd 91b2 2cbe f354 a43d
000003b0: 7746 bf3b 58f4 8cbe e254 1f3d 4455 09be
000003c0: e3ef 35bd b611 1c3e dc5a 0cbe 56cc f9bd
000003d0: 4768 70bc c3e0 2dbe f257 50bd 1b06 dabc
000003e0: e80c 6e3d ff12 943d 095e 06bc 0130 46bd
000003f0: 8728 093d 6fc9 f7bb 34a8 9b3d 627e 533d
-4.580474 -0.004903056 0.36805004 -0.006367045 0.35441715 -0.1278084 0.31471083 -0.13269019
1.5509962 0.07118898 0.052782573 -0.28634337 0.24645069 -0.22478905 0.48990595 -0.64417636
-0.7800971 -0.5611226 -0.032487117 -0.38133085 0.45816427 -2.1085248 0.9236036 1.7046645
-0.94279283 -0.006194687 -0.11252942 0.008932644 -0.029905219 0.017906 0.037768725 0.01049451
-0.020597009 -0.014484003 -0.026064321 0.14194562 -4.6420364 -0.18678306 0.2031645 -0.14759694
0.4570644 -0.16331275 0.28282073 0.030768694 -0.27218413 0.41454208 0.08705132 -0.28663477
0.23372914 -0.20097446 0.43063694 -0.84744275 0.9342089 0.028718613 0.06393174 -0.49017793
0.48988074 -2.0548682 1.0786822 1.8569376 -1.8622813 0.20971422 -0.25693935 0.098327175
0.017512843 -0.02990687 -0.012251276 -0.07510817 -0.054169737 -0.009611002 0.07670093 -0.21050766
-4.559022 -0.37613046 0.6067667 -0.029443208 0.4493872 -0.19237079 0.20496537 -0.23953423
-0.36954874 0.0015266303 0.24999128 -0.20775302 0.21724655 -0.2280556 0.3766632 -0.37558788
-0.17928961 -0.054590955 0.11614872 -0.39586955 0.61176777 -2.083634 1.0614471 3.580853
-2.2032003 -0.02606982 0.038905166 0.112354025 0.0052444367 0.05740104 0.05083278 -0.061761286
-0.0073762983 -0.0075319335 0.05099549 -7.3286433 0.061843816 0.017300623 0.003553883 -0.086058475
0.08006278 0.047547117 -0.045598455 -6.0261897e-05 -0.0153157255 -0.09658827 -0.08836147 0.047099583
-0.01598985 -0.07943187 0.08905456 -0.007410087 -0.24262503 0.038499516 -0.13576111 0.0047068973
-0.12773848 -0.07528409 1.0987794 1.5796667 -0.08090423 0.009153888 -0.2852521 0.42280713
-2.8302646 0.8616277 1.788703 -1.1548166 0.5166468 -0.6192373 -0.49047092 -0.21584545
-1.172859 -0.49213165 -0.18011452 0.46789646 0.57811517 -0.056400437 -0.42340446 -0.026313515
0.04231862 0.12031871 0.059505895 -0.440525 0.061889358 0.06298939 1.494527 0.046462074
-0.19897638 0.33601436 -0.13814273 -0.041375097 -0.13433804 -0.18378416 -0.76031065 1.1556436
-0.5802297 0.7052865 -0.13313195 0.3705667 -2.879191 0.8648871 4.6108975 -3.275643
0.0054571554 -0.033712078 -0.4276983 -0.20246376 -1.0728245 -0.6362974 -0.42625165 1.2750777
-0.13928695 0.8779417 -0.45802772 0.0037427072 -0.09188772 -0.026932823 0.062565744 0.08797792
-0.49955466 0.042632826 -1.141044 0.016618254 -0.5869403 -0.15593825 -0.28291616 -0.033330202
-0.20445134 -0.055832896 -0.7819615 1.015124 -0.67429 -0.055518165 -0.19190295 0.31782576
-2.8830395 0.85041165 1.0811268 -1.4261308 0.058831472 -0.98147 -0.5439546 -0.18714984
-1.0209639 -0.48655134 0.24649413 -0.84552354 0.0016036034 0.07631341 -0.43935204 -0.075007714
-0.14506258 0.05903984 -0.07332109 0.04379534 0.06620043 -0.48173237 -2.1321886 -0.20083478
-0.16788559 -0.099085785 -0.16864993 0.08024015 0.0058372575 -0.2753017 0.03889931 -0.13411433
-0.044418227 0.15241131 -0.13706535 -0.12197177 -0.014673299 -0.16980271 -0.05086512 -0.02661424
0.058117777 0.07230186 -0.008201131 -0.048385624 0.033485916 -0.0075618546 0.076004416 0.0516342

bias f4 [256]
00000000: 697b 423d e29d 0bbf 44d9 cdbd 03a0 573e
00000010: fb04 6ebd dcdd 373c 7ce0 3ebe f097 873c
00000020: 50c3 a6be ebf5 d5bd 18fd 1bbd 148a 46bf
00000030: 9830 5cbe 837d e43d 4cf4 d8bd bc51 9abd
00000040: cfbc d9bc 9167 f6bd 47fd 5d3d fb40 88bd
00000050: a8f3 23bf 5d11 33bf 2b61 973d c27d 51bb
00000060: ef6b e0bc 6198 b3bc cf95 a9bd 694b b93b
00000070: dbf2 25be f6cd 3b3f 956b c53d a26a 95bd
00000080: f739 c4bc 7a51 e7bd 6ec3 05bd d3a7 8abd
00000090: 1893 60bf a707 e4bd d26e d1bd a3f2 37be
000000a0: dde3 1e3d 258a eebd a33d 273d 2fa0 9f3b
000000b0: 0573 d5be 49bb 873d 4698 53be 933f 9bbd
000000c0: 09df bebc 6949 72bd 4152 f03c ecb3 04bd
000000d0: b388 f6bd 1ad1 0b3f 2538 91bd 0c99 3fbf
000000e0: a71d 28be 2eee 18bd 527a d7bc fe3b 30bd
000000f0: bc83 a23d 627c ccbd 1279 89bd 0941 31bd
00000100: ae10 85bd 5844 73bd c65b 07bf 617b c6bd
00000110: 2938 163d 8d6b adbc 2fc2 943e 85fa e3bc
00000120: 91e5 1e3f f059 1bbd 14ee 443f a0ba 183d
00000130: 0e7c 453d b8c5 07bf 312e 2c3d 0c7f babe
00000140: d799 023d 1d35 c3bd 500f 6bbe 0e42 74bd
00000150: 756a 10bc 822f bc39 8c50 44bd 5f66 7fbd
00000160: ef78 93bd 9f25 633c 64bd 02be 1b58 983c
00000170: 60d8 d0bd f024 81bf c36f b13b 4495 b6bc
00000180: fd37 bf3b 553f f0bd 19e6 eebd 4690 75bf
00000190: a7f3 edbd 4068 5abd 6633 87bd be8a f9bd
000001a0: 8ec6 38be e21d 66bf d675 3cbc e609 3d3d
000001b0: bc04 13bc 7466 d3bb 4133 81bd ba39 e6bd
000001c0: 643b 93bd 7874 a73e 758e 8bbd 0131 6fbd
000001d0: eb06 b9bc b97a f53c 7cc5 b7bd 8d1a 01bd
000001e0: 3990 8fbd 6fef 04be 9119 b6bd a321 b0bc
000001f0: 6e01 cfbd 37aa 393e 9b09 91bd 675c 1cbb
00000200: f585 00bd 5a05 86bf b933 c1be 430d e9bd
00000210: cc3b aebd 1338 7abf ee7f 29bd 45bc 11bf
00000220: 10d0 1dbd ce1d b0bd b4b5 bcbd f362 17bf
00000230: 4883 4dbd 60ce c2bd bd69 0bbe 54e6 06be
00000240: 2afb 3dbd 5978 513e 3486 ccbd f90b 673f
00000250: ac3a a4be 5380 b8bc 4550 ed3e d59a 64bf
00000260: 421e e2bd a36c 51be 6482 313e 6635 2dbd
00000270: 5e2d b1bd cfbf f5bd 121a 2f3f bc15 15bd
00000280: f4b0 a8bd 6700 4bbd 1e1d 57bd 82b7 6fbe
00000290: fbae b3be d963 0abe 1714 cdbd 5b1e 97bd
000002a0: 37a6 0abe b569 133d 1c7e 003d f085 87bd
000002b0: c81e 8fbd cc43 36bf a1b5 89bd d839 e73c
000002c0: b9c5 b0bd 282c 743d 6ba3 003d e1e4 1a3e
000002d0: caa0 98bd 5e98 0abe 3086 51bf 5f08 ddbe
000002e0: 4ac7 4ebd c33f aebd 8913 9bbc 06fe bfbd
000002f0: 55af 26bd 33e2 7b3b c3ae 5dbe 8ccb f6bd
00000300: 8a7c e3bc 2eac 07be f243 223f fcb7 45be
00000310: 8884 00bf b608 6cbd 74b0 09bc bbb2 68bd
00000320: 2c15 1ebf 0796 59bd cfb8 6bbf ab1c 7abd
00000330: 21d3 653d 8a70 18bd 0fdb b2bd 4e44 50bd
00000340: 6e92 bebe ff86 d83c acac 29bf 2891 3fbe
00000350: 2470 89be 2999 5fbf 6f4a 2fbf 182a 97bf
00000360: 5e17 04be f2b0 23bd 16e0 e3bd bcd3 61bd
00000370: 4b87 01bd ef5f 6e3c 0b79 99bd c183 b5bd
00000380: 4be4 74bc 0b10 01be c07f 38bd 4f89 22bc
00000390: 8fad 3abd 3f7d 233a f90e 97bd 04c3 83bd
000003a0: 0dc9 f43e ad4b b7be 98fa 0cbe 81be 71bf
000003b0: ec87 85be 333a 813d a88f 573b 9e3e 4d3f
000003c0: 3e52 b2bc 8c37 c7bd b1c2 10bd 796c a1bd
000003d0: 42f7 8a3c 6ce8 373c 23bd 00be 54e6 1abf
000003e0: 1932 7cbd 6230 48bf 2311 91ba e687 97bd
000003f0: 4ad8 223d 3149 a7bd 0e72 293d 4eb4 98bd
0.047480974 -0.54537785 -0.10051206 0.21057133 -0.05811022 0.011222329 -0.18640321 0.016551942
-0.32570887 -0.10447296 -0.038083166 -0.7755444 -0.21502912 0.11156752 -0.10593471 -0.07535121
-0.026579289 -0.120314725 0.054196622 -0.06653019 -0.64043665 -0.6994837 0.0739158 -0.0031965827
-0.027395217 -0.021923246 -0.08280527 0.0056547415 -0.16205923 0.73361146 0.0963966 -0.07295729
-0.023953421 -0.11294837 -0.03265708 -0.06770291 -0.8772445 -0.11134272 -0.102262154 -0.17963652
0.038791526 -0.11647443 0.040830266 0.0048713903 -0.41689315 0.06627519 -0.20663556 -0.07580485
-0.02329971 -0.05915204 0.029336097 -0.03239815 -0.12037792 0.5461594 -0.07090787 -0.74842906
-0.16417561 -0.03733652 -0.026303444 -0.043025963 0.079352826 -0.09984662 -0.067125455 -0.043274913
-0.06497322 -0.05939135 -0.5287441 -0.096915014 0.036674652 -0.021169448 0.290544 -0.027829418
0.6206904 -0.037927568 0.7692578 0.037287354 0.04821401 -0.5303607 0.04203624 -0.36425054
0.031884994 -0.09531615 -0.2295506 -0.059633307 -0.008814444 0.0003589355 -0.047928378 -0.062353488
-0.072008006 0.01386395 -0.1276756 0.0185967 -0.1019752 -1.0089397 0.0054149344 -0.022287972
0.0058355317 -0.117308296 -0.116649814 -0.9592327 -0.116187386 -0.053322077 -0.066016 -0.12184666
-0.18044493 -0.8988935 -0.011502704 0.046152018 -0.008973297 -0.0064514223 -0.06308604 -0.11241479
-0.07189062 0.32706046 -0.06814281 -0.058396343 -0.022586307 0.029965745 -0.08973214 -0.03151946
-0.0700993 -0.12981962 -0.08891595 -0.021500414 -0.101076946 0.18131338 -0.0708191 -0.0023858787
-0.03137775 -1.0470383 -0.37734774 -0.113794826 -0.08507499 -0.9774181 -0.04138177 -0.569279
-0.038528502 -0.08599435 -0.092143446 -0.5913536 -0.050174028 -0.09512019 -0.13614555 -0.131738
-0.046382107 0.20456065 -0.09986535 0.90252644 -0.32076013 -0.022522127 0.46350303 -0.89298755
-0.110409275 -0.20451598 0.17334896 -0.042287253 -0.08651231 -0.11999475 0.68399155 -0.03639768
-0.08236876 -0.04956093 -0.052518003 -0.23409846 -0.35094437 -0.13514651 -0.100135975 -0.07378837
-0.13539968 0.035989482 0.031370267 -0.066173434 -0.06988293 -0.711972 -0.06724096 0.028225824
-0.086314626 0.059612423 0.031405848 0.15126373 -0.07452543 -0.13534686 -0.8184538 -0.4317045
-0.050483026 -0.08508255 -0.018930214 -0.09374623 -0.040694553 0.0038434386 -0.21648698 -0.12050542
-0.027769346 -0.13249275 0.63384926 -0.19308466 -0.50202227 -0.057625495 -0.008403886 -0.056811076
-0.61751056 -0.053121593 -0.9207887 -0.061062496 0.05610955 -0.0372167 -0.08733188 -0.05084639
-0.37221092 0.026431559 -0.662791 -0.18707716 -0.2684337 -0.8734308 -0.6847295 -1.1809721
-0.12899539 -0.03996367 -0.111267254 -0.055133566 -0.031623166 0.01454924 -0.0749379 -0.08863021
-0.014947007 -0.12603776 -0.045043707 -0.009920432 -0.045575675 0.00062366197 -0.07375903 -0.06433681
0.4780964 -0.35799924 -0.13767469 -0.9443131 -0.26080263 0.06309929 0.0032892022 0.8017367
-0.021767732 -0.097273916 -0.035341922 -0.07882018 0.016963605 0.011224847 -0.1257215 -0.605077
-0.061571214 -0.78198826 -0.0011067729 -0.073989674 0.03975705 -0.08168257 0.041368537 -0.074562654

weight f4 [256, 256]
00000000: d290 2dba bc2b 49bc 50e3 273d 5bae 563d
00000010: aa6c 853c a24a 7c3c 61b5 8e3c 4ec0 fe3c
00000020: ac08 0abe ffe3 4abd c564 9cbb 0acf 0dbd
00000030: 4425 e0bb 82d9 29bd 7248 e1bc 9561 54bb
00000040: e7e8 9e3c 237d 87bd 7fe9 d73c 1826 c5bc
00000050: dab4 c4bd a3bb 84bd 4027 373c 8daf 7cbd
00000060: 15a1 47bd 0db8 e63c 51c1 6e3c 3ce0 b0bc
00000070: 5818 c3bd 6e26 b8bd 13ef 06bd 9075 4fbd
00000080: 0ea2 b4bc e65e 53bd ebc0 873c 006e a1bc
00000090: 023e d8bc 78e2 023c 91f2 0fbd 9de1 11bd
000000a0: fe02 82bd 3bdf 56bc 30e4 783d 8bba 4dbd
000000b0: da41 e8bb 6852 eb3c a384 06bd 65a4 133b
000000c0: 8d8d 7cbc 8a98 f83c 69a5 10bd 2f07 1cbd
000000d0: 53ec 6b3d 0f4b b9bc add7 0d3d da6e 1cbc
000000e0: 31aa 603c b711 c83c 442c 50bd 57c9 f0bb
000000f0: c543 e6bc 44ac e13c f481 0e3d c49e 7ebd
00000100: a0b9 16bc 7b39 4ebd 9702 113d 61c2 233c
00000110: 0d0d 203d 2f2f a13c a394 6cbd 47d2 1b3d
00000120: 2489 94bb be53 0e3d 8e1c 4f3c 4d15 223d
00000130: 46e0 05bc 7462 003d daad fabc 6015 11ba
00000140: e5f0 043c 1352 05bc 4389 8f3c a260 053d
00000150: ee5b f4bb a79e 97bd f529 83bd a5a2 1abb
00000160: 00d6 233d 9b19 fe3c 6c5a ccbc 57fa 95bd
00000170: c31a 72bd b723 10bc 4fd4 ba3c 172f 96bc
00000180: 5e2b debc 8c42 2ebd ab2d b1bc 4abd 06bd
00000190: efd2 78bc a95d 5a3d 2c98 4fbd e793 1ebd
000001a0: abc3 193c 9f58 9ebc 82ad d33c e088 c5bb
000001b0: 710c 623c aa7c 15bc 9cf7 b33c 0ec9 ffbc
000001c0: 6058 17bd 8d26 7ebd eab6 523d 34f6 3e3d
000001d0: 4a09 d13c 1475 613d 2d5c c8bc 3bcb 463d
000001e0: d9ce 613c 0f31 93bc e616 f4bc 7731 2b3d
000001f0: bee1 2fbd cd46 ebbd b6be eb3b ffb7 c3bc
00000200: 9888 10bd 9b42 9ebb e0af f1b9 1543 b23c
00000210: e3c6 42bd a3d2 61be 6662 ab3d 0892 86bd
00000220: 83a3 00bd b59e 56bd ee2e a1bd 2b01 9cbd
00000230: b949 003d acab 543d 4469 ef3c 5c16 b13a
00000240: d381 c4bc 587a fcbc 3c67 603c 3313 d8bd
00000250: bfd0 e8ba 5f4d 3c3b 157f d5bc e606 f3bc
00000260: 02f6 6dbd a1c4 99bc 0627 9ebd ead3 8cbd
00000270: 36f0 acbd bc3d 8cbd 9ca5 48bc 678d 56bd
00000280: a7db ef3a b3c1 bcbc 0a57 613d 86bc 29bd
00000290: 1247 11bd 578d e73c 709b fdbc e1a7 4c3b
000002a0: d017 403d f1d2 673d c2bf 633d 96cd 95bd
000002b0: 2689 d4bc b5a0 2cbd 3803 19bd 9399 81bd
000002c0: 8838 c6bc 034f 96bc ae37 39bd cb18 623d
000002d0: eb95 323d eb01 13bd d572 a43c 6a98 54bd
000002e0: cd7a 83bc 5ea0 e83c dd51 ae3c 1e40 71bb
000002f0: 7bac 3d3d a08b ee3c 337f 0dbd ba57 78bd
00000300: f0e2 dcbc 748f a1bc ec4d 94bc d99f bfbd
00000310: 1999 12bd 0ab6 b7bc 320e 703d 611a 63bd
00000320: d7df 95bd bfc9 aabb f1af 84bd c25f 01bd
00000330: 8a0c 02bd 3371 8dbd 25a6 8cbd b43d 7f3b
00000340: c6e7 91bc 21a6 cdbc 923a 57bd fd05 453d
00000350: aa2d 363d e112 96bd c238 fc3c 2774 7dbc
00000360: 5f81 0bbd 62cf 5dbd 9dbd 353d c181 183c
00000370: 17a4 43bd bf40 51bd f05d d43c 58a3 623d
00000380: 7c8e 723b d402 a53c ab8d 2ebd d327 113d
00000390: 868d 323d 7875 31bc ebc7 3a3d 2834 a8bc
000003a0: 7af3 48bd a79f e63a ed87 0dbd 4eb3 9dbd
000003b0: d526 ac3d 7cec 1e3d c4b0 4b3d f818 543c
000003c0: 7365 303d 60ec 09bd 1678 633d cd84 13bd
000003d0: 65ae b7bb 0a32 803d daad d1bb c0eb bdbc
000003e0: 90b7 62bd 8637 08bd 808b 483d d3c6 db3c
000003f0: d9fc 733c 5606 773d 2fc2 19bd 66d1 29bd
-0.0006621006 -0.0122784935 0.040988266 0.052412372 0.016287167 0.015398653 0.017420473 0.031097557
-0.1347987 -0.04953384 -0.004772755 -0.034621276 -0.00684038 -0.041467197 -0.027500365 -0.0032406796
0.019398166 -0.06615665 0.026356457 -0.024066016 -0.09604807 -0.06481101 0.0111787915 -0.061690856
-0.048737604 0.028163934 0.014572457 -0.021591298 -0.095261276 -0.08991705 -0.032942843 -0.050649226
-0.02204993 -0.051604174 0.016571483 -0.019705772 -0.026396755 0.007988565 -0.03514344 -0.035615552
-0.06348227 -0.013114746 0.06076449 -0.05022673 -0.0070879282 0.028725818 -0.032841336 0.0022528407
-0.015414608 0.030346174 -0.035313997 -0.03809279 0.057598423 -0.022618799 0.034629513 -0.009547913
0.013712452 0.02442251 -0.050823465 -0.0073482203 -0.028108487 0.027547963 0.0347919 -0.06216313
-0.00919953 -0.050347786 0.03540286 0.009995074 0.039074946 0.01967582 -0.05775894 0.038042333
-0.00453295 0.03474783 0.012641085 0.039571095 -0.008171147 0.031343892 -0.030600477 -0.0005534496
0.008114074 -0.008137244 0.017521506 0.03256286 -0.007457248 -0.074033074 -0.06404487 -0.002359548
0.03999901 0.031018069 -0.02494546 -0.07323139 -0.059107553 -0.008797578 0.022806315 -0.018333001
-0.027120288 -0.042543933 -0.021628221 -0.032895364 -0.015187009 0.053311978 -0.05068223 -0.03871527
0.00938503 -0.019329367 0.02583957 -0.0060282797 0.013796912 -0.0091239605 0.021968655 -0.0312238
-0.036949515 -0.062048484 0.05144397 0.046621516 0.025517125 0.055043295 -0.024458015 0.04853366
0.0137822265 -0.017967729 -0.029796075 0.04179522 -0.042939894 -0.114881136 0.0071943654 -0.023891447
-0.035286516 -0.0048297173 -0.0004609814 0.021760503 -0.047552954 -0.22053008 0.083683774 -0.06570822
-0.031405937 -0.05239745 -0.07870279 -0.0761741 0.031320307 0.05192153 0.029225 0.0013510692
-0.023987686 -0.030820057 0.013696488 -0.10550537 -0.0017762406 0.002873264 -0.026061574 -0.029666375
-0.05809594 -0.018770518 -0.07722287 -0.06876357 -0.08444254 -0.068477124 -0.012246516 -0.052380946
0.0018299714 -0.023041582 0.055014648 -0.041439556 -0.03546817 0.028265638 -0.030957907 0.0031227993
0.04689771 0.056597654 0.055602796 -0.07314603 -0.025944304 -0.04214545 -0.037356585 -0.0632812
-0.024196878 -0.018348223 -0.045219116 0.055199426 0.043600004 -0.0358905 0.020074287 -0.051903166
-0.016049767 0.028396782 0.02127927 -0.0036811898 0.04630707 0.029119313 -0.034545135 -0.060630538
-0.026963681 -0.019721724 -0.018103562 -0.093566604 -0.035790537 -0.02242567 0.058607288 -0.05544508
-0.07318085 -0.0052120383 -0.06478871 -0.031585462 -0.03175024 -0.06906357 -0.06867627 0.003894669
-0.017810713 -0.02510363 -0.05254609 0.048101414 0.044477142 -0.073278196 0.030788783 -0.015469587
-0.034058925 -0.054152854 0.044370282 0.0093082795 -0.04776391 -0.051087137 0.0259237 0.055331558
0.0037011197 0.02014295 -0.042615574 0.03543837 0.043592 -0.010831229 0.045600813 -0.020532683
-0.049060322 0.0017595188 -0.034553457 -0.07700215 0.08405844 0.038799748 0.049729124 0.012945406
0.0430655 -0.03367269 0.055534445 -0.03601532 -0.0056055062 0.06259544 -0.0063988985 -0.023183703
-0.05535084 -0.033256076 0.048961163 0.026828205 0.014891827 0.060308777 -0.037538704 -0.041459464
