saved_models_1/125_12239_model.pt (torch, 701697 bytes, 11 tensors)

FC1.weight f4 [256, 36]
000000 a7 23 17 3f 0c c9 8c 3e 93 58 79 3e 36 f7 94 bf
       0.59038776 0.27497137 0.24350195 -1.1637943
000010 d2 1a cc 3f cb db b5 3f b2 b1 90 bf c9 65 34 c0
       1.5945685 1.42077 -1.1304228 -2.8187125
000020 e4 56 18 40 84 49 20 40 44 05 43 c0 d6 2d 86 be
       2.3803034 2.504487 -3.0471964 -0.26206845
000030 4c 1c 57 bf 8e 51 9d 3e 38 b7 a3 3f ae 3a 59 3e
       -0.8402755 0.30726284 1.2790289 0.21213791
000040 03 28 1d c0 2f 6e 9c 3f 96 c6 e4 3f 07 e2 99 3e
       -2.4555671 1.2221125 1.7873104 0.30055258
000050 24 20 03 40 ef 0f 69 3f ad c8 cc bf 1a 37 57 bf
       2.0488367 0.9103994 -1.5998741 -0.84068453
000060 d3 2f 56 40 1d e5 65 3f 39 84 3f c0 91 67 d4 be
       3.346669 0.89802724 -2.9924452 -0.41485265
000070 16 a7 b1 bc 57 55 0b 3f cc 7c 55 bf 54 79 6b be
       -0.021686118 0.54427093 -0.8339355 -0.22995502
000080 ff ed 90 c0 be 48 84 3e ba d3 ec 3e c9 ac bb c0
       -4.5290523 0.25836748 0.46255285 -5.864842
000090 bd a2 9b bf e9 8e 38 3e ca 83 03 bd 60 b7 b3 3e
       -1.2159039 0.18023266 -0.032108106 0.35100842
0000a0 98 01 b7 bf d6 a0 49 3e 67 39 d1 3f bd 59 97 3e
       -1.4297361 0.1969026 1.6345643 0.29560652
0000b0 37 6e 24 c0 ab eb d3 bd bf 49 38 40 3a 46 23 bf
       -2.569227 -0.103476845 2.879501 -0.6377903
0000c0 1b a3 8d bf fa 86 88 be 48 2c 7a 3f c8 0a 0f 3f
       -1.1065401 -0.2666548 0.9772382 0.55875826
0000d0 24 57 c8 bf 8d dd 6e 3f 68 b6 1f 40 e1 1b db 3e
       -1.5651593 0.9330681 2.4955082 0.42794707
0000e0 6c 4c 32 bd 28 47 90 3c 56 6f d1 be 1d 17 1e 3f
       -0.043529913 0.017612055 -0.40905255 0.6175402
0000f0 71 ad 03 40 ea b5 a9 3e 76 6d 35 bf 36 07 44 be
       2.057461 0.33146602 -0.7087015 -0.19143376
000100 4e 5f 90 be 6d 94 b8 3e 4a a2 4f be 8c 50 a5 3e
       -0.28197712 0.3605074 -0.20276752 0.32288015
000110 43 6b a2 c0 74 76 ec bf 57 53 fc 3f f7 8f 20 bf
       -5.0755935 -1.8473649 1.9712933 -0.6271967
000120 4b 8b 07 be 59 0e 8a 3f f6 90 5f bf 0b 11 76 3f
       -0.1323673 1.0785629 -0.8733057 0.96119756
000130 6c 02 39 bf 07 27 d4 3f 46 11 5a c0 f2 b5 0a c0
       -0.7226932 1.657441 -3.4073043 -2.167355
000140 95 d1 2c 40 cc 7d c0 bf 4c 76 0b bf 21 68 e3 3d
       2.7002919 -1.503839 -0.5447738 0.111038454
000150 a0 9e 84 bf 6d 0e 61 3f 04 ac c9 bf ee 34 02 3d
       -1.0360909 0.87912637 -1.575562 0.03178876
000160 ae 18 6f 3f df 26 39 40 9b 91 01 bf 6e 0c b9 3f
       0.93397033 2.8929975 -0.506128 1.4456918
000170 e2 75 cb bf 7c 5c bb 3f e6 28 ca be 5b b2 03 3e
       -1.589535 1.4637599 -0.39484328 0.12861006
000180 6c 58 2e bf 8c d5 ed be 8d a2 bd 3f 51 da bc bf
       -0.6810367 -0.46451986 1.4815232 -1.4754125
000190 c5 0b b5 bf ec 51 da be ec f4 60 bd b6 90 07 3e
       -1.4144217 -0.42640626 -0.054921076 0.13238797
0001a0 ee 58 c0 3e a3 16 b7 bf 52 c8 e2 c0 e3 c3 70 c0
       0.37567848 -1.4303783 -7.086953 -3.761956
0001b0 1f f1 15 c1 be e2 8d 3f b4 9f 48 3e c4 c9 0f be
       -9.371367 1.1084821 0.19592172 -0.14041811
0001c0 2f 11 ae bf 54 23 d2 be a3 51 99 3d 48 4f 29 3f
       -1.3598994 -0.41042578 0.07486274 0.661366
0001d0 64 1d a3 bf f2 2c a5 3e f8 82 d1 3f 6e 9e 8f 3f
       -1.2743344 0.32260853 1.6368093 1.1220224
0001e0 4b 25 8d bf cb b7 34 bf 02 02 b8 3e 8f 1b 9a 3f
       -1.1027006 -0.70592946 0.35939032 1.203966
0001f0 32 ac dc bf da ae b6 bf 75 3f 01 40 fb 3b 42 3d
       -1.724005 -1.427211 2.019498 0.047420483
000200 09 a1 90 bf 72 c2 4b 3f 35 2e af 3f bc 50 bb bd
       -1.1299144 0.79593575 1.3685976 -0.09146258
000210 2b ef 3e c0 2c e7 fd 3f b3 68 59 40 dc 17 33 3f
       -2.9833477 1.9836173 3.3970153 0.6995828
000220 50 36 af c0 d5 b2 20 40 8f bb 42 3f 6f 3b d5 c0
       -5.47538 2.510915 0.7606744 -6.663505
000230 29 11 31 c0 52 84 fb bf 38 e5 53 bf e0 2c a2 c0
       -2.7666724 -1.9649756 -0.82771635 -5.067978
000240 75 13 1f c0 28 44 3e bf 3c 14 c2 bd 0d 43 93 bf
       -2.4855626 -0.7432275 -0.09476516 -1.1504837
000250 1a d8 af 3f 6a f3 5a be 33 e9 bb bf 40 ff ae bf
       1.3737824 -0.21381918 -1.4680542 -1.3671646
000260 63 dd 99 40 c9 24 a0 3f b8 9c 91 c0 7a 47 18 bf
       4.8082747 1.2511226 -4.5503807 -0.59484065
000270 26 3b 9e 3f 87 09 a9 3e 59 ec fe bf 2d 5e c4 bf
       1.2361801 0.3301508 -1.9915878 -1.534124
000280 72 07 78 40 49 34 f8 be 3d 3e 3f c0 93 e0 ac 3e
       3.8754544 -0.4847739 -2.9881737 0.33765087
000290 c7 b5 8c 3d d2 cb 06 c0 96 8a c7 be c4 0d 1c 40
       0.06870609 -2.1061902 -0.3897292 2.4383402
0002a0 8c 4e d1 3e a3 8f 07 c0 cf 83 b1 3e d4 81 37 bd
       0.4088024 -2.118142 0.34670874 -0.044801548
0002b0 98 e3 ec 3e 65 54 66 3f e8 3c ae 3e 7d 43 1c 3f
       0.4626739 0.89972526 0.34030843 0.6104048
0002c0 da 0e 32 3f 16 4f 95 3f bc 96 dc c0 c2 c5 5c c0
       0.6955391 1.166476 -6.8934 -3.4495702
0002d0 30 12 76 c0 ba 62 0e bf 55 92 84 be f8 be d9 3e
       -3.84486 -0.55619395 -0.25892892 0.4252851
0002e0 45 35 aa 3e 14 68 37 3f f6 3c 00 c0 61 11 43 c0
       0.33243766 0.71643186 -2.0037208 -3.0479357
0002f0 34 fe f4 3f bb 94 b5 bf 02 a3 c6 be c9 95 7d bf
       1.9140077 -1.4186014 -0.3879624 -0.9905668
000300 2d 71 96 bf 50 33 cd bc 3d d1 df bf fe 99 99 bf
       -1.1753289 -0.025048882 -1.748573 -1.200012
000310 ef 07 0c 40 bd 82 d7 be 31 e6 ae 3f 02 87 7c bf
       2.1879842 -0.42091933 1.3663999 -0.98643506
000320 42 af 7c bf c7 c0 1e bf a5 95 f0 3e 83 11 67 3b
       -0.9870492 -0.62012905 0.4698917 0.003525824
000330 fb e3 22 c0 21 90 f3 3e a4 13 f5 3d 71 c2 79 3f
       -2.5451648 0.475709 0.11966637 0.9756232
000340 59 13 35 3f 8c ac de c0 76 05 dd c0 8f 72 07 c0
       0.7073265 -6.958563 -6.9069166 -2.116367
000350 1f 97 7e 3f b1 4e 7c bf 55 af 82 c0 e8 3a fa c0
       0.9944934 -0.98557574 -4.083903 -7.8196907
000360 de 95 ee be ae 76 dd 3e 12 1c 2b 3d 45 4c 00 be
       -0.46598715 0.43254608 0.041774817 -0.12529095
000370 8e 79 08 3f ec 0a a5 3e 9f 38 43 3f df ad 32 bf
       0.5331048 0.32234895 0.7625827 -0.69796556
000380 94 e5 fd be 02 a0 c8 3f c4 69 93 3e cd 63 ef 3f
       -0.49589217 1.567383 0.2879163 1.8702332
000390 d7 79 18 bf c1 c7 8d bf 97 9b 84 3f 29 b3 13 40
       -0.5956091 -1.1076585 1.0359982 2.30781
0003a0 fb f4 d8 bf 04 1a 22 c0 46 6b 94 3f 19 6a 87 3f
       -1.6949762 -2.5328379 1.1595237 1.0579253
0003b0 9f be 2d 3f 94 67 a9 bf c9 2c 25 bf 0c 38 0f 40
       0.6786899 -1.3234735 -0.6452146 2.2377958
0003c0 ef ab 51 3f 97 8b 96 bf b1 38 7e bf 04 b8 fc 3e
       0.81902975 -1.176135 -0.99305254 0.49359143
0003d0 dd d9 3f 3e cf 9b 84 3e 92 ac 2f bf 50 7f 15 bf
       0.18735452 0.25900123 -0.68622696 -0.5839739
0003e0 a9 65 b2 3f d7 f4 5a c0 be 33 87 bc ea 27 72 bf
       1.3937274 -3.4211938 -0.016504165 -0.94592154
0003f0 2a de 30 3e d4 1b 0b 3c 71 40 8c be b4 a0 aa bf
       0.17272249 0.008490521 -0.27392915 -1.3330293

FC1.bias f4 [256]
000000 fc 6c 06 bf 1b 07 fc be e7 6c ba bf dc d4 36 3f
       -0.52510047 -0.4922417 -1.4564484 0.7141855
000010 69 45 03 bd 01 77 60 3f a1 e3 95 3e 6f 9e cc 3e
       -0.032048617 0.87681586 0.2927523 0.39964625
000020 f1 be cd be d3 3d a6 bf ec c0 27 3c e5 d8 60 be
       -0.4018474 -1.2987617 0.010238867 -0.21957739
000030 0e 0d b3 bf 65 bf 26 3f c3 87 ef be 4b c2 2c be
       -1.3988359 0.65135795 -0.46783265 -0.16870992
000040 dc 96 52 bf e1 23 1a c0 f6 af be 3f f6 b6 ea 3e
       -0.82261443 -2.4084399 1.4897449 0.45842713
000050 0d 11 88 bd 2a e3 4f bf 30 bd c9 3f 6f c8 c7 be
       -0.06643877 -0.81206 1.576086 -0.39020106
000060 4a 3b a3 be c9 d7 c6 3d 41 f4 40 bf 47 da a4 3e
       -0.3188117 0.097091265 -0.753727 0.32197782
000070 fc e5 5c bf 9f fd 1e be 6d b9 81 bf 02 10 1a bf
       -0.8628843 -0.15526436 -1.0134712 -0.60180676
000080 d3 12 c6 bf 40 d1 25 bf d4 84 8c bf a9 c0 57 3f
       -1.5474495 -0.64772415 -1.0978036 0.8427835
000090 68 80 07 bf 53 34 6b bf e7 bc 29 bf 8d 7d d4 bd
       -0.5293031 -0.91876715 -0.6630387 -0.103755094
0000a0 e6 e4 b5 be fb 61 cc be 1f 27 ca bd 78 a2 b6 bf
       -0.35526198 -0.39918503 -0.09870743 -1.4268332
0000b0 d7 84 0b 3e 5b 53 fd bd 6f 26 9c bf f7 5c ab be
       0.13624893 -0.123694144 -1.2199229 -0.33469364
0000c0 36 db 84 3f 77 1b b6 be a6 08 cd 3f ff 4b 48 be
       1.0379398 -0.3556783 1.6018264 -0.1956024
0000d0 33 30 9f bf fc aa 0e be e1 7a 60 3e 65 a8 a4 bf
       -1.2436584 -0.13932413 0.21921875 -1.286389
0000e0 21 d0 4b 3e dd a2 f3 be ae 36 65 3e e6 97 21 3f
       0.19903614 -0.47585192 0.2238414 0.63122404
0000f0 98 c4 75 be 0e 66 03 bf 7a d2 8a 3c db 5e 81 3f
       -0.24000776 -0.513276 0.016946066 1.0107073
000100 7c f7 eb 3e f9 d1 86 bf 8e e8 0a bf b1 8e 10 be
       0.46087253 -1.0532829 -0.542611 -0.14116932
000110 a6 b0 df be 16 d3 ac bd 67 e3 42 be 92 03 ac be
       -0.4368946 -0.08438699 -0.1903206 -0.33596474
000120 e2 9a a6 3f 6c 33 4b 40 24 f1 d5 3b 72 1b 6e bd
       1.3016016 3.1750135 0.0065289903 -0.058131643
000130 f4 26 f0 be 62 30 80 be 16 cc b1 3f 58 88 52 3f
       -0.4690472 -0.25036913 1.3890407 0.82239294
000140 b3 8f 48 bf a9 a4 69 bf da b1 a6 3e a8 2e 89 bd
       -0.7834427 -0.91266876 0.32557565 -0.06698352
000150 2f fc 0b bf a4 6f ed bd d0 49 aa be e5 f7 81 3f
       -0.54681677 -0.115935594 -0.3325944 1.0153776
000160 2a 66 08 c0 56 24 1a 3f 9d 01 fc 3c 67 14 2a bf
       -2.1312356 0.60211694 0.030762488 -0.6643738
000170 69 1a 0f be a9 3f e3 3f b8 6c 6c bf 1a 21 5a be
       -0.13974918 1.7753803 -0.9235339 -0.2130169
000180 14 92 a8 bf 41 eb cf 3d 12 40 1a c0 b4 6f 14 c0
       -1.316958 0.10152293 -2.4101605 -2.3193178
000190 a7 e4 b0 3e fc 37 e5 3e 4c 43 42 bf df 6d c5 bf
       0.34549448 0.44769275 -0.75883937 -1.5424155
0001a0 71 a4 04 be 9b 06 d7 bd 6c 59 45 be 69 a8 2d bd
       -0.12953354 -0.10499307 -0.19272393 -0.042396937
0001b0 8a c4 98 3e 84 56 0d 3e 7c 02 c6 be 1d e8 97 bf
       0.29837447 0.13802534 -0.3867377 -1.186771
0001c0 a0 72 3b be 6e cc 3c be 72 ed 0e be f5 3c 06 3f
       -0.18305445 -0.18437359 -0.13957766 0.52436763
0001d0 bf 0c 69 bf dc d0 0c bf e7 2c ef be fc 99 ff be
       -0.91035074 -0.55006194 -0.46713945 -0.49922168
0001e0 7a 22 5e bf 02 bf d4 bf 17 65 78 3d 50 89 ec 3e
       -0.8677136 -1.6620791 0.06064328 0.4619851
0001f0 72 9c 0b c0 bf 0b 81 bf a3 ee c8 bf 42 45 82 bf
       -2.1814237 -1.008171 -1.5697826 -1.0177386
000200 ca 52 52 be 1c 4b ab 3d c6 d2 12 3e d9 d7 83 3f
       -0.20539394 0.08363935 0.14338216 1.0300246
000210 ea 7f b9 3e d1 c8 24 3e e7 62 56 bf b4 f0 c7 bf
       0.36230403 0.1609223 -0.83744663 -1.5620332
000220 d7 eb dd be 77 d3 aa be a5 81 97 be f9 f2 59 bf
       -0.43343994 -0.3336446 -0.29591098 -0.8513637
000230 78 c1 6d be bf 1d 9a 3e b0 37 8c bf 73 a6 53 3e
       -0.23218334 0.3010082 -1.0954494 0.20668964
000240 a6 a1 bd be 41 a4 61 bf ea bf b0 be 4d 57 a3 40
       -0.3703739 -0.88141257 -0.3452142 5.104407
000250 e2 f7 59 be 69 a9 e3 be 73 66 c9 3f 94 36 dd bc
       -0.21285966 -0.44465187 1.573439 -0.027003564
000260 0d 71 0c bf 4b 31 3b be e1 41 f6 3f d9 aa 1e be
       -0.5486 -0.18280523 1.9238855 -0.1549486
000270 29 27 f3 be 39 e0 02 3e ec f8 22 3f 17 f7 ae 3e
       -0.47490814 0.12780847 0.63661075 0.3417289
000280 33 94 30 bf e7 fc e7 3f ea 18 03 40 b0 23 5b 3d
       -0.68976134 1.8124055 2.0483956 0.05350083
000290 4c a0 08 3e 21 07 fe 3c a2 88 10 bf 50 4d 44 bf
       0.13342398 0.031009259 -0.56458485 -0.7668047
0002a0 ec e6 f9 3e 0d 68 30 3e e6 86 77 bf 49 ed 1b bf
       0.48808992 0.17227192 -0.96690214 -0.60908943
0002b0 b4 3d 4a 3f 50 40 2a bf 20 5d d0 3e 50 1f 1a bf
       0.790004 -0.66504383 0.4069605 -0.6020403
0002c0 f7 ff 5b bf 96 9f f0 3e 9e 36 aa bf 28 a0 bc bf
       -0.85937446 0.46996754 -1.3297918 -1.4736376
0002d0 e1 3c ac 3e 2e 07 e4 3e 0a ac cc bf 52 27 2f bf
       0.33640197 0.44536728 -1.5990002 -0.68419373
0002e0 3d 79 b9 3f 61 8a 4e 3e 56 01 15 3f 4d 8a 8e be
       1.4490124 0.20169975 0.58205163 -0.2783989
0002f0 8f fd 8b 3c b1 94 ed bf 4f 60 e9 be 98 91 14 be
       0.01708868 -1.8561002 -0.4558129 -0.14508665
000300 f9 f1 48 3f 64 0e b5 3e d3 eb ba 3f 60 08 88 3f
       0.7849422 0.35362542 1.4603218 1.0627556
000310 52 19 92 be cc 80 ac 3a c1 3b 65 3f c7 ea 0f 3f
       -0.28534943 0.0013160943 0.895443 0.56217617
000320 df 29 a0 bf e7 fb f2 be 62 c4 43 bd 5c a3 92 bf
       -1.2512778 -0.4745781 -0.047794707 -1.1456103
000330 e1 ec 6c be 74 4e 0d 3b 96 bc be 3f c9 5a 92 be
       -0.23137237 0.0021561654 1.4901302 -0.2858489
000340 79 53 86 3e 24 03 c0 3e 61 12 80 bf 31 c3 41 3f
       0.2623556 0.37502396 -1.0005609 0.75688463
000350 45 89 9c bf 1e 35 aa bf 4e e1 2d bf 99 8b d3 be
       -1.2229391 -1.329746 -0.6792191 -0.41317442
000360 12 ba bd be 33 1c 08 bf da 14 05 3f 7f 48 8a 3f
       -0.37056023 -0.5316803 0.5198494 1.0803374
000370 86 52 b7 be aa 93 d0 be fa b4 0c be 60 a2 e3 3f
       -0.35805148 -0.4073766 -0.13740912 1.7783928
000380 1d f3 ce be 5d 79 af be ce ac e3 bf 74 0b d5 bf
       -0.40419856 -0.3427228 -1.7787111 -1.664412
000390 68 e5 01 bf d5 be 66 bf 2a a1 d4 3f 00 16 34 bf
       -0.5074067 -0.90134937 1.6611683 -0.7034607
0003a0 ca 57 61 bf 33 60 71 bf 5e 42 9e bf 87 4f 7d 3f
       -0.8802458 -0.94287413 -1.2364004 0.98949474
0003b0 82 4b 9d bf e2 cc 24 3f 1a 14 77 3f 78 36 25 bf
       -1.2288668 0.64375126 0.9651505 -0.6453624
0003c0 59 43 7a be 9d 8a 5a bf d4 ba 22 bf 6e 85 c7 3e
       -0.24439754 -0.8536776 -0.6356633 0.38968986
0003d0 d7 c6 75 3f e0 23 50 be b4 62 0f bf 83 a0 62 bc
       0.9600653 -0.20326185 -0.56009984 -0.013832214
0003e0 b5 3e 97 be 32 94 41 3e 71 6c 58 be 24 93 e3 be
       -0.2954003 0.18904188 -0.21135117 -0.44448197
0003f0 84 40 d7 3d 82 24 10 40 b6 5d 95 bf d3 2f 3d bf
       0.10510352 2.2522283 -1.1669223 -0.739011

FC2.weight f4 [256, 256]
000000 b7 b5 3f 3e 81 fb 37 c0 b9 39 cf be 48 07 a1 be
       0.18721662 -2.8747256 -0.40473726 -0.31450868
000010 35 e7 c6 3f 2b f1 e2 3e 19 82 bf be 31 bd 5f c0
       1.5539309 0.44324622 -0.37403944 -3.4959223
000020 32 84 45 c0 94 2d dd 3f 76 0f 04 bc 65 43 40 3f
       -3.0861936 1.7279534 -0.008060327 0.75102836
000030 6c af 43 c0 ce 86 8b bf 66 6e be 3f 17 d8 b6 3f
       -3.057582 -1.0900514 1.4877441 1.4284695
000040 f9 89 f8 bf ab b1 2b 40 21 d2 8d c0 c4 ab 7d 3e
       -1.9417106 2.682719 -4.4319005 0.24772555
000050 12 40 1f 3d 3f 59 36 40 f1 a5 0e c1 52 51 10 c0
       0.03887946 2.8491971 -8.915513 -2.2549634
000060 6f 14 cd 3d ef b5 e9 c0 89 68 6f bf cc b0 11 c0
       0.10013663 -7.3034587 -0.93518883 -2.2764158
000070 98 bc bb 3f 7b b1 4a 40 31 d4 15 40 4d 54 76 bd
       1.4666929 3.1670825 2.3410761 -0.06013899
000080 75 fa 34 c0 ce b7 61 bf ed 1b 26 bc 25 c6 cc 3f
       -2.8277867 -0.8817109 -0.010138494 1.5997969
000090 eb 1d b2 bf 6c 38 dc 3f 8b e2 d9 3d 90 92 71 40
       -1.391538 1.7204719 0.10638913 3.7745705
0000a0 e2 08 a5 3d d6 49 71 3d 5f b6 1f c0 8f 77 01 bf
       0.08058335 0.058908306 -2.495506 -0.50573057
0000b0 73 d9 0f 40 1e 54 0f be 41 75 23 be 59 0a a9 be
       2.247647 -0.13996932 -0.15962698 -0.33015707
0000c0 ce 61 11 bf a9 be 45 3e 80 20 93 bf 58 b8 94 bc
       -0.56789863 0.19311012 -1.1494293 -0.018154308
0000d0 66 e5 dd 3d 89 7b 3d c0 35 fd 12 c0 74 70 26 c0
       0.1083477 -2.960665 -2.2967045 -2.6006136
0000e0 d9 52 a8 be 9f 86 c9 3f 05 41 78 c0 4b 67 e3 3e
       -0.32875708 1.5744208 -3.8789685 0.44414744
0000f0 e8 42 b3 3e b5 b3 77 bf 1c 0a b9 bd 30 c3 9e 3f
       0.35011983 -0.96758586 -0.09035131 1.2403316
000100 8e 93 22 3e d2 84 77 40 ba e7 23 3f 3e a4 23 bd
       0.158766 3.8674817 0.6402546 -0.039951555
000110 ae 33 b3 bf 3d 4d 94 bd df ac 3b bf 0e 08 41 be
       -1.4000146 -0.072412945 -0.73310655 -0.18850729
000120 aa 03 31 3f 3b e7 3a bf 5d 73 a9 3e 0a a2 1e 3f
       0.69146216 -0.7300908 0.33095828 0.61966
000130 1f 97 81 c0 b6 9e 44 3c 46 0b 3a c0 e6 22 17 40
       -4.0496974 0.01200073 -2.906938 2.361505
000140 1f a2 3c 3f ba 73 bf bf 1b 80 22 3f ad 15 a5 3f
       0.7368488 -1.4957192 0.63476723 1.289724
000150 ae bd 74 bf 2c 7e a1 3f 63 06 d2 3f 7a 61 70 bf
       -0.9560193 1.261663 1.6408199 -0.9389874
000160 d2 0f a2 3f a8 3f 1e 3f fa 76 5a bc 69 01 b9 3e
       1.2661078 0.6181588 -0.01333403 0.36133888
000170 8f a3 58 bf 31 a8 11 bd 0b 17 23 3f e6 f6 a9 3f
       -0.8462457 -0.03556079 0.63707036 1.3278472
000180 76 fb d8 3f 8b 91 a7 bf 7f a3 d2 3f 21 bf a2 c0
       1.695174 -1.3091291 1.6456145 -5.085831
000190 a1 86 e5 bf 3b a3 10 3f 87 60 7b bf 85 c7 aa 3e
       -1.793171 0.5649907 -0.98194164 0.33355346
0001a0 f2 4f 28 3c e0 a2 5d 3f fd 35 b2 3f 37 93 8c 3f
       0.010272967 0.8657665 1.3922726 1.0982426
0001b0 e2 69 31 be 13 0d f5 c0 aa a2 9c 3e ba 25 aa bd
       -0.17325547 -7.657846 0.30592853 -0.08307977
0001c0 55 1d 08 c0 c7 4f a2 be 22 ef 25 40 8d 6e 99 c0
       -2.1267903 -0.3170149 2.5927205 -4.794745
0001d0 8f 95 0d 40 9c db b9 3f 6e f0 20 bf 15 54 5c be
       2.2122533 1.4520144 -0.62866867 -0.2151645
0001e0 a5 aa 41 3d 88 3b 0a c0 bc 44 1e bf 04 4b 81 bf
       0.04728188 -2.1598835 -0.6182363 -1.0101018
0001f0 35 11 06 c0 96 94 85 3e 7e bd 24 40 ae 51 9b 3f
       -2.0948002 0.26089925 2.5740657 1.2134302
000200 57 37 e7 3f 6d a0 3f 3f 7a 97 b7 3f 2d 85 c1 3f
       1.8063763 0.74854165 1.4343102 1.5118767
000210 cd 01 b9 3f ac 19 e4 be f3 3a bf bf 1c ce 82 3f
       1.4453675 -0.44550836 -1.4939865 1.021915
000220 dc b6 11 c0 fe c3 d0 bf 9e 75 50 c0 b4 e2 8c bd
       -2.2767859 -1.6309812 -3.2571788 -0.06879178
000230 3e 22 b2 bc ff a4 d4 bf 23 a7 1f 40 0a 65 00 bf
       -0.021744844 -1.6612853 2.4945762 -0.50154173
000240 1c 97 a5 bf 78 73 28 c0 30 9a 4c 3e 02 15 37 3f
       -1.293674 -2.6320477 0.19980693 0.7151643
000250 5a 80 8d bd d8 58 2e 40 59 f3 7b be ee 07 86 bf
       -0.06909247 2.7241726 -0.24604549 -1.047117
000260 75 f6 dd bf 73 ae e1 be 50 a0 01 c0 d2 46 15 bd
       -1.7340838 -0.44078407 -2.0254097 -0.036444493
000270 5d d4 a0 bf c3 7d 6b 40 72 2d 33 3f 27 48 de bf
       -1.2564808 3.679551 0.6999122 -1.7365769
000280 48 46 8a 3f 87 7a 14 bf 41 c8 4f 3e 94 3e 92 3d
       1.0802698 -0.5799946 0.20291235 0.07140842
000290 05 32 a5 bf b4 54 06 3f 59 2e ec 3e 71 c3 d1 bf
       -1.290589 0.52472997 0.4612911 -1.6387769
0002a0 a1 c4 9f 3f be ff 6d c0 35 85 1d 40 97 e0 63 bf
       1.2481881 -3.7187343 2.4612553 -0.8901457
0002b0 0c 36 c8 be 95 9d a4 bf 94 7c 04 c0 0d f0 88 c0
       -0.39103734 -1.286059 -2.0701036 -4.279303
0002c0 ad 92 24 bf 84 5a 1b c0 64 d8 a5 be 80 ba 55 be
       -0.6428631 -2.4273996 -0.32391655 -0.20871925
0002d0 06 a5 a0 3f 2a a5 ef bd 28 ba 40 bf 2d c6 ff 3f
       1.2550361 -0.117014244 -0.7528405 1.9982353
0002e0 80 7a f6 bd 71 49 3d 3f da 2d 5b 3f 6b cd 99 bf
       -0.12035084 0.7394019 0.8561684 -1.2015814
0002f0 66 27 07 be 79 00 20 c0 de 52 0a 40 92 92 35 3e
       -0.13198623 -2.5000288 2.1613078 0.17731693
000300 95 9d 17 be bc 37 9a 3f f2 b1 92 c0 22 b7 db bc
       -0.14806207 1.2048259 -4.584222 -0.026820723
000310 6b 6e 80 3e 41 c2 ca 3e 39 a9 96 3e 09 15 1e c0
       0.25084242 0.3960133 0.29425982 -2.470034
000320 f5 69 21 3f 0a b2 26 c0 88 75 53 bc 06 e1 b5 c0
       0.630523 -2.6046166 -0.01290644 -5.6837187
000330 f7 f2 6f bf 4c 4a 25 c0 d7 54 d9 bf e8 e5 b5 be
       -0.9373011 -2.5826597 -1.6979016 -0.35526967
000340 6a dd 8a be ce 2e 7a c0 24 73 35 3e 2a a0 c4 be
       -0.2712205 -3.9091067 0.17719704 -0.38403445
000350 00 2b b5 be d2 b5 2b c0 2c a7 90 bf f0 f5 6c 3f
       -0.3538437 -2.6829724 -1.1301017 0.9256277
000360 81 06 da bc f4 b5 bc 3e ee bb ad c0 71 ed ad 3e
       -0.02661443 0.3685757 -5.4291906 0.33970216
000370 8f 20 0f c0 87 05 03 c0 ea 5e ac 3f a9 7d fa 3f
       -2.2363622 -2.0472124 1.3466465 1.9569598
000380 a8 62 49 40 71 7b 31 bf 3a 46 c6 3e 17 ec a6 3f
       3.1466465 -0.6932898 0.38725454 1.3040799
000390 ad ce 45 c0 75 a3 d9 3c f8 d8 58 bf c7 96 c9 bf
       -3.0907395 0.0265672 -0.8470607 -1.5749139
0003a0 e2 63 d5 3f e1 75 9f c0 2e 26 17 40 e3 dc a8 bf
       1.6671107 -4.9831395 2.3617053 -1.3192409
0003b0 6b 30 b7 c0 0d d3 fa 3f 5a 2e 05 3f d1 2d 45 3f
       -5.7246604 1.9595658 0.5202385 0.77023035
0003c0 d4 71 48 3f 14 4d aa c0 57 a1 20 3f f2 f6 36 40
       0.7829869 -5.321909 0.62746185 2.8588223
0003d0 f3 21 f2 3f b5 b2 d9 3e cc 09 6f 3f 1c 23 73 3f
       1.891661 0.42519155 0.93374324 0.9497545
0003e0 b8 79 5b c0 72 44 81 3f ff ba f2 be 17 67 3c 3f
       -3.4293041 1.0099013 -0.47408292 0.735948
0003f0 5e 3f a6 c0 d7 87 7b be e4 2b 8d bf 76 89 7d bf
       -5.1952353 -0.24563538 -1.1029019 -0.99037874

FC2.bias f4 [256]
000000 b7 8b e5 be 68 31 a3 bd b5 6c a6 bf 8c ec 07 bf
       -0.44833156 -0.07968408 -1.3001925 -0.53095317
000010 26 3b 03 c0 13 1e b8 bf a9 21 0b bf 7a ac 70 be
       -2.0504851 -1.4384178 -0.54348236 -0.23503295
000020 4d 45 af bf 18 aa d5 bf f5 9f b4 bf 7e d6 db bd
       -1.3693024 -1.6692533 -1.4111315 -0.107342705
000030 32 af 11 c0 32 d3 81 bd d7 90 16 c0 e5 3f 9b bf
       -2.276318 -0.063391104 -2.3525903 -1.2128874
000040 0f 69 89 bf 43 64 5d be 82 ce f8 bd 35 e0 1d c0
       -1.0735186 -0.21620278 -0.12148763 -2.4668095
000050 7f 9e c7 bf cb 2b bc be 40 19 48 3f f8 46 d4 bf
       -1.5595244 -0.3675216 0.7816353 -1.6584158
000060 0d cc 69 3d 34 00 34 be 52 4b 52 3e 8a be 5c bd
       0.057079364 -0.17578202 0.20536545 -0.05389265
000070 64 53 b8 bf 59 cf 89 bf 1b 43 2c c0 ca ae 9e bf
       -1.4400449 -1.0766402 -2.6915958 -1.2397091
000080 f4 b7 f5 bf b1 7f cb bd de 59 11 bf 49 c1 ae bf
       -1.9196763 -0.099364646 -0.5677775 -1.3652736
000090 f6 4c fe bd 87 7e 46 bf 9d d1 1b c0 3d 09 81 3f
       -0.12417023 -0.77536815 -2.4346688 1.0080944
0000a0 3d d6 10 be 77 42 2d c0 e2 16 87 3f 49 e7 40 bf
       -0.14144225 -2.7071817 1.0553858 -0.75352913
0000b0 64 60 fa be b4 6d f2 bf 55 24 ba bf a2 76 2a 3f
       -0.48901665 -1.8939729 -1.4542338 0.6658727
0000c0 fa d5 0a be e0 4b 1c c0 38 08 f5 be 27 dd 8d bf
       -0.13558188 -2.442131 -0.47857833 -1.1083115
0000d0 aa e8 c1 be 62 a2 c7 be b3 e5 d6 bf 98 72 f5 bd
       -0.3787282 -0.38991076 -1.6788849 -0.11984748
0000e0 d6 69 fb be 2c e6 dd be 19 af a2 bf df e8 7d be
       -0.49104184 -0.4333967 -1.2709686 -0.24795865
0000f0 f3 29 a7 be b4 b8 a4 be 0c 81 a9 bf a0 b0 8a bc
       -0.32649192 -0.32172167 -1.3242507 -0.016929924
000100 d5 2e 3f 3f 05 14 53 bf 79 af 1e be 59 b0 4a be
       0.74680835 -0.8245242 -0.15496625 -0.19793834
000110 d4 20 d6 be cc e8 a2 bd 87 03 8e bf dc c7 45 bf
       -0.4182192 -0.07954559 -1.1094826 -0.77258086
000120 c2 78 fc bd 92 54 76 bf d4 d7 e3 3d 11 d3 67 3d
       -0.1232772 -0.96222794 0.1112515 0.056597773
000130 c1 c4 14 c0 a0 22 e7 be 3a 2e 69 bf 0d 4b 5a bf
       -2.324509 -0.45143604 -0.9108616 -0.8527077
000140 72 75 d1 be 93 50 d9 bf 18 83 af bd f0 59 1f be
       -0.40909916 -1.6977714 -0.08569926 -0.15561652
000150 ca 80 16 be 75 d2 58 c0 d0 e7 96 bf 9d 4b 50 bc
       -0.14697567 -3.3878453 -1.1789494 -0.01271334
000160 2b 3f 16 bf 82 cc df 3f 93 3a c9 bf f2 15 51 bf
       -0.58690137 1.7484286 -1.5721 -0.8167411
000170 79 a0 38 bf 9e 3b 0e c0 cf e8 c4 bf 9e 47 88 be
       -0.7211986 -2.2223887 -1.5383548 -0.2661714
000180 13 a5 90 bf 05 d5 cc bf dc 41 ec bf 13 6a 14 c0
       -1.1300377 -1.6002508 -1.8457599 -2.3189743
000190 d3 b2 80 bf fb d1 d1 bf d5 4e 88 be bd 0a 99 bf
       -1.0054573 -1.6392206 -0.26622644 -1.1956402
0001a0 12 54 89 bf ed 17 91 bf 7a 29 ce 3f 4c a9 65 3e
       -1.0728781 -1.1335427 1.6106408 0.22427863
0001b0 29 92 f3 bf c7 55 36 3d c0 42 49 be cd e1 0c 3f
       -1.902898 0.044515397 -0.1965437 0.55032045
0001c0 09 80 81 3e 51 3c b7 3e 91 33 04 be 27 03 ca bf
       0.25292996 0.35788205 -0.12910296 -1.5782212
0001d0 5b 6d ab bf bd a7 82 bf 3a 6a f5 bf d0 49 7d bf
       -1.3392748 -1.020744 -1.9173043 -0.98940754
0001e0 d6 8f 6f bd be 57 94 bf 82 04 d8 3e 17 59 44 bf
       -0.058486782 -1.1589277 0.4219094 -0.7669844
0001f0 9d 6f a0 bd 20 71 49 be be cd 4a be 55 85 84 be
       -0.078337885 -0.1967206 -0.19805047 -0.25882974
000200 d6 94 3e bf ec dd d8 bf 2e 4b 12 c0 f0 b4 26 bd
       -0.74445856 -1.6942725 -2.2858386 -0.0406999
000210 69 44 21 bf 28 8e 88 bf a6 f5 ac bf 09 fd b3 bf
       -0.6299501 -1.0668383 -1.3512466 -1.4061595
000220 3d 79 03 be 19 f8 9d 3f 53 91 20 c0 dd 69 d5 bd
       -0.12839217 1.2341338 -2.50887 -0.104205824
000230 83 95 a7 bf 6d eb c1 bd 74 f9 96 3e 00 ed cd be
       -1.3092502 -0.09468732 0.29487193 -0.4021988
000240 69 53 6f bf 21 1b 04 bf 4f 43 b7 bf 10 9a e3 be
       -0.9348665 -0.51603895 -1.4317416 -0.44453478
000250 ca 9c 6f bf ab 64 29 c0 a7 4a f6 bf a0 fb 3f bf
       -0.93598616 -2.6467693 -1.9241532 -0.74993324
000260 4c 0d db 3e 90 2f 05 be 25 9a 0c 3f 6d 7c 3f c0
       0.42783582 -0.13006425 0.54922706 -2.9919693
000270 69 e6 e9 bf 7b 27 f5 bf dd 6c 42 3e 39 96 8f be
       -1.8273441 -1.9152673 0.1898684 -0.28044298
000280 59 56 18 bf bb 62 18 3f e4 2d 07 c0 67 87 ab 3f
       -0.59506756 0.5952565 -2.112176 1.3400697
000290 50 c3 25 bf f7 72 7a bf 20 a9 d9 be c3 74 c0 bf
       -0.6475115 -0.9783167 -0.42511845 -1.5035633
0002a0 37 0b 17 bf bf 0f 89 bf 78 85 f8 bf 61 3a a1 bf
       -0.5900149 -1.070793 -1.9415731 -1.2595941
0002b0 9a a2 c3 bf 46 bc 0b c0 e2 93 ed bf 14 17 53 c0
       -1.5283997 -2.1833663 -1.8560755 -3.2982836
0002c0 ee 5e 93 bf 90 b1 a0 bf 12 83 a1 bf 73 bf 4e 3f
       -1.1513345 -1.2554188 -1.2618124 0.8076088
0002d0 91 54 43 bd a1 29 bf bf 86 87 eb be d9 95 2d bf
       -0.04768807 -1.4934579 -0.46001834 -0.67806774
0002e0 24 78 ee 3f 6f af d1 bf 90 dc 01 c0 8e 1c 9f 3e
       1.8630414 -1.6381663 -2.029087 0.31076473
0002f0 75 f3 50 be f1 4d 0e bf 1f 41 04 c0 83 35 10 c0
       -0.20405371 -0.5558768 -2.0664747 -2.253266
000300 60 5c b8 3e 96 4f 8b bf 4b 6f 07 bf c1 18 60 bd
       0.36007977 -1.0883663 -0.52904195 -0.054711107
000310 a8 4c 9d bf a7 e4 e0 bf 88 16 9a bc e5 98 16 c0
       -1.2289019 -1.7569779 -0.018809572 -2.353082
000320 ca 56 13 bf 1f f0 73 bd c9 f6 55 be 1b 5a 14 c0
       -0.57554305 -0.05955517 -0.20894922 -2.3179996
000330 63 23 6f bf fc 9d 2c 3e 7e f8 03 c0 50 d6 f9 bf
       -0.9341337 0.16857141 -2.0620418 -1.9518528
000340 84 e4 a5 be d0 93 8a 3f c7 46 b2 bf e9 5a 7b bf
       -0.32400906 1.0826359 -1.392785 -0.9818559
000350 f9 4e 17 3f e8 1e b1 bf 81 f8 9f bf 69 f6 12 c0
       0.5910488 -1.3837557 -1.2497712 -2.2962897
000360 b4 cf 82 c0 ac 45 ef 3e 01 2f f5 bd a4 e2 58 c0
       -4.0878544 0.46732843 -0.11971856 -3.388833
000370 e8 43 ec bf 1b 18 1c bf 01 4d af bf 84 ea 27 be
       -1.8458223 -0.6097428 -1.3695375 -0.16398054
000380 c6 72 05 3d d0 90 f5 3d 6b b9 ba bf 1b 1f c8 bf
       0.03258016 0.119905114 -1.4587835 -1.5634493
000390 2e fd e3 bf 2d 84 06 c0 42 f1 6a 3e 13 59 a8 bf
       -1.7811639 -2.1018174 0.22943595 -1.3152183
0003a0 a0 05 cc be 3e 4b c0 be d9 15 65 3e 89 bd 3c bf
       -0.39848042 -0.37557405 0.22371615 -0.7372671
0003b0 6f e2 f8 bf 23 b9 c2 bf 2b d9 07 c0 15 a1 b4 bf
       -1.9444102 -1.5212749 -2.12263 -1.4111658
0003c0 c8 14 d6 bd d9 4b a7 bf 8e a0 d6 bf 2e 27 02 3f
       -0.104531825 -1.3070022 -1.6767747 0.50841033
0003d0 26 9f 13 c0 e4 0f 5a be 35 97 de bd c3 55 8c bf
       -2.3065886 -0.21295124 -0.10868684 -1.0963672
0003e0 ca ad 04 c0 d7 cb 09 be 6c bb de bf a6 15 32 bf
       -2.0731072 -0.13456665 -1.7400947 -0.6956428
0003f0 ae 4c 90 bd f6 9d 56 be c4 47 1a bc f1 f9 c2 be
       -0.070458755 -0.20958695 -0.009416524 -0.38081315

action_out.weight f4 [5, 256]
000000 fb 25 d8 3f e1 3f 83 bd c8 3e 3c 40 d1 17 c2 3f
       1.6886591 -0.06408668 2.9413319 1.5163518
000010 e6 2f d5 ba 1a b0 51 c0 59 c1 98 bf 62 5a 86 3f
       -0.0016264885 -3.2763734 -1.1934005 1.0496333
000020 56 8f 4b bf 09 a2 f1 be 64 2b 3f 40 7e f9 0d 3f
       -0.7951559 -0.47193936 2.9870234 0.5545882
000030 62 bb 28 c0 85 3f 23 bc 1f 3d 05 40 4b 72 35 be
       -2.636437 -0.009963875 2.0818555 -0.1771938
000040 14 69 57 40 c7 c6 82 3d a0 46 d7 3e d8 00 e8 3f
       3.3657885 0.0638557 0.4204607 1.8125257
000050 e8 f8 6b bf 09 c4 9f 3f 46 ea cd 3f e8 14 58 40
       -0.92176676 1.24817 1.608712 3.376276
000060 46 81 66 3f 36 90 ef 3f 18 00 0f 3f 5a 4f 31 3f
       0.90041006 1.8715885 0.5585952 0.69261706
000070 62 f2 a7 3f d2 81 93 3e 90 ab e4 3e 11 ae 9f 3f
       1.3120844 0.28809983 0.44662142 1.2474996
000080 ff 06 99 3f 77 39 ed 3c f4 d2 03 40 84 36 25 40
       1.195526 0.028958065 2.0597506 2.5814524
000090 d5 98 65 bd c5 e7 b4 3e 52 1d 9d 40 03 3b 45 40
       -0.056053955 0.35333076 4.909829 3.0817268
0000a0 57 f7 25 40 7d 1d 13 bd 21 5f d9 3f b5 88 e2 3f
       2.5932214 -0.035916794 1.6982156 1.769797
0000b0 01 75 dd 3f 97 8a d1 be 60 52 78 3f d8 45 97 3f
       1.7301332 -0.40926048 0.97000694 1.181819
0000c0 36 30 19 40 1b 9f 6c 3e 5f e1 ed 3f 36 ea ea 3f
       2.3935676 0.23107569 1.8584403 1.8352726
0000d0 00 da bd 3f 01 a5 12 40 77 3d 9d 40 f4 b9 4f 3f
       1.4832153 2.291321 4.913753 0.81143117
0000e0 8b aa e5 3f 31 f4 42 3f 36 93 f1 3f 0c e0 53 3f
       1.794267 0.76153857 1.887305 0.82763743
0000f0 a9 4c d7 3f 7c 11 2b 40 26 00 5f 3f 15 3d 88 3f
       1.682027 2.6729422 0.871096 1.0643641
000100 83 51 54 40 d8 f5 49 bf e8 a7 0f 40 50 5b 6e 3f
       3.317475 -0.7889075 2.2446232 0.9310808
000110 f0 7e 1e 40 31 63 ba 3f 48 00 18 40 d0 cb 01 3f
       2.4764977 1.4561521 2.3750172 0.5070162
000120 a5 8f 14 40 72 d0 04 bf 9f 41 60 be 61 b3 3e 40
       2.3212674 -0.5188056 -0.21900032 2.9796984
000130 b1 9b 3a 40 75 3e 4c be c8 60 97 bf 57 0f c7 3f
       2.9157526 -0.199457 -1.182641 1.5551556
000140 de 78 4f bf bd 73 bf 3f 18 b4 c9 3e d8 c2 a3 3f
       -0.81043804 1.4957196 0.39395213 1.2793837
000150 96 e9 b2 3e 96 59 3a c0 61 03 41 40 e1 91 91 3f
       0.34943837 -2.911718 3.0158312 1.1372644
000160 97 8f 9a 3e de 3b 36 40 27 04 ab 3f 49 65 b3 3f
       0.30187675 2.847404 1.3360642 1.4015285
000170 88 9a 03 40 96 15 ff 3e 79 1d d5 3f 35 b6 84 3e
       2.0563068 0.49821156 1.6649619 0.25920263
000180 b0 f6 1e 40 de e9 f4 3f f4 06 8d bd 9a 59 1b 40
       2.4838066 1.9133871 -0.06886092 2.4273438
000190 06 54 a8 be bc e2 51 3f d8 c4 dc 3f cf de 20 40
       -0.32876605 0.81986594 1.7247572 2.5135992
0001a0 76 bf b5 3f eb 96 5a 3f 94 1a da 3f 9e 9e 40 40
       1.4199054 0.8538653 1.7039361 3.0096812
0001b0 7e ab f3 3e 83 8b e2 3f ca ee b4 3e b4 0e 8e 3f
       0.47591776 1.7698826 0.35338432 1.1098237
0001c0 45 50 fc 3e 6c 3a b8 3f 3b c6 e2 3f 64 21 aa 3f
       0.4927999 1.4392829 1.7716745 1.329144
0001d0 ed a3 35 3f 6d c3 18 40 51 7d 42 bf 0b 81 bd 3f
       0.70953256 2.3869278 -0.7597247 1.4805006
0001e0 e8 fc 8f 3c c2 8f c0 3f 33 fa 01 40 74 6c f0 3f
       0.01757665 1.5043871 2.030896 1.8783097
0001f0 e5 3d 82 3d d0 22 06 40 e3 7f c5 3e 2b 1e 32 3f
       0.06359462 2.0958748 0.38574132 0.6957728
000200 dd 6a 87 40 36 87 d0 3f c3 d3 02 c0 1f d7 a1 bc
       4.231795 1.6291263 -2.044175 -0.019755898
000210 db 3a 16 40 51 e4 ae 3c 06 b3 0e c0 5d 09 6d 3f
       2.3473423 0.021349104 -2.2296767 0.9259241
000220 18 13 b3 3f 46 57 dc 3f 51 b3 04 40 3f 8d 84 3e
       1.3990202 1.7214134 2.0734446 0.25889012
000230 f2 15 67 bf 54 1c f2 3e 66 09 e9 3f ce 8b 1c 40
       -0.9026786 0.47287238 1.8205993 2.446033
000240 fc bb 93 c0 3d 41 3c 40 71 97 ce be a7 79 8f 3f
       -4.6166973 2.9414818 -0.40349916 1.1209
000250 07 57 c9 3f d7 00 29 40 94 3f 47 be fd c6 a9 bf
       1.5729684 2.6406763 -0.19457847 -1.3263851
000260 08 a2 33 40 e4 4d be 3e 8c 26 d8 3f d3 af b2 3f
       2.8067646 0.371688 1.6886764 1.3959907
000270 4e ef d6 be b8 41 35 40 cc 4c 09 40 e2 df ff be
       -0.4197945 2.8321362 2.1453123 -0.49975497
000280 18 22 9e 3f ad ac f4 3f f9 9b 2d 40 45 b1 a9 3f
       1.2354155 1.9115196 2.7126448 1.3257223
000290 a0 0c 0f 3d d0 ba 43 bf 50 6d c4 3f b0 a3 b1 3f
       0.03492415 -0.7645693 1.534586 1.3878078
0002a0 1f fc f0 3f 28 aa 83 3f f3 7a 3f bf dd 4e 3a 40
       1.8826941 1.0286303 -0.7479698 2.9110634
0002b0 26 aa 7e 3f b9 5c cc bf 29 4d 70 bf 10 fb 6b 3d
       0.99478376 -1.5965797 -0.9386774 0.05761248
0002c0 10 b7 33 40 f8 67 1b 40 f0 69 cc bf 16 fd d0 3f
       2.8080482 2.4282207 -1.596983 1.6327236
0002d0 de 0d a1 ba d7 bb 28 bf de 4c 26 40 33 e0 d1 3f
       -0.0012287458 -0.6591162 2.5984416 1.6396545
0002e0 71 6e 4a 40 64 45 06 40 0e 58 33 3f de 6c 2d 40
       3.1629908 2.0979853 0.70056236 2.7097697
0002f0 8b 90 76 3e 0c 3e 2b 40 2b c0 83 bf ac d5 13 3f
       0.24078576 2.675662 -1.029302 0.5774791
000300 a2 a3 0a 40 e6 ea 33 bf 59 90 db 3f 9e c1 8b bc
       2.1662374 -0.702803 1.7153426 -0.017060097
000310 20 41 a5 c0 61 51 b9 3e 0d b1 f4 3f 72 5f 69 c0
       -5.1642 0.361949 1.9116532 -3.6464505
000320 6d bc 06 40 ad d0 10 bd e3 d2 12 3e 20 8d 38 3f
       2.1052506 -0.03535526 0.1433826 0.7209034
000330 f1 17 2f c0 5a 4f f8 3f ff 0d 5f c0 1a 2b 0d 40
       -2.7358363 1.9399216 -3.4852293 2.2057557
000340 f7 7d 03 be bd 1b 06 40 9e ff aa be fe 3f 04 40
       -0.1284102 2.095443 -0.33398145 2.0664058
000350 5b b8 ca 3e 20 c8 35 40 e3 8f 14 40 5e 76 84 bf
       0.39593777 2.8403397 2.3212821 -1.0348623
000360 63 f9 f2 be e7 5f ea 3f 9d 36 19 bd ae b1 1f c0
       -0.47455892 1.8310517 -0.0374056 -2.4952197
000370 7a ea 35 c0 02 82 25 3f be f5 86 3f 1d ac 50 3e
       -2.8424363 0.646515 1.0543745 0.20378156
000380 0a 64 bd bc 08 4c 53 bf 04 15 05 be d5 75 75 3f
       -0.023118991 -0.8253789 -0.12996298 0.9588292
000390 0f d5 6f 3e 78 da c9 3f 04 ba 49 40 96 b8 24 40
       0.23421119 1.5769796 3.1519785 2.5737662
0003a0 e5 70 f9 3f f4 e9 ca 3f 6d 49 b9 3f e4 19 ba 3f
       1.9487578 1.5852647 1.4475533 1.4539151
0003b0 58 91 f3 3f 4c 80 cb 3e f0 12 ba be bc 07 da 3f
       1.902873 0.3974632 -0.36342573 1.703361
0003c0 79 e4 0e 3d dd 0a e0 3f b4 c6 16 c0 d8 fe 8c 3e
       0.034885857 1.7503315 -2.3558779 0.2753818
0003d0 44 7f 78 bf 77 67 0c 3e 49 17 95 3e 4b 1b f8 3f
       -0.9706919 0.13711344 0.29119328 1.9383329
0003e0 78 b5 07 bb ab 08 6f 3d 65 8e 36 40 7e 53 f4 3f
       -0.002070753 0.058357876 2.852441 1.908798
0003f0 4a 0a 1e 3f 74 ea be 3d c4 2a 1f 40 5f a7 0b 40
       0.6173445 0.09322062 2.4869852 2.1820905

action_out.bias f4 [5]
000000 50 a5 f8 3f b6 04 38 c0 80 19 bc 40 35 8f fd 3f
       1.9425449 -2.8752875 5.878113 1.9809328
000010 34 c5 e7 3f
       1.8107057

weight f4 [256, 123]
000000 0b ac 40 c1 44 cd 94 be 52 8d e1 bd 24 8d 95 be
       -12.042003 -0.29062855 -0.11013283 -0.29209244
000010 c8 78 fd bd cf ab a1 be 99 d7 93 be cb 39 fd bc
       -0.12376553 -0.31576392 -0.28875425 -0.030911347
000020 2e be bf 3f 87 cb 91 3d 8a 32 58 3d 6d ea 7c 3d
       1.4979913 0.07118898 0.052782573 0.061747003
000030 f9 d4 23 3e e9 f3 fa bc 12 db 28 be 08 75 ed bf
       0.15999211 -0.030633884 -0.16489819 -1.855134
000040 d1 c3 fb be fb 1d 87 bf 7e 8b 5e bf 48 c9 9b be
       -0.49172834 -1.0556024 -0.869316 -0.30427003
000050 02 55 3f be 48 bc 84 bf 66 90 cd 3d 52 ff 6a 3f
       -0.18684772 -1.0369959 0.100373074 0.9179584
000060 0b 50 7f bf f4 e3 a0 bf 02 fd 61 bc 02 d8 bf bf
       -0.9973151 -1.2569566 -0.013793232 -1.4987795
000070 3a 54 1b 3d 30 c4 52 be 1f e1 7a bd fd af 98 be
       0.03792212 -0.20582652 -0.06124985 -0.29821768
000080 da 9f c3 bf 50 4e 6d bc d8 84 d5 bc 68 37 1f bf
       -1.5283158 -0.014484003 -0.026064321 -0.6219392
000090 35 a8 41 c1 e4 2d 25 3e 9f 00 ef 3d 2d dc dd be
       -12.103566 0.16130787 0.1167004 -0.43332043
0000a0 7b 08 ad bc a1 d9 b3 be 85 2b a4 be e0 b8 97 3f
       -0.021122208 -0.35126975 -0.32064453 1.1853294
0000b0 2d 23 2d 3e 3a b6 68 3f 05 83 6c 3f 6d b8 7b 3d
       0.1690795 0.90903056 0.9238742 0.06145518
0000c0 79 ce 16 3e a9 81 df bb 4c 8a 65 be 14 01 bf bf
       0.147272 -0.0068208766 -0.22416037 -1.4922204
0000d0 e4 6f f8 3f 4c 43 eb 3c a5 ee 82 3d d8 84 d3 be
       1.9409146 0.028718613 0.06393174 -0.4131229
0000e0 84 da 1e be e9 bb 7b bf 6c c9 82 3e f8 2e ef 3f
       -0.15513045 -0.98333603 0.25544298 1.8686209
0000f0 be a4 b7 bf 9b cb f8 3d 8c ca c8 3e f0 66 b4 bf
       -1.434715 0.1214821 0.3921703 -1.4093914
000100 97 40 7a be 17 4e 0a 3d 18 3b 9c be 36 25 84 be
       -0.24438702 0.03376588 -0.30513835 -0.2580964
000110 16 e1 5d bd e4 37 c2 bf 61 15 9d 3d a7 16 cd 3f
       -0.054169737 -1.5173306 0.07670093 1.6022538
000120 1b 54 40 c1 86 1f 99 be e9 a5 1c bd 44 5d a1 be
       -12.020534 -0.29906863 -0.03824416 -0.3151647
000130 2b eb eb bc 22 bb c2 be 8d 06 cc be d2 9b 8e 3f
       -0.02879866 -0.38033396 -0.39848748 1.1141303
000140 6e 4c 08 bf 16 4b a0 3f fb e4 1a 3e a0 b4 0f 3e
       -0.5324162 1.2522914 0.15126412 0.14033747
000150 3f ec 05 3e be db 0a bd 5e 67 8e be 43 1b b2 bf
       0.13078402 -0.03390097 -0.27813238 -1.391457
000160 3f 86 97 3e e9 cb 09 3d 82 6f 08 bf 29 3b a3 be
       0.2959461 0.03364173 -0.5329515 -0.31881073
000170 4a 27 08 bd dc 8c 81 bf e5 eb 73 3e 48 e0 53 40
       -0.033240594 -1.0121112 0.23820455 3.310564
000180 e6 11 10 c0 60 90 d5 bc 06 5b 1f 3d 28 9b b2 bf
       -2.2510924 -0.02606982 0.038905166 -1.39536
000190 be 9c ce bd d2 9a 49 bd 5d b6 99 be 11 1b 35 be
       -0.1008849 -0.049219914 -0.30021945 -0.17686106
0001a0 e0 b4 f1 bb 70 ce f6 bb f0 75 ba bf f7 fd 05 c1
       -0.0073762983 -0.0075319335 -1.4567242 -8.374503
0001b0 f9 4b a0 3e 4e 2c d5 3e de 5b c7 be e3 79 c4 3e
       0.31307963 0.41635364 -0.38937277 0.38374242
0001c0 6d 76 19 bf ba 9f 1d 3e b2 e5 a1 bd 29 d2 a1 3e
       -0.5994633 0.15392962 -0.07905139 0.31605652
0001d0 47 ef 44 bd 31 b2 97 3d 94 17 66 bd ac 19 68 bc
       -0.048079755 0.07407034 -0.05617483 -0.014166277
0001e0 f1 14 4c 3d 60 40 93 3d 7e 97 17 bd c7 35 1e 40
       0.04982466 0.07190013 -0.03700971 2.4720323
0001f0 43 1b 81 3e f4 a0 85 3e 68 cf b7 3e 40 a7 68 3e
       0.25216112 0.2609936 0.35900426 0.22720051
000200 6c ae 99 3c 33 b8 63 3f 5c fd 8e 3f 24 4b e6 bf
       0.018759929 0.8895294 1.1171069 -1.7991681
000210 1e b1 a5 bd 30 fa 15 3c f2 f9 b0 3f 6d e2 41 bc
       -0.08090423 0.009153888 1.3826277 -0.011833769
000220 38 28 bd bf 3d b2 4c 3d 30 9e 99 3e 4a d5 1b be
       -1.4777899 0.04997467 0.300035 -0.15218082
000230 b5 74 32 3e 9a 68 e4 bd f7 2e 02 3d 84 34 c8 3e
       0.17427333 -0.11152764 0.03178307 0.39102566
000240 49 9e b4 be 77 1c 05 bf 45 a1 23 bf 37 5a 00 3d
       -0.35277012 -0.5199656 -0.6391795 0.031336036
000250 c3 41 10 3c e9 07 8e be 22 0f e5 3e 2f a0 13 bc
       0.008804741 -0.2774041 0.44738108 -0.009010359
000260 cd 56 8d 3d cd 84 c1 3d e6 2b 99 3c b8 4b dc 3e
       0.069013216 0.09449158 0.01869769 0.4302652
000270 b2 7f 7d 3d 95 00 81 3d ed 95 30 40 6b a8 21 40
       0.061889358 0.06298939 2.7591507 2.5259044
000280 30 04 bc 3f 7f fe c9 bd 20 97 b6 3e c2 76 39 3e
       1.4688778 -0.098629944 0.35662174 0.18111709
000290 d1 47 47 3c 95 f4 47 3f d6 29 44 3e 83 63 5f bf
       0.012163118 0.7810758 0.19156584 -0.8726122
0002a0 49 8b 73 be 80 4c 4a 3e 8c 72 c4 3f a3 3c 83 bd
       -0.23783602 0.19755745 1.5347457 -0.0640805
0002b0 3a 6b c3 bf a3 0e 5a 3d a0 4c ce 3f d8 d2 f1 bf
       -1.5267098 0.053236615 1.6117134 -1.889247
0002c0 f0 d1 b2 3b ad 15 0a bd 7a a6 c1 3d 32 0f cf 3e
       0.0054571554 -0.033712078 0.09455581 0.4044128
0002d0 2b 67 81 be 2f 04 2a bf 30 a4 e5 be 4d da 8c be
       -0.25274023 -0.66412634 -0.44851828 -0.275103
0002e0 73 9a 75 bc 8d 5e 1f 3d d2 55 d3 3e bc 1e 8e 3d
       -0.014990437 0.03890853 0.41276413 0.06939456
0002f0 70 3e c3 3d 29 b1 e3 3d 47 53 58 3d c5 2d b4 3d
       0.095333934 0.11117775 0.052813794 0.08797792
000300 c0 13 be 3e c2 9f 2e 3d 3c 4f 0b 40 af bf 1f 40
       0.37124443 0.042632826 2.176711 2.4960744
000310 c6 77 84 bd 8c df e6 3e 52 f5 58 3e 92 b2 41 3e
       -0.064681575 0.45092428 0.21187332 0.18915775
000320 e0 5f 6d bd 85 b2 68 3f d4 60 cb bd 24 eb f4 bd
       -0.05795276 0.908974 -0.09930578 -0.11958912
000330 c7 fb d6 bd 22 72 29 3e 08 ec bc 3f f5 43 ef bd
       -0.104972415 0.16547444 1.4759531 -0.11682884
000340 62 e9 c3 bf e5 bb 1e 3d b6 5f f3 be 9f d9 87 be
       -1.5305598 0.03875341 -0.4753396 -0.2653322
000350 5e 1a 86 bd 2e d5 11 be 45 b7 b1 bc 8e e5 d6 3e
       -0.06547998 -0.14241478 -0.021693835 0.4197201
000360 3e b0 4d be af ae 03 bf 2b f4 03 be b2 53 de 3e
       -0.20086762 -0.5143842 -0.12886111 0.4342323
000370 00 30 d2 3a 35 4a 9c 3d 9c e5 dc 3e a3 2c 1e 3e
       0.0016036034 0.07631341 0.43143928 0.15446715
000380 f1 42 87 3d d2 89 9e 3d 99 d5 f2 3d be 62 33 3d
       0.06604565 0.07741131 0.11857147 0.04379534
000390 17 94 87 3d a2 32 c7 3e 01 51 8c 3f 4f 4b 2b 3d
       0.06620043 0.38905817 1.096222 0.041819867
0003a0 a3 d2 a6 3d c2 df 57 bc 7b 2e 49 3d c4 f7 fd bc
       0.081456445 -0.013175907 0.049116593 -0.031001933
0003b0 16 5a 88 bc 81 f6 26 be 39 3e a5 3e 2f 34 29 3e
       -0.016644519 -0.16304971 0.32274035 0.16523813
0003c0 d9 b1 08 be ef 44 87 3d 46 76 30 3d 18 ec 8a 3d
       -0.13349093 0.06604945 0.043081544 0.067833126
0003d0 28 1a f8 3c 46 35 94 3d f2 57 50 bd 1b 06 da bc
       0.03028591 0.072367236 -0.05086512 -0.02661424
0003e0 e8 0c 6e 3d ff 12 94 3d 09 5e 06 bc 01 30 46 bd
       0.058117777 0.07230186 -0.008201131 -0.048385624
0003f0 87 28 09 3d 6f c9 f7 bb 34 a8 9b 3d 62 7e 53 3d
       0.033485916 -0.0075618546 0.076004416 0.0516342

bias f4 [256]
000000 36 e9 ba bf 8c 9c a6 3e 44 d9 cd bd ab d0 a9 3e
       -1.460242 0.3254131 -0.10051206 0.33167014
000010 d1 0d b8 bd 3b dd 15 3b 5d 0c 5f be f0 97 87 3c
       -0.0898701 0.002286746 -0.2178206 0.016551942
000020 f5 26 e3 be e6 2d 0b be 18 fd 1b bd 0a 7f f3 bf
       -0.4436566 -0.13591728 -0.038083166 -1.9023144
000030 1b b7 7c be 69 13 21 bf 4c f4 d8 bd bc 51 9a bd
       -0.24679224 -0.6292024 -0.10593471 -0.07535121
000040 cf bc d9 bc 91 67 f6 bd 47 fd 5d 3d fb 40 88 bd
       -0.026579289 -0.120314725 0.054196622 -0.06653019
000050 0b d1 21 c0 a6 eb d8 bf 8b 2c db bc c2 7d 51 bb
       -2.528384 -1.6946914 -0.026754638 -0.0031965827
000060 ef 6b e0 bc 61 98 b3 bc 40 0b e9 bd 8e 10 4b bf
       -0.027395217 -0.021923246 -0.11379099 -0.79322135
000070 c9 2a cb 3d 83 fa 20 bf 02 5e cd 3e a2 6a 95 bd
       0.0992027 -0.6288225 0.40110785 -0.07295729
000080 f7 39 c4 bc 7a 51 e7 bd 6e c3 05 bd d3 a7 8a bd
       -0.023953421 -0.11294837 -0.03265708 -0.06770291
000090 40 33 07 c0 a7 07 e4 bd d2 6e d1 bd a3 f2 37 be
       -2.112503 -0.11134272 -0.102262154 -0.17963652
0000a0 dd e3 1e 3d 25 8a ee bd a3 3d 27 3d 2f a0 9f 3b
       0.038791526 -0.11647443 0.040830266 0.0048713903
0000b0 2c 47 4b 3d 49 bb 87 3d 64 68 c0 bf f9 d3 db bd
       0.04962842 0.06627519 -1.5031857 -0.1073379
0000c0 09 df be bc 69 49 72 bd c6 83 d0 ba f8 64 f2 bf
       -0.02329971 -0.05915204 -0.0015908412 -1.8937063
0000d0 b3 88 f6 bd 7e f5 42 be 25 38 91 bd d9 9c 85 bf
       -0.12037792 -0.1903896 -0.07090787 -1.0438491
0000e0 a7 1d 28 be c2 b3 64 bd 69 a0 23 3f fe 3b 30 bd
       -0.16417561 -0.055835493 0.6391664 -0.043025963
0000f0 c2 a2 74 3f 62 7c cc bd 12 79 89 bd 09 41 31 bd
       0.9556085 -0.09984662 -0.067125455 -0.043274913
000100 ae 10 85 bd 58 44 73 bd 42 cd 05 3f e9 67 68 3d
       -0.06497322 -0.05939135 0.52266324 0.05673972
000110 29 38 16 3d 11 49 34 bd 75 7f 84 3e 85 fa e3 bc
       0.036674652 -0.044014994 0.25878492 -0.027829418
000120 5f 58 63 bf f0 59 1b bd 29 83 cc 3f 1c 2b d3 3c
       -0.8880672 -0.037927568 1.5977527 0.025777392
000130 0e 7c 45 3d 73 9c 2f bd b4 a0 2b 3c 60 c2 ca be
       0.04821401 -0.04287381 0.010475326 -0.3960142
000140 d7 99 02 3d 1d 35 c3 bd 50 0f 6b be 36 9a 74 bd
       0.031884994 -0.09531615 -0.2295506 -0.05971738
000150 75 6a 10 bc 0c ef 6d bf 8c 50 44 bd 25 8f c0 bd
       -0.008814444 -0.9294288 -0.047928378 -0.09402303
000160 ef 78 93 bd 9f 25 63 3c 86 35 8a bd 1b 58 98 3c
       -0.072008006 0.01386395 -0.0674849 0.0185967
000170 60 d8 d0 bd 0e 04 e4 bf c3 6f b1 3b 44 95 b6 bc
       -0.1019752 -1.7813737 0.0054149344 -0.022287972
000180 fd 37 bf 3b 55 3f f0 bd 0f b2 17 be 65 f7 9a bf
       0.0058355317 -0.117308296 -0.14814018 -1.2106749
000190 a7 f3 ed bd 40 68 5a bd 66 33 87 bd be 8a f9 bd
       -0.116187386 -0.053322077 -0.066016 -0.12184666
0001a0 3e 22 7f bf 6c 0d f1 bf d6 75 3c bc e6 09 3d 3d
       -0.99661624 -1.8832221 -0.011502704 0.046152018
0001b0 bc 04 13 bc 99 3a 1c 3e 41 33 81 bd ba 39 e6 bd
       -0.008973297 0.15256728 -0.06308604 -0.11241479
0001c0 64 3b 93 bd b7 e7 d9 bd 75 8e 8b bd 01 31 6f bd
       -0.07189062 -0.10639899 -0.06814281 -0.058396343
0001d0 eb 06 b9 bc b9 7a f5 3c 7c c5 b7 bd 91 94 81 bd
       -0.022586307 0.029965745 -0.08973214 -0.06327165
0001e0 39 90 8f bd 6f ef 04 be 91 19 b6 bd a3 21 b0 bc
       -0.0700993 -0.12981962 -0.08891595 -0.021500414
0001f0 6e 01 cf bd de 48 04 bf 9b 09 91 bd 67 5c 1c bb
       -0.101076946 -0.51673687 -0.0708191 -0.0023858787
000200 f5 85 00 bd 01 c8 f3 bf 26 9c a2 be 43 0d e9 bd
       -0.03137775 -1.9045411 -0.31759757 -0.113794826
000210 cc 3b ae bd b8 16 c4 bf ee 7f 29 bd 31 b8 9d bf
       -0.08507499 -1.5319433 -0.04138177 -1.2321836
000220 9d 0a 8c bd ce 1d b0 bd b4 b5 bc bd 60 bd b4 bf
       -0.06837962 -0.08599435 -0.092143446 -1.4120293
000230 48 83 4d bd 60 ce c2 bd bd 69 0b be 54 e6 06 be
       -0.050174028 -0.09512019 -0.13614555 -0.131738
000240 13 a9 9e bd 76 40 1d bf 4e 6c 06 be f9 8b 5c be
       -0.07747092 -0.61426485 -0.13127252 -0.2153777
000250 bb 0c ee be 53 80 b8 bc ca 95 8a 3e 87 a0 d8 bf
       -0.46494088 -0.022522127 0.27067405 -1.6923989
000260 14 00 15 3d 8f d3 71 be 8b 32 d7 3f 94 66 0d bf
       0.036377028 -0.2361586 1.68123 -0.55234647
000270 5e 2d b1 bd cf bf f5 bd d2 60 de 3f bc 15 15 bd
       -0.08651231 -0.11999475 1.7373297 -0.03639768
000280 f4 b0 a8 bd 67 00 4b bd 1e 1d 57 bd 15 e5 59 bc
       -0.08236876 -0.04956093 -0.052518003 -0.013299246
000290 ae bd 9a bf d9 63 0a be 17 14 cd bd 5b 1e 97 bd
       -1.2089136 -0.13514651 -0.100135975 -0.07378837
0002a0 37 a6 0a be b5 69 13 3d 1c 7e 00 3d e8 7f cd be
       -0.13539968 0.035989482 0.031370267 -0.40136647
0002b0 c8 1e 8f bd 0d 96 47 bf a1 b5 89 bd 12 3b 34 bd
       -0.06988293 -0.77963334 -0.06724096 -0.044001646
0002c0 b9 c5 b0 bd 28 2c 74 3d 6b a3 00 3d 9c 1c 9b 3e
       -0.086314626 0.059612423 0.031405848 0.30295265
0002d0 ca a0 98 bd 5e 98 0a be 63 fb 8c bf 5f 08 dd be
       -0.07452543 -0.13534686 -1.1014217 -0.4317045
0002e0 4a c7 4e bd c3 3f ae bd f4 e0 cc bd 06 fe bf bd
       -0.050483026 -0.08508255 -0.10003844 -0.09374623
0002f0 55 af 26 bd 33 e2 7b 3b 81 de 31 bf cd 72 93 3f
       -0.040694553 0.0038434386 -0.6948014 1.151941
000300 8a 7c e3 bc 2e ac 07 be 6d 42 8e bf fc b7 45 be
       -0.027769346 -0.13249275 -1.1114022 -0.19308466
000310 88 84 00 bf b6 08 6c bd 09 8d 13 bd 7b 30 96 bd
       -0.50202227 -0.057625495 -0.036023173 -0.07333466
000320 4f b1 4a be 07 96 59 bd bb c0 f8 bf ab 1c 7a bd
       -0.197942 -0.053121593 -1.9433817 -0.061062496
000330 21 d3 65 3d 6f 44 8d bd 0f db b2 bd 4e 44 50 bd
       0.05610955 -0.06897818 -0.08733188 -0.05084639
000340 c4 b4 10 bf ff 86 d8 3c 79 12 5d bf 13 46 bb be
       -0.56525826 0.026431559 -0.8635631 -0.365769
000350 c2 1c 7f bf 7e 76 dc bf 80 22 df bf 1b ae 1c c0
       -0.99653256 -1.7223661 -1.7432404 -2.4481266
000360 5e 17 04 be f2 b0 23 bd 16 e0 e3 bd bc d3 61 bd
       -0.12899539 -0.03996367 -0.111267254 -0.055133566
000370 4b 87 01 bd ef 5f 6e 3c 0b 79 99 bd c1 83 b5 bd
       -0.031623166 0.01454924 -0.0749379 -0.08863021
000380 4b e4 74 bc 0b 10 01 be c0 7f 38 bd 4f 89 22 bc
       -0.014947007 -0.12603776 -0.045043707 -0.009920432
000390 8f ad 3a bd 50 5a e4 3d f9 0e 97 bd 04 c3 83 bd
       -0.045575675 0.11150038 -0.07375903 -0.06433681
0003a0 5e fb 29 3f 42 17 1b 3f 98 fa 0c be 96 d8 eb bf
       0.6639918 0.60582364 -0.13767469 -1.8425472
0003b0 07 73 8f be 33 3a 81 3d a8 8f 57 3b 37 a2 83 3f
       -0.28017446 0.06309929 0.0032892022 1.0283879
0003c0 3e 52 b2 bc 8c 37 c7 bd b1 c2 10 bd 79 6c a1 bd
       -0.021767732 -0.097273916 -0.035341922 -0.07882018
0003d0 42 f7 8a 3c 6c e8 37 3c 6f c4 31 3d f5 9f 8e 3e
       0.016963605 0.011224847 0.043400224 0.27856413
0003e0 19 32 7c bd ba 48 1c c0 23 11 91 ba e6 87 97 bd
       -0.061571214 -2.4419389 -0.0011067729 -0.073989674
0003f0 4a d8 22 3d 31 49 a7 bd 5d b6 89 3d 4e b4 98 bd
       0.03975705 -0.08168257 0.06724236 -0.074562654
