saved_models_1/125_9972_model.pt (torch, 701697 bytes, 11 tensors)

FC1.weight f4 [256, 36]
00000000: 6888 2fbd 120c 1e3e 3bab 923e cf17 91bf
00000010: d304 c43f 4336 913f 4253 4fbf bdca 1ac0
00000020: 2a83 ef3f 0f3d 0a40 61a8 3cc0 e929 94be
00000030: 0205 82bf c684 4f3d 1402 3c3f fcf8 dc3e
00000040: 47c0 b5bf a28f 753f 7cbf 1140 8e86 393e
00000050: 2810 ef3f 96e4 ec3e 0bb7 d0bf 3afb a6bd
00000060: d14e 5040 9d36 843f 520f 2cc0 b3b8 b5be
00000070: 7f7e 023f c496 c83e 2d12 d9be 1383 a0be
00000080: 711f 9bc0 ab77 2e3e 703e 003f c076 52c0
00000090: 6044 4fbf f411 16be 21f6 68be 4a96 a1bc
000000a0: 1127 a1bf 41f5 d73d 7f8d 953f 9529 2fbd
000000b0: b2f7 07c0 90e9 d3bc 7424 1240 dd7a 37bf
000000c0: 4ea9 aebf 6fa4 4bbe 95d3 7b3f 547e 31be
000000d0: 2b39 06c0 ef41 e23e 69e6 1640 6032 da3e
000000e0: 0b5c 20bd 4f00 713e 5436 16bf 7782 83bf
000000f0: 5240 d63f 7dfa febe d288 19c0 767a 2a3d
00000100: dc02 36bd 7c19 4d3f c295 973e e3d3 763f
00000110: f4c4 a0c0 af8c 15c0 2cbc 0840 08f3 a4be
00000120: 7f45 a53c df59 b33f 573b 77bf b3ff 8c3f
00000130: acff a0bf 1c88 eb3f 98fc 77c0 b872 d3bf
00000140: 7d29 2e40 124a 12bf d5e6 283f a3bd ad3e
00000150: 3a0f 0abf 2988 743f 75bb aebe bab2 143d
00000160: cd5e 2cbf e0e5 3440 c1fe a5bf 6ab9 833f
00000170: e1af aebf 2dce a03f 5be4 403e 5ada 803f
00000180: 9047 e0bf b038 983f 5dbf 533f c589 a1bf
00000190: b59f 2ebf 7b4f dfbe 9133 243e e50b 6bbe
000001a0: 1b73 f83e fea7 a2bf 4cc8 e2c0 9e27 41c0
000001b0: 1790 f6c0 d697 8d3f e6e5 ee3e 3e61 863e
000001c0: 5f2d 4dbf 0bc0 8bbf dcc6 583d c721 0c40
000001d0: c5b0 52bf e973 a4bd b61a c03f 6e41 3a3f
000001e0: 7a8c 8fbe 0aaf aabf 9961 383f df9a 2e40
000001f0: d9d5 f8bf 61a5 56be be17 573f 81b0 3a3e
00000200: 6d9c 1ebf fcf3 7b3f a12b 893f 1d2d a8be
00000210: 4eea 05c0 62b3 ba3f 6495 4840 60a4 0d3f
00000220: a3c0 b3c0 0c58 0840 9eda 823e da07 cac0
00000230: 5961 f2bf 0919 88bf 5c4a a2bf c1d9 a3c0
00000240: 97e3 56bf 8d89 98bf c300 973e 7226 a5bf
00000250: 93bb 0240 bc96 2fbf cffa 19bf c686 afbf
00000260: a174 7a40 cd26 573f e2ba a5c0 d36f 83bf
00000270: eca9 943f ad98 5abe b9c6 34bf c481 9fbf
00000280: 0d40 0940 7fcc 61be ecad dabf fdd2 d93e
00000290: c4fe 183f a13a e6bf 0784 f63d 763b bc3f
000002a0: d4ed fd3d 7e7f 34c0 dd20 523d 7e13 7c3b
000002b0: acb0 b63e 0343 a43e 89ca 8dbd f7ac 2b3f
000002c0: cb6a 783f 7c9d 4a3f 504b c5c0 2c7e 4ec0
000002d0: d3f9 60c0 4c4e 14be 28b1 ea3e ecbe e33e
000002e0: 88b9 003f 4f29 723f 9669 bbbf 8c8f 33c0
000002f0: 4984 0b40 0636 97bf d33b 0d3f 62a7 eabe
00000300: 20f2 3cbe 2952 8b3f 93ba 72bf ce66 3fc0
00000310: d598 d03f d5f3 6bbf dcd0 9a3e 257c 37bf
00000320: 2898 99bf fec5 04bf 82f4 163f ef1e a43e
00000330: ca44 dfbf 426a 0a3f 8c3e d63f a2b1 953f
00000340: 7be2 533f 8d63 cfc0 3fcd c8c0 77a6 acbf
00000350: 804d 9e3f 933b 10bf 274a 7ac0 d3ab edc0
00000360: e019 44bf 58a7 24bf a53c 6e3d f9e2 0bbf
00000370: 3816 1d3f 5891 91be 5a67 2c3f 8253 97bf
00000380: 17ef c7bd 5422 cb3e 8418 f43e 035c c83f
00000390: 5cfb 31bf 4da8 b4bf a00a 943f 3adc c03f
000003a0: 9ae5 dabf 51ef 54c0 1669 be3f 17f2 0bbe
000003b0: a385 233f f301 03c0 7feb 16bf 5285 c33f
000003c0: 5523 393f 4df8 8abf d27a 8abf ce38 bd3e
000003d0: ef66 dfbd 66d3 6abe 2c3e 933e 2292 7bbf
000003e0: 498a c73f 8740 1cc0 b5f0 e3bb 3493 0bbf
000003f0: ab00 babe a295 94be 880c 20bf 8b45 91bf
-0.042854697 0.15434292 0.28646263 -1.1335391 1.5313972 1.1344684 -0.80986416 -2.4186242
1.8711903 2.1599767 -2.947777 -0.28938225 -1.0157778 0.050663732 0.7344067 0.4315871
-1.4199303 0.9592229 2.2773123 0.18117735 1.8676805 0.46268147 -1.630586 -0.081533864
3.2548106 1.0329167 -2.688435 -0.35492477 0.5097427 0.39177525 -0.4239668 -0.31350002
-4.847588 0.17037837 0.5009527 -3.288498 -0.80963707 -0.14655286 -0.2275014 -0.019724984
-1.2590047 0.10544825 1.1683806 -0.042764265 -2.1244931 -0.025868207 2.283475 -0.7167185
-1.3645418 -0.19886945 0.98369724 -0.17333347 -2.0972393 0.44190928 2.3578131 0.42616558
-0.03915028 0.23535274 -0.5867665 -1.027419 1.6738379 -0.49800482 -2.3989758 0.041620694
-0.04443632 0.8011701 0.29606444 0.96417063 -5.024042 -2.3367116 2.136485 -0.32216668
0.02017474 1.4011801 -0.9657492 1.1015533 -1.2578025 1.8400912 -3.874792 -1.6519384
2.7212822 -0.5714427 0.6597722 0.33933744 -0.53929484 0.95520264 -0.34127393 0.03630326
-0.67332155 2.8265305 -1.296837 1.0290959 -1.3647424 1.256292 0.1883711 1.0066636
-1.7521839 1.18923 0.8271387 -1.2620169 -0.68212444 -0.43615326 0.16035296 -0.22953756
0.48525319 -1.2707517 -7.0869503 -3.018043 -7.705089 1.1061962 0.46659774 0.26246065
-0.80147356 -1.0917982 0.052924022 2.1895616 -0.8230098 -0.080299206 1.5008152 0.7275609
-0.28036863 -1.3334668 0.7202392 2.7282026 -1.9440261 -0.20961525 0.840206 0.18231393
-0.61957437 0.98419166 1.071644 -0.3284692 -2.0924258 1.4585993 3.134118 0.5532894
-5.617265 2.130374 0.25557417 -6.3134584 -1.8935958 -1.063264 -1.2678943 -5.1203313
-0.83941025 -1.1916977 0.2949277 -1.2902358 2.0426986 -0.6858938 -0.6014833 -1.3713005
3.9133685 0.8404358 -5.179063 -1.0268501 1.1614356 -0.21347304 -0.70615727 -1.2461476
2.1445343 -0.22050665 -1.7084327 0.42543784 0.5976374 -1.7986642 0.12036901 1.4705646
0.12398878 -2.8202815 0.051300872 0.0038463767 0.35681665 0.32082376 -0.06923396 0.670608
0.97037953 0.7914655 -6.1654434 -3.226451 -3.515248 -0.14482993 0.45838284 0.444816
0.502831 0.9459428 -1.4641597 -2.8056364 2.179949 -1.1813362 0.5516941 -0.45830828
-0.18451738 1.0884448 -0.9481594 -2.9906497 1.6296641 -0.92168933 0.30237472 -0.71673805
-1.1999559 -0.5186461 0.5896684 0.3205485 -1.7442868 0.54068387 1.6737838 1.1694834
0.82767457 -6.480902 -6.2750545 -1.3488301 1.2367401 -0.56340903 -3.910776 -7.4272246
-0.7660198 -0.64317846 0.058163304 -0.5464321 0.6136203 -0.284312 0.673452 -1.182236
-0.097624 0.39674628 0.47674954 1.565308 -0.6952417 -1.4113861 1.1565742 1.5067208
-1.7101319 -3.3271067 1.487582 -0.13666569 0.6387579 -2.046994 -0.5895309 1.5275061
0.7231954 -1.0857025 -1.0818732 0.369574 -0.10908305 -0.22932205 0.2875837 -0.98269856
1.5589076 -2.4414384 -0.0069561847 -0.5452149 -0.36328635 -0.2902041 -0.6251912 -1.1349348

FC1.bias f4 [256]
00000000: db2a eebe b6b1 84be 571c 9fbf 5a61 113f
00000010: e6fb 873c d40b 893f 38c9 2c3e 9189 9d3e
00000020: ba05 32bf bdc7 a0bf ecc0 273c e5d8 60be
00000030: 6aed 57bf a375 3a3f 32a0 16bf b43e f53d
00000040: 0ee2 d7be c398 f6bf 38e0 943f ce3a 173f
00000050: 0d11 88bd 9cf5 0fbf 2d71 9f3f 9ef5 b7be
00000060: 4a3b a3be f5d7 eb3d 41f4 40bf 13d4 0e3e
00000070: fce5 5cbf 5ec2 06be 0258 49bf ac13 20bf
00000080: ff74 d3bf 268e 39bf 944e e8be 86d4 5f3f
00000090: 710d eebe 67e3 76bf 5590 05bf af51 21be
000000a0: 08fd ffbd fb61 ccbe f2bf de3c 78a2 b6bf
000000b0: 545c 64bd 5b53 fdbd 7d32 91bf f75c abbe
000000c0: 4a35 273f 8a37 febd e2f0 ab3f ff4b 48be
000000d0: 7dd0 6bbf 0d8c 8dbe c103 593e 65a8 a4bf
000000e0: df3e d33d 3c16 3dbf b055 ac3e 3a97 0c3f
000000f0: 4380 57be 7b80 6fbe 18f7 4c3e 83eb 3c3f
00000100: 2b22 0f3e e8b0 83bf 8e73 debe b18e 10be
00000110: 16e2 6cbf 16d3 acbd a42b 75bd 9203 acbe
00000120: 8d03 9a3f e435 2440 0859 e4bd 5ff0 943c
00000130: 3898 1cbf 29b6 233d 62e2 d0be 66ac 6a3f
00000140: b38f 48bf a9a4 69bf 68aa 7d3e 3e54 2a3c
00000150: 09fb bbbe a46f edbd 88cd a3be 585d 5f3f
00000160: d5ac debf 34c2 053f 9d01 fc3c 02fb 8bbe
00000170: 8f13 d7be 3c42 e73f f8dd 2abf 2440 1c3e
00000180: 8673 a6bf c456 63bd 827d f9bf 4c16 e6bf
00000190: 780f a73e ec91 ab3e 8590 55be af55 e7bf
000001a0: 71a4 04be 93a4 133e 1fe5 3cbe 4330 52bd
000001b0: 20cc 7fbd 6d9e 813e 32bc 97be 075a 99bf
000001c0: cd1a a3bd 1953 cd3e b23f 38be f756 d23e
000001d0: 1189 3ebf 8395 d1be e72c efbe f6ab 21be
000001e0: 7a22 5ebf e7f1 98bf bc19 7d3e a653 193f
000001f0: c86b d0bf dcf0 d0be efab 6bbf 838d 59bf
00000200: d04d c73d 4264 be3d 3e8a 793e 9acb 1f3f
00000210: 37f3 c23e 8ce6 dd3d 845a 04bf f48a abbf
00000220: 0e2f 24bf b9cf bbbe 6f86 86be 31f8 27bf
00000230: 78c1 6dbe 82ee ccbd fe20 5bbf 4e36 0c3e
00000240: 6e9f d1be a9b7 7abf 96aa 4fbd 89e6 6d40
00000250: e2f7 59be 8a48 05bd 2b34 983f 4c91 143e
00000260: 31fa 57be 4b31 3bbe 48b0 b13f d9aa 1ebe
00000270: d6c3 bdbe 5043 5e3e 3ba1 433f ce52 353e
00000280: a0c1 e5be 7648 cd3f 7b65 de3f dc59 4b3e
00000290: 0189 5f3e 7bd0 e53d a288 10bf 672f 07bf
000002a0: b9fa 173f 4dcc ca3e 93ee 2bbf 4013 32bf
000002b0: 3d97 963f cd31 08be 4b9b bb3e a058 0abf
000002c0: 0322 4dbf df57 b43d 829f 9abf 6cce b4bf
000002d0: d795 293e cd1a 483d 0fae b8bf 4eef 03bf
000002e0: 8228 8c3f d5da 6b3e ba52 833e 6686 14be
000002f0: 516b 903e 4e15 8bbf beea b4be 9891 14be
00000300: cb80 723f eaa3 ab3e eb5b d83f 6d76 0d3f
00000310: 7009 54be 3237 603d 6b29 703f 9de6 9f3e
00000320: df29 a0bf b7fc a3be 62c4 43bd f97d 90bf
00000330: 8989 0ebe 629d 9f3e fb9f b73f 1793 34be
00000340: f414 b63d 3a52 233f 7ff8 4bbf 2011 3a3f
00000350: 77f9 a3bf b37d 82bf 4ee1 2dbf fcfa b7be
00000360: 12ba bdbe 6d50 8bbf d04d bc3e eca5 4b3f
00000370: 2fbf a2be f061 6b3e b13b 023b 3544 b93f
00000380: e82c 28bf e8b1 10bf 6697 a1bf e3ee 93bf
00000390: e3fe 8cbe b0ea bfbe 6a8a ac3f 2ca3 58bf
000003a0: 7534 09bf ce39 21bf 785a 8ebf 8a62 5e3f
000003b0: e50c 9dbf 7990 fb3e c661 493f 58d5 d7be
000003c0: 3989 39be 8f4e 02bf 4cff ae3d 8a05 d93e
000003d0: 12e1 703f e023 50be 353d 0bbe 5240 3bba
000003e0: cfb6 4a3d afd3 083e 716c 58be b602 c83d
000003f0: 627d d3bd 99a7 ba3f 61be 6dbf 9c5a 43bf
-0.4651707 -0.25916833 -1.2430524 0.5678917 0.016599607 1.0706735 0.16873634 0.30769017
-0.6953999 -1.2560955 0.010238867 -0.21957739 -0.8434664 0.7283575 -0.5883819 0.1197485
-0.42164654 -1.9265369 1.1630926 0.59074104 -0.06643877 -0.56234145 1.2456414 -0.3592958
-0.3188117 0.115158 -0.753727 0.13948087 -0.8628843 -0.13160083 -0.78649914 -0.62530017
-1.6520079 -0.72482526 -0.4537245 0.8743366 -0.4649463 -0.9644074 -0.5217336 -0.15753816
-0.12499434 -0.39918503 0.027191136 -1.4268332 -0.055752113 -0.123694144 -1.1343533 -0.33469364
0.6531569 -0.12412937 1.3432887 -0.1956024 -0.92115 -0.27645913 0.21192838 -1.286389
0.10314726 -0.7386205 0.33659124 0.54918253 -0.21045022 -0.23388855 0.20016134 0.7379686
0.13977878 -1.0288363 -0.43447536 -0.14116932 -0.9253248 -0.08438699 -0.059856072 -0.33596474
1.2032334 2.5657892 -0.11149794 0.018181024 -0.6116977 0.039968643 -0.40797716 0.9166931
-0.7834427 -0.91266876 0.24772036 0.010396061 -0.36714962 -0.115935594 -0.31992745 0.87251806
-1.7396494 0.52249455 0.030762488 -0.2733994 -0.4200711 1.8067088 -0.6674495 0.15258843
-1.3004005 -0.055502668 -1.9491427 -1.7975554 0.3262899 0.33509767 -0.20855911 -1.8073024
-0.12953354 0.14418249 -0.18446778 -0.051315557 -0.06245053 0.25316182 -0.2963577 -1.1980599
-0.07964096 0.4010246 -0.17993048 0.41081974 -0.74427897 -0.4093438 -0.46713945 -0.15788254
-0.8677136 -1.1948823 0.24716848 0.5989326 -1.6282892 -0.4080876 -0.92059225 -0.84981555
0.097316384 0.092964664 0.24369141 0.62420046 0.38076183 0.10834989 -0.51700616 -1.340178
-0.641343 -0.36681917 -0.2627444 -0.65613085 -0.23218334 -0.10006429 -0.8559722 0.1369259
-0.40941948 -0.97936493 -0.050699793 3.7171957 -0.21285966 -0.03253988 1.189092 0.14508551
-0.21091534 -0.18280523 1.3881922 -0.1549486 -0.37063473 0.21705365 0.76417893 0.17707369
-0.44874287 1.6037738 1.7374719 0.19858497 0.21829607 0.11221405 -0.56458485 -0.52806705
0.5936695 0.39608994 -0.6716091 -0.69560623 1.1764904 -0.13300247 0.36641917 -0.5404148
-0.8013002 0.088058226 -1.2079928 -1.4125495 0.16561066 0.048853684 -1.4428118 -0.51537025
1.0949862 0.23032697 0.25649053 -0.14504394 0.28206876 -1.0865877 -0.35335344 -0.14508665
0.9472777 0.33523494 1.6903051 0.5525883 -0.20706725 0.05474014 0.938132 0.3123063
-1.2512778 -0.32028744 -0.047794707 -1.1288444 -0.13919653 0.3117476 1.4345697 -0.17634235
0.08890715 0.6379734 -0.7967605 0.7268238 -1.2810506 -1.019461 -0.6792191 -0.35933673
-0.37056023 -1.0883919 0.36778116 0.7955005 -0.31786487 0.22986579 0.0019872005 1.447394
-0.6569352 -0.56521463 -1.2624328 -1.1557277 -0.27538213 -0.3748374 1.3479741 -0.8462398
-0.5359567 -0.6297883 -1.1121359 0.8686911 -1.226956 0.4913366 0.78664815 -0.42154956
-0.18118753 -0.5090112 0.08544788 0.42387038 0.9409343 -0.20326185 -0.13597567 -0.00071430684
0.049490746 0.13362001 -0.21135117 0.09766142 -0.10326649 1.4582397 -0.9286862 -0.76310134

FC2.weight f4 [256, 256]
00000000: 4113 ea3e bd5f 97bf 516a 99be b43f 2b3e
00000010: ea21 0640 caa1 023e 6f46 3cbf 536b 92c0
00000020: fa38 64c0 37ed 743f 760f 04bc 6543 403f
00000030: c356 3fc0 c44d 043e d901 933f e623 273d
00000040: c825 edbf aba8 1c40 cca4 39c0 c00d 3cbf
00000050: 1240 1f3d d5e0 2c40 d544 10c1 628c c6bf
00000060: 6f14 cd3d 7685 cdc0 8968 6fbf 78a1 4ac0
00000070: 98bc bb3f da4e 2740 7b6c 1b40 ba39 733e
00000080: 1fcc 3ac0 13cd a23e 5f9a 2abf f709 963f
00000090: 7ef8 cdbf 1f79 1040 1c3a 3b3f 0889 2b40
000000a0: a5c5 ecbc d649 713d cadb c4bf 8f77 01bf
000000b0: b5d4 ad3f 1e54 0fbe 23a7 e9bc 590a a9be
000000c0: 4f15 81bf a555 6e3f e048 aabf 58b8 94bc
000000d0: 4e37 e0bf 2eed 37c0 7920 f5bf 7470 26c0
000000e0: 6991 d3be b3dc 9f3f 04c9 3fc0 5e1b c73e
000000f0: e842 b33e 6338 5b3d 500b 903f e586 5d3f
00000100: 50ea 08bf 406a 4e40 4166 523f 3ea4 23bd
00000110: 5cea 50bf 3d4d 94bd 87da 7b3d 0e08 41be
00000120: 418d d53f 7eb0 86bf c812 0c3e 1672 dd3f
00000130: 6b72 79c0 f045 ecbe d647 d1bf 1651 c43f
00000140: 1fa2 3c3f ba73 bfbf 3c6c 023f ba3e 3bbf
00000150: 7501 55bf 2c7e a13f 5d2d abbe cb41 5bbf
00000160: 0b63 2cbf d776 203f fa76 5abc 53e2 ce3f
00000170: 43a7 a43e 8158 9f3d cd56 013f 7e8c cc3e
00000180: 5586 bc3f 0f6c b0bf c4cc 9e3c 4709 9ec0
00000190: 5b58 31bd 7fa7 bbbe 8619 8cbf f5a1 523e
000001a0: f24f 283c 5aa9 563f f37c c83f 406f 13be
000001b0: db35 773d 62bd 6cc0 a533 203f 247f f2be
000001c0: 57d3 2ec0 73ab e0bc aae5 0340 2ec2 2ec0
000001d0: 6257 e43f 5b74 243e 6ef0 20bf c6ba 803e
000001e0: a5aa 413d 1ec6 80c0 0bbf b33d 293a fdbd
000001f0: c2fd e6bf dd59 21bf 80f8 1640 407d 60bf
00000200: 81a1 f43f cb88 823f 3789 b53f a024 7c3f
00000210: 362d cb3f e71c 4fbf a977 19be 729d a53f
00000220: 02e8 24be 2447 74bf ebcb ecbf 993d fc3e
00000230: 3e22 b2bc 06c7 bdbf 00f2 e73f fd36 b83d
00000240: 0077 05c0 eb3d d1be 52c3 d4bc 1874 263f
00000250: 5a80 8dbd 115a 4d40 48eb b43e d32a e4bf
00000260: 680c 23c0 73ae e1be 1b98 fabf d246 15bd
00000270: 0318 8dbf d8ed 5b40 69df c43f 5ca1 fdbf
00000280: f3ac c83f 02a0 cdbe 8a8b 8cbe c98b 363e
00000290: fc65 04c0 0acf c63e 592e ec3e d1cc c63e
000002a0: fb44 9d3f a81d 9fbf 86e6 4140 67ad 08bf
000002b0: dccd 6cbf 31b1 abbf 1424 00c0 9cab 3dc0
000002c0: 4a35 9c3e 29e6 6bc0 64d8 a5be 00ee 063f
000002d0: c868 a13e 8824 283f a392 56bf 48ba f63f
000002e0: 13b4 093f d693 01bf 4133 053f df82 033f
000002f0: 2b7a 283d 3d34 23c0 56f4 0640 9292 353e
00000300: 5726 31be 7c7f 3b3f b5f7 94bf dbdd 333f
00000310: 0400 26bc 9e47 0cbe d9d2 e63e 6cf7 19c0
00000320: f569 213f 6cf7 babf 8875 53bc 9ab9 bec0
00000330: 6c93 093d 2099 01c0 babe f6bf b204 a93e
00000340: 3e73 68be 43bc 9cc0 6bd3 233f 5b49 c0bf
00000350: 344f 12bf 8da9 90bf 2ca7 90bf 5e24 193f
00000360: 8106 dabc 6be3 bbbf 2f40 aac0 818e 16be
00000370: fdaa 09c0 120a 06c0 e4ee c13f b0c9 ec3f
00000380: 19fa 6640 d81d 7ebd dc2b d93e bcca a13f
00000390: 92ad 06c0 4ed3 723e eba0 0ec0 f902 d3bf
000003a0: 423f fb3e 8649 84c0 f341 0a40 4ed6 88bf
000003b0: b450 65c0 5cd4 ec3f 1e60 b9be a5ef 153f
000003c0: 45be 6c3e f027 49c0 9fd0 3b3e d4b5 2c40
000003d0: 1174 c23f b5b2 d93e 0cbc b33e 1581 9c3f
000003e0: 489f 43c0 5c35 8e3f ffba f2be 5635 e8be
000003f0: 8abc 83c0 c3c7 e3bf 879d f7bf fea3 de3e
0.45717815 -1.1826092 -0.29963925 0.1672352 2.09582 0.1275703 -0.73544973 -4.575601
-3.5659776 0.9567446 -0.008060327 0.75102836 -2.9896705 0.1292029 1.1484939 0.04080572
-1.8527155 2.4477947 -2.9006834 -0.7345848 0.03887946 2.7012227 -9.016805 -1.5511591
0.10013663 -6.4225416 -0.93518883 -3.1661053 1.4666929 2.6141877 2.4284961 0.2375249
-2.9187086 0.31797084 -0.666418 1.1721791 -1.6091459 2.2573926 0.7313554 2.6802387
-0.028902838 0.058908306 -1.5379574 -0.50573057 1.3580538 -0.13996932 -0.02852208 -0.33015707
-1.0084628 0.93099433 -1.330349 -0.018154308 -1.7516878 -2.8738513 -1.9150535 -2.6006136
-0.41321877 1.2489227 -2.996644 0.38888067 0.35011983 0.05352057 1.1253452 0.8653396
-0.5348253 3.225235 0.8218728 -0.039951555 -0.81607604 -0.072412945 0.0614877 -0.18850729
1.6683732 -1.0522611 0.1367904 1.7300441 -3.8976085 -0.46147108 -1.6350048 1.5337245
0.7368488 -1.4957192 0.509464 -0.7314259 -0.8320535 1.261663 -0.33433047 -0.8564727
-0.6733863 0.62681335 -0.01333403 1.6162819 0.3215886 0.07780553 0.5052307 0.39950937
1.4728495 -1.3782977 0.01938475 -4.9386325 -0.043297153 -0.36651227 -1.0945289 0.20569594
0.010272967 0.8385216 1.5663131 -0.14397907 0.060354095 -3.699059 0.62578803 -0.47362626
-2.7316492 -0.027425503 2.0608926 -2.7306018 1.7839167 0.16060011 -0.62866867 0.25142497
0.04728188 -4.024184 0.08776673 -0.12364609 -1.8046191 -0.63027745 2.3589172 -0.87691116
1.9111787 1.0197996 1.41825 0.98493385 1.5873172 -0.80903476 -0.14987053 1.2938673
-0.16104129 -0.9542105 -1.8499731 0.49265745 -0.021744844 -1.4826362 1.8120728 0.08994863
-2.0853882 -0.40867552 -0.025972042 0.65020895 -0.06909247 3.2086222 0.35335755 -1.7825569
-2.5476322 -0.44078407 -1.9577669 -0.036444493 -1.1022953 3.4363918 1.5380679 -1.9814868
1.567778 -0.4016114 -0.2745021 0.17826761 -2.0687246 0.38829833 0.4612911 0.38828138
1.2286676 -1.2430925 3.029695 -0.5338959 -0.92501616 -1.341345 -2.002202 -2.9635992
0.30509406 -3.6859229 -0.32391655 0.5270691 0.31525254 0.6568074 -0.838175 1.9275599
0.53790396 -0.50616205 0.5203133 0.5137157 0.041132133 -2.5500634 2.108663 0.17731693
-0.17299782 0.732414 -1.1638094 0.702604 -0.01013184 -0.13699195 0.4508274 -2.4057264
0.630523 -1.4606757 -0.01290644 -5.9601564 0.033587858 -2.024971 -1.9276955 0.33011395
-0.22700211 -4.897981 0.63994473 -1.5022386 -0.57152104 -1.1301743 -1.1301017 0.59821117
-0.02661443 -1.4678777 -5.320335 -0.14702798 -2.1510613 -2.0943646 1.5151029 1.849905
3.6090147 -0.06204018 0.42416275 1.2639995 -2.104344 0.23713419 -2.2285717 -1.6485282
0.490717 -4.133975 2.1602752 -1.0690401 -3.5830507 1.8502307 -0.36206144 0.58568794
0.23119457 -3.1430626 0.18341301 2.698598 1.5191671 0.42519155 0.35104406 1.2226893
-3.0565968 1.1110034 -0.47408292 -0.45353192 -4.116765 -1.7795337 -1.9344949 0.4348449

FC2.bias f4 [256]
00000000: 8aa5 f6be 6831 a3bd d0a8 4abf 89a3 98bb
00000010: 263b 03c0 ff8c b3bf c68b 08bf d27b 39be
00000020: 2e19 0ec0 2c92 b5bf af51 8dbf 7ed6 dbbd
00000030: b32c 0ac0 32d3 81bd a1c9 0cc0 2d09 bebf
00000040: 4c94 1cbf 4364 5dbe 82ce f8bd 1223 f3bf
00000050: dff4 d2bf 1f32 07bf 304e 6f3f 40a6 e2bf
00000060: b662 37bd 3400 34be 524b 523e 8abe 5cbd
00000070: 9516 4cbf 6c2b 29bf 2295 27c0 0faa 8cbf
00000080: e702 dcbf b17f cbbd bfd0 dcbd 9ccb b5bf
00000090: f64c febd 690f f1be 9dd1 1bc0 214c 383f
000000a0: 7efe 56be ecc1 ffbf 11f1 863f 8f2e 26bf
000000b0: 1118 92be f997 efbf 357e c2bf d339 4a3f
000000c0: b6a9 6a3d b6d8 0dc0 9f46 11bf dd24 98bf
000000d0: 9b70 e4be 5959 22bf e890 c2bf 8c18 75be
000000e0: d669 fbbe 2ce6 ddbe e75d 59bf dfe8 7dbe
000000f0: d967 00be 885a 06bd 343c adbf 08d8 49be
00000100: 45b4 3e3f bd79 2fbf 7607 81be ad75 d5be
00000110: c7dd e5be 28d7 6bbe b0b3 99bf 4965 63bf
00000120: dd15 78be 1724 0bbf f3e2 f73d 2ecf be3d
00000130: 9a23 0fc0 13a1 04bf 3c1f 82bf 7802 85bf
00000140: 7275 d1be b428 e9bf 1883 afbd 616c a4be
00000150: ca80 16be 30fa 3ac0 2528 28bf bb4c a0be
00000160: 2b3f 16bf 1caa 863f 1638 b1bf f215 51bf
00000170: a002 22bf c69c 0bc0 decf afbf 9e47 88be
00000180: 6c81 c0bf 142f 96bf d62f cfbf f53d f5bf
00000190: d3b2 80bf 9ea6 4fbf 4302 edbe e247 76bf
000001a0: dea4 8bbf 5924 60bf e328 b33f 2b73 31be
000001b0: d8b7 e9bf c4cb 69bd c042 49be 5e4f 4f3e
000001c0: 7487 d63d edef a63d 20b7 69be 0a97 b2bf
000001d0: 800a 3dbf bda7 82bf ebd0 d6bf b330 8ebf
000001e0: d68f 6fbd be57 94bf 0ee6 b53e 17d4 5abf
000001f0: 9d6f a0bd a482 c5bd becd 4abe 9500 12bf
00000200: 5a44 3cbf 8d28 cbbf 3181 11c0 f0b4 26bd
00000210: 8af5 ddbe ad9e 61bf 8e32 92bf c64a 98bf
00000220: 3d79 03be 50e2 bf3f 12db 0bc0 dd69 d5bd
00000230: 1348 59bf 6deb c1bd d51c ea3e f4cc 2ebf
00000240: e911 2fbf 99e4 3abf a2b8 a6bf b080 1fbf
00000250: 048c 2bbf 581d 2ac0 7bf5 cfbf e92d 25bf
00000260: 159f ce3e 902f 05be 32f4 f23e 6416 59c0
00000270: f253 a3bf 9c31 11c0 06ec f4bd 5211 83be
00000280: 8080 543e 9e76 d93e 07b1 05c0 0a02 953f
00000290: 14ff 70bf b59f 2fbf 5ee5 4ebf 6807 97bf
000002a0: cb80 77bf 2d44 7ebf 1498 d9bf fcd8 b2bf
000002b0: 4fba 97bf e5e0 fdbf 5b85 dfbf 4234 2ec0
000002c0: ee5e 93bf ec8b c2bf 1283 a1bf 0c88 5d3f
000002d0: 9154 43bd b899 9fbf 0ee8 59bf 9908 44bf
000002e0: a8e1 d33f 6faf d1bf 1913 fabf 39c2 a73d
000002f0: 75f3 50be f50e 1ebf 4565 fdbf 3803 fcbf
00000300: 0ef2 cb3e 964f 8bbf 057b 04bf c118 60bd
00000310: a1fd d3be 8a5f 04c0 f848 debe 12e6 05c0
00000320: f04e 10bf 1ff0 73bd c9f6 55be ebe7 f6bf
00000330: 6f93 67bf e583 e73e e156 9cbf 5973 ecbf
00000340: 84e4 a5be cf6f 983f 3f89 82bf d355 82bf
00000350: 65c5 d13e a949 85bf 9d0c 94bf 847f fabf
00000360: 193d 6cc0 4e71 8d3e 012f f5bd c3b6 21c0
00000370: 99d9 d1bf 3def 88bf 0153 a6bf 84ea 27be
00000380: c672 053d d270 783d eebb 8cbf 1b1f c8bf
00000390: 2b18 e2bf 351d 15c0 959d 0dbf c1ec e7bf
000003a0: 6aff 48bf da60 c7be 7d63 123e 7a6c 8ebf
000003b0: 6fe2 f8bf aadd 8abf 91b5 1dc0 92ab b0bf
000003c0: c814 d6bd d525 b3bf 127a cdbf f074 903e
000003d0: 6c9c fabf dd51 1fbf 3597 debd 9f9d a0bf
000003e0: 5c86 04c0 d7cb 09be 0d35 b1bf de44 04bf
000003f0: ae4c 90bd f69d 56be 9004 debd 6096 d1be
-0.4817317 -0.07968408 -0.7916384 -0.004658167 -2.0504851 -1.4027404 -0.5333828 -0.1811364
-2.2202868 -1.4185233 -1.1040553 -0.107342705 -2.1589782 -0.063391104 -2.1998065 -1.484655
-0.61163783 -0.21620278 -0.12148763 -1.8995078 -1.6480979 -0.52810854 0.9347868 -1.7706985
-0.044771872 -0.17578202 0.20536545 -0.05389265 -0.7972196 -0.6608188 -2.6184773 -1.0989398
-1.7188386 -0.099364646 -0.10782003 -1.4202762 -0.12417023 -0.4708207 -2.4346688 0.71991163
-0.20995519 -1.9981055 1.0542318 -0.6491479 -0.28533986 -1.8718253 -1.5194765 0.7899448
0.057290755 -2.216352 -0.56748384 -1.188625 -0.4461716 -0.63417584 -1.5200472 -0.23935145
-0.49104184 -0.4333967 -0.8490891 -0.24795865 -0.12539615 -0.03280118 -1.3533998 -0.19711316
0.7449382 -0.6854513 -0.25201005 -0.41691342 -0.44895765 -0.23031294 -1.2007961 -0.88826424
-0.2422709 -0.54351944 0.12103834 0.0931686 -2.236548 -0.5180828 -1.0165782 -1.0391378
-0.40909916 -1.8215547 -0.08569926 -0.32113937 -0.14697567 -2.9215202 -0.65686256 -0.3130854
-0.58690137 1.0520663 -1.3845241 -0.8167411 -0.63285255 -2.1814437 -1.3735311 -0.2661714
-1.5039496 -1.1733117 -1.6186473 -1.9159533 -1.0054573 -0.8111361 -0.46290788 -0.96203434
-1.0909688 -0.8755546 1.3996853 -0.1732909 -1.825923 -0.05707909 -0.1965437 0.2024512
0.104750544 0.08151231 -0.22823763 -1.3952343 -0.73844147 -1.020744 -1.6782507 -1.1108612
-0.058486782 -1.1589277 0.3552708 -0.85479873 -0.078337885 -0.09644058 -0.19805047 -0.5703214
-0.73541796 -1.587175 -2.2735102 -0.0406999 -0.43351394 -0.88132745 -1.1421678 -1.1897819
-0.12839217 1.499094 -2.185246 -0.104205824 -0.848756 -0.09468732 0.45725122 -0.68281484
-0.68386704 -0.7300506 -1.3025095 -0.62305737 -0.6701052 -2.658041 -1.624679 -0.6452318
0.40355745 -0.13006425 0.4745193 -3.3919916 -1.2759993 -2.268653 -0.119590804 -0.25599152
0.20752144 0.4247331 -2.08893 1.1641247 -0.9413922 -0.6860307 -0.80818737 -1.1799135
-0.966809 -0.9932278 -1.6999536 -1.3972468 -1.1853732 -1.9834257 -1.7462572 -2.7219396
-1.1513345 -1.5198951 -1.2618124 0.86535716 -0.04768807 -1.2468786 -0.8511971 -0.7657562
1.655324 -1.6381663 -1.9537078 0.08191342 -0.20405371 -0.6174157 -1.979653 -1.9688482
0.3983311 -1.0883663 -0.5175021 -0.054711107 -0.4140444 -2.0683312 -0.43415046 -2.0921674
-0.5637045 -0.05955517 -0.20894922 -1.9289526 -0.9045934 0.45217815 -1.2214013 -1.8472701
-0.32400906 1.1909121 -1.0198134 -1.0182441 0.40970913 -1.0413104 -1.1566349 -1.9570165
-3.691229 0.27625507 -0.11971856 -2.52678 -1.639453 -1.069801 -1.2994081 -0.16398054
0.03258016 0.06065447 -1.0994852 -1.5634493 -1.7663625 -2.3299077 -0.55318576 -1.8119127
-0.7851473 -0.3894108 0.14295764 -1.1126854 -1.9444102 -1.0848897 -2.464207 -1.3802359
-0.104531825 -1.399592 -1.6052878 0.28214216 -1.9578986 -0.6223429 -0.10868684 -1.2548102
-2.0707006 -0.13456665 -1.3844315 -0.51667583 -0.070458755 -0.20958695 -0.10840714 -0.4093504

action_out.weight f4 [5, 256]
00000000: f472 b63f e13f 83bd 35a6 3040 41ed 773f
00000010: e62f d5ba c593 4cc0 39cf 89bf f40e 673e
00000020: a975 80be 7abd c7be 3c57 5940 7ef9 0d3f
00000030: fb86 2dbf 853f 23bc 5224 7c3f 8a7b 97be
00000040: 3e76 6040 c7c6 823d a046 d73e 009d c13f
00000050: 8ce6 723e 9ab2 0340 0674 bc3f 3c12 6040
00000060: 7bda 003f 3690 ef3f 1800 0f3f 5a4f 313f
00000070: 35d3 0240 eca9 34be 90ab e43e a0bd ac3f
00000080: 3d56 433f 7739 ed3c 543b b03f 7d6f 5240
00000090: d598 65bd 0064 b73e 521d 9d40 0e3d 1640
000000a0: 4ca4 0840 0b85 3b3e 28c1 c73f 1091 e33f
000000b0: 9a1c 9a3f 64d0 44bf 9821 d43e 7a8f b23f
000000c0: 2194 9c3f 4b5c 4a3f f60b c03f f952 9f3f
000000d0: 2fb8 0940 6e9c 2a40 bda4 ae40 6d61 913e
000000e0: 8baa e53f 31f4 423f d351 9c3f 0ce0 533f
000000f0: 642b ea3f bb2d db3f f74e 8dbf 83d1 bb3f
00000100: 05f2 4040 5cd9 1e3f 34c1 2a40 792b 783f
00000110: d375 e93f acb9 c53f de75 283f 89cc 143e
00000120: a2c1 0d40 231a d83f 241a 12be 6758 be3f
00000130: 3b12 1b40 3aa1 92be 27fa f93e fb11 c73f
00000140: de78 4fbf ecc7 573f 18b4 c93e 3473 7a3f
00000150: 96e9 b23e d119 fabe 3c06 7340 e3ed dd3f
00000160: 978f 9a3e c24b 0940 3900 9b3f 4965 b33f
00000170: d60d 963f 6d70 b63f daba 913f 35b6 843e
00000180: 1d71 0140 cb05 033e 4c32 be3e 9be9 9a3f
00000190: 0654 a8be 904c f03f 66e4 ec3f 45a8 1340
000001a0: cbad a03f 1623 dcbd e491 293f 3b4f 0840
000001b0: 7eab f33e c3ab f43f caee b43e 97a7 a9bd
000001c0: 4645 c8be 08ac 8c3f 488d c53f 35a8 f43f
000001d0: d5c4 fa3f 6dc3 1840 f5cd 49bf 4ed4 a33f
000001e0: e8fc 8f3c c28f c03f f5f5 993f 8817 f53f
000001f0: e53d 823d 2520 0140 e37f c53e c655 4f3f
00000200: f378 8740 bcb9 4c40 85c7 98bf 1fd7 a1bc
00000210: 004c 2440 fc8b 963c 855a 03c0 6da0 0c40
00000220: 1813 b33f 08d6 e13f c5e0 953f 3f8d 843e
00000230: 98ee 923e 541c f23e 5a7f b43f 6e8c eb3f
00000240: 78a5 afc0 62b5 1240 a70b 053e f23c 9a3f
00000250: c062 f73f a8d4 0d40 c085 eb3e 6b1f 19bf
00000260: e00e 2740 e44d be3e 2108 ec3f 853a 933f
00000270: eae4 e83e 8f03 4a40 2092 113f d33a 00bf
00000280: 47ac ea3f 3ee7 da3f c388 1340 e554 943f
00000290: 07cd aa3f 8ff8 07bf a6dd b43f 493e 143f
000002a0: 8da9 9c3d 4d35 2440 eb6a d73d 4997 d33e
000002b0: 206d 9c3f d332 b1bd 8782 903b 7951 15bf
000002c0: 10b7 3340 258f b83f f069 ccbf 2f78 cc3f
000002d0: de0d a1ba 0fd7 1ebf 43a9 9b3e ef1a a03f
000002e0: 9044 0f40 6445 0640 e361 5f3e f71c 0140
000002f0: 8b90 763e ddaf d93f e929 143f a0d2 b43f
00000300: a656 2240 e6ea 33bf 4b6d bc3f 9ec1 8bbc
00000310: 6918 60c0 b0c7 0fbe 0539 0540 196f 9ec0
00000320: b43e dd3f add0 10bd e3d2 123e d8cb 1ebf
00000330: 0f81 20c0 cc71 d33f ed73 3ec0 96cc 1340
00000340: f77d 03be 2009 0640 968c 6c3e 7c87 763f
00000350: 1861 7c3f dd89 0f40 fcdc 2240 f03c ebbf
00000360: 4030 1fbf 6794 173f 9d36 19bd 0db4 09c0
00000370: 800e 00c0 6442 1fbf a585 433f 1dac 503e
00000380: 0a64 bdbc 46c6 94bf 045d 3fbe d575 753f
00000390: 48c8 b5bf f4e3 3c3f a9e5 cc3f 3926 ed3f
000003a0: 4d9a 9e3f 0454 cd3f 0eb0 b53f 47a9 0640
000003b0: 5891 f33f 03b0 c53f 9a76 d9bf 6a2d 573f
000003c0: 79e4 0e3d 531a d33f 034b f6bf 5c32 0640
000003d0: ea27 2dc0 e792 c13e 4917 953e 7de6 0240
000003e0: 663f 583f ab08 6f3d c252 1940 3bff 0540
000003f0: 4a0a 1e3f 74ea be3d ca8b c83f 9d7d c93f
1.4253831 -0.06408668 2.7601445 0.96846396 -0.0016264885 -3.1965191 -1.0766364 0.22564298
-0.25089768 -0.39011747 3.3959494 0.5545882 -0.6778409 -0.009963875 0.9849292 -0.2958644
3.507217 0.0638557 0.4204607 1.5126038 0.23720759 2.057776 1.4722908 3.501113
0.50333375 1.8715885 0.5585952 0.69261706 2.044141 -0.17642945 0.44662142 1.3495369
0.76303464 0.028958065 1.3768106 3.2880547 -0.056053955 0.3581848 4.909829 2.3474765
2.135028 0.1831247 1.5605822 1.7778645 1.2039979 -0.7688048 0.4143188 1.3950036
1.2232705 0.7904708 1.500365 1.2447196 2.1518667 2.6657977 5.4576097 0.28394642
1.794267 0.76153857 1.2212471 0.82763743 1.8294492 1.7123331 -1.1039723 1.4673313
3.0147717 0.62050414 2.6680422 0.96941334 1.8239082 1.5447288 0.6580485 0.14531149
2.2149434 1.6882976 -0.14267784 1.4870728 2.4229877 -0.2863863 0.48823664 1.5552362
-0.81043804 0.8428943 0.39395213 0.97832036 0.34943837 -0.4884782 3.7972555 1.7338222
0.30187675 2.145249 1.2109443 1.4015285 1.1722972 1.425306 1.1385148 0.25920263
2.022529 0.12795179 0.37147748 1.2102541 -0.32876605 1.8773365 1.8507202 2.3071454
1.2553037 -0.107488796 0.66238236 2.1298358 0.47591776 1.9114918 0.35338432 -0.08283918
-0.3911535 1.099 1.5433741 1.9113833 1.9591318 2.3869278 -0.7882989 1.2799165
0.01757665 1.5043871 1.2028185 1.9147806 0.06359462 2.017587 0.38574132 0.80990255
4.2335143 3.1988363 -1.1935889 -0.019755898 2.5671387 0.018377297 -2.0523999 2.1972916
1.3990202 1.7643442 1.1709219 0.25889012 0.28697658 0.47287238 1.4101365 1.8402231
-5.488949 2.2923207 0.12992726 1.2049849 1.9327011 2.2161045 0.4600048 -0.59813565
2.610283 0.371688 1.8439981 1.1502234 0.45487148 3.1564672 0.56863594 -0.5008976
1.8333825 1.710182 2.3052223 1.1588408 1.3343819 -0.53113645 1.4130142 0.5790754
0.07649527 2.5657532 0.1051844 0.4132636 1.2220802 -0.08652272 0.0044100913 -0.5832744
2.8080482 1.4418684 -1.596983 1.5974177 -0.0012287458 -0.62046903 0.30402574 1.250822
2.2385597 2.0979853 0.21814685 2.0173929 0.24078576 1.7006794 0.5787645 1.4126778
2.5365386 -0.702803 1.4720854 -0.017060097 -3.5014899 -0.14041018 2.0816052 -4.9510617
1.728476 -0.03535526 0.1433826 -0.6202979 -2.507877 1.6519103 -2.9758255 2.309362
-0.1284102 2.094307 0.23100504 0.9630048 0.98585653 2.2427895 2.5447378 -1.8377972
-0.62183 0.5921082 -0.0374056 -2.1516144 -2.000885 -0.6221068 0.763758 0.20378156
-0.023118991 -1.1623008 -0.18687826 0.9588292 -1.4201746 0.7378533 1.6007587 1.852729
1.2390839 1.6041265 1.4194353 2.1040819 1.902873 1.544434 -1.6989319 0.8405367
0.034885857 1.6492409 -1.9241642 2.0968237 -2.7055612 0.3780739 0.29119328 2.045318
0.8447174 0.058357876 2.3956761 2.093703 0.6173445 0.09322062 1.566766 1.5741459

action_out.bias f4 [5]
00000000: bfde 3940 d12a dcbf a426 b040 0caa 5d3f
00000010: f2f0 2f3e
2.9042203 -1.7200567 5.504717 0.86587596 0.17181757

weight f4 [256, 123]
00000000: 0bac 40c1 44cd 94be 528d e1bd 248d 95be
00000010: c878 fdbd cfab a1be 99d7 93be cb39 fdbc
00000020: 2ebe bf3f 87cb 913d 8a32 583d 6dea 7c3d
00000030: f9d4 233e e9f3 fabc 12db 28be 0875 edbf
00000040: d1c3 fbbe fb1d 87bf 7e8b 5ebf 48c9 9bbe
00000050: 0255 3fbe 48bc 84bf 6690 cd3d 52ff 6a3f
00000060: 0b50 7fbf f4e3 a0bf 02fd 61bc 02d8 bfbf
00000070: 3a54 1b3d 30c4 52be 1fe1 7abd fdaf 98be
00000080: da9f c3bf 504e 6dbc d884 d5bc 6837 1fbf
00000090: 35a8 41c1 e42d 253e 9f00 ef3d 2ddc ddbe
000000a0: 7b08 adbc a1d9 b3be 852b a4be e0b8 973f
000000b0: 2d23 2d3e 3ab6 683f 0583 6c3f 6db8 7b3d
000000c0: 79ce 163e a981 dfbb 4c8a 65be 1401 bfbf
000000d0: e46f f83f 4c43 eb3c a5ee 823d d884 d3be
000000e0: 84da 1ebe e9bb 7bbf 6cc9 823e f82e ef3f
000000f0: bea4 b7bf 9bcb f83d 8cca c83e f066 b4bf
00000100: 9740 7abe 174e 0a3d 183b 9cbe 3625 84be
00000110: 16e1 5dbd e437 c2bf 6115 9d3d a716 cd3f
00000120: 1b54 40c1 861f 99be e9a5 1cbd 445d a1be
00000130: 2beb ebbc 22bb c2be 8d06 ccbe d29b 8e3f
00000140: 6e4c 08bf 164b a03f fbe4 1a3e a0b4 0f3e
00000150: 3fec 053e bedb 0abd 5e67 8ebe 431b b2bf
00000160: 3f86 973e e9cb 093d 826f 08bf 293b a3be
00000170: 4a27 08bd dc8c 81bf e5eb 733e 48e0 5340
00000180: e611 10c0 6090 d5bc 065b 1f3d 289b b2bf
00000190: be9c cebd d29a 49bd 5db6 99be 111b 35be
000001a0: e0b4 f1bb 70ce f6bb f075 babf f7fd 05c1
000001b0: f94b a03e 4e2c d53e de5b c7be e379 c43e
000001c0: 6d76 19bf ba9f 1d3e b2e5 a1bd 29d2 a13e
000001d0: 47ef 44bd 31b2 973d 9417 66bd ac19 68bc
000001e0: f114 4c3d 6040 933d 7e97 17bd b728 1e40
000001f0: 3a5f 24bf 190d e53e 3c05 09bf cbbf d33e
00000200: f953 43bf 0421 5e3f b4e0 0940 c2bb debf
00000210: 1eb1 a5bd 30fa 153c 72f1 753e 46d5 203e
00000220: aa8b 62c0 7384 8a3e 17b5 e03f 5636 09be
00000230: 8624 803e 9876 633d babb 6ebf 2676 053f
00000240: 68cf 34bf 3e4c 863e a4dd bbbf bdfc 8fbf
00000250: a5a0 8d3e 1ea7 c4bd f514 d1be e58e 51be
00000260: bd10 29bd 25e2 fe3d c193 dcbd 43d8 d9be
00000270: b27f 7d3d 9500 813d d659 df3f 5b9b 2140
00000280: d521 a73e b4e8 8f3d 66a1 09bf ad27 bc3e
00000290: 4104 45bf 665d 423f de2f 933d 77ff 33bf
000002a0: 0fb1 a0be e6d6 f93c b3d9 c83e aeab d63d
000002b0: 68ad 65c0 1330 8c3e e97d a640 14db c0bf
000002c0: f0d1 b23b ad15 0abd f6a9 5ebf 35e3 083f
000002d0: ea33 1bbf f0f2 f13d f501 a8bf 213a d0bf
000002e0: 9714 eb3d 483f 483d adcd e2be 69cf f0bd
000002f0: 17eb 61bd 00d9 a0bc 580b aa3b c52d b43d
00000300: 3511 f8be c29f 2e3d e1a3 2b40 9fb2 1f40
00000310: 7fb6 83bf 95cb 143f 84af 2ebf b345 c03e
00000320: fdf6 56bf 561b 633f a95e 62be d5d6 7d3c
00000330: a3dd bebe a952 82bc 71c1 aa3e 4a48 553d
00000340: 78ec 65c0 9bc5 843e 0df8 4e3f a91c a3be
00000350: 35f1 47be d90c 1cbe 336c 7cbf 5ace 0c3f
00000360: e8ec 0dbf 6e27 893e 5f1a 4dc0 15d5 86c0
00000370: 0030 d23a 354a 9c3d 8f3e d9be 0c4d 54bd
00000380: 4d2e 15be 5199 96bd b4b6 44be be62 333d
00000390: 1794 873d 37f1 eebe 2f85 953f 167e 6c3c
000003a0: 5669 6b3d a022 653d fdc3 64be 5134 47bd
000003b0: de0d 583d 3a80 d7bd 7326 fbbc fe81 6d3e
000003c0: 19af 86bc 4563 403d f38f 6c3e 2aa2 0dbe
000003d0: 2fe3 07be 3f22 0ebe f257 50bd 1b06 dabc
000003e0: e80c 6e3d ff12 943d 095e 06bc 0130 46bd
000003f0: 8728 093d 6fc9 f7bb 34a8 9b3d 627e 533d
-12.042003 -0.29062855 -0.11013283 -0.29209244 -0.12376553 -0.31576392 -0.28875425 -0.030911347
1.4979913 0.07118898 0.052782573 0.061747003 0.15999211 -0.030633884 -0.16489819 -1.855134
-0.49172834 -1.0556024 -0.869316 -0.30427003 -0.18684772 -1.0369959 0.100373074 0.9179584
-0.9973151 -1.2569566 -0.013793232 -1.4987795 0.03792212 -0.20582652 -0.06124985 -0.29821768
-1.5283158 -0.014484003 -0.026064321 -0.6219392 -12.103566 0.16130787 0.1167004 -0.43332043
-0.021122208 -0.35126975 -0.32064453 1.1853294 0.1690795 0.90903056 0.9238742 0.06145518
0.147272 -0.0068208766 -0.22416037 -1.4922204 1.9409146 0.028718613 0.06393174 -0.4131229
-0.15513045 -0.98333603 0.25544298 1.8686209 -1.434715 0.1214821 0.3921703 -1.4093914
-0.24438702 0.03376588 -0.30513835 -0.2580964 -0.054169737 -1.5173306 0.07670093 1.6022538
-12.020534 -0.29906863 -0.03824416 -0.3151647 -0.02879866 -0.38033396 -0.39848748 1.1141303
-0.5324162 1.2522914 0.15126412 0.14033747 0.13078402 -0.03390097 -0.27813238 -1.391457
0.2959461 0.03364173 -0.5329515 -0.31881073 -0.033240594 -1.0121112 0.23820455 3.310564
-2.2510924 -0.02606982 0.038905166 -1.39536 -0.1008849 -0.049219914 -0.30021945 -0.17686106
-0.0073762983 -0.0075319335 -1.4567242 -8.374503 0.31307963 0.41635364 -0.38937277 0.38374242
-0.5994633 0.15392962 -0.07905139 0.31605652 -0.048079755 0.07407034 -0.05617483 -0.014166277
0.04982466 0.07190013 -0.03700971 2.471235 -0.64207804 0.44736555 -0.5352361 0.41357264
-0.7630001 0.8676913 2.1543398 -1.7401049 -0.08090423 0.009153888 0.24017885 0.15706357
-3.5397744 0.27054176 1.7555264 -0.13399634 0.25027865 0.05553302 -0.932552 0.52133405
-0.70628977 0.26230043 -1.4677014 -1.1249005 0.27661625 -0.096021876 -0.408363 -0.20464666
-0.04127573 0.124454774 -0.10770369 -0.42547807 0.061889358 0.06298939 1.7449291 2.5251071
0.32643 0.070268065 -0.537619 0.3674902 -0.76959616 0.75923765 0.07186864 -0.70311683
-0.31385085 0.03049798 0.3922859 0.10481964 -3.5887089 0.27380428 5.20287 -1.5066857
0.0054571554 -0.033712078 -0.8697809 0.5347169 -0.6062609 0.11813915 -1.3125597 -1.626774
0.114785366 0.048888475 -0.44297543 -0.1175831 -0.05515584 -0.019634724 0.0051893406 0.08797792
-0.48450628 0.042632826 2.6818774 2.4952772 -1.0290068 0.5812314 -0.68236566 0.37553176
-0.83970624 0.88713586 -0.22106422 0.0154931145 -0.3727847 -0.015908556 0.3335071 0.052070893
-3.592558 0.2593201 0.80847245 -0.31857803 -0.19525607 -0.15239276 -0.986026 0.5500237
-0.55439615 0.26787895 -3.2047346 -4.213511 0.0016036034 0.07631341 -0.4243054 -0.05183129
-0.14568444 -0.073534615 -0.1921032 0.04379534 0.06620043 -0.46668407 1.168127 0.014434358
0.057473503 0.055941224 -0.22340389 -0.048633877 0.0527476 -0.10522504 -0.030657982 0.2319412
-0.016440915 0.04696967 0.23101787 -0.13831392 -0.13270257 -0.13880251 -0.05086512 -0.02661424
0.058117777 0.07230186 -0.008201131 -0.048385624 0.033485916 -0.0075618546 0.076004416 0.0516342

bias f4 [256]
00000000: 36e9 babf ebc3 07bf 44d9 cdbd b8ee d03d
00000010: fb04 6ebd 3bdd 153b 5d0c 5fbe f097 873c
00000020: f526 e3be e62d 0bbe 18fd 1bbd 9853 c4bf
00000030: 1bb7 7cbe 6913 21bf 4cf4 d8bd bc51 9abd
00000040: cfbc d9bc 9167 f6bd 47fd 5d3d fb40 88bd
00000050: 1c01 0ec0 6154 c8bf c2b4 eabc c27d 51bb
00000060: ef6b e0bc 6198 b3bc cf95 a9bd 83d1 a7be
00000070: cabc b9bc 83fa 20bf 13a3 8f3e a26a 95bd
00000080: f739 c4bc 7a51 e7bd 6ec3 05bd d3a7 8abd
00000090: 1ac5 06c0 a707 e4bd d26e d1bd a3f2 37be
000000a0: dde3 1e3d 258a eebd a33d 273d 2fa0 9f3b
000000b0: d092 633f 49bb 873d 2e14 60bf f9d3 dbbd
000000c0: 09df bebc 6949 72bd 4152 f03c ad1f bbbf
000000d0: b388 f6bd 7ef5 42be 2538 91bd d99c 85bf
000000e0: a71d 28be c2b3 64bd eae8 f73d fe3b 30bd
000000f0: f6ed 883f 627c ccbd 1279 89bd 0941 31bd
00000100: ae10 85bd 5844 73bd 0087 203f 5271 c6be
00000110: 2938 163d 1149 34bd 757f 843e 85fa e3bc
00000120: 8829 45bf f059 1bbd 1ed1 ee3f 1c2b d33c
00000130: 0e7c 453d e9e7 d5be b4a0 2b3c 60c2 cabe
00000140: d799 023d 1d35 c3bd 500f 6bbe 369a 74bd
00000150: 756a 10bc 0cef 6dbf 8c50 44bd 258f c0bd
00000160: ef78 93bd 9f25 633c b0f0 ab3e 1b58 983c
00000170: 60d8 d0bd f6ee d2bf c36f b13b 4495 b6bc
00000180: fd37 bf3b 553f f0bd 0fb2 17be f8d7 a3bf
00000190: a7f3 edbd 4068 5abd 6633 87bd be8a f9bd
000001a0: 3e22 7fbf 95cd e8bf d675 3cbc e609 3d3d
000001b0: bc04 13bc ff41 a53b 4133 81bd ba39 e6bd
000001c0: 643b 93bd b7e7 d9bd 758e 8bbd 0131 6fbd
000001d0: eb06 b9bc b97a f53c 7cc5 b7bd 9194 81bd
000001e0: 3990 8fbd 6fef 04be 9119 b6bd a321 b0bc
000001f0: 6e01 cfbd de48 04bf 9b09 91bd 675c 1cbb
00000200: f585 00bd 5933 d9bf 3905 723d 430d e9bd
00000210: cc3b aebd b816 c4bf ee7f 29bd 31b8 9dbf
00000220: 10d0 1dbd ce1d b0bd b4b5 bcbd 6410 9bbf
00000230: 4883 4dbd 60ce c2bd bd69 0bbe 54e6 06be
00000240: 13a9 9ebd 7640 1dbf 4e6c 06be f98b 5cbe
00000250: bb0c eebe 5380 b8bc efe8 973e e88f b7bf
00000260: ef6e b23d 8fd3 71be 26f4 cd3f 37b3 4abf
00000270: 5e2d b1bd cfbf f5bd 90f4 e63f bc15 15bd
00000280: f4b0 a8bd 6700 4bbd 1e1d 57bd 9571 17bc
00000290: f953 6dbf d963 0abe 1714 cdbd 5b1e 97bd
000002a0: 37a6 0abe b569 133d 1c7e 003d abbd 48be
000002b0: c81e 8fbd 0d96 47bf a1b5 89bd f91f dcbd
000002c0: b9c5 b0bd 282c 743d 6ba3 003d aacb ed3d
000002d0: caa0 98bd 5e98 0abe 63fb 8cbf 5f08 ddbe
000002e0: 4ac7 4ebd c33f aebd 20df 39be 06fe bfbd
000002f0: 55af 26bd 33e2 7b3b 2377 513e b7f9 2a3f
00000300: 8a7c e3bc 2eac 07be 621d 09bf fcb7 45be
00000310: 8884 00bf b608 6cbd 74b0 09bc 7b30 96bd
00000320: f6cd e3be 0796 59bd a428 c5bf ab1c 7abd
00000330: 21d3 653d 6f44 8dbd 0fdb b2bd 4e44 50bd
00000340: c4b4 10bf ff86 d83c 7912 5dbf 92b4 3bbe
00000350: c21c 7fbf 06e1 bdbf b68b b0bf 6daf 1ac0
00000360: 5e17 04be f2b0 23bd 16e0 e3bd bcd3 61bd
00000370: 4b87 01bd ef5f 6e3c 0b79 99bd c183 b5bd
00000380: 4be4 74bc 0b10 01be c07f 38bd 4f89 22bc
00000390: 8fad 3abd 9a6e 193e f90e 97bd 04c3 83bd
000003a0: 38b5 0c3f 6859 cc3e 98fa 0cbe b405 cabf
000003b0: 0773 8fbe 333a 813d a88f 573b 3282 593f
000003c0: 3e52 b2bc 8c37 c7bd b1c2 10bd 796c a1bd
000003d0: 42f7 8a3c 6ce8 373c c455 653d f59f 8e3e
000003e0: 1932 7cbd f93e 0cc0 2311 91ba e687 97bd
000003f0: 4ad8 223d 3149 a7bd 8b3b 8a3d 4eb4 98bd
-1.460242 -0.5303332 -0.10051206 0.10201782 -0.05811022 0.002286746 -0.2178206 0.016551942
-0.4436566 -0.13591728 -0.038083166 -1.5338011 -0.24679224 -0.6292024 -0.10593471 -0.07535121
-0.026579289 -0.120314725 0.054196622 -0.06653019 -2.2188177 -1.565075 -0.028650645 -0.0031965827
-0.027395217 -0.021923246 -0.08280527 -0.32777032 -0.02267303 -0.6288225 0.28054103 -0.07295729
-0.023953421 -0.11294837 -0.03265708 -0.06770291 -2.1057801 -0.11134272 -0.102262154 -0.17963652
0.038791526 -0.11647443 0.040830266 0.0048713903 0.88895893 0.06627519 -0.8753079 -0.1073379
-0.02329971 -0.05915204 0.029336097 -1.4619042 -0.12037792 -0.1903896 -0.07090787 -1.0438491
-0.16417561 -0.055835493 0.12104972 -0.043025963 1.069762 -0.09984662 -0.067125455 -0.043274913
-0.06497322 -0.05939135 0.62705994 -0.38758332 0.036674652 -0.044014994 0.25878492 -0.027829418
-0.77016497 -0.037927568 1.8657568 0.025777392 0.04821401 -0.41778496 0.010475326 -0.3960142
0.031884994 -0.09531615 -0.2295506 -0.05971738 -0.008814444 -0.9294288 -0.047928378 -0.09402303
-0.072008006 0.01386395 0.33582067 0.0185967 -0.1019752 -1.6479175 0.0054149344 -0.022287972
0.0058355317 -0.117308296 -0.14814018 -1.2800283 -0.116187386 -0.053322077 -0.066016 -0.12184666
-0.99661624 -1.8187739 -0.011502704 0.046152018 -0.008973297 0.0050432677 -0.06308604 -0.11241479
-0.07189062 -0.10639899 -0.06814281 -0.058396343 -0.022586307 0.029965745 -0.08973214 -0.06327165
-0.0700993 -0.12981962 -0.08891595 -0.021500414 -0.101076946 -0.51673687 -0.0708191 -0.0023858787
-0.03137775 -1.6968795 0.059087012 -0.113794826 -0.08507499 -1.5319433 -0.04138177 -1.2321836
-0.038528502 -0.08599435 -0.092143446 -1.2114377 -0.050174028 -0.09512019 -0.13614555 -0.131738
-0.07747092 -0.61426485 -0.13127252 -0.2153777 -0.46494088 -0.022522127 0.29669902 -1.4340792
0.08712565 -0.2361586 1.6090133 -0.7917971 -0.08651231 -0.11999475 1.8043385 -0.03639768
-0.08236876 -0.04956093 -0.052518003 -0.009243389 -0.9270626 -0.13514651 -0.100135975 -0.07378837
-0.13539968 0.035989482 0.031370267 -0.19603603 -0.06988293 -0.77963334 -0.06724096 -0.10748286
-0.086314626 0.059612423 0.031405848 0.116111115 -0.07452543 -0.13534686 -1.1014217 -0.4317045
-0.050483026 -0.08508255 -0.18151522 -0.09374623 -0.040694553 0.0038434386 0.20455603 0.66787285
-0.027769346 -0.13249275 -0.5356046 -0.19308466 -0.50202227 -0.057625495 -0.008403886 -0.07333466
-0.44493073 -0.053121593 -1.5403028 -0.061062496 0.05610955 -0.06897818 -0.08733188 -0.05084639
-0.56525826 0.026431559 -0.8635631 -0.18330601 -0.99653256 -1.4834297 -1.3792636 -2.4169571
-0.12899539 -0.03996367 -0.111267254 -0.055133566 -0.031623166 0.01454924 -0.0749379 -0.08863021
-0.014947007 -0.12603776 -0.045043707 -0.009920432 -0.045575675 0.14983597 -0.07375903 -0.06433681
0.5496402 0.39911962 -0.13767469 -1.578299 -0.28017446 0.06309929 0.0032892022 0.8496429
-0.021767732 -0.097273916 -0.035341922 -0.07882018 0.016963605 0.011224847 0.055989996 0.27856413
-0.061571214 -2.1913435 -0.0011067729 -0.073989674 0.03975705 -0.08168257 0.06749638 -0.074562654

weight f4 [256, 256]
00000000: 2d50 4ebf d9c6 01bf 50e3 273d 1721 f93d
00000010: aa6c 853c a24a 7c3c 61b5 8e3c 4ec0 fe3c
00000020: ac08 0abe ffe3 4abd c564 9cbb 20d0 07c0
00000030: 4425 e0bb c9f4 c3bd 7248 e1bc 9561 54bb
00000040: e7e8 9e3c 237d 87bd 7fe9 d73c 1826 c5bc
00000050: 3187 9abf 0b9f 2840 5672 94be 8daf 7cbd
00000060: 15a1 47bd 0db8 e63c 51c1 6e3c 128f 3b3f
00000070: 338e 003e 8519 32c0 09ce 1abf 9075 4fbd
00000080: 0ea2 b4bc e65e 53bd ebc0 873c 006e a1bc
00000090: 6467 fcbe 78e2 023c 91f2 0fbd 9de1 11bd
000000a0: fe02 82bd 3bdf 56bc 30e4 783d 8bba 4dbd
000000b0: 659b abbd 6852 eb3c eeb6 2640 65a4 133b
000000c0: 8d8d 7cbc 8a98 f83c 69a5 10bd 9b77 31bf
000000d0: 53ec 6b3d 6de3 2abf add7 0d3d 4030 233f
000000e0: 31aa 603c d51b 44bc 2961 923e 57c9 f0bb
000000f0: cb65 91bf 44ac e13c f481 0e3d c49e 7ebd
00000100: a0b9 16bc 7b39 4ebd a435 263f d9d2 d2be
00000110: 0d0d 203d 2f2f a13c a394 6cbd 47d2 1b3d
00000120: 709d 2940 be53 0e3d 5e63 833e e35f bb3c
00000130: 46e0 05bc 17a3 a93e daad fabc 0572 ff3c
00000140: e5f0 043c 1352 05bc 4389 8f3c 231e ccbc
00000150: ee5b f4bb a5b4 613d f529 83bd a5a2 1abb
00000160: 00d6 233d 9b19 fe3c 9869 51be 57fa 95bd
00000170: c31a 72bd e4f8 2240 4fd4 ba3c 172f 96bc
00000180: 5e2b debc 8c42 2ebd ab2d b1bc 6c93 8d3f
00000190: efd2 78bc a95d 5a3d 2c98 4fbd e793 1ebd
000001a0: f3ea 653f e6e7 36c1 82ad d33c e088 c5bb
000001b0: 710c 623c 1ed1 86bf 9cf7 b33c 0ec9 ffbc
000001c0: 6058 17bd d861 0cbf eab6 523d 34f6 3e3d
000001d0: 4a09 d13c 1475 613d 2d5c c8bc b346 a33d
000001e0: d9ce 613c 0f31 93bc e616 f4bc 7731 2b3d
000001f0: bee1 2fbd 37ed 6d3e b6be eb3b ffb7 c3bc
00000200: 9888 10bd 3f6c 2cbf 79f2 983e 1543 b23c
00000210: e3c6 42bd ff98 8cbe 6662 ab3d c705 6ebd
00000220: 83a3 00bd b59e 56bd ee2e a1bd 9de7 8bbf
00000230: b949 003d acab 543d 4469 ef3c 5c16 b13a
00000240: 0a45 6ebc e550 443f f9c5 87bc 6a7a 293f
00000250: 91c4 20bf 5f4d 3c3b e4f9 b73c 7caa 1f40
00000260: 6df0 57bc a1c4 99bc 0ecb b53e b2dd 14bf
00000270: 36f0 acbd bc3d 8cbd 6cb9 133f 678d 56bd
00000280: a7db ef3a b3c1 bcbc 0a57 613d 9d72 82bc
00000290: ffdf cb3e 578d e73c 709b fdbc e1a7 4c3b
000002a0: d017 403d f1d2 673d c2bf 633d 6abe 20bf
000002b0: 2689 d4bc b5a0 2cbd 3803 19bd cd43 90bf
000002c0: 8838 c6bc 034f 96bc ae37 39bd 90db f0bd
000002d0: eb95 323d eb01 13bd d572 a43c 6a98 54bd
000002e0: cd7a 83bc 5ea0 e83c 7a12 523d 1e40 71bb
000002f0: 7bac 3d3d a08b ee3c 8dd0 d83e 8e1b d03f
00000300: f0e2 dcbc 748f a1bc 629b 1740 d99f bfbd
00000310: 1999 12bd 0ab6 b7bc 320e 703d 611a 63bd
00000320: c976 f3be bfc9 aabb c3bc 69bf c25f 01bd
00000330: 8a0c 02bd 3371 8dbd 25a6 8cbd b43d 7f3b
00000340: c6e7 91bc 21a6 cdbc 85ee e93e de0d ccbe
00000350: e888 f73e 2639 a1be d115 08c0 a42b c33f
00000360: 5f81 0bbd 62cf 5dbd 9dbd 353d c181 183c
00000370: 17a4 43bd bf40 51bd f05d d43c 58a3 623d
00000380: 7c8e 723b d402 a53c ab8d 2ebd d327 113d
00000390: 868d 323d b64e ef3e ebc7 3a3d 2834 a8bc
000003a0: c86c 03be 25b8 98be ed87 0dbd daef 5fc0
000003b0: c41a 573d 7cec 1e3d c4b0 4b3d 432a 09bf
000003c0: 7365 303d 60ec 09bd 1678 633d cd84 13bd
000003d0: 65ae b7bb 0a32 803d b50f 463e 1d40 8bc0
000003e0: 90b7 62bd 2f66 1640 808b 483d d3c6 db3c
000003f0: d9fc 733c 5606 773d 4004 29be 66d1 29bd
-0.8059109 -0.5069404 0.040988266 0.121645145 0.016287167 0.015398653 0.017420473 0.031097557
-0.1347987 -0.04953384 -0.004772755 -2.122078 -0.00684038 -0.095681734 -0.027500365 -0.0032406796
0.019398166 -0.06615665 0.026356457 -0.024066016 -1.2072507 2.6347072 -0.2899348 -0.061690856
-0.048737604 0.028163934 0.014572457 0.7326518 0.12554245 -2.7828076 -0.60470635 -0.050649226
-0.02204993 -0.051604174 0.016571483 -0.019705772 -0.4929763 0.007988565 -0.03514344 -0.035615552
-0.06348227 -0.013114746 0.06076449 -0.05022673 -0.083792485 0.028725818 2.6049151 0.0022528407
-0.015414608 0.030346174 -0.035313997 -0.6932313 0.057598423 -0.66753274 0.034629513 0.637455
0.013712452 -0.011969526 0.28589752 -0.0073482203 -1.135919 0.027547963 0.0347919 -0.06216313
-0.00919953 -0.050347786 0.649256 -0.4117649 0.039074946 0.01967582 -0.05775894 0.038042333
2.6502342 0.03474783 0.2566175 0.02287287 -0.008171147 0.3313224 -0.030600477 0.031182298
0.008114074 -0.008137244 0.017521506 -0.024916714 -0.007457248 0.055103917 -0.06404487 -0.002359548
0.03999901 0.031018069 -0.20450437 -0.07323139 -0.059107553 2.546441 0.022806315 -0.018333001
-0.027120288 -0.042543933 -0.021628221 1.1060615 -0.015187009 0.053311978 -0.05068223 -0.03871527
0.8981163 -11.431616 0.02583957 -0.0060282797 0.013796912 -1.0532568 0.021968655 -0.0312238
-0.036949515 -0.548368 0.05144397 0.046621516 0.025517125 0.055043295 -0.024458015 0.07972469
0.0137822265 -0.017967729 -0.029796075 0.04179522 -0.042939894 0.23235022 0.0071943654 -0.023891447
-0.035286516 -0.6735267 0.29872492 0.021760503 -0.047552954 -0.27460477 0.083683774 -0.05811098
-0.031405937 -0.05239745 -0.07870279 -1.0930058 0.031320307 0.05192153 0.029225 0.0013510692
-0.014542827 0.76685935 -0.016573893 0.66202414 -0.62799937 0.002873264 0.022458024 2.4947805
-0.013179881 -0.018770518 0.3550648 -0.5815078 -0.08444254 -0.068477124 0.57704806 -0.052380946
0.0018299714 -0.023041582 0.055014648 -0.015923792 0.39819333 0.028265638 -0.030957907 0.0031227993
0.04689771 0.056597654 0.055602796 -0.6279055 -0.025944304 -0.04214545 -0.037356585 -1.1270691
-0.024196878 -0.018348223 -0.045219116 -0.11760628 0.043600004 -0.0358905 0.020074287 -0.051903166
-0.016049767 0.028396782 0.051287152 -0.0036811898 0.04630707 0.029119313 0.42346612 1.6258409
-0.026963681 -0.019721724 2.3688588 -0.093566604 -0.035790537 -0.02242567 0.058607288 -0.05544508
-0.47551563 -0.0052120383 -0.9130365 -0.031585462 -0.03175024 -0.06906357 -0.06867627 0.003894669
-0.017810713 -0.02510363 0.45689788 -0.3985433 0.4834664 -0.31488913 -2.1263316 1.5247693
-0.034058925 -0.054152854 0.044370282 0.0093082795 -0.04776391 -0.051087137 0.0259237 0.055331558
0.0037011197 0.02014295 -0.042615574 0.03543837 0.043592 0.4673974 0.045600813 -0.020532683
-0.12834466 -0.2982799 -0.034553457 -3.4990144 0.05251576 0.038799748 0.049729124 -0.5358011
0.0430655 -0.03367269 0.055534445 -0.03601532 -0.0056055062 0.06259544 0.1934193 -4.3515763
-0.05535084 2.3499868 0.048961163 0.026828205 0.014891827 0.060308777 -0.16505527 -0.041459464
