saved_models_1/125_11035_model.pt (torch, 701697 bytes, 11 tensors)

FC1.weight f4 [256, 36]
0.44052842 0.25003165 0.5414683 -1.4659238 1.6553175 1.2071539 -1.0302523 -2.4769058
2.5529506 2.8585987 -2.795006 -0.25842083 -0.94226545 0.34917772 1.0923537 0.016189974
-1.6123557 1.1531085 2.6931179 0.23448111 2.326876 0.5635316 -1.3658023 -0.08756439
3.2429793 1.1059567 -3.1686363 -0.3025937 0.4339671 0.42035338 -0.7067038 -0.46755862
-4.753751 0.23486954 0.50578004 -4.2211237 -0.7084761 0.03372646 0.03487749 0.048344187
-1.2737793 0.06483753 1.5552697 0.19840752 -2.317933 0.08873392 2.778307 -0.6419676
-1.2774868 -0.13482933 0.93388414 -0.011253283 -1.526087 0.6364718 2.7578464 0.42334315
-0.041799903 0.22183783 -0.67716604 -0.61748195 2.740049 -0.21277063 -0.46897203 -0.060309727
-0.12809792 0.5015816 -0.39267805 0.83453137 -5.0162477 -1.9757844 2.0739532 -0.059548464
0.17473917 1.2095363 -0.8698624 1.0691005 -1.0158255 1.8376489 -3.293206 -2.151297
2.30708 -1.3855662 0.11791442 0.5611606 -0.9131439 0.84692425 -0.8582447 0.13579005
0.19596156 2.5140433 -0.4557469 1.4200209 -1.677792 1.7682703 -0.24376996 0.025913522
-1.0267797 0.05488106 1.5527239 -1.120814 -1.3495178 -0.63099927 -0.18874773 0.19647819
0.6377277 -1.4774766 -7.0869503 -2.9898129 -8.131636 1.164682 0.17981292 -0.06927278
-0.8082103 -0.66622573 0.17859586 1.3911793 -1.5533236 0.43676203 0.7028221 0.5623811
-0.6618955 -1.2777989 0.4725382 2.3383265 -1.894901 -0.26219803 1.0506294 0.2550791
-0.8009265 0.9435436 1.3227556 -0.24266942 -3.1260471 1.4914122 2.811569 0.5907003
-5.5393295 2.238275 0.52014965 -6.881513 -2.5248032 -1.9677286 -0.51739204 -5.813869
-2.176028 -0.78163487 -0.010710958 -0.9949751 1.6538209 -0.3459578 -1.0760175 -1.3217653
4.2152705 0.9033433 -5.0267973 -0.8318008 1.2535554 -0.11283833 -1.1769699 -0.6681195
2.4292698 0.18808936 -2.8196068 0.7039145 0.37711713 -1.7358214 0.010411885 1.8448553
-0.15139674 -2.793756 -0.075761676 0.039305836 0.2879639 0.689668 0.50757056 0.88380694
0.7480661 1.0829524 -6.7731705 -4.0712404 -3.4705672 -0.14311227 0.015781224 0.24436018
0.35544467 0.86943877 -1.8402123 -2.7857695 1.9527595 -0.3985835 0.042382374 -0.29239348
-0.49584258 1.0036212 -1.5541934 -2.8082943 1.8275241 -1.2270918 0.35618886 -0.78315836
-1.2337254 -0.3815006 0.50756425 -0.12381448 -2.2352242 0.47744626 1.0419004 1.2860948
0.9628231 -6.919523 -6.371217 -1.6671466 1.1729364 -0.7190222 -4.022028 -7.7881455
-1.0357687 0.06968515 -0.12572193 0.10421757 0.35116163 0.3796788 0.419655 -1.5371531
-0.09212792 0.3227197 0.40163717 2.1817174 -0.99786806 -1.066503 0.7738706 1.7252554
-1.4148904 -3.6026134 1.69332 0.35216162 0.96281105 -1.7069021 -0.28704837 2.1598148
-0.2016861 -0.53810877 -2.105964 0.34120837 0.018743522 -0.15405221 0.2675112 -0.79255563
1.6850163 -2.5722685 -0.5311423 -0.2489286 -0.15712348 -0.016486112 -0.8018683 -0.92349666
00000000: f18c e13e 2604 803e ab9d 0a3f 64a3 bbbf
00000010: 72e1 d33f 0584 9a3f 4fdf 83bf a085 1ec0
00000020: 8b63 2340 48f3 3640 61e1 32c0 bc4f 84be
00000030: 4f38 71bf 6cc7 b23e 3fd2 8b3f d6a0 843c
00000040: ac61 cebf 0f99 933f 0b5c 2c40 d11b 703e
00000050: 89eb 1440 9b43 103f 9cd2 aebf f554 b3bd
00000060: f98c 4f40 fd8f 8d3f f0ca 4ac0 90ed 9abe
00000070: f030 de3e 8f38 d73e 8aea 34bf d863 efbe
00000080: ba1e 98c0 a481 703e cd7a 013f 7213 87c0
00000090: b15e 35bf c224 0a3d b3db 0e3d 8e04 463d
000000a0: 330b a3bf 8ac9 843d 1413 c73f 572b 4b3e
000000b0: 0459 14c0 21ba b53d c8cf 3140 fd57 24bf
000000c0: b084 a3bf b310 0abe 0813 6f3f b15f 38bc
000000d0: d256 c3bf d1ef 223f 8e80 3040 6fc0 d83e
000000e0: 6036 2bbd 7529 633e c15a 2dbf 4c13 1ebf
000000f0: f65c 2f40 8be0 59be 1a1d f0be 5507 77bd
00000100: 1a2c 03be a767 003f 190d c9be d9a3 553f
00000110: 1a85 a0c0 81e6 fcbf a6bb 0440 17e9 73bd
00000120: d3ee 323e 16d2 9a3f 4daf 5ebf 49d8 883f
00000130: 9206 82bf 1438 eb3f e3c3 52c0 daae 09c0
00000140: 33a7 1340 3c5a b1bf 1e7d f13d 39a8 0f3f
00000150: ccc3 69bf 07d0 583f edb5 5bbf 8c0c 0b3e
00000160: 26aa 483e 16e6 2040 a857 e9be 3fc3 b53f
00000170: e3c1 d6bf ae56 e23f d59e 79be 9848 d43c
00000180: 846d 83bf f6ca 603d a8bf c63f d576 8fbf
00000190: 00bd acbf 2b89 21bf 1647 41be 9431 493e
000001a0: 1f42 233f f41d bdbf 4cc8 e2c0 1859 3fc0
000001b0: 2e1b 02c1 4d14 953f e120 383e e3de 8dbd
000001c0: dfe6 4ebf c58d 2abf d5e1 363e 2a12 b23f
000001d0: 4fd3 c6bf 469f df3e 26ec 333f 35f8 0f3f
000001e0: fc71 29bf ea8e a3bf 87f0 f13e 24a7 1540
000001f0: 1e8c f2bf d23e 86be 067b 863f ba99 823e
00000200: 8509 4dbf 138c 713f 0e50 a93f 557e 78be
00000210: 2811 48c0 98e6 be3f bff0 3340 2338 173f
00000220: 3042 b1c0 e63f 0f40 8728 053f 5b35 dcc0
00000230: 6096 21c0 88de fbbf ce73 04bf 370b bac0
00000240: 0b44 0bc0 3919 48bf 047d 2fbc b0b6 7ebf
00000250: 67b0 d33f 6121 b1be f1ba 89bf 9b2f a9bf
00000260: 7fe3 8640 8241 673f 86db a0c0 e6f0 54bf
00000270: 8174 a03f c817 e7bd f3a6 96bf e109 2bbf
00000280: 2879 1b40 7f9a 403e 7074 34c0 be33 343f
00000290: 7f15 c13e 652f debf 9c96 2a3c 3824 ec3f
000002a0: bf07 1bbe e6cc 32c0 f028 9bbd 28ff 203d
000002b0: 0170 933e 158e 303f 25f0 013f 2c41 623f
000002c0: 4381 3f3f 2f9e 8a3f d0bd d8c0 9a47 82c0
000002d0: c61d 5ec0 068c 12be a047 813c 8e39 7a3e
000002e0: d8fc b53e 8a93 5e3f 148c ebbf 0c4a 32c0
000002f0: 06f4 f93f 2313 ccbe 2499 2d3d 99b4 95be
00000300: 14df fdbe a976 803f cfef c6bf 18bb 33c0
00000310: 4fec e93f 5811 9dbf 635e b63e 117d 48bf
00000320: b7ea 9dbf 0c54 c3be bbef 013f 7292 fdbd
00000330: ea0d 0fc0 d673 f43e fe5c 853f c19e a43f
00000340: 937b 763f bb6c ddc0 02e1 cbc0 0f65 d5bf
00000350: c822 963f d711 38bf 74b4 80c0 7d38 f9c0
00000360: 1294 84bf 17b7 8e3d 40bd 00be 0570 d53d
00000370: 75cb b33e 4265 c23e 05dd d63e 6fc1 c4bf
00000380: 90ad bcbd 843b a53e 63a3 cd3e 42a1 0b40
00000390: 4874 7fbf 2c83 88bf 621c 463f 2bd5 dc3f
000003a0: 211b b5bf 3891 66c0 b6be d83f 874e b43e
000003b0: c97a 763f c57b dabf 01f8 92be 683a 0a40
000003c0: cd86 4ebe 7fc1 09bf 1dc8 06c0 ddb2 ae3e
000003d0: 048c 993c ddbf 1dbe 3af7 883e ede4 4abf
000003e0: 9dae d73f 0ca0 24c0 f1f8 07bf 24e7 7ebe
000003f0: fae4 20be e20d 87bc 3e47 4dbf 476a 6cbf

FC1.bias f4 [256]
-0.41284332 -0.36110282 -1.1018503 0.60530275 0.052059967 1.1872846 0.1403748 0.46496814
-0.4134929 -1.12366 0.010238867 -0.21957739 -1.0915611 0.58894324 -0.22555847 0.06847904
-0.47237954 -1.8351682 1.3313867 0.5354185 -0.06643877 -0.88416517 1.6017554 -0.70907986
-0.3188117 -0.060331326 -0.753727 0.2533981 -0.8628843 -0.27026254 -0.97360456 -0.6137608
-1.5474495 -0.54969597 -0.9296394 0.79293424 -0.35384354 -1.1045473 -0.52039343 -0.15566486
-0.3414966 -0.39918503 -0.06251398 -1.4268332 0.02596456 -0.123694144 -1.2202744 -0.33469364
0.6302332 -0.29475957 1.6448314 -0.1956024 -0.94655484 -0.041445266 0.27030978 -1.286389
0.44639954 -0.5303262 0.41944268 0.43699694 -0.21045022 -0.55202806 0.025366882 0.7471442
0.22584677 -1.1213368 -0.40490404 -0.14116932 -0.37005168 -0.08438699 -0.28625357 -0.33596474
1.4172021 2.8640177 -0.1569426 0.121191554 -0.737926 -0.12520972 -0.057178814 0.86751384
-0.7834427 -0.91266876 0.30028114 0.112746276 -0.36578077 -0.115935594 -0.47029695 0.90055734
-1.8691342 0.5225522 0.030762488 -0.17036429 -0.1369571 1.7946316 -0.839113 0.1794442
-1.212304 0.03522731 -2.1214578 -1.9985127 0.441721 0.47223964 -0.21239747 -1.3241167
-0.12953354 -0.075002275 -0.21277688 -0.05821912 0.11130461 0.29766932 -0.34375662 -1.2135834
-0.04532898 0.020927723 -0.56038165 0.5056514 -0.88298005 -0.39561248 -0.46713945 -0.26326972
-0.8677136 -1.3776385 0.26573366 0.33093074 -1.5072931 -0.6725449 -1.5380458 -1.0689589
-0.05324869 0.16583611 0.08012653 0.756528 0.4431341 0.16105036 -0.6716102 -1.4455506
-0.47491547 -0.13262503 -0.27630883 -0.6470058 -0.23218334 0.16278607 -0.83165276 0.11154989
-0.20441863 -0.76156896 -0.23620556 4.43534 -0.21285966 -0.18634492 1.2493151 -0.09964735
-0.35684872 -0.18280523 1.767647 -0.1549486 -0.25951296 0.19738059 0.65903723 0.14765167
-0.54899806 1.7539308 1.6699427 0.09017484 0.17457215 0.17507705 -0.56458485 -0.65494734
0.5047584 0.3633704 -0.67118263 -0.69560623 1.1113713 -0.64712185 0.6183409 -0.43990943
-0.56625676 0.11032206 -1.3297918 -1.3971103 0.40017778 0.2863089 -1.6096222 -0.62143904
1.1975479 0.31069037 0.4376223 -0.21699083 0.13268909 -1.2211655 -0.4194431 -0.14508665
0.88579 0.20983936 1.5890622 0.6917966 -0.3273491 0.019752245 0.827575 0.44528827
-1.2512778 -0.29751372 -0.047794707 -1.1197982 -0.06490913 0.25455314 1.4773718 -0.2750901
0.34978715 0.64367145 -0.8744475 0.601783 -1.3261964 -0.9613989 -0.6792191 -0.4040297
-0.37056023 -0.8545805 0.3838035 0.55880815 -0.21275441 -0.0066211047 0.055804435 1.6312366
-0.56545496 -0.62242407 -1.4743375 -1.6417054 -0.41982272 -0.68186605 1.5093077 -0.8429509
-0.7284219 -0.7695855 -1.0637864 0.8634434 -1.140629 0.50136346 0.8979705 -0.48253354
-0.3746641 -0.58102596 -0.5456471 0.47125465 1.0628344 -0.20326185 -0.23293294 0.120862335
-0.03581847 0.131384 -0.21135117 -0.11367895 0.051563505 1.5595577 -1.4238088 -0.8547012
00000000: 3360 d3be 78e2 b8be 6e09 8dbf 1ff5 1a3f
00000010: d53c 553d f1f8 973f 69be 0f3e 4e10 ee3e
00000020: 57b5 d3be 17d4 8fbf ecc0 273c e5d8 60be
00000030: 46b8 8bbf fcc4 163f cdf8 66be bd3e 8c3d
00000040: bbdb f1be cbe6 eabf e16a aa3f 3011 093f
00000050: 0d11 88bd a658 62bf 5206 cd3f 4286 35bf
00000060: 4a3b a3be fb1d 77bd 41f4 40bf 65bd 813e
00000070: fce5 5cbf da5f 8abe 263e 79bf 6e1f 1dbf
00000080: d312 c6bf e0b8 0cbf d9fc 6dbf bdfd 4a3f
00000090: fb2a b5be ce61 8dbf 8138 05bf 9c66 1fbe
000000a0: a4d8 aebe fb61 ccbe 5407 80bd 78a2 b6bf
000000b0: a1b3 d43c 5b53 fdbd f431 9cbf f75c abbe
000000c0: f756 213f baea 96be d689 d23f ff4b 48be
000000d0: 6b51 72bf 83c2 29bd 0b66 8a3e 65a8 a4bf
000000e0: 7b8e e43e 75c3 07bf 31c1 d63e 10be df3e
000000f0: 4380 57be b651 0dbf 35ce cf3c d844 3f3f
00000100: 6044 673e f787 8fbf 954f cfbe b18e 10be
00000110: 6a77 bdbe 16d3 acbd d48f 92be 9203 acbe
00000120: e166 b53f 114c 3740 90b5 20be 4733 f83d
00000130: b8e8 3cbf fa36 00be 5534 6abd 6315 5e3f
00000140: b38f 48bf a9a4 69bf 73be 993e 85e7 e63d
00000150: 9e47 bbbe a46f edbd c3ca f0be ed8a 663f
00000160: ca3f efbf fbc5 053f 9d01 fc3c fa73 2ebe
00000170: 7b3e 0cbe 7db6 e53f 1cd0 56bf 38c0 373e
00000180: c72c 9bbf 834a 103d f7c5 07c0 44cf ffbf
00000190: 4129 e23e 65c9 f13e b97e 59be a87c a9bf
000001a0: 71a4 04be cb9a 99bd 2fe2 59be 2c77 6ebd
000001b0: acf3 e33d 1d68 983e de00 b0be b356 9bbf
000001c0: e1aa 39bd 9e70 ab3c 2c75 0fbf 5f72 013f
000001d0: fb0a 62bf b88d cabe e72c efbe 4acb 86be
000001e0: 7a22 5ebf 7556 b0bf 3e0e 883e c16f a93e
000001f0: fbee c0bf e72b 2cbf afde c4bf a5d3 88bf
00000200: 4c1b 5abd f1d0 293e 6119 a43d d2ab 413f
00000210: 79e2 e23e 63ea 243e a5ee 2bbf cd07 b9bf
00000220: 1f28 f3be dbce 07be 5a78 8dbe 2ca2 25bf
00000230: 78c1 6dbe 64b1 263e 32e7 54bf 4574 e43d
00000240: 1e53 51be 2ff6 42bf dfdf 71be 4eee 8d40
00000250: e2f7 59be 34d1 3ebe 8fe9 9f3f e913 ccbd
00000260: e0b4 b6be 4b31 3bbe 4242 e23f d9aa 1ebe
00000270: e2de 84be 231e 4a3e aab6 283f 0032 173e
00000280: 238b 0cbf ce80 e03f afc0 d53f 96ad b83d
00000290: 0bc3 323e 6647 333e a288 10bf a1aa 27bf
000002a0: d937 013f af0b ba3e a0d2 2bbf 4013 32bf
000002b0: 6a41 8e3f c7a9 25bf 974b 1e3f cf3b e1be
000002c0: 34f6 10bf 88f0 e13d 9e36 aabf 83d4 b2bf
000002d0: 1ae4 cc3e 1597 923e 1a08 cebf a116 1fbf
000002e0: 4049 993f cf12 9f3e 0810 e03e d832 5ebe
000002f0: a6df 073e 274f 9cbf 3fc1 d6be 9891 14be
00000300: 22c3 623f 21e0 563e 6466 cb3f 9519 313f
00000310: 4d9a a7be 76cf a13c f5db 533f d3fc e33e
00000320: df29 a0bf b853 98be 62c4 43bd 8c55 8fbf
00000330: 14ef 84bd ca54 823e 851a bd3f 9cd8 8cbe
00000340: 4d17 b33e a7c7 243f cbdb 5fbf 730e 1a3f
00000350: cec0 a9bf 3d1e 76bf 4ee1 2dbf fbdc cebe
00000360: 12ba bdbe cac5 5abf e481 c43e 0d0e 0f3f
00000370: 4bdc 59be daf5 d8bb 3193 643d 5ccc d03f
00000380: a8c1 10bf 2f57 1fbf 17b7 bcbf 6723 d2bf
00000390: 01f3 d6be c68e 2ebf ff30 c13f a1cb 57bf
000003a0: dc79 3abf 8e03 45bf 272a 88bf a00a 5d3f
000003b0: 2200 92bf 5b59 003f 65e1 653f a30e f7be
000003c0: f9d3 bfbe 1ebe 14bf 87af 0bbf 4a48 f13e
000003d0: f50a 883f e023 50be f985 6ebe ac86 f73d
000003e0: 63b6 12bd 8789 063e 716c 58be 82d0 e8bd
000003f0: 4134 533d 969f c73f 5e3f b6bf b3cd 5abf

FC2.weight f4 [256, 256]
-0.09853551 -1.8148237 -0.99768496 1.145357 1.3418541 -0.0555529 -0.44616634 -4.7718997
-3.908792 1.5551393 -0.008060327 0.75102836 -3.7950242 0.22630872 1.8352536 2.6485004
-2.0209885 3.4542682 -3.5436769 -0.46407846 0.03887946 3.5940905 -8.81761 -2.1877427
0.10013663 -7.3732514 -0.93518883 -2.6185591 1.4666929 2.4124422 2.1896784 0.13226087
-2.8277867 -0.50810724 0.10853271 1.49985 -1.3377594 2.0394661 0.34163496 3.0233798
-0.33235523 0.058908306 -2.0663223 -0.50573057 2.6361597 -0.13996932 -0.79464114 -0.33015707
-0.89911467 1.1632304 -1.6370305 -0.018154308 -0.23772584 -2.3923974 -1.9900742 -2.6006136
-0.39469635 1.8067096 -3.5402713 0.04588927 0.35011983 -0.75361097 -0.44256854 0.6575789
-0.2109422 3.9674003 0.72219485 -0.039951555 -0.96268374 -0.072412945 -0.59274346 -0.18850729
0.8532729 -1.2379673 0.7223129 1.1824151 -3.8593836 -0.63516396 -2.0715864 1.792467
0.7368488 -1.4957192 0.52826935 0.2589501 -0.28704664 1.261663 0.68692046 -0.8964547
0.03888259 0.5969365 -0.01333403 0.16440408 0.40494987 0.0920005 0.7044309 1.0800898
1.3843521 -0.9901067 0.3400663 -6.2167454 -0.4824111 0.5858221 -1.121058 0.060068555
0.010272967 0.8577471 1.3710425 0.6408591 0.6299009 -5.3670073 0.4133448 0.13167104
-1.8648838 -0.36134946 2.1844757 -4.5830464 1.9871343 1.0165973 -0.62866867 0.34343103
0.04728188 -2.1899498 -0.7840405 -0.035297647 -1.9717523 -0.98884803 2.5740657 1.0811746
1.9282693 0.43385965 1.0921838 1.4133695 1.2153211 -0.65814406 0.026278246 1.2292188
-1.5636882 -1.3077573 -2.7733307 0.41214097 -0.021744844 -1.8725901 2.3008616 -0.06606204
-1.4459307 -1.7685498 0.29783064 0.56261253 -0.06909247 2.5448163 0.1910358 -1.5416995
-1.2873704 -0.44078407 -2.6853812 -0.036444493 -1.0934367 3.585755 -0.0035316139 -0.86751086
1.7144006 -0.8511694 -0.100467816 0.23090234 -1.1589489 0.1964274 0.4612911 -0.3570113
1.2636123 -2.2629123 3.1458385 -0.5338959 -0.6828084 -1.286059 -1.203008 -3.9336193
0.2551462 -2.183071 -0.32391655 0.017991947 0.4382573 0.28903684 -0.4200147 1.6711253
0.1341459 0.5931056 1.0841613 -1.1021005 0.16334514 -2.2884135 2.3203835 0.17731693
-0.20050469 0.5970206 -2.901977 0.019235305 1.4048761 0.35913587 0.2386375 -2.5055106
0.630523 -2.1404753 -0.01290644 -4.8869286 -0.8958125 -2.799039 -2.3083053 -0.34927598
-0.21445104 -3.9255595 0.45438483 -0.9157321 0.56270516 -1.9177514 -1.1301017 0.28638074
-0.02661443 -0.17241569 -5.602686 0.20040843 -2.1582608 -1.788665 1.1313137 1.9327463
3.3494604 -0.08723156 0.88521904 1.3040799 -2.1077132 -0.42022035 -0.8866379 -2.1228874
0.9935621 -5.130227 1.7629982 -0.8838528 -5.293898 1.7887365 0.8242605 0.5955324
0.2461425 -4.3088694 0.62746185 2.8218434 1.1482067 0.42519155 1.4249256 0.77749383
-3.5028374 1.3681889 -0.47408292 -0.17736533 -4.94559 -1.0082006 -1.8721995 -0.68938684
00000000: fccc c9bd 254c e8bf 4868 7fbf 0f9b 923f
00000010: e0c1 ab3f 708b 63bd ea6f e4be 67b3 98c0
00000020: a629 7ac0 ce0e c73f 760f 04bc 6543 403f
00000030: ade1 72c0 79bd 673e 97e9 ea3f 0881 2940
00000040: e057 01c0 bb12 5d40 9acb 62c0 b19b edbe
00000050: 1240 1f3d 9405 6640 ee14 0dc1 fa03 0cc0
00000060: 6f14 cd3d adf1 ebc0 8968 6fbf 7996 27c0
00000070: 98bc bb3f 7465 1a40 b123 0c40 656f 073e
00000080: 75fa 34c0 5113 02bf 6646 de3d 16fb bf3f
00000090: b33b abbf 9d86 0240 c7ea ae3e 0e7f 4140
000000a0: 772a aabe d649 713d a03e 04c0 8f77 01bf
000000b0: d7b6 2840 1e54 0fbe 9a6d 4bbf 590a a9be
000000c0: 612c 66bf bce4 943f 378a d1bf 58b8 94bc
000000d0: 676e 73be 0a1d 19c0 c0ba febf 7470 26c0
000000e0: a415 cabe 4342 e73f ce93 62c0 63f6 3b3d
000000f0: e842 b33e a6ec 40bf 5898 e2be 1757 283f
00000100: 3b01 58be e3e9 7d40 c3e1 383f 3ea4 23bd
00000110: 7172 76bf 3d4d 94bd 09be 17bf 0e08 41be
00000120: 1870 5a3f b675 9ebf 80e9 383f 6159 973f
00000130: 2400 77c0 1b9a 22bf df94 04c0 8f6f e53f
00000140: 1fa2 3c3f ba73 bfbf a93c 073f 1c95 843e
00000150: c7f7 92be 2c7e a13f 05da 2f3f 0e7e 65bf
00000160: 5a43 1f3d d5d0 183f fa76 5abc 8b59 283e
00000170: 9755 cf3e c26a bc3d 9555 343f 6240 8a3f
00000180: 7332 b13f a277 7dbf 2c1d ae3e 94ef c6c0
00000190: 96fe f6be 70f8 153f d47e 8fbf 720a 763d
000001a0: f24f 283c 5095 5b3f 527e af3f 580f 243f
000001b0: 2f41 213f 86be abc0 eea1 d33e c6d4 063e
000001c0: 83b4 eebf cc02 b9be 73ce 0b40 51a8 92c0
000001d0: 6b5a fe3f dc1f 823f 6ef0 20bf 31d6 af3e
000001e0: a5aa 413d 2328 0cc0 e1b6 48bf 4494 10bd
000001f0: 6162 fcbf 2525 7dbf 7ebd 2440 ee63 8a3f
00000200: 87d1 f63f da22 de3e aecc 8b3f 4be9 b43f
00000210: a48f 9b3f 217c 28bf 7a45 d73c 0b57 9d3f
00000220: ef26 c8bf 9764 a7bf 407e 31c0 2404 d33e
00000230: 3e22 b2bc 08b1 efbf 5141 1340 894b 87bd
00000240: 4214 b9bf d75f e2bf 427d 983e 6007 103f
00000250: 5a80 8dbd 45de 2240 e49e 433e 6956 c5bf
00000260: 8ec8 a4bf 73ae e1be 49dd 2bc0 d246 15bd
00000270: bcf5 8bbf 037d 6540 a672 67bb 3115 5ebf
00000280: 7b71 db3f 3de6 59bf 12c2 cdbd aa71 6c3e
00000290: 7058 94bf 4424 493e 592e ec3e 2fca b6be
000002a0: 0cbe a13f 8ed3 10c0 6b55 4940 67ad 08bf
000002b0: 88cc 2ebf 959d a4bf 2bfc 99bf 6bc0 7bc0
000002c0: 86a2 823e 6fb7 0bc0 64d8 a5be d963 933c
000002d0: 4363 e03e a3fc 933e 2b0c d7be 6fe7 d53f
000002e0: 8b5d 093e c5d5 173f ccc5 8a3f a111 8dbf
000002f0: f343 273e 5e75 12c0 2a81 1440 9292 353e
00000300: 1a51 4dbe 58d6 183f feb9 39c0 5c93 9d3c
00000310: fbd2 b33f a8e0 b73e 645d 743e 495a 20c0
00000320: f569 213f 8cfd 08c0 8875 53bc b861 9cc0
00000330: f853 65bf 7423 33c0 46bb 13c0 4dd4 b2be
00000340: 0e99 5bbe 5e3c 7bc0 21a5 e83e 6b6d 6abf
00000350: 720d 103f e178 f5bf 2ca7 90bf 7fa0 923e
00000360: 8106 dabc bd8d 30be 3449 b3c0 de37 4d3e
00000370: f220 0ac0 faf2 e4bf e3ce 903f 3b64 f73f
00000380: 8f5d 5640 76a6 b2bd b79d 623f 17ec a63f
00000390: c6e4 06c0 1f27 d7be b4fa 62bf 63dd 07c0
000003a0: 165a 7e3f d22a a4c0 eda9 e13f 2d44 62bf
000003b0: 9d67 a9c0 51f5 e43f bc02 533f d074 183f
000003c0: c80c 7c3e 42e2 89c0 57a1 203f 1599 3440
000003d0: 70f8 923f b5b2 d93e f663 b63f d609 473f
000003e0: 7d2e 60c0 d020 af3f ffba f2be 429f 35be
000003f0: 4642 9ec0 b80c 81bf 3ca4 efbf a87b 30bf

FC2.bias f4 [256]
-0.6569995 -0.07968408 -1.0164846 -0.28298873 -2.0504851 -1.336832 -0.7945862 -0.3913883
-1.5336365 -1.7963438 -1.0666267 -0.107342705 -2.2293837 -0.063391104 -2.2352226 -1.3412579
-0.7474657 -0.21620278 -0.12148763 -1.8532078 -1.4215773 -0.3608311 1.0146686 -1.8567958
0.012170857 -0.17578202 0.20536545 -0.05389265 -1.0403115 -0.96329004 -2.6915958 -1.2113695
-1.8298686 -0.099364646 -0.35059264 -1.2380631 -0.12417023 -0.52129304 -2.4346688 0.7567873
-0.16513404 -2.1591992 1.0426451 -0.5788717 -0.46813965 -1.8235277 -1.4686673 0.62495196
-0.2597281 -2.3896523 -0.5062706 -1.0074291 -0.6187367 -0.58653474 -1.681917 -0.09206868
-0.49104184 -0.4333967 -1.1200503 -0.24795865 -0.16340797 -0.13514476 -1.2175698 -0.2470762
0.70169985 -0.7348736 0.18845315 -0.34507662 -0.36227894 -0.13471553 -1.0405204 -0.86513263
-0.2468076 -0.7029962 0.12094472 0.25290126 -2.324509 -0.52974266 -0.9371207 -0.965902
-0.40909916 -1.4237943 -0.08569926 -0.21561302 -0.14697567 -2.8024127 -1.111361 -0.17281385
-0.58690137 1.4822224 -1.6195115 -0.8167411 -0.65615225 -2.4014547 -1.3838022 -0.2661714
-1.2740722 -1.0601677 -1.1878736 -1.8833712 -1.0054573 -0.9807589 -0.19579904 -1.1646549
-1.1605659 -0.9826586 1.4687899 0.14097081 -1.902898 -0.0105053345 -0.1965437 0.4857177
-0.020768696 0.25700176 -0.3334675 -1.5453023 -1.0677344 -1.020744 -1.7066467 -0.9734425
-0.058486782 -1.1589277 0.3249279 -0.80656105 -0.078337885 0.073785916 -0.19805047 -0.4345711
-0.74445856 -1.7224592 -2.853469 -0.0406999 -0.43201724 -0.80143255 -1.2126992 -1.1636608
-0.12839217 1.43411 -2.3900864 -0.104205824 -1.2650293 -0.09468732 0.20145272 -0.29987022
-0.97731876 -1.0222155 -1.6160303 -0.3772423 -0.61738586 -2.6467693 -1.9015578 -0.6029922
0.40935305 -0.13006425 0.6603457 -3.2571447 -1.7077698 -2.256083 -0.061655354 -0.26720777
-0.3227777 0.47366884 -2.0289562 1.219199 -1.0581616 -0.78368294 -0.8923316 -1.2276229
-0.5522466 -1.1654233 -1.862979 -1.493084 -1.4554429 -2.039223 -1.9511653 -2.972446
-1.1513345 -1.4543612 -1.2618124 0.84206265 -0.04768807 -1.1463162 -0.6781955 -0.82878727
1.7812693 -1.6381663 -2.210906 0.13893425 -0.20405371 -0.7910276 -1.9688127 -2.72889
0.28841603 -1.0883663 -0.5324502 -0.054711107 -0.4966615 -1.9171478 -0.33486766 -2.2224638
-0.6844214 -0.05955517 -0.20894922 -1.8505766 -1.2783166 0.18542743 -1.8540446 -1.9518528
-0.32400906 1.5707492 -1.3144553 -0.94613886 0.49608153 -1.2465401 -1.2216946 -2.248113
-3.57931 0.40567002 -0.11971856 -3.3574727 -1.510983 -0.9038115 -1.0913388 -0.16398054
0.03258016 0.3116055 -1.3698772 -1.5634493 -1.8957973 -1.9904083 0.1969428 -1.6180787
-0.5740667 -0.4131927 0.12718002 -0.8947407 -1.9444102 -1.2326095 -2.3218303 -1.3777716
-0.104531825 -1.4958363 -1.6909561 0.69617534 -1.9526188 -0.69892657 -0.10868684 -1.14054
-2.3890376 -0.13456665 -1.4820594 -0.50098807 -0.070458755 -0.20958695 -0.25485492 -0.45036414
00000000: 1f31 28bf 6831 a3bd 2b1c 82bf e6e3 90be
00000010: 263b 03c0 501d abbf 006a 4bbf 0c64 c8be
00000020: 334e c4bf 98ee e5bf 3987 88bf 7ed6 dbbd
00000030: 39ae 0ec0 32d3 81bd e30d 0fc0 57ae abbf
00000040: ea59 3fbf 4364 5dbe 82ce f8bd ea35 edbf
00000050: 3ff6 b5bf dbbe b8be a9e0 813f 7cab edbf
00000060: 4668 473c 3400 34be 524b 523e 8abe 5cbd
00000070: ed28 85bf 2d9a 76bf 1b43 2cc0 280e 9bbf
00000080: 2239 eabf b17f cbbd e180 b3be da78 9ebf
00000090: f64c febd 7673 05bf 9dd1 1bc0 d0bc 413f
000000a0: e618 29be 5230 0ac0 6575 853f f030 14bf
000000b0: 00b0 efbe 5b69 e9bf 4afd bbbf dafc 1f3f
000000c0: 15fb 84be 10f0 18c0 f39a 01bf 70f3 80bf
000000d0: 8765 1ebf 2427 16bf 0e49 d7bf 818e bcbd
000000e0: d669 fbbe 2ce6 ddbe cf5d 8fbf dfe8 7dbe
000000f0: 6b54 27be 6363 0abe 54d9 9bbf 8b01 7dbe
00000100: 9aa2 333f ad20 3cbf ddf9 403e e2ad b0be
00000110: a07c b9be def2 09be c62f 85bf 5579 5dbf
00000120: 22bb 7cbe 8ff7 33bf deb1 f73d 467c 813e
00000130: c1c4 14c0 379d 07bf 24e7 6fbf 5a45 77bf
00000140: 7275 d1be e43e b6bf 1883 afbd a9c9 5cbe
00000150: ca80 16be bb5a 33c0 1441 8ebf 1df6 30be
00000160: 2b3f 16bf 77b9 bd3f 274c cfbf f215 51bf
00000170: 98f9 27bf 6fb1 19c0 6e20 b1bf 9e47 88be
00000180: cc14 a3bf 93b3 87bf 3e0c 98bf 4f12 f1bf
00000190: d3b2 80bf 0413 7bbf 8b7f 48be 6913 95bf
000001a0: 6c8d 94bf 848f 7bbf 4f01 bc3f a75a 103e
000001b0: 2992 f3bf 911e 2cbc c042 49be feaf f83e
000001c0: 1d23 aabc bc95 833e 41bc aabe 77cc c5bf
000001d0: 85ab 88bf bda7 82bf 6673 dabf 8733 79bf
000001e0: d68f 6fbd be57 94bf f35c a63e c97a 4ebf
000001f0: 9d6f a0bd 121d 973d becd 4abe 1a80 debe
00000200: d694 3ebf 8b79 dcbf 3c9f 36c0 f0b4 26bd
00000210: 5d31 ddbe af2a 4dbf ba39 9bbf d6f2 94bf
00000220: 3d79 03be eb90 b73f 2df7 18c0 dd69 d5bd
00000230: 7bec a1bf 6deb c1bd 9f49 4e3e 9788 99be
00000240: 9031 7abf f5d7 82bf 15da cebf e725 c1be
00000250: 000d 1ebf ab64 29c0 3f66 f3bf b25d 1abf
00000260: b996 d13e 902f 05be 6a0c 293f 0f75 50c0
00000270: 3398 dabf aa63 10c0 538a 7cbd 75cf 88be
00000280: 1e43 a5be b984 f23e 6bda 01c0 b60e 9c3f
00000290: d771 87bf 729f 48bf d86f 64bf bf22 9dbf
000002a0: 0860 0dbf 972c 95bf 1976 eebf 601d bfbf
000002b0: f44b babf a182 02c0 c9bf f9bf 8e3c 3ec0
000002c0: ee5e 93bf 8228 babf 1283 a1bf 6b91 573f
000002d0: 9154 43bd 7dba 92bf 389e 2dbf 672b 54bf
000002e0: a200 e43f 6faf d1bf 7c7f 0dc0 c844 0e3e
000002f0: 75f3 50be c980 4abf 0e02 fcbf 22a6 2ec0
00000300: 44ab 933e 964f 8bbf a84e 08bf c118 60bd
00000310: 6b4a febe 1965 f5bf c673 abbe d93c 0ec0
00000320: 3e36 2fbf 1ff0 73bd c9f6 55be b2df ecbf
00000330: e19f a3bf b0e0 3d3e 5551 edbf 50d6 f9bf
00000340: 84e4 a5be 4f0e c93f 1240 a8bf 2836 72bf
00000350: 66fe fd3e a08e 9fbf 7d60 9cbf 15e1 0fc0
00000360: 6a13 65c0 fbb3 cf3e 012f f5bd d5e0 56c0
00000370: e467 c1bf 3160 67bf fdb0 8bbf 84ea 27be
00000380: c672 053d c28a 9f3e 2358 afbf 1b1f c8bf
00000390: 7ca9 f2bf b3c5 febf 60ab 493e 341d cfbf
000003a0: 09f6 12bf fe8d d3be 7b3b 023e ba0d 65bf
000003b0: 6fe2 f8bf 26c6 9dbf de98 14c0 d25a b0bf
000003c0: c814 d6bd 9077 bfbf 4071 d8bf 8c38 323f
000003d0: 6aef f9bf daec 32bf 3597 debd 37fd 91bf
000003e0: fee5 18c0 d7cb 09be 1fb4 bdbf c140 00bf
000003f0: ae4c 90bd f69d 56be 587c 82be 2196 e6be

action_out.weight f4 [5, 256]
2.1610475 -0.06408668 2.0757153 1.0749445 -0.0016264885 -3.7554028 -1.440445 1.1360689
-0.92119807 0.4110471 2.5299573 0.5545882 -1.392525 -0.009963875 2.4375398 0.16799232
3.0909514 0.0638557 0.4204607 1.7888268 -1.0470515 1.3535335 1.6349587 4.572534
0.03178148 1.8715885 0.5585952 0.69261706 2.1266403 -1.4711891 0.44662142 1.0980945
0.77230793 0.028958065 3.4922378 2.3836374 -0.056053955 -0.58899075 4.909829 2.8089118
2.3211699 0.19555396 1.6384387 1.6757493 1.6481527 -0.6250756 0.5815689 0.8792113
2.2883918 0.5420456 1.1485013 2.0099032 1.8256966 3.0275939 4.7482295 -0.25272003
1.794267 0.76153857 1.1343529 0.82763743 1.8673908 1.9075942 -0.035863634 1.7241721
3.2656019 -0.73875946 2.7566965 1.052747 2.0244088 1.632859 1.1383207 0.06674006
1.8382522 0.26712817 -0.14267784 2.1685584 2.9157526 -0.2829385 0.8688787 1.4539189
-0.81043804 1.2036992 0.39395213 1.2204893 0.34943837 -0.0626627 4.369519 1.1654348
0.30187675 2.7260334 1.3264999 1.4015285 2.1728017 1.6416377 0.8581611 0.25920263
2.9181614 0.70838165 -1.013725 1.8251889 -0.32876605 0.8591356 1.8043835 2.544624
1.9004123 -0.22528726 1.4359411 2.1869628 0.47591776 0.28001413 0.35338432 1.0196687
0.82858175 1.997385 2.0063164 2.2774262 -0.011929691 2.3869278 -0.70802796 1.7817062
0.01757665 1.5043871 1.0368369 2.579885 0.06359462 2.1419039 0.38574132 0.59225583
4.231795 2.419225 -1.0200691 -0.019755898 2.3265069 -0.08774414 -2.5478675 0.9330885
1.3990202 1.5758874 1.5042887 0.25889012 0.36325753 0.47287238 2.0340137 1.8412969
-4.441255 2.807897 -0.9501877 1.5951375 2.1098368 2.6406763 0.5746442 -1.0152476
2.6547499 0.371688 1.6196684 0.56000745 -0.4060034 2.8902056 0.57039267 -0.5008976
0.79973096 2.4033473 2.2617354 1.0461146 1.1061784 -0.4872124 1.7428269 1.5707086
1.0596377 1.1279929 0.6075511 1.5456892 1.2068766 -0.9652128 -0.59471357 0.4463417
2.8080482 2.945472 -1.596983 1.4662987 -0.0012287458 -1.0716326 2.1060092 1.4250373
2.5918522 2.0979853 -0.1837562 2.0374694 0.24078576 1.2188692 0.2190053 1.0887958
1.6909912 -0.702803 1.3096381 -0.017060097 -3.855117 -0.27159947 2.6316953 -4.064255
0.93363106 -0.03535526 0.1433826 0.70188713 -3.164462 1.6936852 -3.4852293 2.2057557
-0.1284102 2.320822 0.4552686 2.266658 0.81642073 1.3328428 2.5536695 -1.6688596
-0.6034983 1.3969079 -0.0374056 -2.426821 -2.2066453 -1.045235 1.75411 0.20378156
-0.023118991 -1.2746379 -0.6076092 0.9588292 -1.6646595 1.7532016 2.533121 0.9800926
2.352332 1.9252701 1.6683004 1.9016533 1.902873 1.5430732 -0.40004656 1.1380383
0.034885857 1.150033 -1.7203349 1.3139775 -2.1240172 0.072236486 0.29119328 2.9387836
1.1293218 0.058357876 2.424397 2.3455195 0.6173445 0.09322062 1.305406 2.2851987
00000000: 9a4e 0a40 e13f 83bd 85d8 0440 c897 893f
00000010: e62f d5ba 8558 70c0 8060 b8bf b56a 913f
00000020: a3d3 6bbf c474 d23e d2ea 2140 7ef9 0d3f
00000030: 423e b2bf 853f 23bc a700 1c40 2e06 2c3e
00000040: 26d2 4540 c7c6 823d a046 d73e 47f8 e43f
00000050: c905 86bf 9640 ad3f 5446 d13f 3352 9240
00000060: 4c2d 023d 3690 ef3f 1800 0f3f 5a4f 313f
00000070: e01a 0840 ed4f bcbf 90ab e43e 5c8e 8c3f
00000080: f9b5 453f 7739 ed3c d380 5f40 848d 1840
00000090: d598 65bd 19c8 16bf 521d 9d40 36c5 3340
000000a0: 0c8e 1440 4c3f 483e 5cb8 d13f f47e d63f
000000b0: abf6 d23f f404 20bf b3e1 143f fe13 613f
000000c0: 0375 1240 80c3 0a3f 1702 933f 41a2 0040
000000d0: 6db0 e93f 19c4 4140 7ff1 9740 8564 81be
000000e0: 8baa e53f 31f4 423f 7a32 913f 0ce0 533f
000000f0: a906 ef3f 0c2c f43f bfe5 12bd acb1 dc3f
00000100: 9fff 5040 571f 3dbf b76d 3040 6ac0 863f
00000110: ea8f 0140 8601 d13f 7eb4 913f 03af 883d
00000120: d94b eb3f 06c5 883e 241a 12be a9c9 0a40
00000130: b19b 3a40 51dd 90be d66e 5e3f 041a ba3f
00000140: de78 4fbf d112 9a3f 18b4 c93e fe38 9c3f
00000150: 96e9 b23e 4d55 80bd 1ad3 8b40 f82c 953f
00000160: 978f 9a3e 5577 2e40 c0ca a93f 4965 b33f
00000170: 2f0f 0b40 2f21 d23f 72b0 5b3f 35b6 843e
00000180: 28c3 3a40 8058 353f bec1 81bf ca9f e93f
00000190: 0654 a8be 50f0 5b3f 0af6 e63f 1fdb 2240
000001a0: b640 f33f b4b1 66be ebcc b73f 33f7 0b40
000001b0: 7eab f33e 035e 8f3e caee b43e 8184 823f
000001c0: ef1d 543f 50aa ff3f 7d67 0040 5ac1 1140
000001d0: c074 43bc 6dc3 1840 5241 35bf f30e e43f
000001e0: e8fc 8f3c c28f c03f 12b7 843f d61c 2540
000001f0: e53d 823d f414 0940 e37f c53e 149e 173f
00000200: dd6a 8740 95d4 1a40 a091 82bf 1fd7 a1bc
00000210: 7de5 1440 33b3 b3bd 4310 23c0 e3de 6e3f
00000220: 1813 b33f aeb6 c93f 888c c03f 3f8d 843e
00000230: e4fc b93e 541c f23e 482d 0240 9eaf eb3f
00000240: c31e 8ec0 96b4 3340 803f 73bf 772d cc3f
00000250: 9107 0740 d700 2940 e21b 133f a2f3 81bf
00000260: 6ce7 2940 e44d be3e 4b51 cf3f a65c 0f3f
00000270: addf cfbe 21f9 3840 4105 123f d33a 00bf
00000280: 2bbb 4c3f 71d0 1940 46c0 1040 15e7 853f
00000290: 4197 8d3f e773 f9be f414 df3f fb0c c93f
000002a0: 35a2 873f 1262 903f 7888 1b3f 25d9 c53f
000002b0: ef7a 9a3f 3018 77bf 263f 18bf e686 e43e
000002c0: 10b7 3340 9d82 3c40 f069 ccbf adaf bb3f
000002d0: de0d a1ba 422b 89bf dbc8 0640 9f67 b63f
000002e0: e8e0 2540 6445 0640 962a 3cbe e665 0240
000002f0: 8b90 763e e803 9c3f ed42 603e a95d 8b3f
00000300: 6672 d83f e6ea 33bf 39a2 a73f 9ec1 8bbc
00000310: 3dba 76c0 160f 8bbe b26d 2840 610e 82c0
00000320: 7202 6f3f add0 10bd e3d2 123e e0ae 333f
00000330: 8c86 4ac0 adca d83f ff0d 5fc0 1a2b 0d40
00000340: f77d 03be 5988 1440 f718 e93e ed10 1140
00000350: f300 513f 989a aa3f 526f 2340 319d d5bf
00000360: dd7e 1abf e1cd b23f 9d36 19bd 0951 1bc0
00000370: ad39 0dc0 43ca 85bf ad86 e03f 1dac 503e
00000380: 0a64 bdbc 5627 a3bf 478c 1bbf d575 753f
00000390: 9013 d5bf e968 e03f a81e 2240 59e7 7a3f
000003a0: 9c8c 1640 406f f63f de8a d53f 6069 f33f
000003b0: 5891 f33f 6c83 c53f e7d2 ccbe 3dab 913f
000003c0: 79e4 0e3d 4834 933f ef33 dcbf 6a30 a83f
000003d0: e6ef 07c0 b9f0 933d 4917 953e 0815 3c40
000003e0: 9e8d 903f ab08 6f3d 5229 1b40 fe1c 1640
000003f0: 4a0a 1e3f 74ea be3d 8b17 a73f b240 1240

action_out.bias f4 [5]
-0.09095612 -1.7785982 5.013124 1.822696 2.840132
00000000: 3447 babd 1ba9 e3bf 836b a040 1a4e e93f
00000010: b9c4 3540

weight f4 [256, 123]
-12.042003 -0.29062855 -0.11013283 -0.29209244 -0.12376553 -0.31576392 -0.28875425 -0.030911347
1.4979913 0.07118898 0.052782573 0.061747003 0.15999211 -0.030633884 -0.16489819 -1.855134
-0.49172834 -1.0556024 -0.869316 -0.30427003 -0.18684772 -1.0369959 0.100373074 0.9179584
-0.9973151 -1.2569566 -0.013793232 -1.4987795 0.03792212 -0.20582652 -0.06124985 -0.29821768
-1.5283158 -0.014484003 -0.026064321 -0.6219392 -12.103566 0.16130787 0.1167004 -0.43332043
-0.021122208 -0.35126975 -0.32064453 1.1853294 0.1690795 0.90903056 0.9238742 0.06145518
0.147272 -0.0068208766 -0.22416037 -1.4922204 1.9409146 0.028718613 0.06393174 -0.4131229
-0.15513045 -0.98333603 0.25544298 1.8686209 -1.434715 0.1214821 0.3921703 -1.4093914
-0.24438702 0.03376588 -0.30513835 -0.2580964 -0.054169737 -1.5173306 0.07670093 1.6022538
-12.020534 -0.29906863 -0.03824416 -0.3151647 -0.02879866 -0.38033396 -0.39848748 1.1141303
-0.5324162 1.2522914 0.15126412 0.14033747 0.13078402 -0.03390097 -0.27813238 -1.391457
0.2959461 0.03364173 -0.5329515 -0.31881073 -0.033240594 -1.0121112 0.23820455 3.310564
-2.2510924 -0.02606982 0.038905166 -1.39536 -0.1008849 -0.049219914 -0.30021945 -0.17686106
-0.0073762983 -0.0075319335 -1.4567242 -8.374503 0.31307963 0.41635364 -0.38937277 0.38374242
-0.5994633 0.15392962 -0.07905139 0.31605652 -0.048079755 0.07407034 -0.05617483 -0.014166277
0.04982466 0.07190013 -0.03700971 3.0584147 -0.1708598 0.105768204 -0.06401819 0.07197411
-0.62789196 0.75383645 2.495458 -2.2349932 -0.08090423 0.009153888 0.6100206 -0.25864518
-3.0128684 -0.5095777 1.9163101 0.37966314 0.5974088 0.02506063 -0.4501332 0.13449743
-0.65161633 -0.26441485 -0.88938224 -0.80084586 0.15888153 -0.08616063 -0.13242193 -0.17574397
-0.032708604 0.22374809 -0.006351807 -0.14953715 0.061889358 0.06298939 2.0866394 3.1122868
0.6962715 -0.34544107 -0.06640049 0.025891079 -0.63448805 0.6453828 0.19047469 -1.0565379
-0.6609725 0.060971744 0.76213604 -0.31089088 -3.0618029 -0.5063148 4.1624484 -0.79242575
0.0054571554 -0.033712078 -0.38736314 0.14788422 -0.55158746 -0.40857598 -1.1392719 -1.278207
-0.3227216 0.084353074 -0.1670376 0.098096125 0.1391617 -0.040243838 -0.19878046 0.08797792
-0.20855981 0.042632826 2.523055 3.0824568 -0.546592 0.19439617 -0.2111489 0.03393201
-0.704595 0.77328104 0.24396658 -0.36681 -0.2550518 -0.025769645 0.7033486 -0.3636379
-3.065652 -0.5207965 1.0154241 0.1922636 0.24224956 -0.18785647 -0.5036092 0.16319394
-0.49972078 -0.25883555 -0.8698641 -2.7874074 0.0016036034 0.07631341 -0.14836308 0.17039222
-0.037170123 0.1318039 -0.21375522 0.04379534 0.06620043 -0.19074586 2.4076314 0.044944413
-0.0561903 0.060363848 0.085720845 -0.24050161 -0.1458 -0.12818606 0.036367282 -0.09469284
-0.05897638 -0.0102038095 0.09925298 0.029015493 -0.112424426 -0.038896885 -0.05086512 -0.02661424
0.058117777 0.07230186 -0.008201131 -0.048385624 0.033485916 -0.0075618546 0.076004416 0.0516342
00000000: 0bac 40c1 44cd 94be 528d e1bd 248d 95be
00000010: c878 fdbd cfab a1be 99d7 93be cb39 fdbc
00000020: 2ebe bf3f 87cb 913d 8a32 583d 6dea 7c3d
00000030: f9d4 233e e9f3 fabc 12db 28be 0875 edbf
00000040: d1c3 fbbe fb1d 87bf 7e8b 5ebf 48c9 9bbe
00000050: 0255 3fbe 48bc 84bf 6690 cd3d 52ff 6a3f
00000060: 0b50 7fbf f4e3 a0bf 02fd 61bc 02d8 bfbf
00000070: 3a54 1b3d 30c4 52be 1fe1 7abd fdaf 98be
00000080: da9f c3bf 504e 6dbc d884 d5bc 6837 1fbf
00000090: 35a8 41c1 e42d 253e 9f00 ef3d 2ddc ddbe
000000a0: 7b08 adbc a1d9 b3be 852b a4be e0b8 973f
000000b0: 2d23 2d3e 3ab6 683f 0583 6c3f 6db8 7b3d
000000c0: 79ce 163e a981 dfbb 4c8a 65be 1401 bfbf
000000d0: e46f f83f 4c43 eb3c a5ee 823d d884 d3be
000000e0: 84da 1ebe e9bb 7bbf 6cc9 823e f82e ef3f
000000f0: bea4 b7bf 9bcb f83d 8cca c83e f066 b4bf
00000100: 9740 7abe 174e 0a3d 183b 9cbe 3625 84be
00000110: 16e1 5dbd e437 c2bf 6115 9d3d a716 cd3f
00000120: 1b54 40c1 861f 99be e9a5 1cbd 445d a1be
00000130: 2beb ebbc 22bb c2be 8d06 ccbe d29b 8e3f
00000140: 6e4c 08bf 164b a03f fbe4 1a3e a0b4 0f3e
00000150: 3fec 053e bedb 0abd 5e67 8ebe 431b b2bf
00000160: 3f86 973e e9cb 093d 826f 08bf 293b a3be
00000170: 4a27 08bd dc8c 81bf e5eb 733e 48e0 5340
00000180: e611 10c0 6090 d5bc 065b 1f3d 289b b2bf
00000190: be9c cebd d29a 49bd 5db6 99be 111b 35be
000001a0: e0b4 f1bb 70ce f6bb f075 babf f7fd 05c1
000001b0: f94b a03e 4e2c d53e de5b c7be e379 c43e
000001c0: 6d76 19bf ba9f 1d3e b2e5 a1bd 29d2 a13e
000001d0: 47ef 44bd 31b2 973d 9417 66bd ac19 68bc
000001e0: f114 4c3d 6040 933d 7e97 17bd 11bd 4340
000001f0: dff5 2ebe 009d d83d f81b 83bd 2a67 933d
00000200: 87bd 20bf 6dfb 403f 95b5 1f40 210a 0fc0
00000210: 1eb1 a5bd 30fa 153c 4f2a 1c3f 246d 84be
00000220: d6d2 40c0 af73 02bf a649 f53f 3563 c23e
00000230: c8ef 183f f34b cd3c dc77 e6be b2b9 093e
00000240: 54d0 26bf 6261 87be 8eae 63bf 3c04 4dbf
00000250: d7b1 223e fc74 b0bd 9d99 07be 3af6 33be
00000260: 75f9 05bd 381e 653e d222 d0bb 4420 19be
00000270: b27f 7d3d 9500 813d 808b 0540 b52f 4740
00000280: d93e 323f a7dd b0be fbfc 87bd 8719 d43c
00000290: cf6d 22bf cf37 253f cc0b 433e a23c 87bf
000002a0: 7e35 29bf 82bd 793d 591b 433f 172d 9fbe
000002b0: 94f4 43c0 d99d 01bf c732 8540 6adc 4abf
000002c0: f0d1 b23b ad15 0abd 7654 c6be f66e 173e
000002d0: d634 0dbf df30 d1be a9d3 91bf 499c a3bf
000002e0: c43b a5be 4ec1 ac3d e80b 2bbe 9fe6 c83d
000002f0: 6880 0e3e b9d6 24bd 1b8d 4bbe c52d b43d
00000300: b490 55be c29f 2e3d bc79 2140 f946 4540
00000310: 74ed 0bbf ca0f 473e 6b37 58be 4bfc 0a3d
00000320: 5760 34bf bff5 453f 60d2 793e 85ce bbbe
00000330: 2696 82be dd1a d3bc a70e 343f bf2e babe
00000340: a433 44c0 eb52 05bf 6bf9 813f c0e0 443e
00000350: 4510 783e 725d 40be 88ec 00bf 501c 273e
00000360: 67db ffbe 1886 84be 6aaf 5ebf e264 32c0
00000370: 0030 d23a 354a 9c3d 7eec 17be 4c7b 2e3e
00000380: b33f 18bd 9af7 063e a6e2 5abe be62 333d
00000390: 1794 873d e252 43be a216 1a40 a217 383d
000003a0: cd27 66bd 1540 773d 698e af3d 0e46 76be
000003b0: 984c 15be 3543 03be dcf5 143d 52ee c1bd
000003c0: 3791 71bd e12d 27bc 2545 cb3d e6b1 ed3c
000003d0: c73e e6bd 5752 1fbd f257 50bd 1b06 dabc
000003e0: e80c 6e3d ff12 943d 095e 06bc 0130 46bd
000003f0: 8728 093d 6fc9 f7bb 34a8 9b3d 627e 533d

bias f4 [256]
-1.460242 -0.25439033 -0.10051206 0.36384153 -0.05811022 0.002286746 -0.2178206 0.016551942
-0.4436566 -0.13591728 -0.038083166 -1.5764627 -0.24679224 -0.6292024 -0.10593471 -0.07535121
-0.026579289 -0.120314725 0.054196622 -0.06653019 -2.289991 -1.6655892 -0.0033619227 -0.0031965827
-0.027395217 -0.021923246 -0.11379099 -0.5261748 -0.02763247 -0.6288225 0.25030726 -0.07295729
-0.023953421 -0.11294837 -0.03265708 -0.06770291 -2.112503 -0.11134272 -0.102262154 -0.17963652
0.038791526 -0.11647443 0.040830266 0.0048713903 0.80004686 0.06627519 -1.1531668 -0.1073379
-0.02329971 -0.05915204 -0.0015908412 -1.6804265 -0.12037792 -0.1903896 -0.07090787 -1.0438491
-0.16417561 -0.055835493 0.2711149 -0.043025963 0.9130313 -0.09984662 -0.067125455 -0.043274913
-0.06497322 -0.05939135 0.47740185 0.16483486 0.036674652 -0.044014994 0.25878492 -0.027829418
-0.8880672 -0.037927568 1.7867535 0.025777392 0.04821401 -0.25815398 0.010475326 -0.3960142
0.031884994 -0.09531615 -0.2295506 -0.05971738 -0.008814444 -0.9294288 -0.047928378 -0.09402303
-0.072008006 0.01386395 0.427657 0.0185967 -0.1019752 -1.73252 0.0054149344 -0.022287972
0.0058355317 -0.117308296 -0.14814018 -1.3495692 -0.116187386 -0.053322077 -0.066016 -0.12184666
-0.99661624 -1.7914376 -0.011502704 0.046152018 -0.008973297 0.00017274998 -0.06308604 -0.11241479
-0.07189062 -0.10639899 -0.06814281 -0.058396343 -0.022586307 0.029965745 -0.08973214 -0.06327165
-0.0700993 -0.12981962 -0.08891595 -0.021500414 -0.101076946 -0.51673687 -0.0708191 -0.0023858787
-0.03137775 -1.7629455 -0.18052402 -0.113794826 -0.08507499 -1.5319433 -0.04138177 -1.2321836
-0.06837962 -0.08599435 -0.092143446 -1.3163701 -0.050174028 -0.09512019 -0.13614555 -0.131738
-0.07747092 -0.61426485 -0.13127252 -0.2153777 -0.46494088 -0.022522127 0.441205 -1.5180211
0.080148175 -0.2361586 1.5050527 -0.7750559 -0.08651231 -0.11999475 1.9041356 -0.03639768
-0.08236876 -0.04956093 -0.052518003 0.07316834 -1.1855918 -0.13514651 -0.100135975 -0.07378837
-0.13539968 0.035989482 0.031370267 -0.17586982 -0.06988293 -0.77963334 -0.06724096 -0.0533885
-0.086314626 0.059612423 0.031405848 0.14159764 -0.07452543 -0.13534686 -1.1014217 -0.4317045
-0.050483026 -0.08508255 -0.24426812 -0.09374623 -0.040694553 0.0038434386 -0.3619338 1.3242567
-0.027769346 -0.13249275 -0.8333355 -0.19308466 -0.50202227 -0.057625495 -0.036023173 -0.07333466
-0.2474223 -0.053121593 -1.8502349 -0.061062496 0.05610955 -0.06897818 -0.08733188 -0.05084639
-0.56525826 0.026431559 -0.8635631 -0.42846456 -0.99653256 -1.6448203 -1.4510727 -2.4481266
-0.12899539 -0.03996367 -0.111267254 -0.055133566 -0.031623166 0.01454924 -0.0749379 -0.08863021
-0.014947007 -0.12603776 -0.045043707 -0.009920432 -0.045575675 0.15474886 -0.07375903 -0.06433681
0.7339765 0.56709814 -0.13767469 -1.6603218 -0.28017446 0.06309929 0.0032892022 1.0126326
-0.021767732 -0.097273916 -0.035341922 -0.07882018 0.016963605 0.011224847 -0.20091967 0.27856413
-0.061571214 -2.3083928 -0.0011067729 -0.073989674 0.03975705 -0.08168257 0.13925973 -0.074562654
00000000: 36e9 babf 733f 82be 44d9 cdbd 7049 ba3e
00000010: fb04 6ebd 3bdd 153b 5d0c 5fbe f097 873c
00000020: f526 e3be e62d 0bbe 18fd 1bbd 88c9 c9bf
00000030: 1bb7 7cbe 6913 21bf 4cf4 d8bd bc51 9abd
00000040: cfbc d9bc 9167 f6bd 47fd 5d3d fb40 88bd
00000050: 368f 12c0 0732 d5bf b453 5cbb c27d 51bb
00000060: ef6b e0bc 6198 b3bc 400b e9bd 64b3 06bf
00000070: 7d5d e2bc 83fa 20bf 4628 803e a26a 95bd
00000080: f739 c4bc 7a51 e7bd 6ec3 05bd d3a7 8abd
00000090: 4033 07c0 a707 e4bd d26e d1bd a3f2 37be
000000a0: dde3 1e3d 258a eebd a33d 273d 2fa0 9f3b
000000b0: dfcf 4c3f 49bb 873d f89a 93bf f9d3 dbbd
000000c0: 09df bebc 6949 72bd c683 d0ba 3718 d7bf
000000d0: b388 f6bd 7ef5 42be 2538 91bd d99c 85bf
000000e0: a71d 28be c2b3 64bd 92cf 8a3e fe3b 30bd
000000f0: 6bbc 693f 627c ccbd 1279 89bd 0941 31bd
00000100: ae10 85bd 5844 73bd 046e f43e 78ca 283e
00000110: 2938 163d 1149 34bd 757f 843e 85fa e3bc
00000120: 5f58 63bf f059 1bbd 57b4 e43f 1c2b d33c
00000130: 0e7c 453d c22c 84be b4a0 2b3c 60c2 cabe
00000140: d799 023d 1d35 c3bd 500f 6bbe 369a 74bd
00000150: 756a 10bc 0cef 6dbf 8c50 44bd 258f c0bd
00000160: ef78 93bd 9f25 633c dcf5 da3e 1b58 983c
00000170: 60d8 d0bd 37c3 ddbf c36f b13b 4495 b6bc
00000180: fd37 bf3b 553f f0bd 0fb2 17be afbe acbf
00000190: a7f3 edbd 4068 5abd 6633 87bd be8a f9bd
000001a0: 3e22 7fbf d44d e5bf d675 3cbc e609 3d3d
000001b0: bc04 13bc 3824 3539 4133 81bd ba39 e6bd
000001c0: 643b 93bd b7e7 d9bd 758e 8bbd 0131 6fbd
000001d0: eb06 b9bc b97a f53c 7cc5 b7bd 9194 81bd
000001e0: 3990 8fbd 6fef 04be 9119 b6bd a321 b0bc
000001f0: 6e01 cfbd de48 04bf 9b09 91bd 675c 1cbb
00000200: f585 00bd 33a8 e1bf 4adb 38be 430d e9bd
00000210: cc3b aebd b816 c4bf ee7f 29bd 31b8 9dbf
00000220: 9d0a 8cbd ce1d b0bd b4b5 bcbd d17e a8bf
00000230: 4883 4dbd 60ce c2bd bd69 0bbe 54e6 06be
00000240: 13a9 9ebd 7640 1dbf 4e6c 06be f98b 5cbe
00000250: bb0c eebe 5380 b8bc 9fe5 e13e 844e c2bf
00000260: ba24 a43d 8fd3 71be 91a5 c03f 106a 46bf
00000270: 5e2d b1bd cfbf f5bd b7ba f33f bc15 15bd
00000280: f4b0 a8bd 6700 4bbd 1e1d 57bd 48d9 953d
00000290: 79c1 97bf d963 0abe 1714 cdbd 5b1e 97bd
000002a0: 37a6 0abe b569 133d 1c7e 003d 3817 34be
000002b0: c81e 8fbd 0d96 47bf a1b5 89bd e6ad 5abd
000002c0: b9c5 b0bd 282c 743d 6ba3 003d f9fe 103e
000002d0: caa0 98bd 5e98 0abe 63fb 8cbf 5f08 ddbe
000002e0: 4ac7 4ebd c33f aebd 6c21 7abe 06fe bfbd
000002f0: 55af 26bd 33e2 7b3b 634f b9be 3e81 a93f
00000300: 8a7c e3bc 2eac 07be 7a55 55bf fcb7 45be
00000310: 8884 00bf b608 6cbd 098d 13bd 7b30 96bd
00000320: 455c 7dbe 0796 59bd 7fd4 ecbf ab1c 7abd
00000330: 21d3 653d 6f44 8dbd 0fdb b2bd 4e44 50bd
00000340: c4b4 10bf ff86 d83c 7912 5dbf b55f dbbe
00000350: c21c 7fbf 7989 d2bf c0bc b9bf 1bae 1cc0
00000360: 5e17 04be f2b0 23bd 16e0 e3bd bcd3 61bd
00000370: 4b87 01bd ef5f 6e3c 0b79 99bd c183 b5bd
00000380: 4be4 74bc 0b10 01be c07f 38bd 4f89 22bc
00000390: 8fad 3abd 7c76 1e3e f90e 97bd 04c3 83bd
000003a0: e2e5 3b3f 582d 113f 98fa 0cbe 6d85 d4bf
000003b0: 0773 8fbe 333a 813d a88f 573b f29d 813f
000003c0: 3e52 b2bc 8c37 c7bd b1c2 10bd 796c a1bd
000003d0: 42f7 8a3c 6ce8 373c e3bd 4dbe f59f 8e3e
000003e0: 1932 7cbd b5bc 13c0 2311 91ba e687 97bd
000003f0: 4ad8 223d 3149 a7bd 1a9a 0e3e 4eb4 98bd

weight f4 [256, 256]
-0.8059109 -0.82282037 0.040988266 -0.18356144 0.016287167 0.015398653 0.017420473 0.031097557
-0.1347987 -0.04953384 -0.004772755 -0.35415623 -0.00684038 -0.095681734 -0.027500365 -0.0032406796
0.019398166 -0.06615665 0.026356457 -0.024066016 -0.015613081 2.4279037 -0.04999157 -0.061690856
-0.048737604 0.028163934 0.014572457 0.7205747 0.5421773 -2.7828076 -0.8791894 -0.050649226
-0.02204993 -0.051604174 0.016571483 -0.019705772 -0.4509603 0.007988565 -0.03514344 -0.035615552
-0.06348227 -0.013114746 0.06076449 -0.05022673 -0.050784085 0.028725818 2.935263 0.0022528407
-0.015414608 0.030346174 -0.035313997 0.03930055 0.057598423 -0.66753274 0.034629513 0.637455
0.013712452 -0.011969526 0.18740863 -0.0073482203 -0.46540877 0.027547963 0.0347919 -0.06216313
-0.00919953 -0.050347786 0.5976149 -0.27511966 0.039074946 0.01967582 -0.05775894 0.038042333
2.6894946 0.03474783 0.6774307 0.02287287 -0.008171147 0.005158648 -0.030600477 0.031182298
0.008114074 -0.008137244 0.017521506 -0.024916714 -0.007457248 0.055103917 -0.06404487 -0.002359548
0.03999901 0.031018069 0.30255648 -0.07323139 -0.059107553 2.7187262 0.022806315 -0.018333001
-0.027120288 -0.042543933 -0.021628221 1.6496378 -0.015187009 0.053311978 -0.05068223 -0.03871527
0.8981163 -14.48023 0.02583957 -0.0060282797 0.013796912 -1.2464528 0.021968655 -0.0312238
-0.036949515 -0.548368 0.05144397 0.046621516 0.025517125 0.055043295 -0.024458015 0.07972469
0.0137822265 -0.017967729 -0.029796075 0.04179522 -0.042939894 0.23235022 0.0071943654 -0.023891447
-0.035286516 -0.098397434 0.5212299 0.021760503 -0.047552954 -0.27460477 0.083683774 -0.05811098
-0.0024652658 -0.05239745 -0.07870279 -0.9015671 0.031320307 0.05192153 0.029225 0.0013510692
-0.014542827 0.76685935 -0.016573893 0.66202414 -0.62799937 0.002873264 -0.080931745 2.6082356
-0.52752346 -0.018770518 0.3862429 -0.80989474 -0.08444254 -0.068477124 0.8203102 -0.052380946
0.0018299714 -0.023041582 0.055014648 -0.08276388 2.149256 0.028265638 -0.030957907 0.0031227993
0.04689771 0.056597654 0.055602796 -0.355807 -0.025944304 -0.04214545 -0.037356585 -1.1215823
-0.024196878 -0.018348223 -0.045219116 0.38629055 0.043600004 -0.0358905 0.020074287 -0.051903166
-0.016049767 0.028396782 0.30993456 -0.0036811898 0.04630707 0.029119313 0.24688502 1.8891436
-0.026963681 -0.019721724 1.4112498 -0.093566604 -0.035790537 -0.02242567 0.058607288 -0.05544508
1.4573302 -0.0052120383 0.35741144 -0.031585462 -0.03175024 -0.06906357 -0.06867627 0.003894669
-0.017810713 -0.02510363 0.45689788 -0.24752013 0.4834664 0.7397271 0.012492181 1.4933385
-0.034058925 -0.054152854 0.044370282 0.0093082795 -0.04776391 -0.051087137 0.0259237 0.055331558
0.0037011197 0.02014295 -0.042615574 0.03543837 0.043592 -0.08258243 0.045600813 -0.020532683
-0.48713678 -0.55179083 -0.034553457 -3.7302127 0.05251576 0.038799748 0.049729124 -0.63824
0.0430655 -0.03367269 0.055534445 -0.03601532 -0.0056055062 0.06259544 0.5374442 -4.3515763
-0.05535084 2.307122 0.048961163 0.026828205 0.014891827 0.060308777 0.09785666 -0.041459464
00000000: 2d50 4ebf 5ba4 52bf 50e3 273d 88f7 3bbe
00000010: aa6c 853c a24a 7c3c 61b5 8e3c 4ec0 fe3c
00000020: ac08 0abe ffe3 4abd c564 9cbb f753 b5be
00000030: 4425 e0bb c9f4 c3bd 7248 e1bc 9561 54bb
00000040: e7e8 9e3c 237d 87bd 7fe9 d73c 1826 c5bc
00000050: 02ce 7fbc c662 1b40 f6c3 4cbd 8daf 7cbd
00000060: 15a1 47bd 0db8 e63c 51c1 6e3c 9577 383f
00000070: 22cc 0a3f 8519 32c0 8e12 61bf 9075 4fbd
00000080: 0ea2 b4bc e65e 53bd ebc0 873c 006e a1bc
00000090: 45e4 e6be 78e2 023c 91f2 0fbd 9de1 11bd
000000a0: fe02 82bd 3bdf 56bc 30e4 783d 8bba 4dbd
000000b0: f902 50bd 6852 eb3c 59db 3b40 65a4 133b
000000c0: 8d8d 7cbc 8a98 f83c 69a5 10bd 9df9 203d
000000d0: 53ec 6b3d 6de3 2abf add7 0d3d 4030 233f
000000e0: 31aa 603c d51b 44bc 0ce8 3f3e 57c9 f0bb
000000f0: 0f4a eebe 44ac e13c f481 0e3d c49e 7ebd
00000100: a0b9 16bc 7b39 4ebd 4afd 183f 7cdc 8cbe
00000110: 0d0d 203d 2f2f a13c a394 6cbd 47d2 1b3d
00000120: ae20 2c40 be53 0e3d 196c 2d3f e35f bb3c
00000130: 46e0 05bc e009 a93b daad fabc 0572 ff3c
00000140: e5f0 043c 1352 05bc 4389 8f3c 231e ccbc
00000150: ee5b f4bb a5b4 613d f529 83bd a5a2 1abb
00000160: 00d6 233d 9b19 fe3c afe8 9a3e 57fa 95bd
00000170: c31a 72bd 9cff 2d40 4fd4 ba3c 172f 96bc
00000180: 5e2b debc 8c42 2ebd ab2d b1bc 5527 d33f
00000190: efd2 78bc a95d 5a3d 2c98 4fbd e793 1ebd
000001a0: f3ea 653f 06af 67c1 82ad d33c e088 c5bb
000001b0: 710c 623c c48b 9fbf 9cf7 b33c 0ec9 ffbc
000001c0: 6058 17bd d861 0cbf eab6 523d 34f6 3e3d
000001d0: 4a09 d13c 1475 613d 2d5c c8bc b346 a33d
000001e0: d9ce 613c 0f31 93bc e616 f4bc 7731 2b3d
000001f0: bee1 2fbd 37ed 6d3e b6be eb3b ffb7 c3bc
00000200: 9888 10bd 9884 c9bd 536f 053f 1543 b23c
00000210: e3c6 42bd ff98 8cbe 6662 ab3d c705 6ebd
00000220: 4c90 21bb b59e 56bd ee2e a1bd 1acd 66bf
00000230: b949 003d acab 543d 4469 ef3c 5c16 b13a
00000240: 0a45 6ebc e550 443f f9c5 87bc 6a7a 293f
00000250: 91c4 20bf 5f4d 3c3b 8bbf a5bd 55ed 2640
00000260: c70b 07bf a1c4 99bc a1c1 c53e 4355 4fbf
00000270: 36f0 acbd bc3d 8cbd d9ff 513f 678d 56bd
00000280: a7db ef3a b3c1 bcbc 0a57 613d 1c80 a9bd
00000290: 698d 0940 578d e73c 709b fdbc e1a7 4c3b
000002a0: d017 403d f1d2 673d c2bf 633d 562c b6be
000002b0: 2689 d4bc b5a0 2cbd 3803 19bd 0290 8fbf
000002c0: 8838 c6bc 034f 96bc ae37 39bd e0c7 c53e
000002d0: eb95 323d eb01 13bd d572 a43c 6a98 54bd
000002e0: cd7a 83bc 5ea0 e83c beaf 9e3e 1e40 71bb
000002f0: 7bac 3d3d a08b ee3c 6dcf 7c3e 75cf f13f
00000300: f0e2 dcbc 748f a1bc d5a3 b43f d99f bfbd
00000310: 1999 12bd 0ab6 b7bc 320e 703d 611a 63bd
00000320: cc89 ba3f bfc9 aabb a2fe b63e c25f 01bd
00000330: 8a0c 02bd 3371 8dbd 25a6 8cbd b43d 7f3b
00000340: c6e7 91bc 21a6 cdbc 85ee e93e eb75 7dbe
00000350: e888 f73e c15e 3d3f 01ac 4c3c b725 bf3f
00000360: 5f81 0bbd 62cf 5dbd 9dbd 353d c181 183c
00000370: 17a4 43bd bf40 51bd f05d d43c 58a3 623d
00000380: 7c8e 723b d402 a53c ab8d 2ebd d327 113d
00000390: 868d 323d fa20 a9bd ebc7 3a3d 2834 a8bc
000003a0: fe69 f9be 2a42 0dbf ed87 0dbd cebb 6ec0
000003b0: c41a 573d 7cec 1e3d c4b0 4b3d b263 23bf
000003c0: 7365 303d 60ec 09bd 1678 633d cd84 13bd
000003d0: 65ae b7bb 0a32 803d f195 093f 1d40 8bc0
000003e0: 90b7 62bd e3a7 1340 808b 483d d3c6 db3c
000003f0: d9fc 733c 5606 773d 1369 c83d 66d1 29bd
