saved_models_1/125_6794_model.pt (torch, 701697 bytes, 11 tensors)

FC1.weight f4 [256, 36]
00000000: 56b4 3ebe 5837 9c3e f883 473e 50ee bcbe
00000010: 3dbd 963f 5199 8c3f dc57 cfbe 68df 01c0
00000020: 1314 903f ae0a 8c3f 531d 16c0 24d2 b33e
00000030: acf5 38bf e516 cd3e f2ad b53e b3bb 7f3d
00000040: 3c01 34bf 730c 72be 9065 ab3f d33f df3e
00000050: 7613 9c3f abcd 303f dc89 b4bf 25f4 a3be
00000060: 116f 1a40 6e04 cc3e 2447 e1bf f201 81be
00000070: c62b 013f 7595 5bbe 0fe0 c0bb 5e57 34bd
00000080: 2047 97c0 b339 15bf bfd3 6f3f f546 2dc0
00000090: be77 3abd 5c35 1a3d 7181 85bd 3daa cb3e
000000a0: f6fb 85bf dcc7 c73d f125 983f a60e 153e
000000b0: df88 e9bf d078 21bf a385 0f40 a92d 33bf
000000c0: b426 afbf 292c b9bd 2dab 413f 1af8 39bd
000000d0: f868 cfbf 3c91 183f 781f 2540 1574 263f
000000e0: b563 8e3d cd5e 26bf e754 0dbf bc93 c43f
000000f0: 4514 fb3f dcbb 72be 7882 90bf 48fa 39be
00000100: 26b8 833e a95a dc3e 21bd 9d3e 3d28 473f
00000110: d7f3 50c0 94ce 44c0 9ccd f73f 7525 1f3f
00000120: 07cb 11bf 6236 b23f 5e7e 32bf 5337 563f
00000130: 0910 88bf b295 ec3f 39b3 59c0 21df e8bf
00000140: d249 3240 c5c9 2c3f f98b 803e aee9 ff3e
00000150: 247b 49bf 8458 a93f 98c8 8ebe 489e 84bf
00000160: ffd7 14bf 11f4 0040 0a74 80be b4da a43f
00000170: 1d25 a2bf 2445 023f 8f74 c13e a1bb d03f
00000180: 2b5b e8bf 7d3e 2b3f e3bb 643f 2f8d 7fbf
00000190: 0e15 4f3e 6bac a6be c862 66be 8fca 14be
000001a0: 1c56 8a3e 2df4 f4be 4cc8 e2c0 030f edbf
000001b0: 75d7 d0c0 988c 563f aabf 513e 6275 de3e
000001c0: 997a 3bbf dfca 71bf a629 4abd a5e5 fe3f
000001d0: 48f6 78bf 0cc8 babe 5734 893f 9f46 883f
000001e0: b1b0 90bf ca85 a4be 96e1 863e 05b3 583f
000001f0: 55cb c1bf f828 86bf 77b6 bb3f 3097 bebd
00000200: ffc9 fbbe cab9 0f3f c5c2 793f 0da2 d8bd
00000210: 994e 10c0 ec74 ac3f 2272 d93f 8544 a23e
00000220: d3e6 8fc0 2d9f d33f cc56 e03e 5ac5 96c0
00000230: b41d 9abf ffdc 88bf 0006 0ebf 502d 92c0
00000240: 5bef 0bc0 74c3 1fbf 4c42 8abb 7463 00bf
00000250: 9285 e73f f4c1 49be 0d00 4abf 2dc1 83bf
00000260: 5895 6f40 47bb 003f 102c a5c0 f4de 45bf
00000270: ab7f 563f da7a 79bd c5c1 9cbf 086c 01bf
00000280: 449f 0940 1aec d13e 20c4 cebf 8d27 553f
00000290: ad45 1d3e d31e a2bf c357 9abe ab69 cb3f
000002a0: e6b8 293e b207 1dc0 8cc2 0f3e 85d6 213e
000002b0: de9e a5be 4ace 083f 9679 9e3e 9e7b 81bc
000002c0: b5f3 4f3f 4d15 6a3f 3293 9dc0 ad45 4fc0
000002d0: c855 01c0 5446 cfbd 9adc cfbd ea9a b83e
000002e0: 92da 08bd 554e 6f3f 44a0 bfbf 595d 2fc0
000002f0: 0125 e33f df78 74bf a800 973f bc68 f8be
00000300: 6820 20bf b3d0 1a3f 5037 e5be 0043 dcbf
00000310: 065c 5cbe 4df1 08bf 9c2b 0c3f 8915 a0bf
00000320: cea4 54bf bd3d 82bf 9455 773f a9ef a43f
00000330: 0111 31c0 9b7e d23f c7e8 b53e 9e1b 513f
00000340: 38fb 8f3f 0ddd c0c0 5d78 9ac0 0973 8abf
00000350: 7013 cd3f bddd a4bf d056 34c0 aedc 9cc0
00000360: 3eb5 4bbc 0d90 c7be 753c d9bd a283 77be
00000370: 5947 083f aab0 07be 3c13 0a3f ccca 6ebf
00000380: 0cf2 863d 4f31 3f3e 4206 b13e 0112 433f
00000390: d77a 16bf fe68 bdbf 143a 6a3f edce f63f
000003a0: b523 aabf 4864 ddbf b513 af3f 5e94 c13d
000003b0: 78ba e43e 279b c7bf 7a24 e4be f8c2 923f
000003c0: 2422 853e f5d3 90bf dc2c 49bf 7dd6 a23e
000003d0: c2bf 063e 179f 4a3e 5f88 e0be 5be2 48bf
000003e0: 0bd4 b43f 2a1d 3ac0 4147 c4bd 2c01 2d3f
000003f0: 2a04 bd3e 676d 56be e82b 47bf 141f 46bf
-0.1862348 0.30510974 0.19483936 -0.36900568 1.1776501 1.0984288 -0.4049672 -2.0292606
1.1256126 1.0940759 -2.3455398 0.35121262 -0.72249866 0.4005653 0.35484272 0.062434863
-0.70314384 -0.23637562 1.339037 0.43603382 1.2193439 0.69063824 -1.4104571 -0.32022205
2.413029 0.3984713 -1.7599835 -0.25196797 0.5045742 -0.21443732 -0.005886085 -0.044028632
-4.7274323 -0.5829117 0.93682474 -2.7074559 -0.04552435 0.037648544 -0.065188296 0.3977832
-1.0467517 0.09754917 1.1886579 0.14556369 -1.8244895 -0.6307497 2.2425315 -0.69991547
-1.3683686 -0.09041626 0.7565182 -0.045402624 -1.6203909 0.5959661 2.5800457 0.6502088
0.06952611 -0.64988405 -0.55207676 1.5357585 1.9615561 -0.23704475 -1.1289816 -0.18161881
0.25726432 0.43037918 0.30808356 0.77795774 -3.2648828 -3.0751085 1.9359622 0.6216653
-0.5695042 1.3922846 -0.6972407 0.8367817 -1.0629894 1.8483183 -3.401564 -1.8193094
2.7857556 0.67495376 0.2510679 0.4998297 -0.7870352 1.3230138 -0.27887416 -1.0360804
-0.58142084 2.0148966 -0.2508853 1.2879243 -1.2667576 0.5088675 0.3778424 1.630726
-1.8152822 0.66892225 0.8934919 -0.99824804 0.20222875 -0.3255342 -0.2249862 -0.14530395
0.2701882 -0.4784254 -7.0869503 -1.8520206 -6.526301 0.8380828 0.2048327 0.4344893
-0.73233944 -0.9445018 -0.049356125 1.9913832 -0.97250795 -0.3648075 1.0719098 1.0646552
-1.1303922 -0.32133323 0.26343983 0.8464816 -1.5140177 -1.0481253 1.4665059 -0.093061805
-0.49177548 0.56142867 0.9756282 -0.10577784 -2.2547972 1.3473182 1.6987956 0.316929
-4.496927 1.6532952 0.4381622 -4.711591 -1.2040315 -1.0692443 -0.55477905 -4.5680313
-2.186484 -0.6240761 -0.004219329 -0.50151753 1.8087637 -0.19702893 -0.7890633 -1.0293328
3.7434902 0.5028576 -5.1616287 -0.77293324 0.83788556 -0.060908176 -1.2246634 -0.5055547
2.1503458 0.41000444 -1.6153603 0.83263475 0.1535861 -1.2665657 -0.30145082 1.5891622
0.1657444 -2.4535947 0.14039057 0.15804489 -0.3234777 0.5343977 0.30952138 -0.015806016
0.8123124 0.9143875 -4.924218 -3.2386277 -2.0208607 -0.10120836 -0.10149498 0.3605569
-0.03341157 0.934789 -1.4970784 -2.7400725 1.7745668 -0.95496935 1.1797075 -0.48517406
-0.6254945 0.604747 -0.44768763 -1.7207947 -0.21519479 -0.53493196 0.5475404 -1.2506572
-0.8306397 -1.0175091 0.96614957 1.2885638 -2.7666628 1.6444887 0.35529158 0.81682765
1.1248541 -6.0269837 -4.827193 -1.0816356 1.6021557 -1.2880169 -2.8177986 -4.9019384
-0.012433348 -0.3897709 -0.106072344 -0.24171308 0.5323387 -0.13250986 0.539356 -0.93278193
0.065891355 0.18671153 0.34575087 0.76199347 -0.5878119 -1.4797666 0.9149487 1.9281899
-1.3292147 -1.7296228 1.3677889 0.09452127 0.44673514 -1.5594224 -0.4455908 1.146575
0.2600261 -1.1314684 -0.78584075 0.31804267 0.13159087 0.1978725 -0.43854043 -0.7847039
1.412721 -2.90803 -0.09583903 0.67579913 0.3691724 -0.20940171 -0.7780137 -0.7739117

FC1.bias f4 [256]
00000000: 9573 b9be 63fc f6be 6ab2 7abf 25bf a93e
00000010: ffe4 2e3e a6cf 373f f40d f03d 596d 6f3e
00000020: 3022 f8be 750c 96bf ecc0 273c 1a15 43be
00000030: 8444 26bf 7b80 273f d9d3 3abf 2af2 78be
00000040: e0fe 7abe 41b4 96bf 861f 613f 2f16 443f
00000050: 0d11 88bd 8791 f4bd cf6c 9f3e 37d7 e1be
00000060: 4a3b a3be 08c0 8f3d f2dd 38bf e35a 003e
00000070: fce5 5cbf 1f73 bfbd a090 94be 5882 10bf
00000080: 4208 44bf f1f7 19bf 1af4 2ebe 8384 333f
00000090: 572c 93be bad7 48bf e891 e8be 1652 2ebe
000000a0: d95d e6bd fb61 ccbe 2607 273e 3b5c 47bf
000000b0: e68a d73d 5b53 fdbd a7cf 9dbf cd1c 9bbe
000000c0: 14da 0c3f b536 18bd e84a 9a3f ff4b 48be
000000d0: 589d 3ebf f645 8dbf 2d18 333d 0bdc a4bf
000000e0: 442f 30be e492 09bc d9e2 8d3d b26b 343e
000000f0: 4380 57be 90d5 2b3d a921 d03d 35ad 0d3f
00000100: 84e0 173e 162d 50bf 8203 d3be b18e 10be
00000110: b08d 083f 16d3 acbd a8e0 eabe 9203 acbe
00000120: 083b 753f a0c0 0440 546f 2d3e c55a 7ebc
00000130: b1a2 0dbf 4ab2 24bf f423 86bd 405e 553f
00000140: c810 44bf 445d 64bf 9ae1 b13e 4eb2 f6be
00000150: a4c9 3a3d 1403 233e d193 3fbe a04d 173f
00000160: 5962 99bf 1ec3 013f 9d01 fc3c c049 12be
00000170: 8f13 d7be 5ff0 743f 89f5 f2be e110 b03d
00000180: 6006 86bf 943a 813e 8027 93bf baae 93bf
00000190: ad76 8abe d896 3a3e 4a6f 5dbe 9b9f 5bbf
000001a0: 71a4 04be 2e18 233f ce8d cd3d 4fe3 a9bd
000001b0: 3600 97be 7159 f33e 11fe 51be 0314 88bf
000001c0: 29ae 36bf d23b 54be f4b3 f4be 7aa0 6a3e
000001d0: b78c 30bf 358d ebbd fc04 dfbe 8d77 8dbd
000001e0: ac8e 55bf 4ee3 00bf 5429 293f 96c7 aabd
000001f0: 372a 8bbf be8e 20bf 66a7 06bf 109a 47bf
00000200: 361f 30be c3d4 08be 80b3 373e 1e3b 403f
00000210: 69f0 b83e 3330 2e3e 2e53 e2bd ba1e 89bf
00000220: 3ddd 25bf 53c3 9a3d 0e6b 9bbe 9294 ccbd
00000230: 78c1 6dbe 5fcb 4e3d cc15 20bf ac2e 99be
00000240: 8794 17bf 103d 43bf b89a 63be 1ca8 fd3f
00000250: e2f7 59be f6b2 ac3d 0827 9d3f 913a 1b3e
00000260: 82a3 51be 4b31 3bbe a62e 893f d9aa 1ebe
00000270: 92dc 76be c174 e33c 42a8 733f 3d45 90be
00000280: 0c4e 37bf a101 343f 55b8 bf3f 6b6c 253e
00000290: ed03 413e 38be 9a3e a288 10bf 44be 92be
000002a0: c8fd cc3e 7603 553e 968f 34bf 4013 32bf
000002b0: a3c3 613f 56c3 1dbe ec3e 163f cea0 73be
000002c0: a39f 763d ebae b1bd ea42 a3bf f9f2 93bf
000002d0: 5e4b debb df86 fabe c679 26bf 1b70 343e
000002e0: 4ef7 d93e 230c 2ebe d8d7 7ebd c063 b1be
000002f0: dd77 d43e daab 54bf 74d5 39be bd17 06be
00000300: 437b f23e 28af 883e 4431 b63f 4d61 a33e
00000310: 703e 9bbd 37c0 053d 282a dc3e 2e78 763e
00000320: 408a 48bf 1a87 05bf 68ee e4bc f1d2 a4be
00000330: 7827 76be 9fd9 c63e b087 6d3f 3163 49be
00000340: 2d78 c53d 1ab1 723f bc43 cabe 9011 873e
00000350: 681e 8bbf 7efb 5bbf f0bf 25bf f2a7 90be
00000360: 12ba bdbe e190 9e3b e37e 903e 118f 193f
00000370: 95bf e0be b2fa 123f 6ce1 003e 2209 893f
00000380: d74e 01bf ab03 1dbf fbc0 76bf 8825 2abf
00000390: 711f 9a3e dab8 97bd ca3b af3f 282f babe
000003a0: f08a 653d edf7 cdbe 5055 61bf 3d73 7b3f
000003b0: a57f 8ebf b2e4 173f a83f 003f e289 dabe
000003c0: ccab 1dbd 7174 a4bd 21ea 823e 71b2 563f
000003d0: b3b9 283f e023 50be b6a4 7fbe 663c f93d
000003e0: cd27 64bd 63af a63e 716c 58be 6dcc 313f
000003f0: 5494 473c 8766 833f aa09 40bf ce49 72bf
-0.36220995 -0.4823943 -0.9792849 0.33153644 0.17079543 0.7180122 0.11721411 0.23381557
-0.48463583 -1.1722552 0.010238867 -0.19051018 -0.64948297 0.6543042 -0.72979504 -0.24311128
-0.2451129 -1.1773759 0.87938726 0.7659635 -0.06643877 -0.1194182 0.31137702 -0.44109508
-0.3188117 0.07019049 -0.7221366 0.1253467 -0.8628843 -0.093481295 -0.2901659 -0.5644889
-0.765751 -0.60143954 -0.17085305 0.7012407 -0.28744766 -0.7845417 -0.45423818 -0.17023501
-0.11248369 -0.39918503 0.1631132 -0.7787511 0.1052454 -0.123694144 -1.2328995 -0.3029541
0.5502026 -0.037161548 1.205411 -0.1956024 -0.7445884 -1.1036975 0.043724228 -1.2879652
-0.1720553 -0.008396838 0.069280334 0.17619208 -0.21045022 0.041951716 0.1016267 0.5534242
0.1483174 -0.81318796 -0.41213614 -0.14116932 0.533412 -0.08438699 -0.45874524 -0.33596474
0.957932 2.074257 0.16937 -0.015524571 -0.5532637 -0.6433455 -0.06549826 0.8334694
-0.76588106 -0.8920481 0.34742433 -0.4818291 0.045602456 0.15919143 -0.18708731 0.5910282
-1.1983138 0.5068835 0.030762488 -0.14285946 -0.4200711 0.9567928 -0.47452953 0.085969694
-1.0470695 0.25240004 -1.149643 -1.1537697 -0.27043667 0.18221605 -0.21624485 -0.85790414
-0.12953354 0.6370877 0.10036813 -0.08295309 -0.29492348 0.47529176 -0.20507075 -1.0631107
-0.713595 -0.20725945 -0.47793543 0.2291278 -0.68964714 -0.115015425 -0.4355849 -0.06907568
-0.83420825 -0.5034684 0.66078687 -0.08338849 -1.0872258 -0.6271781 -0.5259918 -0.77969456
-0.17199406 -0.13362412 0.17939568 0.75090206 0.36120918 0.17010574 -0.110510215 -1.0712502
-0.6479071 0.075567864 -0.30355114 -0.09989275 -0.23218334 0.05048692 -0.6253326 -0.2991842
-0.5921101 -0.7626505 -0.2222699 1.9816928 -0.21285966 0.084325716 1.2277536 0.1515906
-0.2047253 -0.18280523 1.0717361 -0.1549486 -0.24107578 0.027765634 0.95178616 -0.28177825
-0.71603465 0.70314986 1.4978129 0.1615464 0.18849154 0.3022325 -0.56458485 -0.28660786
0.4003737 0.20802101 -0.70531595 -0.69560623 0.8818914 -0.15406546 0.5868976 -0.23791811
0.060210835 -0.08675941 -1.2754796 -1.1558524 -0.006783887 -0.48931023 -0.6502956 0.1762089
0.4257149 -0.16996817 -0.062217563 -0.34646416 0.41497698 -0.83074725 -0.18147832 -0.13094993
0.47359666 0.26696134 1.4233785 0.31910172 -0.075802684 0.032654013 0.43000913 0.24069282
-0.7833595 -0.52159274 -0.027945712 -0.32192186 -0.24038494 0.38837907 0.9278517 -0.19666745
0.09642062 0.94801486 -0.39504802 0.26380587 -1.0868654 -0.8593062 -0.64746 -0.28253132
-0.37056023 0.0048390483 0.28221807 0.59983927 -0.43896165 0.5741378 0.12585992 1.0705912
-0.50510925 -0.6133372 -0.96388215 -0.6646352 0.30102113 -0.074083045 1.3690121 -0.36364102
0.056040704 -0.40228215 -0.880208 0.98222715 -1.1132704 0.59333336 0.5009713 -0.4268332
-0.038493916 -0.08030022 0.2556925 0.8386603 0.65908355 -0.20326185 -0.24965176 0.12169723
-0.05570202 0.32555684 -0.21135117 0.69452554 0.01218136 1.0265664 -0.75014746 -0.94643867

FC2.weight f4 [256, 256]
00000000: 0f4e fe3e 9cfb 28bf dca1 6cbf f9df c8bf
00000010: 1707 c03f 5c8b 7fbe 90d8 fb3e f00f c6c0
00000020: ef6a 2dbf fb16 e23f 760f 04bc 6543 403f
00000030: 2167 2cc0 5a7f 3ebf 75a6 8fbd 1641 ef3e
00000040: aa3c 08c0 522b 7d3f 65d5 f9be ab74 3cbe
00000050: 1240 1f3d 06ad 2640 e61e c8c0 6f74 c3bf
00000060: 6f14 cd3d 82ab 96c0 8968 6fbf e59d 85c0
00000070: 98bc bb3f 2f28 513f b410 9c3f 0b5d da3d
00000080: 41a4 8cbf ba37 7ebb 2ada 323f 4a63 223f
00000090: f99e 64bf 9ca6 1140 ace2 4c3d 5a09 c93f
000000a0: 051f 71bf d649 713d e466 07c0 d547 78ba
000000b0: ab28 e63f 1e54 0fbe 3c7f 19bf f03e a8be
000000c0: 655f 8c3d d770 cf3e 10e8 9fbe 58b8 94bc
000000d0: b0eb 36bf c0f3 5ac0 2fc3 b7bf 7470 26c0
000000e0: 7f3f f33d 2bc0 493f 953b 10c0 6224 623f
000000f0: e842 b33e 9d7b 2f3f 2e3c 413f b78d a83f
00000100: c0ed 473e 2c64 0f40 56cc 44bd 3ea4 23bd
00000110: abd8 9c3e 3d4d 94bd 63da 993e 0e08 41be
00000120: e35a 363f b8d4 89bf ac3f de3e 8b65 763f
00000130: fad3 403d 4ad5 32bf 696e a53f ab58 ae3f
00000140: 1fa2 3c3f ba73 bfbf b0ad 8f3e e15a 8ebf
00000150: 827b d03d c507 9d3f 000c 363f af69 82bf
00000160: 881d 28be deff 2e3f fa76 5abc 2df2 463e
00000170: 43a7 a43e 997f a23e 9897 9f3f 4610 83bf
00000180: 548b 1440 c240 67bf eff2 1b3f 776d d9bf
00000190: 4566 8d3f 42a1 043f 07ee 54c0 32e1 49bd
000001a0: f24f 283c 79ae 4b3e 6163 0e40 d1a1 743f
000001b0: ac36 a5bf c973 86bf 9d7e 5e3f 95b4 f5be
000001c0: 5f25 14c0 628e 03c0 7046 983f 93b3 8cc0
000001d0: d351 e73f 4bb1 943f 6ef0 20bf 35b6 90be
000001e0: 5b0d 373d bb8e 0dc0 362d 8fbe 1d21 c7bd
000001f0: 9f81 fcbf 3b80 923f bd13 1c40 dae4 05bf
00000200: 5c7c d93e f76a 733f ae7a 833f da54 4e3f
00000210: 934d 6e3f 7231 17bf 19d3 fabf b068 cd3f
00000220: 8250 4c3f e5b3 76bf c26c 3ec0 c415 1c3f
00000230: 3e22 b2bc a27c a6bf 2ef7 903f dbfe 823f
00000240: 6c3a 0ac0 dbad abbe f278 7d3f 62f6 633f
00000250: 5a80 8dbd 4a88 893f dc28 6f3f 314a 1dbe
00000260: 7aeb a3c0 73ae e1be 1c09 25bf d246 15bd
00000270: caba 93bf 6191 5540 5a6b 923f b684 86bf
00000280: 25d8 fb3e 04e6 14c0 ed81 05bd 6bd6 313f
00000290: 6874 90bf d44a 96bf 592e ec3e 3f6b 9dbf
000002a0: 785c a63e e181 4abf ef10 6740 67ad 08bf
000002b0: d45f 99bf 7af3 78bf a127 13bf 7826 03c0
000002c0: 4e33 d0bf 47b9 45bf 64d8 a5be 7c47 e63e
000002d0: cca6 8e3f 3df9 e73f 3606 81bf 5b66 0b40
000002e0: 820f 643f 50d6 f5bd a4b7 373f dfa6 653f
000002f0: 9f22 f8be 5319 2fc0 15e3 1a40 9292 353e
00000300: 5a8a 90bf ad11 9e3e f299 88bf 9e09 313e
00000310: 7851 7a3e 4ad0 a2be 4f54 6b3f cb15 43c0
00000320: d328 b23f 6329 a83e 8875 53bc dae8 9fc0
00000330: a6a9 aa3f 4c4d adbf c480 a3bf a081 fb3f
00000340: 2339 ea3d 0481 2cc0 1cdf b63e fd71 943f
00000350: 0624 7d3f e972 893f 2ca7 90bf cbc1 d8bd
00000360: 8106 dabc a940 63be b482 60c0 0770 83bf
00000370: daa6 04c0 0710 22bf 49ab b83f 1814 6f3f
00000380: c6d2 2a40 5ec8 74bf f246 933f f916 513f
00000390: dee8 1cbf 47b8 613e f771 80bf 8c2d b6bf
000003a0: 373a 703e 7466 32c0 cbd8 a83e 03d4 65bf
000003b0: ff3d d0c0 d49c a63f 9135 1c3f 530b 91be
000003c0: 50d4 213f 9c8a 6dc0 84f7 10bf f658 2a3f
000003d0: bb69 ac3f b5b2 d93e 8297 503f dc9b 5e3f
000003e0: 22c3 2dbd 0169 9c3f ffba f2be 0793 c13c
000003f0: 811e 3bc0 4723 85bf 39c9 85c0 1192 1a3f
0.4966893 -0.66008925 -0.9243448 -1.5693351 1.5002164 -0.24955505 0.49188662 -6.1894455
-0.6774129 1.7663263 -0.008060327 0.75102836 -2.6937945 -0.74413073 -0.07014171 0.46729344
-2.1287026 0.98894227 -0.4879562 -0.1840388 0.03887946 2.6043105 -6.253772 -1.5269908
0.10013663 -4.708436 -0.93518883 -4.175524 1.4666929 0.8170194 1.2192597 0.10662278
-1.0987626 -0.003879054 0.6986414 0.63432753 -0.89305073 2.275794 0.05002086 1.5705979
-0.9418796 0.058908306 -2.115655 -0.0009471153 1.7981161 -0.13996932 -0.5995977 -0.32860518
0.068541326 0.40515777 -0.31231737 -0.018154308 -0.7145338 -3.4211273 -1.435644 -2.6006136
0.11877345 0.7880885 -2.2536366 0.88336766 0.35011983 0.68547994 0.7548245 1.3168248
0.19524288 2.240489 -0.048046432 -0.039951555 0.30634055 -0.072412945 0.30049428 -0.18850729
0.7123243 -1.0768042 0.43407953 0.9624869 0.047077157 -0.69856703 1.292432 1.3620809
0.7368488 -1.4957192 0.280622 -1.1121484 0.10179807 1.2267996 0.7111206 -1.0188502
-0.16417515 0.6835917 -0.01333403 0.1942832 0.3215886 0.31737974 1.2468138 -1.0239341
2.321004 -0.9033319 0.6091756 -1.6986531 1.1046835 0.5180856 -3.327028 -0.04928703
0.010272967 0.19890775 2.2248156 0.9555941 -1.290731 -1.0504085 0.86911947 -0.47989336
-2.314781 -2.0555654 1.1896496 -4.3969207 1.8071846 1.1616606 -0.62866867 -0.28264013
0.04469047 -2.2118366 -0.2796418 -0.09723113 -1.9727057 1.1445383 2.4387047 -0.52302325
0.4247769 0.9508509 1.0271814 0.80598223 0.9308712 -0.5905982 -1.9595672 1.6047573
0.79810345 -0.9636825 -2.975388 0.6097071 -0.021744844 -1.3006785 1.1325433 1.0234026
-2.1598158 -0.3353108 0.9901267 0.89047825 -0.06909247 1.0744717 0.9342172 -0.15360333
-5.1224947 -0.44078407 -0.64467025 -0.036444493 -1.1541378 3.3369982 1.1439011 -1.050925
0.49188343 -2.326539 -0.03259461 0.694678 -1.1285524 -1.1741586 0.4612911 -1.2298354
0.32492423 -0.7910443 3.6104085 -0.5338959 -1.198237 -0.97246516 -0.57482344 -2.049223
-1.6265657 -0.77235836 -0.32391655 0.44976413 1.1144652 1.8122936 -1.008002 2.1781223
0.89086163 -0.120037675 0.7176459 0.8970775 -0.48463914 -2.7359207 2.42011 0.17731693
-1.1292222 0.3087286 -1.067198 0.17288825 0.2444514 -0.31799537 0.9192552 -3.0482051
1.3918709 0.32844076 -0.01290644 -4.9971743 1.3333023 -1.3539214 -1.2773671 1.9648933
0.11436679 -2.6953745 0.35717094 1.1597286 0.9888309 1.0738193 -1.1301017 -0.10583838
-0.02661443 -0.22192635 -3.5079775 -1.0268563 -2.0726838 -0.63305706 1.4427272 0.93390036
2.6691146 -0.95618236 1.1506026 0.8167568 -0.6129283 0.22042952 -1.0034779 -1.423265
0.23459707 -2.7875032 0.329779 -0.8977663 -6.507568 1.301661 0.61019236 -0.28328952
0.6321459 -3.711585 -0.5662768 0.66541994 1.3469766 0.42519155 0.8148118 0.8695657
-0.04242242 1.2219545 -0.47408292 0.023629678 -2.9237368 -1.0401391 -4.1808133 0.6037913

FC2.bias f4 [256]
00000000: aafe 5abd 6831 a3bd 3c59 16bf 8cd1 adbc
00000010: 9369 d0bf 74e3 13bf cc70 fcbe 0da0 8f3d
00000020: 99d4 8dbf 8ad4 8abf 5cf4 a6bf 7ed6 dbbd
00000030: 54c7 b5bf 32d3 81bd 387f 91bf 11fc 92bf
00000040: 6a20 303d 7864 5dbe 82ce f8bd 2bdd b1bf
00000050: 04c3 8cbf a239 71be d2c3 023f b28a b5bf
00000060: 4924 2d3e 3400 34be 524b 523e 8abe 5cbd
00000070: 54ae 07bf 21c3 39bf a875 f9bf 2f27 a1bf
00000080: 9f75 dbbf b17f cbbd b0bb 9dbe 8816 53bf
00000090: f64c febd 160b 7abe 3587 15c0 11c9 1c3f
000000a0: 0e4c 62be f5b4 b7bf 0354 2a3f dcff e3be
000000b0: c2e6 2cbd 2321 afbf e3a4 83bf 1d92 b53e
000000c0: 1490 1abe 61df d9bf 8466 49bf 0829 77bf
000000d0: ab9f 10be 8a87 ebbe 087e d4bf 5349 febd
000000e0: d669 fbbe 2ce6 ddbe 1997 98be dfe8 7dbe
000000f0: 3612 4c3e 593d eabd 589b d7bf 89ed cbbd
00000100: 41c1 203f 85fa a23c 1e73 24bf 10a9 17bf
00000110: 3518 ccbe 37b1 8ebc 5c26 6ebf f0a4 2ebf
00000120: 3573 18be 647d 8cbd f3e2 f73d 6b6c 203e
00000130: 6e8e f1bf add4 03bf 038c 28bf 2bfc 61bf
00000140: 7275 d1be be61 d3bf 1883 afbd 34dd 0ebf
00000150: ca80 16be 1ae4 05c0 4b6a 34bf b8bf d1be
00000160: 2b3f 16bf 5c41 843f 81f5 93bf dbfa 32bf
00000170: aa98 06bf b012 08c0 a07b a9bf 9e47 88be
00000180: 72d6 bdbf a819 abbf fcb6 d6bf 7b13 9ebf
00000190: b77f 3abf 5609 22bf 0db5 0b3e da15 fabe
000001a0: 34d2 3ebf 4b9b 7abf 7546 aa3f 55cc 76bd
000001b0: 1365 bdbf 38c8 73bf c042 49be 8f86 1ebf
000001c0: 9baa 5cbe bc5b bd3e 2420 453d f0f8 9bbf
000001d0: aca6 f1be bda7 82bf d51a c5bf 0028 93bf
000001e0: d68f 6fbd be57 94bf af86 363f 427f 87bf
000001f0: 9d6f a0bd ab2a 7c3e becd 4abe 899e 65bf
00000200: efcc 2cbe 3a2a b8bf e14a edbf f0b4 26bd
00000210: e54b 963c 97c9 87be d54d 80bf 9bfe 82bf
00000220: 3d79 03be 626e d33f 813a e8bf dd69 d5bd
00000230: e4f0 e2be 6deb c1bd 332a f53d 59d5 45bf
00000240: 5c37 30bf 5a34 1abf 2cac 57bf 72f3 f5be
00000250: c8e8 05bf 7f08 f6bf 95d7 efbf f4be 29bf
00000260: ca77 293d 902f 05be 8eb6 143f 7de9 2ec0
00000270: 5a80 3bbf 69b9 bdbf 7ceb 533d c84b 83be
00000280: 9540 34bd 6c6f 433e 2608 c3bf 5f9b 433f
00000290: 9c7a 19bf 7df9 23bf 9122 8cbf d314 2dbf
000002a0: c854 84bf c1b0 34bf 8921 98bf f04c c5bf
000002b0: 3fa9 8bbf 03d4 e3bf 21fe 9dbf d70a 03c0
000002c0: dd38 84bf fb3f a8bf e124 56bf 51bd e93e
000002d0: e3ea 22bd 1dea 9dbf dd86 75bf 69a6 3abf
000002e0: 6a6b 2a3f 7d83 b6bf a2af b9bf 267e 75bd
000002f0: 75f3 50be 1f37 99be bffe debf 41aa 80bf
00000300: 52e8 55be 964f 8bbf fc4d 08bf c118 60bd
00000310: f707 4fbe 1ad0 fbbf 952b 84be fcca 58bf
00000320: 69f9 69bf 1ff0 73bd 4c4a 3ebe bcc0 b5bf
00000330: a353 43be a1e5 313e 12a8 b8bf 3436 a5bf
00000340: 84e4 a5be 62c6 2e3f 178b c9be 1e61 76bf
00000350: 4094 ce3e d7e5 65bf a749 4ebf 3231 9dbf
00000360: b2fb 2bc0 d45e 383d e4f3 b7bd 3d3a dabf
00000370: 4bbc 3bbf 72d8 e5be 5518 c1bf 84ea 27be
00000380: c672 053d 3b85 7ebc 56de 99bf 1b1f c8bf
00000390: e24f eabf bf80 fabf 777c 27bf 0943 afbf
000003a0: 5a11 99be 13ab 05bf da9f 01bd 368f 4dbf
000003b0: a806 78bf 3f56 e5be b9ed fabf 1927 a4bf
000003c0: c814 d6bd e439 7cbf ddc1 9fbf 36f8 5b3f
000003d0: d4fb b2bf 668a 54bf 3597 debd a6c3 85bf
000003e0: 79cd b9bf d7cb 09be 6fc6 20bf 5da6 4bbf
000003f0: ae4c 90bd f69d 56be 08f3 25bf 47a4 1ebf
-0.053465523 -0.07968408 -0.5872991 -0.021218084 -1.6282219 -0.5776894 -0.49304807 0.07012949
-1.1080505 -1.0846112 -1.3043323 -0.107342705 -1.4201455 -0.063391104 -1.1366949 -1.1483175
0.042999662 -0.21620357 -0.12148763 -1.389562 -1.0997014 -0.23557141 0.5108005 -1.4182951
0.16908373 -0.17578202 0.20536545 -0.05389265 -0.5300038 -0.7256337 -1.9489031 -1.2590083
-1.714527 -0.099364646 -0.30807257 -0.82456255 -0.12417023 -0.24418291 -2.3363774 0.61244303
-0.22099325 -1.4352099 0.6653444 -0.44531143 -0.042212255 -1.3681988 -1.0284694 0.35463038
-0.15094024 -1.7021295 -0.7867205 -0.96546984 -0.14123408 -0.46001846 -1.6600962 -0.12416329
-0.49104184 -0.4333967 -0.29802778 -0.24795865 0.19928822 -0.114374824 -1.6844282 -0.099574156
0.6279488 0.019894848 -0.64238155 -0.59242344 -0.39862218 -0.017418487 -0.9302728 -0.68220425
-0.14887698 -0.06859854 0.12103834 0.15666358 -1.8871591 -0.5149639 -0.6583864 -0.882754
-0.40909916 -1.6514204 -0.08569926 -0.5580628 -0.14697567 -2.0920472 -0.7047469 -0.40966582
-0.58690137 1.0332446 -1.1559297 -0.69914025 -0.52576697 -2.1261406 -1.3240852 -0.2661714
-1.4831069 -1.3367205 -1.6774592 -1.2349695 -0.7285113 -0.63295496 0.13643284 -0.48844796
-0.74539495 -0.9789321 1.3302752 -0.06025346 -1.479647 -0.95227385 -0.1965437 -0.6192407
-0.21549456 0.3698405 0.048126355 -1.2185345 -0.47197473 -1.020744 -1.5398813 -1.1496582
-0.058486782 -1.1589277 0.7129926 -1.0585711 -0.078337885 0.24625652 -0.19805047 -0.8969503
-0.16875051 -1.4387887 -1.8538476 -0.0406999 0.018346736 -0.26520988 -1.0023752 -1.023395
-0.12839217 1.6518061 -1.8142854 -0.104205824 -0.4432441 -0.09468732 0.119709395 -0.7727867
-0.6883447 -0.6023613 -0.8424709 -0.48037297 -0.5230832 -1.9221343 -1.8737665 -0.66306996
0.041374005 -0.13006425 0.58091056 -2.733001 -0.73242724 -1.4822208 0.051738247 -0.25643754
-0.044006903 0.19085473 -1.5236862 0.7640895 -0.5995271 -0.64052564 -1.0948049 -0.676099
-1.0338373 -0.70582205 -1.1885234 -1.5414104 -1.0911025 -1.7799076 -1.2343179 -2.0475366
-1.0329853 -1.3144525 -0.8365002 0.4565225 -0.039774787 -1.2337071 -0.9590891 -0.7291017
0.6657015 -1.4258877 -1.4506724 -0.059934758 -0.20405371 -0.29924867 -1.7421492 -1.0051957
-0.20889404 -1.0883663 -0.53243995 -0.054711107 -0.20217882 -1.9672883 -0.258145 -0.8468473
-0.91396195 -0.05955517 -0.1858303 -1.4199443 -0.19074874 0.17372753 -1.4426291 -1.2907166
-0.32400906 0.6827146 -0.3936393 -0.9624194 0.4034748 -0.8980383 -0.80581135 -1.2280638
-2.6872373 0.04501231 -0.08982065 -1.7049023 -0.7333419 -0.44891697 -1.508555 -0.16398054
0.03258016 -0.015534694 -1.2020977 -1.5634493 -1.8305628 -1.957054 -0.65424293 -1.3692333
-0.2989605 -0.52214164 -0.031646587 -0.8029665 -0.96885157 -0.44792363 -1.9603797 -1.2824432
-0.104531825 -0.98525834 -1.2481037 0.85925615 -1.3983102 -0.8302368 -0.10868684 -1.0450332
-1.451583 -0.13456665 -0.62802786 -0.79550725 -0.070458755 -0.20958695 -0.6482396 -0.6196942

action_out.weight f4 [5, 256]
00000000: df47 c03f e13f 83bd 6126 663f bb98 f2bf
00000010: 837e 37bf 76ed 61c0 b741 ba3f b623 4e3f
00000020: b8e1 62bf ac92 01c0 5328 b03f 7ef9 0d3f
00000030: 31f7 4fbf 853f 23bc 76e4 90bf 5ead 873e
00000040: b610 2540 c7c6 823d a046 d73e 50b6 123f
00000050: fa19 a93f 698a 9b3f 411d 683f d612 5f3f
00000060: 1806 0b3e 3690 ef3f 1800 0f3f 5a4f 313f
00000070: 4bf9 c73e 733c 2e3e d857 0dbf 307d 4640
00000080: e9db f93e 7739 ed3c 9c92 fb3e eec9 2040
00000090: d598 65bd e49c 063f 521d 9d40 3519 c93f
000000a0: 03c3 e33f 1530 723d 5ada 633f 2516 9b3f
000000b0: 903b 9a3e 7fd5 91bf 96d0 103f 3506 e73e
000000c0: 6950 d03f 8bd3 5940 4d8d 103f 01fe f23f
000000d0: c0ee 763f c1e8 2a40 0a03 5c40 a819 b63f
000000e0: 8baa e53f 31f4 423f c179 993f 0ce0 533f
000000f0: 0ad9 c13f 7652 f73f 19b1 d2bf 1ebe 73be
00000100: fb40 1940 19c9 b13f 4f28 833f 0114 b13f
00000110: 2ffa 5f3f 3591 c83f 9685 17bf f7e7 0cbf
00000120: e5ea e63e 2f73 6d3f 241a 12be 5d6c 1fbf
00000130: 839f 4340 0d6d 95be eee1 283f a097 663f
00000140: de78 4fbf f115 e03e 18b4 c93e f6d0 883f
00000150: 96e9 b23e 1621 d6bf 2dc3 7340 05c7 1140
00000160: 978f 9a3e 0f15 c53f 5d6a 4b3f cac0 b13f
00000170: d2df 943f a6b7 873e a7a2 9e3f 35b6 843e
00000180: 1907 ca3f e18f 453f 97c2 373f 0417 023f
00000190: 0fd7 c6be 024f ab3f ff88 9f3f 3a38 853e
000001a0: e284 963f bf33 65be 36a4 923f 1b84 c93f
000001b0: 806a f03e d60e c83e caee b43e e1bc 853d
000001c0: b79a 3abf 7c40 f13f 4332 0040 4805 c73f
000001d0: af2a 41bf 6dc3 1840 c721 c3bf 43ed c03f
000001e0: e8fc 8f3c c28f c03f cf66 993f 91f3 d93f
000001f0: e53d 823d 00ae 2b3f e37f c53e 093c 903f
00000200: d671 9e3f db94 5240 61d7 023f 1fd7 a1bc
00000210: d79d ea3f c922 933f 9454 aabb 017f 383d
00000220: 1813 b33f 72bf ab3f a43a 8c3f 3f8d 843e
00000230: 5334 0e3f 541c f23e 9959 9c3f 9c2d ba3f
00000240: fe8b 71c0 bcdd 0640 8dc5 213f d34f 173f
00000250: 4421 8a3f bc02 1b40 57fe 3d3f 7b9a c8bd
00000260: dca3 eb3f e44d be3e 3feb 893f 12d1 4c3f
00000270: 5d65 943f 1a18 3c40 eae6 403f d33a 00bf
00000280: 290e 433f be35 943f e8bd 2740 5545 9a3f
00000290: f1dd 5740 e849 9dbe f4bc a63f 06df ef3e
000002a0: 50e1 2540 ef47 b83f 886e 3e3e c327 b33f
000002b0: 20d8 f63e 6cf8 123f 3b50 5340 d694 013f
000002c0: 5189 2240 eeac b03f 3977 a3bf 26c0 a53f
000002d0: 8268 b1ba f718 d1bd 231a b1bd ea7d a23f
000002e0: 7763 f63f 927e f23f d87c 0b3f 3c29 3d3f
000002f0: 8b90 763e 52a3 e13f 644c d33f 6e7d e73f
00000300: dfa3 bf3f e6ea 33bf 75c3 9c3f 9ec1 8bbc
00000310: a9f2 81bf f6ad dfbe 7fb0 e93f 950d 97bf
00000320: 03b7 283f add0 10bd e3d2 123e add0 16bf
00000330: 22b3 cebf e0f0 843f 7eda 02c0 14ab ab3f
00000340: f77d 03be ebb4 ed3f 3b8e a13f 1c1c 1140
00000350: 412e 41bf 6f71 643f 35f4 fb3f 4382 6cbf
00000360: 6d2c 02c0 699b cd3f 9d36 19bd d57c 2a3f
00000370: faf9 bdbf be45 3e3f 77ea 53be 1dac 503e
00000380: 0a64 bdbc efbf 69bf 9a27 b33e d575 753f
00000390: f7f5 613c f6a5 6d3f 4196 833f 8846 d93f
000003a0: 71ed e73f 1789 6e3f 245f b43f f7a6 f43f
000003b0: 7cc7 c33f 664e aa3f 5cb5 d73e 9c8f 4d3f
000003c0: 79e4 0e3d a9b6 49bf 9441 51be 8ed1 1f40
000003d0: d990 24c0 10e4 503f 4917 953e 0122 bf3c
000003e0: 3914 bb3e ab08 6f3d b46b e93f 8061 5fbf
000003f0: 4a0a 1e3f 74ea be3d 6a48 c43f 4f37 0b40
1.5021933 -0.06408668 0.8990231 -1.895286 -0.71677417 -3.5301185 1.4551305 0.8052324
-0.8862567 -2.0245771 1.3762306 0.5545882 -0.8123656 -0.009963875 -1.1319721 0.26499456
2.579145 0.0638557 0.4204607 0.57309437 1.3211052 1.2151614 0.9066964 0.87138116
0.13576543 1.8715885 0.5585952 0.69261706 0.39057383 0.17015247 -0.55212164 3.1013908
0.4880059 0.028958065 0.49135292 2.5123248 -0.056053955 0.52583146 4.909829 1.5710818
1.7793888 0.059127886 0.89005053 1.2116133 0.30123568 -1.1393279 0.56568277 0.45121923
1.6274539 3.4035366 0.5646561 1.8983766 0.96458054 2.6704562 3.4376855 1.422658
1.794267 0.76153857 1.1990281 0.82763743 1.514436 1.932204 -1.6460296 -0.23802993
2.394591 1.3889495 1.0246676 1.383423 0.87491125 1.5669314 -0.5918821 -0.5504145
0.45101085 0.9275388 -0.14267784 -0.62274724 3.0566108 -0.29184762 0.6596974 0.9007511
-0.81043804 0.4376674 0.39395213 1.068877 0.34943837 -1.6728847 3.8087876 2.2777722
0.30187675 1.5397052 0.7945917 1.388696 1.1630805 0.265073 1.2393388 0.25920263
1.5783416 0.77172667 0.71781296 0.5081637 -0.38835952 1.3383486 1.2463683 0.2601946
1.1759303 -0.22383021 1.1456363 1.574344 0.46956253 0.3907382 0.35338432 0.065301664
-0.72892326 1.8847804 2.0030677 1.5548487 -0.75455755 2.3869278 -1.5244683 1.5072407
0.01757665 1.5043871 1.19845 1.7027456 0.06359462 0.6706238 0.38574132 1.1268321
1.237849 3.2903354 0.5110989 -0.019755898 1.8329419 1.149499 -0.005198071 0.045042995
1.3990202 1.34178 1.0955396 0.25889012 0.5554859 0.47287238 1.2214843 1.4545169
-3.7741694 2.1072836 0.63192064 0.5910618 1.0791402 2.422042 0.74216217 -0.0979509
1.8409381 0.371688 1.0774916 0.80006516 1.1593434 2.938971 0.75352347 -0.5008976
0.7619348 1.1578901 2.620966 1.2052408 3.3729212 -0.30720448 1.3026414 0.4684984
2.591877 1.4396952 0.18596852 1.3996509 0.48211765 0.5741031 3.3017719 0.5061773
2.5396311 1.3802774 -1.2770759 1.2949264 -0.0013535174 -0.1020984 -0.08647563 1.2694676
1.9249104 1.8944876 0.5448737 0.73891044 0.24078576 1.7627966 1.6507688 1.8085153
1.4971884 -0.702803 1.2247149 -0.017060097 -1.0152179 -0.4368741 1.8256987 -1.180102
0.65904254 -0.03535526 0.1433826 -0.58912164 -1.6148417 1.0386009 -2.0445857 1.3411584
-0.1284102 1.8570837 1.262153 2.2673407 -0.754612 0.89235586 1.9683901 -0.92386264
-2.0339615 1.6063052 -0.0374056 0.6659673 -1.4841912 0.7432517 -0.2069491 0.20378156
-0.023118991 -0.9130849 0.3499115 0.9588292 0.013791553 0.9283136 1.0280229 1.697465
1.8119336 0.9317793 1.4091535 1.9113454 1.5295253 1.3305175 0.42130554 0.80297256
0.034885857 -0.7879434 -0.20435172 2.4971652 -2.5713408 0.81597996 0.29119328 0.023331644
0.36538866 0.058357876 1.8235993 -0.8725815 0.6173445 0.09322062 1.5334599 2.1752508

action_out.bias f4 [5]
00000000: 8d99 c03e 84ce 3ac0 5f3a bb40 20d3 17bf
00000010: cb49 4a40
0.3761715 -2.9188547 5.8508754 -0.59306526 3.160754

weight f4 [256, 123]
00000000: 0bac 40c1 44cd 94be 528d e1bd 248d 95be
00000010: c878 fdbd cfab a1be 99d7 93be cb39 fdbc
00000020: 2ebe bf3f 87cb 913d 8a32 583d 6dea 7c3d
00000030: f9d4 233e e9f3 fabc 12db 28be 0875 edbf
00000040: d1c3 fbbe fb1d 87bf 7e8b 5ebf 48c9 9bbe
00000050: 0255 3fbe 48bc 84bf 6690 cd3d 52ff 6a3f
00000060: 0b50 7fbf f4e3 a0bf 02fd 61bc 02d8 bfbf
00000070: 3a54 1b3d 30c4 52be 1fe1 7abd fdaf 98be
00000080: da9f c3bf 504e 6dbc d884 d5bc 6837 1fbf
00000090: 35a8 41c1 e42d 253e 9f00 ef3d 2ddc ddbe
000000a0: 7b08 adbc a1d9 b3be 852b a4be e0b8 973f
000000b0: 2d23 2d3e 3ab6 683f 0583 6c3f 6db8 7b3d
000000c0: 79ce 163e a981 dfbb 4c8a 65be 1401 bfbf
000000d0: e46f f83f 4c43 eb3c a5ee 823d d884 d3be
000000e0: 84da 1ebe e9bb 7bbf 6cc9 823e f82e ef3f
000000f0: bea4 b7bf 9bcb f83d 8cca c83e f066 b4bf
00000100: 9740 7abe 174e 0a3d 183b 9cbe 3625 84be
00000110: 16e1 5dbd e437 c2bf 6115 9d3d a716 cd3f
00000120: 1b54 40c1 861f 99be e9a5 1cbd 445d a1be
00000130: 2beb ebbc 22bb c2be 8d06 ccbe d29b 8e3f
00000140: 6e4c 08bf 164b a03f fbe4 1a3e a0b4 0f3e
00000150: 3fec 053e bedb 0abd 5e67 8ebe 431b b2bf
00000160: 3f86 973e e9cb 093d 826f 08bf 293b a3be
00000170: 4a27 08bd dc8c 81bf e5eb 733e 48e0 5340
00000180: e611 10c0 6090 d5bc 065b 1f3d 289b b2bf
00000190: be9c cebd d29a 49bd 5db6 99be 111b 35be
000001a0: e0b4 f1bb 70ce f6bb f075 babf f7fd 05c1
000001b0: f94b a03e 4e2c d53e de5b c7be e379 c43e
000001c0: 6d76 19bf ba9f 1d3e b2e5 a1bd 29d2 a13e
000001d0: 47ef 44bd 31b2 973d 9417 66bd ac19 68bc
000001e0: f114 4c3d 6040 933d 7e97 17bd b726 043f
000001f0: 65ad dabe e6e6 b13e 45fa a3be ec99 a03e
00000200: 7b32 17bf cb39 883f 8390 ed3f 685f 61bf
00000210: 1eb1 a5bd 30fa 153c 537d 13be a7dc e63e
00000220: 6610 6fc0 6bd9 7c3f 57c3 0540 7c67 8abf
00000230: 3e3f b03e 8054 f4be f763 adbe 7915 673f
00000240: 42f5 dcbd 0649 bebe 2135 f9bf f348 903e
00000250: 58bd 10be 7204 0fbf 4f3c 62bf 9ed1 92bd
00000260: 1e49 1f3d fb85 f6bc 8b90 e0ba 919e 66bf
00000270: b27f 7d3d 9500 813d 71de 873e 0ff1 113f
00000280: cda4 6cbd 656c ba3e 3d32 a5be b601 893e
00000290: c5e2 18bf f4ad 743f a3a2 55bd e246 9bbe
000002a0: c2cc d0be 1e31 103f 3965 043c 2f1d cc3e
000002b0: 0232 72c0 4daf 7d3f 760b a940 2ffb 63c0
000002c0: f0d1 b23b ad15 0abd 2940 8dbe a582 6a3f
000002d0: cff5 00bc 6f0c 04bf 93d9 07c0 1c98 f73e
000002e0: 8b32 07bf d3bb b73d 2f19 6bbf 1dab 733b
000002f0: 6981 153d e30c 0bbe 906c 7abe c52d b43d
00000300: 8dba 75bf c29f 2e3d 5ab2 923f 5d4d 0a3f
00000310: bbc6 debe e16b 763f 194e efbe 2820 8d3e
00000320: 87d5 2abf 1fb7 8a3f 3b24 493e 74ad b23e
00000330: 380a 393d edb9 e43e b9a8 4fbd e91b b13e
00000340: 1071 72c0 6bfa 793f 1ea5 c43f 6129 5cbf
00000350: f631 e53e 27db 45be cdc5 c8be 6f6e 6e3f
00000360: d42f 343d d66d bbbe 2d7a 0fc0 d56e 3e3e
00000370: 0030 d23a 354a 9c3d bf51 66bf 8484 d2bd
00000380: a360 a7bc 1e9c de3d a0da 8a3d be62 333d
00000390: 1794 873d d12a 71bf c732 f1be 99dd df3c
000003a0: 9f5a 783c d3ca 0fbc def3 d53d 6ac8 1fbe
000003b0: 1dc9 30bd 1196 12be e0fe d93c 7d75 b2bc
000003c0: 7af3 63bd a7c2 32bd 3bc4 47bb 2cac a0bd
000003d0: 93fc 1fbe a55d 483d f257 50bd 1b06 dabc
000003e0: e80c 6e3d ff12 943d 095e 06bc 0130 46bd
000003f0: 8728 093d 6fc9 f7bb 34a8 9b3d 627e 533d
-12.042003 -0.29062855 -0.11013283 -0.29209244 -0.12376553 -0.31576392 -0.28875425 -0.030911347
1.4979913 0.07118898 0.052782573 0.061747003 0.15999211 -0.030633884 -0.16489819 -1.855134
-0.49172834 -1.0556024 -0.869316 -0.30427003 -0.18684772 -1.0369959 0.100373074 0.9179584
-0.9973151 -1.2569566 -0.013793232 -1.4987795 0.03792212 -0.20582652 -0.06124985 -0.29821768
-1.5283158 -0.014484003 -0.026064321 -0.6219392 -12.103566 0.16130787 0.1167004 -0.43332043
-0.021122208 -0.35126975 -0.32064453 1.1853294 0.1690795 0.90903056 0.9238742 0.06145518
0.147272 -0.0068208766 -0.22416037 -1.4922204 1.9409146 0.028718613 0.06393174 -0.4131229
-0.15513045 -0.98333603 0.25544298 1.8686209 -1.434715 0.1214821 0.3921703 -1.4093914
-0.24438702 0.03376588 -0.30513835 -0.2580964 -0.054169737 -1.5173306 0.07670093 1.6022538
-12.020534 -0.29906863 -0.03824416 -0.3151647 -0.02879866 -0.38033396 -0.39848748 1.1141303
-0.5324162 1.2522914 0.15126412 0.14033747 0.13078402 -0.03390097 -0.27813238 -1.391457
0.2959461 0.03364173 -0.5329515 -0.31881073 -0.033240594 -1.0121112 0.23820455 3.310564
-2.2510924 -0.02606982 0.038905166 -1.39536 -0.1008849 -0.049219914 -0.30021945 -0.17686106
-0.0073762983 -0.0075319335 -1.4567242 -8.374503 0.31307963 0.41635364 -0.38937277 0.38374242
-0.5994633 0.15392962 -0.07905139 0.31605652 -0.048079755 0.07407034 -0.05617483 -0.014166277
0.04982466 0.07190013 -0.03700971 0.51621574 -0.42710415 0.34746474 -0.32026878 0.31367433
-0.590614 1.0642637 1.8559726 -0.88036203 -0.08090423 0.009153888 -0.14403276 0.4509022
-3.735376 0.98769253 2.0900476 -1.0812831 0.3442325 -0.47720718 -0.3386533 0.9026714
-0.10788967 -0.37165087 -1.9469339 0.28180656 -0.14134729 -0.5586616 -0.88373274 -0.071688876
0.03888809 -0.030093184 -0.0017132921 -0.90085703 0.061889358 0.06298939 0.26536897 0.5700845
-0.057774354 0.36410823 -0.3226489 0.26759118 -0.5972102 0.9557793 -0.052157056 -0.30327517
-0.40781218 0.56324947 0.008080774 0.39866015 -3.7843022 0.9909561 5.282649 -3.562206
0.0054571554 -0.033712078 -0.27588013 0.916056 -0.007871105 -0.5158147 -2.1226547 0.48358238
-0.528115 0.089713715 -0.918353 0.003718085 0.03650037 -0.13579135 -0.24455476 0.08797792
-0.9598778 0.042632826 1.1460679 0.54024297 -0.43510994 0.9625836 -0.4673927 0.27563596
-0.66732067 1.0837134 0.19642727 0.3489796 0.04517576 0.446731 -0.050698016 0.34591606
-3.7881508 0.9764773 1.536289 -0.8600064 0.4476468 -0.19321881 -0.3921341 0.9313726
0.043990925 -0.36607236 -2.241832 0.18596967 0.0016036034 0.07631341 -0.89968485 -0.102791816
-0.020431822 0.10869621 0.06779981 0.04379534 0.06620043 -0.9420596 -0.47109053 0.027327346
0.0151583245 -0.008776384 0.104469046 -0.15603796 -0.043160547 -0.14315058 0.026610792 -0.021784538
-0.05565212 -0.043642666 -0.0030481953 -0.07845339 -0.15623693 0.04891743 -0.05086512 -0.02661424
0.058117777 0.07230186 -0.008201131 -0.048385624 0.033485916 -0.0075618546 0.076004416 0.0516342

bias f4 [256]
00000000: 36e9 babf c3ba 80bf 44d9 cdbd b58e e23c
00000010: fb04 6ebd dcdd 373c 5d0c 5fbe f097 873c
00000020: f526 e3be ebf5 d5bd 18fd 1bbd c709 a1bf
00000030: 1bb7 7cbe 6913 21bf 4cf4 d8bd bc51 9abd
00000040: cfbc d9bc 9167 f6bd 47fd 5d3d fb40 88bd
00000050: 7309 bebf bf22 b4bf ed2d f9bd c27d 51bb
00000060: ef6b e0bc 6198 b3bc cf95 a9bd 694b b93b
00000070: 5b3e 9ebd fba5 18bf 6097 2a3f a26a 95bd
00000080: f739 c4bc 7a51 e7bd 6ec3 05bd d3a7 8abd
00000090: e8cb e6bf a707 e4bd d26e d1bd a3f2 37be
000000a0: dde3 1e3d 258a eebd a33d 273d 2fa0 9f3b
000000b0: d1b4 033f 49bb 873d c016 753e f9d3 dbbd
000000c0: 09df bebc 6949 72bd 4152 f03c a331 b9be
000000d0: b388 f6bd 646e 22be 2538 91bd 0e8c 81bf
000000e0: a71d 28be 2eee 18bd 9138 d23c fe3b 30bd
000000f0: cc4a 5b3f 627c ccbd 1279 89bd 0941 31bd
00000100: ae10 85bd 5844 73bd 6a31 933e 3340 99be
00000110: 2938 163d 1149 34bd 2fc2 943e 85fa e3bc
00000120: 5ad6 183d f059 1bbd 3879 ba3f a0ba 183d
00000130: 0e7c 453d 6350 e2be b4a0 2b3c 0c7f babe
00000140: d799 023d 1d35 c3bd 500f 6bbe 369a 74bd
00000150: 756a 10bc b1cd 65bf 8c50 44bd 258f c0bd
00000160: ef78 93bd 9f25 633c c914 11be 1b58 983c
00000170: 60d8 d0bd a86b b5bf c36f b13b 4495 b6bc
00000180: fd37 bf3b 553f f0bd 0fb2 17be e51f 47bf
00000190: a7f3 edbd 4068 5abd 6633 87bd be8a f9bd
000001a0: 763a 433e d722 c8bf d675 3cbc e609 3d3d
000001b0: bc04 13bc 7183 b43d 4133 81bd ba39 e6bd
000001c0: 643b 93bd b7e7 d9bd 758e 8bbd 0131 6fbd
000001d0: eb06 b9bc b97a f53c 7cc5 b7bd 8d1a 01bd
000001e0: 3990 8fbd 6fef 04be 9119 b6bd a321 b0bc
000001f0: 6e01 cfbd de48 04bf 9b09 91bd 675c 1cbb
00000200: f585 00bd ecc5 aabf be3d d8be 430d e9bd
00000210: cc3b aebd d905 c0bf ee7f 29bd 31b8 9dbf
00000220: 10d0 1dbd ce1d b0bd b4b5 bcbd 6bd8 71bf
00000230: 4883 4dbd 60ce c2bd bd69 0bbe 54e6 06be
00000240: 2afb 3dbd ee13 93be 3486 ccbd df04 3cbe
00000250: bb0c eebe 5380 b8bc fe2c 643e 84ed 90bf
00000260: 9c90 e7bd 8fd3 71be 13cd ba3f 66c7 a1bd
00000270: 5e2d b1bd cfbf f5bd 7812 c23f bc15 15bd
00000280: f4b0 a8bd 6700 4bbd 1e1d 57bd 23ce bebd
00000290: f45f 38bf d963 0abe 1714 cdbd 5b1e 97bd
000002a0: 37a6 0abe b569 133d 1c7e 003d 18fc 9bbe
000002b0: c81e 8fbd 0d96 47bf a1b5 89bd a745 9fbd
000002c0: b9c5 b0bd 282c 743d 6ba3 003d 4e46 353e
000002d0: caa0 98bd 5e98 0abe 63fb 8cbf 5f08 ddbe
000002e0: 4ac7 4ebd c33f aebd 0ffb 28be 06fe bfbd
000002f0: 55af 26bd 33e2 7b3b c3ae 5dbe 3aae dbbd
00000300: 8a7c e3bc 2eac 07be a2e3 a83d fcb7 45be
00000310: 8884 00bf b608 6cbd 74b0 09bc bbb2 68bd
00000320: 285f 43bf 0796 59bd a3eb acbf ab1c 7abd
00000330: 21d3 653d 8a70 18bd 0fdb b2bd 4e44 50bd
00000340: c4b4 10bf ff86 d83c 96ed 11bf bca4 4fbe
00000350: c21c 7fbf 5f4f a2bf 784d 9dbf e4fc 05c0
00000360: 5e17 04be f2b0 23bd 16e0 e3bd bcd3 61bd
00000370: 4b87 01bd ef5f 6e3c 0b79 99bd c183 b5bd
00000380: 4be4 74bc 0b10 01be c07f 38bd 4f89 22bc
00000390: 8fad 3abd 1ac1 b6bb f90e 97bd 04c3 83bd
000003a0: 1550 183f 699d 423f 98fa 0cbe 858f adbf
000003b0: ec87 85be 333a 813d a88f 573b b82b 4c3f
000003c0: 3e52 b2bc 8c37 c7bd b1c2 10bd 796c a1bd
000003d0: 42f7 8a3c 6ce8 373c 8162 73be 90fb 3b3f
000003e0: 1932 7cbd c105 c4bf 2311 91ba e687 97bd
000003f0: 4ad8 223d 3149 a7bd 77b4 973d 4eb4 98bd
-1.460242 -1.0056995 -0.10051206 0.027655939 -0.05811022 0.011222329 -0.2178206 0.016551942
-0.4436566 -0.10447296 -0.038083166 -1.2581109 -0.24679224 -0.6292024 -0.10593471 -0.07535121
-0.026579289 -0.120314725 0.054196622 -0.06653019 -1.4846634 -1.4073104 -0.12166963 -0.0031965827
-0.027395217 -0.021923246 -0.08280527 0.0056547415 -0.07726737 -0.59628266 0.6663723 -0.07295729
-0.023953421 -0.11294837 -0.03265708 -0.06770291 -1.8030977 -0.11134272 -0.102262154 -0.17963652
0.038791526 -0.11647443 0.040830266 0.0048713903 0.5144778 0.06627519 0.2393446 -0.1073379
-0.02329971 -0.05915204 0.029336097 -0.36170682 -0.12037792 -0.15862423 -0.07090787 -1.0120866
-0.16417561 -0.03733652 0.025661739 -0.043025963 0.85661006 -0.09984662 -0.067125455 -0.043274913
-0.06497322 -0.05939135 0.28748637 -0.29931793 0.036674652 -0.044014994 0.290544 -0.027829418
0.037313797 -0.037927568 1.4568243 0.037287354 0.04821401 -0.44201955 0.010475326 -0.36425054
0.031884994 -0.09531615 -0.2295506 -0.05971738 -0.008814444 -0.89766985 -0.047928378 -0.09402303
-0.072008006 0.01386395 -0.14168085 0.0185967 -0.1019752 -1.4173479 0.0054149344 -0.022287972
0.0058355317 -0.117308296 -0.14814018 -0.7778304 -0.116187386 -0.053322077 -0.066016 -0.12184666
0.1906527 -1.5635632 -0.011502704 0.046152018 -0.008973297 0.08814133 -0.06308604 -0.11241479
-0.07189062 -0.10639899 -0.06814281 -0.058396343 -0.022586307 0.029965745 -0.08973214 -0.03151946
-0.0700993 -0.12981962 -0.08891595 -0.021500414 -0.101076946 -0.51673687 -0.0708191 -0.0023858787
-0.03137775 -1.3341651 -0.42234606 -0.113794826 -0.08507499 -1.5001785 -0.04138177 -1.2321836
-0.038528502 -0.08599435 -0.092143446 -0.9447085 -0.050174028 -0.09512019 -0.13614555 -0.131738
-0.046382107 -0.28726143 -0.09986535 -0.18361233 -0.46494088 -0.022522127 0.22282788 -1.1322484
-0.11306879 -0.2361586 1.4593834 -0.0789936 -0.08651231 -0.11999475 1.5161886 -0.03639768
-0.08236876 -0.04956093 -0.052518003 -0.09316661 -0.7202141 -0.13514651 -0.100135975 -0.07378837
-0.13539968 0.035989482 0.031370267 -0.3046577 -0.06988293 -0.77963334 -0.06724096 -0.07776957
-0.086314626 0.059612423 0.031405848 0.177026 -0.07452543 -0.13534686 -1.1014217 -0.4317045
-0.050483026 -0.08508255 -0.16502021 -0.09374623 -0.040694553 0.0038434386 -0.21648698 -0.107265905
-0.027769346 -0.13249275 0.082465425 -0.19308466 -0.50202227 -0.057625495 -0.008403886 -0.056811076
-0.7631707 -0.053121593 -1.3509411 -0.061062496 0.05610955 -0.0372167 -0.08733188 -0.05084639
-0.56525826 0.026431559 -0.5700315 -0.20277685 -0.99653256 -1.2680472 -1.2289267 -2.0935602
-0.12899539 -0.03996367 -0.111267254 -0.055133566 -0.031623166 0.01454924 -0.0749379 -0.08863021
-0.014947007 -0.12603776 -0.045043707 -0.009920432 -0.045575675 -0.0055772187 -0.07375903 -0.06433681
0.59497195 0.7602144 -0.13767469 -1.3559424 -0.26080263 0.06309929 0.0032892022 0.7975421
-0.021767732 -0.097273916 -0.035341922 -0.07882018 0.016963605 0.011224847 -0.23768045 0.7343073
-0.061571214 -1.5314256 -0.0011067729 -0.073989674 0.03975705 -0.08168257 0.07407468 -0.074562654

weight f4 [256, 256]
00000000: 2d50 4ebf 5474 863d 50e3 273d 65e1 85bd
00000010: aa6c 853c a24a 7c3c 61b5 8e3c 4ec0 fe3c
00000020: ac08 0abe ffe3 4abd c564 9cbb 08ef 98c0
00000030: 4425 e0bb c9f4 c3bd 7248 e1bc 9561 54bb
00000040: e7e8 9e3c 237d 87bd 7fe9 d73c 1826 c5bc
00000050: cebe c0bf 393e 72c0 6ddd 3ebe 8daf 7cbd
00000060: 15a1 47bd 0db8 e63c 51c1 6e3c 3ce0 b0bc
00000070: 8dfe 123e 8519 32c0 b84e 32bf 9075 4fbd
00000080: 0ea2 b4bc e65e 53bd ebc0 873c 006e a1bc
00000090: 1ae5 853f 78e2 023c 91f2 0fbd 9de1 11bd
000000a0: fe02 82bd 3bdf 56bc 30e4 783d 8bba 4dbd
000000b0: 019e 5abf 6852 eb3c 37cc 103f 65a4 133b
000000c0: 8d8d 7cbc 8a98 f83c 69a5 10bd 129d 5a3e
000000d0: 53ec 6b3d 6de3 2abf add7 0d3d 4030 233f
000000e0: 31aa 603c b711 c83c d7f8 3f3f 57c9 f0bb
000000f0: c155 f8be 44ac e13c f481 0e3d c49e 7ebd
00000100: a0b9 16bc 7b39 4ebd 7e16 fc3e 33ea 263d
00000110: 0d0d 203d 2f2f a13c a394 6cbd 47d2 1b3d
00000120: 43a6 d6bf be53 0e3d afcb 723d 4d15 223d
00000130: 46e0 05bc cd44 5abe daad fabc 6015 11ba
00000140: e5f0 043c 1352 05bc 4389 8f3c 231e ccbc
00000150: ee5b f4bb 435c bf3c f529 83bd a5a2 1abb
00000160: 00d6 233d 9b19 fe3c e06b 5dbe 57fa 95bd
00000170: c31a 72bd 44a2 e23f 4fd4 ba3c 172f 96bc
00000180: 5e2b debc 8c42 2ebd ab2d b1bc e2e3 d6bd
00000190: efd2 78bc a95d 5a3d 2c98 4fbd e793 1ebd
000001a0: de57 923f eed1 5cc1 82ad d33c e088 c5bb
000001b0: 710c 623c ef9d cabd 9cf7 b33c 0ec9 ffbc
000001c0: 6058 17bd d861 0cbf eab6 523d 34f6 3e3d
000001d0: 4a09 d13c 1475 613d 2d5c c8bc 3bcb 463d
000001e0: d9ce 613c 0f31 93bc e616 f4bc 7731 2b3d
000001f0: bee1 2fbd 37ed 6d3e b6be eb3b ffb7 c3bc
00000200: 9888 10bd a341 4cc0 e0af f1b9 1543 b23c
00000210: e3c6 42bd 49b1 78be 6662 ab3d c705 6ebd
00000220: 83a3 00bd b59e 56bd ee2e a1bd 17e0 febf
00000230: b949 003d acab 543d 4469 ef3c 5c16 b13a
00000240: d381 c4bc 4fcd 943f 3c67 603c 6a7a 293f
00000250: 91c4 20bf 5f4d 3c3b 07b9 833e 3ea7 8c3f
00000260: 0d92 2f3d a1c4 99bc 41c3 ffbe caef 883e
00000270: 36f0 acbd bc3d 8cbd 02af e33e 678d 56bd
00000280: a7db ef3a b3c1 bcbc 0a57 613d debf 4abe
00000290: ca6e a1be 578d e73c 709b fdbc e1a7 4c3b
000002a0: d017 403d f1d2 673d c2bf 633d d13c 12c0
000002b0: 2689 d4bc b5a0 2cbd 3803 19bd 479a dc3d
000002c0: 8838 c6bc 034f 96bc ae37 39bd 2760 a8be
000002d0: eb95 323d eb01 13bd d572 a43c 6a98 54bd
000002e0: cd7a 83bc 5ea0 e83c 383d 82be 1e40 71bb
000002f0: 7bac 3d3d a08b ee3c 337f 0dbd ba57 78bd
00000300: f0e2 dcbc 748f a1bc 6bd0 6a3f d99f bfbd
00000310: 1999 12bd 0ab6 b7bc 320e 703d 611a 63bd
00000320: e648 13bf bfc9 aabb aa82 eabf c25f 01bd
00000330: 8a0c 02bd 3371 8dbd 25a6 8cbd b43d 7f3b
00000340: c6e7 91bc 21a6 cdbc df19 a83f c152 6ebe
00000350: e888 f73e eb9b eec0 87a4 0bc0 3ac2 663e
00000360: 5f81 0bbd 62cf 5dbd 9dbd 353d c181 183c
00000370: 17a4 43bd bf40 51bd f05d d43c 58a3 623d
00000380: 7c8e 723b d402 a53c ab8d 2ebd d327 113d
00000390: 868d 323d fb17 c93e ebc7 3a3d 2834 a8bc
000003a0: 4637 33be d43c c1bf ed87 0dbd 0426 67bf
000003b0: d526 ac3d 7cec 1e3d c4b0 4b3d a6f9 ecbe
000003c0: 7365 303d 60ec 09bd 1678 633d cd84 13bd
000003d0: 65ae b7bb 0a32 803d fc1e 573e 823f a7be
000003e0: 90b7 62bd 2523 03bf 808b 483d d3c6 db3c
000003f0: d9fc 733c 5606 773d 9487 82bf 66d1 29bd
-0.8059109 0.065651566 0.040988266 -0.06537131 0.016287167 0.015398653 0.017420473 0.031097557
-0.1347987 -0.04953384 -0.004772755 -4.7791786 -0.00684038 -0.095681734 -0.027500365 -0.0032406796
0.019398166 -0.06615665 0.026356457 -0.024066016 -1.5058229 -3.7850478 -0.18639155 -0.061690856
-0.048737604 0.028163934 0.014572457 -0.021591298 0.14354916 -2.7828076 -0.69651365 -0.050649226
-0.02204993 -0.051604174 0.016571483 -0.019705772 1.0460541 0.007988565 -0.03514344 -0.035615552
-0.06348227 -0.013114746 0.06076449 -0.05022673 -0.85397345 0.028725818 0.5656161 0.0022528407
-0.015414608 0.030346174 -0.035313997 0.2134898 0.057598423 -0.66753274 0.034629513 0.637455
0.013712452 0.02442251 0.74989074 -0.0073482203 -0.48502925 0.027547963 0.0347919 -0.06216313
-0.00919953 -0.050347786 0.4923591 0.040750694 0.039074946 0.01967582 -0.05775894 0.038042333
-1.6769489 0.03474783 0.05927628 0.039571095 -0.008171147 -0.21315308 -0.030600477 -0.0005534496
0.008114074 -0.008137244 0.017521506 -0.024916714 -0.007457248 0.023359424 -0.06404487 -0.002359548
0.03999901 0.031018069 -0.21623182 -0.07323139 -0.059107553 1.770577 0.022806315 -0.018333001
-0.027120288 -0.042543933 -0.021628221 -0.10492684 -0.015187009 0.053311978 -0.05068223 -0.03871527
1.1433065 -13.801252 0.02583957 -0.0060282797 0.013796912 -0.09893405 0.021968655 -0.0312238
-0.036949515 -0.548368 0.05144397 0.046621516 0.025517125 0.055043295 -0.024458015 0.04853366
0.0137822265 -0.017967729 -0.029796075 0.04179522 -0.042939894 0.23235022 0.0071943654 -0.023891447
-0.035286516 -3.1915061 -0.0004609814 0.021760503 -0.047552954 -0.24286379 0.083683774 -0.05811098
-0.031405937 -0.05239745 -0.07870279 -1.9912137 0.031320307 0.05192153 0.029225 0.0013510692
-0.023987686 1.1625155 0.013696488 0.66202414 -0.62799937 0.002873264 0.25727102 1.0988538
0.042863894 -0.018770518 -0.49953654 0.26745445 -0.08444254 -0.068477124 0.44469458 -0.052380946
0.0018299714 -0.023041582 0.055014648 -0.19799754 -0.31529838 0.028265638 -0.030957907 0.0031227993
0.04689771 0.056597654 0.055602796 -2.284962 -0.025944304 -0.04214545 -0.037356585 0.107716136
-0.024196878 -0.018348223 -0.045219116 -0.32885858 0.043600004 -0.0358905 0.020074287 -0.051903166
-0.016049767 0.028396782 -0.2543733 -0.0036811898 0.04630707 0.029119313 -0.034545135 -0.060630538
-0.026963681 -0.019721724 0.9172427 -0.093566604 -0.035790537 -0.02242567 0.058607288 -0.05544508
-0.5753311 -0.0052120383 -1.8321126 -0.031585462 -0.03175024 -0.06906357 -0.06867627 0.003894669
-0.017810713 -0.02510363 1.3132895 -0.23273756 0.4834664 -7.456533 -2.181917 0.22535029
-0.034058925 -0.054152854 0.044370282 0.0093082795 -0.04776391 -0.051087137 0.0259237 0.055331558
0.0037011197 0.02014295 -0.042615574 0.03543837 0.043592 0.39276108 0.045600813 -0.020532683
-0.17501554 -1.5096688 -0.034553457 -0.9029238 0.08405844 0.038799748 0.049729124 -0.46284217
0.0430655 -0.03367269 0.055534445 -0.03601532 -0.0056055062 0.06259544 0.21007913 -0.3266564
-0.05535084 -0.512255 0.048961163 0.026828205 0.014891827 0.060308777 -1.0197625 -0.041459464
