saved_models_1/125_11342_model.pt (torch, 701697 bytes, 11 tensors)

FC1.weight f4 [256, 36]
000000 f3 e1 4f 3e 3d 3a 86 3e b8 75 f2 3e 0a e9 b1 bf
       0.20301037 0.26216307 0.47355437 -1.3899243
000010 d4 bb ce 3f 8a 7b b4 3f e1 d3 96 bf 3d 61 32 c0
       1.615107 1.4100201 -1.178341 -2.787185
000020 30 b5 2a 40 de f6 30 40 69 90 36 c0 43 55 48 be
       2.6673088 2.7650676 -2.852564 -0.19563775
000030 3c 28 80 bf ae 17 a8 3e d2 b8 88 3f c4 a1 fd 3d
       -1.0012279 0.32830566 1.0681403 0.1238437
000040 df 2c cc bf 55 c0 86 3f c1 a7 2f 40 dd ca 93 3e
       -1.5951194 1.0527445 2.744614 0.2886571
000050 40 20 10 40 45 8e 2b 3f 76 c6 be bf c3 34 9e be
       2.2519684 0.6701396 -1.4904315 -0.3089963
000060 ce c4 58 40 9a 19 82 3f 0c d0 4a c0 af 97 75 be
       3.387012 1.0164063 -3.1689482 -0.23983644
000070 e1 ba 8a bd ac 02 08 3f 41 e6 3e bf 04 ed 49 be
       -0.067739256 0.53129077 -0.7457009 -0.1971932
000080 1f 21 94 c0 8c 4d b8 3e b8 d6 e5 3e f3 a4 99 c0
       -4.629043 0.35996664 0.4489038 -4.8013854
000090 f4 55 84 bf 76 25 45 3e d5 dd 35 bd 09 9e a0 3e
       -1.0338731 0.19252571 -0.04440101 0.3137057
0000a0 0b c8 c1 bf 85 60 be 3e 8d c6 bb 3f eb 98 2e 3c
       -1.5139173 0.37183014 1.4669968 0.010656576
0000b0 e8 f7 13 c0 e9 5b 6f bd d1 f0 43 40 1e 46 fa be
       -2.312006 -0.05843726 3.0615733 -0.4888162
0000c0 f7 ba 9f bf f3 2b 90 bd 50 40 88 3f ff d6 41 3e
       -1.2478932 -0.07039633 1.0644627 0.18929671
0000d0 03 c1 e8 bf e8 59 2e 3f fa ec 28 40 bf 87 f8 3e
       -1.8183903 0.68105936 2.639464 0.48541066
0000e0 81 f1 f0 3b 3f 3f a9 3e b1 e9 24 bf 14 b7 ba be
       0.0073530083 0.33056065 -0.64419085 -0.36467803
0000f0 4d de 23 40 6b f8 c1 3e 3b 8b 92 bf 0a 30 ea bd
       2.5604432 0.3788484 -1.144874 -0.11434944
000100 8f 6a 4a be b2 ac ab 3e 92 46 1a bf 24 06 14 3f
       -0.19767211 0.33530194 -0.6026393 0.5782187
000110 95 71 a3 c0 d4 28 08 c0 19 a7 02 40 85 4d 18 bf
       -5.107615 -2.127492 2.0414488 -0.59493285
000120 12 6c 13 3f dc cc a6 3f 1c bb 2f bf 53 77 9b 3f
       0.5758678 1.3031268 -0.6864488 1.214579
000130 63 9c 77 bf 72 cb ec 3f 18 b3 5b c0 49 19 03 c0
       -0.96723 1.8499587 -3.432806 -2.0484183
000140 15 92 3f 40 b3 63 d9 bf cd 52 27 3f bf 4e 4a 3f
       2.9932911 -1.6983551 0.6536072 0.79026407
000150 b8 b5 44 bf 7d 60 8a 3f 3e f4 4e bf 90 da d3 3c
       -0.7683978 1.0810696 -0.80841434 0.025861055
000160 b6 8d b8 3e 75 dd 19 40 45 10 fd be 0d d8 b1 3f
       0.36045617 2.4041417 -0.49426475 1.3894058
000170 54 55 c9 bf bd 72 d4 3f 49 75 0c be 8b 1f b6 3e
       -1.5729165 1.6597515 -0.13716616 0.3557094
000180 38 78 6b bf 11 47 9c 3e b9 88 de 3f b8 a6 85 bf
       -0.91980314 0.3052297 1.7385474 -1.0441504
000190 1d a8 b6 bf 2b cb 6e be 3a 91 80 bd 48 03 c6 3e
       -1.4270054 -0.2331969 -0.062777 0.38674378
0001a0 a2 58 f6 3e 22 64 85 bf 52 c8 e2 c0 c0 08 55 c0
       0.48114496 -1.0421183 -7.086953 -3.328659
0001b0 14 ff 02 c1 c7 e9 8a 3f 8b 69 3d 3e 4a e6 97 be
       -8.187275 1.0852593 0.18497293 -0.29667884
0001c0 e3 24 6e bf 58 dc 31 bf 6b f6 3c 3e d4 97 aa 3f
       -0.93025035 -0.6947684 0.18453376 1.3327584
0001d0 9b 65 bf bf a7 c4 32 3f c5 d5 81 3f a5 f0 51 3f
       -1.4952883 0.6983132 1.0143362 0.8200782
0001e0 0b 3a 55 bf c1 c7 82 bf 67 fa f4 3e 82 2e e6 3f
       -0.8329169 -1.021721 0.47847292 1.7982943
0001f0 d3 20 f0 bf a3 54 72 bf 46 8a c3 3f 15 7e 40 3e
       -1.8760017 -0.94660395 1.5276573 0.18798096
000200 e5 24 7b bf 00 09 76 3f 29 35 93 3f de 07 fa be
       -0.9810317 0.9610748 1.1500598 -0.48834127
000210 85 eb 31 c0 1f 40 c4 3f 58 38 4d 40 b2 76 01 3f
       -2.78 1.5332068 3.206564 0.5057174
000220 4c 2a b7 c0 fd 8f 11 40 98 38 e2 3e 80 0b dc c0
       -5.723913 2.2744133 0.44183803 -6.876404
000230 be 92 32 c0 d1 51 0c c0 1b 5d 11 bf 87 f1 98 c0
       -2.7902064 -2.1924937 -0.5678269 -4.7794833
000240 c5 c2 04 c0 e8 95 4f bf e4 86 5f bc 07 51 8b bf
       -2.0743878 -0.81088114 -0.013643 -1.0884103
000250 be 33 a7 3f 43 98 a9 be c8 c3 b1 bf 01 7e b4 bf
       1.3062665 -0.3312398 -1.3887873 -1.4100953
000260 a7 69 97 40 5c bf 7c 3f bf 00 8b c0 45 5d 5a bf
       4.731647 0.9872949 -4.343841 -0.8529857
000270 d5 a0 a3 3f 32 94 38 3d 56 bd 93 bf 09 71 85 bf
       1.2783457 0.045063205 -1.1542156 -1.042512
000280 7e 63 1c 40 95 f1 86 3e 45 a9 37 c0 ed 32 30 3f
       2.4435725 0.26356187 -2.8697064 0.68827707
000290 e8 2e 83 3e df 2c d5 bf a8 14 8d bd 19 e5 d4 3f
       0.25621724 -1.6654319 -0.068887055 1.6632415
0002a0 84 6f 0f 3d d9 2b 37 c0 4c 6a 2e 3e a6 82 99 3d
       0.03501846 -2.8620512 0.17032737 0.07495622
0002b0 82 15 52 3e d1 d2 75 3f 93 72 d3 3e 4c d6 87 3f
       0.20516017 0.96024805 0.4129835 1.0612273
0002c0 74 db 8c 3f f9 d5 60 3f f3 6f dc c0 ac c4 75 c0
       1.1004472 0.87826496 -6.8886657 -3.840129
0002d0 fa 5e 42 c0 7f ad 2f be 59 f2 ac bd c8 4b 2f 3f
       -3.037047 -0.17156027 -0.08444662 0.6847501
0002e0 d4 4d 8c 3e db 1a 86 3f f2 d9 f8 bf f6 c9 51 c0
       0.27403128 1.0476946 -1.9441512 -3.2779517
0002f0 5a 56 f2 3f b6 78 c1 bf 0f 2d 47 bc 04 ee f3 be
       1.8932602 -1.5114963 -0.012156739 -0.4764253
000300 1a c7 44 bf db f0 2a 3f f7 bf da bf e7 3c 0e c0
       -0.76866305 0.66773766 -1.7089833 -2.2224672
000310 2e 9e f4 3f b4 ca 63 bf bd 69 3e 3f 7e 4b 3e bf
       1.9110773 -0.88981175 0.74380094 -0.7433394
000320 3b 87 91 bf f2 00 a6 be a6 b9 c9 3e 1b 75 65 be
       -1.1369394 -0.32422596 0.3939945 -0.22407953
000330 bc 09 0b c0 d9 05 a7 3e 35 fb 3c 3f ce 5a a8 3f
       -2.1724691 0.3262165 0.7382081 1.3152711
000340 71 98 6a 3f 87 7e dd c0 3e fe d9 c0 f7 2e ea bf
       0.9163886 -6.921695 -6.8122854 -1.8295583
000350 6d 4e 8e 3f b6 3b f9 be 2e 38 87 c0 7d 38 f9 c0
       1.1117684 -0.48678368 -4.225608 -7.7881455
000360 1b 64 4d bf 1b fb 42 bd d6 6b 30 be 23 1b 16 bd
       -0.80230874 -0.047602754 -0.17228636 -0.036646973
000370 42 47 ea 3e b9 54 6d 3e 6a d7 07 3f 59 99 b7 bf
       0.4575749 0.2317685 0.5306307 -1.4343673
000380 fd 38 bf be 84 d9 ca 3e 9a b1 72 3d d0 ff f9 3f
       -0.37348166 0.39619076 0.059251405 1.9531193
000390 26 d2 7a bf 03 38 9e bf 2d da 51 3f ee 76 e5 3f
       -0.9797691 -1.2360843 0.81973535 1.792692
0003a0 97 b8 cb bf 55 e5 58 c0 3f 66 c4 3f 3f b4 0a 3f
       -1.5915707 -3.3889973 1.5343703 0.54181284
0003b0 3e c6 45 3f 0d 1c f7 bf 77 3e 12 bf 8e 0a 11 40
       0.7725562 -1.9305435 -0.57126564 2.2662692
0003c0 10 90 5a 3e 76 d3 a2 bf 24 2a e4 bf 13 fa ca 3e
       0.21344018 -1.2720783 -1.782536 0.39643916
0003d0 59 31 11 3e 7f 11 a2 3d 5e 94 7a 3e ae 93 1f bf
       0.14178981 0.07913493 0.2447066 -0.62334716
0003e0 d6 85 dd 3f 0a 5b 45 c0 60 57 bb be 24 57 62 be
       1.7306468 -3.0836816 -0.365901 -0.22103554
0003f0 33 81 aa bd c3 19 8f bb 45 d1 07 bf ad b4 ab bf
       -0.08325424 -0.0043670847 -0.53053695 -1.3414513

FC1.bias f4 [256]
000000 67 3e b3 be 80 8d d4 be 4d 39 83 bf bd 33 05 3f
       -0.35008547 -0.41514206 -1.0251862 0.5203207
000010 4a a1 b3 3d fe b4 9b 3f 8d 4d 48 3e 01 08 0b 3f
       0.08770998 1.216461 0.19560833 0.5430909
000020 89 ed c2 be a6 4a 8a bf ec c0 27 3c e5 d8 60 be
       -0.3807185 -1.0804031 0.010238867 -0.21957739
000030 c3 ab 91 bf 10 3e 17 3f 1b ee 45 be 8a d4 c1 3a
       -1.1380543 0.59079075 -0.19329111 0.0014788073
000040 12 9e 22 bf 9e e6 ff bf e5 54 9a 3f 4d 68 21 3f
       -0.63522446 -1.9992254 1.2057158 0.63049775
000050 0d 11 88 bd f1 9c 2e bf 55 b2 c9 3f ae ae 24 bf
       -0.06643877 -0.68208224 1.5757548 -0.6432904
000060 4a 3b a3 be 2d c8 17 bd 41 f4 40 bf 3f 40 5c 3e
       -0.3188117 -0.037056137 -0.753727 0.21508883
000070 fc e5 5c bf c6 f5 07 be 53 01 7d bf 18 71 38 bf
       -0.8628843 -0.13277349 -0.98830146 -0.7204757
000080 d3 12 c6 bf b6 af 18 bf 8d 4f 60 bf bd d2 49 3f
       -1.5474495 -0.59643114 -0.87621385 0.78837186
000090 0c e8 f8 be 88 65 75 bf 19 c1 fe be 11 bc 30 be
       -0.48614538 -0.9585805 -0.49756697 -0.17259242
0000a0 15 ff b0 be fb 61 cc be e6 0d 47 3c 78 a2 b6 bf
       -0.34569612 -0.39918503 0.01214931 -1.4268332
0000b0 ca f7 9b 3d 5b 53 fd bd fb e7 84 bf f7 5c ab be
       0.076156214 -0.123694144 -1.0383295 -0.33469364
0000c0 90 71 3f 3f 1e 46 b6 be 3a 98 d6 3f ff 4b 48 be
       0.7478266 -0.3560037 1.6765206 -0.1956024
0000d0 a5 3f 81 bf ce 05 ca bd 15 14 8e 3e 65 a8 a4 bf
       -1.0097548 -0.098643884 0.27749696 -1.286389
0000e0 ee e5 9d 3e 68 f2 f2 be d2 2a a8 3e ba 23 f7 3e
       0.30839485 -0.47450566 0.3284517 0.48269445
0000f0 43 80 57 be e1 83 23 bf e3 1e 0e 3d 7e 50 34 3f
       -0.21045022 -0.63873106 0.034697425 0.7043532
000100 37 0d 91 3e 41 a7 8b bf 4f 07 08 bf b1 8e 10 be
       0.28330395 -1.0910417 -0.5313615 -0.14116932
000110 ad 4a 00 bf 16 d3 ac bd cf 97 ac be 92 03 ac be
       -0.50113946 -0.08438699 -0.3370957 -0.33596474
000120 db 88 bc 3f f7 da 3d 40 1e bd 51 be 89 31 a6 3d
       1.4729265 2.9664896 -0.20482299 0.08114917
000130 b6 96 fd be b5 92 4a be 59 50 fc 3e 89 74 5a 3f
       -0.49529046 -0.19782527 0.4928005 0.8533407
000140 b3 8f 48 bf a9 a4 69 bf 37 19 9c 3e 54 3a 4c 3e
       -0.7834427 -0.91266876 0.30487987 0.19944125
000150 74 74 0a bf a4 6f ed bd 8b 3f c1 be 2c 61 70 3f
       -0.54083943 -0.115935594 -0.37743792 0.9389827
000160 70 f8 f3 bf dc f7 19 3f 9d 01 fc 3c 45 4c 23 be
       -1.9060192 0.6014383 0.030762488 -0.15947063
000170 b4 49 84 be c5 f7 d7 3f 67 29 6c bf 1d 36 45 be
       -0.2583748 1.6872488 -0.92250675 -0.19258924
000180 50 fa 9c bf 70 db 05 3e e8 14 12 c0 ad 37 08 c0
       -1.2263889 0.1307199 -2.282526 -2.1283982
000190 81 0a f2 3e 33 45 15 3f 54 48 e2 be d7 2a ba bf
       0.4727364 0.58308715 -0.44195807 -1.4544324
0001a0 71 a4 04 be 9c 58 cd bd 3c ca 93 be 29 6a 47 bd
       -0.12953354 -0.100266665 -0.2886523 -0.048685227
0001b0 c2 0d 14 3e b0 db 98 3e 9d a7 b0 be 76 6b 91 bf
       0.14458373 0.29855108 -0.3450288 -1.136092
0001c0 88 20 be bd 8f 52 75 3e 6e f4 93 be e0 26 c9 3e
       -0.092835486 0.23957275 -0.28897423 0.39287472
0001d0 94 38 5b bf 29 16 fa be e7 2c ef be a2 23 c9 be
       -0.85633206 -0.48845032 -0.46713945 -0.39284998
0001e0 7a 22 5e bf 1c 67 ab bf f8 c3 8a 3e a1 c2 04 3f
       -0.8677136 -1.3390841 0.27102637 0.5185948
0001f0 85 87 dc bf 9c b5 3c bf a3 ee c8 bf f2 1e 80 bf
       -1.7228857 -0.73714614 -1.5697826 -1.0009444
000200 8f 6b 80 bc 5c b7 cc 3d e3 15 ef 3d e0 6d 57 3f
       -0.015676288 0.099959105 0.116740964 0.8415203
000210 de b1 da 3e ad 94 46 3e 38 32 2c bf 3f 06 c2 bf
       0.42713827 0.19392653 -0.6726413 -1.5158156
000220 2a fd fa be 6b 60 93 bd f6 e5 7a be 44 35 18 bf
       -0.49021274 -0.07196125 -0.24501786 -0.59456277
000230 78 c1 6d be 12 cd 71 3e 3c b8 2f bf b4 42 78 3e
       -0.23218334 0.23613384 -0.68640494 0.24244195
000240 fe 54 08 be f8 f1 5d bf 5b ac 59 be 60 e2 94 40
       -0.13313672 -0.8669734 -0.21257155 4.6526337
000250 e2 f7 59 be 68 18 d9 be a1 fb a2 3f b3 39 16 be
       -0.21285966 -0.42401433 1.2733041 -0.14670448
000260 94 7f ae be 4b 31 3b be c2 28 e6 3f d9 aa 1e be
       -0.3408171 -0.18280523 1.7981188 -0.1549486
000270 64 09 d4 be 5b f5 31 3e c1 ae 29 3f 58 68 7d 3e
       -0.41413414 0.17378752 0.6628228 0.24746835
000280 84 f7 3e bf 58 a6 e4 3f 6e d7 e6 3f b1 b4 98 3c
       -0.7459643 1.7863264 1.8034494 0.018640848
000290 af ba 21 3e 49 0b c1 3d a2 88 10 bf db 57 3e bf
       0.1579387 0.094259806 -0.56458485 -0.74352807
0002a0 5f d2 c8 3e a8 bb 8a 3e ed ca 4d bf 40 13 32 bf
       0.39223 0.27096295 -0.80387765 -0.69560623
0002b0 cb d9 70 3f c7 a9 25 bf d2 00 dc 3e 15 c4 d0 be
       0.94082326 -0.64712185 0.42969376 -0.407746
0002c0 91 9c 39 bf a2 86 73 3e 9e 36 aa bf 8f e2 ab bf
       -0.72504526 0.23781827 -1.3297918 -1.3428515
0002d0 0a 39 04 3f e5 dc 9c 3e 87 7f cc bf b1 2b 35 bf
       0.51649535 0.3063728 -1.5976418 -0.7076979
0002e0 d7 3e 9c 3f 2f a8 74 3e a5 69 0a 3f 35 ca 67 be
       1.2206677 0.23892282 0.5406745 -0.2263573
0002f0 42 7a 58 3e 0f 13 ca bf 3c 3a a1 be 98 91 14 be
       0.21140388 -1.5787066 -0.31489742 -0.14508665
000300 24 7d 2a 3f 22 04 64 3e 29 be c3 3f f4 10 49 3f
       0.665972 0.22267202 1.5292407 0.78541493
000310 7e bc 4b be de 1f a7 bd 81 6d 47 3f c0 c0 f7 3e
       -0.19896123 -0.08160375 0.77901465 0.48389244
000320 df 29 a0 bf 90 9f 6f be 62 c4 43 bd 1d 22 8d bf
       -1.2512778 -0.23400712 -0.047794707 -1.1026036
000330 da e8 af bd e8 69 5d 3d 2a b9 b7 3f c9 6e c9 be
       -0.08589335 0.05405608 1.4353383 -0.39342335
000340 e5 b7 c2 3e ff e6 2a 3f cc f1 72 bf ae dd 37 3f
       0.38030925 0.6675872 -0.949002 0.7182263
000350 7d 89 9c bf a5 45 97 bf 4e e1 2d bf f1 39 cb be
       -1.2229458 -1.1818129 -0.6792191 -0.39692643
000360 12 ba bd be 44 5c 3e bf f0 6d b7 3e 60 30 5e 3f
       -0.37056023 -0.74359536 0.35826063 0.86792564
000370 6a e7 6b be 78 f0 b1 be 66 a5 21 3d fd 64 d2 3f
       -0.23037496 -0.34753776 0.039464377 1.6437069
000380 5b 57 05 bf dd 48 16 bf 24 5f cc bf 67 23 d2 bf
       -0.5208642 -0.5870493 -1.5966535 -1.6417054
000390 e0 d8 a4 be 2d de 2a bf e5 21 be 3f ed d1 5e bf
       -0.32196712 -0.66745263 1.4854094 -0.8703907
0003a0 35 96 54 bf e0 99 92 bf c2 7a 95 bf ef 19 30 3f
       -0.830417 -1.1453209 -1.1678088 0.6878957
0003b0 8b 23 9b bf 86 ee d5 3e 5a a5 58 3f 5a 1e f0 be
       -1.2120222 0.4178354 0.84627306 -0.46898156
0003c0 e5 9a 0e bf ae 5b 21 bf d4 ba 22 bf dc a6 1e 3f
       -0.557051 -0.6303052 -0.6356633 0.6197336
0003d0 be 69 86 3f e0 23 50 be e3 3d b8 be e7 7c 96 3d
       1.050102 -0.20326185 -0.35984716 0.07348042
0003e0 e8 46 27 be 9c 70 79 3e 71 6c 58 be 61 84 1b be
       -0.16335642 0.24359363 -0.21135117 -0.15187217
0003f0 3f f7 cb bd 1b 92 e0 3f f1 f4 c3 bf 8e e4 5d bf
       -0.09959268 1.7544588 -1.5309125 -0.8667687

FC2.weight f4 [256, 256]
000000 bb 68 0e be d3 8b 1a c0 5e 1a 88 bf 7a 12 56 3e
       -0.13907139 -2.4147842 -1.0633047 0.20905486
000010 4e b7 a9 3f a7 30 b7 3e 79 21 81 be a6 1e 9a c0
       1.3259065 0.35779306 -0.2522085 -4.8162413
000020 f7 51 7a c0 d2 41 c3 3f 76 0f 04 bc 65 43 40 3f
       -3.9112527 1.5254462 -0.008060327 0.75102836
000030 01 c7 84 c0 56 76 06 bf e7 19 01 40 e1 eb 29 40
       -4.1492925 -0.52524316 2.017206 2.655022
000040 66 4e fe bf 5b cc 3a 40 44 5c 8a c0 f5 2b 31 be
       -1.9867675 2.9187229 -4.323763 -0.17301925
000050 12 40 1f 3d 0a a3 31 40 95 44 09 c1 ab 42 1f c0
       0.03887946 2.775576 -8.579244 -2.488444
000060 6f 14 cd 3d 2b 38 e2 c0 89 68 6f bf f8 df 11 c0
       0.10013663 -7.0693564 -0.93518883 -2.279295
000070 98 bc bb 3f 52 c8 34 40 7c ba 04 40 7e 5c b4 3d
       1.4666929 2.8247266 2.073882 0.08806704
000080 75 fa 34 c0 16 6b 11 bf 18 e8 f9 3e 82 2f c5 3f
       -2.8277867 -0.56804025 0.48809886 1.5405123
000090 1a 42 9f bf 4b a6 f1 3f 89 17 73 3e ab 5d 54 40
       -1.2442048 1.8878874 0.23739447 3.318217
0000a0 16 56 57 3e d6 49 71 3d 88 79 0d c0 8f 77 01 bf
       0.21028933 0.058908306 -2.2105427 -0.50573057
0000b0 43 f3 1e 40 1e 54 0f be 96 5e 31 bf 59 0a a9 be
       2.4835975 -0.13996932 -0.6928495 -0.33015707
0000c0 8d f6 57 bf 7b e4 96 3f 07 2c 04 c0 58 b8 94 bc
       -0.8436058 1.1788477 -2.0651872 -0.018154308
0000d0 84 d5 69 be 35 19 23 c0 e8 1d 08 c0 74 70 26 c0
       -0.22835356 -2.5484135 -2.1268253 -2.6006136
0000e0 0f 87 89 be a6 33 dd 3f d6 3a 5e c0 ef 4c 7b bd
       -0.26860854 1.7281387 -3.472341 -0.061352666
0000f0 e8 42 b3 3e 44 77 2f bf cb 70 86 be a3 f7 86 3f
       0.35011983 -0.6854136 -0.2625793 1.0544323
000100 dc a1 c8 3e 82 47 83 40 0f 98 88 3f 3e a4 23 bd
       0.3918599 4.102479 1.0671405 -0.039951555
000110 4e d3 b4 bf 3d 4d 94 bd 15 db 80 bf 0e 08 41 be
       -1.4126985 -0.072412945 -1.0066859 -0.18850729
000120 d5 04 aa 3e 09 27 98 bf 21 18 40 3f ee e5 88 3f
       0.33206812 -1.1886913 0.7503682 1.0695169
000130 2a 49 59 c0 53 ec 0c bf 91 41 2f c0 e4 b4 da 3f
       -3.3950906 -0.550481 -2.7383769 1.7086453
000140 1f a2 3c 3f ba 73 bf bf 88 03 df 3e e8 d0 ed 3e
       0.7368488 -1.4957192 0.43557382 0.46448445
000150 13 16 da bc 2c 7e a1 3f 36 1f 42 3f 2c f5 38 bf
       -0.026621854 1.261663 0.75828874 -0.722491
000160 7e 8c c4 3e d9 21 3a 3f fa 76 5a bc 78 c6 60 3e
       0.38388437 0.727079 -0.01333403 0.2195071
000170 c9 fa b5 3e 07 32 ff 3c 7a 53 93 3f 92 cd 9b 3f
       0.35542896 0.031151785 1.150985 1.217211
000180 20 ac be 3f ca b2 9b bf 64 c2 de 3e 9e 45 b2 c0
       1.4896278 -1.2163937 0.43507683 -5.570998
000190 f5 9b 76 bf 3b 05 d0 3e d5 64 0d bf a0 19 7b 3e
       -0.9633172 0.4062899 -0.5523198 0.24521494
0001a0 f2 4f 28 3c e0 a2 5d 3f af d5 a8 3f e2 5b 59 3f
       0.010272967 0.8657665 1.3190211 0.8490583
0001b0 7b 32 7d 3e 7f 10 c1 c0 3e 07 b2 3e a5 b5 94 3e
       0.24726288 -6.0332637 0.3477115 0.29044834
0001c0 0e 83 f1 bf 13 f7 54 bf 65 2b 08 40 7f 40 9e c0
       -1.886812 -0.83189505 2.1276486 -4.945373
0001d0 34 b0 d8 3f 8a f5 b9 3f 6e f0 20 bf e5 da 57 be
       1.6928773 1.4528058 -0.62866867 -0.21079595
0001e0 a5 aa 41 3d c0 c2 f8 bf d3 c9 42 bf 67 e9 01 bf
       0.04728188 -1.9434433 -0.7608921 -0.5074677
0001f0 77 e3 05 c0 29 4b 44 be 7e bd 24 40 a2 12 9c 3f
       -2.0920084 -0.19169296 2.5740657 1.2193186
000200 7e 84 ef 3f 96 a4 13 3f 6e ec 89 3f bc ae c3 3f
       1.8712308 0.57673013 1.0775278 1.52877
000210 74 5f a7 3f 24 a3 ee be a8 af ea be 43 0c c3 3f
       1.3076005 -0.4660884 -0.4583714 1.5238117
000220 01 82 e5 bf 3b bc 90 bf 5d 25 55 c0 c0 13 a0 3e
       -1.7930299 -1.1307443 -3.3304055 0.31265068
000230 3e 22 b2 bc 90 c6 f5 bf b9 4a e5 3f 32 2d 83 be
       -0.021744844 -1.9201221 1.7913429 -0.2562042
000240 51 56 9b bf 40 1b 00 c0 fc 31 f8 3e bc d4 3f 3f
       -1.2135717 -2.0016632 0.48475635 0.7493398
000250 5a 80 8d bd e8 3f 11 40 3f 61 f7 bd e5 e8 b5 bf
       -0.06909247 2.2695255 -0.12079095 -1.4211699
000260 38 ca a3 bf 73 ae e1 be b9 e3 37 c0 d2 46 15 bd
       -1.2796087 -0.44078407 -2.873274 -0.036444493
000270 0e e1 aa bf fb 65 62 40 1d 8f 13 be 6b bc c2 bf
       -1.3349931 3.5374744 -0.14410062 -1.5213751
000280 ad 18 0d 40 dd df 63 bf ee 10 b3 be ff da 44 3e
       2.204631 -0.89013463 -0.34973854 0.19224165
000290 d3 d4 76 bf f5 51 f6 3e 59 2e ec 3e ab 87 9f bf
       -0.96418494 0.48109403 0.4612911 -1.2463278
0002a0 3a bd be 3f 9c 32 fb bf 24 36 49 40 67 ad 08 bf
       1.4901497 -1.962482 3.1439295 -0.5338959
0002b0 28 83 2a bf 95 9d a4 bf cd ae 82 bf e0 c2 61 c0
       -0.6660638 -1.286059 -1.0209595 -3.5275192
0002c0 6d 92 d3 3e ea f2 82 bf 64 d8 a5 be d7 df b4 3e
       0.41322652 -1.0230381 -0.32391655 0.35327026
0002d0 76 28 c5 3e 4a e3 e0 bc f3 46 35 bf 56 bb c4 3f
       0.38507432 -0.02745213 -0.70811385 1.536967
0002e0 10 1a ab bb 31 9c 30 3f 6a af 54 3f 13 7a 62 bf
       -0.0052216128 0.6898833 0.8308016 -0.8846752
0002f0 5b ec 82 bd f1 6a 0c c0 e0 ef 11 40 92 92 35 3e
       -0.063927375 -2.1940272 2.2802658 0.17731693
000300 1a cd 9d be 3e d8 37 3f a2 36 72 c0 1e a0 66 bd
       -0.30820543 0.71814334 -3.7845845 -0.056305043
000310 9c 20 06 3f 70 63 ff 3e 14 0c f1 3e 9c 41 19 c0
       0.5239351 0.49880552 0.47079527 -2.3946295
000320 f5 69 21 3f ac 5d db bf 88 75 53 bc 87 47 b3 c0
       0.630523 -1.7137961 -0.01290644 -5.6024814
000330 a8 ee ed be 6a f1 32 c0 bb e2 18 c0 a8 9c 0c bf
       -0.46471143 -2.7959847 -2.3888385 -0.5492654
000340 a1 fe 9c be 2d 52 83 c0 dd df ea 3e 66 9e 31 bf
       -0.30663016 -4.103781 0.4587392 -0.6938232
000350 90 f3 7f 3f 74 d5 32 c0 2c a7 90 bf da 70 f7 3a
       0.9998102 -2.7942781 -1.1301017 0.0018878237
000360 81 06 da bc de 86 0f bc 3e 54 b0 c0 17 5e 48 be
       -0.02661443 -0.008760182 -5.5102835 -0.19567142
000370 e0 7a 29 c0 87 05 03 c0 03 c9 96 3f d2 66 ee 3f
       -2.6481247 -2.0472124 1.1780094 1.8625128
000380 8b d3 52 40 00 cb 09 bf 49 d9 79 3f 17 ec a6 3f
       3.2941616 -0.5382538 0.97597176 1.3040799
000390 a6 79 cb bf 4f 7a 01 bf 76 7b f9 bf f7 18 0c c0
       -1.5896499 -0.50577253 -1.9490802 -2.1890237
0003a0 24 f5 84 3f 90 43 9c c0 0f 67 cf 3f b3 44 98 bf
       1.0387311 -4.8832474 1.6203326 -1.1895965
0003b0 a5 40 be c0 02 6e ee 3f 71 78 66 be c0 7c 3f 3f
       -5.945391 1.8627322 -0.22506882 0.7479973
0003c0 ac f3 e2 3e de 19 84 c0 57 a1 20 3f 43 f3 1c 40
       0.44326532 -4.1281576 0.62746185 2.4523475
0003d0 a8 91 ab 3f b5 b2 d9 3e 3a 84 87 3f 89 46 8c 3f
       1.3403826 0.42519155 1.0587227 1.0959026
0003e0 e5 a9 6e c0 9e 6d d7 3f ff ba f2 be 5e a5 c9 3d
       -3.7291195 1.6830328 -0.47408292 0.098459944
0003f0 1c d5 95 c0 1e ef c5 be 3c a4 ef bf c3 e3 b0 be
       -4.6822643 -0.38658994 -1.8721995 -0.34548768

FC2.bias f4 [256]
000000 27 5d ec be 68 31 a3 bd 6a 6c a9 bf 6e c4 ea be
       -0.4616482 -0.07968408 -1.323621 -0.4585299
000010 26 3b 03 c0 bb 0b 9a bf da 76 46 bf 53 fa df bd
       -2.0504851 -1.203483 -0.77525103 -0.109364174
000020 54 3d dc bf bd 5d d5 bf fd 01 9b bf 7e d6 db bd
       -1.7206216 -1.6669232 -1.2109982 -0.107342705
000030 16 ee 0a c0 32 d3 81 bd 3d 00 0d c0 b3 73 ac bf
       -2.1707816 -0.063391104 -2.2031395 -1.3472809
000040 42 9e 63 bf 43 64 5d be 82 ce f8 bd 63 c4 fc bf
       -0.8891336 -0.21620278 -0.12148763 -1.9747432
000050 7a d8 ca bf a9 75 8f be 67 6d 7c 3f a0 7c 02 c0
       -1.5847313 -0.28019455 0.98604435 -2.0388565
000060 16 d1 ee 3d 34 00 34 be 52 4b 52 3e 8a be 5c bd
       0.11660974 -0.17578202 0.20536545 -0.05389265
000070 c9 61 95 bf 4d d7 83 bf 1b 43 2c c0 3a 8e 9c bf
       -1.1670467 -1.030008 -2.6915958 -1.2230904
000080 f1 f5 06 c0 b1 7f cb bd 8d 27 01 bf 53 5a a5 bf
       -2.108761 -0.099364646 -0.50450975 -1.291819
000090 f6 4c fe bd 01 f3 f2 be 9d d1 1b c0 75 89 32 3f
       -0.12417023 -0.47451022 -2.4346688 0.6974099
0000a0 18 11 e8 bd f1 6f 0b c0 59 75 78 3f 1f e6 19 bf
       -0.113313854 -2.1787074 0.9705406 -0.6011676
0000b0 86 9a 21 bf 0e 4f ed bf 87 a5 c4 bf 8d b0 19 3f
       -0.6312641 -1.853975 -1.5363015 0.6003502
0000c0 f3 e2 37 be 3c 87 1d c0 81 b7 1e bf b4 bf 88 bf
       -0.17957668 -2.461379 -0.61998755 -1.0683503
0000d0 11 15 05 bf 9f 82 00 bf 0c cf f0 bf a3 e7 ff bd
       -0.5198527 -0.5019931 -1.8813186 -0.12495353
0000e0 d6 69 fb be 2c e6 dd be 31 a4 96 bf df e8 7d be
       -0.49104184 -0.4333967 -1.1768857 -0.24795865
0000f0 6a 13 9c be 07 a9 a5 be 9c 39 97 bf 65 49 13 bc
       -0.30483562 -0.3235552 -1.1814456 -0.008989667
000100 c0 57 13 3f e1 82 50 bf a8 99 12 3e cf 6e 86 be
       0.5755577 -0.81449705 0.14316428 -0.26256415
000110 31 3f c3 be 5f 4f 35 bd c2 b7 82 bf 43 b6 66 bf
       -0.3813415 -0.044265147 -1.0212328 -0.9012186
000120 77 6d 89 be 80 cc 66 bf d4 d7 e3 3d af f8 2e 3e
       -0.26841328 -0.9015579 0.1112515 0.17087053
000130 c1 c4 14 c0 6a ce 97 be 8c 14 68 bf d4 65 69 bf
       -2.324509 -0.2964967 -0.9065635 -0.91171
000140 72 75 d1 be 2c bb b6 bf 18 83 af bd 35 02 1c be
       -0.40909916 -1.427587 -0.08569926 -0.15235217
000150 ca 80 16 be 6b 11 3e c0 d1 c3 9b bf 18 98 ee bd
       -0.14697567 -2.969813 -1.2169133 -0.11650103
000160 2b 3f 16 bf 78 8e c8 3f 01 b6 cc bf f2 15 51 bf
       -0.58690137 1.5668478 -1.5993043 -0.8167411
000170 fa 94 43 bf 18 c0 13 c0 02 4b a5 bf 9e 47 88 be
       -0.76399195 -2.3085995 -1.2913516 -0.2661714
000180 fa 7c 93 bf 99 5b 97 bf 24 ba 97 bf 6d 0b e5 bf
       -1.1522515 -1.1824828 -1.1853681 -1.7894112
000190 d3 b2 80 bf 25 0d 84 bf d5 d7 6a be 69 13 95 bf
       -1.0054573 -1.0316511 -0.22933896 -1.1646549
0001a0 5b 99 88 bf 26 0f 81 bf 2c e2 d3 3f c2 86 35 3e
       -1.06718 -1.0082748 1.6553397 0.17727187
0001b0 29 92 f3 bf e7 64 0b bd c0 42 49 be 7b 08 e9 3e
       -1.902898 -0.034031775 -0.1965437 0.45514283
0001c0 34 44 51 3e c6 7d 86 3e a1 b6 51 be 6f 4d c2 bf
       0.20436174 0.26267833 -0.20479824 -1.5179881
0001d0 b8 e1 91 bf bd a7 82 bf f7 7d d5 bf 38 db 82 bf
       -1.1397009 -1.020744 -1.6679066 -1.022315
0001e0 d6 8f 6f bd be 57 94 bf 61 7c c6 3e 5f ae 34 bf
       -0.058486782 -1.1589277 0.3876677 -0.7057857
0001f0 9d 6f a0 bd 5d 9d 24 be be cd 4a be 44 be d3 be
       -0.078337885 -0.16075654 -0.19805047 -0.413561
000200 d6 94 3e bf b9 ba db bf b9 ea 39 c0 f0 b4 26 bd
       -0.74445856 -1.7166358 -2.9049513 -0.0406999
000210 b5 97 e3 be f6 b5 50 bf 66 8c a6 bf 3e c9 9a bf
       -0.4445168 -0.8152765 -1.3011596 -1.2092664
000220 3d 79 03 be f4 af b1 3f 25 c0 16 c0 dd 69 d5 bd
       -0.12839217 1.3881822 -2.3554776 -0.104205824
000230 21 30 92 bf 6d eb c1 bd a2 c9 17 3e d0 90 d2 be
       -1.1420938 -0.09468732 0.1482301 -0.41126108
000240 cb 9c 72 bf b5 18 66 bf e7 1b c6 bf b7 fa 9c be
       -0.947705 -0.8988145 -1.5477265 -0.3066003
000250 2f 23 1e bf ab 64 29 c0 fc 86 02 c0 b7 2b 21 bf
       -0.61772436 -2.6467693 -2.0394888 -0.6295733
000260 06 2f ae 3e 90 2f 05 be a2 d0 0d 3f f1 13 47 c0
       0.3402025 -0.13006425 0.55396473 -3.1105921
000270 b5 61 f2 bf c6 cf 0c c0 f2 e8 9c 3e 75 cf 88 be
       -1.8936068 -2.2001815 0.30646473 -0.26720777
000280 4e 42 aa be db ef c8 3e 79 02 e3 bf c8 f0 a4 3f
       -0.3325371 0.39245495 -1.773513 1.2885981
000290 48 ee 3f bf 89 9c 5a bf 44 9c 39 bf 75 86 af bf
       -0.74972963 -0.85395104 -0.7250407 -1.3712908
0002a0 3f 42 13 bf ff d0 a0 bf 82 33 cf bf 97 df d7 bf
       -0.5752296 -1.256378 -1.6187594 -1.6865109
0002b0 25 d5 bb bf e3 5c 09 c0 58 6f fa bf e6 fc 43 c0
       -1.4674422 -2.1462944 -1.956523 -3.0623107
0002c0 ee 5e 93 bf 84 0f a9 bf 12 83 a1 bf 87 1a 66 3f
       -1.1513345 -1.320786 -1.2618124 0.8988423
0002d0 91 54 43 bd ab cb af bf 01 5a 07 bf 9e 70 38 bf
       -0.04768807 -1.373403 -0.5287171 -0.7204684
0002e0 36 8d dc 3f 6f af d1 bf b2 bc fa bf 40 6a 58 3e
       1.7230594 -1.6381663 -1.9588835 0.21134281
0002f0 75 f3 50 be b4 b5 fe be d0 2e 09 c0 b0 09 1f c0
       -0.20405371 -0.49748003 -2.1434822 -2.4849663
000300 0c 09 ce 3e 96 4f 8b bf 0e 21 05 bf c1 18 60 bd
       0.40241277 -1.0883663 -0.5200356 -0.054711107
000310 8f c1 27 bf ba cc f3 bf 75 dd af be b1 ec 10 c0
       -0.6552972 -1.9046853 -0.34348646 -2.2644465
000320 0b 1c 19 bf 1f f0 73 bd c9 f6 55 be 4f b2 06 c0
       -0.59808415 -0.05955517 -0.20894922 -2.104633
000330 37 16 84 bf 3e f7 3b 3e 8d 61 ed bf 50 d6 f9 bf
       -1.031928 0.18356034 -1.8545395 -1.9518528
000340 84 e4 a5 be aa 28 be 3f 3c ea 94 bf 2c 42 76 bf
       -0.32400906 1.485616 -1.1633983 -0.9619472
000350 3b a6 1f 3f 14 3e 9a bf 4c 4e 8b bf 27 ed 15 c0
       0.6236302 -1.2050195 -1.0883269 -2.3425996
000360 73 46 70 c0 22 0b f4 3e 01 2f f5 bd d1 2b 59 c0
       -3.7542999 0.47664744 -0.11971856 -3.3932993
000370 77 2b ce bf 4f 42 56 bf 74 e7 94 bf 84 ea 27 be
       -1.6107014 -0.8369493 -1.1633134 -0.16398054
000380 c6 72 05 3d d6 ac b9 3e 6d 6c a9 bf 1b 1f c8 bf
       0.03258016 0.36264676 -1.3236214 -1.5634493
000390 08 a3 e1 bf 8d 99 09 c0 f1 2a 9a 3e 6b 77 ae bf
       -1.7627878 -2.149997 0.30110887 -1.3630193
0003a0 11 ad 20 bf f6 2c e6 be e2 6a 3c 3e a1 dd 6d bf
       -0.6276408 -0.44956177 0.18400148 -0.92916304
0003b0 6f e2 f8 bf 2d a5 ab bf 68 c4 0f c0 50 40 bf bf
       -1.9444102 -1.3409783 -2.2463627 -1.4941502
0003c0 c8 14 d6 bd e0 07 bd bf d7 20 e0 bf c3 e1 3d 3f
       -0.104531825 -1.4768028 -1.7510022 0.7417261
0003d0 1f 4a 04 c0 0e ee 14 bf 35 97 de bd 44 3f 7e bf
       -2.067024 -0.5817574 -0.10868684 -0.99315286
0003e0 95 5d 1f c0 d7 cb 09 be ad db c8 bf 37 17 d8 be
       -2.4900868 -0.13456665 -1.569204 -0.42205212
0003f0 ae 4c 90 bd f6 9d 56 be ab 79 8e be d6 b3 f5 be
       -0.070458755 -0.20958695 -0.278272 -0.47988766

action_out.weight f4 [5, 256]
000000 77 8d 03 40 e1 3f 83 bd 2d a4 0e 40 74 9f 25 3f
       2.0555093 -0.06408668 2.2287705 0.6469643
000010 e6 2f d5 ba 66 da 53 c0 2a df ac bf 2d 1c b6 3f
       -0.0016264885 -3.310205 -1.3505604 1.4227349
000020 1f 08 5d bf a6 e4 2d 3d 66 c7 56 40 7e f9 0d 3f
       -0.86340517 0.042454384 3.3559203 0.5545882
000030 c5 0b 26 c0 85 3f 23 bc be 83 0f 40 72 e6 bf bd
       -2.5944684 -0.009963875 2.242416 -0.09370126
000040 33 98 44 40 c7 c6 82 3d a0 46 d7 3e e6 db 07 40
       3.0717895 0.0638557 0.4204607 2.1227965
000050 52 41 91 bf dc 03 d9 3f 89 67 b2 3f d9 4b a1 40
       -1.1348059 1.6954303 1.3937846 5.0405087
000060 65 51 2b 3f 36 90 ef 3f 18 00 0f 3f 5a 4f 31 3f
       0.66921073 1.8715885 0.5585952 0.69261706
000070 29 a6 e6 3f 60 b2 b0 bf 90 ab e4 3e 3b 8f c2 3f
       1.8019458 -1.3804436 0.44662142 1.519996
000080 bb fa 6f 3f 77 39 ed 3c f4 85 2b 40 bf 66 25 40
       0.9374196 0.028958065 2.6800508 2.5843961
000090 d5 98 65 bd 4c 2f ce bc 52 1d 9d 40 d5 2d 3f 40
       -0.056053955 -0.025169037 4.909829 2.9871724
0000a0 53 c8 13 40 a9 50 02 3e a1 f7 e1 3f 4f a2 bc 3f
       2.3091018 0.12726082 1.7653695 1.4737033
0000b0 7d 8d 93 3f cd 77 c6 3d b0 7f 63 3f 08 c6 4d 3f
       1.1527554 0.09690819 0.8886671 0.80380297
0000c0 9b 22 0e 40 f2 b6 fe 3e e1 04 d5 3f e6 ae d7 3f
       2.2208622 0.4974895 1.6642114 1.685025
0000d0 ec dc 04 40 50 1b 50 40 96 31 85 40 b0 70 65 3d
       2.075984 3.251667 4.162303 0.05601567
0000e0 8b aa e5 3f 31 f4 42 3f 20 81 9d 3f 0c e0 53 3f
       1.794267 0.76153857 1.2305031 0.82763743
0000f0 3d 22 de 3f 60 04 00 40 15 d7 8a 3e 2c f3 71 3f
       1.7354199 2.000267 0.2711722 0.94511676
000100 3f 68 3e 40 43 14 82 bf 38 9f 45 40 a3 55 94 3f
       2.9751127 -1.0162433 3.087843 1.1588634
000110 bf 29 00 40 1b 8a db 3f a2 41 b7 3f a2 8f 8d bd
       2.002548 1.7151521 1.4316905 -0.069121614
000120 71 dc 20 40 a5 4d 8d 3e 9f 41 60 be 6f 0c 15 40
       2.5134547 0.275983 -0.21900032 2.328884
000130 b1 9b 3a 40 50 81 a0 be a1 82 16 be b3 7b c1 3f
       2.9157526 -0.31348658 -0.14698268 1.5115875
000140 de 78 4f bf 00 4a 68 3f 18 b4 c9 3e 03 e6 8d 3f
       -0.81043804 0.90737915 0.39395213 1.1085819
000150 96 e9 b2 3e 13 d9 d8 be b2 11 77 40 86 8f 46 3f
       0.34943837 -0.42353114 3.860455 0.7756275
000160 97 8f 9a 3e 8d bc 21 40 a2 7e 8c 3f 49 65 b3 3f
       0.30187675 2.5271332 1.0976145 1.4015285
000170 21 42 fb 3f 4d 70 e1 3f fb 89 9a 3f 35 b6 84 3e
       1.9629556 1.7612396 1.2073358 0.25920263
000180 f7 3a 24 40 33 45 b9 3e ed 8a 45 bf 7e ac b2 3f
       2.566099 0.36185607 -0.7716511 1.395889
000190 06 54 a8 be 1d 60 4e 3f 68 e4 74 3f 1f db 22 40
       -0.32876605 0.8061541 0.9566102 2.544624
0001a0 b8 62 fe 3f 0f 05 73 be 3e 3a e4 3f d3 39 16 40
       1.9873877 -0.23732398 1.7830274 2.3472793
0001b0 7e ab f3 3e 31 cd 9c 3f ca ee b4 3e c5 87 8a 3f
       0.47591776 1.225012 0.35338432 1.0822684
0001c0 83 52 1f 3e ab a4 d9 3f c9 53 b2 3f 5c 65 0e 40
       0.1555882 1.7003378 1.3931819 2.2249365
0001d0 bc 94 c0 3e 6d c3 18 40 82 ec 63 bf 3f 5a e0 3f
       0.37613475 2.3869278 -0.8903276 1.7527541
0001e0 e8 fc 8f 3c c2 8f c0 3f ee ea b6 3f 3b 97 01 40
       0.01757665 1.5043871 1.4290445 2.0248554
0001f0 e5 3d 82 3d d1 73 10 40 e3 7f c5 3e 97 f9 8b 3f
       0.06359462 2.2570689 0.38574132 1.0935544
000200 dd 6a 87 40 14 e1 3f 40 a0 91 82 bf 1f d7 a1 bc
       4.231795 2.9981127 -1.0200691 -0.019755898
000210 a9 12 14 40 f8 4e cd be 6c 89 30 c0 0e ed 5b 3f
       2.313639 -0.4009931 -2.7583876 0.8590859
000220 18 13 b3 3f fc f6 ec 3f 9a 17 07 40 3f 8d 84 3e
       1.3990202 1.8512874 2.1108155 0.25889012
000230 de b7 18 3e 54 1c f2 3e 69 7c f3 3f 51 41 02 40
       0.1491389 0.47287238 1.9022342 2.0352366
000240 36 86 97 c0 99 6a 2f 40 30 bc 2a bf 3e cb ae 3f
       -4.735133 2.7408812 -0.666934 1.3655775
000250 3e e1 11 40 d7 00 29 40 b0 39 1a 3f 16 d5 69 bf
       2.2793727 2.6406763 0.60244274 -0.9134077
000260 d8 fe 2d 40 e4 4d be 3e 87 d6 cc 3f 01 0f 1e 3f
       2.7186794 0.371688 1.6002969 0.61741644
000270 66 da 52 bf 32 b9 2c 40 7c 30 68 3f d3 3a 00 bf
       -0.823645 2.6988034 0.9069898 -0.5008976
000280 12 42 8d 3f 3e 20 df 3f 7f 81 2a 40 0d 91 9a 3f
       1.1035788 1.7431715 2.6641538 1.2075516
000290 ad cf 43 3f 87 33 99 be 2d 8d 79 3f e5 a1 85 3f
       0.76488763 -0.29922125 0.9748104 1.0440031
0002a0 1b d3 a4 3f ad d1 a7 3f 71 4f 29 bd a4 c1 1a 40
       1.2876924 1.3110863 -0.041335527 2.418069
0002b0 96 0f a8 3f f8 ca 11 bf 51 32 51 bf 77 b5 08 3f
       1.3129756 -0.5695033 -0.817174 0.53401893
0002c0 10 b7 33 40 b4 f2 4d 40 f0 69 cc bf ee 94 c5 3f
       2.8080482 3.2179384 -1.596983 1.5436075
0002d0 de 0d a1 ba b2 d4 5e bf e3 0a 36 40 17 cc bf 3f
       -0.0012287458 -0.870433 2.8444145 1.4984158
0002e0 41 ca 27 40 64 45 06 40 73 4a 0c be 0e 4b 09 40
       2.6217196 2.0979853 -0.13700275 2.145206
0002f0 8b 90 76 3e fa 9b 74 3f ae 09 c1 be 82 f8 82 3f
       0.24078576 0.955505 -0.37702698 1.0232089
000300 12 1f 22 40 e6 ea 33 bf ce 97 b7 3f 9e c1 8b bc
       2.5331464 -0.702803 1.4343202 -0.017060097
000310 da ce 93 c0 c2 10 13 bd 1e af 13 40 dd d9 8d c0
       -4.6190004 -0.035904653 2.3075633 -4.4328446
000320 77 c6 b2 3f ad d0 10 bd e3 d2 12 3e 41 a4 85 3f
       1.3966817 -0.03535526 0.1433826 1.0440751
000330 7f c9 42 c0 31 2a 00 40 ff 0d 5f c0 1a 2b 0d 40
       -3.0435483 2.0025752 -3.4852293 2.2057557
000340 f7 7d 03 be ad b3 0e 40 1e 71 63 3e d0 54 09 40
       -0.1284102 2.2297165 0.2221112 2.1458015
000350 a2 78 91 3f 39 79 c0 3f b7 c0 37 40 19 b0 c6 bf
       1.1364939 1.5036994 2.8711374 -1.5522491
000360 dc 78 9e be 5e 21 00 40 9d 36 19 bd 09 51 1b c0
       -0.30951583 2.0020366 -0.0374056 -2.426821
000370 7a ea 35 c0 36 32 29 bf 31 3a ba 3f 1d ac 50 3e
       -2.8424363 -0.6609224 1.4549009 0.20378156
000380 0a 64 bd bc b9 df be bf 43 5b 48 bf d5 75 75 3f
       -0.023118991 -1.4912025 -0.78264254 0.9588292
000390 6c ef 04 c0 35 34 9d 3f 04 bf 12 40 3f d0 00 40
       -2.0771132 1.2281557 2.2929087 2.0127103
0003a0 76 7b 17 40 19 17 d0 3f 62 7f a2 3f e6 5b eb 3f
       2.3669105 1.6257049 1.2695124 1.838742
0003b0 58 91 f3 3f e0 29 00 40 49 4e 95 bd 69 d1 8c 3f
       1.902873 2.0025558 -0.07290322 1.1001407
0003c0 79 e4 0e 3d 5c 12 8c 3f 46 25 14 c0 1f 32 5a 3f
       0.034885857 1.0943103 -2.314775 0.8523273
0003d0 06 4e c9 bf c9 b7 c1 3e 49 17 95 3e fa 57 2a 40
       -1.5726936 0.3783553 0.29119328 2.6616197
0003e0 56 21 8f 3f ab 08 6f 3d 8d 6d 31 40 2e 2f ea 3f
       1.1182048 0.058357876 2.7723114 1.8295648
0003f0 4a 0a 1e 3f 74 ea be 3d 60 11 df 3f 22 70 22 40
       0.6173445 0.09322062 1.7427177 2.538094

action_out.bias f4 [5]
000000 f3 9d 84 3f 30 53 cb bf a0 de b1 40 f0 ef 99 3f
       1.0360702 -1.5884762 5.558426 1.2026348
000010 5f e2 0e 40
       2.2325666

weight f4 [256, 123]
000000 0b ac 40 c1 44 cd 94 be 52 8d e1 bd 24 8d 95 be
       -12.042003 -0.29062855 -0.11013283 -0.29209244
000010 c8 78 fd bd cf ab a1 be 99 d7 93 be cb 39 fd bc
       -0.12376553 -0.31576392 -0.28875425 -0.030911347
000020 2e be bf 3f 87 cb 91 3d 8a 32 58 3d 6d ea 7c 3d
       1.4979913 0.07118898 0.052782573 0.061747003
000030 f9 d4 23 3e e9 f3 fa bc 12 db 28 be 08 75 ed bf
       0.15999211 -0.030633884 -0.16489819 -1.855134
000040 d1 c3 fb be fb 1d 87 bf 7e 8b 5e bf 48 c9 9b be
       -0.49172834 -1.0556024 -0.869316 -0.30427003
000050 02 55 3f be 48 bc 84 bf 66 90 cd 3d 52 ff 6a 3f
       -0.18684772 -1.0369959 0.100373074 0.9179584
000060 0b 50 7f bf f4 e3 a0 bf 02 fd 61 bc 02 d8 bf bf
       -0.9973151 -1.2569566 -0.013793232 -1.4987795
000070 3a 54 1b 3d 30 c4 52 be 1f e1 7a bd fd af 98 be
       0.03792212 -0.20582652 -0.06124985 -0.29821768
000080 da 9f c3 bf 50 4e 6d bc d8 84 d5 bc 68 37 1f bf
       -1.5283158 -0.014484003 -0.026064321 -0.6219392
000090 35 a8 41 c1 e4 2d 25 3e 9f 00 ef 3d 2d dc dd be
       -12.103566 0.16130787 0.1167004 -0.43332043
0000a0 7b 08 ad bc a1 d9 b3 be 85 2b a4 be e0 b8 97 3f
       -0.021122208 -0.35126975 -0.32064453 1.1853294
0000b0 2d 23 2d 3e 3a b6 68 3f 05 83 6c 3f 6d b8 7b 3d
       0.1690795 0.90903056 0.9238742 0.06145518
0000c0 79 ce 16 3e a9 81 df bb 4c 8a 65 be 14 01 bf bf
       0.147272 -0.0068208766 -0.22416037 -1.4922204
0000d0 e4 6f f8 3f 4c 43 eb 3c a5 ee 82 3d d8 84 d3 be
       1.9409146 0.028718613 0.06393174 -0.4131229
0000e0 84 da 1e be e9 bb 7b bf 6c c9 82 3e f8 2e ef 3f
       -0.15513045 -0.98333603 0.25544298 1.8686209
0000f0 be a4 b7 bf 9b cb f8 3d 8c ca c8 3e f0 66 b4 bf
       -1.434715 0.1214821 0.3921703 -1.4093914
000100 97 40 7a be 17 4e 0a 3d 18 3b 9c be 36 25 84 be
       -0.24438702 0.03376588 -0.30513835 -0.2580964
000110 16 e1 5d bd e4 37 c2 bf 61 15 9d 3d a7 16 cd 3f
       -0.054169737 -1.5173306 0.07670093 1.6022538
000120 1b 54 40 c1 86 1f 99 be e9 a5 1c bd 44 5d a1 be
       -12.020534 -0.29906863 -0.03824416 -0.3151647
000130 2b eb eb bc 22 bb c2 be 8d 06 cc be d2 9b 8e 3f
       -0.02879866 -0.38033396 -0.39848748 1.1141303
000140 6e 4c 08 bf 16 4b a0 3f fb e4 1a 3e a0 b4 0f 3e
       -0.5324162 1.2522914 0.15126412 0.14033747
000150 3f ec 05 3e be db 0a bd 5e 67 8e be 43 1b b2 bf
       0.13078402 -0.03390097 -0.27813238 -1.391457
000160 3f 86 97 3e e9 cb 09 3d 82 6f 08 bf 29 3b a3 be
       0.2959461 0.03364173 -0.5329515 -0.31881073
000170 4a 27 08 bd dc 8c 81 bf e5 eb 73 3e 48 e0 53 40
       -0.033240594 -1.0121112 0.23820455 3.310564
000180 e6 11 10 c0 60 90 d5 bc 06 5b 1f 3d 28 9b b2 bf
       -2.2510924 -0.02606982 0.038905166 -1.39536
000190 be 9c ce bd d2 9a 49 bd 5d b6 99 be 11 1b 35 be
       -0.1008849 -0.049219914 -0.30021945 -0.17686106
0001a0 e0 b4 f1 bb 70 ce f6 bb f0 75 ba bf f7 fd 05 c1
       -0.0073762983 -0.0075319335 -1.4567242 -8.374503
0001b0 f9 4b a0 3e 4e 2c d5 3e de 5b c7 be e3 79 c4 3e
       0.31307963 0.41635364 -0.38937277 0.38374242
0001c0 6d 76 19 bf ba 9f 1d 3e b2 e5 a1 bd 29 d2 a1 3e
       -0.5994633 0.15392962 -0.07905139 0.31605652
0001d0 47 ef 44 bd 31 b2 97 3d 94 17 66 bd ac 19 68 bc
       -0.048079755 0.07407034 -0.05617483 -0.014166277
0001e0 f1 14 4c 3d 60 40 93 3d 7e 97 17 bd d0 1c 59 40
       0.04982466 0.07190013 -0.03700971 3.3923836
0001f0 3a 59 aa bd f9 d0 58 3e 62 da c1 3c 3d 36 36 3e
       -0.083178 0.21173467 0.023663703 0.17794128
000200 e2 7b c6 be ff 6e 3e 3f 4e a4 be 3f dc 77 bb bf
       -0.3876639 0.74388117 1.4893892 -1.4645953
000210 1e b1 a5 bd 30 fa 15 3c 4f e6 4b 3f 7c 2e 44 be
       -0.08090423 0.009153888 0.796483 -0.19158357
000220 25 c0 33 c0 54 6d 00 bf bc f1 e9 3f 70 bb 0c 3f
       -2.8086026 -0.5016682 1.8276896 0.54973507
000230 c1 29 00 3f ed 9b ff 3d 67 f5 af be 59 13 76 3e
       0.5006371 0.12480912 -0.34366915 0.24030818
000240 93 81 0b bf db ef b7 be bd 2a 68 bf 75 44 c9 be
       -0.5449459 -0.35925183 -0.90690213 -0.3931004
000250 bb 35 10 3e e7 f4 ab bd 4c a0 aa bd 96 bb 3e 3d
       0.14082997 -0.08396321 -0.083313555 0.046565615
000260 38 c0 96 bb c7 b9 f9 3d 83 03 af 3c 12 ae cd bd
       -0.004600551 0.12193637 0.02136398 -0.10042967
000270 b2 7f 7d 3d 95 00 81 3d eb 4a 10 40 74 8f 5c 40
       0.061889358 0.06298939 2.2545726 3.4462557
000280 d9 fa 61 3f e3 87 8e be 19 56 ae 3c f5 05 07 3e
       0.8827339 -0.27838048 0.021281289 0.13185866
000290 9e dc c9 be 61 ab 22 3f b5 3f 77 bc 23 02 6c bf
       -0.3942613 0.63542753 -0.0150908725 -0.9219076
0002a0 43 6f 10 bf 09 d6 1e bd 59 d7 72 3f c3 ae 79 be
       -0.5641977 -0.03877834 0.94859844 -0.24383073
0002b0 e3 e1 36 c0 22 2f ff be 1b d2 83 40 ff 96 38 bf
       -2.857537 -0.49840647 4.1193976 -0.721054
0002c0 f0 d1 b2 3b ad 15 0a bd 01 d2 8f be 62 e4 81 3e
       0.0054571554 -0.033712078 -0.28089908 0.25369555
0002d0 b5 cb e3 be a8 df 00 bf 6f 0b 89 bf 04 49 74 bf
       -0.44491354 -0.5034127 -1.0706614 -0.95423913
0002e0 5f 7f 7e be 6d 13 74 bc 50 85 f1 bd 1c 5e ef bd
       -0.24853276 -0.01489721 -0.117930055 -0.11687872
0002f0 9d 59 c1 3d 00 1a 17 3d ce 13 88 be c5 2d b4 3d
       0.094409205 0.03689003 -0.2657761 0.08797792
000300 74 47 23 be c2 9f 2e 3d 24 f2 14 40 b8 a6 5a 40
       -0.15945226 0.042632826 2.327279 3.4164257
000310 27 59 e1 be bd b4 99 3e 45 dd fc bd c6 41 0f 3e
       -0.4401333 0.30020705 -0.12346891 0.13989934
000320 52 c2 ed be 51 69 43 3f 62 9c 73 bd 4f 30 09 be
       -0.46437317 0.76332575 -0.05947531 -0.13397335
000330 f9 ae 72 be c1 1d e5 bc a7 ca 63 3f d5 d8 97 be
       -0.2369956 -0.02796829 0.889811 -0.29657617
000340 f3 20 37 c0 9b 4c 03 bf 6a 7b 73 3f b6 bd bc 3e
       -2.861386 -0.51288766 0.9511019 0.36863488
000350 14 18 2c 3e 80 78 b5 bd 9f 56 cb be bf ba 89 3e
       0.1680606 -0.08860874 -0.39714524 0.26900288
000360 11 3d c9 be 9b 14 b5 be c1 da 64 bf be 1d b4 bf
       -0.39304402 -0.35367283 -0.8939629 -1.4071577
000370 00 30 d2 3a 35 4a 9c 3d 88 46 cb bd 2b d1 ba 3d
       0.0016036034 0.07631341 -0.09925562 0.09121927
000380 b3 11 a0 bc 40 e9 ec 3d 8f 28 b2 bc be 62 33 3d
       -0.01953969 0.115679264 -0.021747855 0.04379534
000390 17 94 87 3d a2 09 11 be 60 93 0f 40 53 a2 19 3d
       0.06620043 -0.14163831 2.24337 0.03750832
0003a0 99 2d 97 3d 67 58 bc bc ed a3 2e 3e 76 3a 1c 3d
       0.07381744 -0.022991372 0.1705472 0.03814169
0003b0 3f c7 2a bc 1e 1b 52 be 4b 20 29 3e 95 c5 e2 bb
       -0.0104234805 -0.20518157 0.16516225 -0.0069205263
0003c0 fd 86 c6 39 e1 fa b8 bd 09 a1 ee 3d 80 0a 23 bd
       0.00037866077 -0.09032226 0.11651809 -0.039804935
0003d0 77 3b a8 bd f2 7e 12 bd f2 57 50 bd 1b 06 da bc
       -0.08214467 -0.035765596 -0.05086512 -0.02661424
0003e0 e8 0c 6e 3d ff 12 94 3d 09 5e 06 bc 01 30 46 bd
       0.058117777 0.07230186 -0.008201131 -0.048385624
0003f0 87 28 09 3d 6f c9 f7 bb 34 a8 9b 3d 62 7e 53 3d
       0.033485916 -0.0075618546 0.076004416 0.0516342

bias f4 [256]
000000 36 e9 ba bf 4b 35 52 be 44 d9 cd bd 34 19 d5 3e
       -1.460242 -0.20528142 -0.10051206 0.4162079
000010 fb 04 6e bd 3b dd 15 3b 5d 0c 5f be f0 97 87 3c
       -0.05811022 0.002286746 -0.2178206 0.016551942
000020 f5 26 e3 be e6 2d 0b be 18 fd 1b bd c0 90 d5 bf
       -0.4436566 -0.13591728 -0.038083166 -1.6684799
000030 1b b7 7c be 69 13 21 bf 4c f4 d8 bd bc 51 9a bd
       -0.24679224 -0.6292024 -0.10593471 -0.07535121
000040 cf bc d9 bc 91 67 f6 bd 47 fd 5d 3d fb 40 88 bd
       -0.026579289 -0.120314725 0.054196622 -0.06653019
000050 1e 4f 13 c0 e5 17 d7 bf 11 e8 2a 3b c2 7d 51 bb
       -2.301704 -1.6804167 0.0026078264 -0.0031965827
000060 ef 6b e0 bc 61 98 b3 bc 40 0b e9 bd 71 fb 1c bf
       -0.027395217 -0.021923246 -0.11379099 -0.6132117
000070 71 41 f5 bc 83 fa 20 bf aa 4a 96 3e a2 6a 95 bd
       -0.029938431 -0.6288225 0.2935384 -0.07295729
000080 f7 39 c4 bc 7a 51 e7 bd 6e c3 05 bd d3 a7 8a bd
       -0.023953421 -0.11294837 -0.03265708 -0.06770291
000090 40 33 07 c0 a7 07 e4 bd d2 6e d1 bd a3 f2 37 be
       -2.112503 -0.11134272 -0.102262154 -0.17963652
0000a0 dd e3 1e 3d 25 8a ee bd a3 3d 27 3d 2f a0 9f 3b
       0.038791526 -0.11647443 0.040830266 0.0048713903
0000b0 dc 30 3e 3f 49 bb 87 3d 6a 13 9e bf f9 d3 db bd
       0.74293303 0.06627519 -1.2349675 -0.1073379
0000c0 09 df be bc 69 49 72 bd c6 83 d0 ba e3 c3 e0 bf
       -0.02329971 -0.05915204 -0.0015908412 -1.755978
0000d0 b3 88 f6 bd 7e f5 42 be 25 38 91 bd d9 9c 85 bf
       -0.12037792 -0.1903896 -0.07090787 -1.0438491
0000e0 a7 1d 28 be c2 b3 64 bd ec c2 9c 3e fe 3b 30 bd
       -0.16417561 -0.055835493 0.30617464 -0.043025963
0000f0 7b 58 64 3f 62 7c cc bd 12 79 89 bd 09 41 31 bd
       0.8919751 -0.09984662 -0.067125455 -0.043274913
000100 ae 10 85 bd 58 44 73 bd 1e c1 1e 3f b7 a2 f4 3d
       -0.06497322 -0.05939135 0.62013423 0.11945098
000110 29 38 16 3d 11 49 34 bd 75 7f 84 3e 85 fa e3 bc
       0.036674652 -0.044014994 0.25878492 -0.027829418
000120 5f 58 63 bf f0 59 1b bd dc 5c e0 3f 1c 2b d3 3c
       -0.8880672 -0.037927568 1.7528338 0.025777392
000130 0e 7c 45 3d 11 03 65 be b4 a0 2b 3c 60 c2 ca be
       0.04821401 -0.22364451 0.010475326 -0.3960142
000140 d7 99 02 3d 1d 35 c3 bd 50 0f 6b be 36 9a 74 bd
       0.031884994 -0.09531615 -0.2295506 -0.05971738
000150 75 6a 10 bc 0c ef 6d bf 8c 50 44 bd 25 8f c0 bd
       -0.008814444 -0.9294288 -0.047928378 -0.09402303
000160 ef 78 93 bd 9f 25 63 3c 78 18 4a 3e 1b 58 98 3c
       -0.072008006 0.01386395 0.19735897 0.0185967
000170 60 d8 d0 bd b0 70 e0 bf c3 6f b1 3b 44 95 b6 bc
       -0.1019752 -1.753439 0.0054149344 -0.022287972
000180 fd 37 bf 3b 55 3f f0 bd 0f b2 17 be 2f ef a8 bf
       0.0058355317 -0.117308296 -0.14814018 -1.3197993
000190 a7 f3 ed bd 40 68 5a bd 66 33 87 bd be 8a f9 bd
       -0.116187386 -0.053322077 -0.066016 -0.12184666
0001a0 3e 22 7f bf f6 7a ed bf d6 75 3c bc e6 09 3d 3d
       -0.99661624 -1.855315 -0.011502704 0.046152018
0001b0 bc 04 13 bc 3b eb 17 3d 41 33 81 bd ba 39 e6 bd
       -0.008973297 0.037089568 -0.06308604 -0.11241479
0001c0 64 3b 93 bd b7 e7 d9 bd 75 8e 8b bd 01 31 6f bd
       -0.07189062 -0.10639899 -0.06814281 -0.058396343
0001d0 eb 06 b9 bc b9 7a f5 3c 7c c5 b7 bd 91 94 81 bd
       -0.022586307 0.029965745 -0.08973214 -0.06327165
0001e0 39 90 8f bd 6f ef 04 be 91 19 b6 bd a3 21 b0 bc
       -0.0700993 -0.12981962 -0.08891595 -0.021500414
0001f0 6e 01 cf bd de 48 04 bf 9b 09 91 bd 67 5c 1c bb
       -0.101076946 -0.51673687 -0.0708191 -0.0023858787
000200 f5 85 00 bd ff 0a e2 bf ef a7 38 be 43 0d e9 bd
       -0.03137775 -1.7659606 -0.18032812 -0.113794826
000210 cc 3b ae bd b8 16 c4 bf ee 7f 29 bd 31 b8 9d bf
       -0.08507499 -1.5319433 -0.04138177 -1.2321836
000220 9d 0a 8c bd ce 1d b0 bd b4 b5 bc bd 19 b7 b0 bf
       -0.06837962 -0.08599435 -0.092143446 -1.3805877
000230 48 83 4d bd 60 ce c2 bd bd 69 0b be 54 e6 06 be
       -0.050174028 -0.09512019 -0.13614555 -0.131738
000240 13 a9 9e bd 76 40 1d bf 4e 6c 06 be f9 8b 5c be
       -0.07747092 -0.61426485 -0.13127252 -0.2153777
000250 bb 0c ee be 53 80 b8 bc 98 4c c7 3e 8f 83 c2 bf
       -0.46494088 -0.022522127 0.38925624 -1.5196398
000260 f6 59 08 3d 8f d3 71 be 51 61 be 3f b1 9b 1d bf
       0.03328892 -0.2361586 1.4873449 -0.6156569
000270 5e 2d b1 bd cf bf f5 bd 55 d1 fc 3f bc 15 15 bd
       -0.08651231 -0.11999475 1.9751383 -0.03639768
000280 f4 b0 a8 bd 67 00 4b bd 1e 1d 57 bd 14 d4 03 3d
       -0.08236876 -0.04956093 -0.052518003 0.032184675
000290 e9 2c 91 bf d9 63 0a be 17 14 cd bd 5b 1e 97 bd
       -1.134183 -0.13514651 -0.100135975 -0.07378837
0002a0 37 a6 0a be b5 69 13 3d 1c 7e 00 3d 56 f5 0a be
       -0.13539968 0.035989482 0.031370267 -0.1357015
0002b0 c8 1e 8f bd 0d 96 47 bf a1 b5 89 bd 19 fa 06 bd
       -0.06988293 -0.77963334 -0.06724096 -0.032953355
0002c0 b9 c5 b0 bd 28 2c 74 3d 6b a3 00 3d 9e fc ae 3e
       -0.086314626 0.059612423 0.031405848 0.34177107
0002d0 ca a0 98 bd 5e 98 0a be 63 fb 8c bf 5f 08 dd be
       -0.07452543 -0.13534686 -1.1014217 -0.4317045
0002e0 4a c7 4e bd c3 3f ae bd 36 b1 54 be 06 fe bf bd
       -0.050483026 -0.08508255 -0.20770726 -0.09374623
0002f0 55 af 26 bd 33 e2 7b 3b cf 92 ed be 29 f7 ae 3f
       -0.040694553 0.0038434386 -0.4640107 1.3669177
000300 8a 7c e3 bc 2e ac 07 be 86 26 6f bf fc b7 45 be
       -0.027769346 -0.13249275 -0.9341816 -0.19308466
000310 88 84 00 bf b6 08 6c bd 09 8d 13 bd 7b 30 96 bd
       -0.50202227 -0.057625495 -0.036023173 -0.07333466
000320 00 ec 70 be 07 96 59 bd 5e 4d eb bf ab 1c 7a bd
       -0.23527527 -0.053121593 -1.8382986 -0.061062496
000330 21 d3 65 3d 6f 44 8d bd 0f db b2 bd 4e 44 50 bd
       0.05610955 -0.06897818 -0.08733188 -0.05084639
000340 c4 b4 10 bf ff 86 d8 3c 79 12 5d bf ee c1 98 be
       -0.56525826 0.026431559 -0.8635631 -0.29835457
000350 c2 1c 7f bf 4e 49 d9 bf c0 1d c3 bf 1b ae 1c c0
       -0.99653256 -1.6975496 -1.5243454 -2.4481266
000360 5e 17 04 be f2 b0 23 bd 16 e0 e3 bd bc d3 61 bd
       -0.12899539 -0.03996367 -0.111267254 -0.055133566
000370 4b 87 01 bd ef 5f 6e 3c 0b 79 99 bd c1 83 b5 bd
       -0.031623166 0.01454924 -0.0749379 -0.08863021
000380 4b e4 74 bc 0b 10 01 be c0 7f 38 bd 4f 89 22 bc
       -0.014947007 -0.12603776 -0.045043707 -0.009920432
000390 8f ad 3a bd 3c 8b 0c 3e f9 0e 97 bd 04 c3 83 bd
       -0.045575675 0.13724989 -0.07375903 -0.06433681
0003a0 8c 2d 37 3f d9 f9 21 3f 98 fa 0c be f3 58 e2 bf
       0.71553874 0.6327186 -0.13767469 -1.7683395
0003b0 07 73 8f be 33 3a 81 3d a8 8f 57 3b a8 bb 8c 3f
       -0.28017446 0.06309929 0.0032892022 1.0994768
0003c0 3e 52 b2 bc 8c 37 c7 bd b1 c2 10 bd 79 6c a1 bd
       -0.021767732 -0.097273916 -0.035341922 -0.07882018
0003d0 42 f7 8a 3c 6c e8 37 3c c1 81 56 be f5 9f 8e 3e
       0.016963605 0.011224847 -0.20947935 0.27856413
0003e0 19 32 7c bd 54 75 14 c0 23 11 91 ba e6 87 97 bd
       -0.061571214 -2.3196611 -0.0011067729 -0.073989674
0003f0 4a d8 22 3d 31 49 a7 bd 74 56 32 3e 4e b4 98 bd
       0.03975705 -0.08168257 0.17415792 -0.074562654
