saved_models_1/125_12236_model.pt (torch, 701697 bytes, 11 tensors)

FC1.weight f4 [256, 36]
000000 3b 60 1f 3f c0 21 99 3e 7c e2 85 3e 2d e5 90 bf
       0.6225621 0.29908562 0.26149356 -1.1319939
000010 ca cd cb 3f 08 c6 b8 3f 9c 6e 91 bf 57 82 34 c0
       1.5922177 1.4435434 -1.136188 -2.8204553
000020 40 8c 1a 40 ea 5f 1f 40 a2 e5 40 c0 56 de 82 be
       2.4148102 2.4902291 -3.0140157 -0.25560254
000030 3d 6a 53 bf 13 86 a4 3e 43 2e a4 3f 83 be 70 3e
       -0.8258398 0.3213354 1.2826618 0.23510174
000040 7d 6a 1b c0 bc 2d a2 3f 56 93 e5 3f 41 dc a8 3e
       -2.4283745 1.2670207 1.7935588 0.3298054
000050 58 92 04 40 15 2f 72 3f f5 2d ca bf 1c 24 5d bf
       2.071432 0.9460309 -1.5795275 -0.86383224
000060 7a c1 55 40 38 da 62 3f 9f 44 40 c0 65 74 cc be
       3.3399339 0.88614225 -3.0041883 -0.39932552
000070 74 f6 f5 bc 85 49 0a 3f 48 38 59 bf 1d ed 3f be
       -0.030024745 0.5401843 -0.84851503 -0.18742795
000080 f7 77 91 c0 81 8f 8b 3e 49 41 f2 3e 60 cc bb c0
       -4.545894 0.27257922 0.47315434 -5.868698
000090 3e 24 9f bf 3f 59 3f 3e b4 02 fe bb 71 61 b1 3e
       -1.2432935 0.18686388 -0.007751787 0.34644654
0000a0 3f 62 b8 bf d8 42 36 3e 01 f5 cd 3f ca 4a a8 3e
       -1.4404982 0.17798936 1.6090394 0.3286956
0000b0 09 13 20 c0 67 a8 ad bd 97 ed 3b 40 d2 a8 24 bf
       -2.5011618 -0.08479386 2.9363763 -0.643201
0000c0 ff 4a 8d bf b0 de 83 be a1 a5 7b 3f f9 a6 0d 3f
       -1.1038512 -0.25755835 0.98299605 0.55332905
0000d0 0f 39 c5 bf 8f b8 73 3f 54 db 21 40 92 ff dc 3e
       -1.5408038 0.9520349 2.5290117 0.43163735
0000e0 f5 00 a6 bc e3 ed 24 3c f9 d8 c6 be 9e 93 28 3f
       -0.020264128 0.010066482 -0.38837412 0.65850246
0000f0 cf 9c 04 40 19 f2 ae 3e 92 98 31 bf c8 67 4e be
       2.0720708 0.3416908 -0.6937343 -0.20156777
000100 db 12 a1 be b6 af b1 3e 02 b7 6a be 48 44 a1 3e
       -0.31459698 0.3470437 -0.22921374 0.31497407
000110 43 6b a2 c0 2e 4c e9 bf 79 7f fa 3f 01 90 27 bf
       -5.0755935 -1.8226373 1.9570152 -0.6545411
000120 a9 21 2c be 03 01 83 3f da c5 67 bf f1 d9 71 3f
       -0.16809715 1.0234684 -0.9053627 0.9447318
000130 49 09 42 bf 2e bd d0 3f fa f4 5d c0 5a 72 0c c0
       -0.7579542 1.6307733 -3.4680772 -2.1944795
000140 e9 b7 2b 40 26 62 c6 bf 18 7a 0b bf 4e 0a 6e 3d
       2.6831 -1.5498703 -0.54483175 0.058115296
000150 70 58 87 bf c9 64 59 3f 45 86 c9 bf 99 74 11 bd
       -1.0573864 0.8491941 -1.5744101 -0.035511587
000160 45 82 63 3f 31 07 37 40 58 16 10 bf 6a f4 b6 3f
       0.8887065 2.859814 -0.56284094 1.4293339
000170 f6 03 ce bf 5c 0d b9 3f 12 70 d7 be dc e9 9e 3d
       -1.6094959 1.4457202 -0.4207769 0.07759449
000180 f0 54 34 bf 5e 7c 05 bf 7a 56 ba 3f 82 12 c0 bf
       -0.70442104 -0.52142894 1.455764 -1.5005648
000190 de 7f b8 bf 7f 1b e8 be 39 46 98 bd 87 78 db 3d
       -1.4414022 -0.45333478 -0.07435269 0.10716348
0001a0 c3 e8 9b 3e 46 a8 b3 bf 52 c8 e2 c0 ef 58 6f c0
       0.3045102 -1.4035728 -7.086953 -3.739803
0001b0 6b e9 15 c1 96 3a 8c 3f 68 03 43 3e b7 e4 0a be
       -9.369487 1.0955379 0.19044268 -0.1356381
0001c0 c3 b3 b0 bf 39 af e0 be 6d 98 2c 3d c8 0b 31 3f
       -1.3804859 -0.43883684 0.042137552 0.691586
0001d0 ea 9c 9d bf b1 64 96 3e 36 69 d4 3f ce 17 8d 3f
       -1.2313511 0.29373696 1.6594608 1.102289
0001e0 77 f8 8c bf 81 05 3a bf 9f 7f ae 3e 5f fb 9b 3f
       -1.1013325 -0.7266465 0.34081742 1.2186087
0001f0 84 99 d8 bf b2 ca b4 bf 70 50 00 40 3b 6b 1a 3d
       -1.6921849 -1.4124358 2.0049095 0.03769992
000200 d5 90 91 bf df 53 4a 3f aa 42 ab 3f 2e bd dd bd
       -1.1372324 0.7903423 1.3379719 -0.10827099
000210 9f 0d 3c c0 35 c9 fc 3f c1 74 59 40 9f 89 2e 3f
       -2.9383314 1.9748904 3.397751 0.68178743
000220 76 0e af c0 7c 8f 1f 40 43 a0 3e 3f 0e 39 d5 c0
       -5.4705153 2.4931326 0.7446329 -6.6632147
000230 59 e1 30 c0 27 15 fa bf a2 3c 5d bf e0 2c a2 c0
       -2.7637541 -1.9537705 -0.86420643 -5.067978
000240 51 36 1f c0 82 f4 42 bf 2c 4c c9 bd e0 9c 92 bf
       -2.4876902 -0.7615434 -0.09828982 -1.1454124
000250 df 97 ae 3f fd 9f 5b be d7 27 be bf e0 46 b2 bf
       1.3640097 -0.2144775 -1.4855908 -1.3927879
000260 ff 7c 9a 40 24 98 9b 3f 94 1e 91 c0 42 5e 1c bf
       4.8277583 1.2155805 -4.5349827 -0.61081326
000270 ab 63 9d 3f b4 68 a1 3e 07 5f ff bf 5c bb c4 bf
       1.2296041 0.31525195 -1.9950875 -1.5369678
000280 0d e2 77 40 b5 ba fa be 8a 3c 3e c0 45 01 b4 3e
       3.873172 -0.4897057 -2.972445 0.3515722
000290 3a 84 74 3d da ab 05 c0 e3 75 c7 be 19 31 19 40
       0.059696414 -2.088614 -0.38957128 2.3936217
0002a0 32 ec cd 3e 82 6d 0b c0 92 2b b7 3e d5 3f 41 bd
       0.40219265 -2.1785588 0.3577543 -0.047180016
0002b0 10 f2 f9 3e 13 81 61 3f e0 c9 b2 3e fb 4c 1c 3f
       0.48817492 0.88087577 0.34919643 0.6105496
0002c0 4c 4a 3c 3f 17 ac 92 3f 6b cb dd c0 b5 3f 5c c0
       0.7355087 1.1458768 -6.9310813 -3.4413884
0002d0 43 d7 74 c0 e7 79 0e bf 6d b0 84 be 57 f1 da 3e
       -3.8256385 -0.5565476 -0.25915852 0.42762253
0002e0 3c d7 a9 3e db b8 38 3f 8b f6 00 c0 ea ae 43 c0
       0.33172023 0.7215707 -2.0150478 -3.057551
0002f0 8f 49 f8 3f db 22 b7 bf 6f 17 c1 be 2f da 7a bf
       1.9397448 -1.4307512 -0.3771319 -0.9798917
000300 b3 1f 94 bf e1 bf 72 bc 99 df e0 bf 55 ec 9c bf
       -1.1572174 -0.014816255 -1.7568237 -1.2259623
000310 5c d6 0c 40 4d 8c e4 be 68 b3 ab 3f b5 91 7a bf
       2.2005835 -0.4463829 1.3414125 -0.9787858
000320 84 8a 7b bf 7a 01 1a bf 05 40 eb 3e e5 9d cd bc
       -0.98258233 -0.60158503 0.4594728 -0.025099704
000330 5c dd 21 c0 3b 90 ea 3e 88 db e0 3d 0e 6c 79 3f
       -2.5291357 0.45813164 0.10979372 0.97430503
000340 17 e6 33 3f 8c ac de c0 76 05 dd c0 e5 f1 06 c0
       0.70272964 -6.958563 -6.9069166 -2.108514
000350 eb cf 7d 3f 30 92 79 bf 55 af 82 c0 e8 3a fa c0
       0.9914538 -0.9748869 -4.083903 -7.8196907
000360 c3 cd ef be 90 2c d8 3e 3d c2 28 3d 08 87 08 be
       -0.4683667 0.42221498 0.041200865 -0.1333276
000370 09 28 0c 3f 8c 6f 9c 3e f3 5f 48 3f eb 4c 30 bf
       0.5474859 0.30553854 0.78271407 -0.6886737
000380 82 1d 09 bf c8 bf c7 3f 0a 4d 82 3e 1b b4 ef 3f
       -0.5356065 1.5605402 0.254494 1.8726839
000390 d3 87 18 bf 7f 0f 8f bf e7 d2 84 3f be 9d 13 40
       -0.5958225 -1.1176604 1.0376862 2.3065028
0003a0 76 67 d9 bf a9 72 23 c0 96 60 94 3f 3c e6 83 3f
       -1.6984699 -2.5538733 1.1591976 1.0304637
0003b0 f0 1a 2c 3f bf 2a ae bf 94 33 26 bf 21 08 12 40
       0.67228603 -1.3606795 -0.6492245 2.2817461
0003c0 f6 a2 53 3f 12 71 91 bf 76 26 7b bf a7 c6 f9 3e
       0.82670534 -1.1362631 -0.9810556 0.48784372
0003d0 45 76 27 3e be 08 85 3e ea a8 34 bf b0 9a 12 bf
       0.1635371 0.25983232 -0.7057024 -0.57267284
0003e0 83 e2 b0 3f ef 0b 5b c0 71 ea 5d bc 81 c1 77 bf
       1.3819126 -3.4226034 -0.013544665 -0.9677964
0003f0 17 67 24 3e ab dd 8e bc 5d 4c 97 be 50 11 ac bf
       0.1605495 -0.017439684 -0.29550448 -1.3442783

FC1.bias f4 [256]
000000 72 73 02 bf af 9b 00 bf 18 a5 bd bf 9f 46 32 3f
       -0.50957406 -0.50237554 -1.4816008 0.6963901
000010 64 03 0d bd 9e 20 60 3f 43 f2 92 3e 88 3c c0 3e
       -0.03442706 0.8754977 0.28700456 0.37546182
000020 a8 43 df be 62 3c a7 bf ec c0 27 3c e5 d8 60 be
       -0.43606305 -1.3065302 0.010238867 -0.21957739
000030 82 b3 b4 bf ec 13 25 3f 58 5f eb be 61 24 18 be
       -1.4117281 0.64483523 -0.4597118 -0.14857627
000040 b4 cd 52 bf e1 23 1a c0 60 86 bc 3f 25 ab d7 3e
       -0.8234513 -2.4084399 1.4728508 0.4212276
000050 0d 11 88 bd 6c af 52 bf 13 62 c9 3f 7b 7c ce be
       -0.06643877 -0.8229892 1.5733055 -0.40329346
000060 4a 3b a3 be 87 91 ab 3d 41 f4 40 bf c6 5c a6 3e
       -0.3188117 0.083773665 -0.753727 0.32492656
000070 fc e5 5c bf ee d7 33 be 30 a7 80 bf 02 e3 11 bf
       -0.8628843 -0.1756284 -1.0051022 -0.5698701
000080 d3 12 c6 bf e0 af 29 bf a6 93 89 bf 20 c7 5d 3f
       -1.5474495 -0.6628399 -1.0748184 0.86631966
000090 ef 13 06 bf 83 09 72 bf 03 69 2b bf d7 99 c0 bd
       -0.52374166 -0.94545764 -0.6695711 -0.094043426
0000a0 ef 32 ab be fb 61 cc be 82 61 c8 bd 78 a2 b6 bf
       -0.33437297 -0.39918503 -0.09784223 -1.4268332
0000b0 cc fa 07 3e 5b 53 fd bd 9f 2a 94 bf f7 5c ab be
       0.13279265 -0.123694144 -1.1575507 -0.33469364
0000c0 83 e7 88 3f 1a 78 c6 be 9e 22 ce 3f ff 4b 48 be
       1.0695652 -0.38763505 1.6104314 -0.1956024
0000d0 fe ba 99 bf 7b 8c 1d be 1c 24 67 3e 65 a8 a4 bf
       -1.201019 -0.1538562 0.22572368 -1.286389
0000e0 b4 4f 5c 3e 3b 47 fa be 87 f2 5c 3e 82 a1 1a 3f
       0.2151478 -0.4888247 0.21576892 0.6040269
0000f0 98 c4 75 be 96 01 05 bf b4 c1 c6 3c 3e 12 7f 3f
       -0.24000776 -0.51955545 0.024262287 0.9963721
000100 83 f2 e1 3e e2 12 89 bf 06 69 0d bf b1 8e 10 be
       0.44130334 -1.0708888 -0.5523838 -0.14116932
000110 c9 e9 d2 be 16 d3 ac bd e9 49 57 be 92 03 ac be
       -0.4119399 -0.08438699 -0.21024288 -0.33596474
000120 d8 16 a3 3f 77 b8 4d 40 2a 64 a8 bb 6e 18 64 bd
       1.2741346 3.2143838 -0.0051388936 -0.05568736
000130 41 e6 f3 be 2b dd 77 be 2b c6 b5 3f 07 25 4e 3f
       -0.47636607 -0.24205463 1.4201101 0.8052525
000140 b3 8f 48 bf a9 a4 69 bf a3 81 aa 3e 81 2f ac bd
       -0.7834427 -0.91266876 0.3330203 -0.08407498
000150 05 af 0e bf a4 6f ed bd 01 4d b0 be 2a b7 82 3f
       -0.5573581 -0.115935594 -0.3443375 1.0212147
000160 87 6e 08 c0 76 7f 1b 3f 9d 01 fc 3c 67 14 2a bf
       -2.131746 0.60741365 0.030762488 -0.6643738
000170 79 2a 1f be b9 88 e0 3f 91 6d 6e bf 1a 21 5a be
       -0.15543546 1.7541724 -0.93135935 -0.2130169
000180 09 e9 a8 bf 49 b7 e3 3d 0e 16 1a c0 ce 48 14 c0
       -1.3196117 0.11118943 -2.407596 -2.3169436
000190 9e e1 96 3e cf b4 e9 3e bf 6b 44 bf 1a 61 cb bf
       0.29469007 0.45645759 -0.7672691 -1.5889008
0001a0 71 a4 04 be 9b 06 d7 bd 42 5d 50 be 86 60 47 bd
       -0.12953354 -0.10499307 -0.20348075 -0.048676036
0001b0 90 1f 92 3e d7 4f 0a 3e ed 9e b0 be ef ce 97 bf
       0.28539705 0.13507019 -0.3449625 -1.1860026
0001c0 02 90 47 be 6e cc 3c be 46 10 1a be 8b 20 0a 3f
       -0.19488528 -0.18437359 -0.1504527 0.53955907
0001d0 7f 5e 65 bf b9 b5 08 bf e7 2c ef be c3 ed fd be
       -0.89597315 -0.53402287 -0.46713945 -0.4959546
0001e0 7a 22 5e bf c3 72 d3 bf 9a b6 a1 3d d0 8a f3 3e
       -0.8677136 -1.6519397 0.078961566 0.47566843
0001f0 a4 a5 09 c0 4a f1 80 bf a3 ee c8 bf d4 81 83 bf
       -2.150735 -1.0073636 -1.5697826 -1.0273995
000200 8a 42 4d be c1 b4 90 3d 11 8d 0f 3e 2a 84 83 3f
       -0.20044914 0.07065726 0.14018656 1.0274708
000210 5f e0 a2 3e e6 f3 23 3e 7f e2 54 bf 4f 86 c6 bf
       0.31811807 0.16011009 -0.83158106 -1.5509738
000220 76 92 da be b5 47 a1 be 11 d5 94 be 51 e4 61 bf
       -0.42689866 -0.3150002 -0.29068807 -0.8823901
000230 78 c1 6d be 7c cf 99 3e c8 d7 89 bf 07 4e 63 3e
       -0.23218334 0.3004111 -1.0768976 0.22197734
000240 f0 65 bb be 18 c1 69 bf ca 23 a9 be c3 83 a3 40
       -0.3660121 -0.9131026 -0.33035117 5.109834
000250 e2 f7 59 be 81 bf fd be 94 44 c6 3f 9e 7d 1f bd
       -0.21285966 -0.49560168 1.5489678 -0.038938157
000260 de f7 0e bf 4b 31 3b be 9c 34 f4 3f d9 aa 1e be
       -0.55846965 -0.18280523 1.9078555 -0.1549486
000270 5f 71 e8 be 19 04 da 3d 21 21 2b 3f e7 da ad 3e
       -0.45398995 0.10645313 0.66847426 0.33956072
000280 33 56 39 bf b5 b6 e4 3f 4f b9 01 40 91 37 6f 3d
       -0.72397155 1.7868258 2.0269353 0.0584026
000290 bb f6 00 3e 84 61 89 3c a2 88 10 bf 39 bf 48 bf
       0.1259412 0.016770132 -0.56458485 -0.7841678
0002a0 94 d8 fa 3e 38 e2 34 3e ff 83 7a bf f1 9d 22 bf
       0.4899336 0.1766442 -0.9785766 -0.6352225
0002b0 26 0b 4a 3f 50 40 2a bf e6 e0 d4 3e 60 35 1b bf
       0.7892326 -0.66504383 0.41577834 -0.6062832
0002c0 b2 cc 5c bf b5 38 f5 3e 9e 36 aa bf ba 85 b9 bf
       -0.8624984 0.47894827 -1.3297918 -1.4493935
0002d0 73 94 c3 3e 4e b6 eb 3e 6f f4 cc bf fe 0e 24 bf
       0.38199195 0.46037525 -1.6012095 -0.64085376
0002e0 71 74 b4 3f 12 d6 6e 3e d7 5f 16 3f b7 ad 81 be
       1.4098035 0.23323849 0.5873999 -0.25327846
0002f0 b1 10 16 3c fd 83 ec bf 79 cb d5 be 98 91 14 be
       0.009159253 -1.847778 -0.417568 -0.14508665
000300 b6 b3 43 3f 4c 50 b4 3e 8b d1 bf 3f cc fc 83 3f
       0.7644609 0.35217512 1.4985822 1.0311522
000310 1c 59 83 be 0e 32 82 bc d5 c8 66 3f e2 58 0d 3f
       -0.25653923 -0.015893009 0.90150195 0.5521375
000320 df 29 a0 bf c3 1d f3 be 62 c4 43 bd b7 23 95 bf
       -1.2512778 -0.47483644 -0.047794707 -1.1651524
000330 2d 9b 68 be 20 f4 ad bb b6 5c bd 3f 5a 80 94 be
       -0.22715445 -0.005308643 1.4793918 -0.29004174
000340 44 9e 89 3e f9 90 b6 3e bd 31 86 bf 7c 10 46 3f
       0.2687856 0.3565748 -1.0483929 0.77368903
000350 8a 97 9d bf c4 1a a8 bf 4e e1 2d bf b6 6d d2 be
       -1.2311871 -1.3133168 -0.6792191 -0.41099328
000360 12 ba bd be a8 85 09 bf a2 c5 03 3f 5b 25 88 3f
       -0.37056023 -0.5371957 0.5147344 1.06364
000370 dc 29 b6 be aa 93 d0 be a4 a7 9a bd 57 2e e6 3f
       -0.3557881 -0.4073766 -0.07551506 1.7982892
000380 2f bc ca be b4 a3 ae be 87 90 e4 bf 74 0b d5 bf
       -0.39596698 -0.3410927 -1.7856606 -1.664412
000390 00 02 02 bf c3 eb 63 bf 24 f2 d2 3f c8 f3 39 bf
       -0.507843 -0.8903162 1.6480145 -0.72637606
0003a0 a6 1e 67 bf 11 85 6f bf f1 e8 9d bf 83 05 7d 3f
       -0.9028114 -0.9356242 -1.2336713 0.98836535
0003b0 50 d5 9b bf 3f 95 23 3f 7f 5a 75 3f fa 3a 2a bf
       -1.2174473 0.63899606 0.9584121 -0.6649624
0003c0 93 a4 82 be fb 7b 59 bf d4 ba 22 bf a2 b6 ce 3e
       -0.25516185 -0.84954804 -0.6356633 0.40373713
0003d0 48 3e 75 3f e0 23 50 be 57 c6 1a bf 57 f1 17 bd
       0.9579816 -0.20326185 -0.6045889 -0.037095394
0003e0 1f 48 8e be 07 a7 45 3e 71 6c 58 be b3 46 ea be
       -0.277894 0.19301997 -0.21135117 -0.45757064
0003f0 7a a8 da 3d 53 6d 10 40 3b 0f 91 bf b7 a3 3e bf
       0.106766656 2.2566726 -1.1332773 -0.7446856

FC2.weight f4 [256, 256]
000000 64 a7 4d 3e 9d 58 38 c0 ad 2a d6 be 67 e4 a2 be
       0.20083386 -2.8804085 -0.41829434 -0.31814882
000010 af 53 c4 3f 2d f1 e2 3e 98 49 c5 be ac b9 60 c0
       1.5338038 0.44324628 -0.3853271 -3.5113325
000020 06 74 45 c0 8e d3 dd 3f 76 0f 04 bc 65 43 40 3f
       -3.0852065 1.7330186 -0.008060327 0.75102836
000030 b2 33 44 c0 c7 14 8b bf 71 a6 bc 3f 28 e3 b3 3f
       -3.0656552 -1.0865716 1.4738294 1.4053698
000040 18 41 f4 bf ab b1 2b 40 78 b6 8d c0 69 31 7a 3e
       -1.9082365 2.682719 -4.428524 0.24432911
000050 12 40 1f 3d f9 45 35 40 27 78 0e c1 0f 84 10 c0
       0.03887946 2.8323958 -8.904334 -2.2580602
000060 6f 14 cd 3d f2 d2 e8 c0 89 68 6f bf 34 4f 11 c0
       0.10013663 -7.27575 -0.93518883 -2.2704592
000070 98 bc bb 3f da 98 4a 40 33 9c 15 40 ab a1 b4 bd
       1.4666929 3.1655793 2.3376586 -0.08819898
000080 75 fa 34 c0 37 c3 64 bf c1 d3 26 bd 97 f0 cd 3f
       -2.8277867 -0.89360374 -0.040729288 1.6089047
000090 b0 8b b5 bf c8 1c da 3f 4c a6 a8 3d 63 c3 71 40
       -1.4183254 1.7040033 0.082348436 3.7775505
0000a0 1b 99 83 3d d6 49 71 3d dc 34 1e c0 8f 77 01 bf
       0.06425687 0.058908306 -2.4719763 -0.50573057
0000b0 91 81 0e 40 1e 54 0f be e6 eb 39 be 59 0a a9 be
       2.226658 -0.13996932 -0.18156394 -0.33015707
0000c0 a9 5a 13 bf 07 ff 55 3e dd bf 93 bf 58 b8 94 bc
       -0.5756021 0.20898066 -1.1542927 -0.018154308
0000d0 ad 9f dd 3d c8 75 3d c0 b5 8b 12 c0 74 70 26 c0
       0.10821471 -2.9603138 -2.289777 -2.6006136
0000e0 00 64 a2 be 2a b7 c8 3f 9d 01 78 c0 16 5e ca 3e
       -0.3171692 1.5680897 -3.8750985 0.39524907
0000f0 e8 42 b3 3e bd ca 82 bf 23 b2 c9 bd 79 bc 9d 3f
       0.35011983 -1.0218121 -0.0984843 1.2323142
000100 23 cd 35 3e d9 98 76 40 eb 0a 22 3f 3e a4 23 bd
       0.17754035 3.853079 0.6329791 -0.039951555
000110 ff ad b6 bf 3d 4d 94 bd 60 e4 34 bf 0e 08 41 be
       -1.4271849 -0.072412945 -0.7066097 -0.18850729
000120 74 1b 32 3f 77 94 39 bf 03 f7 b6 3e b1 3f 1f 3f
       0.6957314 -0.72492164 0.3573533 0.6220656
000130 af 1c 82 c0 da 92 3f bd d1 60 3b c0 5b 34 17 40
       -4.0660014 -0.046770908 -2.9277842 2.3625705
000140 1f a2 3c 3f ba 73 bf bf b5 51 21 3f 15 c6 a4 3f
       0.7368488 -1.4957192 0.630153 1.287295
000150 fc 2e 73 bf 2c 7e a1 3f 46 21 d3 3f 1b b8 70 bf
       -0.9499357 1.261663 1.6494529 -0.9403092
000160 2f df 9f 3f 5c 58 1c 3f fa 76 5a bc 69 01 b9 3e
       1.2489985 0.61072326 -0.01333403 0.36133888
000170 e8 18 63 bf 88 21 11 bd cb 4a 25 3f e6 f6 a9 3f
       -0.8870988 -0.03543237 0.6456725 1.3278472
000180 44 5c d8 3f b9 f1 a6 bf 1d 0a cb 3f a8 43 a3 c0
       1.6903157 -1.3042518 1.5862461 -5.102009
000190 23 3c e9 bf 44 3d 13 3f ee 68 6e bf 71 91 ae 3e
       -1.8221477 0.5751536 -0.9312886 0.34095338
0001a0 f2 4f 28 3c e0 a2 5d 3f 5a fe af 3f 89 eb 8f 3f
       0.010272967 0.8657665 1.3749497 1.1243755
0001b0 54 f6 2c be e9 88 f5 c0 02 a6 99 3e 12 da 79 bd
       -0.16890842 -7.6729627 0.30009466 -0.060998984
0001c0 55 1d 08 c0 c7 4f a2 be f9 20 24 40 8d 6e 99 c0
       -2.1267903 -0.3170149 2.5645125 -4.794745
0001d0 1f 19 0b 40 81 37 b8 3f 6e f0 20 bf c8 c5 71 be
       2.1734083 1.4391938 -0.62866867 -0.23610604
0001e0 a5 aa 41 3d a7 34 0e c0 9f dd 29 bf 3d 65 81 bf
       0.04728188 -2.2219636 -0.6635379 -1.010902
0001f0 35 11 06 c0 0f 1a 83 3e 7e bd 24 40 58 c0 9d 3f
       -2.0948002 0.2560582 2.5740657 1.2324324
000200 a8 b0 e8 3f 28 a3 40 3f 69 48 b6 3f 27 f1 bf 3f
       1.8178911 0.75248957 1.4240848 1.4995469
000210 db 00 b4 3f 61 0a eb be 5e e9 bc bf 2e 9c 7d 3f
       1.4062761 -0.45906356 -1.4758718 0.99066436
000220 c3 82 11 c0 e6 09 ce bf 10 44 50 c0 49 40 87 bd
       -2.273606 -1.6096771 -3.2541542 -0.06604058
000230 3e 22 b2 bc 66 50 d5 bf 4b ff 1f 40 5b e8 f7 be
       -0.021744844 -1.6665161 2.4999568 -0.4841946
000240 08 a8 a5 bf 3b 2e 28 c0 35 d5 63 3e dc a4 35 3f
       -1.2941904 -2.6278217 0.22249301 0.7095468
000250 5a 80 8d bd 7d 5a 2e 40 06 f3 71 be 74 4a 83 bf
       -0.06909247 2.724273 -0.23627862 -1.0257096
000260 99 97 db bf 73 ae e1 be 09 2c 02 c0 d2 46 15 bd
       -1.7155639 -0.44078407 -2.0339377 -0.036444493
000270 c7 05 a0 bf 5a 35 6a 40 fc d4 2e 3f 43 5a dd bf
       -1.2501763 3.6595063 0.6829374 -1.7293171
000280 50 13 91 3f 51 1a 14 bf a4 34 75 3e ff 27 5f 3d
       1.1334019 -0.57852656 0.23945862 0.054481503
000290 7a dc a5 bf a0 27 fd 3e 59 2e ec 3e 56 b2 d1 bf
       -1.2957909 0.49444294 0.4612911 -1.6382549
0002a0 97 d4 9e 3f df b5 71 c0 8b dc 1c 40 6f f5 6c bf
       1.2408627 -3.7767255 2.4509609 -0.92562
0002b0 77 fa c8 be 95 9d a4 bf 26 a9 02 c0 71 be 89 c0
       -0.3925359 -1.286059 -2.041574 -4.3044972
0002c0 d4 eb 2a bf 58 37 19 c0 64 d8 a5 be a3 9f 56 be
       -0.66766095 -2.394003 -0.32391655 -0.20959334
0002d0 47 e0 a1 3f 54 b1 0a be 1e ca 40 bf 4b 1c 00 40
       1.2646569 -0.13544208 -0.75308406 2.0017269
0002e0 f4 c7 f1 bd 7e 05 37 3f 87 f9 5b 3f 5b 5f 9e bf
       -0.11805716 0.71492755 0.85927624 -1.237285
0002f0 7b 6a ce bd 7b b1 21 c0 70 6b 0b 40 92 92 35 3e
       -0.10078903 -2.5264575 2.1784325 0.17731693
000300 cc 44 10 be 11 44 9a 3f d5 b4 92 c0 45 8e f2 bc
       -0.14088744 1.2052022 -4.584574 -0.029608855
000310 31 4b 94 3e 64 0d cf 3e 74 28 8f 3e a5 31 1d c0
       0.28963616 0.40439904 0.2796055 -2.456155
000320 f5 69 21 3f 1f 44 25 c0 88 75 53 bc cf 44 b8 c0
       0.630523 -2.5822828 -0.01290644 -5.7583995
000330 a3 2f 70 bf 89 4b 25 c0 7a 9a d9 bf 0d e9 c1 be
       -0.9382269 -2.5827353 -1.7000268 -0.37873116
000340 55 37 98 be 6e 65 78 c0 39 2e 2f 3e c3 81 aa be
       -0.29729715 -3.8811908 0.17107476 -0.33302125
000350 90 a3 c2 be 86 5c 2c c0 2c a7 90 bf 1d b6 6d 3f
       -0.38015413 -2.6931472 -1.1301017 0.9285601
000360 81 06 da bc 67 96 c0 3e 68 a6 ad c0 6d 4c aa 3e
       -0.02661443 0.37614748 -5.4265633 0.33261433
000370 55 45 11 c0 87 05 03 c0 f6 89 aa 3f 2f 0b fc 3f
       -2.2698567 -2.0472124 1.3323352 1.9690913
000380 ed 12 49 40 4a a7 2f bf 3f 7a c4 3e 17 ec a6 3f
       3.1417801 -0.6861464 0.38374516 1.3040799
000390 83 a0 45 c0 e0 16 d5 3c 64 45 5a bf a6 82 cb bf
       -3.0879219 0.026011884 -0.8526213 -1.5899246
0003a0 a4 a8 d4 3f dc 8f 9f c0 8e 75 18 40 75 0f a9 bf
       1.6613965 -4.986311 2.382175 -1.3207842
0003b0 5e e3 b7 c0 59 1f f9 3f 88 91 02 3f 53 b0 3d 3f
       -5.746505 1.9462692 0.51003313 0.74097174
0003c0 1a b5 43 3f 72 28 aa c0 57 a1 20 3f 6f b4 36 40
       0.76448214 -5.317437 0.62746185 2.8547628
0003d0 16 5f f2 3f b5 b2 d9 3e ac f5 66 3f c7 82 6c 3f
       1.8935268 0.42519155 0.90218616 0.9238705
0003e0 f7 85 5b c0 a2 ce 82 3f ff ba f2 be 6b db 38 3f
       -3.4300516 1.0219309 -0.47408292 0.72209805
0003f0 3b 1f a7 c0 27 a1 48 be 17 32 91 bf cd b1 81 bf
       -5.2225623 -0.19592725 -1.1343411 -1.0132385

FC2.bias f4 [256]
000000 82 f7 e8 be 68 31 a3 bd 9a 6a a5 bf 09 03 07 bf
       -0.45501333 -0.07968408 -1.2923157 -0.52739006
000010 26 3b 03 c0 13 1e b8 bf 65 57 0c bf a8 1a 7a be
       -2.0504851 -1.4384178 -0.54820853 -0.24424231
000020 4d 39 ad bf 5b c2 d4 bf cd bb b4 bf 7e d6 db bd
       -1.3533112 -1.6621813 -1.4119812 -0.107342705
000030 74 fc 0f c0 32 d3 81 bd d7 73 16 c0 65 a4 9d bf
       -2.2497835 -0.063391104 -2.3508203 -1.2315794
000040 95 80 85 bf 43 64 5d be 82 ce f8 bd d9 9b 1b c0
       -1.0429865 -0.21620278 -0.12148763 -2.4313872
000050 30 b4 c4 bf 3b b0 bd be db eb 4b 3f a2 4f d3 bf
       -1.5367489 -0.37048516 0.7965676 -1.6508677
000060 a0 e0 c0 3d 34 00 34 be 52 4b 52 3e 8a be 5c bd
       0.09417844 -0.17578202 0.20536545 -0.05389265
000070 98 7e b3 bf 27 d6 8a bf 1b 43 2c c0 1c 48 a0 bf
       -1.4023008 -1.0846604 -2.6915958 -1.2522006
000080 20 a8 f7 bf b1 7f cb bd ae ce 10 bf d7 a7 ae bf
       -1.9348183 -0.099364646 -0.5656537 -1.3644971
000090 f6 4c fe bd a9 b2 4e bf 9d d1 1b c0 34 7c 81 3f
       -0.12417023 -0.80741364 -2.4346688 1.0116029
0000a0 99 2e e6 bd 0b de 2c c0 6d 3f 86 3f 3e f2 3e bf
       -0.112393565 -2.7010524 1.0488106 -0.7458838
0000b0 56 25 f3 be b5 85 f3 bf 47 c2 b7 bf df 29 2a 3f
       -0.47489423 -1.9025179 -1.4356164 0.6647014
0000c0 db 81 c9 bd 93 50 1a c0 6e 76 e7 be 5c dd 8f bf
       -0.09839221 -2.4111679 -0.45207542 -1.1239429
0000d0 bf 1d c4 be 4e 2d d1 be 1a 1a d4 bf 6c 81 cf bd
       -0.38303944 -0.40854877 -1.6570466 -0.10132107
0000e0 d6 69 fb be 2c e6 dd be 80 62 a3 bf df e8 7d be
       -0.49104184 -0.4333967 -1.2764435 -0.24795865
0000f0 57 22 ad be a0 39 a1 be 09 ad a5 bf 08 2f 01 bd
       -0.33815262 -0.31489277 -1.2943431 -0.031538993
000100 21 0f 3d 3f 6c c1 54 bf cd 26 1a be 78 58 55 be
       0.7385121 -0.8310764 -0.15053864 -0.2083453
000110 01 f1 de be 88 43 c3 bd 3c e2 89 bf 11 f5 48 bf
       -0.43543246 -0.09534365 -1.0772166 -0.7849894
000120 77 00 fc bd 85 9a 78 bf d4 d7 e3 3d 03 b4 6a 3d
       -0.12304776 -0.9711078 0.1112515 0.05730058
000130 c1 c4 14 c0 3c 42 eb be 42 aa 65 bf d6 9f 5d bf
       -2.324509 -0.4594897 -0.8971292 -0.86572015
000140 72 75 d1 be 74 5c d9 bf 18 83 af bd 69 4e 17 be
       -0.40909916 -1.698134 -0.08569926 -0.14776005
000150 ca 80 16 be cd 85 59 c0 47 ad 91 bf 29 97 5a bd
       -0.14697567 -3.3987916 -1.1381005 -0.053366814
000160 2b 3f 16 bf ca 14 df 3f 8e a0 c8 bf f2 15 51 bf
       -0.58690137 1.7428219 -1.5673997 -0.8167411
000170 be 2b 3e bf 24 1d 0f c0 58 c1 c6 bf 9e 47 88 be
       -0.74285495 -2.2361536 -1.5527754 -0.2661714
000180 d4 ca 90 bf c3 d0 c9 bf a7 34 e8 bf 00 49 16 c0
       -1.1311898 -1.5766834 -1.8141068 -2.3482056
000190 d3 b2 80 bf 8e de d0 bf 3b 08 7f be bd 0a 99 bf
       -1.0054573 -1.6317918 -0.24905483 -1.1956402
0001a0 13 91 88 bf 6e db 92 bf d3 59 cd 3f a8 89 51 3e
       -1.0669273 -1.1473215 1.6043037 0.20462668
0001b0 29 92 f3 bf 9b 37 39 3d c0 42 49 be 90 bc 12 3f
       -1.902898 0.045219045 -0.1965437 0.57318974
0001c0 6f 7d 76 3e d0 3d c0 3e 00 5d d0 bd 5e 0f c9 bf
       0.24071287 0.3754716 -0.10173988 -1.5707815
0001d0 5f 9f aa bf bd a7 82 bf d5 1a f2 bf 20 e5 7d bf
       -1.3329886 -1.020744 -1.8914438 -0.9917774
0001e0 d6 8f 6f bd be 57 94 bf 81 ee d7 3e 7e 8e 47 bf
       -0.058486782 -1.1589277 0.42174152 -0.779518
0001f0 9d 6f a0 bd f1 13 32 be be cd 4a be 51 07 6f be
       -0.078337885 -0.1739042 -0.19805047 -0.23342635
000200 d6 94 3e bf 75 7c d6 bf 45 8b 13 c0 f0 b4 26 bd
       -0.74445856 -1.6756731 -2.3053753 -0.0406999
000210 6f 24 1f bf ca 3f 8a bf 75 61 af bf a6 e4 b7 bf
       -0.6216497 -1.0800717 -1.3701617 -1.4366653
000220 3d 79 03 be fa 97 9e 3f c1 a4 22 c0 dd 69 d5 bd
       -0.12839217 1.239013 -2.5413058 -0.104205824
000230 e9 b1 ac bf 6d eb c1 bd 9e 15 96 3e 37 f5 e9 be
       -1.3491794 -0.09468732 0.29313368 -0.45694897
000240 34 82 75 bf 55 f5 01 bf 75 c5 b7 bf 62 c5 e7 be
       -0.959018 -0.5076497 -1.4357134 -0.4526778
000250 3b ac 6c bf ab 64 29 c0 37 4c f2 bf 82 e8 42 bf
       -0.924503 -2.6467693 -1.8929509 -0.7613603
000260 42 35 d9 3e 90 2f 05 be 9c 28 11 3f 97 32 3f c0
       0.42423445 -0.13006425 0.5670259 -2.9874628
000270 8c 98 ea bf 1c 42 ee bf 09 3e 3c 3e 39 96 8f be
       -1.8327804 -1.8613925 0.1838304 -0.28044298
000280 96 6b 1b bf 4f 8a 19 3f 1b c2 07 c0 79 7b aa 3f
       -0.6071104 0.5997667 -2.1212223 1.3318931
000290 f1 c7 21 bf ab b4 6f bf b5 57 ee be 23 01 bf bf
       -0.6319571 -0.9363505 -0.4655129 -1.4922222
0002a0 78 f0 1a bf 63 85 8a bf af ad f7 bf b2 83 a3 bf
       -0.60523176 -1.0821956 -1.9349879 -1.2774565
0002b0 a1 28 c5 bf 08 f2 0c c0 6c cd f0 bf ff d6 53 c0
       -1.5403024 -2.2022724 -1.881269 -3.3099973
0002c0 ee 5e 93 bf 84 19 9f bf 12 83 a1 bf 6e 45 4e 3f
       -1.1513345 -1.2429662 -1.2618124 0.8057469
0002d0 91 54 43 bd 80 8b c2 bf e6 04 f9 be f5 36 2b bf
       -0.04768807 -1.5198822 -0.4863655 -0.6688073
0002e0 43 37 ef 3f 6f af d1 bf c8 4d 02 c0 38 64 a1 3e
       1.868874 -1.6381663 -2.0359974 0.31521773
0002f0 75 f3 50 be da 80 12 bf 65 85 02 c0 5f 20 10 c0
       -0.20405371 -0.5722786 -2.0393918 -2.2519758
000300 4c a7 b6 3e 96 4f 8b bf d6 9f 0d bf c1 18 60 bd
       0.35674512 -1.0883663 -0.55322015 -0.054711107
000310 0c 19 9d bf c7 44 e3 bf 5f fe 6d bd d9 ca 14 c0
       -1.2273269 -1.7755364 -0.058103915 -2.3248808
000320 ee 8f 09 bf 1f f0 73 bd c9 f6 55 be f7 8b 13 c0
       -0.53735244 -0.05955517 -0.20894922 -2.3054178
000330 cf ea 76 bf eb e2 29 3e 7e f8 03 c0 50 d6 f9 bf
       -0.9645204 0.16590469 -2.0620418 -1.9518528
000340 84 e4 a5 be e1 35 8b 3f 35 ea ae bf 8a 01 7b bf
       -0.32400906 1.0875818 -1.3665224 -0.98049223
000350 a0 47 18 3f 00 ae b1 bf 56 01 a1 bf aa 08 12 c0
       0.5948429 -1.3881226 -1.2578533 -2.2817788
000360 9d e4 81 c0 51 ae e5 3e 01 2f f5 bd a4 e2 58 c0
       -4.059157 0.44859555 -0.11971856 -3.388833
000370 e8 43 ec bf 5e e8 20 bf 67 37 ae bf 84 ea 27 be
       -1.8458223 -0.62854564 -1.3610657 -0.16398054
000380 c6 72 05 3d a9 e1 16 3e 68 42 b5 bf 1b 1f c8 bf
       0.03258016 0.1473452 -1.416089 -1.5634493
000390 30 9d e4 bf d4 78 08 c0 db a9 49 3e 32 f6 a5 bf
       -1.786047 -2.1323748 0.19693701 -1.2965758
0003a0 7d 5a cb be bb 21 b7 be 8e f0 5a 3e f5 b8 3a bf
       -0.39717475 -0.35767922 0.21380827 -0.7293847
0003b0 6f e2 f8 bf fe 8b be bf fe c5 09 c0 08 6d b5 bf
       -1.9444102 -1.4886472 -2.1527095 -1.4173899
0003c0 c8 14 d6 bd c9 b2 a6 bf 18 78 d5 bf 03 af f5 3e
       -0.104531825 -1.3023311 -1.6677275 0.47985086
0003d0 49 9d 16 c0 be 28 57 be 35 97 de bd 79 3f 89 bf
       -2.35335 -0.21011636 -0.10868684 -1.0722495
0003e0 ea c5 04 c0 d7 cb 09 be a4 ab d9 bf 0d 19 2b bf
       -2.0745797 -0.13456665 -1.7005506 -0.668351
0003f0 ae 4c 90 bd f6 9d 56 be 6e 20 00 3a c4 ef c2 be
       -0.070458755 -0.20958695 0.0004887645 -0.38073552

action_out.weight f4 [5, 256]
000000 53 e4 da 3f e1 3f 83 bd 98 25 3b 40 be 05 c0 3f
       1.7100929 -0.06408668 2.9241695 1.5001752
000010 e6 2f d5 ba 1a b0 51 c0 11 bf 98 bf 30 4b 8e 3f
       -0.0016264885 -3.2763734 -1.1933309 1.1116695
000020 98 3e 4b bf 97 d2 fb be 4d c4 3a 40 7e f9 0d 3f
       -0.79392385 -0.49184105 2.9182312 0.5545882
000030 5f bb 28 c0 85 3f 23 bc 1f 3d 05 40 db ad 54 be
       -2.6364362 -0.009963875 2.0818555 -0.20769446
000040 b0 71 57 40 c7 c6 82 3d a0 46 d7 3e 95 e9 e5 3f
       3.366314 0.0638557 0.4204607 1.7961909
000050 a2 fe 69 bf 68 84 9b 3f 1a 4c d0 3f 8f 84 5a 40
       -0.91404164 1.2149782 1.6273224 3.4143407
000060 8e 82 69 3f 36 90 ef 3f 18 00 0f 3f 5a 4f 31 3f
       0.91214836 1.8715885 0.5585952 0.69261706
000070 3c 5a a7 3f ec 36 86 3e 90 ab e4 3e df 97 a4 3f
       1.3074412 0.26213777 0.44662142 1.2858847
000080 c9 13 99 3f 77 39 ed 3c fb 07 06 40 0d 43 25 40
       1.1959163 0.028958065 2.094237 2.5822175
000090 d5 98 65 bd e0 ac bf 3e 52 1d 9d 40 e0 4a 46 40
       -0.056053955 0.3743658 4.909829 3.09832
0000a0 07 38 27 40 fb af 84 bd 52 27 d6 3f 8c 1c e3 3f
       2.6127946 -0.06478878 1.673075 1.7743087
0000b0 94 a1 df 3f 26 3c d7 be b0 cc 80 3f 96 2e 97 3f
       1.7471185 -0.42038077 1.0062466 1.1811092
0000c0 81 2f 16 40 9f e2 6c 3e d1 8e f2 3f fc f0 ea 3f
       2.3466494 0.23133324 1.8949834 1.8354793
0000d0 39 47 bb 3f c8 68 15 40 a8 d1 9c 40 f8 79 4b 3f
       1.463111 2.3345203 4.900593 0.79482985
0000e0 8b aa e5 3f 31 f4 42 3f 51 92 f5 3f 0c e0 53 3f
       1.794267 0.76153857 1.9185277 0.82763743
0000f0 22 b1 d8 3f 9c 74 23 40 ea 38 60 3f ae cd 88 3f
       1.6929057 2.5539923 0.87586844 1.0687768
000100 a5 ce 55 40 9d 0e 51 bf 3f 5b 0e 40 4b 50 74 3f
       3.3407376 -0.81662923 2.2243192 0.9543502
000110 a6 35 1d 40 b5 c4 bf 3f d5 09 18 40 dc 9c e5 3e
       2.4563994 1.4981905 2.3756 0.44846237
000120 90 a4 15 40 9d 06 04 bf 9f 41 60 be 84 4d 3e 40
       2.338169 -0.5157259 -0.21900032 2.9734812
000130 b1 9b 3a 40 c1 c1 7b be 87 5a 94 bf ac 2c c4 3f
       2.9157526 -0.2458563 -1.1590127 1.5326133
000140 de 78 4f bf 76 c4 bb 3f 18 b4 c9 3e 6d 76 a2 3f
       -0.81043804 1.466933 0.39395213 1.2692391
000150 96 e9 b2 3e 2d 65 3b c0 fb 52 43 40 1e 25 90 3f
       0.34943837 -2.9280503 3.0519397 1.1261327
000160 97 8f 9a 3e 49 a5 35 40 f0 97 a9 3f 49 65 b3 3f
       0.30187675 2.8382132 1.3249493 1.4015285
000170 4d 10 04 40 01 e1 05 3f 5b 6f d6 3f 35 b6 84 3e
       2.063495 0.52296454 1.6752733 0.25920263
000180 35 d8 1f 40 9f a4 f8 3f f4 06 8d bd b0 0d 19 40
       2.4975712 1.9425238 -0.06886092 2.3914604
000190 06 54 a8 be bc e2 51 3f 9e d1 d9 3f cf de 20 40
       -0.32876605 0.81986594 1.7017095 2.5135992
0001a0 d1 52 b8 3f 6f 27 60 3f 4f 60 da 3f 9f 05 3f 40
       1.4400274 0.8756017 1.7060641 2.984718
0001b0 7e ab f3 3e 9d ec e4 3f ca ee b4 3e 60 78 91 3f
       0.47591776 1.7884709 0.35338432 1.136486
0001c0 c0 ba fd 3e b4 d0 ae 3f 4c b7 da 3f 77 c8 ab 3f
       0.4955654 1.3657441 1.7087188 1.3420552
0001d0 a8 30 3b 3f 6d c3 18 40 51 7d 42 bf 91 37 be 3f
       0.7312112 2.3869278 -0.7597247 1.4860708
0001e0 e8 fc 8f 3c c2 8f c0 3f f8 0d 03 40 49 00 f0 3f
       0.01757665 1.5043871 2.0477276 1.8750087
0001f0 e5 3d 82 3d c7 a6 03 40 e3 7f c5 3e 42 84 32 3f
       0.06359462 2.0570543 0.38574132 0.6973306
000200 dd 6a 87 40 1b 91 c9 3f 5b 38 03 c0 1f d7 a1 bc
       4.231795 1.5747408 -2.0503147 -0.019755898
000210 93 4f 17 40 ef 3c e8 3d e3 55 11 c0 d2 8b 70 3f
       2.3642318 0.11339747 -2.270867 0.9396335
000220 18 13 b3 3f c8 24 dd 3f 77 af 03 40 3f 8d 84 3e
       1.3990202 1.727685 2.0575845 0.25889012
000230 70 d5 63 bf 54 1c f2 3e 50 51 e8 3f 1c e2 18 40
       -0.88997555 0.47287238 1.8149815 2.3888006
000240 1d f9 93 c0 0b c0 38 40 27 e7 a2 be 18 81 98 3f
       -4.6241593 2.8867214 -0.3181698 1.1914396
000250 ad b9 c9 3f d7 00 29 40 ab 7f 4e be 11 ff a3 bf
       1.5759789 2.6406763 -0.20165889 -1.2812215
000260 08 f3 32 40 e4 4d be 3e b9 4f d9 3f f1 e2 a3 3f
       2.7960835 0.371688 1.6977454 1.2803632
000270 d0 c9 fc be 4f 48 35 40 d9 a4 06 40 e2 df ff be
       -0.4937272 2.8325384 2.1038115 -0.49975497
000280 d3 13 9f 3f ae 20 f4 3f 54 ae 2c 40 06 c7 a9 3f
       1.2427925 1.9072473 2.6981401 1.3263862
000290 be f0 3b 3d 2e 76 45 bf cf 9a bd 3f 1e 28 b1 3f
       0.045883887 -0.7713345 1.4812869 1.3840368
0002a0 df b2 f4 3f 32 8a 83 3f 16 84 3e bf 64 80 3b 40
       1.9117087 1.0276549 -0.744203 2.9297113
0002b0 75 17 79 3f 6a bd c9 bf 1c 48 70 bf d1 d7 56 3d
       0.9730142 -1.576093 -0.9386003 0.052451912
0002c0 10 b7 33 40 6a 63 1b 40 f0 69 cc bf 61 a1 ce 3f
       2.8080482 2.4279428 -1.596983 1.6142999
0002d0 de 0d a1 ba d7 bb 28 bf 40 a7 24 40 27 84 cf 3f
       -0.0012287458 -0.6591162 2.5727081 1.6212205
0002e0 b2 7c 4b 40 64 45 06 40 c9 23 33 3f 3a da 31 40
       3.1794858 2.0979853 0.6997648 2.7789445
0002f0 8b 90 76 3e b2 49 28 40 f0 fb 82 bf 55 b6 17 3f
       0.24078576 2.629498 -1.0233135 0.5926259
000300 9b b2 08 40 e6 ea 33 bf dc ea d2 3f 9e c1 8b bc
       2.1359012 -0.702803 1.6477923 -0.017060097
000310 0c 04 a7 c0 49 4b d5 3e 0f 5d f3 3f 08 5b 69 c0
       -5.219244 0.41659 1.9012774 -3.646181
000320 1a a7 07 40 ad d0 10 bd e3 d2 12 3e 30 87 34 3f
       2.119574 -0.03535526 0.1433826 0.7051878
000330 4a a3 2b c0 47 e0 f7 3f ff 0d 5f c0 1a 2b 0d 40
       -2.6818414 1.9365319 -3.4852293 2.2057557
000340 f7 7d 03 be c7 9d 08 40 9e ff aa be 09 76 01 40
       -0.1284102 2.13463 -0.33398145 2.0228293
000350 68 49 ea 3e df d8 35 40 52 43 17 40 10 23 87 bf
       0.4575913 2.8413618 2.363484 -1.0557575
000360 63 f9 f2 be 90 b8 e8 3f 9d 36 19 bd ae b1 1f c0
       -0.47455892 1.8181324 -0.0374056 -2.4952197
000370 7a ea 35 c0 aa 9c 27 3f a4 8e 8b 3f 1d ac 50 3e
       -2.8424363 0.65473425 1.0902905 0.20378156
000380 0a 64 bd bc 26 dd 48 bf 5e 34 14 be d5 75 75 3f
       -0.023118991 -0.78462446 -0.14473101 0.9588292
000390 91 5f 68 3e 2f 08 d1 3f 31 6b 4a 40 dc 75 26 40
       0.22692706 1.6330622 3.1627924 2.6009436
0003a0 d8 2b 02 40 ef d6 cd 3f aa ee b9 3f 0e 9f be 3f
       2.033926 1.6081218 1.452596 1.489229
0003b0 58 91 f3 3f eb 3f a3 3e 13 2a ac be 1d 67 d8 3f
       1.902873 0.31884703 -0.3362585 1.6906468
0003c0 79 e4 0e 3d dd 0a e0 3f ac ef 17 c0 73 1e 8d 3e
       0.034885857 1.7503315 -2.3740034 0.27562293
0003d0 62 ba 7e bf 06 ba 53 3e 49 17 95 3e 53 ce ed 3f
       -0.9950315 0.20676431 0.29119328 1.857859
0003e0 27 02 eb 3c ab 08 6f 3d 2c a5 36 40 49 e4 ef 3f
       0.02868755 0.058357876 2.8538313 1.8741542
0003f0 4a 0a 1e 3f 74 ea be 3d c6 4d 22 40 e0 58 0b 40
       0.6173445 0.09322062 2.535997 2.1772995

action_out.bias f4 [5]
000000 5b 10 fc 3f 16 03 3b c0 9a 23 bb 40 af 70 ff 3f
       1.9692491 -2.9220634 5.848096 1.9956263
000010 b4 ff ea 3f
       1.8359284

weight f4 [256, 123]
000000 0b ac 40 c1 44 cd 94 be 52 8d e1 bd 24 8d 95 be
       -12.042003 -0.29062855 -0.11013283 -0.29209244
000010 c8 78 fd bd cf ab a1 be 99 d7 93 be cb 39 fd bc
       -0.12376553 -0.31576392 -0.28875425 -0.030911347
000020 2e be bf 3f 87 cb 91 3d 8a 32 58 3d 6d ea 7c 3d
       1.4979913 0.07118898 0.052782573 0.061747003
000030 f9 d4 23 3e e9 f3 fa bc 12 db 28 be 08 75 ed bf
       0.15999211 -0.030633884 -0.16489819 -1.855134
000040 d1 c3 fb be fb 1d 87 bf 7e 8b 5e bf 48 c9 9b be
       -0.49172834 -1.0556024 -0.869316 -0.30427003
000050 02 55 3f be 48 bc 84 bf 66 90 cd 3d 52 ff 6a 3f
       -0.18684772 -1.0369959 0.100373074 0.9179584
000060 0b 50 7f bf f4 e3 a0 bf 02 fd 61 bc 02 d8 bf bf
       -0.9973151 -1.2569566 -0.013793232 -1.4987795
000070 3a 54 1b 3d 30 c4 52 be 1f e1 7a bd fd af 98 be
       0.03792212 -0.20582652 -0.06124985 -0.29821768
000080 da 9f c3 bf 50 4e 6d bc d8 84 d5 bc 68 37 1f bf
       -1.5283158 -0.014484003 -0.026064321 -0.6219392
000090 35 a8 41 c1 e4 2d 25 3e 9f 00 ef 3d 2d dc dd be
       -12.103566 0.16130787 0.1167004 -0.43332043
0000a0 7b 08 ad bc a1 d9 b3 be 85 2b a4 be e0 b8 97 3f
       -0.021122208 -0.35126975 -0.32064453 1.1853294
0000b0 2d 23 2d 3e 3a b6 68 3f 05 83 6c 3f 6d b8 7b 3d
       0.1690795 0.90903056 0.9238742 0.06145518
0000c0 79 ce 16 3e a9 81 df bb 4c 8a 65 be 14 01 bf bf
       0.147272 -0.0068208766 -0.22416037 -1.4922204
0000d0 e4 6f f8 3f 4c 43 eb 3c a5 ee 82 3d d8 84 d3 be
       1.9409146 0.028718613 0.06393174 -0.4131229
0000e0 84 da 1e be e9 bb 7b bf 6c c9 82 3e f8 2e ef 3f
       -0.15513045 -0.98333603 0.25544298 1.8686209
0000f0 be a4 b7 bf 9b cb f8 3d 8c ca c8 3e f0 66 b4 bf
       -1.434715 0.1214821 0.3921703 -1.4093914
000100 97 40 7a be 17 4e 0a 3d 18 3b 9c be 36 25 84 be
       -0.24438702 0.03376588 -0.30513835 -0.2580964
000110 16 e1 5d bd e4 37 c2 bf 61 15 9d 3d a7 16 cd 3f
       -0.054169737 -1.5173306 0.07670093 1.6022538
000120 1b 54 40 c1 86 1f 99 be e9 a5 1c bd 44 5d a1 be
       -12.020534 -0.29906863 -0.03824416 -0.3151647
000130 2b eb eb bc 22 bb c2 be 8d 06 cc be d2 9b 8e 3f
       -0.02879866 -0.38033396 -0.39848748 1.1141303
000140 6e 4c 08 bf 16 4b a0 3f fb e4 1a 3e a0 b4 0f 3e
       -0.5324162 1.2522914 0.15126412 0.14033747
000150 3f ec 05 3e be db 0a bd 5e 67 8e be 43 1b b2 bf
       0.13078402 -0.03390097 -0.27813238 -1.391457
000160 3f 86 97 3e e9 cb 09 3d 82 6f 08 bf 29 3b a3 be
       0.2959461 0.03364173 -0.5329515 -0.31881073
000170 4a 27 08 bd dc 8c 81 bf e5 eb 73 3e 48 e0 53 40
       -0.033240594 -1.0121112 0.23820455 3.310564
000180 e6 11 10 c0 60 90 d5 bc 06 5b 1f 3d 28 9b b2 bf
       -2.2510924 -0.02606982 0.038905166 -1.39536
000190 be 9c ce bd d2 9a 49 bd 5d b6 99 be 11 1b 35 be
       -0.1008849 -0.049219914 -0.30021945 -0.17686106
0001a0 e0 b4 f1 bb 70 ce f6 bb f0 75 ba bf f7 fd 05 c1
       -0.0073762983 -0.0075319335 -1.4567242 -8.374503
0001b0 f9 4b a0 3e 4e 2c d5 3e de 5b c7 be e3 79 c4 3e
       0.31307963 0.41635364 -0.38937277 0.38374242
0001c0 6d 76 19 bf ba 9f 1d 3e b2 e5 a1 bd 29 d2 a1 3e
       -0.5994633 0.15392962 -0.07905139 0.31605652
0001d0 47 ef 44 bd 31 b2 97 3d 94 17 66 bd ac 19 68 bc
       -0.048079755 0.07407034 -0.05617483 -0.014166277
0001e0 f1 14 4c 3d 60 40 93 3d 7e 97 17 bd f1 c6 1e 40
       0.04982466 0.07190013 -0.03700971 2.4808924
0001f0 2b e3 81 3e 6d ff 81 3e 47 97 b8 3e 41 64 61 3e
       0.25368628 0.25390187 0.36052915 0.220109
000200 77 d3 cf 3c a7 78 62 3f 1c 45 8d 3f 51 80 e7 bf
       0.025369389 0.8846535 1.1036716 -1.8086034
000210 1e b1 a5 bd 30 fa 15 3c a7 90 b1 3f 65 97 92 bc
       -0.08090423 0.009153888 1.3872269 -0.017894456
000220 75 3b bd bf d1 d8 36 3d 53 c8 9b 3e 67 90 20 be
       -1.478377 0.044640366 0.30426273 -0.15680085
000230 a2 f0 2d 3e 4f 5a ea bd 35 4d 02 3d a9 9e c3 3e
       0.16986325 -0.11443006 0.03181191 0.38206986
000240 10 67 b0 be 11 a3 05 bf db 7b 26 bf cf 7c b4 3c
       -0.3445363 -0.52201945 -0.6503274 0.02203217
000250 93 e8 4f 3c e0 36 8d be 87 fb e5 3e 0d 21 8f bb
       0.012689727 -0.2758093 0.44918463 -0.0043679536
000260 90 19 a1 3d 7d 20 e8 3d 30 b6 ac 3c 1d 38 dd 3e
       0.07866204 0.11334322 0.021082968 0.43206874
000270 b2 7f 7d 3d 95 00 81 3d 01 75 30 40 95 39 22 40
       0.061889358 0.06298939 2.7571414 2.5347645
000280 e5 9a bc 3f 03 68 d6 bd ff 5e b7 3e c3 33 32 3e
       1.473477 -0.104690574 0.35814664 0.17402558
000290 f5 c8 99 3c 09 b5 46 3f 22 4a 3f 3e 76 ea 5f bf
       0.018772582 0.7761999 0.18680623 -0.87467134
0002a0 36 07 6f be 61 45 4d 3e 41 09 c5 3f 27 a6 8f bd
       -0.23342595 0.20045997 1.5393449 -0.07014113
0002b0 77 7e c3 bf 37 35 44 3d 1e 23 d0 3f 69 57 f2 bf
       -1.5272969 0.047902312 1.6260717 -1.8932925
0002c0 f0 d1 b2 3b ad 15 0a bd 96 b5 c1 3d 57 79 ca 3e
       0.0054571554 -0.033712078 0.09458463 0.395457
0002d0 d6 5f 7a be c9 8a 2a bf 96 8d e9 be 97 be 90 be
       -0.24450621 -0.6661802 -0.45615834 -0.2827041
0002e0 1c 7b e8 bb c1 37 34 3d 37 42 d4 3e 21 ef 98 3d
       -0.007094754 0.043998484 0.41456768 0.07467485
0002f0 5d 85 b7 3d 53 49 e9 3d ec 7b 4f 3d c5 2d b4 3d
       0.08960984 0.113909386 0.05065529 0.08797792
000300 25 00 bf 3e c2 9f 2e 3d c8 a2 0c 40 d9 50 20 40
       0.37304798 0.042632826 2.1974354 2.5049345
000310 ab 68 84 bd b1 49 e2 3e 1f 85 5a 3e 93 6f 3a 3e
       -0.06465276 0.44196847 0.21339844 0.18206625
000320 5a 4d 52 bd f9 72 67 3f bb 8b e4 bd 6b a9 00 be
       -0.0513433 0.9040981 -0.11159464 -0.12564628
000330 aa f0 de bd 21 d0 27 3e bd 82 bd 3f 73 ad fb bd
       -0.10885747 0.16387989 1.4805523 -0.12288942
000340 9f fc c3 bf 7a e2 08 3d 82 cb f2 be 7f 8a 8b be
       -1.5311469 0.03341911 -0.4742089 -0.27254102
000350 01 46 96 bd 7e 0b 17 be c3 7a b1 bc b3 4f d2 3e
       -0.07337571 -0.14750478 -0.021664983 0.4107643
000360 ba 41 45 be 49 35 04 bf 42 64 1d be 7d 7b d1 3e
       -0.19263354 -0.51643807 -0.15370277 0.40914527
000370 00 30 d2 3a 35 4a 9c 3d 01 d2 dd 3e 12 06 16 3e
       0.0016036034 0.07631341 0.43324283 0.14650753
000380 d1 97 9b 3d 17 b5 a2 3d 81 35 f3 3d be 62 33 3d
       0.07597316 0.079446964 0.118754394 0.04379534
000390 17 94 87 3d 07 1f c8 3e 5d 68 8b 3f 7c 85 3a 3d
       0.06620043 0.39086172 1.0891224 0.045537457
0003a0 1b 8d 85 3d f2 d1 9e 3b ae 37 a7 3d 86 a9 b2 bc
       0.06521054 0.004846805 0.08164917 -0.02180935
0003b0 61 7b 04 bc 18 1b 1a be 3f 34 a5 3e 56 27 28 3e
       -0.008086056 -0.15049398 0.32266423 0.16421255
0003c0 73 ad 02 be fa 68 93 3d 09 f4 8f 3c d2 2a d1 3d
       -0.12761478 0.07197757 0.01757242 0.102132455
0003d0 6c df 26 3d c3 5a a2 3d f2 57 50 bd 1b 06 da bc
       0.040740415 0.07927468 -0.05086512 -0.02661424
0003e0 e8 0c 6e 3d ff 12 94 3d 09 5e 06 bc 01 30 46 bd
       0.058117777 0.07230186 -0.008201131 -0.048385624
0003f0 87 28 09 3d 6f c9 f7 bb 34 a8 9b 3d 62 7e 53 3d
       0.033485916 -0.0075618546 0.076004416 0.0516342

bias f4 [256]
000000 36 e9 ba bf ef 88 a7 3e 44 d9 cd bd 5b 62 ab 3e
       -1.460242 0.3272166 -0.10051206 0.33473477
000010 d1 0d b8 bd 3b dd 15 3b 5d 0c 5f be f0 97 87 3c
       -0.0898701 0.002286746 -0.2178206 0.016551942
000020 f5 26 e3 be e6 2d 0b be 18 fd 1b bd 70 db f2 bf
       -0.4436566 -0.13591728 -0.038083166 -1.8973217
000030 1b b7 7c be 69 13 21 bf 4c f4 d8 bd bc 51 9a bd
       -0.24679224 -0.6292024 -0.10593471 -0.07535121
000040 cf bc d9 bc 91 67 f6 bd 47 fd 5d 3d fb 40 88 bd
       -0.026579289 -0.120314725 0.054196622 -0.06653019
000050 a3 d1 21 c0 4c 28 d9 bf 9b 3b da bc c2 7d 51 bb
       -2.5284202 -1.6965423 -0.02663975 -0.0031965827
000060 ef 6b e0 bc 61 98 b3 bc 40 0b e9 bd 19 52 4a bf
       -0.027395217 -0.021923246 -0.11379099 -0.7903152
000070 d9 71 ce 3d 83 fa 20 bf 9f 04 ce 3e a2 6a 95 bd
       0.100803085 -0.6288225 0.402379 -0.07295729
000080 f7 39 c4 bc 7a 51 e7 bd 6e c3 05 bd d3 a7 8a bd
       -0.023953421 -0.11294837 -0.03265708 -0.06770291
000090 40 33 07 c0 a7 07 e4 bd d2 6e d1 bd a3 f2 37 be
       -2.112503 -0.11134272 -0.102262154 -0.17963652
0000a0 dd e3 1e 3d 25 8a ee bd a3 3d 27 3d 2f a0 9f 3b
       0.038791526 -0.11647443 0.040830266 0.0048713903
0000b0 54 bd 50 3d 49 bb 87 3d d1 bd c0 bf f9 d3 db bd
       0.050961807 0.06627519 -1.5057927 -0.1073379
0000c0 09 df be bc 69 49 72 bd c6 83 d0 ba f8 64 f2 bf
       -0.02329971 -0.05915204 -0.0015908412 -1.8937063
0000d0 b3 88 f6 bd 7e f5 42 be 25 38 91 bd d9 9c 85 bf
       -0.12037792 -0.1903896 -0.07090787 -1.0438491
0000e0 a7 1d 28 be c2 b3 64 bd fb 64 24 3f fe 3b 30 bd
       -0.16417561 -0.055835493 0.64216584 -0.043025963
0000f0 b8 57 74 3f 62 7c cc bd 12 79 89 bd 09 41 31 bd
       0.9544635 -0.09984662 -0.067125455 -0.043274913
000100 ae 10 85 bd 58 44 73 bd 87 7e 07 3f 19 a3 9a 3d
       -0.06497322 -0.05939135 0.5292744 0.0755064
000110 29 38 16 3d 11 49 34 bd 75 7f 84 3e 85 fa e3 bc
       0.036674652 -0.044014994 0.25878492 -0.027829418
000120 5f 58 63 bf f0 59 1b bd 10 4a cc 3f 1c 2b d3 3c
       -0.8880672 -0.037927568 1.5960102 0.025777392
000130 0e 7c 45 3d 80 a9 32 bd b4 a0 2b 3c 60 c2 ca be
       0.04821401 -0.04361868 0.010475326 -0.3960142
000140 d7 99 02 3d 1d 35 c3 bd 50 0f 6b be 36 9a 74 bd
       0.031884994 -0.09531615 -0.2295506 -0.05971738
000150 75 6a 10 bc 0c ef 6d bf 8c 50 44 bd 25 8f c0 bd
       -0.008814444 -0.9294288 -0.047928378 -0.09402303
000160 ef 78 93 bd 9f 25 63 3c f5 f7 89 bd 1b 58 98 3c
       -0.072008006 0.01386395 -0.06736747 0.0185967
000170 60 d8 d0 bd 20 f6 e3 bf c3 6f b1 3b 44 95 b6 bc
       -0.1019752 -1.7809486 0.0054149344 -0.022287972
000180 fd 37 bf 3b 55 3f f0 bd 0f b2 17 be 82 0c 9b bf
       0.0058355317 -0.117308296 -0.14814018 -1.2113192
000190 a7 f3 ed bd 40 68 5a bd 66 33 87 bd be 8a f9 bd
       -0.116187386 -0.053322077 -0.066016 -0.12184666
0001a0 3e 22 7f bf 66 2b f1 bf d6 75 3c bc e6 09 3d 3d
       -0.99661624 -1.8841369 -0.011502704 0.046152018
0001b0 bc 04 13 bc 7b 9d 1e 3e 41 33 81 bd ba 39 e6 bd
       -0.008973297 0.15489762 -0.06308604 -0.11241479
0001c0 64 3b 93 bd b7 e7 d9 bd 75 8e 8b bd 01 31 6f bd
       -0.07189062 -0.10639899 -0.06814281 -0.058396343
0001d0 eb 06 b9 bc b9 7a f5 3c 7c c5 b7 bd 91 94 81 bd
       -0.022586307 0.029965745 -0.08973214 -0.06327165
0001e0 39 90 8f bd 6f ef 04 be 91 19 b6 bd a3 21 b0 bc
       -0.0700993 -0.12981962 -0.08891595 -0.021500414
0001f0 6e 01 cf bd de 48 04 bf 9b 09 91 bd 67 5c 1c bb
       -0.101076946 -0.51673687 -0.0708191 -0.0023858787
000200 f5 85 00 bd 37 1f f4 bf 6e 00 a1 be 43 0d e9 bd
       -0.03137775 -1.9072026 -0.3144564 -0.113794826
000210 cc 3b ae bd b8 16 c4 bf ee 7f 29 bd 31 b8 9d bf
       -0.08507499 -1.5319433 -0.04138177 -1.2321836
000220 9d 0a 8c bd ce 1d b0 bd b4 b5 bc bd f7 56 b4 bf
       -0.06837962 -0.08599435 -0.092143446 -1.408904
000230 48 83 4d bd 60 ce c2 bd bd 69 0b be 54 e6 06 be
       -0.050174028 -0.09512019 -0.13614555 -0.131738
000240 13 a9 9e bd 76 40 1d bf 4e 6c 06 be f9 8b 5c be
       -0.07747092 -0.61426485 -0.13127252 -0.2153777
000250 bb 0c ee be 53 80 b8 bc 3e 66 87 3e 7c 73 d7 bf
       -0.46494088 -0.022522127 0.26445192 -1.6832118
000260 9d 01 31 3d 8f d3 71 be 82 48 d7 3f c3 62 0d bf
       0.04321443 -0.2361586 1.6819003 -0.55228823
000270 5e 2d b1 bd cf bf f5 bd 9c 11 df 3f bc 15 15 bd
       -0.08651231 -0.11999475 1.7427249 -0.03639768
000280 f4 b0 a8 bd 67 00 4b bd 1e 1d 57 bd 78 a5 8b ba
       -0.08236876 -0.04956093 -0.052518003 -0.0010654172
000290 1b 43 9a bf d9 63 0a be 17 14 cd bd 5b 1e 97 bd
       -1.2051729 -0.13514651 -0.100135975 -0.07378837
0002a0 37 a6 0a be b5 69 13 3d 1c 7e 00 3d e8 7f cd be
       -0.13539968 0.035989482 0.031370267 -0.40136647
0002b0 c8 1e 8f bd 0d 96 47 bf a1 b5 89 bd 35 a5 39 bd
       -0.06988293 -0.77963334 -0.06724096 -0.04532357
0002c0 b9 c5 b0 bd 28 2c 74 3d 6b a3 00 3d d0 ad 97 3e
       -0.086314626 0.059612423 0.031405848 0.29624796
0002d0 ca a0 98 bd 5e 98 0a be 63 fb 8c bf 5f 08 dd be
       -0.07452543 -0.13534686 -1.1014217 -0.4317045
0002e0 4a c7 4e bd c3 3f ae bd 8d 81 e5 bd 06 fe bf bd
       -0.050483026 -0.08508255 -0.112063505 -0.09374623
0002f0 55 af 26 bd 33 e2 7b 3b 75 e7 33 bf 8f 0a 93 3f
       -0.040694553 0.0038434386 -0.7027505 1.1487597
000300 8a 7c e3 bc 2e ac 07 be 7a 56 8f bf fc b7 45 be
       -0.027769346 -0.13249275 -1.1198266 -0.19308466
000310 88 84 00 bf b6 08 6c bd 09 8d 13 bd 7b 30 96 bd
       -0.50202227 -0.057625495 -0.036023173 -0.07333466
000320 c6 7d 52 be 07 96 59 bd ea b9 f8 bf ab 1c 7a bd
       -0.20555791 -0.053121593 -1.9431736 -0.061062496
000330 21 d3 65 3d 6f 44 8d bd 0f db b2 bd 4e 44 50 bd
       0.05610955 -0.06897818 -0.08733188 -0.05084639
000340 c4 b4 10 bf ff 86 d8 3c 79 12 5d bf 57 92 ba be
       -0.56525826 0.026431559 -0.8635631 -0.36439773
000350 c2 1c 7f bf 56 e8 dc bf bf 0a de bf 1b ae 1c c0
       -0.99653256 -1.7258403 -1.734703 -2.4481266
000360 5e 17 04 be f2 b0 23 bd 16 e0 e3 bd bc d3 61 bd
       -0.12899539 -0.03996367 -0.111267254 -0.055133566
000370 4b 87 01 bd ef 5f 6e 3c 0b 79 99 bd c1 83 b5 bd
       -0.031623166 0.01454924 -0.0749379 -0.08863021
000380 4b e4 74 bc 0b 10 01 be c0 7f 38 bd 4f 89 22 bc
       -0.014947007 -0.12603776 -0.045043707 -0.009920432
000390 8f ad 3a bd 2b 94 e2 3d f9 0e 97 bd 04 c3 83 bd
       -0.045575675 0.11063417 -0.07375903 -0.06433681
0003a0 08 75 29 3f f0 f8 1b 3f 98 fa 0c be 60 d5 eb bf
       0.661942 0.60926723 -0.13767469 -1.8424492
0003b0 07 73 8f be 33 3a 81 3d a8 8f 57 3b 82 6b 83 3f
       -0.28017446 0.06309929 0.0032892022 1.0267184
0003c0 3e 52 b2 bc 8c 37 c7 bd b1 c2 10 bd 79 6c a1 bd
       -0.021767732 -0.097273916 -0.035341922 -0.07882018
0003d0 42 f7 8a 3c 6c e8 37 3c 71 69 24 3d f5 9f 8e 3e
       0.016963605 0.011224847 0.04013962 0.27856413
0003e0 19 32 7c bd 51 42 1c c0 23 11 91 ba e6 87 97 bd
       -0.061571214 -2.4415476 -0.0011067729 -0.073989674
0003f0 4a d8 22 3d 31 49 a7 bd 97 ad 8e 3d 4e b4 98 bd
       0.03975705 -0.08168257 0.069667034 -0.074562654
