saved_models_1/125_12235_model.pt (torch, 701697 bytes, 11 tensors)

FC1.weight f4 [256, 36]
0.61295706 0.2873397 0.25762558 -1.1371058 1.5842859 1.4375131 -1.1513447 -2.8281522
2.4329035 2.4790094 -3.0062413 -0.2655056 -0.8339505 0.31321657 1.2724488 0.22632231
-2.4142804 1.2607626 1.8042817 0.3231945 2.06108 0.938535 -1.5887955 -0.8718795
3.351352 0.874742 -2.9896824 -0.41004807 -0.029215047 0.54193676 -0.86944413 -0.18686533
-4.547858 0.26816487 0.46259543 -5.868698 -1.256923 0.1810923 -0.02071721 0.33260667
-1.4446373 0.15547262 1.6037186 0.3517378 -2.5124836 -0.07266934 2.920964 -0.65272635
-1.1128248 -0.2609859 0.97177756 0.547737 -1.5396931 0.9543592 2.5260532 0.4252046
-0.033449464 0.0054605636 -0.40377364 0.65338516 2.079249 0.35862005 -0.68993556 -0.21133953
-0.31398296 0.34322152 -0.24243689 0.30061918 -5.0755935 -1.8107907 1.9455996 -0.6526396
-0.1679123 1.019942 -0.90966976 0.9412483 -0.7632372 1.6270388 -3.474648 -2.192066
2.6802 -1.5481344 -0.54578245 0.053988382 -1.0593859 0.84079057 -1.574344 -0.03292604
0.8821968 2.858276 -0.57532823 1.4271268 -1.6107168 1.4439763 -0.42152736 0.07559633
-0.71109605 -0.52269644 1.4488786 -1.5028883 -1.4429904 -0.45207155 -0.080131926 0.10483163
0.3027082 -1.4050918 -7.086953 -3.739803 -9.3859825 1.077754 0.1757434 -0.15051165
-1.3897245 -0.44891083 0.03282861 0.6795375 -1.2387843 0.28701696 1.6464791 1.0844325
-1.1163119 -0.7396419 0.32266164 1.2074498 -1.6770492 -1.4172546 2.0086162 0.022498844
-1.1453396 0.7742689 1.3275034 -0.11806267 -2.94707 1.9650524 3.3796701 0.66400355
-5.483675 2.4752867 0.72657984 -6.676447 -2.7652497 -1.978062 -0.8664161 -5.099651
-2.498105 -0.7529323 -0.10007753 -1.1262281 1.3711605 -0.19910926 -1.4762125 -1.3978763
4.8111954 1.2023654 -4.5560904 -0.6058715 1.2289525 0.31908062 -1.9937036 -1.5246834
3.865816 -0.4743092 -2.9785273 0.35626248 0.062355567 -2.0892377 -0.38926005 2.4063928
0.39849558 -2.1707284 0.34932846 -0.04235951 0.4898899 0.88912624 0.3488801 0.6184775
0.7433458 1.1480105 -6.9325333 -3.4161232 -3.819996 -0.55412143 -0.25747433 0.42985138
0.3334074 0.72541195 -2.013353 -3.0622604 1.9389814 -1.4307512 -0.3771319 -0.97681564
-1.1547256 -0.012645694 -1.7548351 -1.2276407 2.2010436 -0.45008427 1.3414001 -0.9750835
-0.9816038 -0.59768856 0.46040434 -0.028260516 -2.529023 0.45648658 0.10991488 0.97744334
0.7059505 -6.958563 -6.9069166 -2.1084917 0.99465835 -0.9748869 -4.083903 -7.8196907
-0.46604085 0.43071833 0.054485653 -0.12877499 0.55637974 0.3060724 0.79152423 -0.6745605
-0.5286169 1.5706431 0.26333705 1.889709 -0.5792176 -1.1079193 1.0522784 2.3054874
-1.702953 -2.5645373 1.1500511 1.043887 0.6850579 -1.3489769 -0.634219 2.2782412
0.8218949 -1.1484622 -0.98044914 0.49458608 0.17003104 0.26827732 -0.7056518 -0.57099336
1.3874012 -3.4185932 -0.010728424 -0.99399114 0.19854647 -0.009122431 -0.28130385 -1.3262464
00000000: c1ea 1c3f 301e 933e 80e7 833e af8c 91bf
00000010: e1c9 ca3f 6e00 b83f 435f 93bf 7200 35c0
00000020: b1b4 1b40 17a8 1e40 4266 40c0 5af0 87be
00000030: c87d 55bf ec5d a03e 9adf a23f 09c1 673e
00000040: 9283 1ac0 ab60 a13f b4f2 e63f c079 a53e
00000050: bce8 0340 d443 703f a75d cbbf 7f33 5fbf
00000060: 8d7c 5640 17ef 5f3f f556 3fc0 d2f1 d1be
00000070: 6554 efbc 5ebc 0a3f e493 5ebf a059 3fbe
00000080: 0e88 91c0 e84c 893e 4fd9 ec3e 60cc bbc0
00000090: dae2 a0bf 4370 393e 23b7 a9bc 6c4b aa3e
000000a0: e0e9 b8bf 3734 1f3e a746 cd3f fa16 b43e
000000b0: 88cc 20c0 aad3 94bd 13f1 3a40 1319 27bf
000000c0: 0b71 8ebf f29f 85be 6ac6 783f 7e38 0c3f
000000d0: aa14 c5bf e250 743f dbaa 2140 6bb4 d93e
000000e0: 4e02 09bd 87ee b23b 6bbb cebe 4044 273f
000000f0: 6a12 0540 0c9d b73e 9e9f 30bf 6469 58be
00000100: 60c2 a0be bbba af3e 6041 78be c2ea 993e
00000110: 436b a2c0 fdc7 e7bf 6809 f93f 6413 27bf
00000120: 34f1 2bbe 768d 823f 1ee0 68bf a6f5 703f
00000130: 8363 43bf cf42 d03f a260 5ec0 cf4a 0cc0
00000140: 6688 2b40 4529 c6bf 66b8 0bbf ec22 5d3d
00000150: f599 87bf 0d3e 573f 1b84 c9bf 75dd 06bd
00000160: a6d7 613f feed 3640 b648 13bf 17ac b63f
00000170: f82b cebf 37d4 b83f 6fd2 d7be 40d2 9a3d
00000180: 640a 36bf 6fcf 05bf db74 b93f a55e c0bf
00000190: e9b3 b8bf ec75 e7be 351c a4bd f7b1 d63d
000001a0: 92fc 9a3e 0cda b3bf 52c8 e2c0 ef58 6fc0
000001b0: fc2c 16c1 d8f3 893f 14f6 333e ba1f 1abe
000001c0: 7ee2 b1bf a4d7 e5be 4b77 063d 2bf6 2d3f
000001d0: 7c90 9ebf e3f3 923e d4bf d23f afce 8a3f
000001e0: 4fe3 8ebf 2c59 3dbf e833 a53e b78d 9a3f
000001f0: 8ca9 d6bf 9968 b5bf 2b8d 0040 7f4f b83c
00000200: 7d9a 92bf 7d36 463f a2eb a93f d7ca f1bd
00000210: cb9c 3cc0 d686 fb3f 844c 5840 23fc 293f
00000220: 447a afc0 196b 1e40 2301 3a3f 74a5 d5c0
00000230: daf9 30c0 2331 fdbf 72cd 5dbf 5730 a3c0
00000240: f4e0 1fc0 2cc0 40bf 73f5 ccbd 3e28 90bf
00000250: 3082 af3f 4ce3 4bbe 88f4 bcbf 9ced b2bf
00000260: 50f5 9940 1ce7 993f 7ecb 91c0 651a 1bbf
00000270: 514e 9d3f 895e a33e ae31 ffbf d328 c3bf
00000280: 8869 7740 a8d8 f2be 31a0 3ec0 0968 b63e
00000290: 8d68 7f3d 12b6 05c0 184d c7be 5702 1a40
000002a0: 9d07 cc3e 37ed 0ac0 2edb b23e 2a81 2dbd
000002b0: d9d2 fa3e c79d 633f 6aa0 b23e 8b54 1e3f
000002c0: e94b 3e3f 02f2 923f 50d7 ddc0 c3a1 5ac0
000002d0: d17a 74c0 e7da 0dbf add3 83be 7b15 dc3e
000002e0: 60b4 aa3e 99b4 393f c7da 00c0 13fc 43c0
000002f0: 8b30 f83f db22 b7bf 6f17 c1be 9710 7abf
00000300: 0cce 93bf e32f 4fbc 709e e0bf 5523 9dbf
00000310: e6dd 0c40 7271 e6be 00b3 ab3f 129f 79bf
00000320: 634a 7bbf 1e02 19bf 1eba eb3e 9982 e7bc
00000330: 83db 21c0 9cb8 e93e 0d1b e13d ba39 7a3f
00000340: 2cb9 343f 8cac dec0 7605 ddc0 87f1 06c0
00000350: eea1 7e3f 3092 79bf 55af 82c0 e83a fac0
00000360: e89c eebe 1d87 dc3e 592c 5f3d 97dd 03be
00000370: e76e 0e3f 86b5 9c3e 55a1 4a3f ffaf 2cbf
00000380: 7053 07bf d50a c93f 1dd4 863e fce1 f13f
00000390: 9b47 14bf 4dd0 8dbf 0fb1 863f 1b8d 1340
000003a0: 5dfa d9bf 6121 24c0 e034 933f 179e 853f
000003b0: f45f 2f3f 46ab acbf 2d5c 22bf b4ce 1140
000003c0: b467 523f cf00 93bf b7fe 7abf 633a fd3e
000003d0: 9e1c 2e3e a55b 893e 99a5 34bf 9f2c 12bf
000003e0: 5d96 b13f 3bca 5ac0 46c6 2fbc 3476 7ebf
000003f0: c44f 4b3e 4076 15bc 0f07 90be 71c2 a9bf

FC1.bias f4 [256]
-0.5202962 -0.5121475 -1.4839243 0.6786062 -0.029606551 0.878636 0.2937469 0.39659688
-0.4279674 -1.3022132 0.010238867 -0.21957739 -1.4035555 0.6517581 -0.4672944 -0.14033136
-0.82027704 -2.4084399 1.4663363 0.39273828 -0.06643877 -0.82739735 1.5677161 -0.38931236
-0.3188117 0.08843817 -0.753727 0.3267871 -0.8628843 -0.1743546 -0.9975498 -0.5657913
-1.5474495 -0.669769 -1.0698953 0.8564507 -0.51932514 -0.9641745 -0.67675626 -0.08925711
-0.33487338 -0.39918503 -0.089946404 -1.4268332 0.12750658 -0.123694144 -1.1602966 -0.33469364
1.0741544 -0.37612662 1.6311142 -0.1956024 -1.1918082 -0.14515531 0.22887133 -1.286389
0.22536366 -0.46933782 0.21116771 0.60223824 -0.24000776 -0.5242576 0.03843784 1.0023963
0.4319464 -1.0667672 -0.5491199 -0.14116932 -0.4126288 -0.08438699 -0.22395098 -0.33596474
1.2942696 3.2290163 -0.026127318 -0.061917022 -0.4887779 -0.23804809 1.4006897 0.81706315
-0.7834427 -0.91266876 0.33018285 -0.08256806 -0.554322 -0.115935594 -0.34714076 1.0264747
-2.13168 0.6043275 0.030762488 -0.6643738 -0.15101631 1.7250203 -0.92024136 -0.2130169
-1.3003191 0.09237917 -2.4043574 -2.3209243 0.3040367 0.45595315 -0.7488853 -1.5639845
-0.12953354 -0.10499307 -0.19173904 -0.04440409 0.30468318 0.13210152 -0.3492237 -1.1833291
-0.18838227 -0.18437359 -0.16029152 0.5363532 -0.8987019 -0.5291193 -0.46713945 -0.5107216
-0.8677136 -1.6494473 0.08332481 0.46906132 -2.1499407 -1.0069476 -1.5697826 -1.0207719
-0.19334891 0.066491656 0.14493728 1.0334569 0.29397294 0.16313908 -0.82918066 -1.5668185
-0.42718798 -0.3054918 -0.3000607 -0.87013173 -0.23218334 0.32055768 -1.0649892 0.25343016
-0.37144235 -0.9159278 -0.33008566 5.1099052 -0.21285966 -0.4931899 1.5450989 -0.032676928
-0.55678564 -0.18280523 1.9267644 -0.1549486 -0.44449207 0.104626104 0.6735642 0.3363369
-0.7173272 1.794754 2.0421917 0.044268895 0.13031918 0.0017939315 -0.56458485 -0.7798094
0.46119547 0.1795967 -0.9759378 -0.61695814 0.79037017 -0.66504383 0.39285064 -0.5913273
-0.8660737 0.47870252 -1.3297918 -1.4381183 0.39022028 0.44569343 -1.6020024 -0.6528042
1.4047197 0.24342138 0.5762979 -0.25693202 0.009731214 -1.8661101 -0.43191725 -0.14508665
0.75355715 0.3642188 1.5191371 1.0241297 -0.25391272 -0.01705732 0.9071968 0.5509331
-1.2512778 -0.49249622 -0.047794707 -1.1790899 -0.23724364 0.006508703 1.4780353 -0.30958492
0.27189204 0.3628324 -1.0501139 0.75720596 -1.2448579 -1.3189708 -0.6792191 -0.40362212
-0.37056023 -0.5284434 0.5141946 1.0432696 -0.35649785 -0.4073766 -0.075963594 1.7974268
-0.4039359 -0.34794623 -1.769199 -1.664412 -0.51370126 -0.90311795 1.6639463 -0.72807705
-0.9063845 -0.94519454 -1.2393712 0.98225003 -1.2432262 0.65100086 0.9466466 -0.67266625
-0.2896067 -0.86261636 -0.6356633 0.40937763 0.9670356 -0.20326185 -0.6106472 -0.04223979
-0.26455808 0.18241353 -0.21135117 -0.45254806 0.0902254 2.2710538 -1.1480374 -0.74176794
00000000: 2232 05bf 191c 03bf 3bf1 bdbf 23b9 2d3f
00000010: 7089 f2bc 4aee 603f fe65 963e bf0e cb3e
00000020: 8b1e dbbe ecae a6bf ecc0 273c e5d8 60be
00000030: b5a7 b3bf 9ed9 263f 3641 efbe 06b3 0fbe
00000040: adfd 51bf e123 1ac0 e8b0 bb3f fe14 c93e
00000050: 0d11 88bd 50d0 53bf ecaa c83f f353 c7be
00000060: 4a3b a3be 121f b53d 41f4 40bf a450 a73e
00000070: fce5 5cbf 038a 32be 6c5f 7fbf b3d7 10bf
00000080: d312 c6bf fb75 2bbf 54f2 88bf 5a40 5b3f
00000090: 7ef2 04bf 24d4 76bf e63f 2dbf 6fcc b6bd
000000a0: 8674 abbe fb61 ccbe d235 b8bd 78a2 b6bf
000000b0: 1691 023e 5b53 fdbd 9984 94bf f75c abbe
000000c0: e47d 893f ab93 c0be 5ac8 d03f ff4b 48be
000000d0: 2c8d 98bf 98a3 14be 3f5d 6a3e 65a8 a4bf
000000e0: bbc5 663e 0c4d f0be 593c 583e 492c 1a3f
000000f0: 98c4 75be bf35 06bf ff70 1d3d 864e 803f
00000100: 1428 dd3e d48b 88bf 1f93 0cbf b18e 10be
00000110: 1544 d3be 16d3 acbd 6853 65be 9203 acbe
00000120: a0aa a53f 34a8 4e40 f508 d6bc b49c 7dbd
00000130: 1941 fabe e1c2 73be cd49 b33f 0d2b 513f
00000140: b38f 48bf a9a4 69bf ba0d a93e 7119 a9bd
00000150: 0ce8 0dbf a46f edbd 6fbc b1be 8663 833f
00000160: 726d 08c0 35b5 1a3f 9d01 fc3c 6714 2abf
00000170: 05a4 1abe 77cd dc3f f094 6bbf 1a21 5abe
00000180: db70 a6bf 4a31 bd3d fee0 19c0 068a 14c0
00000190: b3aa 9b3e b172 e93e f2b6 3fbf a530 c8bf
000001a0: 71a4 04be 9b06 d7bd 3d57 44be 10e1 35bd
000001b0: 6fff 9b3e 9f45 073e 73cd b2be 5477 97bf
000001c0: 48e7 40be 6ecc 3cbe 7623 24be 714e 093f
000001d0: 5411 66bf 5d74 07bf e72c efbe a7be 02bf
000001e0: 7a22 5ebf 1721 d3bf 33a6 aa3d ce28 f03e
000001f0: a198 09c0 a9e3 80bf a3ee c8bf a7a8 82bf
00000200: 42fd 45be c72c 883d 706a 143e 5148 843f
00000210: 9f83 963e ee0d 273e 2f45 54bf 828d c8bf
00000220: 62b8 dabe 6c69 9cbe 8ea1 99be f4c0 5ebf
00000230: 78c1 6dbe 2320 a43e 9151 88bf 99c1 813e
00000240: b12d bebe 3f7a 6abf fd00 a9be 5884 a340
00000250: e2f7 59be 6383 fcbe cdc5 c53f 3ed8 05bd
00000260: 8189 0ebf 4b31 3bbe 37a0 f63f d9aa 1ebe
00000270: 7794 e3be 3646 d63d b46e 2c3f 5a34 ac3e
00000280: c1a2 37bf 80ba e53f 45b3 0240 4d53 353d
00000290: 6472 053e 5a22 eb3a a288 10bf 97a1 47bf
000002a0: d021 ec3e 33e8 373e 0fd7 79bf f8f0 1dbf
000002b0: b355 4a3f 5040 2abf b823 c93e 3a61 17bf
000002c0: 02b7 5dbf 7f18 f53e 9e36 aabf 4314 b8bf
000002d0: f4ca c73e ee31 e43e 6a0e cdbf 2d1e 27bf
000002e0: dbcd b33f 7443 793e 4288 133f 988c 83be
000002f0: ab6f 1f3c b2dc eebf 4224 ddbe 9891 14be
00000300: 1fe9 403f e37a ba3e 1673 c23f af16 833f
00000310: d900 82be cbbb 8bbc 0d3e 683f f409 0d3f
00000320: df29 a0bf 7728 fcbe 62c4 43bd 6bec 96bf
00000330: ffef 72be f546 d53b 4330 bd3f ea81 9ebe
00000340: 6f35 8b3e 2bc5 b93e 226a 86bf 40d8 413f
00000350: 8157 9fbf 09d4 a8bf 4ee1 2dbf 8fa7 cebe
00000360: 12ba bdbe 1148 07bf 42a2 033f dc89 853f
00000370: e386 b6be aa93 d0be cd92 9bbd 1512 e63f
00000380: b0d0 cebe 0226 b2be 1d75 e2bf 740b d5bf
00000390: ed81 03bf bd32 67bf 31fc d43f 4263 3abf
000003a0: d108 68bf 45f8 71bf b7a3 9ebf bd74 7b3f
000003b0: 0922 9fbf fea7 263f 6e57 723f db33 2cbf
000003c0: 5447 94be 6dd4 5cbf d4ba 22bf f299 d13e
000003d0: a58f 773f e023 50be 6053 1cbf a103 2dbd
000003e0: 2874 87be 9dca 3a3e 716c 58be 61b4 e7be
000003f0: 18c8 b83d f258 1140 e4f2 92bf 81e4 3dbf

FC2.weight f4 [256, 256]
0.20255914 -2.87792 -0.43505034 -0.31794134 1.537401 0.44324628 -0.39126146 -3.4912667
-3.0563211 1.7585801 -0.008060327 0.75102836 -3.0824192 -1.081077 1.4850901 1.3899179
-1.9160131 2.682719 -4.4115396 0.23342443 0.03887946 2.8448348 -8.886571 -2.2451448
0.10013663 -7.2965827 -0.93518883 -2.2654922 1.4666929 3.153015 2.3371181 -0.07584685
-2.8277867 -0.91987604 -0.058989182 1.6083894 -1.4355079 1.6878879 0.08312236 3.7610986
0.05582772 0.058908306 -2.4290237 -0.50573057 2.2202635 -0.13996932 -0.18833816 -0.33015707
-0.57384974 0.21281563 -1.1647984 -0.018154308 0.105387054 -2.951894 -2.2844057 -2.6006136
-0.3155873 1.554263 -3.8822625 0.36138788 0.35011983 -1.0029355 -0.09306594 1.2295449
0.1920958 3.8579814 0.6196647 -0.039951555 -1.4593444 -0.072412945 -0.70375687 -0.18850729
0.6957314 -0.71405154 0.35715735 0.61985934 -4.0653214 -0.06752288 -2.9132323 2.3514683
0.7368488 -1.4957192 0.620507 1.2872939 -0.9493583 1.261663 1.6585959 -0.9546356
1.2473557 0.5889095 -0.01333403 0.36133888 -0.8903048 -0.026790548 0.6705097 1.3278472
1.6668665 -1.2863841 1.5684007 -5.1208587 -1.8240927 0.572359 -0.94514394 0.34544948
0.010272967 0.8657665 1.3711758 1.1298826 -0.1444582 -7.6782007 0.3007032 -0.05309799
-2.1267903 -0.3170149 2.5926068 -4.794745 2.1763008 1.4585593 -0.62866867 -0.24166466
0.04728188 -2.2343326 -0.66859347 -1.0025215 -2.0948002 0.26783007 2.5740657 1.2522174
1.8320448 0.74421 1.4201969 1.4932642 1.3661742 -0.46561196 -1.4668765 0.9985202
-2.2711399 -1.6150311 -3.2621846 -0.063712664 -0.021744844 -1.6565244 2.5158458 -0.48004487
-1.2791209 -2.638779 0.22974057 0.7026493 -0.06909247 2.724273 -0.22951627 -1.0277617
-1.7156024 -0.44078407 -2.0351436 -0.036444493 -1.2819006 3.6479821 0.6804104 -1.7376014
1.1604972 -0.59704137 0.23651507 0.029248714 -1.2915239 0.49004078 0.4612911 -1.6425459
1.2344593 -3.7832642 2.4556353 -0.9121827 -0.39867255 -1.286059 -2.0524142 -4.3123107
-0.64862555 -2.403823 -0.32391655 -0.21323867 1.255366 -0.12047476 -0.7628975 1.9828482
-0.10123679 0.7438656 0.8572943 -1.2443743 -0.08733292 -2.5588465 2.1741009 0.17731693
-0.1404189 1.2004578 -4.605619 -0.009745287 0.2948379 0.41197047 0.28037372 -2.4601355
0.630523 -2.5867224 -0.01290644 -5.7602897 -0.94028765 -2.5827162 -1.7229825 -0.3817478
-0.30948207 -3.864147 0.15115595 -0.34801278 -0.3819998 -2.6931484 -1.1301017 0.9532126
-0.02661443 0.3627314 -5.4452205 0.33259463 -2.2601087 -2.0472124 1.343727 1.9582332
3.1511338 -0.69746304 0.3744778 1.3040799 -3.087137 0.018565174 -0.82761776 -1.5994568
1.6568705 -4.960517 2.3817937 -1.323598 -5.74764 1.9350272 0.5405081 0.73420954
0.7176547 -5.3304744 0.62746185 2.8408213 1.8952056 0.42519155 0.90857875 0.9063004
-3.425332 1.0237519 -0.47408292 0.73347145 -5.2420754 -0.1743146 -1.1329824 -1.0126011
00000000: aa6b 4f3e d72f 38c0 ebbe debe 35c9 a2be
00000010: 8ec9 c43f 2df1 e23e 6c53 c8be ea70 5fc0
00000020: c49a 43c0 2719 e13f 760f 04bc 6543 403f
00000030: 5b46 45c0 bb60 8abf 6f17 be3f d4e8 b13f
00000040: eb3f f5bf abb1 2b40 552b 8dc0 d006 6f3e
00000050: 1240 1f3d c611 3640 652f 0ec1 74b0 0fc0
00000060: 6f14 cd3d 9b7d e9c0 8968 6fbf d3fd 10c0
00000070: 98bc bb3f ffca 4940 5893 1540 9855 9bbd
00000080: 75fa 34c0 ff7c 6bbf a49e 71bd b4df cd3f
00000090: b9be b7bf b60c d83f 0e3c aa3d d7b5 7040
000000a0: 9bab 643d d649 713d 2075 1bc0 8f77 01bf
000000b0: cc18 0e40 1e54 0fbe b8db 40be 590a a9be
000000c0: d1e7 12bf 57ec 593e 1d18 95bf 58b8 94bc
000000d0: 2bd5 d73d d5eb 3cc0 b433 12c0 7470 26c0
000000e0: a994 a1be 17f2 c63f fd76 78c0 d507 b93e
000000f0: e842 b33e 3160 80bf 5b99 bebd ba61 9d3f
00000100: c3b4 443e 2be9 7640 59a2 1e3f 3ea4 23bd
00000110: cccb babf 3d4d 94bd 6929 34bf 0e08 41be
00000120: 741b 323f 15cc 36bf 54dd b63e 1aaf 1e3f
00000130: 1d17 82c0 7049 8abd 6672 3ac0 757e 1640
00000140: 1fa2 3c3f ba73 bfbf 8cd9 1e3f 0cc6 a43f
00000150: 2509 73bf 2c7e a13f df4c d43f 0063 74bf
00000160: 5aa9 9f3f c6c2 163f fa76 5abc 6901 b93e
00000170: 04eb 63bf da77 dbbc 86a6 2b3f e6f6 a93f
00000180: e25b d53f 3ca8 a4bf 5bc1 c83f 13de a3c0
00000190: df7b e9bf 1f86 123f f4f4 71bf c1de b03e
000001a0: f24f 283c e0a2 5d3f b082 af3f fe9f 903f
000001b0: daec 13be d2b3 f5c0 c5f5 993e 477d 59bd
000001c0: 551d 08c0 c74f a2be 45ed 2540 8d6e 99c0
000001d0: 8348 0b40 12b2 ba3f 6ef0 20bf f176 77be
000001e0: a5aa 413d 4eff 0ec0 f128 2bbf a052 80bf
000001f0: 3511 06c0 0621 893e 7ebd 2440 a948 a03f
00000200: 7280 ea3f 8c84 3e3f 03c9 b53f 4823 bf3f
00000210: ccde ae3f b164 eebe 9cc2 bbbf 059f 7f3f
00000220: 5b5a 11c0 57b9 cebf a2c7 50c0 c97b 82bd
00000230: 3e22 b2bc fe08 d4bf 9e03 2140 71c8 f5be
00000240: 3cba a3bf c1e1 28c0 1d41 6b3e d3e0 333f
00000250: 5a80 8dbd 7d5a 2e40 5006 6bbe b28d 83bf
00000260: dc98 dbbf 73ae e1be cb3f 02c0 d246 15bd
00000270: 5215 a4bf 8a78 6940 602f 2e3f b969 debf
00000280: 2c8b 943f b4d7 18bf 0231 723e 009b ef3c
00000290: a850 a5bf a0e6 fa3e 592e ec3e f23e d2bf
000002a0: c302 9e3f 0021 72c0 2129 1d40 ce84 69bf
000002b0: cf1e ccbe 959d a4bf c15a 03c0 73fe 89c0
000002c0: 530c 26bf 3cd8 19c0 64d8 a5be 3d5b 5abe
000002d0: d5af a03f 79bb f6bd 404d 43bf f8cd fd3f
000002e0: 3c55 cfbd fa6d 3e3f a477 5b3f a847 9fbf
000002f0: 9adb b2bd 24c4 23c0 7824 0b40 9292 353e
00000300: f9c9 0fbe 9aa8 993f 3b61 93c0 b2aa 1fbc
00000310: fef4 963e cbed d23e 258d 8f3e dc72 1dc0
00000320: f569 213f dc8c 25c0 8875 53bc 4b54 b8c0
00000330: b1b6 70bf 394b 25c0 b18a dcbf 7374 c3be
00000340: 6f74 9ebe 2f4e 77c0 a0c8 1a3e bb2e b2be
00000350: 7a95 c3be 8b5c 2cc0 2ca7 90bf be05 743f
00000360: 8106 dabc eeb7 b93e 3f3f aec0 d849 aa3e
00000370: 9fa5 10c0 8705 03c0 3fff ab3f 63a7 fa3f
00000380: 2dac 4940 f08c 32bf 8ebb bf3e 17ec a63f
00000390: a793 45c0 fe15 983c c2de 53bf 00bb ccbf
000003a0: 5514 d43f 8ebc 9ec0 4f6f 1840 a96b a9bf
000003b0: abec b7c0 f9ae f73f bd5e 0a3f 28f5 3b3f
000003c0: 38b8 373f 3f93 aac0 57a1 203f 04d0 3540
000003d0: 1996 f23f b5b2 d93e 9e98 683f 4e03 683f
000003e0: a438 5bc0 4d0a 833f ffba f2be c9c4 3b3f
000003f0: 15bf a7c0 877f 32be 9105 91bf ea9c 81bf

FC2.bias f4 [256]
-0.46394494 -0.07968408 -1.3046235 -0.5318511 -2.0504851 -1.4384178 -0.51421416 -0.24501188
-1.3471409 -1.6689904 -1.4207656 -0.107342705 -2.258053 -0.063391104 -2.3486435 -1.2239785
-1.0232124 -0.21620278 -0.12148763 -2.4339254 -1.5306562 -0.35964596 0.7930081 -1.6512576
0.07334002 -0.17578202 0.20536545 -0.05389265 -1.4074131 -1.0665324 -2.6915958 -1.2536595
-1.937556 -0.099364646 -0.5626736 -1.3348464 -0.12417023 -0.8163087 -2.4346688 1.0292169
-0.10450087 -2.7047472 1.0310768 -0.7482477 -0.47444436 -1.8814023 -1.4485524 0.66537213
-0.0738465 -2.4166775 -0.45381814 -1.1116288 -0.38895974 -0.4140433 -1.671335 -0.07543421
-0.49104184 -0.4333967 -1.271802 -0.24795865 -0.32651585 -0.29706457 -1.2783314 -0.04773733
0.7373295 -0.82699984 -0.15578775 -0.19119564 -0.43291363 -0.09556439 -1.0827129 -0.82483816
-0.12285963 -0.9723238 0.1112515 0.057747174 -2.324509 -0.44774234 -0.9174811 -0.8478823
-0.40909916 -1.6970979 -0.08569926 -0.16183452 -0.14697567 -3.3972557 -1.1404561 -0.038931157
-0.58690137 1.7402447 -1.5544147 -0.8167411 -0.7449361 -2.231051 -1.548024 -0.2661714
-1.1341151 -1.5771302 -1.8141068 -2.3441765 -1.0054573 -1.6317996 -0.2755664 -1.1956402
-1.0815126 -1.1484784 1.6025543 0.20683853 -1.902898 0.030869847 -0.1965437 0.5806303
0.23243079 0.38634068 -0.09719084 -1.5633727 -1.3165174 -1.020744 -1.862499 -0.9960116
-0.058486782 -1.1589277 0.41823748 -0.78496313 -0.078337885 -0.1782651 -0.19805047 -0.21985784
-0.74445856 -1.6790539 -2.3000996 -0.0406999 -0.6055287 -1.0682607 -1.3658153 -1.4334004
-0.12839217 1.232801 -2.5491168 -0.104205824 -1.3407036 -0.09468732 0.30163243 -0.44202727
-0.9654504 -0.5153539 -1.4474196 -0.46245462 -0.9374288 -2.6467693 -1.9008297 -0.73151374
0.38353175 -0.13006425 0.565925 -3.007478 -1.8235955 -1.8629671 0.1789997 -0.28044298
-0.5857907 0.6160367 -2.113361 1.3303895 -0.6213537 -0.9511997 -0.4715197 -1.4933558
-0.57057697 -1.0672702 -1.9360023 -1.3079029 -1.5303804 -2.1902704 -1.8735399 -3.3155677
-1.1513345 -1.2525711 -1.2618124 0.8086152 -0.04768807 -1.5331702 -0.5255287 -0.6654826
1.8668184 -1.6381663 -2.0478766 0.28630507 -0.20405371 -0.56348896 -2.051327 -2.2230136
0.35586104 -1.0883663 -0.56835073 -0.054711107 -1.209771 -1.7883391 -0.055384524 -2.328708
-0.5296376 -0.05955517 -0.20894922 -2.294443 -0.95437056 0.1688704 -2.0620418 -1.9518528
-0.32400906 1.0882365 -1.3665224 -0.9636015 0.60052645 -1.3854201 -1.2669712 -2.3035314
-4.052154 0.4451503 -0.11971856 -3.388833 -1.8458223 -0.631005 -1.3493257 -0.16398054
0.03258016 0.104243904 -1.4214773 -1.5634493 -1.7798774 -2.1261194 0.20022313 -1.2934519
-0.3960899 -0.36985898 0.22115026 -0.74218297 -1.9444102 -1.4940192 -2.1576035 -1.4244794
-0.104531825 -1.2902316 -1.6876811 0.46846804 -2.3764362 -0.22228663 -0.10868684 -1.0547913
-2.0709116 -0.13456665 -1.7211082 -0.66297895 -0.070458755 -0.20958695 0.007359024 -0.3856192
00000000: 318a edbe 6831 a3bd e7fd a6bf 6527 08bf
00000010: 263b 03c0 131e b8bf 8aa3 03bf 65e4 7abe
00000020: 1d6f acbf 7aa1 d5bf a6db b5bf 7ed6 dbbd
00000030: f183 10c0 32d3 81bd 2d50 16c0 54ab 9cbf
00000040: a0f8 82bf 4364 5dbe 82ce f8bd 6fc5 1bc0
00000050: 8bec c3bf 8423 b8be 9402 4b3f 695c d3bf
00000060: 4b33 963d 3400 34be 524b 523e 8abe 5cbd
00000070: 1d26 b4bf 2284 88bf 1b43 2cc0 ea77 a0bf
00000080: d601 f8bf b17f cbbd 610b 10bf 3fdc aabf
00000090: f64c febd 9bf9 50bf 9dd1 1bc0 61bd 833f
000000a0: 8d04 d6bd 941a 2dc0 53fa 833f 298d 3fbf
000000b0: 5fea f2be cad1 f0bf 2a6a b9bf d455 2a3f
000000c0: d53c 97bd d8aa 1ac0 da5a e8be da49 8ebf
000000d0: bb25 c7be 7cfd d3be 4eee d5bf 407d 9abd
000000e0: d669 fbbe 2ce6 ddbe 68ca a2bf dfe8 7dbe
000000f0: 162d a7be d918 98be 5da0 a3bf 3888 43bd
00000100: a0c1 3c3f 43b6 53bf d386 1fbe cac8 43be
00000110: dba6 ddbe 43b7 c3bd 5696 8abf 9828 53bf
00000120: d49d fbbd 36ea 78bf d4d7 e33d 4d88 6c3d
00000130: c1c4 14c0 7c3e e5be 0be0 6abf d00e 59bf
00000140: 7275 d1be 813a d9bf 1883 afbd f3b7 25be
00000150: ca80 16be a36c 59c0 77fa 91bf 4776 1fbd
00000160: 2b3f 16bf 57c0 de3f 10f7 c6bf f215 51bf
00000170: 22b4 3ebf 8ac9 0ec0 a725 c6bf 9e47 88be
00000180: af2a 91bf 67df c9bf a734 e8bf fd06 16c0
00000190: d3b2 80bf cfde d0bf 0a17 8dbe bd0a 99bf
000001a0: 016f 8abf 5701 93bf 8020 cd3f 7bcd 533e
000001b0: 2992 f3bf c3e2 fc3c c042 49be 30a4 143f
000001c0: 5602 6e3e 72ce c53e fe0b c7bd 991c c8bf
000001d0: a483 a8bf bda7 82bf 5e66 eebf 9efa 7ebf
000001e0: d68f 6fbd be57 94bf 3923 d63e 58f3 48bf
000001f0: 9d6f a0bd 208b 36be becd 4abe 6a22 61be
00000200: d694 3ebf 3deb d6bf d534 13c0 f0b4 26bd
00000210: ee03 1bbf c4bc 88bf 09d3 aebf aa79 b7bf
00000220: 3d79 03be 6ccc 9d3f bb24 23c0 dd69 d5bd
00000230: 2d9c abbf 6deb c1bd 916f 9a3e 6651 e2be
00000240: c227 77bf 3cee 03bf 0c45 b9bf dac6 ecbe
00000250: 55fb 6fbf ab64 29c0 634e f3bf 7c44 3bbf
00000260: 465e c43e 902f 05be 76e0 103f 857a 40c0
00000270: 946b e9bf b575 eebf b34b 373e 3996 8fbe
00000280: 61f6 15bf 95b4 1d3f 4e41 07c0 344a aa3f
00000290: 0911 1fbf d381 73bf 086b f1be 4826 bfbf
000002a0: 5511 12bf 4f9c 88bf ecce f7bf 5d69 a7bf
000002b0: 81e3 c3bf 642d 0cc0 28d0 efbf 4332 54c0
000002c0: ee5e 93bf 4054 a0bf 1283 a1bf 6801 4f3f
000002d0: 9154 43bd ec3e c4bf 0d89 06bf 115d 2abf
000002e0: e8f3 ee3f 6faf d1bf 6910 03c0 9496 923e
000002f0: 75f3 50be d040 10bf f148 03c0 db45 0ec0
00000300: 6b33 b63e 964f 8bbf 6f7f 11bf c118 60bd
00000310: c7d9 9abf 4ce8 e4bf e2da 62bd 8d09 15c0
00000320: 5496 07bf 1ff0 73bd c9f6 55be 27d8 12c0
00000330: a151 74bf 5dec 2c3e 7ef8 03c0 50d6 f9bf
00000340: 84e4 a5be 554b 8b3f 35ea aebf 97ae 76bf
00000350: 1abc 193f 7255 b1bf 1d2c a2bf 0f6d 13c0
00000360: 3fab 81c0 bdea e33e 012f f5bd a4e2 58c0
00000370: e843 ecbf 8b89 21bf b4b6 acbf 84ea 27be
00000380: c672 053d d47d d53d f8f2 b5bf 1b1f c8bf
00000390: 06d3 e3bf 5712 08c0 4b07 4d3e d58f a5bf
000003a0: 4ccc cabe 285e bdbe 3775 623e b4ff 3dbf
000003b0: 6fe2 f8bf 053c bfbf 2d16 0ac0 5755 b6bf
000003c0: c814 d6bd 4f26 a5bf ef05 d8bf 0bdb ef3e
000003d0: 8817 18c0 1b9f 63be 3597 debd 6703 87bf
000003e0: d189 04c0 d7cb 09be 464d dcbf fdb8 29bf
000003f0: ae4c 90bd f69d 56be f823 f13b e16f c5be

action_out.weight f4 [5, 256]
1.6869346 -0.06408668 2.9212592 1.5030986 -0.0016264885 -3.2763734 -1.1925037 1.1193867
-0.7943328 -0.48706055 2.904317 0.5545882 -2.6364362 -0.009963875 2.0818555 -0.20756365
3.366314 0.0638557 0.4204607 1.7961107 -0.91404116 1.1991763 1.5982983 3.4006252
0.90925753 1.8715885 0.5585952 0.69261706 1.3047982 0.259347 0.44662142 1.2772949
1.1959163 0.028958065 2.0866241 2.5824788 -0.056053955 0.3828058 4.909829 3.105979
2.5927286 -0.06039706 1.6311079 1.7741519 1.7411392 -0.4162365 0.9780128 1.1638614
2.3420882 0.2481572 1.8832387 1.839771 1.486212 2.3193235 4.9190965 0.77119607
1.794267 0.76153857 1.8766757 0.82763743 1.708734 2.5185888 0.87924284 1.0489602
3.3352869 -0.817043 2.2264242 0.93510103 2.4695222 1.4784304 2.3951504 0.44657123
2.3340318 -0.51574117 -0.21900032 2.9518924 2.9157526 -0.27198824 -1.1447912 1.5225755
-0.81043804 1.4773848 0.39395213 1.2739865 0.34943837 -2.9060466 3.0513456 1.1341274
0.30187675 2.8228858 1.322677 1.4015285 2.0681357 0.5365272 1.6659495 0.25920263
2.4893816 1.9412541 -0.06886092 2.4011214 -0.32876605 0.81986594 1.6952071 2.5135992
1.4020343 0.87913454 1.7145059 2.9691126 0.47591776 1.7844656 0.35338432 1.1513815
0.48063526 1.3730667 1.6931665 1.3420552 0.761273 2.3869278 -0.7597247 1.4856488
0.01757665 1.5043871 2.0397565 1.856921 0.06359462 2.0389016 0.38574132 0.72743636
4.231795 1.5678904 -2.0517225 -0.019755898 2.3814216 0.120410986 -2.2707582 0.9441377
1.3990202 1.7119797 2.0385606 0.25889012 -0.9166107 0.47287238 1.8121723 2.391928
-4.623912 2.8750587 -0.34546155 1.1841305 1.5878556 2.6406763 -0.21845314 -1.2914431
2.7524748 0.371688 1.697875 1.2356396 -0.5369291 2.8325384 2.0934947 -0.49975497
1.2678387 1.9046469 2.7147002 1.3353342 0.04951466 -0.73865837 1.4394691 1.3854129
1.928417 0.98499453 -0.7450674 2.9194736 0.97000116 -1.5726618 -0.9430441 0.052451912
2.8080482 2.392552 -1.596983 1.6123317 -0.0012287458 -0.6591162 2.585449 1.6342701
3.133117 2.0979853 0.6953412 2.7836094 0.24078576 2.615051 -1.0289804 0.5891152
2.0993335 -0.702803 1.6402903 -0.017060097 -5.2528586 0.43513283 1.8963284 -3.646181
2.1245954 -0.03535526 0.1433826 0.7115337 -2.6883314 1.9395756 -3.4852293 2.2057557
-0.1284102 2.120321 -0.33398145 2.0082984 0.4795183 2.8441179 2.3897202 -1.0546227
-0.47455892 1.8307353 -0.0374056 -2.4952197 -2.8424363 0.656987 1.0983038 0.20378156
-0.023118991 -0.7992951 -0.14537878 0.9588292 0.22063392 1.6409591 3.1721704 2.6142676
2.0286295 1.5989839 1.4388531 1.5076157 1.902873 0.3180692 -0.3441203 1.6815436
0.034885857 1.7503315 -2.3695686 0.28397232 -1.0006543 0.20450677 0.29119328 1.8719115
0.030307092 0.058357876 2.821556 1.8473676 0.6173445 0.09322062 2.5147903 2.1879423
00000000: 79ed d73f e13f 83bd e9f5 3a40 8965 c03f
00000010: e62f d5ba 1ab0 51c0 f6a3 98bf 1048 8f3f
00000020: 6559 4bbf 0060 f9be 54e0 3940 7ef9 0d3f
00000030: 5fbb 28c0 853f 23bc 1f3d 0540 918b 54be
00000040: b071 5740 c7c6 823d a046 d73e f5e6 e53f
00000050: 9afe 69bf 9c7e 993f 0a95 cc3f d8a3 5940
00000060: 1ac5 683f 3690 ef3f 1800 0f3f 5a4f 313f
00000070: a103 a73f 21c9 843e 90ab e43e 667e a33f
00000080: c913 993f 7739 ed3c 408b 0540 5547 2540
00000090: d598 65bd 1fff c33e 521d 9d40 5cc8 4640
000000a0: 44ef 2540 e862 77bd 25c8 d03f 6917 e33f
000000b0: a6dd de3f f31c d5be 0c5f 7a3f 69f9 943f
000000c0: c6e4 1540 ec1c 7e3e f70d f13f 9e7d eb3f
000000d0: 323c be3f cc6f 1440 3d69 9d40 1b6d 453f
000000e0: 8baa e53f 31f4 423f e936 f03f 0ce0 533f
000000f0: ccb7 da3f 8f30 2140 0f16 613f 5444 863f
00000100: 5775 5540 bb29 51bf bc7d 0e40 c862 6f3f
00000110: a70c 1e40 353d bd3f 254a 1940 fca4 e43e
00000120: c760 1540 9d07 04bf 9f41 60be ceeb 3c40
00000130: b19b 3a40 0b42 8bbe 8588 92bf c1e3 c23f
00000140: de78 4fbf f21a bd3f 18b4 c93e fd11 a33f
00000150: 96e9 b23e abfc 39c0 3f49 4340 162b 913f
00000160: 978f 9a3e 29aa 3440 7b4d a93f 4965 b33f
00000170: 565c 0440 d959 093f d53d d53f 35b6 843e
00000180: 0752 1f40 047b f83f f406 8dbd f9ab 1940
00000190: 0654 a8be bce2 513f 8cfc d83f cfde 2040
000001a0: dc75 b33f f60e 613f ee74 db3f f105 3e40
000001b0: 7eab f33e 5e69 e43f caee b43e 7860 933f
000001c0: d315 f63e a6c0 af3f aeb9 d83f 77c8 ab3f
000001d0: cae2 423f 6dc3 1840 517d 42bf bd29 be3f
000001e0: e8fc 8f3c c28f c03f 5f8b 0240 96af ed3f
000001f0: e53d 823d 5d7d 0240 e37f c53e 4539 3a3f
00000200: dd6a 8740 a2b0 c83f 6c4f 03c0 1fd7 a1bc
00000210: 3669 1840 099a f63d 1a54 11c0 02b3 713f
00000220: 1813 b33f 2722 db3f c777 0240 3f8d 843e
00000230: 00a7 6abf 541c f23e 43f5 e73f 5915 1940
00000240: 16f7 93c0 f600 3840 56e0 b0be 9791 973f
00000250: da3e cb3f d700 2940 2eb2 5fbe 024e a5bf
00000260: 8c28 3040 e44d be3e f853 d93f 7029 9e3f
00000270: 2f74 09bf 4f48 3540 d1fb 0540 e2df ffbe
00000280: 8a48 a23f 78cb f33f a6bd 2d40 3bec aa3f
00000290: e2cf 4a3d b718 3dbf 8640 b83f 3655 b13f
000002a0: 5ed6 f63f 9a28 7c3f bdbc 3ebf a8d8 3a40
000002b0: ff51 783f fb4c c9bf 576b 71bf d1d7 563d
000002c0: 10b7 3340 921f 1940 f069 ccbf e360 ce3f
000002d0: de0d a1ba d7bb 28bf ff77 2540 c32f d13f
000002e0: fd84 4840 6445 0640 e201 323f a826 3240
000002f0: 8b90 763e ff5c 2740 a1b5 83bf 41d0 163f
00000300: 7b5b 0640 e6ea 33bf 08f5 d13f 9ec1 8bbc
00000310: 6b17 a8c0 bbc9 de3e e4ba f23f 085b 69c0
00000320: 5ff9 0740 add0 10bd e3d2 123e 1327 363f
00000330: 9f0d 2cc0 0344 f83f ff0d 5fc0 1a2b 0d40
00000340: f77d 03be 57b3 0740 9eff aabe f687 0040
00000350: 6c83 f53e 0706 3640 2df1 1840 e0fd 86bf
00000360: 63f9 f2be 8955 ea3f 9d36 19bd aeb1 1fc0
00000370: 7aea 35c0 4d30 283f 3895 8c3f 1dac 503e
00000380: 0a64 bdbc 9b9e 4cbf 2dde 14be d575 753f
00000390: dced 613e f30a d23f d704 4b40 2950 2740
000003a0: 11d5 0140 81ab cc3f 572c b83f 8df9 c03f
000003b0: 5891 f33f f7d9 a23e 8930 b0be d23c d73f
000003c0: 79e4 0e3d dd0a e03f 03a7 17c0 d264 913e
000003d0: 7115 80bf 396a 513e 4917 953e cc9a ef3f
000003e0: 9446 f83c ab08 6f3d 6094 3440 8b76 ec3f
000003f0: 4a0a 1e3f 74ea be3d 53f2 2040 3f07 0c40

action_out.bias f4 [5]
1.9437895 -2.9422517 5.8547287 1.9942689 1.8601155
00000000: 18ce f83f da4d 3cc0 f059 bb40 3444 ff3f
00000010: 4418 ee3f

weight f4 [256, 123]
-12.042003 -0.29062855 -0.11013283 -0.29209244 -0.12376553 -0.31576392 -0.28875425 -0.030911347
1.4979913 0.07118898 0.052782573 0.061747003 0.15999211 -0.030633884 -0.16489819 -1.855134
-0.49172834 -1.0556024 -0.869316 -0.30427003 -0.18684772 -1.0369959 0.100373074 0.9179584
-0.9973151 -1.2569566 -0.013793232 -1.4987795 0.03792212 -0.20582652 -0.06124985 -0.29821768
-1.5283158 -0.014484003 -0.026064321 -0.6219392 -12.103566 0.16130787 0.1167004 -0.43332043
-0.021122208 -0.35126975 -0.32064453 1.1853294 0.1690795 0.90903056 0.9238742 0.06145518
0.147272 -0.0068208766 -0.22416037 -1.4922204 1.9409146 0.028718613 0.06393174 -0.4131229
-0.15513045 -0.98333603 0.25544298 1.8686209 -1.434715 0.1214821 0.3921703 -1.4093914
-0.24438702 0.03376588 -0.30513835 -0.2580964 -0.054169737 -1.5173306 0.07670093 1.6022538
-12.020534 -0.29906863 -0.03824416 -0.3151647 -0.02879866 -0.38033396 -0.39848748 1.1141303
-0.5324162 1.2522914 0.15126412 0.14033747 0.13078402 -0.03390097 -0.27813238 -1.391457
0.2959461 0.03364173 -0.5329515 -0.31881073 -0.033240594 -1.0121112 0.23820455 3.310564
-2.2510924 -0.02606982 0.038905166 -1.39536 -0.1008849 -0.049219914 -0.30021945 -0.17686106
-0.0073762983 -0.0075319335 -1.4567242 -8.374503 0.31307963 0.41635364 -0.38937277 0.38374242
-0.5994633 0.15392962 -0.07905139 0.31605652 -0.048079755 0.07407034 -0.05617483 -0.014166277
0.04982466 0.07190013 -0.03700971 2.4851613 0.255046 0.24955404 0.3618889 0.21576118
0.022346001 0.8797944 1.1160604 -1.8076177 -0.08090423 0.009153888 1.3822552 -0.023365436
-1.4817641 0.03726588 0.31325984 -0.15421447 0.17962182 -0.11272194 0.030355494 0.38058984
-0.34393293 -0.52354914 -0.64874953 0.016648393 0.0192389 -0.28170332 0.44278547 -0.005549351
0.07056795 0.11615855 0.019821703 0.42566958 0.061889358 0.06298939 2.7581332 2.5390334
1.4685053 -0.11016159 0.35950637 0.16967776 0.015749197 0.7713408 0.18408854 -0.8756307
-0.2431845 0.1987519 1.5343732 -0.07561214 -1.530684 0.040527824 1.6225258 -1.8910923
0.0054571554 -0.033712078 0.09312822 0.393977 -0.24390283 -0.6677099 -0.46565148 -0.2902641
-0.012298475 0.03507082 0.40816852 0.07251396 0.0806046 0.11393146 0.047126632 0.08797792
0.36664882 0.042632826 2.2075212 2.5092034 -0.066109166 0.44048846 0.21475782 0.17771843
-0.054366704 0.899239 -0.10902038 -0.11972059 -0.11540663 0.16977383 1.4755806 -0.12836047
-1.534534 0.026044607 -0.47091168 -0.26305163 -0.068172015 -0.13857716 -0.023121396 0.4092843
-0.19203016 -0.51796776 -0.16037995 0.40945652 0.0016036034 0.07631341 0.42684367 0.14237396
0.07038084 0.07600407 0.11564614 0.04379534 0.06620043 0.38446257 1.0855217 0.0449955
0.06473078 -0.0035807746 0.076956004 -0.019830255 0.005930667 -0.14490005 0.30901986 0.15692578
-0.12959494 0.070063956 0.00086677476 0.10467769 0.055381414 0.07269161 -0.05086512 -0.02661424
0.058117777 0.07230186 -0.008201131 -0.048385624 0.033485916 -0.0075618546 0.076004416 0.0516342
00000000: 0bac 40c1 44cd 94be 528d e1bd 248d 95be
00000010: c878 fdbd cfab a1be 99d7 93be cb39 fdbc
00000020: 2ebe bf3f 87cb 913d 8a32 583d 6dea 7c3d
00000030: f9d4 233e e9f3 fabc 12db 28be 0875 edbf
00000040: d1c3 fbbe fb1d 87bf 7e8b 5ebf 48c9 9bbe
00000050: 0255 3fbe 48bc 84bf 6690 cd3d 52ff 6a3f
00000060: 0b50 7fbf f4e3 a0bf 02fd 61bc 02d8 bfbf
00000070: 3a54 1b3d 30c4 52be 1fe1 7abd fdaf 98be
00000080: da9f c3bf 504e 6dbc d884 d5bc 6837 1fbf
00000090: 35a8 41c1 e42d 253e 9f00 ef3d 2ddc ddbe
000000a0: 7b08 adbc a1d9 b3be 852b a4be e0b8 973f
000000b0: 2d23 2d3e 3ab6 683f 0583 6c3f 6db8 7b3d
000000c0: 79ce 163e a981 dfbb 4c8a 65be 1401 bfbf
000000d0: e46f f83f 4c43 eb3c a5ee 823d d884 d3be
000000e0: 84da 1ebe e9bb 7bbf 6cc9 823e f82e ef3f
000000f0: bea4 b7bf 9bcb f83d 8cca c83e f066 b4bf
00000100: 9740 7abe 174e 0a3d 183b 9cbe 3625 84be
00000110: 16e1 5dbd e437 c2bf 6115 9d3d a716 cd3f
00000120: 1b54 40c1 861f 99be e9a5 1cbd 445d a1be
00000130: 2beb ebbc 22bb c2be 8d06 ccbe d29b 8e3f
00000140: 6e4c 08bf 164b a03f fbe4 1a3e a0b4 0f3e
00000150: 3fec 053e bedb 0abd 5e67 8ebe 431b b2bf
00000160: 3f86 973e e9cb 093d 826f 08bf 293b a3be
00000170: 4a27 08bd dc8c 81bf e5eb 733e 48e0 5340
00000180: e611 10c0 6090 d5bc 065b 1f3d 289b b2bf
00000190: be9c cebd d29a 49bd 5db6 99be 111b 35be
000001a0: e0b4 f1bb 70ce f6bb f075 babf f7fd 05c1
000001b0: f94b a03e 4e2c d53e de5b c7be e379 c43e
000001c0: 6d76 19bf ba9f 1d3e b2e5 a1bd 29d2 a13e
000001d0: 47ef 44bd 31b2 973d 9417 66bd ac19 68bc
000001e0: f114 4c3d 6040 933d 7e97 17bd e20c 1f40
000001f0: 6495 823e 188b 7f3e 8049 b93e 80f0 5c3e
00000200: f60e b73c 353a 613f 11db 8e3f 0460 e7bf
00000210: 1eb1 a5bd 30fa 153c bded b03f df68 bfbc
00000220: 72aa bdbf 1ba4 183d 9863 a03e 66ea 1dbe
00000230: c8ee 373e c3da e6bd 16ac f83c acdc c23e
00000240: fa17 b0be 5107 06bf 7314 26bf 3662 883c
00000250: e69a 9d3c 6b3b 90be c7b4 e23e 55d7 b5bb
00000260: ee85 903d 89e4 ed3d 2061 a23c 5df1 d93e
00000270: b27f 7d3d 9500 813d 4185 3040 867f 2240
00000280: fbf7 bb3f 669c e1bd 3811 b83e 02c0 2d3e
00000290: 7604 813c 9776 453f b581 3c3e 5529 60bf
000002a0: 5c05 79be 9e85 4b3e 5766 c43f 8ada 9abd
000002b0: 74ed c3bf 8100 263d edae cf3f 500f f2bf
000002c0: f0d1 b23b ad15 0abd 02ba be3d 5ab7 c93e
000002d0: aac1 79be 09ef 2abf df69 eebe 7f9d 94be
000002e0: 8b7f 49bc 6ca6 0f3d 77fb d03e 3382 943d
000002f0: 0614 a53d e654 e93d db07 413d c52d b43d
00000300: 65b9 bb3e c29f 2e3d 0748 0d40 ca96 2040
00000310: 3e64 87bd b487 e13e 79e9 5b3e d2fb 353e
00000320: 9faf 5ebd 8734 663f 1446 dfbd 1230 f5bd
00000330: 505a ecbd 31d9 2d3e d3df bc3f ed70 03be
00000340: 9c6b c4bf 805b d53c 561b f1be b4ae 86be
00000350: c59d 8bbd 2ce7 0dbe 1569 bdbc b68d d13e
00000360: 8ea3 44be 8999 04bf a43a 24be 49a4 d13e
00000370: 0030 d23a 354a 9c3d 418b da3e 7bca 113e
00000380: d423 903d 06a8 9b3d e2d7 ec3d be62 333d
00000390: 1794 873d 47d8 c43e 60f2 8a3f 344d 383d
000003a0: 9291 843d 6eab 6abb 1c9b 9d3d 0f73 a2bc
000003b0: 0a56 c23b ae60 14be da37 9e3e 27b1 203e
000003c0: 89b4 04be b17d 8f3d 4538 633a 4261 d63d
000003d0: 9fd7 623d 57df 943d f257 50bd 1b06 dabc
000003e0: e80c 6e3d ff12 943d 095e 06bc 0130 46bd
000003f0: 8728 093d 6fc9 f7bb 34a8 9b3d 627e 533d

bias f4 [256]
-1.460242 0.32081744 -0.10051206 0.3472348 -0.0898701 0.002286746 -0.2178206 0.016551942
-0.4436566 -0.13591728 -0.038083166 -1.9003794 -0.24679224 -0.6292024 -0.10593471 -0.07535121
-0.026579289 -0.120314725 0.054196622 -0.06653019 -2.5313578 -1.6953968 -0.026686724 -0.0031965827
-0.027395217 -0.021923246 -0.11379099 -0.7955343 0.09976879 -0.6288225 0.40438816 -0.07295729
-0.023953421 -0.11294837 -0.03265708 -0.06770291 -2.112503 -0.11134272 -0.102262154 -0.17963652
0.038791526 -0.11647443 0.040830266 0.0048713903 0.05106763 0.06627519 -1.5108708 -0.1073379
-0.02329971 -0.05915204 -0.0015908412 -1.8937063 -0.12037792 -0.1903896 -0.07090787 -1.0438491
-0.16417561 -0.055835493 0.6397407 -0.043025963 0.9539884 -0.09984662 -0.067125455 -0.043274913
-0.06497322 -0.05939135 0.5205886 0.080485724 0.036674652 -0.044014994 0.25878492 -0.027829418
-0.8880672 -0.037927568 1.602855 0.025777392 0.04821401 -0.03439579 0.010475326 -0.3960142
0.031884994 -0.09531615 -0.2295506 -0.05971738 -0.008814444 -0.9294288 -0.047928378 -0.09402303
-0.072008006 0.01386395 -0.05736076 0.0185967 -0.1019752 -1.7811145 0.0054149344 -0.022287972
0.0058355317 -0.117308296 -0.14814018 -1.2101158 -0.116187386 -0.053322077 -0.066016 -0.12184666
-0.99661624 -1.8845029 -0.011502704 0.046152018 -0.008973297 0.15714991 -0.06308604 -0.11241479
-0.07189062 -0.10639899 -0.06814281 -0.058396343 -0.022586307 0.029965745 -0.08973214 -0.06327165
-0.0700993 -0.12981962 -0.08891595 -0.021500414 -0.101076946 -0.51673687 -0.0708191 -0.0023858787
-0.03137775 -1.9049637 -0.31102133 -0.113794826 -0.08507499 -1.5319433 -0.04138177 -1.2321836
-0.06837962 -0.08599435 -0.092143446 -1.40898 -0.050174028 -0.09512019 -0.13614555 -0.131738
-0.07747092 -0.61426485 -0.13127252 -0.2153777 -0.46494088 -0.022522127 0.26785782 -1.6873336
0.04463285 -0.2361586 1.6778599 -0.5507998 -0.08651231 -0.11999475 1.7450022 -0.03639768
-0.08236876 -0.04956093 -0.052518003 0.00654676 -1.1990547 -0.13514651 -0.100135975 -0.07378837
-0.13539968 0.035989482 0.031370267 -0.40136647 -0.06988293 -0.77963334 -0.06724096 -0.04246653
-0.086314626 0.059612423 0.031405848 0.29355505 -0.07452543 -0.13534686 -1.1014217 -0.4317045
-0.050483026 -0.08508255 -0.11632775 -0.09374623 -0.040694553 0.0038434386 -0.6991374 1.1543039
-0.027769346 -0.13249275 -1.1198266 -0.19308466 -0.50202227 -0.057625495 -0.036023173 -0.07333466
-0.20270392 -0.053121593 -1.935971 -0.061062496 0.05610955 -0.06897818 -0.08733188 -0.05084639
-0.56525826 0.026431559 -0.8635631 -0.36495644 -0.99653256 -1.727977 -1.7418836 -2.4481266
-0.12899539 -0.03996367 -0.111267254 -0.055133566 -0.031623166 0.01454924 -0.0749379 -0.08863021
-0.014947007 -0.12603776 -0.045043707 -0.009920432 -0.045575675 0.11416107 -0.07375903 -0.06433681
0.6664672 0.60682535 -0.13767469 -1.8427111 -0.28017446 0.06309929 0.0032892022 1.0238509
-0.021767732 -0.097273916 -0.035341922 -0.07882018 0.016963605 0.011224847 0.036466632 0.27856413
-0.061571214 -2.445866 -0.0011067729 -0.073989674 0.03975705 -0.08168257 0.06760687 -0.074562654
00000000: 36e9 babf 2f42 a43e 44d9 cdbd c2c8 b13e
00000010: d10d b8bd 3bdd 153b 5d0c 5fbe f097 873c
00000020: f526 e3be e62d 0bbe 18fd 1bbd a23f f3bf
00000030: 1bb7 7cbe 6913 21bf 4cf4 d8bd bc51 9abd
00000040: cfbc d9bc 9167 f6bd 47fd 5d3d fb40 88bd
00000050: c401 22c0 c302 d9bf 1e9e dabc c27d 51bb
00000060: ef6b e0bc 6198 b3bc 400b e9bd 23a8 4bbf
00000070: 9453 cc3d 83fa 20bf f70b cf3e a26a 95bd
00000080: f739 c4bc 7a51 e7bd 6ec3 05bd d3a7 8abd
00000090: 4033 07c0 a707 e4bd d26e d1bd a3f2 37be
000000a0: dde3 1e3d 258a eebd a33d 273d 2fa0 9f3b
000000b0: 4b2c 513d 49bb 873d 3764 c1bf f9d3 dbbd
000000c0: 09df bebc 6949 72bd c683 d0ba f864 f2bf
000000d0: b388 f6bd 7ef5 42be 2538 91bd d99c 85bf
000000e0: a71d 28be c2b3 64bd 0cc6 233f fe3b 30bd
000000f0: 9538 743f 627c ccbd 1279 89bd 0941 31bd
00000100: ae10 85bd 5844 73bd 4b45 053f b3d5 a43d
00000110: 2938 163d 1149 34bd 757f 843e 85fa e3bc
00000120: 5f58 63bf f059 1bbd 5a2a cd3f 1c2b d33c
00000130: 0e7c 453d 9ae2 0cbd b4a0 2b3c 60c2 cabe
00000140: d799 023d 1d35 c3bd 500f 6bbe 369a 74bd
00000150: 756a 10bc 0cef 6dbf 8c50 44bd 258f c0bd
00000160: ef78 93bd 9f25 633c 1ef3 6abd 1b58 983c
00000170: 60d8 d0bd 8ffb e3bf c36f b13b 4495 b6bc
00000180: fd37 bf3b 553f f0bd 0fb2 17be 13e5 9abf
00000190: a7f3 edbd 4068 5abd 6633 87bd be8a f9bd
000001a0: 3e22 7fbf 6437 f1bf d675 3cbc e609 3d3d
000001b0: bc04 13bc e8eb 203e 4133 81bd ba39 e6bd
000001c0: 643b 93bd b7e7 d9bd 758e 8bbd 0131 6fbd
000001d0: eb06 b9bc b97a f53c 7cc5 b7bd 9194 81bd
000001e0: 3990 8fbd 6fef 04be 9119 b6bd a321 b0bc
000001f0: 6e01 cfbd de48 04bf 9b09 91bd 675c 1cbb
00000200: f585 00bd dad5 f3bf 303e 9fbe 430d e9bd
00000210: cc3b aebd b816 c4bf ee7f 29bd 31b8 9dbf
00000220: 9d0a 8cbd ce1d b0bd b4b5 bcbd 7559 b4bf
00000230: 4883 4dbd 60ce c2bd bd69 0bbe 54e6 06be
00000240: 13a9 9ebd 7640 1dbf 4e6c 06be f98b 5cbe
00000250: bb0c eebe 5380 b8bc a924 893e 8cfa d7bf
00000260: efd0 363d 8fd3 71be 1dc4 d63f 3701 0dbf
00000270: 5e2d b1bd cfbf f5bd 3b5c df3f bc15 15bd
00000280: f4b0 a8bd 6700 4bbd 1e1d 57bd 3486 d63b
00000290: a07a 99bf d963 0abe 1714 cdbd 5b1e 97bd
000002a0: 37a6 0abe b569 133d 1c7e 003d e87f cdbe
000002b0: c81e 8fbd 0d96 47bf a1b5 89bd 62f1 2dbd
000002c0: b9c5 b0bd 282c 743d 6ba3 003d d94c 963e
000002d0: caa0 98bd 5e98 0abe 63fb 8cbf 5f08 ddbe
000002e0: 4ac7 4ebd c33f aebd 3e3d eebd 06fe bfbd
000002f0: 55af 26bd 33e2 7b3b abfa 32bf 3bc0 933f
00000300: 8a7c e3bc 2eac 07be 7a56 8fbf fcb7 45be
00000310: 8884 00bf b608 6cbd 098d 13bd 7b30 96bd
00000320: 9e91 4fbe 0796 59bd e6cd f7bf ab1c 7abd
00000330: 21d3 653d 6f44 8dbd 0fdb b2bd 4e44 50bd
00000340: c4b4 10bf ff86 d83c 7912 5dbf 92db babe
00000350: c21c 7fbf 5a2e ddbf 0bf6 debf 1bae 1cc0
00000360: 5e17 04be f2b0 23bd 16e0 e3bd bcd3 61bd
00000370: 4b87 01bd ef5f 6e3c 0b79 99bd c183 b5bd
00000380: 4be4 74bc 0b10 01be c07f 38bd 4f89 22bc
00000390: 8fad 3abd 47cd e93d f90e 97bd 04c3 83bd
000003a0: 989d 2a3f e858 1b3f 98fa 0cbe f5dd ebbf
000003b0: 0773 8fbe 333a 813d a88f 573b 8c0d 833f
000003c0: 3e52 b2bc 8c37 c7bd b1c2 10bd 796c a1bd
000003d0: 42f7 8a3c 6ce8 373c 095e 153d f59f 8e3e
000003e0: 1932 7cbd 1289 1cc0 2311 91ba e687 97bd
000003f0: 4ad8 223d 3149 a7bd 7875 8a3d 4eb4 98bd

weight f4 [256, 256]
-0.8059109 0.013758688 0.040988266 -0.2761846 0.04222545 0.015398653 0.017420473 0.031097557
-0.1347987 -0.04953384 -0.004772755 -2.5848002 -0.00684038 -0.095681734 -0.027500365 -0.0032406796
0.019398166 -0.06615665 0.026356457 -0.024066016 -0.9402235 1.1740695 0.17971964 -0.061690856
-0.048737604 0.028163934 0.014572457 1.2191718 0.03745727 -2.7828076 -1.1044766 -0.050649226
-0.02204993 -0.051604174 0.016571483 -0.019705772 -0.4509603 0.007988565 -0.03514344 -0.035615552
-0.06348227 -0.013114746 0.06076449 -0.05022673 -0.17488743 0.028725818 1.6791631 0.0022528407
-0.015414608 0.030346174 -0.035313997 -0.005426466 0.057598423 -0.66753274 0.034629513 0.637455
0.013712452 -0.011969526 0.055586632 -0.0073482203 0.11741617 0.027547963 0.0347919 -0.06216313
-0.00919953 -0.050347786 0.86437625 -0.008992348 0.039074946 0.01967582 -0.05775894 0.038042333
2.6894946 0.03474783 -0.18995981 0.02287287 -0.008171147 -0.28462425 -0.030600477 0.031182298
0.008114074 -0.008137244 0.017521506 -0.024916714 -0.007457248 0.055103917 -0.06404487 -0.002359548
0.03999901 0.031018069 -0.028641652 -0.07323139 -0.059107553 3.495762 0.022806315 -0.018333001
-0.027120288 -0.042543933 -0.021628221 1.0718595 -0.015187009 0.053311978 -0.05068223 -0.03871527
0.8981163 -14.137862 0.02583957 -0.0060282797 0.013796912 -0.25076014 0.021968655 -0.0312238
-0.036949515 -0.548368 0.05144397 0.046621516 0.025517125 0.055043295 -0.024458015 0.07972469
0.0137822265 -0.017967729 -0.029796075 0.04179522 -0.042939894 0.23235022 0.0071943654 -0.023891447
-0.035286516 0.3569757 0.61072457 0.021760503 -0.047552954 -0.27460477 0.083683774 -0.05811098
-0.0024652658 -0.05239745 -0.07870279 0.23569837 0.031320307 0.05192153 0.029225 0.0013510692
-0.014542827 0.76685935 -0.016573893 0.66202414 -0.62799937 0.002873264 0.060941406 1.7211455
-1.5908909 -0.018770518 0.14976187 -0.34371367 -0.08444254 -0.068477124 1.1286438 -0.052380946
0.0018299714 -0.023041582 0.055014648 -0.11479536 2.5000985 0.028265638 -0.030957907 0.0031227993
0.04689771 0.056597654 0.055602796 -0.21141656 -0.025944304 -0.04214545 -0.037356585 -1.5936295
-0.024196878 -0.018348223 -0.045219116 -0.056600936 0.043600004 -0.0358905 0.020074287 -0.051903166
-0.016049767 0.028396782 -0.21980953 -0.0036811898 0.04630707 0.029119313 0.14640269 0.3339884
-0.026963681 -0.019721724 1.2576674 -0.093566604 -0.035790537 -0.02242567 0.058607288 -0.05544508
1.7969546 -0.0052120383 -0.85077393 -0.031585462 -0.03175024 -0.06906357 -0.06867627 0.003894669
-0.017810713 -0.02510363 0.45689788 -0.46857905 0.4834664 1.2411282 -1.037004 1.4933385
-0.034058925 -0.054152854 0.044370282 0.0093082795 -0.04776391 -0.051087137 0.0259237 0.055331558
0.0037011197 0.02014295 -0.042615574 0.03543837 0.043592 0.012658776 0.045600813 -0.020532683
-0.5390377 0.06681482 -0.034553457 -1.0723339 0.05251576 0.038799748 0.049729124 -0.49537495
0.0430655 -0.03367269 0.055534445 -0.03601532 -0.0056055062 0.06259544 0.27020535 -4.3515763
-0.05535084 2.3920815 0.048961163 0.026828205 0.014891827 0.060308777 -0.29070255 -0.041459464
00000000: 2d50 4ebf 1f6c 613c 50e3 273d 1168 8dbe
00000010: 98f4 2c3d a24a 7c3c 61b5 8e3c 4ec0 fe3c
00000020: ac08 0abe ffe3 4abd c564 9cbb 5e6d 25c0
00000030: 4425 e0bb c9f4 c3bd 7248 e1bc 9561 54bb
00000040: e7e8 9e3c 237d 87bd 7fe9 d73c 1826 c5bc
00000050: 7db2 70bf e947 963f 6d08 383e 8daf 7cbd
00000060: 15a1 47bd 0db8 e63c 51c1 6e3c d20d 9c3f
00000070: cb6c 193d 8519 32c0 7d5f 8dbf 9075 4fbd
00000080: 0ea2 b4bc e65e 53bd ebc0 873c 006e a1bc
00000090: 45e4 e6be 78e2 023c 91f2 0fbd 9de1 11bd
000000a0: fe02 82bd 3bdf 56bc 30e4 783d 8bba 4dbd
000000b0: b115 33be 6852 eb3c d1ee d63f 65a4 133b
000000c0: 8d8d 7cbc 8a98 f83c 69a5 10bd 7fd0 b1bb
000000d0: 53ec 6b3d 6de3 2abf add7 0d3d 4030 233f
000000e0: 31aa 603c d51b 44bc cfae 633d 57c9 f0bb
000000f0: e477 f03d 44ac e13c f481 0e3d c49e 7ebd
00000100: a0b9 16bc 7b39 4ebd c347 5d3f a454 13bc
00000110: 0d0d 203d 2f2f a13c a394 6cbd 47d2 1b3d
00000120: ae20 2c40 be53 0e3d d384 42be e35f bb3c
00000130: 46e0 05bc 45ba 91be daad fabc 0572 ff3c
00000140: e5f0 043c 1352 05bc 4389 8f3c 231e ccbc
00000150: ee5b f4bb a5b4 613d f529 83bd a5a2 1abb
00000160: 00d6 233d 9b19 fe3c e6a1 eabc 57fa 95bd
00000170: c31a 72bd 91ba 5f40 4fd4 ba3c 172f 96bc
00000180: 5e2b debc 8c42 2ebd ab2d b1bc b132 893f
00000190: efd2 78bc a95d 5a3d 2c98 4fbd e793 1ebd
000001a0: f3ea 653f af34 62c1 82ad d33c e088 c5bb
000001b0: 710c 623c a263 80be 9cf7 b33c 0ec9 ffbc
000001c0: 6058 17bd d861 0cbf eab6 523d 34f6 3e3d
000001d0: 4a09 d13c 1475 613d 2d5c c8bc b346 a33d
000001e0: d9ce 613c 0f31 93bc e616 f4bc 7731 2b3d
000001f0: bee1 2fbd 37ed 6d3e b6be eb3b ffb7 c3bc
00000200: 9888 10bd 85c5 b63e 7258 1c3f 1543 b23c
00000210: e3c6 42bd ff98 8cbe 6662 ab3d c705 6ebd
00000220: 4c90 21bb b59e 56bd ee2e a1bd ea5a 713e
00000230: b949 003d acab 543d 4469 ef3c 5c16 b13a
00000240: 0a45 6ebc e550 443f f9c5 87bc 6a7a 293f
00000250: 91c4 20bf 5f4d 3c3b b29d 793d 7f4e dc3f
00000260: 50a2 cbbf a1c4 99bc 2d5b 193e 3dfb afbe
00000270: 36f0 acbd bc3d 8cbd 6677 903f 678d 56bd
00000280: a7db ef3a b3c1 bcbc 0a57 613d d419 ebbd
00000290: 9d01 2040 578d e73c 709b fdbc e1a7 4c3b
000002a0: d017 403d f1d2 673d c2bf 633d 957d 58be
000002b0: 2689 d4bc b5a0 2cbd 3803 19bd 0dfc cbbf
000002c0: 8838 c6bc 034f 96bc ae37 39bd 62d6 67bd
000002d0: eb95 323d eb01 13bd d572 a43c 6a98 54bd
000002e0: cd7a 83bc 5ea0 e83c c015 61be 1e40 71bb
000002f0: 7bac 3d3d a08b ee3c 96ea 153e 8700 ab3e
00000300: f0e2 dcbc 748f a1bc 3ffb a03f d99f bfbd
00000310: 1999 12bd 0ab6 b7bc 320e 703d 611a 63bd
00000320: 9c02 e63f bfc9 aabb 52cc 59bf c25f 01bd
00000330: 8a0c 02bd 3371 8dbd 25a6 8cbd b43d 7f3b
00000340: c6e7 91bc 21a6 cdbc 85ee e93e 98e9 efbe
00000350: e888 f73e 4add 9e3f 8cbc 84bf b725 bf3f
00000360: 5f81 0bbd 62cf 5dbd 9dbd 353d c181 183c
00000370: 17a4 43bd bf40 51bd f05d d43c 58a3 623d
00000380: 7c8e 723b d402 a53c ab8d 2ebd d327 113d
00000390: 868d 323d c166 4f3c ebc7 3a3d 2834 a8bc
000003a0: 60fe 09bf 35d6 883d ed87 0dbd 3d42 89bf
000003b0: c41a 573d 7cec 1e3d c4b0 4b3d c9a1 fdbe
000003c0: 7365 303d 60ec 09bd 1678 633d cd84 13bd
000003d0: 65ae b7bb 0a32 803d 5b58 8a3e 1d40 8bc0
000003e0: 90b7 62bd dd17 1940 808b 483d d3c6 db3c
000003f0: d9fc 733c 5606 773d f7d6 94be 66d1 29bd
